training_results/quadrotor_fixed/ppo/distb_level1.5/seed_42/10000000steps/model_latest.pt (torch, 179995 bytes, 36 tensors)

actor.logstd f4 [4]
0	0x3e9e25bb	0.3088816
1	0x3eed22aa	0.4631551
2	0x3e8b4885	0.27203766
3	0x3ec319e2	0.38105685

actor.pi_net.fcs.0.weight f4 [64, 17]
0	0xbf783ff7	-0.969726
1	0x3e5c8c1d	0.21537824
2	0x3f47b8b9	0.7801624
3	0xbd8b7407	-0.0680924
4	0xbf4487ae	-0.7676953
5	0xbebec55b	-0.37259945
6	0xbe5ff682	-0.21871379
7	0x3d1cb244	0.038255945
8	0xbddeec15	-0.10884873
9	0x3d83fffd	0.0644531
10	0xbd451a9b	-0.048121076
11	0x3e1de9df	0.15421246
12	0x3cd96e85	0.026541958
13	0x3b92d39c	0.004480792
14	0xbd7d3c30	-0.061824977
15	0x3dd673f5	0.10471336
16	0x3f148560	0.58016014
17	0x3f94c4f4	1.1622605
18	0xbee9bb14	-0.45650542
19	0xbea388a8	-0.31940198
20	0x3d72ac7c	0.059246525
21	0x3fd16296	1.6358211
22	0xbe812e64	-0.25230706
23	0x3dad6b74	0.08467761
24	0x3f40540f	0.75128263
25	0x3ed9ab76	0.42513627
26	0x3b96fc99	0.0046077487
27	0xbd8be569	-0.06830866
28	0xbd089dd7	-0.033353653
29	0x3e31cc9c	0.17363209
30	0xbef1aed2	-0.4720369
31	0xbe551437	-0.20808493
32	0xbecffab4	-0.4062096
33	0x3e7b0cf3	0.24516658
34	0xbf3dd519	-0.74153286
35	0x3db70111	0.0893575
36	0xbf83f6ce	-1.0309694
37	0xbfa15d1d	-1.2606541
38	0xbfaa5097	-1.3305844
39	0x3e9a044d	0.30081406
40	0x3e3704a7	0.17872868
41	0x3ae2c9f5	0.001730262
42	0xbd9f9fda	-0.07794161
43	0xbf005392	-0.5012752
44	0x3dcfdc71	0.10149468
45	0xbd720da3	-0.059095036
46	0xbe3aa6c5	-0.1822768
47	0x3d79e74a	0.06101159
48	0xbc6730ad	-0.014110726
49	0xbd7b7dd2	-0.06139929
50	0xbd93e2f0	-0.07221019
51	0xbe8561bf	-0.26051137
52	0xbd328eec	-0.043593332
53	0x3f5f872d	0.87315637
54	0x3f101a56	0.56290185
55	0xbf9059cf	-1.1277407
56	0xbff02691	-1.876177
57	0x3f0a50a6	0.5402931
58	0x3e651ba5	0.22373827
59	0xbd8042dd	-0.06262753
60	0x3f2b8a7f	0.67008203
61	0x3e1e4350	0.15455365
62	0x3c72b166	0.014812803
63	0x3c48c654	0.012254316
64	0x3bd4c745	0.0064934813
65	0x3e23c935	0.15994723
66	0x3ac0defd	0.0014714893
67	0xbd53c6c2	-0.051703222
68	0xbfb3f8bf	-1.4060286
69	0xbd6ea0f4	-0.058258966
70	0xbf2cbcbd	-0.6747549
71	0x3df0926f	0.1174668
72	0xbfb5356f	-1.4156932
73	0x3f510717	0.81651443
74	0x3f09fe80	0.5390396
75	0xbfa87396	-1.3160274
76	0x3e1f48ae	0.15555069
77	0xbf506342	-0.81401455
78	0xbe078a73	-0.13236408
79	0xbd91bb41	-0.07115794
80	0xbc97fecf	-0.01855412
81	0xbe83aa80	-0.2571602
82	0x3d5a0c2e	0.05323427
83	0xbcf67e15	-0.030089417
84	0x3db484d1	0.08814395
85	0xbf99c6cb	-1.2013792
86	0x3e2a6647	0.16640578
87	0xbe8f03dc	-0.27932632
88	0xbfcf3320	-1.6187477
89	0xbfbaa15d	-1.4580494
90	0xbeb5bad5	-0.35494104
91	0x3f2d7e30	0.6777067
92	0x3e0cc904	0.13748556
93	0x3ea454bd	0.320959
94	0xbef9c668	-0.48784184
95	0xbdca2249	-0.098698206
96	0x3de47bc1	0.11156417
97	0xbdad2756	-0.08454768
98	0x3e45c18a	0.1931211
99	0x3ec71a93	0.38887462
100	0xbe4050a8	-0.18780768
101	0xbf1c1085	-0.60962707
102	0x3e982a39	0.29719713
103	0x403a92d6	2.9152122
104	0x3da33e52	0.07970871
105	0xc014e2c2	-2.3263402
106	0x3f1aa61b	0.60409707
107	0xbe7172ba	-0.23578921
108	0xbdfd4f25	-0.12368611
109	0x3f18e071	0.5971747
110	0x3ffcb5b8	1.9742956
111	0xbe295b0a	-0.16538635
112	0x3e8e883b	0.2783831
113	0xbd023547	-0.03178909
114	0xbdbae4bd	-0.091256596
115	0x3e305344	0.17219263
116	0xbc763613	-0.015027541
117	0xbd9ff053	-0.0780951
118	0x3d59cae8	0.053172022
119	0x3fa4e354	1.2881875
120	0xbebc97cc	-0.36834562
121	0xbe902d4e	-0.28159565
122	0xbf0b66a7	-0.5445351
123	0x3fe75a02	1.8074343
124	0xbf629710	-0.88511753
125	0x3eb8d9ca	0.3610366
126	0xbd87ea7e	-0.06636523
127	0xbe827705	-0.2548143
128	0x3cb04d97	0.021521373
129	0x3d6c4b04	0.057688728
130	0x3c96ab89	0.018392341
131	0x3e0e8193	0.13916616
132	0x3ca37e49	0.019957678
133	0xbdd0aa3b	-0.10188719
134	0x3bba9e1e	0.0056951186
135	0xbf75108a	-0.9572836
136	0xbd130d01	-0.035901073
137	0x3fca3f0d	1.5800492
138	0x3e29f183	0.16596036
139	0xc00be23f	-2.185684
140	0x3d83a1aa	0.06427319
141	0x3f20f8e0	0.62879753
142	0x3cb686ad	0.022281015
143	0x3f037735	0.5135377
144	0x3f1515d8	0.58236456
145	0x3e5bbe9e	0.21459433
146	0xbe1911d3	-0.14948206
147	0x3ca636d3	0.020289814
148	0xbebd35c1	-0.36955073
149	0xbdf918a4	-0.12162903
150	0x3e8a4f6a	0.27013713
151	0xbe1f47ab	-0.15554683
152	0x3ecda2cd	0.4016327
153	0x4040e821	3.014168
154	0x3e50f997	0.20407711
155	0xbec6d23e	-0.38832277
156	0xbf1b489a	-0.60657656
157	0x400df3df	2.2180097
158	0xbfc4bc69	-1.5369998
159	0x3da85cdd	0.08220837
160	0x3fd634a0	1.673481
161	0xbe4fd213	-0.2029498
162	0x3e0d3d22	0.13792852
163	0x3c17adc1	0.009257735
164	0xbd6c908b	-0.057755034
165	0xbeb13666	-0.34611815
166	0x3ca7fe9d	0.020507151
167	0xbd38e13a	-0.045136668
168	0xbd705a7e	-0.05868005
169	0x3dccd018	0.10000628
170	0xbedb9167	-0.4288437
171	0xbf845625	-1.0338789
172	0x3f8838eb	1.064237
173	0x3fc6a33c	1.5518565
174	0xbf433122	-0.76246846
175	0x3d14e4ae	0.0363509
176	0xbe40c76a	-0.1882607
177	0xbe9162c3	-0.28395662
178	0x3d8792cc	0.06619796
179	0x3f4cd8fa	0.8001858
180	0x3d1e4f2e	0.03864973
181	0xbd367fe7	-0.04455557
182	0xbe1c3c51	-0.15257384
183	0x3e297bb5	0.16551097
184	0xbe23d8b6	-0.16000637
185	0x3e80357e	0.2504081
186	0xbe87a46a	-0.26492625
187	0xbf4d8955	-0.8028768
188	0xbe34c45a	-0.17653027
189	0x3ec44f4a	0.38341743
190	0xbea1d5e6	-0.31608504
191	0xc0112ee5	-2.2684872
192	0x3ea6828c	0.32521474
193	0xbf194993	-0.5987789
194	0x3e4d5f9d	0.20056005
195	0x3cb2aa75	0.021809796
196	0x3f14afa5	0.5808051
197	0x3eaa5b95	0.33272997
198	0xbe838258	-0.25685382
199	0x3d8b3ecf	0.06799089
200	0x3da22f2c	0.079191536
201	0x3e70c437	0.2351235
202	0x3d736d07	0.05943015
203	0x3d81fedc	0.06347439
204	0xbb418a68	-0.002953196
205	0xbe3d6e76	-0.18499169
206	0xbf8fba7a	-1.1228783
207	0xbf0556d5	-0.5208562
208	0xbf62b649	-0.88559395
209	0xbf9bfc98	-1.218646
210	0xbf07761f	-0.52914613
211	0xbdd9c7ce	-0.10633813
212	0xbe975e2b	-0.29564032
213	0xbf04f95d	-0.51943
214	0xbe076d6d	-0.13225336
215	0xbda320cf	-0.07965242
216	0x3da5ea49	0.08101327
217	0xbe5ea5c5	-0.21742924
218	0xbd3be04f	-0.045868214
219	0xbe1ca352	-0.15296677
220	0xbc6520e6	-0.013984894
221	0x3ff544c7	1.9161614
222	0x3e86907d	0.2628211
223	0xbe476b16	-0.19474444
224	0xbf28a163	-0.65871257
225	0x40078357	2.1173913
226	0xbf01d231	-0.5071135
227	0xbea1c5b1	-0.3159614
228	0x3f605bf5	0.87640315
229	0x3b6a75ce	0.0035775783
230	0xbef3fb77	-0.4765279
231	0x3e5946c2	0.21218398
232	0x3c505e92	0.01271786
233	0x3d51dc87	0.051235702
234	0xbee1c9b7	-0.4409921
235	0xbe056ed4	-0.13030559
236	0xbdceb474	-0.100930125
237	0x3d3b9eee	0.045805864
238	0xbf7fbbec	-0.9989612
239	0xbcbc0952	-0.022953663
240	0xbf4ac0e8	-0.792006
241	0xbda9adee	-0.082851276
242	0xbf82ce6f	-1.0219249
243	0x3fea0226	1.8281906
244	0xbe947614	-0.28996336
245	0xbd8c4938	-0.06849903
246	0x3f110878	0.5665355
247	0xbf4eb58c	-0.8074577
248	0x3da932fa	0.08261676
249	0xbd8441b2	-0.06457843
250	0xbdab7636	-0.08372156
251	0x3bf5287f	0.007481634
252	0xbe7595fe	-0.23982999
253	0xbae0f06f	-0.0017161499
254	0x3db9590e	0.09050189
255	0x3f726700	0.94688416

actor.pi_net.fcs.0.bias f4 [64]
0	0xbe73c16e	-0.23804256
1	0x3dc84dde	0.09780477
2	0x3edbeeea	0.42955714
3	0x3f04b453	0.5183765
4	0x3e94ca19	0.29060438
5	0x3e6fb74d	0.23409767
6	0xbe17648b	-0.14784448
7	0x3e1a8c6d	0.1509263
8	0x3da2e2ef	0.079534404
9	0x3e17efbf	0.1483755
10	0xbf1a1ecc	-0.6020324
11	0xbedb5ee0	-0.4284582
12	0xbe0b0547	-0.13576232
13	0xbe1b4dbd	-0.15166374
14	0xbeb55f31	-0.35424188
15	0x3ee4df45	0.4470159
16	0x3f0baed7	0.5456366
17	0x3bf69a67	0.0075257304
18	0xbe26d244	-0.16291147
19	0xbe30db19	-0.17271079
20	0x3eb867a2	0.36016566
21	0xbeca65ab	-0.39530692
22	0x3e4620bb	0.19348423
23	0xbf35f314	-0.7107403
24	0x3ec51a4c	0.38496625
25	0xbcda56b5	-0.026652673
26	0xbed6ab49	-0.41927555
27	0xbeaea923	-0.34113416
28	0xbed48fe9	-0.41516045
29	0x3cb120c1	0.021622064
30	0x3db0e90f	0.086382024
31	0x3f0c68df	0.5484752
32	0x3ea727d1	0.32647565
33	0xbe6499ac	-0.22324246
34	0x3ec428d0	0.38312387
35	0xbe967e58	-0.29393268
36	0xbd8fbc46	-0.07018332
37	0x3e0d5993	0.13803701
38	0xbe5e067e	-0.21682164
39	0x3f1b1960	0.60585594
40	0x3ea85d2d	0.32883587
41	0xbdcda0ee	-0.100404605
42	0x3d3b04fe	0.045659058
43	0x3f13473d	0.57530576
44	0x3eb83d78	0.35984397
45	0x3ede8281	0.43458942
46	0x3eab7313	0.33486232
47	0xbdd4637c	-0.10370538
48	0xbf50d4ef	-0.8157491
49	0x3e7d79dc	0.24753517
50	0x3e89c1fc	0.2690581
51	0x3e83beb1	0.25731423
52	0xbd9c6af9	-0.07637591
53	0xbf609213	-0.8772289
54	0xbe81782f	-0.25287005
55	0x3dbee7f3	0.093215846
56	0x3ecfd509	0.4059222
57	0xbcb27e2b	-0.021788677
58	0xbe2418d3	-0.16025095
59	0xbe5c32f7	-0.21503817
60	0xbf44541b	-0.76690835
61	0x3ea8d3ad	0.32973996
62	0xbd676508	-0.056492835
63	0x3dc2bb65	0.09508399

actor.pi_net.fcs.1.weight f4 [64, 64]
0	0x3e9a3772	0.30120426
1	0xbe046ecf	-0.12932895
2	0xbeeb569c	-0.45964515
3	0x3e8070f1	0.25086167
4	0xbee3f7ce	-0.44524997
5	0xbe891e91	-0.26781133
6	0x3ed39f5d	0.41332522
7	0xbdeefee3	-0.116697095
8	0x3ed577d8	0.41692996
9	0x3d44c39b	0.048038106
10	0x3eacb092	0.33728462
11	0x3e4bb52d	0.19893332
12	0x3db56d6f	0.088587634
13	0xbd62dd16	-0.055386625
14	0xbe8825b1	-0.26591256
15	0xbf307995	-0.6893552
16	0x3d20b477	0.039234605
17	0x3d8c3e73	0.06847849
18	0xbd808cc7	-0.06276851
19	0x3e29a71a	0.1656765
20	0xbe905190	-0.28187227
21	0x3e480ed0	0.195369
22	0xbebb95ac	-0.36637628
23	0x3e3551ce	0.17706987
24	0xbeb26cea	-0.3484872
25	0x3ed989a8	0.42487836
26	0xbe851ef3	-0.26000175
27	0x3e34ecea	0.176685
28	0x3da1c5b1	0.07899035
29	0xbe024b5e	-0.12724063
30	0x3d368cc6	0.044567846
31	0x3d78747a	0.060657956
32	0xbdf0d002	-0.11758424
33	0x3e6bb932	0.23019865
34	0xbeb71f86	-0.35766238
35	0x3d9b81b0	0.07593095
36	0x3e77c142	0.24194816
37	0xbf290a7a	-0.6603161
38	0x3e5652cb	0.2093002
39	0xbe6f4367	-0.23365556
40	0x3d97fd87	0.074214034
41	0xbc2811cc	-0.010258149
42	0xbec7b429	-0.3900464
43	0xbeecb5f2	-0.46232563
44	0xbe91d3a7	-0.2848179
45	0xbeb76ae3	-0.35823736
46	0x3ca4c7ef	0.020114867
47	0x3e623835	0.22091754
48	0xbd7a8715	-0.06116398
49	0xbd32f92e	-0.043694668
50	0xbe0ca6eb	-0.13735549
51	0xbe5425b0	-0.20717502
52	0x3d7dd948	0.061974794
53	0x3e60b2cc	0.21943206
54	0xbd8097da	-0.062789634
55	0xbf776101	-0.9663239
56	0xbef21666	-0.47282714
57	0x3c8ef070	0.017448634
58	0x3eb30e1a	0.34971696
59	0x3d92f134	0.07174912
60	0x3f2a9e6f	0.66648
61	0xbeee96bd	-0.4659938
62	0x3edabdbe	0.42722887
63	0x3e079ee3	0.13244204
64	0xbdeb18e0	-0.11479354
65	0x3defcb70	0.117087245
66	0xbdd0c03b	-0.10192915
67	0xbf49edda	-0.7887856
68	0xbe3abfbe	-0.18237206
69	0x3c1764a0	0.009240299
70	0x3f865823	1.0495647
71	0xbe7d39dd	-0.24729104
72	0x3e183171	0.1486261
73	0x3eb7c5df	0.3589315
74	0xbeb1a327	-0.34694788
75	0x3e0b99f8	0.13632953
76	0xbeed784d	-0.46380845
77	0x3ee20e69	0.4415162
78	0xbf005d48	-0.50142336
79	0xbceedca4	-0.029157944
80	0xbe2d12fc	-0.16901773
81	0x3edb4c88	0.42831826
82	0xbd5e0426	-0.054203175
83	0x3efc8945	0.49323478
84	0xbd51addb	-0.051191192
85	0x3eae7778	0.34075522
86	0xbe557958	-0.2084707
87	0x3f141acd	0.57853395
88	0xbe442b9a	-0.19157258
89	0xbf553517	-0.83284134
90	0xbf2d376f	-0.6766271
91	0x3e89159b	0.26774296
92	0x3ce81893	0.02833203
93	0x3e91cea0	0.28477955
94	0xbe83f934	-0.25776064
95	0xbbd88c44	-0.006608518
96	0x3dcda976	0.10042088
97	0xbd499b2a	-0.04922024
98	0xbb72bd92	-0.0037039262
99	0xbdcdc12b	-0.100466095
100	0x3eb347e0	0.35015774
101	0x3e847ddf	0.25877282
102	0x3ed3dad9	0.41377905
103	0xbe99e1ae	-0.30054992
104	0x3e72c5f0	0.2370832
105	0x3df5e0b5	0.1200575
106	0xbd8d7006	-0.069061324
107	0xbd0529a4	-0.032510415
108	0x3d8c4ae6	0.06850223
109	0xbc7a75da	-0.015286887
110	0x3d0bd2c0	0.034136534
111	0xbe37deb1	-0.17956044
112	0xbecf4764	-0.40484154
113	0x3ed76a35	0.42073217
114	0xbe70d638	-0.23519218
115	0x3d9b2c5c	0.0757682
116	0xbced9a86	-0.029004347
117	0x3c82a920	0.015949786
118	0x3dec9e92	0.115536824
119	0xbebc8731	-0.36821893
120	0xbe69f8ce	-0.22848818
121	0x3c85ebcf	0.016347794
122	0xbdde1509	-0.10843856
123	0xbe87e6e3	-0.2654334
124	0x3e4a35b9	0.19747056
125	0x3d95712b	0.07296976
126	0xbd4af42b	-0.049549263
127	0xbda9e201	-0.0829506
128	0x3d9da98c	0.07698354
129	0xbd861b8b	-0.06548222
130	0xbe10e55e	-0.14149997
131	0xbd6d1f50	-0.05789119
132	0x3d8db15a	0.06918593
133	0x3e5b6eac	0.21428937
134	0x3dc88deb	0.09792694
135	0xbdc6beb1	-0.0970434
136	0xbd933c75	-0.07189266
137	0xbdb34778	-0.08753866
138	0x3d58abe7	0.052898314
139	0x3da60d62	0.08108021
140	0xbd5aada4	-0.053388253
141	0x3cf19be2	0.029493276
142	0xbdb9f283	-0.090794586
143	0xbddad1ab	-0.10684522
144	0xbda58827	-0.080826096
145	0xbcb22178	-0.021744475
146	0xbdcc5dd8	-0.09978837
147	0xbda1c319	-0.0789854
148	0xbcfd32e3	-0.030908054
149	0xbe140394	-0.1445449
150	0xbe667816	-0.22506747
151	0x3d3ff620	0.046865582
152	0xbe6e6581	-0.23280908
153	0xbdd82478	-0.10553831
154	0x3cad2d17	0.021139665
155	0x3d964c58	0.0733878
156	0x3dae5fa7	0.08514338
157	0xbd669596	-0.056295
158	0x3ceec3a9	0.029146032
159	0x3d4f352b	0.050587814
160	0xbcdd5e12	-0.027022395
161	0xbc99e7b2	-0.018787239
162	0x3de07b0e	0.10960971
163	0x3d68d3c2	0.056842573
164	0xbc405836	-0.011739781
165	0xbdc4ccf5	-0.09609405
166	0xbda6e2aa	-0.081487015
167	0x3e294bd8	0.16532838
168	0xbdad8dfc	-0.08474347
169	0x3e25a5a3	0.16176467
170	0xbb935a5f	-0.004496857
171	0xbe2c313d	-0.16815658
172	0x3dec6208	0.115421355
173	0x3e1bc184	0.15210539
174	0x3d98a8b0	0.074540496
175	0x3ba14dd5	0.0049226084
176	0x3d870beb	0.0659407
177	0x3cfdf292	0.030999456
178	0xbcfc0043	-0.030761844
179	0xbdbea322	-0.09308459
180	0x3a1e3098	0.0006034463
181	0xbc86101c	-0.016365103
182	0xbd5680d8	-0.05236897
183	0x3e3699de	0.17832133
184	0xbdcc0426	-0.09961729
185	0xbd342eef	-0.043990072
186	0xbdb101d5	-0.086429276
187	0xbe00acdb	-0.12565939
188	0x3d8c2a49	0.06844003
189	0x3ca1e4b2	0.01976237
190	0xbe09a401	-0.13441469
191	0xbcf8b4ab	-0.030359587
192	0xbd3f5488	-0.046711475
193	0xbdb73992	-0.089465275
194	0xbd3bd033	-0.04585285
195	0x3d8019ae	0.06254898
196	0x3d10b02c	0.03532426
197	0x3e3e3f76	0.18578896
198	0x3e88dab8	0.2672937
199	0xbd83f986	-0.06444077
200	0x3deff86d	0.11717305
201	0x3c861930	0.016369432
202	0x3e214c87	0.15751849
203	0x3d54d954	0.051965073
204	0xbd43167f	-0.047628876
205	0xbd433596	-0.047658525
206	0xbd8ca981	-0.06868268
207	0x3e039e1a	0.1285328
208	0xbe06867e	-0.13137242
209	0xbded3043	-0.11581471
210	0xbb24da8a	-0.0025154673
211	0x3ddf0e65	0.108914174
212	0x3e98486e	0.2974276
213	0xbdaeb2d1	-0.085302
214	0xbd85c915	-0.06532494
215	0x3dd3350a	0.10312851
216	0xbd7ed9e3	-0.06221951
217	0x3e18f2ff	0.14936446
218	0x3e23fcb2	0.16014364
219	0xbe1898c0	-0.1490202
220	0x3d0e4b5e	0.034739845
221	0x3dbc4c3a	0.091942266
222	0x3e86ba63	0.26314077
223	0xbcfd0530	-0.030886263
224	0x3dea1698	0.11430091
225	0xbe003f1f	-0.12524079
226	0xbe568725	-0.20949991
227	0xbdb7fa3b	-0.089832745
228	0xbd00659b	-0.0313469
229	0x3d9ca5aa	0.076487854
230	0x3b9c1898	0.004763674
231	0x3c393aae	0.011305494
232	0xbe069aff	-0.13145064
233	0xbd845f2f	-0.06463467
234	0xbd81645b	-0.063179694
235	0x3dd7455c	0.10511276
236	0xbd3befe2	-0.045883067
237	0xbd00496b	-0.031320017
238	0x3d090c36	0.03345891
239	0x3e2d03e5	0.16896017
240	0xbe3b1384	-0.18269163
241	0xbd99110b	-0.07473954
242	0xbc855515	-0.016275922
243	0x3d20b240	0.039232492
244	0xbd42564f	-0.04744559
245	0x3d0954a9	0.033528004
246	0x3e3a5680	0.1819706
247	0x3d2ac762	0.041694053
248	0xbdf87a01	-0.121326454
249	0x3b8ae43a	0.0042386325
250	0xbcb5d175	-0.022194603
251	0xbe491726	-0.19637737
252	0x3c640235	0.013916542
253	0xbd9649e9	-0.07338316
254	0x3d202b3e	0.03910374
255	0xbde229ed	-0.11043153

actor.pi_net.fcs.1.bias f4 [64]
0	0xbe832605	-0.25614944
1	0xbd1f9da9	-0.038968716
2	0x3d376da0	0.04478228
3	0x3c5e9a09	0.0135865295
4	0x3e0e83f1	0.13917519
5	0x3dea3b24	0.114370614
6	0x3e7a2808	0.24429333
7	0x3abbe45d	0.0014335025
8	0xbc441bbd	-0.011969504
9	0x3cfdc380	0.03097701
10	0x3de01518	0.10941523
11	0x3d88d05e	0.06680368
12	0xbd9db17a	-0.076998666
13	0xbd6880f1	-0.056763593
14	0x3e641054	0.22271854
15	0x3e79981a	0.24374428
16	0xbed8aa39	-0.4231737
17	0xbd103620	-0.035207868
18	0xbc8f6782	-0.017505411
19	0x3da95bdd	0.08269475
20	0xbd296667	-0.041357424
21	0x3e0160cc	0.12634581
22	0x3d1b69de	0.03794276
23	0xbdc5bdcf	-0.09655344
24	0xbc828a4c	-0.015935086
25	0xbdfc20d9	-0.12310953
26	0x3d69c602	0.0570736
27	0x3d9a22d4	0.07526174
28	0x3d2213d5	0.039569695
29	0xbd52ef0e	-0.05149751
30	0x3f0bce80	0.5461197
31	0x3cae2d4a	0.02126183
32	0xbe3a4956	-0.18192038
33	0x3db3cd2b	0.08779367
34	0xbe0babee	-0.13639805
35	0x3e79c504	0.24391562
36	0x3eb25c1d	0.34835902
37	0x3dd0ef32	0.10201873
38	0xbd519f7d	-0.05117749
39	0x3e07a11f	0.13245057
40	0xbe1c7398	-0.1527847
41	0xbd1a58a2	-0.037682183
42	0xbdf648d7	-0.12025612
43	0xbe72bcce	-0.23704836
44	0xbdc9578b	-0.098311506
45	0x3ca8fb51	0.02062765
46	0x3c992eda	0.018699098
47	0xbea81777	-0.32830402
48	0x3ec63faa	0.38720447
49	0x3e55bd19	0.20872916
50	0xbecaae0f	-0.3958592
51	0x3e120379	0.14259137
52	0xbcfb4f3d	-0.030677432
53	0xbd1e58ff	-0.038659092
54	0x3df10ccc	0.11770019
55	0x3e21095b	0.15726225
56	0x3d0512cc	0.03248863
57	0xbed812bf	-0.42201802
58	0xbd71b7f0	-0.059013307
59	0x3cdbdda6	0.026839089
60	0xbd89c283	-0.06726553
61	0xbcd401f1	-0.025879832
62	0xbe0af72a	-0.13570848
63	0x3ed619e3	0.41816625

actor.pi_net.fcs.2.weight f4 [4, 64]
0	0xbef81d99	-0.4846008
1	0x3ee2113b	0.4415377
2	0x3bbbb74b	0.0057286373
3	0x3b294eda	0.0025834353
4	0xbd7e4942	-0.062081583
5	0x3f2ddf60	0.6791897
6	0x3e0c96de	0.13729426
7	0xbb034a49	-0.002003329
8	0x3c8cb49c	0.017175965
9	0xbde38564	-0.111094266
10	0xbc743ef3	-0.014907586
11	0xba1e002b	-0.0006027247
12	0x3b4cc1c2	0.0031243418
13	0xbb6c8e16	-0.0036095432
14	0xbe648ef9	-0.22320165
15	0xbd03844e	-0.032108597
16	0xbe8c039c	-0.27346504
17	0x3de8f6ab	0.11375173
18	0x3bcd9f15	0.0062750676
19	0x3c17d6f5	0.009267558
20	0x3ca4892c	0.02008494
21	0xbd82309d	-0.063569285
22	0xbbb0bc3c	-0.005393533
23	0x3c673565	0.014111851
24	0x3c9355df	0.017985282
25	0x3dd7d128	0.1053794
26	0xba63c1cc	-0.0008688241
27	0xbba80543	-0.0051275804
28	0x3cebb690	0.028773576
29	0xbc5d19d2	-0.013494926
30	0x3eb3bc40	0.3510456
31	0xbc843edf	-0.01614326
32	0x3ddc8de6	0.107692525
33	0x3b44d8ca	0.0030036443
34	0xbc076fbc	-0.008266386
35	0x3ec138fb	0.37738785
36	0xbe761d11	-0.24034525
37	0xbcfa88e9	-0.030582862
38	0xbc490184	-0.012268428
39	0xbbd852b1	-0.0066016545
40	0xbebb8361	-0.36623672
41	0xbbc31b7b	-0.0059542037
42	0x3dd80d96	0.10549466
43	0x3dd1a3f1	0.102363475
44	0x3ef1a044	0.47192585
45	0x3d9dfd72	0.077143565
46	0xbc4fae73	-0.012675869
47	0x3e0288e5	0.12747534
48	0xbf03ac50	-0.51434803
49	0xbd1e4b16	-0.038645826
50	0x3dcfec98	0.101525486
51	0x3e77989c	0.2417931
52	0x3cb863a6	0.022508454
53	0xbc83315c	-0.016014747
54	0x3ce561df	0.02800077
55	0x3cf3366b	0.029689034
56	0x3e6b5779	0.22982587
57	0xbece1499	-0.4025009
58	0xbc84bd1b	-0.016203454
59	0x3b60b14f	0.0034285372
60	0xbd8ec058	-0.069702804
61	0xbc18ad6e	-0.009318693
62	0xbd6357d4	-0.05550368
63	0x3d37d033	0.04487629
64	0xbdb7ef9c	-0.08981249
65	0xbe0fbb4f	-0.14036296
66	0xbc01b890	-0.007917538
67	0xbc8f3347	-0.017480506
68	0x3bfae098	0.007656168
69	0x3e79d1d8	0.24396455
70	0xbd921ae4	-0.07134035
71	0xbba11ba3	-0.0049166246
72	0x383d8c3f	4.5191726e-05
73	0xbefa1f9a	-0.48852235
74	0xbb4b613e	-0.0031033303
75	0x3bd035fb	0.006354091
76	0xbb11e1ca	-0.0022259825
77	0xbbaafdab	-0.005218228
78	0xbe4d73dd	-0.2006373
79	0xbf0a1270	-0.53934383
80	0xbe41af35	-0.18914492
81	0x3ce20fce	0.027595427
82	0xbc8c1dae	-0.017103996
83	0x3cca8961	0.02472371
84	0x3b2a1f11	0.0025958458
85	0x3c34de56	0.011039337
86	0xbc83da47	-0.016095294
87	0x39ac81ed	0.000329032
88	0x3c027de5	0.007964586
89	0x3dbae702	0.091260925
90	0xbc11eaca	-0.008906076
91	0x3ac41c0a	0.001496197
92	0x3c9c9798	0.019115254
93	0x3ba71cf6	0.005099888
94	0x3e960863	0.29303274
95	0x3c7d28f1	0.015451656
96	0xbf16a5cc	-0.58846736
97	0x3b9077bd	0.004408805
98	0xbc8b0efd	-0.01697492
99	0xbe999965	-0.29999843
100	0xbe905cba	-0.28195745
101	0xbb48e101	-0.003065169
102	0xbc0def55	-0.008663018
103	0xbc576c87	-0.0131484335
104	0x3eb436ad	0.35197964
105	0x3d0bf916	0.034173094
106	0x3dde4040	0.108520985
107	0x3d0cd2fd	0.0343809
108	0x3ee13455	0.4398524
109	0xbb2986e5	-0.0025867757
110	0xbb1b0068	-0.0023651365
111	0xbe69fd92	-0.22850636
112	0x3e9358c5	0.28778663
113	0x3d1eff48	0.038817674
114	0xbf019bd6	-0.5062841
115	0xbe957d0d	-0.2919697
116	0x3c280bed	0.01025675
117	0x3c1ebafc	0.009688135
118	0x3cb347d8	0.021884844
119	0x3dddb3c9	0.10825307
120	0xbe83c033	-0.25732574
121	0xbe9c7eb4	-0.30565417
122	0xbbdcc94f	-0.006737865
123	0xbd28ca31	-0.04120845
124	0x3edc359a	0.43009645
125	0x3ceb8fe7	0.028755141
126	0xbd399f9b	-0.045318227
127	0x3dd412a9	0.10355122
128	0xbf192a73	-0.598304
129	0xbe97dd3a	-0.2966097
130	0xbc653f73	-0.013992178
131	0xbc88072f	-0.016604988
132	0x3de74f12	0.11294378
133	0xbf12e566	-0.57381284
134	0x3e6d9614	0.23201782
135	0x3b2d743d	0.0026466988
136	0x3cacaab0	0.021077484
137	0xbe0c8d98	-0.13725889
138	0xbc1cfac1	-0.009581269
139	0xbb74f6ac	-0.0037378473
140	0x3b16b68d	0.0022996992
141	0x3c0ac42f	0.008469625
142	0x3edc83fe	0.43069452
143	0x3e47d8a4	0.19516236
144	0x3ca32def	0.019919364
145	0x3da8826c	0.08228001
146	0x3b70ce7f	0.0036744175
147	0xbd1d3e67	-0.03838959
148	0x3a913d6f	0.0011080931
149	0x3dfd013c	0.12353751
150	0x3c498590	0.01229991
151	0x3b81895a	0.003953141
152	0xbc700859	-0.014650428
153	0xbddf4a8e	-0.10902892
154	0xbb1b8326	-0.0023729294
155	0xbb76b3f0	-0.0037643872
156	0xba21a49c	-0.00061661913
157	0x3a387115	0.00070358935
158	0xbbde7364	-0.006788658
159	0x3cb67453	0.022272265
160	0xbe483a85	-0.19553573
161	0x3d22f017	0.03977975
162	0x3d872bcd	0.06600151
163	0xbe03cc87	-0.1287099
164	0xbd2ed5b4	-0.042684272
165	0x3b7c2167	0.0038472058
166	0xbcdfc2e3	-0.027314609
167	0xbc92805c	-0.017883472
168	0x3df621cb	0.12018164
169	0xbd09e4cf	-0.033665475
170	0xbe26d903	-0.16293721
171	0xbeab46d5	-0.33452478
172	0x3d3883b9	0.045047496
173	0x3ca89272	0.020577643
174	0xbc80af7e	-0.015708681
175	0x3eacb7dd	0.33734027
176	0x3bf43c48	0.007453475
177	0xbd62e43d	-0.055393446
178	0xbe96d1d8	-0.29456973
179	0x3e98281a	0.29718095
180	0x3be37d1e	0.0069424054
181	0x3ace9b26	0.001576279
182	0xbcd1abf2	-0.025594685
183	0xbd2ae31f	-0.041720506
184	0xbe6f0e07	-0.23345195
185	0xbe85708c	-0.2606243
186	0x3bd2796e	0.006423167
187	0x3dbbd08e	0.09170638
188	0x3e4f0ba5	0.20219286
189	0x3c6f9ae8	0.014624335
190	0x3e4fcf72	0.20293978
191	0x3e25bc74	0.1618517
192	0xbed78d55	-0.42100015
193	0x3da0d39f	0.078528635
194	0x3b945612	0.004526862
195	0x3c854f75	0.01627324
196	0xbd1aa8d3	-0.03775866
197	0x3e8c3c7f	0.27389905
198	0x3d9af29b	0.075658046
199	0xbbc732c3	-0.0060790493
200	0xbd21bc54	-0.039486244
201	0x3f4b66be	0.7945365
202	0x3c2dc074	0.010604966
203	0x3b7ea72d	0.0038856969
204	0xbc72168a	-0.014775882
205	0xbb6daae0	-0.003626518
206	0x3f037632	0.51352227
207	0x3e0edb6d	0.13950892
208	0xbe390138	-0.18066871
209	0xbe2fda7d	-0.1717319
210	0x3c2ff5ee	0.010739787
211	0x3c5f9ab6	0.013647726
212	0xbca45afc	-0.020062916
213	0xbded4cfa	-0.11586948
214	0xbc8d93e8	-0.017282441
215	0x3c950d18	0.01819472
216	0x3c2b237a	0.01044547
217	0xbd9c605c	-0.076355666
218	0x3c483cd1	0.012221531
219	0xbbec2889	-0.0072069806
220	0xbd0b90b0	-0.03407353
221	0xbb2668fe	-0.002539217
222	0xbeae6abe	-0.34065813
223	0xbd697938	-0.05700037
224	0x3c53554c	0.012898754
225	0xbcde2eff	-0.027122019
226	0xbcd70f48	-0.026252404
227	0x3eb5c65e	0.35502905
228	0x3f03d825	0.51501685
229	0xbcd8e01b	-0.02647405
230	0x3cf0f2aa	0.029412586
231	0x3ccaf3fa	0.02477454
232	0x3d8f2e70	0.06991279
233	0x3d8983fc	0.06714627
234	0xbee2dd6d	-0.4430956
235	0x3eb2d6f5	0.34929624
236	0xbeb64051	-0.35595945
237	0x3dbbcdda	0.091701224
238	0x3d0c28e4	0.034218684
239	0x3e7630e9	0.24042095
240	0xbe8c1f7a	-0.27367765
241	0xbce08ccc	-0.027410887
242	0xbe1830da	-0.14862385
243	0xbc969a6a	-0.018384177
244	0xbb80bf3a	-0.003929046
245	0xbc7a1de0	-0.015265912
246	0x3c485e6d	0.012229544
247	0x3cb202b5	0.021729806
248	0x3e9386d1	0.28813794
249	0xbe92ce3e	-0.28672975
250	0x3c639ef7	0.013892881
251	0x3da7bfdf	0.081908934
252	0x3d3fcbe1	0.046825293
253	0xbbdc4a15	-0.0067226985
254	0xbe3516fa	-0.17684546
255	0x3e349a4d	0.17636986

actor.pi_net.fcs.2.bias f4 [4]
0	0x3e0bcc09	0.13652052
1	0x3e95f84b	0.29290995
2	0x3dc27207	0.09494405
3	0x3e0e6177	0.13904367

critic.v_net.fcs.0.weight f4 [64, 17]
0	0xbff19fc5	-1.8876883
1	0xc020e4ef	-2.513973
2	0xbf2df368	-0.67949533
3	0xbf23143b	-0.63702744
4	0x3f0bbd50	0.5458574
5	0x40dfc064	6.992235
6	0xc0a2967e	-5.0808706
7	0xbe7d136b	-0.24714439
8	0x3fb6a29c	1.4268374
9	0xc01836d8	-2.3783474
10	0x3e3d1495	0.18464883
11	0xbbbefb61	-0.0058283065
12	0x3d995e52	0.07488693
13	0x3df872d7	0.12131279
14	0xbdd63b4e	-0.1046053
15	0xbedd4a2d	-0.43220654
16	0x3e19e46c	0.15028542
17	0x3e8829ab	0.2659429
18	0x4035bd8c	2.839694
19	0xc0091ca3	-2.1423728
20	0x410cf415	8.80959
21	0xc0804476	-4.008357
22	0x3f4bd630	0.796237
23	0xc05a96d4	-3.4154558
24	0xbf420a03	-0.75796527
25	0xbf9babd6	-1.2161815
26	0xbf9e88e6	-1.2385528
27	0x3e38d4cb	0.18049924
28	0x3e2cd117	0.16876636
29	0xbdaaced5	-0.08340231
30	0x3d870bc1	0.06594039
31	0x3d97ee99	0.07418556
32	0xbdc8327a	-0.09775253
33	0xbe3b474f	-0.18288921
34	0xc039d013	-2.9033248
35	0xbff562dd	-1.9170796
36	0xbfdb7ee4	-1.7148099
37	0x40287ad7	2.6324975
38	0x40940c40	4.6264954
39	0xbde60733	-0.11231842
40	0xc0844718	-4.1336784
41	0x3f6076e5	0.8768142
42	0xbfb5e10c	-1.4209304
43	0xbfcd6cf7	-1.6048878
44	0x3bf4011e	0.0074464222
45	0xbf09070b	-0.5352637
46	0xbeb3b28b	-0.35097155
47	0xbf68b39a	-0.9089905
48	0x3ef67492	0.4813581
49	0xbf4f71da	-0.810331
50	0x3ef3a2dd	0.47585192
51	0xc034d718	-2.8256283
52	0x3f48f7bd	0.7850302
53	0xc01aa71b	-2.4164493
54	0xbf23cfe4	-0.6398909
55	0x40caad90	6.333687
56	0x407399c9	3.8062613
57	0xc02e94f2	-2.727841
58	0xbeb3c41b	-0.35110554
59	0xbcb100ea	-0.021606881
60	0xbfa1aa1b	-1.2630037
61	0x3ca576ef	0.020198314
62	0xbc70255c	-0.014657345
63	0x3e2799db	0.16367285
64	0x3da1dd86	0.0790358
65	0x3d4f90af	0.05067509
66	0x3d381503	0.044941913
67	0x3d9442c6	0.072392985
68	0xc0296120	-2.646553
69	0xc10f3383	-8.950076
70	0x3fc61ede	1.547817
71	0x3f1075a4	0.56429505
72	0x40897487	4.2954745
73	0xc02b0392	-2.672093
74	0x3fd98461	1.6993524
75	0x3b637f92	0.003471349
76	0xc0309fd5	-2.7597554
77	0x3fb3a0f2	1.4033492
78	0x3d8234dc	0.063577384
79	0xbcf32621	-0.029681267
80	0xbc969c23	-0.018384999
81	0xbdae0c28	-0.08498412
82	0xbd292349	-0.041293416
83	0xbc2f7864	-0.010709856
84	0xbd1414c6	-0.036152624
85	0x3c858943	0.016300803
86	0x405c8337	3.4455087
87	0x3f378cc0	0.7169914
88	0x3fadb788	1.3571634
89	0xc07e6fa6	-3.9755645
90	0xc0d1cba5	-6.556109
91	0x404a6834	3.16261
92	0x3ea5a30e	0.32350963
93	0xc001f5f9	-2.030638
94	0x400d6414	2.2092333
95	0xbd29e838	-0.041481227
96	0x3c4fbbb8	0.012679033
97	0xbebd2fe5	-0.36950603
98	0x3caedce0	0.021345556
99	0xbe0b6be7	-0.1361538
100	0x3dbc2aed	0.09187875
101	0xbe8dfd93	-0.27732524
102	0xc117e010	-9.492203
103	0x411758d1	9.459184
104	0xc008c4f9	-2.1370223
105	0xc0313e7d	-2.769439
106	0xbf4fd098	-0.81177664
107	0xbf2b0a3e	-0.66812503
108	0x3f07d9f5	0.5306695
109	0xbfaf6c7a	-1.370498
110	0x40102577	2.2522867
111	0x3f85a8ff	1.0442199
112	0xbd6399cb	-0.05556659
113	0x3d25a2d8	0.040438503
114	0xbd0b1432	-0.033954807
115	0xbd151b85	-0.036403198
116	0xbb67b7c8	-0.0035357345
117	0x3d50baac	0.050959274
118	0xbac4317d	-0.0014968362
119	0x40e1777e	7.0458364
120	0x410d8bfa	8.846674
121	0x3d65f5c4	0.056142583
122	0x3e5dbff2	0.21655253
123	0xc0e1d9d1	-7.057839
124	0xc038163f	-2.8763578
125	0xc03b4cb3	-2.9265563
126	0xbf24e7c1	-0.6441613
127	0x3f631a36	0.8871187
128	0x3e9dd53f	0.30826756
129	0xbd6d92ba	-0.058001257
130	0xbd6fe890	-0.0585714
131	0x3db33635	0.087505735
132	0x3da6dc4d	0.08147488
133	0x3bf8cd1a	0.0075928094
134	0xbdecacc3	-0.11556389
135	0xbe20338c	-0.15644664
136	0x41035566	8.208349
137	0x40cabd26	6.3355894
138	0xbe771793	-0.24130087
139	0xc096a875	-4.7080636
140	0x407e72fa	3.9757676
141	0x3d9cb12f	0.076509826
142	0xbfbf08d1	-1.4924566
143	0x3faeda1b	1.366031
144	0x40237b90	2.5544167
145	0x3ff9694c	1.9485259
146	0x3cc1b08b	0.023643753
147	0xbd2e8471	-0.042606775
148	0x3e12c1a0	0.14331675
149	0x3d166b74	0.03672357
150	0x3ca1bd0b	0.019743463
151	0xbd4f631f	-0.05063164
152	0x3d237993	0.039910864
153	0xc03d8640	-2.961319
154	0xbe2b558e	-0.16731855
155	0xbfe56955	-1.792277
156	0x404e5d75	3.2244542
157	0x3f882419	1.0636016
158	0x40d57450	6.6704483
159	0xc09282e0	-4.578476
160	0x3e8db11a	0.2767418
161	0x3ed6a7cf	0.41924903
162	0xbe2a4a41	-0.16629888
163	0xbd9e981e	-0.07743858
164	0xbdd70b07	-0.1050015
165	0x3df0b271	0.11752785
166	0x3df0d5f1	0.11759556
167	0x3db27595	0.08713833
168	0x3d8b0cb3	0.067895316
169	0x3e074ee7	0.13213693
170	0xc00e6d48	-2.22542
171	0x3ece0b79	0.40243128
172	0xbfc4d520	-1.537754
173	0xbf1b58c6	-0.6068233
174	0x40aea150	5.4571915
175	0xc0d68eeb	-6.704946
176	0xc01beba4	-2.4362574
177	0xbd0a77f8	-0.033805817
178	0xbf72f01e	-0.9489764
179	0xc01ff357	-2.4992273
180	0xbdee13ad	-0.116248466
181	0xbe1731f7	-0.14765154
182	0xbe8f59f7	-0.27998325
183	0xbc1bd300	-0.009510756
184	0xbdfcb021	-0.123382814
185	0x3d85e2bd	0.065373875
186	0xbe3f3893	-0.18673925
187	0xc02245af	-2.5355031
188	0xbf9cd64d	-1.22529
189	0xbe9ceff8	-0.30651832
190	0x40946495	4.637278
191	0x3f298fc8	0.6623502
192	0xc05a78a1	-3.4136126
193	0xbf677b54	-0.9042256
194	0xbffbb71b	-1.9665254
195	0x40714609	3.7698996
196	0x40273d0d	2.6131012
197	0x3ecff095	0.40613237
198	0xbec108a9	-0.3770192
199	0xbf9c988f	-1.2234057
200	0xbe4107aa	-0.1885058
201	0x3de6b538	0.112650335
202	0x3f91b8ec	1.1384559
203	0xbea7d00a	-0.3277591
204	0xc035c652	-2.8402295
205	0x4064f9c3	3.5777442
206	0x4050d0ee	3.262752
207	0x40f22197	7.5666003
208	0xc06ca506	-3.6975722
209	0xbe7a1d90	-0.2442534
210	0x3fa2e0a9	1.2724811
211	0xbd76d3d3	-0.060260605
212	0xbf80cd29	-1.006261
213	0x3dfd833a	0.12378545
214	0xbcb7da76	-0.022443037
215	0x3cea746b	0.028619966
216	0xbce4eda6	-0.02794535
217	0x3d9477f0	0.07249439
218	0xbd21f929	-0.03954426
219	0xbe078e0f	-0.13237785
220	0x3dc24901	0.09486581
221	0xc05517e1	-3.3295825
222	0xc0b424dc	-5.6294994
223	0x3ed83aca	0.42232352
224	0x40b24b35	5.5716805
225	0x400a7a32	2.1637082
226	0xbe84a7aa	-0.25909168
227	0xc06577cd	-3.585437
228	0xc0505a2b	-3.2555034
229	0xc03dc47d	-2.9651177
230	0xc0464842	-3.0981603
231	0xbe23cafc	-0.15995401
232	0xbc8077dd	-0.015682155
233	0xbc1c13ff	-0.009526252
234	0xbd5bea7e	-0.053690426
235	0xbdee8a24	-0.11647442
236	0xbdaba80c	-0.08381662
237	0x3e978b61	0.29598525
238	0xbdf1f13f	-0.11813592
239	0xbef2a372	-0.47390324
240	0xbfd20a81	-1.6409456
241	0xc0c1725d	-6.0452104
242	0xc0dcf664	-6.905077
243	0xc04b18c5	-3.1733868
244	0xbfeaea50	-1.8352757
245	0xc03b62d4	-2.927907
246	0xbf5b154a	-0.8557936
247	0xc0131e44	-2.2987223
248	0x3c9664d0	0.018358618
249	0xbe4e5997	-0.20151363
250	0xbcf64ed1	-0.03006688
251	0x3dc5a365	0.09650306
252	0xbe8e5fe3	-0.2780753
253	0xbe4530d3	-0.19256906
254	0xbd494f38	-0.049147815
255	0xc013fdc2	-2.3123631

critic.v_net.fcs.0.bias f4 [64]
0	0xbffc799a	-1.972461
1	0xbfc61c10	-1.5477314
2	0xc047653b	-3.1155536
3	0xbf905dfe	-1.1278684
4	0xbfb50ea1	-1.4145089
5	0x40066705	2.1000378
6	0xbea78971	-0.32722047
7	0xbf966789	-1.1750346
8	0xbea1672e	-0.31524032
9	0xbfb94bb7	-1.4476231
10	0xbff73deb	-1.9315771
11	0x3e3035fc	0.17208093
12	0xbf276376	-0.6538614
13	0xbfbb43ea	-1.4630101
14	0xbfa3fb5e	-1.2811086
15	0x3ec0ab0b	0.37630495
16	0xbff87d77	-1.9413289
17	0x40475cbb	3.1150348
18	0x3f8dca17	1.1077298
19	0x3fde1c3f	1.735237
20	0xbff05821	-1.8776895
21	0x3fa1a1b3	1.2627472
22	0xc0672f3b	-3.6122577
23	0x3ffe85f6	1.9884632
24	0x3f9aa682	1.2082064
25	0xbff00548	-1.8751612
26	0xbf89e841	-1.0774003
27	0xc0382de9	-2.8778021
28	0x3d879869	0.06620867
29	0xbfcd69c4	-1.6047902
30	0x3fe2253b	1.7667612
31	0x3f42cb6d	0.76091653
32	0x40874d40	4.22818
33	0xbfdf10fd	-1.742706
34	0xc018c78d	-2.3871796
35	0x3f177d81	0.5917588
36	0xc03e2e81	-2.9715884
37	0x3e3772d8	0.17914903
38	0x40846889	4.1377606
39	0xbfec5d68	-1.8466005
40	0x40244c52	2.5671582
41	0x3fd304a9	1.6485797
42	0x400491c3	2.0713966
43	0xc02d0e14	-2.7039843
44	0xbfc08477	-1.5040425
45	0xbff14d2e	-1.8851678
46	0x3f30a9eb	0.69009274
47	0x4027b9fb	2.6207263
48	0x405788bf	3.3677213
49	0x3f635ad8	0.8881049
50	0x3f913b9f	1.134632
51	0xbf9a4e8d	-1.2055222
52	0xc0872f04	-4.224489
53	0xbfd2d4bc	-1.6471171
54	0xbeb1c39e	-0.34719557
55	0x3fa79a6b	1.3094
56	0x4049c2bf	3.1525114
57	0xc0927122	-4.57631
58	0x3fe43e25	1.7831465
59	0x3e95dfbc	0.29272258
60	0x3eddf948	0.4335425
61	0x3f9e90c9	1.2387935
62	0xc04aed80	-3.1707458
63	0x4017e92d	2.373607

critic.v_net.fcs.1.weight f4 [64, 64]
0	0x40137a72	2.3043485
1	0xbf62a6f6	-0.8853601
2	0x3df288b4	0.1184248
3	0x3f912be3	1.1341518
4	0x3efb1491	0.49039128
5	0x3ea7cfdd	0.32775775
6	0xbf69e6c7	-0.91367763
7	0xbfc279b2	-1.5193388
8	0xbfba8d59	-1.4574386
9	0x3fde3129	1.7358752
10	0xbf32b316	-0.69804513
11	0x3ea700fc	0.3261794
12	0x400e60f6	2.224668
13	0xbea8d424	-0.3297435
14	0x3eb7850b	0.3584369
15	0x3f01d5c1	0.5071679
16	0xbf065571	-0.52474123
17	0x3fdb49a5	1.713185
18	0xbfa09ec9	-1.2548457
19	0xbf472177	-0.7778544
20	0x3f6b6f6d	0.919669
21	0x3ef3b3e5	0.47598186
22	0xbdc5457d	-0.096323945
23	0xc010447c	-2.25418
24	0x3fbb077c	1.4611659
25	0xbfcd46c5	-1.6037222
26	0xc05183ed	-3.273677
27	0x3f9ba914	1.2160974
28	0x3edc415a	0.4301861
29	0x3ff72562	1.9308283
30	0x3ef46747	0.47735044
31	0xbf8bdbf1	-1.0926496
32	0xbe0368e6	-0.12832984
33	0xc00f1f5b	-2.2362888
34	0xbeecd706	-0.462578
35	0xbeaf91f5	-0.34291044
36	0x3ebb9a66	0.36641234
37	0xbea6705f	-0.32507607
38	0x3ff67c39	1.925666
39	0xbe431f35	-0.19054873
40	0x3f05a81f	0.5220966
41	0x3e0b50e0	0.1360507
42	0x3f7f8e13	0.99826163
43	0x3f3c673c	0.73595023
44	0x3f0ddd49	0.5541578
45	0xbfacda60	-1.3504143
46	0xbf0aca4e	-0.5421494
47	0x3f0fc99d	0.5616701
48	0x3ccb5af5	0.024823645
49	0xc050a033	-3.2597778
50	0x3ee19870	0.44061613
51	0xbff80e69	-1.9379398
52	0xbfea5436	-1.8306949
53	0x3f5e877f	0.869255
54	0x4008e853	2.13918
55	0xbf8f8e28	-1.1215258
56	0xbd9f7ed4	-0.077878624
57	0xbfc3339c	-1.5250125
58	0x3ee52e33	0.4476181
59	0xbfb5e758	-1.4211226
60	0x3d8f92bf	0.070104115
61	0xbf1e6de9	-0.6188646
62	0xbf07cc03	-0.5304567
63	0x3f716107	0.94288677
64	0x3db8493e	0.08998345
65	0xbedeec5a	-0.43539697
66	0xbf3b96b9	-0.7327686
67	0xbf2e130f	-0.6799783
68	0x3f697cf5	0.91206294
69	0x3e43a8b1	0.1910732
70	0xbf0553bb	-0.5208089
71	0xbdf7c1c5	-0.120975055
72	0xbe0500e3	-0.1298862
73	0xbf7d54ab	-0.9895732
74	0x3fad1bcd	1.3524109
75	0xbf5cd0fd	-0.8625639
76	0x3fb8b961	1.4431573
77	0xbf49209f	-0.785654
78	0xbf81494e	-1.0100496
79	0x3e95f3b7	0.29287502
80	0xbfb2b2f2	-1.396086
81	0x3f59f5c9	0.85140663
82	0x3f41cf65	0.75707084
83	0x3f1c7ab4	0.6112473
84	0xbff7297a	-1.9309533
85	0x3fcf8a7c	1.6214137
86	0xbf8cf5c4	-1.1012502
87	0x3f99ccfb	1.201568
88	0x3dc3c5cb	0.095592104
89	0xbf38a2c9	-0.7212339
90	0xbf1dbf39	-0.6161991
91	0x3fd07cf8	1.6288137
92	0xbd518bf0	-0.051158845
93	0x3f2847c9	0.65734535
94	0x3f51802c	0.818362
95	0xbfd8f473	-1.69496
96	0x3fa4b815	1.2868677
97	0xbebfdb30	-0.37471914
98	0xbce0bb26	-0.02743299
99	0xbd477e05	-0.048704166
100	0x3f30fb04	0.6913302
101	0xbec6e714	-0.38848174
102	0x3ff522f8	1.9151297
103	0xbf03158d	-0.5120476
104	0x3e810a30	0.25203085
105	0x3ead7742	0.3388005
106	0xbd804f43	-0.06265118
107	0xbc6eaa58	-0.01456698
108	0xbf35a0cb	-0.70948476
109	0xbf5adc2a	-0.85492194
110	0xbf158ba8	-0.58416224
111	0x3f812b6f	1.009138
112	0x3fd18b18	1.6370573
113	0xbf611f99	-0.8793884
114	0x3f0d4538	0.55183744
115	0xbf63f1c9	-0.8904081
116	0xbfbd85b5	-1.4806429
117	0x3f074d26	0.52852094
118	0xbf9ea978	-1.2395468
119	0xbe4da94b	-0.20084111
120	0x3cd6e87a	0.0262339
121	0xbfd375ac	-1.6520286
122	0x3f76af87	0.96361583
123	0xbeeb5e61	-0.45970443
124	0x3f3b360d	0.7312935
125	0xbf1599b3	-0.5843765
126	0xbf3d91c7	-0.74050564
127	0xbf2b8226	-0.66995466
128	0x3e78a9f2	0.24283579
129	0xbf057a8a	-0.52140105
130	0xc0067141	-2.1006625
131	0xbf1c6bf5	-0.6110223
132	0xbf7007d0	-0.9376192
133	0x3d87be25	0.06628064
134	0x3e11e639	0.14247979
135	0xbf90dd41	-1.1317521
136	0xbf8affdf	-1.0859336
137	0xbe93f19d	-0.28895274
138	0xbe3cc81a	-0.18435708
139	0xbfe37b10	-1.7771931
140	0x3ffe2cf0	1.9857464
141	0xbf14616a	-0.5796114
142	0xbf51f708	-0.82017565
143	0x3f68d54c	0.90950465
144	0x3ec2a4f9	0.3801649
145	0xbec0e268	-0.37672734
146	0x3feeae06	1.8646858
147	0x3e1161f6	0.14197525
148	0xbf897f7d	-1.0742031
149	0x3f8df061	1.1088983
150	0xbfa74a00	-1.3069458
151	0x3e611472	0.21980456
152	0x3e88d9e6	0.26728743
153	0xbe372aab	-0.1788737
154	0x3ed69a57	0.41914627
155	0x3f837bcc	1.0272155
156	0x3ee8b1d3	0.4544817
157	0xbf193c81	-0.59857947
158	0x400a2bbc	2.1589193
159	0xbfb0e0a2	-1.3818552
160	0x3f7e2055	0.99268085
161	0xbf514c2f	-0.8175687
162	0x3d8e3ddf	0.06945395
163	0x3f995928	1.1980333
164	0xbe8df7b6	-0.2772805
165	0xbeec81e9	-0.46192864
166	0x3fb36691	1.4015676
167	0x3e6bcf7e	0.2302837
168	0xbdac8bbf	-0.08425092
169	0xbdaec0e0	-0.08532882
170	0xbeeeb0c1	-0.46619228
171	0x3eb5743e	0.35440248
172	0xbf233d09	-0.6376501
173	0xbfe072f0	-1.7535076
174	0x3f1dd045	0.6164592
175	0x3f07c0ac	0.5302837
176	0xbdfad9ed	-0.12248597
177	0x3da07f0d	0.07836733
178	0xc01debaa	-2.4675088
179	0xbe89ba2c	-0.2689985
180	0xbf98f157	-1.1948651
181	0x3e945901	0.28974155
182	0xbf04e3d5	-0.51910144
183	0x3f2cc3ca	0.6748625
184	0x3f39ed56	0.7262777
185	0xbf6efd48	-0.93355227
186	0x3f7879a4	0.9706061
187	0x3f3ca512	0.7368938
188	0x3fd951d0	1.6978092
189	0x3f3577d8	0.7088599
190	0xbef72d83	-0.4827691
191	0xbe9829c5	-0.29719368
192	0xbf742740	-0.9537239
193	0xbe131a09	-0.143654
194	0x3e7577c7	0.23971473
195	0xbec78fbc	-0.38976848
196	0xbe678dd8	-0.22612703
197	0x3fc00e29	1.5004321
198	0x3ef560ac	0.47925317
199	0x400e7e38	2.2264538
200	0x3f874eef	1.0570964
201	0xbf0e3255	-0.5554555
202	0x3e819520	0.25309086
203	0x3e8bd32a	0.27309543
204	0x3a240509	0.0006256854
205	0x3ecd6f1e	0.40123838
206	0x3d64173a	0.055686213
207	0x3ecc6a4c	0.39924848
208	0xbe1c3104	-0.15253073
209	0x3fe2a889	1.7707683
210	0xbe6f73af	-0.23383974
211	0x3e48a20c	0.19593066
212	0xbde6feca	-0.11279066
213	0xc00e4683	-2.2230537
214	0xbf2e495d	-0.68080693
215	0x3f66a0f2	0.90089333
216	0x3ef8ee3e	0.48619264
217	0xbf23f841	-0.6405068
218	0xbfbb6323	-1.4639629
219	0xbff7a2ff	-1.9346617
220	0xbec3ff8b	-0.382809
221	0x3e8ce6d4	0.27519858
222	0xbe09d1ba	-0.1345891
223	0x3ea583ca	0.3232711
224	0x3db4ec16	0.08834092
225	0xbf490286	-0.78519475
226	0xbe8495d2	-0.25895554
227	0x3f7df850	0.9920702
228	0xbf2f5669	-0.68491226
229	0x3e207e05	0.15673073
230	0xbf1baa7e	-0.60807025
231	0xbf69bcf1	-0.91303927
232	0x3e783c8a	0.24241844
233	0xbfc84aac	-1.5647788
234	0x3e8aabaa	0.27084094
235	0xbd8b3756	-0.06797664
236	0x3f2a274d	0.6646622
237	0x3ecc0e95	0.39854875
238	0xc0075a0f	-2.1148717
239	0xbe87ed34	-0.2654816
240	0xbf44a343	-0.7681162
241	0x3f2c5fb8	0.67333555
242	0xc04bbd6d	-3.1834366
243	0xbf7718e7	-0.9652237
244	0x3f3a34d5	0.72736865
245	0x3f9e9542	1.23893
246	0xbeae2568	-0.34012914
247	0x3f83a265	1.0283934
248	0x3fb484d3	1.4103035
249	0x3f0bb62d	0.54574853
250	0x3e508065	0.20361479
251	0x3bb568b4	0.005536163
252	0xbfbc6735	-1.4718996
253	0xbf07ae9b	-0.530008
254	0x3f584d2b	0.8449275
255	0xbf697ccc	-0.9120605

critic.v_net.fcs.1.bias f4 [64]
0	0x4018dc7f	2.388458
1	0x3ffdea28	1.9837084
2	0x3fb43e6e	1.4081552
3	0xbf90ee39	-1.13227
4	0x3fd72465	1.6807982
5	0x40105e73	2.2557647
6	0x3f63e193	0.89016074
7	0xbf7fc64f	-0.9991197
8	0xbfb7eba2	-1.4368784
9	0x3fcdde24	1.6083417
10	0xbff4c685	-1.9123083
11	0xbff73711	-1.931368
12	0xbf8886f1	-1.0666181
13	0x3ffa36a1	1.9547921
14	0x40062337	2.0958993
15	0x3f350afb	0.7071988
16	0xbe9d75ae	-0.30753845
17	0x3f0fe382	0.56206524
18	0xbfa8971b	-1.3171114
19	0xbf354981	-0.70815283
20	0x400a77a6	2.1635528
21	0xbff23d94	-1.8925042
22	0x3fff9350	1.9966831
23	0xbf74b023	-0.95581263
24	0xbfd8e845	-1.6945883
25	0xbe81dee8	-0.25365376
26	0x40128829	2.2895606
27	0x3fcb298f	1.5872058
28	0x3f929d99	1.1454345
29	0x400524d6	2.0803733
30	0xc025ca1e	-2.5904613
31	0xbf9cadeb	-1.2240576
32	0xbff6f412	-1.9293234
33	0x3f496ed1	0.7868472
34	0xc0120fae	-2.282207
35	0x400aff73	2.1718414
36	0x3fccf64d	1.6012665
37	0x3f36e12b	0.7143733
38	0x40115f11	2.2714274
39	0x40070d28	2.110178
40	0x4009cd8a	2.15317
41	0xc00530fb	-2.0811145
42	0xc00bfbca	-2.187243
43	0xbfad8e3e	-1.3559034
44	0xbfdbf62f	-1.7184504
45	0xbff4b7fe	-1.911865
46	0x4017124b	2.3604915
47	0xbffb4389	-1.9629985
48	0xc00a9677	-2.1654336
49	0x3ffcf04b	1.9760832
50	0x3ff9de9f	1.9521064
51	0x40125c8c	2.2868986
52	0x4015fb7f	2.343475
53	0xbffa19fe	-1.9539182
54	0xc00d9d81	-2.2127383
55	0xbfd7439b	-1.6817507
56	0xbfe9218d	-1.8213364
57	0xbed3b1c9	-0.41346577
58	0xbf86cf0d	-1.0531937
59	0xbfe7aa9b	-1.809894
60	0xc01600b8	-2.3437939
61	0x400513d0	2.0793343
62	0xbffa9c64	-1.9578977
63	0xbfc9c1ad	-1.576223

critic.v_net.fcs.2.weight f4 [1, 64]
0	0xc05c006f	-3.4375265
1	0xc02fbb20	-2.7457962
2	0xc03ab1d6	-2.9171042
3	0x405182f6	3.2736182
4	0xc02873db	-2.6320713
5	0xc02ce7c6	-2.7016463
6	0xc0671251	-3.610493
7	0x40a47dcb	5.1403556
8	0x40627f7f	3.5390317
9	0xc04852fd	-3.1300652
10	0x40577f2a	3.3671365
11	0x405f4970	3.4888573
12	0x405032d4	3.2531023
13	0xc089116e	-4.2833776
14	0xc07684c4	-3.8518534
15	0xc0d75ec1	-6.7303166
16	0xc0b4a3f2	-5.645013
17	0xc18e19bb	-17.762564
18	0x402bb625	2.6829922
19	0x40aa2cbd	5.317961
20	0xc02b347c	-2.6750784
21	0x402cb57e	2.6985774
22	0xc09df506	-4.93616
23	0x405ae739	3.4203627
24	0x4047000c	3.1093779
25	0x40461488	3.0950031
26	0xc086a99b	-4.208204
27	0xc031ec49	-2.7800467
28	0x413e08f7	11.877189
29	0xc133e997	-11.244529
30	0x40828a24	4.079363
31	0xc1454fde	-12.331999
32	0x40801f86	4.003848
33	0xc0369f8f	-2.8534887
34	0x404793df	3.1184003
35	0xc033c257	-2.8087366
36	0xc03e468f	-2.9730566
37	0xc19a7b40	-19.31018
38	0xc0792601	-3.8929446
39	0xc04c476f	-3.19186
40	0xc1210fc4	-10.066349
41	0x402e3dc8	2.7225208
42	0x402f8c89	2.7429526
43	0x41a1c50b	20.221212
44	0x40490a8a	3.1412683
45	0x403e7b80	2.9762878
46	0xc04d325f	-3.2061994
47	0x415c4963	13.767917
48	0x4071280b	3.768069
49	0x41c248a5	24.285471
50	0xc02bfce3	-2.68731
51	0xc0605404	-3.505128
52	0xc02bfa87	-2.687166
53	0x40713dbb	3.7693927
54	0x402e3dfd	2.7225335
55	0x4057cf5f	3.372032
56	0x40344f37	2.817335
57	0x4030cdbc	2.762557
58	0x415b9dae	13.725996
59	0x403a04ba	2.9065385
60	0x4028be50	2.6366158
61	0xc02e3b39	-2.7223647
62	0x402bdd67	2.6853883
63	0xc1348e86	-11.284796

exp_avg f4 [4]
0	0xbca0a918	-0.01961188
1	0x3d9ea284	0.07745841
2	0xbcf642b3	-0.030061102
3	0x3cabbc02	0.020963673

exp_avg_sq f4 [4]
0	0x3c74628d	0.014916074
1	0x3c547abb	0.012968714
2	0x3c535254	0.0128980465
3	0x3c81e4ba	0.015856136

exp_avg f4 [64, 17]
0	0x3996c70f	0.0002875854
1	0xb9c2dc4b	-0.00037166695
2	0xbb1fd884	-0.0024390528
3	0xba425cbc	-0.0007414331
4	0xb8b9c604	-8.858371e-05
5	0xba6ae432	-0.00089603954
6	0xbb346d90	-0.0027531125
7	0xba3a86fb	-0.00071154506
8	0xb8b44939	-8.5967076e-05
9	0x3986d7cc	0.00025719253
10	0xbb08e812	-0.0020890278
11	0x3bbd3b9d	0.0057749287
12	0x3bdf21bd	0.006809442
13	0xbc0fa218	-0.0087666735
14	0x3a390614	0.00070580957
15	0x3adaab23	0.0016683083
16	0xba1e03c1	-0.0006027781
17	0x3b0b5455	0.0021259983
18	0x3a6c21e5	0.0009007736
19	0x3bdbd896	0.0067091687
20	0x39c60de2	0.00037775846
21	0xbb425fd5	-0.002965917
22	0x3add09d0	0.0016863886
23	0x3bfc124e	0.007692612
24	0x3beed679	0.0072887507
25	0xbbfcc599	-0.007713985
26	0xb85e6cb1	-5.303015e-05
27	0x3b7e390c	0.0038791327
28	0xbc966248	-0.018357411
29	0xbbec657c	-0.0072142463
30	0x3cab8697	0.0209382
31	0xbc9e9106	-0.019356262
32	0xbc3844b4	-0.011246849
33	0x3caaa179	0.02082895
34	0xbba77b02	-0.005111099
35	0xba28352b	-0.0006416614
36	0xbaf60f13	-0.0018772803
37	0x3a846434	0.0010100664
38	0x3bc5c926	0.0060359417
39	0xbae1822c	-0.0017204932
40	0xbb534c4d	-0.0032241524
41	0xbbe43000	-0.00696373
42	0x3c8108f9	0.015751349
43	0xba107176	-0.0005510071
44	0x3cb14f62	0.021644298
45	0x3c82e36c	0.015977584
46	0xbbc5044c	-0.006012475
47	0xbc486111	-0.012230174
48	0x3cd6cc6a	0.02622052
49	0x3c0806fd	0.008302447
50	0xbd1a1891	-0.037621085
51	0xbb2417c1	-0.0025038572
52	0xbaa69789	-0.0012709956
53	0xbbd72d1d	-0.006566657
54	0xba22bc3d	-0.0006207859
55	0x3b5e1234	0.0033885362
56	0xbb296b28	-0.0025851224
57	0xbc02cccb	-0.007983397
58	0xbc0528af	-0.0081273755
59	0x3c09673c	0.008386429
60	0x3872aeed	5.786021e-05
61	0x3c5648ba	0.013078863
62	0x3cfaae04	0.030600555
63	0x3c334415	0.010941525
64	0xbcc2d3c2	-0.023782615
65	0x3caf720f	0.021416692
66	0x3c251d90	0.010077849
67	0xbcfccc84	-0.03085924
68	0xbb331259	-0.0027324168
69	0x38c7361c	9.499138e-05
70	0xba603d76	-0.000855408
71	0x3aa76a35	0.0012772741
72	0x3b43e068	0.0029888395
73	0x3a87fe65	0.0010375498
74	0xba8123de	-0.0009852608
75	0xbb181a65	-0.0023209092
76	0x3bef4643	0.007302077
77	0xba85bce3	-0.0010203387
78	0x3cc1bc81	0.023649456
79	0xbbbca3a6	-0.005756813
80	0xbc7ee41b	-0.015557314
81	0x3b6ba871	0.0035958553
82	0x3bceb037	0.0063076275
83	0x3c1efc3c	0.009703692
84	0xbc9d3ece	-0.019194987
85	0xb80bdd95	-3.3346547e-05
86	0x39d5fb76	0.0004081388
87	0x3a46b2e4	0.00075797574
88	0x39e8f6fa	0.000444345
89	0xb7de5862	-2.6505619e-05
90	0x3a63c6ff	0.00086890155
91	0x3a8c00ad	0.0010681354
92	0x3a94f2d8	0.0011363877
93	0x38d06f98	9.938999e-05
94	0x38c3dbc7	9.339261e-05
95	0x3bedfcdf	0.0072628106
96	0xbc49c380	-0.012314677
97	0xbb2d4d74	-0.002644387
98	0x3b1995d4	0.0023435252
99	0xba9efd85	-0.0012129998
100	0xb99561b1	-0.0002849228
101	0x3890bf9f	6.902147e-05
102	0x3b202838	0.0024438035
103	0x39e4ebc2	0.00043663202
104	0x3a55344e	0.0008133099
105	0xbb194f4f	-0.002339322
106	0xbaf3014e	-0.0018539818
107	0xbb40b720	-0.0029406026
108	0xba047136	-0.000505227
109	0xbbb750dd	-0.0055943565
110	0xbb0d8138	-0.0021591913
111	0x3b1e8124	0.002418586
112	0xbc96c340	-0.01840365
113	0xbbeda58a	-0.0072524
114	0xbc17432d	-0.009232325
115	0x39e2405f	0.0004315404
116	0x3c66a601	0.014077664
117	0xbc16cd6f	-0.009204253
118	0xbc333877	-0.010938755
119	0xb9ef654b	-0.00045661101
120	0xb7867a8a	-1.6031106e-05
121	0x3a898b64	0.0010493812
122	0x39a8474e	0.00032096583
123	0x39a338b5	0.00031132033
124	0x3a008821	0.0004903097
125	0x3aa3eaa6	0.0012505844
126	0x381d895c	3.7559643e-05
127	0x3a594f3f	0.00082897017
128	0xb87de1c4	-6.053016e-05
129	0x3b502f76	0.003176657
130	0xbb65bf01	-0.0035056474
131	0xbb8d6a0d	-0.0043156208
132	0x3b6ee471	0.003645208
133	0x39abaa08	0.00032742345
134	0xb9dd4769	-0.0004220561
135	0xba66ba31	-0.00088015484
136	0xb8966736	-7.171782e-05
137	0xba0ded3d	-0.00054140744
138	0x3a344ab0	0.00068775844
139	0xba71bdf9	-0.00092217285
140	0x39c85f9c	0.00038218207
141	0xbacdd8ea	-0.0015704904
142	0xb8bfdd73	-9.148838e-05
143	0xbb2ed99a	-0.0026679994
144	0x3abda032	0.0014467298
145	0x39bb9536	0.0003577859
146	0x3b0ca429	0.0021460152
147	0x39c138e0	0.00036854204
148	0x3b63f469	0.003478313
149	0xbbb75055	-0.005594293
150	0x3bcc149e	0.0062280437
151	0x3aea42e9	0.0017872724
152	0xbbad356a	-0.0052859085
153	0x3a01774d	0.00049387367
154	0xb9e39ba1	-0.00043412767
155	0x3b555ee7	0.0032557787
156	0xba03ce61	-0.0005028006
157	0xba3c2e69	-0.00071785465
158	0xbad86377	-0.0016509135
159	0x3b1c4aa3	0.0023848198
160	0xba955d49	-0.0011395599
161	0xba17eea5	-0.00057957537
162	0x3a9f7aed	0.0012167372
163	0xbb960f74	-0.004579479
164	0xbcb3295e	-0.021870311
165	0xbbae2dc9	-0.0053155166
166	0xbbaf90b8	-0.005357828
167	0xbc1442b3	-0.009049105
168	0xbc23cd4d	-0.009997678
169	0x3c23b4c0	0.009991825
170	0x3a139245	0.0005629401
171	0xb738f7ee	-1.102498e-05
172	0xbb78b1a1	-0.0037947672
173	0xb9c81a8e	-0.00038166757
174	0xba008b6d	-0.00049035886
175	0x3a8f0f23	0.0010914545
176	0xbb589403	-0.0033047206
177	0xba151c33	-0.0005688101
178	0xbaf6986b	-0.0018813735
179	0xb8e58ebd	-0.00010946158
180	0xbcbbb210	-0.022912055
181	0x3c8e7687	0.017390503
182	0x3ba22964	0.004948782
183	0x3b3b8906	0.0028615608
184	0xbafd638b	-0.0019332034
185	0x3bdfc7d1	0.00682924
186	0x3ba18376	0.0049290014
187	0xbacff3ab	-0.0015865465
188	0xba8c70ac	-0.0010714731
189	0xbba79b65	-0.00511496
190	0xba4a0cc4	-0.00077075907
191	0x3b16211a	0.0022907914
192	0xbb034464	-0.0020029778
193	0xbbd1d862	-0.0064039687
194	0xbbdebc51	-0.0067973514
195	0x3bd233ee	0.006414882
196	0x39255c6c	0.00015770056
197	0x3bffaee9	0.0078028333
198	0x3ca702ba	0.020387042
199	0x3be41e3e	0.006961613
200	0xbcb23e31	-0.02175817
201	0x3c7da3b3	0.0154809235
202	0x3c27e19f	0.010246663
203	0xbca52824	-0.020160742
204	0xba75db2c	-0.00093786675
205	0xb9ff0bea	-0.00048646267
206	0xbb48e108	-0.0030651707
207	0x3977908d	0.00023609605
208	0x3a72ec6c	0.0009266797
209	0x3a507f59	0.00079535466
210	0xbb3c4c73	-0.002873209
211	0xbb5c117e	-0.0033579762
212	0x3ad327d1	0.0016109889
213	0xb9980fd0	-0.0002900348
214	0x3b9ab843	0.0047216727
215	0x3a24244e	0.00062615133
216	0x37d0283f	2.4814273e-05
217	0xbbd1f35d	-0.006407185
218	0x3bc8ae99	0.0061243293
219	0x3b821309	0.0039695543
220	0xbc25e285	-0.010124807
221	0x3a79c702	0.00095282507
222	0xb90cfb1e	-0.00013444989
223	0xbab09446	-0.0013471923
224	0xba2548cf	-0.00063051
225	0xba69cb27	-0.00089185167
226	0xb89717a3	-7.204644e-05
227	0xbabdf018	-0.0014491109
228	0xbb16048e	-0.0022890898
229	0xbad241b6	-0.0016041312
230	0x3abb0b9b	0.0014270426
231	0xbc05f86f	-0.008176907
232	0xbca0a2a7	-0.019608809
233	0xbbed8d41	-0.007249505
234	0xbb0db146	-0.0021620556
235	0x39d81e64	0.00041221373
236	0xbad51371	-0.0016256404
237	0x3b6c55d5	0.0036061902
238	0xbbce555c	-0.0062967967
239	0xbb0f3004	-0.0021848688
240	0xbc1c1f09	-0.009528884
241	0x39a5c65c	0.00031619042
242	0x3bfb09c5	0.0076610767
243	0xbb8040d4	-0.003913978
244	0xbc460254	-0.012085516
245	0xbc4721b3	-0.012154031
246	0x3c9f0d71	0.019415589
247	0xba7e7571	-0.0009706831
248	0x3c851a0f	0.016247777
249	0x3d452b12	0.04813678
250	0x3c20772b	0.009794037
251	0xbd2d38b9	-0.042290423
252	0x3d0a70e3	0.033799063
253	0x3ce14fa2	0.027503792
254	0xbd344a0e	-0.044015937
255	0xba9cb3bd	-0.0011955422
