training_results/cartpole_boltz/ppo_dMax2.0_applyExternalForce/seed_2024/1000000steps/checkpoints/model_100000.pt (torch, 151515 bytes, 30 tensors)

actor.pi_net.fcs.0.weight f4 [64, 4]
0	0xbec523f1	-0.38503984
1	0xbd4f0967	-0.050546076
2	0x3e848c17	0.2588813
3	0x3f7f49f3	0.9972221
4	0x3edfaf2d	0.43688336
5	0x3ee3152e	0.44352096
6	0x3f17a1a5	0.59231025
7	0xbdd72adc	-0.10506222
8	0x3d86b450	0.06577361
9	0x3ce22afa	0.027608383
10	0xbf1ff832	-0.6248809
11	0xbe88e3b9	-0.2673624
12	0xbd20daf9	-0.03927133
13	0x3e879640	0.2648182
14	0xbe92e1b2	-0.28687817
15	0x3db9d6b1	0.09074152
16	0x3db27651	0.08713973
17	0xbed196af	-0.40935275
18	0x3dc1e98a	0.09468372
19	0x3dac787a	0.084214166
20	0xbee4c813	-0.44683895
21	0x3e2c8f3d	0.16851516
22	0xbea0a385	-0.31374756
23	0xbeb4ae66	-0.35289305
24	0xbec1b9e5	-0.3783714
25	0xbf049e1b	-0.5180375
26	0xbf0498fc	-0.51795936
27	0x3d1614d6	0.036640964
28	0x3e05435d	0.13013978
29	0xbd117981	-0.035516266
30	0x3e7a55a9	0.2444674
31	0x3f250f80	0.64476776
32	0x3ebec7b3	0.37261733
33	0xbeb73eb5	-0.3579003
34	0x3ef90a4b	0.48640665
35	0x3f887f40	1.0663834
36	0xbd12432f	-0.035708603
37	0x3ec5e400	0.38650513
38	0x3f1cde3c	0.612766
39	0x3f4cc7a3	0.7999212
40	0x3d876a21	0.06612039
41	0x3e8c4f3d	0.27404204
42	0x3e89a974	0.26887095
43	0x3d5008f3	0.050789785
44	0xbed68470	-0.41897917
45	0xbd02f333	-0.031970214
46	0x3ef15343	0.47133836
47	0x3f099fb2	0.537593
48	0xbe2a9fcf	-0.16662525
49	0x3e16d4f0	0.14729667
50	0x3f38af0b	0.72142094
51	0x3f0d4714	0.5518658
52	0xbc8877c9	-0.01665868
53	0x3dc8d8a5	0.09806947
54	0xbf10c953	-0.56557196
55	0xbf04f5ed	-0.5193775
56	0x3e6e09fa	0.23245993
57	0x3d18b844	0.037285104
58	0xbec932df	-0.39296624
59	0xbe51a94b	-0.20474736
60	0x3ebaad54	0.36460364
61	0x3df4ea78	0.11958784
62	0x3f0f13a3	0.5588934
63	0x3e145abb	0.14487736
64	0x3ee461c0	0.44605827
65	0x3ed1878e	0.40923733
66	0xbe82922f	-0.25502154
67	0xbf8b9fb6	-1.0908115
68	0x3ce37eae	0.027770367
69	0xbf12641b	-0.57184
70	0x3ed9fce6	0.4257576
71	0x3f0ae20d	0.54251176
72	0xbeca2c6d	-0.3948702
73	0xbd19beb5	-0.037535388
74	0xbeaab612	-0.33342034
75	0xbdd1df74	-0.102476984
76	0xbd84e543	-0.06489041
77	0xbebbf21f	-0.3670816
78	0xbe42571f	-0.18978547
79	0x3f0a15d3	0.5393955
80	0xbdf29053	-0.11843934
81	0x3e803d09	0.25046566
82	0x3d57fbb6	0.052730285
83	0xbf69ecfb	-0.9137723
84	0xbf1d527a	-0.61453974
85	0xbebc864f	-0.3682122
86	0x3ed33a0f	0.41255233
87	0x3f6cae70	0.9245367
88	0x3e69acaf	0.2281978
89	0x3d6decfb	0.05808733
90	0x3e263ef0	0.16234946
91	0x3f37d2cd	0.7180603
92	0x3e299da5	0.16564043
93	0xbf09d6c3	-0.53843325
94	0x3f1fae4c	0.6237533
95	0x3f3044b3	0.68854827
96	0xbdc60b3e	-0.09670113
97	0x3f0242d7	0.5088324
98	0x3ee9a2bc	0.4563197
99	0x3e4a2f0a	0.19744506
100	0x3e5bfcc1	0.21483137
101	0xbe8f7547	-0.28019163
102	0xbead97e7	-0.33904955
103	0x3ed051c8	0.40687394
104	0xbe32cdae	-0.17461273
105	0xbe5f954a	-0.21834293
106	0xbf060068	-0.5234437
107	0x3cbd5a1b	0.023114255
108	0x3db5727d	0.088597275
109	0x3e8eebd7	0.27914307
110	0x3f318f4e	0.6935929
111	0x3f596b27	0.84929127
112	0x3e8368c2	0.2566586
113	0xbf1d5dc0	-0.61471176
114	0x3f3872f9	0.72050434
115	0x3f63b6ff	0.88951105
116	0xbe24a1e9	-0.16077389
117	0xbe082577	-0.13295542
118	0x3e85cb82	0.26131827
119	0xbef39255	-0.4757258
120	0x3e96cac9	0.29451588
121	0xbe773fe7	-0.2414547
122	0x3adeda39	0.0017002291
123	0xbf4c4bfa	-0.7980343
124	0xbe8d1524	-0.27555192
125	0x3eada1b3	0.3391243
126	0xbedfe2db	-0.43727764
127	0xbd8d4712	-0.06898321
128	0xbe5d3c05	-0.21604927
129	0x3f095e67	0.5365967
130	0xbe038e73	-0.12847309
131	0x3dc405f2	0.095714465
132	0xbd56a73f	-0.052405592
133	0xbce147b7	-0.027500017
134	0x3e5d2c4c	0.21598929
135	0x3d3cc1e1	0.046083335
136	0x3e46523e	0.1936731
137	0x3ecbbe88	0.397938
138	0x3e389d31	0.18028714
139	0x3e67a5d8	0.22621858
140	0x3d67fc5a	0.056637146
141	0x3e92e3f2	0.28689533
142	0xbec03b6a	-0.3754533
143	0xbe7230d5	-0.2365144
144	0xbecbcb3b	-0.3980349
145	0x3ec6ab22	0.3880244
146	0x3f0159c3	0.5052759
147	0x3e70eb5f	0.23527287
148	0xbc113064	-0.008861635
149	0x3ef4d337	0.47817394
150	0xbe9146c6	-0.28374308
151	0xbf4b57b9	-0.7943073
152	0x3d4d2ed5	0.05009349
153	0x3dce3048	0.10067803
154	0xbe88305a	-0.2659939
155	0xbf811eba	-1.0087502
156	0x3ebb3694	0.36565077
157	0x3d9881c7	0.07446628
158	0x3f1865c2	0.5953027
159	0x3e440ce5	0.19145544
160	0x3dd956e0	0.10612273
161	0xbe7b4a02	-0.2453995
162	0x3f09aa16	0.53775156
163	0x3f726eb1	0.9470015
164	0xbdab23f4	-0.08356467
165	0xbe2b4ed9	-0.16729297
166	0x3f2ec928	0.6827569
167	0x3f56a16e	0.8384007
168	0x3e4f6460	0.20253134
169	0xbed17059	-0.40906027
170	0xbefe3931	-0.4965301
171	0xbed026c1	-0.40654567
172	0x3e82b2e0	0.25527096
173	0xbc2ada73	-0.010428059
174	0xbe0f6bb6	-0.14005932
175	0xbf04eb7e	-0.5192183
176	0xbd91764f	-0.07102644
177	0xbe4a11a1	-0.19733287
178	0xbdd571c6	-0.10422091
179	0xbe9f968e	-0.31169552
180	0xbe3d27c1	-0.18472196
181	0x3e9ee11e	0.31031126
182	0xbe97d99d	-0.29658213
183	0x3e260798	0.16213834
184	0x3f0ef3db	0.55840844
185	0x3f126c9c	0.57196975
186	0xbf0a3d17	-0.53999466
187	0xbf63f3f5	-0.89044124
188	0xbdb4c19b	-0.0882599
189	0xbf0ad344	-0.54228616
190	0x3efe4611	0.4966283
191	0x3f5fe320	0.8745594
192	0x3edb9bdb	0.42892346
193	0xba2d91ff	-0.00066211814
194	0xbad5c6fa	-0.001630991
195	0x3f82c77b	1.0217127
196	0x3eb5e9d5	0.35529962
197	0x3e94e0f7	0.29077885
198	0xbe81fa10	-0.25386095
199	0xbf55f591	-0.8357783
200	0xbe9e35ea	-0.30900508
201	0xbe7bf5cf	-0.24605487
202	0xbf4ec99a	-0.8077637
203	0xbf2351d2	-0.6379672
204	0x3ea7a542	0.3274327
205	0xbeb4fc22	-0.35348612
206	0xbeada08f	-0.3391156
207	0xbd50cf30	-0.05097884
208	0xbdfb92e6	-0.12283878
209	0x3e653602	0.22383884
210	0x3ec06207	0.3757479
211	0x3b55769a	0.0032571913
212	0x3d8618f4	0.06547728
213	0x3ed9ed85	0.42564026
214	0xbe372b68	-0.17887652
215	0x3ed1b35d	0.40957156
216	0xbe27a34e	-0.1637089
217	0x3ef2fa53	0.47456607
218	0x3e794bc7	0.24345313
219	0x3d1824b9	0.037144396
220	0xbcbb9596	-0.022898477
221	0xbed940d3	-0.4243227
222	0x3d92e5a7	0.07172709
223	0x3da61ceb	0.081109844
224	0x3edc2d64	0.4300338
225	0x3dd9ae79	0.10628981
226	0xbdc0f105	-0.09420971
227	0x3f4b41e4	0.79397416
228	0x3e29c8e2	0.16580537
229	0x3d932847	0.07185417
230	0x3e26747e	0.16255376
231	0xbf184bab	-0.5949046
232	0xbe103d18	-0.14085805
233	0x3d6ed45a	0.058307983
234	0x3e041b01	0.12900926
235	0xbef90c1b	-0.48642048
236	0x3dd0d50c	0.101968855
237	0xbedf12c4	-0.43569005
238	0xbebc1d28	-0.36740994
239	0xbd0db1d5	-0.034593422
240	0x3eb5a30e	0.35475963
241	0x3eef81e8	0.46778798
242	0x3ee5b981	0.4486809
243	0xbec78d53	-0.3897501
244	0x3ea79dd8	0.32737613
245	0xbef594c2	-0.47965056
246	0xbeeda80c	-0.46417272
247	0xbda4c02e	-0.08044468
248	0xbe2a77c0	-0.16647243
249	0xbf224c19	-0.63397366
250	0x3ebcdf57	0.36889145
251	0x3f0e672a	0.55626166
252	0xbe8a5610	-0.27018785
253	0x3e7e6737	0.24844061
254	0xbed5b90d	-0.41742745
255	0xbf5faa78	-0.8736949

actor.pi_net.fcs.0.bias f4 [64]
0	0xbe15a785	-0.14614685
1	0xbebe29d4	-0.37141287
2	0x3e9c2c0c	0.30502355
3	0xbe3cf3b1	-0.18452336
4	0xbeafc317	-0.3432853
5	0xbef7f54c	-0.48429334
6	0xbd126029	-0.035736237
7	0x3cd621cb	0.02613916
8	0x3dfcc10d	0.12341509
9	0xbe4f5616	-0.20247683
10	0xbe2e587a	-0.17025939
11	0xbe8f9dcf	-0.28050086
12	0x3da59367	0.080847554
13	0x3ea495bf	0.32145497
14	0xbe0d7d06	-0.13817224
15	0x3df72c42	0.120689884
16	0x3e0e5ad9	0.13901843
17	0xbdf30d99	-0.11867828
18	0xbe13cc07	-0.14433299
19	0x3ea0da0f	0.31416366
20	0x3eb8f5d1	0.36125043
21	0xbe4227ae	-0.18960449
22	0x3e407aa6	0.18796787
23	0xbe89ad39	-0.2688997
24	0x3e08a7cf	0.13345264
25	0x3ed5ae69	0.41734627
26	0xbe587fbd	-0.21142478
27	0xbe496aae	-0.19669601
28	0xbe282a46	-0.16422376
29	0xbe9044d2	-0.28177506
30	0x3ec2df28	0.3806088
31	0x3e3a61c6	0.1820136
32	0x3c8e7689	0.017390506
33	0x3eded8f9	0.43524912
34	0xbda8a3bf	-0.08234357
35	0xbe81e369	-0.25368813
36	0x3e00c16a	0.12573782
37	0xbdec47b0	-0.11537111
38	0xbd705141	-0.05867124
39	0xbe87ab1c	-0.26497734
40	0xbdb43331	-0.087988265
41	0x3ec2bac2	0.3803311
42	0xbcd4c27c	-0.025971644
43	0xbdad36a9	-0.08457691
44	0xbeb2963f	-0.34880254
45	0xbe3107ac	-0.17288083
46	0x3e630077	0.22168146
47	0xbea5e949	-0.32404545
48	0x3c19de15	0.009391327
49	0x3e83d88a	0.25751144
50	0x3c635ced	0.013877136
51	0x3df0a3d6	0.11749999
52	0x3ec8114c	0.39075696
53	0x3d2d08c5	0.04224469
54	0xbe9ea8e2	-0.30988222
55	0xbcf374cd	-0.02971878
56	0xbde27524	-0.11057499
57	0xbe86cc2a	-0.2632764
58	0x3e9a765e	0.30168432
59	0x3e23434b	0.15943639
60	0xbcefea26	-0.029286455
61	0x3ddf210a	0.108949736
62	0xbde28aa5	-0.110616006
63	0x3ebe281d	0.3713998

actor.pi_net.fcs.1.weight f4 [64, 64]
0	0x3cb7de3b	0.022444835
1	0x3d01ab6b	0.031657618
2	0x3db20a77	0.08693402
3	0xbc2f20c4	-0.010688964
4	0xbcd17c17	-0.025571866
5	0x3ddb56ca	0.10709913
6	0x3dac0c14	0.08400741
7	0xbca730e8	-0.020409063
8	0x3dfeb019	0.12435932
9	0x3d0a52cf	0.03377038
10	0x3b1f6f68	0.0024327878
11	0x3daef768	0.08543283
12	0x3b65614c	0.003500062
13	0xbd283e0d	-0.0410748
14	0x3e08f6ca	0.13375393
15	0xbd9f3d47	-0.077753596
16	0x3a8f0d8f	0.0010914075
17	0xbd21412e	-0.0393688
18	0x3e2139b0	0.15744662
19	0x3d590155	0.052979786
20	0xbd05a557	-0.032628383
21	0x3e1a4c6d	0.15068217
22	0x3dbac0e7	0.091188245
23	0x3db27abe	0.087148175
24	0xbd933a91	-0.07188905
25	0xbd04cbe4	-0.032421008
26	0x3e399d4d	0.18126412
27	0x3dbb699f	0.09151005
28	0x3cd9f74a	0.026607174
29	0x3d898d7b	0.067164384
30	0x3dcdfa05	0.10057453
31	0x3d0c1336	0.03419801
32	0xbe4f2013	-0.20227079
33	0x3c85563b	0.01627647
34	0xbba9341d	-0.005163683
35	0x3d863408	0.06552893
36	0xbdee4e95	-0.11636082
37	0xbd950538	-0.07276386
38	0x3d726a57	0.059183445
39	0x3daea1ed	0.08526979
40	0x3d913009	0.0708924
41	0x3d91928d	0.071080305
42	0xbd057d7d	-0.032590378
43	0x3df35e98	0.11883277
44	0x3e125a78	0.14292324
45	0xbdb6a663	-0.089184545
46	0xbe22378d	-0.15841503
47	0x3de2a524	0.11066654
48	0x3de73ea2	0.11291243
49	0x3cf23e63	0.029570764
50	0x3d1942e8	0.037417322
51	0x3d877421	0.06613947
52	0x3d65b923	0.056084763
53	0xbe31cd65	-0.17363508
54	0xbc0dce16	-0.008655092
55	0x3d814b5a	0.063132
56	0xbdd407da	-0.1035306
57	0xbd38f920	-0.04515946
58	0x3dd57f39	0.104246564
59	0xbddc0135	-0.10742418
60	0x3c8e740f	0.017389325
61	0x3e12095b	0.14261381
62	0x3db46d13	0.08809867
63	0xbb668b2b	-0.0035178165
64	0x3e8e0bcf	0.27743384
65	0xbd39db5a	-0.045375206
66	0x3c96b900	0.018398762
67	0x3d9687b9	0.07350106
68	0x3c107d2c	0.008818906
69	0x3bff79c0	0.007796496
70	0x3d2e3635	0.042532165
71	0x3ec72226	0.3889324
72	0x3e97fa04	0.29682934
73	0x3e0b9b92	0.13633564
74	0x3d74dc4f	0.059780415
75	0x3e1cb93d	0.15305038
76	0x3e82ef38	0.25573134
77	0xbd2f8943	-0.042855512
78	0xbe3e17c2	-0.1856375
79	0x3d7d555f	0.061848994
80	0xbe8a8d69	-0.27061012
81	0x3db695d9	0.089153
82	0xbe3787c4	-0.17922884
83	0x3d4dc332	0.05023498
84	0xbdedcbd3	-0.11611142
85	0x3e9b4096	0.30322713
86	0x3e1c4cc4	0.15263659
87	0x3e677b52	0.22605637
88	0x3e606740	0.21914387
89	0xbbc833b9	-0.0061096814
90	0x3cc240fc	0.023712628
91	0x3cb670fd	0.022270674
92	0x3e938dcb	0.28819117
93	0xbda925aa	-0.08259137
94	0xbe1fa262	-0.15589288
95	0xbda750f2	-0.08169736
96	0xbd74f168	-0.059800535
97	0xbd64593f	-0.055749174
98	0x3db9b18a	0.09067066
99	0xbe15e63e	-0.14638612
100	0x3db5bc29	0.08873779
101	0xbdb0923f	-0.08621644
102	0xbeb6f3ed	-0.35732976
103	0x3d8b3bb9	0.067985006
104	0x3e9683d1	0.29397443
105	0x3e41ef52	0.1893895
106	0xbe7763bc	-0.2415914
107	0xbe006a12	-0.12540463
108	0xbe336fb3	-0.17523079
109	0x3dac339d	0.08408282
110	0xbe516c36	-0.20451435
111	0x3e20a200	0.15686798
112	0x3eb9806c	0.3623079
113	0xbe46dec4	-0.19420916
114	0xbeb45dd4	-0.35227835
115	0xbdbed14d	-0.09317265
116	0xbdc5a0cb	-0.096498094
117	0x3e4eee04	0.20207983
118	0xbd1766fa	-0.03696344
119	0x3db9a3e6	0.09064464
120	0x3e64ed3e	0.22356126
121	0xbd210cb0	-0.03931874
122	0xbdc918de	-0.09819196
123	0x3e0f6e85	0.14007004
124	0xbe31d69d	-0.17367025
125	0x3c784e91	0.01515545
126	0x3e94f2e1	0.29091552
127	0xbe3b90a2	-0.18316892
128	0x3d95fede	0.07324003
129	0xbcc20eae	-0.02368864
130	0xbcec9bed	-0.028882945
131	0x3d88d274	0.06680766
132	0xbd10d16e	-0.035355978
133	0x3dbfc2b2	0.09363307
134	0xbd017d6d	-0.031613756
135	0x3ce03b08	0.027371898
136	0x3e175549	0.14778627
137	0xbd323b21	-0.04351342
138	0xbc1f045d	-0.00970563
139	0x3dc1e22d	0.09466968
140	0x3e0382ea	0.12842909
141	0xbcb5c708	-0.022189632
142	0xbe06688a	-0.13125816
143	0xbd55ef0f	-0.052229937
144	0xbe46c2ef	-0.19410299
145	0x3db4a004	0.08819583
146	0xbb26e879	-0.0025468154
147	0xbd3aebed	-0.045635153
148	0x3c422aad	0.011850995
149	0x3e42123c	0.18952268
150	0x3ba72580	0.005100906
151	0x3e030e92	0.12798527
152	0xbd8ea3e2	-0.06964852
153	0x3d6a07a6	0.0571362
154	0x3ce6ba75	0.028165082
155	0x3ceebf76	0.02914403
156	0x3e7f951e	0.24959227
157	0x3d26b948	0.04070404
158	0x3cbdb6a3	0.023158377
159	0xbda03aba	-0.07823701
160	0xbdb54a08	-0.08852011
161	0x3dae3b8a	0.0850745
162	0x3def248c	0.11676893
163	0xbdfc6e4b	-0.12325724
164	0x3d8a26e5	0.067457
165	0xbe20e77f	-0.15713309
166	0xbd31ba0b	-0.043390315
167	0xbdc016b4	-0.0937933
168	0x3e6d6ec0	0.23186779
169	0x3ddd9d0a	0.108209684
170	0xbe032122	-0.12805608
171	0xbe1feabc	-0.15616888
172	0x3c84a70d	0.016192937
173	0x3e03e873	0.12881641
174	0xbe7e2ba7	-0.2482134
175	0x3e3d0bb2	0.18461493
176	0x3e2b8b5a	0.16752377
177	0x3a57b96f	0.0008229231
178	0xbcd6e166	-0.026230525
179	0x3db9bb89	0.090689726
180	0x3da0c16f	0.078493945
181	0xbde5ad7b	-0.112147294
182	0xbc3a8567	-0.011384345
183	0x3e055e53	0.13024263
184	0x3e3bbbe9	0.18333401
185	0x3db7f48d	0.08982191
186	0x3cad4a29	0.021153526
187	0x3d46c316	0.048525892
188	0x3b8e12a1	0.004335717
189	0x3dabe8ad	0.08393989
190	0x3e7b4f85	0.24542053
191	0xbe2d93e6	-0.1695095
192	0xbea334cd	-0.3187622
193	0x3d3fbb2e	0.046809368
194	0x3dc2f550	0.09519446
195	0xbe0f0701	-0.13967516
196	0x3d489713	0.0489722
197	0x3e05d9d0	0.1307137
198	0x3bb6683b	0.0055666245
199	0xbe92174e	-0.28533405
200	0xbe4a525a	-0.19757977
201	0xbe6212d8	-0.22077501
202	0x3c0a5809	0.008443841
203	0xbc8ec091	-0.017425807
204	0xbe81a32a	-0.25319797
205	0x3d5fafbc	0.054610953
206	0x3c657ff7	0.01400756
207	0x3d029ee2	0.031889804
208	0x3eb98298	0.36232448
209	0xbe28b0cd	-0.16473694
210	0x3d11df97	0.035613623
211	0xbd962c94	-0.07332721
212	0x3e5224fa	0.20521918
213	0xbe7fdb37	-0.24985968
214	0xbe0ee587	-0.13954745
215	0xbd1fdc7c	-0.03902863
216	0xbe359e51	-0.17736174
217	0xbd541424	-0.05177702
218	0x3c2537fc	0.0100841485
219	0xbe48a935	-0.19595797
220	0xbe392916	-0.1808208
221	0xbdc3e3ac	-0.09564909
222	0xbc67883f	-0.014131605
223	0x3d952c1d	0.072838046
224	0xbd0b5481	-0.034016136
225	0xbd502b6b	-0.050822657
226	0xbdabcf2c	-0.08389124
227	0x3d36a5d6	0.044591747
228	0xbddfe69c	-0.10932657
229	0x3d948e16	0.07253663
230	0x3e690af2	0.22758082
231	0xbdc0ca00	-0.094135284
232	0xbea82ac2	-0.32845122
233	0x3d8983fd	0.06714628
234	0x3e659ec5	0.22423847
235	0x3bdefed4	0.00680528
236	0xbd908ecb	-0.070584856
237	0x3d44ef76	0.04807993
238	0x3e85c20c	0.2612461
239	0xbcbb5566	-0.02286787
240	0xbede6c76	-0.43442124
241	0x3e2446b2	0.16042593
242	0x3eb0d8f6	0.34540528
243	0xbcffa9df	-0.03120893
244	0x3df1afb7	0.11801093
245	0xbe49b290	-0.19697022
246	0xbd882334	-0.066473395
247	0xbd6c6c13	-0.057720255
248	0xbe1a9e50	-0.15099454
249	0x3d7ba31e	0.061434858
250	0x3e296ce3	0.16545443
251	0x3c5626f2	0.013070809
252	0x3d51c03b	0.051208716
253	0xbabdaee2	-0.0014471675
254	0xbe803367	-0.25039217
255	0x3bf278db	0.007399661

actor.pi_net.fcs.1.bias f4 [64]
0	0xbda906f2	-0.08253278
1	0xbdf05ea9	-0.11736805
2	0xbd5df560	-0.054189086
3	0xbdb5fc44	-0.088860065
4	0xbe065c6c	-0.13121194
5	0x3dc9f498	0.09861106
6	0x3d56e99c	0.05246888
7	0x3d29b8d2	0.041436024
8	0xbdf6cb74	-0.12050524
9	0x3d82ba06	0.063831374
10	0x3daa18f4	0.08305541
11	0x3daf3fbf	0.085570805
12	0x3dc7d0cc	0.09756622
13	0x3d8dd96d	0.06926236
14	0xbb7d5508	-0.003865542
15	0xbd2581b3	-0.040406894
16	0xbdffcc09	-0.124900885
17	0xbdcdb606	-0.10044484
18	0x3e02c0c0	0.12768841
19	0x3c1b2094	0.009468216
20	0x3defc074	0.117066294
21	0x3d8f3e04	0.069942504
22	0x3dc4131d	0.09573958
23	0x3d8b93ed	0.06815324
24	0x3d9391eb	0.07205566
25	0x3e0fd71e	0.14046904
26	0xbdd3ac2b	-0.10335573
27	0x3d42dfeb	0.047576826
28	0x3dcba20b	0.099430166
29	0x3d3db062	0.04631079
30	0x3c02ed00	0.0079910755
31	0xbd865891	-0.065598615
32	0xbce25dd3	-0.02763263
33	0x3d9d5e38	0.076839864
34	0x3dbca81b	0.09211751
35	0xbd2faf10	-0.042891562
36	0xbdd333b9	-0.103126
37	0x3d55ce0c	0.052198455
38	0x3d881feb	0.06646713
39	0xbda4cdb0	-0.08047044
40	0xbdaeb717	-0.08531015
41	0xbdde82ab	-0.10864767
42	0x3cc22ad0	0.023702055
43	0xbdf15241	-0.11783267
44	0xbd011ae4	-0.031519786
45	0x3dbaa828	0.091141045
46	0xbcf2a008	-0.029617324
47	0x3d8e953a	0.069620565
48	0xbc8498c9	-0.016186135
49	0x3beb34f5	0.007177944
50	0x3e168638	0.14699638
51	0x3b9c07e2	0.004761682
52	0xbd6c0209	-0.05761913
53	0xbd77d9ea	-0.060510553
54	0xbd8d4125	-0.06897191
55	0x3db6526d	0.0890244
56	0x3dab0fa4	0.083525926
57	0xbdd62ca7	-0.104577355
58	0xbd6d22bd	-0.057894457
59	0x3d04735c	0.032336578
60	0xbd9d00c4	-0.07666162
61	0x3da8de47	0.08245521
62	0x3b49deda	0.0030802996
63	0x3da227ae	0.079177245

actor.pi_net.fcs.2.weight f4 [1, 64]
0	0x3e13b5ba	0.14424792
1	0x3e701333	0.23444824
2	0x3e6261a7	0.22107564
3	0xbe9d77b8	-0.307554
4	0x3d5b8ea1	0.05360282
5	0xbcd3cc5c	-0.025854282
6	0x3e3306f5	0.17483123
7	0x3d272509	0.040806804
8	0x3d9f4948	0.07777649
9	0xbe19fae8	-0.1503712
10	0x3d3914ef	0.04518598
11	0xbdbfbd03	-0.09362223
12	0xbdabfa46	-0.08397345
13	0xbde5c9be	-0.1122012
14	0xbdedb23d	-0.11606262
15	0xbe04bb3c	-0.12962049
16	0x3e46ae2d	0.1940238
17	0xbe48c4ea	-0.19606367
18	0xbd9a9960	-0.07548785
19	0xbe01cb29	-0.12675156
20	0x3daa594d	0.08317814
21	0xbe3c2f17	-0.18377338
22	0xbe90576d	-0.281917
23	0xbd855e04	-0.06512073
24	0x3da8802a	0.0822757
25	0xbd87d81d	-0.06633017
26	0x3daad830	0.08342016
27	0xbe971bac	-0.295133
28	0xbe51914c	-0.20465583
29	0xbe5169c9	-0.2045051
30	0xbe3214f5	-0.17390807
31	0xbdd67b4c	-0.10472736
32	0xbe636ae8	-0.2220875
33	0x3d7ad5fc	0.061239228
34	0xbd910d75	-0.07082645
35	0x3de461e8	0.11151487
36	0x3e9476fb	0.28997025
37	0x3de6523c	0.11246154
38	0x3e8838f2	0.26605946
39	0xbe1309a8	-0.14359152
40	0xbe6c04ff	-0.23048781
41	0x3d855ae6	0.06511478
42	0xbd76b2ef	-0.060229238
43	0x3db8ee54	0.090298325
44	0xbe1860f0	-0.14880729
45	0x3dd17b9d	0.102286555
46	0xbe119b30	-0.14219356
47	0x3d7a5839	0.061119292
48	0xbdf80016	-0.121093914
49	0x3e20a47b	0.15687744
50	0xbe007608	-0.12545025
51	0x3d71594a	0.058923043
52	0x3e27f010	0.1640017
53	0x3def15ac	0.116740555
54	0xbe57981e	-0.21054122
55	0x3dbd3125	0.09237889
56	0xbe052f91	-0.13006426
57	0x3d885a6f	0.06657874
58	0x3e409553	0.18806963
59	0xbe859e35	-0.26097265
60	0x3e861d1b	0.2619408
61	0x3de1ec1c	0.110313624
62	0x3e1046aa	0.14089456
63	0x3e42db81	0.19029047

critic.v_net.fcs.0.weight f4 [64, 4]
0	0xbf207f99	-0.626947
1	0xbe384cd4	-0.17998058
2	0xbfca9038	-1.5825262
3	0xbfa380c7	-1.2773675
4	0xbf02d39e	-0.5110415
5	0xbd743b9d	-0.059627164
6	0xc01a8448	-2.4143238
7	0xbe10ccc0	-0.14140606
8	0xbf968c89	-1.1761638
9	0xbea3b7a3	-0.3197604
10	0x3f8f2452	1.1182959
11	0xbec676ef	-0.38762614
12	0xbe31f480	-0.17378426
13	0xbe018923	-0.1264997
14	0xc030ee01	-2.7645266
15	0xbf6144aa	-0.879954
16	0xbd7f9d53	-0.062405895
17	0x3e7daa4c	0.24771994
18	0x3fcf1de0	1.6180992
19	0x3f937335	1.1519533
20	0x3dd774b3	0.105203055
21	0xbe845d44	-0.25852406
22	0xbfa4a6ae	-1.2863367
23	0xbf1aed86	-0.6051868
24	0xbf1c6f53	-0.6110737
25	0xbe487290	-0.19574952
26	0x3fb6c02f	1.42774
27	0x3f596547	0.8492016
28	0x3ea00c51	0.31259397
29	0x3e88ca14	0.26716673
30	0x3f9458ec	1.1589637
31	0x3f94ba9f	1.1619452
32	0xbdb54fd5	-0.088531174
33	0xbc6f7508	-0.014615305
34	0x40257041	2.5849764
35	0x3f232bcc	0.63738704
36	0xbe998384	-0.2998315
37	0x3f24aabd	0.64323026
38	0x3fafbe7c	1.3730006
39	0x3f8d8aa5	1.1057936
40	0xbb9cacc1	-0.004781336
41	0xbf00c457	-0.5029959
42	0xc02c47da	-2.6918855
43	0xbd8f1df5	-0.06988136
44	0x3d5900bc	0.052979216
45	0xbe50dfec	-0.2039792
46	0x3f90e529	1.1319934
47	0x3fbc35d8	1.4703932
48	0xbe0fd079	-0.1404437
49	0x3ef10a61	0.4707823
50	0x402a605e	2.6621318
51	0xbe91c64f	-0.2847161
52	0xbe257815	-0.16159089
53	0xbea8c987	-0.32966253
54	0xbfc98795	-1.5744501
55	0xbf86d2fb	-1.0533136
56	0xbef928d4	-0.48663962
57	0x3f156878	0.5836253
58	0x4008a2e3	2.1349418
59	0xbde1a464	-0.11017683
60	0x3ed6c2e4	0.41945565
61	0xbf232c9c	-0.63739944
62	0x3ec38630	0.38188314
63	0xbef082d0	-0.46974802
64	0xbe6f2f80	-0.23357964
65	0xbee2b329	-0.44277313
66	0xc017ca9e	-2.3717418
67	0xbec9da81	-0.39424518
68	0xbd4c2428	-0.04983917
69	0x3f692ba5	0.9108222
70	0x3fa92162	1.3213313
71	0x3eba23b6	0.3635537
72	0x3ea71e50	0.32640314
73	0x3ef28f08	0.4737475
74	0x4024f5ef	2.5775106
75	0x3f7fa7bd	0.99865323
76	0x3f437aef	0.76359457
77	0x3eb39e0b	0.35081515
78	0x3fedb583	1.8571018
79	0x3e02e7b1	0.12783696
80	0xbf2b2af2	-0.66862404
81	0xbd1e1317	-0.038592424
82	0xbff7a2cb	-1.9346555
83	0xbf88d8e0	-1.0691185
84	0x3f02a66e	0.510352
85	0xbf3386a5	-0.70127326
86	0xbfd7c440	-1.6856766
87	0xbf3b3d5f	-0.7314052
88	0x3f15af5f	0.5847072
89	0x3dedc8f4	0.116105944
90	0x3fc71542	1.5553362
91	0x3f8dd0e1	1.107937
92	0xbe307607	-0.17232524
93	0x3f56e60a	0.8394476
94	0x3fe5d50e	1.7955644
95	0x3f8af5a6	1.0856216
96	0xbef04bf5	-0.4693295
97	0xbecf1877	-0.40448353
98	0xbe78152b	-0.24226825
99	0xbe526d47	-0.20549498
100	0x3f80d388	1.0064554
101	0x3f45075d	0.7696436
102	0xbf14ddef	-0.58151144
103	0x3ecb31b8	0.3968637
104	0x3f26b6bb	0.65122575
105	0xbd9973bd	-0.074927785
106	0xc01ae812	-2.4204144
107	0x3d338751	0.04383022
108	0xbe335eef	-0.17516683
109	0xbe0990d0	-0.13434148
110	0xc03b1c72	-2.9236112
111	0xbf61b269	-0.8816286
112	0xbe79171d	-0.24325223
113	0x3edacae3	0.42732915
114	0x401d65c3	2.459336
115	0x3ce0a3b9	0.027421819
116	0xbf93ed8c	-1.1556869
117	0xbf4b43b3	-0.79400176
118	0x3d5e62e8	0.054293543
119	0x3ee34a97	0.44392845
120	0xbf4fd73d	-0.811878
121	0x3d459752	0.048240013
122	0x3f1f0ea6	0.62131727
123	0x3e9ee2b3	0.31032333
124	0xbf306847	-0.68909115
125	0x3d3aa9d6	0.045572124
126	0xbf4c2f59	-0.79759747
127	0xbf63040e	-0.8867806
128	0xbf03691e	-0.5133227
129	0x3f6e7f6e	0.9316319
130	0x3fea1df0	1.8290386
131	0x3e3d9857	0.18515144
132	0x3f2afaf7	0.6678919
133	0x3f245cda	0.6420418
134	0x3f8102fc	1.0079036
135	0xbb42b376	-0.0029709018
136	0x3df51842	0.119675174
137	0xbeec9915	-0.46210542
138	0xbf9b9762	-1.2155573
139	0xbf8bf1d4	-1.0933175
140	0xbef58fc8	-0.4796126
141	0xbe245231	-0.16046979
142	0xbfe0e233	-1.756903
143	0x3f3dfeb3	0.74216765
144	0xbf0c879b	-0.5489442
145	0x3e22ac72	0.15886095
146	0x4016ac65	2.3542721
147	0x3f76dbf3	0.96429366
148	0xbe88923a	-0.26674062
149	0xbf32601a	-0.6967789
150	0xbfcf2135	-1.6182009
151	0xbd31a40d	-0.04336934
152	0x3f64816e	0.89259994
153	0xbf67ca4d	-0.9054306
154	0xc008ca3f	-2.1373441
155	0xbe63e6b0	-0.22255969
156	0x3f1c6336	0.61088884
157	0x3f86d7ee	1.0534647
158	0x3f889953	1.0671791
159	0xbe29c9fe	-0.1658096
160	0xbf54e38b	-0.83159703
161	0xbf302448	-0.6880536
162	0x3e7455da	0.23860875
163	0xbf45b3d2	-0.7722751
164	0x3e63b6db	0.22237723
165	0x3e86a8fc	0.263008
166	0xbff06d41	-1.8783342
167	0xbf14a59e	-0.5806521
168	0xbec3aab8	-0.38216186
169	0x3e925979	0.28583887
170	0x40197b81	2.398163
171	0x3f5fc93e	0.87416446
172	0x3f0fe95f	0.5621547
173	0x3f0d0db5	0.5509904
174	0x400231b7	2.0342844
175	0x3ecf388d	0.40472832
176	0x3e011a46	0.12607679
177	0xbe96d01f	-0.2945566
178	0x3fae86f4	1.3634934
179	0xbc3a9a89	-0.011389383
180	0xbe08d232	-0.13361433
181	0x3f03d28f	0.5149316
182	0x3fc6ad7c	1.5521693
183	0x3f858ed9	1.0434219
184	0xbe29230f	-0.1651728
185	0xbf6ec869	-0.9327455
186	0xbfc61a33	-1.5476745
187	0xbeee5ffe	-0.4655761
188	0xbf0f7f02	-0.56053174
189	0x3f21953c	0.6311834
190	0x3ff9da9a	1.9519837
191	0x3f87be30	1.0604916
192	0xbddd0ac4	-0.10793069
193	0x3f1f5b11	0.6224833
194	0x3fe42e65	1.7826658
195	0x3f80a8d8	1.0051527
196	0xbec34d23	-0.38144788
197	0x3da81b0b	0.08208283
198	0x3fb2ce0a	1.3969128
199	0x3f1c7431	0.61114794
200	0x3e5eb25e	0.21747729
201	0xbf423ed6	-0.7587713
202	0xc03d4992	-2.9576154
203	0xbf369879	-0.71326405
204	0xbdd06a9e	-0.101765856
205	0xbf49611d	-0.7866381
206	0xbff5035a	-1.9141648
207	0xbe2fb88d	-0.17160244
208	0xbf14b095	-0.5808194
209	0xbe853ff9	-0.2602537
210	0xc01d4148	-2.4571095
211	0xbfaed434	-1.3658509
212	0x3f0612e7	0.5237259
213	0x3d297b46	0.04137733
214	0x3fd59c4c	1.6688323
215	0x3f926af5	1.1438891
216	0x3f418a70	0.75601864
217	0x3eed3a46	0.46333522
218	0x4003fad7	2.062185
219	0x3f7ba34a	0.98296034
220	0xbf4edfd9	-0.80810314
221	0x3ef0f7eb	0.47064146
222	0x3f355bd9	0.70843273
223	0xbf367712	-0.71275437
224	0x3def2f8a	0.11678989
225	0xbe1bed44	-0.15227228
226	0xc0293a6f	-2.6441915
227	0xbf9b8931	-1.2151242
228	0xbf538670	-0.8262701
229	0x3db7b4a0	0.08969998
230	0xbf837484	-1.0269933
231	0xbf2b15b2	-0.6682998
232	0xbece252a	-0.4026273
233	0x3d41cacd	0.047312547
234	0xc010f0bf	-2.264694
235	0xbf58b40e	-0.8464974
236	0xbf94c8d7	-1.1623791
237	0xbdf79de4	-0.12090662
238	0x400c8a39	2.1959364
239	0x3eb72979	0.3577383
240	0x3f496b34	0.78679204
241	0xbee1ea91	-0.44124272
242	0xbffa972e	-1.9577386
243	0xbe75d244	-0.24005991
244	0x3efb91d4	0.49134696
245	0x3de08b57	0.10964077
246	0x3fd90937	1.6955937
247	0xbdbadeaa	-0.09124501
248	0xbd2a42b6	-0.041567527
249	0xbdf3ec9d	-0.11910365
250	0xc03976c9	-2.897875
251	0xbf84d9dd	-1.0378987
252	0xbf496a98	-0.78678274
253	0xbf5aeece	-0.8552064
254	0x3f26a260	0.65091515
255	0xbedcfe18	-0.43162608

critic.v_net.fcs.0.bias f4 [64]
0	0xbd643198	-0.05571136
1	0x3b963f35	0.0045851716
2	0xbd04ec29	-0.032451782
3	0x3e030bf6	0.12797531
4	0x3d6d270c	0.057898566
5	0x3e619d13	0.22032575
6	0xbd959694	-0.07304111
7	0x3e2a1014	0.16607696
8	0x3bf3e90e	0.007443554
9	0x3e51f651	0.20504119
10	0xbba70ed7	-0.0050982046
11	0x3e945ae0	0.28975582
12	0xbc9bf998	-0.019039914
13	0xbe20fe0a	-0.15721908
14	0x3b8800a5	0.0041504675
15	0xbe95d0e8	-0.29260945
16	0x3df00f3d	0.117216565
17	0xbe4d2676	-0.20034203
18	0xbbb57a66	-0.0055382727
19	0xbc262d3a	-0.010142619
20	0xbcdf5c40	-0.027265668
21	0xbe757610	-0.23970819
22	0x3cd8f2d3	0.026482975
23	0x3b95a461	0.0045667146
24	0xbe96eb04	-0.29476178
25	0x3e61f381	0.22065546
26	0xbd725299	-0.059160803
27	0xbb9f6f60	-0.004865572
28	0x3d0fa5d9	0.035070274
29	0xbc9210cb	-0.017830273
30	0x3dc7475a	0.09730406
31	0xbe25d585	-0.16194732
32	0xbcd7511a	-0.02628379
33	0xbe7cd947	-0.2469226
34	0xbd5f01f0	-0.054445207
35	0x3cd625e9	0.026141124
36	0x3dbe1427	0.092811875
37	0x3e67503b	0.22589199
38	0x3d8535ab	0.06504377
39	0x3cba8e09	0.022772806
40	0xbe8c0401	-0.27346805
41	0x3dcf9292	0.10135378
42	0x3c8f9ca1	0.017530741
43	0xbdda12c9	-0.10648114
44	0xbde89481	-0.1135645
45	0x3e8b8dad	0.27256528
46	0x3e6df237	0.23236929
47	0x3e271917	0.16318165
48	0x3e432fc2	0.19061187
49	0x3e7e12ed	0.24811907
50	0x3d9c4c3d	0.07631729
51	0x3d5d73e5	0.054065604
52	0x3aa784fa	0.0012780719
53	0x3cef6eb3	0.02922759
54	0xba7a862b	-0.0009556736
55	0x3e08087f	0.13284491
56	0xbd19079e	-0.03736078
57	0x3c46ae95	0.012126585
58	0xbc3a821c	-0.01138356
59	0x3dc88ff4	0.09793082
60	0x3c833d38	0.016020402
61	0xbd164467	-0.036686327
62	0xbc60b6b2	-0.013715433
63	0xbeb25622	-0.3483134

critic.v_net.fcs.1.weight f4 [64, 64]
0	0x3eefb595	0.46818224
1	0x3e1d9267	0.1538788
2	0x3cc433fb	0.023950567
3	0x3e44d9fc	0.1922378
4	0xbf0c1aac	-0.547282
5	0xbdd5712e	-0.10421978
6	0xbd83ee1f	-0.06441902
7	0xbe8c577c	-0.27410495
8	0xbe8f30a5	-0.279668
9	0xbec6dcd9	-0.38840368
10	0x3ebd91d7	0.3702533
11	0xbee2aa66	-0.4427063
12	0xbd59490b	-0.053048175
13	0x3ebc672c	0.36797464
14	0xbcf32337	-0.029679878
15	0xbbe479ee	-0.006972543
16	0x3da667c1	0.08125258
17	0x3d0e90f9	0.034806225
18	0xbf2a5d19	-0.66548306
19	0xbd2b9319	-0.04188833
20	0x3ef2fe34	0.47459567
21	0x3eaaef87	0.3338587
22	0xbf1078c0	-0.5643425
23	0xbee0e62e	-0.43925613
24	0x3cef16eb	0.029185733
25	0x3c70a52c	0.014687818
26	0x3de2c030	0.11071813
27	0x3efa6cc2	0.489111
28	0xbd19d763	-0.037558924
29	0xbdd43bce	-0.10362969
30	0x3cd94eb3	0.026526785
31	0x3ec6c7d3	0.3882433
32	0xbdc90730	-0.09815824
33	0xbcb3a69c	-0.021930031
34	0x3ec41beb	0.3830255
35	0xbe424f0b	-0.18975465
36	0xbf191451	-0.59796625
37	0xbd5f8e86	-0.05457928
38	0x3cbefdf4	0.023314454
39	0x3e1d1709	0.15340818
40	0x3e03140c	0.12800616
41	0xbc7e7992	-0.015531914
42	0xbf0a9abc	-0.54142356
43	0xbe63bcc2	-0.22239974
44	0x3d058074	0.032593206
45	0xbeabeea2	-0.335805
46	0x3cb65290	0.022256166
47	0xbe851696	-0.25993794
48	0xbed286a2	-0.41118342
49	0xbe2d804b	-0.16943471
50	0x3ee446a0	0.44585133
51	0x3dcfc126	0.10144262
52	0x3f53dbe7	0.8275742
53	0xbf2d54f9	-0.67707783
54	0xbf1b87f2	-0.6075431
55	0x3ca812ad	0.020516718
56	0x3f1a2154	0.60207105
57	0x3eaf9584	0.3429376
58	0x3ee1b017	0.44079658
59	0xbdce9ce3	-0.100885175
60	0xbd6cd97e	-0.057824604
61	0x3cb8513b	0.022499671
62	0x3f20881b	0.6270768
63	0x3d6e73c5	0.058215875
64	0x3e9449ff	0.28962705
65	0x3ea8b94f	0.3295388
66	0xbe8de78a	-0.27715713
67	0x3f086b00	0.5328827
68	0xbf0bcfa3	-0.54613703
69	0x3e707447	0.23481856
70	0xbec403a0	-0.38284016
71	0xbe7dd73e	-0.2478914
72	0xbf7396c4	-0.95151925
73	0xbe6daf48	-0.23211396
74	0x3fa5c0e6	1.2949493
75	0xbe6f10d5	-0.23346265
76	0xbf2dbf87	-0.6787037
77	0x3eaaa6ee	0.33330482
78	0xbf23ef67	-0.64037174
79	0x3d5236c4	0.05132176
80	0x3ebf0be6	0.37313765
81	0xbeb9bc0b	-0.36276278
82	0xbf858f8b	-1.0434431
83	0xbdbf0773	-0.09327593
84	0x3e8b4d99	0.2720764
85	0x3e9de579	0.30839136
86	0xbe33a20d	-0.17542286
87	0xbf3365c6	-0.7007717
88	0xbd4d0d7c	-0.050061688
89	0x3e8169e2	0.25276095
90	0x3f87a533	1.059729
91	0x3f4ce950	0.80043507
92	0xbf84d7a0	-1.0378304
93	0xbe33bcb1	-0.17552449
94	0xbe8d85a7	-0.2764103
95	0x3e2752aa	0.16340128
96	0xbf1b8716	-0.60753
97	0x3c88da26	0.016705584
98	0x3eb34614	0.35014403
99	0x3e9fe15b	0.3122662
100	0xbf608d73	-0.87715834
101	0x3eac2de4	0.33628762
102	0x3f525b87	0.8217091
103	0x3cf675f7	0.030085547
104	0xbd882adb	-0.06648799
105	0x3e7a69c5	0.2445441
106	0xbf86f64a	-1.0543911
107	0xbe6eb3d4	-0.23310786
108	0xbe4f14e6	-0.20222816
109	0xbeab8350	-0.3349862
110	0x3e37b126	0.1793867
111	0xbea3005e	-0.31836218
112	0xbee1f107	-0.44129202
113	0xbe1ae974	-0.15128118
114	0x3f61f299	0.882608
115	0x3ee25eed	0.44213048
116	0x3f4bac0d	0.79559404
117	0xbe79bd1c	-0.24388546
118	0xbee77e6d	-0.45213643
119	0xbee04b99	-0.43807676
120	0x3f765daf	0.962367
121	0xbbbe16c1	-0.0058010523
122	0x3f0bd76f	0.546256
123	0xbf3cddc3	-0.7377588
124	0x3f23ebc9	0.64031655
125	0xbe9fe0aa	-0.31226093
126	0x3f5ce028	0.86279535
127	0xbd1dff5b	-0.038573604
128	0xbd41ed99	-0.04734573
129	0xbed276de	-0.41106313
130	0xbe1ab000	-0.15106201
131	0xbecbe68a	-0.39824325
132	0xbd8d058c	-0.068858236
133	0xbf13624d	-0.5757187
134	0xbd426eda	-0.047468998
135	0x3b9c9b81	0.0047792797
136	0x3e3b1f1b	0.18273585
137	0xbdc49aa2	-0.09599806
138	0xbf854f11	-1.0414754
139	0xbea241ef	-0.31690928
140	0x3f8b54be	1.0885236
141	0x3d460467	0.048344042
142	0x3f29b4f7	0.66291755
143	0x3ebefa8a	0.3730052
144	0xbf8386c1	-1.0275499
145	0x3f5dae6e	0.86594284
146	0x3ea9b9b9	0.33149508
147	0x3eb1255d	0.34598818
148	0xbda2716c	-0.0793179
149	0x3e2b6f02	0.16741565
150	0x3e1ba00e	0.15197775
151	0x3e598ed4	0.21245891
152	0x3d7b1ab5	0.061304767
153	0x3de7539c	0.11295244
154	0x3bd743e3	0.006569372
155	0xbe122998	-0.1427368
156	0x3f106da1	0.5641728
157	0xbf2c70bd	-0.67359525
158	0xbe8b8a74	-0.2725407
159	0x3db71e7b	0.089413606
160	0x3f5977d2	0.84948456
161	0x3fa4b346	1.286721
162	0x3b9089b2	0.004410946
163	0xbfa8a65c	-1.3175769
164	0xbe6ad6ee	-0.22933552
165	0xbf969a9a	-1.1765931
166	0xbef57336	-0.4793946
167	0x3f2edc98	0.6830535
168	0xbd3c4b19	-0.045970056
169	0xbe148363	-0.14503245
170	0x3e08126f	0.13288282
171	0x3f8c76e7	1.0973786
172	0x3ed6ddd5	0.4196612
173	0xbe69057f	-0.22756003
174	0xbf67983f	-0.90466684
175	0xbe93c8ee	-0.28864235
176	0xbddd397a	-0.108019784
177	0xbea2050f	-0.31644484
178	0xbf5ec72a	-0.8702265
179	0xbf956880	-1.1672516
180	0xbe821f4a	-0.25414497
181	0x3d5e77a0	0.054313302
182	0x3e32bb83	0.17454343
183	0xbe8a4f23	-0.27013502
184	0x3dc63535	0.09678117
185	0xbe863732	-0.26213986
186	0xbe5ff72a	-0.2187163
187	0xbeb1c8e9	-0.34723595
188	0xbe104275	-0.14087851
189	0x3f841f79	1.0322105
190	0xbe1b6918	-0.15176809
191	0x3def6f46	0.116911456
192	0xbeb7ed83	-0.35923395
193	0xbedb5bcb	-0.4284347
194	0x3ea5ce5b	0.32384
195	0xbf068fef	-0.52563375
196	0x3ed9f752	0.42571503
197	0xbe411015	-0.18853791
198	0x3eb484fe	0.35257715
199	0x3e1cb51d	0.15303464
200	0x3f93eca7	1.1556596
201	0x3ed8c46d	0.4233736
202	0xbf8d4629	-1.1037036
203	0x3e8735dc	0.2640828
204	0x3f3c939c	0.73662734
205	0xbebdaa8f	-0.37044188
206	0x3f3462a7	0.7046303
207	0x3cc3c1ae	0.023896065
208	0xbec26239	-0.37965563
209	0x3e8cee4c	0.27525556
210	0x3f7a95ee	0.97885025
211	0x3e04a4ec	0.12953538
212	0xbea4c888	-0.32184243
213	0xbed0a6b1	-0.40752175
214	0x3ea3c67a	0.31987363
215	0x3f3a4b84	0.7277148
216	0xbda5322a	-0.08066209
217	0xbdaab242	-0.08334781
218	0xbf9b1aa7	-1.2117509
219	0xbf70ab75	-0.9401162
220	0x3f70a517	0.9400191
221	0x3e4e063d	0.20119567
222	0x3eb54a6f	0.3540835
223	0xbe234f70	-0.15948272
224	0x3ee575b7	0.44816372
225	0x3e0fdfcd	0.14050217
226	0xbedb6db6	-0.4285714
227	0xbef18e7c	-0.4717902
228	0x3f82f690	1.0231495
229	0xbd85026e	-0.06494604
230	0xbf0ba516	-0.54548776
231	0xbd1f85b9	-0.038945887
232	0x3e05a470	0.13051009
233	0xbeb4278d	-0.35186425
234	0x3f99190f	1.1960772
235	0x3e5a5aa7	0.21323644
236	0x3e5b7c1c	0.21434063
237	0x3e84aa59	0.25911215
238	0xbdccbf0f	-0.09997379
239	0x3ebf9767	0.37420198
240	0x3ea758b3	0.3268486
241	0x3e93c09c	0.28857887
242	0xbf7261ea	-0.94680655
243	0xbedcbbb9	-0.4311197
244	0xbf2a23c6	-0.66460836
245	0x3ec17a1b	0.37788472
246	0x3f157364	0.583792
247	0x3f036e28	0.5133996
248	0xbfa76424	-1.3077435
249	0xbc324c4a	-0.010882447
250	0xbf55d7b4	-0.8353226
251	0x3f0e991d	0.5570238
252	0xbf07f86f	-0.53113455
253	0x3e88bcc9	0.26706532
254	0xbf8f37e5	-1.1188933
255	0x3dfc43b4	0.12317601

critic.v_net.fcs.1.bias f4 [64]
0	0x3d245a8c	0.040125415
1	0xbd8c81c7	-0.068606906
2	0xbecc1dad	-0.3986639
3	0x3ce9024c	0.028443478
4	0x3d42c34b	0.047549527
5	0x3ed76fae	0.42077392
6	0x3da8c40f	0.0824052
7	0xbe0cb289	-0.13739981
8	0x3f08250d	0.53181535
9	0xbe629f0e	-0.22130987
10	0xbe0ab27b	-0.13544647
11	0x3c69849d	0.014252809
12	0xbeffa7f8	-0.49932837
13	0x3d82dade	0.06389402
14	0x3cdf06a1	0.02722484
15	0xbdedc1e0	-0.11609244
16	0xbf41bd10	-0.7567911
17	0xbecff3a0	-0.4061556
18	0xbd0358b7	-0.032067027
19	0x3c8b29ca	0.0169877
20	0x3e6cd860	0.23129416
21	0x3e928ef3	0.28624687
22	0x3e08d15d	0.13361116
23	0xbef5dc60	-0.48019695
24	0x3e1017fc	0.1407165
25	0xbde46b11	-0.11153234
26	0xbda06e9a	-0.078335956
27	0xbca4f1d7	-0.02013485
28	0xbd000b70	-0.031260908
29	0x3de83f3a	0.113401845
30	0xbe2a10da	-0.16607991
31	0xbece4898	-0.4028976
32	0xbe19c5ab	-0.1501681
33	0x3f633e6d	0.8876713
34	0x3eb5e887	0.35528967
35	0x3d6ab7a5	0.057304043
36	0xbee2bfab	-0.44286856
37	0xbe466dba	-0.19377795
38	0x3da21a45	0.07915167
39	0x3f158bdc	0.58416533
40	0xbd5dcb02	-0.05414868
41	0x3df1474a	0.117811754
42	0x3d23d1ef	0.03999513
43	0xbc2d3b88	-0.010573275
44	0xbe0a43c5	-0.13502415
45	0xbf012404	-0.5044558
46	0x3c71daac	0.014761608
47	0xbeb963df	-0.36209008
48	0x3db373ac	0.08762297
49	0xbe786600	-0.2425766
50	0xbddf5baa	-0.109061554
51	0x3cda8f8e	0.02667978
52	0x3e131b4f	0.14365886
53	0xbe91948b	-0.28433642
54	0xbd23f6bf	-0.040030237
55	0x3673ce31	3.632984e-06
56	0xbf2eb034	-0.68237615
57	0xbde099bb	-0.10966822
58	0x3e349919	0.17636527
59	0x3d8b9dcc	0.06817207
60	0x3f60bf08	0.8779149
61	0x3dcdb3b6	0.10044043
62	0x3e139645	0.14412792
63	0x3f13f542	0.5779611

critic.v_net.fcs.2.weight f4 [1, 64]
0	0xbf60ad2f	-0.8776426
1	0x3ed1e399	0.40993956
2	0xbfec8dcf	-1.8480777
3	0xbec7b257	-0.3900325
4	0xbf5a5418	-0.85284567
5	0x3fe1f4a1	1.765278
6	0x3fc4e4cb	1.5382322
7	0x3f43b551	0.7644854
8	0x3fbcff19	1.476535
9	0xbf9fa181	-1.2471162
10	0x3ec9f40c	0.39444005
11	0x3f50cbe6	0.81561124
12	0xbfdbefaa	-1.7182515
13	0xbf7b2f05	-0.9811862
14	0xbf4d296d	-0.80141336
15	0xbf86383b	-1.048591
16	0xbfc19605	-1.5123907
17	0xbfe0d5fa	-1.75653
18	0x3f4470aa	0.7673441
19	0x3f8cc737	1.0998296
20	0x3fd639d8	1.6736403
21	0x3fb86683	1.4406284
22	0xbf510c30	-0.8165922
23	0xbfd61605	-1.672547
24	0x3fb252b1	1.3931485
25	0x3f179ff7	0.5922846
26	0x3f4d3701	0.80162054
27	0x3ed5e36d	0.41775075
28	0xbf5360d3	-0.8256962
29	0x3f925c7b	1.1434473
30	0x3eb27464	0.34854424
31	0xbfa60aa8	-1.2972002
32	0xbf8dd5e9	-1.1080905
33	0x4003abfd	2.0573723
34	0x3f9b395c	1.212688
35	0xbee04bce	-0.43807834
36	0xbfbd48a6	-1.4787796
37	0xbfb01691	-1.3756887
38	0x3fab9e89	1.3407756
39	0x3fbbe9d7	1.4680737
40	0x3edd08ac	0.4317068
41	0xbec76057	-0.3894069
42	0xbf7f0689	-0.99619347
43	0xbedc0d70	-0.42979002
44	0xbfa3d80c	-1.2800307
45	0xbfd32046	-1.6494224
46	0xbf4a8757	-0.7911276
47	0xbfceca54	-1.6155496
48	0xbee59812	-0.44842583
49	0xbfb76f92	-1.4330924
50	0xbfca24aa	-1.5792439
51	0x3ec7b8d0	0.39008188
52	0xbf5105cc	-0.8164947
53	0xbf919f73	-1.1376785
54	0xbee130e7	-0.43982622
55	0x3f43098a	0.7618643
56	0xbfe8c19d	-1.8184086
57	0x3ebb8c07	0.3663027
58	0xbf49a021	-0.7875996
59	0xbf4fe5f5	-0.8121026
60	0x4006e395	2.1076405
61	0xbf7893a9	-0.9710031
62	0xbf458de1	-0.77169615
63	0x3fab2bfb	1.3372797

exp_avg f4 [64, 4]
0	0xba435c71	-0.00074524345
1	0xbaf4e7b6	-0.0018684778
2	0x3b14560b	0.0022634293
3	0xbabe2d45	-0.0014509341
4	0xb8b8b2b9	-8.8070934e-05
5	0x38ad0d43	8.251753e-05
6	0xb8851b03	-6.3469655e-05
7	0xb794d5c2	-1.7742514e-05
8	0x393e51ac	0.00018150237
9	0x394c7f9a	0.00019502491
10	0xb945e32b	-0.0001887201
11	0x39809214	0.000245229
12	0xb91da5f6	-0.00015034512
13	0xb9ddcc15	-0.00042304458
14	0x387a4baf	5.967513e-05
15	0xba0f7f77	-0.0005474011
16	0xb91e72a0	-0.00015110755
17	0xba4b6053	-0.0007758189
18	0x389f7661	7.6037606e-05
19	0xba84234d	-0.0010081321
20	0x39b77b6d	0.0003499644
21	0xba0109ce	-0.00049224205
22	0x3944ffd8	0.00018787326
23	0x390acd38	0.00013237156
24	0x3a133ba2	0.0005616491
25	0xbae1c246	-0.0017224036
26	0x3a0c03c7	0.0005341139
27	0xb9f462dc	-0.00046612963
28	0xba970263	-0.0011521097
29	0xbac58093	-0.0015068225
30	0x3adc9087	0.001682774
31	0xbad5a0cb	-0.001629853
32	0xbabffad9	-0.0014646902
33	0xbb674e5a	-0.0035294504
34	0x3ad3a733	0.0016147852
35	0xbb052bf6	-0.0020320392
36	0xb92a4a88	-0.00016240228
37	0xb95f3c43	-0.00021289386
38	0x3a87ab5b	0.001035075
39	0xba186f82	-0.0005814956
40	0xb92bca29	-0.00016383141
41	0x3916ff52	0.00014400229
42	0xb7803d89	-1.5287444e-05
43	0xb79a4206	-1.8388975e-05
44	0xb7b7cb20	-2.1909887e-05
45	0xb918d95c	-0.00014576822
46	0x3a578570	0.0008221483
47	0xb8c97b0d	-9.607347e-05
48	0xba54fa3c	-0.0008124446
49	0xba90899c	-0.0011027339
50	0x3a8aabe3	0.0010579791
51	0xba9b3edb	-0.0011844294
52	0x390c987b	0.00013408244
53	0x39958c2e	0.00028523937
54	0xba11967e	-0.0005553736
55	0x3990d967	0.00027627798
56	0x3a091fb5	0.000523086
57	0x39118921	0.00013879362
58	0xb8997370	-7.3171104e-05
59	0x39a06f18	0.0003060035
60	0xba19002e	-0.00058365136
61	0x39e3c2f9	0.0004344208
62	0xb888f9c6	-6.531509e-05
63	0xb9a59f57	-0.0003158997
64	0xb99fee4e	-0.00030504394
65	0x3ad0c36c	0.0015927381
66	0xbb57bd30	-0.003291916
67	0x3a3ce77b	0.0007206124
68	0x390a9f5d	0.00013220073
69	0xba9665ce	-0.0011474432
70	0x3af4b8d4	0.0018670806
71	0xb9b5a474	-0.00034645537
72	0x3a04500f	0.000504733
73	0xb950b6ca	-0.0001990452
74	0x395ab6bb	0.00020858173
75	0x38ccd246	9.7666445e-05
76	0xba012f02	-0.0004927964
77	0xb9f04518	-0.00045827846
78	0x3915fa75	0.0001430305
79	0xba04b339	-0.00050621066
80	0x39666cff	0.00021975113
81	0x39995884	0.00029248383
82	0xba5f8531	-0.0008526622
83	0x39eace39	0.00044785606
84	0x3a923f97	0.0011157867
85	0xb910dc9f	-0.00013815098
86	0x3b3c5fb3	0.0028743565
87	0x3a0363ad	0.0005012106
88	0xb9e3cd98	-0.00043449993
89	0xb9af10cd	-0.0003339112
90	0x399ddaec	0.00030108483
91	0xb9e326c2	-0.0004332569
92	0x34938abb	2.7481823e-07
93	0xba120391	-0.00055699894
94	0x3aa44467	0.0012532593
95	0xb96ff561	-0.00022884227
96	0xb9e2ee77	-0.0004328375
97	0x3a409dc9	0.00073477306
98	0x386fafbe	5.7145713e-05
99	0xb9089c14	-0.00013028114
100	0xb96e67d6	-0.0002273613
101	0x3952193c	0.00020036561
102	0xb95768d8	-0.00020543055
103	0xb82d50af	-4.1321557e-05
104	0x39bd94f4	0.00036159868
105	0xba6c46b1	-0.00090132194
106	0x39bfabc5	0.00036558337
107	0xba0243f0	-0.000496923
108	0xb8903ddd	-6.877978e-05
109	0xb99ce3ed	-0.00029924457
110	0x3a99e63e	0.0011741591
111	0xba3e3eec	-0.0007257301
112	0xb9c82b1d	-0.00038179095
113	0xbb218600	-0.002464652
114	0x3b2c92e3	0.0026332668
115	0xba7c1583	-0.00096162426
116	0x39ac9d36	0.00032923528
117	0xb989f92d	-0.00026316327
118	0xb81bf094	-3.7178936e-05
119	0x391ba053	0.00014841677
120	0xb9074214	-0.0001289922
121	0x38c7cd7a	9.5273324e-05
122	0xba5cb32a	-0.00084190315
123	0xb89146af	-6.927305e-05
124	0x39608375	0.00021411276
125	0x3a13eca2	0.0005642866
126	0xb96e1135	-0.00022703859
127	0x3a355ba2	0.00069182564
128	0xba067ff3	-0.000513076
129	0x3adcf5fe	0.0016857979
130	0xba2ed06b	-0.000666863
131	0x3aac294a	0.0013134864
132	0xb81a589e	-3.6798992e-05
133	0x39a30d62	0.00031099754
134	0xb92e3c47	-0.00016616388
135	0x39cbdce1	0.00038883745
136	0xb9a32815	-0.00031119646
137	0x392af36e	0.00016303148
138	0x386d8f7f	5.6638844e-05
139	0xb98246ce	-0.00024848286
140	0x3977ca62	0.00023631149
141	0x38be7ddf	9.083351e-05
142	0xb7e09ab7	-2.6774926e-05
143	0x3820e450	3.8359605e-05
144	0xba0b1307	-0.00053052645
145	0x39412832	0.00018420888
146	0x38ab52dc	8.169349e-05
147	0xb9a38a09	-0.00031192627
148	0x3a084478	0.0005198191
149	0x3ade00b2	0.0016937463
150	0xbaa37971	-0.0012472105
151	0x3a46a30f	0.0007577398
152	0x3acae219	0.0015478759
153	0x3b4a7513	0.0030892536
154	0xbb0ac682	-0.0021175449
155	0x3b10fbbc	0.0022122702
156	0xb9699098	-0.00022274477
157	0xb896aed0	-7.185119e-05
158	0x38d13900	9.976514e-05
159	0xb99c3cf7	-0.0002980006
160	0xbabaf7b4	-0.0014264495
161	0xbb50d314	-0.0031864094
162	0x3b423e9d	0.0029639371
163	0xbb22e4fa	-0.002485572
164	0xb9a06312	-0.0003059139
165	0xb9dea4bb	-0.00042465873
166	0x39bd9429	0.00036159277
167	0xb99d9055	-0.0003005291
168	0x3a719e95	0.0009217051
169	0x38f71d50	0.00011783338
170	0xba78b808	-0.0009487872
171	0x3a8cd009	0.0010743152
172	0x3a2da04a	0.0006623311
173	0x3a347d7f	0.00068851555
174	0xba3a3f9b	-0.0007104815
175	0x3a6fb1dd	0.000914363
176	0x3981243a	0.00024631788
177	0xb9f6e9d4	-0.00047094992
178	0x394e1f3a	0.00019657324
179	0xb89ae84d	-7.3865616e-05
180	0xb837b79b	-4.3801596e-05
181	0x38bf8310	9.132002e-05
182	0x38112485	3.4604705e-05
183	0x39153def	0.0001423282
184	0xba912a55	-0.0011075238
185	0xb8d79f0f	-0.00010281626
186	0xbb2ba6b7	-0.00261919
187	0xb9c9d848	-0.0003849885
188	0x39e05f7f	0.0004279576
189	0xb8ce70d2	-9.84386e-05
190	0x3ae70521	0.001762543
191	0x390ed881	0.0001362283
192	0xba370904	-0.00069822394
193	0xbae3adad	-0.0017370485
194	0x3b26cc71	0.0025451446
195	0xbb202e03	-0.0024441488
196	0xb9aa11fb	-0.00032438323
197	0x37506c32	1.2422957e-05
198	0xbac3e0dc	-0.0014944333
199	0xb8e97941	-0.00011132891
200	0x39dc080d	0.00041967668
201	0x39d7e4cf	0.0004117847
202	0xbaf25343	-0.0018487949
203	0x3ac8746e	0.0015293488
204	0x399b3c27	0.0002960872
205	0xb8aca6d8	-8.232676e-05
206	0x36c8c92f	5.9838853e-06
207	0xb80626e0	-3.1984295e-05
208	0xb73bc190	-1.1191136e-05
209	0x391df4a5	0.00015063824
210	0xb907deb6	-0.0001295757
211	0x39a3f694	0.00031273498
212	0xba41ec15	-0.00073975447
213	0x3a067db4	0.00051304256
214	0x39fe208b	0.00048470902
215	0xba311123	-0.0006754568
216	0xb8a26b7b	-7.744782e-05
217	0x3836dc17	4.3597156e-05
218	0xb80e486f	-3.3922897e-05
219	0x38049de3	3.1618296e-05
220	0xb8e94c3b	-0.00011124505
221	0xbad5cf5f	-0.0016312412
222	0x39fb8dea	0.00047980185
223	0xbb07237f	-0.0020620523
224	0xb93906af	-0.00017645465
225	0xb88bba79	-6.66277e-05
226	0x3a971a01	0.0011528136
227	0xba56ff3c	-0.0008201485
228	0x39e4c342	0.00043633027
229	0x398ff5ad	0.00027458128
230	0xb8ec3216	-0.00011262686
231	0x39d803e0	0.00041201618
232	0x3942b29a	0.00018567816
233	0x3950ac0c	0.00019900518
234	0xb9cc0285	-0.0003891179
235	0x39b8c62b	0.00035242861
236	0x391a6ded	0.00014727535
237	0xb7af02f1	-2.0862995e-05
238	0x378be69b	1.6677475e-05
239	0x383b3107	4.4629935e-05
240	0x372464f6	9.7986685e-06
241	0x3aa40379	0.0012513242
242	0xba42157d	-0.00074037147
243	0x3ac2b0a1	0.0014853665
244	0x3a0ade54	0.00052974117
245	0xb890efbd	-6.91111e-05
246	0x399a4cca	0.0002943038
247	0x39bdaa30	0.0003617569
248	0x39ba917a	0.00035585073
249	0xba7e9a2a	-0.0009712303
250	0x3af5fe4a	0.0018767801
251	0xb9eafcdb	-0.0004482035
252	0x3967775e	0.00022074344
253	0x39710ff3	0.00022989493
254	0xba6e4cec	-0.0009090442
255	0x3a105d6f	0.0005507087
