training_results/cartpole_boltz/ppo_dMax2.0/seed_2024/3000000steps/checkpoints/model_300000.pt (torch, 151515 bytes, 30 tensors)

actor.pi_net.fcs.0.weight f4 [64, 4]
0	0xbeb35f07	-0.35033438
1	0xbcb8496a	-0.022495944
2	0x3ed1f425	0.4100658
3	0x3f8b622e	1.0889337
4	0x3ee11d71	0.43967775
5	0x3eff83bb	0.4990519
6	0x3f214ef5	0.63011104
7	0xbcb2f41e	-0.02184492
8	0x3c908e37	0.017645938
9	0xbbe892b3	-0.007097566
10	0xbf47b2ba	-0.7800709
11	0xbebe1e68	-0.37132573
12	0xbc01e918	-0.007929109
13	0x3e9d15e1	0.30680755
14	0xbe21560a	-0.15755478
15	0x3e3b48b9	0.1828946
16	0x3da50206	0.080570266
17	0xbed3ef2b	-0.41393408
18	0x3e27b7b1	0.16378666
19	0x3db305ec	0.08741364
20	0xbf0dffd5	-0.55468494
21	0x3d80330c	0.062597364
22	0xbeb4340a	-0.35195953
23	0xbecacb94	-0.39608443
24	0xbecc11a2	-0.39857203
25	0xbf0d95ad	-0.5530651
26	0xbee1240b	-0.4397281
27	0x3d6f0999	0.058358762
28	0x3e37c0ca	0.17944637
29	0x3a55138f	0.00081282196
30	0x3eceb278	0.40370536
31	0x3f3d9de5	0.7406905
32	0x3ed3f5ff	0.41398618
33	0xbea8631e	-0.3288812
34	0x3f223325	0.6335929
35	0x3f932d6f	1.149824
36	0x3bac3253	0.0052550226
37	0x3ed4aa6e	0.41536278
38	0x3f48f299	0.78495175
39	0x3f67def3	0.9057457
40	0x3e07bee7	0.13256417
41	0x3eaf3301	0.342186
42	0x3eb01b35	0.34395757
43	0x3e0d9be1	0.13828994
44	0xbec9782d	-0.393495
45	0xbc12e7b5	-0.008966376
46	0x3f1e128d	0.61747056
47	0x3f21dd99	0.63228756
48	0xbdf23556	-0.11826579
49	0x3e3d0b11	0.18461253
50	0x3f6181ad	0.88088495
51	0x3f249596	0.6429075
52	0xbd68aaf9	-0.056803677
53	0x3d8522d2	0.06500782
54	0xbf3966f7	-0.72422737
55	0xbf1fc964	-0.6241667
56	0x3e0cba9f	0.13743065
57	0xbce8f397	-0.028436465
58	0xbef9c50a	-0.4878314
59	0xbe84a02f	-0.2590346
60	0x3ee70cb4	0.4512688
61	0x3e3ee54d	0.18642159
62	0x3f2c5656	0.6731924
63	0x3e76ad6e	0.24089596
64	0x3edcff3d	0.4316348
65	0x3eca605a	0.39526635
66	0xbece39bb	-0.4027842
67	0xbf96ed4f	-1.1791171
68	0x3d4916af	0.0490939
69	0xbf0d9dfb	-0.55319184
70	0x3f127244	0.57205606
71	0x3f20d949	0.6283155
72	0xbef46395	-0.47732225
73	0xbe02245e	-0.12709185
74	0xbed46433	-0.41482696
75	0xbe28561d	-0.164391
76	0x3c49ebd4	0.012324292
77	0xbea46b00	-0.32112885
78	0xbd8dcbe3	-0.06923654
79	0x3f1aa802	0.6041261
80	0xbe26fbf9	-0.16307057
81	0x3e5a41c2	0.21314147
82	0xbde171ce	-0.11008035
83	0xbf8295a8	-1.0201921
84	0xbf1b8cbd	-0.60761625
85	0xbeb6be17	-0.35691902
86	0x3f0e021c	0.5547197
87	0x3f819f10	1.0126667
88	0x3e8ffc70	0.28122282
89	0x3dc47831	0.09593237
90	0x3ea3678e	0.31914943
91	0x3f4f8995	0.8106931
92	0x3e4c2894	0.19937354
93	0xbf0255ea	-0.50912344
94	0x3f4795ae	0.7796277
95	0x3f49ab51	0.78777033
96	0x3c1a93e6	0.009434676
97	0x3f135155	0.5754598
98	0x3f0b4da3	0.5441534
99	0x3e978f9e	0.2960176
100	0x3e8a31a7	0.26991007
101	0xbe6a8cb0	-0.2290523
102	0xbeb7fde6	-0.35935897
103	0x3ecf51f8	0.40492225
104	0xbe595f19	-0.21227683
105	0xbe82c0d7	-0.2553775
106	0xbee9a361	-0.4563246
107	0x3d3c3512	0.04594905
108	0x3e01bdc2	0.12670043
109	0x3e9c59a2	0.30537134
110	0x3f5ce819	0.8629165
111	0x3f738941	0.9513131
112	0x3e951f87	0.29125616
113	0xbf16664b	-0.58749837
114	0x3f5ef2b7	0.87089103
115	0x3f7ba150	0.9829302
116	0xbe84dca1	-0.25949576
117	0xbe4d3a9f	-0.20041893
118	0x3e272dce	0.16326067
119	0xbf0cde07	-0.55026287
120	0x3e87090f	0.263741
121	0xbe86d089	-0.26330975
122	0xbe0ee54c	-0.13954657
123	0xbf6448bd	-0.8917349
124	0xbe99d8c9	-0.30048206
125	0x3ea15718	0.3151176
126	0xbf120d72	-0.57051766
127	0xbe0b1cab	-0.13585155
128	0xbe47e93b	-0.19522564
129	0x3f0d8a5f	0.5528926
130	0xbe50d6f3	-0.20394497
131	0x3da05813	0.07829299
132	0xbd3964ba	-0.045262076
133	0xbcde5e10	-0.027144462
134	0x3e19812f	0.14990686
135	0x3d07b813	0.03313453
136	0x3e78c3a1	0.24293377
137	0x3ed57907	0.416939
138	0x3e9bf90e	0.3046345
139	0x3eac7c73	0.33688697
140	0xbbb13b98	-0.0054087155
141	0x3e847a68	0.2587464
142	0xbee0aa02	-0.43879706
143	0xbe8a6540	-0.27030373
144	0xbe9c3319	-0.30507734
145	0x3ee8bb52	0.45455414
146	0x3f208588	0.6270375
147	0x3ea819da	0.32832223
148	0xbd38997b	-0.045068245
149	0x3ee9b300	0.4564438
150	0xbedb94fc	-0.42887104
151	0xbf60d79f	-0.8782901
152	0x3b6fe6bf	0.0036606041
153	0x3d868909	0.06569106
154	0xbed64774	-0.4185139
155	0xbf8c75c4	-1.0973439
156	0x3ed09cdc	0.40744674
157	0x3dd8132a	0.1055053
158	0x3f431944	0.7621043
159	0x3ea1c4b3	0.31595382
160	0x3e1a78e3	0.15085177
161	0xbe599f88	-0.21252263
162	0x3f316c94	0.693063
163	0x3f85232a	1.0401356
164	0xbd051aa4	-0.03249611
165	0xbe084ed7	-0.13311325
166	0x3f547688	0.82993364
167	0x3f69d59c	0.9134157
168	0x3e1125c3	0.14174561
169	0xbee7b39b	-0.45254216
170	0xbf2b2522	-0.66853535
171	0xbf03453a	-0.51277506
172	0x3e498e91	0.19683291
173	0xbd560960	-0.052255034
174	0xbe997a72	-0.2997623
175	0xbf1c7c0c	-0.6112678
176	0xbe1a1390	-0.15046525
177	0xbe8edc94	-0.27902663
178	0xbd86db4a	-0.06584795
179	0xbe963e2c	-0.29344308
180	0xbe325421	-0.17414905
181	0x3ea2fea9	0.31834915
182	0xbe97db49	-0.2965949
183	0x3e542f9e	0.2072129
184	0x3f0ae7c7	0.54259914
185	0x3f0d2fb2	0.551509
186	0xbf31f290	-0.69510746
187	0xbf7c8577	-0.9864115
188	0xbd8eb952	-0.06968941
189	0xbf05bb8a	-0.52239287
190	0x3f2585dd	0.64657384
191	0x3f783738	0.9695926
192	0x3eeeafe5	0.46618572
193	0x3cb6def8	0.022323117
194	0x3e1e07f5	0.15432723
195	0x3f8e6623	1.112492
196	0x3ead678a	0.33868057
197	0x3e8bc112	0.27295738
198	0xbecd08bf	-0.40045735
199	0xbf6d81c0	-0.9277611
200	0xbeb65f58	-0.35619617
201	0xbe8ebd49	-0.27878788
202	0xbf7b3932	-0.9813415
203	0xbf3cf94c	-0.73817897
204	0x3e70d954	0.23520404
205	0xbedf7667	-0.4364502
206	0xbece422d	-0.40284863
207	0xbdf4dfa8	-0.119567215
208	0xbdf80940	-0.12111139
209	0x3e52bf0f	0.20580696
210	0x3e8dc3a4	0.27688324
211	0xbd167458	-0.036732048
212	0x3e159dca	0.14610973
213	0x3ef2890a	0.47370178
214	0xbc9d9cc3	-0.019239789
215	0x3f0685a6	0.5254768
216	0xbe20ab40	-0.15690327
217	0x3efde16c	0.49586046
218	0x3e69e229	0.2284018
219	0x3d8b1703	0.067914985
220	0xbcd19fc9	-0.025588887
221	0xbede04e8	-0.43363118
222	0x3e13a942	0.14420035
223	0x3dafa3d1	0.085761674
224	0x3ef0fd8d	0.47068444
225	0x3e051ae3	0.12998538
226	0x3d93fb02	0.0722561
227	0x3f656365	0.8960479
228	0x3da1f36e	0.07907759
229	0x3bf2772a	0.0073994594
230	0x3c668c08	0.014071472
231	0xbf2f63a4	-0.68511415
232	0xbe451a3f	-0.19248293
233	0x3c51cc32	0.012805032
234	0xbd4f71c8	-0.05064562
235	0xbf1a7615	-0.6033643
236	0x3d7a4a68	0.061106116
237	0xbef326e5	-0.47490612
238	0xbed8f783	-0.42376336
239	0xbdeb7987	-0.11497789
240	0x3eb11218	0.34584117
241	0x3ef00e32	0.4688583
242	0x3eb0ea6f	0.3455386
243	0xbed73c9d	-0.42038432
244	0x3e72415e	0.23657748
245	0xbf106b31	-0.5641356
246	0xbf025d7e	-0.5092391
247	0xbe126fa8	-0.14300406
248	0xbe198411	-0.14991786
249	0xbf1ed3ef	-0.62042135
250	0x3f0274db	0.5095956
251	0x3f21d21b	0.6321122
252	0xbea103f3	-0.31448326
253	0x3e607a38	0.21921623
254	0xbf1302c4	-0.57426095
255	0xbf79fae7	-0.9764847

actor.pi_net.fcs.0.bias f4 [64]
0	0xbe100424	-0.1406408
1	0xbe8a3ac2	-0.26997954
2	0x3e904678	0.28178763
3	0xbdfec431	-0.12439764
4	0xbea3ad0e	-0.31967968
5	0xbecf0709	-0.40435055
6	0xbbf57cdd	-0.0074916915
7	0x3cc49883	0.023998505
8	0x3df3c321	0.11902452
9	0xbe465835	-0.19369586
10	0xbda069df	-0.07832693
11	0xbe886c69	-0.2664521
12	0x3d9bb372	0.07602586
13	0x3e9c8208	0.30567956
14	0xbdc26e36	-0.09493677
15	0x3d553b8d	0.052058745
16	0x3e086435	0.13319476
17	0xbde35184	-0.11099532
18	0xbdc6b205	-0.09701923
19	0x3e9351e8	0.28773427
20	0x3eb2b82b	0.34906134
21	0xbe390a3c	-0.1807031
22	0x3e302651	0.17202117
23	0xbe83c35e	-0.2573499
24	0x3d79a398	0.06094703
25	0x3eb6936c	0.3565935
26	0xbe366be4	-0.17814595
27	0xbe4088b1	-0.18802144
28	0xbe20e7bf	-0.15713404
29	0xbe2dc1ae	-0.16968414
30	0x3ebabd7f	0.364727
31	0x3e27f1ef	0.16400884
32	0x3b961526	0.004580158
33	0x3ecd324a	0.4007743
34	0xbd862fb1	-0.06552065
35	0xbe3f01b5	-0.18652995
36	0x3da99695	0.08280674
37	0xbde6504b	-0.112457834
38	0xbd6598e9	-0.05605403
39	0xbe70ee22	-0.2352834
40	0xbdaf2824	-0.08552578
41	0x3eb9be6d	0.36278096
42	0xbcaac5f9	-0.020846354
43	0xbd9dd32d	-0.07706294
44	0xbe8ff94a	-0.2811988
45	0xbdb9b850	-0.09068358
46	0x3e59d141	0.2127123
47	0xbe9f606e	-0.31128258
48	0x3c17066a	0.009217838
49	0x3e7c19b6	0.24619183
50	0x3c647452	0.013943749
51	0x3d87eead	0.06637321
52	0x3ead5ff6	0.33862275
53	0x3cfd3982	0.03091121
54	0xbe5c0cc2	-0.21489242
55	0xbcc1189e	-0.023571309
56	0xbdd817dc	-0.10551426
57	0xbe70479f	-0.23464821
58	0x3e9223d7	0.2854297
59	0x3d907b24	0.07054737
60	0xbcf8bf72	-0.030364726
61	0x3d8e6d50	0.069544435
62	0xbdd66220	-0.104679346
63	0x3eb7e5e9	0.35917595

actor.pi_net.fcs.1.weight f4 [64, 64]
0	0x3d19b7b1	0.037528697
1	0x3c66c583	0.014085176
2	0x3dc7ad50	0.097498536
3	0xbd2d1173	-0.04225297
4	0xbce8da5d	-0.028424436
5	0x3dce384d	0.10069332
6	0x3dcaaa53	0.09895768
7	0xbc95badf	-0.018277584
8	0x3e111fe2	0.14172319
9	0x3d03b5ec	0.032155916
10	0xbc97c7e6	-0.018527936
11	0x3da7474d	0.081678964
12	0x3caf99aa	0.021435577
13	0xbd0779d6	-0.033075176
14	0x3e0091a9	0.12555565
15	0xbdbb343c	-0.09140822
16	0xbd00f30f	-0.0314818
17	0xbcf965ff	-0.030444143
18	0x3e2ea880	0.17056465
19	0x3d7d142f	0.061786827
20	0xbcb58107	-0.022156252
21	0x3e326b00	0.1742363
22	0x3dc20134	0.09472886
23	0x3db3eacf	0.087850206
24	0xbda1ec3e	-0.07906388
25	0xbcd18fe1	-0.025581302
26	0x3e388de8	0.18022883
27	0x3dbcd2a1	0.09219862
28	0x3d412b64	0.04716052
29	0x3d9931b7	0.074801855
30	0x3de65566	0.11246757
31	0x3d45fccf	0.0483368
32	0xbe698fb2	-0.22808722
33	0x3ce0bc03	0.027433401
34	0xbcfe9bde	-0.031080183
35	0x3d5dad7d	0.05412053
36	0xbde263b3	-0.11054172
37	0xbdbd6e6f	-0.09249579
38	0x3d2888f9	0.041146252
39	0x3d8e9d2a	0.069635704
40	0x3db81c7b	0.08989807
41	0x3db0a1bd	0.08624599
42	0xbd16dd59	-0.036832187
43	0x3de2f558	0.11081952
44	0x3e0e4f58	0.13897455
45	0xbdeb6f18	-0.11495799
46	0xbe388d54	-0.18022662
47	0x3de7d630	0.1132015
48	0x3de2f850	0.11082518
49	0x3cdad92c	0.026714884
50	0x3ce159b3	0.027508592
51	0x3da6b52d	0.08140025
52	0x3d83d27a	0.064366296
53	0xbe4b5d50	-0.19859815
54	0xbcd0dc1a	-0.025495578
55	0x3dc1959c	0.09452364
56	0xbdf7ee47	-0.12105995
57	0xbd540b50	-0.0517686
58	0x3dfcafed	0.12338243
59	0xbdb35ec3	-0.08758309
60	0xbb973447	-0.0046143862
61	0x3e1dae55	0.15398534
62	0x3dcfb71a	0.10142346
63	0x3b2d046e	0.0026400345
64	0x3eb59755	0.3546702
65	0xbcd253c6	-0.025674712
66	0xba413104	-0.00073696696
67	0x3da9fe0e	0.0830041
68	0xb9bbd5c1	-0.00035826679
69	0xbc01baad	-0.007918042
70	0xbcc30316	-0.023805182
71	0x3ef8e314	0.48610747
72	0x3eb33f3a	0.35009176
73	0x3e50e75d	0.20400758
74	0x3dc2b77a	0.095076516
75	0x3e2c2bd3	0.16813593
76	0x3ea69bf8	0.3254087
77	0xbd891a78	-0.06694502
78	0xbe513ee7	-0.20434152
79	0x3e08c1ca	0.13355175
80	0xbea78a99	-0.3272293
81	0x3dfb3c49	0.12267358
82	0xbe699a01	-0.22812654
83	0x3d50ce53	0.050978016
84	0xbe09db23	-0.134625
85	0x3eaaf70c	0.33391607
86	0x3e45722e	0.19281837
87	0x3e814061	0.2524443
88	0x3e9005e1	0.28129485
89	0xbb2b95ef	-0.0026181897
90	0xbc1d0ed5	-0.009586056
91	0x3dc83738	0.09776157
92	0x3ebe7cea	0.37204677
93	0xbdd92b92	-0.106040135
94	0xbe32daea	-0.17466322
95	0xbdbe213c	-0.09283683
96	0xbc9f8b61	-0.01947564
97	0xbd52cbdd	-0.05146395
98	0x3e14406f	0.14477704
99	0xbe1b4468	-0.15162814
100	0x3e0bf378	0.13667095
101	0xbddb6dcf	-0.10714304
102	0xbed736fd	-0.4203414
103	0x3dc6efe9	0.09713728
104	0x3efec78e	0.49761623
105	0x3e546bf4	0.20744306
106	0xbeab36df	-0.334403
107	0xbe1e36f6	-0.15450653
108	0xbe470584	-0.19435698
109	0x3dd18838	0.1023106
110	0xbe6acb5e	-0.22929141
111	0x3e327867	0.17428742
112	0x3ef16e5b	0.47154507
113	0xbe57c890	-0.21072602
114	0xbef605f3	-0.48051414
115	0xbe07efc7	-0.13275062
116	0xbdae81e1	-0.08520866
117	0x3e87128b	0.26381335
118	0xbc947afb	-0.018125048
119	0x3d6dac21	0.058025483
120	0x3e9c797a	0.3056143
121	0xbd474006	-0.048645042
122	0xbde5bc84	-0.11217597
123	0x3dcbe9c0	0.09956694
124	0xbe107d9c	-0.14110416
125	0xbd08b4f1	-0.033375684
126	0x3e9fe0c6	0.31226176
127	0xbe592568	-0.21205676
128	0x3e0c14c8	0.13679802
129	0xbd141ace	-0.036158375
130	0xbd100a7f	-0.03516626
131	0x3d3d778d	0.04625659
132	0xbd11b943	-0.03557707
133	0x3db07519	0.086160846
134	0xbca32457	-0.01991479
135	0x3d6eff34	0.05834885
136	0x3e389800	0.18026733
137	0xbd17c104	-0.03704931
138	0xbcba4913	-0.022739923
139	0x3de47d49	0.11156709
140	0x3e233050	0.15936399
141	0xbd069402	-0.032855995
142	0xbe1dc2aa	-0.1540629
143	0xbd573a74	-0.05254598
144	0xbe926aa2	-0.2859698
145	0x3e1d3fa8	0.15356314
146	0xbb3c6f98	-0.0028753038
147	0xbcfc66cc	-0.030810736
148	0x3aeac172	0.0017910434
149	0x3e81cd81	0.253521
150	0x3c6ea47b	0.014565582
151	0x3e21159d	0.15730901
152	0xbd966be3	-0.073447965
153	0x3d89e63e	0.06733368
154	0x3cb3d239	0.021950828
155	0x3d22a113	0.039704394
156	0x3ea9e2c0	0.3318081
157	0x3d30c7ad	0.043159176
158	0x3cabe040	0.020980954
159	0xbdb1a70d	-0.086744405
160	0xbdd6949c	-0.10477564
161	0x3dc2f307	0.0951901
162	0x3dc9c8dd	0.09852765
163	0xbe11c909	-0.14236845
164	0x3da691ae	0.08133255
165	0xbe4b23a7	-0.19837819
166	0xbda803b9	-0.08203835
167	0xbdc4bfb3	-0.09606876
168	0x3ea26be2	0.31722933
169	0x3e00d954	0.12582904
170	0xbe119af2	-0.14219263
171	0xbe3cabf6	-0.18424973
172	0x3c2cadd3	0.01053949
173	0x3decad1c	0.115564555
174	0xbe9d3f06	-0.30712146
175	0x3e59578c	0.21224803
176	0x3e3c0e7b	0.18364899
177	0xbcfbd8de	-0.030743059
178	0xbd3319b3	-0.04372568
179	0x3dc40cef	0.095727794
180	0x3db24eb6	0.08706419
181	0xbe054471	-0.1301439
182	0xbca4866f	-0.020083634
183	0x3e2114f4	0.15730649
184	0x3e3c50b1	0.18390156
185	0x3d9e2382	0.07721616
186	0x3cb503db	0.022096565
187	0x3d7e0217	0.06201371
188	0xbca60ec5	-0.020270715
189	0x3db4a4a5	0.08820466
190	0x3e9e7c1b	0.3095406
191	0xbe3b506f	-0.18292402
192	0xbecca6f3	-0.39971122
193	0x3cdb7d8d	0.026793266
194	0x3dee7baa	0.11644681
195	0xbe18fcfc	-0.14940256
196	0x3d5a9aac	0.053370163
197	0x3e0fd83d	0.14047332
198	0x3d91f030	0.0712589
199	0xbebf348e	-0.37344784
200	0xbe7948f8	-0.24344242
201	0xbe926280	-0.28590775
202	0xbcd07c0b	-0.025449773
203	0xbd1d43cb	-0.03839473
204	0xbea2e842	-0.31817824
205	0x3da45bf1	0.08025349
206	0x3cfc145a	0.030771423
207	0xbd070545	-0.03296401
208	0x3ed94fa9	0.42443588
209	0xbe502241	-0.20325567
210	0x3d985eca	0.074399546
211	0xbd931844	-0.07182363
212	0x3e66d876	0.22543511
213	0xbe93782f	-0.2880263
214	0xbe30381f	-0.17208908
215	0xbd8babe4	-0.06819895
216	0xbe70f505	-0.23530968
217	0xbd529f90	-0.051421702
218	0x3d1382cf	0.03601342
219	0xbe8941ba	-0.26807958
220	0xbe861175	-0.26185194
221	0xbda3af03	-0.07992365
222	0x3be19087	0.006883684
223	0x3daf8dd9	0.08571977
224	0xbd95dcf5	-0.07317535
225	0xbd54e901	-0.051980022
226	0xbe0b4ee9	-0.1360432
227	0x3d440d32	0.047864147
228	0xbe1d6352	-0.15369919
229	0x3dbb9150	0.091585755
230	0x3e9257f2	0.28582722
231	0xbdfac976	-0.12245457
232	0xbf029acc	-0.5101745
233	0x3d57db78	0.052699536
234	0x3ea13951	0.3148904
235	0x3d0b0986	0.03394463
236	0xbd6ac37d	-0.05731534
237	0x3cee0925	0.029057095
238	0x3e95df9d	0.29272166
239	0xbd390db5	-0.045179088
240	0xbf09177a	-0.5355145
241	0x3e3c0cf0	0.1836431
242	0x3ef1f1bf	0.4725475
243	0x3c107924	0.008817945
244	0x3de299b1	0.110644706
245	0xbe821f39	-0.25414446
246	0xbdb0c1a9	-0.08630688
247	0xbce42ae5	-0.027852485
248	0xbe68d05b	-0.22735731
249	0x3d8a7a5f	0.06761622
250	0x3e38bda2	0.18041089
251	0x3d578ace	0.05262261
252	0x3c9f92c9	0.019479172
253	0x3d40728f	0.04698425
254	0xbe8dc7cd	-0.27691498
255	0x3d15a7a4	0.036536828

actor.pi_net.fcs.1.bias f4 [64]
0	0xbd964b5c	-0.073385924
1	0xbdeddb08	-0.116140425
2	0xbd445a68	-0.04793778
3	0xbdb1c1e9	-0.086795636
4	0xbdf44de1	-0.11928917
5	0x3da134e5	0.07871417
6	0x3d745813	0.059654307
7	0x3d5a3ac5	0.053278703
8	0xbde2863d	-0.1106076
9	0x3d823c7e	0.06359194
10	0x3dbdd664	0.092694074
11	0x3d98180f	0.07426464
12	0x3db47b69	0.08812601
13	0x3d751410	0.059833586
14	0xbc48efc8	-0.0122642
15	0xbd48e46b	-0.04904596
16	0xbe03ed05	-0.12883385
17	0xbde89713	-0.1135694
18	0x3df10516	0.11768548
19	0x3a80048a	0.0009766978
20	0x3e02bb47	0.12766753
21	0x3d858793	0.06519999
22	0x3dbe8b67	0.09303933
23	0x3d6c7737	0.05773088
24	0x3da80d6d	0.08205686
25	0x3e05a3ce	0.13050768
26	0xbdbeb123	-0.0931113
27	0x3d49ba20	0.04924977
28	0x3dcaf6c1	0.09910346
29	0x3d3d0d2e	0.046155147
30	0xbabab5ce	-0.0014244856
31	0xbd969048	-0.07351738
32	0xbd0afa4b	-0.033930104
33	0x3db4dfce	0.0883175
34	0x3da52124	0.08062962
35	0xbd10a06a	-0.035309233
36	0xbdd522f5	-0.10407058
37	0x3d6b978f	0.057517584
38	0x3d842b3d	0.064535595
39	0xbdbef830	-0.09324682
40	0xbdc16f83	-0.09445097
41	0xbdc6f42f	-0.09714543
42	0x3c57b888	0.013166554
43	0xbddaabe5	-0.106773175
44	0xbd286961	-0.041116122
45	0x3dcc2b58	0.09969205
46	0xbd1dfda6	-0.038571976
47	0x3da10f4f	0.07864248
48	0xbcc2a617	-0.023760838
49	0x3c8bc446	0.017061364
50	0x3e0d9324	0.13825661
51	0x3c8c274a	0.017108578
52	0xbd606d57	-0.054791775
53	0xbd58383e	-0.05278801
54	0xbd946e90	-0.072476506
55	0x3dc8dd78	0.09807867
56	0x3d99afc1	0.075042255
57	0xbdbfc3e8	-0.09363538
58	0xbd66e834	-0.05637379
59	0x3d0356db	0.032065254
60	0xbda192cc	-0.078893274
61	0x3dba1a95	0.09087101
62	0x3c2ed2bd	0.010670361
63	0x3db16ec6	0.086637065

actor.pi_net.fcs.2.weight f4 [1, 64]
0	0x3e0d6f70	0.13812041
1	0x3e9e7b21	0.30953315
2	0x3e8a55c1	0.2701855
3	0xbec09269	-0.37611702
4	0x3d236747	0.039893415
5	0xbc0522c0	-0.008125961
6	0x3e56386e	0.20919964
7	0x3cb5ab73	0.02217648
8	0x3d8ed1cd	0.0697361
9	0xbe5dcc80	-0.21660042
10	0x3cac2579	0.021013962
11	0xbdb1fb15	-0.08690468
12	0xbd99d45e	-0.07511209
13	0xbdd3a6b7	-0.10334533
14	0xbdda5120	-0.106600046
15	0xbdf086f9	-0.11744494
16	0x3e8beaf7	0.273277
17	0xbe57958b	-0.2105314
18	0xbd634505	-0.055485744
19	0xbde8239c	-0.11334917
20	0x3dbfd8db	0.09367534
21	0xbe80cbd2	-0.25155503
22	0xbeb11d29	-0.3459256
23	0xbd5b0629	-0.05347267
24	0x3d78115c	0.06056343
25	0xbd4d7c2a	-0.05016724
26	0x3d9f2b2d	0.07771907
27	0xbebc1933	-0.36737975
28	0xbe8cd492	-0.27505928
29	0xbe8c4770	-0.27398252
30	0xbe2c46d0	-0.16823888
31	0xbdbaba16	-0.09117524
32	0xbe89214e	-0.26783222
33	0x3d471ecc	0.048613355
34	0xbd814172	-0.06311311
35	0x3dd373f9	0.103248544
36	0x3ebb429f	0.36574265
37	0x3db055fe	0.08610152
38	0x3eac13b8	0.33608794
39	0xbe0ae20f	-0.13562797
40	0xbe6aa24b	-0.22913472
41	0x3d786a17	0.06064805
42	0xbd40a797	-0.047034826
43	0x3db14fcd	0.08657799
44	0xbe0c09c4	-0.136756
45	0x3dad5627	0.08463698
46	0xbe0bf74d	-0.13668557
47	0x3d3c6e3c	0.046003565
48	0xbde21b3d	-0.110403515
49	0x3e48e8e2	0.19620088
50	0xbdedaa6e	-0.116047725
51	0x3d4bfacb	0.04979972
52	0x3e68695b	0.2269644
53	0x3e2e427d	0.17017551
54	0xbe7faf46	-0.24969205
55	0x3d679011	0.056533877
56	0xbdea0885	-0.11427406
57	0x3d7906ec	0.060797617
58	0x3e846b5a	0.25863153
59	0xbea56e8a	-0.32310897
60	0x3eafbb8b	0.3432277
61	0x3dcc208d	0.09967146
62	0x3e05d9a8	0.1307131
63	0x3e3d6797	0.18496548

critic.v_net.fcs.0.weight f4 [64, 4]
0	0xbf3ca598	-0.73690176
1	0xbe86d799	-0.26336363
2	0xc0358a3c	-2.8365622
3	0xc00bce37	-2.1844614
4	0xbe9ae396	-0.3025176
5	0xbf1600b8	-0.58594847
6	0xc05874f2	-3.3821378
7	0xbd87e1a4	-0.066348344
8	0xbfd5dc8a	-1.6707928
9	0x3d645c02	0.055751808
10	0x3fedf7f4	1.8591294
11	0xbfabc539	-1.3419563
12	0xbe0d6ab8	-0.13810241
13	0xbf00af57	-0.5026755
14	0xc0997afd	-4.796263
15	0xbfd80d34	-1.6879029
16	0x3f0f851b	0.5606248
17	0x3f52265e	0.82089794
18	0x401e146c	2.4699965
19	0x3f877319	1.0582
20	0xbe88a39b	-0.2668732
21	0xbf4c87eb	-0.79894894
22	0xc01cc5d8	-2.4495754
23	0xbfa8f863	-1.3200802
24	0xbe1ce2aa	-0.1532084
25	0x3f424960	0.7589321
26	0x4059c44b	3.4026058
27	0x3fd432e7	1.6578034
28	0x3f467fa8	0.7753854
29	0x3ef026e8	0.46904683
30	0x3fb477ee	1.40991
31	0x3f1a56ba	0.60288584
32	0xbd86e085	-0.065857925
33	0x3f1e520c	0.61843944
34	0x408dba48	4.4289894
35	0x3f81b9fd	1.0134884
36	0x3df32db5	0.11873952
37	0x3f848bf3	1.0355209
38	0x3fcba703	1.5910343
39	0x3e594094	0.21216041
40	0xbd8302df	-0.06397032
41	0xbf9857a5	-1.1901747
42	0xc05365c9	-3.3030875
43	0x3f1af4be	0.60529697
44	0x3f208dce	0.62716377
45	0x3d6a7c7d	0.057247628
46	0x3fd83e15	1.6893946
47	0x3f993ab3	1.1971039
48	0x3e03ad21	0.12859012
49	0x3fa758b4	1.3073945
50	0x40382d49	2.877764
51	0xbf8d37b4	-1.1032624
52	0xbf32b6e4	-0.6981032
53	0xbf324384	-0.6963427
54	0xbfd93f0f	-1.6972369
55	0xbe70e11f	-0.23523377
56	0xbe2c5eeb	-0.16833083
57	0x3fd55fbd	1.6669842
58	0x400de8ff	2.217346
59	0xbf9a2dbf	-1.2045211
60	0xbe15a8ef	-0.14615224
61	0xbf7164e1	-0.94294554
62	0x3fd8106b	1.688001
63	0x3f853cdd	1.0409199
64	0xbeb0a0f5	-0.344978
65	0xbf433bbb	-0.76263016
66	0xc04f2569	-3.2366583
67	0xbf091c87	-0.53559154
68	0xbea8dec4	-0.32982457
69	0x3f2b3f47	0.6689343
70	0x400b8096	2.1797233
71	0x3f861f5c	1.047832
72	0x3dc7086b	0.097184025
73	0x3f4da163	0.8032438
74	0x407f5c06	3.9899917
75	0x3fa477cd	1.284906
76	0x3f4f5188	0.8098378
77	0x3f192198	0.59816885
78	0x3ff001fe	1.8750608
79	0xbe84dfaf	-0.25951907
80	0xbf4564ad	-0.77106744
81	0xbe148a07	-0.14505778
82	0xc04f9a3d	-3.243789
83	0xbff60e4d	-1.9223114
84	0x3da407fd	0.08009336
85	0xbf9cef34	-1.2260499
86	0xbfd45555	-1.6588541
87	0x3f01dc07	0.5072636
88	0x3f41c659	0.7569328
89	0x3e5633e4	0.20918232
90	0x403c06b0	2.9379082
91	0x40043437	2.065687
92	0xbd38b59a	-0.045095064
93	0x3febf32a	1.8433583
94	0x4023346f	2.5500753
95	0x3ef9dcd6	0.48801297
96	0xbf2f1509	-0.6839147
97	0xbf05af0f	-0.52220243
98	0x3fa0f5d9	1.2575027
99	0x3fc90991	1.5706044
100	0x3f8b7485	1.0894934
101	0x3f8f6d53	1.1205238
102	0xbff04e73	-1.8773941
103	0xbeea2f69	-0.45739296
104	0x3efd35f2	0.4945522
105	0xbf99e8bb	-1.2024149
106	0xc036daa3	-2.8570945
107	0x3f9afd96	1.2108638
108	0xbda1fef0	-0.079099536
109	0xbf289dbc	-0.65865684
110	0xc0910326	-4.5316343
111	0xbf9b59f9	-1.2136832
112	0x3db4b4ba	0.08823533
113	0x3fc9f4d1	1.5777837
114	0x4029538e	2.6457248
115	0xbf90afe4	-1.1303678
116	0xbfc80012	-1.5625021
117	0xbf168134	-0.587909
118	0x3f5e100b	0.8674323
119	0xbd088740	-0.03333211
120	0x3e66d54e	0.22542307
121	0x3f959d94	1.1688714
122	0x3f59897e	0.8497542
123	0xbf4a6b37	-0.79069847
124	0xbfa88113	-1.316439
125	0xbe3f5cb5	-0.18687709
126	0xbf409937	-0.7523379
127	0x3c0c7f26	0.008575236
128	0xbee1bd08	-0.44089532
129	0x3fc30f4e	1.5239046
130	0x4006af28	2.1044407
131	0xbf088a0b	-0.53335637
132	0x3eabcd1d	0.33554927
133	0x3edd4e34	0.43223727
134	0x3fca4c44	1.5804524
135	0x3f7c4a7a	0.9855114
136	0xbf34b69c	-0.7059114
137	0xbfa0a755	-1.2551066
138	0xbfbdea7c	-1.4837184
139	0xbee10e0b	-0.43956026
140	0xbf40dfec	-0.7534168
141	0xbf3ecf6d	-0.74535257
142	0xbff8dc6a	-1.9442265
143	0x3f3af204	0.73025537
144	0x3d0cb2a5	0.034350056
145	0x3f70590c	0.93885875
146	0x404c84d3	3.195607
147	0x3e93c0bb	0.2885798
148	0xbd024d80	-0.03181219
149	0xbf1b198c	-0.60585856
150	0xc0152657	-2.330465
151	0xbf3b577c	-0.73180366
152	0x3f54d21d	0.8313311
153	0xbfb1259f	-1.3839606
154	0xc03f0055	-2.9843953
155	0x3e1b38d3	0.15158395
156	0x3f560e9e	0.83616054
157	0x3f7da13e	0.9907416
158	0x3ee6fb2d	0.45113507
159	0xbe762c7d	-0.24040408
160	0xbff26756	-1.8937786
161	0xbfbe41fb	-1.4863886
162	0x3ff02e91	1.8764211
163	0x3f625116	0.8840498
164	0xbde99da2	-0.11407019
165	0xbf0b5695	-0.5442899
166	0xc07909f1	-3.8912318
167	0xbfaf6d73	-1.3705276
168	0xbecc26a6	-0.39873236
169	0x3f7e33d3	0.9929783
170	0x407e88f3	3.9771087
171	0x3f6fb2d3	0.9363224
172	0x3f7186ff	0.9434661
173	0x3f80c020	1.0058632
174	0x4023d0b4	2.5596132
175	0x3ebfe6da	0.37480813
176	0x3ee3a4b3	0.44461593
177	0x3e094cd9	0.13408221
178	0x404fa95e	3.2447124
179	0x3f64a119	0.89308316
180	0x3e46d2d8	0.19416368
181	0x3f3a81db	0.72854394
182	0x3fe7e0aa	1.8115437
183	0x3ea3566b	0.3190187
184	0x3d30ae6c	0.04313509
185	0xbf2f5db8	-0.6850238
186	0xc014b0e9	-2.3232977
187	0xbf91c0ab	-1.1386923
188	0xbd3cfcaa	-0.046139397
189	0x3fa16083	1.2607578
190	0x400edba6	2.2321563
191	0xbcb45371	-0.022012444
192	0x3ede5dc0	0.434309
193	0x3f8eb182	1.1147921
194	0x3fd5ae82	1.669388
195	0xbe4d02eb	-0.20020644
196	0x3e96cbd6	0.2945239
197	0x3f1a8d50	0.60371876
198	0x3fab26d6	1.3371227
199	0xbf1c3d89	-0.61031395
200	0x3e868cfd	0.2627944
201	0xbf985b6c	-1.19029
202	0xc08365b0	-4.106163
203	0xbf180b37	-0.5939211
204	0xbdf8eacf	-0.12154161
205	0xbfabd6a2	-1.3424876
206	0xc01dff47	-2.468706
207	0x3e590417	0.21192966
208	0xbe10b090	-0.14129853
209	0xbc270ad6	-0.010195455
210	0xc081d3f0	-4.0571213
211	0xc01b5d2c	-2.4275618
212	0x3f328f27	0.69749683
213	0x3e06c055	0.13159306
214	0x4048010b	3.1250637
215	0x400929c3	2.143174
216	0x3ee7951f	0.45230958
217	0x3f3658e9	0.71229416
218	0x404db4d8	3.2141628
219	0x3fb46091	1.409197
220	0xbfd15485	-1.6353918
221	0x3f6b2e4b	0.9186751
222	0xbe26c7ad	-0.16287108
223	0xc022656c	-2.5374403
224	0x3d869abc	0.06572482
225	0xbf0b4a1c	-0.54409957
226	0xc08ae1fe	-4.340087
227	0xbfde371d	-1.7360569
228	0xc003a6e1	-2.0570605
229	0xbf8ba475	-1.0909563
230	0xc00da324	-2.2130823
231	0xbf75cf3d	-0.96019346
232	0xbe826e96	-0.25474995
233	0xbe39687d	-0.18106265
234	0xc08436d7	-4.1316943
235	0xbfe1c53c	-1.7638316
236	0xbf16234a	-0.58647597
237	0x3f9144c6	1.1349113
238	0x40519a27	3.2750337
239	0xbe96c459	-0.29446676
240	0x3ef431b6	0.47694176
241	0xbfba6070	-1.456068
242	0xc0349e7b	-2.8221729
243	0x3e866585	0.26249328
244	0x3f269492	0.6507045
245	0x3ee40864	0.44537652
246	0x3ffe9ac0	1.9890976
247	0xbe043a32	-0.12912825
248	0xbd371ae1	-0.044703368
249	0xbf11faea	-0.5702349
250	0xc0946b33	-4.638086
251	0xbfc1eba6	-1.5150039
252	0xbfb7bd9b	-1.4354738
253	0xbfc6190a	-1.5476391
254	0x4019e67a	2.4046922
255	0x3fa9eade	1.3274801

critic.v_net.fcs.0.bias f4 [64]
0	0xbe766c55	-0.24064763
1	0x3a0e13ba	0.00054198096
2	0x3eec8364	0.46193993
3	0xbe5c8dd5	-0.2153848
4	0x3e0c8e96	0.13726267
5	0xbe202d1e	-0.15642211
6	0x3ee9e06b	0.4567903
7	0x3e08737f	0.13325308
8	0x3e5341bc	0.20630544
9	0x3e8eaba9	0.2786534
10	0x3924c9ea	0.00015715478
11	0x3eeb5f1b	0.45970997
12	0x3ddfc25b	0.10925742
13	0xbe0ae29c	-0.13563007
14	0x3d90b469	0.070656605
15	0xbdabc96c	-0.083880275
16	0xbe3357b4	-0.17513925
17	0x3e306e7c	0.17229646
18	0x3e12e600	0.1434555
19	0x3cfe4fc7	0.0310439
20	0xbe7dfe56	-0.24804053
21	0xbe89d933	-0.26923522
22	0x3e8a29db	0.26985058
23	0x3c711320	0.014714032
24	0x3d5dde03	0.054166805
25	0xbd8ffbc7	-0.070304446
26	0xbda9c688	-0.0828982
27	0xbe41ceac	-0.18926495
28	0xbc382462	-0.011239143
29	0x3e577ec5	0.21044452
30	0x3e72fa6a	0.23728338
31	0xbd699ccc	-0.0570343
32	0x3e2b81b3	0.16748695
33	0xbc2a946f	-0.010411366
34	0xbe051e87	-0.12999927
35	0x3dd2b175	0.102877535
36	0x3e21acd0	0.15788579
37	0xbcd639bb	-0.026150575
38	0xbe7157ca	-0.23568645
39	0xbe26fb38	-0.1630677
40	0xbd344260	-0.044008613
41	0xbeb84aca	-0.3599456
42	0x3e629c5b	0.22129957
43	0x3c95d17c	0.018288366
44	0x3f00f90c	0.50380015
45	0x3eb24508	0.34818292
46	0xbe187bbf	-0.14890955
47	0x3e63f578	0.22261608
48	0x3e41f8be	0.18942544
49	0x3e94c25f	0.29054543
50	0xbe5b4b00	-0.21415329
51	0xbe08a7ef	-0.13345312
52	0xbdf5502b	-0.119781815
53	0x3e82a54c	0.25516737
54	0x3d535f5a	0.051604606
55	0xbdf8c4b2	-0.12146892
56	0xbe34f26c	-0.17670602
57	0x3e2ec807	0.17068492
58	0xbe39217b	-0.18079178
59	0x3eb0f9bc	0.34565532
60	0xbe96eefc	-0.29479206
61	0xbcf134e6	-0.02944417
62	0xbe4e90ae	-0.20172378
63	0x3c2e9535	0.010655691

critic.v_net.fcs.1.weight f4 [64, 64]
0	0x3f0372da	0.51347125
1	0x3df69c27	0.120415024
2	0x3c8e8bad	0.017400587
3	0x3f091792	0.5355159
4	0xbf396627	-0.724215
5	0x3eb0d1f0	0.3453517
6	0xbe5dded1	-0.21667029
7	0xbef855f3	-0.48503074
8	0xbef292f4	-0.4737774
9	0xbf327e15	-0.69723636
10	0x3e912b25	0.2835323
11	0xbf1bab5c	-0.6080835
12	0xbcefeec0	-0.02928865
13	0x3f28f12e	0.6599301
14	0x3d309311	0.043109003
15	0x3e176ff5	0.14788802
16	0x3eab6a6a	0.33479625
17	0xbe149cdb	-0.1451296
18	0xbf22e25f	-0.63626665
19	0x3d739ab4	0.05947371
20	0x3ef1bc66	0.4721405
21	0x3f2a9c2d	0.66644555
22	0xbf043483	-0.51642627
23	0xbe9c3167	-0.3050644
24	0x3d952c6f	0.07283866
25	0x3d88ed9b	0.06685945
26	0x3e3a6266	0.18201599
27	0x3f2c5cf7	0.67329353
28	0xbbce9ae1	-0.006305084
29	0xbe1ada1d	-0.15122266
30	0xbf099366	-0.5374054
31	0x3f040e97	0.5158476
32	0x3c8f268c	0.017474435
33	0xbd60133c	-0.054705843
34	0x3eef905e	0.4678983
35	0xbe8bc0aa	-0.2729543
36	0xbf5fcc4f	-0.87421125
37	0xbd48390b	-0.048882525
38	0xbd368f2e	-0.04457014
39	0x3e9cfa1a	0.30659562
40	0x3e42df81	0.19030572
41	0x3e91ae82	0.2845345
42	0xbf3c233d	-0.7349127
43	0xbe94af4c	-0.2903999
44	0xbe2eb1d8	-0.1706003
45	0xbf11c694	-0.5694363
46	0x3df4a0c3	0.11944725
47	0xbf1883e8	-0.5957627
48	0xbf4799be	-0.77968967
49	0xbec075c0	-0.37589836
50	0x3ef3f66b	0.4764894
51	0x3cd883a0	0.026429951
52	0x3f345fa8	0.7045846
53	0xbf2f64e5	-0.6851333
54	0xbef9eace	-0.48811954
55	0x3e027434	0.1273964
56	0x3f3dc0e9	0.7412248
57	0x3ede4cad	0.43417874
58	0x3eeb5ccb	0.45969233
59	0xbe9711b0	-0.29505682
60	0x3e3ec2e3	0.18629031
61	0xbe2b138d	-0.16706677
62	0x3f4c50c1	0.7981072
63	0x3dd7d020	0.105377436
64	0x3b6581c3	0.003501997
65	0x3f584474	0.8447945
66	0xbe238541	-0.15968801
67	0x3e2adb2a	0.16685167
68	0xbeb9de63	-0.3630248
69	0xbd84f24a	-0.064915255
70	0x3e2af78c	0.16695994
71	0xbe2e2e87	-0.17009936
72	0xbf272ea4	-0.6530554
73	0xbea929d4	-0.33039725
74	0x4012cd2b	2.2937725
75	0xbd008f59	-0.031386707
76	0xbfe32836	-1.7746646
77	0x3ec722b5	0.38893667
78	0xbfe89e68	-1.8173342
79	0x3f417a60	0.75577354
80	0x3ee7be00	0.45262146
81	0xbd547303	-0.051867496
82	0xbfad0470	-1.3516979
83	0xbf28c0d6	-0.65919244
84	0xbe29a516	-0.16566882
85	0x3f167589	0.58773094
86	0x3e94fc97	0.2909896
87	0xbffa92d7	-1.9576062
88	0x3f394d19	0.72383267
89	0xbf2a2186	-0.664574
90	0x4001df71	2.0292628
91	0x3f1e640c	0.6187141
92	0xc00e7f7f	-2.2265317
93	0x3f18e48f	0.5972375
94	0xbe9d5cb4	-0.3073479
95	0x3db4fede	0.088376746
96	0xbff1d39e	-1.8892705
97	0xbe1e5e33	-0.15465622
98	0x3f0a7a13	0.5409252
99	0x3f631c85	0.8871539
100	0xbf62a730	-0.8853636
101	0x3f1449ed	0.579253
102	0x3fa57108	1.2925119
103	0xbf47f80e	-0.78112876
104	0x3f6f0f3c	0.9338262
105	0xbe923dbd	-0.28562728
106	0xbf820f9e	-1.0161016
107	0xbf370d7f	-0.7150497
108	0x3e71c026	0.23608455
109	0xbeb85af2	-0.36006886
110	0xbd26502c	-0.0406038
111	0xbf0e7fb7	-0.5566363
112	0xbf3e8a21	-0.7442952
113	0xbe2afcc0	-0.16697979
114	0x3f986018	1.1904325
115	0x3fd030a0	1.6264839
116	0x3ed9ff6d	0.42577687
117	0x3e514023	0.20434622
118	0xbf704701	-0.93858343
119	0xbfac8a67	-1.3479737
120	0x3f286c14	0.65789914
121	0x3e2edf4a	0.17077366
122	0x3cee7fbe	0.029113647
123	0xbf38396b	-0.7196261
124	0x3f966848	1.1750574
125	0xbefef50f	-0.4979634
126	0x3f06d373	0.52666396
127	0x3fac3f06	1.3456733
128	0xbed484ad	-0.41507474
129	0x3da81e2d	0.082088806
130	0x3f233c56	0.6376394
131	0xbf52411a	-0.8213059
132	0x3e946925	0.2898647
133	0xbf9eb8d3	-1.2400154
134	0x3f46d2e6	0.77665555
135	0x3e9be3d7	0.30447266
136	0x3ed24ec8	0.4107573
137	0x3e624717	0.22097431
138	0xbf06444a	-0.5244795
139	0xbbd0d53b	-0.0063730753
140	0x3f586c5e	0.84540355
141	0xbe9113a6	-0.28335303
142	0x3e9974b5	0.29971853
143	0x3b8536b2	0.004065358
144	0xbf8bcf14	-1.092257
145	0x3fbf1fec	1.4931617
146	0x3e87b002	0.2650147
147	0xbe298759	-0.16555537
148	0xbeb77f32	-0.3583923
149	0xbde363e0	-0.11103034
150	0x3eecddad	0.46262875
151	0xbe6a5961	-0.22885658
152	0x3eceb6bb	0.40373787
153	0xbef4569a	-0.47722322
154	0x3dc9bdf1	0.098506816
155	0xbe14b5c2	-0.1452246
156	0x3c8c715e	0.017143901
157	0xbdf1f3bb	-0.11814066
158	0x3e87b7a8	0.26507306
159	0xbc4038bd	-0.011732277
160	0x3f4bc990	0.79604435
161	0x3fa6eaf3	1.3040451
162	0xbeccb972	-0.39985234
163	0xbf2c0415	-0.6719373
164	0x3e2d13a0	0.16902018
165	0xbf9cabe5	-1.2239958
166	0xbf4822de	-0.78178203
167	0x3e7b3bd3	0.2453454
168	0x3e2bd795	0.16781457
169	0xbf6efc7a	-0.93354
170	0x3eaf2d2c	0.3421415
171	0x3f111821	0.5667744
172	0x3f9232c5	1.1421744
173	0x3d2936ea	0.041312136
174	0xbfb2eb63	-1.3978084
175	0x3d0c213e	0.03421139
176	0x3e782db4	0.24236184
177	0x3a05b563	0.0005100576
178	0xbf80b8f3	-1.0056442
179	0xbf525207	-0.82156414
180	0xbe9eb757	-0.30999252
181	0x3ed45792	0.4147306
182	0xbe708c50	-0.23491025
183	0xbf93d6c1	-1.1549913
184	0xbe1ebb0b	-0.15501039
185	0x3e03cb24	0.12870461
186	0xbe9230cc	-0.28552854
187	0x3e861a93	0.2619215
188	0xbf0e3a9a	-0.5555817
189	0x3e493c7e	0.19651982
190	0xbe9216fd	-0.28533164
191	0x3ee1f3a2	0.4413119
192	0xbdd9e665	-0.106396474
193	0xbf128714	-0.5723736
194	0x3e5a17dc	0.21298164
195	0xbf5cd401	-0.8626099
196	0x3e9251f0	0.28578138
197	0xbe2d5ba4	-0.1692949
198	0x3d4b5d54	0.04964955
199	0xbdfb9a3e	-0.12285279
200	0x3fc0c1f6	1.5059192
201	0x3ecf9855	0.40545908
202	0xbfe4c475	-1.7872454
203	0xbd976079	-0.073914476
204	0x3fac3bb4	1.345572
205	0xbe55d516	-0.20882067
206	0x3fc7196f	1.5554637
207	0x3ac2baa5	0.001485665
208	0xbe78ad2b	-0.24284808
209	0x3eed9237	0.46400616
210	0x400b5b8f	2.1774633
211	0x3d859b21	0.06523729
212	0x3e4c50ca	0.19952694
213	0xbf047139	-0.51735264
214	0xbe1e659a	-0.15468445
215	0x3fe872c3	1.8160022
216	0xbdb96ab8	-0.09053558
217	0xbe29d3b6	-0.16584668
218	0xc00b28b4	-2.1743593
219	0xbfc1cc7a	-1.5140526
220	0x3fd6c073	1.6777481
221	0xbd8ae3e1	-0.06781746
222	0x3d215a63	0.03939284
223	0x3eb4af51	0.35290006
224	0x3fb566aa	1.4171956
225	0x3e3ce9dc	0.18448585
226	0xbf153aaa	-0.5829264
227	0xbf4c46ff	-0.7979583
228	0x3fa2da03	1.2722782
229	0xbebab498	-0.36465907
230	0xbfa1cecf	-1.2641238
231	0x3efd462f	0.49467608
232	0x3e959c6a	0.29220897
233	0xbe0f87e8	-0.14016688
234	0x4001ee47	2.0301683
235	0x3ee9137c	0.45522678
236	0xbde9be2c	-0.114132255
237	0x3e15c0e0	0.14624357
238	0x3d55bb2b	0.05218045
239	0x3f0f4262	0.5596067
240	0x3eaca3b3	0.33718643
241	0x3d258596	0.0404106
242	0xbfed2618	-1.852725
243	0xbf74c99e	-0.95620143
244	0xbfa9b7da	-1.3259232
245	0xbd1a5fd9	-0.037689064
246	0x3fa37ca9	1.2772418
247	0x3fa79b35	1.309424
248	0xbfdd0dc1	-1.7269822
249	0x3cf3f1df	0.029778419
250	0xbf7180ff	-0.9433746
251	0x3f142301	0.5786591
252	0xbf6e596a	-0.93105185
253	0x3dbbe849	0.09175164
254	0xbfb76994	-1.4329095
255	0x3e4ebd3a	0.20189372

critic.v_net.fcs.1.bias f4 [64]
0	0xbde80c7d	-0.11330507
1	0x3d0ceb66	0.03440418
2	0xbea3950c	-0.3194965
3	0xbe946987	-0.2898676
4	0x3eb02796	0.34405202
5	0xbdbae25d	-0.091252066
6	0xbbab69b0	-0.005231105
7	0xbe84c4ab	-0.25931296
8	0x3f8f60c3	1.1201404
9	0xbee14e81	-0.44005206
10	0x3e14f96d	0.14548273
11	0xbea9a44b	-0.33133158
12	0xbf91914c	-1.1372466
13	0xbeb75085	-0.3580362
14	0xbd740c0d	-0.059581805
15	0xbe93c8d2	-0.2886415
16	0xbf68198b	-0.90663975
17	0xbf5063ce	-0.8140229
18	0xbeb9137f	-0.36147687
19	0x3e83af42	0.2571965
20	0x3ebba66e	0.36650413
21	0x3ecde9a2	0.4021731
22	0xbca78a5a	-0.020451713
23	0xbf1593ba	-0.5842854
24	0xbdb3c590	-0.087779164
25	0x3efb0733	0.4902893
26	0xbb40eb63	-0.0029437176
27	0x3f243eae	0.6415814
28	0x3dfca936	0.12336962
29	0x3e869239	0.26283434
30	0xbe2c117e	-0.16803548
31	0xbf7fbc5d	-0.99896795
32	0xbe0d9773	-0.13827305
33	0x3f6e28d6	0.9303106
34	0xbb9de79b	-0.0048188693
35	0xbdafd8ae	-0.0858625
36	0xbf3c7fbb	-0.736324
37	0xbe61cf9e	-0.22051856
38	0x3eaa7f0d	0.33300057
39	0x3fadb61a	1.3571198
40	0x3e026d9e	0.12737128
41	0xbe1af9fc	-0.15134424
42	0xbf3cafc5	-0.73705703
43	0x3b4f89a8	0.0031667743
44	0xbe7a32ee	-0.2443349
45	0xbf91cdbd	-1.1390911
46	0xbd9b600c	-0.07586679
47	0x3e22bff9	0.15893544
48	0xbf21b131	-0.63161
49	0xbed58044	-0.4169942
50	0xbe23466b	-0.15944831
51	0x3e963892	0.29340035
52	0x3e6da6f1	0.23208214
53	0xbf014972	-0.50502694
54	0xbe395dca	-0.18102184
55	0xbe718220	-0.23584795
56	0xbfdd857d	-1.7306362
57	0xbe0bf893	-0.13669042
58	0x3f0160df	0.5053844
59	0x3ea27906	0.3173296
60	0x3fa19444	1.2623372
61	0xbd831bd1	-0.0640179
62	0x3eb34e8e	0.3502087
63	0x3fa3c350	1.279398

critic.v_net.fcs.2.weight f4 [1, 64]
0	0xbfa9f963	-1.3279232
1	0x3f07030c	0.52739024
2	0xc02e3326	-2.7218719
3	0xbed52368	-0.41628575
4	0xbfa71ccd	-1.3055664
5	0x3fb23674	1.3922868
6	0x3f816a81	1.0110627
7	0x3f94bf9a	1.1620972
8	0x40123257	2.2843225
9	0xbff709e1	-1.929989
10	0x3f1803cd	0.593808
11	0x3fa5cf07	1.2953805
12	0xc088259f	-4.2545924
13	0xc01dad57	-2.4637048
14	0xbf8ef62c	-1.1168876
15	0xbfc8094a	-1.5627835
16	0xc0114507	-2.269838
17	0xc022cc03	-2.543702
18	0x3fa75b58	1.3074751
19	0x3f947c44	1.1600423
20	0x3ff07ef4	1.8788743
21	0x3f4c3db1	0.79781634
22	0xbf96cdb0	-1.1781521
23	0xc0271f35	-2.6112797
24	0x3fa88cc0	1.3167953
25	0x4020d84c	2.5132017
26	0x3f8ff13b	1.1245493
27	0x3f84c041	1.0371171
28	0xbfa4087f	-1.2815093
29	0x3fdece3e	1.740669
30	0x3e317918	0.1733135
31	0xc001ce44	-2.0282145
32	0xbefa5769	-0.48894814
33	0x400fcaf7	2.246763
34	0x3f2a630f	0.665574
35	0xbf0b5158	-0.54420996
36	0xc0084595	-2.129247
37	0xbffeadb3	-1.9896759
38	0x3ffd396c	1.9783149
39	0x4014d097	2.3252313
40	0x3f2fc8d0	0.6866579
41	0xbe9e6bc0	-0.30941582
42	0xbff3f425	-1.9058882
43	0xbf077c5d	-0.5292414
44	0xbff159d4	-1.8855538
45	0xc01b4147	-2.4258592
46	0xbf8cae9c	-1.0990787
47	0xbfd1db9c	-1.6395144
48	0xbfe05277	-1.7525166
49	0xc03d68af	-2.9595144
50	0xc009bcd3	-2.15215
51	0x3f1a8b2f	0.6036863
52	0xbfbe2d74	-1.4857621
53	0xbf351a3f	-0.70743173
54	0xbf23a921	-0.63929945
55	0x3f9debb2	1.2337554
56	0xc02badaa	-2.6824746
57	0x3e609479	0.21931638
58	0xbfb3e8c2	-1.4055407
59	0xbf9b84f6	-1.2149951
60	0x40a53cf8	5.1636925
61	0xbfb18659	-1.3869125
62	0xbfac122d	-1.3443047
63	0x400a7397	2.163305

exp_avg f4 [64, 4]
0	0x3c828fab	0.015937647
1	0xbd0bf640	-0.03417039
2	0xbbbf5f80	-0.005840242
3	0xbaac26b6	-0.0013134095
4	0x39aeae1f	0.00033317597
5	0xba619385	-0.0008605051
6	0xb8e2da4e	-0.00010817182
7	0xb8df8ba7	-0.00010659481
8	0xbb051c75	-0.0020311151
9	0x3b9b3aed	0.004737249
10	0x3a584e4c	0.0008251413
11	0x39d05f74	0.0003974397
12	0x3a8975e0	0.00104874
13	0xbaae7566	-0.0013310134
14	0xb96eb43a	-0.00022764588
15	0xb86d7710	-5.661609e-05
16	0x3a75f197	0.0009382008
17	0xbaf7273c	-0.0018856297
18	0xb9b4345c	-0.00034371286
19	0x372503df	9.835668e-06
20	0xba64e327	-0.0008731358
21	0x3b13de5a	0.0022562952
22	0x39a23660	0.0003093956
23	0x395d937c	0.00021131145
24	0xba697197	-0.0008905171
25	0x3b1e9ad4	0.0024201171
26	0x39897866	0.0002622038
27	0x39bb372d	0.0003570853
28	0x3c850227	0.016236378
29	0xbd00cb60	-0.031443954
30	0xbbad6a9d	-0.0052922503
31	0xba843afd	-0.0010088381
32	0x3c733f05	0.014846568
33	0xbcf6202d	-0.03004464
34	0xbba81a2f	-0.0051300745
35	0xba7a838f	-0.0009556347
36	0x3c1185c7	0.008881993
37	0xbc95c350	-0.018281609
38	0xbb486c5f	-0.0030582172
39	0xba1c42e0	-0.0005960893
40	0x3ab54405	0.0013829476
41	0xbb381a76	-0.0028091944
42	0xb9e30934	-0.0004330367
43	0xb961a267	-0.00021518172
44	0x3b748b51	0.0037314484
45	0xbc2b6b88	-0.010462649
46	0xbae96556	-0.001780669
47	0xba3a8f89	-0.00071167253
48	0x3c3134f3	0.010815847
49	0xbca4b0ab	-0.020103773
50	0xbb645893	-0.0034842833
51	0xba0a6d48	-0.00052805664
52	0xbb885ea3	-0.004161672
53	0x3bfcdff6	0.007717128
54	0x3aaed2a3	0.0013337921
55	0x399cfd12	0.0002994319
56	0xbb46b9a2	-0.0030323048
57	0x3bb6725a	0.005567831
58	0x3a795705	0.0009511563
59	0x39a2dd56	0.00031063956
60	0x3b807a2f	0.0039208154
61	0xbc1a8901	-0.009432078
62	0xbabfca1b	-0.0014632376
63	0xba00b948	-0.00049104216
64	0xbc690d6e	-0.014224393
65	0x3d2c5571	0.04207367
66	0x3be765b1	0.007061683
67	0x3afeb2ee	0.0019431987
68	0x3c0f2bac	0.0087384395
69	0xbca9bbb1	-0.020719381
70	0xbb6da77d	-0.003626316
71	0xba6e81a0	-0.0009098295
72	0xbb03db13	-0.0020119592
73	0x3b961bc1	0.0045809452
74	0x3a3812c3	0.00070218387
75	0x39bb7982	0.0003575795
76	0x3b479eae	0.003045957
77	0xbbb2984a	-0.005450283
78	0xba71d051	-0.0009224462
79	0xb996033e	-0.00028612645
80	0xbbaec014	-0.005332956
81	0x3c12729a	0.008938456
82	0x3acbf668	0.0015561106
83	0x396d1016	0.00022608074
84	0x3c109938	0.008825593
85	0xbcf253c5	-0.02958096
86	0xbba397ae	-0.004992447
87	0xbac525a2	-0.0015041123
88	0x3b85394f	0.0040656696
89	0xbc10622d	-0.008812469
90	0xbabfa5b9	-0.0014621533
91	0xb9a84a0c	-0.00032098626
92	0x3bc7c08c	0.0060959514
93	0xbc4801fd	-0.012207505
94	0xbb0d9b17	-0.0021607333
95	0xb9ad7dc7	-0.00033090843
96	0x3b66078c	0.0035099713
97	0xbbeb6804	-0.0071840305
98	0xba96c3dc	-0.0011502462
99	0xb98d1803	-0.00026911506
100	0xb7224b8d	-9.673543e-06
101	0xb84dbcda	-4.905169e-05
102	0xb6f1b604	-7.203549e-06
103	0xb93a6727	-0.0001777677
104	0xb96f8a3d	-0.00022844314
105	0x3a04f7a7	0.00050723035
106	0x382e0da3	4.1497533e-05
107	0x39a5a163	0.00031591495
108	0x3c1d28e1	0.009592266
109	0xbca9a9d4	-0.020710863
110	0xbb638f29	-0.0034722781
111	0xba379147	-0.0007002544
112	0x3c822012	0.015884433
113	0xbcf3eaae	-0.02977499
114	0xbbae15af	-0.0053126435
115	0xba358b56	-0.0006925365
116	0xbaebae32	-0.0017980991
117	0x3b82ee66	0.0039957045
118	0x3a23f4da	0.0006254442
119	0x39845688	0.00025241473
120	0xbb8b7918	-0.004256379
121	0x3c0bee0e	0.008540643
122	0x3abde9df	0.0014489255
123	0x39b13e0e	0.00033806305
124	0xbb193a0c	-0.0023380546
125	0x3b86b1a9	0.004110534
126	0x3a41f52e	0.00073989003
127	0x394d6990	0.00019589649
128	0xba8036af	-0.0009781922
129	0x3b54f496	0.0032494417
130	0x3a284d91	0.00064202497
131	0xb96ce37a	-0.00022591455
132	0xba1ceafa	-0.0005985942
133	0x3acb5894	0.0015514069
134	0x398eac76	0.00027212844
135	0x38c98dee	9.610863e-05
136	0x3b3958ab	0.002828161
137	0xbbd2de04	-0.0064351577
138	0xba85030c	-0.0010148003
139	0xb9b1cfe1	-0.00033914953
140	0xba8acb76	-0.00105892
141	0x3b40b08a	0.00294021
142	0x3a0a2b8f	0.0005270773
143	0x39b3a55b	0.0003426474
144	0x3b8737e9	0.004126538
145	0xbbd89069	-0.006609012
146	0xba942ad0	-0.0011304263
147	0xb95bacf2	-0.00020949895
148	0xbc1329c1	-0.008982123
149	0x3ca19c80	0.019727945
150	0x3b5e1bf6	0.0033891178
151	0x3a6fc8bf	0.000914704
152	0xbc962459	-0.018327879
153	0x3d0dd50b	0.034627
154	0x3bc2faf1	0.0059503247
155	0x3a88a29c	0.0010424438
156	0x3b1f1070	0.0024271272
157	0xbb9b8bb5	-0.004746879
158	0xba47f455	-0.0007627656
159	0xb9861bd8	-0.00025579217
160	0x3ce790ee	0.02826735
161	0xbd56142a	-0.052265324
162	0xbc13a76f	-0.009012087
163	0xbac677c9	-0.00151419
164	0x3b787ad8	0.0037915017
165	0xbbeb56d7	-0.007181983
166	0xbaa0f97a	-0.0012281381
167	0xb97a12e4	-0.00023848895
168	0xbc37ecc2	-0.011225881
169	0x3cac45ad	0.021029318
170	0x3b699b74	0.0035645636
171	0x3a187ec2	0.0005817228
172	0xbbebb2c9	-0.0071929437
173	0x3c671609	0.014104375
174	0x3b1e4467	0.0024149658
175	0x3a21e3cd	0.00061756076
176	0xba2fa41c	-0.00067001744
177	0x3a90693b	0.0011017689
178	0x391d82ec	0.00015021459
179	0x391a139e	0.00014693892
180	0x3a1cf841	0.00059879204
181	0xba280f36	-0.0006410958
182	0xb8e1cdda	-0.00010767179
183	0xb8e77615	-0.00011036933
184	0xbc09230e	-0.008370174
185	0x3cd47377	0.025933964
186	0x3b905c39	0.004405525
187	0x3a84c6d0	0.0010130052
188	0x3bbd5e79	0.0057790843
189	0xbc6eccb2	-0.01457517
190	0xbb249233	-0.0025111556
191	0xb9e5187b	-0.00043696523
192	0x3c9dac17	0.019247098
193	0xbd35b692	-0.044363566
194	0xbbf29066	-0.0074024675
195	0xbaccea05	-0.0015633708
196	0xbba9c797	-0.0051812637
197	0x3c763f07	0.015029675
198	0x3b25c59a	0.0025294782
199	0x3a40d5b1	0.0007356061
200	0xbc77f88b	-0.015134941
201	0x3d1abbce	0.03777676
202	0x3bcd8063	0.0062714084
203	0x3ab14f34	0.0013527633
204	0xbb1a78b9	-0.0023570491
205	0x3b644782	0.003483266
206	0x3a15d300	0.00057153404
207	0x39177a05	0.00014445938
208	0xb95aa6d2	-0.00020852246
209	0x3a000ed2	0.0004885021
210	0x38880551	6.4859756e-05
211	0xb7a8cf70	-2.0123756e-05
212	0x3bd15d92	0.0063893283
213	0xbc651b81	-0.013983608
214	0xbb11d2ea	-0.0022250959
215	0xba1a1d81	-0.000587903
216	0x39f0428f	0.00045825957
217	0xba24f42b	-0.00062924874
218	0xb8cf73f1	-9.892125e-05
219	0xb8be53dc	-9.075526e-05
220	0x3b4e0667	0.0031436922
221	0xbbee98cc	-0.0072813984
222	0xbaa7139e	-0.0012746935
223	0x38b2b21d	8.5208776e-05
224	0x3c21455d	0.009843198
225	0xbcb42d3e	-0.02199423
226	0xbb6cb452	-0.0036118221
227	0xba4d32a0	-0.0007827673
228	0xbb3d1750	-0.0028853007
229	0x3b9c738f	0.004774518
230	0x3a543150	0.00080945063
231	0x3966755d	0.0002197823
232	0xbb40b029	-0.0029401875
233	0x3ba88043	0.005142243
234	0x3a641cf5	0.00087018247
235	0x397b2926	0.00023952554
236	0xbac2f447	-0.0014873826
237	0x3b3d5f64	0.0028895969
238	0x39f6e7bc	0.00047093432
239	0x3938f48f	0.00017638713
240	0xbb884c83	-0.0041595115
241	0x3c1d8ec8	0.009616561
242	0x3ad3f5cc	0.0016171276
243	0xb7b6c2f6	-2.1786876e-05
244	0xbb228ab9	-0.0024801923
245	0x3b782ec3	0.003786967
246	0x3a1eefcb	0.00060629536
247	0x3935d1a4	0.00017339602
248	0x3c01d30b	0.007923852
249	0xbca6c890	-0.020359308
250	0xbb67e326	-0.0035383194
251	0xba4e8821	-0.0007878561
252	0xbbe3461a	-0.006935847
253	0x3c3007e0	0.010744065
254	0x3af83c38	0.0018938845
255	0x3986ff48	0.0002574867
