training_results/cartpole_distb/ppo/seed_42/1000000steps/checkpoints/model_200000.pt (torch, 151579 bytes, 30 tensors)

actor.pi_net.fcs.0.weight f4 [64, 4]
0	0xbeb5c89d	-0.35504618
1	0x3efff5bb	0.49992165
2	0x3e78e76e	0.24307033
3	0x3ed6c045	0.41943565
4	0xbebbe725	-0.36699787
5	0x3d21ea8f	0.039530333
6	0x3e485e53	0.19567232
7	0xbed6f4cc	-0.4198364
8	0x3e8b069c	0.2715348
9	0xbebfa94f	-0.3743386
10	0xbef60e34	-0.4805771
11	0xbed7019a	-0.4199341
12	0xbd65ab00	-0.05607128
13	0xbe9b49aa	-0.3032964
14	0x3e7ac73c	0.24490064
15	0x3aa126f4	0.0012294934
16	0x3e17e80e	0.14834616
17	0x3e1b4e6b	0.15166633
18	0x3d0e70e5	0.034775633
19	0x3ed91fa2	0.42406946
20	0xbeaf6dba	-0.34263402
21	0xbeb7e43b	-0.35916314
22	0x3d632f77	0.055465188
23	0x3f02462f	0.5088834
24	0x3d464426	0.048404835
25	0x3e94dd2c	0.2907499
26	0xbe2a5c62	-0.16636804
27	0xbe3a99b5	-0.18222697
28	0xbe62a65d	-0.22133775
29	0x3e1fbd83	0.15599637
30	0xbe10edfc	-0.14153284
31	0x3e18d5ca	0.14925304
32	0x3ec557ec	0.38543642
33	0x3e82034a	0.25393134
34	0xbd81cbd1	-0.06337703
35	0xbec528c0	-0.38507652
36	0x3e602aa4	0.21891266
37	0xbe955975	-0.29169813
38	0xbe99315f	-0.2992048
39	0x3df2757a	0.11838813
40	0xbd3e6613	-0.046484064
41	0xbee7d40c	-0.45278966
42	0x3e8cf3f9	0.27529886
43	0xbea07ffd	-0.31347647
44	0xbec35e09	-0.3815768
45	0xbe963562	-0.29337603
46	0x3da59ee2	0.08086945
47	0x3da0b159	0.078463264
48	0xbe9a08fe	-0.30084985
49	0x3e6904f7	0.227558
50	0xbeb6f698	-0.3573501
51	0xbe8a9830	-0.27069235
52	0x3e291849	0.1651317
53	0x3e6ac163	0.22925334
54	0xbed22958	-0.41047168
55	0x3ec1e733	0.37871704
56	0xbe435c96	-0.19078287
57	0x3d994e21	0.07485605
58	0xbca1d974	-0.01975701
59	0x3e8a870d	0.2705616
60	0x3eaf38ee	0.3422312
61	0x3e8be596	0.27323598
62	0xbddc590d	-0.107591726
63	0xbe5c5491	-0.21516635
64	0x3e9b3b85	0.30318847
65	0xbe2c26a3	-0.16811614
66	0xbe472aec	-0.19449967
67	0x3eaa2310	0.33229876
68	0xbe9f132c	-0.31069314
69	0xbd5895c9	-0.05287722
70	0xbf04b315	-0.5183576
71	0x3e72d7e8	0.23715174
72	0xbe8b35cf	-0.2718949
73	0x3e826527	0.25467798
74	0x3e9f973f	0.3117008
75	0x3ee3b720	0.4447565
76	0x3cca96cf	0.024730114
77	0x3e1e44d6	0.15455946
78	0xbe6697f0	-0.22518897
79	0xbdc25b68	-0.094900906
80	0xbef1b377	-0.47207233
81	0x3e118109	0.1420938
82	0xbcfabf39	-0.03060876
83	0x3e9f91ed	0.3116602
84	0xbe1393d1	-0.14411856
85	0x3e87e877	0.26544544
86	0x3e7bbfdc	0.24584907
87	0xbe8689b3	-0.2627693
88	0xbed86538	-0.42264724
89	0xbeba7970	-0.36420774
90	0xbea5fa61	-0.32417586
91	0x3c95a012	0.018264804
92	0x3eb07539	0.34464434
93	0xbedd6aad	-0.4324545
94	0xbea1a87f	-0.31573865
95	0x3c35f8dc	0.011106696
96	0xbec1a843	-0.37823686
97	0xbe6922e8	-0.22767222
98	0xbed56b80	-0.41683578
99	0x3eac1d83	0.33616266
100	0xbed49b81	-0.4152489
101	0xbe6cb8ff	-0.23117445
102	0xbef3860f	-0.47563216
103	0xbe45027c	-0.19239229
104	0xbedde36f	-0.4333758
105	0xbef8c7e7	-0.48590013
106	0x3e204814	0.15652496
107	0xbdf1e738	-0.118116796
108	0xbe383651	-0.1798947
109	0xbe29e4c8	-0.1659118
110	0xbe8e3bd4	-0.2778002
111	0xbec3f6c9	-0.3827422
112	0x3ec24496	0.37942952
113	0xbe9e35f5	-0.3090054
114	0x3e815f9e	0.25268263
115	0xbd3c82c6	-0.046023153
116	0xbede93ca	-0.4347213
117	0x3d4b345f	0.04961049
118	0xbdd4b76e	-0.10386549
119	0x3eb9644d	0.36209336
120	0x3d942440	0.07233477
121	0x3d69578a	0.05696825
122	0xbf0a8be6	-0.5411972
123	0x3e1e7e7b	0.15477936
124	0x3c9d4b84	0.019201048
125	0x3f172081	0.5903397
126	0xbe8716d0	-0.26384592
127	0x3eafebf9	0.3435972
128	0xbe217304	-0.15766531
129	0xbe297413	-0.16548185
130	0x3f043031	0.51636034
131	0x3e52e36d	0.20594569
132	0xbedd98d9	-0.43280676
133	0x3ed4244c	0.41433942
134	0x3eacb3e8	0.33731008
135	0xbdd5ac73	-0.10433283
136	0x3ea7c71b	0.32769093
137	0xbe1acc05	-0.1511689
138	0xbe035d07	-0.12828456
139	0xbcb163da	-0.021654058
140	0x3ec8491d	0.3911828
141	0x3e48e7e9	0.19619717
142	0x3e09ce5d	0.13457628
143	0x3c18cd42	0.009326281
144	0xbe4e124f	-0.20124172
145	0xbebc20b2	-0.36743695
146	0xbe7b7257	-0.24555336
147	0xbe479c9c	-0.19493335
148	0xbedbb0b6	-0.42908257
149	0xbf10edcb	-0.56612843
150	0x3eeb21a3	0.459241
151	0xbe570591	-0.20998217
152	0x3e66420b	0.22486131
153	0x3ec0c5cd	0.3765091
154	0x3e6406e7	0.22268258
155	0xbe1ec4af	-0.15504716
156	0xbedd6d8c	-0.4324764
157	0x3e812add	0.25228015
158	0x3ec0bb4d	0.376429
159	0x3e7a0a1d	0.2441792
160	0xbdb7bafc	-0.08971211
161	0xbd40e676	-0.047094785
162	0x3e804b28	0.2505734
163	0x3e5c508e	0.21515104
164	0x3ef6f8bf	0.48236653
165	0x3e10eb21	0.14152195
166	0x3e5d2a67	0.21598206
167	0xbd702ced	-0.058636595
168	0x3ecde14f	0.4021096
169	0xbf00e74e	-0.5035294
170	0xbe581b93	-0.21104269
171	0x3e4fb0c2	0.20282272
172	0x3ec43b05	0.38326278
173	0x3f0763b0	0.52886486
174	0xbef1ee92	-0.47252327
175	0x3e9c52a5	0.30531803
176	0x3e30387f	0.17209052
177	0x3ee9f1bf	0.4569225
178	0xbe0b2011	-0.13586451
179	0x3e8f2d7f	0.27964398
180	0xbe81918b	-0.25306353
181	0xbee6d712	-0.4508596
182	0x3ee8e1c7	0.45484754
183	0xbe49b0ed	-0.19696398
184	0x3e5d7730	0.21627498
185	0x3eac6588	0.33671212
186	0x3e8efdb7	0.27927944
187	0xbec7c8cd	-0.39020386
188	0x3e77908a	0.24176231
189	0xbe156db0	-0.14592624
190	0xbed38aed	-0.4131693
191	0xbe940aab	-0.2891439
192	0xbe8b5032	-0.27209622
193	0xbdc8167f	-0.09769916
194	0x3e908148	0.28223634
195	0xbe486ff4	-0.19573957
196	0xbeeb9dc2	-0.46018797
197	0x3edbbfac	0.42919672
198	0xbea4b453	-0.32168826
199	0x3ea590df	0.3233709
200	0xbeec5c80	-0.46164322
201	0xbe573dab	-0.21019618
202	0xbe673fa4	-0.2258287
203	0xbbfd21ab	-0.007724961
204	0xbeb91cfb	-0.36154923
205	0xbed291ed	-0.41126958
206	0x3ed0a608	0.40751672
207	0x3ef19a34	0.4718796
208	0xbe169812	-0.14706448
209	0x3e37631c	0.17908901
210	0xbf03d65e	-0.51498973
211	0x3d7035da	0.058645107
212	0xbdb8e884	-0.09028724
213	0xbe221215	-0.1582721
214	0xbf01e08b	-0.5073325
215	0xbe187885	-0.14889725
216	0xbeb0d657	-0.34538528
217	0x3f049b57	0.5179953
218	0xbea78888	-0.32721353
219	0xbe08664d	-0.13320275
220	0x3e17d654	0.14827853
221	0x3e9aaa67	0.30208132
222	0xbe0b30d5	-0.13592847
223	0x3de96967	0.11397057
224	0x3e9599e3	0.2921897
225	0x3ec83b1c	0.39107597
226	0xbed21607	-0.4103243
227	0xbe9db242	-0.30800062
228	0xbeb5eb06	-0.3553087
229	0x3e6acdab	0.22930019
230	0x3b273719	0.0025515018
231	0xbda876e2	-0.082258
232	0xbe86576a	-0.26238567
233	0x3edcc536	0.4311921
234	0x3f263793	0.6492855
235	0x3ebeaa34	0.3723923
236	0x3c53f179	0.01293599
237	0xbe995f04	-0.29955304
238	0xbead5f06	-0.3386156
239	0xbdb8cc41	-0.09023333
240	0xbef56c70	-0.47934294
241	0xbed00fe2	-0.40637118
242	0xbd554db3	-0.052076053
243	0xbe215b29	-0.15757431
244	0x3e9d475c	0.30718505
245	0x3dd62312	0.10455908
246	0xbd4dd7d0	-0.050254643
247	0x3da908e6	0.0825365
248	0x3e91903a	0.2843035
249	0xbea31f7f	-0.31859967
250	0x3eeeb9a5	0.4662601
251	0x3f016831	0.5054961
252	0x3ec8958c	0.39176595
253	0x3eaa988d	0.33319512
254	0xbef968a4	-0.48712647
255	0x3d5282c2	0.05139423

actor.pi_net.fcs.0.bias f4 [64]
0	0x3e9fce37	0.31212017
1	0x3c526606	0.012841707
2	0x3e80e41a	0.25174028
3	0xbb241ca7	-0.0025041492
4	0x3edc6363	0.43044576
5	0xbe9e627b	-0.3093451
6	0x3e31bc02	0.17356876
7	0xbe6bbcac	-0.23021191
8	0xbe435a72	-0.19077471
9	0xbdae2c11	-0.08504499
10	0x3eac55f4	0.33659327
11	0xbdfe3a36	-0.124134466
12	0x3e3df7cb	0.18551557
13	0xbeea8037	-0.45800945
14	0x3e426e14	0.18987304
15	0xbe3446a0	-0.17605066
16	0xbe2f078c	-0.17092723
17	0x3e597ff4	0.21240216
18	0xbec7981f	-0.38983247
19	0x3cc89c04	0.024488457
20	0xbe985ada	-0.29756814
21	0xbeb578d2	-0.3544374
22	0x3e2d0b7b	0.1689891
23	0xbc0bbc33	-0.008528757
24	0xba57b5ec	-0.00082287076
25	0x3e300b4f	0.17191814
26	0xbe931b22	-0.28731638
27	0x3c25e89c	0.010126259
28	0x3e82ae4b	0.255236
29	0x3b1f2806	0.002428533
30	0x3da8ed34	0.08248368
31	0x3eba3300	0.36367035
32	0xbe556718	-0.20840108
33	0xbe363621	-0.17794086
34	0xbd44fec3	-0.048094522
35	0xbd362de8	-0.044477373
36	0xbe7f5c64	-0.24937588
37	0xbea5acad	-0.32358304
38	0xbed4ae78	-0.4153936
39	0x3e6156d3	0.22005777
40	0x3e924987	0.28571722
41	0xbcfeb8fb	-0.031094065
42	0x3eb0e8ae	0.3455252
43	0xbe742dc8	-0.23845589
44	0xbe150e3d	-0.14556213
45	0x3eaabcc5	0.33347145
46	0xbdd8293b	-0.10554739
47	0x3d807ffc	0.06274411
48	0x3e86251d	0.2620019
49	0xbed4c7a3	-0.4155856
50	0x3ef153b5	0.47134176
51	0x3eb4a4d6	0.3528201
52	0x3e8588e1	0.26080993
53	0x3e833416	0.25625676
54	0x3e0a69f2	0.13516977
55	0x3d543d73	0.051816415
56	0x3ea468e2	0.3211127
57	0xbbfc555a	-0.0077006044
58	0xbe40efee	-0.18841526
59	0xbca2b1a7	-0.019860102
60	0x3d887835	0.06663553
61	0xbc94d3e2	-0.01816744
62	0xbdbbbb41	-0.09166575
63	0x3e36a9a5	0.17838152

actor.pi_net.fcs.1.weight f4 [64, 64]
0	0x3d8bddff	0.06829452
1	0x3dafc6e9	0.08582861
2	0xbd66aeb6	-0.05631896
3	0xbb9acf9a	-0.004724455
4	0xbd601ca8	-0.05471483
5	0x3d0871fe	0.033311836
6	0x3e0a5645	0.13509472
7	0xbcfc08d1	-0.030765923
8	0xbce982a6	-0.02850468
9	0x3c825dd0	0.015913874
10	0x3d5860cc	0.052826688
11	0x3caedf64	0.021346755
12	0x3dffa423	0.124824785
13	0x3d284956	0.041085564
14	0x3dc39bb9	0.09551186
15	0x3c6ae037	0.014335684
16	0xbddd0167	-0.10791283
17	0xbd7d5aae	-0.061854057
18	0x3d18990a	0.037255324
19	0xbd92fd04	-0.07177165
20	0xbc55890c	-0.013033163
21	0x3da19021	0.078888185
22	0xbdfc84b8	-0.123300016
23	0xbe0df8cf	-0.13864444
24	0x3d209b00	0.03921032
25	0xbd7cb4dc	-0.06169592
26	0x3cea50dc	0.02860301
27	0xbdfa3069	-0.12216265
28	0x3dcae293	0.09906497
29	0xbcb0c698	-0.021579072
30	0x3e0286fe	0.12746808
31	0xbd4cd087	-0.050003555
32	0xbe055027	-0.13018857
33	0xbbc03914	-0.0058661792
34	0x3b5ac64a	0.003338235
35	0x3d8efd6a	0.06981929
36	0xbbf8c844	-0.007592233
37	0xbe07005c	-0.13183731
38	0x3db0329d	0.08603404
39	0xbbbc1a79	-0.0057404605
40	0xbd0f015d	-0.03491341
41	0x3d5cb7ee	0.053886347
42	0x3db57213	0.088596486
43	0xbdb6f4be	-0.089333996
44	0x3bb147fc	0.0054101925
45	0xbd459044	-0.048233286
46	0x3c53b8e1	0.012922497
47	0xbd2fa26a	-0.0428795
48	0xbdaef03a	-0.08541913
49	0xbd84baf9	-0.06480975
50	0x3cb5b9c1	0.0221833
51	0xbbd84699	-0.006600213
52	0x3ca7a3a3	0.02046377
53	0xbd2edef3	-0.04269309
54	0xbd660cfa	-0.05616472
55	0x3d0f7a42	0.035028704
56	0x3e147cf0	0.14500785
57	0xbd635592	-0.055501528
58	0xbd15581a	-0.036460973
59	0xbe0b3226	-0.13593349
60	0xbe0799ef	-0.13242315
61	0xbd9c78e1	-0.07640243
62	0x3cfa2c65	0.030538747
63	0xbccb5089	-0.024818676
64	0x3d9944c8	0.07483822
65	0x3bcd18a6	0.006259042
66	0x3d6ff20b	0.05858044
67	0xbe068b94	-0.13139182
68	0xbdaa452d	-0.083139755
69	0xbdffa30f	-0.12482273
70	0x3dc76970	0.097369075
71	0x3d2214e9	0.039570723
72	0x3c952225	0.018204758
73	0xbd4ec561	-0.050481204
74	0x3ce74800	0.028232574
75	0xbde556ba	-0.111981824
76	0x3d09322c	0.033495113
77	0x3d8e927b	0.06961533
78	0xbd06907f	-0.032852646
79	0xbd8a2227	-0.06744795
80	0x3c8ca666	0.017169189
81	0x3ca7dc41	0.020490767
82	0x3d91d69f	0.07121014
83	0x3dc0fc7d	0.09423158
84	0x3dcacfe3	0.099029325
85	0xbc9f6768	-0.019458488
86	0xbd3104fd	-0.043217648
87	0xbe11871c	-0.14211696
88	0xbe088f9c	-0.13336033
89	0xbd0e632c	-0.034762546
90	0xbde33df4	-0.11095801
91	0x3c711118	0.014713548
92	0x3dcdb367	0.10043984
93	0xbdbce900	-0.09224129
94	0x3d131413	0.035907816
95	0x3c8dceb1	0.017310472
96	0xbdb1ae2b	-0.08675798
97	0x3d9540ff	0.07287788
98	0x3d76964c	0.060201928
99	0x3e191261	0.14948417
100	0x3c5ea184	0.013588313
101	0xbdb9298f	-0.0904113
102	0x3c8e24bf	0.017351506
103	0x3d0172d5	0.031603653
104	0x3da5ae70	0.08089912
105	0xbd78c400	-0.060733795
106	0x3ce8f33a	0.028436292
107	0x3ca322e7	0.019914104
108	0x3e0638bf	0.13107584
109	0xbd9edfdb	-0.07757541
110	0x3d11debb	0.035612803
111	0x3d363d44	0.04449202
112	0xbd4d88a9	-0.050179157
113	0xbdc78c14	-0.09743515
114	0xbc97132c	-0.018441759
115	0xbd5b1654	-0.05348809
116	0xbc21722a	-0.009853879
117	0x3dc03a99	0.093861766
118	0xbd786b77	-0.06064936
119	0x3d1155cb	0.03548221
120	0xbcb2b453	-0.0218145
121	0xbc5d57eb	-0.013509731
122	0xbd463c4b	-0.048397344
123	0x3ce8ae75	0.0284035
124	0x3da6f639	0.08152432
125	0x3c3334b0	0.010937855
126	0xbe1900d7	-0.14941727
127	0x3d0379fb	0.03209875
128	0x3d96022b	0.07324632
129	0x3d6a075c	0.057135925
130	0xbcac1d1e	-0.021009978
131	0xbca5b7c6	-0.020229232
132	0xbd15665f	-0.03647458
133	0x3c4b2597	0.012399099
134	0x3d808456	0.06275241
135	0xbcdf3d7d	-0.027251
136	0x3de234f4	0.11045256
137	0x3e00b119	0.12567557
138	0xbd09c88d	-0.033638526
139	0xbd9ea923	-0.07747104
140	0xbcdb3e72	-0.026763175
141	0x3d4fab79	0.05070064
142	0x3d962051	0.073303826
143	0x3e0170d2	0.12640694
144	0xbcfa8d3d	-0.030584926
145	0x3da7e1ac	0.0819734
146	0x3cb24ccf	0.02176514
147	0x3d00334c	0.03129892
148	0xbd41d416	-0.0473214
149	0xbdd61e2a	-0.10454972
150	0x3d82c99a	0.06386109
151	0x3de6cd3d	0.11269615
152	0xbdc94ea5	-0.098294534
153	0xbdc49c8b	-0.09600171
154	0xbb8293c8	-0.003984902
155	0x3d27c80a	0.040962256
156	0x3d4cd47a	0.05000732
157	0x3d088892	0.03333337
158	0x3dc54ce4	0.09633806
159	0x3bb72d04	0.005590083
160	0xbdd76ed1	-0.105191834
161	0xbc296a88	-0.01034034
162	0xbc98e7f2	-0.018665288
163	0xbdb0fe94	-0.08642307
164	0x3e07149b	0.13191454
165	0xbd1f2f99	-0.038863752
166	0x3da2ccf8	0.07949251
167	0x3d1609a3	0.036630284
168	0x3c992e28	0.018698767
169	0x3dba522b	0.090977035
170	0x3d00738e	0.0313602
171	0x3d584c2a	0.05280701
172	0x3d487c06	0.048946403
173	0x3d7e0c49	0.062023435
174	0x3d872587	0.06598955
175	0x3deef909	0.116685934
176	0xbc35f111	-0.011104838
177	0x3d0066b5	0.03134795
178	0xbe0982a6	-0.13428745
179	0xbaaaa3b8	-0.0013018763
180	0x3d389695	0.04506548
181	0x3cdf4924	0.027256556
182	0x3dd15c96	0.102227375
183	0xbd88f56d	-0.06687436
184	0xbc913836	-0.017726999
185	0x3d96d9cc	0.0736576
186	0xbcac4c7a	-0.02103256
187	0xbcd2393c	-0.025662057
188	0xbe09b53c	-0.13448042
189	0xbc9756e8	-0.018474057
190	0xbd1a7f93	-0.03771932
191	0xbdafa6c4	-0.0857673
192	0xbd0f19c7	-0.034936693
193	0x3e17a515	0.14809068
194	0xbdca14c9	-0.09867246
195	0xbe213efa	-0.1574668
196	0xbcc4ccee	-0.0240235
197	0xbd758612	-0.059942313
198	0xbd90e86b	-0.0707558
199	0xbdb130fb	-0.086519204
200	0xbe01e344	-0.12684351
201	0xbc7ef859	-0.01556214
202	0xbdb5b807	-0.08872991
203	0xbd9e09ae	-0.0771669
204	0x3c41bf78	0.011825435
205	0xbc96edb5	-0.018423894
206	0xbd1f4c0c	-0.038890883
207	0x3d84917e	0.06473063
208	0x3d97add5	0.07406203
209	0xbddfbe9a	-0.10925026
210	0xbdc1dbfa	-0.09465785
211	0xbd2cb8cf	-0.042168435
212	0x3da34868	0.07972795
213	0x3e057306	0.13032159
214	0x3dc4db54	0.09612146
215	0xbe254544	-0.16139704
216	0x3dc5ceeb	0.09658607
217	0xbdf06d85	-0.11739639
218	0xbdaec9d9	-0.08534593
219	0xbc950464	-0.01819057
220	0xbd174fff	-0.036941525
221	0x3cc6f7ac	0.024288021
222	0xbe043b0f	-0.12913154
223	0xbcadb59f	-0.021204768
224	0x3c36b2a6	0.011150992
225	0x3de44e99	0.11147804
226	0xbde7485a	-0.11293097
227	0x3d42d41b	0.04756556
228	0xbe027eb2	-0.12743643
229	0xbdf11980	-0.11772442
230	0x3d609f64	0.054839507
231	0xbc5c4ce4	-0.0134460665
232	0xbc862981	-0.016377212
233	0x3c85aee7	0.016318751
234	0x3d76017c	0.06006001
235	0x3db3ce90	0.08779633
236	0x3c2f2af4	0.010691393
237	0xbcf5e69d	-0.030017192
238	0xbb70c9b1	-0.0036741311
239	0xbd186b8e	-0.037211947
240	0x3d256156	0.04037603
241	0x3c7153f0	0.014729485
242	0x3d24794f	0.04015475
243	0x3c728940	0.014803231
244	0x3db7af20	0.08968949
245	0xbd015215	-0.03157242
246	0x3e104642	0.14089301
247	0x3dbc9870	0.09208763
248	0x3de9bd93	0.114131115
249	0x3c524e18	0.012836002
250	0x3dfcb2c2	0.12338783
251	0xbe032677	-0.12807642
252	0xbdf0b203	-0.11752703
253	0x3dc7bc29	0.097526856
254	0xbe173a47	-0.14768325
255	0x3df09453	0.117470406

actor.pi_net.fcs.1.bias f4 [64]
0	0xbdd81df5	-0.10552589
1	0x3cf05030	0.029335111
2	0x3d7f85ab	0.062383335
3	0x3db116d4	0.08646932
4	0x3d44733f	0.04796147
5	0xbd99f8b1	-0.07518137
6	0xbd24840a	-0.040164985
7	0xbd1b69b9	-0.03794262
8	0xbca20a97	-0.01978044
9	0xbd3a8a02	-0.04554177
10	0x3d9b2813	0.07576003
11	0xbcee5a21	-0.029095711
12	0x3d3d7c68	0.04626122
13	0xbcf12903	-0.029438501
14	0xbc7dd177	-0.015491835
15	0xbd1fcf04	-0.039015785
16	0xbd5aaf3b	-0.05338977
17	0x3ce916a4	0.028453179
18	0x3b68f771	0.0035547877
19	0xbb4832ee	-0.0030547935
20	0x3d5e9964	0.054345503
21	0x3d6614a4	0.05617203
22	0xbd77c97e	-0.060494892
23	0x3d2afd82	0.04174567
24	0x3d49fbce	0.049312405
25	0x3d960421	0.07325006
26	0xbd5e1514	-0.05421932
27	0x3cbfe537	0.023424728
28	0x3d935cf2	0.07195462
29	0xbdb696e2	-0.08915497
30	0xbd461696	-0.048361383
31	0xbd8438af	-0.06456124
32	0xbdaa1abc	-0.083058804
33	0xbddf1747	-0.10893112
34	0xbb2d0a73	-0.0026403933
35	0x3d5196db	0.051169258
36	0x3d89d955	0.06730906
37	0x3b0919bf	0.0020919887
38	0xbc67dbbc	-0.01415151
39	0xbdaa811a	-0.083254054
40	0x3b7c693b	0.003851487
41	0x3ded0d4f	0.11574804
42	0x3c363fc8	0.011123605
43	0x3d13581d	0.035972703
44	0x3d9b555b	0.0758464
45	0xbd6e710b	-0.058213275
46	0xbdb11293	-0.08646121
47	0x3d69f1c9	0.05711535
48	0xbdbde99d	-0.09273074
49	0xbdc03313	-0.09384742
50	0x3d04543e	0.032306902
51	0xbd9cb251	-0.07651199
52	0x3dd119be	0.10209988
53	0x3d1f1e26	0.03884711
54	0x3dd110a9	0.10208256
55	0xbdc2e8f6	-0.0951709
56	0xbd8340c1	-0.06408835
57	0x3dad8cda	0.08474131
58	0x3dd91b9b	0.106009685
59	0xbc97d2f6	-0.018533211
60	0xbd21889a	-0.039436914
61	0x3db95850	0.090500474
62	0x3d2c0e29	0.04200569
63	0xbcfdea36	-0.03099547

actor.pi_net.fcs.2.weight f4 [1, 64]
0	0x3c77909d	0.015110162
1	0x3d514cad	0.051098514
2	0x3c0fc6e8	0.00877545
3	0x3d09b01a	0.03361521
4	0x3b35b9e5	0.002772921
5	0xbcf8188a	-0.030285139
6	0xbbc2cc3a	-0.005944756
7	0x3c1a2719	0.009408736
8	0x3d84423b	0.06457945
9	0x3b7fe72b	0.00390477
10	0x3d1d475c	0.03839813
11	0x3beece35	0.0072877654
12	0x3d75afe8	0.05998221
13	0xbb2a8368	-0.0026018266
14	0x3d63b230	0.055589855
15	0x3d571d49	0.052518163
16	0x3cc6caba	0.02426659
17	0x3d085c8b	0.03329138
18	0x3c68493a	0.014177615
19	0xbda9c27c	-0.08289048
20	0x382956bb	4.0373514e-05
21	0x3b477a95	0.0030438055
22	0x3da0be1b	0.0784876
23	0x3a83bf15	0.0010051454
24	0xbca024d0	-0.019548804
25	0x3d14e529	0.036351357
26	0x3d0d64f5	0.03452011
27	0x3b2595dd	0.0025266327
28	0xbb953322	-0.0045532146
29	0x3a394509	0.0007067477
30	0xbd34bb07	-0.044123676
31	0xbd6ce938	-0.057839602
32	0xbd678d3a	-0.05653117
33	0x3db14003	0.086547874
34	0x3c2b4f97	0.010455987
35	0x3c5c25eb	0.013436775
36	0xbd011647	-0.031515386
37	0x3b346482	0.0027525728
38	0x3cb01793	0.021495616
39	0x3ce4ff8a	0.027953882
40	0x3c442d0e	0.0119736325
41	0xbc42bd10	-0.011885896
42	0x3b8cff6b	0.004302909
43	0x3c22d954	0.00993951
44	0xbc00bfb9	-0.00785821
45	0x3cd4f2c6	0.02599467
46	0x3d142403	0.036167156
47	0x3c843c65	0.01614208
48	0xbbef453c	-0.0073019546
49	0x3c02841d	0.007966069
50	0x3d499297	0.049212065
51	0xbcb962cf	-0.022630123
52	0x3d41308f	0.04716545
53	0x3c3412da	0.010990823
54	0xbc354d67	-0.011065817
55	0xbbb86139	-0.005626824
56	0x3b8f8caf	0.0043807845
57	0x3cdbcaab	0.026830038
58	0x3d2a2b20	0.041545033
59	0xbd97f37c	-0.07419488
60	0x3af32eb4	0.0018553347
61	0x3cf066a6	0.029345822
62	0x3d89aab2	0.06722011
63	0x3d8a1093	0.067414425

critic.v_net.fcs.0.weight f4 [64, 4]
0	0x3f8a510f	1.0805987
1	0x3b61587d	0.0034385019
2	0xc085001c	-4.1562634
3	0xbda11054	-0.078644425
4	0xbf38839a	-0.7207581
5	0xbfa67c6c	-1.300672
6	0x3e0d7741	0.13815023
7	0xbf8e3370	-1.1109447
8	0xbfc882d0	-1.5664921
9	0xbf80978e	-1.0046251
10	0xbf50792e	-0.81434906
11	0xbf85dc41	-1.0457841
12	0x40028cad	2.0398362
13	0x3f64cb35	0.8937257
14	0xbfdcf5b9	-1.7262489
15	0x3ed19909	0.4093707
16	0xbf0183a5	-0.505915
17	0xbf908be7	-1.1292695
18	0x4056dbb0	3.3571587
19	0xbf423476	-0.758613
20	0xbfbea97a	-1.489547
21	0xbf21b806	-0.6317142
22	0xc0590251	-3.3907664
23	0xbe9d29e2	-0.30696017
24	0x3f9411bf	1.1567916
25	0x3faf8b87	1.3714455
26	0xbeefc914	-0.46833098
27	0x3f932d1e	1.1498144
28	0x3fd1a8b1	1.6379606
29	0x3f26b635	0.65121776
30	0x40475d14	3.115056
31	0x3f11539b	0.56768197
32	0x3f561636	0.8362764
33	0x3f988756	1.1916301
34	0x401b3551	2.4251292
35	0x3f04f1c3	0.519314
36	0xc01ae86b	-2.4204357
37	0x3f2addbb	0.66744584
38	0x40558e0b	3.3367946
39	0x3ee10008	0.43945336
40	0x3e0558dc	0.13022178
41	0xbfa1e0f4	-1.2646775
42	0xc007fd19	-2.1248229
43	0xbf62add0	-0.88546467
44	0x3f3b9cb2	0.73285973
45	0x3f924dbc	1.1429973
46	0xc0183dd0	-2.3787727
47	0x3f227b73	0.6346962
48	0xbf95ea35	-1.1712099
49	0xbf7be2b4	-0.98392797
50	0xc007f49a	-2.1243043
51	0xbf6bc4d9	-0.9209724
52	0xc03f8b34	-2.9928713
53	0xbee27245	-0.44227806
54	0x40349db8	2.8221264
55	0xbdf46c9c	-0.11934778
56	0x3f0aac4c	0.54169154
57	0x3eb70663	0.3574706
58	0x3f0d40b2	0.5517684
59	0x3f1fec5a	0.6247002
60	0xbf8e16a7	-1.1100663
61	0xbf27e593	-0.6558468
62	0x40670aee	3.610042
63	0xbec975f3	-0.393478
64	0xbec7badb	-0.39009747
65	0xbfcd5cdf	-1.6043967
66	0x3f9d52ed	1.2290932
67	0xbfa34412	-1.2755148
68	0x3f964480	1.1739655
69	0x3f0e90fb	0.5568997
70	0xc05eeef5	-3.4833348
71	0x3e3b0372	0.18263033
72	0xbfb9fb29	-1.4529773
73	0xbf73edb1	-0.95284563
74	0xc0290502	-2.6409307
75	0xbf3fd2e8	-0.7493119
76	0x3f777bc9	0.96673256
77	0x3f1b868a	0.60752165
78	0xbf8b8ca2	-1.0902293
79	0x3edc05aa	0.4297307
80	0x3d90b5b7	0.07065909
81	0x3f5b2da5	0.85616523
82	0x403bdaf8	2.9352398
83	0x3e71906c	0.23590249
84	0x3fb0cf2b	1.3813223
85	0xbf59ffa3	-0.85155696
86	0xc03cfff5	-2.9531224
87	0xbe7c5146	-0.24640378
88	0x3f25d07f	0.64771265
89	0x3f1fc808	0.624146
90	0xc02dce0d	-2.7157013
91	0x3f2916fb	0.6605069
92	0x3f0a1bdb	0.53948754
93	0x3ea96c6d	0.33090535
94	0x4048a2db	3.13494
95	0x3eb0e80b	0.34552035
96	0xbe9d21f5	-0.3068997
97	0xbfaaaad5	-1.3333384
98	0xc03eabdb	-2.9792392
99	0xbf44dbe5	-0.7689803
100	0x3f77fd30	0.9687071
101	0x3f4db6b0	0.80356884
102	0xc08397d7	-4.112285
103	0x3ed22b5f	0.41048715
104	0xbe9b3f2b	-0.3032163
105	0xbfb302f1	-1.3985273
106	0xbe2bdb7c	-0.16782945
107	0xbf730852	-0.9493457
108	0x3f8b090b	1.0862135
109	0x3e04d78d	0.12972851
110	0xc0450dba	-3.0789628
111	0x3cadfab6	0.021237712
112	0xbf88c38f	-1.068468
113	0xbf8f5d4f	-1.120035
114	0xbfd0861a	-1.6290925
115	0xbf7426bf	-0.9537162
116	0x3fa531ce	1.2905824
117	0x3eea4ea5	0.45763126
118	0xc052af1f	-3.2919385
119	0xbc39c87f	-0.011339306
120	0xc0328b4d	-2.7897522
121	0xbe3be97b	-0.18350784
122	0x40573d94	3.3631334
123	0x3e1bb557	0.15205894
124	0xbfef00af	-1.8672084
125	0xbf8418db	-1.0320085
126	0xbfb1085b	-1.3830675
127	0xbf4e32f7	-0.80546516
128	0xbfa39554	-1.2779946
129	0xbf8da408	-1.1065683
130	0xbefd9c2e	-0.49533218
131	0xbf50e9bf	-0.8160667
132	0x3f924d17	1.1429776
133	0x3f93d8e5	1.1550566
134	0x400cd6bd	2.2006066
135	0x3f333261	0.6999875
136	0xc019e6e7	-2.4047182
137	0x3f219a89	0.63126427
138	0x40835286	4.1038237
139	0x3e89f288	0.2694285
140	0xbfa6f1cb	-1.3042539
141	0x3f361830	0.7113066
142	0xc086df00	-4.2147217
143	0x3e5492bc	0.207591
144	0xbf86f286	-1.0542762
145	0xbd9361b3	-0.07196369
146	0xc08171aa	-4.045125
147	0x3e990e1c	0.29893577
148	0xbf20525a	-0.6262566
149	0xbfdc124a	-1.7193081
150	0xbeace673	-0.3376957
151	0xbfa6f06f	-1.3042125
152	0xbfac48b5	-1.3459688
153	0xbeb758a6	-0.3580982
154	0x406b3e73	3.6756866
155	0xbe76e3de	-0.24110362
156	0x3ee83dc0	0.45359612
157	0xbe8a0ee8	-0.26964498
158	0xc0885c74	-4.261286
159	0x3e581f79	0.21105756
160	0xbf9c447e	-1.2208402
161	0xbf528c93	-0.8224575
162	0x3e7a3917	0.2443584
163	0xbd9e2f74	-0.07723895
164	0x3fca72c4	1.5816274
165	0x3eb1e60d	0.34745827
166	0x404f1ab4	3.2360048
167	0x3ec7b257	0.3900325
168	0x3f00db4f	0.5033464
169	0x3f4baee8	0.7956376
170	0x3fc531c3	1.5405811
171	0x3f1b2ca0	0.6061497
172	0x40379e75	2.8690464
173	0x3f476efa	0.7790371
174	0xc00253a1	-2.0363543
175	0x3d24ff81	0.04028273
176	0xbeed882b	-0.4639295
177	0xbfdd2189	-1.7275859
178	0xbff125da	-1.8839676
179	0xbf7d32fd	-0.98905927
180	0x3cfe9a9e	0.031079587
181	0xbf7ace2f	-0.9797086
182	0xc04472e7	-3.069513
183	0xbf2478eb	-0.64247006
184	0xbfc99dc7	-1.5751275
185	0xbf962e19	-1.1732818
186	0xc009ad61	-2.1512072
187	0xbf6ce2e3	-0.925337
188	0x3eb3092f	0.34967944
189	0x3ffe2782	1.9855807
190	0x3ec0f813	0.37689266
191	0x3fa88dc3	1.3168262
192	0x3f4d8bae	0.8029126
193	0x3f5a5011	0.8527842
194	0x3fc33cf4	1.5252976
195	0x3f2dbe8d	0.6786888
196	0x3fa096c7	1.2546014
197	0x3ee4b5b8	0.4466989
198	0xc04c085f	-3.188011
199	0x3e5079fe	0.20359036
200	0xbf2dda1d	-0.6791094
201	0xbf5a09ea	-0.8517138
202	0xc02aa212	-2.666142
203	0xbf2fab6d	-0.6862095
204	0x3f6247b9	0.8839069
205	0x3f9d247d	1.227676
206	0x3ffb8345	1.9649435
207	0x3f1ad9c8	0.6048856
208	0xbec911c4	-0.39271367
209	0x3ff114db	1.883449
210	0x3efa6d8c	0.48911703
211	0x3f9516a8	1.1647539
212	0xbf811cf5	-1.0086962
213	0xbf9d37dc	-1.2282672
214	0x3e32884d	0.17434807
215	0xbf7701fd	-0.9648741
216	0xbe8fd334	-0.28090823
217	0xc000640d	-2.0061066
218	0x403773c0	2.8664398
219	0x3f1cb55d	0.6121424
220	0x40185ba6	2.3805938
221	0x3e96b180	0.29432297
222	0x4039cc48	2.9030933
223	0x3edcf268	0.4315369
224	0x3f77428e	0.9658593
225	0xbf601598	-0.8753295
226	0xc0276a3a	-2.6158586
227	0xbee1037f	-0.4394798
228	0xbf1aa76d	-0.6041172
229	0xbf1d73ed	-0.61505014
230	0x405b4ca7	3.4265535
231	0xbed7f4e0	-0.42179012
232	0xbe992b51	-0.2991586
233	0x3fb3e818	1.4055204
234	0xbf1cab3d	-0.6119879
235	0x3f75450e	0.95808494
236	0x3f6e0628	0.92978144
237	0x3f0e0269	0.5547243
238	0xc052c4fb	-3.2932727
239	0x3e348136	0.17627415
240	0xbef0c0f3	-0.4702221
241	0xbf53b0f8	-0.8269191
242	0x3fa91d5e	1.3212087
243	0x3f84a7a1	1.0363656
244	0x3f294163	0.661154
245	0x3fafd53f	1.3736953
246	0xc0838304	-4.109743
247	0x3f164197	0.5869383
248	0xbf3c5768	-0.7357087
249	0xbfb033eb	-1.3765844
250	0xbefda05a	-0.495364
251	0xbf83abe7	-1.0286835
252	0xbf2ac96d	-0.667136
253	0xbfd18f37	-1.6371831
254	0x3e2d55db	0.16927283
255	0xbfa32ba8	-1.2747698

critic.v_net.fcs.0.bias f4 [64]
0	0xbe88b84f	-0.26703116
1	0xbdefd240	-0.11710024
2	0xbdf43edc	-0.11926052
3	0x3e11a0fd	0.14221568
4	0xbde5fbd8	-0.11229676
5	0xbd261c39	-0.04055426
6	0x3d2a7de4	0.041623965
7	0xbc0ccca7	-0.008593715
8	0xbd019208	-0.031633407
9	0xbe1cc336	-0.15308842
10	0xbea0739e	-0.3133821
11	0xbe8c76e1	-0.27434447
12	0xbe6495c7	-0.2232276
13	0xbd579209	-0.052629504
14	0xbc806bf7	-0.015676482
15	0x3e50ec49	0.20402636
16	0x3db20cd6	0.086938545
17	0xbe8ec55e	-0.27884954
18	0x3d942e72	0.07235421
19	0x3e4b0c4b	0.19828908
20	0x3ddb8b15	0.10719887
21	0x3e5e59f8	0.21714008
22	0x3d99e8ef	0.07515132
23	0xbe5b442f	-0.21412729
24	0x3e78d2ae	0.24299118
25	0xbeafd825	-0.34344593
26	0x3d7da842	0.06192804
27	0xbe626713	-0.22109632
28	0xbdbac4a5	-0.09119538
29	0x3e4ff5da	0.20308629
30	0xbdf48dcd	-0.11941109
31	0x3d34d744	0.044150606
32	0x3dbf318a	0.09335621
33	0xbd091b6f	-0.03347343
34	0xbd3b1222	-0.04567159
35	0xbe61e082	-0.22058299
36	0xbe999386	-0.29995364
37	0xbdc4e558	-0.09614056
38	0xbe0a971e	-0.13534209
39	0xbe28b0ff	-0.16473769
40	0xbe9a0064	-0.30078423
41	0xbc8108d2	-0.015751276
42	0xbe328f30	-0.17437434
43	0x3dfe91e9	0.12430174
44	0x3e0c92b5	0.1372784
45	0xbe940f13	-0.2891775
46	0x3d83d397	0.06436842
47	0xbde7ef14	-0.113248974
48	0xbdcb7000	-0.09933472
49	0xbe5386e8	-0.20656931
50	0x3e89128d	0.26771966
51	0x3d31d9f6	0.043420754
52	0x3cc7b0cc	0.024376296
53	0x3e1f03f6	0.15528855
54	0x3ef08813	0.46978816
55	0x3e2a6952	0.16641739
56	0xbe5e9060	-0.21734762
57	0xbe42cdb3	-0.1902378
58	0x3c748cc0	0.014926136
59	0x3eb7d4aa	0.35904437
60	0xbee92fc9	-0.4554427
61	0xbee12696	-0.4397475
62	0x3e3663d3	0.17811517
63	0xbd8f3382	-0.06992246

critic.v_net.fcs.1.weight f4 [64, 64]
0	0xbe32e261	-0.17469169
1	0x3e38c2b1	0.18043019
2	0x3f215b8b	0.6303031
3	0xbf51e7a0	-0.81994057
4	0xbd843df4	-0.06457129
5	0x3f684eff	0.9074554
6	0xbe8744c2	-0.26419646
7	0xbf5a546a	-0.85285056
8	0xbec97f4c	-0.39354932
9	0x3fbd7c33	1.4803528
10	0xbf03d92e	-0.51503265
11	0x3e37cdab	0.1794955
12	0x3e4d6a5e	0.20060107
13	0x400defc2	2.2177587
14	0xbe34650f	-0.17616676
15	0x3e1a577e	0.15072438
16	0xbf44ff01	-0.76951605
17	0xbe2719af	-0.16318391
18	0x3eae6ae2	0.3406592
19	0xbe17e8d6	-0.14834914
20	0xbebb29ae	-0.36555237
21	0xbf8a55da	-1.080745
22	0xbec75fef	-0.3894038
23	0xbeb02cc4	-0.34409153
24	0xbed6344b	-0.4183677
25	0x3c11816a	0.008880952
26	0xbf23b906	-0.639542
27	0xbe6632fc	-0.22480386
28	0x3e8a0a2d	0.26960889
29	0xbea9b400	-0.33145142
30	0x3fc09729	1.504613
31	0x3f393ede	0.7236155
32	0x3ecd2400	0.40066528
33	0xbeb12e88	-0.34605813
34	0x400c04d6	2.1877952
35	0x3f2f4f7c	0.6848066
36	0x3ee74d3f	0.45176122
37	0xbeb5be7f	-0.354969
38	0x3f7b94b8	0.982738
39	0xbe08c3c9	-0.13355936
40	0x3e7f6c32	0.24943617
41	0xbf52cbbd	-0.8234213
42	0xbd57e205	-0.052705783
43	0xbfc21495	-1.5162531
44	0xbf0b53bb	-0.5442464
45	0xbe77da91	-0.2420447
46	0x3f03817c	0.5136945
47	0x3f7d4f15	0.98948795
48	0xbe8056dd	-0.2506627
49	0xbe7cdcf5	-0.24693663
50	0x3e4b5cf4	0.19859678
51	0xbe5ba0f8	-0.21448123
52	0x3fe6add4	1.8021798
53	0x3e9289f4	0.28620875
54	0xbd79af16	-0.06095799
55	0xbfcc4fe5	-1.5961882
56	0xbec5fa63	-0.38667592
57	0x3dc60cbd	0.096703984
58	0x3f6b319d	0.9187258
59	0xbe9de8fa	-0.3084181
60	0xbdc64f4f	-0.09683096
61	0x3e323832	0.1740425
62	0xbd81718b	-0.06320485
63	0xbeb8281e	-0.35968107
64	0xbf4bde4c	-0.79636073
65	0xbe601826	-0.21884212
66	0xbe9321c3	-0.28736696
67	0xbddcf958	-0.10789746
68	0x3decb248	0.11557442
69	0xbf0c8008	-0.5488286
70	0x3d923f61	0.07140995
71	0x3dcb9f0c	0.09942445
72	0x3ededa5c	0.4352597
73	0x3e7b2c20	0.24528551
74	0xbf7c4c1f	-0.9855365
75	0xbf194bf7	-0.5988154
76	0xbf1084d1	-0.5645266
77	0x3ec0831e	0.37600034
78	0x3e648c57	0.2231916
79	0x3f185cef	0.59516805
80	0xbc9f1835	-0.019420722
81	0xbf1c93fa	-0.61163294
82	0x3e18ba51	0.14914824
83	0x3d0c305a	0.0342258
84	0x3f476c5b	0.7789971
85	0xbe72e567	-0.23720323
86	0xbe08d1a5	-0.13361223
87	0xbe213f8d	-0.15746899
88	0xbe66b722	-0.22530797
89	0xbf4e7b47	-0.80656856
90	0xbf26e253	-0.65189093
91	0xbf18906c	-0.5959537
92	0xbeeb51ab	-0.45960745
93	0xbe0fb364	-0.14033276
94	0x3e5fca0c	0.21854419
95	0xbe806618	-0.2507789
96	0x3ea29197	0.317517
97	0x3ea249ac	0.31696832
98	0x3f3d4cb5	0.7394517
99	0xbf11683b	-0.5679967
100	0xbebfee87	-0.3748667
101	0xbf07a000	-0.52978516
102	0x3e6aadd9	0.2291788
103	0xbf8780c2	-1.0586169
104	0xbe71ea56	-0.23624548
105	0x3dd30a7d	0.10304735
106	0xbc5b7a6f	-0.01339589
107	0xbe19b863	-0.15011744
108	0xbf3f9e9a	-0.7485138
109	0xbf997be7	-1.1990937
110	0xbe205d30	-0.15660548
111	0x3ef8ed2b	0.48618445
112	0x3ce77d9c	0.028258137
113	0xbf4c6a1e	-0.7984942
114	0x3d47348c	0.048634097
115	0x3f3893c5	0.7210048
116	0x3f6f315d	0.934347
117	0x3ebce188	0.36890817
118	0x3eed1469	0.46304634
119	0x3efb9587	0.49137518
120	0xbea561fd	-0.32301322
121	0x3e13dc5c	0.14439529
122	0x3e7e7d45	0.24852474
123	0xbbec92e4	-0.007219659
124	0x3e5359fc	0.20639795
125	0xbf35e4e7	-0.710524
126	0x3e5d7d4e	0.21629831
127	0xbef72541	-0.4827061
128	0xbdc22f23	-0.09481647
129	0x3f3f3c53	0.7470142
130	0x3ea1025d	0.31447116
131	0xbe475676	-0.19466576
132	0x3f08ea04	0.5348208
133	0x3eca987d	0.39569464
134	0xbfa26cee	-1.2689493
135	0xbf03d531	-0.5149718
136	0xbf3d110e	-0.7385415
137	0xbf3dca7c	-0.7413709
138	0x3ed479ef	0.41499278
139	0xbf6df004	-0.9294436
140	0x3ef499d5	0.47773615
141	0xbe274696	-0.1633552
142	0xbeb0797a	-0.3446768
143	0x3f2d36ba	0.6766163
144	0x403613ca	2.8449578
145	0xbeebad88	-0.4603083
146	0x3f4efaaa	0.80851233
147	0x3ca95a66	0.020672988
148	0xbe1fca47	-0.15604506
149	0x3f38ff96	0.72264993
150	0xbeafba99	-0.3432205
151	0xbee5f7c7	-0.44915602
152	0x3fa8612b	1.3154653
153	0xbf2a9abf	-0.66642374
154	0x4056e9be	3.3580165
155	0xbe8f7acb	-0.2802337
156	0x3f27c7a0	0.6553898
157	0x3e1aafa4	0.15106064
158	0xbee95c21	-0.455781
159	0x3fbacb1c	1.4593234
160	0x3f9ac098	1.2090025
161	0xbfc66399	-1.5499145
162	0xbf775d92	-0.9662715
163	0xbf19cd03	-0.6007845
164	0xbeadbf3b	-0.3393496
165	0x3fd84883	1.6897129
166	0xbe977200	-0.29579163
167	0xbe19570d	-0.14974613
168	0xbdf229b9	-0.11824364
169	0xbe5b9c73	-0.214464
170	0xbf0e7f69	-0.5566316
171	0x3c635383	0.013874891
172	0x4039ac40	2.9011383
173	0x3e3245bc	0.17409414
174	0x3fb53053	1.4155372
175	0xc08e4218	-4.445568
176	0xbf20e1dd	-0.6284464
177	0xbead1282	-0.33803183
178	0x3f16203c	0.58642936
179	0xbf887e25	-1.0663496
180	0xc02bf664	-2.6869135
181	0x3f8a0bf9	1.0784904
182	0x3f0f6618	0.5601516
183	0xbde82d1a	-0.113367274
184	0x3db02bbd	0.086020924
185	0xbc92d471	-0.017923566
186	0xbfc8d348	-1.5689478
187	0x3e532ca5	0.206225
188	0xbe3264d4	-0.17421275
189	0xbf68f9f7	-0.91006416
190	0x3fa1542b	1.2603811
191	0x3fd766ea	1.6828282
192	0xbee15d46	-0.44016474
193	0x3f2db354	0.6785176
194	0x3ed00d17	0.40634987
195	0xbe981759	-0.29705313
196	0x3f382f8d	0.71947557
197	0x3f3319b7	0.6996111
198	0xbf8c59aa	-1.0964863
199	0xbf5da97e	-0.8658675
200	0xbf387222	-0.7204915
201	0xbe46a786	-0.19399843
202	0x3e223dfc	0.15843958
203	0xbf7d8522	-0.9903127
204	0x3e832841	0.2561665
205	0x3ee3aa95	0.4446608
206	0xbe47f749	-0.19527926
207	0x3f0d0c39	0.55096775
208	0x4027cdfa	2.6219468
209	0xbee9f295	-0.45692888
210	0x3f861f4f	1.0478305
211	0xbe0bd396	-0.13654932
212	0xbd8bbff0	-0.068237185
213	0xbd101729	-0.035178337
214	0xbef7d8f1	-0.484077
215	0xbe9371ec	-0.28797853
216	0x3f8e3ba6	1.1111953
217	0xbf252a0f	-0.645173
218	0x40114976	2.2701087
219	0xbefe7467	-0.49698183
220	0x3f02805a	0.509771
221	0xbde183b4	-0.110114485
222	0x3d62f75c	0.05541168
223	0x3ff7f603	1.9371952
224	0x3fe1e906	1.7649238
225	0xbfde0b75	-1.7347246
226	0x3dada0ea	0.084779575
227	0xbeb40f87	-0.35168096
228	0xbf071d26	-0.5277885
229	0x3fd36a7f	1.6516875
230	0x3ebf1744	0.37322438
231	0xbf4f3e6a	-0.8095461
232	0x3df605b5	0.12012807
233	0xbf0e9f8c	-0.557122
234	0xbf1475fe	-0.5799254
235	0xbecfbdfb	-0.4057463
236	0x4026b7ce	2.6049685
237	0x3dd98e21	0.10622812
238	0x3fdbd9a7	1.7175797
239	0xc05473b5	-3.3195622
240	0xbf36b9f4	-0.7137749
241	0xbf24ee87	-0.64426464
242	0x3f200995	0.6251462
243	0xbf5510e6	-0.8322891
244	0xc003c9ab	-2.0591838
245	0x3fa7e80a	1.3117688
246	0x3f3d3266	0.73905027
247	0xbe077262	-0.13227227
248	0x3c65166d	0.0139823975
249	0x3ed2efc9	0.41198567
250	0xbf7bdf36	-0.9838747
251	0xbc995fc4	-0.018722422
252	0xbe308ecd	-0.17241974
253	0xbf4c5312	-0.79814255
254	0x3f9b3b0b	1.2127393
255	0x3fc836a1	1.5641671

critic.v_net.fcs.1.bias f4 [64]
0	0x3cc9ca28	0.024632528
1	0x3ebe094c	0.37116468
2	0x3e41c010	0.18920922
3	0x3e847abb	0.25874886
4	0xbebd5f16	-0.36986607
5	0xbe9c7e51	-0.30565122
6	0x3e5440fd	0.20727916
7	0xbec19bf8	-0.37814307
8	0x3e107f4f	0.14111064
9	0xbf0e16de	-0.5550364
10	0xbde66d49	-0.11251313
11	0xbece578e	-0.40301174
12	0x3f1e5fb7	0.618648
13	0x3eb35cb2	0.35031658
14	0x3ede2569	0.43387917
15	0xbec99dc2	-0.39378172
16	0x3eb82dba	0.35972387
17	0xbeaf36df	-0.3422155
18	0x3e4d92fa	0.20075598
19	0xbf1bb4cb	-0.60822743
20	0x3e888a35	0.26667944
21	0x3f239d51	0.6391192
22	0xbf1479cf	-0.57998365
23	0x3e9536ab	0.2914327
24	0xbeedc71e	-0.46440977
25	0x3ee97c03	0.45602426
26	0x3eec211d	0.46119013
27	0xbebbfa63	-0.36714467
28	0xbed5827b	-0.4170111
29	0xbf23b1d5	-0.63943225
30	0x3f40608b	0.7514731
31	0x3eb5ba51	0.3549371
32	0x3dff5b56	0.12468593
33	0xbdbd6a77	-0.09248822
34	0xbe6b33b8	-0.22968948
35	0x3df9155d	0.12162278
36	0x3f182d80	0.5944443
37	0xbec2686b	-0.3797029
38	0x3f2beeb4	0.6716111
39	0x3e9edba5	0.3102695
40	0xbe6b7dac	-0.22997159
41	0x3ed9ed22	0.4256373
42	0xbe9427ad	-0.2893652
43	0x3eff5a04	0.49873364
44	0xbe8af992	-0.27143532
45	0xbe69f586	-0.22847566
46	0x3e159d79	0.14610852
47	0xbf0d2ad9	-0.55143505
48	0xbeb3b675	-0.3510014
49	0xbefb60c9	-0.4909728
50	0xbeb30c6a	-0.3497041
51	0xbe0ffc38	-0.14061058
52	0xbe40419d	-0.1877503
53	0xbea4393c	-0.32074916
54	0xbe9f8f3e	-0.31163973
55	0xbf25c49d	-0.64753133
56	0xbec07841	-0.37591746
57	0xbeb0a2ba	-0.3449915
58	0x3e9c8b3d	0.3057498
59	0x3e9fee06	0.31236285
60	0x3eb317c9	0.34979084
61	0x3ef70b5c	0.48250854
62	0x3ec21e4c	0.3791374
63	0xbe98a3f2	-0.2981258

critic.v_net.fcs.2.weight f4 [1, 64]
0	0x3faafa6f	1.3357676
1	0x403465af	2.8187063
2	0xbfce797b	-1.6130823
3	0xbfc4be3f	-1.5370559
4	0x3fc22c28	1.5169725
5	0x402a9772	2.6654935
6	0xbf9dea18	-1.2337065
7	0xc02a1c06	-2.6579604
8	0x3fc154fe	1.5104063
9	0x4039bdff	2.9022214
10	0x40146acb	2.3190181
11	0x3fae997d	1.3640591
12	0x402c3b66	2.6911254
13	0x4023c79f	2.559059
14	0xc0388713	-2.8832443
15	0xbfdd2abe	-1.7278669
16	0xbfd13ee4	-1.6347318
17	0x3fdf360f	1.7438372
18	0xbfc846a4	-1.5646558
19	0x40009655	2.0091755
20	0xc016e4c3	-2.3577125
21	0xbff888b5	-1.941672
22	0xbfeb3fe1	-1.8378869
23	0xbfd7b535	-1.6852175
24	0x401716dc	2.3607702
25	0xc003ebfd	-2.0612786
26	0xbfd5a4de	-1.6690938
27	0x402e59aa	2.7242227
28	0x3fd13205	1.634339
29	0xc033639a	-2.8029542
30	0x40202949	2.5025198
31	0x4040739c	3.0070562
32	0x4018b4ff	2.3860471
33	0xbfff7412	-1.9957297
34	0xc02b65e5	-2.6780941
35	0xc020cc55	-2.5124714
36	0x40376ee7	2.866144
37	0xc02275ef	-2.538448
38	0x4035310e	2.831119
39	0x4030a7b2	2.7602353
40	0x3fedacf7	1.856841
41	0xc0242990	-2.5650368
42	0x3fbc84ed	1.4728066
43	0xc03270fd	-2.7881463
44	0x3fd273b0	1.6441555
45	0x3fcafa3b	1.5857614
46	0xc01078ab	-2.257365
47	0x40287e63	2.632714
48	0xc0248583	-2.570649
49	0xc0205095	-2.5049183
50	0x3fb4a126	1.4111679
51	0x3f5a2dd7	0.85226196
52	0xc020ff45	-2.5155804
53	0x3fc78075	1.5586077
54	0xc025fe80	-2.5936584
55	0x3fdb49ac	1.7131858
56	0x3fa279c2	1.2693408
57	0xc02fc51e	-2.746406
58	0xbfcd2ec8	-1.6029902
59	0x4035af12	2.8388104
60	0xc0258e29	-2.5868018
61	0x402a42f8	2.6603374
62	0x4007d77b	2.122527
63	0x40383790	2.8783913

exp_avg f4 [64, 4]
0	0x394bd052	0.00019437194
1	0x38aa88e8	8.1317325e-05
2	0x3a057727	0.00050913024
3	0x3a9e9266	0.0012098073
4	0x378eee93	1.7038814e-05
5	0xb84f8317	-4.9474733e-05
6	0x390a753c	0.00013204379
7	0x39cae3ec	0.00038698257
8	0xb713e05b	-8.81412e-06
9	0xb7987544	-1.8174418e-05
10	0xb76219b5	-1.3476635e-05
11	0xb7405746	-1.1464412e-05
12	0xb96ab4e4	-0.00022383366
13	0x39297d6f	0.00016163824
14	0xba14e029	-0.00056791544
15	0xbad9b533	-0.0016609788
16	0x361d49f2	2.3437865e-06
17	0xb80c1ad7	-3.3403598e-05
18	0x3828ae64	4.0216735e-05
19	0x391927dd	0.00014606067
20	0xb78930ae	-1.6354341e-05
21	0x3945e27a	0.00018871753
22	0xb9762cc1	-0.0002347706
23	0xba4919bf	-0.0007671378
24	0x38aced64	8.2458166e-05
25	0xb92b7513	-0.00016351444
26	0x39bee400	0.00036409497
27	0x3a911004	0.0011067395
28	0xb85fd950	-5.336973e-05
29	0xb810be4f	-3.4509514e-05
30	0xb8d69140	-0.0001023137
31	0xb96de116	-0.00022685932
32	0x379e79d4	1.8891798e-05
33	0xb8873128	-6.446458e-05
34	0x37f7b9c2	2.9531195e-05
35	0x392680a7	0.0001587892
36	0xb8f79c07	-0.0001180694
37	0x385ad05d	5.2169304e-05
38	0xb9fb2371	-0.00047900857
39	0xbaa40697	-0.0012514171
40	0xb8eaac80	-0.0001119012
41	0xb805322e	-3.1756404e-05
42	0xb96c713a	-0.00022548894
43	0xba0d7d08	-0.0005397354
44	0xb8cce231	-9.7696095e-05
45	0x38b309b9	8.537196e-05
46	0xb96ee45a	-0.00022782516
47	0xba34ce25	-0.0006897173
48	0x37ed9120	2.832018e-05
49	0xb89c88f5	-7.46417e-05
50	0x3975e4e0	0.00023450283
51	0x3a2d2d82	0.00066062075
52	0x3803f384	3.1459625e-05
53	0x37319497	1.0584618e-05
54	0x3911cf3a	0.00013905475
55	0x39a5ab3a	0.00031598826
56	0x3686eed3	4.021314e-06
57	0x3782d241	1.5595115e-05
58	0x38622e91	5.3925967e-05
59	0x38f3184a	0.00011591667
60	0x3909ffd1	0.00013160637
61	0xb9027c60	-0.000124441
62	0x39832657	0.00025014832
63	0x3a585b09	0.00082533114
64	0xb70223b4	-7.756917e-06
65	0x38235e15	3.894985e-05
66	0xb95339ed	-0.00020144107
67	0xba09630a	-0.0005240893
68	0xb8a85d8a	-8.028287e-05
69	0xb79343a3	-1.7555261e-05
70	0xb900f992	-0.00012300003
71	0xb9a1b0a3	-0.00030839918
72	0x3802ed37	3.121534e-05
73	0x373350ac	1.0688014e-05
74	0x381db104	3.7596576e-05
75	0x38b6ab02	8.710289e-05
76	0x394266bb	0.00018539552
77	0xb89627b8	-7.1599556e-05
78	0x39d9e383	0.00041558975
79	0x3a9851b2	0.0011621027
80	0x37b7f8f1	2.1931222e-05
81	0xb78d6c24	-1.6858867e-05
82	0x382d1deb	4.1274277e-05
83	0x3905d6e2	0.00012763918
84	0x36e1cedd	6.7296046e-06
85	0xb8a8ed79	-8.055097e-05
86	0x387825a3	5.916286e-05
87	0x3982643b	0.0002487021
88	0xb90c68cf	-0.00013390485
89	0x378adde9	1.6554217e-05
90	0xb9695a64	-0.00022254285
91	0xba1fb039	-0.0006091628
92	0xb936e73c	-0.00017443014
93	0x384a131f	4.817836e-05
94	0xba307ed9	-0.0006732769
95	0xbae3f477	-0.0017391582
96	0xb90454a7	-0.00012620036
97	0x39326c83	0.00017015827
98	0xb9a1f80f	-0.0003089313
99	0xba840cf5	-0.0010074662
100	0xb8fc94fd	-0.000120440476
101	0xb753359d	-1.2589063e-05
102	0xb974179a	-0.00023278446
103	0xba1b2272	-0.00059179135
104	0x356772ab	8.622107e-07
105	0x37aed2ac	2.0840518e-05
106	0xb81d4abd	-3.7501322e-05
107	0xb8ef2db6	-0.000114049224
108	0xb8a8f799	-8.056983e-05
109	0x38596e9b	5.183984e-05
110	0xb950010d	-0.00019836817
111	0xba19508f	-0.0005848491
112	0xb9178fd5	-0.00014454064
113	0x374d5930	1.2239718e-05
114	0xb991ac93	-0.00027785133
115	0xba44fc42	-0.0007514396
116	0xb89d0a70	-7.4882875e-05
117	0x38d3679a	0.00010080561
118	0xb9327614	-0.0001701939
119	0xba14285e	-0.0005651767
120	0x380bb2bf	3.3306653e-05
121	0xb7f9abef	-2.9763176e-05
122	0x38a99ddf	8.087954e-05
123	0x3982a1c9	0.00024916072
124	0x385b8be3	5.234395e-05
125	0xb811d573	-3.4769484e-05
126	0x39682332	0.00022138355
127	0x3a1d0cee	0.00059910014
128	0xb81a0df2	-3.672945e-05
129	0x3851783e	4.9941467e-05
130	0xb8c1bfb0	-9.238662e-05
131	0xb99c3daa	-0.00029800582
132	0x3805c8ee	3.18968e-05
133	0xb85cf823	-5.2683183e-05
134	0x390fc72d	0.00013711741
135	0x39d79acd	0.0004112333
136	0xb857bc8e	-5.14356e-05
137	0x378aebb2	1.6560636e-05
138	0xb93784dc	-0.00017501734
139	0xb9f49cd3	-0.0004665615
140	0x396c1c88	0.00022517343
141	0xb8af8669	-8.369686e-05
142	0x3a07ff61	0.0005187896
143	0x3abba775	0.0014316874
144	0xb8afd226	-8.3837935e-05
145	0x37ac95b6	2.0573712e-05
146	0xb99c2fb3	-0.00029790177
147	0xba4c2da6	-0.00077887846
148	0xb8a221d7	-7.731065e-05
149	0x39188e1c	0.0001454879
150	0xb961090c	-0.00021461042
151	0xba3dfe94	-0.0007247713
152	0x389385f3	7.034456e-05
153	0xb8e135e4	-0.00010738874
154	0x3906ec4f	0.00012867268
155	0x39fd1079	0.00048268193
156	0x38675048	5.514946e-05
157	0x38091901	3.2686632e-05
158	0x39552796	0.0002032801
159	0x39f74e10	0.00047169672
160	0xb88b25da	-6.635087e-05
161	0x3829c0d8	4.047234e-05
162	0xb90e62ce	-0.00013578983
163	0xb9d79ef8	-0.00041126437
164	0x39457cf8	0.00018833939
165	0xb8682465	-5.5347005e-05
166	0x39da222a	0.00041605654
167	0x3a94bf34	0.0011348487
168	0xb882dfed	-6.2405925e-05
169	0x389d058c	7.4873766e-05
170	0xb9094cf7	-0.0001309401
171	0xb9ed05ed	-0.00045208578
172	0x39606f0f	0.00021403677
173	0x38db0799	0.00010444149
174	0x39d482a1	0.00040533117
175	0x3a703ae1	0.0009164047
176	0x391c2cb2	0.0001489397
177	0x38260bd4	3.95885e-05
178	0x39868462	0.00025657105
179	0x3a238499	0.0006237715
180	0xb91ac33e	-0.00014759318
181	0xb7750efd	-1.4606628e-05
182	0xb99e1ffc	-0.0003015994
183	0xba47fdc1	-0.000762906
184	0x381640a9	3.5823006e-05
185	0xb8af8dbb	-8.3710496e-05
186	0x38ce6729	9.8420605e-05
187	0x39b97e0e	0.00035379868
188	0x388c0cda	6.678114e-05
189	0xb875657f	-5.8507077e-05
190	0x38d075c7	9.9401506e-05
191	0x39b3fe51	0.0003433102
192	0xb7b25e35	-2.1263122e-05
193	0x3780f9e4	1.5375153e-05
194	0xb80578b6	-3.1822092e-05
195	0xb8d1f564	-0.00010011604
196	0x38ff63e9	0.00012177957
197	0xb5f69163	-1.8370741e-06
198	0x392e4514	0.00016619667
199	0x39ed83e0	0.00045302417
200	0xb8dfa0fa	-0.00010663453
201	0xb8817cae	-6.174423e-05
202	0xb947c55f	-0.00019051645
203	0xb9db3a9d	-0.00041814605
204	0xb90be11c	-0.00013339933
205	0x398fc253	0.00027419868
206	0xb940d3c1	-0.00018389431
207	0xba631150	-0.00086619426
208	0x36ca29d7	6.02494e-06
209	0x36452d2e	2.9381586e-06
210	0x380a4ee1	3.2975226e-05
211	0x38aa7002	8.127095e-05
212	0xb8d12539	-9.97283e-05
213	0xb80d4e08	-3.3689692e-05
214	0xb93c6aab	-0.00017968814
215	0xb9e2ef54	-0.00043284392
216	0x38343a8c	4.296987e-05
217	0xb94f094b	-0.0001974452
218	0x3a13acc8	0.00056333514
219	0x3ad356a9	0.0016123849
220	0x398f8159	0.00027371457
221	0x37f66fcf	2.937755e-05
222	0x3a219abb	0.0006164719
223	0x3ac9fc4e	0.0015410276
224	0x3846b2ad	4.7373283e-05
225	0xb929fe7c	-0.00016211899
226	0x398f3262	0.00027312624
227	0x3a5dabb8	0.0008456069
228	0x38a80273	8.0113205e-05
229	0xb6304d4d	-2.6271039e-06
230	0x39884f58	0.00025999057
231	0x3a2c45a8	0.0006571659
232	0x3929d365	0.00016195847
233	0xb6c36223	-5.8228775e-06
234	0x3954106c	0.00020224013
235	0x3a13c741	0.0005637296
236	0xb993b47b	-0.00028172493
237	0xb7694578	-1.3904057e-05
238	0xba382a78	-0.00070253713
239	0xbae9bfca	-0.0017833647
240	0xb98d3083	-0.0002692976
241	0xb682a1f3	-3.8931553e-06
242	0xba0e83f0	-0.00054365303
243	0xbab7ac3d	-0.0014013123
244	0x38df5aea	0.00010650403
245	0x375bbd2a	1.309746e-05
246	0x3943b05e	0.00018662351
247	0x39f6eb05	0.0004709588
248	0xb78275c0	-1.555204e-05
249	0x393c44e0	0.00017954735
250	0xb98adb2e	-0.00026484713
251	0xba600b26	-0.0008546583
252	0x38c9b429	9.617984e-05
253	0xb8c2375b	-9.2609516e-05
254	0x397b3a67	0.00023958982
255	0x3a3e8a14	0.00072685
