training_results/cartpole_null/ppo/seed_42/72000steps/checkpoints/model_64800.pt (torch, 72355 bytes, 30 tensors)

actor.pi_net.fcs.0.weight f4 [32, 4]
0	0xbe6ca5eb	-0.23110168
1	0x3ef39da7	0.47581217
2	0x3e664b51	0.22489668
3	0x3ee53e93	0.44774303
4	0xbf0a124b	-0.5393416
5	0xbd62d246	-0.055376314
6	0x3e697273	0.22797565
7	0xbeffb1a1	-0.49940208
8	0x3ea8c9f7	0.32966587
9	0xbee78158	-0.4521587
10	0xbf4b2df2	-0.7936698
11	0xbf1ffd37	-0.6249575
12	0xbe5d15c7	-0.21590339
13	0xbe3a056f	-0.18166135
14	0x3f078f88	0.52953386
15	0x3e36be3f	0.1784601
16	0x3ea048bb	0.3130549
17	0x3e78a8fd	0.24283214
18	0x3e529282	0.20563701
19	0x3f13d329	0.5774408
20	0xbee7812b	-0.45215735
21	0xbe9a7bab	-0.30172476
22	0x3e82da3d	0.25557128
23	0x3f36adf8	0.71359205
24	0x3e845e0f	0.2585301
25	0x3e808b15	0.2510611
26	0xbe88bfc9	-0.2670882
27	0xbe84c1c9	-0.25929096
28	0xbe02446c	-0.12721413
29	0x3e91819f	0.28419206
30	0xbd00a44f	-0.031406697
31	0x3e7061f4	0.23474866
32	0x3ede6b3a	0.43441182
33	0x3e1f718e	0.15570661
34	0xbf0a9f8e	-0.5414971
35	0xbf34c4aa	-0.70612586
36	0x3eba5cea	0.36399013
37	0xbdda1d1a	-0.10650082
38	0xbea06b5c	-0.3133191
39	0x3df24192	0.11828913
40	0xbddd19b0	-0.10795915
41	0xbefc3649	-0.49260166
42	0x3e52aef6	0.20574555
43	0xbecd09d2	-0.40046555
44	0xbe9f6504	-0.31131756
45	0xbe7abd77	-0.24486338
46	0x3df19321	0.11795641
47	0x3e46b9f0	0.19406867
48	0xbe2e65b1	-0.1703098
49	0x3e5dae9f	0.21648644
50	0xbe5098e1	-0.20370819
51	0xbe2df4de	-0.1698794
52	0x3b80713b	0.003919748
53	0x3e65d809	0.22445692
54	0xbe1bdfe3	-0.15222125
55	0x3f12edea	0.5739428
56	0xbe8795c6	-0.26481456
57	0x3e1cac05	0.15299995
58	0x3f034d40	0.5128975
59	0x3f27fef0	0.6562338
60	0x3e8fd61d	0.28093043
61	0x3e93446c	0.2876314
62	0xbec46d66	-0.38364714
63	0xbed885f1	-0.4228969
64	0x3eeda517	0.46415016
65	0xbd50d356	-0.050982796
66	0xbe9282ab	-0.28615317
67	0x3eaefd59	0.34177664
68	0xbe10661e	-0.14101455
69	0x3de9e74f	0.11421072
70	0xbec7d329	-0.3902829
71	0x3eb77bab	0.3583654
72	0xbe649f73	-0.2232645
73	0x3e732455	0.23744328
74	0x3e9168e9	0.28400353
75	0x3f01b571	0.5066748
76	0xbda5dfa8	-0.080993
77	0xbcfbdde5	-0.030745456
78	0xbebc3412	-0.36758476
79	0xbe46ab71	-0.19401337
80	0xbef89e6f	-0.48558375
81	0x3dc691d3	0.096957825
82	0xbe05bd2e	-0.13060448
83	0x3e912162	0.28345782
84	0xbe39f84f	-0.18161128
85	0x3e10686c	0.14102334
86	0xbcbe8de1	-0.023261013
87	0xbef9fcdb	-0.48825726
88	0xbec7dd41	-0.3903599
89	0xbe814f17	-0.25255653
90	0xbe885f29	-0.266351
91	0x3dbabfce	0.09118615
92	0x3ef4bb50	0.47799158
93	0xbec32892	-0.3811689
94	0xbe88b713	-0.26702175
95	0x3dafa8c3	0.085771106
96	0xbf00119d	-0.50026876
97	0xbd22af90	-0.03971821
98	0xbd6727cf	-0.05643445
99	0x3f0b12e7	0.5432572
100	0xbe8dfbfb	-0.27731308
101	0xbe73d25f	-0.23810719
102	0xbf442111	-0.76612955
103	0xbee2eef6	-0.44322938
104	0xbe36f7db	-0.17867987
105	0xbeea59d2	-0.45771652
106	0xbe96ffe2	-0.29492098
107	0xbedeb514	-0.43497527
108	0xbc5a0a72	-0.013308154
109	0x3d9f33de	0.07773565
110	0xbf1eea03	-0.62075824
111	0xbf4e2aa5	-0.8053382
112	0x3efab42a	0.4896558
113	0xbeaf8ce3	-0.34287176
114	0x3e29b7e4	0.16574055
115	0xbdaece80	-0.085354805
116	0xbf135a08	-0.5755925
117	0x3e2c162f	0.16805337
118	0x3e9736ab	0.29533896
119	0x3f1e2f79	0.6179119
120	0x3e3f9823	0.1871038
121	0x3d9c610d	0.076356985
122	0xbefafbac	-0.49020135
123	0x3e55e78c	0.2088911
124	0x3dbaa027	0.09112578
125	0x3f053e72	0.5204841
126	0xbdd9b533	-0.10630264
127	0x3f04b6e0	0.51841545

actor.pi_net.fcs.0.bias f4 [32]
0	0xbe8437b5	-0.2582375
1	0xbe6ef09f	-0.23333977
2	0x3eadcf60	0.33947277
3	0x3e80b00a	0.25134307
4	0xbecc0221	-0.39845374
5	0x3ef3bc2f	0.4760451
6	0x3eca7904	0.39545453
7	0xbdfda1d0	-0.12384379
8	0x3ead5591	0.33854344
9	0x3c07a2be	0.008278547
10	0xbe817f35	-0.25292364
11	0xbbf1af0e	-0.0073756045
12	0x3ef96182	0.48707205
13	0x3e28c9f5	0.1648329
14	0x3e595acb	0.21226041
15	0xbaeedce0	-0.0018223785
16	0xbe555a03	-0.20835118
17	0xbe66298c	-0.22476786
18	0xbe746fa4	-0.23870713
19	0xbe361a86	-0.17783555
20	0xbeeb15e5	-0.45915142
21	0xbeade2e5	-0.3396217
22	0x3ec00607	0.37504598
23	0xbecc3435	-0.3988358
24	0x3e8f3f5e	0.27978033
25	0x3e9dbac8	0.30806565
26	0x3e37c650	0.17946744
27	0x3d3d6779	0.046241257
28	0xbef16e7a	-0.471546
29	0x3e7e14cf	0.24812625
30	0x3f0dc0b0	0.5537214
31	0x3ea1d22d	0.31605664

actor.pi_net.fcs.1.weight f4 [32, 32]
0	0xbdaaffb7	-0.08349555
1	0x3cbfdf84	0.02342201
2	0x3d7d1bc4	0.061794057
3	0x3de39a05	0.11113361
4	0x3db83756	0.089949295
5	0x3d7e5f6b	0.062102716
6	0x3d62da5e	0.055384032
7	0xbdc93177	-0.09823888
8	0x3dcb65ff	0.099315636
9	0xbe596977	-0.21231638
10	0xbbafb696	-0.005362342
11	0x3ded6b3e	0.115927204
12	0x3dd8d6b3	0.105878256
13	0x3e6e5bf1	0.2327726
14	0xbd862827	-0.06550627
15	0x3d7b272e	0.06131666
16	0xbcc10141	-0.023560168
17	0x3db3faf1	0.08788098
18	0xbe07f8db	-0.13278525
19	0x3e03829d	0.12842794
20	0xbdf6a308	-0.120428145
21	0xbdd9dc87	-0.106377654
22	0x3e0b8680	0.13625526
23	0xbd88b075	-0.066742815
24	0x3dca2ccb	0.09871825
25	0x3ddfbcb3	0.109246634
26	0x3d3114da	0.043232776
27	0xbe5254cf	-0.20540164
28	0x3db9e3d0	0.09076655
29	0x3cf2516a	0.029579837
30	0xbe01e1b1	-0.1268375
31	0xbd80724b	-0.062718
32	0xbe410b57	-0.18851982
33	0xbd84dea3	-0.06487777
34	0x3daf7b34	0.08568421
35	0x3d8a2d69	0.067469425
36	0xbe9f9ce7	-0.31174394
37	0x3e76b152	0.2409108
38	0xbd9f0f2a	-0.07766564
39	0xbc8a209c	-0.016861252
40	0xbe4073df	-0.18794201
41	0xbe3d9952	-0.18515518
42	0xbe1b7401	-0.1518097
43	0xbc3a209c	-0.011360314
44	0xbd94380e	-0.07237254
45	0xbc9bc0ce	-0.019012835
46	0x3ea0da61	0.3141661
47	0xbdde68af	-0.108598106
48	0xbe525a9b	-0.20542376
49	0xbd8ff0dc	-0.07028362
50	0xbe88b222	-0.26698405
51	0xbd198793	-0.03748281
52	0xbdeda508	-0.11603743
53	0xbdd1702c	-0.10226473
54	0xbde213da	-0.11038943
55	0xbe0f5b2b	-0.13999622
56	0xbc337274	-0.010952581
57	0x3e18f817	0.14938389
58	0xbe199bc5	-0.15000828
59	0xbef11e79	-0.4709356
60	0xbcaac92d	-0.020847881
61	0x3e6df805	0.23239143
62	0x3c3413aa	0.010991016
63	0x3e1dcdfb	0.15410607
64	0x3dd6ba2b	0.104847275
65	0x3d96f145	0.07370237
66	0xbde9d592	-0.114176884
67	0xbdb26fe5	-0.087127484
68	0xbe1dd897	-0.15414654
69	0x3d527105	0.051377315
70	0x3c247b40	0.010039151
71	0xbce0e403	-0.027452474
72	0xbda29f32	-0.0794052
73	0x3e241832	0.16024855
74	0x3e0c32bf	0.13691233
75	0x3dde9b05	0.108694114
76	0xbc5f15d5	-0.013616045
77	0xbddd14af	-0.10794961
78	0xbddcdc11	-0.10784162
79	0x3a9a0735	0.0011751415
80	0xbe2d6787	-0.16934024
81	0xbe0260bc	-0.12732214
82	0xbc8c2be6	-0.017110776
83	0xbdb7735e	-0.089575514
84	0x3dcbe273	0.09955301
85	0xbc521489	-0.012822279
86	0xbca94bfd	-0.020666117
87	0x3d31158f	0.04323345
88	0x3dc66915	0.096880116
89	0xbdf00857	-0.11720341
90	0x3dc78bbe	0.097434506
91	0x3e229f1b	0.15881006
92	0x3e238a31	0.15970685
93	0x3dc88e35	0.09792749
94	0xbe23baae	-0.15989181
95	0x3caadc74	0.020857073
96	0x3ddeebb7	0.10884803
97	0xbd8451cf	-0.06460916
98	0x3e4e7fca	0.20165935
99	0xbd6d4e8f	-0.057936247
100	0x3e255033	0.16143875
101	0xbe4b0b26	-0.19828472
102	0x3e0d24c3	0.13783555
103	0xbdfbdafa	-0.12297626
104	0x3a9b4cde	0.001184847
105	0x3b560c44	0.003266112
106	0x3d333428	0.043750912
107	0xbe01c231	-0.12671734
108	0x3dfd84b7	0.12378829
109	0xbe9d415b	-0.30713925
110	0xbde93276	-0.11386578
111	0x3c9fc68e	0.019503858
112	0xbdc7d721	-0.097578295
113	0x3da600a6	0.081055924
114	0xbe3d3dc8	-0.18480599
115	0xbd9575c6	-0.07297854
116	0xbe27c542	-0.16383842
117	0xbe7a4fee	-0.24444553
118	0x3db82040	0.08990526
119	0xb5c10f65	-1.4384101e-06
120	0xbdacd162	-0.08438374
121	0x3e03405c	0.1281752
122	0xbd8106c5	-0.06300119
123	0x3da4aecd	0.08041153
124	0x3dbae2d2	0.09125294
125	0xbe3653a8	-0.1780535
126	0x3d67c41f	0.05658352
127	0x3da0a568	0.07844049
128	0xbd1297d9	-0.035789344
129	0xbdbee261	-0.09320522
130	0xbcccaedd	-0.024985725
131	0x3ce58e38	0.028021917
132	0xbd12c544	-0.03583266
133	0xbdc5046c	-0.09619984
134	0xbe4310e9	-0.1904942
135	0x3e261c66	0.1622177
136	0x3dc46512	0.0958959
137	0x3c861867	0.016369058
138	0x3e0c1bd9	0.13682498
139	0xbd3f7c4c	-0.046749398
140	0xbdab3d5a	-0.08361311
141	0x3e3e6f43	0.1859713
142	0x3cadddd0	0.021223933
143	0x3d0214b8	0.03175804
144	0x3e4fde46	0.20299634
145	0xbdc82eea	-0.09774573
146	0x3e6e5401	0.23274232
147	0x3dfd368d	0.1236392
148	0x3e0ff5c0	0.1405859
149	0x3dbb547d	0.09146974
150	0x3d7bbc90	0.061459124
151	0x3a0663d9	0.0005126573
152	0x3e40376b	0.1877114
153	0xbcabefee	-0.02098843
154	0xbdc5ff4b	-0.09667834
155	0xbcb0e722	-0.021594588
156	0xbc3089d4	-0.010775048
157	0x3d107e9c	0.035276994
158	0xbc6c6671	-0.014428721
159	0x3e0c10ec	0.1367833
160	0xbd1ee874	-0.038795903
161	0x3daec289	0.085331984
162	0xbe044fa6	-0.12921008
163	0x3e26efb0	0.16302371
164	0xbe68da95	-0.22739632
165	0x3e4f9b15	0.20274003
166	0x3e346359	0.17616023
167	0xbe29dddc	-0.16588539
168	0xbdcb457d	-0.09925363
169	0xbd8bcffb	-0.068267785
170	0x3c6a8372	0.014313566
171	0x3d62443e	0.055240862
172	0x3e3fe7ac	0.1874072
173	0x3e3a0cfb	0.18169014
174	0x3e88b8f8	0.2670362
175	0xbea32b24	-0.3186885
176	0xbe86d1b8	-0.26331878
177	0xbe5014d4	-0.20320445
178	0xbcdb9478	-0.026804194
179	0xbe50207c	-0.20324892
180	0xbd9d8e68	-0.076931775
181	0x3d57db70	0.052699506
182	0xbdc3a66b	-0.09553226
183	0xbe697333	-0.22797851
184	0x3e44eb9b	0.19230501
185	0xbdcb85b6	-0.09937613
186	0x3cf5c09d	0.029999072
187	0xbf39db51	-0.72600275
188	0x3d8d610a	0.06903274
189	0x3df7c59a	0.120982364
190	0x3e543239	0.20722283
191	0xbc1353db	-0.008992161
192	0xbe5aa26b	-0.2135102
193	0xbd942310	-0.0723325
194	0xbd8e1ca7	-0.06939059
195	0x3e21ce07	0.1580125
196	0xbddfa809	-0.10920722
197	0xbd20a345	-0.039218206
198	0x3e18b7ca	0.1491386
199	0xbe2ab0e2	-0.16669038
200	0xbdeab598	-0.114604175
201	0xbe24478b	-0.16042916
202	0x3d853603	0.065044425
203	0xbe196580	-0.14980125
204	0x3ba0efe1	0.0049114083
205	0x3db06dc3	0.086146854
206	0x3e2d7568	0.16939318
207	0xbec3b57d	-0.38224402
208	0xbea06bb1	-0.31332162
209	0xbe8861ba	-0.2663706
210	0xbd3a827f	-0.045534607
211	0xbdaa1111	-0.083040364
212	0xbe04b539	-0.12959756
213	0xbe04f411	-0.12983729
214	0xbdb9f05b	-0.09079047
215	0xbdf0b31b	-0.11752912
216	0x3e8fa784	0.28057492
217	0xbdf759f1	-0.12077702
218	0xbe062f1f	-0.13103913
219	0xbf179193	-0.59206504
220	0xbe5e5e8d	-0.21715756
221	0x3ccaf4cc	0.024774931
222	0x3e0c69e7	0.13712274
223	0x3cfbb8cd	0.030727768
224	0x3dee4ae3	0.11635377
225	0xbc3995cf	-0.011327221
226	0x3dcab723	0.09898212
227	0xbe10ce70	-0.1414125
228	0xbd998696	-0.07496373
229	0xbe30c8fe	-0.17264172
230	0x3db26089	0.08709819
231	0x3db4799c	0.08812258
232	0xbc034422	-0.00801185
233	0xbc69427e	-0.014237044
234	0x3d5c5724	0.05379404
235	0xbdc9eba7	-0.098594
236	0x3c4679f6	0.012114039
237	0x3cfbd7a8	0.030742481
238	0xbe10ec5c	-0.14152664
239	0xbe034459	-0.12819041
240	0x3dd970bc	0.106172055
241	0x3da81d33	0.08208694
242	0x3e17c0e4	0.14819676
243	0x3dad9a6e	0.08476721
244	0x3e2937a3	0.1652513
245	0xbd5e2e18	-0.054243177
246	0xbc869236	-0.01642714
247	0xbdb558fc	-0.08854863
248	0xbe4fa50b	-0.20277803
249	0xbd08de1d	-0.03341495
250	0xbe03afed	-0.12860079
251	0x3d04f857	0.032463398
252	0x3e2eb989	0.17062964
253	0xbe522946	-0.20523557
254	0x3d3d586a	0.046226896
255	0xbd5b45f3	-0.053533506

actor.pi_net.fcs.1.bias f4 [32]
0	0xbdf4c880	-0.11952305
1	0x3e13f67f	0.144495
2	0xbd72a882	-0.059242733
3	0x3dcbd5ab	0.09952863
4	0xbd647954	-0.05577977
5	0x3bc78a2b	0.006089469
6	0x3e505b07	0.20347224
7	0xbe0e1f50	-0.13879132
8	0xbe0814a5	-0.13289125
9	0x3e292e84	0.1652165
10	0xbc3304d5	-0.010926445
11	0x3e87dfb1	0.2653785
12	0x3e0b4ff2	0.13604715
13	0x3dc1977c	0.094527215
14	0x3deff705	0.11717037
15	0x3e427225	0.18988855
16	0x3e3716a2	0.17879727
17	0xbe404f79	-0.18780316
18	0x3db2160b	0.086956106
19	0xbd0eb135	-0.034836967
20	0x3c6ab242	0.014324727
21	0x3d97e9f2	0.074176684
22	0xbe28f717	-0.16500507
23	0x3d994ed0	0.074857354
24	0x3e031cae	0.12803909
25	0xbbb401d7	-0.0054933834
26	0x3d8ea78f	0.06965553
27	0xbdf8bcf5	-0.12145416
28	0x3e124532	0.14284208
29	0x3ce71c3e	0.02821171
30	0xbd42fb60	-0.04760301
31	0xbe0d481d	-0.1379704

actor.pi_net.fcs.2.weight f4 [1, 32]
0	0x3cd2d970	0.025738448
1	0x3e932253	0.28737125
2	0xbd4100c1	-0.04711986
3	0xbe799ee7	-0.24377023
4	0xbd8b82d3	-0.06812062
5	0x3e5086a5	0.20363863
6	0x3e9a9b83	0.3019677
7	0xbde4504c	-0.11148128
8	0xbd1846e9	-0.037177
9	0x3d981249	0.074253626
10	0x3e38a80d	0.18032856
11	0x3eabecfa	0.33579236
12	0x3e71d50d	0.23616429
13	0xbe030ef4	-0.12798673
14	0xbde75d1a	-0.112970546
15	0xbe816d7e	-0.25278848
16	0x3ec2366c	0.37932146
17	0xbe0a3ddb	-0.13500158
18	0x3e633b18	0.22190511
19	0x3e09097f	0.13382529
20	0x3e7747d0	0.24148488
21	0xbe6671ae	-0.22504303
22	0xbe35e231	-0.17762066
23	0xbe192738	-0.14956367
24	0xbe1a82b0	-0.15088916
25	0xbe9e8f06	-0.30968493
26	0x3ea5a1c4	0.3234998
27	0x3e0bbe6a	0.13646856
28	0x3ce881a2	0.028382126
29	0xbe76cc83	-0.24101453
30	0xbea15846	-0.3151266
31	0xbdf2bd88	-0.118525565

critic.v_net.fcs.0.weight f4 [32, 4]
0	0xbf934146	-1.1504295
1	0xbfdb5152	-1.7134192
2	0x3f101d81	0.5629502
3	0x3fa03085	1.2514807
4	0x3f5e1629	0.86752564
5	0x3f3dc006	0.7412113
6	0x3e83d256	0.2574641
7	0x3f1e4b58	0.61833715
8	0xbe0bc42a	-0.1364905
9	0xbee208f5	-0.4414746
10	0x4000be5e	2.011619
11	0x406a1699	3.6576293
12	0x3cf8575a	0.03031509
13	0xc01d954b	-2.4622371
14	0x3de541a9	0.11194164
15	0x403d28fc	2.9556265
16	0x3ebed34a	0.37270576
17	0xbf629da5	-0.88521796
18	0xbe17e2c9	-0.14832605
19	0xbeb76d9d	-0.35825816
20	0x3e4e59e3	0.20151477
21	0xbf334e5d	-0.7004145
22	0xc0476887	-3.1157548
23	0xbfa3d705	-1.2799994
24	0x3e8292da	0.25502664
25	0xbf35b24b	-0.7097518
26	0x3ed7954f	0.421061
27	0xbe088f44	-0.13335901
28	0xbcc28972	-0.02374718
29	0xbfb572c6	-1.4175651
30	0xc066061b	-3.5941226
31	0xbef7b963	-0.48383626
32	0x3cff6b31	0.031179043
33	0xbf89bf1a	-1.0761445
34	0xc054b41e	-3.3234935
35	0xbf4f5da6	-0.8100227
36	0x3e3d294f	0.18472789
37	0x3e7db762	0.24776986
38	0xbeb45c6b	-0.3522676
39	0xbd100811	-0.035163943
40	0x3cb98f0c	0.022651218
41	0xbf39a54d	-0.72517854
42	0xc069baf6	-3.6520362
43	0xbf9b7e05	-1.2147833
44	0x3e7d76cb	0.24752347
45	0xc007a1d5	-2.1192524
46	0x3f989f4c	1.1923614
47	0x40708732	3.7582517
48	0x3d19a29a	0.037508585
49	0x3f30faf9	0.69132954
50	0xbf066d1c	-0.5251024
51	0xbd9b419d	-0.07580874
52	0x3e02e183	0.12781338
53	0xbec605db	-0.38676342
54	0x3e70c0e9	0.2351109
55	0xbf028e72	-0.50998604
56	0xbe8b8b31	-0.27254632
57	0x3f81b9bb	1.0134805
58	0x40185f19	2.3808043
59	0x3f8e997e	1.1140592
60	0x3e92440c	0.2856754
61	0x3f3f72b0	0.74784374
62	0x401d0a11	2.4537394
63	0x3f83eb71	1.0306226
64	0x3da77dbb	0.08178278
65	0xbf274207	-0.65335125
66	0x3ebbced4	0.36681235
67	0xbd61d02b	-0.055130165
68	0x3f2fba93	0.68644065
69	0x3e0d3424	0.13789421
70	0xbea9616d	-0.33082142
71	0x3d012fe5	0.031539816
72	0x3ef0088d	0.46881524
73	0xbf32d84a	-0.6986128
74	0x3e0d2777	0.13784586
75	0xbed731e7	-0.4203026
76	0x3e17ceee	0.14825031
77	0xbeb4a3db	-0.35281262
78	0x3f7d3a0b	0.9891669
79	0x3ebe1d7d	0.37131873
80	0x3c2d98c0	0.0105955005
81	0xbfa9ebbf	-1.3275069
82	0xc064829b	-3.5704715
83	0xbf4403ae	-0.76568115
84	0x3f009880	0.50232697
85	0xbce9ede8	-0.028555825
86	0x3e6de0aa	0.23230234
87	0x3ed77bb6	0.4208657
88	0xbd588a18	-0.05286607
89	0xbd5afed8	-0.053465694
90	0x3ecfb7db	0.40569958
91	0xbed92dfb	-0.42417893
92	0x3f036982	0.5133287
93	0xbede7798	-0.43450618
94	0x3ee2188a	0.44159347
95	0xbded1794	-0.11576763
96	0xbe83020d	-0.25587502
97	0xbee20927	-0.44147608
98	0x3f815695	1.0104548
99	0x3ef2a599	0.47391966
100	0x3d28ed98	0.041242212
101	0xbe40568d	-0.18783017
102	0xbba05c4a	-0.004893814
103	0xbec6036e	-0.38674492
104	0x3f3e9f49	0.744618
105	0x3fa2159d	1.2662846
106	0x403f8c47	2.9929368
107	0x3fbb47ca	1.4631283
108	0x3a8cb748	0.0010735774
109	0x3ea09c39	0.31369188
110	0xbf4f0e56	-0.8088125
111	0x3db2bc46	0.087273166
112	0xbecfb93f	-0.4057102
113	0x3fae9db5	1.3641878
114	0x4012d054	2.2939653
115	0x3f97a36b	1.1846746
116	0x3f1705fe	0.5899352
117	0xbf9ca219	-1.2236968
118	0xc07db946	-3.9644332
119	0xbf9a8720	-1.2072487
120	0x3ed213b0	0.41030645
121	0xbf0a7e3f	-0.54098886
122	0xbddc9336	-0.10770266
123	0xbe87534b	-0.26430735
124	0x3cdc8af4	0.026921727
125	0xbf31076b	-0.69151944
126	0x3e8dbadb	0.27681622
127	0xbe1cebff	-0.153244

critic.v_net.fcs.0.bias f4 [32]
0	0xbe600b91	-0.21879412
1	0xbf01f483	-0.5076372
2	0x3e8d0214	0.27540648
3	0x3dcabfe2	0.0989988
4	0x3f39fc92	0.72651017
5	0x3e387422	0.18013051
6	0x3ee8e1fb	0.4548491
7	0x3e37f9c6	0.17966375
8	0x3e0aec39	0.13566674
9	0xbf602ac7	-0.87565273
10	0x3e5212b2	0.20514944
11	0x3e1c589f	0.15268181
12	0xbf6c9ecd	-0.9242981
13	0x3f40de7e	0.75339496
14	0xbe65f7c2	-0.22457793
15	0xbe62b059	-0.22137584
16	0x3f66c845	0.9014934
17	0xbf62d882	-0.88611615
18	0x3f4863b1	0.78277117
19	0x3f3efe6d	0.7460697
20	0x3e07c926	0.13260326
21	0x3f34182b	0.7034938
22	0x3eedfa67	0.46480104
23	0x3f039d5a	0.51411974
24	0x3f45649a	0.7710663
25	0x3f1805de	0.5938395
26	0xbe969cfa	-0.2941664
27	0xbf2e8228	-0.6816735
28	0xbdf6cf0b	-0.12051209
29	0x3e721764	0.23641735
30	0x3f0c1118	0.54713583
31	0x3f790ba1	0.9728337

critic.v_net.fcs.1.weight f4 [32, 32]
0	0x3e8608fd	0.26178733
1	0xbc39dee8	-0.011344649
2	0x3f0a58cb	0.5404174
3	0x3ed402c0	0.41408348
4	0x3f18e1b5	0.597194
5	0xc03930bf	-2.8936002
6	0x3e4c09be	0.19925591
7	0xc072c39c	-3.793189
8	0xc046b9da	-3.1050935
9	0xbe12e237	-0.14344107
10	0xc06c9e7d	-3.6971734
11	0x3e1401ce	0.14453813
12	0xbe9bf5e0	-0.30461025
13	0x3e87133a	0.26381856
14	0x3ebcf60a	0.36906463
15	0xbd8cdb67	-0.06877785
16	0x3e0cf7d9	0.13766421
17	0xbd450579	-0.048100922
18	0x3ed6a2a8	0.41920972
19	0x3d2384ae	0.039921455
20	0xc0483377	-3.1281412
21	0xbdb89fbe	-0.090148434
22	0x3ec023a0	0.3752718
23	0xbd11c53a	-0.03558848
24	0x3d97620f	0.0739175
25	0x3f00f9b1	0.50381
26	0xbdd88d2c	-0.105738014
27	0xbdf2e735	-0.118605055
28	0x3d711d4f	0.05886584
29	0xc0637733	-3.5541503
30	0x3e70193a	0.23447123
31	0x3e2c7107	0.16839992
32	0xbf1abcfe	-0.6044463
33	0xbe919c77	-0.28439686
34	0xbee1dfff	-0.44116208
35	0xbeebd076	-0.4605748
36	0x3e1cbb9b	0.15305941
37	0xbe9e1e27	-0.3088238
38	0xb7ab603c	-2.0429601e-05
39	0x3d651c61	0.055935267
40	0xbc8f0b44	-0.017461427
41	0x3d7bc181	0.061463837
42	0x3e88ee81	0.26744464
43	0xbf4f8f15	-0.810777
44	0xbe37bc68	-0.17942965
45	0x3dd00efb	0.10159107
46	0xbec18cf2	-0.37802845
47	0xbee1a570	-0.4407153
48	0x3e47109a	0.19439927
49	0xbe8b01fc	-0.2714995
50	0xbd5aaba5	-0.05338635
51	0x3c1e2797	0.009652994
52	0x3e7568e3	0.23965792
53	0x3db8866c	0.09010014
54	0x3e70cdea	0.2351605
55	0x3d3a4e77	0.045484986
56	0xbd402bc2	-0.04691673
57	0x3e072916	0.13199267
58	0xbedec07e	-0.43506235
59	0xbd150529	-0.036381874
60	0xbe0e6b09	-0.13908018
61	0x3e4d8a02	0.20072177
62	0x3e10dda7	0.14147054
63	0x3ca96d10	0.020681888
64	0xbfa4ec7c	-1.2884669
65	0xbec8fdbb	-0.3925608
66	0xc0192a95	-2.393224
67	0xbff513cd	-1.9146668
68	0x3f346335	0.7046388
69	0xbf1f46cc	-0.622174
70	0x3ef3bc70	0.47604704
71	0xbf4e2925	-0.8053153
72	0xbf16f606	-0.5896915
73	0xbefcc509	-0.49369076
74	0xbf64a3d0	-0.8931246
75	0xc02392fb	-2.555846
76	0xbf01370d	-0.50474626
77	0x3f1cfefe	0.6132659
78	0xbf993759	-1.1970016
79	0xbf9fc266	-1.2481201
80	0x3f2fe7a8	0.68712854
81	0xbeea20a7	-0.45728037
82	0x3f38e45f	0.72223467
83	0x3ed0916d	0.4073595
84	0xbf5ce197	-0.8628172
85	0x3eaf0b31	0.34188226
86	0x3eba7f4d	0.36425248
87	0x3f0214d0	0.5081301
88	0x3f28b707	0.6590428
89	0x3f2e0b91	0.679864
90	0xbfa3a498	-1.2784605
91	0xbed3e285	-0.41383758
92	0xbf9ebd2d	-1.2401482
93	0xbf8b3e39	-1.0878364
94	0x3f1a95a3	0.6038458
95	0x3f2e1a3a	0.6800877
96	0xbcdf111c	-0.027229838
97	0x3e91895d	0.28425112
98	0xbd597cd1	-0.05309755
99	0xbd7f94e8	-0.062397867
100	0xbf09342f	-0.5359525
101	0x3d2578fa	0.040398575
102	0xbe642d41	-0.22282888
103	0x3d9cbff2	0.07653798
104	0x3db10c20	0.08644891
105	0x3ecb7ccd	0.39743653
106	0x3db196fe	0.086713776
107	0x3dc69d77	0.09698003
108	0x3e0d18a2	0.13778928
109	0xbf28c5ee	-0.65927017
110	0xbe50af10	-0.20379281
111	0x3d0712a5	0.032976765
112	0xbe63b5d6	-0.22237334
113	0x3dbc36c6	0.09190135
114	0xbf194314	-0.5986798
115	0xbf285fe3	-0.6577131
116	0x3e3f5861	0.18686058
117	0xbedc3ed6	-0.4301669
118	0xbf058665	-0.52158195
119	0xbec5f872	-0.3866611
120	0xbec04d9e	-0.37559217
121	0xbf2ff784	-0.68737054
122	0xbdc91ba9	-0.09819729
123	0x3e97ea2d	0.2967085
124	0xbe493a4f	-0.19651149
125	0x3e01993f	0.12656115
126	0xbeecc468	-0.46243596
127	0xbeeb2474	-0.4592625
128	0xbe1658c9	-0.14682306
129	0xbe7e45e6	-0.24831352
130	0x3e5f2895	0.21792825
131	0xbe470e16	-0.19438967
132	0xbe2f555d	-0.17122407
133	0xbe5ae4e4	-0.21376377
134	0x3e21c439	0.15797509
135	0xbc8c34f1	-0.017115088
136	0x3d541e40	0.05178666
137	0x3e023379	0.12714948
138	0xbd2d3883	-0.042290222
139	0x3d818147	0.06323486
140	0x3d1337ef	0.035942014
141	0xbe78292d	-0.24234457
142	0xbc6229a9	-0.013803878
143	0xbd454770	-0.04816383
144	0x3c965a6f	0.018353669
145	0xbc0787de	-0.008272139
146	0xbd56cfca	-0.052444257
147	0xbe894824	-0.2681285
148	0xbd371903	-0.044701587
149	0xbdda3837	-0.106552534
150	0xbe71a39f	-0.23597573
151	0xbd52a65c	-0.051428184
152	0xbda94157	-0.08264416
153	0xbec1ba29	-0.3783734
154	0xbe8321bd	-0.25611678
155	0x3e3d2988	0.18472874
156	0x3cf48fe8	0.029853776
157	0xbca17810	-0.01971057
158	0xbde3b2c7	-0.111180834
159	0xbc7d4b18	-0.015459798
160	0x3d45ced8	0.048292965
161	0xbded47f0	-0.115859866
162	0x3dce6138	0.10077137
163	0x3d91b368	0.07114297
164	0x3e5cd1b4	0.2156437
165	0xbdad4554	-0.08460489
166	0xbd98833f	-0.07446908
167	0x3e5d04ae	0.21583816
168	0xbd6f838c	-0.058475062
169	0x3c22aa3b	0.009928281
170	0xbd8d60b2	-0.06903209
171	0x3e975546	0.29557246
172	0x3df207da	0.11817904
173	0x3e738b0d	0.23783512
174	0x3dd1f5ab	0.102519356
175	0x3c195724	0.009359155
176	0xbda65b33	-0.081228636
177	0xbe8ebea7	-0.2787983
178	0xbdf3c2a1	-0.11902357
179	0x3d77fc00	0.06054306
180	0x3e53c8d4	0.20682079
181	0x3ba8fb1d	0.005156888
182	0x3e779aad	0.24180098
183	0xbda2ee8c	-0.079556555
184	0x3e15f45d	0.14643998
185	0xbcb393a8	-0.021920994
186	0x3cacfabd	0.021115655
187	0x3d19d1c3	0.03755356
188	0x3d7628b1	0.0600974
189	0xbd919303	-0.071081184
190	0x3c9fc6e8	0.019504026
191	0x3e0e5108	0.13898098
192	0x3d672f85	0.056441803
193	0xbea0188d	-0.3126873
194	0x3e1672b8	0.14692199
195	0x3e1f0c81	0.15532114
196	0x3ea37706	0.31926745
197	0xc061a897	-3.525915
198	0x3d8c3f6e	0.06848036
199	0xc096197e	-4.690612
200	0xc07efd63	-3.9842155
201	0xbe590e33	-0.21196823
202	0xc088a265	-4.2698236
203	0x3e1155f7	0.14192949
204	0x3c1cce84	0.009570722
205	0x3f07eb69	0.5309358
206	0xbe04f66d	-0.12984629
207	0x3c80cc6c	0.015722476
208	0x3e822763	0.25420675
209	0xbddf95c3	-0.10917237
210	0x3ea4930d	0.3214344
211	0x3ea2a457	0.31766006
212	0xc0715aa4	-3.7711573
213	0x3e522516	0.2052196
214	0x3f3c352b	0.7351863
215	0x3ed6338d	0.41836205
216	0x3e3fd05b	0.18731825
217	0x3f41ee74	0.75754476
218	0xbe3faef4	-0.18719083
219	0xbda6d53a	-0.081461385
220	0xbe67a908	-0.22623074
221	0xc08a1b5b	-4.3158393
222	0x3ef2e149	0.47437504
223	0xbc406811	-0.011743561
224	0xbe8c0c1c	-0.2735299
225	0x3d6b16be	0.057394736
226	0x3e4a87c8	0.19778359
227	0xbd0e6bc8	-0.034770757
228	0xbefc2b04	-0.49251568
229	0xbd7fd9a5	-0.06246342
230	0xbdb9f459	-0.09079809
231	0x3da7c906	0.08192639
232	0xbcf081bd	-0.029358739
233	0x3e9a47e1	0.30132964
234	0x3e2523b7	0.16126905
235	0xbe37acfe	-0.17937085
236	0x3eaff7dd	0.34368792
237	0xbec69a91	-0.387898
238	0xbeb1da89	-0.34737042
239	0xbe2fb4c9	-0.17158808
240	0xbedb80de	-0.42871755
241	0x3d486eb9	0.04893372
242	0xbeecfdfa	-0.4628752
243	0xbf2eb4dc	-0.6824472
244	0xbcba960c	-0.022776626
245	0xbf26367d	-0.6492689
246	0xbeed4fb3	-0.46349868
247	0xbebd76d1	-0.37004712
248	0xbf656f9e	-0.8962344
249	0xbe9059c0	-0.28193474
250	0xbe9ed799	-0.31023863
251	0x3df15c13	0.1178514
252	0xbec9e61d	-0.39433375
253	0x3e31a446	0.17347822
254	0xbe9b7f35	-0.3037049
255	0xbed12421	-0.40847877

critic.v_net.fcs.1.bias f4 [32]
0	0x3e7da09d	0.247683
1	0x3ded019e	0.11572574
2	0x3f1f8fd4	0.6232884
3	0xbf090e3e	-0.53537357
4	0xbe355ed7	-0.1771196
5	0x3d9332e2	0.071874395
6	0x3e6b47cf	0.22976612
7	0xbebdb69e	-0.37053388
8	0x3c6c904d	0.014438701
9	0xbf02f11d	-0.5114916
10	0x3e890832	0.26764065
11	0x3ee6d3ef	0.45083568
12	0xbe0214e5	-0.12703283
13	0xbef3052a	-0.47464877
14	0x3f20628b	0.62650365
15	0x3ca75a12	0.020428691
16	0x3f27fa24	0.6561606
17	0x3e9efcad	0.3105215
18	0x3f437dae	0.76363647
19	0x3d89349e	0.06699489
20	0x3e60b100	0.2194252
21	0x3f68c892	0.90931046
22	0xbf1b2832	-0.6060821
23	0x3d544135	0.05182
24	0x3df10b74	0.11769763
25	0x3e57cd77	0.21074472
26	0xbf0b2ba6	-0.5436348
27	0xbe3290a1	-0.17437984
28	0xbf0e7998	-0.5565429
29	0xbda4b5a6	-0.08042459
30	0x3e4d5c0b	0.20054643
31	0x3f424caf	0.7589826

critic.v_net.fcs.2.weight f4 [1, 32]
0	0x3f05b913	0.52235526
1	0x3b5cf456	0.0033714972
2	0x3f5b448c	0.8565147
3	0xbe51d62e	-0.2049186
4	0xbe4e9ef4	-0.20177823
5	0xbc9f8f8c	-0.019477628
6	0x3faab750	1.3337193
7	0xbe858103	-0.2607499
8	0xbc103225	-0.008801018
9	0xbecd0b1e	-0.40047544
10	0x3f8d8c32	1.1058409
11	0x3f30abd8	0.6901221
12	0x3bdd84e7	0.006760228
13	0xbedd1abf	-0.43184468
14	0x3f868cd1	1.0511724
15	0x3d3a16bc	0.045431837
16	0x3f54737d	0.8298872
17	0x3f3bd4a0	0.73371315
18	0x3f42c446	0.7608074
19	0xbe751f74	-0.2393778
20	0x3e984e33	0.2974716
21	0x3f602235	0.87552196
22	0xbebfbbff	-0.37448117
23	0xbb390512	-0.0028231782
24	0xbe0296d2	-0.12752846
25	0x3e866a55	0.26253
26	0xbea77a5c	-0.3271054
27	0x3cd16a54	0.025563397
28	0xbeb3fbb8	-0.35152984
29	0xbe669586	-0.22517976
30	0x3ea9aa67	0.3313782
31	0x3f5f13c3	0.8713953

exp_avg f4 [32, 4]
0	0xb7a6f8ec	-1.9904655e-05
1	0xb7798a77	-1.4873795e-05
2	0x36bdcfe5	5.656841e-06
3	0x3783eec6	1.5727604e-05
4	0x39c3f26e	0.00037373923
5	0x3a03e25d	0.0005030984
6	0x3a4b21ae	0.0007748854
7	0x3b2adab4	0.0026070299
8	0xbb0966e5	-0.002096587
9	0xbab148f5	-0.0013525771
10	0x39cbce94	0.0003887309
11	0x3a5b9157	0.00083758443
12	0x3b295de9	0.0025843328
13	0x3aa4b7ca	0.001256698
14	0xba9e4eb5	-0.00120779
15	0xbb548094	-0.0032425271
16	0xb82c6220	-4.109938e-05
17	0xb802dd50	-3.120053e-05
18	0x374fcbfa	1.23856535e-05
19	0x3815797e	3.5637517e-05
20	0x3b565680	0.0032705367
21	0x3a981ba6	0.001160492
22	0xbaebf36e	-0.0018001625
23	0xbb9ab777	-0.0047215777
24	0xbb08ba25	-0.0020862904
25	0xbaa2747d	-0.0012394335
26	0xb92ed6a3	-0.00016673892
27	0xba9b231a	-0.0011836023
28	0xb7999010	-1.8306106e-05
29	0xb77cc413	-1.5066023e-05
30	0x373d207c	1.1272841e-05
31	0x381834a6	3.6288657e-05
32	0xbb83aa8a	-0.0040181326
33	0xbb2afe59	-0.0026091544
34	0x39fd7a3c	0.00048346992
35	0x3a2f5876	0.0006688902
36	0xbad5fe35	-0.001632637
37	0xb9fd4bdd	-0.00048312443
38	0x3a1c309e	0.0005958172
39	0x3b2921cc	0.0025807498
40	0x3a135f3f	0.0005621798
41	0x3a084d05	0.0005199465
42	0x3a6785d3	0.0008831892
43	0x3b485108	0.0030565877
44	0x37ed8518	2.8314578e-05
45	0x38831353	6.250166e-05
46	0x3800beed	3.069539e-05
47	0x388a87c6	6.6056426e-05
48	0xba5bb421	-0.00083810283
49	0xb9dec958	-0.00042493152
50	0xb9890339	-0.00026133077
51	0xba9c3647	-0.0011918031
52	0x3b38c329	0.0028192496
53	0x3ae6101d	0.001755241
54	0xba8fe2d0	-0.001097763
55	0xbb45dc33	-0.0030191063
56	0x3b813c75	0.0039439746
57	0x3b200a32	0.002442014
58	0xbad5814d	-0.0016289145
59	0xbb97433d	-0.0046161697
60	0xbb6aa4e7	-0.0035803856
61	0xbb48289e	-0.0030541788
62	0x3aacf493	0.0013195447
63	0x3b2bad5f	0.0026195867
64	0xb6c9f1fc	-6.0184375e-06
65	0xb6cc18a9	-6.0825446e-06
66	0x37269c8e	9.930822e-06
67	0x380f0410	3.409764e-05
68	0xb6917aaa	-4.3356167e-06
69	0xb648321d	-2.9831492e-06
70	0x37379a70	1.0943608e-05
71	0x381360ab	3.513756e-05
72	0xb770a8cf	-1.4344419e-05
73	0xb73e9ded	-1.13616525e-05
74	0x37032cb9	7.818621e-06
75	0x37cb148b	2.4209052e-05
76	0x39edc554	0.00045351184
77	0x3a3815d8	0.0007022298
78	0x3a83ac00	0.0010045767
79	0x3b59476e	0.0033154148
80	0x36b4af66	5.384837e-06
81	0x361fc163	2.3805412e-06
82	0x36506e1d	3.105851e-06
83	0x375915f5	1.293932e-05
84	0x3a306bfa	0.0006729957
85	0x3acacbac	0.0015472076
86	0x3ad7bb94	0.0016459101
87	0x3ba81dbc	0.0051304977
88	0x38f08e0e	0.000114705515
89	0x394f27af	0.00019755842
90	0xb944cfb5	-0.00018769394
91	0xba30ba6b	-0.00067416456
92	0xb7ad5b0a	-2.06656e-05
93	0xb797d57d	-1.8100016e-05
94	0x361b1363	2.3108084e-06
95	0x36b331c0	5.3404074e-06
96	0x3b36a2c8	0.0027868021
97	0x3ac68153	0.0015144743
98	0xbaa2e60b	-0.0012428177
99	0xbb5d183a	-0.0033736364
100	0xbb101346	-0.0021984144
101	0xbab22d1d	-0.0013593767
102	0x39ac654a	0.00032881863
103	0x3a114ee2	0.00055430655
104	0xbb3be538	-0.002867056
105	0xbaed2072	-0.0018091334
106	0x39804d6f	0.00024471755
107	0x38bf07f9	9.109075e-05
108	0xbbfbfc0e	-0.0076899594
109	0xbbbeeb61	-0.005826399
110	0x3b20b70f	0.0024523174
111	0x3bc597e0	0.006030068
112	0xb763f403	-1.3587068e-05
113	0xb72fd0aa	-1.0479396e-05
114	0x3685086c	3.9646893e-06
115	0x373d9089	1.129893e-05
116	0x3b5e387f	0.0033908186
117	0x3b343db7	0.0027502605
118	0xba962a98	-0.0011456786
119	0xbb60105e	-0.0034189443
120	0xba0d5577	-0.00053914584
121	0xb95b39db	-0.0002090702
122	0xba0eb54b	-0.0005443885
123	0xbb0b20cd	-0.0021229268
124	0x3a9f6163	0.0012159761
125	0x3a676eed	0.000882848
126	0xb9e8ae34	-0.0004438028
127	0xbaa7c394	-0.0012799376

exp_avg_sq f4 [32, 4]
0	0x35a6733a	1.2401499e-06
1	0x35fb62e3	1.8729737e-06
2	0x35d2f145	1.5716438e-06
3	0x37907d3d	1.7224456e-05
4	0x332d10ff	4.029516e-08
5	0x34c6970c	3.6990275e-07
6	0x3532eff4	6.6659345e-07
7	0x36e54418	6.832659e-06
8	0x3634e530	2.6955495e-06
9	0x36aa1018	5.0682684e-06
10	0x35510217	7.786161e-07
11	0x36a6f8be	4.976143e-06
12	0x36d1d417	6.253376e-06
13	0x3738513c	1.09861685e-05
14	0x3687c4e3	4.046234e-06
15	0x381eb430	3.783795e-05
16	0x368857e1	4.0633463e-06
17	0x36a5d145	4.9417454e-06
18	0x36b16f0a	5.2879377e-06
19	0x38758040	5.8531994e-05
20	0x37000eb4	7.632818e-06
21	0x3761424b	1.342648e-05
22	0x36815248	3.8540784e-06
23	0x38068b30	3.2077718e-05
24	0x35a71175	1.244755e-06
25	0x3641dc70	2.8887553e-06
26	0x3608eacd	2.0402251e-06
27	0x37a72506	1.9925192e-05
28	0x362c3cdb	2.566542e-06
29	0x367d06d5	3.7703915e-06
30	0x366d65f2	3.5375092e-06
31	0x3823c6ef	3.90475e-05
32	0x371d2530	9.366588e-06
33	0x37a50018	1.9669576e-05
34	0x369ca87d	4.668777e-06
35	0x381d94bb	3.7570233e-05
36	0x35f1c4e6	1.8013204e-06
37	0x35e623e3	1.714678e-06
38	0x35133d4d	5.485097e-07
39	0x36c13fe9	5.7592883e-06
40	0x33a0c905	7.487146e-08
41	0x35296785	6.3108047e-07
42	0x35901e7f	1.0737712e-06
43	0x3735c966	1.0835332e-05
44	0x3401a86a	1.207533e-07
45	0x34282f60	1.5663454e-07
46	0x3457174f	2.0031915e-07
47	0x361384d0	2.1982014e-06
48	0x34618598	2.1003359e-07
49	0x350d38a5	5.260902e-07
50	0x35696de0	8.6959153e-07
51	0x3717e9af	9.05471e-06
52	0x36c2fabe	5.810841e-06
53	0x3724dea5	9.827e-06
54	0x36262466	2.4757114e-06
55	0x37adf7c2	2.0738578e-05
56	0x377250be	1.4443123e-05
57	0x37db5c7b	2.6149899e-05
58	0x36860f42	3.9952874e-06
59	0x37dc3137	2.6248961e-05
60	0x36f572fc	7.314955e-06
61	0x3763e32a	1.3583145e-05
62	0x35b3909f	1.337863e-06
63	0x373a94eb	1.1121137e-05
64	0x35c6f014	1.4822022e-06
65	0x35dc6290	1.6419963e-06
66	0x35d9150c	1.6173885e-06
67	0x379651c2	1.7919465e-05
68	0x355db509	8.2592356e-07
69	0x3587119d	1.006341e-06
70	0x3594f66b	1.1098576e-06
71	0x374f64ce	1.2361632e-05
72	0x3614c901	2.2170718e-06
73	0x3648cd9a	2.9921998e-06
74	0x3668ce28	3.4690693e-06
75	0x3820c861	3.833359e-05
76	0x33a15dae	7.514187e-08
77	0x35248bfa	6.1298454e-07
78	0x35ae10d9	1.2968914e-06
79	0x37625dc3	1.349248e-05
80	0x32c39a8d	2.277127e-08
81	0x33034355	3.0562052e-08
82	0x340f3366	1.3336611e-07
83	0x35d39be1	1.5766092e-06
84	0x3407e539	1.2656245e-07
85	0x3598a172	1.1371869e-06
86	0x360964da	2.0473294e-06
87	0x37ae9c8b	2.0815312e-05
88	0x34a8eba5	3.1463892e-07
89	0x353cfdd4	7.0404826e-07
90	0x354cf2de	7.634934e-07
91	0x3712d0c0	8.7508815e-06
92	0x30bda5ea	1.3798716e-09
93	0x3215ecdb	8.726796e-09
94	0x3304c2ac	3.0910698e-08
95	0x34b0619d	3.2853578e-07
96	0x36dbd0ee	6.551031e-06
97	0x3746ee3f	1.1857191e-05
98	0x362e015b	2.592881e-06
99	0x37ae24aa	2.075949e-05
100	0x3627a136	2.4978776e-06
101	0x36983731	4.536378e-06
102	0x3568d7ea	8.674093e-07
103	0x36cec1e0	6.1618484e-06
104	0x362e698b	2.5989455e-06
105	0x368b45ad	4.150634e-06
106	0x3600def8	1.9203271e-06
107	0x37861220	1.5982485e-05
108	0x3822ca63	3.8812297e-05
109	0x388e3875	6.7816036e-05
110	0x36d13a35	6.2354616e-06
111	0x3802f5cd	3.1223335e-05
112	0x3006c675	4.903094e-10
113	0x308dac95	1.0308151e-09
114	0x30a65113	1.2101132e-09
115	0x325b87ed	1.2778384e-08
116	0x37446251	1.1705401e-05
117	0x37b270f7	2.1271857e-05
118	0x36a0c610	4.791429e-06
119	0x38258256	3.946045e-05
120	0x3509c8a2	5.1328436e-07
121	0x359249cd	1.0899327e-06
122	0x36013a93	1.9256593e-06
123	0x37ad7b55	2.0680638e-05
124	0x35b30207	1.3337129e-06
125	0x362182a5	2.4066915e-06
126	0x3502722e	4.859493e-07
127	0x368a83fa	4.1280846e-06

exp_avg f4 [32]
0	0xb87c21fc	-6.0113132e-05
1	0x39315b1a	0.00016913973
2	0xbbcba3e0	-0.006214604
3	0x3c19e831	0.009393738
4	0xb8ffff55	-0.00012206907
5	0x3c560729	0.013063231
6	0xbbce9ff7	-0.0063056904
7	0xb86d04b8	-5.6509598e-05
8	0xbc43e9e3	-0.011957618
9	0xbc317ce7	-0.010833002
10	0x3a239794	0.00062405434
11	0xba2632c1	-0.00063399604
12	0xbb1b54a1	-0.0023701566
13	0x3c1d24a2	0.0095912535
14	0x3c66dee9	0.014091232
15	0x3c055c2a	0.008139649
16	0xb79ee518	-1.8941748e-05
17	0xb7f5496a	-2.9240462e-05
18	0xb8403fef	-4.583591e-05
19	0xb87c3775	-6.013313e-05
20	0x3796682b	1.79299e-05
21	0xba9dc13d	-0.0012035739
22	0x39b4df4e	0.0003449865
23	0xb877d112	-5.90841e-05
24	0x3c1f4daa	0.009723106
25	0xbbd7c284	-0.0065844674
26	0xbc0c557d	-0.008565304
27	0xbc2b046b	-0.010438065
28	0xb8298156	-4.0413193e-05
29	0x3c1cc0c4	0.009567443
30	0xbac2b1c7	-0.0014854007
31	0x3b776220	0.0037747696

exp_avg_sq f4 [32]
0	0x3698110f	4.531939e-06
1	0x359706f3	1.1252399e-06
2	0x39f656f1	0.00046985553
3	0x3a64bca3	0.0008725619
4	0x3730905b	1.0524028e-05
5	0x3a9c3f76	0.0011920768
6	0x394bf4c3	0.0001945077
7	0x37102561	8.591772e-06
8	0x3ae34796	0.001734006
9	0x37b305e4	2.1341206e-05
10	0x3604b6b0	1.977587e-06
11	0x37281a74	1.0019739e-05
12	0x3765bd67	1.3693562e-05
13	0x3a59ffdd	0.00083160197
14	0x3b1df392	0.0024101478
15	0x3a384608	0.00070294784
16	0x366de025	3.5446221e-06
17	0x35d8e01c	1.6158479e-06
18	0x36d0d06a	6.2231456e-06
19	0x3604dacb	1.9796887e-06
20	0x33fd828c	1.1804977e-07
21	0x3621f9e0	2.4136316e-06
22	0x3890226f	6.872869e-05
23	0x33febc1b	1.1862013e-07
24	0x3a81f7e3	0.0009915795
25	0x39d11118	0.00039876322
26	0x3a249926	0.00062789244
27	0x3bd196d4	0.006396154
28	0x3354a3a0	4.9508913e-08
29	0x3aec29e3	0.0018017854
30	0x380b07d3	3.314747e-05
31	0x3965e3c0	0.00021923985

exp_avg f4 [32, 32]
0	0xb5bd0c7c	-1.4085231e-06
1	0xb92e8f26	-0.0001664726
2	0x395f0488	0.00021268625
3	0x387a3c15	5.96606e-05
4	0xb5c4a5fe	-1.4651448e-06
5	0x38a7cd80	8.001458e-05
6	0x39bd3f63	0.00036096116
7	0xb52904cc	-6.2964386e-07
8	0x39a2d006	0.00031054037
9	0x3828777f	4.016561e-05
10	0xb9162b30	-0.00014321203
11	0x35c416ba	1.4609752e-06
12	0x39afef7b	0.00033557028
13	0x381c5026	3.7267942e-05
14	0xb825b22f	-3.9505012e-05
15	0x38999af3	7.32447e-05
16	0xb4b56300	-3.378591e-07
17	0xb5d12129	-1.5581364e-06
18	0xb5c9fde4	-1.5049559e-06
19	0xb8d63c23	-0.000102155165
20	0xb68c1997	-4.175304e-06
21	0xb918e3f0	-0.00014580763
22	0x3931e197	0.00016964074
23	0xb62abdeb	-2.544252e-06
24	0x35041b62	4.921368e-07
25	0x38c8e043	9.578515e-05
26	0xb6f91854	-7.4236104e-06
27	0xb7daa7d4	-2.6065776e-05
28	0xb65496ce	-3.1678242e-06
29	0xb84b98e2	-4.8541355e-05
30	0x39fc8d8f	0.00048170655
31	0x39410da4	0.00018410996
32	0xb79862e8	-1.8165869e-05
33	0xb7f098e1	-2.868142e-05
34	0x3b145979	0.0022636338
35	0xb8492e96	-4.796552e-05
36	0xb7b29250	-2.1287386e-05
37	0xb99fc1e6	-0.0003047131
38	0x3b1fd448	0.0024388004
39	0xb702acb6	-7.788816e-06
40	0x3b49d969	0.0030799753
41	0x3928d228	0.00016100018
42	0xb7e25cbb	-2.698448e-05
43	0x3796977b	1.7951932e-05
44	0x3b02fa74	0.0019985707
45	0x392f90a7	0.00016743188
46	0xba09e411	-0.000526012
47	0x3ac4e6db	0.0015022414
48	0xb6f9c655	-7.443867e-06
49	0xb75b32dc	-1.3065259e-05
50	0xb7b72232	-2.1831223e-05
51	0xb778e20b	-1.4834582e-05
52	0xb7ce2780	-2.4575507e-05
53	0xb7badf1e	-2.2276825e-05
54	0x3a084a22	0.0005199035
55	0xb748c1d6	-1.196606e-05
56	0xb9d35254	-0.00040306395
57	0x3aacbc5e	0.0013178696
58	0x3a0c6d87	0.0005356897
59	0x3ac94358	0.0015355153
60	0xb7645663	-1.36099725e-05
61	0xba297eb1	-0.0006465717
62	0x3b11a87c	0.0022225669
63	0x3a9c5a00	0.0011928678
64	0xb40ceb6b	-1.312416e-07
65	0x3777711a	1.4748681e-05
66	0x37b354f7	2.1378028e-05
67	0xb5963e4b	-1.1194e-06
68	0xb4352669	-1.6870912e-07
69	0xb5cd0e74	-1.5277897e-06
70	0x3559aea2	8.1092924e-07
71	0xb384bd5a	-6.181172e-08
72	0x3773f3a2	1.4540654e-05
73	0xb54dcc1a	-7.666546e-07
74	0x376454d1	1.3609607e-05
75	0xb3629f96	-5.2764868e-08
76	0x35899bd1	1.0252644e-06
77	0xb5543832	-7.905793e-07
78	0x352acbce	6.362651e-07
79	0x3710cacb	8.630285e-06
80	0xb3a066c3	-7.469273e-08
81	0xb327489f	-3.8948766e-08
82	0xb4097970	-1.2803298e-07
83	0x3717c93e	9.047157e-06
84	0x32019138	7.541807e-09
85	0x37533bf4	1.2590539e-05
86	0x3609b757	2.0521309e-06
87	0x33223b40	3.7772452e-08
88	0xb30f59a6	-3.3376317e-08
89	0x37a3bf31	1.9520145e-05
90	0x3798dbf7	1.8222241e-05
91	0x37cef8a7	2.4672901e-05
92	0x33577ed9	5.0173956e-08
93	0x356315bf	8.4595735e-07
94	0xb712c012	-8.746998e-06
95	0xb66eae43	-3.5566197e-06
96	0x37513a98	1.2471013e-05
97	0x3acc1648	0.0015570605
98	0xbaedc98a	-0.0018141728
99	0xb9f56630	-0.00046806177
100	0x374d9451	1.2253485e-05
101	0xba1888c1	-0.0005818718
102	0xbb51560d	-0.003194216
103	0x36b9377f	5.5198902e-06
104	0xbb326b47	-0.0027224587
105	0xb9c3c236	-0.00037337997
106	0x3aaf1027	0.0013356254
107	0xb75938d0	-1.2947436e-05
108	0xbb3fe5c8	-0.0029281247
109	0xb99be8cc	-0.0002973735
110	0x39df73f3	0.00042620263
111	0xba2b59e4	-0.0006536527
112	0x3615904e	2.2286727e-06
113	0x3768b035	1.3869304e-05
114	0x37636379	1.3553415e-05
115	0x3a7a7ac2	0.00095550355
116	0x381c1988	3.7217076e-05
117	0x3ab34a5d	0.0013678778
118	0xbabc45b0	-0.001436403
119	0x37b99f34	2.2127853e-05
120	0x38bcdb15	9.005346e-05
121	0xba432895	-0.0007444707
122	0x3924b8da	0.00015709121
123	0x39a03a8c	0.000305612
124	0x37e80864	2.7660462e-05
125	0x3a09f8b6	0.0005263196
126	0xbb8c154b	-0.0042749993
127	0xbad2665c	-0.0016052234
128	0x359b311e	1.1562695e-06
129	0x3693ddd1	4.406764e-06
130	0xb6adb52e	-5.176894e-06
131	0xb5500765	-7.74968e-07
132	0x35c93985	1.4992407e-06
133	0xb48c895a	-2.6176969e-07
134	0xb727450e	-9.970054e-06
135	0x35079605	5.0509726e-07
136	0xb70acc6c	-8.273037e-06
137	0xb578c7b3	-9.26778e-07
138	0x367e1927	3.786359e-06
139	0xb39adf2e	-7.21178e-08
140	0xb71456e5	-8.841719e-06
141	0x341d7743	1.4665152e-07
142	0x36384af3	2.7461763e-06
143	0xb607c175	-2.0229174e-06
144	0x35303af6	6.565091e-07
145	0x34e1824b	4.2004316e-07
146	0x35b698aa	1.3604488e-06
147	0x36357822	2.7041028e-06
148	0x33758df4	5.7172613e-08
149	0x3681b400	3.8654543e-06
150	0xb689c871	-4.1062526e-06
151	0x338af6a8	6.470992e-08
152	0x359d85af	1.1736319e-06
153	0xb6140f3e	-2.206259e-06
154	0x34cf0b1e	3.8564843e-07
155	0x3553f6ca	7.896275e-07
156	0x33aaf398	7.960551e-08
157	0x363c1b3b	2.8030033e-06
158	0xb74c73d0	-1.2186312e-05
159	0xb67796ab	-3.6893568e-06
160	0xb78b54c8	-1.660957e-05
161	0xb7b9394a	-2.2080396e-05
162	0x3b0bd28e	0.0021335217
163	0x38f2a593	0.000115703
164	0xb7a4c577	-1.9642275e-05
165	0x38587432	5.160663e-05
166	0x3b0c957c	0.0021451404
167	0xb6f4f1ee	-7.299931e-06
168	0x3b2ee66d	0.0026687637
169	0x39242b5c	0.00015656411
170	0xb7ac205e	-2.051907e-05
171	0x374efdff	1.2337695e-05
172	0x3af400ef	0.0018616001
173	0x392a182b	0.00016221467
174	0xb9be0e84	-0.0003625044
175	0x3a98d315	0.0011659587
176	0xb6ed3a4f	-7.0699384e-06
177	0xb7455d40	-1.17638265e-05
178	0xb79f35b2	-1.897928e-05
179	0xb7411be2	-1.1510188e-05
180	0xb7bb9324	-2.2360655e-05
181	0xb7988c51	-1.8185152e-05
182	0x3a35b705	0.0006931874
183	0xb73d7657	-1.1292831e-05
184	0xb92b7707	-0.00016352172
185	0x3aaf163d	0.0013358068
186	0x3a2bb48e	0.0006550037
187	0x3aab52c4	0.0013070931
188	0xb75cb1e0	-1.3154437e-05
189	0xb9dcfe2a	-0.00042151037
190	0x3b081b7f	0.0020768342
191	0x3a84e06e	0.0010137686
192	0xb7b72de8	-2.1836677e-05
193	0xb804e0d1	-3.168063e-05
194	0x3b37f0fe	0.0028067227
195	0x388088d9	6.1290055e-05
196	0xb7cebaa9	-2.4644034e-05
197	0xb8dc4475	-0.000105031686
198	0x3b37b2b3	0.0028030097
199	0xb7204cbb	-9.554608e-06
200	0x3b67e634	0.0035385014
201	0x396eb08e	0.0002276322
202	0xb7f0c90e	-2.8703853e-05
203	0x37ded085	2.6561562e-05
204	0x3b198f05	0.0023431194
205	0x3946dfeb	0.00018966167
206	0xba143805	-0.00056540995
207	0x3ad2a0de	0.0016069671
208	0xb7073ab9	-8.0602995e-06
209	0xb780b299	-1.5341955e-05
210	0xb7d34d45	-2.5189142e-05
211	0xb78831c2	-1.6235634e-05
212	0xb7f80f43	-2.957101e-05
213	0xb7d56289	-2.5437463e-05
214	0x3a4d8325	0.00078396715
215	0xb76216d1	-1.3475962e-05
216	0xb9b5eb53	-0.0003469834
217	0x3adab0c3	0.0016684759
218	0x3a50d500	0.000796631
219	0x3ae2ac42	0.0017293768
220	0xb784d278	-1.5833633e-05
221	0xba370f23	-0.00069831515
222	0x3b2f372c	0.0026735766
223	0x3aaac9fc	0.0013030167
224	0x33a73def	7.787809e-08
225	0x36f28a3b	7.228254e-06
226	0xb712ba44	-8.7456465e-06
227	0xb61b6202	-2.3153848e-06
228	0x33b407f9	8.3833534e-08
229	0xb6468cc5	-2.9586238e-06
230	0xb77e91a6	-1.5173491e-05
231	0x331444bb	3.4521445e-08
232	0xb759eb78	-1.2989032e-05
233	0xb5e87e19	-1.7322046e-06
234	0x36d07062	6.211966e-06
235	0xb382bdfb	-6.088154e-08
236	0xb76a913f	-1.3981305e-05
237	0xb5c1d96a	-1.4442896e-06
238	0x3601138e	1.923388e-06
239	0xb650659d	-3.1053562e-06
240	0x32c29eef	2.2656847e-08
241	0x339aade3	7.2028136e-08
242	0x33b7c4a0	8.5573674e-08
243	0x3694d780	4.435831e-06
244	0x343c8617	1.7557646e-07
245	0x36d4b4f3	6.3391576e-06
246	0xb6e8a8ac	-6.933775e-06
247	0x33e336fc	1.0580513e-07
248	0x34922c40	2.7226815e-07
249	0xb67afa91	-3.7398752e-06
250	0x35187679	5.6796813e-07
251	0x35ac8a96	1.2855332e-06
252	0x340db15c	1.3196171e-07
253	0x361de92a	2.3530542e-06
254	0xb7a9ea0a	-2.0255353e-05
255	0xb7001bd8	-7.635877e-06

exp_avg_sq f4 [32, 32]
0	0x33a7a9ca	7.807428e-08
1	0x34bd388f	3.5245145e-07
2	0x36b03f1c	5.2525556e-06
3	0x35a41be2	1.2227067e-06
4	0x33f3433e	1.13278006e-07
5	0x36b1ab7f	5.294976e-06
6	0x3676732c	3.6723895e-06
7	0x32331f71	1.042632e-08
8	0x36b191f1	5.292001e-06
9	0x30a49580	1.1975061e-09
10	0x34087a46	1.271047e-07
11	0x31a086e1	4.671947e-09
12	0x3685864e	3.979344e-06
13	0x3525c9c8	6.176092e-07
14	0x356374ad	8.4733875e-07
15	0x34fa7517	4.6651323e-07
16	0x32463f0b	1.1539451e-08
17	0x318db04b	4.1236823e-09
18	0x33c5b5f7	9.2066266e-08
19	0x339f198c	7.4086614e-08
20	0x31b3e909	5.2360787e-09
21	0x340daf05	1.319532e-07
22	0x362b3137	2.5509632e-06
23	0x2fa2ca9a	2.9611585e-10
24	0x35b1f822	1.3259744e-06
25	0x36731449	3.622163e-06
26	0x358b6023	1.0384286e-06
27	0x3568a994	8.6673504e-07
28	0x2fe8db35	4.235631e-10
29	0x359cb5d9	1.167583e-06
30	0x36a91505	5.0390395e-06
31	0x36147e1b	2.2127122e-06
32	0x36a1ae6f	4.8184806e-06
33	0x31f1a304	7.032556e-09
34	0x388b872d	6.653215e-05
35	0x380e34bf	3.3904562e-05
36	0x36f8f1dc	7.419132e-06
37	0x3906c6fe	0.00012853366
38	0x38ae4734	8.310229e-05
39	0x3551c7f6	7.814955e-07
40	0x389c1935	7.443355e-05
41	0x33ec423e	1.1001656e-07
42	0x31abefd7	5.0040216e-09
43	0x3459ec66	2.0295701e-07
44	0x38cdfbb0	9.822042e-05
45	0x37b8d50b	2.2033715e-05
46	0x380d2775	3.3653767e-05
47	0x35c26f41	1.4486506e-06
48	0x358a0937	1.0284483e-06
49	0x34b62dbb	3.3933415e-07
50	0x36b5f85a	5.4231323e-06
51	0x312c93ab	2.5113234e-09
52	0x340fdb0a	1.3397599e-07
53	0x3229777d	9.864263e-09
54	0x387c259b	6.0116505e-05
55	0x320bcca1	8.137392e-09
56	0x38255136	3.94147e-05
57	0x384c2c46	4.8678623e-05
58	0x37630ce6	1.35332575e-05
59	0x362263f8	2.419807e-06
60	0x3241371b	1.1246608e-08
61	0x3820b4d8	3.8315397e-05
62	0x390e6858	0.00013581046
63	0x388b9423	6.655629e-05
64	0x31a892a4	4.9061146e-09
65	0x3092eff5	1.0691098e-09
66	0x3208a059	7.952701e-09
67	0x318f6439	4.1732418e-09
68	0x3161889b	3.281946e-09
69	0x33105af8	3.361035e-08
70	0x3139168c	2.693386e-09
71	0x2ebb93a3	8.530001e-11
72	0x3217cb1e	8.83554e-09
73	0x2c9b81f8	4.4197944e-12
74	0x2ff8350a	4.5148624e-10
75	0x307644d0	8.9592067e-10
76	0x31464bec	2.8855949e-09
77	0x31b35624	5.2193787e-09
78	0x3225deb9	9.654905e-09
79	0x30a829e8	1.2235519e-09
80	0x2f0a6f02	1.2590465e-10
81	0x2e3e5304	4.327473e-11
82	0x31e07e3a	6.5336083e-09
83	0x2fa49a12	2.99409e-10
84	0x30142a27	5.390199e-10
85	0x300ff81c	5.237568e-10
86	0x317f91d1	3.719027e-09
87	0x2ab24f19	3.1674037e-13
88	0x3226bf46	9.705962e-09
89	0x319c0469	4.540699e-09
90	0x314a786c	2.946332e-09
91	0x318c643f	4.085933e-09
92	0x2ad4a5b5	3.7773747e-13
93	0x32539227	1.2315048e-08
94	0x31f8a243	7.236197e-09
95	0x32397288	1.0794459e-08
96	0x33f476c7	1.1383741e-07
97	0x366a9e89	3.4960997e-06
98	0x38a9fe35	8.105898e-05
99	0x37b893a0	2.2003253e-05
100	0x33bd2e9a	8.809475e-08
101	0x38ac0cc0	8.203974e-05
102	0x388b556a	6.643946e-05
103	0x312817a5	2.4460658e-09
104	0x38afef19	8.389186e-05
105	0x330f5697	3.3373535e-08
106	0x3613c09c	2.201682e-06
107	0x334f4e1f	4.8266994e-08
108	0x389e5245	7.549351e-05
109	0x372b8b0e	1.022477e-05
110	0x37751690	1.4608391e-05
111	0x36cb8a8e	6.0660013e-06
112	0x3208886e	7.947262e-09
113	0x3166bed1	3.3577872e-09
114	0x340fe7e4	1.3402274e-07
115	0x3599091c	1.140204e-06
116	0x3272eb71	1.4139787e-08
117	0x360e874d	2.1238404e-06
118	0x383b85d9	4.470893e-05
119	0x31d44031	6.1773098e-09
120	0x37ca069f	2.408336e-05
121	0x386519ee	5.4622004e-05
122	0x37acfcbb	2.0621685e-05
123	0x37ad8840	2.0686653e-05
124	0x320760f4	7.880079e-09
125	0x37a7447e	1.9939846e-05
126	0x38c8e8ad	9.5800824e-05
127	0x3823091b	3.887071e-05
128	0x3467bb8c	2.158178e-07
129	0x32055e86	7.763111e-09
130	0x348b6683	2.5965355e-07
131	0x344db748	1.915879e-07
132	0x34be6a99	3.5467818e-07
133	0x35679304	8.626814e-07
134	0x34c8ed37	3.74255e-07
135	0x332d1c95	4.0305697e-08
136	0x34abbecb	3.1990052e-07
137	0x31b757c2	5.335978e-09
138	0x31526204	3.0614737e-09
139	0x320bc363	8.135291e-09
140	0x34e05412	4.178442e-07
141	0x34c98d55	3.7542e-07
142	0x3529180d	6.2992405e-07
143	0x322dfba9	1.0127146e-08
144	0x337ea00b	5.928454e-08
145	0x32b2cf2f	2.0816143e-08
146	0x3481a862	2.4150637e-07
147	0x3103fd22	1.9206898e-09
148	0x318c0505	4.075107e-09
149	0x3180686c	3.7371617e-09
150	0x346ccc7c	2.2053604e-07
151	0x2e2ba307	3.9025696e-11
152	0x349e1980	2.9448347e-07
153	0x343462e0	1.6799777e-07
154	0x3354cafd	4.9544713e-08
155	0x32cf944c	2.416541e-08
156	0x2e58ad1f	4.9266476e-11
157	0x350028cb	4.774308e-07
158	0x35318638	6.613295e-07
159	0x353fc165	7.143447e-07
160	0x35f6136a	1.8334079e-06
161	0x30ef269b	1.7400511e-09
162	0x37d3165e	2.5163576e-05
163	0x375db84b	1.3215536e-05
164	0x3642d3d3	2.903155e-06
165	0x384dd12a	4.9070608e-05
166	0x3809782b	3.277526e-05
167	0x34a8e928	3.1462082e-07
168	0x37f0a2a0	2.8685958e-05
169	0x33630698	5.2858553e-08
170	0x30fc7ca6	1.837084e-09
171	0x33ac617a	8.027105e-08
172	0x38260783	3.958448e-05
173	0x370f8819	8.555152e-06
174	0x375da817	1.3211763e-05
175	0x351dad69	5.87394e-07
176	0x34e8fc21	4.3396815e-07
177	0x341bd64f	1.4513465e-07
178	0x3609f2a5	2.0555829e-06
179	0x30718015	8.7857305e-10
180	0x33405d22	4.4788187e-08
181	0x3172db59	3.534032e-09
182	0x37c70342	2.3724166e-05
183	0x315e242d	3.2325815e-09
184	0x3781cf5c	1.5474558e-05
185	0x379ad5f6	1.8457864e-05
186	0x36b1c502	5.297946e-06
187	0x358f8eb3	1.0695861e-06
188	0x319839df	4.4303614e-09
189	0x37798d9c	1.4874528e-05
190	0x38626af0	5.3982192e-05
191	0x37da10fc	2.5995534e-05
192	0x3630ba66	2.6334542e-06
193	0x31952b64	4.3414037e-09
194	0x3889c8b3	6.570052e-05
195	0x380bde8f	3.3347456e-05
196	0x3682a023	3.8929443e-06
197	0x3900dae9	0.00012288582
198	0x38b098a3	8.420765e-05
199	0x34e749f0	4.30809e-07
200	0x389cf01b	7.483383e-05
201	0x33a3b026	7.62232e-08
202	0x319ed638	4.622759e-09
203	0x33fb1178	1.1691276e-07
204	0x38d20e21	0.00010016212
205	0x37a5c505	1.9761277e-05
206	0x37f6e2e4	2.943114e-05
207	0x35d1b70e	1.5624989e-06
208	0x3500a8ad	4.792917e-07
209	0x34098d24	1.2810466e-07
210	0x364041b8	2.8648483e-06
211	0x3117d47b	2.2094173e-09
212	0x335c612f	5.131113e-08
213	0x321c90de	9.113334e-09
214	0x387c786e	6.019364e-05
215	0x320dd489	8.255605e-09
216	0x382080a5	3.8266782e-05
217	0x38478ac3	4.757453e-05
218	0x375ff5fb	1.3349108e-05
219	0x3632bd85	2.6634382e-06
220	0x3242ced1	1.1339311e-08
221	0x3813c2ac	3.5228833e-05
222	0x39100790	0.00013735727
223	0x388674c8	6.41137e-05
224	0x2f477467	1.8140299e-10
225	0x34241fbf	1.528524e-07
226	0x3524fa15	6.145868e-07
227	0x304b940f	7.4061374e-10
228	0x2f8f63c4	2.6082436e-10
229	0x314c7346	2.9751432e-09
230	0x33f6da09	1.1494928e-07
231	0x2da8363d	1.9123475e-11
232	0x351f0277	5.92357e-07
233	0x2f691e59	2.1202008e-10
234	0x33630883	5.2860297e-08
235	0x2d0c750e	7.98407e-12
236	0x342467d2	1.531146e-07
237	0x30096014	4.9976845e-10
238	0x30508a31	7.586634e-10
239	0x341fda76	1.4887505e-07
240	0x2e06fd55	3.0693077e-11
241	0x2d6263ac	1.2868744e-11
242	0x2f689633	2.1153639e-10
243	0x3300689b	2.989746e-08
244	0x2e0ec790	3.246431e-11
245	0x336b6444	5.4806392e-08
246	0x3360d0f2	5.23441e-08
247	0x2d6777b1	1.3157407e-11
248	0x306e7c68	8.676069e-10
249	0x349a2c71	2.871707e-07
250	0x339aa1c9	7.2006124e-08
251	0x3476cd6c	2.2985267e-07
252	0x2c5ab9df	3.1082842e-12
253	0x307078e9	8.7483315e-10
254	0x31b57e22	5.282133e-09
255	0x30cd5201	1.493902e-09

exp_avg f4 [32]
0	0x3a45e363	0.0007548837
1	0x3b66756c	0.0035165204
2	0xb71849f8	-9.077128e-06
3	0xbbd9c1f1	-0.006645434
4	0xb7a0f868	-1.918916e-05
5	0x3b5d84a1	0.0033800977
6	0x3b8c0027	0.004272479
7	0xb8047f1d	-3.1589636e-05
8	0xb718610c	-9.0825015e-06
9	0x3ae32cfd	0.0017332133
10	0x3a9d8360	0.0012017302
11	0x3b784096	0.0037880293
12	0x3b44dfb8	0.0030040573
13	0xbb5f1b1c	-0.0034043258
14	0xbb47baac	-0.0030476255
15	0xbbdf10a9	-0.006807406
16	0x3bc3d566	0.005976367
17	0xb80946dc	-3.272934e-05
18	0x3b6d1631	0.0036176557
19	0x381bec12	3.7174737e-05
20	0x3bd0bf07	0.0063704285
21	0xbbc8a40d	-0.006123072
22	0xb859fa51	-5.1969957e-05
23	0xbb835dea	-0.004008998
24	0xbb853a07	-0.0040657553
25	0xbc0a2bd9	-0.008433306
26	0x3b9535b6	0.004553522
27	0x381f24fb	3.7942995e-05
28	0x3a2d2864	0.0006605445
29	0xbbd75dbb	-0.006572453
30	0xbc0cc5ce	-0.008592082
31	0xb8109f5e	-3.4480698e-05

exp_avg_sq f4 [32]
0	0x37c2b240	2.3209606e-05
1	0x3a0fb170	0.00054814573
2	0x32de68ae	2.5891804e-08
3	0x39cfdab7	0.00039645072
4	0x36220002	2.4139886e-06
5	0x395e8e36	0.00021224548
6	0x3a0f605e	0.0005469377
7	0x33de5a41	1.0354098e-07
8	0x3526c508	6.212654e-07
9	0x383f9d15	4.5684243e-05
10	0x37d8b203	2.58321e-05
11	0x3a3bae22	0.00071594317
12	0x39a76f62	0.0003193571
13	0x383c28e4	4.4860775e-05
14	0x38f9330e	0.00011882755
15	0x39814768	0.00024658
16	0x3a8566b4	0.0010177703
17	0x360e5ef4	2.121492e-06
18	0x39b6bc26	0.00034853927
19	0x367dfd3a	3.7847335e-06
20	0x3a165518	0.0005734726
21	0x39c3f91b	0.00037378896
22	0x36254788	2.4628553e-06
23	0x38b4720b	8.604311e-05
24	0x3903e52d	0.00012578508
25	0x3a2028e0	0.00061096065
26	0x3a41bbee	0.00073903694
27	0x359ff4fa	1.1917721e-06
28	0x36baed45	5.570854e-06
29	0x39accd9d	0.0003295959
30	0x3a13e7fb	0.0005642173
31	0x36348822	2.690133e-06
