training_results/cartpole_null/ppo/seed_42/72000steps/checkpoints/model_43200.pt (torch, 72419 bytes, 30 tensors)

actor.pi_net.fcs.0.weight f4 [32, 4]
00000000: fe2d 84be e225 ea3e 459a 533e 9028 db3e
00000010: 2c69 ecbe 9240 883c 5545 933e 2d9c e1be
00000020: d480 aa3e 4a93 d7be 2401 22bf 604a 02bf
00000030: 8021 49be 59bb 47be 91b7 e23e d6dd f93d
00000040: 35bc 8f3e af85 583e ab92 3f3e e210 0f3f
00000050: 9dd2 dbbe f065 a5be b1f5 fd3d e0f3 1d3f
00000060: 3c9c 533e 3e5d 863e dd5d 49be 2e7a 62be
00000070: 4ebf 19be 6705 883e 9fbb 45bd 2a1e 5e3e
00000080: 4a3b d83e c442 353e 7944 dcbe 2807 23bf
00000090: e140 a33e ac6c 08be 2c74 9ebe 1b28 ec3d
000000a0: 6ecd a4bb d031 dbbe 0d54 873e 3dfb aebe
000000b0: 894f acbe b8cc 91be 4012 d23d 431d 2c3e
000000c0: c087 70be efe5 663e d671 32be d9c9 1dbe
000000d0: f3f0 e73c facb 5f3e 007c 87be 1bbb fe3e
000000e0: 4d22 88be 6205 0a3e c574 c03e ebbd 0e3f
000000f0: b0ab 8d3e c7d1 983e 001c 86be 2132 a0be
00000100: 5f0e dc3e 273f b3bd fbb7 9ebe abe5 a23e
00000110: dcf3 2dbe c671 a53d 5aa7 d3be 8bd0 ab3e
00000120: ee45 7fbe 0866 5d3e 32bf 883e 2c7c fa3e
00000130: b76d 95ba 464f 2a3d b1b5 a0be fde1 10be
00000140: c4ba fabe 77ec ba3d 2b85 09be 9957 8f3e
00000150: 20f2 acbd aacc 7c3e 34fa 643d 6e77 d2be
00000160: e9a5 e1be a299 91be fe6e 96be e078 983d
00000170: 2178 e23e 5a78 d7be 5e39 93be 95df 803d
00000180: 1894 f8be 2c0d 56bd 92cd 2bbe 26bb ef3e
00000190: 420c 96be bdc7 55be a7f5 19bf 51c9 a6be
000001a0: 2c0b 73be 1d51 f5be e74d 2dbe 6909 b5be
000001b0: 9061 56bd 5294 433d 05f2 debe ad6f 23bf
000001c0: 6006 f83e 50ab aabe 90fb 413e ac7b 97bd
000001d0: 9d6f 13bf e92d 1c3e 870c 423e 7b69 0c3f
000001e0: 45dd 163e cc39 8a3d b445 fcbe fdba 533e
000001f0: 9c13 b33d f8a2 003f 043a 59be 6d89 e73e
-0.2581634 0.45732027 0.20664318 0.42804384 -0.4617399 0.016632352 0.28763834 -0.44064465
0.33301413 -0.4210456 -0.6328299 -0.5089474 -0.19641685 -0.19505061 0.44280675 0.12200515
0.28073278 0.21144746 0.18708293 0.55885136 -0.42934123 -0.32304335 0.124003775 0.6170025
0.20665067 0.26243013 -0.19664712 -0.2211692 -0.15014383 0.26566622 -0.048274633 0.21691194
0.42232734 0.1770125 -0.4302099 -0.63682795 0.31885436 -0.13322705 -0.30948007 0.11531087
-0.005029372 -0.4281144 0.26431313 -0.34176055 -0.3365443 -0.284765 0.10257387 0.16808037
-0.23489285 0.2254865 -0.17426237 -0.1540903 0.028313136 0.21855155 -0.26461792 0.49752125
-0.2658867 0.13478616 0.37589088 0.5575854 0.2767005 0.29847547 -0.26193237 -0.31288245
0.42979714 -0.0875228 -0.3099974 0.31815848 -0.16987556 0.08078341 -0.41338617 0.33557543
-0.2492902 0.21620953 0.2670837 0.4892286 -0.0011400495 0.041579507 -0.3138862 -0.14148708
-0.48970616 0.09127133 -0.13429706 0.2799652 -0.08444619 0.24687448 0.055902675 -0.41106743
-0.44071892 -0.28437525 -0.29381555 0.0744493 0.44232276 -0.42084008 -0.28754705 0.06292645
-0.48550487 -0.052258655 -0.16777638 0.4682247 -0.29306227 -0.20876975 -0.6014046 -0.32575467
-0.2373473 -0.47913447 -0.16924249 -0.35358742 -0.052339137 0.04774887 -0.4354402 -0.6384228
0.48442364 -0.33333826 0.1894362 -0.073966354 -0.57592183 0.15251888 0.18950091 0.5484845
0.14732845 0.06749305 -0.4927193 0.20676799 0.087439746 0.5024867 -0.21213537 0.45222035

actor.pi_net.fcs.0.bias f4 [32]
00000000: 910a 88be 0213 7ebe 86d3 b63e 867d 7d3e
00000010: 1906 d8be 0dfe f53e 7795 bf3e 7f50 06be
00000020: 7a88 b13e a014 64bd b4ba 7cbe e88f b73b
00000030: 1051 d33e 8990 233e 7b62 443e 9e22 47bb
00000040: 69e3 69be d27c 80be eba0 80be 54c8 3ebe
00000050: 7593 e8be afe1 d2be a3df b33e 9a19 bfbe
00000060: 998f 893e 5de4 a03e e039 303e 0b46 2a3d
00000070: a782 e7be 3901 6f3e 560e f73e 43f0 963e
-0.26570562 -0.24811938 0.35708255 0.24754915 -0.42192152 0.48045388 0.3741872 -0.13116644
0.34674436 -0.055683732 -0.24680597 0.0056018718 0.41272783 0.15973105 0.19178192 -0.0030385624
-0.22840656 -0.2509523 -0.2512277 -0.18631107 -0.45425 -0.41187808 0.3513156 -0.3732422
0.2686737 0.31424227 0.17209578 0.041570704 -0.45216867 0.2334031 0.48253125 0.2948018

actor.pi_net.fcs.1.weight f4 [32, 32]
00000000: 8c0f 9fbd 3196 0f3c ee4f 9b3d cde0 db3d
00000010: 98e7 c53d 4006 6a3d 14ba 873d a8ff babd
00000020: d5d4 e73d 2ad6 3dbe 3b0a e6bc 22dc eb3d
00000030: 6e60 ec3d ab41 613e c877 b3bd 5f05 9e3d
00000040: 05b0 70bc fb41 c63d 4509 02be 788a dd3d
00000050: 98cb f6bd ef53 03be 7b46 133e 53df 98bd
00000060: 5a7f ba3d 91de f83d d60d 683d f22d 3cbe
00000070: 8fc2 ab3d dbd0 543c 94e8 f0bd 5876 88bd
00000080: 6155 31be 7725 75bd e6e1 b93d f89e 153d
00000090: 4581 96be 5dbf 583e 6be9 bcbd 7e28 c239
000000a0: f3df 3ebe 8706 1ebe 2f98 12be 474b 0bbc
000000b0: 3eea b9bd 6fd4 40bd a84d 8d3e 5235 cfbc
000000c0: 057a 3bbe 7c25 58bd 6c24 81be d7d5 c1bc
000000d0: 64f4 d8bd 6e73 b5bd 3786 04be 3f8d edbd
000000e0: f77c 2abd 7c92 1b3e ee26 10be 294e b0be
000000f0: 3a27 123a b972 493e 13f2 11bc 1d0d 043e
00000100: d5a2 d43d 5c80 b23d b3aa ecbd cb82 afbd
00000110: ab98 1fbe a2ed 573d 8c31 a33b 25ae fbbc
00000120: 910e a7bd 821d 183e 1516 203e fd61 de3d
00000130: 01f1 91bc 87e3 d7bd b47e d4bd 4903 543a
00000140: 20f6 30be 52ac 04be bb9d 93bc 4a0b 97bd
00000150: e7b2 cb3d c5d3 883b 52a4 bbbc 8b9f 4b3d
00000160: 3b53 ca3d 041e f1bd 39ec cb3d ee78 243e
00000170: d149 283e 1b5a cf3d bc21 29be 3548 b13c
00000180: 500c e43d f2d8 9cbc f822 2e3e 5f03 39bd
00000190: ce23 283e 0af9 39be d671 ea3d e3b0 edbd
000001a0: 80c3 f9bc e50e 24bd 5498 ce3d 7140 e6bd
000001b0: d551 d53d ac9a 8abe 550c 5ebd a8b1 bebc
000001c0: 97dd bdbd a75b c43d 044d 39be c517 a9bc
000001d0: 3820 18be 9315 42be 863e 9a3d 61df 743c
000001e0: 8d67 7cbd f40e ce3d 2f6c babd fec9 143d
000001f0: 290d d63d 73fd 07be 239a 1d3d 9e44 bb3d
00000200: 8f2f 66bd 7331 b9bd a452 c0bc c897 5f3c
00000210: 848c 6ebd a706 e1bd 41d1 3abe 12d5 103e
00000220: b57a dc3d cbef e9bb e2ad 0f3e 2086 8dbd
00000230: eed8 a1bd 5b42 333e efd4 0b3c a418 2f3d
00000240: d195 373e 92cf e9bd 891c 5a3e 0e06 023e
00000250: 4d3f 063e 7968 c23d 8898 613d 0946 bb3a
00000260: 8b0c 323e 6b91 b4bc 5797 dbbd 5ea5 84bc
00000270: 60f1 1bbb 56fd bd3c 879a cebc 4126 053e
00000280: b909 b3bc 2cac ba3d 4baf f6bd fffd 033e
00000290: e7ed 54be 3132 2e3e 6d39 263e 2df9 16be
000002a0: 93ce c0bd fb7b ffbc faff b83c 9cc8 6d3d
000002b0: 5ee6 2c3e 5a67 1b3e 4e40 663e d1d9 5cbe
000002c0: b68d 75be 13a0 3dbe 5afe 2bbc 654d 40be
000002d0: 6fbb 86bd 50d0 893d 3645 edbd b17c 4fbe
000002e0: 6804 223e 6972 c1bd 0ea5 2c3d 0b1b 15bf
000002f0: 986e bb3d e8de a53d 1d89 3f3e 5c2c 10bd
00000300: 2b6e 3ebe 6fe4 8bbd 7575 82bd 096a 003e
00000310: f197 9dbd 5083 8fbd 2789 093e 9170 0bbe
00000320: 924f e5bd a6d1 cbbd 0369 933d 8d3d 0fbe
00000330: b7aa 6ebc 3cf1 733d 526e 053e 9869 94be
00000340: 1866 8abe ecf7 68be 3082 97bc 9441 8dbd
00000350: f97f e8bd 7f16 eebd 2874 e5bd 1e0a bdbd
00000360: 324d 7e3e 9227 f3bd f8d0 fbbd d72a ecbe
00000370: 1b3c 47be 4739 4dbc 0cce ef3d 4afa e53b
00000380: 082b dc3d 82c0 29bc f783 c73d 1530 09be
00000390: 44ec aebd 5ff5 26be a553 ad3d d2e2 9a3d
000003a0: 5c24 1ebc 5385 8ebc 2e82 623d c538 ccbd
000003b0: 1025 283c 2f10 443d d7a3 e3bd b077 04be
000003c0: 9a9a be3d ff5b 9a3d 7c34 0f3e 6267 b03d
000003d0: 5242 293e 8241 58bd 07b9 95bc 301f b2bd
000003e0: c599 41be a589 0fbd 5d87 05be 74f8 fc3c
000003f0: 90f7 313e e191 37be 668e 0a3d e1bc 47bd
-0.07766637 0.008763836 0.07583605 0.10736237 0.096633136 0.057134867 0.066272885 -0.09130794
0.11319891 -0.18538728 -0.02808105 0.115165964 0.1154183 0.21997707 -0.08763081 0.07715868
-0.014690404 0.096805535 -0.12698849 0.108174264 -0.12050551 -0.12824987 0.14382355 -0.07464471
0.09106322 0.12151826 0.05665382 -0.18376902 0.083867185 0.012989248 -0.11763111 -0.06663197
-0.17317726 -0.059850182 0.0907629 0.036528558 -0.293955 0.2116675 -0.092242084 0.00037032733
-0.18640117 -0.15432177 -0.14315866 -0.008501834 -0.09077881 -0.047077592 0.2759831 -0.02529398
-0.18308266 -0.052770123 -0.252231 -0.023661537 -0.10593489 -0.08859907 -0.12941824 -0.11599206
-0.041623082 0.15192598 -0.1407735 -0.3443463 0.0005575303 0.1967267 -0.008907813 0.12895627
0.1038262 0.08715889 -0.11555996 -0.08569869 -0.15585582 0.05271686 0.0049802717 -0.030722687
-0.08157075 0.14855006 0.15633424 0.108585335 -0.017815115 -0.10541444 -0.10375729 0.0008087648
-0.17281389 -0.1295636 -0.018019548 -0.073752 0.09946232 0.0041756355 -0.022905502 0.0497127
0.09879156 -0.11773303 0.09957165 0.16061756 0.16434409 0.10124608 -0.16516775 0.021640876
0.11135161 -0.019146416 0.17005527 -0.04516923 0.16419908 -0.18161407 0.11447494 -0.11606004
-0.03048873 -0.040053267 0.10087648 -0.1124276 0.10415999 -0.2707113 -0.05421098 -0.023278072
-0.092707805 0.09587794 -0.18095785 -0.020641217 -0.1485604 -0.18953542 0.07531457 0.014945836
-0.06162219 0.10061446 -0.09102666 0.036325447 0.10451729 -0.13280277 0.038477074 0.09143947
-0.0561977 -0.09042635 -0.023476906 0.013647027 -0.058239475 -0.10987597 -0.18243887 0.1414378
0.10765592 -0.0071391813 0.14031175 -0.06910348 -0.07902704 0.17505781 0.008534654 0.04274811
0.17928244 -0.11416544 0.21299948 0.12697622 0.13110085 0.09492583 0.055077106 0.001428784
0.17387597 -0.022041997 -0.10722225 -0.016192134 -0.0023794994 0.023192089 -0.025220169 0.13002874
-0.021855222 0.091148704 -0.12045153 0.1288986 -0.20793878 0.17011334 0.16232844 -0.1474349
-0.09414401 -0.031187048 0.022582997 0.058052644 0.16884753 0.15176144 0.22485468 -0.21567465
-0.2397984 -0.18518095 -0.010497654 -0.18779524 -0.06578719 0.067291856 -0.115854666 -0.2026241
0.15821993 -0.0944565 0.042149596 -0.5824439 0.091519535 0.080991566 0.18704648 -0.035198554
-0.18596713 -0.068306796 -0.063700594 0.12540449 -0.07694996 -0.07007468 0.13431226 -0.1361716
-0.111968175 -0.09952097 0.07197764 -0.13988324 -0.014567069 0.05955623 0.13030365 -0.28986812
-0.27031016 -0.22750825 -0.018494695 -0.06897274 -0.11352534 -0.116253845 -0.11203796 -0.09230445
0.24834135 -0.11872782 -0.12295717 -0.46126434 -0.19456522 -0.012525863 0.11709222 0.007018362
0.10750395 -0.010360839 0.09741967 -0.13397248 -0.08541158 -0.16304539 0.084632196 0.07562794
-0.009652223 -0.017397558 0.05529993 -0.099717654 0.010262743 0.047866996 -0.11115234 -0.12936282
0.09306832 0.07537078 0.13984865 0.08613469 0.16529205 -0.052796848 -0.018276704 -0.08697355
-0.18906315 -0.035043377 -0.13039918 0.03088019 0.17379594 -0.17926742 0.033827208 -0.048764113

actor.pi_net.fcs.1.bias f4 [32]
00000000: 793d e6bd 47a9 fd3d 895f 81bd 7192 ae3d
00000010: ddab 86bd 9839 7dbc d144 3a3e 1779 12be
00000020: 35e2 00be b1fc 383e e674 c03b 96fe 773e
00000030: 4d50 e73d 0133 963d 3ebc d73d 70a8 2f3e
00000040: 6bfe 243e 0a8e 48be d7b0 9c3d cb50 0bbd
00000050: 751e d33c 5e91 7d3d 00ce 36be c1b2 693d
00000060: ed64 eb3d 3efa a8bc a3da 4b3d 21b3 f5bd
00000070: d8f3 233e 4993 2e3c 4d02 83bd 7bea 0abe
-0.11242194 0.12385803 -0.0631705 0.08524025 -0.06575749 -0.015455626 0.18190314 -0.14304005
-0.12586291 0.18065144 0.0058733104 0.2421821 0.11294613 0.07333947 0.10533951 0.17154098
0.16112678 -0.19585434 0.07650917 -0.034012597 0.025771359 0.06190621 -0.1785202 0.05705524
0.114938594 -0.020627137 0.049769055 -0.11997057 0.16010988 0.010655233 -0.06396923 -0.1356601

actor.pi_net.fcs.2.weight f4 [1, 32]
00000000: 298a f93c 6def 6c3e c440 8bbd ad08 38be
00000010: 4ecf 60bd e49a 133e 2d84 6f3e 54f1 d3bd
00000020: 0197 35bd cd73 803d 4f48 193e b7b6 8b3e
00000030: 7b75 353e cfd2 51bd 40e9 b9bd 65bf 0dbe
00000040: e863 a33e f9ac fdbd 8088 363e 0946 0d3e
00000050: 1152 623e 89e0 2cbe 9dfd 25be 0013 a2bd
00000060: bb0b c0bd 5b46 6fbe af53 883e 0287 0a3e
00000070: 4b45 ad3c f1cc 2dbe 9348 66be 7a9a d9bd
0.030461388 0.23138209 -0.067994624 -0.1797206 -0.0548852 0.14414555 0.23390265 -0.10348764
-0.04433346 0.06272087 0.1496899 0.27287838 0.17720596 -0.051226433 -0.09077692 -0.13842542
0.3191216 -0.123865075 0.17825508 0.13796248 0.22101618 -0.16882528 -0.16210027 -0.0791378
-0.093772374 -0.23366682 0.26626346 0.13528064 0.021151206 -0.1697271 -0.22488622 -0.10625167

critic.v_net.fcs.0.weight f4 [32, 4]
00000000: c133 b6bf 1294 e8bf a400 513f 9ff4 a63f
00000010: 0fef 8b3e edd0 7c3e d51f 30bf 9d1a 203e
00000020: c074 83bf 31c1 29bf 9fb0 b23f 6381 0540
00000030: 1666 d3bf 34c0 08c0 e957 2e3f 77e2 d73f
00000040: 986e 703e fd0c 66bf 4df2 12be 1da7 aabe
00000050: 302e 33be 1298 3fbf 0cce 21c0 20b1 9dbf
00000060: 6f1e 54bd 8cb9 53bf 02ec c33e 908e 87bd
00000070: b69e e9be f847 63bf 885d 49c0 31ba 5fbf
00000080: 118a 73be 619e 46bf 5f2a 34c0 3723 89bf
00000090: c497 e93e ff40 a03e e3c8 8bbe 7bf7 883c
000000a0: fcf9 0ebe c166 6abf 7fa9 3cc0 2392 94bf
000000b0: b8d4 3bbf aa83 94bf 7705 b73f 9a1d fd3f
000000c0: 9387 af3e cbe2 483f c0cb bfbe dfd2 bd3c
000000d0: 2083 4cbd 27e2 dbbe 5d18 8b3e 3259 e6be
000000e0: b781 05bc 5f7b 833f 6512 e63f fb0f 993f
000000f0: 5f8c 933e 4353 253f 3d09 0340 567f 873f
00000100: 55a2 36be b0cd 39bf b53c b33e bb69 a13b
00000110: 4cad a63e 2475 643e 660a 66be 21ca 283d
00000120: 78fd 943e c803 3ebf ae49 283e a06f b4be
00000130: a74a e9bd f2be d8be 5db1 583f 7e0a 8a3e
00000140: 3aba f1be baa1 54bf dbf6 47c0 0c96 97bf
00000150: 0d7b 8b3e ec7a a4bd 7a04 dc3d 41cf ae3e
00000160: 1220 f9bd c58f aabc 466c ec3e 4622 e9be
00000170: a9de a43e 94ea edbe cade e43e 30a7 3bbd
00000180: 7fbc 04bf 2d03 03bf e072 573f b511 ac3e
00000190: 07be d8bd 6b9a 56be 7f91 313d 1bee b6be
000001a0: 219a a33f d1c2 9d3f 8b7d 1640 3e19 c23f
000001b0: 509b 9e3e 036d d83e 9d6c 40bf 028a e43d
000001c0: 8bfe 5fbe 2fd8 983f 8768 d73f a90d a43f
000001d0: 938f 7a3e 6490 bbbf 453f 50c0 1b21 91bf
000001e0: 20fb 843e 7266 10bf c0b5 c6bd f5a0 5fbe
000001f0: c126 40be 9dd8 3abf c146 843e abdc c3bd
-1.4234544 -1.8170187 0.816416 1.3043402 0.27330825 0.24689074 -0.6879857 0.15635152
-1.0270004 -0.6631041 1.396015 2.0860221 -1.6515529 -2.1367311 0.6810289 1.6865987
0.23479688 -0.8986357 -0.14350243 -0.33330622 -0.17498088 -0.74841416 -2.528201 -1.2319679
-0.051786836 -0.82705 0.38265997 -0.066189885 -0.456289 -0.8878169 -3.1463337 -0.8739348
-0.23783137 -0.7758542 -2.8150861 -1.0713872 0.456236 0.31299588 -0.27301702 0.01671957
-0.13962549 -0.9156304 -2.9478452 -1.1607097 -0.7337146 -1.1602681 1.4298543 1.9774659
0.34283122 0.7847106 -0.37460136 0.02317184 -0.049929738 -0.42945978 0.27167025 -0.44989926
-0.008148602 1.0272025 1.7974364 1.1958002 0.28818032 0.6458017 2.0474389 1.0585735
-0.17835362 -0.7257948 0.35007253 0.004925934 0.3255409 0.2231031 -0.22464904 0.04120839
0.2909963 -0.7422452 0.16434357 -0.35241413 -0.11391192 -0.4233318 0.84645635 0.2696113
-0.47212392 -0.83059275 -3.1244419 -1.1842666 0.27242318 -0.08031258 0.10743041 0.34142497
-0.1216432 -0.020820508 0.46176356 -0.4553396 0.32201126 -0.4646803 0.44701225 -0.04581374
-0.5185012 -0.5117672 0.8415966 0.3360726 -0.1058312 -0.20957343 0.043351647 -0.35728535
1.2781411 1.2325078 2.3514125 1.5163953 0.3097787 0.4227067 -0.7516573 0.111591354
-0.21874444 1.1940974 1.6828774 1.2816669 0.24468832 -1.465344 -3.2538617 -1.1338228
0.25972843 -0.5640632 -0.09702635 -0.21838744 -0.18764783 -0.72986776 0.2583523 -0.095635734

critic.v_net.fcs.0.bias f4 [32]
00000000: 9caa ca3d bb40 2ebf 5337 863e 2196 053e
00000010: 2a3d 333f 6ff9 2b3e 80d7 e53e 961e 343e
00000020: 2655 333e c878 5abf 2284 473e 5ce7 673e
00000030: fc02 69bf d6a0 383f deb5 21be 42d8 03be
00000040: c365 613f c2b2 5ebf 7957 413f 8c3a 363f
00000050: 1b7f 353e de4f 2e3f 1f0d e03e 4a47 003f
00000060: fc56 3c3f 91e5 0d3f a0f6 5cbe 56ad 27bf
00000070: b973 3bbe 202e 733e 0718 073f 60d1 753f
0.098958224 -0.6806752 0.26214084 0.13045551 0.70015204 0.1679437 0.44890976 0.17589793
0.1751295 -0.8534055 0.19483998 0.2264685 -0.9102018 0.72120416 -0.15792033 -0.12875465
0.880459 -0.8699151 0.755241 0.71183085 0.17724268 0.6809062 0.4376001 0.5010878
0.7357023 0.55428416 -0.21578455 -0.65498865 -0.18305863 0.23748064 0.5277104 0.96022606

critic.v_net.fcs.1.weight f4 [32, 32]
00000000: 4159 8c3e 2460 093e cc03 f13e fddf d13e
00000010: fe43 f73e 1f38 1cc0 86d2 833d f7da 5ac0
00000020: d5ae 37c0 fe50 60bd 0e8e 46c0 54be 0e3e
00000030: 9e1b 37be e9f7 413e 6508 df3e fbf0 1dbc
00000040: 162b 113d c839 43bd 1e98 aa3e 6b59 cdbc
00000050: 7ccb 39c0 5646 11be 7d32 c33e 506d 95bd
00000060: e96f a7bc f5b5 e83e 3930 0cbd 1d80 11be
00000070: 2b02 033e 112b 49c0 58aa 2e3e b8f9 673d
00000080: 2c50 1abf fa68 9bbe cba0 d2be 6f47 e4be
00000090: fd09 693e bf30 c0bd ef25 113d a6d6 863e
000000a0: ba0d 3f3e dfa8 3d3d 3595 f33e 902c 48bf
000000b0: 6c68 47be 67cc 2e3e e051 b0be 202f 8dbe
000000c0: 6665 5d3e 1644 94be 0f1a 423c 1be8 e73b
000000d0: d2e9 dd3e 1243 bc3d 96b1 9e3e 6ac5 873d
000000e0: 0c5b 52bd c08c 563e 9d31 13be 9fde 3cbd
000000f0: 911c f1bd d133 e03e 18b7 5c3e 2273 563d
00000100: 558f b4bf 7dc6 fdbe 2836 b4bf 1d69 b5bf
00000110: e772 2e3f 9028 37bf 0665 003f f79d 3bbf
00000120: b87e 14bf 5402 f8be 3c03 65bf 61c9 b0bf
00000130: 1cc5 fdbe 7f5f 173f ba25 7cbf fdb9 8cbf
00000140: 57c4 2c3f 308f f4be d2d3 303f dc4f cf3e
00000150: beb9 55bf c18c a73e fc90 b93e 626b ff3e
00000160: 4e1a 2c3f 3f6e 2b3f 4341 c1bf 5d64 d1be
00000170: 0012 74bf cbe4 8cbf 1a38 173f a531 2a3f
00000180: fa93 9a3b d666 013f e159 683b 2a3b b5bc
00000190: ecc0 10bf 8d51 823d 9793 b8be b8a5 ab3d
000001a0: c88c cf3d 3ae3 ea3e f85f d43d 1b3f 0e3e
000001b0: b4be 513e 8a56 2fbf fe2c f1bd f194 093e
000001c0: adf2 97be b8c5 a93e d46c 23bf cdcb 17bf
000001d0: 73f6 4a3e 9793 a6be 3246 0abf cfb9 e0be
000001e0: dda0 acbe 7e99 35bf 026c ed3b 8e86 e23e
000001f0: 73f3 e6bd 959e 123e c161 00bf e10a 06bf
00000200: 4294 20be f8b4 15be 9318 7f3d 4fcf 87be
00000210: fa03 6abe 5587 7dbe 1c55 b03d fb49 adbd
00000220: eb46 123b 3a48 1e3e 299b b1bd 0851 ddbd
00000230: f95b 953d 1a98 8fbe e29d f0bc 01e9 6dbd
00000240: 57d2 8cbc 0812 4e3d 8cae bbbd d015 87be
00000250: af10 cabd 46fa a6bd 9f18 91be 2962 e5bd
00000260: a570 b7bd 98a3 ddbe 1abc 76be 63f5 863e
00000270: 9fe8 453c 2e20 92bd d3bc 39be af2c 4cbd
00000280: 67a1 663d 92a0 0c37 0ca0 7c3d 7b1b f43c
00000290: 7188 7a3e 7842 b73d a389 b4bd b77e b93e
000002a0: 7f79 c33d e9f4 b83c fce3 b93d 817b 623e
000002b0: df5c 063e f1e4 883e e7ce 013e c077 0c3d
000002c0: 6d0a bebd 1eb7 1cbe f787 c6bd 9fde b63d
000002d0: 601f b43e 4ebe 393d fe96 8a3e 4c67 c6bd
000002e0: a93f 2e3e 6902 293c 7298 993d 82bf cc3d
000002f0: f14e b33d e456 d73d 3f3e 2d3d b1e3 0d3e
00000300: fdd9 593d 1fd3 45be 579e 393d 2235 0c3e
00000310: 570c 473e 0a16 46c0 11ee 9cbd 840e 86c0
00000320: 618a 69c0 bfe8 e1bd 6707 6cc0 e204 e23d
00000330: f154 153e 7725 e33e c839 a9bd 7ce2 683d
00000340: 05b0 0d3e 8df3 f7bd 84f7 613e 6108 6d3e
00000350: 7a54 5cc0 7463 013e c85a 3b3f 8ce2 b73e
00000360: b19d 9e3d 8f4a 323f 45ab 0cbe 118e bbbd
00000370: 55f3 33be f648 7cc0 76c7 ca3e 2ba2 0abe
00000380: 2f15 01bd c8ea e43d 5e87 973e f051 2d3e
00000390: 415a 07bf b755 b53c 65e8 54be 3bb1 d43d
000003a0: d962 b13c c0a2 a03e 0fcc 633e 4986 aebd
000003b0: b832 d73e 2f12 d0be 1eb1 95bd e312 ec3d
000003c0: a0db ebbe 3181 dd3d ea38 fdbe 5500 e6be
000003d0: 5ada 743c fc53 c3be 7bbd f3be 29a6 a6be
000003e0: b507 31bf afcb 99be 3005 27bc 1423 573e
000003f0: fc5d 06be b269 683e d3cc b0be 35d9 ecbe
0.27411845 0.13415581 0.4707321 0.40991202 0.4829406 -2.4409254 0.064366385 -3.4196146
-2.870046 -0.05476474 -3.1024203 0.13939792 -0.17881629 0.18942226 0.43561092 -0.009639974
0.03544148 -0.047662526 0.3331918 -0.025067052 -2.9030447 -0.14186987 0.38124457 -0.0729624
-0.020439105 0.45451322 -0.034225676 -0.14209028 0.12793796 -3.1432536 0.17057168 0.056634635
-0.6027858 -0.30353528 -0.411383 -0.4458575 0.22757716 -0.093842976 0.035436567 0.2633564
0.1865758 0.046303626 0.47574773 -0.78192997 -0.19473428 0.17070161 -0.34437466 -0.27575016
0.21620712 -0.28958195 0.011847033 0.0070772297 0.43342453 0.0919248 0.30994862 0.066294506
-0.05135636 0.2095213 -0.14374395 -0.046110746 -0.11773027 0.43789533 0.2155422 0.052355893
-1.4106241 -0.49565497 -1.4079027 -1.4172703 0.6814408 -0.7154627 0.5015415 -0.7328791
-0.5800586 -0.48439276 -0.8945806 -1.3811456 -0.49564445 0.5913009 -0.98495066 -1.0994259
0.6748709 -0.47765493 0.6907321 0.40490615 -0.83486545 0.32724574 0.36243427 0.49886614
0.6722764 0.669651 -1.5098041 -0.40896884 -0.95339966 -1.1007322 0.5906998 0.66482
0.004717347 0.5054754 0.0035453963 -0.022122938 -0.56544375 0.06363211 -0.36050102 0.08381218
0.10134274 0.45876485 0.10369867 0.1389126 0.20482904 -0.68491423 -0.1177616 0.13435723
-0.29677334 0.3315866 -0.63837934 -0.5929535 0.19820575 -0.32534477 -0.5401336 -0.4389176
-0.3371648 -0.70937335 0.0072455416 0.44243282 -0.11276903 0.14318307 -0.5014916 -0.5236035
-0.15681556 -0.14619815 0.062279295 -0.2652535 -0.2285308 -0.24758656 0.08609983 -0.08461376
0.0022320102 0.1545724 -0.086721726 -0.10806471 0.07292933 -0.28045732 -0.02937216 -0.058083538
-0.017190142 0.050310165 -0.091641515 -0.2638383 -0.098664634 -0.081532046 -0.28339097 -0.11200363
-0.08957032 -0.43288875 -0.24095193 0.2635909 0.012079387 -0.07135044 -0.18138437 -0.0498473
0.05630627 8.382036e-06 0.06167607 0.02979826 0.24466111 0.08948225 -0.088153146 0.36229488
0.09544658 0.02257772 0.09076688 0.22117426 0.13121365 0.26737168 0.12676583 0.03429389
-0.09279332 -0.15304229 -0.09693902 0.0892918 0.35180187 0.045347504 0.27068323 -0.09687671
0.17016472 0.010315516 0.0749978 0.09997465 0.08755291 0.1051462 0.04229569 0.13856389
0.053186405 -0.19318818 0.04531702 0.13692144 0.19438301 -3.0950952 -0.07662595 -4.189272
-3.649071 -0.11030721 -3.6879518 0.110360876 0.14583184 0.4436452 -0.08262974 0.056856617
0.13836677 -0.121070005 0.22067076 0.23147728 -3.442656 0.12635595 0.73185396 0.3591503
0.07744921 0.6964502 -0.13737209 -0.091579564 -0.17573293 -3.9419532 0.39605302 -0.13538425
-0.031514343 0.111775935 0.29595464 0.16925788 -0.5287209 0.022135599 -0.20791776 0.103853665
0.02165358 0.31374168 0.22245811 -0.085217066 0.42030883 -0.40638873 -0.07309173 0.1152704
-0.46065998 0.10815657 -0.49457484 -0.44922128 0.014944637 -0.38150012 -0.476055 -0.32548645
-0.69152385 -0.3003821 -0.010194108 0.21009475 -0.1312179 0.2269657 -0.34531268 -0.46259466

critic.v_net.fcs.1.bias f4 [32]
00000000: 9530 0f3e 87f8 093e 2c8b 103f b02f 08bf
00000010: d16b 39be 0cb1 ab3d 5eeb d33d 7075 94be
00000020: 2997 fa3c b926 05bf 3050 ab3e eb36 983e
00000030: 8fef 08be e14a f9be 0aae 0f3f 0615 a73c
00000040: 8ea5 203f 64dd 5c3e 8856 293f 8107 8b3d
00000050: a909 003e 2d82 523f b21b 14bf 4d9b 533d
00000060: dbf9 113e c07c 033e 55fb 02bf bf83 32be
00000070: 65b4 07bf 753b f4bd f58f c03d 587e 2c3f
0.13983376 0.13473712 0.5646236 -0.53197765 -0.18107535 0.083833784 0.10347627 -0.28995848
0.030589657 -0.5201221 0.33459616 0.297294 -0.13372634 -0.4868994 0.5612494 0.020395767
0.62752616 0.21568829 0.6614766 0.06788541 0.12503685 0.8222988 -0.5785476 0.05166178
0.14255469 0.12840557 -0.5116475 -0.1743307 -0.53009635 -0.11925403 0.094024576 0.67380285

critic.v_net.fcs.2.weight f4 [1, 32]
00000000: d1e0 093f 9613 b1bc 2b2d 353f aee2 84be
00000010: ee0a a7be 13cb 17bd 5a1e a13f 9226 cdbe
00000020: c66f 0cbd f419 f7be bea0 903f 3d1a 3b3f
00000030: 4dbd 5c3d 86a3 01bf 946a 5b3f 4988 2d3d
00000040: 17ee 4a3f ff6a 4f3f 6154 2a3f 838a 38be
00000050: 9e34 903e 444c 523f 1937 e6be 7f67 aebc
00000060: f6db 17be 189f 593e 19b8 cfbe 206a bb3c
00000070: 4fc7 e4be 5435 45be b505 883e 15c2 3b3f
0.5385867 -0.021615785 0.70772046 -0.25954193 -0.32625526 -0.0370589 1.2587388 -0.4006849
-0.034286283 -0.48261988 1.1299055 0.7308691 0.05389147 -0.5064014 0.857095 0.0423663
0.79269546 0.8102264 0.66535 -0.18021588 0.28165144 0.8214762 -0.4496391 -0.021289585
-0.14830002 0.21252096 -0.40570143 0.022877753 -0.4468331 -0.19258624 0.26566854 0.7334302

exp_avg f4 [32, 4]
00000000: 91f9 83b9 00bc b9b9 9c3b 90b9 069b 7eba
00000010: bf42 3736 89a6 2ab7 ab20 7cb8 9b44 62b9
00000020: cabe da39 f4dc 0938 2722 283a a139 733a
00000030: 5461 beb9 eeac 3a39 2bf8 84ba d3db d9ba
00000040: fc2d f1b9 d2da 5cba e936 dbb9 a91b b0ba
00000050: a164 eeb9 0f2d 8539 df86 8fba 9add daba
00000060: 4c72 9539 14ee b537 ba11 253a 5978 ae3a
00000070: 1d9f c9b9 8f1e 1fba 6029 d0b9 c03b b0ba
00000080: 113f 4e3a 47cf 0139 d8c2 bc3a f21f 163b
00000090: 8fb7 9cb8 9c72 06b9 dfcd 6fb8 bbe0 6bb9
000000a0: ce8a fe35 3657 4bb7 1b61 d8b7 6f1f f8b8
000000b0: 5c48 b6b8 4aac 94b9 539e fbb8 c3b4 28ba
000000c0: bb71 ea38 f5e7 0039 c9ba b439 a053 823a
000000d0: 7dfe 9eb9 ae9a 9939 f38c 36ba 8f6d 49ba
000000e0: 015f 2dba 42b1 a439 0c39 8eba 5a83 7eba
000000f0: 3fad 0d3a 44ba 113a 81d5 3c3a d37e a83a
00000100: 2ec4 82b9 eeb2 f4b9 3045 9cb9 6033 7eba
00000110: d00f deb8 a3e9 e4b8 073b fcb8 126c fab9
00000120: 1c93 b5b9 97a2 13ba 71a5 90b9 6b4f 73ba
00000130: f246 0637 fb19 7cb7 f9bf 54b8 7411 5ab9
00000140: 8d15 fa35 91c7 3337 18ac e937 0670 a938
00000150: 7f69 bb37 10c0 7738 7ea9 2f39 8d36 093a
00000160: 447b 24b9 2fdf 85b8 c471 9bb9 ee61 0dba
00000170: f72c 7636 8028 78b6 408c a036 cb98 0db6
00000180: 1008 acb9 3080 9d39 2535 1cba f3c5 1bb9
00000190: ff0b af39 a5e5 2cb8 cece 253a e654 8a3a
000001a0: 3615 af39 232d 92b9 f3c9 473a c8e5 ac3a
000001b0: 7151 023a f7e4 3aba 3b0a e53a 1d9d 063b
000001c0: f758 e035 602c 6eb6 b84c 5c36 3757 1bb6
000001d0: 9ca5 0dba 98df c139 7696 8eba 7474 a2ba
000001e0: 8925 3b38 3e34 3339 4b64 4a39 e70d 5a3a
000001f0: 4170 30b9 d7d0 ea38 2b25 72b9 482d 83b8
-0.0002517221 -0.0003542602 -0.00027510233 -0.00097124313 2.7307976e-06 -1.0171564e-05 -6.0111906e-05 -0.00021578597
0.0004172235 3.2869124e-05 0.00064137805 0.0009278302 -0.0003631214 0.00017802764 -0.0010144761 -0.0016621299
-0.00046001363 -0.0008424941 -0.00041811846 -0.0013435978 -0.00045469872 0.00025401308 -0.0010950229 -0.0016698122
0.00028504652 2.1687745e-05 0.0006296892 0.0013311013 -0.00038456256 -0.0006069922 -0.00039703678 -0.0013445541
0.0007867674 0.00012379616 0.001440133 0.0022907224 -7.47285e-05 -0.00012821931 -5.7173773e-05 -0.00022495065
1.8964872e-06 -1.2120048e-05 -2.5794425e-05 -0.000118314165 -8.691914e-05 -0.00028357125 -0.00011998103 -0.0006435627
0.000111791735 0.00012293442 0.0003447144 0.0009943135 -0.00030325717 0.0002929768 -0.0006963752 -0.0007683867
-0.0006613583 0.00031412585 -0.0010850742 -0.0009708904 0.0005404539 0.0005559067 0.00072034454 0.0012855179
-0.00024941697 -0.0004667262 -0.00029806187 -0.00096969865 -0.0001058873 -0.000109154054 -0.00012027291 -0.00047764234
-0.00034632615 -0.0005631833 -0.00027589084 -0.00092815486 8.003541e-06 -1.50264195e-05 -5.0723527e-05 -0.00020796602
1.8632724e-06 1.0715697e-05 2.7855902e-05 8.079414e-05 2.2341263e-05 5.906826e-05 0.00016752441 0.0005234264
-0.00015686179 -6.3835054e-05 -0.00029648666 -0.0005393316 3.668303e-06 -3.6978454e-06 4.784699e-06 -2.1099574e-06
-0.00032812404 0.0003004088 -0.0005958847 -0.00014855694 0.0003338754 -4.122187e-05 0.0006325067 0.0010553866
0.00033394404 -0.0002788092 0.00076213403 0.0013191039 0.0004971242 -0.00071294553 0.0017474362 0.0020540424
1.6715193e-06 -3.5490593e-06 3.282721e-06 -2.3147566e-06 -0.0005403401 0.0003697842 -0.0010878581 -0.0012394325
4.461923e-05 0.00017090232 0.00019301583 0.00083181116 -0.00016826486 0.00011196889 -0.00023092765 -6.255001e-05

exp_avg_sq f4 [32, 4]
00000000: 6fc2 7834 0790 ff34 2461 3e35 74ef 0137
00000010: 5540 e030 7f6e 5431 1a26 b833 b083 8b35
00000020: 0d61 6d34 1388 2135 a2ef 6a34 4a90 f435
00000030: e5d0 9a35 0a73 5036 81bf 2336 19e7 cc37
00000040: 4a71 4235 2c12 b235 7fee 2f36 38e4 f337
00000050: 68ae a435 70d0 5e36 f3c9 0036 96fc 9537
00000060: d4db 2834 96b8 ce34 1f47 f834 77bd b136
00000070: 159b 0335 f60a 8335 e164 e535 a06d 9d37
00000080: 5abe c635 b379 9036 2cfd 0236 2990 9b37
00000090: 3b15 7433 1997 7e33 e3f4 b933 fb56 7f35
000000a0: 3f16 b530 f94b 5d31 92f3 8e33 ff37 5335
000000b0: 65eb 7432 40a0 f432 adae 9c33 9a74 6335
000000c0: 3d35 0d33 906a 6f33 18ee a434 876c 7036
000000d0: f55c 3d35 9cbb fb35 91b8 9e35 c44e 3d37
000000e0: 64c8 d735 7e19 9636 7a55 c735 82ab 3537
000000f0: f17c 1735 1466 d035 0c35 5135 d9ec 0737
00000100: 6f5f 1c34 cb1e 8434 c871 1235 1031 cd36
00000110: 9e0e dd33 39f8 3534 4c14 cd34 341f 8d36
00000120: 67e4 ed34 3fa7 6335 e202 dd35 e94e 9837
00000130: 0077 9431 4f4d 1932 cc92 9b34 2019 6636
00000140: 2ba7 9f31 9336 2432 44dd 0634 91aa cb35
00000150: faf4 3231 36b5 0432 7892 4534 d9c7 0d36
00000160: 5649 1734 397b ef34 05da 7335 9248 3437
00000170: 3fd7 3f30 4e1f 1e30 5abc c332 cacb 8734
00000180: cad6 8e35 d4de 4136 2cb5 ba35 2116 4e37
00000190: 4d2a 3134 9d87 e834 e1e3 5134 78da ea35
000001a0: 6ac8 7534 3ed4 1435 9c08 a234 c5fb 4536
000001b0: 3e35 0036 1aa4 da36 93f5 7b35 3a13 c336
000001c0: c346 652f 084a 6d2f 0288 7d30 c1f7 2c32
000001d0: 856f d935 517c 9136 a328 1336 af1b a237
000001e0: ac0b e933 ff75 8534 74ef 6c35 3d58 2d37
000001f0: 1226 ed33 ff54 ad34 3399 a034 ae0b 5e36
2.3167534e-07 4.7602245e-07 7.0921874e-07 7.744751e-06 1.6316429e-09 3.091287e-09 8.575098e-08 1.0394633e-06
2.2107652e-07 6.017519e-07 2.1880126e-07 1.822141e-06 1.153469e-06 3.1061377e-06 2.4400363e-06 2.4426308e-05
7.243549e-07 1.3267322e-06 2.6215855e-06 2.907413e-05 1.2269711e-06 3.3201904e-06 1.9191036e-06 1.7879804e-05
1.5726192e-07 3.8504794e-07 4.6245347e-07 5.2970677e-06 4.9026977e-07 9.763451e-07 1.7091189e-06 1.8766907e-05
1.4807549e-06 4.305702e-06 1.9518875e-06 1.854457e-05 5.6829986e-08 5.9276406e-08 8.6592784e-08 9.5121476e-07
1.3175806e-09 3.2202918e-09 6.6566955e-08 7.868511e-07 1.4256192e-08 2.8478212e-08 7.2960894e-08 8.473377e-07
3.287754e-08 5.5743442e-08 3.0720616e-07 3.5825958e-06 7.0543257e-07 1.8755559e-06 1.1825633e-06 1.1283617e-05
1.607707e-06 4.473316e-06 1.4851532e-06 1.0828373e-05 5.64337e-07 1.5526916e-06 7.793576e-07 8.101772e-06
1.456335e-07 2.460932e-07 5.455481e-07 6.1151877e-06 1.0293773e-07 1.6947241e-07 3.8198993e-07 4.20576e-06
4.4310875e-07 8.4807465e-07 1.6466622e-06 1.8156557e-05 4.3208956e-09 8.92335e-09 2.897781e-07 3.4287295e-06
4.646514e-09 9.558465e-09 1.2560218e-07 1.517432e-06 2.6041662e-09 7.724614e-09 1.840034e-07 2.1126964e-06
1.408965e-07 4.4606875e-07 9.0841814e-07 1.0745733e-05 6.979128e-10 5.752455e-10 2.278664e-08 2.5293986e-07
1.0642336e-06 2.8888944e-06 1.3910808e-06 1.2283709e-05 1.6499799e-07 4.331204e-07 1.9547544e-07 1.7497941e-06
2.2890313e-07 5.544315e-07 3.0181116e-07 2.9501837e-06 1.9104477e-06 6.51601e-06 9.3862144e-07 5.813691e-06
2.0852568e-10 2.1581326e-10 9.223414e-10 1.006805e-08 1.6200216e-06 4.335809e-06 2.192836e-06 1.9324796e-05
1.0852031e-07 2.4859034e-07 8.82653e-07 1.0332148e-05 1.10430975e-07 3.2285604e-07 2.991379e-07 3.3087376e-06

exp_avg f4 [32]
00000000: 34d1 2dba b697 1a3a b524 d53b 9a51 e5bb
00000010: 0aa8 03bb 2fc7 febb 1063 c03a 4afb adba
00000020: 0e88 3d3c 05a8 2fb9 d830 2a3a f4ec fc3a
00000030: f0e7 5dba 19f3 e4bb 27a5 66bc 452d 70bb
00000040: 4b07 89ba 23ad 30b9 ebe1 adba a87b 7b3a
00000050: ba14 be37 36b1 8b39 57e6 21bb 8c7f c038
00000060: fcec 15bc 04b5 9a3b 10c7 8b3b 5eca a03c
00000070: 8c44 8d38 be68 35bc 4dd0 50bb 45fb 8abb
-0.00066306 0.00058972405 0.00650462 -0.006998253 -0.0020089173 -0.0077752094 0.001467796 -0.0013273743
0.0115680825 -0.00016751893 0.00064922636 0.0019296692 -0.00084650423 -0.0069869873 -0.014077461 -0.0036648076
-0.0010454444 -0.00016849166 -0.0013266181 0.00095933164 2.2659417e-05 0.00026644178 -0.0024703944 9.179031e-05
-0.00915074 0.004721286 0.0042656735 0.019627746 6.736172e-05 -0.011072336 -0.0031862438 -0.0042413794

exp_avg_sq f4 [32]
00000000: afd2 e635 660c 4334 66c7 b238 2dd0 9f39
00000010: 0c16 8836 c6ad ca39 44b8 7d38 b3a0 4736
00000020: 1624 153a a14d 5634 b5c6 1034 671d 5f35
00000030: a79b d236 9b62 4b39 db87 0a3a 3cc1 1139
00000040: f8e7 1835 95a9 ab34 2b0e 2a36 5eaf cf34
00000050: 69f9 fa33 7163 4234 9b11 7638 43ef 4a33
00000060: 3835 9039 5fac 8938 2573 f238 27af 5c3a
00000070: f16e ae32 9d5e ec39 9013 ca37 5d57 4838
1.7197652e-06 1.8165301e-07 8.524842e-05 0.00030481946 4.0556824e-06 0.00038657914 6.049151e-05 2.974685e-06
0.0005689276 1.9958544e-07 1.3483334e-07 8.311676e-07 6.276608e-06 0.00019396322 0.0005284526 0.00013900263
5.696197e-07 3.197462e-07 2.534022e-06 3.868435e-07 1.16868996e-07 1.8103835e-07 5.8667367e-05 4.7249397e-08
0.0002750547 6.564776e-05 0.000115609066 0.0008418434 2.0306716e-08 0.0004508392 2.4089386e-05 4.776508e-05

exp_avg f4 [32, 32]
00000000: 984d 34b9 64a8 31b8 c731 bb38 8d8a b4b9
00000010: b477 51b9 fe68 42ba bfb8 ddb8 d7b2 95b8
00000020: 1bf1 a838 8567 c9b6 b9c7 32b8 89f4 4cb8
00000030: f8f9 f5b8 9ff2 d3b9 d9ee 15ba 1e03 d338
00000040: 4b7a 89b8 58a2 3bb8 9a71 3cb9 2833 0db8
00000050: f4b7 c7b7 4295 8cb8 076d e1b8 bcab 2536
00000060: 528a dab9 2a84 a638 f12c 9538 6de6 6f39
00000070: c193 2436 1352 0cba 4a0c a6b9 4edd 0fba
00000080: 7e9a 2b38 7a24 9537 f8ff 15bb 9d53 11bb
00000090: df4b a7b7 659e 85bb 0367 3dbb 43ba 4737
000000a0: cc6d 1cbb 7375 5ab7 b6a6 7c37 d7cf 65b9
000000b0: 88d9 47bb 0c93 acba 3aa6 faba 20a9 3139
000000c0: 330d aab8 c9c6 feb8 0418 2637 dced 6e37
000000d0: 3f04 0bb9 77fe f437 037f 26bb b053 ec37
000000e0: ea5d 09bb f757 f0ba 0431 81ba a864 b139
000000f0: cadf 0638 6aea 04bb f17b 6abb e890 19bb
00000100: d34a ffb3 5379 5436 5a4e 7b36 b428 a336
00000110: 1d5b 9d33 80b0 2037 f0cd 7e36 24b2 05b3
00000120: 1aaf 8336 f217 4733 396b 3336 c2f5 2b35
00000130: 655e 7c36 2fe3 6f36 f12f b936 6491 1c34
00000140: c533 8a34 0038 ce34 ec9f 0ab3 6540 0c36
00000150: 86ba ef34 d677 6636 f99e 4d36 d961 f2b2
00000160: 2b34 a736 afb5 2936 80ed 0636 6272 cb34
00000170: bab9 03b3 aae5 ba36 00dd 7436 c6f2 b236
00000180: 214a b436 92f0 8839 760f 15ba 9c79 973a
00000190: 0490 9b36 be75 163b c635 1139 ec0a 5635
000001a0: bbfc 30ba a653 cab3 00ea 8939 00a6 d338
000001b0: 2a00 4239 b2cf 6b3a 250f b13a 1d36 1bba
000001c0: b966 9735 ffcd c0b5 6621 a436 ba82 5739
000001d0: f8b1 8bb6 c4ee d539 6c43 b139 7a22 aeb6
000001e0: 051a 9a3a bf02 0dba 93d6 cdb9 2f3b adba
000001f0: f906 a6b6 ccd4 ad3a d27a 453a 1df7 ac3a
00000200: 6341 96b6 2218 1436 962f 2db5 7819 64b8
00000210: 6892 bc37 58e3 fdb8 60f4 86b8 f32e 2735
00000220: 1d0b 09b7 53ea 9a36 dbb4 1836 4147 b837
00000230: 4811 83b8 dba2 d1b8 df99 ddb8 d702 1bb6
00000240: 4ce2 e237 de16 1738 bab2 2137 b656 be35
00000250: 4049 2f38 dbdb 3136 0c3d abb7 a46a a035
00000260: 6344 95b8 5ab9 24b5 e538 f3b3 20d7 33b6
00000270: b180 aa35 3c68 c8b8 5e2b 18b9 ddd0 2cb9
00000280: 6acb cb37 743f 3e37 2067 c8ba cbfe b8ba
00000290: da87 6ab7 fcc1 29bb 1c7d f5ba 4255 ea36
000002a0: da89 cfba 9d9c 07b7 159e 2137 e000 0fb9
000002b0: 2876 01bb 389c 57ba a989 9bba e234 ba38
000002c0: 3c77 54b8 66d7 9db8 cfc8 9b36 7e5a 1837
000002d0: 85f9 aab8 464d 9d37 ecaf d7ba 45d6 9737
000002e0: a546 aeba aca8 a0ba e6af 2fba fb0d 2c39
000002f0: 08e7 ad37 bd58 a6ba 4b06 17bb 573d c2ba
00000300: afa3 8a3a 7f95 1a37 135d 29bb 5b93 eeba
00000310: b8c1 a13a 117e 41bb 73ff 4bbb 3e1f e539
00000320: 4371 2ebb d79c 0a38 4f73 0337 da3b d5b5
00000330: ed70 57bb 5f4a aab9 7d6f fbb9 1f97 0c39
00000340: fe57 bb39 c6fb 4839 2857 913a ca7b 1e37
00000350: b4d6 b338 6e0c b837 67d2 33bb 5162 e637
00000360: 8cc0 b2ba d61f 08bb 3407 97ba 78fe 6639
00000370: 4408 0738 f42c 56ba 798d 61bb e6db a9ba
00000380: db83 d7b3 2c60 c935 b8dc 3bb6 5c12 f936
00000390: 8dde 6434 4f82 7537 37aa 1c36 bdff 6ab2
000003a0: 066e 2db6 abfe 9c33 309c ca35 2ff0 8435
000003b0: 5f5a 3636 ed8d b736 7ab5 0d37 d1ec 61b6
000003c0: 0441 e534 e6e1 2435 e426 2833 ea21 9e35
000003d0: c0b2 3f35 bc00 1d36 ba28 5536 8452 2eb3
000003e0: bab3 ff36 3af2 27b6 d6da 17b6 b425 00b7
000003f0: 6828 2db3 84f4 0e37 2d65 af36 6499 0837
-0.00017195044 -4.2356914e-05 8.9261266e-05 -0.00034435504 -0.00019976386 -0.0007416158 -0.00010572513 -7.138185e-05
8.055774e-05 -6.002318e-06 -4.2624513e-05 -4.886513e-05 -0.00011729071 -0.00040425823 -0.000571949 0.00010061845
-6.555448e-05 -4.473547e-05 -0.00017971397 -3.3664663e-05 -2.3808308e-05 -6.703522e-05 -0.00010749144 2.4686879e-06
-0.00041683257 7.940114e-05 7.113245e-05 0.00022878656 2.4523908e-06 -0.0005352806 -0.00031671143 -0.0005487994
4.091346e-05 1.777917e-05 -0.0022888165 -0.0022175082 -1.9943282e-05 -0.00407772 -0.002890051 1.1904692e-05
-0.0023869155 -1.3021158e-05 1.5059186e-05 -0.00021916568 -0.003049465 -0.0013166382 -0.0019123026 0.0001694304
-8.10869e-05 -0.000121486904 9.899963e-06 1.4241286e-05 -0.00013257655 2.9205561e-05 -0.0025405295 2.8172362e-05
-0.0020960518 -0.0018336762 -0.0009856527 0.00033835066 3.215651e-05 -0.0020281323 -0.0035779441 -0.0023432318
-1.1887973e-07 3.1661082e-06 3.7447521e-06 4.862517e-06 7.3274556e-08 9.577838e-06 3.796882e-06 -3.1128494e-08
3.9244887e-06 4.6355076e-08 2.673549e-06 6.406009e-07 3.760587e-06 3.5746014e-06 5.5190108e-06 1.4581525e-07
2.574217e-07 3.8411235e-07 -3.2276077e-08 2.0899108e-06 4.4652933e-07 3.4342424e-06 3.0639915e-06 -2.8217004e-08
4.983061e-06 2.5288716e-06 2.01058e-06 3.789492e-07 -3.066973e-08 5.5699684e-06 3.6487472e-06 5.333076e-06
5.3730478e-06 0.0002611918 -0.0005686203 0.0011556628 4.6361256e-06 0.0022958363 0.0001384831 7.9737106e-07
-0.0006751527 -9.4215736e-08 0.0002630502 0.00010092184 0.00018501343 0.00089954876 0.0013508542 -0.0005920844
1.1280273e-06 -1.4365067e-06 4.891469e-06 0.00020552697 -4.163241e-06 0.0004080442 0.00033810304 -5.1896177e-06
0.0011757022 -0.00053791323 -0.00039260517 -0.0013216491 -4.9479972e-06 0.0013262271 0.0007533255 0.0013196204
-4.4779604e-06 2.2067766e-06 -6.451677e-07 -5.4383156e-05 2.2479522e-05 -0.00012106326 -6.435136e-05 6.228067e-07
-8.168424e-06 4.6168366e-06 2.2755037e-06 2.196769e-05 -6.249786e-05 -9.996231e-05 -0.00010566762 -2.3098453e-06
2.7046677e-05 3.6022502e-05 9.637961e-06 1.4181339e-06 4.179147e-05 2.6503028e-06 -2.0413216e-05 1.1951965e-06
-7.117612e-05 -6.1364483e-07 -1.1325918e-07 -2.6798298e-06 1.2703441e-06 -9.556158e-05 -0.00014512005 -0.00016481006
2.4294208e-05 1.1339656e-05 -0.0015289523 -0.001411402 -1.3979117e-05 -0.0025902977 -0.0018729302 6.9836688e-06
-0.001583393 -8.083091e-06 9.633154e-06 -0.00013637869 -0.0019754265 -0.00082248775 -0.0011866587 8.879021e-05
-5.0655784e-05 -7.5264645e-05 4.642737e-06 9.080975e-06 -8.152708e-05 1.8751842e-05 -0.0016455627 1.810038e-05
-0.00132962 -0.0012257299 -0.0006701931 0.00016408406 2.073079e-05 -0.0012691241 -0.0023044522 -0.0014819306
0.0010577346 9.213923e-06 -0.002584283 -0.0018201874 0.0012341058 -0.0029524604 -0.0031127601 0.0004370156
-0.0026617802 3.3047832e-05 7.835056e-06 -1.5887156e-06 -0.0032873705 -0.00032480338 -0.00047957516 0.00013407737
0.0003573298 0.00019167279 0.0011088597 9.446356e-06 8.575377e-05 2.1940297e-05 -0.0027438642 2.7463919e-05
-0.0013637706 -0.0020770929 -0.0011522532 0.00022029306 3.2194206e-05 -0.00081701507 -0.00344166 -0.0012959212
-1.0035702e-07 1.5003657e-06 -2.7993647e-06 7.4229156e-06 2.1315118e-07 1.4633478e-05 2.334489e-06 -1.3678741e-08
-2.584305e-06 7.31064e-08 1.5095629e-06 9.904669e-07 2.7172716e-06 5.4703473e-06 8.446508e-06 -3.3665458e-06
4.270188e-07 6.1423486e-07 3.915092e-08 1.1781788e-06 7.141316e-07 2.339525e-06 3.176318e-06 -4.058758e-08
7.620515e-06 -2.5025934e-06 -2.2628133e-06 -7.638173e-06 -4.031645e-08 8.52079e-06 5.227185e-06 8.141946e-06

exp_avg_sq f4 [32, 32]
00000000: a99c 9533 5aef e234 3e14 c736 e042 b035
00000010: 6dbb cc33 2b30 c536 9ca0 8536 2906 0032
00000020: 12c3 c736 a4a0 fa2f 4eac 1134 d8a0 8a31
00000030: c03d 8e36 09c2 2735 ab21 5d35 385e 1035
00000040: 8967 db31 b3db fe30 4e69 b333 df01 b033
00000050: ae7f d331 13c2 1a34 7e4a 3b36 935f a92f
00000060: d57a bb35 cdc5 8936 e373 9235 da5f 6035
00000070: d079 f92f cd1f a235 9e3b b336 b8a3 1b36
00000080: 54a9 3f36 95be b931 0d3f 1138 23ae 8737
00000090: b76a 8236 086f 8b38 6a6a 1738 f586 bb34
000000a0: 8f0d 1738 89cf 4931 83d3 2f31 1b53 a933
000000b0: 4bfc 1f38 68d2 3337 66e2 8537 8714 3035
000000c0: 4649 a134 6211 a733 3993 5a36 b909 c630
000000d0: 1794 ff33 9b5f ce31 8bcc df37 5c0b 7131
000000e0: b4e8 9937 f765 d137 a5a8 c936 6b19 1035
000000f0: 3c9d ab31 bbed 9f37 8817 6e38 ee43 0038
00000100: 7c84 d931 e7c4 ae30 39e5 1d32 859a b431
00000110: b3d0 9031 d095 3833 a86a 4c31 a625 ea2e
00000120: 2b2d 3432 954f af2c 59ff 0530 2e3e 9f30
00000130: 8dfa 5831 86b9 e431 7c14 5432 1405 c930
00000140: acce 2c2f 4741 6d2e c6e9 1032 3780 bd2f
00000150: 3fb3 3f30 0893 2330 7c8c 9a31 74f2 ce2a
00000160: 38e2 5432 ce19 b031 360d 6831 eb6d 9f31
00000170: bc00 f62a 5582 8732 c4e4 1532 4dd7 6a32
00000180: 50f1 1834 3830 1136 d89f 3e38 fa7b 3f37
00000190: 42cb dc33 3862 4438 6062 0f38 7450 f930
000001a0: 3197 4838 59ac 9631 e4b7 4835 5b49 ce32
000001b0: c45a 1538 c41a a936 963b dc36 8742 6136
000001c0: 9f41 bd31 0399 2431 2dac 3634 3a42 0335
000001d0: 78b6 4132 98df 6d35 642c c237 1025 4831
000001e0: 9ead 4737 3e4e 0038 b26d 1437 5eae ea36
000001f0: 5f13 8831 f2df 2337 0360 3f38 9273 9f37
00000200: 6409 5b33 0a49 2b32 6765 5533 c598 5f32
00000210: c91c a133 29bf d033 b0a7 2e32 8a31 fd31
00000220: 9a46 5c33 e512 882e f2bc 8531 f0b9 c530
00000230: 2890 3832 7ede 6933 1e0d db33 07ed 3932
00000240: de92 0932 f7e8 2e31 44f8 7a33 68c9 2831
00000250: 69d0 0731 1535 a331 0986 4631 648e 382c
00000260: 8f86 1333 b5fc cf32 3694 3432 bd46 e932
00000270: efb7 572b ce13 a933 ab1d 6132 eb25 a533
00000280: 4a9b 7135 84e3 2530 86b1 1a37 dc4e 9b36
00000290: b55d a835 cef3 9c37 43aa 2837 32d1 fc33
000002a0: c986 2237 80fe 8e30 67eb 2a30 e2ff cf32
000002b0: 4446 3437 9e11 5636 f5fb a136 2b25 2e34
000002c0: 51aa e033 de02 f332 8f3e 8935 d06c b42f
000002d0: abd3 1433 f749 d730 c791 fb36 a368 8a30
000002e0: f5d5 b236 e093 de36 8112 d835 4adc 1e34
000002f0: 8c56 c230 49ec bb36 36e5 8537 05c0 1337
00000300: e59f f835 6434 f630 d913 ea37 13e1 6037
00000310: 77e4 2a36 ceac 5f38 f741 fc37 8d9c 8534
00000320: bc19 f837 073d 3831 51b3 f930 88a2 3633
00000330: 9e67 0538 523e 1037 462f 5437 a52c 1735
00000340: 18e9 5034 1518 4b33 e23e 0b36 7fda 8230
00000350: 5b2e 5d33 0edb 9d31 9385 b837 1d63 4c31
00000360: 53fd 7c37 59b8 a537 65d6 9c36 43a1 f534
00000370: fddc 8f31 3324 7f37 726f 4538 412a d137
00000380: 0424 402f c564 5434 9725 5535 21e3 0630
00000390: 7115 822f 1891 1431 d550 1e34 0d44 652d
000003a0: 3e69 4d35 0272 952f 2bd5 9233 b723 f82c
000003b0: 3e17 5334 9f68 ba2f ca40 0a30 d2cd 4e34
000003c0: 0649 bf2d f792 352d 3b87 632f c51d 2633
000003d0: 606c 342e 0a41 9833 8593 8f33 bfa3 942d
000003e0: eea1 1c30 ee04 c734 8b2f c733 6777 9f34
000003f0: dec5 872c 7ac7 2630 25df a331 b583 8630
6.9668495e-08 4.2269932e-07 5.9330187e-06 1.3132485e-06 9.533583e-08 5.876665e-06 3.9824063e-06 7.451981e-09
5.9533713e-06 4.5588877e-10 1.3566861e-07 4.0346144e-09 4.2391184e-06 6.2494706e-07 8.237791e-07 5.3781287e-07
6.3855095e-09 1.8543375e-09 8.354492e-08 8.195979e-08 6.1554237e-09 1.4412971e-07 2.7908532e-06 3.080883e-10
1.3968335e-06 4.105945e-06 1.0911575e-06 8.3585985e-07 4.537939e-10 1.2079196e-06 5.341556e-06 2.3192097e-06
2.855978e-06 5.4058753e-09 3.4629415e-05 1.6174343e-05 3.886725e-06 6.648718e-05 3.610031e-05 3.4929658e-07
3.6013833e-05 2.936732e-09 2.5586082e-09 7.8847926e-08 3.814352e-05 1.071822e-05 1.596026e-05 6.559498e-07
3.00419e-07 7.7797054e-08 3.2570226e-06 1.4409159e-09 1.19013e-07 6.006258e-09 2.667892e-05 3.5076573e-09
1.8347382e-05 2.4962223e-05 6.0098996e-06 5.368117e-07 4.9946305e-09 1.9064979e-05 5.6765537e-05 3.0580843e-05
6.330593e-09 1.2716129e-09 9.190722e-09 5.2562563e-09 4.214678e-09 4.2977092e-08 2.9746534e-09 1.0647776e-10
1.0487649e-08 4.9826345e-12 4.874799e-10 1.1586445e-09 3.1574559e-09 6.656765e-09 1.2344682e-08 1.4626118e-09
1.5716733e-10 5.394554e-11 8.435057e-09 3.4470002e-10 6.974012e-10 5.9508e-10 4.497961e-09 3.6761187e-13
1.239146e-08 5.125208e-09 3.3767953e-09 4.6400053e-09 4.3698888e-13 1.5775337e-08 8.724957e-09 1.3669546e-08
1.4243892e-07 2.163475e-06 4.5448396e-05 1.1413353e-05 1.0281521e-07 4.6821515e-05 3.4185476e-05 1.8140001e-09
4.7824524e-05 4.3851682e-09 7.47734e-07 2.4014915e-08 3.56089e-05 5.0397084e-06 6.5634476e-06 3.3566337e-06
5.508084e-09 2.3952118e-09 1.7012708e-07 4.8897675e-07 1.1275567e-08 8.861475e-07 2.3147273e-05 2.9124898e-09
1.1901748e-05 3.0590447e-05 8.847028e-06 6.9940425e-06 3.960323e-09 9.767698e-06 4.5627366e-05 1.9008094e-05
5.099845e-08 9.970117e-09 4.9685152e-08 1.3015044e-08 7.502383e-08 9.7205266e-08 1.0166261e-08 7.368901e-09
5.1286953e-08 6.18792e-11 3.89229e-09 1.4386483e-09 1.0742987e-08 5.4451895e-08 1.0200368e-07 1.0822311e-08
8.007843e-09 2.5452758e-09 5.8433457e-08 2.4561704e-09 1.9763553e-09 4.749959e-09 2.8888982e-09 2.6227015e-12
3.4348485e-08 2.421289e-08 1.0511078e-08 2.7156938e-08 7.6638603e-13 7.873278e-08 1.3103469e-08 7.6903085e-08
9.000547e-07 6.034997e-10 9.220448e-06 4.6285404e-06 1.2544248e-06 1.871018e-05 1.00532225e-05 1.1772717e-07
9.687335e-06 1.0404193e-09 6.2180167e-10 2.4214334e-08 1.0745196e-05 3.189874e-06 4.8275056e-06 1.6218534e-07
1.0461793e-07 2.8290227e-08 1.0225502e-06 3.2819125e-10 3.4651446e-08 1.5664331e-09 7.4973536e-06 1.0070561e-09
5.3297213e-06 6.6333305e-06 1.609864e-06 1.4795037e-07 1.4139956e-09 5.6005415e-06 1.596157e-05 8.806591e-06
1.8523975e-06 1.7913746e-09 2.7904216e-05 1.3403845e-05 2.5464958e-06 5.332828e-05 3.0071458e-05 2.4887086e-07
2.9575887e-05 2.6810214e-09 1.8168099e-09 4.2523e-08 3.1806172e-05 8.597579e-06 1.2647191e-05 5.631685e-07
1.9456309e-07 4.7286523e-08 2.0749217e-06 9.520845e-10 5.1497732e-08 4.594205e-09 2.199671e-05 2.9742246e-09
1.5079352e-05 1.9755376e-05 4.674121e-06 4.575214e-07 4.186971e-09 1.5207613e-05 4.707225e-05 2.4934418e-05
1.7475094e-10 1.9780698e-07 7.9403384e-07 4.9071686e-10 2.3662097e-10 2.161931e-09 1.4744303e-07 1.3032253e-11
7.65216e-07 2.718395e-10 6.83743e-08 7.052549e-12 1.9659362e-07 3.390754e-10 5.029618e-10 1.9260122e-07
2.1746615e-11 1.03212916e-11 2.0693573e-10 3.8676962e-08 4.1023518e-11 7.089882e-08 6.68579e-08 1.689837e-11
5.6982585e-10 3.7070225e-07 9.2753076e-08 2.9702935e-07 3.8588984e-12 6.067392e-10 4.769293e-09 9.787217e-10

exp_avg f4 [32]
00000000: eb94 19ba 4c51 febb 20b4 1537 508b d13a
00000010: 57d6 88b9 cfd6 a3bb 3720 01bc 162f 4037
00000020: ce27 9937 a022 0fba baf0 e93a 160e 12bc
00000030: 8234 ccbb fe4c 233a 1500 883a d325 d53a
00000040: 0cca 28bc e18c 9db9 c220 a1bb 2fbd 82b7
00000050: 5992 21bb ebb9 f83a eb52 24ba 131b 7d3a
00000060: b3f5 c73a ec71 2d3b 65cc 10bc 4082 7fb7
00000070: 4464 64b9 54c7 a03a 3269 203b 0872 c8b9
-0.00058586773 -0.007761156 8.923031e-06 0.0015986953 -0.00026099637 -0.0049999724 -0.007881216 1.1455055e-05
1.8257557e-05 -0.00054601766 0.0017848231 -0.008914491 -0.0062318454 0.0006229429 0.0010376001 0.0016261883
-0.010302078 -0.00030050336 -0.004917235 -1.5585303e-05 -0.002465388 0.0018976306 -0.0006268459 0.00096552185
0.0015255719 0.0026465608 -0.008837794 -1.5229511e-05 -0.00021781126 0.0012266436 0.0024476764 -0.00038231933

exp_avg_sq f4 [32]
00000000: fc32 d637 2afd 8839 dd09 0533 e67a 6239
00000010: e70f e732 9397 9838 f176 6239 197a 0734
00000020: 18f6 4935 e512 ea37 5d13 0038 ef8e 9e39
00000030: 3174 0639 7551 ac36 1631 b038 ee55 9638
00000040: 9fee 003a 5b97 0d36 2f01 3d39 6cf6 a336
00000050: de70 c739 58f3 7239 89e5 ee35 90ee c037
00000060: 5f2f 8d38 ffba 9d39 4ef7 c539 e158 cd35
00000070: 03d5 6d36 bacd 0c39 28b0 7639 1e00 2236
2.553453e-05 0.00026128563 3.0975446e-08 0.00021598823 2.6899171e-08 7.276158e-05 0.00021597349 1.2617274e-07
7.523645e-07 2.7903772e-05 3.053561e-05 0.00030242602 0.0001282252 5.1354823e-06 8.401477e-05 7.168563e-05
0.000491837 2.1098738e-06 0.00018024886 4.886466e-06 0.0003804033 0.00023169571 1.7799185e-06 2.2999273e-05
6.7322275e-05 0.00030084696 0.00037759024 1.5299557e-06 3.5439741e-06 0.0001342808 0.00023526012 2.413995e-06

exp_avg f4 [1, 32]
00000000: 3594 98ba 5c03 0fbc 3de8 7337 50b7 9c3b
00000010: a4b8 28b9 e812 43bc 62fe 12bc 68c9 a638
00000020: b6cf 95ba 4a9b 12bc 1aea 6839 4b52 38bc
00000030: 85b6 30bc 7c3a c83b 81ac 9bba 431a 3d3b
00000040: 10c6 29bc 49f7 33ba 9829 fbbb 8617 3838
00000050: c467 12bc 20ce 123b 5a8f 14b9 e29f 4a3b
00000060: b5de 3e3b 0cc6 653b 17ee 2cbc 785a 9f37
00000070: d6f9 c9bb 0f78 b03b 4bd4 a03b 7087 9d38
-0.0011640849 -0.008728828 1.4538001e-05 0.0047825947 -0.00016090513 -0.011906363 -0.008971782 7.953012e-05
-0.00114297 -0.008948157 0.00022212454 -0.011250089 -0.010785704 0.0061104875 -0.0011876972 0.0028854765
-0.010362163 -0.00068651565 -0.0076648705 4.3890926e-05 -0.008935872 0.0022400692 -0.00014167783 0.0030918051
0.0029124443 0.0035060672 -0.010554812 1.8996405e-05 -0.006163816 0.005385406 0.00490812 7.5115706e-05

exp_avg_sq f4 [1, 32]
00000000: 586f 7d39 0b10 9639 90e2 3733 f917 8939
00000010: ebf7 7d36 0636 c839 481b 4439 41de f133
00000020: 5f4e 0038 085d cd3a 7a2c c037 d2d0 b439
00000030: 83a0 ae39 3e6f 5a39 c306 033a 1726 fd37
00000040: 8994 9e39 2568 1d38 5332 b039 8963 ae34
00000050: e0ed 583a 6543 2139 202c 1a38 45a7 a838
00000060: 2432 5239 5af1 a838 3630 b339 1861 1237
00000070: b568 793a ca57 4d39 2bff b038 f21a d137
0.00024169439 0.00028622182 4.2814065e-08 0.00026148537 3.7844245e-06 0.00038187223 0.0001870218 1.1262865e-07
3.0590567e-05 0.0015667984 2.2908895e-05 0.0003448786 0.00033307457 0.00020831541 0.0004998261 3.0177687e-05
0.00030246776 3.752871e-05 0.0003360683 3.2482447e-07 0.0008275192 0.00015379263 3.6757556e-05 8.0420206e-05
0.0002004584 8.0558195e-05 0.0003417746 8.7248845e-06 0.0009514199 0.00019583027 8.439863e-05 2.4927289e-05
