training_results/cartpole_null/ppo_test2/seed_42/1000000steps/checkpoints/model_800000.pt (torch, 151579 bytes, 30 tensors)

actor.pi_net.fcs.0.weight f4 [64, 4]
00000000: 8344 c9be acd2 d93e d82b 843f e053 863f
00000010: 6a89 e5be f6bc 0dbd 2c19 09bf a6bf 89bf
00000020: b800 ac3e e749 d5be b673 78bf 04aa 69bf
00000030: bd4b 09be 2df6 8ebe af97 a33f 94c2 433f
00000040: 6104 ef3e 2364 473e 0192 d1bd adcc ae3e
00000050: 65d4 debe 447e e0be dc80 473f 8ff9 893f
00000060: e60f 873e 0253 a33e 772d 7abf 4e76 65bf
00000070: 9a8f cbbd e655 b83e 1795 7cbd af49 ce3e
00000080: c5bf e43e fc34 9f3e fcca 90bf ddc0 99bf
00000090: 5223 b53e bb9f 03be 28eb ebbe 9bd2 5b3e
000000a0: 626f 1cbd 508e bbbe c4c7 973c 7e52 26bf
000000b0: 6ddb f6be eb58 bdbe 0dfb 2a3f 0605 013f
000000c0: 6e9e 59be c680 6b3e a0e9 e3be a581 03bf
000000d0: 4147 3e3d 090c 043e 9f63 b13e ef90 7c3f
000000e0: bc4c 5cbe 0576 863d ed5f 933f c66f 9f3f
000000f0: ee75 733e 2662 103e 66c8 31bf 5785 2dbf
00000100: 260e c53e 5dd3 27be bcb4 d3be 898b f23e
00000110: 15a3 59bd f331 0f3e d673 21bf 4665 ba3e
00000120: 5c85 debe 8e91 033e c5e0 913f 4ddc 963f
00000130: 2c1f 373d 9389 8b3d ff6f 83bf a831 3abf
00000140: bb26 1bbf b8b9 8c3d 069a 793f d9cf a03f
00000150: a8f0 08be 3fdd 753e a31e 7ebf fbb9 a0bf
00000160: 5359 aabe c0c6 5ebe fad2 5cbf 523f 94be
00000170: 57b0 f73e 2ca3 bebe 7d09 76bf 320b 03bf
00000180: 2169 b8be 7d01 cfbc 5c88 623e 503f 683f
00000190: b60e b0be ab57 eebd 637e a3bf 1d45 47bf
000001a0: d488 06bf 7ea8 13bf 31e3 a03e e366 9fbd
000001b0: 9f73 17be b670 fabd 587b 9bbf e934 9dbf
000001c0: e223 243f 9f37 f7bd bd65 a83e 1a35 013e
000001d0: 3484 17bf c57a 65bc c724 863f 8f1c a53f
000001e0: ce8d 933e cc0b 2b3e c286 11bf 9875 ab3e
000001f0: 4816 973e 5f23 203f 4c66 17bf 0ff9 823e
00000200: 1aa5 71be b5b4 83be 1a07 953f 8e3c 3e3f
00000210: 0ee9 09bf e92e ac3e 27f0 363f 0f2a 863e
00000220: 52ef e53e c182 6cbd 8545 89bf b1b4 2fbf
00000230: e34c ba3e e407 3d3d f563 193f 8e41 c33e
00000240: ce4a adbe 52f4 c0be ace5 83bf 198a 4cbf
00000250: 00ea 1fbf bc2c 20bf 9614 2f3f c756 22be
00000260: 9e13 243e fbbf 7d3e 8979 40bf 0a5b 6bbf
00000270: 622d f0be a230 3f3e 68ff ca3f 497e a03f
00000280: e56d e03d 7596 903b e180 b53e 0e4c cd3e
00000290: 90b0 0e3f 7fe5 193d 8d72 ea3e 8c3d d03d
000002a0: 851d 1f3f 781b aebe f013 8abe ddbd 9c3e
000002b0: 4ec7 b13e 34fd e73e fb38 3dbf 4082 783e
000002c0: 5f69 933e a7b7 e03e 8852 b5bd 5f1b eb3e
000002d0: 98ea 83be a169 b7be 8927 943f 4ba4 ad3e
000002e0: 490b 8a3e c2e9 dd3e ef69 2cbf fd33 95bf
000002f0: ae83 af3e 157c 94bd 6f73 c3bf e705 a7bf
00000300: f115 76be 57f3 e1bd 44d2 673f d958 773e
00000310: 52f7 0dbf c7d5 a43e 23fd cd3e 2312 6a3f
00000320: 972d bbbe fc85 16be e3b9 5bbf b470 d4be
00000330: bd3e abbe 42a0 b4be 1515 a83f 6d56 953f
00000340: f2b9 7f3d afc7 a83e 1094 f7be ff67 803e
00000350: 5444 c13c 4f54 5dbd be5c a3bf fc79 38bf
00000360: 8002 9bbe 1a00 f93e b518 89bf 3460 29bf
00000370: 2bd4 aa3e 6c69 9e3e b0dd 6f3c 58a0 c13e
00000380: 4a01 dd3e f063 bf3e 729a bebf 925c 92bf
00000390: d16f 17bf 6283 993d d92d fa3d 47bf 6abe
000003a0: 6ccc c0be 54fe a63e 44a8 cb3f fe0a 9d3f
000003b0: 24e0 6f3d 4a6d 94be 189b 95bf cf1a 4fbf
000003c0: 9b5c b9be fc4a 89be 584d 8cbe 9eda bebe
000003d0: e678 443e cde9 8d3d 49db 4e3f 676f 4a3f
000003e0: c60c 6e3e c319 a5be ac9c be3f 9ed4 b63f
000003f0: 9077 163f 2429 e63e fbb3 05bf edcd 143e
-0.39310083 0.42543542 1.032588 1.0494347 -0.448314 -0.034604035 -0.53554034 -1.0761611
0.33594298 -0.41657946 -0.9705156 -0.9127505 -0.13407798 -0.27922192 1.2780665 0.7646878
0.46683028 0.19471793 -0.10232926 0.3414053 -0.4352142 -0.43846333 0.77931 1.0779284
0.26379317 0.31899267 -0.97725624 -0.89633644 -0.09939499 0.36003035 -0.06166562 0.4029059
0.4467756 0.3109511 -1.1311946 -1.2011982 0.3537851 -0.12853901 -0.46077847 0.21467058
-0.03819216 -0.36632013 0.018527873 -0.64969623 -0.48214284 -0.36981902 0.66789323 0.5039829
-0.21251842 0.22998342 -0.4451418 -0.51369697 0.04645467 0.12895216 0.34646317 0.9865865
-0.21513647 0.06565479 1.1513649 1.2455986 0.23775455 0.1409994 -0.6944641 -0.67781585
0.38487357 -0.16389222 -0.41348827 0.47372082 -0.053134043 0.13983898 -0.63067377 0.3640539
-0.4346112 0.12848493 1.1396719 1.178598 0.044707462 0.068133496 -1.0268553 -0.7273202
-0.60605973 0.068713605 0.97500646 1.256343 -0.13373053 0.2401018 -0.992655 -1.2556757
-0.33271274 -0.21755505 -0.86259425 -0.2895456 0.48376724 -0.37233865 -0.9610823 -0.5118896
-0.36017707 -0.025269264 0.2212233 0.9072161 -0.34386224 -0.11637815 -1.2772945 -0.77839833
-0.52552533 -0.57678974 0.31423333 -0.07783296 -0.147902 -0.12228529 -1.2147017 -1.2281772
0.6411725 -0.12071156 0.3289012 0.12617913 -0.591861 -0.014006321 1.0479974 1.289934
0.28819126 0.16703719 -0.5684625 0.33488154 0.29509187 0.6255397 -0.5914047 0.25580642
-0.23598137 -0.25723806 1.1642792 0.7431115 -0.5387124 0.3362954 0.71460193 0.26203963
0.4490915 -0.057741884 -1.0724341 -0.6863509 0.36386785 0.046150103 0.5991815 0.38135952
-0.33846134 -0.37686402 -1.0304465 -0.7989822 -0.6246643 -0.6256826 0.68390787 -0.15853415
0.16023108 0.24780266 -0.7518545 -0.9193579 -0.46909624 0.18670896 1.5859194 1.2538539
0.10958461 0.004412467 0.3544989 0.40097088 0.55738163 0.03757238 0.4579052 0.10167989
0.6215442 -0.34005332 -0.26968336 0.30613604 0.3472237 0.45310366 -0.7391507 0.24268436
0.2879133 0.43890116 -0.08853632 0.4591932 -0.25764918 -0.35822776 1.1574565 0.33914408
0.26961735 0.43342406 -0.6734914 -1.165649 0.3428015 -0.07250229 -1.5269603 -1.3048676
-0.24031807 -0.110327415 0.90555215 0.24154986 -0.55455506 0.3219435 0.4023219 0.91433924
-0.3655822 -0.14699548 -0.85830516 -0.41492236 -0.33446303 -0.35278517 1.3131434 1.1667
0.06243319 0.32964846 -0.4835515 0.25079343 0.023592152 -0.05403548 -1.2762678 -0.72061133
-0.30275345 0.4863289 -1.0710665 -0.6616242 0.33364996 0.30939806 0.014640257 0.37817645
0.43165046 0.37380934 -1.4890883 -1.14345 -0.59154993 0.074957624 0.12215776 -0.22924529
-0.37655962 0.32615912 1.5910726 1.226898 0.058563367 -0.2898963 -1.1687956 -0.8090028
-0.36203465 -0.2681502 -0.2740276 -0.37276167 0.19186744 0.069293596 0.8080335 0.79076236
0.2324706 -0.32246217 1.4891562 1.4283636 0.5877619 0.44953263 -0.52227753 0.1453168

actor.pi_net.fcs.0.bias f4 [64]
00000000: 5a5d 883e 225e a63d d7b9 9a3e b629 dbbc
00000010: 5e1d 5e3d 3d7f 98be 5ff7 063e 1b80 05be
00000020: 6141 0abe 4c62 063c c6d7 223d 49b3 1cbe
00000030: 4617 773c 23b4 b2be 0894 ca3d 8455 ebbc
00000040: a3bd e3bb a1d3 0b3e 519d b8be b870 383d
00000050: 8d9f 99be 5d8d 77be df2e 23bb 96fe a23c
00000060: ed0c 8ebd 2d9a 0b3e 3a1e 93be d099 1d3d
00000070: fb54 693d 1812 96bd 4082 b13d 9a84 ae3e
00000080: d29c 57be 1263 30bd 58e4 0ebb 72fd 383c
00000090: ad39 e4bd 92cf 9fbe 51ab 69be 6be9 1e3e
000000a0: 2151 85bb fcae 823c 2e98 f33d 4a92 cbbd
000000b0: 5452 5bbc 2e86 3e3e b1d1 3abd d609 f83d
000000c0: 9ca6 473e 2dc3 9ebe 12e9 ca3e 09b9 953e
000000d0: 3128 593e ca71 733e 2e8d 9a3d 0e40 f53c
000000e0: 2de6 873e 2920 14bd bcdb 2cbe 0df2 b53b
000000f0: a58e 90bc 7de5 e9bc b0a8 d1bd 27c1 463e
0.26633722 0.08123423 0.3021991 -0.026753288 0.054227225 -0.29784575 0.13180302 -0.1303715
-0.13501503 0.008202147 0.03975656 -0.15302767 0.015081232 -0.34903058 0.09891516 -0.0287273
-0.0069500967 0.13654949 -0.36057523 0.045029372 -0.3000454 -0.2417502 -0.0024899764 0.019896787
-0.06936059 0.13633032 -0.28734 0.038476765 0.05696581 -0.0732767 0.08667421 0.34085542
-0.21055916 -0.04306323 -0.0021803584 0.011290895 -0.11143813 -0.3121305 -0.22819258 0.1551873
-0.004068509 0.01595258 0.1189426 -0.09940012 -0.013386328 0.18605873 -0.045610134 0.12111251
0.1949715 -0.31008282 0.39630944 0.29242733 0.21206738 0.23773876 0.07546459 0.02993777
0.26542798 -0.036163483 -0.16880697 0.0055525363 -0.017646143 -0.028551811 -0.10237253 0.1940962

actor.pi_net.fcs.1.weight f4 [64, 64]
00000000: 33bd 783d 8133 323e dacb 20bd 3ac7 013d
00000010: 98e4 fcbd 95dd 293d 9158 113e b183 6cbd
00000020: b395 dcbd 22df a5bb b071 f53d 6697 263d
00000030: f54e 433e 9310 0a3c b140 0f3e 3de7 073d
00000040: 7a7c 4ebe ecf8 c2bd 5d00 343d 8373 d1bc
00000050: 300f 72bb d576 843d 13de 02bd 4099 6fbd
00000060: 6ebe 86bd 3349 ecbc 9945 013e 648f 18be
00000070: 697e 443d fbf2 dd3d a1eb 3abc 79dd 01be
00000080: 3b42 00be 7186 40bd ed9f 453c 75f2 bcbd
00000090: 7a8f 1f3d 2121 f4bc 0074 ad3d 8849 913d
000000a0: 71a2 06be f431 8bbd c6ce 023d 68f6 33be
000000b0: 0b4b e0bd 6cb8 12bd 9821 e9bc 49aa 53be
000000c0: 5223 c7bd 7ee9 ccbd ab9a 4b3d 3c55 033d
000000d0: 772b 07bd 920e cfbc 607c 03bd 50b9 40be
000000e0: 3e1b db3d c48d 963d 4d1d 453d d4bc 3dbd
000000f0: 1fb1 6c3c 8634 58be 0c04 5a3e 2e6a 0abe
00000100: 30e0 923d 9c02 5dbb 6850 4a3d fe12 9dbd
00000110: 3e62 d1bd 7156 eebd ba0a d53d f5cb 003d
00000120: cee3 51bd 7cff f83a 4450 2c3d ffb1 f8bd
00000130: 8035 143d 2961 7e3d 6b93 f13c 7f33 1fbd
00000140: dcb0 d8bb ec0f 0abc 1e13 c83d fd1e b43d
00000150: d199 f43d e2ad 4cbd 31db 87bb 8548 1abd
00000160: 8f44 55be 1361 73bd 9d8a 0cbd 49fc b4bd
00000170: 60d0 c63d 648f 123d 8bfb 4bbd 6c33 35bd
00000180: c6a5 9abd c3ea e13b e949 c73d e6ed 4a3d
00000190: f74c b73c 936f 71bc cb73 863c ad2e de3d
000001a0: da23 223d 9349 f4bd 39ea 3c3b d43d 8cbc
000001b0: 5a2d ab3d f3eb b0bd 05e6 793b 1db5 17be
000001c0: c2f3 9ebd 81b0 01be fb50 23bc a710 9fbc
000001d0: 2573 65bd 5fd4 ae3d ba3c b8bd accd 03be
000001e0: 972e 81bd 9069 fc3c ae11 8c3d 4a61 c03d
000001f0: 88a1 213e 9330 67bd b3a4 e13d 21c2 41bd
00000200: b3da c23d 2e0e 99bc 7554 3bbd 3fbb 99bb
00000210: ceb3 013d a63a 003d 6a27 223d 93e2 00bc
00000220: 1ad6 1c3e 12e6 0e3e d7ef acbd d0df 85bd
00000230: fc85 c0bd 8801 993d 112b 553d 0564 983d
00000240: 8616 543d 29a4 0f3e e7c2 d33c 74a3 33bd
00000250: 996f 27bd 341d d5bd 6f54 483c 227a ef3c
00000260: 9a41 443d d5d7 ddbd 158d a0bd fa72 943d
00000270: 9f10 ce3d 1cd8 68bd 7e8e 683e 3154 a23d
00000280: e370 c0bd 81ed e03c f15e 97bd fd37 df3c
00000290: 8c68 bb3d b9d5 f5bd 56d3 643d 322f 28bc
000002a0: 584e 083e a56a 263e d429 bc3d 830a c33d
000002b0: c382 063e 9eef a53d 7ad7 933d 09db 813e
000002c0: e468 ad3c 47a4 7f3d 7dea 0abe 2669 8fbc
000002d0: ca86 d13d 5989 7b3c eded 8a3d d0a5 ec3d
000002e0: 4fda 97bb 8a86 1cbd 89be c4bd c960 cdbd
000002f0: 55be 6fbe 7829 8b3d 7b67 49be c4e4 14bc
00000300: f44a b2bd aee7 403d 0623 a7bd d1c7 19be
00000310: 5b56 b73c 0469 babc f201 dcbd db4c d5bd
00000320: 9df7 68bd 4f99 bd3d d7f5 f4bd dc7f 6abd
00000330: c3b7 b9bd a2d2 833b 4767 d6bd 5579 2e3d
00000340: 9f00 553e d4ab 80bd 0188 debd 7562 c8bd
00000350: 9ac6 843d 76d2 073e 8319 6e3d fffd c4bd
00000360: 0b16 703e 94f2 e8bd c204 0abe ec44 673d
00000370: 9c2c 103d 00ae e8bd 948f 563c 20c3 863c
00000380: b2e9 d93c 7be1 b53d b553 91bd ea22 1b3e
00000390: 5cf0 06be d49b 3bbe 8f46 2a3d e8a5 11be
000003a0: 0a9e 853d 637b c23d 63a7 0d3e 0322 f93d
000003b0: 8d13 7a3d c506 10bc d7f7 1d3c 8c64 233e
000003c0: 4275 693d 73e3 ac3c 5ac1 123d b313 f7bc
000003d0: ea24 fe3d a3ee c1bc caa1 693d adb7 643e
000003e0: de45 043e 85e7 35be 5325 f5bc 8a32 97bd
000003f0: 36a5 4abe 271c 473e c3ea 99be 78c1 423e
0.06072731 0.1740246 -0.039256908 0.031684138 -0.12348288 0.041471083 0.14193942 -0.05774278
-0.1077074 -0.005062 0.11984575 0.04067173 0.19073088 0.008426803 0.13989522 0.03317951
-0.20164672 -0.09520134 0.04394566 -0.025567776 -0.0036935322 0.06467978 -0.031950068 -0.05849576
-0.0657929 -0.028843498 0.12624206 -0.14898449 0.047972117 0.108373605 -0.011408717 -0.12682141
-0.12525265 -0.047003213 0.012062055 -0.092259325 0.03895519 -0.029800953 0.08469391 0.07094103
-0.13147904 -0.06796637 0.031935476 -0.17574465 -0.10951813 -0.03582041 -0.028458402 -0.20670427
-0.09723534 -0.100054726 0.04970805 0.032063708 -0.033000436 -0.025275502 -0.032101035 -0.18820691
0.106985554 0.073512584 0.048123647 -0.04632266 0.014446526 -0.21113786 0.21290606 -0.13517067
0.071716666 -0.003372348 0.049393088 -0.07669638 -0.10223816 -0.11637581 0.104024366 0.03144451
-0.051242642 0.0018997039 0.042068735 -0.12143325 0.036183834 0.062104378 0.02948924 -0.03886747
-0.00661288 -0.008426648 0.09769271 0.08794973 0.11943401 -0.049970515 -0.0041460027 -0.037666816
-0.20826934 -0.05941875 -0.03431188 -0.08837182 0.09707713 0.03578128 -0.049800437 -0.044238493
-0.0755115 0.006894441 0.09730894 0.049543284 0.022375567 -0.014736074 0.016412636 0.108487464
0.039584972 -0.11928096 0.002882613 -0.017119326 0.083582595 -0.08638754 0.0038131487 -0.14815183
-0.07761337 -0.12664987 -0.009968038 -0.01941712 -0.056018014 0.085366 -0.08995958 -0.12871426
-0.063077144 0.030812055 0.0683931 0.093935564 0.15784276 -0.05644281 0.11017742 -0.047304276
0.0951437 -0.01868352 -0.04573484 -0.004691511 0.031665616 0.03130593 0.03958837 -0.0078665195
0.15316048 0.13954952 -0.08444183 -0.065368295 -0.094005555 0.07470995 0.052043024 0.07440952
0.051779293 0.14027466 0.025849773 -0.043857053 -0.040877912 -0.10405961 0.012227162 0.029233042
0.047914125 -0.10832182 -0.07839409 0.072484925 0.10061764 -0.056846723 0.22710606 0.079262145
-0.093965314 0.027457 -0.073911555 0.027248377 0.091508 -0.12003655 0.05586561 -0.0102651585
0.13311136 0.16251619 0.091876656 0.09523489 0.13135819 0.08102344 0.07218833 0.25362423
0.02116818 0.062412526 -0.13566013 -0.017506193 0.10230787 0.01535257 0.06783662 0.11555064
-0.0046341787 -0.038214244 -0.09606654 -0.10028226 -0.2341245 0.06795019 -0.19668381 -0.009087745
-0.087057024 0.047095947 -0.08160977 -0.1501763 0.022380045 -0.022755153 -0.107425585 -0.1041505
-0.056876767 0.09257757 -0.11960953 -0.057250842 -0.09068253 0.004022912 -0.10468917 0.04259618
0.20801018 -0.062827736 -0.108657844 -0.09784404 0.06483193 0.13263878 0.0581298 -0.096187584
0.23445909 -0.11374393 -0.13478377 0.056462213 0.035198793 -0.11361313 0.013095755 0.016450465
0.026600692 0.088808976 -0.07096044 0.15150037 -0.13177627 -0.18321162 0.041571196 -0.14223444
0.06524284 0.094961904 0.13833384 0.1216469 0.0610538 -0.0087906765 0.009641609 0.15956324
0.05699659 0.02110455 0.035828926 -0.03016076 0.124093845 -0.023673361 0.05703906 0.22335692
0.12917277 -0.17764099 -0.029925024 -0.073826864 -0.19789585 0.19444333 -0.3006192 0.19019115

actor.pi_net.fcs.1.bias f4 [64]
00000000: 372b 04be adc6 083a c5b0 c03d de52 e93d
00000010: 6757 003d 9a1f 24bd b802 92bd d2eb 76bd
00000020: b620 2bbd ac7a 9cbd 7d64 9e3d 19f1 013b
00000030: 3bdf 653c 1dc2 c5bc af76 44bd 0a47 88bd
00000040: 0de1 2dbd 948c afba b536 8fbc f7f1 f93c
00000050: 5340 8b3d b9d7 a03d 7ee1 b7bd 7a37 1b3d
00000060: 8365 493d 3b5a 913d 8b95 7bbd 64e7 103d
00000070: 763f c53d 69dd a2bd 7f7f 24bd cb7f 45bd
00000080: 2a22 75bd 166e 13be 86d2 0f3d f15d c83c
00000090: e076 cb3d 6ab7 a6b8 e609 51bd 0411 e3bd
000000a0: 1fd2 5fbc 158a ac3d df8c 183d 14e3 c93c
000000b0: 70c7 d73d f826 b9bd e80e cdbd d8a9 813d
000000c0: b2af b8bd 1f34 99bd 0fef 2bbb ea52 81bd
000000d0: 978a 8a3d 84dc 623c 7efc ee3d 07b8 80bd
000000e0: 2e2a 83bd 846c 4b3d 1a24 933d 0193 453c
000000f0: e6c9 afbc 2c36 803d 7414 eb3c 74b5 8ebd
-0.1290711 0.0005217593 0.09408716 0.11392759 0.031333353 -0.0400692 -0.07129425 -0.06028349
-0.041779242 -0.07640585 0.0773401 0.0019827543 0.014030273 -0.024140412 -0.047964748 -0.066541746
-0.042450953 -0.0013393336 -0.017482141 0.030510886 0.06799378 0.07853646 -0.08978556 0.037894703
0.049169075 0.07097288 -0.061421912 0.03537692 0.09631245 -0.07952387 -0.040160652 -0.048217576
-0.059847035 -0.14397463 0.03511288 0.024458857 0.09934783 -7.94966e-05 -0.05103483 -0.1108723
-0.013660937 0.084247746 0.03724372 0.024644412 0.105360866 -0.09040636 -0.10012609 0.06331223
-0.09017886 -0.074806444 -0.002623502 -0.06314643 0.06764715 0.01384652 0.11669253 -0.062851004
-0.064045295 0.049664035 0.0718462 0.012058974 -0.021458577 0.062603325 0.028696276 -0.06968203

actor.pi_net.fcs.2.weight f4 [1, 64]
00000000: eb93 b13d 0974 ae3a 5cf0 87bd a0bd ecbd
00000010: b0e5 b43d b0ee d5bd 63bc 913d 1e9e 623d
00000020: 846f 4e3d 9f83 c83d 31d9 a539 835f b8bc
00000030: 0b2a 3d3d d406 1dbe d29d c03d 7520 c33d
00000040: d7e6 86ba 45e4 de3d b824 213d 4190 d9bd
00000050: 0459 f0b9 2093 04be a7d6 0e3e 4faa 373a
00000060: 89d2 c4b9 c09b b13e 4106 d3ba ddfb 9ebc
00000070: 30e0 bbbd a569 67ba bf4f 65ba 0f27 34bd
00000080: 247e 5eba 866e c23d 93ba d1bd b144 f93e
00000090: 4b7c b8bd 5c39 d83e f1ae e43d 1407 cc3d
000000a0: 3e98 31ba dd3b 4c3d c5c6 93bd 2791 0d3e
000000b0: b545 afbd 273c 1a3e 8715 d63b c7df c43e
000000c0: bc57 8bba bdf5 cdbb 6ca7 e23d 98d5 1cba
000000d0: 0af3 ed3d c89b ff3e f42e b8b7 78a6 a2bd
000000e0: 7d30 a33a 9fae 173f 4d9d 6c38 2535 27be
000000f0: 8257 963a 8775 c439 7dad 193e 41b2 1c3e
0.08670791 0.0013309728 -0.06637642 -0.115596056 0.08832872 -0.10445917 0.0711601 0.055326574
0.05039932 0.0979073 0.00031633073 -0.022506481 0.046182673 -0.15334636 0.09405102 0.09527675
-0.0010292184 0.10883383 0.03934166 -0.106232174 -0.0004584269 -0.12946749 0.13949071 0.0007006274
-0.00037540894 0.3468914 -0.0016099886 -0.019407207 -0.0917362 -0.0008827693 -0.000874754 -0.04398256
-0.00084874243 0.09493737 -0.10240664 0.4868522 -0.09008082 0.42231262 0.1116618 0.099622875
-0.00067747 0.049861778 -0.07215647 0.13824902 -0.085582174 0.15062009 0.006533328 0.3845198
-0.0010631005 -0.006285398 0.110670894 -0.00059827557 0.11618622 0.4992354 -2.1956374e-05 -0.07941908
0.0012450364 0.59250826 5.6413282e-05 -0.16328867 0.0011470171 0.00037471598 0.15007587 0.15302373

critic.v_net.fcs.0.weight f4 [64, 4]
00000000: 65b3 af3f 4c51 31bf c201 7ac0 e584 233e
00000010: 752f ecc0 ac11 f6bf b871 2bc0 e87f 8dbf
00000020: f664 a8c0 08f3 02c0 64ae 12bf a78c b7bf
00000030: ec9a 1d40 2f5a e5bd b81e d1bf 1bd2 3dc0
00000040: e939 6bbe 90fc 083f 34b5 7340 785e a43f
00000050: 0569 cec0 0895 5abf c834 a8c0 156b 893f
00000060: f962 9c40 ea22 1240 2395 8f40 3e8f 1b3e
00000070: ed6f e640 d49f 893f 8970 6340 6176 353f
00000080: 153e 6bbf 2177 3840 9b19 2b40 491f 1240
00000090: a8fa a0bf 2a1e cb3f 0a19 2f40 c715 3a40
000000a0: ad86 a93f 8c0b 9bbf 69c0 07c0 2046 4bbf
000000b0: 0d20 5340 15dc 3940 2e63 1740 78ee fcbf
000000c0: d048 e2bf a15d 87bf 7e17 3ec0 ee77 603f
000000d0: 5661 86c0 6c44 71be cd70 7a40 45ce 0340
000000e0: 5a84 2141 837b 5b3e b3c3 2d3f 07c5 f43f
000000f0: 296e 8740 82e2 92c0 0996 c53f f9ba 72bf
00000100: 514b e3c0 7f73 23c0 c070 11c0 f005 fcbf
00000110: 6a8a cf3f b6c0 103f 4eb2 04c0 70c0 ddbf
00000120: d696 e2c0 0edc 9abf afda 90c0 0e13 4d3e
00000130: 5e27 d0c0 d454 57bf f57b 8b3f 9b90 56c0
00000140: a01a 48c0 faa6 1741 6b98 1e40 f42e 463f
00000150: 100d 4940 6a85 fabe 34c4 cec0 37fb 6cbf
00000160: 96b7 48bf ce23 0cbf b007 bac0 6f23 4fbf
00000170: f5dc c540 ba5e 63bf 4b1b 2040 a443 263f
00000180: 8781 77bf 03cc 51bf 597e 53c0 fedd 06c0
00000190: 8fed 273e d97a 44bf d4aa 0bc0 09c9 6abe
000001a0: 1e0b 91c0 a73a 9dbf b271 b3c0 7783 d63d
000001b0: 38ca 8f3f 8e45 32c0 1f42 d23f c163 8bc0
000001c0: cd46 92bf 6d2d 51bf ed32 8bc0 8c92 233f
000001d0: ba40 aebf c212 653e 885a c63e 9176 85c0
000001e0: e7b5 e4c0 01d1 28c0 d492 2240 b153 883f
000001f0: 9378 b8c0 fdb3 4fbf ca40 84c0 c6b2 e93e
00000200: f4bf d0c0 37d9 1dc0 be0a 50c0 2f06 a3be
00000210: 8981 b140 8238 c53f c52a 5f40 b714 583c
00000220: bf22 c1bf ae02 c8bd 2199 e040 5007 ef3d
00000230: e89e fac0 ba22 eabd 7d45 7bc0 e658 4d3e
00000240: af6d 2abf d1a7 47bf 4797 80c0 a36f 353f
00000250: b98d 83c0 f861 93bf e10a b0c0 34c8 bcbe
00000260: e925 c9bf a995 113f 0115 d340 12ef 92bd
00000270: a986 a1c0 f340 4dc0 5f73 97c0 9e87 a4bf
00000280: f976 e540 6ab8 56bf d25a 45bf 0468 3340
00000290: d21b df40 1acb 1d3f dbcd 8640 54a2 b9be
000002a0: a838 873f 8765 633e f26b 2c3f 27b1 533f
000002b0: 1ff3 6a40 2fe4 83c0 ef6b 60bf 7815 8ec0
000002c0: d5ed 0ec0 04f4 45bf e5e9 4dc0 1c36 10bf
000002d0: 9742 5bbf 4cc1 31bf 2de4 87c0 a6f5 8ebf
000002e0: 814c d9c0 d56d 4cbf 03ae 6cc0 6fdd efbd
000002f0: a1ac 0b40 b80a 2f3f 7e20 8040 9d76 253f
00000300: e857 9140 88d4 e83f 18ec 1c3f b8cb 2840
00000310: 1d5d ab3f 27e6 063f b591 21c0 65e1 1ec0
00000320: 542b debf f5a7 50bf 6a32 a8bf 7d08 30bf
00000330: 9e0b 3740 d3df b540 4958 6140 ff7b 513f
00000340: e3eb e0be e569 f53f 6921 6d40 ea6c b73f
00000350: 2e0f b9c0 a257 70c0 8f51 09c0 5068 b2bf
00000360: 32c0 da3f 808d 5d3f d3cd 1ac0 83b1 0040
00000370: 9c3e 1b40 4792 eb3d d36d 2140 90ea 763f
00000380: bcfb 82bf 6aa8 d5bf 54a7 ec3f 637d 3ac0
00000390: da66 ab3f ef8e 2b3f ce01 9740 046f 923e
000003a0: b4a2 423f 3cb2 6a3f 706b d43f 433c f63f
000003b0: 63bb 6cc0 1c99 bd40 be0e 28c0 30e3 bebf
000003c0: 15c9 0c41 bf92 42be b160 753f a96f 1340
000003d0: 9130 86be 2096 15bf 0ec5 a0bf b557 cbbe
000003e0: c6bd 3ac0 41d8 b5bf 99ab 18bf 8c56 dbbf
000003f0: 9433 a7c0 37db e8bf 9206 82c0 fccd 96bf
1.3726622 -0.69264674 -3.9063573 0.15968664 -7.380793 -1.9224143 -2.6788158 -1.1054659
-5.2623243 -2.0460835 -0.5729735 -1.4339799 2.4625807 -0.11198842 -1.63375 -2.9659488
-0.2297131 0.5351038 3.8079348 1.284133 -6.45032 -0.85383654 -5.256443 1.0735804
4.8870816 2.283381 4.486955 0.15191361 7.201163 1.0751901 3.5537436 0.70883757
-0.91891605 2.882271 2.6734378 2.2831595 -1.2576494 1.586858 2.7359033 2.9075792
1.3244225 -1.2112899 -2.1211188 -0.7940388 3.2988312 2.9040577 2.3654284 -1.9760275
-1.7678471 -1.0575448 -2.9701838 0.87683 -4.199382 -0.23561257 3.9131348 2.0594647
10.094812 0.21433835 0.6787674 1.9122628 4.2321973 -4.59015 1.5436412 -0.9481655
-7.102944 -2.5539243 -2.2725067 -1.9689312 1.6214116 0.56544054 -2.0733829 -1.7324352
-7.0809126 -1.2098405 -4.526695 0.200268 -6.5048056 -0.8411381 1.0897204 -3.352576
-3.126625 9.478266 2.4780529 0.77415395 3.1414223 -0.48929912 -6.4614506 -0.92570823
-0.7840513 -0.54742134 -5.8134384 -0.8091344 6.1832223 -0.88816416 2.5016658 0.6494696
-0.9668202 -0.8195192 -3.3045866 -2.1072993 0.16399215 -0.7674995 -2.1823015 -0.22928251
-4.532607 -1.2283524 -5.607629 0.10474294 1.1233587 -2.7854953 1.6426429 -4.355927
-1.1427857 -0.8170994 -4.3499665 0.6389549 -1.3613503 0.22370437 0.38740945 -4.1707234
-7.147205 -2.6377566 2.5402117 1.065054 -5.7647185 -0.81134015 -4.132909 0.45644206
-6.523432 -2.4663827 -3.2506557 -0.31840655 5.5470624 1.540787 3.4869854 0.013188533
-1.5088729 -0.09766136 7.0186925 0.116713166 -7.8318977 -0.11432405 -3.9261162 0.20053443
-0.66573614 -0.7799044 -4.0184665 0.7087347 -4.11105 -1.1514273 -5.501328 -0.36871493
-1.5714694 0.5686899 6.596314 -0.07174505 -5.047688 -3.2070892 -4.7328334 -1.2853887
7.170773 -0.83875144 -0.77091706 2.8032236 6.972146 0.61638033 4.212629 -0.3625666
1.0564165 0.22206698 0.6735221 0.8269219 3.671089 -4.1216044 -0.87664694 -4.4401207
-2.233266 -0.77325463 -3.2174008 -0.56332564 -0.85648483 -0.6943557 -4.2466035 -1.1168716
-6.790589 -0.7985509 -3.6981208 -0.11712157 2.1824114 0.6837573 4.0039663 0.64634115
4.5419807 1.8189859 0.6129775 2.637434 1.3387791 0.52694935 -2.5245183 -2.482507
-1.7356973 -0.8150628 -1.3140385 -0.6876295 2.860084 5.6835723 3.5210135 0.8182983
-0.43929967 1.9172941 3.7051642 1.4330113 -5.783103 -3.7553487 -2.145603 -1.3938084
1.7089903 0.86544037 -2.4188125 2.0108345 2.4256964 0.115025096 2.5223281 0.96451664
-1.0233073 -1.6692021 1.8488564 -2.913903 1.3390763 0.67014974 4.7189703 0.28600323
0.76029515 0.91678214 1.6595287 1.923714 -3.6989372 5.92494 -2.6258998 -1.4913082
8.799092 -0.19001292 0.95850664 2.3036902 -0.26208928 -0.584322 -1.2560136 -0.39715353
-2.9178329 -1.420662 -0.5963684 -1.7135787 -5.225046 -1.8191899 -4.063302 -1.1781611

critic.v_net.fcs.0.bias f4 [64]
00000000: 62a6 36be 404e a83d 7721 f63d 2841 10be
00000010: 0257 f13e 571d 2d3d 76aa 29be 8a99 b0bd
00000020: 9a08 f63d 87bb 06be 256e afbd dd89 773e
00000030: 1483 d33b 34f0 7abe 36f5 de3a ba21 2abe
00000040: 10e2 e43d d5aa 4fbe bf38 d53d ff3d 163e
00000050: 9314 d03b c069 003e 60e6 d8bd 28f1 a53b
00000060: afcd b43d 1ef2 46be 9f9a fc3d 93aa b83a
00000070: 036e afbe 7cc3 09bd 2628 f5bd 4931 f8bc
00000080: b262 68bd 364e 2abd 6942 27bd 41b9 9bb9
00000090: 8260 ccbe 891e 573c 59e7 093d 6720 05bd
000000a0: 043c 1ebe 4887 d2bc 709f 9dbe cf75 373b
000000b0: fce5 5cbd 7115 a0be 6594 bf3d 6693 273e
000000c0: f9ff eabd 6e19 a8be 1fe5 fe3e 35ba 4e3e
000000d0: f92f 80bb aed3 06be 1242 b6bc 9532 9f3e
000000e0: 9bf9 c03d a45a 5c3e f7fc 013e 0d96 6c3e
000000f0: 8181 a2bd 23d6 9ebe 1d81 f53d 4717 ee3d
-0.17836908 0.0821805 0.12018102 -0.14087355 0.47136694 0.04226431 -0.16568932 -0.08623035
0.12013359 -0.13157474 -0.0856593 0.24173684 0.0064548347 -0.24505693 0.0017010334 -0.16614428
0.111759305 -0.20280011 0.10411214 0.14672087 0.006350109 0.1254034 -0.105908155 0.0050641485
0.088282935 -0.19428298 0.12334179 0.0014088921 -0.3426362 -0.033633694 -0.11970548 -0.030296938
-0.05673475 -0.041578494 -0.040834818 -0.0002970193 -0.3991738 0.013129839 0.033667896 -0.032501604
-0.15452582 -0.025699273 -0.30785704 0.0027993803 -0.053930268 -0.31266358 0.09354476 0.16364822
-0.11474604 -0.328319 0.4978418 0.2018822 -0.003911969 -0.13166687 -0.022248302 0.3109328
0.094226085 0.21518952 0.12694155 0.23104115 -0.07934857 -0.31022748 0.11987517 0.116255336

critic.v_net.fcs.1.weight f4 [64, 64]
00000000: 7046 a03e 7f4d dbbe 545b 013f e9dd ebbd
00000010: 16b4 963e 634b 11c0 c0cb ab3e e3b1 3740
00000020: 96f2 eabc c25f ae3e 4b49 1a3e e63a f43d
00000030: 9def 1d3e 2168 763e 66a8 e43f 90b9 6f3f
00000040: da5e 82bf ca3c a13d fcc6 1ac0 257b eebf
00000050: aeca 523e dbaa 863f f009 ff3e 6347 1340
00000060: 9e58 32bf 75b8 2d3e 2a8a 15bf 16b9 af3f
00000070: d658 493e c539 693d a262 57bf cdeb 15c0
00000080: 8226 cebf 7bdb f63f b613 f2be 393c 9dbf
00000090: d4ed 073e 06d1 e2bd d7f0 70bf 490d 08be
000000a0: 0996 0240 cdb2 4540 4776 313f 5048 b33e
000000b0: 6836 90bf 8d6f 4cbe 1d52 7ac0 1c4c f43e
000000c0: 0711 4f3f 03cf 493e c5c6 f5be 3684 3f3f
000000d0: 76c2 0fbe 181e 4bbe e607 8cbe 1e8e 993e
000000e0: 5cbb 073f 5b2f b7bc cbdb 7d3e 4934 f5be
000000f0: 4341 d43f f890 313e ff1d 1dbf 90e8 c6be
00000100: c3d5 5b3d 5fc6 13c0 3500 82bf 19cd 593f
00000110: e421 d43e 81ac 14c0 539d ad3f ffb8 0240
00000120: 7dcf b13d d98c 27bf 5313 4e3d ae1a 163f
00000130: b53f 67be 8384 85be 5ce2 be3f c1fa a53f
00000140: 76b0 bebf 5dd3 903f 9023 e9bf a457 7dbf
00000150: bd52 073f da9c c1bd b16a bdbf 91ef 9e3f
00000160: 3c3f 12bf bfd1 d63c 108d 14c0 d1a7 f23d
00000170: c070 0d3e 430a 9abd 904b 98bf 8cad bebf
00000180: 5365 10be fa12 963f bf96 603f 897b 47c0
00000190: 885e b23e d5f8 bbbf 306a 273f 7a09 25bf
000001a0: f957 123f 7834 0440 9f5c 31be 146c 2dbf
000001b0: 2812 07bf f281 6bbe 9968 e1bf dead d13e
000001c0: 9017 af3f 6c74 0f3f 4092 8abe a59b 753e
000001d0: f5d5 99bd 9aa3 34bf 5781 603d 1449 053f
000001e0: 4f8e 623e d193 743f 32ef b03e 142f 753d
000001f0: d1c6 a33f b213 bd3c b99e abbe 0a33 ccbf
00000200: 4137 57be c5db 993f 4fe0 6fbd 043a 50bf
00000210: bd13 793f 18ff 1e3f b581 b7bf b6c7 943c
00000220: 96e0 5f3f e678 563f 3469 1ebf f711 203e
00000230: 926c 803e 9304 30bd ea37 88bf d637 d4bf
00000240: 4e99 673f 14ee e7bd b606 153f 9fe0 ff3e
00000250: cfeb 033f e22a 87be 1424 103f bb91 ecbf
00000260: c9d0 8abf b3ae b1be b64f a33f 9f1a f1bf
00000270: f7d4 eb3d 1feb 73bf 6d06 6e3e 0e8d 88bf
00000280: 4183 debe 83c8 093f aa6e 54bf 8dfa f73f
00000290: b1f0 28bd aff5 b93f 31cc 8cbe 5c8c 7b3f
000002a0: 5f61 09bf fef1 8fbf f68b 93be 09a5 9ebf
000002b0: 2803 90bf a9c9 9abe 221e 08bf 41fe 343f
000002c0: 2a74 2d3f c1e7 96be 851c a03d 5c31 2c3e
000002d0: 2b43 433f 693a 4bbe 538e 573f b079 553e
000002e0: 893d 93bf 3e6c 953d bfc5 403f 0fea 983f
000002f0: 9770 4bbf ffba 01bf d1f7 d3be 785c 4c3f
00000300: 0364 6dbf d682 afbc b222 ae3a d22c cebf
00000310: c43d 1c40 7fdf d4bd 0516 7bbd c813 9b3e
00000320: a3c1 c13e 8fc0 d5be 29a6 45bf 0968 ecbd
00000330: 8b26 17bf d773 923f db3e d5be 9bd3 bdbf
00000340: 8d7e b5be 3356 29bf 7a44 643d 3fff 0ebe
00000350: ff4e 043f 3acb 64bf ea46 aabf d173 3fbf
00000360: f300 f5bf 0734 6fbf 21ea ab3d 1b31 cabe
00000370: c033 53bf 324e 7abf 583e a83e 29c6 44bf
00000380: 2f9f 32bf 91cc 603f 64d3 c03f cfe5 553f
00000390: 80da 62bf 7d8a 4bbe 03a6 1c3f ae8a cdbe
000003a0: d70e 6abe e0ad 75be c390 39bf 7124 b6bf
000003b0: a66e 5cc0 43cc 8fbf a416 bfbe bc57 5a40
000003c0: 1e7e 0240 7efd 82bf c00d 113f fa1c 0f3f
000003d0: 9cb1 ca3f 8107 f7bd 296c cf3e f318 3a3f
000003e0: 1d76 6c3e fa78 c33f 0815 ba3f 7c95 8f3e
000003f0: 0554 eebd fe5f 57bf ce61 0b3e 5a8e 4cbe
0.3130374 -0.42832562 0.5052998 -0.115169354 0.2943427 -2.2702262 0.33553886 2.8702323
-0.028680127 0.34057432 0.15067022 0.119252965 0.15423436 0.2406316 1.7863891 0.9364252
-1.0185196 0.07872923 -2.418395 -1.8631331 0.20585129 1.0520891 0.4981227 2.301232
-0.6966647 0.16964896 -0.58413947 1.3728359 0.19662794 0.05693986 -0.84134877 -2.3425171
-1.6105502 1.928573 -0.47280663 -1.2284003 0.13274318 -0.11075024 -0.9411749 -0.13286318
2.0404074 3.0890381 0.693211 0.35016108 -1.1266603 -0.19964428 -3.9112618 0.47714317
0.80885357 0.19707875 -0.48003212 0.7481111 -0.14039025 -0.19835699 -0.27349776 0.2999124
0.5302026 -0.022361448 0.24790876 -0.47891453 1.6582416 0.17340457 -0.61373895 -0.38849306
0.053670656 -2.3089826 -1.0156313 0.8507858 0.41432106 -2.3230288 1.3563637 2.0425413
0.086821534 -0.6544929 0.050311398 0.5863446 -0.22582896 -0.2607766 1.4912829 1.2967149
-1.4897602 1.1314503 -1.8213978 -0.98961854 0.52860624 -0.09453745 -1.4798185 1.241686
-0.5712774 0.026223062 -2.3211098 0.11848415 0.13812542 -0.075214885 -1.189806 -1.4896712
-0.14101152 1.1724541 0.8773002 -3.116915 0.34837747 -1.4685313 0.65396404 -0.64467585
0.57165486 2.0657024 -0.17320488 -0.6774304 -0.5276208 -0.22998789 -1.7610046 0.40952963
1.3679066 0.5603702 -0.27064705 0.23985155 -0.07511512 -0.70562136 0.054810848 0.52064633
0.22124599 0.9553805 0.34557492 0.05985935 1.2795049 0.02308068 -0.33519533 -1.5953076
-0.21017171 1.2020193 -0.058563527 -0.81338525 0.97295743 0.6210799 -1.4336458 0.018161636
0.87452066 0.83778226 -0.6187928 0.15631853 0.25082833 -0.042973112 -1.0642064 -1.657954
0.904683 -0.11324707 0.58213365 0.4997606 0.5153169 -0.26399904 0.5630505 -1.8481973
-1.0844966 -0.34703597 1.2758701 -1.8836249 0.11515229 -0.9528064 0.23244639 -1.0668046
-0.43459514 0.5382158 -0.8298136 1.9373337 -0.041245166 1.4528102 -0.27499536 0.98261046
-0.536642 -1.1245725 -0.2881772 -1.2394115 -1.1250963 -0.3023198 -0.5317098 0.7070046
0.6775538 -0.2947369 0.0781794 0.16815704 0.76274365 -0.198465 0.84201545 0.20847201
-1.1503154 0.07296036 0.75301737 1.1946429 -0.79468673 -0.5067596 -0.41400006 0.79828596
-0.9273073 -0.021424692 0.0013285486 -1.6107428 2.4412699 -0.10394191 -0.061300296 0.3028853
0.37843046 -0.41748473 -0.77206665 -0.11543281 -0.59043187 1.1441602 -0.41649517 -1.4830202
-0.35448113 -0.66147155 0.055729367 -0.13964556 0.5168304 -0.893726 -1.3302891 -0.74786097
-1.9140915 -0.9343876 0.08394266 -0.3949059 -0.8250084 -0.97775567 0.32860065 -0.7686487
-0.69774145 0.87812144 1.5064511 0.83553785 -0.88614655 -0.19877048 0.61190814 -0.40144867
-0.22857223 -0.2399211 -0.72486514 -1.4229871 -3.4442534 -1.1234211 -0.3732196 3.411605
2.0389476 -1.023361 0.56661606 0.5590359 1.5835452 -0.12061978 0.40512207 0.7269432
0.23091932 1.5271294 1.4537668 0.28043735 -0.11637119 -0.8413085 0.13611528 -0.19976178

critic.v_net.fcs.1.bias f4 [64]
00000000: 4bc9 bdbe fcc0 12bf 1768 d33e eddd 2f3f
00000010: dec6 ab3c b91d d93c 31f3 75bf dfac 4a3f
00000020: 6b0b 17bd 86c9 fabe 0805 943f 7091 d1bd
00000030: 16cc 193e 6f97 d2be e5a8 97bf d015 79bf
00000040: 2576 91bd e96f 2dbe f7b1 e63e 942f 723f
00000050: 250c d5be d549 c6be 8b18 13be dbe8 c83d
00000060: 960a 953e 7437 133d ca6e 8bbf 2a5e e93d
00000070: 5a9d d7be 2a8c 03bf dd69 bc3c ebb0 103e
00000080: 1b85 443f 64a7 f9be 8854 27be e3f9 85be
00000090: 827d 5a3e bbd4 8e3e 4155 073e 7228 0e3f
000000a0: 3058 9dbe fdbd a9be 4c99 b53e da2e 1dbf
000000b0: 7892 50be 8d88 a3bc ac5a 79bf 1c50 883e
000000c0: 4c65 b7be f3e3 e93e 7a29 903e 3f8d d33f
000000d0: d27a 1abf f58e b6bc 0f87 8e3d 41b8 663f
000000e0: 6834 bc3f bb0d 863e 1514 693e eba8 a43d
000000f0: 917e 46bf 7989 d23e b3b7 983f 37fd ba3b
-0.37067637 -0.5732572 0.41290352 0.68698007 0.02096885 0.02650343 -0.96074206 0.7917003
-0.036876123 -0.48981875 1.1564035 -0.10232818 0.15019259 -0.4113116 -1.1848418 -0.9729891
-0.071026124 -0.16937222 0.4505765 0.9460385 -0.41610828 -0.38728204 -0.14364831 0.09810039
0.2910964 0.035941556 -1.0893185 0.113949135 -0.42112237 -0.5138575 0.022999698 0.14129989
0.767656 -0.4876052 -0.1634084 -0.2616721 0.2133694 0.27896675 0.13216116 0.55530465
-0.30731344 -0.33152762 0.3546852 -0.61399615 -0.20368373 -0.019962573 -0.9740398 0.2662362
-0.3581947 0.45681724 0.28156644 1.652748 -0.6034366 -0.022284964 0.06959354 0.901249
1.4703493 0.2618235 0.22761567 0.08040031 -0.77536875 0.41120508 1.193106 0.005706455

critic.v_net.fcs.2.weight f4 [1, 64]
00000000: 93fa 5a40 b62f 5740 21f3 04c0 1730 7ebf
00000010: 3765 ec3f e799 873f f08b 28c0 c8fd 93bf
00000020: cdd5 2c40 0f4b 2940 14aa e53f 5062 6140
00000030: d88c df3f 8fa1 c03f 1b27 eebf 01f9 dabf
00000040: d8f8 24c0 171b 4140 6f81 55c0 736e eb3f
00000050: ddc4 01c0 abec f9bf 4888 56c0 4a97 55c0
00000060: 01cc ea3f 2a32 57c0 581a fbbf 324e 4840
00000070: 535d 5540 19a5 2fc0 d1f3 1f40 0850 eb3f
00000080: e9e8 cc3f 28f3 1ec0 024c 1ec0 a00a 0dc0
00000090: cfe4 4c40 aa94 a6bf 4180 0540 c66a 2c40
000000a0: 9edd e83f 5aab b1bf 454e 2540 4e53 3ec0
000000b0: 688d 5040 c058 0540 21c0 e7bf 977c 1c40
000000c0: 3993 30c0 fa30 c3bf 0e21 c73f d4b7 0040
000000d0: 6e9f e7bf e3e4 ad3e 94b0 24c0 e645 f13f
000000e0: c174 e03f ff84 e2bf d3ac 41c0 cad4 c23f
000000f0: da2e 02c0 a8c4 2740 bc73 ec3f 548f 3440
3.4215438 3.362287 -2.0773394 -0.9929213 1.8468388 1.0593842 -2.633541 -1.1561823
2.7005494 2.6452062 1.7942529 3.5216255 1.7464857 1.5049304 -1.8605684 -1.710724
-2.5776882 3.0172784 -3.336025 1.8393081 -2.0276406 -1.952535 -3.352068 -3.337359
1.8343507 -3.3624368 -1.9617414 3.1297727 3.333821 -2.7444518 2.4992564 1.8383799
1.6008579 -2.483591 -2.4733891 -2.2037735 3.2014654 -1.3014119 2.085953 2.694017
1.8192632 -1.3880417 2.5829022 -2.9738345 3.2586308 2.0835419 -1.8105508 2.4451044
-2.7589858 -1.5249321 1.5556962 2.01122 -1.8095529 0.3396369 -2.5732775 1.8849456
1.753563 -1.7696837 -3.0261734 1.5221188 -2.0341096 2.621378 1.8472819 2.821248

exp_avg f4 [64, 4]
00000000: a9f3 0b3c e0fb f9bb 214d abbb 320d 2cbb
00000010: 4f9d e9bc 7c71 81bb dbb1 e03b 1b56 9e39
00000020: 3994 f8bb 387c 433b b7e5 4e3b 6870 943a
00000030: 2a88 393d 89e8 11bd 7ae1 cabc af38 41bc
00000040: 4693 ce3b 0bc7 1d3c 69d1 d83a 676a 3b3b
00000050: 1896 683c 7ebf 2ebc 2378 ffbb e1b7 72bb
00000060: 3f05 4bbc de1e 8e3b 95e7 9d3b ef82 a23a
00000070: 4729 793b cce9 2e3c e9bc 293b f62a 4f3b
00000080: 7f92 35bc a65c e93c d2e4 563c 0cef 143c
00000090: a73e 323b c3ec 243c aec9 303b c2de 393b
000000a0: b470 d6bb 8227 23bc 9364 d3ba e8cd 3abb
000000b0: 1de7 073c 2d5c fbbb bab0 a2bb 3d5a 22bb
000000c0: 2fec 3bbc 4849 3dbc 8a15 a4ba 83c5 84bb
000000d0: cd5f d53b 9035 fd3a 74f0 94ba 91ee 083a
000000e0: cacc 8e3c 64f8 9cbc 3050 3fbc 59a4 d5bb
000000f0: fbc1 1bbc ae2e 0cbb 9955 e23a 7775 4eba
00000100: 9752 ff3b dc57 8c3c 0d51 843b e1b5 b73b
00000110: 2a4d ab39 ee6e 1b3c 6aff 563b 737a 553b
00000120: 9e96 063c e58c 2abc 2847 c4bb 72de 68bb
00000130: d27a 52bd e314 833c d95b a33c 3d1d d13b
00000140: ddf8 363c d216 1cbc a941 cfbb 26b8 51bb
00000150: 753a 10bc 2db3 bf3b 43ab 913b 3f3a 193b
00000160: bc20 45bc d3af 19bc 7cca 1a39 5a69 10bb
00000170: db67 c3bc a2b9 553c 50b9 373c 9384 893b
00000180: 4012 843c 938b 493c 1664 8f39 c72a 9c3b
00000190: 15cb 57bc 91c3 133b 8900 9a3b b9ec c33a
000001a0: 50bd 083b 34cc 4dbc 52bc a9bb 2287 82bb
000001b0: 8042 7fbd aafe 093d b911 f43c c187 5c3c
000001c0: 15fa 003c c421 4e3c 4540 173b 6b94 703b
000001d0: 0872 323d d9ab 74bd 7e1d 09bd 4fb0 a6bc
000001e0: 45a3 943b 6663 e43c 7254 0d3c 5363 0e3c
000001f0: d131 8fba 9ad2 0c3c 648f 653b cb6a 383b
00000200: f011 533c 6af2 b8bb 2173 b5bb 2bbe feba
00000210: 6dc1 133b 2501 233a 720a bab9 46c6 f839
00000220: 2202 e4bc 5b5d 8a3c 46c3 5f3c 7c09 bd3b
00000230: 5924 8d3c a87c 903c de67 c63a e2f2 a83b
00000240: a7d2 4bbc 87eb dcba b50a 423b f24c a039
00000250: 4635 3f3b e75c 55bc 7a43 b6bb 6c30 85bb
00000260: e338 07bc 5875 5d3b ecad 5d3b 0b3b 7b3a
00000270: 8df5 933c b9b9 d6bc a107 6cbc 2a9d 0cbc
00000280: 0530 583c 9370 803c b907 0e3b 46e1 ab3b
00000290: 279a 353c 3a71 863c 7cbe 303b 3e64 933b
000002a0: 5b83 413b a12c 193c 8a99 2a3b f176 563b
000002b0: e6ad 81b9 d314 ec3b 7f86 253b 2f34 063b
000002c0: 0acc 223c 15c2 773c d295 1f3b bbc6 843b
000002d0: fc0f a23b f310 aeba c252 d3ba 967b 4fb8
000002e0: 0bd4 87bc 94b1 cd3c 8d7a 5a3c 216e 033c
000002f0: 0fca 43bd 27ea 813d 3153 133d dc79 b03c
00000300: 51f3 3a3b d2fc 20ba 8172 72ba 48bd e738
00000310: 85b9 bc3b 555f b6b8 b0d2 d6ba 1f46 28b9
00000320: dbfc 9cbb e3c7 a73a c60c fc3a 6961 223a
00000330: 3ebf 1c3c 148d 4ebc 2c65 e5bb 000a 8abb
00000340: 7e44 0b3a ac4f 243c 97f4 5f3b 74e5 523b
00000350: 710a 4cbc e044 013c 74c3 d03b 626e 3e3b
00000360: 92cd 61bc 2fbb afbb 2fbd ec3a e5fb c2ba
00000370: 76b1 8e3c 2307 cc3c dc27 823b 552a f23b
00000380: 9276 67bc 4b52 683c 0fe9 143c ab46 a53b
00000390: 65da 1cbc 470a ecbc 7a4c f6bb e00e 11bc
000003a0: abbf d33c 5fe5 17bd cfa5 a8bc c4b5 4cbc
000003b0: 584e 5cbd 40e1 5b3c 329a a53c f7f4 e13b
000003c0: 823e 39bc 6a10 51bc d17c bcba b86d 6fbb
000003d0: 7202 213d a187 963a 0c03 30bc cbee a4ba
000003e0: e649 443d 6301 80bd a54d 12bd 3518 aebc
000003f0: 803a 6b3a 7ce4 793c ee1a a83b 7e31 903b
0.00854198 -0.007628903 -0.0052277003 -0.0026252982 -0.028517393 -0.003950296 0.0068571395 0.00030200262
-0.007586029 0.0029828679 0.0031570026 0.0011325004 0.04529587 -0.035622153 -0.024765719 -0.0117933
0.0063041775 0.009629975 0.0016541901 0.0028597356 0.014195941 -0.0106657725 -0.007796304 -0.003703587
-0.0123913875 0.0043371757 0.0048188665 0.001239864 0.0038018988 0.010675859 0.0025899953 0.00316113
-0.011082291 0.028486561 0.013116078 0.009090196 0.0027197988 0.010066214 0.002697568 0.0028361534
-0.006544197 -0.00995815 -0.0016127996 -0.0028504077 0.008294848 -0.0076709003 -0.004964915 -0.0024773024
-0.011469885 -0.011553116 -0.0012518626 -0.0040518655 0.0065116645 0.0019318331 -0.0011363165 0.00052235374
0.017431635 -0.01916141 -0.011676833 -0.006519836 -0.009506698 -0.0021390128 0.0017267942 -0.000787578
0.007791828 0.017131738 0.0040379823 0.0056063985 0.00032673153 0.009486897 0.0032806047 0.0032574206
0.008214621 -0.010409568 -0.005989928 -0.0035532978 -0.05138666 0.01600117 0.019941257 0.0063816593
0.011167732 -0.009526925 -0.006324966 -0.003200063 -0.008803 0.005850217 0.004445465 0.0023380665
-0.01203173 -0.009380299 0.00014762016 -0.002203545 -0.023853233 0.013044747 0.011213616 0.0041967123
0.016121984 0.0123013435 0.00027349655 0.0047658416 -0.013170977 0.0022546987 0.004699771 0.0014947868
0.0020864792 -0.012560893 -0.0051799202 -0.0039833942 -0.06231928 0.033690132 0.029793607 0.013460101
0.007872124 0.012581293 0.002307908 0.0036709558 0.04356578 -0.0597342 -0.03347539 -0.020347742
0.004536065 0.027879428 0.00862609 0.008690673 -0.0010924881 0.008595133 0.0035028094 0.0028139825
0.012882695 -0.0056441324 -0.005537406 -0.0019435337 0.002254571 0.0006218127 -0.00035484467 0.0004744997
-0.027833048 0.016890218 0.013657397 0.005768953 0.017229246 0.017637566 0.0015137156 0.005155907
-0.01244036 -0.0016854861 0.0029608433 0.00030574907 0.002917604 -0.013022638 -0.005562243 -0.00406461
-0.008253309 0.0033791866 0.003382559 0.0009583688 0.018061424 -0.026211606 -0.014406116 -0.008582393
0.0131950425 0.01567868 0.0021672084 0.0052453605 0.011084116 0.016411413 0.0026969006 0.004498034
0.0029527757 0.009349019 0.0026031458 0.0032724703 -0.00024734362 0.007204631 0.0025257168 0.0020477881
0.009936342 0.015121956 0.0024350774 0.004052011 0.004945753 -0.0013280198 -0.0016122686 -4.9467744e-05
-0.016580602 0.02510909 0.013334882 0.008021862 -0.04780012 0.06343489 0.03596801 0.021542482
0.0028526376 -0.0006141189 -0.000924863 0.00011050195 0.0057594203 -8.696193e-05 -0.0016389694 -0.0001604785
-0.004790885 0.001280066 0.0019229881 0.0006194325 0.00956708 -0.012606878 -0.007000586 -0.004212618
0.00053126353 0.010028761 0.0034172887 0.0032180222 -0.012453661 0.007889956 0.006370956 0.0029057493
-0.013781922 -0.00536289 0.0018061752 -0.0014876096 0.017418604 0.024905747 0.0039720368 0.0073903003
-0.01412739 0.014179776 0.009088769 0.0050438247 -0.009573554 -0.028813494 -0.007516441 -0.008853644
0.02584823 -0.03708398 -0.020586876 -0.012494508 -0.053785652 0.013420403 0.020215128 0.006895657
-0.011306407 -0.012760261 -0.001438046 -0.0036533903 0.039308973 0.0011484512 -0.010742914 -0.0012583373
0.047922038 -0.062502645 -0.03571858 -0.021251777 0.0008973256 0.015252229 0.0051301634 0.004400431

exp_avg_sq f4 [64, 4]
00000000: db1e 273c 9b51 903b c8e7 1d3a 414e 1e3b
00000010: 6477 d63c f328 583c 0d8c 0c3b 50a3 193c
00000020: 01c6 7f3b b26f e63a 8b2b 8d39 0dce 8d3a
00000030: 7422 553e 991e bf3d 8bda 5f3c 53c1 5f3d
00000040: 066f 873a aae3 2e3a 8da4 e437 c4da 0739
00000050: 63d8 ba3c 98ea 183c adbc aa3a 9c52 a93b
00000060: 3d0b 223c 040a 943b 36e0 303a 8c6c 353b
00000070: ce1b 073b 639f 863a ab28 5f38 6e97 4339
00000080: 9267 253d 985f a83c 58da 313b 77f7 273c
00000090: 5584 303b 3974 ac3a 31f1 bb38 a682 bd39
000000a0: 8349 c93a 3e44 593a 046f fe37 84da 0539
000000b0: 2460 103c 1a2a 733b e8eb 063a 9e23 043b
000000c0: 5dea 163b 5586 cb3a 87a9 df38 14fe 1b3a
000000d0: c002 943a 35d1 173a 6474 bc38 e25a d039
000000e0: a6e9 2a3d de3d 9c3c 4ffd 303b c51a 2d3c
000000f0: 36a8 573b 4747 be3a a93b 5c39 5398 793a
00000100: c130 803b 694d 243b 9af5 0e39 fb42 1a3a
00000110: b77c 1b3b 5e61 a43a 21c9 0039 a2fc 083a
00000120: c142 1f3c d22b 943b 886d 273a 9825 203b
00000130: d272 233e 2a7e 943d 3d7f 3a3c a27f 403d
00000140: c489 613c 215f c13b ab17 593a b2d4 553b
00000150: dcfe fe3b 5fc2 4b3b e84c e839 209d e33a
00000160: 3e4a 243b 2a76 b33a 1f08 1f39 d645 433a
00000170: 956d 4f3d d75e b93c bdfb 583b 45df 5d3c
00000180: 0c75 b83b bb70 5d3b 3d91 a939 7eb0 de3a
00000190: 9b1b 003c 6d47 833b aa5b 303a 0cfe 373b
000001a0: ec45 103c abd5 6c3b eac8 b839 4442 a33a
000001b0: 85a5 983e 0a3a 0a3e e967 ac3c e2c2 ad3d
000001c0: 64f7 ee3a 0590 943a 2758 3938 08d9 4939
000001d0: a2b1 a23e 95e2 153e e13e a63c 39ee a03d
000001e0: 600a 963c 92af 193c 5193 443a 0b81 353b
000001f0: a8f3 a03b 870e fe3a 285a 2c39 3fa8 193a
00000200: 3c1e 3d3c 28a4 a83b 1f7c 4d3a aac8 4f3b
00000210: 46b9 ef39 2bb5 5f39 2c65 cd37 3503 0139
00000220: 20a8 8c3d 2ab2 fc3c 7c40 963b c98e 983c
00000230: 3974 9d3b 82dd 4a3b 51af 6b39 3504 9a3a
00000240: 0249 b13b f043 263b 28b9 d539 3297 f03a
00000250: 7766 453c 4ea3 953b ac5e e039 da63 bf3a
00000260: d0a7 a23b 2865 163b 3322 b439 16d2 b83a
00000270: e0cf 7e3d 0594 ea3c b4bc 7c3b 275a 763c
00000280: 7293 693b ce1c 1f3b 73f2 1439 f32e 523a
00000290: 58cb 643b 0c01 033b 9c56 9a38 f0da a739
000002a0: 6f5a c53a 28a6 703a d559 8338 dd5d 9139
000002b0: 7b02 aa3a 9770 3c3a 207c af38 5828 a839
000002c0: 3947 373b 3ad9 ce3a faf3 6138 9c6a 5d39
000002d0: 9050 023b eeda 4b3a 3c9f d638 21e5 e239
000002e0: ccd1 523d ca0e c23c f1cc 533b 41ae 4a3c
000002f0: 1c14 bb3e f220 2a3e 7572 be3c f408 b73d
00000300: e320 253a 0a08 a139 9279 2d38 cdb6 4139
00000310: 49ff aa3a f3be 173a ca84 c338 fe2c c939
00000320: c484 813a 4849 1a3a 7f57 d638 aac8 d939
00000330: 261a 643c 742c dd3b b83b 7d3a cf80 773b
00000340: f697 4f3b 3aaa c33a 7077 0939 7c36 073a
00000350: 50a7 4c3c c9d7 bd3b fcab 6c3a a7c7 693b
00000360: 7a52 833b 3b36 123b 74a8 ab39 8064 c43a
00000370: 66f6 e43b 249b 963b 3de4 4d39 f6a4 7d3a
00000380: 3286 d53c 77d8 343c 0cbf cc3a 32b6 c63b
00000390: 64ff 463c b590 e43b 8f9e e239 9ef5 cd3a
000003a0: e91a ed3d e5fb 563d c110 f13b 13e8 e33c
000003b0: a0a8 2a3e 0df2 973d a93e 423c 70aa 4a3d
000003c0: 1651 0d3b 3672 b43a 372c ad38 d5e4 e639
000003d0: 69eb 7a3d be25 eb3c 6818 973b e96a a23c
000003e0: 1326 a93e 6e51 203e c358 ba3c e1fa b33d
000003f0: 75fc 0f3c 3e8b 713b 1a5f 9a39 c9f9 7e3a
0.010200228 0.0044042594 0.0006023613 0.002415553 0.026179977 0.013193357 0.0021445781 0.009377316
0.0039027932 0.0017580895 0.00026926058 0.0010818854 0.20813924 0.09332008 0.013662945 0.054627728
0.001033277 0.0006671498 2.7256343e-05 0.000129561 0.02280826 0.009333275 0.00130262 0.0051673185
0.009890375 0.0045177955 0.0006747277 0.0027683107 0.0020615938 0.001027089 5.3205218e-05 0.00018653061
0.040381975 0.020553395 0.00271382 0.010251871 0.0026934345 0.0013157196 8.96178e-05 0.0003614623
0.0015356991 0.0008288062 3.0330855e-05 0.00012765272 0.008811984 0.0037103952 0.0005146847 0.002016283
0.0023027875 0.0015527705 0.000106650456 0.00059506414 0.0011292323 0.0005791367 8.986218e-05 0.00039740565
0.04172673 0.01907247 0.0027006452 0.010565464 0.0032906658 0.0014517092 0.0002100306 0.0009521294
0.003912062 0.0025070554 0.00013633669 0.00058846147 0.002372546 0.0012541225 0.00012281958 0.00052256335
0.009720505 0.0045218254 0.0006386866 0.002443647 0.15961769 0.072506264 0.011382875 0.04699672
0.013765756 0.005901233 0.000828142 0.0032627997 0.0077818464 0.0031091196 0.00044307788 0.0017365552
0.0025068666 0.0013691832 0.00015166447 0.0007449066 0.050641615 0.022628231 0.0033109032 0.013542001
0.0056291874 0.0033789116 0.00032342403 0.0016989855 0.007819082 0.0040063174 0.0006727526 0.0028075008
0.008805733 0.0036138098 0.00035244907 0.0012455662 0.2981378 0.13498703 0.021045642 0.084844366
0.0018231687 0.0011334425 4.4189535e-05 0.00019249704 0.31776148 0.14637215 0.020293655 0.07857937
0.018315494 0.009380238 0.00074987585 0.0027695324 0.0049118586 0.0019382992 0.00016436784 0.00058615574
0.011542853 0.005146522 0.0007838625 0.0031705298 0.00045723672 0.00021334428 2.4485016e-05 0.00012303593
0.06868005 0.030846674 0.004585324 0.018622773 0.0048051146 0.0030954783 0.00022476657 0.0011750521
0.0054103145 0.0025370084 0.00040764478 0.0018355607 0.012048355 0.0045665866 0.00042795145 0.0014601902
0.0049638525 0.0022948477 0.00034357756 0.0014100696 0.062209964 0.028635034 0.0038564624 0.015036142
0.0035640863 0.0024278644 0.00014204699 0.000801786 0.0034911241 0.0019989638 7.3594245e-05 0.00032015843
0.0015056859 0.00091800326 6.263299e-05 0.0002772649 0.001297071 0.0007188408 8.36777e-05 0.00032073515
0.0027966036 0.0015781291 5.38714e-05 0.00021115917 0.0019884445 0.00077764585 0.00010233975 0.00043276793
0.05146961 0.023688693 0.00323182 0.012370647 0.3653878 0.1661413 0.023247937 0.089372545
0.0006299151 0.00030714303 4.1359635e-05 0.00018474013 0.0013046052 0.00057886465 9.3230585e-05 0.0003837123
0.0009881486 0.00058855535 0.000102206126 0.00041538972 0.01392225 0.006749684 0.0009660083 0.0037765985
0.003167627 0.0014928051 0.00013109832 0.000515796 0.012491062 0.005793546 0.0009028313 0.003567198
0.0040076347 0.0022310156 0.0003274117 0.0014983565 0.006987381 0.004596131 0.00019635349 0.0009675765
0.026064966 0.011037937 0.0015620901 0.0060642 0.012145851 0.0069752582 0.00043224214 0.0015713458
0.11577398 0.05248632 0.0073567335 0.027820623 0.16665888 0.074192144 0.01185576 0.049478948
0.0021563224 0.0013766948 8.2575185e-05 0.00044039512 0.06125966 0.02870452 0.0046110637 0.01982637
0.3303686 0.15656063 0.022747403 0.08788086 0.008788218 0.0036856676 0.00029444025 0.0009726552

exp_avg f4 [64]
00000000: 5906 ccbd 9e65 3b3e a485 8f3d 3a3e 00bf
00000010: 065c d23b 954c 1fbe ecc8 de3d 7a6c df3c
00000020: e861 693e 42c6 073d aa60 97bb 0641 c8bd
00000030: 47e4 853c bbc8 13bd 2d5e 64be ec58 5a3d
00000040: 4313 183d 81cc 463d c457 e9bd dfb5 e33e
00000050: 42eb 02be 7fb0 ba3d 9132 133d 8749 713e
00000060: d037 38bd b3da db3d 0670 a6bd 7370 1e3f
00000070: f24e 423c 9f2c 1fbf 35d4 ec3d 176a 5b3d
00000080: 3b35 f6bd 4af3 46bc bdbe 903e 2922 e1bc
00000090: eeca a13d 1529 b5bd 31c4 983d 41ea 86be
000000a0: a974 e4bb 9ef2 033c 8d2d f83c 44ac 1e3d
000000b0: 74ff 003c 7b41 1cbd 9960 7d3e 4341 2c3f
000000c0: 3530 b3bc afa5 2bbd 2e5a 2f3d 9e7f 07be
000000d0: 2af7 4a3d 2d17 063e 0f8a 8b3d 25b4 053c
000000e0: 4545 333e 2b3e adbd ce2e c3be 9282 e73e
000000f0: 190b 3b3c d531 8bbe c079 2bbf 8b8a 943d
-0.09962148 0.18300483 0.07007912 -0.5009495 0.0064196615 -0.15556557 0.108781666 0.027273405
0.22791255 0.033148058 -0.0046196776 -0.09778027 0.016344203 -0.036080103 -0.2230155 0.05330746
0.037127744 0.048534874 -0.11393693 0.44474694 -0.12785056 0.09115695 0.035936896 0.23563205
-0.044975102 0.10735073 -0.081268355 0.61890334 0.011859642 -0.6217746 0.11563913 0.053567972
-0.12021872 -0.012142966 0.28270522 -0.02748211 0.07900034 -0.088457264 0.074592955 -0.26350597
-0.006971915 0.00805345 0.030295158 0.038738504 0.007873405 -0.038148385 0.2474388 0.6728708
-0.021873573 -0.041906055 0.04281061 -0.13232276 0.04955212 0.13094778 0.06813442 0.008160626
0.17506893 -0.08459123 -0.38121647 0.45216805 0.01141622 -0.27186456 -0.6698265 0.072529875

exp_avg_sq f4 [64]
00000000: 41ca 8a3f c60a 8940 3cbf 003f 6f61 c841
00000010: 2ea6 4e3c f1a2 1640 3b22 a23f 542a fd3c
00000020: 40c8 8f40 64d5 a13d 2c37 523c 576a 6c3f
00000030: 0a2f 053e 30d1 373e 4ac5 9940 8260 d33e
00000040: bc87 303d aace 013e f26d 8e3f 2faf ad41
00000050: 178f bf3f 79d9 503f 103a a03e 80bc c540
00000060: 7fd1 fc3e f138 a53f ae96 ec3e a9c0 1c42
00000070: 6c2a 1d3c 4766 0d42 6580 3f3f 8052 433e
00000080: f3cf bb3f faf3 373d e87d 0841 755b bf3e
00000090: 4154 553f 8e2f 153f 6f14 253f 622a d640
000000a0: 9ad8 013e 1bc2 143d d50a 043d 061a fb3d
000000b0: 3308 cb3c 0eec 453e 0990 b340 db4f 2242
000000c0: 2476 9b3d 6734 383e 4381 433e 0e4e db3f
000000d0: 1cae 073e ebc5 d33f 1b90 283f befd 033e
000000e0: 72f4 3040 c007 8f3e d05a 4b41 5998 b641
000000f0: c083 fb3d 29c2 1141 7d12 2042 a42b ac3e
1.0842973 4.282565 0.502918 25.047575 0.0126128625 2.3536952 1.2666696 0.030903973
4.4931946 0.07902029 0.012830537 0.9234976 0.13006225 0.17950892 4.805333 0.41284567
0.043098196 0.12676492 1.1127303 21.710539 1.4965543 0.81581837 0.31294298 6.1792603
0.49378583 1.2908002 0.4620871 39.188145 0.009592634 35.34988 0.7480529 0.1907444
1.4672836 0.04491041 8.530739 0.37374464 0.83331686 0.5827569 0.64484304 6.6926737
0.12680283 0.036317926 0.032236893 0.12260823 0.024784183 0.19328329 5.6113324 40.577984
0.07590893 0.1798874 0.19092278 1.7133195 0.13250011 1.6544775 0.6584489 0.12889764
2.7649198 0.279356 12.709671 22.824389 0.12280989 9.109902 40.018055 0.33627045
