training_results/cartpole_null/ppo_test2/seed_42/1000000steps/checkpoints/model_700000.pt (torch, 151515 bytes, 30 tensors)

actor.pi_net.fcs.0.weight f4 [64, 4]
00000000: e991 c9be 213b de3e b49e 833f c9bf 853f
00000010: 4caf e0be 30d4 1cbd d486 07bf f8e9 88bf
00000020: 8bdb ad3e c9a0 d6be c45c 76bf 98be 67bf
00000030: 8a16 0cbe 3d66 8cbe b5d7 a23f e66b 423f
00000040: fac0 e43e 38c7 463e ef63 d6bd 9327 ae3e
00000050: c232 dfbe 17c6 dcbe 54ec 453f 3629 893f
00000060: 5370 883e 1fd3 a03e a45f 78bf 44ba 63bf
00000070: 661a e1bd 2744 b53e 029e 81bd 11c6 c83e
00000080: e77c e53e 735e 9d3e 65e1 8fbf 2c0a 99bf
00000090: 232f b23e de85 0bbe b976 ecbe 1f4e 583e
000000a0: 314a adbc 751d bcbe b377 b53c e8b6 24bf
000000b0: 327d f7be 0496 babe 931f 293f 8c6d fe3e
000000c0: b12b 48be 15aa 6d3e 7f07 e1be 6076 02bf
000000d0: 66b9 173d 1a95 043e 4712 ac3e 97f2 793f
000000e0: e945 5ebe c905 923d 42a8 923f 73c8 9e3f
000000f0: 1a9e 7c3e 8c48 0c3e 17f0 30bf 8bd3 2cbf
00000100: d3bb c03e 7007 2fbe 0a8a d4be cb55 f03e
00000110: 173b 66bd 4d2e 083e 8f87 20bf 7161 bb3e
00000120: 3cee debe b986 083e 5bf6 903f c50b 963f
00000130: 1b2a 4b3d 335f 813d 17b9 82bf 30c9 38bf
00000140: cd9c 1bbf 1b3c 963d a3c7 773f 01f6 9f3f
00000150: 326e 05be f971 713e fde6 7cbf c626 a0bf
00000160: e55c a2be bfa4 64be b043 5cbf e069 91be
00000170: 7911 f93e 08d1 c1be 23be 74bf 4ac6 01bf
00000180: 41fc bebe 7edd d4bc f649 5b3e 8ccb 663f
00000190: 317c acbe cd40 f8bd 00ab a2bf 717f 45bf
000001a0: 2674 05bf bdb5 11bf 4cf8 9d3e 1e0d aabd
000001b0: 33d2 12be 0076 02be 1bbe 9abf 087e 9cbf
000001c0: 9aee 1e3f 848c febd 3c8b a63e d3d7 f43d
000001d0: f3fc 17bf 4955 12bc a253 853f 4462 a43f
000001e0: 939f 8f3e b8fe 233e 9a92 10bf 13c8 ab3e
000001f0: c06f 943e 070a 1e3f 2096 15bf ab15 873e
00000200: 5b27 75be a015 81be f126 943f d46d 3c3f
00000210: a635 0bbf c8bd af3e a497 353f a40b 813e
00000220: e5b0 e73e 041c 81bd d58f 88bf 5d64 2ebf
00000230: 78c3 af3e 661b 403d 5655 183f 8b8a c03e
00000240: bbcd a7be 9024 c4be 3584 83bf eb6a 4bbf
00000250: 02ad 1ebf 3013 1ebf caaa 2d3f 6019 28be
00000260: d58c 273e 6805 793e 875f 3fbf d496 6abf
00000270: 6d98 f0be 76ba 453e 223a ca3f 9fc8 9f3f
00000280: b767 ba3d 8002 463b 50e1 b23e f703 cb3e
00000290: f63b 093f 12f8 103d 8ba7 e73e 83fd bc3d
000002a0: 3aa2 1d3f 8dee b1be f387 89be fad1 9c3e
000002b0: c25d b23e b4bb e53e cad8 3cbf 6437 753e
000002c0: ceba 883e d6be e13e 52ec b7bd dd18 e83e
000002d0: 9063 85be 7215 b6be 807e 933f 5140 ac3e
000002e0: 0ab8 8a3e fcc6 db3e 0aca 2abf ae91 94bf
000002f0: 962c b03e 9414 a0bd e4a9 c2bf b04e a6bf
00000300: 0515 78be 6f74 d8bd 23f6 663f 5161 763e
00000310: 3d25 10bf 9c1f a63e 339b c93e b5bb 673f
00000320: 0bd3 b6be 58d4 18be 0157 59bf c8b9 cfbe
00000330: 67e2 acbe c02a b3be d139 a73f 83ad 943f
00000340: ebe2 6b3d 9439 a53e 6b03 f5be d714 823e
00000350: 59ae e13c 861c 6fbd f976 a2bf 4dbf 36bf
00000360: 00d9 94be 10e3 f73e 4b31 88bf ba85 27bf
00000370: 9dc5 9f3e 6b99 9d3e 13f4 283c 99d6 be3e
00000380: 7dc6 dd3e 131c bc3e 6acc bdbf d988 91bf
00000390: 501f 15bf ce90 a63d 54bb f73d 1017 67be
000003a0: 9454 c1be 45c2 a93e dad7 ca3f 8354 9c3f
000003b0: de74 843d 8642 97be f8f2 94bf ddb5 4dbf
000003c0: aa77 afbe 7d9a 8abe ef22 8bbe 42c9 bcbe
000003d0: deb2 3c3e e10b 973d a57b 4d3f 9800 493f
000003e0: bc23 6c3e da28 a2be 31d7 bd3f 0d27 b63f
000003f0: 3891 143f 9bb9 e23e be57 04bf fbec 173e
-0.39369133 0.43404487 1.0282807 1.0449153 -0.4388374 -0.038288295 -0.52940106 -1.0696402
0.3395656 -0.41919544 -0.962353 -0.905252 -0.13680473 -0.27421752 1.2722079 0.7594589
0.4467848 0.19411933 -0.104682796 0.34014568 -0.43593413 -0.4311988 0.77313733 1.0715702
0.26648197 0.31411073 -0.97020936 -0.88956094 -0.10991363 0.3540356 -0.06328966 0.39213613
0.44821855 0.30736122 -1.124066 -1.1956229 0.34801587 -0.13625285 -0.46184328 0.21123551
-0.021153541 -0.36741224 0.022151804 -0.6434159 -0.48337704 -0.36442578 0.66063803 0.49692953
-0.19547917 0.23209412 -0.43951032 -0.50961876 0.037042044 0.12947503 0.33607695 0.9763579
-0.21706356 0.0713001 1.1457598 1.2404922 0.24669686 0.1369955 -0.6911635 -0.6751029
0.37643299 -0.17092681 -0.41511565 0.46940455 -0.056208696 0.13298912 -0.62706846 0.3659778
-0.43541133 0.13332643 1.1325182 1.1722342 0.0496007 0.06316986 -1.0212735 -0.7218199
-0.60786134 0.07335683 0.96788996 1.249695 -0.13030317 0.23578633 -0.9878996 -1.2511833
-0.31711498 -0.2232847 -0.8604078 -0.2840109 0.48646143 -0.3785479 -0.95602626 -0.5069319
-0.3730183 -0.025984522 0.21414933 0.9015434 -0.336885 -0.12121735 -1.2708435 -0.77147585
-0.52130353 -0.56917936 0.30853498 -0.08303283 -0.14337997 -0.12740326 -1.2089266 -1.2225962
0.6208283 -0.12429145 0.32528102 0.11955228 -0.59370345 -0.008931466 1.0416148 1.2842488
0.28051433 0.16015136 -0.56473696 0.33551082 0.28991508 0.6173405 -0.584322 0.2638372
-0.23940794 -0.2521181 1.1574384 0.73605084 -0.54378736 0.3432448 0.7093451 0.25204194
0.45252147 -0.06304172 -1.0668894 -0.6812189 0.34328818 0.04690113 0.5950521 0.376057
-0.32774147 -0.38309145 -1.0274721 -0.7946002 -0.6198274 -0.6174803 0.6783873 -0.1641593
0.16362317 0.24318469 -0.7475514 -0.91636395 -0.46991292 0.1930941 1.5798991 1.24831
0.09101813 0.0030213892 0.34937525 0.39651462 0.5360712 0.03539283 0.45245013 0.09228041
0.61575663 -0.34752312 -0.26861534 0.3062895 0.34837157 0.4486977 -0.73768294 0.23946911
0.2670502 0.4409091 -0.089806214 0.4533147 -0.26052523 -0.35563236 1.152298 0.3364282
0.27093536 0.4292525 -0.6671454 -1.1606958 0.34409016 -0.07816425 -1.5208097 -1.2992764
-0.24226768 -0.10569083 0.90219325 0.24060561 -0.5630682 0.3244599 0.3937622 0.90520793
-0.35707888 -0.14924753 -0.8489838 -0.40571427 -0.3376648 -0.34993553 1.3064519 1.1615452
0.057589453 0.3227049 -0.4785417 0.25406525 0.027548956 -0.05837681 -1.2692558 -0.7138565
-0.29071808 0.48415422 -1.0640043 -0.65438426 0.31205454 0.3078111 0.010312098 0.372731
0.43315497 0.3674017 -1.4828007 -1.1369888 -0.58250904 0.08133088 0.12096277 -0.22567391
-0.3775984 0.33156028 1.5847123 1.2213291 0.06467603 -0.2954294 -1.1636648 -0.80355626
-0.34270984 -0.2707099 -0.2717509 -0.36872298 0.18427607 0.073753126 0.8026679 0.7851653
0.23060507 -0.31671792 1.4831296 1.4230667 0.58034086 0.4428223 -0.51696384 0.14836495

actor.pi_net.fcs.0.bias f4 [64]
00000000: 16a5 893e 67f4 a23d f238 9b3e 3332 cfbc
00000010: 5b9f 883d d6aa 98be 0c88 073e ddcb 0bbe
00000020: d04f 0cbe b49e 1f3c d2b6 263d b377 1dbe
00000030: de55 333c c0cc b3be 77b6 ce3d f582 06bd
00000040: 5168 aebb ef55 0f3e 29ea b8be f617 323d
00000050: 26dd 99be ea2c 7bbe 8ec4 d9bb d966 973c
00000060: 2826 8fbd a6d2 0a3e 4134 94be 95ab 163d
00000070: 66a5 993d 2fa0 93bd 230d b63d bc8a b03e
00000080: 8ae1 57be b9a2 38bd 4b0a 80bb aae3 803c
00000090: 3bba ecbd 78ef a0be f5df 6cbe 7cbb 203e
000000a0: 82b1 383a fac8 da3c c73f 013e 6863 d6bd
000000b0: 6bf7 dcbb ecb5 423e 24ea 41bd da53 f63d
000000c0: 1b83 4d3e c19e 9fbe f7b8 cb3e c51f 973e
000000d0: 01c7 5d3e db5d 733e 6cce 983d 3f74 183d
000000e0: 86f5 873e 64db 20bd 853b 2cbe 4fa9 613b
000000f0: f8e5 bcbc 9436 d9bc 817f cfbd 9ac7 4a3e
0.26883763 0.07956772 0.30316883 -0.025292492 0.0667102 -0.29817837 0.13235492 -0.13651986
-0.13702321 0.009742428 0.040701695 -0.15377693 0.010945765 -0.3511715 0.10093396 -0.032839734
-0.005322494 0.13997625 -0.3611615 0.043479882 -0.30051535 -0.24528852 -0.0066457456 0.018481659
-0.069896996 0.13556919 -0.28946117 0.036784727 0.075022504 -0.07208287 0.088892244 0.34480846
-0.2108213 -0.04507706 -0.003907477 0.015733559 -0.11558958 -0.314327 -0.23132308 0.1569652
0.00070454937 0.026707161 0.12621985 -0.10468179 -0.0067433617 0.1901471 -0.047342435 0.12027712
0.20069544 -0.31175807 0.39789554 0.29516426 0.21657945 0.23766272 0.07461247 0.037220236
0.26554507 -0.039271727 -0.1681958 0.0034433191 -0.023058876 -0.026515283 -0.10131741 0.19802704

actor.pi_net.fcs.1.weight f4 [64, 64]
00000000: 2753 793d 13d5 2e3e 1b1c 20bd 1421 d43c
00000010: 19b7 f2bd 60ee 1d3d 97ae 163e 87e8 6dbd
00000020: ebbb d9bd 404e c3bb ce38 e93d d2d9 1a3d
00000030: 2a63 413e 92cc 0b3c 8127 0e3e 96db 0a3d
00000040: f4aa 4ebe 6b79 c1bd 7a3e 2f3d b02f cfbc
00000050: b0f1 bdbb e02e 853d 57eb 1abd ba62 74bd
00000060: 36de 8dbd eb1a fabc da90 fd3d 3a81 19be
00000070: 281f 523d 69d6 cd3d 9573 19bc 75e2 ffbd
00000080: 63b0 02be b3a2 36bd a555 5f3c d3ff b2bd
00000090: 924a 163d 9e75 04bd 7180 ad3d 6be6 8e3d
000000a0: b949 01be 9a30 80bd 3436 043d b9d6 31be
000000b0: 7236 d1bd 5b29 12bd 61ff d4bc ca9f 4ebe
000000c0: 9e79 c5bd 6559 cebd 62c5 493d d24b 013d
000000d0: 8141 01bd 86bd ccbc 008b f8bc 2a46 3abe
000000e0: 15d9 e23d 2305 933d b8f8 3d3d 6fe5 45bd
000000f0: 803a 033c b895 54be 330d 583e 1174 07be
00000100: 853d 9a3d 2c73 ed3a 6eee 3a3d 83d1 8cbd
00000110: ba11 dbbd eab8 ebbd b677 cc3d 2521 053d
00000120: db21 68bd 949e b0bc ecdb 203d 5292 f2bd
00000130: cc3e 353d 42bc 7d3d cbdb 073d 61a7 3bbd
00000140: 47b6 d1bc b4f6 f0bb c9e0 cd3d 5db1 a43d
00000150: 29a3 fe3d a995 4cbd 0050 91bb 794e 6cbd
00000160: 810a 4bbe 5dd4 71bd ca50 03bd 911e b8bd
00000170: afc3 b53d dbf6 5a3d 3ec1 61bd 3ec4 37bd
00000180: 91e8 96bd ea41 ee3c 6329 aa3d 8b1f 3e3d
00000190: 8426 be3c 52cc 3ebc 228f 583c 4c92 e83d
000001a0: e572 1e3d d747 01be 8599 f1bb fb36 a6bc
000001b0: 4e4a a93d f1f8 a9bd 58ee 9cb9 161f 24be
000001c0: 048a 96bd 5988 fbbd 1308 1bbc 3a54 81bc
000001d0: a07c 60bd eda1 ab3d 42ea a3bd 99ea 05be
000001e0: 80dd 87bd 0161 323d 6b0d 9f3d 671e b13d
000001f0: c893 233e 6d82 64bd fc61 d93d d496 51bd
00000200: afb9 c23d c037 8abc 3a5a 3bbd 3d26 bb3a
00000210: e5b2 df3c 5b46 0a3d 39e4 0e3d bd19 fdbb
00000220: 1b39 1b3e 11ef 103e 6664 a1bd 46f0 80bd
00000230: f789 bebd 29af 983d a748 5a3d 6d99 963d
00000240: 5d53 5a3d 0d55 0f3e a538 db3c 461a 3dbd
00000250: 5179 20bd ba52 d6bd 5329 903c 83c5 fd3c
00000260: 89a2 4f3d ebb8 dbbd 853b 9cbd 3426 933d
00000270: c47f c83d e917 4abd ce15 673e 320a 9f3d
00000280: 3778 bcbd 522a c73c f555 9abd 6f7a bd3c
00000290: d331 bf3d 3653 f1bd 4398 633d bb4e 14bc
000002a0: 7071 033e beb5 213e 6b7f bc3d b14f bf3d
000002b0: 2a75 fe3d d637 a63d d070 8e3d 2a7c 7d3e
000002c0: 2438 a93c 7888 803d d16d 0abe 846a 89bc
000002d0: 1a57 cf3d 2043 783c 802c 853d 0dbc e03d
000002e0: 9bb8 01bc b0d5 19bd c503 c1bd 29a8 cabd
000002f0: 71b0 69be 6e75 863d d6f0 44be 46c3 3cbc
00000300: 57fe b3bd eb32 463d 44a2 a8bd f174 13be
00000310: 35d8 913c d5d0 9ebc b405 e8bd ca79 d3bd
00000320: 50bb 6cbd ffe3 c23d 1ffb e9bd 4f65 5dbd
00000330: f70c b9bd 918d 993b 4638 d5bd d2f6 2c3d
00000340: dd49 573e 01d3 82bd 3810 dbbd c790 cdbd
00000350: 71d9 893d f7d9 073e 5431 823d ce01 c0bd
00000360: 94c5 733e 4159 e8bd 452d 07be 36b3 653d
00000370: eaf6 043d 27ad d9bd 609e 373c fa5f 673c
00000380: 4b9d f13c e206 af3d bcfe 92bd f3ed 163e
00000390: f172 04be 4eb0 38be beca 2b3d be2c 11be
000003a0: cd6b 783d a565 b93d 1292 0d3e ade2 f63d
000003b0: 8f0e 5d3d b424 19bc 9557 f43b 63b0 1c3e
000003c0: 7d4c 643d a9cf b53c 2e66 113d c4c7 f6bc
000003d0: be66 fa3d 2c74 cabc 2d9c 583d 7e84 5e3e
000003e0: 4eee ff3d 9b66 35be 2d62 e1bc 423a 93bd
000003f0: 7e71 44be 4cc8 443e 8b62 97be 1dad 3f3e
0.060870316 0.17073469 -0.039089303 0.02589468 -0.11851329 0.03855741 0.14715038 -0.058083083
-0.10631546 -0.005960256 0.11387788 0.037805386 0.18885484 0.00853266 0.13882257 0.03390082
-0.20182401 -0.09446987 0.04278419 -0.025291294 -0.0057966337 0.06503081 -0.037822094 -0.059664465
-0.06927149 -0.030530414 0.12381144 -0.14990702 0.051299244 0.10050661 -0.009365936 -0.12494365
-0.12762599 -0.044588756 0.013631259 -0.08740201 0.03669221 -0.03233873 0.08471764 0.069775425
-0.12625779 -0.0625927 0.032278255 -0.17367066 -0.10215463 -0.03568397 -0.02600068 -0.20178142
-0.09642337 -0.100756444 0.049260505 0.03156645 -0.03155661 -0.024992716 -0.030339718 -0.18190828
0.11076561 0.07178714 0.046379775 -0.048314508 0.008009553 -0.20760238 0.21098785 -0.1322787
0.07531265 0.0018115989 0.04563754 -0.06875899 -0.106967404 -0.11509879 0.099837705 0.032502312
-0.056672912 -0.021559991 0.039272234 -0.11844315 0.04424934 0.061947115 0.033168595 -0.04581392
-0.025599612 -0.007353628 0.1005264 0.08041642 0.12433464 -0.049947415 -0.0044345856 -0.057692025
-0.19828226 -0.059040416 -0.03205947 -0.08990205 0.08875214 0.053458076 -0.05511593 -0.044864886
-0.07368577 0.029084165 0.08308675 0.0464168 0.023211725 -0.011645393 0.013217719 0.11356029
0.03868379 -0.12625061 -0.0073730373 -0.020289889 0.082661256 -0.08299435 -0.0002993222 -0.16027483
-0.07350543 -0.122818656 -0.009462374 -0.015787233 -0.05480635 0.08380494 -0.080036655 -0.13077773
-0.06634045 0.04354954 0.07766231 0.08648377 0.15974343 -0.055788446 0.10614392 -0.05116923
0.095080726 -0.016872287 -0.045740344 0.0014278364 0.027306983 0.033758502 0.03488562 -0.0077240155
0.15158503 0.14153697 -0.078804776 -0.062958285 -0.093036585 0.07455284 0.053291943 0.073534824
0.053302158 0.13997288 0.026760409 -0.046167634 -0.039178196 -0.104649976 0.01759783 0.03097797
0.050692115 -0.1072863 -0.0762854 0.07185021 0.09789994 -0.04933921 0.22566912 0.077656165
-0.09202617 0.024312172 -0.07535926 0.02312967 0.09335675 -0.11783449 0.05556513 -0.009051974
0.12836242 0.15791985 0.092039905 0.09341372 0.12424691 0.081161186 0.06955111 0.24754396
0.020656653 0.06276029 -0.13518454 -0.016774423 0.10124035 0.015152723 0.06502628 0.10973368
-0.0079175485 -0.037557304 -0.09424547 -0.09895355 -0.22821213 0.06565367 -0.19232497 -0.011521166
-0.08788746 0.048388403 -0.08234075 -0.14400078 0.01780329 -0.019386688 -0.11329213 -0.10325964
-0.057795823 0.09516143 -0.11424851 -0.054051694 -0.09035676 0.0046860655 -0.10411124 0.042227574
0.2102427 -0.06387902 -0.10696453 -0.1003738 0.06730927 0.1326674 0.06357065 -0.09375344
0.23805839 -0.11345149 -0.13200863 0.056079112 0.032462038 -0.10628729 0.011207193 0.014122004
0.029493948 0.08546235 -0.07177493 0.14739208 -0.12934472 -0.18036005 0.041941397 -0.14177224
0.06064968 0.0905259 0.13825253 0.12054954 0.053968962 -0.00934713 0.0074567297 0.15301661
0.055737007 0.022193747 0.035497837 -0.030124553 0.12226628 -0.024713598 0.052883316 0.2173023
0.12496625 -0.17714922 -0.027512634 -0.07188846 -0.19183919 0.19217032 -0.2956737 0.18718381

actor.pi_net.fcs.1.bias f4 [64]
00000000: 1410 03be 8753 343b c448 bf3d 0d4b e63d
00000010: cb29 073d 05f0 29bd e136 90bd b49c 72bd
00000020: 57db 27bd 63ab 99bd 7c64 9d3d 201c dc3a
00000030: 9633 733c f106 bfbc f59d 3fbd 9bf2 85bd
00000040: adc2 2cbd 7b4f 24b9 7e43 8cbc 2cf9 ed3c
00000050: 979c 8e3d d205 9e3d cbd3 b4bd a773 183d
00000060: cb5a 473d 719f 8e3d d100 7bbd c7a8 123d
00000070: 8261 c23d 2405 a4bd 5211 23bd f1c4 46bd
00000080: 17cb 75bd 2829 12be d880 0a3d 61e5 d93c
00000090: 2d1f c93d 622e 943a 8e8e 4abd 0c86 e0bd
000000a0: 7789 33bc 421b ae3d 6c3c 153d c44b cf3c
000000b0: cd55 d53d 53d7 b5bd 7756 cabd d5a6 7e3d
000000c0: 1737 b9bd 5a3a 9cbd 0d94 b0ba 3ac6 80bd
000000d0: 39a2 8d3d 8bdd 843c b8ee ef3d 713b 83bd
000000e0: 84e4 83bd ce64 563d ae80 943d d4d8 2b3c
000000f0: 98e9 b0bc 2d94 803d 9e74 e83c d737 8bbd
-0.12799102 0.0027515606 0.09340051 0.112447836 0.03299884 -0.041488666 -0.07041717 -0.059231475
-0.040980663 -0.075033925 0.076851815 0.001679305 0.014843842 -0.02331874 -0.0467815 -0.06540414
-0.042177845 -0.00015669868 -0.017122027 0.029049478 0.06963461 0.07715954 -0.08829459 0.03721967
0.04867057 0.06964005 -0.061280075 0.03580549 0.094912544 -0.08008793 -0.03981144 -0.04852766
-0.060008135 -0.14273512 0.03381428 0.026598634 0.098203994 0.0011305327 -0.049452357 -0.109630674
-0.010958067 0.08501293 0.036434576 0.025304683 0.10416756 -0.088789605 -0.09879773 0.062170822
-0.09043711 -0.07628317 -0.0013471857 -0.06287809 0.06915707 0.016218921 0.11715454 -0.06407822
-0.0644007 0.05234223 0.07251106 0.010488708 -0.021595761 0.06278262 0.02837592 -0.0679776

actor.pi_net.fcs.2.weight f4 [1, 64]
00000000: fcb4 aa3d 9283 c539 0737 80bd 32a6 e3bd
00000010: cefe b03d cc60 cebd fb9e 8a3d a8bf 5e3d
00000020: 5d6a 473d e59d c03d dcf1 01b8 4d80 abbc
00000030: 0a7e 373d 4a82 1cbe d5fd b93d 7c11 bc3d
00000040: 8d8c 3439 f265 d73d 9c6a 163d d6d2 d3bd
00000050: dd21 3039 0585 00be 7729 0b3e 9349 1ab8
00000060: bec3 c039 91cb b03e 8f08 3f3a 3ff6 8bbc
00000070: ce6c b3bd fcc2 0f39 8e59 8739 7577 2cbd
00000080: 9b0d 7838 82eb bb3d 2822 c9bd e70e f83e
00000090: cdbf b0bd 916a d73e 9b26 dd3d 86a4 c43d
000000a0: 1607 6f3b 78fb 3f3d 2dbf 8cbd af48 0f3e
000000b0: 0de4 a7bd eb30 163e a5ad 013c a8ac c33e
000000c0: f1ca 263a a91a 01bc fcc1 da3d 7361 693a
000000d0: 8f46 e63d 5285 fd3e fce5 0ab9 e7d2 9abd
000000e0: 72d8 5bba 0fdb 163f b3b7 a539 df2b 23be
000000f0: 6b56 fdb9 569b 0eb8 ffd9 193e d576 183e
0.08335301 0.00037672796 -0.06260496 -0.111156836 0.0864235 -0.10077056 0.06768604 0.054381996
0.04868542 0.09405116 -3.0981246e-05 -0.020935202 0.044797935 -0.15284076 0.09081618 0.091830224
0.00017218497 0.105174914 0.036722764 -0.10342948 0.00016797283 -0.12550743 0.13590036 -3.6784983e-05
0.00036766933 0.3453031 0.0007287347 -0.017085193 -0.08760987 0.0001371018 0.0002581593 -0.04210611
5.914048e-05 0.09175779 -0.09820968 0.4844887 -0.08630333 0.4207349 0.10798379 0.09601693
0.003647273 0.04687068 -0.068724014 0.1399257 -0.08197794 0.14667098 0.007914935 0.38217664
0.0006362638 -0.007879891 0.10681531 0.00089027657 0.11243927 0.49515778 -0.00013246381 -0.07559758
-0.000838644 0.58928007 0.0003160812 -0.15934704 -0.00048320307 -3.4000106e-05 0.15024565 0.14889081

critic.v_net.fcs.0.weight f4 [64, 4]
00000000: 00d7 ae3f cdac 30bf 6f19 71c0 9fcb 38be
00000010: 9beb d4c0 91b9 b7bf c12d 0cc0 f7d0 a0bf
00000020: 71eb 96c0 b176 a0bf 0c31 6cbf 16d3 c2bf
00000030: d5f6 3740 79dc 0d3f f80d c6bf 9e4b 42c0
00000040: 944a 383d 8d3f 063f c131 7b40 6560 c63f
00000050: 687b bdc0 95d5 53bf 8570 8ac0 69a8 523f
00000060: 5b16 9940 8bd1 0940 76d7 5040 afe0 703e
00000070: 9b9c ce40 6c90 8d3f d393 5d40 6d9e 213f
00000080: d9a7 62bf f00f 3640 3a5f 3c40 7bd9 f03f
00000090: 45fe 9fbf 69e1 c33f ed05 4140 25fd 2240
000000a0: 304b b93f f96e 7fbf 9300 13c0 6dd2 50bf
000000b0: e4d7 3440 9d8c 4740 d6da e03f 2f56 0dc0
000000c0: c700 eebf 039d 56bf 9847 2bc0 971b c93e
000000d0: da0e 7ac0 71a5 72be 85ca 8140 0149 0140
000000e0: 66fe 0f41 5427 bebe a87b ed3e 2d9c 0840
000000f0: 5913 8040 cf6e 7fc0 2489 383f 14ae 21bf
00000100: 5578 c8c0 57d5 0bc0 3e89 0ac0 63b5 f0bf
00000110: 2b74 ca3f fc49 5a3f 132c e5bf 6c36 d9bf
00000120: 3d5f cac0 6676 9abf e306 6fc0 26ae a03d
00000130: 080e b0c0 e854 1dbf b538 413f 2a01 50c0
00000140: 60f3 3cc0 4f9a fe40 a74a 1840 1500 9f3e
00000150: b3bb 4c40 ecaa 09bf df4a bfc0 4d6e 56bf
00000160: 730b 41bf 7494 febe 9cf2 a1c0 304f 0dbf
00000170: e083 b640 1659 9dbf 8e9e 0340 eba8 823f
00000180: 10bd 2dbf 48af 48bf c0af 61c0 f108 edbf
00000190: cc36 993e 5f2b d3be 543b 11c0 4de7 d8be
000001a0: a632 8bc0 806d 97bf 96fb 94c0 c9b3 ab3d
000001b0: 4bb1 9e3f 48dc f3bf 768f 2b3f 3ad1 7cc0
000001c0: 752f 8bbf e8be 7cbf 5809 7ac0 b21f 903f
000001d0: 9097 79bf 4070 2c3e 12cf 9abf 5349 78c0
000001e0: 69e5 d2c0 392d 0bc0 8726 2740 dec1 913f
000001f0: 5855 a6c0 1cb9 67bf 1535 76c0 6edd 123f
00000200: 87e4 bec0 3dd8 30c0 76d8 47c0 e906 a9bd
00000210: 2834 a040 d234 e63f 14fa 4a40 ef20 60bd
00000220: 2dd9 a6bf 7bfd 10be 982e ca40 d183 3c3e
00000230: 58bf eac0 c0fa 543e 9a32 45c0 7441 85be
00000240: 6a92 04bf f9fa 78bf afd0 66c0 b4c0 853f
00000250: 9ae2 87c0 09de 9abf 529b 8ac0 16a0 9ebe
00000260: 7f98 a2bf 0554 d23e 47fd be40 33eb 0f3d
00000270: 12f5 95c0 b511 57c0 def5 97c0 042e 44bf
00000280: 8c5f c540 2e84 94bf a738 0dbf 2186 3140
00000290: 0309 c940 89e9 f03e bcba 5740 a700 c9bd
000002a0: 107e 8a3f b93d 8e3e ae95 683f abcf 423f
000002b0: c126 3f40 a634 65c0 c718 a0bf feb7 81c0
000002c0: e109 f4bf 01cc 35bf 6117 6bc0 faca debe
000002d0: b800 67bf d327 01bf 5502 85c0 84d9 86bf
000002e0: 74d5 c4c0 5bcb 5ebf 3889 5cc0 077f b5bd
000002f0: 0f34 0940 9b43 1c3f d848 8840 e5f5 133f
00000300: 8ef3 7640 94c8 d33f bb83 733f 8a34 2b40
00000310: 9289 c03f 877a 503f a48e 09c0 f23e 18c0
00000320: c6a2 b9bf ffa8 53bf c237 c9bf f902 debe
00000330: 7e21 3a40 6ac5 b340 ff38 6040 9fb4 ddbc
00000340: bb5a 0bbf 31d1 f43f f5a9 7240 515a 5e3f
00000350: 19f2 93c0 ae31 81c0 fc30 07c0 bf4e 73bf
00000360: 9e3b c13f d4fd d63e ccc8 95bf 1fdb 1540
00000370: 7b1a 2840 5936 2fbe 06ef 3140 9f13 963f
00000380: f20e 48bf f3b4 94bf 9011 603e bc34 22c0
00000390: 3975 aa3f 863e 5a3e ea16 9840 d185 ba3e
000003a0: 4b64 4d3f e153 423f 9007 f93f dc3f 0e40
000003b0: 2f96 3cc0 ae02 a240 1f2f 2fc0 876f cebf
000003c0: caab f940 300b 1cbf dcad 593f 8a0d 2140
000003d0: c077 3bbe 7c4e c9be 7365 c0bf 70d0 d2be
000003e0: 5fe3 0ec0 1a88 c2bf 622e a3bf 1141 98bf
000003f0: ab1f 9cc0 c3a3 bdbf 1e52 54c0 afe8 9bbf
1.3659363 -0.69013673 -3.7671773 -0.18046425 -6.6537604 -1.4353505 -2.1902926 -1.2563771
-4.7162404 -1.2536222 -0.9226234 -1.5220668 2.8744404 0.5541454 -1.5473013 -3.0358653
0.044993 0.5244072 3.9249117 1.5498167 -5.9213142 -0.82747775 -4.3262353 0.82288224
4.783979 2.1534145 3.2631507 0.2352321 6.456617 1.1059699 3.4621475 0.63132364
-0.88537365 2.8447227 2.9433122 1.881637 -1.2499472 1.5303165 3.0159867 2.5467007
1.447607 -0.99778706 -2.29691 -0.81571084 2.825677 3.1179574 1.7566783 -2.2083852
-1.8593987 -0.8383333 -2.6762447 0.39278862 -3.9071565 -0.23695923 4.0559716 2.0200808
8.999609 -0.3713938 0.46383405 2.1345322 4.002362 -3.9911382 0.7208426 -0.6315625
-6.264689 -2.1848962 -2.1646266 -1.8805355 1.5816702 0.8526914 -1.7904075 -1.6969733
-6.324126 -1.2067382 -3.7347953 0.07845716 -5.501713 -0.6145768 0.75477153 -3.250071
-2.9523544 7.9563365 2.3795564 0.3105475 3.1989563 -0.5377643 -5.9778895 -0.83762056
-0.75408095 -0.49722636 -5.0608654 -0.55198956 5.703598 -1.2292812 2.0565524 1.02078
-0.6786661 -0.7839246 -3.526352 -1.8518354 0.2992462 -0.41244027 -2.269246 -0.42363968
-4.3499327 -1.1830292 -4.655711 0.08383901 1.2397856 -1.90516 0.6701578 -3.9502702
-1.0873858 -0.987288 -3.9068203 1.1259673 -0.9749689 0.16839695 -1.2094443 -3.8794754
-6.590504 -2.1746352 2.6117265 1.1387289 -5.197918 -0.9051683 -3.8469899 0.57369125
-5.9653964 -2.7631981 -3.1225867 -0.08253271 5.0063667 1.798487 3.1715136 -0.054718908
-1.3035027 -0.14159195 6.3181877 0.18409659 -7.3358574 0.20798779 -3.0812135 -0.260265
-0.5178591 -0.97257954 -3.606487 1.0449433 -4.2464113 -1.209901 -4.33146 -0.3098151
-1.2702788 0.41079727 5.9684176 0.035136413 -4.686166 -3.3604558 -4.748763 -0.76632714
6.1679134 -1.1602838 -0.5516457 2.7738116 6.28235 0.47053173 3.3707724 -0.098145775
1.0819721 0.27781466 0.90853393 0.76098126 2.9867404 -3.5813384 -1.2507561 -4.05371
-1.9065515 -0.7101441 -3.673302 -0.43514234 -0.9023547 -0.5045139 -4.1565347 -1.053513
-6.1510563 -0.87029046 -3.4458752 -0.08862119 2.1438024 0.6104066 4.258892 0.5779708
3.8586154 1.6545587 0.9512288 2.6750817 1.5041983 0.8143696 -2.149331 -2.3788419
-1.45028 -0.8267974 -1.5720141 -0.43361643 2.9082942 5.6178484 3.5034788 -0.027063666
-0.5443532 1.912634 3.7916234 0.8685656 -4.623303 -4.0373144 -2.1123648 -0.9504203
1.5096319 0.4199053 -1.1701903 2.341499 2.6266162 -0.17110576 2.7802138 1.1724738
-0.78147805 -1.1617721 0.218817 -2.5344687 1.3317024 0.21312913 4.752797 0.3643022
0.8023116 0.7590924 1.9455433 2.2226477 -2.9466665 5.062827 -2.737251 -1.6127785
7.8022203 -0.6095457 0.85030913 2.5164514 -0.183074 -0.3931769 -1.503096 -0.4117465
-2.2326276 -1.5197785 -1.274853 -1.1894857 -4.8788657 -1.4815601 -3.317512 -1.2180384

critic.v_net.fcs.0.bias f4 [64]
00000000: 787f d3be b2d8 2f3d c12d 543b 2dd8 a1be
00000010: 1380 db3e 8252 f63c 1386 3ebd 71a2 c6bd
00000020: 7554 143d 4764 40bd 0a8e ecbe bef8 eb3d
00000030: 17b6 67be 6238 26be 8886 6c3d 9f5c c3bd
00000040: 7544 1e3d dc52 ecbe 1e3a 7b3d 4c40 4a3e
00000050: f9aa ccbd 7b32 583e 26f4 203e 54a1 8cbd
00000060: 396d a13d 9ea3 eabe cf48 b93d 309a 443d
00000070: 104c d4be 542d a53d 06c7 d2bd 9717 9e3b
00000080: 7350 e2bd 423c 533c ddf0 fdbd ef04 263d
00000090: 4135 15bf 447f 713d 25c4 b63c ab8c 2cbd
000000a0: 810c d2bd 5cc3 2fbd 9fdd ccbe 3348 313e
000000b0: 8168 6dbd fec5 b3be 782b 593d d173 273e
000000c0: 4c3c dfbd 1740 edbe 2936 203f 8f18 563d
000000d0: e953 4b3d 5ae1 00bd b26c 3e3e 15d7 773e
000000e0: 28cc c9bb 5c19 b83d a969 893e eafe 323e
000000f0: f7fc 04bc 5a8e 0dbf fb00 813e 7882 303d
-0.41308188 0.042931266 0.0032375904 -0.31610242 0.4287115 0.03006864 -0.046514582 -0.09698952
0.036213357 -0.046970632 -0.46202117 0.11522053 -0.22628056 -0.16232446 0.057745486 -0.095391504
0.038639504 -0.46156967 0.06133472 0.1975109 -0.09993548 0.21113007 0.15718135 -0.068667084
0.07882161 -0.45827955 0.0904709 0.047998607 -0.4146428 0.08065286 -0.10291867 0.0048245895
-0.11050501 0.012892785 -0.12399457 0.04053205 -0.58284384 0.05895926 0.022310326 -0.04212634
-0.10256291 -0.04291092 -0.40012833 0.17312698 -0.05796099 -0.35111994 0.05301997 0.16352774
-0.109001726 -0.4633796 0.6258264 0.052269515 0.04964057 -0.031464912 0.18596151 0.24203141
-0.0061583705 0.08989212 0.26838425 0.17480054 -0.008116952 -0.55295336 0.2519606 0.043093175

critic.v_net.fcs.1.weight f4 [64, 64]
00000000: 07d7 6c3e 2434 0cbf 10c9 7bbd fac6 c6bd
00000010: c052 df3e 705c 1bc0 107a 4f3e f1ef 3340
00000020: 188e a73d 5c9f 3fbe c731 0a3d 27c1 213f
00000030: 3d55 16be efcd cebe 5375 ff3f 40f5 373f
00000040: cf57 64bf 84bc 603d 4699 19c0 93ae debf
00000050: 8ddf e83e b6f9 ab3f a47c fe3e ed8b 0a40
00000060: 2249 02be c8c3 db3b d2e8 e1be fc6a ab3f
00000070: 4f68 c63c 532c ac3e 1c9b d5bf d332 16c0
00000080: 37b9 f3bf 4397 fe3f 23bf 2ebf 3e88 a4bf
00000090: ee1c 4fbd 0704 bcbd 6090 86bf 8fbe 81be
000000a0: d05f e13f 2ae1 4a40 ac96 d13e 8459 ed3e
000000b0: 3624 8dbf d943 a0be b4c5 6ec0 1043 0d3f
000000c0: 7172 c03e 8273 053e 8df8 6fbe c3b7 803f
000000d0: 4f35 52be e1a0 c6be 7699 973b 1134 ee3e
000000e0: 991b c53e 52dc 873d 8926 b43e 44e7 51ba
000000f0: fb14 d53f fffa c3bc a60f c0be 911c 87be
00000100: 32a5 a53e c8c6 f1bf 819a 71bf 00f2 503f
00000110: 3e56 743e 6e08 cebf 485f 703f 7b53 d33f
00000120: c971 cabd d593 d0be 23e3 953e da1d 91be
00000130: d055 e63b ff4b d1bd dd33 c43f 5b09 ca3f
00000140: c8e8 abbf c18c 973f 306f 92bf f2c2 b6bf
00000150: 6ea6 89bd 0040 363e 9389 8dbf 2b2c 943f
00000160: 7f12 1cbf ec3c 5d3e 91e9 e0bf 3e08 22bf
00000170: 6340 d13e 0595 6bbf a321 19bf e9a2 54bf
00000180: 0b2e 013f 8d5f 1d3f 83e3 2f3f b39f 30c0
00000190: 554b 173f f945 7bbf 69ef ab3e 5111 11be
000001a0: ce5c 6f3f 1c91 ae3f ddec e23b b9f9 27bf
000001b0: 7f6b 94be 06db 3abd b375 b6bf 9c81 483e
000001c0: 6b16 d43f 4cf8 1e3f f98f cbbe cc20 b4be
000001d0: cd53 b2be 011a 5ebe 3487 4b3e 6a30 c73e
000001e0: b023 d2be eb31 353f 41c5 773e 9e4d e7be
000001f0: 683e b23f 788a 393e 785f f1be 2781 7bbf
00000200: fbfe 97be 5db1 973f 6848 6f3e 43ba 46bf
00000210: a22d 773f 8566 dc3c d396 aebf 5c5e b03e
00000220: 2c1d 3f3f 9be1 153f d28f 06bf 619a 893e
00000230: e750 983c 3b1e d03e 7ac5 9dbf c3b2 98bf
00000240: a5fe 8e3f 5e00 1bbe 12ca 443e 88d2 863f
00000250: 4687 503c f397 51bf e8e3 47be 067a dbbf
00000260: 8c2f a1bf 39aa 8cbe ebde 513f c3ff 64bf
00000270: ea5a 8abd 8ef6 24bf 6f41 633f 36a5 c4bf
00000280: 383b 01bf fb24 343f 3d3a fabc 5d0f d23f
00000290: 4064 06be 6968 5c3f f8f0 e83e 08d5 373f
000002a0: 96f8 46bf 51b0 29bf 3c5f a0be aa43 22bf
000002b0: 6ed9 b4bf 7417 b7be 0bd9 60bf c0f7 6a3f
000002c0: 3a47 243e 1e86 56be 416a c93d 9bbe 6bbd
000002d0: 9407 6d3f 4392 4ebc 5d53 9c3e 1d36 2b3e
000002e0: bc85 77be ae41 c43e 2384 1c3f a6c4 383f
000002f0: 12e7 6dbf 1707 c4be 4f6d d4bd baaa 1e3f
00000300: ce4e 43bf e210 e1bd 66c2 86ba 6dc1 bdbf
00000310: 5360 0340 fb45 8cbe c52a f03d 0f08 df3e
00000320: 46ee 873e 416e 6d3e 55cd 25bf 6077 cebe
00000330: a526 03bf bcb7 dd3f 78a3 10bf 072e a5bf
00000340: b854 e0be 3868 e0be 002f ccbd d8c7 7abe
00000350: 2918 f33e d621 bcbf 1c0b 01c0 c207 31bf
00000360: 8fb6 2ec0 4d15 04bf a91b 86be 60d4 84be
00000370: 3006 9bbe b4ab 8ebf 0704 323f c733 57bf
00000380: 5f29 16bf aca5 713f c391 0740 3585 4f3f
00000390: 6634 b8be 2d6c dbbe 1746 853f 139d adbe
000003a0: 86ea 5ebe 69be 05be a121 26be 989b dabf
000003b0: f3b9 68c0 5090 49bf a29b 11bf c147 5240
000003c0: d369 0d40 29c3 38bf 7740 8c3d 1bb5 b53e
000003d0: 64e0 ed3f 25d0 323e 8147 703d 52d4 d53e
000003e0: 7812 3d3e 9125 d83f 3afa 903f 196a 0ebe
000003f0: 66ee 1fbe 35f2 adbe f696 84bd b19b dbbe
0.23128901 -0.5476706 -0.061471045 -0.097059205 0.4361782 -2.427517 0.20261407 2.8115199
0.08181399 -0.18713135 0.033738878 0.6318535 -0.14680953 -0.4039149 1.995768 0.71858597
-0.89196485 0.054867283 -2.39998 -1.7397026 0.45483056 1.3435581 0.49704468 2.1647904
-0.1272321 0.0067066886 -0.4412294 1.3392024 0.02421966 0.33627567 -1.6687961 -2.346852
-1.9040898 1.9889911 -0.682604 -1.2854078 -0.0505647 -0.09180456 -1.051281 -0.25340697
1.7607365 3.169993 0.40935266 0.46357358 -1.1026676 -0.31301764 -3.7308168 0.55180454
0.37587312 0.13032344 -0.23434658 1.005608 -0.20528148 -0.38794616 0.0046264483 0.465241
0.38497618 0.0663382 0.3518565 -0.00080071785 1.6647028 -0.023923395 -0.3751194 -0.26388982
0.32352597 -1.8888788 -0.9437638 0.8161926 0.23861024 -1.6096323 0.9389539 1.6509851
-0.09884984 -0.40737787 0.29274854 -0.28343087 0.0070292726 -0.10219573 1.5328327 1.5784105
-1.3430414 1.183983 -1.1440182 -1.4278243 -0.06721197 0.17797852 -1.1057609 1.1575979
-0.6096572 0.21605271 -1.7571279 -0.63293827 0.40869436 -0.9202426 -0.5981695 -0.8306108
0.5046088 0.61473924 0.6870653 -2.7597473 0.5909932 -0.98153645 0.33581093 -0.14166762
0.93500984 1.3638034 0.006925209 -0.6561542 -0.28988263 -0.045619033 -1.4254669 0.19580692
1.6569341 0.6209762 -0.3975828 -0.35181272 -0.3482956 -0.21689607 0.19875795 0.38904124
-0.41042852 0.70779294 0.2419634 -0.45176405 1.3925295 0.18119228 -0.4714315 -0.98243946
-0.29686722 1.1851002 0.23367465 -0.7762796 0.96554005 0.026904354 -1.3639778 0.3444699
0.7465389 0.5854737 -0.525632 0.26875594 0.018593265 0.40648064 -1.232589 -1.1929554
1.1171461 -0.15136859 0.19217709 1.0532999 0.012727564 -0.8187248 -0.19520533 -1.7146614
-1.2592635 -0.2747362 0.8198077 -0.8945276 -0.06755622 -0.6443871 0.8877172 -1.5362918
-0.50480986 0.7036893 -0.030545348 1.6410939 -0.1312418 0.8609682 0.45496345 0.71809435
-0.7772306 -0.6628466 -0.31322658 -0.633845 -1.4128854 -0.3576008 -0.8783118 0.91784286
0.16042796 -0.20949599 0.098347194 -0.057554822 0.9258969 -0.012608114 0.3053235 0.16719861
-0.2417211 0.3833136 0.61139125 0.7217506 -0.9293071 -0.3828666 -0.103724115 0.6197926
-0.7629212 -0.10989548 -0.0010281324 -1.4824654 2.0527542 -0.2739714 0.11726908 0.43560836
0.26548976 0.2318659 -0.64766437 -0.4032545 -0.5123084 1.7321696 -0.56499434 -1.2904671
-0.43814635 -0.43829513 -0.09969902 -0.24490297 0.4747937 -1.4697826 -2.016303 -0.6915246
-2.7298925 -0.51595 -0.26192978 -0.2594328 -0.30278158 -1.114615 0.69537395 -0.8406338
-0.5865688 0.9439342 2.1182716 0.8106263 -0.35977477 -0.4285597 1.0412015 -0.339089
-0.21769151 -0.13060917 -0.16223766 -1.7078733 -3.6363494 -0.7873583 -0.568781 3.2856295
2.209584 -0.7217279 0.06848233 0.35489735 1.8584104 0.17462213 0.05866194 0.4176355
0.18464077 1.6886464 1.1326363 -0.1390766 -0.15618286 -0.33973852 -0.06474106 -0.4289222

critic.v_net.fcs.1.bias f4 [64]
00000000: ba0d 08be c1ce 38bf 23cc ac3e af1a 0f3e
00000010: 4ffa 983d 3d0f a0bd 6069 2cbf a8e3 003f
00000020: 81d8 2c3c 6627 2ebf 8cbb 843f 8029 49be
00000030: d3de b83e 376a 853b 3abb 99bf 30ab 9cbf
00000040: 79c5 5b3b f3e9 b7be 3a73 ba3e 93e5 6c3f
00000050: 5673 e7be 42b4 babe 0010 f23d eb69 983e
00000060: 886d f43e 57d2 14be c1bc 80bf 272d 953d
00000070: fbe9 f9be ac00 dfbe 0bf6 18bd 6a18 2b3e
00000080: 7509 6c3f 8cd5 c8be e9a4 d33c 77e5 4cbe
00000090: f410 cabc 4427 6c3e 025a d33e c629 003f
000000a0: baa8 b9be 44f2 f2be 97e4 e03e 2aba 08bf
000000b0: 101d 00be 5a97 e13d 8191 7bbf 80f3 063f
000000c0: fed4 83be 80e5 d43e b5c6 563c fcf1 b53f
000000d0: f982 cdbe 78f1 0ebc dc08 ac3d bda7 543f
000000e0: 2371 a13f 20ba 81be 48bb 2c3e b6c4 123e
000000f0: 0364 f8be 6978 c83e 250d a23f b404 173e
-0.13286486 -0.7219048 0.33749494 0.13975023 0.074696176 -0.078154065 -0.6734829 0.50347376
0.010549665 -0.6802887 1.0369735 -0.19644737 0.361075 0.0040714997 -1.2010262 -1.2239742
0.003353445 -0.35920677 0.36416036 0.925378 -0.45205182 -0.3646565 0.11819458 0.2976831
0.47739816 -0.14533363 -1.0057603 0.07284003 -0.48811325 -0.435552 -0.03734402 0.16708532
0.9220193 -0.39225423 0.025835471 -0.20009409 -0.024666287 0.23061854 0.41279608 0.5006374
-0.3626154 -0.4745046 0.439244 -0.53409064 -0.12511086 0.11015196 -0.98268896 0.527153
-0.25748438 0.41581345 0.013108899 1.4214473 -0.40138987 -0.008724563 0.08400127 0.8306845
1.2612652 -0.25337315 0.16868317 0.14332852 -0.48513803 0.39154366 1.2660261 0.14747888

critic.v_net.fcs.2.weight f4 [1, 64]
00000000: 9ab7 6640 f7d7 1c40 017b fcbf d1bd 8cbf
00000010: 4530 bd3f bdf5 a63f 4222 19c0 fd83 91bf
00000020: 57ba 4140 a8fb fb3f bd57 c63f 60a8 6e40
00000030: 2c86 f13f d918 e63f 9957 cdbf 9136 ddbf
00000040: 04c2 3bc0 70c8 2e40 1b9c 17c0 7182 ca3f
00000050: 1ea3 eabf 57de e9bf bfed 40c0 f78b 43c0
00000060: 2157 db3f 8de3 27c0 d847 d7bf ed15 5c40
00000070: 81a4 4240 58ed 03c0 8fee 2540 9f27 0f40
00000080: 8a89 b33f 7853 03c0 29bd 20c0 5e20 f1bf
00000090: 4b8a 5d40 6eee d1bf 40fc f63f b38a 0140
000000a0: eaf4 f03f 0535 b8bf 4156 1640 29cf 1bc0
000000b0: df5e 1640 cbbc 0c40 5436 c9bf 6cba 0640
000000c0: f122 36c0 7eaa 9ebf 9bf5 303f 54a3 d13f
000000d0: 8406 bebf 00fe 373f d6a8 8ebf 30af d03f
000000e0: 97c5 c53f f7bd a2bf 4109 48c0 ef57 cf3f
000000f0: 629f e1bf 44f1 fe3f 9bfe cc3f 2c6a 3d40
3.6049562 2.4506814 -1.9725038 -1.0995427 1.4780356 1.3043743 -2.392716 -1.1368405
3.0269983 1.9686174 1.5495526 3.7290268 1.8869071 1.7976333 -1.6042358 -1.7282277
-2.9337168 2.7309837 -2.368903 1.5821058 -1.833103 -1.8270978 -3.0145109 -3.0554178
1.7135965 -2.6232636 -1.68188 3.4388382 3.0412905 -2.0613613 2.5926855 2.2367933
1.4026349 -2.0519695 -2.5115454 -1.8838003 3.4615657 -1.6400888 1.929573 2.0240905
1.8824742 -1.439118 2.3490145 -2.434519 2.3495405 2.199023 -1.5719705 2.1051283
-2.8458827 -1.239578 0.69124764 1.6377969 -1.4845738 0.7187195 -1.1145275 1.6303463
1.5450925 -1.2714223 -3.1255648 1.619871 -1.7626765 1.9917378 1.60152 2.9596052

exp_avg f4 [64, 4]
00000000: 2fc9 06ba ab0e 80bb 8bf5 37b9 bd62 4dbb
00000010: 6738 cbba 673c 3d3a 9d9e fab9 1ef7 c73b
00000020: 5494 d539 dcaa 223b d0a5 2f39 49fe 1a3b
00000030: fefb 5ebb 9a67 9cbc 5598 93ba cbe7 80bc
00000040: da27 113a 358f ec3a 776e 5439 f142 42ba
00000050: 9cb4 64ba 8dc5 b0bb a168 abb9 7887 9ebb
00000060: 9d47 653a d44c 803b 0b1f c139 87a0 833b
00000070: f864 303a d857 443b fe82 2d39 2196 a9b8
00000080: 58df 0c3b 9d54 373c b9cb 363a 7a17 c83b
00000090: ad3c e939 3c4f 3b3b cb9c 1239 2d07 a539
000000a0: 687d 43ba 6102 11bb 2b75 7fb9 a6cf 3d3a
000000b0: 4dc5 5aba 53a2 82bb 9560 a9b9 683e 4ebb
000000c0: dc17 9739 32b7 f8b9 44e6 0739 27c1 1d3b
000000d0: ed57 1b38 b5ac 23ba 567d 40b8 f80e d2ba
000000e0: 2774 bbba 388a 0fbc 9cd2 eab9 7c43 d8bb
000000f0: 4088 f439 7454 d83a 46df 1539 3812 243b
00000100: 24c1 e838 6629 393b 8d06 1bb8 2a6c 66ba
00000110: 8d10 6db9 04cf b13a af08 d8b8 7796 dc38
00000120: 73a0 43ba 1b4c 8ebb ab3c 8bb9 4961 52bb
00000130: 4666 a43a 0017 493c ae38 da39 fb67 6e3c
00000140: 2e3b 7aba 8a03 9fbb 3a19 b0b9 bd7d 82bb
00000150: 2d60 ed39 2d19 403b 81ba 8938 8543 2b3b
00000160: 019c 96ba e29d 0dbb 26e3 e0b9 7602 e13a
00000170: 3fb8 f03a b75a 203c 4409 2d3a 43c4 093c
00000180: 9e06 a5ba 1cfc 08bb 19f0 12ba 6cf6 8dbb
00000190: 5ff8 0cba 4387 b33a 7c00 19b9 652c 543b
000001a0: ea62 39ba 8b34 78bb fbfe 76b9 784a cdba
000001b0: f620 a13a e383 8c3c 0f25 b139 dcd5 973c
000001c0: bf7e 323a e780 383b 779f 8439 872b 49ba
000001d0: 5409 7cbb d146 cabc aefb a8ba 6154 8dbc
000001e0: 553f 7c3a 6cad e23b 052e 9e39 fd38 7d3a
000001f0: 7cbb 0a3a a8cd 293b 70dd 4139 57b9 7d3a
00000200: 8e5e 35ba c26f 7bbb 591c 93b9 1c90 86bb
00000210: ab9a 14ba cf5d caba e167 71b9 d406 9eba
00000220: 9708 d33a 9b92 2a3c 6e68 113a 4dda 173c
00000230: d65c 8d3a 9055 3a3b fd63 b839 3517 31bb
00000240: 1012 54ba a511 59b9 b8bd b6b9 9985 283b
00000250: 6cc7 8bba 0f96 97bb 239f bab9 a9cd 01bb
00000260: 88ef 3c3a d2e6 543b 2060 6c39 640e 353b
00000270: a351 03bb 01e6 3dbc 6eff 33ba c87c 00bc
00000280: 3dd3 48b9 68ab 6c3a fabf d6b8 7e84 2fbb
00000290: 223a b63a 1579 8f3b 500d 023a e0c6 79ba
000002a0: b4ff 39b9 a4a9 8d3a cbba c3b8 f3fa d7b9
000002b0: fd50 9b39 4301 003b dd4a 8838 d30e 313a
000002c0: 242d b63a 3d44 853b 2ba5 053a 6b2c 41ba
000002d0: 782a 82ba 74d6 3cbb 1b49 afb9 5c06 fdba
000002e0: 395d 1b3b a3c3 3e3c 3360 493a e527 eb3b
000002f0: e428 943b 9cdb d93c 3920 c73a 4ff1 9a3c
00000300: e178 17ba 5553 e8ba 7e6c 50b9 2c90 a1ba
00000310: 1d41 1bb9 76a2 54ba 555c 7fb8 fff5 ceba
00000320: e2b0 0fb9 38d9 393a a79d 3a36 f3fc ae3a
00000330: 7326 83ba 2711 c1bb c66b a0b9 a3c1 7cbb
00000340: 4e99 6a39 815c 113b 7f41 9338 8581 d439
00000350: aa80 113a 9520 8a3b 5fe2 6739 8992 823b
00000360: 3a22 93b9 a1ba c636 d384 0fb8 f481 3f3b
00000370: 23e7 c93a 5fa1 a63b bebf 053a f507 10bb
00000380: 40d4 5c3a a384 bd3b b0be 9a39 2607 a03b
00000390: 52fb a2ba 93e0 e2bb 3e0f c4b9 1c3d ad37
000003a0: d243 46bb c038 83bc e0f9 84ba 73f3 2fbc
000003b0: e6d8 cfb9 fe6a 163c 4435 7bb9 e39d 683c
000003c0: 948c 52ba 4cea 0dbb 741f 9bb9 f495 d33a
000003d0: 3cd8 4c3a 05c3 83bb 8bcd 9639 9e65 18bc
000003e0: d761 8abb f941 d5bc fcea c2ba 2334 9abc
000003f0: 23be a93a 6b91 ad3b 8b83 f239 deba b23a
-0.0005141673 -0.0039079986 -0.00017543712 -0.003133937 -0.001550448 0.00072187785 -0.00047801892 0.0061024567
0.0004073704 0.0024821078 0.0001675107 0.00236501 -0.003402471 -0.01909237 -0.0011260608 -0.015735528
0.00055372494 0.001804805 0.00020259047 -0.0007410488 -0.00087244227 -0.0053946436 -0.00032693616 -0.0048379265
0.0008746328 0.0039154086 0.00036834957 0.004016939 0.00067289127 0.0029959586 0.00016547364 -8.086512e-05
0.0021495428 0.011189607 0.0006973106 0.0061063142 0.0004448643 0.0028581163 0.00013982055 0.000314766
-0.00074573467 -0.0022126662 -0.00024362344 0.000724072 -0.000834544 -0.0039866357 -0.0003230615 -0.0031470302
0.0002881874 -0.00047438737 0.00012960384 0.0024071427 3.7036767e-05 -0.0006243692 -4.5893095e-05 -0.001602619
-0.0014301584 -0.008760981 -0.00044788874 -0.0065998416 0.0004664082 0.0016504661 0.00014292923 0.0025035273
0.00011098597 0.0028253435 -3.696098e-05 -0.00087899214 -0.00022608247 0.0013565724 -0.000103013 0.00010518444
-0.00074625685 -0.0043425686 -0.00026557347 -0.0032101444 0.0012542687 0.01227355 0.0004162243 0.014551158
-0.00095455616 -0.004852717 -0.0003358813 -0.0039822743 0.0004527582 0.002931188 6.567408e-05 0.0026132774
-0.0011490585 -0.0021608998 -0.00042893848 0.0017166871 0.0018365456 0.009787253 0.0006600807 0.008408609
-0.0012590473 -0.0020902222 -0.00056052353 -0.0043323543 -0.00053775863 0.0013696927 -0.00014591397 0.0032375094
-0.0007071929 -0.0037873115 -0.00023555376 -0.0015662452 0.0012293148 0.017152732 0.00033787682 0.018534593
0.0006809048 0.0028153004 0.00025295813 -0.00076740276 -0.0038457708 -0.024691971 -0.0012892389 -0.017252149
0.00096224743 0.006917646 0.00030170396 0.0009659676 0.00052922196 0.0025909934 0.00018488406 0.0009678802
-0.0006918692 -0.0038366173 -0.00028059146 -0.0041065346 -0.0005668799 -0.0015439334 -0.00023022249 -0.0012056478
0.0016100582 0.01041093 0.0005546872 0.009268356 0.0010785114 0.0028432347 0.00035169712 -0.002702189
-0.000808985 -0.00020701306 -0.00034855097 0.0025714396 -0.0010664291 -0.0046260427 -0.0003559525 -0.001980642
0.0007207324 0.0032486212 0.00022542523 0.0027626986 -0.0020037673 -0.011590482 -0.000686637 -0.00784225
-0.00019152179 0.0009028227 -0.000102400736 -0.0026781852 0.0013902823 0.004378448 0.000496109 -0.0009528231
-0.00017738232 0.0010808003 -9.3331175e-05 -0.00041194967 0.00029624245 0.0019532002 6.49893e-05 0.0006754223
0.0013898951 0.0040669725 0.00050981593 -0.00073689845 -0.000993087 -0.0028814347 -0.0003343307 -0.0019304263
0.0023706688 0.011643323 0.00076818763 0.0071763867 0.004521476 0.026593976 0.0015192098 0.018913893
-0.0005778205 -0.001772503 -0.00019876842 -0.0012326292 -0.00014806208 -0.0008111367 -6.088273e-05 -0.0015789865
-0.00013703437 0.0007089558 2.7807926e-06 0.0013350531 -0.0010005966 -0.0058919373 -0.00030597876 -0.0038567565
0.0002237309 0.002218038 7.021706e-05 0.0004053229 0.00055504835 0.00421531 0.00022114207 0.0039847535
-0.00028063526 5.9225863e-06 -3.421756e-05 0.0029221745 0.0015403967 0.005085155 0.0005102119 -0.00219774
0.00084239617 0.005783634 0.00029515242 0.0048836647 -0.0012434518 -0.006923744 -0.0003739539 2.0651663e-05
-0.0030252826 -0.016018271 -0.0010145269 -0.010739195 -0.0003964372 0.009180782 -0.00023957068 0.014197799
-0.0008031812 -0.0021654544 -0.00029587338 0.0016142712 0.0007814204 -0.004021051 0.0002876337 -0.009301571
-0.004223089 -0.026032435 -0.0014871056 -0.018823689 0.0012950342 0.005296876 0.00046255844 0.0013636013

exp_avg_sq f4 [64, 4]
00000000: 039a e63a e2be 383b 0751 df39 1159 f03a
00000010: 28ad f33b 41af 2a3c a91a cf3a cf7f eb3b
00000020: 2d2c 713a c6a6 b13a bc5c 5039 20be 5d3a
00000030: 1dfa 293d e1fb 813d 2e0a 1a3c 09d2 233d
00000040: d910 1c39 75eb 9839 ed5b 8737 ef18 b138
00000050: f882 833b b626 c53b 71d9 683a b7b2 7a3b
00000060: e3cf 003b f834 413b a41b e639 80ab fd3a
00000070: 3927 2b39 ac99 e739 80be ed37 1a40 e338
00000080: dfe3 f33b 3d6c 5e3c 42ec f23a ef88 f43b
00000090: 0a59 b039 265d 453a 4687 9138 2b87 9b39
000000a0: 0706 3d39 5c93 9639 35c0 9337 83f5 c138
000000b0: 4da8 c53a bcc7 183b f3ef b139 77e4 bb3a
000000c0: 9ec6 113a fd41 7b3a 64bc 9338 4ec0 cd39
000000d0: 1d97 af39 6f6b 013a faf0 9038 13b2 a839
000000e0: 21c6 053c 3762 543c 0cdb f73a 1aaa 013c
000000f0: 3fc1 503a 383b 873a 1204 1b39 d716 323a
00000100: ceae 183a 9d3e c43a 178e c238 d945 d939
00000110: cd62 b839 0a20 3e3a 9ea8 9938 795f aa39
00000120: dffc fd3a c10c 4c3b 6e99 e639 5be8 ee3a
00000130: 7dac 133d d448 543d 350c 013c c1ad 0c3d
00000140: e1b8 313b ced6 843b b159 173a f45f 203b
00000150: 4a44 c93a 4c0c 083b 6fc6 a139 908c a73a
00000160: a951 3f3a 040d 763a a7b8 fc38 3d31 1a3a
00000170: 1312 313c c5ca 863c e65d 213b 66df 2d3c
00000180: bd53 d63a 7430 213b ea3c 7a39 4255 a13a
00000190: 5d31 0a3b 2174 4d3b 0a0f fd39 ca66 0b3b
000001a0: 45b1 6c3a e966 d53a 75d8 5139 27bc 4a3a
000001b0: c202 8a3d 6ddf cb3d d92f 753c 8651 833d
000001c0: 680f 6639 0c33 093a 4333 c537 022b f438
000001d0: 98d6 753d 5e63 c93d f2e5 643c 23f4 6d3d
000001e0: 8f8c fc3a 4927 983b 5225 e439 cc9e e23a
000001f0: 7ad9 ca39 8521 333a 2b03 aa38 b9e6 a039
00000200: 1b52 223b 7f02 6e3b dca3 0e3a f4c3 1a3b
00000210: e8fc 0939 e175 4a39 ff94 d837 c45c f838
00000220: 98ca 6b3c 5eb5 b33c 019b 563b d57b 663c
00000230: d96f a03a 7803 fb3a 3522 3139 a527 653a
00000240: d927 d23a 2b7f 043b e926 a439 fedc bc3a
00000250: e488 913a 6e1b fa3a 8091 7d39 6e23 713a
00000260: 1f1b 8f3a 852c d53a 3a25 8139 780f 8a3a
00000270: a987 333c cd70 973c 6d1f 2e3b 2371 363c
00000280: b882 503a cbe7 b23a 9e97 c738 da21 0b3a
00000290: daef c639 d7b9 543a 5431 1e38 c2ea 4639
000002a0: 7de0 7b39 8c51 133a ce28 2738 76cb 3d39
000002b0: 6c80 4839 6fa4 d339 925e 4f38 3ccd 5039
000002c0: 9820 b639 415a 1b3a b196 ff37 1fd8 2039
000002d0: af2d b439 2ae5 033a c8a3 9538 c908 a339
000002e0: 5504 1a3c aa70 7f3c 6df0 113b 9d2f 153c
000002f0: aba5 8d3d bd51 e53d c57a 823c ad4a 873d
00000300: 8b30 0339 be3e 5739 a201 fd37 f7a4 0c39
00000310: 315c bf39 7804 f539 7a59 9038 b1f2 9e39
00000320: 3eaf 9c39 604a ff39 3213 9c38 9ef4 a939
00000330: db3a 3a3b 8fe0 9a3b e78d 313a 8079 363b
00000340: 5b41 a739 36f6 313a 4631 8f38 d529 9239
00000350: 9da2 393b 86c2 8d3b 83a5 283a 3a81 323b
00000360: 322b 843a bffd bb3a 20b4 4c39 e66a 763a
00000370: 09b7 983a 6ae0 153b 55d6 0139 76b0 2a3a
00000380: 0022 9a3b b6f1 ea3b 6c22 893a f78b 903b
00000390: afa9 bf3a 05d1 803b e215 9139 3429 903a
000003a0: 8478 b43c 6e4f 133d 2a0d a73b e2c5 aa3c
000003b0: 47d4 263d 9e34 683d 0945 0e3c 9a0c 1c3d
000003c0: 6365 0d3a 5cdd 523a e153 8f38 841d bb39
000003d0: 9b46 843c cbaa b53c 54c9 5d3b 693a 783c
000003e0: 912f 853d 0e2d dd3d 62b3 7d3c 56d4 833d
000003f0: 33bc 303a 0208 c43a 9113 2439 82b8 153a
0.0017593506 0.0028189947 0.00042594245 0.0018337091 0.0074364133 0.01041776 0.0015800792 0.007186867
0.0009200003 0.0013553731 0.00019870972 0.0008458812 0.041498292 0.0634687 0.009401841 0.039995227
0.00014883596 0.00029167128 1.613606e-05 8.444662e-05 0.0040134154 0.0060165776 0.0008882499 0.0038253495
0.001965516 0.0029481035 0.00043889612 0.0019353479 0.00016322442 0.00044174248 2.834131e-05 0.00010836143
0.007442936 0.013575611 0.0018533545 0.007462613 0.00033635675 0.0007528834 6.9393354e-05 0.00029664612
0.0001802669 0.0002872002 1.7613269e-05 9.248687e-05 0.0015080065 0.002331241 0.00033938847 0.0014335056
0.00055609073 0.0009584723 7.044597e-05 0.00039243925 0.0003349119 0.00049369683 6.9113405e-05 0.00032176133
0.008164913 0.012962869 0.0018909886 0.0079140905 0.0007963366 0.0010317331 0.00014783468 0.00067935645
0.0005824388 0.0014972273 9.277107e-05 0.00041441506 0.00035168827 0.0007252699 7.327016e-05 0.0003249606
0.001937773 0.0031135532 0.00043983333 0.0018227206 0.03605317 0.051827267 0.007876446 0.034345392
0.0027118253 0.004053927 0.0005773558 0.0024471255 0.0015355435 0.0020759283 0.00030856158 0.001278298
0.000729824 0.0009386095 0.000120506906 0.0005881971 0.010807532 0.01645411 0.0024622618 0.010612344
0.001635186 0.002459553 0.0002386455 0.0012308734 0.0021086552 0.0031349736 0.00048267125 0.0021270984
0.0009029101 0.001628128 0.0002001243 0.00077337254 0.06738807 0.099547245 0.014965021 0.06412034
0.00021940249 0.0005233742 2.35081e-05 0.000116428375 0.060019106 0.09833406 0.013970839 0.058094155
0.0019267964 0.004643355 0.00043515355 0.0017289757 0.00038690475 0.0006833303 8.106822e-05 0.0003068948
0.0024768177 0.0036317406 0.0005441287 0.0023615332 0.00013159553 0.00019308135 2.5818588e-05 0.000118428405
0.014391564 0.021937069 0.0032746198 0.01406761 0.0012240364 0.0019150814 0.00016892779 0.0008741564
0.0016033604 0.00202174 0.00031309508 0.0014409123 0.0011103419 0.0019081661 0.00024182163 0.00091987
0.0010918117 0.0016263878 0.00024632533 0.0010533174 0.010957637 0.018486405 0.0026569024 0.011135372
0.0007954049 0.0013649402 9.5173e-05 0.00053074735 0.00037944206 0.00081148505 3.7716076e-05 0.00018970206
0.00024020854 0.00056197564 3.9853905e-05 0.0001810024 0.00019121327 0.0004036757 4.944072e-05 0.00019912882
0.0003473803 0.00059262296 3.046854e-05 0.000153393 0.00034366312 0.00050314015 7.13538e-05 0.00031096328
0.009400447 0.015590826 0.002226855 0.00910559 0.06916364 0.11197231 0.015927682 0.0660604
0.00012511217 0.00020527371 3.016071e-05 0.00013412895 0.00036499047 0.0004673337 6.8831214e-05 0.00030316928
0.00029885204 0.00048692804 7.442235e-05 0.00032416446 0.0028416428 0.0047264765 0.0006773159 0.0027843416
0.00031901416 0.00067887024 6.827949e-05 0.00027878457 0.0028325685 0.0043261675 0.00064333546 0.002723767
0.0010083674 0.001434259 0.00019522058 0.00094000844 0.0011651228 0.0022869357 0.00012382244 0.000651128
0.00470376 0.0071699275 0.0010462529 0.0044112164 0.0014622713 0.003931167 0.0002767286 0.0010998608
0.022030123 0.035964422 0.005098005 0.020846311 0.040729787 0.056690805 0.008683451 0.038097955
0.0005393831 0.00080438494 6.834395e-05 0.0003568941 0.016146949 0.022176167 0.0033841925 0.015150645
0.06503213 0.10799609 0.015484663 0.06436984 0.0006741911 0.0014956 0.00015647548 0.0005711393

exp_avg f4 [64]
00000000: 594b 15bd 78c2 803d afa0 d73c 7893 35be
00000010: 40dd e23a 1976 65bd 147a 1f3d ab76 243c
00000020: a73a a63d d08c 7f3c 4d07 82b9 ec8f 11bd
00000030: 9132 b63b b665 6ebc e4f5 a1bd 432a 973c
00000040: 5070 6a3c cdcc 7f3c a861 26bd f69b 1d3e
00000050: ab1c 3ebd 194d f73c 991c 363c 2138 b73d
00000060: 15d6 a9bc d428 173d ca61 e9bc ed84 5b3e
00000070: 8af4 b73b 0ea5 60be 13f2 2a3d 5530 983c
00000080: 96c8 2fbd 3f35 11bc 869f d13d b0d5 20bc
00000090: 7508 d23c 4405 02bd 0bba dd3c d739 c5bd
000000a0: c0ba a1bb e766 ac3b e271 233c af72 4c3c
000000b0: 59b8 623b 8d4a 7ebc bde8 b33d 2fbe 723e
000000c0: 61e0 19bc 13ee 72bc 9d72 783c 917c 41bd
000000d0: ef24 873c 58c3 3e3d 684d b13c b4e9 0e3b
000000e0: 2dff 763d 3118 03bd f38a 0abe d074 1f3e
000000f0: 9ff0 9b3b cd08 c0bd c69a 70be 2425 e33c
-0.03644881 0.06287092 0.026321737 -0.17732036 0.0017308369 -0.05602083 0.038934782 0.010038058
0.08116656 0.015597537 -0.00024800972 -0.035537645 0.005560227 -0.014550617 -0.07908228 0.01845277
0.014309004 0.015612793 -0.040620476 0.15391526 -0.04641406 0.03018813 0.011115217 0.089462526
-0.020731965 0.03690417 -0.028489012 0.21437426 0.005613868 -0.21937963 0.041734766 0.018577734
-0.042915903 -0.0088627925 0.10235505 -0.009816572 0.025638798 -0.031743303 0.027066251 -0.09630173
-0.0049355924 0.0052612904 0.009975882 0.012478515 0.0034594743 -0.015520704 0.08784626 0.23705362
-0.009391875 -0.014827269 0.015164045 -0.047237936 0.016497103 0.046573013 0.021643355 0.0021806778
0.06030195 -0.032005493 -0.13529567 0.15571904 0.004758909 -0.093766786 -0.23496541 0.027727671

exp_avg_sq f4 [64]
00000000: 19f6 4c3f 3460 4940 e550 c03e a12c 8d41
00000010: 6db3 8c3c ca38 d63f 0d72 583f 2f21 9d3c
00000020: 0115 4f40 36da 9e3d 85a1 d53c 45c8 213f
00000030: 75d2 b13d 1b4c 0c3e 57de 5e40 3eb0 933e
00000040: 3119 323d 7ec2 af3d d172 4c3f 98c9 7241
00000050: 15d7 893f fb2a 133f 4b38 7c3e 71b3 9540
00000060: 7e3e c93e 6a52 6f3f 6fc9 9e3e ab8f e241
00000070: 5390 db3b c5e4 ca41 6ef3 023f 8cc4 f93d
00000080: 8036 853f f778 473d ea81 c640 8fc9 973e
00000090: 07b3 213f a335 c63e 36b3 ef3e 2936 9b40
000000a0: 76bd e93d 739e e23c 2407 d23c 6a41 9c3d
000000b0: 970a 213d 2eb5 083e 8c77 8040 a434 e741
000000c0: ec91 673d 13d6 083e dabd 113e fa6b 9d3f
000000d0: a100 ac3d 9e1e 9a3f 3be8 c53e 5e73 063e
000000e0: a62e f73f 7bba 5b3e 086e 1241 8881 8641
000000f0: 3064 f73d 4c6f d540 78fe e041 8085 5b3e
0.80063015 3.1464968 0.37561718 17.646791 0.0171754 1.6736081 0.8454903 0.019180862
3.235657 0.07756464 0.026077995 0.6319621 0.086827196 0.13700907 3.4823205 0.288454
0.043481056 0.08582018 0.79862696 15.174217 1.0768763 0.5748746 0.24630849 4.6781545
0.3930549 0.9348513 0.31013057 28.32015 0.0067005544 25.361704 0.51152694 0.121956915
1.0407257 0.048699345 6.2033587 0.29645965 0.631638 0.38712797 0.46816415 4.8503613
0.1141309 0.027663445 0.02563817 0.07629664 0.03931674 0.13350365 4.014593 28.900703
0.056535646 0.13362913 0.14232579 1.2298577 0.083985575 1.2040594 0.3865374 0.13129947
1.9311111 0.21457855 9.151863 16.813248 0.12079656 6.669836 28.124252 0.21437645
