training_results/cartpole/ppo/seed_42/1000000steps/checkpoints/model_900000.pt (torch, 151579 bytes, 30 tensors)

actor.pi_net.fcs.0.weight f4 [64, 4]
00000000: ba3f aebe 75be 063f d316 193f 57ec 863f
00000010: 79f9 d7be add4 11be 67da c5bd da64 8ebf
00000020: 22e5 ca3e 21a0 d6be 8228 1fbf 8480 4cbf
00000030: 4841 fabd 3490 6ebe a5d5 2a3f efc6 153f
00000040: 846e bc3e 4644 853e 1695 85be d25d 843e
00000050: ed11 e0be dca2 cbbe f5f7 f63e 5a9f 9a3f
00000060: 5512 7f3e e537 993e 6dbb d2be eae7 29bf
00000070: b861 29be f06a 323e 5387 8d3d 130a e13e
00000080: 628a f03e 23aa 853e 9539 54bf 5f56 a6bf
00000090: 5637 913e a231 33be 2343 10be 26f3 a53e
000000a0: 0c44 3c3e c3ba abbe 38f2 cf3c 5d84 5dbf
000000b0: e164 04bf 0953 b3be 8d6e 093e 784b 883e
000000c0: bf49 4ebe 5246 e13d 51ac fabe 89ee 3ebf
000000d0: bf55 643c 803c 243e 92e2 4ebd bed3 7e3f
000000e0: 9923 14be 5253 873e 1052 3f3f f0b9 a73f
000000f0: 2713 103e 6f05 4cbd 9d4f a6be 947e 17bf
00000100: 77f4 783e c001 0dbe a58d 88be 0d41 2a3f
00000110: fdfe 82bc 912e 333e e431 e1be 85b1 9e3e
00000120: 5679 f2be d430 0f3e f697 5e3f f818 b13f
00000130: 0f8c 943c 62df 89bd 3dfc 2dbf a2ba 42bf
00000140: d69d 24bf d3cf 553d 581d 443f 9cb4 c43f
00000150: eb40 59be c06c 043e d6ef c2be ca89 89bf
00000160: 4732 62be 40e3 33bd 4021 f7be 160b 13be
00000170: 7f82 9a3e f740 04bf a030 f7be 6b96 b4be
00000180: 7b37 b3be fde5 a93d e330 213e d0a4 8f3f
00000190: df9d 88be c0f7 cdbd b050 46bf a070 60bf
000001a0: fd23 0dbf e77f fdbe cf72 393e 50b1 eabc
000001b0: 8810 59be d396 acbe 2cfb c9be 5342 65bf
000001c0: e837 293f 8efa 1fbe 7f61 913e cbd5 adbc
000001d0: 4f5d 2cbf 49de 8fbc 00c1 343f 22b4 ba3f
000001e0: 1b06 a53e c7f9 153e a42b cebe d2d5 9a3e
000001f0: 0cf1 a03e 1fe6 103f 7701 f3be 7c3f 2d3e
00000200: aff0 7bbe 652e 5bbe 7bd0 403f dad2 413f
00000210: a22f 16bf 0134 fb3e e2c3 bb3e 8101 a1bd
00000220: d239 db3e 400e f6bd f8a1 24bf f218 41bf
00000230: 6c32 ce3e f9ee 8c3d 56e1 803e b0a7 923e
00000240: 3e11 d1be fc57 95be 2bf6 65bd 9d49 56be
00000250: 95fd 23bf 1fdd 06bf 305a 063f 7012 aabd
00000260: 8dd5 5d3e eb97 743e 34b3 acbe dde4 70bf
00000270: 3974 01bf a020 613e 6744 a03f 2004 b53f
00000280: a18b 163e 02fc b93d 8584 653e e3fb a03e
00000290: e63f 023f 4082 23be 4198 853e f0cd 77bc
000002a0: dd89 0b3f 7be9 62be 030d 81bd 1bd2 d63e
000002b0: 47cc 13bd 15ee 623e c2f7 31bf 77c4 3d3e
000002c0: de78 ee3d f78a d73e 558e 12be 5ba6 1a3f
000002d0: fb58 cf3b 0ddd 51be b537 493f 78fb 8e3e
000002e0: ddd5 943e d177 c63e e1f4 b2be f1ea a0bf
000002f0: fa98 d33e f1ac 8fbd b26b 90bf f49a b3bf
00000300: 1847 cb3b 700b 70bc d2c3 103f 9668 5a3e
00000310: 41d3 1cbf 6425 b93e 03de 083d 14da 693f
00000320: a8fe 79be 9eb3 ffbd ee45 92be 73b4 e4bd
00000330: 01a7 bbbe d9a7 8dbe eb65 6b3f b022 a03f
00000340: 1b95 083e bdc6 943e 0f97 d3be 8a2e 113e
00000350: 3ec5 5a3d 002f babd 4a5f 62bf d2e7 4bbf
00000360: 5342 9dbe b1db f33e 8432 c1be 32bf 94be
00000370: 7d83 a03e 3a8b a83e 43b3 01be 9458 a23e
00000380: e0b8 e13e f559 a93e 581e 4cbf 03d4 5dbf
00000390: 0432 fabe 3816 543e a084 9d3e bac3 5e3e
000003a0: b833 b8be eba7 053f 7fd2 4a3f e733 603f
000003b0: 2e98 dbbc f134 d9be 33a6 edbe 4310 08bf
000003c0: 25a9 cebe feee a0be fb70 e83b c01a c0be
000003d0: 575a 9d3e dad5 453e 6b10 333e 07d4 123f
000003e0: 39c9 333e a93c a5be f57b 9f3f 47b0 d83f
000003f0: d084 233f c4cc bb3e f124 e8be 0904 a23d
-0.34032995 0.52634364 0.5980045 1.0540875 -0.4218252 -0.14241286 -0.096607976 -1.1124527
0.3962794 -0.41919044 -0.62171185 -0.798836 -0.12219483 -0.23297197 0.66732246 0.58506674
0.36803067 0.2602865 -0.26090306 0.2585283 -0.43763676 -0.3977269 0.4823605 1.207988
0.24909337 0.29925457 -0.4115862 -0.663695 -0.16541183 0.17423606 0.06910577 0.43953
0.46980578 0.26106367 -0.82900363 -1.2995108 0.2836253 -0.17499402 -0.1408811 0.3241207
0.18385333 -0.33540925 0.025384054 -0.86530095 -0.5171643 -0.35024288 0.13421078 0.26620078
-0.2014532 0.10999741 -0.48959592 -0.74582726 0.013936459 0.16038704 -0.050509043 0.9954184
-0.14466704 0.26430756 0.7473459 1.3103619 0.14069806 -0.04980987 -0.32482615 -0.5917752
0.24312006 -0.13770199 -0.26670566 0.6650551 -0.015990729 0.17498232 -0.43983376 0.30994812
-0.47358197 0.1398347 0.86950624 1.3835745 0.018133191 -0.0673206 -0.6796301 -0.7606603
-0.6430334 0.05220015 0.76607275 1.5367618 -0.2121617 0.1293211 -0.38073605 -1.0745175
-0.22089492 -0.043917894 -0.48267555 -0.14359698 0.30177686 -0.5166163 -0.48279285 -0.3527101
-0.35003266 0.0829582 0.15741305 1.1222172 -0.26682946 -0.1005702 -0.7746687 -0.8767185
-0.5513304 -0.49511644 0.18110202 -0.028649002 -0.21197712 -0.3370882 -0.3944944 -0.8955433
0.6610093 -0.15622923 0.28394696 -0.021220108 -0.6732988 -0.017562049 0.70606995 1.4586222
0.3223122 0.14646064 -0.4026767 0.30241257 0.31433904 0.56601137 -0.47462055 0.16918749
-0.24603532 -0.21404417 0.75318116 0.7571236 -0.5866643 0.49063113 0.36672884 -0.07861615
0.4281755 -0.12014437 -0.64309645 -0.7542869 0.40272844 0.06881518 0.25171918 0.2864356
-0.40833467 -0.2916869 -0.056142967 -0.20926519 -0.6405881 -0.52681154 0.52481365 -0.08304298
0.21663494 0.23886077 -0.3373047 -0.9409922 -0.50567967 0.21985102 1.2520875 1.4141884
0.14701702 0.0908127 0.22413833 0.31442174 0.5087875 -0.15967655 0.26092723 -0.015124783
0.5450724 -0.22159378 -0.0630131 0.41957173 -0.036083486 0.22161134 -0.69518673 0.18531977
0.11644147 0.4209821 -0.14312108 0.6041009 0.006327746 -0.2049448 0.7860063 0.2792623
0.29069415 0.38763288 -0.34952453 -1.2571698 0.4132765 -0.07015408 -1.1282866 -1.4031663
0.0062035434 -0.014651164 0.565488 0.21328959 -0.6125985 0.3616134 0.033414852 0.91348386
-0.2441355 -0.12485431 -0.28568977 -0.111672305 -0.3665085 -0.2766712 0.9195239 1.2510586
0.13338129 0.29057875 -0.41326186 0.1417791 0.05341076 -0.09090996 -0.8842665 -0.79650605
-0.30714664 0.4762855 -0.37733853 -0.2905212 0.31350318 0.3291872 -0.12666039 0.31708205
0.4408636 0.33076444 -0.797338 -0.8665163 -0.48866284 0.20711601 0.30765247 0.21754351
-0.35976958 0.5220935 0.7922744 0.87579197 -0.026805963 -0.42423204 -0.46415862 -0.53149813
-0.40363422 -0.31432337 0.0070935464 -0.3752041 0.30732986 0.19319859 0.17486732 0.5735478
0.17557229 -0.32272843 1.2459704 1.6928796 0.6387453 0.3667966 -0.45340684 0.07910926

actor.pi_net.fcs.0.bias f4 [64]
00000000: 564e 7b3e 58a3 2e3d ee6d 5c3e 01b4 16bd
00000010: 6212 263d 4111 98be 23fc 7f3d a98e 55bc
00000020: 1d22 0bbe 9b50 3f38 bf96 a33d bc75 1fbe
00000030: e7e9 0e3d 241c c5be 018f 433d 7033 0bbc
00000040: fecd 52bc 5d64 9f3b 1461 aebe f14c 163d
00000050: ef18 8fbe 956c 59be 858a 5fbc 97ab 3cbc
00000060: f367 53bd 55b6 cb3d 4f83 87be 6047 f43c
00000070: e3bc ab3d 5e2f 69bd 8bb0 ea3c 2825 a73e
00000080: 8d56 47be 3f42 75bc 9aec 773b b7ca d43c
00000090: 0d99 35bd 5fde 96be 9e67 7fbe 4bb1 0c3e
000000a0: a219 f43b 4e11 9e3c 53aa 513c b233 053c
000000b0: 1450 a5bb b2fe b7bc 2ebd 47bd 03af d03d
000000c0: f533 e1bb 3357 a6be 2a9b d93e afd3 933e
000000d0: dedc 253e 1865 6b3e d9c4 be3c 6bd1 0f3d
000000e0: 9e9d 903e 2d14 c3bc fddc 0abe 2875 aabb
000000f0: 5cbc 15bd fa09 ec3a b639 cfbd 057c 073e
0.24541602 0.042636245 0.2152631 -0.03679276 0.040544875 -0.29700664 0.062496316 -0.013034501
-0.13587232 4.561302e-05 0.07987737 -0.15572256 0.034891035 -0.38498032 0.0477438 -0.00849615
-0.012866495 0.004864259 -0.3405844 0.03669447 -0.2794871 -0.21232827 -0.0136438655 -0.01151552
-0.051612806 0.099468865 -0.26467368 0.02981919 0.08385637 -0.05692994 0.028648635 0.32645535
-0.1946661 -0.014969408 0.0037830235 0.025975568 -0.044335414 -0.2946653 -0.2494187 0.13739507
0.0074493447 0.01929536 0.012796956 0.008130001 -0.0050449464 -0.022460315 -0.0487644 0.10189631
-0.006872649 -0.32488403 0.42501193 0.2887244 0.16197535 0.22987783 0.023287224 0.035111826
0.28245252 -0.023813331 -0.13560863 -0.0052019544 -0.036556587 0.0018008344 -0.10118429 0.13230903

actor.pi_net.fcs.1.weight f4 [64, 64]
00000000: e003 503d 3b3e 313e 195e 29bd 922e ecbd
00000010: f85e 04be f27a 6e3d b01a 133e e8d0 55bd
00000020: c072 d0bd b2d9 e3bc 9172 9e3d 05a4 8f3d
00000030: d734 3c3e 6937 d53c 9da5 1c3e 503b 423d
00000040: 83b5 48be ca55 d2bd ce4b 753d 079d d23c
00000050: fb67 333d cb93 bb3d 0c46 a7bc 82e0 c7bc
00000060: 0bad a33d ce5a 01bc aad6 c63d 00dd 1abd
00000070: 769a 893d 109c 223e e816 353d 01f6 d9bd
00000080: 48bf 07be 6ea4 1d3d c8bb 043d af64 c7bd
00000090: 4660 be3d 0011 8abd eaf5 c43d 1a34 9c3d
000000a0: ad68 fdbd 3bf5 a8bd 8a79 423c 5af5 23be
000000b0: 7084 a2bd a194 77bd 71a2 0ebd f0e5 7cbe
000000c0: 508c 13be b973 93bd f13f ee3c ba6e a33c
000000d0: 6026 9dbc bc07 b4bc 8e91 85bd f768 23be
000000e0: c283 0e3e 9edf 42bd d36d 14bd 25ab 3b3d
000000f0: 9386 be3c 3c17 93be 8f96 833e 0e45 c8bd
00000100: 8536 443d fd1a 2c3c 36cf 783d 0a3f 0abe
00000110: b0ed babd c7a0 83bd 44ab 8c3c 2d73 c13d
00000120: 6b1b e6bc f82d dc3c 3f69 ae3c b85a 15bd
00000130: c7d1 2c3d 7db8 993d 7402 4d3b c89e 88bd
00000140: edfa 173d 98ed 7d3d 263b ae3d 252e d23d
00000150: 4950 043e 592d 57bb 6c93 95bd bcd3 85bd
00000160: b1e1 a3bd 5487 acba 622f 5abd 5abc 5e3c
00000170: b8d6 b83d 8e70 0a3c f111 b53c bd06 f5bc
00000180: ab8d 47bd 5279 dd3d 27a6 c33d 4f93 bd3d
00000190: 8dac ff3c 8eed 2abd 8572 da3c 4d6a 953d
000001a0: f7c3 d83d 6e60 cabd 12a4 c33c cecb 303d
000001b0: 0a30 1d3e e2e2 4abd 5f6f 6d39 03c6 81bd
000001c0: 08a4 c0bc 8794 afbd 21ef 01bd 37d7 2fbd
000001d0: 1241 35bd c256 d53d f57c 13be a983 62bd
000001e0: 6c9b 88bd 90d2 9f3d 39f7 49bd ae5a 123e
000001f0: fc7d f53d b03e a5bd ce84 a83c 2db7 a3bc
00000200: 17c5 c63d 1e11 3fb9 ff08 3abd 1e44 1b3e
00000210: 4e31 c03c f20d de3c a0c4 7f3c 5154 5cba
00000220: ed25 1e3e 68c0 2d3e 201f 24bd 054e a0bd
00000230: c07b aebd dbec 753d 686f c53c b7fb 753d
00000240: 7bfc 503d e825 143e ad81 483c dd5f bbbd
00000250: cc78 aabd 3fc6 f9bd 405f 343c c0f4 ad3b
00000260: 8327 cebd 7139 f9bd 36e6 27bd eacf d8bc
00000270: 6763 983d 9f49 e9bd 65ef 243e c0fc 533d
00000280: 810f 99bd 990f 50bd 55f0 bbbd 2ea3 823c
00000290: 46c3 593d 936b 98bd dd62 4a3d db58 cfbc
000002a0: cedd dd3d c3df 253e 0bc1 d03d 5329 933d
000002b0: d930 ac3d 9146 013e 26cd a63d 43e0 993e
000002c0: c9f8 9d3d 751e 283d 5de2 f4bd cd42 42bc
000002d0: 328a a93d 3dd8 2e3c 0a88 a53d 40a3 8e3d
000002e0: d414 42bd 412a c83d e9e7 82bc d7d5 3abe
000002f0: c8aa 69be 6260 083e bf1e 84be abee 67bd
00000300: 1fb0 adbd 73a0 733d 6461 abbd 9216 c83c
00000310: 3835 aa3c b1b3 1ebd 3917 08be 1f05 b2bd
00000320: 6327 2ebd ddb9 f13d 062b 9ebd 4ddd 99bd
00000330: ff8c aebd 01d7 17bc 5849 0cbe c2d4 d43c
00000340: 1598 593e 166c 5dbd ea48 fdbd 5ca9 2ebe
00000350: f465 893c 3eaa e53d 301a 133d d5e7 1ebe
00000360: 6675 953d 5360 0bbe 9c5b d7bd 4253 98bd
00000370: 7e13 a23c 37f3 40be e3ae 36bd 9f49 f4bb
00000380: 7528 313d 72a6 133c 6588 d6bd 6525 2a3e
00000390: ab77 3cbe ecbc 13be d621 0f3d bb8a 27be
000003a0: f538 573d 3f09 eb3d 6410 173e 74d8 d83d
000003b0: fcf7 d13c fe05 2a3d a43d 0a3d 7552 593e
000003c0: 1ae1 f43d 6d78 9bba 529b 4e3d ba81 f1bc
000003d0: a836 d83d b1e5 02bd e4a6 673d f5b7 4f3e
000003e0: 7eee af3d 2320 76bd 24b5 7c3d 6f68 50be
000003f0: 26b0 5bbe 4cae 953e 6edd c4be 4ffd 183e
0.050784945 0.17308895 -0.041349504 -0.1153232 -0.12926853 0.05822272 0.14365649 -0.05220118
-0.10178137 -0.027813766 0.077366956 0.07013706 0.18379532 0.026027398 0.15297551 0.047419846
-0.19600491 -0.10270269 0.059886746 0.025709642 0.043800335 0.09159049 -0.020419143 -0.024399046
0.0799199 -0.007895185 0.09708913 -0.03780842 0.06718914 0.15879846 0.0442113 -0.10642625
-0.13256562 0.03848689 0.032405645 -0.09736001 0.092957065 -0.06741524 0.09617217 0.07627125
-0.12373481 -0.08249899 0.0118697975 -0.16011563 -0.07935417 -0.060444478 -0.034822885 -0.24697089
-0.14408994 -0.07199807 0.029083224 0.01995026 -0.019183338 -0.021976344 -0.06521903 -0.1595801
0.13917449 -0.04757654 -0.03623755 0.045817513 0.02325753 -0.28728664 0.25700805 -0.09778796
0.047903556 0.010504481 0.060744487 -0.1350061 -0.091273665 -0.0642715 0.01717151 0.09445796
-0.028089246 0.026877388 0.02129042 -0.03646347 0.042192247 0.075058915 0.003128198 -0.0667091
0.037104536 0.061994165 0.085073754 0.102627076 0.12921251 -0.0032833426 -0.07303509 -0.06534526
-0.080020316 -0.001316289 -0.053267844 0.013594711 0.09025329 0.008449687 0.022103282 -0.02991044
-0.04871909 0.10814156 0.095531754 0.092566125 0.031210208 -0.041730456 0.026665935 0.07295666
0.10584252 -0.09881674 0.023881946 0.043163113 0.15350357 -0.04953278 0.0002264357 -0.06336596
-0.023515716 -0.08573251 -0.03172219 -0.042929854 -0.04425151 0.10416938 -0.14403136 -0.055301342
-0.06670269 0.078038335 -0.049308036 0.14292404 0.1198692 -0.08068597 0.020571139 -0.019984806
0.09705561 -0.00018221556 -0.045418736 0.15162703 0.02346101 0.027106259 0.015610844 -0.0008404898
0.15444155 0.16967928 -0.040068746 -0.07827381 -0.08519697 0.060040336 0.024100974 0.060054507
0.051022034 0.14467585 0.012237948 -0.09149144 -0.083238214 -0.121960156 0.0110090375 0.0053087175
-0.1006613 -0.12169159 -0.04099103 -0.026466329 0.074408345 -0.11390995 0.16106947 0.051754713
-0.0747366 -0.050796125 -0.09176699 0.01594695 0.053164743 -0.07442393 0.04941069 -0.025310924
0.108333215 0.1619864 0.1019307 0.07185616 0.084077545 0.12624575 0.08144598 0.3005391
0.07713468 0.04104467 -0.11957238 -0.011856747 0.08278312 0.010671672 0.08082588 0.06964731
-0.047383144 0.09773684 -0.015979724 -0.18245636 -0.22819054 0.13318017 -0.25804707 -0.056624096
-0.08480858 0.05947919 -0.08368185 0.024424825 0.02077733 -0.038745586 -0.13290109 -0.08692383
-0.04251803 0.11803029 -0.0772305 -0.07512913 -0.085229866 -0.0092675695 -0.13699853 0.025980357
0.21249421 -0.054058157 -0.12367423 -0.17056793 0.016772248 0.11214112 0.035913646 -0.15518124
0.072977826 -0.13610964 -0.1051552 -0.07437755 0.019784685 -0.18842779 -0.04460038 -0.0074550654
0.043251473 0.009011852 -0.10475234 0.16615827 -0.18405025 -0.14427537 0.034944378 -0.16361515
0.052544553 0.11476373 0.14752346 0.1058816 0.025630943 0.04150962 0.03375019 0.21222861
0.11956997 -0.0011861451 0.050441094 -0.029480804 0.105573 -0.031957332 0.056555644 0.20285018
0.08590411 -0.06008924 0.061696187 -0.20352338 -0.21453914 0.2923454 -0.38450187 0.1494038

actor.pi_net.fcs.1.bias f4 [64]
00000000: 8f6f 0ebe 8e67 80bb 199d cb3d cc16 f73d
00000010: a528 863c 7d0a 2cbd 0db5 93bd 81f0 58bd
00000020: eb35 75bd 513e a8bd 98f0 bb3d 00e2 653c
00000030: 9a23 a53b be8f c7bc 4ddf 70bd e9be 94bd
00000040: ee29 ffbc 405e 76bc de47 cebc f5af 1f3d
00000050: b795 993d fb25 b73d 1967 dabd 0f06 b03c
00000060: bb63 653d fe10 573d 335a 88bd e423 3e3d
00000070: 268f 8a3d 66c9 d2bd f8d2 aebc edfd 1bbd
00000080: b04b 22bd 3cca 22be bd06 153d eceb f13c
00000090: 8cfa d43d 40da 03bc c999 4abd 80c7 f3bd
000000a0: 2db3 61bc 50bc a33d 92c8 3a3d 3c4e 733c
000000b0: 6092 e23d ce4e cbbd baf4 e8bd c3e8 183d
000000c0: ecef b1bd 1760 68bd 4074 f2bb 13fa 6ebd
000000d0: 158b 7a3d 61e1 ca3c 16ba 033e a28f 8dbd
000000e0: 3253 46bd c9a9 753d 00b6 7e3d b888 b03c
000000f0: 697b 05bd 8936 643d 679d b43c 7136 94bd
-0.13909744 -0.0039185947 0.099420734 0.12064895 0.016376803 -0.04200219 -0.07212267 -0.052963737
-0.059865873 -0.08215011 0.09176749 0.014030933 0.0050396444 -0.024360534 -0.058806706 -0.07262976
-0.031147923 -0.015037119 -0.025180753 0.038986165 0.07499259 0.08942791 -0.106641956 0.021487264
0.056003314 0.05250644 -0.06657829 0.046420947 0.06765585 -0.1029232 -0.021340832 -0.03808396
-0.039622962 -0.15897459 0.03638338 0.029531442 0.103993505 -0.00804764 -0.049463067 -0.11903286
-0.013775629 0.07994902 0.045601435 0.0148501955 0.11063075 -0.0992714 -0.11374803 0.037331354
-0.086883396 -0.056732263 -0.007399112 -0.058343958 0.061167795 0.024765672 0.12863955 -0.069121614
-0.048419185 0.059976373 0.062185287 0.021549568 -0.032588396 0.05571607 0.022047712 -0.072369464

actor.pi_net.fcs.2.weight f4 [1, 64]
00000000: 7996 be3d 9327 3eba 8876 5fbd 1c5a 1cbe
00000010: 4741 e73c b6e9 94bd 52d1 963d 2fb4 7ab9
00000020: c61f 073e 93f5 073e ce51 883a c59e 58ba
00000030: 3008 c13c ee6a 89be b308 cd3d a99d ac3d
00000040: fe90 09ba 5084 2a3e 9cc9 313d 2e5f febd
00000050: 5c57 163b daf9 efbd 82e0 f23d 9afd f53a
00000060: b947 e03a 0cf5 c33e 36b4 b8b8 99d1 73bc
00000070: 9a92 643a e4b3 6a3d 6159 cdba c7a8 6cbd
00000080: df84 063a c936 c73d ae40 d3bd f553 ff3e
00000090: f16e eebd 6dad d53e bfb1 bd3d 2470 d03d
000000a0: 9ae9 93ba f744 813d cbfe bcbd a896 ff3d
000000b0: 3a6b d1bd cb73 0d3e 55fa d93c bc9a c73e
000000c0: b065 c1ba 0e89 46bb 0ce4 c13d 5fe5 003a
000000d0: 20ed eb3d 6b05 ec3e da40 cd36 5897 aaba
000000e0: cea3 56ba 496d 113f b092 aa39 7935 0cbe
000000f0: 2bd4 8239 a7fa 04ba 2f71 333e 2d4c 153e
0.09306044 -0.0007253822 -0.0545564 -0.15268749 0.028229369 -0.07271139 0.073641434 -0.00023908982
0.13195714 0.13277273 0.0010400356 -0.00082634046 0.023563474 -0.26839393 0.10011425 0.08428509
-0.0005247741 0.16652036 0.04340516 -0.12420498 0.0022940254 -0.11717577 0.11859228 0.0018767596
0.0017111219 0.38272893 -8.8073706e-05 -0.014881515 0.0008719355 0.057300463 -0.0015666896 -0.057778146
0.00051314937 0.09727246 -0.10315071 0.49868742 -0.11642254 0.41733876 0.09262418 0.10177639
-0.0011284829 0.06311982 -0.092282854 0.12479907 -0.1022553 0.13813703 0.026608625 0.3898524
-0.0014755037 -0.0030294093 0.094673246 0.00049169915 0.115198374 0.46097884 6.117026e-06 -0.0013015075
-0.0008187861 0.5680738 0.00032534217 -0.13692273 0.0002495361 -0.00050727505 0.17523645 0.1457984

critic.v_net.fcs.0.weight f4 [64, 4]
00000000: 33f9 5dbe 877f 84bf d78a 49c0 412a b6be
00000010: 1d93 62c0 857f 5fbf 8e8e 0cc0 69e1 76bf
00000020: b8a0 46c0 98f6 08be e2bf 08c0 3f3f 02bf
00000030: ff53 7dc0 644f 08bf 28fb 8abf be65 dabf
00000040: 95fb ac3f 31b8 213d b021 b640 7b93 783d
00000050: 252b 37c0 b815 e3bf 5964 a2c0 c68f 8d3a
00000060: 6af6 8b40 0a3b 1a40 dbdb 2840 2d08 5e3f
00000070: ceff c340 834e 1340 3eea 5440 9d15 c83e
00000080: 395b e63e 3b0a 1a3f 52d6 0441 1a82 04be
00000090: d17b 89bf dbe7 ef3e 2439 0741 7266 2d3f
000000a0: 119b b3be a0ca 57bf 6879 5ac0 1a08 2bbf
000000b0: 83d8 533d 35c0 2740 f198 5840 b2fa 1abf
000000c0: b727 13c0 89b0 a7be 49ee 73c0 5cbf fabc
000000d0: d1db 1fc0 519c 273e 45f9 bf40 d4cb 5d3e
000000e0: c807 2141 346b eb3f f6e5 823f 85a6 0b40
000000f0: 6a7b 9f40 8e2a ce3f cb10 81bf bae9 2f3e
00000100: a921 11c0 8f2a 19bf 180b 7ec0 4e19 3ebf
00000110: 4381 afbf 2b8c 963f 4798 b2bf b676 d4be
00000120: bb80 bec0 8e16 18c0 d4ec 26c0 685c e4be
00000130: 846b 0bc1 1b8d 12c0 1f47 d03d b509 10c0
00000140: b9eb a4bf b6d7 bf3f e83f 8440 0d1f 533f
00000150: 88e4 1740 fbe5 0bbf ead4 f9c0 8935 2f3e
00000160: dc5d 453e b5d2 313d c521 e5c0 d03f f03d
00000170: 1145 c23f c516 be3e 2955 4340 b651 503f
00000180: 852a ca3e 9032 aabf 4ed1 d6c0 9741 3dbf
00000190: 99fd 31bf ffa7 3dbb 7d1a 3dc0 7997 ff3d
000001a0: 7c2c 66bf 5f95 79bf 87f2 a8c0 1317 b5be
000001b0: 0972 36c0 fe66 2e3e 6443 4cbf f99c 23bf
000001c0: 2192 0ac0 29b6 a6bf 3ec1 99c0 89a8 0bbf
000001d0: 59af 89c0 094e ff3e cdf2 28c0 0416 dfbf
000001e0: 977e adc0 b05e 3fc0 9ed9 5a40 9673 2cbd
000001f0: 8e76 72c0 3ee1 efbf 581a 1dc0 b14d 9dbe
00000200: 9160 64c0 3724 1ec0 bb63 16c0 d955 2abf
00000210: 0d06 3b40 0fd2 0140 ed86 5040 fb57 1c3f
00000220: 406f abbf 517c 8f3f 856a ce40 c3ff 843e
00000230: 1770 afc0 0718 8fbf 8347 e3bf bca5 59bf
00000240: 9199 f9be 5fb5 9bbf 000b 2fc0 e777 20bf
00000250: 41cd febf 2cc1 27bf f3d0 9dc0 07db 39bf
00000260: 5ede 06be 5ba7 4abd cd1d 0341 3ba4 2cbf
00000270: 569d 0740 9e48 35bf 5020 63c0 6dd0 b73f
00000280: e5fd f540 d42c 8a3f 557f e13f e166 c03f
00000290: 2bfa d140 e3ce 0040 651e 1c40 128d e93e
000002a0: b1dd 0f3f 9711 183f d40b a03f 50af 1e3f
000002b0: c46c 62c0 5aad e2be b912 f1bf 8c71 e6bf
000002c0: 54ef 4dbf 2ac9 0ec0 a9ee 81c0 4dc6 79bf
000002d0: 1b55 bcbf 068f f8be d872 9fc0 13b4 6cbf
000002e0: c07b e3c0 64b4 08c0 ab5a d4bf c40f 49bf
000002f0: 331c 3c3f 0f31 453f d227 b240 ac30 553f
00000300: 6891 a340 f300 0a40 c3e9 4740 3e04 813f
00000310: dd02 cdbe dd64 b83f 3596 2cc0 bf66 cfbe
00000320: 7eca 6ec0 1cc0 21bf a8e6 43c0 0cba 60bf
00000330: 7261 9cbf c137 ff3f 00fc ad40 fe0b 6d3f
00000340: b096 e53c 96b0 bc3f 9d56 9540 2211 0b3f
00000350: 8996 bbc0 aa52 88c0 2bfb 12c0 bc8c 42bf
00000360: c7e0 f73f c6ea b7be 5b8e b53f d314 b23e
00000370: cb3d 7f40 e287 2b3e 49b4 5240 88da 0b3f
00000380: 8a88 bfbf 87dc e9be 89e7 0ec0 621a 39bf
00000390: 335f b63f 21b4 b4bd b737 d840 2954 75bd
000003a0: 6cd9 dd3f 8e89 053f 94bf 6f40 bd11 743f
000003b0: b8ff 403f afc4 de3f 68c8 8ac0 fdb3 72bf
000003c0: 72aa 1041 30c6 1940 c902 cb3f 5282 0340
000003d0: a3fe f1bf c74f fdbe 6378 dcbf ca96 193d
000003e0: 3d01 7dc0 9958 f2bf bc2d 46c0 c545 65bf
000003f0: ce26 3cc0 1397 52bf a00f 6dc0 22f2 53bf
-0.21677093 -1.0351418 -3.149099 -0.35579112 -3.540229 -0.87303954 -2.1962008 -0.964377
-3.1035595 -0.13375318 -2.1367116 -0.50877756 -3.9582517 -0.5324614 -1.0857897 -1.7062299
1.3514277 0.0394823 5.6916122 0.060687523 -2.8620083 -1.7741003 -5.0747495 0.0010800294
4.37383 2.4098535 2.638419 0.86731225 6.124976 2.301667 3.326797 0.3907899
0.44991472 0.6017186 8.302324 -0.12940255 -1.0740911 0.4685658 8.45145 0.67734444
-0.35079244 -0.84293556 -3.41366 -0.66809237 0.051720154 2.6211064 3.3843348 -0.6053878
-2.299299 -0.32751873 -3.8114188 -0.030608825 -2.4977915 0.16368224 5.9991784 0.21659786
10.0644 1.8392091 1.0226429 2.1820385 4.983815 1.6106737 -1.008325 0.17179003
-2.2676795 -0.59830564 -3.969427 -0.7425736 -1.3711323 1.1761526 -1.3952721 -0.4149682
-5.953214 -2.3763766 -2.6082048 -0.4460175 -8.713749 -2.2898624 0.10169815 -2.2505925
-1.2884437 1.4987705 4.132801 0.82469255 2.3733234 -0.546478 -7.8072405 0.17110266
0.19274086 0.043413837 -7.1603723 0.11730921 1.5177327 0.37126747 3.0520728 0.8137468
0.39485565 -1.329668 -6.71305 -0.7392821 -0.69527584 -0.0028939245 -2.9547417 0.12480063
-0.8991163 -0.9749355 -5.2796054 -0.35369167 -2.8507102 0.17031476 -0.7979033 -0.63911396
-2.165169 -1.3024341 -4.804839 -0.5455404 -4.3026547 0.49864224 -2.6398194 -1.7428594
-5.421703 -2.9901543 3.4195323 -0.04210242 -3.788486 -1.8740613 -2.454733 -0.30723336
-3.568394 -2.4709604 -2.349837 -0.66537243 2.9222443 2.028446 3.2582352 0.6107175
-1.3393326 1.1209813 6.450503 0.2597638 -5.482433 -1.1179208 -1.7756199 -0.85018516
-0.48749974 -1.2164725 -2.7350464 -0.62682956 -1.9906389 -0.6552913 -4.9317565 -0.72599834
-0.13170764 -0.04947601 8.194776 -0.67438096 2.118978 -0.7081393 -3.5488472 1.4360482
7.687243 1.079493 1.7616984 1.5031396 6.561788 2.0126274 2.4393551 0.4561544
0.5619765 0.5940184 1.250361 0.61986256 -3.5378885 -0.44272882 -1.8833839 -1.8003402
-0.8044331 -2.231028 -4.0603833 -0.9756821 -1.4713472 -0.48546618 -4.982769 -0.9246227
-7.108856 -2.1360102 -1.659017 -0.7853968 0.7348053 0.7702798 5.567361 0.8327739
5.1115 2.156308 3.1236427 1.007942 -0.40041247 1.4405781 -2.696668 -0.40508077
-3.7311091 -0.6318376 -3.0609531 -0.87783885 -1.2217238 1.993889 5.4370117 0.92596424
0.028025955 1.474139 4.666823 0.5432302 -5.862126 -4.260091 -2.29658 -0.75995994
1.9365472 -0.35921305 1.4184068 0.34781513 3.9881465 0.16751054 3.2922537 0.5463033
-1.4963543 -0.45676062 -2.2328818 -0.7230588 1.4247802 -0.08823419 6.756801 -0.059894715
1.7331977 0.52163017 3.746068 0.95339566 0.75390196 1.7403773 -4.3369637 -0.9480589
9.041613 2.4027214 1.5860225 2.0548291 -1.8905834 -0.49474928 -1.7224239 0.03749732
-3.9532006 -1.8933288 -3.0965414 -0.89559585 -2.9398685 -0.8226177 -3.7040787 -0.8279134

critic.v_net.fcs.0.bias f4 [64]
00000000: 6ed7 18bf c141 9ebd 99ff aabe 21d2 8f3d
00000010: a972 b73e 01c0 60bd 7292 0e3d eb0b f1bd
00000020: b370 f93d e1e8 53bc b2e6 0cbf 7efd 993d
00000030: 614c d3be de79 be3e 7bf4 57be f4dd 84bd
00000040: 8c00 44be c4f3 24be ee5b 6e3d 6199 2a3e
00000050: 517b 073f 3bc6 8bbe 894b bcbe 0586 58be
00000060: 0b98 1ebe 8b2b ddbe 5ec2 9dbe a48b 32be
00000070: 9b0d f2bd 6c28 6c3d a5a3 d03d 8f34 2e3d
00000080: af2a 533d 80ad 64bd 44b7 593e 3eb9 24bc
00000090: afc9 0abf 6235 68be 072d 2b3e 2b71 19bf
000000a0: 16cd 3abe 0cc0 70bc 2091 22bf 538a a03d
000000b0: 7d94 733b bbaa d3be 277f d83d 0be0 a93e
000000c0: f0ac 21be bf3c d1be b3f6 ba3d 6921 1b3e
000000d0: 10f9 b23e aab3 dd3c ba40 b93e 426f 3b3e
000000e0: ee06 efbe 1ba5 a73e ba4a 913e 3adc 61be
000000f0: 7a8b 42be d8a8 b7be 4efe 913d 040e 2bbe
-0.5970372 -0.07727385 -0.3339813 0.07022501 0.35829666 -0.05487061 0.03480763 -0.11769851
0.12179699 -0.012933941 -0.55039513 0.07519053 -0.4126921 0.37202352 -0.21089356 -0.06487647
-0.19140834 -0.16108614 0.05819314 0.16660072 0.5292254 -0.27299675 -0.3677638 -0.21144874
-0.15487687 -0.43197283 -0.30812353 -0.17436081 -0.11819001 0.057655737 0.10187463 0.042530593
0.051554378 -0.055829525 0.21261317 -0.010053931 -0.54213995 -0.22676614 0.16716395 -0.59938306
-0.18242297 -0.014694225 -0.63502693 0.07838883 0.0037167363 -0.41341195 0.105711274 0.33178744
-0.15788627 -0.40866658 0.091290854 0.15149464 0.34955645 0.02706321 0.36182195 0.1830416
-0.46684974 0.32743153 0.28377324 -0.22056666 -0.18998519 -0.35871005 0.07128583 -0.16704565

critic.v_net.fcs.1.weight f4 [64, 64]
00000000: 45b7 33bf 6326 02bf ab9f 1bbf 4c43 c3be
00000010: 1bf0 d23f 0f7a e8be 27e7 953e df1d bd3e
00000020: 7065 f83e 623a ce3e 2c82 6dbf 4d58 adbb
00000030: aeaa 63bf 334f a63f 3f20 c0be 6278 283d
00000040: bfa2 85bf 0e7b 22bf 2ac5 7cbe 6005 113f
00000050: 89c5 6a3f 3df3 abbf 837a b8bf 1939 aebe
00000060: 2abd 9abf b1fe 59bf 3172 2ac0 364c 1dbf
00000070: 720c e7be aa68 01be d358 453f 16cc 3fbf
00000080: df64 c7be a6b3 063f 4757 ba3f 408c bbbe
00000090: 1d90 7bbf 1677 a4bf 039d b63f 2a46 a1bf
000000a0: 022a a9be 19ce 513e 5e0a 6cbe b89b f7be
000000b0: 8428 b2bf 5dd4 d5bf 4f3b 16bf 5007 5b40
000000c0: d9a1 c53e 6e21 17bf 68d0 ad3e 7f10 353f
000000d0: 00a3 0740 dfc7 b13e 7a38 963f 885c 463f
000000e0: 553f a8bf 7634 b93f bcc1 b43f 84bc c0be
000000f0: 898e 09bf 94f6 52bf a7d1 223d 2977 67bf
00000100: 8d43 b1be db6f 91be 2446 afbe a1ba 14bf
00000110: 1f24 debd 29d7 f43e 188d 34bc d40c bbbe
00000120: 85fe bbbe c9d1 83be e7f6 abbe dd58 9cbf
00000130: 9816 aebe 57e7 d63e dbbf cf3d 071b 8b3e
00000140: af7d 96be 8613 0b3e 67a4 1e3f f41a 90be
00000150: 0c1e 813e f35c 153e b548 993e 37b6 36bf
00000160: c8cf 9bbe 6a0b 39bd cfdd 40be ff8b 0bbf
00000170: 5057 89ba c00f c0bd d502 2ebb 843d 673f
00000180: 2790 7a3f cb43 1ebf 71a8 623d 79e2 10be
00000190: a6d8 3ebc 08a7 7dbe 4c23 ddbe fcfb 54bf
000001a0: d30d 35be 89b3 09bf da4e 9ebf 7df7 babe
000001b0: 174b 96be 452d c2be 6d88 323e cc2b b23e
000001c0: c247 2b3f 3fb5 89bf 6975 be3e 4a34 95be
000001d0: 8070 1d3e a0d0 3a3f fde5 ba3e b47f dd3e
000001e0: aabc eabe e93e 30be 61df 0e3f 74a3 103f
000001f0: 7737 823d a8e2 6abe 3236 df3e acc9 bfbe
00000200: f432 fa3d 0398 743e 41e5 46be ade8 c4be
00000210: 6dab dd3f 37ab 13bf 9852 85bf 67d5 40be
00000220: 2185 613f 2380 6e3f 3b9e eb3c 62fc db3e
00000230: 16e3 1e3e 4039 fa3e 277e d2bf 3522 af3e
00000240: 880f ee3d 0aa9 323f 2ee5 843f e3c0 ab3f
00000250: 9cb6 6abe 71b0 83bf 032b 85bf a749 5c3f
00000260: 0b16 a9bf 9f73 0cbd d808 79bf cf0c 45be
00000270: 32c9 3e3f d411 46be 9e51 ca3e 7de3 bdbe
00000280: 1597 ce3e 1a30 1e3e a427 c83f b9de 113f
00000290: 1700 513e 60c1 4f3e ed4f ae3f ae73 51bf
000002a0: a973 c5be 543d 7abf b15c 2f3f 7fa4 1fbe
000002b0: 2048 58bf c10e 143c fd5b 733f 736a 8f3f
000002c0: c529 a0be 49b8 243f 2550 bbbe 5249 6e3d
000002d0: b796 123f 242c c43f 5c5b 73bc 7d0c 39bd
000002e0: 1857 8d3d ed95 d93f 206a f13d 2341 653f
000002f0: 4dc2 98bf ff3f 1dbe b61f d03e 5a56 733e
00000300: 413b 4fbf 0853 efbe f79e d1be f290 cdbe
00000310: 6b32 2e40 4e47 9fbf 9e4c 9b3e e78f 953f
00000320: c87b 7f3f d3fc 8c3f 32c7 45bf b951 0cbd
00000330: 71f9 4fbf e158 0340 5b2b 7ebe 8bf1 3c3e
00000340: 6b3e 52bf 3576 fcbe e628 14bf e7b7 843e
00000350: 68b2 2d3f e912 0ac0 6ebb 0cc0 9065 3c3e
00000360: df4e 1ac0 fa6a 53bf 26e6 8fc0 0f84 c4be
00000370: dedf 42bf 9d78 16bf 78a3 5d3f 8edf dabf
00000380: 66a1 52bf d370 973f ef9c 3140 b5e9 cdbe
00000390: 2c50 5fbf 1532 b1bf 66c1 0840 0b4a dfbf
000003a0: 91b5 75b9 a414 033f c79a f0bd a422 2bbf
000003b0: 0b05 19c0 f370 acbf 47f1 85bf 3292 7740
000003c0: 7211 8b3f 81f5 0fbf 8ba4 66bd 827f aa3f
000003d0: 8010 0a40 928d ce3e 9413 0a3f 7ff7 4c3f
000003e0: 8ad3 29bf 1175 2940 a0de b23f 7f65 08bf
000003f0: 33c6 2b3c 1d07 15bf 47a5 8bbd 151b 52bf
-0.7020152 -0.50839823 -0.6079051 -0.3813728 1.6479524 -0.45405623 0.29277918 0.36936852
0.4851489 0.40278918 -0.9277675 -0.0052900673 -0.8893231 1.299292 -0.37524602 0.04113043
-1.0440291 -0.63469017 -0.24684587 0.56648827 0.91707665 -1.3433605 -1.4412388 -0.34027937
-1.2088978 -0.85154253 -2.6632197 -0.61444414 -0.45126683 -0.12637582 0.7708866 -0.74920785
-0.38944146 0.5261787 1.4557885 -0.3663044 -0.98266774 -1.2848842 1.4266666 -1.2599537
-0.33039862 0.20488776 -0.2305083 -0.4836099 -1.3918614 -1.6705433 -0.5868425 3.4223213
0.38600042 -0.59035385 0.33948064 0.70728296 2.1193237 0.34722802 1.1735985 0.7748494
-1.3144327 1.4469135 1.4121623 -0.37643826 -0.53733116 -0.824075 0.03975072 -0.904162
-0.3462185 -0.2840565 -0.342332 -0.58097273 -0.10846733 0.47820404 -0.0110199675 -0.36533225
-0.3671762 -0.2574599 -0.3358681 -1.2214619 -0.34001613 0.41973373 0.101440154 0.27169058
-0.29392764 0.13581666 0.6196961 -0.28145564 0.25218236 0.14586239 0.29938284 -0.7137179
-0.30431962 -0.0451769 -0.18834613 -0.5451049 -0.0010478292 -0.09378004 -0.002655198 0.9032824
0.9787621 -0.61822194 0.05533642 -0.14148892 -0.011648333 -0.24770749 -0.43190992 -0.83197
-0.17681055 -0.53789574 -1.2367814 -0.36516944 -0.29354164 -0.37925163 0.17434855 0.3479904
0.6690637 -1.0758437 0.37198952 -0.29141456 0.15374947 0.72974586 0.36503592 0.43261492
-0.45847064 -0.17211498 0.558096 0.5649941 0.06358235 -0.22938025 0.43596035 -0.3745855
0.1221675 0.23886113 -0.19423391 -0.38458768 1.731794 -0.5768313 -1.0415831 -0.18831407
0.88093764 0.9316427 0.028761974 0.4296599 0.15516314 0.48871803 -1.6444749 0.34205785
0.11624056 0.69789183 1.038244 1.3418239 -0.22921222 -1.0288221 -1.0403751 0.86049885
-1.3209852 -0.034289952 -0.9727912 -0.19243167 0.7452575 -0.19342738 0.39515394 -0.37087622
0.4034964 0.15448037 1.5637097 0.5698047 0.2041019 0.2028861 1.3618141 -0.8181714
-0.38564804 -0.9774983 0.6850081 -0.15590094 -0.84485054 0.009036721 0.9506224 1.1204361
-0.31281868 0.64343697 -0.36584583 0.058175392 0.5726122 1.5325971 -0.014853325 -0.045177925
0.069013774 1.6998879 0.1178782 0.89552516 -1.1934296 -0.15356444 0.40649194 0.2376341
-0.8094979 -0.46743035 -0.40941593 -0.40149647 2.7218273 -1.2443635 0.30331892 1.168454
0.9979825 1.1014656 -0.7725707 -0.034257624 -0.8123999 2.0522997 -0.24821226 0.18451516
-0.8212649 -0.49308935 -0.57874906 0.25921556 0.6785035 -2.1574042 -2.1989398 0.18398118
-2.411064 -0.8258511 -4.4968443 -0.38382003 -0.76122844 -0.5877779 0.8657756 -1.7099473
-0.82277524 1.1831306 2.7752035 -0.40217367 -0.8723171 -1.3843409 2.136804 -1.7444471
-0.0002343266 0.5120337 -0.117482714 -0.6684973 -2.3909328 -1.3471969 -1.0464257 3.868298
1.0864699 -0.56233984 -0.056309264 1.3320162 2.157257 0.40342385 0.53936124 0.8006515
-0.6633841 2.6477702 1.397419 -0.5327987 0.010484266 -0.5821398 -0.068186335 -0.82072574

critic.v_net.fcs.1.bias f4 [64]
00000000: 708d 113f c591 e0be 593d 6dbe 47f1 e33d
00000010: 67f7 773d 2ce5 bb3e f0d8 46bf c21c ecbe
00000020: 0363 b93e c95f 17bd c401 cf3e bb17 153f
00000030: 90e6 a43e 037b c93d b7e4 46be 7bf4 7b3c
00000040: e090 35bf a417 4dbd 0ef2 cfbe 7dd9 e03e
00000050: 8fff c93d 28bf c7be d753 0dbf 5f47 b9bd
00000060: 90bc cabe 6d3f f43e c1f5 0bbf 1fef a13d
00000070: 99a1 293e df6b c6bd e00d 913e 92b9 d5be
00000080: 97ac e73e 1255 ad3d 0d71 a53e 3394 00bf
00000090: fafb 81be 8173 1dbf 9a1d 933e fe0d d93e
000000a0: b925 3ebe 4661 4dbb 9d1e f73e f81f e23e
000000b0: 42f6 bbbe 14ea 843d 1c6f 72be dd7e 43be
000000c0: 4de4 09bf b5f7 a33e cee7 8ebf 6b5a a6bd
000000d0: 26d6 4dbe 7e89 f13e 3aca b3bd 2ea7 2cbf
000000e0: df77 f03d 9a58 8fbd eb9b 3fbf a7c7 503e
000000f0: 83cf 6dbe 921c 553e fb4c 393f b8fd 8a3d
0.5685644 -0.43861213 -0.23167934 0.111300044 0.060538676 0.36698282 -0.7767477 -0.4611569
0.36208352 -0.036956582 0.40431035 0.58239335 0.32207155 0.09837916 -0.19423185 0.015378113
-0.70924187 -0.050071374 -0.4061436 0.4391593 0.09863197 -0.39013028 -0.55206054 -0.09046816
-0.39596987 0.4770464 -0.54671866 0.07906937 0.16565551 -0.096885435 0.28330898 -0.4174314
0.45248863 0.084634915 0.32312813 -0.50226134 -0.25387555 -0.6150437 0.28733522 0.42393488
-0.18569078 -0.0031338497 0.48265544 0.44165015 -0.36711317 0.06489959 -0.23675197 -0.19091363
-0.53863984 0.32024923 -1.1164491 -0.081227146 -0.20101222 0.4717521 -0.08778806 -0.67442596
0.117416136 -0.06999321 -0.74847287 0.20388661 -0.2322369 0.2081168 0.7238309 0.06786674

critic.v_net.fcs.2.weight f4 [1, 64]
00000000: 16e0 1540 7084 7840 10c8 92bf 3308 05c0
00000010: 59ae 1840 edb5 3940 3307 21c0 d858 97bf
00000020: c771 3c40 102e 383f fad9 1640 7f8a 2040
00000030: adc2 9e3f 8987 0f40 e053 27c0 6c6f 13c0
00000040: d000 1cc0 1c78 9440 93f3 15c0 c1e2 2540
00000050: 7af2 a4bf 5b9b f6bf 5f65 1ec0 9ba4 16c0
00000060: cb5b 2440 85f8 a4c0 aab0 22c0 02da 0540
00000070: 3a80 0b40 43fd 20c0 bc32 2640 e57c d53f
00000080: 0976 2040 a111 20c0 23f6 e3bf 7c86 44bf
00000090: 5b47 9d40 9d8d 1cc0 36a8 3440 4cbb 833f
000000a0: 5239 b23f 7e23 31c0 c0f3 4140 57d0 65c0
000000b0: 8191 8540 8def 4c40 4db9 d7bf 2cb5 1a40
000000c0: 1389 93bf 5a16 19c0 2701 3740 4e9f 1d40
000000d0: b91a 87c0 b8bf 2440 677b debe b49c da3f
000000e0: 4dfa 1d40 0e58 97bf 63e6 15c0 e62f 1d40
000000f0: 208a eabf 4ded 653f 23e6 2340 1165 1340
2.3418021 3.8830833 -1.1467304 -2.0786254 2.3856413 2.9017289 -2.5160644 -1.1823988
2.9444444 0.71945286 2.3570542 2.5084531 1.240316 2.2426474 -2.6144943 -2.3036757
-2.4375496 4.639662 -2.3429916 2.591965 -1.2886498 -1.9266161 -2.4749372 -2.3537967
2.5681026 -5.155337 -2.5420327 2.0914311 2.1797013 -2.5154579 2.5968466 1.667874
2.5072043 -2.501076 -1.780949 -0.76767707 4.9149604 -2.4461434 2.8227668 1.0291533
1.3923743 -2.7677913 3.0305023 -3.590841 4.1740117 3.202121 -1.6853424 2.4173079
-1.1526207 -2.3919892 2.8594453 2.4628482 -4.222012 2.5742016 -0.43453524 1.7079072
2.4684021 -1.1823747 -2.3421867 2.4560485 -1.8323402 0.8981522 2.5609214 2.3030436

exp_avg f4 [64, 4]
00000000: 869e eebb c902 28bc 0838 1eba 0b15 613a
00000010: 89b6 b83c e1fa 0e3d 0566 253b ed05 efba
00000020: ccb0 c03b b654 0d3c cb33 5b3a f7bb bd39
00000030: 4772 acbc 83c5 e9bc 59b1 98bb 9b23 11bc
00000040: f690 2cbb 8aba 63bb 9aa0 60ba c119 0fbb
00000050: 4c6e 46bc e236 90bc 14a0 64ba ea42 103b
00000060: 3887 4d3b 4c37 843b dba3 843a e85d 303b
00000070: 0b6d 57bb aefb 8dbb 7e06 90ba 7bc6 3cbb
00000080: 2b67 353c d9f9 943c 613a 203a 7337 84bb
00000090: bdf5 9fbb bd89 d0bb 4702 e2ba 590a 97bb
000000a0: 3beb 9b3b e325 e93b 99cb 2c3a 2bd2 4939
000000b0: 4c4a 56bb 45aa b1bb 434c 8539 bd55 2d3b
000000c0: 4381 cb3b 4845 0c3c c88e b73a 9164 2d3b
000000d0: adab 86bb 4705 d0bb 6e94 00ba 57ac 8439
000000e0: dbd6 b9bc c696 09bd c372 03bb 5952 553b
000000f0: bcbf c13b 234a 043c a570 b03a cde3 2c3b
00000100: f214 c1bb 8998 febb 6fce f8ba 00fe 9fbb
00000110: b973 85bb 5843 a7bb c697 cdba fe07 8ebb
00000120: 796b 0bbc d168 50bc 65fe 1eba 5217 f93a
00000130: dd4a f93c 8b78 373d f398 863b a226 9a3a
00000140: cda0 60bc 06a8 a5bc 4466 65ba ba2b 583b
00000150: 9128 633b 8353 aa3b d521 bd39 f5eb 94b9
00000160: c985 643b c192 9d3b 57c8 8a3a a1e8 293b
00000170: f5ab 713c 95f5 a73c 7b55 1a3b 5431 213b
00000180: 418c 1dbd 14bc 6abd ca6d 75bb 8d8c 913b
00000190: 5986 be3b 7e15 153c 99d0 2d3a 8eec e7b9
000001a0: 2492 d4b9 17e7 8cba 09ac dc39 e0c7 ff3a
000001b0: a400 a73c d588 003d d09a 113b f817 ecba
000001c0: a7f3 e4ba 0702 14bb cce3 4fba 0019 18bb
000001d0: ddaf 1fbd 8141 7abd a16f 11bb 1f67 433c
000001e0: 15cb 8cbb 203d b5bb 2213 c2ba 0120 81bb
000001f0: c55e a939 10db 3f3a b113 c6b9 a92f d9ba
00000200: e357 09bc fd9b 42bc 95b3 aeba 4b76 b2ba
00000210: 55be fc39 4411 16ba 92a0 d73a efab d33b
00000220: 88df b73c 63d8 063d 2806 2c3b 2c99 2cba
00000230: d7d1 cabb 0a34 09bc 8fa5 f5ba 06a9 96bb
00000240: 59b2 5d3b 8886 953b 828d 853a 2f0d 243b
00000250: 1939 baba 410b 0cbb c233 3e39 01f2 ae3a
00000260: 7427 e63b b2a4 263c 0497 9b3a 2f86 963a
00000270: c3e9 9bbc d06d e6bc 2fe2 c7ba 3cb8 5d3b
00000280: 9e5b b4bb c877 edbb 468f dbba 748c 88bb
00000290: e4b1 93ba 8be7 a0b9 dd54 f0ba 1c2c e5bb
000002a0: 7a83 5cbb 38e7 96bb c882 92ba 6afc 39bb
000002b0: d59a 26ba 872e 1bba 69cd deb9 282d b9ba
000002c0: c513 d8bb c9ba 20bc c60a 83ba cba0 32ba
000002d0: 1de2 a0bb 631c d3bb 71ca b1ba 0d28 53bb
000002e0: e5fd 7f3c bd06 c73c 4e42 9e3a 164f 6ebb
000002f0: 9749 473d cf7d 953d 3663 683b fb56 2cbc
00000300: f2c4 bcbb 97bb fabb 2393 e3ba 086f 8bbb
00000310: 2876 9cbb ddc0 e9bb 86e4 deb9 522c 543a
00000320: f75d 033b 20dc 673b 5e2a 3537 e53f 98ba
00000330: dd83 dfbb bd7d 36bc 5541 25ba b645 c63a
00000340: 3c9b c7ba dfb6 d6ba 77c5 71ba 6757 41bb
00000350: b3e3 fb3b b735 403c 9851 4c3a 2ff4 60ba
00000360: 652e e33a 17b2 193b 8933 2b3a 706b f13a
00000370: 3188 b7bb 39d0 f6bb 86f6 e3ba f20d 8fbb
00000380: e449 c83b 4cc7 0e3c 3138 4b3a c1e5 7d39
00000390: 5251 b7bb 1cf6 04bc ff6f cbb9 44e5 9a3a
000003a0: bdac 2cbc 4a00 84bc 5a3d 75ba 7eb2 f03a
000003b0: 88e4 943c 54cc dc3c 9b92 263b f513 913a
000003c0: 1ac9 8a3b 08fd b93b 4c93 903a 04c7 223b
000003d0: 793f 26bc 85f1 6fbc 78cf 0bbb abbe 68bb
000003e0: 3913 4bbd 0c51 98bd 2506 7dbb 39e3 1c3c
000003f0: 2790 8aba 62f0 9dba cea8 15ba 9118 e9ba
-0.007282081 -0.01025457 -0.0006035571 0.00085862045 0.022547977 0.034907226 0.002523781 -0.0018236019
0.005880451 0.008626154 0.0008361905 0.00036188934 -0.021050585 -0.028536564 -0.0046598134 -0.008858587
-0.002633152 -0.0034748637 -0.00085688534 -0.002183542 -0.012111258 -0.017604295 -0.0008721363 0.002201254
0.0031361114 0.004034912 0.0010119634 0.0026911441 -0.003287139 -0.004332981 -0.0010988263 -0.0028804827
0.01107196 0.018185543 0.0006112215 -0.0040349304 -0.004881589 -0.006364076 -0.001724311 -0.004609388
0.0047582663 0.007115112 0.0006591618 0.00019247147 -0.0032698093 -0.005421909 0.00025424556 0.002644881
0.0062104776 0.00856144 0.0014004344 0.0026457647 -0.004109821 -0.0063482854 -0.000490493 0.00025305405
-0.022685459 -0.033591054 -0.0020057417 0.0032550304 0.005912749 0.008074316 0.0013461305 0.0026380897
-0.0058923895 -0.0077696485 -0.001898242 -0.004882574 -0.004072633 -0.0051044635 -0.0015685491 -0.004334449
-0.00850951 -0.012720303 -0.00060651294 0.0019004142 0.030431205 0.044792693 0.0041075884 0.0011760781
-0.013710213 -0.020221721 -0.00087508955 0.0032985047 0.003466163 0.0051979437 0.00036074096 -0.0002840456
0.0034869781 0.004808754 0.001058827 0.002592601 0.01475047 0.020502845 0.0023549485 0.0024596052
-0.038463835 -0.05730827 -0.0037449473 0.004441804 0.0058143553 0.009099362 0.000663051 -0.00044236
-0.00040544674 -0.0010750022 0.00042089846 0.0019514523 0.020386048 0.031380493 0.002221752 -0.0018012514
-0.0017467634 -0.0022584216 -0.0007930368 -0.002320826 -0.038986076 -0.061097626 -0.002219178 0.011926441
-0.00429667 -0.0055309683 -0.0014806727 -0.0039405827 0.000323048 0.00073187146 -0.00037780174 -0.001656999
-0.00838277 -0.011878011 -0.0013328666 -0.0013615576 0.00048206994 -0.00057246187 0.0016451052 0.006459705
0.022445455 0.032921206 0.0026248787 -0.00065841037 -0.0061895656 -0.0083742235 -0.0018741357 -0.004597786
0.0033828227 0.0045631565 0.0010189267 0.0025032272 -0.001420769 -0.0021369013 0.00018139093 0.0013347269
0.007023746 0.010171102 0.0011870568 0.0011484082 -0.019032365 -0.028128535 -0.0015249903 0.0033831736
-0.0055040857 -0.007246945 -0.0016751073 -0.004167134 -0.0011268225 -0.0003069009 -0.0018335838 -0.0069937836
-0.0033647702 -0.0046052 -0.0011177892 -0.002837921 -0.0006355469 -0.0005919714 -0.00042496182 -0.0014127837
-0.0065941536 -0.009810158 -0.0009997718 -0.0006814121 -0.0049097673 -0.006442593 -0.001356436 -0.0032219917
0.015624498 0.024295205 0.0012074204 -0.0036363057 0.048654165 0.07299387 0.0035459525 -0.010518785
-0.0057607824 -0.007651757 -0.0017362576 -0.0042551793 -0.0047748275 -0.007133587 -0.00042513403 0.00080937624
0.002004502 0.0035379007 1.0798305e-05 -0.0011615722 -0.0068211392 -0.011138377 -0.0006303986 0.0015126977
-0.0015228759 -0.0016381404 -0.0009222845 -0.0029501559 0.007687056 0.011731557 0.0007794141 -0.0008581308
0.0017332552 0.0023452097 0.00065308117 0.001841886 -0.005600952 -0.0075321463 -0.0017392195 -0.004365676
0.006112324 0.008714508 0.00077522086 0.0002421355 -0.005594411 -0.008115318 -0.0003880262 0.0011817594
-0.010539231 -0.01611342 -0.00093551504 0.0018363742 0.018175378 0.0269529 0.0025416974 0.001106857
0.004235399 0.0056759156 0.0011030226 0.002483786 -0.010146969 -0.014644985 -0.0021333378 -0.0035514038
-0.04957888 -0.074373335 -0.0038608399 0.0095756585 -0.0010571525 -0.0012049789 -0.0005709053 -0.0017783811

exp_avg_sq f4 [64, 4]
00000000: 0c0a 543a a2d4 9d3a ab7d 1038 897c 8539
00000010: e718 0a3c 355c 583c 4a0f ce39 9b48 433b
00000020: e5b1 bd39 6927 0a3a 08d5 8437 7642 f738
00000030: c935 c73a b1fe 1b3b eef8 a538 4296 233a
00000040: 8fec 0b38 83c9 a138 3662 5036 88df 8f37
00000050: a0de 323b 2e14 843b cbd5 f638 41c3 5f3a
00000060: 8589 0f38 b1f8 9138 5b51 4f36 b988 9d37
00000070: 3688 6838 d318 fb38 4c90 a036 5945 df37
00000080: 2b5b 643b 040f bb3b c1b2 3f39 fde6 9a3a
00000090: 3531 ce38 1835 5939 a85c 2737 ae54 8138
000000a0: 1357 8f39 245f df39 463d 5437 479c cd38
000000b0: c611 e739 c9ee 2f3a 8a03 b637 a3bf 1c39
000000c0: 111e 0439 fc34 6d39 aa15 eb36 9559 4838
000000d0: 3274 8639 3ed1 d839 9b73 5937 6eca c838
000000e0: 032d 123c 4a71 5d3c 00fe d339 304a 3b3b
000000f0: b8ba 1839 d2bd 7f39 fb11 0037 1330 6c38
00000100: 0d39 1839 80e1 ac39 b6d8 5537 b2ee 8638
00000110: 1346 9638 9e90 1439 b451 0337 69fa 6038
00000120: 91bc c13a 864b 133b 47b7 8f38 30d7 f039
00000130: 69d1 263c 5dbd 7b3c f1fb ec39 de40 613b
00000140: 9b3a 813b 07dd c13b ed80 3939 9c36 9d3a
00000150: 26f9 6239 90f8 9e39 65b7 0c37 41ef 8438
00000160: 878a 8938 818d 0e39 f38c af36 dbf1 0438
00000170: 4978 cf3a 448e 183b dea1 8f38 c67d 0d3a
00000180: 47c8 c33c 12d0 143d a9b1 8e3a 0a56 ff3b
00000190: a1c3 103a dfef 643a 6f3f db37 4761 5039
000001a0: 5bdb c538 deb6 2539 9c90 c636 7f55 0938
000001b0: 28bc e23b a1fa 2e3c bb30 a839 f1a5 1d3b
000001c0: 2ff2 0f38 a12e 9838 7121 5d36 8ab0 9a37
000001d0: 08cb 1e3d 1793 7b3d e14f f83a a96a 523c
000001e0: 5424 ae38 6856 4439 c5ca 0c37 2329 4b38
000001f0: dec8 8738 7328 d038 2361 7d36 0ae1 ac37
00000200: b848 173a 5ee4 5d3a d089 d037 a926 4b39
00000210: 37e7 f639 9fcd 4d3a 06a8 0638 0061 5a39
00000220: 23b6 d73b fe7e 233c 8f68 9b39 fc48 0f3b
00000230: c142 3b39 c85b d939 3db5 7f37 4f17 a638
00000240: ee90 8a38 0569 1f39 25bf b536 2039 f137
00000250: 8d56 d338 5a58 1b39 c510 aa36 752b ea37
00000260: 43a4 be39 6efa 123a 08fa 9337 8f0f 0b39
00000270: 28c2 d73b 253e 293c 2446 a439 1e96 0d3b
00000280: 0c83 e038 c412 7539 6e7a 2037 efbe 6238
00000290: f0c0 1e3a e486 8d3a d129 3838 c816 8939
000002a0: 4d82 6638 308e 0439 0c1d a436 8688 d237
000002b0: 1995 1237 56a9 8837 e23e 8735 341c f036
000002c0: d45a 043a 1073 4a3a c80e b937 05fd 3939
000002d0: 02ba 5738 bd5c cd38 933d 9b36 0f19 0238
000002e0: 7ffd aa3b 9114 043c 532c 8439 dd45 df3a
000002f0: ed2c 433d 5c64 973d f98d 133b a400 793c
00000300: 8584 c638 3926 4a39 6747 1737 41e8 7538
00000310: 525d d839 4c5a 213a f0df 9d37 a6ab 0439
00000320: 365c 2239 0c8d 8939 5c75 1337 e2b0 7b38
00000330: 0276 8a3a 3d00 e03a 1e8d 6638 e66b c539
00000340: 0556 3c38 2f5b a538 d9d4 8c36 b944 e537
00000350: 5f45 7f3a 7b60 c43a 7063 3f38 a019 ab39
00000360: 431f d137 b69c 5538 7c80 1436 25e0 5337
00000370: 6497 4139 dbd0 e239 0009 8237 4e62 a338
00000380: a0b2 df39 7610 233a 6109 9937 32a0 0f39
00000390: 3f0b 123a c64d 5e3a a4f8 da37 997a 3339
000003a0: 33e8 053b dd17 4f3b 6ab3 cf38 0687 323a
000003b0: 053c 823b d4d9 c43b 0596 3439 fe0d b33a
000003c0: 3e19 bd38 67a4 5239 f87e da36 10a5 0d38
000003d0: 2fab 323a 10c4 9c3a 25c6 0e38 122a 8239
000003e0: 28ed 433d 93ab 9a3d ed8a 173b 1337 7f3c
000003f0: 0eca bb37 1e43 5138 2050 1b36 0b00 4637
0.00080886553 0.0012041519 3.4449313e-05 0.00025460523 0.008428789 0.013205578 0.00039302773 0.0029797915
0.0003618143 0.0005270155 1.5834827e-05 0.00011790257 0.0015198524 0.002380293 7.91418e-05 0.00062403467
3.3360495e-05 7.714613e-05 3.1051582e-06 1.7151018e-05 0.002729334 0.004030726 0.00011770016 0.000853587
3.4221932e-05 6.960461e-05 3.0892759e-06 1.8779525e-05 5.5439967e-05 0.000119732365 4.78517e-06 2.6615964e-05
0.003484438 0.005708577 0.0001828177 0.0011818107 9.832011e-05 0.00020714512 9.975549e-06 6.166972e-05
0.0002733996 0.0004260476 1.2650451e-05 9.804271e-05 0.00044072996 0.0006711302 2.1697739e-05 0.0001494871
0.00012599702 0.0002262182 7.006068e-06 4.7767146e-05 0.00025645044 0.00041354628 1.2961124e-05 9.5744486e-05
0.008921864 0.01351578 0.000404343 0.0028578155 0.00014565408 0.00024389409 7.633581e-06 5.6311557e-05
0.00014517103 0.00032974407 1.2746246e-05 6.4340784e-05 7.16561e-05 0.00014168254 7.8272315e-06 5.3638974e-05
0.0014780929 0.0022475435 6.8529094e-05 0.00045936694 0.010181763 0.015364972 0.0004520114 0.003437094
0.003943754 0.005916241 0.00017691003 0.0011994424 0.00021645855 0.00030321302 8.38735e-06 6.338815e-05
6.558472e-05 0.0001359489 5.231815e-06 3.1696498e-05 0.0015828694 0.0023278156 6.8489215e-05 0.0005397465
0.02389921 0.036331244 0.0010886687 0.007792239 0.0005522315 0.00087332533 2.6136373e-05 0.00019872664
9.43455e-05 0.0001580375 5.9176946e-06 3.274297e-05 0.0069194026 0.010679872 0.00032079764 0.0024055208
3.4319408e-05 7.25661e-05 3.2951032e-06 1.8440438e-05 0.038767844 0.061419573 0.0018944704 0.012842813
8.303733e-05 0.00018724205 8.391861e-06 4.8437283e-05 6.474716e-05 9.925747e-05 3.7756479e-06 2.060879e-05
0.0005771029 0.00084645103 2.4859706e-05 0.0001937399 0.00047093045 0.00078507693 3.2104574e-05 0.00020826235
0.0065829917 0.009979008 0.00029641806 0.002186357 0.00017858577 0.00041457848 1.5241382e-05 7.9198384e-05
6.607348e-05 0.00015202544 5.4164725e-06 2.875604e-05 0.000100773854 0.00014814865 5.068347e-06 2.791521e-05
0.00036362009 0.0005606775 1.7640195e-05 0.00013261869 0.0065844245 0.010329758 0.00031332776 0.002160437
0.00010705562 0.00023372011 9.565249e-06 5.406042e-05 0.00060559716 0.0010797647 4.3907963e-05 0.0002614765
5.4957625e-05 0.0001264147 4.8909624e-06 2.5097524e-05 8.736993e-06 1.6291317e-05 1.0076585e-06 7.1558406e-06
0.0005048935 0.0007722834 2.2060602e-05 0.00017737232 5.1433228e-05 9.7924356e-05 4.626528e-06 3.1017753e-05
0.0052182074 0.008061544 0.00025210026 0.0017034371 0.047650266 0.07392189 0.0022515042 0.015197907
9.4660594e-05 0.0001927846 9.016926e-06 5.8628855e-05 0.0004126826 0.0006155118 1.8820137e-05 0.00012652445
0.00015483875 0.00026235764 8.789208e-06 6.00078e-05 0.0010563734 0.0017089915 5.49677e-05 0.0003765516
4.4902805e-05 7.8847974e-05 4.197104e-06 2.7330929e-05 0.0009737815 0.0014982367 4.5630557e-05 0.00032634754
2.4929299e-05 5.0929106e-05 2.2128506e-06 1.2628768e-05 0.00018462312 0.0004326169 1.5501399e-05 7.790756e-05
0.0004266696 0.00062204094 1.8243389e-05 0.0001369722 0.0005571134 0.0008480217 2.6103407e-05 0.00017116441
0.002043259 0.0031599917 9.903948e-05 0.0006810281 0.00397444 0.0060074124 0.00017222024 0.0013660786
9.016924e-05 0.00020088405 6.5116874e-06 3.3770746e-05 0.00068156695 0.0011960287 3.4039975e-05 0.00024826877
0.04783359 0.075522564 0.0023123578 0.015577096 2.2386226e-05 4.989199e-05 2.3143439e-06 1.180173e-05

exp_avg f4 [64]
00000000: 8de9 173d c923 e6bd 170f aabc 2f1d fd3c
00000010: 055e a3ba f530 843d 2ad6 ff3a a899 eaba
00000020: 23ea 94bd 3fbf b9bb 9baf 9dbc 0363 d23c
00000030: e67e d9bb 2563 9a3c 514e f23d ea00 14bc
00000040: 9378 c6bb 8e0f c1bb 86a8 3d3d 95b6 f1bd
00000050: 006d 9b3d 8b77 95bc 134c 27bb 019f 34bd
00000060: dfb1 3f3e fa09 f0bc ec48 493c 336d d1bd
00000070: c0cf 7fbb a5b7 7b3e 2861 8dbb 6d9d 16bc
00000080: 6808 d73c 04b2 dd3c 1459 c8bd 5bff eaba
00000090: 38d2 24ba 401a 403c e0a4 afbc caa0 d23d
000000a0: c205 22bb 55c2 eabc bdde 45bb a755 12bb
000000b0: 46f3 d23c fdef ad38 da66 b3bd c383 8abe
000000c0: 32ed 18ba 370a c13c a61f 81bc b0e1 243d
000000d0: 5d69 cbbb 3246 19bd e8f8 913a 1192 cfba
000000e0: 0222 c4bc 5b0f d93c 192e 633d b161 97bd
000000f0: 4297 b1ba e275 ab3c 3206 8c3e 854f 5cbb
0.037087966 -0.11237294 -0.020759149 0.030897705 -0.0012463933 0.0645465 0.0019518782 -0.0017898576
-0.072712205 -0.0056685503 -0.019248774 0.025681978 -0.006637442 0.018846104 0.11831344 -0.009033421
-0.006056854 -0.005891747 0.046303295 -0.11802403 0.075891495 -0.01824548 -0.0025527522 -0.04409695
0.18720196 -0.029301632 0.012285452 -0.10225906 -0.003903374 0.24581774 -0.0043145604 -0.009192807
0.026249126 0.027062424 -0.09782615 -0.0017928885 -0.00062874286 0.0117250085 -0.021440923 0.10284574
-0.002472267 -0.028657118 -0.0030192577 -0.0022328885 0.025750767 8.293984e-05 -0.08759852 -0.2705365
-0.00058336847 0.023564441 -0.015762161 0.040254295 -0.0062076286 -0.03742046 0.0011136802 -0.0015836378
-0.023941997 0.02649658 0.055463884 -0.0739168 -0.0013549107 0.020930234 0.27348477 -0.0033616733

exp_avg_sq f4 [64]
00000000: 5ca6 b33d 318a 833f 1ef4 253d ba4f 143e
00000010: 875e 0e3a cad5 963e d274 b739 5dd5 323a
00000020: 7e27 cc3e e6c6 133a a27f 083d 543a 433d
00000030: 5922 113c ef5a 053d 50e1 7c3f f980 453c
00000040: 865f 8d3a fa18 e139 ca9e 213e ffb0 963f
00000050: ba41 d33e a883 b83c 20bb 043b 3e26 353e
00000060: 7e75 2c40 2711 8c3d 52df 053c ab8f 543f
00000070: a1b7 1f3a f81c 8c40 183b 3a3a 6be5 8e3b
00000080: 9593 833d b85f 1f3d d947 413f 10f4 5a3b
00000090: 30ad e93a dd3f 023c 9bf6 343d 3988 3c3f
000000a0: 1153 ba3a 6ea0 393d 4ac9 fd39 098a 7639
000000b0: c16a 723d bc82 8c3a 2104 163f 967b a640
000000c0: e5c5 cb3a 34e0 333d 7b95 a13c f163 043e
000000d0: 1949 cb3a b531 e73d 3639 5e39 9174 6c3b
000000e0: 8d77 403d e6ac 6a3d b8d3 6f3e 38e5 ec3e
000000f0: 3d3f 583b a905 823d 7a4b aa40 8ef1 073a
0.08771965 1.0276548 0.04051601 0.14483538 0.0005430956 0.29459983 0.00034991518 0.0006821955
0.3987388 0.0005637243 0.033324845 0.047663048 0.008858287 0.032557424 0.987813 0.012054675
0.0010785914 0.00042933953 0.1578323 1.1772765 0.41261083 0.022523716 0.0020253137 0.1769037
2.6946712 0.06839209 0.0081709195 0.8303172 0.00060927315 4.378536 0.00071041426 0.004360845
0.064246334 0.038909644 0.75500256 0.0033409633 0.0017828103 0.0079497965 0.044180494 0.7364536
0.001421543 0.045319013 0.00048405892 0.0002351181 0.05918384 0.0010720114 0.5860005 5.202586
0.0015546648 0.04391499 0.019724598 0.1292875 0.0015509456 0.11288778 0.00021192883 0.0036080221
0.046989013 0.057293795 0.23420608 0.4626863 0.0032996677 0.06348736 5.3217134 0.0005185836
