training_results/cartpole_null/ppo_backup1/seed_42/1000000steps/checkpoints/model_600000.pt (torch, 151515 bytes, 30 tensors)

actor.pi_net.fcs.0.weight f4 [64, 4]
00000000: ef34 8fbe 547b 1d3f f9a8 803f b27a 523f
00000010: 56e5 09bf 0edf 07be 7f91 11bf 6e34 6cbf
00000020: 48fd 683e 5be9 08bf 4e64 9cbf e354 41bf
00000030: 482a 44be 567a 94be 96b6 543f 0d38 2e3e
00000040: a6a1 fc3e 42d8 c33e c2e9 da3e 7cc3 013f
00000050: c2fc e0be 02d3 c9be 9805 043f 9214 313f
00000060: dbcd 973e 388f ce3e 1ff2 cbbe 5a66 49be
00000070: baa6 17bd 0c47 b83e 00c1 e0be 191f 3c3e
00000080: eefd d03e 331b 5c3e ee2e 6dbf cd38 4cbf
00000090: c18c d43e 60b3 a1bd 8a05 19bf fd34 1b3e
000000a0: ff50 4fbe 3677 1fbf 0aac dfbe b267 37bf
000000b0: 412f 06bf 1043 ccbe 9e7f c33e 5e9f d43d
000000c0: 76dd 0ebf b6ae 64bd 1646 5dbf 8c7c 00bf
000000d0: 6137 4f3e 8cfc a53e 3fad 9c3e 6444 3b3f
000000e0: df29 4abd 0c38 863e c2ae 823f 25dc 663f
000000f0: a426 9d3e 98c8 333e 966a 38bf 9ee1 bfbe
00000100: 5f58 8d3e bea8 49be d77e 02bf d69a a23e
00000110: 38c8 dabe 2a66 cabd 5155 6dbf 3df8 f63d
00000120: b3d7 b1be 506f 933e d2b3 823f 791d 5b3f
00000130: 9458 a4bd a7f1 99bd 3e41 89bf 7298 f8be
00000140: 8010 d9be 92db 983e 7e53 543f a16d 5e3f
00000150: 64c3 05be 0af6 3e3e adcb 0fbf d95f 20bf
00000160: 93c3 1bbf 6ed4 dfbe 382b 41bf 8700 e7bd
00000170: 4cb3 353e b295 2fbf c24e 68bf 9f8e 52be
00000180: 1bf9 e4be 2203 15be 6310 843e cfce 113f
00000190: 7518 e0be a0aa a2be c4f0 9ebf 7c88 1bbf
000001a0: 0673 ebbe 7306 f2be 5934 373e e10c 0bbb
000001b0: 5f92 96be f490 aabe 2479 8bbf 4cf9 67bf
000001c0: 1268 053f 16fa 5bbe f9a4 fa3e a222 d0bd
000001d0: bd97 0bbf 8a48 c03d 94e8 433f ad7e 523f
000001e0: 2524 8e3e 5df1 413e 3a0a 16bf 8f6f 583e
000001f0: 59d2 813e 5bab f73e bd08 43be 91a9 5f3e
00000200: 5f8b 84be fb60 60be 6ab8 6f3f 919f b63e
00000210: fb7c 05be dfff 253f 9cba 193f ef96 89bd
00000220: df33 ed3e 1803 bbbd 6ae2 47bf 6c23 69be
00000230: c985 1c3f 1301 783e 4d88 f23e eabe a63d
00000240: 0290 a5be 312f f9be c4e6 7ebf 5042 19bf
00000250: aa64 05bf 6be9 f0be 9e09 013f 5632 d0bd
00000260: 127b 213e 3892 643e 0830 1cbf 9ba0 0fbf
00000270: 996d 8cbe 97b8 db3e 197c b43f 118b 5d3f
00000280: b351 9b3d f3c6 4f3e 7ae9 803f b010 0a3f
00000290: cd86 2c3f 69c2 363e 2e82 0d3f ab83 47bc
000002a0: 4dc3 243f 899b 47be 0c12 133f d8be 0f3f
000002b0: bfbd fc3e 27d0 023f 48d1 0dbf 991f b33e
000002c0: 4dc1 cc3e 6848 e23e 8757 a2bd 1e61 a43e
000002d0: 7f80 50be 2069 9dbe f431 693f 5dcc 3dbe
000002e0: 291a 7b3e 39c1 b23e 9ad8 e7be a638 44bf
000002f0: 1537 623e 7816 88be 1749 a6bf 7d01 61bf
00000300: 737f 9fbe 68f3 7bbd 8caf 5b3f 97ad 18bd
00000310: c39f dfbe f47f 0a3f 9f55 de3e 650c 333f
00000320: b533 babe bb08 41be 4e52 35bf 17c9 c9bd
00000330: ae2e 99be 0394 92be 6993 943f 0c21 4f3f
00000340: 19a4 463d ddbf 9b3e 2886 3cbf 3262 e23d
00000350: 52ca 7abd 76e5 60be 1017 9cbf 0179 fabe
00000360: eb91 2abe 50c8 193f c5a2 30bf e99a 39be
00000370: dbab e33e c5cc db3e 5007 4c3e 8bd8 623e
00000380: fd69 cd3e 5e28 b63e dfd2 5cbf 24e0 b8be
00000390: 663d 12bf 3253 003e e661 073e 3f89 e3bd
000003a0: 3cb4 65be 81c5 103f 351b c03f ddc0 733f
000003b0: da52 80be efc0 12bf 657f 75bf 7e5d cfbe
000003c0: f45e 41bf a14d 03bf bedd e1be 72a3 a8be
000003d0: a1b9 0d3f b937 3c3e c413 3d3e 6600 173d
000003e0: f5e1 a43e b46c 1abe c80d a63f 85fb 893f
000003f0: 26d2 143f ee18 d43e 22c7 40bf 95bf a73d
-0.27970073 0.6151631 1.0051566 0.8221847 -0.53865564 -0.13268682 -0.56862634 -0.922675
0.22752869 -0.5348107 -1.221811 -0.7552015 -0.19156754 -0.28999585 0.83091104 0.17013569
0.49342078 0.3825093 0.42756468 0.5068891 -0.4394284 -0.394188 0.51571035 0.6917201
0.29649243 0.40343642 -0.3983316 -0.1966795 -0.037024237 0.35991704 -0.43897247 0.18371238
0.40818733 0.2149475 -0.92649734 -0.7977417 0.41513637 -0.07895541 -0.59774077 0.15156932
-0.20245741 -0.62291276 -0.43685943 -0.716426 -0.52415854 -0.39894915 0.38183302 0.103819594
-0.5580667 -0.05583068 -0.8643507 -0.50190043 0.20235969 0.3241924 0.30600926 0.7315123
-0.049356338 0.26214635 1.0209582 0.90179664 0.30693543 0.17556989 -0.7203764 -0.3747682
0.27606484 -0.19693276 -0.5097479 0.31758755 -0.4273088 -0.098827675 -0.9270831 0.120590664
-0.34734878 0.28795862 1.0211127 0.85591847 -0.080247074 -0.07516795 -1.0723035 -0.48553807
-0.423954 0.2985502 0.829399 0.8688603 -0.13062817 0.18648544 -0.5617016 -0.6264625
-0.608453 -0.43716758 -0.7545657 -0.112793975 0.17744178 -0.6858779 -0.90745175 -0.20562218
-0.44721302 -0.14551976 0.25793752 0.5695619 -0.4376866 -0.31770802 -1.2417226 -0.60755134
-0.45986193 -0.47270545 0.17891063 -0.0021217393 -0.29408547 -0.33313715 -1.0896344 -0.9061477
0.52111924 -0.21482119 0.4895399 -0.10162856 -0.5452841 0.09388836 0.7652676 0.8222454
0.2776195 0.18939729 -0.58609354 0.21136306 0.25355795 0.4837292 -0.19046302 0.21842028
-0.25887582 -0.21911995 0.9364077 0.35668615 -0.13035958 0.64843553 0.6005037 -0.067182414
0.46328637 -0.091314495 -0.78079855 -0.22767419 0.6114164 0.2421916 0.47369614 0.08141883
-0.32336432 -0.48668817 -0.9957087 -0.5986681 -0.52106726 -0.47053084 0.504053 -0.10165851
0.15769604 0.22321403 -0.6101079 -0.5610444 -0.27427366 0.42914268 1.4100372 0.86540323
0.07583942 0.20290737 1.0071251 0.53931713 0.6739319 0.17847599 0.55276763 -0.012177388
0.64360505 -0.19492926 0.5744941 0.5615058 0.49363515 0.51098865 -0.5539746 0.34985045
0.39991227 0.44195867 -0.07926851 0.32105345 -0.20361517 -0.30744267 0.9109185 -0.1853499
0.24521698 0.34913042 -0.4528244 -0.7664894 0.22091325 -0.26579642 -1.2991055 -0.87892896
-0.31151924 -0.061511427 0.8581474 -0.037274923 -0.43676576 0.5410149 0.434247 0.6994079
-0.36367574 -0.18850987 -0.7082871 -0.09852808 -0.29918426 -0.2862855 1.1607486 0.809098
0.04849634 0.30419818 -0.73642206 0.110538855 -0.061228104 -0.21962532 -1.2194538 -0.48920444
-0.16657226 0.6007128 -0.68998367 -0.181255 0.44467053 0.42929664 0.19924664 0.22152917
0.40119925 0.35577673 -0.86259264 -0.36108506 -0.57124937 0.12531736 0.13220939 -0.11110162
-0.22432035 0.5655137 1.5008303 0.9521616 -0.2506321 -0.57325643 -0.95897514 -0.40501016
-0.7553551 -0.5129033 -0.44114488 -0.329372 0.5536137 0.18380632 0.18464571 0.036865614
0.32203642 -0.1508053 1.2972956 1.0779883 0.5813316 0.4142527 -0.7530385 0.08190838

actor.pi_net.fcs.0.bias f4 [64]
00000000: 816c a23e 46c5 a93c a020 9c3e aa6e fa3b
00000010: ae97 c13e 1cc9 a0be 9728 153e 29f9 68be
00000020: d45c 32be 351b b0bd c902 813e 6f93 23be
00000030: f8d5 0f3e bce0 cdbe ae51 433e 65c7 36be
00000040: 3c68 03bd f162 6d3d 615f c4be fd26 723c
00000050: 239a 9bbe 4a89 bfbe 066a e23d 3623 de3b
00000060: 1d70 1c3c b881 213e f970 eebd 5d4d 883c
00000070: f60e 423e 2a03 3dbd 88b3 d63c c1fa 8e3e
00000080: 33e6 63be 0803 aebd 19d7 28bd 1fec e2bc
00000090: b0ff 7fbe f6f6 11be 934b d4be 03b1 553e
000000a0: 92b1 973e 9ad4 a5bc 88d1 9a3e fe27 eebd
000000b0: 929f 44bd 5997 913e 47d8 abbd 3c67 dc3d
000000c0: c5bf a73e e9ef bebe dbce d63e 2a36 b33e
000000d0: 9e85 353e 8043 733e 45ae e33d 1676 273d
000000e0: 5181 a63e 7d19 913c 8f85 38be d1ee 76ba
000000f0: 66b9 413d 946b 6cbb dcef b0bd de41 303e
0.31723407 0.02072395 0.3049364 0.0076425867 0.37811035 -0.31403434 0.14566265 -0.22751297
-0.17418224 -0.08598939 0.25197437 -0.1597421 0.14046466 -0.4021052 0.19074127 -0.178495
-0.032081828 0.057955686 -0.38354018 0.014779803 -0.30391034 -0.3740943 0.110553786 0.0067791
0.009548214 0.1577214 -0.116426416 0.016638452 0.1895102 -0.046145596 0.026208654 0.27925685
-0.22255783 -0.08496672 -0.041220758 -0.027700482 -0.24999881 -0.14254364 -0.4146391 0.20868306
0.29627663 -0.020242978 0.30237985 -0.11628722 -0.04800374 0.28435782 -0.08390861 0.10761878
0.32763496 -0.37292412 0.41954693 0.3500226 0.17726752 0.23756218 0.11117224 0.0408841
0.32520536 0.01771235 -0.18019699 -0.00094197417 0.04729595 -0.0036074864 -0.086394995 0.17212626

actor.pi_net.fcs.1.weight f4 [64, 64]
00000000: 46f6 c43d f590 d73d 8232 58bd 1cc9 593e
00000010: 2de1 61bd 8dc9 e53d a941 9f3d 637a 81bd
00000020: 5771 f8bd ed76 4c3b 050e cb3d 7f9c ea3d
00000030: 34a0 ff3d 43ca 253c ce01 203e 1eca 52bd
00000040: 68ac cebd db3e a0bd 82b0 4e3d ee98 34be
00000050: cf15 a7bb f7c3 6b3d e26b 8bbd 35de a4bd
00000060: 4ffa 0e3e 57c2 81bd 4ae3 a13d e3e2 47be
00000070: 7c4a d73d 749e 983d 520a 4f3d c212 9fbd
00000080: 5752 6fbd fce0 32bd aadc eabd dbef 2dbd
00000090: c994 a6bc 0f3d b3bd d70c 553d db9a 9b3d
000000a0: d6bb 54bc 17f8 80bd 02e0 d33d 0bdd 33be
000000b0: c222 a3bd 8845 563c fc2d 97bd 8ed8 f0bd
000000c0: cff5 37bd 8cf4 b2bd 3831 613d f70f 4f3d
000000d0: 3018 19bc 6503 23bd aff9 10be 7bac cabd
000000e0: 2a8a a73d 7aac 223d 4b96 593c c331 a5bd
000000f0: de8d 43bd 87ef 51be ca2d 263e 478b d3bd
00000100: 73ff 743d 8533 363c 3c15 893d 7746 b6bb
00000110: 019c cbbd 4671 5dbd aeef ef3c f8d7 943c
00000120: 0535 05bc a2ec c1bb 0179 7e3d a883 4abc
00000130: 2570 013c 8bbb 533d 4cab a8bc 678c a4bd
00000140: 291f 633d 8193 89bc db81 a03d d70f cb3c
00000150: 2fdc c93d e318 8dbc 517d 1ebc 452b 83bc
00000160: 68eb eebd 6ca9 3cbd 4022 42bd f308 30bd
00000170: 70d4 cb3d e2b0 a1bd 506e a0bc de3f ffbc
00000180: 54cc f1bc d8e8 fd3c eac2 5e3d 5155 7e3d
00000190: 5ac8 073d f40d 15bd 82bc 3e3c fe82 4f3d
000001a0: f2b2 963d 74d9 18be 367a 0e3d db00 09bd
000001b0: 6cc8 9b3d 928b 28bd 28e5 bd3c cea7 ae3c
000001c0: f82d 2cbd b5f6 f6bd 6fc3 2bbb f3d9 19bd
000001d0: 537a 60bd e414 d13d e55c 20be 1627 cabd
000001e0: 5eca aebd 0815 f83c 8a50 fcbc 7939 e63d
000001f0: 991f 123e d1de abbd 17c7 48bd a8ee 4fbd
00000200: 8ef3 813d 0521 153d 20de f1bc 7b99 2fbe
00000210: 2c81 ffbc 506d d3bc 3c61 c83d 6a1d 4dba
00000220: 1c69 2c3e e138 043e faf7 74bd 310e 0fbe
00000230: 9c0f c0bc 741e 943d 650d 223d 64b5 1e3e
00000240: b1ad 2abd 78c2 0a3e 8d56 a13c 19b5 e13d
00000250: e193 24bd b225 c5bd ee0a 473d 6de3 603d
00000260: fd58 18be c028 97bd 1940 38bd a833 b63d
00000270: 3c95 403d 6346 b4bc 1726 333e a576 1f3d
00000280: d765 18be 2dfd 8e3c 8269 233d 52a0 dabc
00000290: 2a54 0f3e 55f5 9cbd 84ff b43d 04e0 49bc
000002a0: e43d 363c d1e5 1c3e 14cf ca3c 54bb d73d
000002b0: d8c6 e23d edcb 143d b6b2 ee3d bb6e 273e
000002c0: 9ab1 e3bc 36f7 4f3d d72f 10be e6a0 19bd
000002d0: 66fd a73d 3095 ff3c 8a85 2c3e e1bd 003d
000002e0: 2f1f 733c 53b8 313c 69a1 88bd 97f9 aebd
000002f0: 9ce6 37be 1b7c 6c3d 053d 17be 1c0b fcbc
00000300: d5a1 01be 449c ca3d ec75 92bd 5d2b 8fbe
00000310: fee4 2abd fbe5 89bd b296 81bd c64c b4bd
00000320: 2ec1 0ebd 95bb a93d 05f5 cfbd 5181 03be
00000330: b316 00bd 7d1b 413c 150a f6bd f168 f13d
00000340: acac 083e 52ae a2bd 293d ddbd cc70 1d3d
00000350: a492 983d ac25 0f3e 69b9 a83d 42e8 b0bd
00000360: a592 2f3d b15c bcbd ac21 d4bd 7a87 843d
00000370: a20b 4bbc 2080 99bd f17f eabc 233b d7bc
00000380: 0dd6 48bc 1b1f a33d 8abc d53c 7da7 f13d
00000390: 51e6 b1bd fd0b 10be b5c8 973d 3cee 19be
000003a0: 4fb8 4ebd deb7 c73d f2f5 933d ae4d 123e
000003b0: 984c 603d 40f1 69bd 5b6a 553d 555a 7a3d
000003c0: 4c7e b43b 4e76 8d3c 09ed b13c 39c8 68bd
000003d0: e3e0 cb3d a4e6 a1bc 20f3 043e 103c 243e
000003e0: f67a 033e 7dac 1ebe 5422 853b 9be9 acbd
000003f0: 1f9f 1fbe 1f5a 583e ad9c 74be f4a3 2d3e
0.096172854 0.10525695 -0.052782543 0.21268123 -0.055146385 0.112200834 0.077761956 -0.063221715
-0.12130993 0.0031198815 0.099147834 0.114556305 0.12481728 0.010119024 0.15625688 -0.051462285
-0.10091478 -0.07824489 0.0504613 -0.17636463 -0.0050990353 0.057559934 -0.068076864 -0.08050195
0.13962673 -0.063358955 0.0790468 -0.19520144 0.10512254 0.074520975 0.05054695 -0.0776725
-0.058428135 -0.043671593 -0.114678696 -0.042465072 -0.020334618 -0.087518804 0.0520142 0.07597896
-0.012984237 -0.062973194 0.103454605 -0.1756479 -0.07965614 0.013078101 -0.07381818 -0.117600545
-0.044912156 -0.0873805 0.05497858 0.050552335 -0.009344146 -0.03979816 -0.14157747 -0.09896179
0.081806496 0.039715268 0.013280462 -0.08066132 -0.047742717 -0.20501529 0.16228405 -0.103292994
0.059813928 0.011120682 0.06693503 -0.0055625993 -0.09941865 -0.054063104 0.029289093 0.018169388
-0.008130317 -0.0059181014 0.062127117 -0.012360491 0.0079002725 0.051692527 -0.020589493 -0.08034592
0.05544964 -0.016793968 0.07837268 0.024787826 0.0985645 -0.017223781 -0.009673432 -0.016011843
-0.11665994 -0.04606001 -0.047395945 -0.042977285 0.099526286 -0.07895066 -0.019583851 -0.031158384
-0.029516377 0.030994818 0.054385103 0.062093083 0.033150055 -0.03639026 0.011641623 0.050662033
0.0735835 -0.14926702 0.03478452 -0.03344808 0.07606587 -0.04114873 0.02318056 0.02132025
-0.042036027 -0.120587744 -0.0026209017 -0.03756137 -0.054804157 0.10209063 -0.15660436 -0.09870736
-0.08534692 0.030283466 -0.030800123 0.11241431 0.14269866 -0.08392108 -0.049017992 -0.05076471
0.063452825 0.036408443 -0.029524863 -0.17148392 -0.031189524 -0.02580896 0.09784171 -0.00078245124
0.16836971 0.12912323 -0.0598068 -0.13970257 -0.023444943 0.07232371 0.039563555 0.15498883
-0.04166955 0.13550746 0.019694591 0.1102087 -0.04018009 -0.096263304 0.048594408 0.05490439
-0.14877696 -0.07380819 -0.044983003 0.088965714 0.04701732 -0.02200622 0.17494999 0.038931508
-0.14882599 0.017454708 0.039895542 -0.026687775 0.1399695 -0.07663981 0.08837798 -0.012321476
0.011123154 0.15322043 0.024756946 0.10533777 0.11073083 0.03632729 0.1165518 0.16350834
-0.027794648 0.050772868 -0.1408075 -0.03750696 0.08202629 0.031199068 0.16847816 0.031431083
0.014838978 0.010847169 -0.066714115 -0.08543699 -0.17959064 0.057735544 -0.14769371 -0.030767016
-0.1265939 0.098930866 -0.07151398 -0.2796277 -0.04172229 -0.067333184 -0.06327571 -0.08803706
-0.0348522 0.082877316 -0.10154156 -0.12842299 -0.031271648 0.011786339 -0.12013642 0.11787594
0.13347119 -0.07943405 -0.10802681 0.03843765 0.074498445 0.13979214 0.08238489 -0.0863805
0.04286446 -0.09197367 -0.10357985 0.064711526 -0.01239291 -0.07495141 -0.02862546 -0.026273316
-0.012258065 0.07964917 0.026090879 0.11799524 -0.086865075 -0.14067073 0.07411329 -0.15032285
-0.05046874 0.09751867 0.07224645 0.14287445 0.054760545 -0.05711484 0.05210338 0.061121304
0.00550822 0.017268326 0.021719472 -0.056831572 0.09955003 -0.019763298 0.1298337 0.16038537
0.12839875 -0.15495487 0.00406293 -0.08442994 -0.15588044 0.21128128 -0.23887892 0.16957074

actor.pi_net.fcs.1.bias f4 [64]
00000000: e36e cfbd bc66 4c3c 4e27 8d3d 31e8 ad3d
00000010: d749 663d 3cc6 8fbd 885b 32bd 399f 23bd
00000020: f8f4 95bc 68e6 aebc 1b64 b83d 0250 febc
00000030: d0eb 1d3d e5cb 50bd 53dc 81bc 029a 25bd
00000040: d3d2 52bd 2506 d53c e862 823c b1e1 b1bc
00000050: b05c 6b3d 2e15 5f3d 95b3 4ebd 093f 8a3d
00000060: 680f 613d 1b26 b33d 6e25 6ebd d25d a13b
00000070: be36 7e3d 8bd7 a3bd aba7 33bd b66c 82bd
00000080: de9a 9cbd e3cc e8bd 535d cdba a55a 593d
00000090: 7845 933d 7921 613c f7d7 38bc 9d7e b0bd
000000a0: 22ca 493c 8808 eb3d 72a0 223c 93ec 2c3d
000000b0: 2fbf a23d f555 e3bc e7bd b9bd 7cdc 8a3d
000000c0: f0f6 cbbd 2b9f 91bd 6179 043d cb13 c0bd
000000d0: b4d9 c73d fdb0 263d 80e6 b93d d9bd c6bd
000000e0: 668d 86bd 4bf1 9b3d 24b7 b23d b40d 8cbc
000000f0: d51b debc 799c b53d bc7f 803d 90b4 b63a
-0.10128572 0.012475666 0.068922624 0.084915526 0.056222763 -0.07020232 -0.043544322 -0.03994677
-0.018305287 -0.0213501 0.090034686 -0.03104401 0.038554966 -0.0509757 -0.01585213 -0.040430076
-0.05147059 0.026003907 0.015916303 -0.021714063 0.05746144 0.054463558 -0.05046423 0.06750304
0.054946333 0.087475024 -0.058141164 0.0049245143 0.062063925 -0.08000096 -0.043861073 -0.06368391
-0.07646726 -0.11367204 -0.0015668072 0.05306496 0.071909845 0.013740891 -0.011281959 -0.086178996
0.012316259 0.114762366 0.009925948 0.042217802 0.079466216 -0.027750948 -0.09069424 0.06780335
-0.09959209 -0.07110437 0.03234232 -0.09378775 0.097583205 0.040696133 0.090771675 -0.09704179
-0.06569938 0.07614382 0.087263376 -0.017096378 -0.02711288 0.088677354 0.062743634 0.001393931

actor.pi_net.fcs.2.weight f4 [1, 64]
00000000: bf9d 483c 6b17 eeba 916d 9ebd f340 06be
00000010: d471 5c3d bbad 00be f0be 9d3d 5803 b5b8
00000020: 9577 323d 0ab1 423e dfdb e63d 761b 19bd
00000030: c59c 883c 0dd1 a1be bf12 8a3d ab13 6a3d
00000040: 43f0 813a 82ba 163e 634e 803d 3dd4 21be
00000050: a361 d3ba 566c b0bd 5b40 e63d f642 693e
00000060: 2da4 a7b9 114a 833e f597 e23b e40b 30be
00000070: a8e4 0a3d e55d f63d 7e94 c4bd 62a1 9fbd
00000080: de05 ddbd 0ca6 813d efe3 19be 8d1c a73e
00000090: c5b8 efbc e9ad 973e 58d2 623d 7488 fa3c
000000a0: 32c9 493d c63c de3d 30fc fcbd 94d1 903e
000000b0: d326 e4bd bad5 323e 5984 7d3b f7a6 843e
000000c0: 086c 4a3a a9f1 013e 8b80 ea3d ad4d 8dbd
000000d0: ebaf 223e f191 9f3e 981d 7abe 1055 a9bd
000000e0: ca7c 6c3a 3802 c13e 7d74 003a 33eb 6abe
000000f0: ac78 393c c096 fc3c ffc0 943e 3d78 323e
0.012244641 -0.0018164938 -0.07735742 -0.13110714 0.053819492 -0.12566273 0.07702434 -8.6313754e-05
0.043571074 0.19012848 0.11272406 -0.037379704 0.016676316 -0.31604806 0.06741857 0.057147663
0.0009913523 0.14719585 0.06264951 -0.15803619 -0.001612712 -0.086144134 0.112427436 0.2277945
-0.00031975043 0.25642446 0.0069150873 -0.17192036 0.03390947 0.12029628 -0.09598635 -0.07794453
-0.10792135 0.06330499 -0.15028356 0.3263897 -0.02926291 0.2962487 0.05537638 0.030582644
0.04926414 0.10851435 -0.123527884 0.28284895 -0.11140218 0.17464343 0.0038683622 0.25908634
0.00077217864 0.12689842 0.11450299 -0.06899581 0.1588742 0.31166032 -0.24425352 -0.082681775
0.00090212806 0.37697005 0.00049001706 -0.22941284 0.011320274 0.030833602 0.29053494 0.1742868

critic.v_net.fcs.0.weight f4 [64, 4]
00000000: 12bd d3bf ce6a e3bf fc57 d3c0 a793 13bf
00000010: 4532 9ac0 700a 0240 e9fd b340 3c95 30bf
00000020: 3344 4bc0 ae23 6b3e 5b1d c840 a2b9 443e
00000030: fca4 543f 5512 523f 4d43 ccc0 d5c9 bdbf
00000040: 3eab c53f 7933 b2be 718d ec40 619c 9d3f
00000050: 3ea7 31c0 790b 00bd 9e18 bec0 c938 67bf
00000060: 4a51 b740 3d7d 0ac0 74ec bcc0 aa8b 8e3f
00000070: 5db9 5940 33e1 5b3f f335 4840 e464 e33e
00000080: eb58 c83f 73d4 25be 8c6b f140 3fc2 a03f
00000090: 4157 0f3f 2a44 d5bf d63c f040 67af fd3f
000000a0: 3f64 a4bf aaab 66bf 83ea abc0 8adb 99bf
000000b0: ca65 563f fea4 0240 4c49 ac40 cac3 c83e
000000c0: fc1d 80c0 4ed0 e2bf 1395 3f40 ea89 513f
000000d0: 8c1e 323d 3eae ba3f 05c4 d540 1693 8e3d
000000e0: 3be1 3440 e455 6abf c3cb e83f 924f 8b3f
000000f0: 0864 433f a379 0b40 bb3e b040 9fc8 483f
00000100: 82e9 34c0 5110 1ec0 31f6 04bf 3723 5dbe
00000110: 17d9 843e 9c9d 0340 cda6 d340 6a5a a5bd
00000120: b23b 42c0 9b6d ccbe 44fd aac0 4259 89bf
00000130: 2320 08c0 2c48 d5bd b9b4 5ebf 42ae 0bbe
00000140: c2cf 0d40 4e27 3040 6ca1 e540 c582 da3e
00000150: a89f 77bf 19bf 68bf f621 c0c0 ce71 f4be
00000160: 767c acbf 5922 9a3f 46ea c8c0 efbc 1fbf
00000170: b99b 8d3f 3ec2 f6bd ac3b 0741 e2ef a93e
00000180: ceb0 c4bf 4ff0 d6bf c154 d2c0 03c3 64bf
00000190: da12 1bc0 ce69 e23d 2095 9840 40fb cebd
000001a0: 130b 1ec0 ab19 e3bf 1b2c a6c0 b72b d5be
000001b0: cd55 8bbf 936e 6d3f a459 b740 b664 20bf
000001c0: 147e 76c0 86a2 08c0 34a2 44c0 5f2c a3bd
000001d0: e902 0bc0 c443 02be e0df aac0 0e19 6dbf
000001e0: bb86 ffbf 1ced 55c0 9137 aac0 478f fd3e
000001f0: c57b 4cc0 408e 74bf 6cdf b4c0 b116 aebe
00000200: afac 63c0 f191 d0bf 751a acc0 848f 28bf
00000210: f777 4940 734b c23f f27e a440 6c78 2d3f
00000220: 2223 c83f 990e c93f e2ae d240 5d28 f73e
00000230: 7b33 3ec0 d205 663f 0026 9d40 4d5b 66be
00000240: fe40 60c0 ea8c 1cc0 0ee0 9dc0 bfe1 b53d
00000250: b2de 4cc0 4c11 a0bf 6838 e9bf 8b8a c8be
00000260: a7e9 a23f 55d1 9ebf c320 c240 3175 a93e
00000270: 60a2 20c0 da9b 40c0 b5c6 eac0 5147 e5bb
00000280: 53e8 1040 10f6 333d 5144 1940 7821 3e3f
00000290: 7842 3340 9598 81be a88e aa40 2ee1 8f3f
000002a0: b8e8 973f 499e d63e 3a84 fc40 5196 cf3e
000002b0: ac25 2abe c32b a0bf 1cb7 00c1 5a60 d8bf
000002c0: 7d48 14c0 cc04 14c0 888f b8c0 559d 83bf
000002d0: 4296 7ec0 aa41 4e3e 6590 db3f d369 c4be
000002e0: 99cf 55c0 44d6 f8bf cbc7 58c0 9246 14bf
000002f0: 3880 0f40 d38d e13f 908c b440 a0bb 833f
00000300: bec7 2040 50f7 883f 733c 0e40 ce4b 293f
00000310: 2e0c 9a3e 17bd 1640 b95e c540 2688 d2be
00000320: 2417 e1bf 2ff1 54be 17c4 f7c0 a691 81bf
00000330: c0f7 2d40 c402 2e40 c280 bc40 1339 9e3d
00000340: d22f 1f40 0410 2340 4e67 b940 14c0 253f
00000350: 7bd3 42c0 a39d c9bf eaad bec0 ada2 09bf
00000360: 046f e33f d6a0 30be 8b1d c7c0 cf5c 58be
00000370: b895 af40 796d 20c0 e816 92c0 ef61 2c3f
00000380: 2e19 e8bf af01 d4be 0128 b240 a591 f2bd
00000390: a1b1 c83f 0986 8abf 9924 b840 c444 563f
000003a0: 03c8 3f40 f096 4bbd bd77 9fbf 410b 0c3e
000003b0: ce97 8040 15ea 5d40 f419 493f 1229 5bbf
000003c0: 7345 2840 43f4 06bf bb1e 2240 9061 533f
000003d0: 3763 d6bf 31e8 72bf 99a7 ebbf feb6 0fbe
000003e0: 8f30 16c0 9968 5bbf 02bf c5c0 3534 8abf
000003f0: 19b6 7dc0 88ea babf ff88 173f 4172 9fbe
-1.6542075 -1.7766969 -6.6044903 -0.57647175 -4.8186364 2.031887 5.624745 -0.68977714
-3.1760375 0.2296283 6.2535834 0.19211438 0.83064246 0.8205922 -6.3832154 -1.4827219
1.5442884 -0.34804896 7.392266 1.2313348 -2.7758327 -0.03126094 -5.940505 -0.9032102
5.728673 -2.163894 -5.903864 1.1136372 3.4019387 0.858905 3.1282928 0.4441291
1.5652136 -0.16194324 7.5443783 1.2559279 0.55992514 -1.6661427 7.5074263 1.9819154
-1.2843093 -0.9010569 -5.372377 -1.2020123 0.8374907 2.0413203 5.3839474 0.39211875
-4.00366 -1.771982 2.9934738 0.81851065 0.043486163 1.4584424 6.680178 0.06961648
2.826247 -0.9153731 1.8187183 1.0883658 0.7632451 2.179299 5.5076575 0.78431123
-2.8267522 -2.4697459 -0.5193816 -0.21595465 0.25946876 2.0564947 6.6141114 -0.08073886
-3.0348935 -0.39927372 -5.343416 -1.0730364 -2.1269615 -0.10414156 -0.8699451 -0.13640693
2.2158055 2.752399 7.175955 0.42677894 -0.9672799 -0.9091659 -6.0041456 -0.47743076
-1.3475482 1.2041732 -6.278598 -0.62397665 1.1063148 -0.120487675 8.452068 0.3319083
-1.5366457 -1.6792086 -6.572846 -0.89360064 -2.4230256 0.11055337 4.7682037 -0.10106516
-2.469426 -1.7742208 -5.192884 -0.41634914 -1.0885559 0.9274685 5.7296925 -0.6265367
-3.8514452 -2.1349196 -3.0724 -0.079674475 -2.1720526 -0.12721163 -5.3398285 -0.92616355
-1.9962991 -3.342597 -5.319283 0.49523374 -3.1950543 -0.95529556 -5.652273 -0.34001687
-3.5574148 -1.6294538 -5.3782296 -0.6584399 3.147947 1.5179275 5.1404963 0.67761874
1.5635722 1.570758 6.583848 0.48272982 -2.971892 0.8985263 4.9108887 -0.22495766
-3.5039668 -2.4461007 -4.9336004 0.08880948 -3.2010922 -1.2505279 -1.8220339 -0.391682
1.2727555 -1.2407633 6.066499 0.33097222 -2.5099106 -3.0095124 -7.336756 -0.006997027
2.26418 0.043935835 2.3947947 0.7426982 2.800932 -0.25311723 5.329914 1.1240594
1.1867895 0.41917637 7.891141 0.4054437 -0.16615933 -1.2513355 -8.044704 -1.6904404
-2.3169243 -2.3127928 -5.767521 -1.0282389 -3.977921 0.20142236 1.7153441 -0.38361987
-3.3407958 -1.9440389 -3.3871944 -0.5792018 2.2422009 1.7621406 5.6421585 1.0291634
2.5121913 1.0700474 2.2224395 0.66131294 0.30087417 2.3552911 6.167813 -0.41119498
-1.7585187 -0.20795129 -7.7426867 -1.0122573 2.7182465 2.7189188 5.8907175 0.0772573
2.4872937 2.5478525 5.7938604 0.6474621 -3.0441577 -1.5751232 -5.9587297 -0.5376385
1.7768254 -0.17248854 -6.2223563 -0.21129154 5.487026 -2.5066817 -4.565296 0.67336935
-1.8132684 -0.41407534 5.5673833 -0.11844186 1.5679208 -1.0822154 5.7544675 0.8369868
2.9965827 -0.049704492 -1.2458416 0.13676168 4.018531 3.4674122 0.78555226 -0.85609543
2.6292388 -0.52716464 2.5331256 0.82570744 -1.6749028 -0.94885546 -1.8410522 -0.1403465
-2.3467138 -0.8570648 -6.1795664 -1.0797182 -3.9642394 -1.4602823 0.59193414 -0.31141856

critic.v_net.fcs.0.bias f4 [64]
00000000: 17ac 83be 6f2f e4be 1e8f 8b3d e8a4 eabe
00000010: 3140 103e 0cbd 98bd abe7 0c3f 6eac 123e
00000020: 45dc 1b3e 8333 a43e 0a2f d6be 108f 523e
00000030: c245 b23e 0cb2 033f 33be aabe 0e11 a0bd
00000040: 1989 bf3d 4965 4a3d da5e 8fbd f761 f43e
00000050: 0c9c 4d3d ccf0 b8be 6d1c 71be 257c 013e
00000060: 84c7 97be 51ca e53b 2690 9bbd 96ab e73d
00000070: 3e2d 8d3e 73c0 a23e 658b 493e 5c95 2e3c
00000080: b803 013e ccf7 4cbd 5959 8d3e f035 dd3e
00000090: a431 1c3e 9ee8 88be c49f 883e 4c04 2abe
000000a0: c12a 19bf b400 4dbd 86db e33d 02fb d4bd
000000b0: bb2f 2fbe 743a e1be e823 2fbe e335 353e
000000c0: 435d fa3d 6167 453c 2e2c aabd dac0 123e
000000d0: 7ab7 173e 9b6f 443e 56a4 ebbd 428c 083f
000000e0: 4dc6 a03d e7ef 983e e8d4 ed3e 2358 81be
000000f0: fc71 3abf 30a8 4d3f 6fcd bb3c dc00 89be
-0.25717232 -0.4456744 0.06814407 -0.45828938 0.14086987 -0.07457933 0.55041 0.14323589
0.15220745 0.3207055 -0.41832763 0.20562387 0.34818846 0.5144355 -0.33348235 -0.07815753
0.09352321 0.049413 -0.070005134 0.4773099 0.050197646 -0.36121213 -0.23546 0.12645014
-0.29644406 0.0070126434 -0.075958535 0.11312024 0.2757358 0.31787452 0.19682081 0.010655727
0.12599075 -0.050041005 0.2760723 0.43205214 0.15253311 -0.26739973 0.26684391 -0.16603202
-0.5983086 -0.0500495 0.11125855 -0.103994384 -0.17108051 -0.4398991 -0.17103541 0.17696337
0.122248195 0.012048573 -0.08309208 0.1433138 0.14816085 0.19183199 -0.11505954 0.53339016
0.07850323 0.2987053 0.46451497 -0.25262555 -0.72830176 0.8033476 0.022925107 -0.26758468

critic.v_net.fcs.1.weight f4 [64, 64]
00000000: 9c34 19be 0fcb e4be d5d8 bd3d 0348 a9bf
00000010: b116 073f e2f3 2dbc ebc0 443e 02fc 683e
00000020: 753f 273e db3d f53f b462 28bf 1d84 33bf
00000030: 8d65 b63d 4316 6c3f 7b0f f0be 9e0f 1bbf
00000040: 200b 95be a18a 97bf 73a8 933d 9225 d63e
00000050: 9236 f4be 8c52 2ebf 9fc8 8cbd 9433 02bd
00000060: b095 15bf 4b3d 763e 9217 03bf fffb 2dbf
00000070: 823f 8f3e 585d e83e a925 543f 776f da3d
00000080: 01ab b63e 650a 95be 3713 bb3e 1132 c13e
00000090: ca3f 3e3e eb2c 4bbf 644d 563e bd01 e43e
000000a0: ff12 e6be bce5 41be 03c9 c1be c57d 11be
000000b0: 6430 fdbe be63 49bf b734 02bf 0617 5b3f
000000c0: 7188 703d 87c4 8ebf 1c43 ba3e ffbf bfbe
000000d0: e616 b63d 9131 6a3f 6f4f edbc e47c 793f
000000e0: 3f00 8ebd da28 ec3d 88eb 9e3f 273e 74bf
000000f0: 08b4 33bf 11a4 123f fb76 053f 3b8b ffbe
00000100: 063e fbbe ce1c 84be 4e55 32be ca2c 81bf
00000110: bc18 3ebe 018a 023e 1a04 bc3c fbcf 6cbe
00000120: 2c41 73be 24d2 133f 87ff 4cbf f0f6 a73c
00000130: b369 603c 0a62 053f f300 05bf 277a c03e
00000140: a314 32be f5e0 a2bf 1247 c63e 6836 773f
00000150: 6516 c33e daaf 8ebb cfcf 193f 8819 7dbf
00000160: 49f6 6bbe 6bc8 bdbe ffb9 ddbe 1f4f 80bf
00000170: 1757 213e cb45 0b3f 338a 71bd 59be 0d3e
00000180: 3415 733e bba3 58bd cf35 a43e 045c f83e
00000190: 207b da3d bc30 0cbf 00e7 d4be 79d3 07bf
000001a0: 3de7 99bf 22d7 c3be ca93 2dbf 8780 8b3e
000001b0: 2c99 e2be 99da 63bf 03c9 b6be da06 b63e
000001c0: 6e60 a3be 3e92 b2bf e60e 8d3e 99c8 f43e
000001d0: 3ab5 b63e 6a5d ee3e 938b 183f ed78 f43e
000001e0: b0b2 5bbf a590 5bbe d8f7 8c3f 6676 3bbe
000001f0: 6e69 24bf deef 793e cf1e d63e 55c2 edbe
00000200: 0687 223f 8551 8f3d 1c3b c3be 9d78 b33f
00000210: 93ed a43e da26 f2be d4cf 97bd 301c 233e
00000220: d9aa 063f 1121 92bf a2ca c73f 2b68 2f3f
00000230: 9149 65be 7ebd fabf b7ab 353f 8374 0a3f
00000240: 6012 cc3d 650d 853f fc0f b6be 89e5 47bf
00000250: 1395 1bbc 6a78 ba3f 2922 0dbf f619 e23e
00000260: f7b5 8e3f 9a4c d5be 229a b93f f8f6 9a3f
00000270: d4e9 f5bd edfa 66bf 9746 79bf ba43 4cbe
00000280: 98bf d9be b677 423e ff31 8cbf b78c fbbe
00000290: 43e3 e4bd 1d2e 663f 81f5 883e fd4a 1dbe
000002a0: 4fa5 693f fd77 043f 3429 223f db8d 07bf
000002b0: 74af 953f 64f5 3f3f 05bc 9d3f 8ed4 cabf
000002c0: 09a1 953e b55a 913f ef6a f7be 1282 3fbf
000002d0: 8717 7fbf 957d 20bf 4762 6bbe 8553 a5be
000002e0: bd35 dd3e 16ce ad3e 029c 8bbf 3669 7d3f
000002f0: 9f69 823f 86b8 34bf e24b 05bf bc9a e53d
00000300: dd4e 71bf 0dde 08bf 0d3f 123d fea0 8abf
00000310: 166c 9e3f 950d 86bf 7143 333f 1bcd 0140
00000320: f17d 543f c593 b23e af43 51bf fc82 3d3f
00000330: cf08 533e 4e01 cd3f 6eec 6ebd 22be d33f
00000340: 779a 14be b5fc 563d 5e46 63bf 4ee4 8b3e
00000350: 4849 2640 b7ac b7bf c89b 0ebf 3fb1 203f
00000360: ef0d febf e079 8c3e 95c8 02c0 467b 47be
00000370: 7a7f 44bf 3ed1 0cbe 59a8 4dbf 7a32 b6bf
00000380: 3531 cfbf 39b6 fc3f 178e 1440 df76 373f
00000390: 144e fcbf 51e6 6fbf faef 643e 2e23 13c0
000003a0: ad6d 7bbe fa56 f23e 2757 db3e eb8b bbbf
000003b0: dfbf 36c0 cd64 42bf 683d 07c0 860a 0d40
000003c0: b90b 623f 01c3 93be f757 08bf 02ce 3540
000003d0: 6aac 0940 ca9b 98be 4f0b 97be 516f 2b3f
000003e0: c551 1fbc c73e 5f3f 76d0 6b3f 7245 993f
000003f0: f2ce b5bc 1bc2 553e f360 f9be b617 9fbf
-0.14961475 -0.4468617 0.09269873 -1.3225101 0.52769 -0.010617228 0.19214217 0.22752383
0.163328 1.9159502 -0.6577561 -0.70123464 0.08906088 0.9222147 -0.4688681 -0.60570705
-0.2911005 -1.1839181 0.072098635 0.4182554 -0.47697884 -0.68094707 -0.06874203 -0.03178747
-0.5843153 0.24046819 -0.5120784 -0.6796264 0.2797814 0.45383716 0.82869965 0.106657915
0.3567734 -0.29109493 0.36538097 0.3773351 0.18579021 -0.79365414 0.2092796 0.44532576
-0.44936368 -0.18935293 -0.37848672 -0.14208134 -0.49450982 -0.7866782 -0.50861686 0.85582006
0.05872387 -1.1153725 0.36379325 -0.3745117 0.08891086 0.9148188 -0.028968541 0.9745619
-0.06933641 0.11531229 1.2415628 -0.95407337 -0.7019658 0.57281595 0.52134675 -0.49910912
-0.49070758 -0.25803226 -0.17415354 -1.0091794 -0.18564123 0.12747957 0.022951175 -0.23126213
-0.2375533 0.57742524 -0.80077404 0.020503491 0.013697076 0.5210272 -0.51954573 0.37593195
-0.17390685 -1.2724901 0.38726097 0.9656739 0.38103023 -0.0043544592 0.60082716 -0.9886708
-0.23043169 -0.3706697 -0.43305966 -1.0024146 0.15755878 0.5440337 -0.058969688 0.13842143
0.23738557 -0.05289052 0.32072303 0.48507702 0.106680155 -0.5476186 -0.4158249 -0.53057057
-1.2023693 -0.3825007 -0.67803633 0.27246496 -0.44257486 -0.8900543 -0.35700235 0.35552102
-0.31909508 -1.395088 0.2755043 0.47809294 0.3568514 0.46555644 0.59587973 0.4774851
-0.8581953 -0.21441896 1.1013136 -0.18306884 -0.6422337 0.24407908 0.4182038 -0.46437326
0.6348728 0.069979705 -0.38131034 1.4021183 0.32212505 -0.47295266 -0.07412687 0.15928721
0.5260444 -1.1416341 1.5608714 0.6851832 -0.22391345 -1.9589078 0.7096514 0.5408403
0.09964442 1.0394713 -0.3555907 -0.7808462 -0.009495991 1.4567997 -0.5513025 0.44160432
1.1149281 -0.41660005 1.4500163 1.2106619 -0.1200749 -0.9022663 -0.97373337 -0.1994771
-0.42528987 0.18990979 -1.0952758 -0.49130794 -0.11176159 0.89914113 0.26749805 -0.15360637
0.91267866 0.5174559 0.6334412 -0.5295083 1.1694169 0.7498381 1.2323004 -1.5846117
0.29224423 1.1355807 -0.4832377 -0.74807847 -0.99645275 -0.6269162 -0.22986709 -0.32290283
0.43205062 0.33946294 -1.0906985 0.98988664 1.0188483 -0.7059406 -0.52068913 0.11211154
-0.9426096 -0.5346382 0.03570466 -1.0830381 1.2376735 -1.0472895 0.7002478 2.0281436
0.8300467 0.34878364 -0.817439 0.7402799 0.20608829 1.6016023 -0.058330946 1.6542399
-0.14512049 0.052487094 -0.88779247 0.2732262 2.5982227 -1.4349583 -0.55706453 0.62770456
-1.9848002 0.27436733 -2.0434926 -0.19480619 -0.76757014 -0.13751695 -0.80335003 -1.4234154
-1.6186892 1.974311 2.3211725 0.7166576 -1.9711328 -0.9371081 0.22357169 -2.2990222
-0.24553557 0.47331983 0.4283993 -1.4652075 -2.855461 -0.7593506 -2.113123 2.2037673
0.8829914 -0.28859714 -0.53259224 2.8406987 2.1511483 -0.29806358 -0.29500815 0.6696673
-0.009724085 0.87205166 0.9211496 1.1974318 -0.022193406 0.20874827 -0.4870678 -1.2429111

critic.v_net.fcs.1.bias f4 [64]
00000000: faff 803f 5f46 863f bb7e cbbf 6deb 2a3e
00000010: 86eb 9d3f 6b56 773f 2ba2 8fbf 9392 9b3e
00000020: f383 db3e 6d17 143e fc39 bc3f 6ef8 593f
00000030: 0b63 b93f 76ee 19bf ae6f 86bf 356b 55bf
00000040: 7759 76bf 938f ca3c 9392 a2bf 28ce e53d
00000050: 59e7 96bd 5269 5dbe ecbe afbf b062 883e
00000060: e916 09be d894 33bf 13ec 10be 8197 07bd
00000070: 4898 a33f 601d 72bd af23 46be ebbe e7be
00000080: ecfd 05bf 00f4 93bf bdc3 89be afeb 463e
00000090: a23e 883f f12d bbbf afd0 ea3f ddc0 6c3f
000000a0: 804a 883f e6e2 a3bf 29e0 ec3d 4c96 e6be
000000b0: 4bb0 e73e 4f31 743f e3d2 34be 42b0 bcbe
000000c0: e44a 8f3e ba99 993e 14b2 9e3f 8429 b6be
000000d0: 891a 68bf aea5 a6bd 73c0 59bf c5b2 babe
000000e0: 30c3 943f 6ecc 42bf 2919 97bf 4c8e 513f
000000f0: fb0b bbbe c301 55be a511 8b3f 77d0 883f
1.0078118 1.0490226 -1.589805 0.1669137 1.2337501 0.9661624 -1.1221365 0.30385265
0.42874107 0.14462061 1.4705195 0.851447 1.448335 -0.6012949 -1.0502832 -0.8336671
-0.9623026 0.024726665 -1.2700981 0.11220962 -0.07368345 -0.21622208 -1.373014 0.26637793
-0.13387646 -0.7014899 -0.14152555 -0.03310347 1.2780848 -0.059110045 -0.1934955 -0.45262846
-0.5234058 -1.1558838 -0.2690715 0.19425844 1.0644114 -1.4623395 1.8344935 0.92481786
1.0647736 -1.2803619 0.11566193 -0.45036542 0.45251688 0.9538774 -0.17658572 -0.36853224
0.27986825 0.30000097 1.2398095 -0.3557855 -0.9066549 -0.0813707 -0.8505928 -0.36464515
1.1622066 -0.76093185 -1.1804553 0.8185775 -0.36532578 -0.20801453 1.086476 1.0688618

critic.v_net.fcs.2.weight f4 [1, 64]
00000000: a47c 5940 736d 6f40 7f7a 58c0 c347 20c0
00000010: 5301 4940 b309 6440 7df8 61c0 e367 80c0
00000020: c7c0 1b40 25bf 1940 2209 5340 6354 5540
00000030: 3598 0c40 43c9 f740 989f 6ec0 6f4c 46c0
00000040: af16 60c0 f90b 2740 474f 56c0 8e92 4a40
00000050: b30c 44c0 ed00 0fc0 936a 6ec0 acf3 41c0
00000060: 25fd 5e40 2411 5ec0 943b 06c0 9c47 1640
00000070: 6049 3b40 2384 45c0 f710 4940 b2e7 dc40
00000080: d60a da40 494c 7ac0 2a87 5ebf b2fe b5bf
00000090: f203 5740 3081 03c0 9154 8640 ee59 7340
000000a0: a6d0 2140 d21f 16c0 b38f 8540 dc6d 0ec0
000000b0: d51e 5540 84b3 5640 4900 b3c0 5dcf f13f
000000c0: 8f6a 13c0 4a81 28c0 07a3 1540 a24e 9540
000000d0: d4f9 d0c0 ccde ba40 4a73 5ac0 156e fa40
000000e0: 178d 5940 259b 11c0 d943 58c0 59be 4940
000000f0: c492 6bc0 517f 8d40 6e3d 6340 106c 1440
3.3982325 3.7410553 -3.3824766 -2.50438 3.1407058 3.563092 -3.5307915 -4.0126815
2.4336412 2.4022915 3.2974324 3.3332756 2.19679 7.743318 -3.7284908 -3.0984151
-3.5013845 2.6101058 -3.3485887 3.165195 -3.063275 -2.2344315 -3.7252548 -3.0304976
3.4842007 -3.4697962 -2.0973864 2.3481207 2.9263535 -3.08619 3.1416605 6.903283
6.8138227 -3.910906 -0.86924994 -1.4218352 3.3596158 -2.05476 4.197823 3.8023639
2.52836 -2.3456922 4.1737914 -2.2254553 3.3300068 3.3547068 -5.593785 1.8891407
-2.3033788 -2.6328912 2.3380754 4.6658487 -6.5304966 5.839697 -3.4132867 7.8259377
3.3992364 -2.2750943 -3.379141 3.152243 -3.6808329 4.4217916 3.5506244 2.3190956

exp_avg f4 [64, 4]
00000000: 6f24 efbb b8af b93b 8b71 b838 edb0 28ba
00000010: baca 973c a974 69bc f02c 4bb9 d8bb d63a
00000020: f588 833b 7266 48bb b237 27b8 6142 ac39
00000030: b78c 42bc 3402 123c 0fae 1739 480f 71ba
00000040: acf9 28bb 4d16 113b 400f d837 c374 84b9
00000050: 3db0 adbb 090d 943b 4f11 8f38 b844 0cba
00000060: fcf1 1a3a 8158 d8b9 9388 4ab7 d9b5 ea37
00000070: 4296 e33a aabd adba a811 cab7 ffbc e838
00000080: eb2c 1e3c c6ba e0bb d3b6 e9b8 08e9 313a
00000090: 7e57 1d3b e30c e8ba 31b7 09b8 f50f 2a39
000000a0: 86bf a63a 7636 71ba d814 39b7 8478 fe38
000000b0: 0275 3abb e2a8 103b e59b 2c38 5842 5fb9
000000c0: cf75 7b3b 8e6c 40bb 5fc8 29b8 1892 b939
000000d0: c163 bdba 1eb4 893a 5c08 7e37 76e6 0cb9
000000e0: ca64 2bbc f867 023c 62d8 f438 4d79 5fba
000000f0: 0724 8d3b b5f5 4abb 6789 4ab8 9da4 a939
00000100: 3ed3 493a 50f2 16ba 7895 22b7 1282 5c38
00000110: 130a 853b 77ea 4bbb 2282 47b8 3c6e ae39
00000120: b88c 87bb 86e5 593b b965 4038 7f7b c1b9
00000130: 882e f23c 906a b9bc e046 acb9 6a69 243b
00000140: 22dc 2bbb f350 103b 9fee d237 941d 8cb9
00000150: 190b 2d3b c7d0 00bb 999f e5b7 34de 3d39
00000160: ac2b 823b ed73 3ebb f04b 35b8 7bee a839
00000170: 9b90 433c 7a2c 16bc 4da6 00b9 a073 853a
00000180: b986 e2bb 7cc9 ab3b 7ef9 a438 8ba8 13ba
00000190: a55c 173c 14f0 ddbb 89ce d9b8 c795 433a
000001a0: ee34 07b9 6a1c 9337 e031 1c37 29ad 0c38
000001b0: 6a76 e43c 1f6b aebc e5f4 a1b9 ed1a 1b3b
000001c0: a0db aaba 1604 863a 71b3 3637 e418 03b9
000001d0: 1c32 a3bc 8e4c 7d3c ae1c 6e39 8f63 dfba
000001e0: 390f 893a 2048 3dba 1f64 cfb7 5186 8e37
000001f0: dc9e 20ba 3f42 083a 06f9 3636 5497 9eb8
00000200: 8ef4 bcbb f534 963b b399 8c38 5c43 07ba
00000210: 8a77 a4b9 2ad4 9339 eab6 4936 e249 18b8
00000220: 9cae 583c cfa3 24bc 9108 22b9 a5ef 8c3a
00000230: 3a44 77bb ab46 423b 4ab3 0938 6819 c7b9
00000240: f376 d13b f908 abbb dd78 9ab8 c98d 193a
00000250: c975 86b9 0098 5039 10a6 2e37 6fae 7037
00000260: bc0b 7b3b 2aba 2cbb 5b04 29b8 b0f0 8239
00000270: 6d44 4ebc a4fd 1c3c 38bb 1c39 a691 89ba
00000280: db8f 9abb 5c74 723b 9faf 5c38 abc7 d3b9
00000290: 41b4 55bb 7798 283b 5497 e337 d23a afb9
000002a0: 8846 09bb 1c7b e03a d303 ac37 2c61 2ab9
000002b0: 1c40 8c3a 64f3 2dba 2c62 8bb7 41e6 4a38
000002c0: ae97 f438 836b a5b8 3c74 1bb7 500e 28b8
000002d0: 049b 09bb 71ff c93a 39ea d937 5cb0 1eb9
000002e0: 7f25 193c 5dc3 e1bb 4358 d8b8 0ce2 353a
000002f0: ad4f 963c 2730 68bc 75cc 55b9 29ee cc3a
00000300: c17b 3dbb 1fca 083b 4e2e 1d38 5224 64b9
00000310: f876 03bb 2ba1 ca3a 9f37 a937 72b2 35b9
00000320: a807 c53a c52d 85ba e4a0 83b7 5477 f638
00000330: 1afd d3bb 6c45 8d3b bb3a 9838 d8b8 cdb9
00000340: cc64 143a 9955 deb9 7d36 49b7 d9e1 be37
00000350: 6041 bb3b e471 8ebb f176 7db8 5986 fe39
00000360: e8f8 143b 87ba d3ba 6e1b 02b8 de8c 3439
00000370: 789a d7bb 75fd a83b 0163 8038 6bf2 26ba
00000380: 5452 323b 386d 14bb 608b 0fb8 5628 8539
00000390: 79c3 5eb8 d519 60b7 9453 6937 2a7c 9238
000003a0: 6471 5ebc 4c04 293c d41c 1b39 179b 8eba
000003b0: 3a4c 8c3c 83af 54bc 81b5 40b9 64c2 bf3a
000003c0: 5223 e03b 1928 abbb bb52 96b8 0176 1e3a
000003d0: f8e3 2dba 63e5 243a 897c bbb6 8cae 0db9
000003e0: f505 c8bc e122 993c 796d 9039 1667 0abb
000003f0: 6e02 5d3a d422 28ba 6c2d a7b7 350a bf37
-0.0072980444 0.0056666993 8.794953e-05 -0.00064350554 0.018529285 -0.014249005 -0.00019376329 0.0016382886
0.0040141293 -0.003057864 -3.9867773e-05 0.00032855853 -0.011874369 0.008911658 0.00014465324 -0.00091956975
-0.0025783582 0.0022138536 2.5756308e-05 -0.00025263996 -0.0053005503 0.0045181555 6.821995e-05 -0.0005350816
0.0005910692 -0.0004126467 -1.2071937e-05 2.7979653e-05 0.0017363506 -0.0013255377 -2.4088498e-05 0.00011097825
0.009654264 -0.0068582026 -0.000111443595 0.00067867385 0.0024008448 -0.0017704036 -3.2833956e-05 0.00016218408
0.0012721873 -0.0009201536 -1.1031712e-05 0.000121341116 -0.002845109 0.0022073318 4.1153184e-05 -0.00021291652
0.003836978 -0.0029361579 -4.047935e-05 0.00035394798 -0.0014449285 0.001050595 1.5141526e-05 -0.00013437294
-0.010461042 0.007959358 0.00011675131 -0.000852485 0.0043072733 -0.0030969207 -4.828852e-05 0.00032356838
0.0007699019 -0.0005758153 -9.690753e-06 5.2573225e-05 0.004060039 -0.0031115094 -4.7566493e-05 0.00033269997
-0.004136648 0.003324838 4.5871104e-05 -0.0003690384 0.029563203 -0.02263382 -0.00032859202 0.0025087246
-0.0026223739 0.0022020906 2.5145067e-05 -0.00026724918 0.002640432 -0.001965569 -2.7373246e-05 0.00018107222
0.0039724912 -0.0029060796 -4.3224485e-05 0.0003222114 0.011936332 -0.0091658775 -0.00012268983 0.0010181554
-0.006913033 0.0052425247 7.866601e-05 -0.000563272 0.009238397 -0.0067730043 -0.000103858365 0.0007460978
-0.00012894321 1.7536997e-05 9.309937e-06 3.353987e-05 0.027888495 -0.021291314 -0.00030890774 0.0023667172
-0.0013035424 0.0010224606 1.0889825e-05 -0.00012502406 -0.019921355 0.015460147 0.00022708133 -0.001704322
0.0010456807 -0.00072205253 -2.4722945e-05 1.6990265e-05 -0.00061271875 0.000519786 2.7265064e-06 -7.562214e-05
-0.005766458 0.0045839497 6.704349e-05 -0.00051598786 -0.0003136958 0.000281961 3.0057804e-06 -3.6308433e-05
0.013225224 -0.010048821 -0.00015452715 0.0010752572 -0.0037729875 0.0029644172 3.283032e-05 -0.00037975167
0.0063923537 -0.0052195755 -7.365805e-05 0.00058576145 -0.00025646228 0.0001989305 1.0409873e-05 1.4345728e-05
0.0038306555 -0.002635608 -4.0296796e-05 0.00024974858 -0.012589556 0.009581957 0.00014947064 -0.0010495677
-0.004716856 0.0036995625 5.2615647e-05 -0.0004039382 -0.003260866 0.0025725642 2.7130976e-05 -0.00033422426
-0.002094658 0.0017126533 2.0505779e-05 -0.00016248663 0.0010700258 -0.00066356943 -1.6615806e-05 4.8374994e-05
0.00011663079 -7.887839e-05 -9.265783e-06 -4.006765e-05 -0.0020996938 0.001541121 2.5977484e-05 -0.00015133753
0.009347319 -0.006889744 -0.00010316123 0.00069382857 0.01834854 -0.014171637 -0.00020389429 0.0015634942
-0.0028912874 0.0020872427 3.747484e-05 -0.00021757305 -0.0020059925 0.0015459409 2.017227e-05 -0.00017327981
0.0015032189 -0.0010160735 -1.5691337e-05 0.00011752421 -0.006469381 0.0043112542 7.258864e-05 -0.00039238366
0.0005660772 -0.00042406915 -1.199322e-05 2.2754934e-05 0.0057145804 -0.004347073 -6.0430673e-05 0.00048546752
0.0022731367 -0.0016153612 -3.101996e-05 0.00017218615 -0.0065796934 0.0051571676 6.1219565e-05 -0.00063685206
0.0027209716 -0.0022648107 -3.422366e-05 0.0002539779 -5.3110973e-05 -1.3357455e-05 1.3907342e-05 6.98495e-05
-0.013576839 0.010315966 0.00014792691 -0.0010879961 0.017126191 -0.012981298 -0.00018378162 0.0014630076
0.006840148 -0.005223286 -7.167967e-05 0.00060448056 -0.0006633396 0.0006290285 -5.587532e-06 -0.00013511832
-0.024416903 0.01869339 0.00027547384 -0.0021118573 0.0008430843 -0.0006413881 -1.9929103e-05 2.2773727e-05

exp_avg_sq f4 [64, 4]
00000000: ac43 cc3b acac 993a b7b3 4e38 40f0 0b39
00000010: 13b0 1f3d 2aef fb3b e63d a939 0264 653a
00000020: 2cd0 e73a 8353 b739 e7d0 7a37 2e9a 2738
00000030: 051f 883c ac65 533b 7793 1239 3061 c339
00000040: db2d 533a b070 2a39 f2f7 eb36 255f 9e37
00000050: d0fb 613b e1ee 333a 3ffd ff37 be41 a938
00000060: ea90 5638 74cd 3037 b2fa 0535 8b37 a935
00000070: 6ea0 cc39 ab72 a438 08de 6536 5191 1937
00000080: 06c0 2d3c db50 043b cb64 b538 a187 7239
00000090: 4e0d 1f3a 55d1 f838 ce5b b436 a643 6b37
000000a0: abda 2439 e309 e837 8424 9035 76c7 4736
000000b0: 2a8b 823a d83d 5239 d803 1b37 91a6 c837
000000c0: 7cee d73a 8cff a539 5f71 5b37 d3b2 1538
000000d0: bb04 6a39 ef6c 2b38 25a4 de35 4b53 9836
000000e0: ec51 503c 7979 203b 3d3c d938 b370 9239
000000f0: babd 093b 58ef d239 1424 9037 6265 4138
00000100: 82dc 0438 fa62 c236 d529 9c34 8edf 3e35
00000110: 84ea e73a 56a5 b539 1ef0 7537 5f06 2638
00000120: 0bed 003b cde4 ce39 5cd8 9037 99ea 3f38
00000130: 5e14 c93d 9eb1 9b3c 3232 533a 4636 0e3b
00000140: 176f 4e3a 5f2e 2539 e6b6 dc36 4dd0 9537
00000150: 17ad 583a e409 2d39 9e4b ec36 b9c9 9e37
00000160: e4c2 d33a 665d a139 daee 5937 3ed9 1238
00000170: 59da 723c b3a4 373b cfbe fa38 1a8e a739
00000180: cae3 b83b 87ff 8f3a a434 4738 8ea7 0439
00000190: 142f 193c 83fe e93a 34ce 9e38 f314 5539
000001a0: 9876 0c37 9720 0136 28d7 ff33 f614 8834
000001b0: f458 b43d fdc3 8b3c 9dc5 3d3a ca64 ff3a
000001c0: 1b85 4e39 b900 2938 99cc df35 cd01 9a36
000001d0: 00ae 383d 01af 123c 3761 ca39 0b65 873a
000001e0: c0e7 0d39 967e ee37 cc1c c235 8f42 6d36
000001f0: 895b 2638 41d1 fa36 0563 a234 0024 6135
00000200: da29 7f3b ddb5 483a 778c 0c38 095a ba38
00000210: b0a4 a936 2b2b 8a35 1745 5133 23df ff33
00000220: 13fc a03c ec4e 7c3b b12a 2d39 a509 e839
00000230: 2185 c43a 9cbb 9739 04a0 4237 8e2a 0738
00000240: 3d69 9f3b 9f48 7a3a 2fa3 2b38 6ae6 e638
00000250: 0b4a 7e37 f8ca 6136 ecc2 4734 c5c9 ee34
00000260: b7e8 da3a ee59 a639 3403 6037 1dec 1638
00000270: 42db 953c 621f 653b 2726 1a39 afc1 d039
00000280: 79a1 2a3b 31a3 053a f9b5 b337 720e 7438
00000290: fa54 943a 6ac8 6539 2925 1237 f6fa cb37
000002a0: a7a0 0f3a 5b6d f238 dcb5 a436 56d3 5e37
000002b0: e122 0d39 7bad e137 3bf8 ab35 80e6 5a36
000002c0: 8366 9a37 bb79 9336 9ff7 8234 b337 1a35
000002d0: 2b4e 0c3a 4827 d938 2b06 9036 53df 4437
000002e0: 823f 2b3c c5b4 023b 0b63 b438 7b40 7039
000002f0: 7924 1e3d 956c f73b 1243 a939 b8eb 623a
00000300: f48d 773a bdb4 3a39 831f fc36 4f6d aa37
00000310: 48d5 dc39 9918 b238 caf7 7536 b17d 2337
00000320: 3f81 7639 1bbe 3538 99e9 f235 f71f a336
00000330: 08fa 963b 0928 653a 58cf 1a38 b56f d038
00000340: c590 2b38 72a6 1037 229e de34 93f7 8c35
00000350: ee0c 713b bfc0 393a 8222 fd37 d092 a938
00000360: 9580 293a 9686 0239 5e57 b936 6e0f 7337
00000370: 41b9 9b3b 0f29 6f3a f11b 1f38 8ceb d838
00000380: 1f6b 6d3a f47c 3e39 cc37 0937 b6f3 b337
00000390: af47 7836 0c82 5f35 65b3 bd33 97b5 0b34
000003a0: a9f3 aa3c fc3f 863b e843 3939 c8a0 f639
000003b0: 9709 023d 384f c53b 68eb 8639 f6b2 343a
000003c0: 4891 a33b 26b2 7e3a bce6 2a38 da5e e838
000003d0: 7732 5138 38ad 1537 4466 8634 56f5 5b35
000003e0: 7fa5 8d3d f9d0 5a3c 5624 153a c413 c83a
000003f0: 4114 c938 2983 ad37 2af8 9135 be15 3136
0.006233653 0.0011724434 4.92816e-05 0.00013345573 0.038986277 0.0076884227 0.0003228031 0.0008750559
0.0017685941 0.000349667 1.49498e-05 3.9959494e-05 0.016616354 0.0032256646 0.0001397858 0.0003726571
0.0008055844 0.00016254443 7.0324104e-06 1.8879373e-05 0.0034482367 0.0006863904 3.0516296e-05 8.0707934e-05
5.1156538e-05 1.0538253e-05 4.991117e-07 1.2607646e-06 0.00039029442 7.841488e-05 3.4252898e-06 9.153345e-06
0.010604864 0.0020189795 8.649527e-05 0.00023129444 0.0006067351 0.00011864553 5.3751055e-06 1.4022842e-05
0.00015721719 2.7661159e-05 1.0739464e-06 2.9769412e-06 0.0009959687 0.00020050199 9.239615e-06 2.3919421e-05
0.0016474272 0.0003166165 1.30798135e-05 3.569091e-05 0.00022317741 4.087103e-05 1.6588061e-06 4.5396496e-06
0.012714844 0.0024486466 0.000103585866 0.00027931258 0.0021017627 0.00040232646 1.7182938e-05 4.6109206e-05
3.1676616e-05 5.793173e-06 2.90877e-07 7.110583e-07 0.0017693792 0.00034646195 1.4659045e-05 3.9583418e-05
0.0019672539 0.00039461852 1.7266888e-05 4.5756435e-05 0.09818338 0.019005593 0.0008056491 0.002169983
0.000787483 0.00015752901 6.577803e-06 1.7859182e-05 0.00082655385 0.0001650225 7.042151e-06 1.8929002e-05
0.0016156104 0.000307779 1.298982e-05 3.5011435e-05 0.014822566 0.0028021752 0.0001195647 0.00031958596
0.005642389 0.0010986187 4.7494323e-05 0.0001265092 0.009349603 0.001785234 7.5724354e-05 0.00020321067
8.3722625e-06 1.9241468e-06 1.19134995e-07 2.5347225e-07 0.08806029 0.017061228 0.00072392245 0.0019484994
0.00019695277 4.0293413e-05 1.667434e-06 4.5897673e-06 0.045087814 0.008952857 0.00038600873 0.0010329796
0.00013533141 2.8430757e-05 1.4462507e-06 3.5354494e-06 3.9662733e-05 7.474941e-06 3.0246898e-07 8.387142e-07
0.0038934858 0.0007656494 3.350942e-05 8.8859415e-05 5.0557646e-06 1.0294365e-06 4.872444e-08 1.1914951e-07
0.019651448 0.003849919 0.0001651447 0.00044257674 0.0014993289 0.00028940744 1.1600558e-05 3.222614e-05
0.0048648403 0.00095475646 4.0921554e-05 0.000110101726 1.5156819e-05 3.3645756e-06 1.8604231e-07 4.447776e-07
0.0016701435 0.0003172899 1.3352186e-05 3.5982684e-05 0.018293027 0.0034961333 0.00014700797 0.00039817157
0.0026036187 0.0005097865 2.14232e-05 5.8187587e-05 0.0011316829 0.00021913802 8.71093e-06 2.4316349e-05
0.0005478956 0.00011559828 4.908752e-06 1.3281437e-05 0.00013459801 2.6902873e-05 1.2812737e-06 3.26187e-06
1.8405966e-05 4.3951127e-06 2.4394555e-07 5.7450524e-07 0.0005352224 0.00010354683 4.2922525e-06 1.1734507e-05
0.010452153 0.0019944173 8.601517e-05 0.00022912204 0.038609 0.007550786 0.00032284163 0.00086563407
0.0009443455 0.00017805673 7.5138537e-06 2.031648e-05 0.00042120577 8.492283e-05 3.6652077e-06 9.744822e-06
0.00023508536 4.3330812e-05 1.8098391e-06 4.8614997e-06 0.0046074428 0.00087416224 3.6909565e-05 9.93902e-05
4.0904404e-05 8.621822e-06 4.146578e-07 1.0502866e-06 0.0036781388 0.00070859113 3.017602e-05 8.085894e-05
0.00064659986 0.00012447903 5.5236005e-06 1.4487521e-05 0.0047523086 0.00091232447 3.7934577e-05 0.00010343557
0.0009056795 0.0001816636 8.178828e-06 2.145195e-05 3.6996605e-06 8.3263217e-07 8.83363e-08 1.3011446e-07
0.02086814 0.004096983 0.00017668272 0.00047040568 0.031747427 0.0060214065 0.00025733863 0.00068931223
0.004991684 0.0009715877 4.0746047e-05 0.000110802896 4.9876482e-05 8.921423e-06 2.5033853e-07 8.194087e-07
0.069163315 0.013355487 0.00056893134 0.001526468 9.5881995e-05 2.0684283e-05 1.0875567e-06 2.638771e-06

exp_avg f4 [64]
00000000: 99c1 d6bc bc56 6e3d 6363 3f3c 8ce9 18bd
00000010: ab3f 05bc 6c47 8dbc b9d3 f93a faf8 b43b
00000020: 78df f53c e13e f73b d723 813b db17 11bc
00000030: 2991 4e3c 2f3a 92bb 21bc 0bbd 11f4 563c
00000040: 27ff 1d3b c136 5b3c a363 47bc f318 c13d
00000050: d016 04bc 401f 013c 897e 4d3c 394e 1b3d
00000060: 5ca3 b0bc cc8f ef3c afb7 0cba 1307 b53d
00000070: 3c42 65bb 7703 7fbd fc3f 6c3b 9e7d f3ba
00000080: 6da5 96bc b2a5 a8ba c9d5 2c3d 5f54 45bc
00000090: a303 ac3c 1b39 a6ba 87a6 3b3c 05d4 2ebd
000000a0: a002 7bbc af0c 2abc d0a1 c8bb d14a 303b
000000b0: e69c 1a3a 4028 dabb 1e42 ed3c 3814 6c3d
000000c0: 2792 19bc 3e96 adbb 6328 983b 7271 9dbc
000000d0: 393f 083b 09d4 933c 926f e23b b4ee a7bc
000000e0: d792 0f3c 8f42 d0b9 539c 27bd fa1e 5b3d
000000f0: fdb8 b03c 4f46 15bb 1df0 a0bd 44ab 3c3b
-0.026215361 0.058188185 0.0116814105 -0.037332103 -0.008132855 -0.01724597 0.0019060291 0.0055228444
0.030013785 0.0075453375 0.00394104 -0.008855785 0.012607851 -0.0044625024 -0.03411496 0.013119713
0.0024108381 0.013379754 -0.012169751 0.09428587 -0.00806208 0.007880986 0.012542375 0.037916396
-0.02156227 0.029243372 -0.0005367947 0.0883924 -0.0034982106 -0.062259164 0.003604888 -0.0018576866
-0.018389428 -0.0012866764 0.04219607 -0.012044041 0.020997828 -0.0012681814 0.011453277 -0.042682666
-0.01532045 -0.010379001 -0.006122805 0.0026900063 0.00058980135 -0.00665763 0.028962191 0.05763647
-0.009373224 -0.0052974513 0.0046434863 -0.019219134 0.0020789637 0.018045442 0.006910273 -0.020499565
0.008763037 -0.00039722442 -0.040920567 0.05349634 0.021572584 -0.0022777503 -0.07858298 0.0028788606

exp_avg_sq f4 [64]
00000000: 323f a63e 3659 0540 a1bf c13d 7650 643f
00000010: 88b7 353d 105b 433e 774e 3e3b e42b b03c
00000020: 9c1a 0f3f 0595 093d e25a f43b 3a9d 653d
00000030: 4198 b03d 1d29 373c d6bf 2b3f 2ed2 e33d
00000040: d756 ee3a 8b99 c23d 942f dc3d fa8f a640
00000050: 05aa 2c3d e10e 373d 7e59 ae3d 0f74 473f
00000060: 0acc 9a3e 2b0b fb3e f68e 0b3a e35f 9540
00000070: 8a6a 303c 9bb2 1c40 6e89 043c d514 063b
00000080: 03d9 573e e6a7 9c39 4d1e 873f d3e5 9f3d
00000090: 5d6d 863e 253c 7f3a b01c b23d 3917 763f
000000a0: b44a 0e3e 0a86 713d c12d fa3c 73b5 fd3b
000000b0: 688c 9a3a a37e e63c 10c7 0d3f a2e4 0340
000000c0: ee42 4a3d 5d3a bb3c 1a43 423c 1a9b 763e
000000d0: d754 1d3b 4374 463e fafa 0e3d adc5 7f3e
000000e0: 7f21 4e3d 5cba 6939 1e15 8f3f 4a4f d63f
000000f0: 23a5 883e fb08 063b 627e 6a40 f174 c23b
0.3247009 2.08357 0.094603784 0.89185274 0.044364482 0.19077706 0.0029038468 0.021505304
0.5589998 0.03358938 0.007457123 0.056058146 0.0862279 0.011179236 0.67089593 0.11124073
0.0018183839 0.09501942 0.10751262 5.2050753 0.04215433 0.044691924 0.08513163 0.77911466
0.30233794 0.49031958 0.0005323732 4.667955 0.010767588 2.4484012 0.008089406 0.0020459194
0.21078877 0.00029879733 1.0556122 0.07807507 0.26255313 0.000973644 0.08696878 0.96129185
0.13895684 0.05896572 0.030539395 0.0077425777 0.0011791112 0.028136557 0.5538187 2.0608296
0.049380235 0.022854978 0.011856819 0.24082604 0.0024006867 0.19380288 0.03490732 0.24977751
0.050324913 0.00022290036 1.117832 1.6742947 0.2668849 0.002045213 3.6639638 0.0059343507
