training_results/cartpole_boltz/ppo/seed_42/1000000steps/model_latest.pt (torch, 151515 bytes, 30 tensors)

actor.pi_net.fcs.0.weight f4 [64, 4]
-0.8678209 0.3878425 0.40140635 0.4056846 -1.0384506 -0.23349541 0.2752675 -0.3256177
0.65180063 -0.36672437 -0.83978957 -0.38064098 -0.7954449 -0.6247784 0.37947977 0.07727775
0.5125655 0.4665157 0.35539344 0.55972546 -0.98193437 -0.73170036 -0.1303512 0.5520505
0.71555954 0.59649366 0.010842732 -0.22997953 -0.045554016 0.47462705 -0.07454111 0.0666242
0.83500534 0.67830807 -0.123056635 -0.4263627 0.3969966 -0.3984119 -0.56473416 -0.053910613
-0.4699242 -0.28676742 0.46173117 -0.27519163 -1.0688232 -0.7853078 -0.07931854 0.102192625
-0.7683745 -0.09406029 -0.10846364 -0.100586064 -0.3402215 -0.16276564 -0.4234137 0.5657333
-0.7390058 -0.07697988 0.32295793 0.4319249 0.48640496 0.071922906 -0.30320364 -0.31618613
0.05859747 -0.5701046 -0.38553438 0.35730067 -0.3977942 -0.16810054 -0.6789888 0.21332264
-1.1069177 -0.07999929 0.41721052 0.6345991 0.6933985 0.27743408 -0.7405865 -0.33287862
-1.2415532 -0.23398848 -0.03333922 0.38626626 -0.31127563 0.48512664 0.3019158 -0.23040019
-0.85507166 -0.66801465 -0.40908694 0.056066927 0.50474757 -0.5802876 -0.5046809 -0.06843382
-0.9558526 -0.5152708 -0.38430583 0.36962128 -0.96619207 -0.47894695 -0.29441994 -0.13225362
-1.0807786 -0.9418253 -0.03653914 -0.17617525 -0.76771563 -0.51395327 -0.172711 -0.28173202
0.9782861 0.017113125 0.31093735 -0.13898043 -1.0830575 -0.25357446 -0.030588591 0.4018113
0.8725596 0.27770677 -0.8585897 -0.0599327 0.63204294 0.8647836 -0.07417722 0.4572693
-0.8462126 -0.51128304 0.39154518 0.29573295 -0.44111583 0.6816756 0.48631212 -0.05410076
0.98959976 0.12384057 -0.44327623 -0.15705508 0.8615961 0.38654807 0.13722144 0.01705697
-1.0555036 -0.782537 -0.22550265 -0.18632816 -1.2853627 -1.04406 0.24828206 -0.34882438
0.6202462 0.7741844 0.15017124 -0.22070773 -0.64462066 0.38659164 0.6937764 0.33007473
-0.24949099 0.23153533 0.6001518 0.28982428 1.0206101 0.37574792 0.19567695 -0.056805205
0.6517052 -0.7646648 -0.08524013 0.25298777 0.908423 0.7739844 -0.452751 0.254141
0.7886097 0.8475294 -0.22388367 0.18539657 -0.7861106 -0.79651433 0.4834968 -0.17402564
0.608978 0.72380346 0.32819414 -0.49855047 0.8410574 -0.009383223 -0.90421873 -0.43687212
-0.8271232 -0.43167976 0.53464377 -0.059353974 -0.8256379 0.11121342 -0.5053678 0.39510432
-0.03490284 0.061526217 -0.08926056 0.04856484 -0.5780256 -0.33876783 0.66232514 0.5689665
0.42431936 0.3021884 -0.24705793 0.15561625 0.8478172 0.24682035 -0.7027998 -0.25929382
-0.23906337 0.513047 -0.07251714 0.04034885 0.77956355 0.41822588 -0.19711359 0.046399787
1.0855699 0.7647644 -0.28480557 -0.2525144 -1.0411824 0.07631977 0.10046185 0.0066892924
-0.80161077 0.4043813 0.9979365 0.34644017 -0.29278684 -0.5357868 -0.38650957 0.0010345923
-1.114953 -0.7671442 -0.096714176 -0.13368195 0.8636109 0.18698725 -0.055143695 0.033494927
0.5810782 -0.26174814 0.085107006 0.1006086 1.2492499 0.83784866 -0.38057658 0.08441263
00000000: 8329 5ebf 4b93 c63e 2285 cd3e e4b5 cf3e
00000010: f3eb 84bf 6c19 6fbe ddef 8c3e 5db7 a6be
00000020: 68dc 263f 4cc3 bbbe 73fc 56bf 60e3 c2be
00000030: 47a2 4bbf 7af1 1fbf 2c4b c23e cc43 9e3d
00000040: 7e37 033f 25db ee3e 21f6 b53e 2b4a 0f3f
00000050: 0d60 7bbf b750 3bbf c97a 05be 2e53 0d3f
00000060: e92e 373f cfb3 183f b7a5 313c c17f 6bbe
00000070: d996 3abd 5102 f33e 02a9 98bd 4572 883d
00000080: e9c2 553f 99a5 2d3f 1e05 fcbd 364c dabe
00000090: 2343 cb3e a5fc cbbe 6b92 10bf 60d1 5cbd
000000a0: e899 f0be 2ed3 92be 0768 ec3e ebe5 8cbe
000000b0: 33cf 88bf ef09 49bf c271 a2bd 5e4a d13d
000000c0: 31b4 44bf aea2 c0bd 2f22 debd 1100 cebd
000000d0: 8331 aebe 09ac 26be aec9 d8be e6d3 103f
000000e0: 7c2f 3dbf a1a7 9dbd be5a a53e 4325 dd3e
000000f0: 120a f93e 514c 933d 823d 9bbe 26e3 a1be
00000100: e703 703d 60f2 11bf c364 c5be 1df0 b63e
00000110: aeab cbbe 8c22 2cbe 36d2 2dbf 4071 5a3e
00000120: 7baf 8dbf abd6 a3bd 9e9c d53e 1675 223f
00000130: 9082 313f d70b 8e3e 1497 3dbf 116f aabe
00000140: 37eb 9ebf ad9a 6fbe b58e 08bd b1c4 c53e
00000150: 855f 9fbe 8562 f83e b594 9a3e 07ee 6bbe
00000160: fae5 5abf 0203 2bbf d873 d1be 6fa6 653d
00000170: 2337 013f ba8d 14bf c432 01bf 0827 8cbd
00000180: c2b2 74bf cae8 03bf bcc3 c4be 003f bd3e
00000190: 5d58 77bf 8938 f5be 36be 96be 7e6d 07be
000001a0: f456 8abf 761b 71bf 11aa 15bd 4967 34be
000001b0: 0389 44bf 7192 03bf 27db 30be 2e3f 90be
000001c0: f570 7a3f d330 8c3c 2e33 9f3e e350 0ebe
000001d0: a1a1 8abf 83d4 81be ed94 fabc 36ba cd3e
000001e0: 1160 5f3f 952f 8e3e 89cc 5bbf fe7b 75bd
000001f0: 91cd 213f 7562 5d3f 3aea 97bd 341f ea3e
00000200: 64a1 58bf 72e3 02bf 9c78 c83e 4f6a 973e
00000210: efd9 e1be 4b82 2e3f e7fd f83e c298 5dbd
00000220: 6956 7d3f 20a0 fd3d 1af5 e2be 0cd3 20be
00000230: 9091 5c3f a1e9 c53e c783 0c3e 0fbb 8b3c
00000240: be1a 87bf 5854 48bf 2bea 66be cfcc 3ebe
00000250: c486 a4bf c2a3 85bf a73d 7e3e 1c99 b2be
00000260: 74c8 1e3f f330 463f 7dc6 193e 3501 62be
00000270: dc05 25bf 57ef c53e 559b 313f 8eff a83e
00000280: 917a 7fbe 9917 6d3e 8ca3 193f d963 943e
00000290: 5aa3 823f 0862 c03e 8a5f 483e 93ac 68bd
000002a0: 27d6 263f 13c1 43bf 6192 aebd 9d87 813e
000002b0: 698e 683f d723 463f fbce e7be c51e 823e
000002c0: 53e2 493f b0f7 583f c341 65be 99d8 3d3e
000002d0: 8b3e 49bf 5de8 4bbf e48c f73e c733 32be
000002e0: fbe5 1b3f 2f4b 393f 1009 a83e 0242 ffbe
000002f0: 8a4f 573f 17bc 19bc e17a 67bf b4ad dfbe
00000300: 59be 53bf 2105 ddbe 6ade 083f 271d 73bd
00000310: 015d 53bf ddc3 e33d c95f 01bf 1d4b ca3e
00000320: 48f6 0ebd ea02 7c3d 3ece b6bd edeb 463d
00000330: 7cf9 13bf fa72 adbe 248e 293f caa7 113f
00000340: 6340 d93e 70b8 9a3e c1fc 7cbe de59 1f3e
00000350: 8c0a 593f 79be 7c3e b0ea 33bf 29c2 84be
00000360: 07cd 74be 0c57 033f de83 94bd d644 253d
00000370: 7a91 473f b421 d63e 25d8 49be b40d 3e3d
00000380: f4f3 8a3f 9ac7 433f 09d2 91be 9149 81be
00000390: 7745 85bf 8a4d 9c3d f1be cd3d da31 db3b
000003a0: 5d36 4dbf 110b cf3e c478 7f3f 9b60 b13e
000003b0: 28e8 95be 5329 09bf 95e4 c5be 289b 873a
000003c0: c8b6 8ebf 9063 44bf 1512 c6bd ece3 08be
000003d0: 9b15 5d3f 9679 3f3e 5bde 61bd fa31 093d
000003e0: 8ac1 143f da03 86be 954c ae3d e20b ce3d
000003f0: 6ce7 9f3f 407d 563f efda c2be 87e0 ac3d

actor.pi_net.fcs.0.bias f4 [64]
0.019737689 -0.0075452747 0.18832614 -0.06710506 0.38217515 -0.33448413 0.17879227 -0.13168308
-0.08764598 0.09483045 -0.10580993 -0.16825527 0.04792095 -0.36009732 -0.05633961 0.053897478
-0.118401974 0.081417024 -0.3185466 0.10018556 -0.26569927 0.002314246 0.08865361 0.061126348
-0.049300324 0.08315772 -0.2805775 -0.009973932 0.18094765 -0.0823716 0.10576455 0.3554084
-0.21265967 -0.057131257 0.06418765 0.015473309 -0.1950371 -0.30245572 -0.26587358 -0.042478018
-0.051421985 0.024477787 -0.007833833 -0.14850362 -0.09026674 0.20623879 -0.0065290313 0.121576175
0.10733848 -0.19907542 0.024386 0.09193537 0.11563221 0.1781355 0.07774935 0.07249063
0.27221733 -0.04899194 -0.13098851 -0.02405514 0.029134702 0.029602911 -0.052280527 0.22559223
00000000: efb0 a13c 5a3e f7bb 91d8 403e 616e 89bd
00000010: 76ac c33e 8141 abbe 5215 373e eed7 06be
00000020: bc7f b3bd 7836 c23d e0b2 d8bd 1c4b 2cbe
00000030: c248 443d ad5e b8be 5dc4 66bd 9ac3 5c3d
00000040: bc7c f2bd f8bd a63d 8a18 a3be 162e cd3d
00000050: bc09 88be 9baa 173b 0690 b53d 9f5f 7a3d
00000060: 23ef 49bd 984e aa3d dba7 8fbe b469 23bc
00000070: 574a 393e 71b2 a8bd 169b d83d 17f8 b53e
00000080: 75c3 59be 7702 6abd d174 833d c383 7d3c
00000090: ceb7 47be 7adb 9abe 9520 88be 6efd 2dbd
000000a0: dc9f 52bd a485 c83c 7a59 00bc 5511 18be
000000b0: c5dd b8bd 4330 533e 7cf1 d5bb eefc f83d
000000c0: 47d4 db3d 6dda 4bbe 26c5 c73c 9c48 bc3d
000000d0: 95d0 ec3d 2769 363e 0d3b 9f3d f875 943d
000000e0: 1260 8b3e c6ab 48bd da21 06be 490f c5bc
000000f0: e6ab ee3c ce81 f23c 1b24 56bd a601 673e

actor.pi_net.fcs.1.weight f4 [64, 64]
0.09425595 0.07912542 -0.015000614 0.030133523 -0.018205008 0.047109295 0.1336761 -0.015303195
-0.12154653 0.087800585 0.055384304 0.093969665 0.14871359 0.03319547 0.12713729 -0.03177463
-0.100284874 -0.0360562 -1.624029e-05 -0.055940907 -0.019262891 0.10208763 -0.07635987 0.028379472
0.1003577 -0.011607167 0.06860746 -0.10828892 0.072399884 0.008813097 0.1920168 -0.03806658
-0.1512029 -0.054335564 0.037788343 0.020074222 0.017156374 -0.10635699 0.07373679 0.0218417
0.0028436743 -0.022228338 0.065691 -0.16159704 -0.0632423 0.0007783088 -0.022610355 -0.016073994
-0.064055555 -0.061716165 0.0962934 0.09848052 0.048130445 0.008310711 -0.02899211 0.030368766
0.14751965 -0.12407262 -0.07932852 -0.08601681 -0.0235214 -0.07345686 0.024567334 -0.05886837
0.020810926 -0.06139871 0.050385445 -0.042884067 -0.12485449 0.026253294 0.026242161 0.029699275
-0.04057634 0.08259899 0.0155676 0.040312998 -0.034064297 0.15166661 -0.00906986 -0.0964755
0.14064781 0.10418143 0.14349286 0.08942069 0.16443913 -0.0786928 0.075727135 0.07191312
0.08420752 0.00030667905 -0.014468489 -0.0059416792 0.13011853 0.013287419 0.08103243 -0.012715028
-0.033035267 -0.027648749 0.087904714 0.072338924 0.09222051 0.018626265 -0.03225214 -0.016724525
0.062654875 -0.20183913 0.10231967 -0.034663144 0.055353187 -0.036208 -0.12592557 0.040609576
-0.041077085 -0.08564804 -0.040114906 -0.06905657 0.014321269 0.09191438 -0.16846421 0.0046051405
-0.11268765 -0.101663195 -0.06889857 0.2090119 0.23138624 0.040790793 -0.023557004 -0.0844254
0.17031807 -0.05897084 -0.083195716 -0.14298445 0.028291062 -0.08030309 0.12555003 -0.0033766509
0.15892023 0.051926196 -0.053870387 -0.2967611 -0.057107706 0.037121546 0.115683645 0.10788726
-0.07443825 0.03875343 0.02434308 -0.005433365 -0.09407033 -0.10134321 -0.10367964 -0.029065846
-0.33296853 -0.24242465 -0.16390954 -0.15532888 0.041018147 -0.049907 0.08205022 0.09149521
-0.11724267 0.059989203 -0.013095454 0.20820566 -0.06293802 -0.21514648 0.13295805 0.13086249
0.07397895 0.4351253 0.0047420315 0.17398064 0.21291323 -0.028163815 0.18631935 0.039036147
-0.06625588 0.05896851 -0.13660648 0.02448062 0.057928506 -0.0146915205 0.1448254 0.04981563
0.04723012 0.057936355 0.08268009 -0.32389605 -0.42369974 0.11385867 -0.021624776 0.06155457
0.02172265 -0.07525576 -0.15190291 -0.25606707 0.067689344 -0.1560979 -0.015061679 -0.1544132
-0.08228736 -0.057888333 -0.06025812 -0.3714393 -0.11701934 -0.055013306 0.012002705 0.013244738
0.078972735 -0.1956576 -0.10516885 -0.10907012 -0.02182071 0.06495805 -0.08184341 -0.19417462
-0.20018676 -0.30615586 -0.31371284 -0.30636293 0.079837844 -0.119606115 -0.15013522 0.08503905
0.016062515 0.07644944 -0.027358564 0.4799282 -0.41596618 -0.3599425 0.073374644 0.06437011
0.08724903 0.51680356 0.16033405 0.18662792 0.14144707 -0.08083224 0.090245225 -0.1087951
0.018134365 -0.051594663 -0.056506958 0.04293597 0.07813778 -0.09728005 0.03063179 0.21154106
0.19138919 -0.1744202 0.2178217 -0.43462136 -0.46711886 0.3428227 0.04622726 0.3102031
00000000: 4309 c13d 820c a23d 23c5 75bc 94da f63c
00000010: ab22 95bc adf5 403d 63e2 083e 41ba 7abc
00000020: 63ed f8bd cbd0 b33d a7da 623d 2b73 c03d
00000030: 6048 183e f9f7 073d 4730 023e 1d26 02bd
00000040: 2862 cdbd aaaf 13bd c23b 88b7 4b22 65bd
00000050: 36cd 9dbc 5213 d13d 9062 9cbd 117c e83c
00000060: 5688 cd3d fd2b 3ebc 1182 8c3d 95c6 ddbd
00000070: 6446 943d cf64 103c 0da0 443e b4eb 1bbd
00000080: efd4 1abe f88e 5ebd f3c7 1a3d b272 a43c
00000090: 868b 8c3c b2d1 d9bd 5003 973d 5ded b23c
000000a0: f05c 3a3b 3418 b6bc 0189 863d b279 25be
000000b0: 2e85 81bd 6b07 4c3a 5a39 b9bc 9cad 83bc
000000c0: 8f2f 83bd 17ca 7cbd 7935 c53d 28b0 c93d
000000d0: 6e24 453d a629 083c dd80 edbc ebc7 f83c
000000e0: 640f 173e c919 febd fe76 a2bd 9529 b0bd
000000f0: f3af c0bc 8d70 96bd 6f41 c93c f61f 71bd
00000100: ad7b aa3c 377d 7bbd f860 4e3d 34a7 2fbd
00000110: b6b3 ffbd 2611 d73c cdf9 d63c e54b f33c
00000120: 6033 26bd a929 a93d 3f0f 7f3c 3e1f 253d
00000130: 0187 0bbd 7e4e 1b3e c099 14bc f294 c5bd
00000140: fb05 103e 135d d53d cbef 123e 3222 b73d
00000150: bb62 283e b129 a1bd d416 9b3d 3047 933d
00000160: fe74 ac3d c4c9 a039 3e0d 6dbc 6bb2 c2bb
00000170: cb3d 053e 7ab3 593c 55f4 a53d b152 50bc
00000180: fd4f 07bd a17f e2bc 6307 b43d 6e26 943d
00000190: 1bde bc3d 1c96 983c d21a 04bd df01 89bc
000001a0: 3351 803d ebae 4ebe fa8c d13d f1fa 0dbd
000001b0: 06ba 623d d74e 14bd a2f2 00be 3a56 263d
000001c0: 7240 28bd 3d68 afbd 874f 24bd 886d 8dbd
000001d0: c1a3 6a3c 9b3d bc3d e281 2cbe b8e6 963b
000001e0: c8c8 e6bd cb34 d0bd b21a 8dbd 3707 563e
000001f0: 84f0 6c3e 3f14 273d 9efa c0bc 39e7 acbd
00000200: dc67 2e3e 688b 71bd 8462 aabd 846a 12be
00000210: a8c2 e73c f275 a4bd 3090 003e cd4a 5dbb
00000220: fcbb 223e 90b0 543d 32a7 5cbd 12f1 97be
00000230: c5e9 69bd c30c 183d 8ceb ec3d fff3 dc3d
00000240: 1573 98bd ebbb 1e3d 246b c73c 5e0a b2bb
00000250: f2a7 c0bd 078d cfbd fe55 d4bd 7f1b eebc
00000260: da7a aabe 2b3e 78be e7d7 27be 890e 1fbe
00000270: a502 283d 486b 4cbd f209 a83d d761 bb3d
00000280: ed1c f0bd 3db7 753d 518e 56bc dd33 553e
00000290: a6e5 80bd 5c4f 5cbe 2826 083e d100 063e
000002a0: 4782 973d bec8 de3e 0b63 9b3b fb27 323e
000002b0: ed05 5a3e cdb7 e6bc 80ca 3e3e 5ee4 1f3d
000002c0: 2ab1 87bd f788 713d 92e2 0bbe 958b c83c
000002d0: 7146 6d3d b4b4 70bc 1c4d 143e 790b 4c3d
000002e0: 5f74 413d ac4e 6d3d 2e54 a93d b4d5 a5be
000002f0: 2cef d8be bc2e e93d 7126 b1bc a520 7c3d
00000300: b3f3 b13c b11f 9abd 708c 1bbe 391b 83be
00000310: b6a0 8a3d 21d8 1fbe 43c5 76bc 7e1e 1ebe
00000320: 4786 a8bd 511c 6dbd 38d1 76bd 4b2d bebe
00000330: d6a7 efbd a255 61bd fea6 443c 7500 593c
00000340: 75bc a13d 775a 48be c462 d7bd 2860 dfbd
00000350: 58c1 b2bc ba08 853d 859d a7bd b6d5 46be
00000360: c2fd 4cbe 76c0 9cbe f89e a0be 9adb 9cbe
00000370: 0682 a33d 0df4 f4bd 0cbd 19be f428 ae3d
00000380: 8995 833c 8691 9c3d 111f e0bc 26b9 f53e
00000390: 85f9 d4be 624a b8be 7245 963d 7ad4 833d
000003a0: 9faf b23d 3d4d 043f 9c2e 243e 641b 3f3e
000003b0: 80d7 103e 608b a5bd 7dd2 b83d f7cf debd
000003c0: 858e 943c ed54 53bd d773 67bd a1dd 2f3d
000003d0: b306 a03d c33a c7bd 85ef fa3c 389e 583e
000003e0: 87fb 433e 359b 32be a70c 5f3e b186 debe
000003f0: 342a efbe 7586 af3e cc58 3d3d f1d2 9e3e

actor.pi_net.fcs.1.bias f4 [64]
-0.120526865 0.03644314 0.055493873 0.11994371 0.07967248 -0.07524948 -0.07778601 -0.055160392
-0.034557685 -0.024146244 0.078949444 -0.009656493 0.03401375 -0.013411161 -0.005620133 -0.036555804
-0.043329097 0.011155276 -0.0008362532 0.017612917 0.059205133 0.085720696 -0.055308867 0.05650891
0.04646939 -0.0103939455 -0.023550814 0.028791342 0.06790347 -0.07745048 -0.028704861 -0.06288991
-0.07665968 -0.0976104 -0.013657743 0.029547432 0.06158874 -0.027673803 -0.024849795 -0.086598866
-0.009586899 0.12676305 -0.028236082 0.031166594 0.044382777 -0.061391518 -0.078203104 -0.025430324
-0.11239153 -0.09929091 0.036092393 -0.070105985 0.0819709 0.033789262 0.14499599 -0.054877006
-0.051128034 0.060641434 0.074308075 -0.0331921 -0.018636923 0.07595171 0.017623747 -0.01175626
00000000: cad6 f6bd 6745 153d 8b4d 633d 0ca5 f53d
00000010: 532b a33d 661c 9abd 464e 9fbd ddef 61bd
00000020: 5c8c 0dbd 58ce c5bc 3fb0 a13d 4436 1ebc
00000030: 0052 0b3d 7cba 5bbc 1829 b8bb 8abb 15bd
00000040: da79 31bd 9ec4 363c 0138 5bba f748 903c
00000050: 1581 723d 558e af3d 8d8b 62bd e375 673d
00000060: b056 3e3d 5e4b 2abc a3ed c0bc d2db eb3c
00000070: f910 8b3d 5b9e 9ebd 7526 ebbc 6dcc 80bd
00000080: c0ff 9cbd f6e7 c7bd bac4 5fbc 750d f23c
00000090: 7a44 7c3d 2cb4 e2bc cc91 cbbc bf5a b1bd
000000a0: 5e12 1dbc 2cce 013e 5b4f e7bc 1651 ff3c
000000b0: b7ca 353d ac75 7bbd f328 a0bd 4153 d0bc
000000c0: 882d e6bd 0859 cbbd 9ed5 133d ba93 8fbd
000000d0: 5ce0 a73d 9c66 0a3d d479 143e b6c6 60bd
000000e0: a16b 51bd 2763 783d d52e 983d 70f4 07bd
000000f0: 76ac 98bc 928c 9b3d ad5f 903c 549d 40bc

actor.pi_net.fcs.2.weight f4 [1, 64]
0.0010589218 0.008677789 -0.11142947 -0.2559535 -0.007478457 -0.23432699 -0.0012616256 0.009260344
-0.001436148 -0.008450384 -0.0011373523 -0.008378693 0.008789904 0.0031586445 0.047771614 0.009038897
-0.01206065 0.008808275 0.010272532 0.0034526195 -0.0030244794 0.0051721334 0.06613156 0.0053463764
0.00040308075 0.32471526 -0.0039150845 -0.0057129166 -0.00048493684 -0.0006048475 -0.0060109436 -0.012229538
0.00046738968 0.011562036 -0.12234911 0.0077425013 -0.021334251 0.17994106 0.19778077 0.00824119
0.0005408771 -0.008417681 -0.03239225 -9.007432e-05 -0.17375918 0.0015428696 0.009508925 0.33923033
0.00014940395 -5.8870442e-05 0.010461557 -0.0014217859 0.007737371 0.007730474 0.0031429178 -0.27230665
0.002429454 0.0006369858 0.007914277 -0.014757927 0.0005102654 0.00448665 0.25457302 0.1362856
00000000: 85cb 8a3a 492d 0e3c 2235 e4bd 560c 83be
00000010: d80d f5bb 6af3 6fbe 215d a5ba b3b8 173c
00000020: 213d bcba 7b73 0abc 3613 95ba c946 09bc
00000030: 8803 103c 4301 4f3b 2bac 433d e217 143c
00000040: 089a 45bc 9550 103c 1f4e 283c 5845 623b
00000050: 5836 46bb 007b a93b fc6f 873d a830 af3b
00000060: 9554 d339 1441 a63e 1c4a 80bb 6b33 bbbb
00000070: 1f3f feb9 a18e 1eba 73f7 c4bb 665e 48bc
00000080: fb0b f539 b26e 3d3c 2c92 fabd cfb4 fd3b
00000090: 2bc5 aebc 7842 383e 0b87 4a3e 0e06 073c
000000a0: a6c9 0d3a 50ea 09bc bcad 04bd 48e6 bcb8
000000b0: eded 31be 1d3a ca3a 52cb 1b3c 99af ad3e
000000c0: 51a9 1c39 a8eb 76b8 f366 2b3c 385b baba
000000d0: c689 fd3b eb4f fd3b 69f9 4d3b c76b 8bbe
000000e0: 7937 1f3b 65fb 263a e2aa 013c 3bcb 71bc
000000f0: 55c3 053a c004 933b 6557 823e 748e 0b3e

critic.v_net.fcs.0.weight f4 [64, 4]
-1.0985805 0.012470875 -5.0398498 -0.80145526 2.968934 -5.4562516 7.3688226 -11.571729
-3.5729306 -1.0457423 2.7944834 -1.4388058 2.4845843 1.7091252 -5.1331997 -0.67521536
0.6281725 -0.75354713 5.0730443 0.065089606 -2.3567784 0.0638787 -5.4394517 -0.17052738
0.14165056 0.9386567 -7.0112 0.88913184 4.048879 1.1434352 5.0292845 0.65572655
-1.5509936 0.15302233 6.2388787 -0.05609314 -3.9069045 -0.2677982 6.0760827 0.45594007
-0.043982577 -0.5881339 -5.181157 -0.8828393 2.7126281 2.1393256 0.23238331 -1.3392097
-4.3789387 0.31480265 -0.6262464 0.18919168 -1.6341494 -0.31394002 6.2267175 -0.037620932
4.1678853 -1.6238762 1.53318 1.3499255 -1.8200722 1.6966418 -4.6256566 4.307973
2.3654878 -1.2293917 4.855707 -2.1691 3.212244 2.4246347 -3.7919452 -2.2698345
-5.1540265 -2.4548512 -4.521426 -0.9031512 -3.5222573 3.453841 0.6308947 -2.4769356
0.664457 1.5607283 3.447824 0.1769505 1.5114756 -0.12642059 -6.149631 0.068216495
0.17860894 0.7179751 -5.4492345 0.23122163 -0.1994842 -0.48452455 4.4902024 0.34609407
3.1369946 -0.7252327 -6.6486998 -0.38493913 -2.2908535 0.12549937 -4.2218237 -0.5476387
-0.53502214 -0.36568335 -4.926352 -0.22715658 0.3783641 1.4499823 -3.608562 -1.7891093
-5.159722 -2.077936 1.2754511 0.018134322 4.1011558 1.6713233 -5.492394 -2.25432
-4.0265102 -1.7281511 4.044156 0.13538954 -3.7490928 -2.3016706 3.2793424 0.4874172
-1.5496016 -1.676235 4.2942986 0.76699096 -2.3793736 1.0779665 -4.566767 -0.47575167
-0.8808464 0.20711982 6.468999 -0.19000976 -5.922032 -1.9671679 0.3260521 -5.4191613
-4.438446 -2.0548751 0.005329092 -0.022545487 -3.5539575 -1.4975305 -4.40976 -0.19619393
0.4924125 -0.42842868 5.381839 -0.08866619 -0.86679745 0.0965066 -5.482186 -0.13875611
3.4442701 -1.9875709 -2.407799 4.6700296 4.232128 1.434087 4.9527225 0.66518354
-0.57229257 1.1170957 0.4950628 1.8768038 7.238624 0.15643676 -2.2398589 -7.4736013
3.2160654 -2.0560255 -5.9170914 -0.6300539 -1.5260628 0.21577129 -4.970868 -0.88107675
-6.7628655 -3.1283457 -1.3407253 -0.6863753 -2.0411005 0.89263296 6.1786575 0.3853042
-3.3416243 0.7319379 -6.808779 0.83424515 2.1636636 2.098866 -4.1883473 -1.8413016
-2.7302248 -1.590943 -5.0253253 -0.931607 0.9318912 0.5478405 5.6540403 -0.10688044
-1.2927365 0.8545082 5.690503 0.4383331 -3.8012106 -3.9165416 2.9700885 1.6212337
6.539804 -0.93522817 1.154629 1.7171943 4.0990562 -0.91269505 3.811762 0.7868901
-2.9948776 -0.8038181 -3.96569 -0.096725315 -0.05722524 -0.7485111 5.2490435 -0.117382154
1.3884614 -0.43440056 4.20852 0.64058596 2.7914398 0.8438688 -1.427529 0.35537812
0.7052442 -1.0108024 5.114944 1.1914146 -7.0833898 0.9067984 -0.7691516 0.39620593
1.5513027 -2.915385 4.978607 -0.37477016 -3.0945635 -2.455923 -1.1190629 -2.8390794
00000000: 499e 8cbf a452 4c3c 7346 a1c0 2c2c 4dbf
00000010: 0403 3e40 9d99 aec0 65cd eb40 cd25 39c1
00000020: e5aa 64c0 e2da 85bf d1d8 3240 ca2a b8bf
00000030: 6e03 1f40 9dc4 da3f 2c43 a4c0 eada 2cbf
00000040: eacf 203f 77e8 40bf 6156 a240 b34d 853d
00000050: 75d5 16c0 d6d2 823d fd0f aec0 bb9e 2ebe
00000060: d80c 113e ce4b 703f c05b e0c0 259e 633f
00000070: 6b90 8140 165c 923f e6ef a040 b2dd 273f
00000080: f586 c6bf e3b1 1c3e e5a4 c740 ecc1 65bd
00000090: b90a 7ac0 d81c 89be 456f c240 fa70 e93e
000000a0: 1327 34bd f18f 16bf 0acc a5c0 c201 62bf
000000b0: b39b 2d40 b6ea 0840 e4f5 6d3e 396b abbf
000000c0: 4420 8cc0 d02d a13e af51 20bf 77bb 413e
000000d0: cf2b d1bf bfbc a0be 4541 c740 6818 1abd
000000e0: 515f 8540 2ddb cfbf 3e3f c43f 5cca ac3f
000000f0: 20f8 e8bf 8f2b d93f 6105 94c0 eada 8940
00000100: 2764 1740 b55c 9dbf f461 9b40 89d2 0ac0
00000110: 6895 4d40 372d 1b40 3baf 72c0 f844 11c0
00000120: c9ed a4c0 481c 1dc0 86af 90c0 eb34 67bf
00000130: aa6c 61c0 bb0b 5d40 5182 213f 1d86 1ec0
00000140: db19 2a3f f2c5 c73f 26a9 5c40 8332 353e
00000150: 0878 c13f 6674 01be c7c9 c4c0 17b5 8b3d
00000160: 43e5 363e 37cd 373f 2160 aec0 5dc5 6c3e
00000170: 9645 4cbe 9a13 f8be bdaf 8f40 3e33 b13e
00000180: 85c4 4840 daa8 39bf 26c2 d4c0 be16 c5be
00000190: 589d 12c0 e882 003e 2e19 87c0 0d32 0cbf
000001a0: 36f7 08bf d93a bbbe ada4 9dc0 bc9b 68be
000001b0: f0b8 c13e 0599 b93f aef2 66c0 8901 e5bf
000001c0: 711c a5c0 e7fc 04c0 fb41 a33f 6e8e 943c
000001d0: ab3c 8340 eced d53f b1c1 afc0 c746 10c0
000001e0: 2cd9 80c0 0e34 ddbf ba69 8140 8ea3 0a3e
000001f0: 23f1 6fc0 924e 13c0 bfe0 5140 bf8e f93e
00000200: 5859 c6bf de8e d6bf e56a 8940 8559 443f
00000210: a847 18c0 cefa 893f f522 92c0 b995 f3be
00000220: 267f 61bf 3817 543e 0a02 cf40 eb91 42be
00000230: 4981 bdc0 28cc fbbf 4df0 a63e c569 adc0
00000240: c007 8ec0 1383 03c0 aa9f ae3b 50b1 b8bc
00000250: 0a74 63c0 14af bfbf c11c 8dc0 10e7 48be
00000260: 7e1d fc3e 015b dbbe 0638 ac40 9f96 b5bd
00000270: 70e6 5dbf 41a5 c53d 116e afc0 1516 0ebe
00000280: ec6e 5c40 b968 febf 6119 1ac0 e270 9540
00000290: 986d 8740 2a90 b73f b47c 9e40 7849 2a3f
000002a0: c481 12bf fefc 8e3f df78 fd3e 1b3b f03f
000002b0: cfa2 e740 f530 203e d959 0fc0 be27 efc0
000002c0: 04d4 4d40 ec95 03c0 d058 bdc0 364b 21bf
000002d0: 0756 c3bf 26f3 5c3e 5a11 9fc0 3f8e 61bf
000002e0: 6569 d8c0 d136 48c0 e39c abbf 4bb6 2fbf
000002f0: 64a1 02c0 9883 643f 90b7 c540 9846 c53e
00000300: 2cdd 55c0 4860 3b3f 84e1 d9c0 1791 553f
00000310: 7779 0a40 d253 0640 f106 86c0 c5af ebbf
00000320: 01bc 2ec0 05a4 cbbf 77cf a0c0 cc7d 6ebf
00000330: 6c90 6e3f 463f 0c3f e6ed b440 22e4 dabd
00000340: 6478 a5bf 0dc1 5a3f 9a18 b640 326d e03e
00000350: 0947 73c0 9ea8 7ac0 ee15 3e40 9684 cf3f
00000360: 1346 d140 1d6b 6fbf e2ca 933f 06cd db3f
00000370: 782b 8340 62a6 69bf e9f3 7340 a171 493f
00000380: 13ac 3fc0 06c7 4dbf ddcd 7dc0 ec17 c6bd
00000390: 0365 6abd 6c9e 3fbf 2af8 a740 0e66 f0bd
000003a0: 1ab9 b13f c069 debe 32ac 8640 71fd 233f
000003b0: f3a6 3240 c907 583f 45b9 b6bf 1ff4 b53e
000003c0: e28a 343f f961 81bf 9fad a340 4680 983f
000003d0: 21ab e2c0 f123 683f 1fe7 44bf 81db ca3e
000003e0: 1691 c63f ab95 3ac0 c050 9f40 e0e1 bfbe
000003f0: 540d 46c0 d82d 1dc0 743d 8fbf 7ab3 35c0

critic.v_net.fcs.0.bias f4 [64]
-0.5499081 -0.94827384 0.07356063 0.1362371 -0.49138543 0.25656173 0.12707843 -0.28449512
0.20198362 0.24734949 -0.7983609 -0.6934292 -1.2773331 0.08649343 -0.88228345 0.8034138
0.17431287 -1.1301311 0.34804872 1.4287397 0.6716231 -0.16781417 0.30972698 -0.8821597
-0.28563082 0.27069277 -0.3101692 -0.7759782 -0.27194667 0.6183916 -0.16355072 0.4632792
0.4320952 0.6340921 0.044593103 0.366787 -0.03578318 -0.15987955 -0.26205754 -0.22090393
-1.0564998 -0.30733228 -1.0749141 0.14256743 -0.26308706 -0.4095191 0.12574433 0.37995958
-0.1364256 -1.0508807 0.6162621 0.26950428 0.5048835 0.7871016 -0.6368259 -0.33188897
0.034498833 -0.38776454 0.22419454 0.9956191 -1.0754786 0.16986786 -0.17477567 -0.48738855
00000000: c7c6 0cbf 13c2 72bf f5a6 963d bd81 0b3e
00000010: df96 fbbe 0f5c 833e d920 023e 58a9 91be
00000020: cbd4 4e3e 2f49 7d3e 6161 4cbf 9384 31bf
00000030: a77f a3bf 7823 b13d 54dd 61bf 87ac 4d3f
00000040: 137f 323e 23a8 90bf 7133 b23e f1e0 b63f
00000050: 7eef 2b3f 7ad7 2bbe 8994 9e3e 38d5 61bf
00000060: 343e 92be 3e98 8a3e 7fce 9ebe 82a6 46bf
00000070: 983c 8bbe e94e 1e3f d779 27be ee32 ed3e
00000080: 953b dd3e dc53 223f 42a7 363d 81cb bb3e
00000090: 6291 12bd 77b7 23be 682c 86be a434 62be
000000a0: 633b 87bf a85a 9dbe c996 89bf 32fd 113e
000000b0: 59b3 86be 7dac d1be 1fc3 003e 108a c23e
000000c0: 27b3 0bbe 4283 86bf 5ac3 1d3f 77fc 893e
000000d0: 0c40 013f 7e7f 493f 0607 23bf 5aed a9be
000000e0: a64e 0d3d 1389 c6be 4193 653e e5e0 7e3f
000000f0: 48a9 89bf d7f1 2d3e 65f8 32be fe8a f9be

critic.v_net.fcs.1.weight f4 [64, 64]
-0.10753009 0.6895957 -0.5414858 0.5298827 0.70824367 -1.7566837 -0.24436119 1.8530143
-0.6719177 -1.4221581 -0.27383712 -0.62401134 -2.192553 -0.6621878 -0.5079792 -0.4683104
0.6936598 -0.3149944 -0.76644975 0.06704717 0.11230826 0.74588966 -0.4252877 0.22935624
1.1309454 -0.32961437 -0.5013323 -0.19815275 -0.33817306 0.35418963 -0.015405297 -0.72463155
-0.2751514 -1.2400182 -0.5343246 -1.9787413 -0.3856328 -1.3429612 0.4983271 -0.16224228
0.7215308 1.9122367 -1.2585363 0.95547634 0.85629624 -0.5108085 -0.8562679 -0.68631965
-0.8844937 -0.28613323 -0.43764883 0.46983817 0.2711159 0.2330123 0.9659878 1.3906527
-0.030710835 0.27128327 0.24798337 0.111540474 0.20391774 -2.4441295 0.079799205 -0.9425756
-0.551368 2.275644 1.0628963 -1.1878543 0.93865323 -1.2828693 -1.828928 0.5137366
1.56175 1.0895444 -0.42998767 -0.047422376 0.19327585 2.248321 0.31760573 -1.7030284
0.41108382 -0.038994048 -0.20524965 -0.29675344 0.58756906 -1.9242171 -1.1334186 0.22808512
-2.8024201 -0.25568455 -1.7900513 -0.14572614 0.5229769 -0.52689713 0.66590726 1.1678239
1.0544032 -0.5351322 2.4254215 -0.69064206 0.2925116 -0.40508252 1.2313093 -2.0195134
1.0091348 0.24163006 0.26750574 -2.0412376 -3.0892425 -0.529087 0.44710562 3.3920028
-1.0052497 -0.34343904 -0.35926184 2.5357337 1.5084807 0.6694959 0.23718125 0.55768335
-0.46237898 0.9988142 0.41326287 -0.40769008 0.29559565 0.8078119 0.49675813 0.19153963
0.5070907 -2.2510962 -1.1175668 1.0477 -1.4364986 1.7837663 2.2776518 -0.565402
-2.779445 -1.7274743 0.3066355 0.5108622 -0.65937555 -3.5440776 -0.4320804 1.4321465
-1.063115 0.063840866 0.0021515423 -0.052268602 -0.4782421 3.4127812 1.7026409 -0.92040956
3.123666 0.67359656 1.5426613 0.09475588 -0.15349497 0.66009104 -0.737495 -1.3318226
-1.0827081 1.4759779 -4.819109 -0.5769498 0.30138338 0.9474838 -2.1094549 1.6422614
-0.24515253 -0.2247068 -0.43857145 1.7368311 2.9160306 0.49404764 -0.9640165 -2.741323
1.4940127 0.23618111 0.4703889 -2.5670466 -1.6656721 -0.6039568 0.0721072 -0.8066468
0.6777715 -1.5437616 -0.29202354 0.74302256 -0.5349175 -0.99065435 0.3183395 -0.30741784
-0.086611435 0.6508601 -0.030091181 -1.0493279 2.2622697 -1.81408 -1.7893496 0.68428916
-0.12018194 0.21145174 0.26982346 -0.49559888 0.49665624 -0.2962973 1.0139472 -0.58023477
0.81412375 -0.08668699 -0.2107114 -0.65413904 -0.2385683 0.45763156 -2.4856522 0.282728
1.1350203 -1.0011055 -0.24711192 -0.30521965 0.084615245 -0.50266933 0.21403486 1.0195305
0.5484955 -3.538386 -0.52161825 0.5601771 -0.20584105 -0.33396247 2.2390249 -0.81147474
0.6876946 0.21547517 -0.57039416 -0.9334768 1.3664024 -0.120112404 0.9802344 -1.2895333
-2.8595207 -0.23956312 -0.22224894 0.99285096 -0.5480663 0.48440215 1.6699297 1.5345151
-0.61252093 1.7589571 0.36495388 -0.8790404 1.207195 -1.9720527 1.7395393 0.5929953
00000000: bc38 dcbd 5889 303f d09e 0abf 65a6 073f
00000010: 754f 353f 03db e0bf d239 7abe 932f ed3f
00000020: cc02 2cbf 4709 b6bf 6134 8cbe 35bf 1fbf
00000030: ca52 0cc0 2485 29bf ed0a 02bf 61c6 efbe
00000040: b093 313f f246 a1be 0d36 44bf 0750 893d
00000050: df01 e63d a0f2 3e3f 4fbf d9be 5ddc 6a3e
00000060: d2c2 903f 37c3 a8be 5057 00bf 8ee8 4abe
00000070: 0525 adbe 5858 b53e 8066 7cbc 7481 39bf
00000080: a5e0 8cbe ebb8 9ebf 7fc9 08bf 6547 fdbf
00000090: aa71 c5be 27e6 abbf bb24 ff3e d722 26be
000000a0: 3eb6 383f 2cc4 f43f b817 a1bf 199a 743f
000000b0: 3b36 5b3f 59c4 02bf 6034 5bbf a5b2 2fbf
000000c0: 2e6e 62bf 0e80 92be 8213 e0be a18e f03e
000000d0: b4cf 8a3e c79a 6e3e fa4a 773f e800 b23f
000000e0: 4a95 fbbc a4e5 8a3e 5aef 7d3e 556f e43d
000000f0: d0cf 503e 9e6c 1cc0 c46d a33d a24c 71bf
00000100: 7426 0dbf 27a4 1140 fc0c 883f 9c0b 98bf
00000110: 944b 703f 1035 a4bf 501a eabf 3e84 033f
00000120: 6de7 c73f 3176 8b3f 5827 dcbe f73d 42bd
00000130: 1bea 453e 7ee4 0f40 389d a23e d6fc d9bf
00000140: 9479 d23e 39b8 1fbd f72c 52be 11f0 97be
00000150: ed6a 163f bf4c f6bf dc13 91bf 258f 693e
00000160: da5a 33c0 16e9 82be 6720 e5bf 3c39 15be
00000170: d0e1 053f bbe2 06bf e678 2a3f 417b 953f
00000180: aff6 863f 6dfe 08bf 1b3a 1b40 ebcd 30bf
00000190: 15c4 953e fa66 cfbe 8b9b 9d3f b53f 01c0
000001a0: 542b 813f df6d 773e 83f6 883e a3a3 02c0
000001b0: 26b6 45c0 3f72 07bf 07eb e43e 9316 5940
000001c0: 06ac 80bf 3ed7 afbe 2bf1 b7be 7649 2240
000001d0: e515 c13f 1564 2b3f a4df 723e 56c4 0e3f
000001e0: f0bc ecbe 4ab2 7f3f 3197 d33e c1bc d0be
000001f0: 5058 973e c3cc 4e3f 1557 fe3e f722 443e
00000200: b2d0 013f f611 10c0 6e0c 8fbf 091b 863f
00000210: 30df b7bf 7452 e43f 0cc5 1140 2fbe 10bf
00000220: 6de2 31c0 e11d ddbf 54ff 9c3e ddc7 023f
00000230: d6cc 28bf 2bd2 62c0 a439 ddbe 9450 b73f
00000240: 2714 88bf 00bf 823d e400 0d3b 9a17 56bd
00000250: 26dc f4be 026b 5a40 23f0 d93f f69f 6bbf
00000260: 25ea 4740 d370 2c3f ed75 c53f 5f0f c23d
00000270: c92d 1dbe bafb 283f 79cc 3cbf 2a79 aabf
00000280: 2e96 8abf d8ec bc3f 2436 9ac0 fbb2 13bf
00000290: ec4e 9a3e 4c8e 723f 4f01 07c0 9f35 d23f
000002a0: 4409 7bbe 8a19 66be 708c e0be 7b50 de3f
000002b0: 3fa0 3a40 d0f3 fc3e c9c9 76bf d671 2fc0
000002c0: cf3b bf3f 76d9 713e d0d6 f03e 7e4a 24c0
000002d0: be34 d5bf ea9c 1abf f1ac 933d 6880 4ebf
000002e0: 6f82 2d3f fb99 c5bf 1c84 95be ba36 3e3f
000002f0: 5af0 08bf 869b 7dbf 65fd a23e df65 9dbe
00000300: 5661 b1bd c49e 263f c881 f6bc 6050 86bf
00000310: 07c9 1040 c633 e8bf 6809 e5bf 932d 2f3f
00000320: f321 f6bd ce86 583e 4d26 8a3e 23bf fdbe
00000330: ba49 fe3e 48b4 97be 06c9 813f 448a 14bf
00000340: 6a6a 503f f388 b1bd bbc4 57be a875 27bf
00000350: 404b 74be af4e ea3e ed14 1fc0 b9c1 903e
00000360: 5848 913f 3a24 80bf e80a 7dbe c045 9cbe
00000370: c24a ad3d f0ae 00bf f42b 5b3e fa7f 823f
00000380: 336a 0c3f eb74 62c0 c688 05bf c467 0f3f
00000390: ffc7 52be 21fd aabe 2f4c 0f40 cfbc 4fbf
000003a0: c10c 303f 86a5 5c3e 5a05 12bf 56f8 6ebf
000003b0: 46e6 ae3f 7efd f5bd a4f0 7a3f 6d0f a5bf
000003c0: 6302 37c0 0950 75be 3a95 63be 7b2b 7e3f
000003d0: 134e 0cbf 8f03 f83e 42c0 d53f fe6a c43f
000003e0: 2cce 1cbf 8225 e13f 3cdb ba3e cb08 61bf
000003f0: 5e85 9a3f 396c fcbf 39a9 de3f 8ace 173f

critic.v_net.fcs.1.bias f4 [64]
0.661889 -0.2621659 0.3907785 -0.350953 -0.88143253 0.30513695 -0.69779086 -0.016442288
-0.4346462 -0.27959242 -0.5550348 0.099650554 0.2566624 0.17527254 -0.020650834 -0.36415333
-0.097483784 0.1895395 -0.31980568 -0.10368496 -0.27506945 -0.30503717 -0.26536125 0.25938946
0.29678574 -0.09977592 -0.2961174 -0.48911378 -0.11332616 -0.49908328 -0.21316947 0.15502897
-0.41420078 -0.62166655 -0.056937568 0.64603025 0.12559195 -0.3934029 -0.12715752 -0.05475962
-0.6142938 -0.4899334 0.15913288 -0.24586093 0.109680206 0.30428126 -0.6802729 0.027948566
-0.45551723 -0.2818287 0.2379459 0.39955652 -0.068316795 -0.34473866 -0.14033967 0.18552943
0.2427903 -0.10777981 0.66618156 -0.1980838 -1.5276195 0.34840733 0.43245003 0.38859597
00000000: 8f71 293f 9c3a 86be 1f14 c83e 1db0 b3be
00000010: 90a5 61bf e93a 9c3e 6ca2 32bf fab1 86bc
00000020: f289 debe bd26 8fbe c316 0ebf 9715 cc3d
00000030: 4169 833e a57a 333e f02b a9bc 4e72 babe
00000040: 94a5 c7bd a516 423e 92bd a3be c858 d4bd
00000050: e7d5 8cbe d52d 9cbe 6edd 87be b2ce 843e
00000060: 4df4 973e 5157 ccbd b39c 97be 1f6d fabe
00000070: 8c17 e8bd d887 ffbe 1949 5abe eabf 1e3e
00000080: 2012 d4be 8a25 1fbf 5e37 69bd 3d62 253f
00000090: 2d9b 003e 1b6c c9be 9535 02be a04b 60bd
000000a0: 5c42 1dbf 8dd8 fabe bbf3 223e f8c2 7bbe
000000b0: 04a0 e03d c1ca 9b3e 5d26 2ebf 64f4 e43c
000000c0: 8e39 e9be da4b 90be 17a8 733e ac92 cc3e
000000d0: ade9 8bbd 9681 b0be 34b5 0fbe 6dfb 3d3e
000000e0: 059e 783e a9bb dcbd e08a 2a3f 7bd6 4abe
000000f0: 0989 c3bf 7262 b23e 176a dd3e 0df6 c63e

critic.v_net.fcs.2.weight f4 [1, 64]
4.6839557 2.093912 -3.917812 -2.4189136 0.93596244 0.9839359 -0.8939195 -1.3792562
2.5085206 3.379799 5.394647 8.308446 1.4771332 4.110235 -2.1148534 -1.7106277
-1.5934622 1.8314681 -7.6659327 2.0589602 -2.5570185 -1.1116855 -1.114409 -2.7845042
2.1505246 -1.1808311 -2.5336745 2.4387932 8.45422 -2.0232708 3.10919 2.000897
4.1765385 -0.9601188 -1.4532689 -3.8213778 1.3501217 -2.1744854 1.9716603 3.1624873
3.7731435 -2.2204034 1.8683786 -1.5553353 1.1487771 1.455919 -2.0884664 1.2036864
-2.2338681 -2.0630755 1.4800557 2.1714103 -0.9550432 3.5875354 -2.081065 1.4741741
4.019467 -1.4462122 -2.3338006 3.3905056 -5.162015 1.8439944 1.8249959 2.460944
00000000: f7e2 9540 a702 0640 6fbd 7ac0 7bcf 1ac0
00000010: 3c9b 6f3f 39e3 7b3f e9d7 64bf 788b b0bf
00000020: 9a8b 2040 a04e 5840 f3a0 ac40 65ef 0441
00000030: b312 bd3f 0c87 8340 c259 07c0 d9f5 dabf
00000040: 92f6 cbbf 8c6d ea3f 524f f5c0 01c6 0340
00000050: 31a6 23c0 b64b 8ebf f4a4 8ebf 5135 32c0
00000060: 32a2 0940 7925 97bf b927 22c0 3015 1c40
00000070: 7c44 0741 457d 01c0 f8fc 4640 b20e 0040
00000080: 34a6 8540 58ca 75bf b704 babf 7491 74c0
00000090: cad0 ac3f c52a 0bc0 5d5f fc3f 3166 4a40
000000a0: 2f7b 7140 171b 0ec0 0827 ef3f 3a15 c7bf
000000b0: 210b 933f 8e5b ba3f 6fa9 05c0 6512 9a3f
000000c0: b2f7 0ec0 6e09 04c0 7772 bd3f 63f8 0a40
000000d0: b67d 74bf 2e9a 6540 2b30 05c0 bdb1 bc3f
000000e0: 799f 8040 7b1d b9bf fd5c 15c0 0bfe 5840
000000f0: 3a2f a5c0 0208 ec3f 7799 e93f 1b80 1d40

exp_avg f4 [64, 4]
-0.00032486903 -0.0002776873 0.0001831797 -0.0002727953 -0.00049656606 -0.000688741 -0.0021949029 -0.0027076602
0.0002983627 0.0002111363 -0.00044861334 3.7396978e-05 -0.0017051031 -0.0022155088 -0.0031660683 -0.0038217101
5.974315e-05 0.00032023442 0.0010998569 0.001091076 -0.00067991257 -0.001235579 -0.0032585957 -0.004537235
0.00036545208 0.0006013074 0.0016271512 0.0017575454 -3.0398784e-05 9.150544e-05 0.00051791605 0.00022067432
0.0002826936 0.00060136116 0.0011186342 0.0012494741 0.0005485236 0.00040312912 -0.0008754292 0.00016813725
-0.00029752057 -0.00034575915 -0.0005807986 -0.00083488907 -0.0010209042 -0.0017885616 -0.005990133 -0.005445531
-0.0002263322 -0.00020584639 -0.0012033393 -0.0012151926 4.9793434e-05 -0.000120653676 -0.001005074 -0.0010268498
-0.0005512094 -0.00058357813 -9.88449e-05 -0.0007047047 0.00033730044 0.00031635014 -0.00027767694 9.477141e-05
0.0003182114 -4.3610977e-05 -0.0009322358 -0.00047817742 0.00015328865 -9.980931e-05 -0.0013775933 -0.001071169
-0.0004936281 -0.0005981871 -0.00063137914 -0.001308793 0.001085011 0.0011722451 0.00063288555 0.0016935559
-0.0005543746 -0.00083081593 -0.0016992622 -0.0022965537 -0.00033830604 -0.00021207677 9.084118e-05 -0.0002530757
-0.0001402819 -0.000661295 -0.0035046488 -0.0027368467 0.0008695016 0.0006743238 -0.0015580099 7.674881e-05
-0.00060134544 -0.0015626164 -0.006055458 -0.0066387407 -0.00042954553 -0.0006995827 -0.003294202 -0.002796633
-0.0006433721 -0.0010945213 -0.0040790467 -0.0040854416 -0.00053130084 -0.0008654353 -0.0039032223 -0.003948813
0.00037835023 0.00041709575 0.0007891007 0.0011020696 -0.0011578441 -0.0017067952 -0.0033228837 -0.0044524474
0.00092008803 0.0010450501 0.0007530707 0.0013820006 0.0003117791 0.00049543387 0.0015354736 0.0018693494
-0.00062731904 -0.00078152225 -0.0009641418 -0.0015475859 -0.0003857814 -0.00028342372 0.0006764428 -1.2474891e-05
0.0015927741 0.0018759375 0.0016086177 0.0026322783 0.00092678284 0.0015414016 0.006454263 0.0056501087
-0.00071958767 -0.001099684 -0.0042761983 -0.004234687 -0.0010206132 -0.0014139941 -0.0042029326 -0.0054757097
9.886087e-05 0.00038102095 0.0012975585 0.0010788434 -0.00048137477 -0.00042054334 0.00020998674 -0.0004105728
-0.0003341502 -0.00025192203 0.00039313413 -0.0001237857 0.0013674413 0.0022012673 0.008322305 0.0076466007
0.0003565683 0.00016009598 -0.00011580249 0.0003000327 0.00025873486 0.00052869046 0.0021661494 0.002028484
0.00035116926 0.0006591119 0.002690337 0.0024671813 -0.00018456593 -0.00043845113 -0.0018182842 -0.0012980463
0.00015194823 0.00089299673 0.0030822314 0.0032375625 0.0008408821 0.00086591305 0.000295875 0.0012405411
-0.00033127304 -0.00055354484 -0.0012207578 -0.00077195803 -2.1004624e-05 -0.0001308133 -0.00069758424 -0.0006739264
-6.369505e-05 9.639681e-05 0.00035618845 0.00030446824 -0.00020355216 -0.00020051742 2.232986e-05 -0.00011973141
0.00024568464 0.00026998803 0.00045740572 0.00072400545 0.0005375043 0.00058620144 0.00032334978 0.0008952804
-0.00024237513 -3.8009457e-05 0.0007723412 0.0002672139 0.001270468 0.0015495119 0.0025493163 0.0031909905
0.0007613671 0.0010689863 0.0020337515 0.0023737068 -0.001504698 -0.0016893906 -0.0023072797 -0.0034226945
-0.00042094113 -0.00036265337 0.00015424038 -0.0004843226 4.4279623e-05 -0.0006213314 -0.0049458137 -0.0031774275
-0.0005385702 -0.0012046612 -0.0069881207 -0.005525678 0.0014816382 0.0018307031 0.0039301617 0.0044675334
0.0002843338 8.3324005e-05 5.6458986e-05 0.0004960398 0.0011397267 0.001630014 0.004024907 0.0045693703
00000000: 2f53 aab9 8f96 91b9 ed13 4039 f705 8fb9
00000010: fc2b 02ba a08c 34ba 5cd8 0fbb 0073 31bb
00000020: 906d 9c39 7864 5d39 dd33 ebb9 b3da 1c38
00000030: c47d dfba 1232 11bb d07d 4fbb a875 7abb
00000040: b894 7a38 23e5 a739 1329 903a 6f02 8f3a
00000050: 293c 32ba 27f3 a1ba 2a8e 55bb 16ad 94bb
00000060: 269a bf39 0ea1 1d3a 2246 d53a 705d e63a
00000070: e400 ffb7 9ce6 bf38 c2c4 073a d064 6739
00000080: 7e36 9439 aaa4 1d3a 239f 923a 65c5 a33a
00000090: ccca 0f3a 135b d339 0f7d 65ba 004e 3039
000000a0: 89fc 9bb9 0247 b5b9 bc40 18ba 75dc 5aba
000000b0: dccf 85ba 2b6e eaba e148 c4bb 6d70 b2bb
000000c0: 9653 6db9 78d8 57b9 5eb9 9dba 1947 9fba
000000d0: 4bd9 5038 7307 fdb8 b0bc 83ba 5d97 86ba
000000e0: 097f 10ba 44fb 18ba f44a cfb8 efbb 38ba
000000f0: b3d7 b039 ccdb a539 2b95 91b9 03c0 c638
00000100: 9cd5 a639 eeea 36b8 4961 74ba e3b3 fab9
00000110: 1cbc 2039 b750 d1b8 5c90 b4ba 7866 8cba
00000120: d266 01ba a8cf 1cba 2383 25ba ce8b abba
00000130: ee36 8e3a 05a6 993a 3be8 253a 4efa dd3a
00000140: 7353 11ba 1dcb 59ba c7b9 deba c781 16bb
00000150: ab5e b1b9 ed60 5eb9 fd81 be38 3faf 84b9
00000160: a318 13b9 c25a 2dba 40ae 65bb ab5c 33bb
00000170: 44ef 633a 1bc5 303a 2336 ccba 34f4 a038
00000180: 9ca3 1dba b5d0 ccba dd6c c6bb cb89 d9bb
00000190: a034 e1b9 3364 37ba 8ae3 57bb b747 37bb
000001a0: f9a7 28ba 0a76 8fba 86a9 85bb 2bdf 85bb
000001b0: ff46 0bba 61de 62ba 34cd 7fbb 0b65 81bb
000001c0: 4f5d c639 a5ad da39 a7db 4e3a 5273 903a
000001d0: cdc2 97ba 8bb6 dfba bdc4 59bb d6e5 91bb
000001e0: 1032 713a 10fa 883a b869 453a 3f24 b53a
000001f0: 4876 a339 01e0 013a f241 c93a f504 f53a
00000200: ab72 24ba 12df 4cba 76be 7cba 5ed8 caba
00000210: b442 cab9 7d98 94b9 4f53 313a 404b 51b7
00000220: a1c4 d03a 04e2 f53a 41d8 d23a 4d82 2c3b
00000230: 58f3 723a db08 ca3a 487e d33b 8c24 b93b
00000240: b6a2 3cba 4623 90ba 5a1f 8cbb 21c3 8abb
00000250: 19c6 85ba c555 b9ba c1b8 89bb 956d b3bb
00000260: 8753 cf38 c4c3 c739 d712 aa3a fa67 8d3a
00000270: 0761 fcb9 5f7c dcb9 e32f 5c39 2642 d7b9
00000280: e130 afb9 6714 84b9 921d ce39 79cc 01b9
00000290: b73b b33a 2343 103b 475a 083c 5690 fa3b
000002a0: c9f1 ba39 70df 2739 fdda f2b8 b54d 9d39
000002b0: cea6 8739 d197 0a3a f5f5 0d3b 50f0 043b
000002c0: 241d b839 40c8 2c3a 5d50 303b 6fb0 213b
000002d0: 0a88 41b9 eadf e5b9 7e53 eeba 3523 aaba
000002e0: 4b54 1f39 ff17 6a3a 43ff 493b 492d 543b
000002f0: a46e 5c3a 71fe 623a ac1f 9b39 a799 a23a
00000300: b7ae adb9 c41b 11ba d601 a0ba 3a5d 4aba
00000310: 1633 b0b7 ee2a 09b9 16de 36ba 6faa 30ba
00000320: 0594 85b8 a528 ca38 cebe ba39 09a1 9f39
00000330: 9e70 55b9 fc41 52b9 0251 bb37 5018 fbb8
00000340: 3ccf 8039 2e8d 8d39 f5cf ef39 2fcb 3d3a
00000350: 4ee7 0c3a 50ab 193a 4687 a939 40b1 6a3a
00000360: 1426 7eb9 586c 1fb8 f176 4a3a d818 8c39
00000370: d585 a63a fe18 cb3a 6e12 273b f01f 513b
00000380: 7b96 473a 3a1d 8c3a b048 053b 3190 1b3b
00000390: 4939 c5ba 8b6e ddba bb35 17bb 494f 60bb
000003a0: c3b1 dcb9 8322 beb9 96bb 2139 aeec fdb9
000003b0: e2b8 3938 d8e0 22ba 7e10 a2bb 633c 50bb
000003c0: d62e 0dba b9e5 9dba 9bfc e4bb bf10 b5bb
000003d0: 8733 c23a 34f4 ef3a 96c8 803b 6364 923b
000003e0: a312 9539 3cbe ae38 60ce 6c38 ab08 023a
000003f0: e262 953a 32a6 d53a 5ee3 833b a8ba 953b

exp_avg_sq f4 [64, 4]
1.1620185e-06 9.989214e-06 8.451815e-07 1.3526488e-05 1.1401279e-05 9.628852e-05 4.439826e-05 0.0002593829
7.0409277e-07 5.2112377e-06 3.518056e-06 1.1546285e-05 7.128327e-05 0.00058414927 5.570375e-05 0.0012164558
2.4790497e-06 1.8566938e-05 9.7590055e-06 3.431119e-05 3.0106945e-05 0.0002528772 6.588773e-05 0.0005171832
7.5295566e-06 6.1009683e-05 1.4978991e-05 0.00011945558 2.3409623e-07 8.9864704e-07 3.84607e-06 1.6493881e-05
4.2487673e-06 3.1736825e-05 7.4637187e-06 6.6481276e-05 2.0022699e-06 1.5616713e-05 8.763459e-06 3.4208497e-05
2.3877433e-06 1.8791816e-05 2.2310735e-06 2.9370905e-05 6.792393e-05 0.0005495583 0.00024362882 0.0015822373
2.3115783e-06 1.973596e-05 2.2784929e-05 6.285131e-05 8.910922e-07 6.7940096e-06 2.3956472e-06 1.4831225e-05
4.292468e-06 3.509874e-05 1.7096754e-06 4.8940037e-05 9.898432e-07 7.801376e-06 2.1509434e-06 1.2404995e-05
2.473291e-07 5.128215e-07 1.4020102e-06 3.4133745e-06 6.922803e-07 4.6688456e-06 9.732832e-06 2.9571826e-05
6.0761204e-06 5.0566206e-05 2.2599106e-06 8.09188e-05 2.0234565e-05 0.000166973 4.3447253e-06 0.00025027213
1.1410279e-05 9.298395e-05 1.49988655e-05 0.00020585301 9.87192e-07 8.249538e-06 1.4387315e-06 1.585037e-05
1.1110152e-05 8.577215e-05 7.0866314e-05 0.0003625863 4.445496e-06 3.36769e-05 2.7047141e-05 6.308552e-05
5.4040975e-05 0.00042801476 0.00019904172 0.0010628678 1.5744303e-05 0.00013190722 8.357807e-05 0.00039553441
3.1999538e-05 0.0002601865 0.00014341342 0.00065846567 2.5331747e-05 0.0002067426 0.00013681759 0.00055830344
3.7435623e-06 3.112123e-05 3.907741e-06 5.4699958e-05 4.709177e-05 0.00038351162 6.388692e-05 0.000720319
1.5930817e-05 0.00012941225 3.9046786e-06 0.00020485933 6.1639917e-06 4.9046128e-05 2.5825766e-05 9.9264515e-05
9.218258e-06 7.579376e-05 4.764791e-06 0.00012925208 9.666343e-07 7.530847e-06 3.6441957e-06 1.2899078e-05
4.98073e-05 0.000411332 1.631201e-05 0.00070274976 6.578198e-05 0.0005409809 0.00031591207 0.0016600841
3.6186204e-05 0.00029730357 0.00014893376 0.0007056239 4.722937e-05 0.00038760973 0.00018112747 0.00084873446
2.3076411e-06 1.5583775e-05 8.989039e-06 6.233274e-05 2.7428391e-06 2.2851033e-05 1.7660836e-06 3.0809006e-05
9.055096e-07 7.1276713e-06 1.9139713e-06 1.1367885e-05 0.00012292295 0.0010131067 0.0005045075 0.0028828192
1.0019356e-06 8.526786e-06 1.6363483e-06 1.3233856e-05 6.496248e-06 5.320411e-05 2.9293971e-05 0.00019704542
1.1120815e-05 8.9168054e-05 4.920887e-05 0.00027524648 4.4518006e-06 3.5492903e-05 2.101522e-05 0.00013832393
1.4158059e-05 0.00010126367 3.950162e-05 0.00021552823 1.1446179e-05 9.310513e-05 2.0825294e-06 0.00013005121
4.274874e-06 3.471288e-05 8.7332055e-06 0.000118383105 6.7345394e-07 5.311286e-06 1.4180649e-06 1.0503358e-05
2.1260746e-07 1.1308764e-06 2.8169572e-07 2.376218e-06 4.4785767e-07 3.3946499e-06 2.1463698e-07 4.5319634e-06
1.3773544e-06 1.1519371e-05 1.508588e-06 2.131316e-05 4.8524935e-06 4.0363968e-05 1.255381e-06 6.291611e-05
2.6534067e-07 3.6764726e-07 2.4400877e-06 2.382268e-06 3.777149e-05 0.0003123839 3.9095765e-05 0.000676189
1.8749593e-05 0.00015614466 2.4450264e-05 0.00033817758 4.8207654e-05 0.00040682932 4.1456544e-05 0.00079659047
2.105279e-06 1.6926488e-05 2.000779e-06 2.3642853e-05 1.8904704e-05 0.0001432224 0.0001605978 0.00060169876
5.2028143e-05 0.00042295968 0.0003418148 0.0014931515 6.167131e-05 0.0005204501 0.00011876476 0.001303695
6.1163144e-07 5.154509e-06 3.5069518e-06 1.12433e-05 4.8111957e-05 0.00039444756 0.000112959606 0.0009933179
00000000: a7f6 9b35 5997 2737 6ee0 6235 d3ef 6237
00000010: 1f48 3f37 81ee c938 4538 3a38 c9fd 8739
00000020: e300 3d35 31dc ae36 be17 6c36 ebb6 4137
00000030: ea7d 9538 9821 193a 72a3 6938 7c71 9f3a
00000040: c05d 2636 32c0 9b37 9cba 2337 5ce9 0f38
00000050: 2c8e fc37 9a94 8439 352d 8a38 9493 073a
00000060: 66a6 fc36 a6e4 7f38 474e 7b37 3a84 fa38
00000070: e25b 7b34 8e3a 7135 7d0d 8136 575c 8a37
00000080: a290 8e36 281d 0538 db70 fa36 dd6b 8b38
00000090: bc5e 0636 a300 8337 c506 1337 187b 0f38
000000a0: 1e3d 2036 1ea3 9d37 8db9 1536 8a61 f637
000000b0: 6272 8e38 3c10 103a 9d76 7f39 1363 cf3a
000000c0: 9d20 1b36 a78e a537 4322 bf37 0acf 8338
000000d0: 6433 6f35 19f8 e336 e8c4 2036 a0d3 7837
000000e0: 0508 9036 fc36 1338 0078 e535 f744 4d38
000000f0: c1da 8435 a8e2 0237 ed58 1036 0c1f 5037
00000100: a7c8 8434 d3a8 0935 b42c bc35 5411 6536
00000110: 24d5 3935 14a9 9c36 324a 2337 0311 f837
00000120: 7ae1 cb36 0d17 5438 f8a8 1736 f3b2 a938
00000130: 66bd a937 7915 2f39 e8c8 9136 f536 8339
00000140: c66e 3f37 6100 c338 a3a3 7b37 3fda 5739
00000150: a97f 8435 7f67 0a37 701a c135 69f6 8437
00000160: bd65 3a37 93e0 b338 109e 9438 8219 be39
00000170: 852a 9536 4c40 0d38 4be3 e237 c84c 8438
00000180: 0eaa 6238 2b67 e039 dbb5 5039 ed4f 8b3a
00000190: a212 8437 9350 0a39 a246 af38 bb5f cf39
000001a0: 3e37 0638 a469 8839 3f61 1639 e29c 2c3a
000001b0: 837f d437 0bc9 5839 b176 0f39 1c5b 123a
000001c0: e939 7b36 2b88 0238 3d1f 8336 a26d 6538
000001d0: 6784 4538 0f12 c939 07fb 8538 cad3 3c3a
000001e0: 2ba3 8537 d6b2 0739 ef04 8336 82cf 5639
000001f0: 49d4 ce36 e1b6 4d38 69a4 d837 3b2c d038
00000200: 1ea8 1a37 77f3 9e38 3ee1 9f36 d787 0739
00000210: 4dbd 8135 7cb1 fc36 ce8e 7436 1e69 5837
00000220: 2ee8 5038 0ca8 d739 c6d5 8837 bd38 383a
00000230: 6ef4 8938 9dd0 0d3a 00a1 a539 2e97 d93a
00000240: a4c6 1738 69df 9b39 1a2b 1c39 9ef9 383a
00000250: 2618 4638 1938 cb39 09ed 3d39 9b7d 5e3a
00000260: f9dc 1a36 e7b9 8237 a1cf 1637 a3b8 8238
00000270: 9e11 3836 38b0 bf37 2c0a ed35 eb38 0138
00000280: 2512 7335 3b2a ef36 c771 0036 b2b8 3e37
00000290: e1e4 0039 38ca 843a ed40 043a aeed 3c3b
000002a0: 3f7a 8635 440e 0f37 80a0 db35 fb06 5e37
000002b0: 58fa d936 7a27 5f38 53bc f537 fa9d 4e39
000002c0: 8993 3a37 bcff ba38 9f65 4e38 f54e 9039
000002d0: ad60 9536 37de 1438 d749 b037 0c0b 1139
000002e0: 6688 6d37 855d d438 8bae 2538 6bff 6139
000002f0: f708 4037 7041 c338 95c1 0b36 5b5e 0839
00000300: e370 8f36 ac98 1138 d584 1237 7244 f838
00000310: 67c7 3435 9937 b236 5754 be35 9437 3037
00000320: 1849 6434 9ec8 9735 f73b 9734 1d77 1f36
00000330: 1771 f034 a4cf 6336 f776 6634 4511 9836
00000340: 89dd b835 5243 4137 b07a ca35 aac9 b237
00000350: 9ad2 a236 7b4c 2938 907e a835 d4f1 8338
00000360: 2574 8e34 0e61 c534 63c0 2336 0ddf 1f36
00000370: d46c 1e38 75c7 a339 c2fa 2338 4742 313a
00000380: 7248 9d37 c3ba 2339 8b1a cd37 6d4d b139
00000390: 9332 4a38 b54b d539 a0e1 2d38 48d2 503a
000003a0: 6b48 0d36 5bfd 8d37 1f45 0636 a454 c637
000003b0: 8b95 9e37 f82d 1639 2566 2839 52bb 1d3a
000003c0: cb38 5a38 b0c0 dd39 9b35 b339 dab5 c33a
000003d0: 8855 8138 d16e 083a 5811 f938 bfe0 aa3a
000003e0: fe2e 2435 e5f4 ac36 f958 6b36 9ba1 3c37
000003f0: d2cb 4938 dbcd ce39 bae4 ec38 3832 823a

exp_avg f4 [64]
0.0028782133 0.012510582 -0.0012785409 0.03248225 -0.0068789637 0.020260127 -0.010296838 -0.0013477186
-0.009134201 -0.0032388323 0.005893797 0.0324836 0.0056978636 0.0033683905 0.0069733798 -0.0032595636
0.00094979786 0.003528379 0.008948391 -0.015386775 0.012578353 0.002652609 0.013442728 -0.0043620113
0.029198052 0.015934035 0.022130396 0.019699574 -0.0069371425 0.026993241 -0.014066832 -0.009693492
0.011226141 0.0016293584 -0.025678413 -0.03199372 0.024065852 0.025951194 -0.0064200237 0.004467278
0.0020235556 -0.04338133 -0.0031458333 -0.010484794 -0.013225781 0.0089953 -0.015590875 -0.011001657
0.008805309 0.0031747273 -0.001379909 0.002199329 -0.0043455358 -0.0075444533 -0.0009638206 -0.023545098
-0.016561968 0.025229165 0.0033810711 0.01790079 0.029105933 -0.029720195 -0.0019646573 -0.02665832
00000000: 68a0 3c3b 2ff9 4c3c b794 a7ba 1c0c 053d
00000010: ee68 e1bb 91f8 a53c 12b4 28bc efa5 b0ba
00000020: 9ea7 15bc 9742 54bb c120 c13b 860d 053d
00000030: 25b5 ba3b 37c0 5c3b f380 e43b 679e 55bb
00000040: dbfb 783a 603c 673b 469c 123c d018 7cbc
00000050: 7015 4e3c 65d7 2d3b e33e 5c3c 34ef 8ebb
00000060: c130 ef3c 1888 823c ce4a b53c 0061 a13c
00000070: f850 e3bb ee20 dd3c 9278 66bc 74d1 1ebc
00000080: d9ed 373c 3290 d53a 895b d2bc d90b 03bd
00000090: c025 c53c 9997 d43c 105f d2bb 3e62 923b
000000a0: a19d 043b 9fb0 31bd 532a 4ebb 6ac8 2bbc
000000b0: f2b0 58bc 0661 133c df70 7fbc 4b40 34bc
000000c0: 2544 103c 160f 503b 10de b4ba 9e22 103b
000000d0: ff64 8ebb 7637 f7bb e8a8 7cba a6e1 c0bc
000000e0: f7ac 87bc 65ad ce3c f694 5d3b ada4 923c
000000f0: 916f ee3c c477 f3bc 7bc1 00bb 8d62 dabc
