training_results/cartpole/ppo_test1/seed_42/3000000steps/model_latest.pt (torch, 151515 bytes, 30 tensors)

actor.pi_net.fcs.0.weight f4 [64, 4]
0	0xbea12256	-0.3147151
1	0x3f26eef5	0.6520837
2	0x3f2a8c1f	0.6662006
3	0x3f7bdc93	0.98383445
4	0xbee261bf	-0.442152
5	0xbe27c5a4	-0.16383988
6	0xbe98264c	-0.29716718
7	0xbf951569	-1.1647159
8	0x3e9b1ae6	0.3029396
9	0xbf22124f	-0.63309187
10	0xbf2f9198	-0.68581533
11	0xbf31f4ed	-0.6951435
12	0xbd8fd708	-0.07023436
13	0xbe10b528	-0.14131606
14	0x3f1ee841	0.6207314
15	0x3e93ca40	0.28865242
16	0x3ead3871	0.33832124
17	0x3ed5fe12	0.41795403
18	0xbc2d0c08	-0.0105619505
19	0x3ea6a6ad	0.3254904
20	0xbeb2aeee	-0.34899086
21	0xbe92cea7	-0.28673288
22	0x3ec12677	0.3772466
23	0x3f82a3cd	1.0206238
24	0x3ea743af	0.32668826
25	0x3f0df0e6	0.55445707
26	0xbd6f3fc9	-0.05841044
27	0xbe81d5fd	-0.25358573
28	0xbdd6669d	-0.10468791
29	0x3edb52b1	0.42836526
30	0x3d7ceefa	0.061751343
31	0x3eb6075f	0.355525
32	0x3eb4c081	0.3530312
33	0x3df1df9c	0.11810228
34	0xbf382b00	-0.7194061
35	0xbf8e1e2c	-1.1102958
36	0x3e063a79	0.13108243
37	0xbeae72c0	-0.34071922
38	0xbea22140	-0.31665993
39	0x3dc01984	0.09379867
40	0xbd9e52a6	-0.07730608
41	0xbef91b11	-0.48653463
42	0x3d00b396	0.031421266
43	0xbf18bfdb	-0.5966775
44	0xbee577ef	-0.44818065
45	0xbeba6b63	-0.36410055
46	0x3c45c053	0.012069779
47	0x3e0da6cf	0.13833164
48	0xbeed3ffc	-0.4633788
49	0xbd5390bc	-0.0516517
50	0xbf04df8f	-0.51903623
51	0xbebfaf54	-0.37438452
52	0x3e07eef1	0.13274743
53	0x3eb8bdf7	0.36082432
54	0x3c3dd49b	0.011586334
55	0x3f689bcc	0.9086273
56	0xbe34f29b	-0.17670672
57	0x3e8182c7	0.25295088
58	0x3f41801a	0.7558609
59	0x3f9797ef	1.1843241
60	0x3e559278	0.20856655
61	0xbdd76365	-0.10517005
62	0xbef3ac7c	-0.47592533
63	0xbf11d3f8	-0.56964064
64	0x3ecf7916	0.4052207
65	0x3c8d2d02	0.017233375
66	0xbb5c9cda	-0.0033662827
67	0x3ee87736	0.4540345
68	0xbd72852c	-0.059209034
69	0x3e8a54e6	0.27017897
70	0xbefd007e	-0.49414438
71	0x3e8ef4a6	0.27921027
72	0xbeadc3fc	-0.33938587
73	0x3ea4a0ab	0.3215383
74	0x3f420489	0.7578817
75	0x3f8b2a19	1.0872222
76	0xbdb95e6a	-0.09051211
77	0xbe8607da	-0.26177865
78	0xbf230543	-0.63679904
79	0xbf074c61	-0.5285092
80	0xbefd74bc	-0.49503124
81	0x3e8c3704	0.27385724
82	0x3edb4850	0.42828608
83	0x3f752c63	0.95770854
84	0xbe3167e2	-0.17324784
85	0x3d8ed73e	0.06974648
86	0xbe6bf347	-0.23042022
87	0xbf3e0483	-0.74225634
88	0xbee89a3b	-0.45430169
89	0xbeb8c6c5	-0.3608915
90	0xbf0a4d3f	-0.5402412
91	0xbdf5f4dc	-0.12009594
92	0x3e42b807	0.19015513
93	0xbf38d83b	-0.7220494
94	0xbf02fbf8	-0.51165724
95	0xbdc64cac	-0.09682593
96	0xbece256e	-0.40262932
97	0xbc445d9f	-0.011985212
98	0xbd54f9d2	-0.05199606
99	0x3f3e2efc	0.7429044
100	0xbedacac6	-0.4273283
101	0xbeb4c3c6	-0.35305613
102	0xbf6c138f	-0.92217344
103	0xbf4f23de	-0.80914104
104	0xbf0cd1ee	-0.5500783
105	0xbf1da909	-0.6158605
106	0x3e560267	0.20899354
107	0x3d32d190	0.043656886
108	0xbe3a44f8	-0.18190372
109	0xbea03770	-0.31292295
110	0xbf4c4246	-0.79788625
111	0xbf959079	-1.1684715
112	0x3f1cd4d4	0.6126225
113	0xbc272760	-0.010202259
114	0x3e9f48de	0.3111028
115	0xbe25a53b	-0.16176312
116	0xbf034d26	-0.51289594
117	0x3e216ec1	0.15764906
118	0x3f0b8eab	0.5451457
119	0x3f941527	1.1568955
120	0x3eaa2d4f	0.33237693
121	0x3ec52d4b	0.38511118
122	0xbe89ca73	-0.2691227
123	0x3ea85fc2	0.32885557
124	0x3e8461ee	0.25855964
125	0x3f1d07ab	0.61339825
126	0xbf0d94a0	-0.5530491
127	0xbca587c1	-0.020206334
128	0xbe280ceb	-0.16411178
129	0xbd889620	-0.06669259
130	0x3f4c1742	0.7972299
131	0x3f2f2de3	0.6842939
132	0xbeb1909f	-0.3468065
133	0x3f2e182a	0.6800562
134	0x3f0f79f3	0.56045455
135	0x3dbf8db6	0.09353201
136	0x3eade106	0.33960742
137	0xbe96333d	-0.29335967
138	0xbf2d9a41	-0.678135
139	0xbf1882af	-0.5957441
140	0x3f1990a0	0.59986305
141	0x3ebb97c4	0.36639225
142	0x3edb43ea	0.42825252
143	0x3e720c3f	0.23637484
144	0xbecfadd3	-0.40562305
145	0xbf1169c8	-0.56802034
146	0xbea15b8c	-0.31515157
147	0xbed0bf23	-0.40770826
148	0xbf399d39	-0.7250553
149	0xbf24abdf	-0.64324754
150	0x3f04a079	0.5180736
151	0x3de7951f	0.113077395
152	0x3e248bd7	0.1606897
153	0x3de27525	0.110575
154	0xbee3cebd	-0.44493666
155	0xbf6daf91	-0.9284602
156	0xbecfd5c8	-0.4059279
157	0x3ece6ccd	0.40317383
158	0x3f8e5fbe	1.1122968
159	0x3f8feb27	1.1243638
160	0x3e040b7f	0.1289501
161	0x3eac708b	0.33679613
162	0x3ec9690f	0.39337966
163	0x3e8c35d0	0.27384806
164	0x3f346d96	0.70479715
165	0x3e9d461b	0.3071755
166	0x3f0517fa	0.5198971
167	0x3dc86c40	0.09786272
168	0x3f1e476b	0.61827725
169	0xbc49fb71	-0.012328015
170	0x3deecd30	0.1166023
171	0x3ea34c36	0.31894082
172	0x3e8c9e4a	0.27464515
173	0x3ee7f0ab	0.45300803
174	0xbe98e809	-0.2986453
175	0x3ee46593	0.44608745
176	0x3e7e6a32	0.24845198
177	0x3f1b1696	0.6058134
178	0xbd2708d2	-0.040779896
179	0x3ec04c9b	0.37558445
180	0xbd8a0b7e	-0.06740473
181	0x3da6b699	0.081402965
182	0x3f597c3d	0.849552
183	0x3e269a5e	0.16269824
184	0x3e4ac196	0.1980041
185	0x3e85343c	0.26016414
186	0xbe790eb8	-0.24322021
187	0xbf87f5fe	-1.0621946
188	0x3e8517c7	0.25994703
189	0xbe8c1cf1	-0.2736583
190	0xbf82a5ae	-1.0206811
191	0xbf9337dd	-1.1501423
192	0xbe2bf2ce	-0.16791841
193	0x3e2c3457	0.16816841
194	0x3f237c8b	0.6386191
195	0x3e105d9f	0.14098214
196	0xbee91bf6	-0.45529145
197	0x3f175b95	0.5912412
198	0x3de43dab	0.11144575
199	0x3f53f7d2	0.8280002
200	0xbec1a563	-0.37821493
201	0xbea3c3da	-0.3198536
202	0xbefeee4c	-0.4979118
203	0xbea6ad28	-0.32553983
204	0xbe87e40f	-0.26541182
205	0xbd528193	-0.051393103
206	0x3f6ee21b	0.9331376
207	0x3f8a77b4	1.081778
208	0x3d73675d	0.059424747
209	0x3eccb1d4	0.39979422
210	0xbee05ec7	-0.4382231
211	0x3d7d2720	0.06180489
212	0xbd3bede4	-0.045881167
213	0xbe8a3015	-0.2698981
214	0xbf746515	-0.9546674
215	0xbf3a8d5d	-0.72871953
216	0xbe8feeec	-0.2811197
217	0x3f14c0e6	0.5810684
218	0xbef237a2	-0.4730807
219	0xbe5b12f4	-0.21393949
220	0x3e9e689a	0.3093918
221	0x3f061825	0.5238059
222	0x3d8036fa	0.06260486
223	0x3e9cf7ad	0.30657712
224	0x3ecb2c8f	0.39682433
225	0x3e93a99f	0.28840348
226	0xbf0715b7	-0.5276751
227	0xbedf876e	-0.43658012
228	0xbeec6970	-0.46174192
229	0x3e9b1bde	0.30294698
230	0x3c8b31b3	0.016991472
231	0xbe3bfe81	-0.18358804
232	0xbe8f4d5f	-0.27988717
233	0x3f10a30e	0.564988
234	0x3f931891	1.1491872
235	0x3f8d1067	1.1020631
236	0xbdb3217e	-0.087466225
237	0xbf0f6d49	-0.5602613
238	0xbf05de99	-0.5229278
239	0xbeb3a6ec	-0.3508829
240	0xbf1855e0	-0.59506035
241	0xbf0768b2	-0.5289413
242	0xbe8c7c9a	-0.27438813
243	0xbee5b571	-0.4486499
244	0x3ee4fe14	0.44725096
245	0x3e88fc45	0.26754966
246	0x3e8cf40b	0.2752994
247	0x3ee2c03c	0.44287288
248	0x3e946fa4	0.28991425
249	0xbe2500b4	-0.1611355
250	0x3f7f8ac1	0.99821097
251	0x3faadbe2	1.3348353
252	0x3f2a8813	0.6661388
253	0x3f1004c0	0.5625725
254	0xbeb9d022	-0.36291605
255	0xbc887694	-0.016658105

actor.pi_net.fcs.0.bias f4 [64]
0	0x3e924679	0.2856939
1	0x3c8c328e	0.01711395
2	0x3e869899	0.26288298
3	0x3ce8463d	0.028353805
4	0x3e36c01e	0.17846724
5	0xbe9e2ac2	-0.30891997
6	0x3e23baa4	0.15989166
7	0xbb54d075	-0.0032472883
8	0xbe1fa2f0	-0.155895
9	0xbc652104	-0.013984922
10	0x3d312c4b	0.04325513
11	0xbe2f17b2	-0.17098883
12	0xbd4936f0	-0.049124658
13	0xbec2ed40	-0.38071632
14	0x3e228844	0.15872294
15	0xbe02cb91	-0.12772967
16	0x3d4bf2dd	0.04979216
17	0x3c7cbb9b	0.015425588
18	0xbebdc463	-0.37063894
19	0x3cb0b8a7	0.021572424
20	0xbe8ed6d3	-0.27898273
21	0xbe8bc129	-0.27295807
22	0xbd084274	-0.0332665
23	0xbd1d64f5	-0.03842636
24	0x3b748ad1	0.0037314186
25	0x3e0dd0e9	0.13849224
26	0xbea54c47	-0.32284757
27	0x3cd7f7c7	0.026363267
28	0x3e019ef5	0.12658294
29	0xbd5dd7c3	-0.054160845
30	0x3dccee11	0.10006345
31	0x3e592dae	0.21208832
32	0xbe4e4bba	-0.20146075
33	0xbd310c7f	-0.043224808
34	0xbce59d6b	-0.028029164
35	0x3d8cd6d0	0.0687691
36	0xbe1605fc	-0.1465072
37	0xbe4e76b4	-0.20162469
38	0xbec2bfbe	-0.38036913
39	0x3e419007	0.18902598
40	0x3e1ad9c6	0.15122136
41	0x3e1668ed	0.14688464
42	0x3d9e2c21	0.07723261
43	0x3c8afd54	0.0169665
44	0xbd32120e	-0.04347425
45	0x3e1db604	0.15401465
46	0xbd8cfff8	-0.0688476
47	0x3de83bdd	0.11339543
48	0x3e365cde	0.17808864
49	0xbeb10b37	-0.3457887
50	0x3ebc9b8d	0.36837426
51	0x3ea77fe0	0.32714748
52	0x3e2e0ef9	0.16997899
53	0x3e62935e	0.22126529
54	0x3d06ea73	0.032938432
55	0x3d6ea5f2	0.058263727
56	0x3e9e7db3	0.30955276
57	0xbca8994b	-0.020580908
58	0xbe47003b	-0.19433682
59	0xbcb2821a	-0.021790553
60	0xbbcaca7a	-0.006188688
61	0x3d2034c1	0.03911281
62	0xbdc4ac6f	-0.096032016
63	0x3e2a1321	0.1660886

actor.pi_net.fcs.1.weight f4 [64, 64]
0	0x3d4ae1fa	0.049531914
1	0x3dece9b7	0.11568015
2	0xbd841044	-0.06448415
3	0xbd7a0aac	-0.061045334
4	0xbdf02475	-0.117257036
5	0x3dc0e9c5	0.09419588
6	0x3d7847c2	0.06061531
7	0xbc9c1614	-0.019053496
8	0xbd5f1caa	-0.054470696
9	0x3d3381f1	0.043825094
10	0x3d9d0b0d	0.076681234
11	0x3e01e225	0.12683924
12	0x3e43c7f3	0.19119243
13	0x3cfd4ecf	0.030921368
14	0x3de52281	0.11188222
15	0x3d5898c8	0.05288008
16	0xbe388754	-0.18020374
17	0xbdb6917c	-0.08914468
18	0x3d8e504a	0.06948908
19	0x3d0479d0	0.032342732
20	0x3bd9d9bc	0.0066482704
21	0x3e0257c3	0.12728791
22	0xbcc9d106	-0.024635803
23	0x3b96cf3a	0.00460234
24	0xbc201c4d	-0.009772372
25	0xbcf4bb39	-0.029874431
26	0x3df270cc	0.118379205
27	0xbe0f0443	-0.1396647
28	0x3d39d769	0.045371447
29	0x3d4024ab	0.04690997
30	0x3bdcbf3a	0.006736663
31	0xbded1c21	-0.11577631
32	0xbde9f29c	-0.11423227
33	0x3cf1324f	0.029442934
34	0x3d7ef812	0.062248297
35	0xbdc1735b	-0.094458304
36	0x3d935bfa	0.071952775
37	0xbd60b1f7	-0.05485722
38	0x3de67407	0.11252599
39	0x3cd12414	0.025529899
40	0xbdc093ad	-0.09403167
41	0xbdd651a0	-0.104647875
42	0x3cfcf90a	0.03088047
43	0xbe257bc4	-0.16160494
44	0xbd7adae7	-0.061243918
45	0xbd8ed251	-0.069737084
46	0x3cd9328c	0.02651336
47	0xbe1a6d1d	-0.15080686
48	0xbdecf6d4	-0.11570516
49	0xbd8580c8	-0.06518704
50	0x3d381115	0.044938166
51	0xbc0eb088	-0.0087090805
52	0xbcf735c3	-0.030177003
53	0xbce75d80	-0.028242826
54	0xbd1e4573	-0.03864045
55	0xbe1d1e12	-0.15343502
56	0x3dcc1ec6	0.09966807
57	0x3c66d3e1	0.014088602
58	0x3d172c44	0.03690745
59	0x3d183b6e	0.03716605
60	0xbc48da23	-0.012259039
61	0xbe80f42b	-0.25186285
62	0x3dc88e62	0.09792782
63	0xbdfe7172	-0.12423982
64	0x3dab1615	0.08353821
65	0xbd354b96	-0.044261537
66	0x3d1f957c	0.03896092
67	0xbe18452f	-0.14870141
68	0xbdc83c89	-0.09777171
69	0xbdb5e432	-0.088814154
70	0x3d5d989c	0.054100618
71	0x3d3ee14d	0.046601582
72	0xbd24cf77	-0.040236916
73	0xbd04d232	-0.03242702
74	0x3c2fb37a	0.010723943
75	0xbd3b9d71	-0.045804445
76	0x3cdb4704	0.026767261
77	0x3db77c61	0.0895927
78	0x3d221feb	0.03958122
79	0xbd87bb2a	-0.066274956
80	0x3cc9a8cb	0.02461662
81	0x3c8e2943	0.01735366
82	0x3de0bd6f	0.109736316
83	0x3d8aecf2	0.06783475
84	0x3dd02ce4	0.10164812
85	0xbc948cd9	-0.018133568
86	0x3b1f908c	0.0024347631
87	0xbc554e53	-0.013019162
88	0xbe450ad8	-0.19242418
89	0xbd224b5c	-0.03962265
90	0xbd753158	-0.05986151
91	0xbdb8552b	-0.090006195
92	0x3dafce30	0.08584249
93	0xbcb8cb74	-0.022557952
94	0x3b6fa7a3	0.0036568425
95	0xbc88595e	-0.016644176
96	0xbd95f884	-0.07322791
97	0x3d889685	0.06669334
98	0x3dd16a8e	0.10225402
99	0x3d68278c	0.05667834
100	0x3d38c51e	0.04510986
101	0xbd61c7c8	-0.055122167
102	0x3bb24f82	0.005441607
103	0x3dc5c8b5	0.096574225
104	0x3d9179d3	0.07103314
105	0xbe1b4301	-0.15162279
106	0x3cb395d4	0.02192203
107	0xbc1b7102	-0.009487392
108	0x3dd63e6c	0.10461125
109	0xbd7dc675	-0.06195684
110	0x3c452133	0.012031841
111	0xbdb4d362	-0.088293806
112	0xbd6fe143	-0.058564436
113	0xbdd673e4	-0.10471323
114	0xbc9b759b	-0.018976977
115	0xbc7db206	-0.015484339
116	0xbd107460	-0.035267234
117	0x3d76dfcc	0.060272023
118	0xbdc9fd50	-0.09862769
119	0xbda9411b	-0.08264371
120	0xbd1cc41a	-0.038272955
121	0x3b5e6842	0.0033936654
122	0x3d29be37	0.04144117
123	0x3e169a25	0.14707239
124	0x3e15c737	0.14626776
125	0xbd9af2e3	-0.07565858
126	0x3d0beee4	0.03416337
127	0xbc9f5f2d	-0.019454563
128	0x3dc67053	0.09689393
129	0x3d77c2b1	0.060488407
130	0xbc9b6263	-0.018967813
131	0x3db48ee7	0.08816319
132	0x3c7586dd	0.014985767
133	0xbc6a7044	-0.014308993
134	0x3dcec28c	0.100957006
135	0xbd1a06cc	-0.03760414
136	0x3de422ed	0.11139474
137	0x3dd7c816	0.1053621
138	0xbceb7b91	-0.028745444
139	0xbe09c98e	-0.13455793
140	0xbdac5761	-0.08415104
141	0x3d48c496	0.049015604
142	0x3d861275	0.06546489
143	0x3d7e215f	0.062043544
144	0x3cfc4602	0.030795101
145	0x3e06e359	0.13172664
146	0xbb5f8e0c	-0.0034111766
147	0xbdaf16d2	-0.085492745
148	0xbd56cea1	-0.05244315
149	0xbe1d0d8f	-0.15337203
150	0x3c9efa17	0.019406362
151	0xbc7c4990	-0.015398398
152	0xbca7178f	-0.020396976
153	0xbdb23254	-0.087010056
154	0xbd7cabc5	-0.06168725
155	0x3db1ffc5	0.08691362
156	0x3dbce21c	0.092228144
157	0xbc99b732	-0.018764112
158	0x3e474091	0.19458224
159	0x3d72aa0c	0.0592442
160	0xbdcf9d0f	-0.101373784
161	0xbd343615	-0.04399689
162	0xbde8da0c	-0.11369714
163	0x3c7bc2d5	0.015366276
164	0x3d912898	0.07087821
165	0xbdb228e6	-0.08699207
166	0x3d191edd	0.03738295
167	0x3cc63a92	0.02419785
168	0x3da10b0f	0.078634374
169	0x3e4201ff	0.18946074
170	0x3da5b370	0.080908656
171	0x3d99e1c2	0.07513763
172	0x3d8c12de	0.06839536
173	0x3ddbf456	0.10739963
174	0x3ce1e67c	0.027575724
175	0x3e5a377a	0.21310225
176	0x3d0648ea	0.03278438
177	0x3cf1a8f3	0.029499507
178	0xbe05ef3e	-0.13079545
179	0x3c61ef0d	0.013789904
180	0x3db4e3ff	0.08832549
181	0x3cd31aad	0.025769556
182	0x3d8d9335	0.06912843
183	0x3d8807df	0.06642126
184	0xbbee8b01	-0.007279754
185	0x3cb862ae	0.022507992
186	0xbdc600fd	-0.09668157
187	0xbe31d41f	-0.17366074
188	0xbe449b1c	-0.19199795
189	0x3dcd43ee	0.10022722
190	0xbde9d33f	-0.11417245
191	0xbcfacae2	-0.03061432
192	0xbd9843f2	-0.074348345
193	0x3e00a9c7	0.12564765
194	0xbd5e9681	-0.05434275
195	0xbd57a10c	-0.05264382
196	0x3cbac880	0.022800684
197	0xbdc01d45	-0.09380583
198	0xbd1148a3	-0.035469662
199	0xbde07e71	-0.10961617
200	0xbdb21f24	-0.08697346
201	0x3cba5057	0.022743387
202	0xbda466cb	-0.08027419
203	0xbe131627	-0.14363919
204	0xbdc4e7c3	-0.096145175
205	0xbce95665	-0.028483579
206	0xbdad5274	-0.08462992
207	0x3cca38b3	0.02468524
208	0x3e45b4a7	0.19307195
209	0xbd5cb6b8	-0.05388519
210	0xbe16d0b7	-0.14728056
211	0xbe31e0fd	-0.17370982
212	0x3d28e2e4	0.041232005
213	0x3d9a6e9f	0.075406305
214	0x3d1297fd	0.03578948
215	0xbe42207c	-0.18957704
216	0x3e0a7d9b	0.13524477
217	0xbdd66b57	-0.10469692
218	0xbe0dadb9	-0.13835801
219	0x3d421f5a	0.04739318
220	0x3d41205b	0.047149997
221	0xbdd88253	-0.10571732
222	0xbb9c75c7	-0.0047747823
223	0x3c5152f5	0.012776126
224	0x3b3279fc	0.0027233353
225	0x3cda33ee	0.02663609
226	0xbe05780b	-0.13034074
227	0x3e351375	0.17683204
228	0xbe38f007	-0.18060313
229	0xbe2fc02b	-0.1716315
230	0x3c9df9ec	0.019284211
231	0xbdc94acb	-0.09828719
232	0x3d0bfc46	0.034176134
233	0x3e1cda9d	0.1531777
234	0x3e109e59	0.14122905
235	0x3dfe7633	0.124248885
236	0x3c8afdf6	0.016966801
237	0x3cde9e31	0.02717504
238	0xbc00d959	-0.00786432
239	0x3e0551e6	0.13019523
240	0x3da2b5be	0.07944821
241	0xbca33b52	-0.019925747
242	0x3d3e88a2	0.046517022
243	0x3b008563	0.0019610755
244	0x3dfaec34	0.122520834
245	0xbc28355d	-0.010266629
246	0x3d9adea2	0.07561995
247	0x3e5282e1	0.20557739
248	0x3e0b9bee	0.13633701
249	0xbe002b8f	-0.12516616
250	0xbcd79f29	-0.02632101
251	0xbe4bc833	-0.19900589
252	0xbe3ea30b	-0.18616883
253	0x3e8442c6	0.25832194
254	0xbe7a83ce	-0.24464342
255	0x3e425f77	0.1898173

actor.pi_net.fcs.1.bias f4 [64]
0	0xbe15e1d1	-0.14636923
1	0x3c072188	0.008247741
2	0x3dd3a6a5	0.10334519
3	0x3e07e2f8	0.13270175
4	0x3d28f31d	0.041247476
5	0xbd1b5ffb	-0.03793333
6	0xbda6e8af	-0.081498496
7	0xbd215002	-0.039382942
8	0xbd7b65ef	-0.06137651
9	0xbdd559f3	-0.10417547
10	0x3da233b4	0.07920018
11	0xbc6693b7	-0.014073304
12	0x3cb183c8	0.021669284
13	0xbd65989c	-0.056053743
14	0xbd524d48	-0.051343232
15	0xbd98ec64	-0.07466963
16	0xbd44f89e	-0.048088662
17	0xbc6d93d0	-0.014500573
18	0xbd34bad4	-0.044123486
19	0x3c23e68f	0.0100037
20	0x3d8e6e24	0.069546014
21	0x3db39e01	0.08770371
22	0xbdce89d9	-0.10084886
23	0x3d852076	0.06500332
24	0x3d914828	0.07093841
25	0x3da4ec91	0.08052934
26	0xbd6de7c0	-0.058082342
27	0x3bc0b881	0.0058813696
28	0x3dd6db1f	0.10491013
29	0xbd52ff58	-0.051513046
30	0xbc35d0ba	-0.011097128
31	0xbd058f92	-0.032607622
32	0xbd6942c1	-0.056948427
33	0xbe11e687	-0.14248095
34	0x3d36fb7a	0.04467342
35	0x3d62452d	0.055241752
36	0x3de22d50	0.11043799
37	0x3c1e273b	0.009652908
38	0xbd5d485f	-0.054024097
39	0xbde9ace5	-0.1140993
40	0xbbf3346b	-0.00742202
41	0x3d91eede	0.071256384
42	0x3d28cb26	0.041209362
43	0x3d19b7ed	0.03752892
44	0x3de96e37	0.11397975
45	0xbd8e3538	-0.069437444
46	0xbdb3c487	-0.08777719
47	0x3d7d080a	0.061775245
48	0xbddce5ab	-0.10785993
49	0xbd9c7bc8	-0.07640797
50	0xbc13b37d	-0.009014961
51	0xbd48cfb5	-0.04902621
52	0x3d719760	0.058982253
53	0x3d138b97	0.036021795
54	0x3dc4eae8	0.09615117
55	0xbda05735	-0.078291334
56	0xbd56780d	-0.052360583
57	0x3da13dc6	0.078731105
58	0x3d9fc5f3	0.07801428
59	0x3ce08728	0.027408198
60	0xbd32d0ac	-0.043656036
61	0x3d9eae75	0.07748119
62	0x3d3c6e20	0.04600346
63	0xbca5101f	-0.020149289

actor.pi_net.fcs.2.weight f4 [1, 64]
0	0x3db11aeb	0.08647712
1	0x3a3b37b5	0.0007141785
2	0xbd38046f	-0.044926103
3	0xbdfba245	-0.1228681
4	0x3d000e29	0.031263504
5	0xbdaee0de	-0.08538984
6	0x3d887d1c	0.06664488
7	0x3a20d63f	0.0006135441
8	0x3e034f39	0.1282319
9	0x3df6359a	0.120219424
10	0xbbf11623	-0.007357375
11	0xba133854	-0.00056159985
12	0x3d4322cd	0.04764061
13	0xbebaa041	-0.3645039
14	0x3d55905f	0.052139636
15	0x3d993426	0.0748065
16	0xb9e00b90	-0.00042733224
17	0x3e22c813	0.15896635
18	0x3e00f46d	0.12593241
19	0x3b40629f	0.0029355658
20	0xb978afae	-0.00023716569
21	0xbde860d8	-0.113465965
22	0x3dd75f04	0.1051617
23	0x3e79a715	0.24380143
24	0xbd07dd0a	-0.033169784
25	0x3e8adbe8	0.271209
26	0x3c92a464	0.017900653
27	0xbe1d8b76	-0.15385231
28	0xbdb9e8ba	-0.09077592
29	0xbd08048b	-0.033207458
30	0xbda3ff78	-0.08007711
31	0xbd88df58	-0.066832244
32	0xbd67b7a1	-0.056571607
33	0x3d8f3f8a	0.06994541
34	0xbe090e94	-0.13384467
35	0x3ed10a87	0.40828344
36	0xbdcb1fc4	-0.09918168
37	0x3eb2bf9a	0.34911805
38	0x3d61b736	0.055106364
39	0x3d32d097	0.043655958
40	0x39c7e8a8	0.0003812958
41	0x3da6f55c	0.08152267
42	0xbd4b976c	-0.049704954
43	0x3ea1533c	0.31508815
44	0xbda33c76	-0.079705164
45	0x38fe055f	0.00012112664
46	0x393a3ee4	0.00017761771
47	0x3ea17e33	0.31541595
48	0xb9f9a53c	-0.0004761609
49	0xba3bcf1d	-0.0007164346
50	0x3da1e3a1	0.07904745
51	0xb9ec5a5d	-0.00045080754
52	0x3e09d981	0.13461877
53	0x3ec22cc9	0.37924793
54	0xbe905c5f	-0.28195474
55	0xbce2d5f9	-0.02768992
56	0xba49472b	-0.00076781464
57	0x3edd8aeb	0.43270048
58	0x3a7d0cb2	0.0009653076
59	0xbe4b2ba4	-0.19840866
60	0xba4931c4	-0.0007674957
61	0x3c3c7853	0.011503297
62	0x3e895cbe	0.2682857
63	0x3e32e1cc	0.17468947

critic.v_net.fcs.0.weight f4 [64, 4]
0	0xc0452bf0	-3.0808067
1	0xbfa89452	-1.3170264
2	0xbfd7e3f2	-1.6866438
3	0xbe8c2821	-0.27374366
4	0xbf074269	-0.5283571
5	0xbedabbc8	-0.4272139
6	0xbfcc7c3b	-1.5975412
7	0xbecc3bcc	-0.3988937
8	0x3fef75c8	1.8707819
9	0x3f09d2d3	0.5383732
10	0x4047c0f0	3.121151
11	0xbfc28b5f	-1.5198783
12	0xc00cd5af	-2.2005422
13	0x3eea660a	0.45780975
14	0xc0c94752	-6.289956
15	0xbe0b3171	-0.13593079
16	0x40a7d249	5.2444196
17	0x3f6167bd	0.8804892
18	0x408bc1d9	4.367413
19	0xbf513fad	-0.81737787
20	0xc0d6097e	-6.6886587
21	0xc0830909	-4.094853
22	0xc0dc240e	-6.879401
23	0xbfbd6c34	-1.4798646
24	0x3f91b93c	1.1384654
25	0x3f2739ac	0.65322375
26	0x408d5747	4.416904
27	0x40098b16	2.1491141
28	0x4091c52a	4.555318
29	0x3fe3ec39	1.7806464
30	0x40f86cfc	7.7633038
31	0x4001eaf1	2.0299647
32	0x407faf77	3.9950845
33	0x40ad7aac	5.4212246
34	0x41002736	8.009573
35	0xbecc75b5	-0.39933553
36	0x404ea508	3.2288227
37	0x3fd49bfd	1.6610104
38	0x40890a60	4.2825165
39	0x403bf07c	2.936553
40	0xbfec7a81	-1.8474885
41	0xc031e0fb	-2.7793567
42	0xc09ced94	-4.904001
43	0xbf095e9f	-0.53660005
44	0x403e2cce	2.9714847
45	0x3f2e4a04	0.6808169
46	0x4087b2db	4.240583
47	0x3fd08e3d	1.6293408
48	0xbf875df3	-1.0575546
49	0x3df7cc62	0.1209953
50	0xc0110b5a	-2.2663178
51	0x3f2df570	0.6795263
52	0x3fe71654	1.8053689
53	0x3f495ef6	0.78660524
54	0x40963542	4.694001
55	0x3fc151e7	1.510312
56	0x3fc748e0	1.5569115
57	0x3ffa4c2f	1.9554499
58	0x40b520de	5.660262
59	0x3ff01e4f	1.875925
60	0xc02ad887	-2.6694658
61	0xbff7fd19	-1.9374114
62	0xc0bd5491	-5.916573
63	0xc01baab2	-2.4322934
64	0xc04479f7	-3.0699441
65	0xc005485a	-2.082541
66	0xc0e3503c	-7.103544
67	0xc00fc18e	-2.2461886
68	0x403280f7	2.7891214
69	0x3d83bcd0	0.064324975
70	0xbf640f58	-0.8908591
71	0xbf54309c	-0.8288667
72	0xc10d3288	-8.824837
73	0xc0cafff1	-6.343743
74	0xc0c76a84	-6.2317524
75	0xbff80588	-1.9376688
76	0xc0435738	-3.0521984
77	0xc058a420	-3.3850174
78	0xc0cb88c0	-6.360443
79	0xc004247e	-2.0647273
80	0x404703fd	3.1096184
81	0x413a86be	11.657896
82	0x41666354	14.39925
83	0x3f6cd6dd	0.92515355
84	0xbfef9ace	-1.8719118
85	0xc005ec9f	-2.0925672
86	0xc0f1e319	-7.558972
87	0xbfad0f90	-1.3520374
88	0xc0690e25	-3.6414883
89	0xc0047299	-2.0694945
90	0xc0fb8c13	-7.860849
91	0xbee19db5	-0.44065633
92	0x3ffe7c66	1.9881713
93	0x40047637	2.0697153
94	0x410c4170	8.765976
95	0x3f8c8df1	1.0980817
96	0xc1227acc	-10.15498
97	0xc08a2f4f	-4.318275
98	0xc0ceee11	-6.466561
99	0xbfd461bb	-1.6592325
100	0x4067e725	3.623483
101	0x3fe476b6	1.7848728
102	0xc0889708	-4.2684364
103	0x3f37e594	0.71834683
104	0xc0c1a607	-6.051517
105	0xc04f4322	-3.2384725
106	0xc0dca791	-6.895455
107	0xc0009e4b	-2.0096614
108	0x3ec54ea4	0.3853656
109	0xbe9b8c21	-0.30380347
110	0xc03c96a6	-2.9466949
111	0xc06ab518	-3.667303
112	0xc104f891	-8.310685
113	0xbfd38604	-1.6525273
114	0x3fd95817	1.6980008
115	0xbfb37bfc	-1.4022212
116	0xc00cb13b	-2.1983173
117	0xbf8c4b81	-1.0960542
118	0xc115ed04	-9.370365
119	0xbf89fdb6	-1.0780551
120	0x3fd097f1	1.6296369
121	0x3e995088	0.29944253
122	0x40c1716a	6.0450945
123	0x3e918b4a	0.28426582
124	0xc12f52c4	-10.957706
125	0xc00e4c45	-2.2234051
126	0xbe9b9b70	-0.30392027
127	0x3f8d4ad8	1.1038465
128	0xc107dbba	-8.491144
129	0xc0a007f5	-5.0009713
130	0xc02db82a	-2.7143655
131	0x3f1cc093	0.61231345
132	0x40e5da4f	7.182899
133	0x401cfe2d	2.4530137
134	0x40a94e2e	5.2907934
135	0x3fc4acf7	1.5365285
136	0x40b75895	5.729563
137	0x3faeb221	1.3648111
138	0x40d4cd88	6.6500893
139	0x401f5c6a	2.4900155
140	0xbf6bc657	-0.9209952
141	0xbea684e4	-0.32523263
142	0xc0647ca0	-3.5701065
143	0xbf422673	-0.7583992
144	0x3f1c864c	0.6114242
145	0x3e3d42b3	0.18482475
146	0xc08e6697	-4.450023
147	0xc00d34b0	-2.2063408
148	0xc0186011	-2.3808634
149	0xc0177d3e	-2.3670192
150	0xc0d57ff5	-6.6718698
151	0xbfe48d59	-1.7855636
152	0x40caad34	6.333643
153	0x3e055f39	0.13024606
154	0x4067d5cb	3.622424
155	0xbf8484ed	-1.0353066
156	0xc08dcc14	-4.431162
157	0xc030f240	-2.7647858
158	0xbfd57c64	-1.6678586
159	0x3dde54e9	0.10856039
160	0x408f8bb3	4.485803
161	0x40370569	2.8597052
162	0x4011947b	2.2746875
163	0x404f7498	3.2414913
164	0x408008c5	4.0010705
165	0x407a2fcc	3.9091673
166	0x40d4bf6c	6.648367
167	0xbecb62be	-0.39723772
168	0x400ccb74	2.1999178
169	0x3fb5f7d3	1.4216255
170	0x40fc9c79	7.8941007
171	0x3fce8432	1.6134093
172	0xc05bba84	-3.433259
173	0x3d0048d9	0.031319473
174	0xc0eb8183	-7.3595595
175	0xbf52c115	-0.8232587
176	0xc125eca3	-10.370273
177	0xc05162ba	-3.2716508
178	0xc060c7a7	-3.5121858
179	0xbf930f6f	-1.1489085
180	0xc03b7da7	-2.9295442
181	0xc0466205	-3.0997326
182	0xc098e6c6	-4.7781706
183	0x3e3571a7	0.17719136
184	0xc02824fc	-2.6272573
185	0xc00f94c5	-2.2434552
186	0xc0f55ef3	-7.6678405
187	0xbf3eb3f6	-0.7449335
188	0x40088066	2.1328368
189	0x3ffc330b	1.9703077
190	0x4100614f	8.023757
191	0x3fe8e801	1.8195802
192	0x40736e79	3.8036177
193	0x3fce1ee1	1.6103173
194	0x40b4bc4c	5.6479855
195	0x3f7243dc	0.94634795
196	0x40488b0b	3.1334865
197	0x3f48bf9c	0.7841737
198	0x3ecb9073	0.39758644
199	0xbf0cf711	-0.55064493
200	0xc052185e	-3.2827373
201	0xbffbe129	-1.9678088
202	0xc0be763d	-5.9519334
203	0xbf695328	-0.9114251
204	0x4073fab0	3.8121758
205	0x4081b621	4.0534825
206	0x40b12655	5.535929
207	0x3fcd4baa	1.6038716
208	0x403ba255	2.931783
209	0x407f56ca	3.9896722
210	0x40f8bf5c	7.7733593
211	0x3fa2fea9	1.2733966
212	0xc11d879a	-9.845606
213	0xc0b6ba95	-5.710276
214	0xc07628ce	-3.8462405
215	0xbe1d5dbd	-0.1536779
216	0x3e0101de	0.12598369
217	0x3f887a14	1.0662255
218	0xbfbd4df1	-1.4789411
219	0x40420548	3.0315723
220	0x3fd525d9	1.6652175
221	0xbecc6337	-0.39919445
222	0x402c7245	2.6944745
223	0xbf87b2b4	-1.0601411
224	0x410b6eee	8.714582
225	0xbf8f1619	-1.1178619
226	0xc0a0adec	-5.0212307
227	0xbe6a0c2f	-0.2285621
228	0x41443675	12.263295
229	0x3fed5b4d	1.8543488
230	0x40533776	3.30026
231	0x3f2b9443	0.67023104
232	0x3ff415a3	1.9069103
233	0x3fd263f0	1.6436749
234	0x40ef631e	7.4808493
235	0x3f9a2738	1.2043219
236	0xbfdb3e1a	-1.7128327
237	0x3dd42a85	0.103596725
238	0xc0c57c6e	-6.171439
239	0x3e547daa	0.20751062
240	0x3fdd092e	1.7268426
241	0x3f16b2c3	0.5886652
242	0x40d18563	6.5475326
243	0x3f2aa136	0.6665224
244	0x404e35c6	3.222032
245	0x3e38d948	0.18051636
246	0x3f5ce803	0.8629152
247	0xbf6627c0	-0.89904404
248	0xc0b58622	-5.6726236
249	0xbf85df8b	-1.0458845
250	0xc0c13640	-6.0378723
251	0xbf2080b0	-0.6269636
252	0xc01819a0	-2.376564
253	0xbfd0c739	-1.6310798
254	0xc0eebdb1	-7.4606557
255	0xbfb24347	-1.3926781

critic.v_net.fcs.0.bias f4 [64]
0	0xbdab4ad4	-0.08363882
1	0xbd606b01	-0.054789547
2	0x3f76ebf4	0.96453786
3	0x3d28c1a6	0.041200303
4	0xbe1a29ad	-0.1505496
5	0x3e08548f	0.13313507
6	0xbdc33462	-0.095314756
7	0xbdc98173	-0.098391436
8	0x3eecc27c	0.4624213
9	0xbc70037d	-0.014649269
10	0xbed9905a	-0.42492944
11	0x3d929c9e	0.071587786
12	0xbe55a6bb	-0.20864384
13	0x3e8e7107	0.27820608
14	0xbcef1e2f	-0.029189197
15	0xba7a1b31	-0.0009540795
16	0x3ded5183	0.11587813
17	0x3e5c6617	0.21523319
18	0x3e8c9b0d	0.27462044
19	0xbe661046	-0.22467145
20	0xbf074131	-0.5283385
21	0xbe55258a	-0.20815101
22	0x3e1a5273	0.15070514
23	0x3e8664ff	0.2624893
24	0xbce87ee4	-0.028380819
25	0xbc96f38b	-0.018426677
26	0x3dfae0b3	0.12249889
27	0x3e5b4177	0.21411692
28	0xbd942bd5	-0.07234923
29	0xbe200d90	-0.15630174
30	0xbd83ec11	-0.064415105
31	0xbee0f4c3	-0.43936738
32	0xbe0a2d8d	-0.13493939
33	0xbdd5bd21	-0.10436464
34	0xbdd55cf1	-0.10418118
35	0x3d861b77	0.06548207
36	0xbe27d54e	-0.16389963
37	0xbbf56400	-0.0074887276
38	0xbe03256e	-0.12807247
39	0xbe07ecfd	-0.13273998
40	0xbe1befc0	-0.15228176
41	0x3f042bf0	0.51629543
42	0x3e333ff5	0.17504866
43	0x3ea6edf2	0.32603413
44	0xbe22f932	-0.15915373
45	0xbe2b7ca5	-0.16746767
46	0xbd7307e1	-0.059333686
47	0x3f794040	0.9736366
48	0xbdf77a3d	-0.12083862
49	0x3e629f05	0.22130974
50	0xbda0bac6	-0.07848124
51	0x3e247051	0.1605847
52	0x3e55465f	0.20827626
53	0xbdab78cb	-0.08372649
54	0xbf6ed8e5	-0.93299705
55	0x3d95b6c8	0.073102534
56	0x3eb3c994	0.3511473
57	0x3e1ad197	0.15119015
58	0x3e847e18	0.25877452
59	0xbde9bdca	-0.114131525
60	0x3ea1da53	0.3161188
61	0x3dd96d03	0.106164955
62	0x3eca1569	0.3946946
63	0x3da46676	0.080273554

critic.v_net.fcs.1.weight f4 [64, 64]
0	0xbfb0cad9	-1.3811904
1	0x3f33cf86	0.7023853
2	0x4002cb07	2.0436418
3	0xbd0ff995	-0.03515013
4	0xbf847b6d	-1.0350167
5	0x3f8ba5df	1.0909995
6	0xbe32607c	-0.17419618
7	0xbf81d6ee	-1.0143716
8	0xbf9cb8fb	-1.2243952
9	0x3e8ea129	0.2785733
10	0xc0468615	-3.1019337
11	0x3f2060bc	0.62647605
12	0xbfee220b	-1.8604139
13	0x406c25ae	3.6897998
14	0xbf95c22f	-1.1699885
15	0xbf71e87c	-0.9449537
16	0xbf0e0bcc	-0.5548675
17	0x3fc1aba1	1.5130502
18	0x3f7267d8	0.94689703
19	0x3fd0e710	1.6320515
20	0x3f0c0d47	0.5470776
21	0xbfeb08c5	-1.8362051
22	0xbc163f86	-0.009170419
23	0xbf76c844	-0.9639933
24	0x3f8f1054	1.1176858
25	0xbf9920d8	-1.1963148
26	0x3f1a8438	0.60358
27	0x40259610	2.587284
28	0x3e658c9c	0.2241692
29	0x3d29b994	0.041436747
30	0x3ebc8587	0.36820623
31	0x3f6ec4e4	0.9326918
32	0x3f721583	0.94564074
33	0xbfaf236b	-1.3682684
34	0xbe4cf434	-0.20015031
35	0x3eef8b65	0.46786037
36	0xc01274bf	-2.2883756
37	0x3e268fbb	0.16265766
38	0x3f15dca6	0.5853981
39	0xbfb44583	-1.4083713
40	0xbfca9280	-1.5825958
41	0xbf102407	-0.56304973
42	0xbf9123cb	-1.1339048
43	0xbeb1fd10	-0.34763384
44	0x3e7c068b	0.24611871
45	0xbdf31fb5	-0.11871282
46	0xbdb962f3	-0.09052076
47	0x3f0aea54	0.54263806
48	0xbe9a6b01	-0.30159763
49	0x3fe17edb	1.7616838
50	0x3f4748c9	0.77845436
51	0x3f9293d6	1.1451366
52	0x3f977147	1.1831445
53	0x3f8316ea	1.0241368
54	0xc03a93a3	-2.915261
55	0x3f200b50	0.6251726
56	0xbf1d519b	-0.61452645
57	0xbf6be8f5	-0.9215234
58	0x3f98d31d	1.1939427
59	0xbf8de610	-1.1085835
60	0x3f452769	0.7701326
61	0x3fa757c8	1.3073664
62	0x3f2cc752	0.6749164
63	0xbe076e66	-0.13225707
64	0xc009e392	-2.1545148
65	0xbe60bfa7	-0.2194811
66	0x3fa0a9de	1.2551839
67	0xbf06072f	-0.5235471
68	0x3e0e3f25	0.13891275
69	0x3f105210	0.5637522
70	0x3d5f1786	0.054465793
71	0xbfb335cc	-1.4000793
72	0xbfce2edf	-1.6108054
73	0x3fdd0a17	1.7268704
74	0xc051b21d	-3.2764962
75	0xbf11a55a	-0.5689293
76	0xbf285130	-0.6574888
77	0x405d0453	3.453389
78	0xbfa91f06	-1.3212593
79	0xbf89ee43	-1.0775837
80	0xbd3af758	-0.04564604
81	0x3e351574	0.17683965
82	0x3f7880ac	0.9707134
83	0x3f8e7930	1.1130733
84	0xbfb479b4	-1.4099641
85	0xbf8d7633	-1.1051697
86	0x3ff2eb9d	1.8978153
87	0xbf6e615b	-0.931173
88	0x3fa3812d	1.2773796
89	0x3fe7eb1a	1.8118622
90	0x3f08044c	0.53131557
91	0x3f732266	0.9497436
92	0xbff3ff30	-1.9062252
93	0x3f8d23ab	1.102651
94	0xbec2d395	-0.3805205
95	0x3edf93bc	0.436674
96	0x3f7d3ffa	0.98925745
97	0x3f70dc0b	0.9408576
98	0x3fb06af6	1.3782642
99	0xbe02cdcc	-0.12773818
100	0xbfcac559	-1.5841476
101	0x3f59eb78	0.8512492
102	0x3f5fdce6	0.8744644
103	0xbfa97430	-1.3238583
104	0x3d1e5a17	0.038660135
105	0xbfad4ac8	-1.3538446
106	0xbf8a7b92	-1.0818961
107	0x3f9cd4ef	1.2252482
108	0x3f00050b	0.50007695
109	0xbf013655	-0.5047353
110	0x3f98e393	1.194445
111	0xbbc6bfed	-0.00606536
112	0x3e21ed9a	0.15813294
113	0x3feabb8a	1.8338482
114	0x3dd39941	0.10331965
115	0x3faaedbb	1.33538
116	0x3e0568d4	0.1302827
117	0x3f7c7894	0.9862149
118	0xc001d3ae	-2.028545
119	0xbf587c77	-0.8456492
120	0xbeb0f9f7	-0.34565708
121	0xbf29bdaa	-0.6630503
122	0xbee976a6	-0.45598334
123	0x3f36619c	0.7124269
124	0xbe854fb2	-0.26037365
125	0x3fa98436	1.3243473
126	0xbf6bd938	-0.92128325
127	0xbe551976	-0.20810494
128	0xbf0cae00	-0.54953
129	0x3f9b4e28	1.2133226
130	0x3eeee179	0.46656397
131	0xbff521b1	-1.9150907
132	0xbfb25fec	-1.3935523
133	0x3c01325b	0.007885541
134	0xbf620b92	-0.88298905
135	0xbeb31c90	-0.3498273
136	0x3fc59fea	1.5439427
137	0x3f000a36	0.5001558
138	0xbf9c436c	-1.2208076
139	0xbd45c381	-0.04828215
140	0x3f946433	1.1593078
141	0x3ceba5f4	0.028765656
142	0xbf2e2f45	-0.6804088
143	0xbf17abbd	-0.59246427
144	0xbf5fa69e	-0.8736361
145	0x3f1f34c0	0.62189865
146	0xbe28e752	-0.16494492
147	0x3faa7226	1.3316085
148	0x405f893e	3.4927516
149	0xbf26beec	-0.65135074
150	0xbf70165d	-0.93784124
151	0xbe2f61f7	-0.17127214
152	0x3f1071b2	0.56423485
153	0x3ebd48b4	0.3696953
154	0xbf684906	-0.90736425
155	0xbc1cb030	-0.009563491
156	0x400483e3	2.0705497
157	0x3c3c8131	0.011505411
158	0x3c88d424	0.016702719
159	0x3f87d1aa	1.0610859
160	0xbe1ef42d	-0.15522833
161	0xbf0a1dbf	-0.5395164
162	0xbe926878	-0.28595328
163	0xbf329955	-0.69765216
164	0x3df97c17	0.121818714
165	0xbf7f0099	-0.99610287
166	0xbfab2fc6	-1.3373954
167	0x3e0c5ac7	0.13706504
168	0xbf1d1c69	-0.61371475
169	0xbecaf401	-0.39639285
170	0x3fbf8718	1.4963102
171	0xc00834bb	-2.1282184
172	0xbdfe9aec	-0.12431893
173	0xc00ead81	-2.2293398
174	0xc08058e2	-4.01085
175	0x403d92f5	2.9620945
176	0x3f369444	0.71319985
177	0x3f335f75	0.7006753
178	0xbecd7f76	-0.40136307
179	0x3f76282e	0.9615506
180	0x3ffb0087	1.9609536
181	0x3fd1d5b9	1.6393348
182	0xbfe7fc70	-1.8123913
183	0x4065f892	3.5932965
184	0xc054086b	-3.3130138
185	0xc02eef08	-2.7333393
186	0x4029c4d1	2.6526377
187	0x3f5071a7	0.8142342
188	0x3fcce8f7	1.6008595
189	0xbf8d9a5a	-1.1062729
190	0x3f85c6a7	1.0451249
191	0xbd15d3a8	-0.036578804
192	0x3f11c3e0	0.56939507
193	0x3dd5b970	0.1043576
194	0xbf43c4ae	-0.76471984
195	0xbf9cfbcc	-1.2264342
196	0xbd229278	-0.039690465
197	0xbf9ce428	-1.2257128
198	0x3f7b4598	0.98153067
199	0x3f604a91	0.8761378
200	0x3e658738	0.22414863
201	0x3f74cdc0	0.9562645
202	0x3f547914	0.8299725
203	0x3ea42790	0.32061434
204	0x3d9fa5e1	0.07795311
205	0x3e1679b2	0.1469486
206	0x3fc8e8b8	1.569602
207	0xc0196a29	-2.3971045
208	0xbe1935d6	-0.14961943
209	0xbfaeaf4f	-1.364725
210	0xc032ae85	-2.7919018
211	0xbf0168f0	-0.50550747
212	0x406e9ae4	3.7282038
213	0xbe56ba37	-0.20969473
214	0xbd48a8ad	-0.048988987
215	0x4007d3e9	2.122309
216	0xbf222ff6	-0.6335443
217	0x3f1ec7d2	0.6202365
218	0xbf472488	-0.7779012
219	0xbfd5b123	-1.6694683
220	0x3fcfddb1	1.623953
221	0xbfe46bd3	-1.7845405
222	0x3e210dd7	0.15727936
223	0x3f9bd0f7	1.2173146
224	0x3e5a91a8	0.21344626
225	0x3ff1fd88	1.8905497
226	0xbea3cfce	-0.3199448
227	0xbfa3763e	-1.277046
228	0xbf97c2f7	-1.1856374
229	0xbe518ad0	-0.20463109
230	0xbf03e1eb	-0.515166
231	0x3cc4bf03	0.024016863
232	0x3f232afa	0.6373745
233	0x3f578459	0.8418632
234	0x40094320	2.144722
235	0xc009f2ec	-2.1554518
236	0xbef1b51c	-0.47208488
237	0xbea60966	-0.32429045
238	0xbf53f8bb	-0.8280141
239	0x3f3a6f8b	0.7282645
240	0x3eef134c	0.4669441
241	0xbf37a5fd	-0.71737653
242	0xc0113d1b	-2.2693546
243	0xbe76fd67	-0.24120103
244	0xbe8bdcc4	-0.27316868
245	0xbe938b9b	-0.28817448
246	0xbe223dc6	-0.15843877
247	0xbea2fabe	-0.31831926
248	0xc01f8bc2	-2.4929051
249	0xbfd22264	-1.6416745
250	0x3fbf3140	1.4936905
251	0xbe8619e7	-0.26191637
252	0x3fb85bc2	1.4403002
253	0xbfb0682f	-1.3781794
254	0xbfef4e14	-1.8695703
255	0xbf24a0a4	-0.6430762

critic.v_net.fcs.1.bias f4 [64]
0	0x4046ede4	3.1082697
1	0x40712e0b	3.7684352
2	0xbf92915d	-1.1450611
3	0xbfecf503	-1.8512272
4	0xbf006866	-0.501593
5	0x3f9840ee	1.1894815
6	0xbfafbc05	-1.3729254
7	0xbf508e53	-0.8146717
8	0x40279398	2.6183834
9	0x3f8d25c8	1.1027155
10	0x40163381	2.3468935
11	0x4029a85b	2.6509006
12	0x3f054124	0.5205252
13	0x3f5e34bf	0.86799234
14	0xbfdfb43c	-1.7476878
15	0x3edc1626	0.42985648
16	0xc0201ba3	-2.5016868
17	0x3f5e3b74	0.8680947
18	0xc067c052	-3.6211133
19	0x3c66b06a	0.014080146
20	0xbf687790	-0.9080744
21	0xbf80fb44	-1.007668
22	0xc07decc6	-3.9675765
23	0xbf3f6049	-0.74756294
24	0x3fd6be08	1.6776743
25	0xc070d4df	-3.7629926
26	0xc069556c	-3.6458387
27	0x3f98e2bd	1.1944195
28	0x3e97fac7	0.29683515
29	0xbf1abaff	-0.60441583
30	0xbea7eb8b	-0.32796893
31	0x3fbc4ad1	1.4710332
32	0x3f8f028a	1.117265
33	0xbf5cdefd	-0.86277753
34	0xbe1cb65c	-0.1530394
35	0x3f386e1c	0.72043014
36	0x4056d8e4	3.356988
37	0xbed0acca	-0.40756828
38	0x4035f50f	2.8430822
39	0xbe23f568	-0.16011584
40	0x3fbfdd98	1.49895
41	0xc008e582	-2.139008
42	0x3fb4b0cf	1.4116458
43	0x3ecb6e39	0.3973253
44	0x3f7f26d8	0.99668646
45	0x3f8a1aa4	1.078938
46	0xbf885904	-1.0652165
47	0x3a6af609	0.00089630537
48	0xbe6f5066	-0.23370513
49	0xbff283fa	-1.8946526
50	0x4011121e	2.2667308
51	0x3f15edef	0.5856618
52	0xbebaaa98	-0.36458278
53	0xbeeb4dd8	-0.45957828
54	0xbfe3bc15	-1.7791773
55	0x406bac17	3.6823785
56	0x3fc50695	1.5392634
57	0xbf8d74c9	-1.1051265
58	0xbea8f32c	-0.32998025
59	0xbead8cbb	-0.3389643
60	0xbfc4d26e	-1.5376718
61	0xbeccc22f	-0.399919
62	0x3f65f982	0.89833844
63	0x3fb3f21b	1.405826

critic.v_net.fcs.2.weight f4 [1, 64]
0	0x40f6b95c	7.710127
1	0x4103c120	8.23465
2	0xc071ae01	-3.7762454
3	0x407dadcd	3.963733
4	0x4038d76c	2.8881483
5	0x4029d13c	2.6533957
6	0xc0318429	-2.7736914
7	0xc02f67e7	-2.7407167
8	0x3fd0e8b6	1.6321018
9	0x3fa331a8	1.2749529
10	0x403dddd7	2.966665
11	0x40f46d09	7.63831
12	0x4056d679	3.3568404
13	0x409fc80e	4.9931707
14	0xc0d60152	-6.687661
15	0xc068b508	-3.6360493
16	0xc12bede9	-10.745584
17	0x4086e4e9	4.215443
18	0xc0e1034e	-7.0316534
19	0x408c2ca1	4.380448
20	0xc1002f78	-8.011589
21	0xc055f743	-3.3432167
22	0xc0f263fc	-7.574705
23	0xc0e272fd	-7.0765367
24	0x403245b8	2.7855053
25	0xc0fd9480	-7.9243774
26	0xc0ff16b0	-7.9715195
27	0x3f9d2f51	1.2280065
28	0x406cae31	3.6981318
29	0xc084d31c	-4.15077
30	0x406d48ba	3.7075639
31	0x40257101	2.5850222
32	0x40614d98	3.520361
33	0xc01db24f	-2.464008
34	0xc08f62a1	-4.4807897
35	0xc0a1e09d	-5.0586686
36	0x40f54646	7.6648283
37	0xc0426bb7	-3.0378244
38	0x401c2d8d	2.4402802
39	0x405d5771	3.458462
40	0x4075936f	3.8371236
41	0x40f2eceb	7.5914207
42	0x405ebec8	3.4803944
43	0xc059a5c9	-3.4007437
44	0x40732650	3.7992134
45	0x403d57d3	2.9584854
46	0xc04247e4	-3.0356379
47	0x4081ad87	4.0524325
48	0xc080356e	-4.006522
49	0xbfc0c0ee	-1.5058877
50	0x3faba983	1.3411106
51	0x4030f279	2.7647994
52	0xc0b9de1b	-5.8083625
53	0x40cc4166	6.382983
54	0xc013eddb	-2.3113925
55	0x41038e6f	8.222274
56	0x40a1f348	5.0609474
57	0xc05d3b4e	-3.4567447
58	0xc086cb91	-4.2123494
59	0x40cac02d	6.335959
60	0xc05ea5f6	-3.4788795
61	0x40368600	2.8519287
62	0x4060c292	3.5118756
63	0x40091f0a	2.1425195

exp_avg f4 [64, 4]
0	0x3e4d7416	0.20063815
1	0x3cb94787	0.022617115
2	0x3c80ef72	0.015739176
3	0x3d868f21	0.065702684
4	0xbf0217c8	-0.5081754
5	0xbdc912b3	-0.0981802
6	0xbd5d4da1	-0.05402911
7	0xbe482c3f	-0.19548129
8	0xbdc9e0e3	-0.09857347
9	0xbca783b3	-0.020448541
10	0xbc3bbd71	-0.011458741
11	0xbd1e057c	-0.03857945
12	0xbcbe3f24	-0.023223467
13	0xbc036e32	-0.008021878
14	0xbb8f09f8	-0.004365202
15	0xbc219b90	-0.009863749
16	0x3d4952f2	0.04915137
17	0x3bf8390d	0.0075751604
18	0x3b760b80	0.0037543476
19	0x3c85b843	0.016323214
20	0x3e22de99	0.15905227
21	0x3cdf93b6	0.027292114
22	0x3c93287f	0.017963646
23	0x3d80fccb	0.062982164
24	0x3d397ce0	0.045285106
25	0x3bb13299	0.005407643
26	0x3b39ee71	0.0028370882
27	0x3c5999e2	0.013281317
28	0x3dd38477	0.10328
29	0x3c8f9c45	0.01753057
30	0x3c1e65a9	0.009667792
31	0x3d12dba0	0.035853982
32	0xbe5e1c94	-0.21690589
33	0xbd1a1915	-0.037621576
34	0xbca30cd7	-0.019903583
35	0xbd921f97	-0.071349315
36	0xbe04a8a0	-0.1295495
37	0xbc9635c8	-0.018336192
38	0xbc3c2166	-0.011482572
39	0xbd342ff4	-0.043991044
40	0xbe0ff18c	-0.14056987
41	0xbcb60317	-0.02221827
42	0xbc526ba8	-0.01284305
43	0xbd42f505	-0.04759695
44	0x3b38a5e5	0.0028175053
45	0x3b7701c9	0.0037690273
46	0x3b1b7c37	0.002372516
47	0x3bc66738	0.006054785
48	0xbd29185e	-0.041283004
49	0xbba1d868	-0.0049391277
50	0xbb0be80b	-0.0021348025
51	0xbc5461e8	-0.012962796
52	0x3d9d258a	0.07673176
53	0x3c353851	0.01106079
54	0x3be32471	0.0069318344
55	0x3cd52b2c	0.026021563
56	0x3e8ea2b2	0.27858502
57	0x3d351826	0.044212483
58	0x3cd0ebc7	0.025503052
59	0x3dc57a52	0.096424714
60	0xbd839327	-0.064245515
61	0xbc10f93a	-0.008848483
62	0xbb97fde8	-0.0046384223
63	0xbcb4fe62	-0.022093955
64	0x3ca17147	0.019707335
65	0x3ac12591	0.0014735927
66	0xb81e0f42	-3.7684345e-05
67	0x3b862580	0.004093826
68	0x3da2b0af	0.07943856
69	0x3c35191d	0.011053351
70	0x3bcbb92e	0.0062171435
71	0x3ccab463	0.024744218
72	0x3ded04fa	0.11573215
73	0x3cc85d01	0.02445841
74	0x3c70c2ab	0.01469485
75	0x3d4045fa	0.046941735
76	0xbeab568a	-0.33464462
77	0xbd4b30a5	-0.049606938
78	0xbce3cd27	-0.027807785
79	0xbde4cff6	-0.11172478
80	0x3db56dfb	0.08858868
81	0x3c99d957	0.018780394
82	0x3c2d8dd2	0.010592895
83	0x3d1261b0	0.035737693
84	0xbc9ee69f	-0.019397078
85	0xbb2d6db7	-0.00264631
86	0xba87c02c	-0.0010356954
87	0xbbd776ed	-0.0065754564
88	0xbd801a9c	-0.06255075
89	0xbc42aa66	-0.0118814465
90	0xbbba4003	-0.0056839003
91	0xbcbcda4e	-0.023053315
92	0xbe6b9202	-0.23004916
93	0xbcd30d62	-0.025763217
94	0xbc8c034f	-0.017091421
95	0xbd965e66	-0.07342224
96	0x3de1b8be	0.11021565
97	0x3c8ed008	0.017433181
98	0x3c16244e	0.009163929
99	0x3d166b3c	0.03672336
100	0xbe24097b	-0.16019242
101	0xbcfa54a5	-0.03055794
102	0xbc824217	-0.015900655
103	0xbd68b42c	-0.05681245
104	0xbc9c1ec0	-0.019057631
105	0xbab3f592	-0.0013729802
106	0xb982eee7	-0.00024973528
107	0xbb969586	-0.0045954613
108	0xbf3bef5d	-0.73412114
109	0xbe0036eb	-0.1252095
110	0xbd92083c	-0.07130477
111	0xbe86df8a	-0.26342422
112	0x3bdb2c50	0.006688632
113	0x3ac1ab4e	0.0014775784
114	0x3966bbf2	0.00022004524
115	0x3b396d4e	0.002829391
116	0x3f11e920	0.56996346
117	0x3de9a44d	0.11408291
118	0x3d7ff4ac	0.062489197
119	0x3e5cc55a	0.21559659
120	0x3d9289ff	0.07155227
121	0x3c2a25fd	0.010385034
122	0x3b9a3406	0.0047059087
123	0x3cbcb77f	0.023036717
124	0x3d223c6d	0.039608408
125	0x3bb0ef13	0.0053995936
126	0x3b3390fe	0.0027399655
127	0x3c450db4	0.012027193
128	0x3deae44c	0.114693254
129	0x3ca370fb	0.019951334
130	0x3c3b931e	0.01144865
131	0x3d2c7ac5	0.04210927
132	0x3df9366f	0.121685855
133	0x3cabdca7	0.020979239
134	0x3c5714f1	0.013127551
135	0x3d39d0e7	0.04536524
136	0xbe9905ea	-0.29887325
137	0xbd3f6021	-0.046722535
138	0xbce00cb8	-0.027349815
139	0xbdd76f16	-0.10519235
140	0x3dc96ac9	0.09834821
141	0x3c8fcba5	0.01755316
142	0x3c01e9d4	0.007929284
143	0x3d018f93	0.031631064
144	0xbdd43f43	-0.10363629
145	0xbc935779	-0.017986046
146	0xbc1709ae	-0.009218616
147	0xbd12f377	-0.035876717
148	0xbd057f03	-0.03259183
149	0xbc096bd7	-0.008387527
150	0xbb77578a	-0.0037741386
151	0xbc56c420	-0.013108283
152	0xbdb5c2c6	-0.08875041
153	0xbc4f46c1	-0.012651146
154	0xbbdd0a27	-0.006745595
155	0xbce10a2d	-0.027470673
156	0x3e977036	0.29577798
157	0x3d34304f	0.043991383
158	0x3cda8249	0.026673453
159	0x3dd22dc6	0.10262637
160	0x3d8f546c	0.06998524
161	0x3c098b01	0.0083949575
162	0x3b90deae	0.0044210767
163	0x3cb1b5b1	0.021693083
164	0x3d7dd4a3	0.061970364
165	0x3c409b0c	0.011755716
166	0x3b99907b	0.004686413
167	0x3ca85571	0.020548554
168	0x3ce66c59	0.028127836
169	0x3b923a97	0.004462551
170	0x3b0a22fd	0.0021077984
171	0x3c0545b5	0.008134295
172	0x3d8c7a8b	0.06859311
173	0x3c2263b9	0.009911471
174	0x3bb36adc	0.005475385
175	0x3cb34fa1	0.021888556
176	0x3e078358	0.13233697
177	0x3cbda5f1	0.023150416
178	0x3c450cd2	0.012026982
179	0x3d3af7a4	0.045646325
180	0x3d199138	0.037492007
181	0x3b0ab566	0.002116525
182	0x3ac41a6e	0.001496149
183	0x3c1dd081	0.009632231
184	0xbe4db24c	-0.20087546
185	0xbcfbf9ab	-0.0307587
186	0xbc8baf67	-0.017051412
187	0xbd881dda	-0.06646319
188	0xbf128a95	-0.5724271
189	0xbdd3f3fd	-0.103492714
190	0xbd77fde9	-0.060544882
191	0xbe5841e8	-0.21118891
192	0x3d444172	0.047913976
193	0x3b839365	0.0040153735
194	0x3b4c950b	0.0031216766
195	0x3c548d85	0.012973194
196	0x3d9a806b	0.07544025
197	0x3ca81a16	0.020520251
198	0x3c303bfa	0.010756487
199	0x3d07fbba	0.03319905
200	0xbd39a4f4	-0.045323327
201	0xbc194fc8	-0.0093574
202	0xbb99dcd9	-0.0046955165
203	0xbc82f526	-0.015986037
204	0x3e0c977e	0.13729665
205	0x3cb5bdef	0.022185294
206	0x3c3415b1	0.0109915
207	0x3d33fa23	0.04393972
208	0x3d00cee3	0.031447303
209	0x3b6c4d83	0.0036056943
210	0x3af7172c	0.001885151
211	0x3c12f159	0.008968675
212	0xbe0921d4	-0.1339181
213	0xbcb15cd4	-0.02165071
214	0xbc51b60d	-0.012799752
215	0xbd40ac3a	-0.047039248
216	0x3df006a4	0.117200166
217	0x3c819459	0.015817808
218	0x3c30c5c9	0.010789343
219	0x3d21240b	0.039341014
220	0x3e47afa5	0.19500597
221	0x3cfd6bbe	0.030935165
222	0x3c83b889	0.016079204
223	0x3d83368a	0.06406887
224	0xbcb33917	-0.021877808
225	0xbbb9135d	-0.0056480602
226	0xbb7130c4	-0.0036802748
227	0xbc47ff30	-0.012206838
228	0x3d496023	0.04916395
229	0x3c10b25e	0.008831589
230	0x3bce1943	0.0062896325
231	0x3ca780df	0.020447193
232	0x3eaa29d6	0.33235043
233	0x3d86fe34	0.06591454
234	0x3d1e3680	0.038626194
235	0x3e014e0d	0.1262743
236	0xbeba173a	-0.36345845
237	0xbd61824c	-0.0550559
238	0xbcf6b03f	-0.030113338
239	0xbdf7b18d	-0.12094412
240	0xbe1e9377	-0.15485941
241	0xbcf3f9f7	-0.029782278
242	0xbc6da76e	-0.01450525
243	0xbd5ff396	-0.05467566
244	0x3e10198c	0.14072245
245	0x3cbfa09c	0.023392014
246	0x3c3b5105	0.011432891
247	0x3d425cc5	0.047451753
248	0x3f05ac99	0.5221649
249	0x3da9a05f	0.082825415
250	0x3d571556	0.052510582
251	0x3e470fbe	0.19439599
252	0x3d2a1399	0.041522596
253	0x3c0f3dc2	0.008742752
254	0x3b819b76	0.0039553
255	0x3c834185	0.016022453

exp_avg_sq f4 [64, 4]
0	0x403173ee	2.7727008
1	0x3eab1b53	0.33419284
2	0x3c1ac061	0.009445281
3	0x3d12e66f	0.03586429
4	0x4180fbf0	16.123016
5	0x404605ef	3.0941122
6	0x3dbd75c4	0.09250978
7	0x3eb6a10d	0.35669747
8	0x3f356b00	0.70866394
9	0x3e0630d2	0.13104561
10	0x3b7098ca	0.0036712163
11	0x3c65341e	0.0139894765
12	0x3cd85819	0.026409196
13	0x3c036d6b	0.008021693
14	0x39d3572c	0.00040310004
15	0x3ac3f93f	0.00149516
16	0x3e156887	0.14590655
17	0x3cae10d0	0.021248251
18	0x3a2b1d08	0.00065274583
19	0x3b1c47bd	0.002384647
20	0x3f9c98b2	1.2234099
21	0x3e764f48	0.24053681
22	0x3c11b460	0.008893102
23	0x3d177868	0.036980063
24	0x3de6601a	0.11248799
25	0x3c5c1a3a	0.013433987
26	0x39d17de7	0.0003995739
27	0x3acc5176	0.0015588242
28	0x3f3283b5	0.6973222
29	0x3dd2341e	0.10263847
30	0x3b4ff1d2	0.003172983
31	0x3c399c1b	0.011328722
32	0x4033b42a	2.8078713
33	0x3edcb7d7	0.4310901
34	0x3c4643bd	0.012101111
35	0x3d3b86fd	0.04578303
36	0x3f9235ab	1.1422628
37	0x3e187799	0.14889373
38	0x3b8ea6a4	0.004353361
39	0x3c842d7e	0.016134974
40	0x3fac45b0	1.3458767
41	0x3e41d7d0	0.18929982
42	0x3bb94e61	0.0056550954
43	0x3ca9738d	0.020684982
44	0x3b82c796	0.0039910777
45	0x3b1a1fe5	0.0023517546
46	0x393d296f	0.0001803988
47	0x3a5766b3	0.00082169025
48	0x3e11009e	0.14160392
49	0x3c937292	0.017998967
50	0x3a02b993	0.0004986759
51	0x3ad87fba	0.0016517558
52	0x3ee57d64	0.44822228
53	0x3d6e64ff	0.058201786
54	0x3af14cb1	0.0018409697
55	0x3bd45b22	0.0064805904
56	0x40ab8d01	5.3609624
57	0x3f43909e	0.76392543
58	0x3cb81814	0.022472419
59	0x3da94a81	0.082661636
60	0x3ea724c1	0.32645229
61	0x3d20d3a1	0.039264325
62	0x3ab4059c	0.0013734582
63	0x3b8c7a35	0.004287029
64	0x3d4bfd7a	0.04980228
65	0x3b92e0e8	0.0044823773
66	0x3921d4b4	0.00015433395
67	0x39a9b7e6	0.00032371207
68	0x3ef1f28c	0.4725536
69	0x3d699282	0.057024486
70	0x3ad94cbb	0.0016578654
71	0x3bb9a868	0.0056658275
72	0x3f48eeca	0.78489363
73	0x3e2c1879	0.1680621
74	0x3bb039f3	0.005378002
75	0x3caf4052	0.021392975
76	0x41084b6c	8.518414
77	0x3f8b25f4	1.0870957
78	0x3d0bd78f	0.03414112
79	0x3deb317e	0.11484049
80	0x3ee8ff2a	0.45507175
81	0x3dcaf7dc	0.09910557
82	0x3b448fb6	0.0029992885
83	0x3c46a819	0.012125039
84	0x3d189572	0.037251897
85	0x3b916629	0.0044372273
86	0x39172886	0.00014415578
87	0x39d4cedd	0.00040589916
88	0x3e61847e	0.22023198
89	0x3d228a50	0.039682686
90	0x3aaf02cb	0.0013352273
91	0x3ba3a7c8	0.0049943663
92	0x408207db	4.063459
93	0x3eede73a	0.46465474
94	0x3c552194	0.013008494
95	0x3d3a13a3	0.045428883
96	0x3f4d216d	0.8012913
97	0x3df0782c	0.11741671
98	0x3b588122	0.0033035954
99	0x3c4bae3f	0.01243168
100	0x3fbd7d47	1.4803857
101	0x3e87567e	0.26433176
102	0x3c07daed	0.008291942
103	0x3cfcf21b	0.030877164
104	0x3caa9556	0.020823162
105	0x3b126bb9	0.002234204
106	0x38a25935	7.741378e-05
107	0x399fd652	0.00030486524
108	0x42112895	36.28963
109	0x40b30aae	5.5950537
110	0x3e35a9cd	0.17740555
111	0x3f23d49f	0.6399631
112	0x3bc79d3c	0.006091742
113	0x3a99128e	0.0011678503
114	0x386fcdee	5.7173827e-05
115	0x3988eb0f	0.00026115074
116	0x4186d071	16.851778
117	0x405cfd2c	3.4529524
118	0x3ddbfe7d	0.10741899
119	0x3edbd912	0.4293905
120	0x3eb466c6	0.3523466
121	0x3d43c571	0.047795717
122	0x3abc0fb0	0.0014347937
123	0x3ba27b78	0.0049585663
124	0x3db8ccfc	0.09023473
125	0x3c3e0cc6	0.011599725
126	0x39beb801	0.00036376718
127	0x3ab8852f	0.0014077778
128	0x3f527aee	0.82218826
129	0x3e0ac4d4	0.13551646
130	0x3b8d8a56	0.0043194694
131	0x3c86bdb9	0.016447889
132	0x3f7be303	0.9839327
133	0x3e2713ee	0.16316196
134	0x3b95f4e1	0.004576311
135	0x3c913c43	0.01772893
136	0x40c0d5c4	6.0260944
137	0x3f695137	0.9113955
138	0x3cd160d6	0.02555887
139	0x3dc91c14	0.098198086
140	0x3f056ea5	0.52121955
141	0x3dbbc8f3	0.091691874
142	0x3b202b07	0.0024439709
143	0x3c1dd966	0.009634351
144	0x3f1045d4	0.5635655
145	0x3dc5c1de	0.09656118
146	0x3b4296e8	0.0029691998
147	0x3c3daace	0.011576368
148	0x3d361d10	0.04446131
149	0x3c5d6809	0.013513573
150	0x39eeec90	0.0004557115
151	0x3af86aa8	0.0018952684
152	0x3f2cdeb1	0.675273
153	0x3da0b431	0.07846869
154	0x3b107f5f	0.0022048575
155	0x3be2e8f5	0.0069247433
156	0x40b291bb	5.5802894
157	0x3f54418e	0.8291253
158	0x3cbb9091	0.022896083
159	0x3db982e4	0.090581685
160	0x3eca5b8e	0.39522976
161	0x3d27b1a4	0.040940896
162	0x3ab7510f	0.0013985949
163	0x3b899c92	0.004199573
164	0x3e444581	0.19167139
165	0x3d1de8bf	0.038552042
166	0x3a817c0a	0.0009878885
167	0x3b8415c9	0.0040309173
168	0x3d583928	0.052788883
169	0x3c0a67be	0.008447586
170	0x393dd9f2	0.00018105636
171	0x3a3f43d5	0.00072961795
172	0x3e9ec942	0.31012923
173	0x3d254a07	0.0403538
174	0x3a9439f7	0.0011308779
175	0x3b8a4940	0.004220158
176	0x3f82db84	1.0223241
177	0x3e23d6fb	0.15999977
178	0x3bab084f	0.0052194963
179	0x3c9b7a6a	0.01897927
180	0x3e130059	0.14355601
181	0x3c33e353	0.010979491
182	0x39aa292c	0.00032455602
183	0x3a61d98a	0.00086154847
184	0x402e90d5	2.7275898
185	0x3eba7ac2	0.36421782
186	0x3c34a365	0.011025284
187	0x3d1fc34f	0.03900462
188	0x419fd82e	19.980556
189	0x405dc751	3.4652903
190	0x3dd81599	0.105509944
191	0x3ed32623	0.41240034
192	0x3e4bd93e	0.1990709
193	0x3c9df591	0.019282134
194	0x39eda30d	0.00045325645
195	0x3ad47962	0.0016210491
196	0x3eb5285f	0.35382363
197	0x3dbf9f30	0.093565345
198	0x3b3ce078	0.0028820317
199	0x3c370df4	0.01117276
200	0x3e023630	0.12715983
201	0x3cb72048	0.02235426
202	0x3a3edb90	0.0007280642
203	0x3b29e00b	0.0025920894
204	0x3faa7b64	1.3318906
205	0x3e33a715	0.17544205
206	0x3ba8a572	0.0051466757
207	0x3c8d7371	0.01726696
208	0x3da49fe4	0.08038309
209	0x3c0ca067	0.008583165
210	0x3997c88b	0.0002895038
211	0x3a8a10cb	0.0010533569
212	0x3faa6631	1.3312436
213	0x3e416f74	0.18890172
214	0x3bbd9b67	0.0057863477
215	0x3caa3c4e	0.020780709
216	0x3f709114	0.9397137
217	0x3e007b37	0.12547003
218	0x3b588286	0.0033036782
219	0x3c4e0ea6	0.012576735
220	0x4016298c	2.3462858
221	0x3eae59ed	0.34052983
222	0x3c2850b2	0.0102731455
223	0x3d1af249	0.037828717
224	0x3cc67c43	0.024229174
225	0x3c07bd3b	0.008284862
226	0x39c0ab0d	0.00036748537
227	0x3ac52fb8	0.0015044129
228	0x3e23f37d	0.16010852
229	0x3ce5a09f	0.028030692
230	0x3a671e29	0.0008816445
231	0x3b651730	0.0034956448
232	0x40df712c	6.982565
233	0x3fa794f4	1.3092332
234	0x3d1f4c86	0.038891338
235	0x3e1ad55a	0.1512045
236	0x4111464e	9.079664
237	0x3f98dbe8	1.194211
238	0x3d1ea9cf	0.03873616
239	0x3e0718ee	0.13193104
240	0x3f98a7a0	1.1926155
241	0x3e6c5bf7	0.23081957
242	0x3be25569	0.0069071543
243	0x3ce0bec2	0.02743471
244	0x3fa68247	1.3008507
245	0x3e5165c0	0.20448971
246	0x3bbbb795	0.005728672
247	0x3caeef7f	0.021354435
248	0x41912de0	18.1474
249	0x4038fd0d	2.890445
250	0x3dbdb2f2	0.09262647
251	0x3eae46db	0.34038433
252	0x3da4d870	0.08049095
253	0x3c9e3c1b	0.01931577
254	0x3a1dce13	0.0006019782
255	0x3b24df70	0.0025157593
