training_results/cartpole_boltz/ppo_dMax2.0_applyExternal/seed_2024/1000000steps/checkpoints/model_300000.pt (torch, 151515 bytes, 30 tensors)

actor.pi_net.fcs.0.weight f4 [64, 4]
000000 34 11 ce be a1 88 29 bd ae b1 cb 3e 73 31 89 3f
       -0.402475 -0.041390065 0.39783996 1.0718216
000010 d0 d8 e4 3e fa ab ca 3e 02 8f ff 3e 59 8b de bd
       0.44696665 0.39584333 0.49913794 -0.10866422
000020 5e 0f 89 3d 54 91 75 3c f0 30 43 bf e2 84 b6 be
       0.06692384 0.014988262 -0.7624655 -0.35648257
000030 d6 be ee bc 96 58 7d 3e 1b 78 6b be 0b 21 10 3e
       -0.029143732 0.24740824 -0.22995035 0.14075105
000040 f4 87 dc 3c 8c 8f da be 72 cd 34 3e 48 fd c5 3d
       0.026920296 -0.42687643 0.17656496 0.0966745
000050 a4 62 12 bf 5c 10 b2 3d f0 94 97 be f4 88 b1 be
       -0.57181764 0.086945266 -0.29605818 -0.346748
000060 30 62 db be 44 2a 02 bf 36 a5 bf be 34 7f c4 3d
       -0.4284835 -0.5084574 -0.37430733 0.095945746
000070 c7 bd fa 3d 81 c7 cb bc bc 68 c3 3e fa 58 37 3f
       0.122432284 -0.024875404 0.38165843 0.7162014
000080 4a e4 b6 3e 13 69 b5 be 08 28 1e 3f 8e e5 90 3f
       0.35721046 -0.35431728 0.6177983 1.1320055
000090 6d 25 4c bd cd ba c7 3e 56 1e 43 3f 26 ef 61 3f
       -0.04984038 0.39009705 0.76218164 0.88255537
0000a0 24 e3 f7 3d 00 de 85 3e 28 b8 70 3e fb d9 9d 3d
       0.121038705 0.26145935 0.2350775 0.07707592
0000b0 e5 5a e5 be 42 d8 04 bd 7d 5c 1a 3f 9a 9e 1c 3f
       -0.4479591 -0.032432802 0.60297376 0.61179507
0000c0 d1 b3 35 be 90 12 24 3e 91 07 5d 3f 21 11 1f 3f
       -0.17744376 0.16022706 0.8633967 0.6213551
0000d0 57 2b 64 bb 15 ef ae 3d aa 07 35 bf a3 b4 1a bf
       -0.0034815872 0.08541695 -0.7071482 -0.6043188
0000e0 c0 6b 46 3e e8 d6 17 bb 61 a8 f2 be d6 d8 7c be
       0.19377041 -0.0023168866 -0.47394088 -0.24692091
0000f0 3c 49 d6 3e a4 ff 10 3e 21 ae 1a 3f 29 a7 32 3e
       0.41852748 0.14160019 0.6042195 0.17446579
000100 5e 0d f7 3e b6 db d4 3e 7d 8e c7 be 39 54 94 bf
       0.48252386 0.41573876 -0.38975897 -1.1588203
000110 83 8e e0 bb c6 79 13 bf e5 1c 0e 3f 83 7f 1a 3f
       -0.006852926 -0.57607687 0.5551284 0.6035082
000120 48 1d f1 be 9b aa 7f bd a0 48 a6 be 1e e0 d2 bd
       -0.47092652 -0.06241856 -0.32477283 -0.10296653
000130 cd 40 08 bd b1 ae af be 00 c1 ac bd 70 93 17 3f
       -0.033264924 -0.34312966 -0.08435249 0.59209347
000140 4e 35 de bd 7e 6c 6d 3e 22 7f bd bd 3a ca 7f bf
       -0.10850011 0.23185918 -0.09252764 -0.9991795
000150 83 74 29 bf 21 bc c1 be 09 92 0a 3f f9 fc 7c 3f
       -0.6619341 -0.37838843 0.5412908 0.98823506
000160 ef 19 67 3e a3 a8 89 3d d9 d9 94 3e ec 14 47 3f
       0.22568487 0.06721618 0.29072455 0.777663
000170 d9 3e 14 3e 16 d6 06 bf 1d 39 44 3f 01 79 44 3f
       0.144771 -0.5267042 0.7664965 0.7674714
000180 23 d7 cb bc e3 b0 0d 3f 6b 79 f2 3e f5 80 66 3e
       -0.024882859 0.5534803 0.4735826 0.2251013
000190 d7 d1 94 3e 41 d4 78 be d5 bd bb be 05 e2 ce 3e
       0.29066345 -0.24299718 -0.36668268 0.40406814
0001a0 2d c2 82 be 33 09 7d be 6a 93 de be 33 6f 46 3d
       -0.2553877 -0.2471054 -0.43471843 0.04844589
0001b0 2c ed 93 3d c0 7b 90 3e 5f d6 57 3f c7 33 6e 3f
       0.07222971 0.28219414 0.8431148 0.93047756
0001c0 35 d9 74 3e 37 92 1a bf bd 4d 5c 3f c7 6b 77 3f
       0.23910983 -0.60379356 0.8605612 0.9664883
0001d0 6b 7a 6e be d1 bc 29 be eb d6 61 3e fd 71 f9 be
       -0.23288886 -0.16575934 0.22054641 -0.4871978
0001e0 01 2b 9e 3e 7e f7 7f be 8c 2a 06 be a3 54 61 bf
       0.30892184 -0.24996755 -0.13102168 -0.8801977
0001f0 35 9c 7b be d8 15 ac 3e 1c 43 0e bf a3 19 f7 bd
       -0.24571307 0.33610415 -0.5557115 -0.12065437
000200 74 b9 1a be c1 08 0e 3f 00 f4 5e be c6 27 a1 3d
       -0.15109807 0.5548211 -0.21772766 0.07868914
000210 f6 a2 c2 3b cf f5 15 bc f4 a8 15 3e ca aa de 3c
       0.0059398366 -0.009152844 0.14615232 0.027181048
000220 1f d5 60 3e 8e 16 b8 3e ee f8 5b 3e 1a 3a 8a 3e
       0.21956299 0.35954708 0.21481678 0.26997453
000230 7b 65 08 3d cd af 87 3e a1 79 e5 be c1 b4 8b be
       0.033299904 0.26501313 -0.44819358 -0.27286342
000240 71 65 ba be 8c c8 d9 3e 54 16 17 3f 78 91 92 3e
       -0.3640552 0.42535818 0.59018445 0.2862661
000250 49 3f 60 3b c3 34 f3 3e cc 0b d5 be 62 8c 5c bf
       0.0034217408 0.47501191 -0.41610563 -0.8615171
000260 d9 f4 73 3d c5 fa b4 3d 8b 55 ce be 5d 22 8a bf
       0.059559677 0.08836893 -0.4029964 -1.0791737
000270 56 47 bc 3e 81 47 96 3d 16 11 37 3f 43 36 8e 3e
       0.36773175 0.07337857 0.71510446 0.27775773
000280 d3 51 c3 3d b2 be 6f be bb 81 2d 3f 4c d7 82 3f
       0.09537091 -0.23412588 0.6777608 1.0221953
000290 4c 0c b9 bd 1f 93 22 be c6 a9 50 3f 79 98 65 3f
       -0.090355486 -0.15876435 0.81509054 0.8968578
0002a0 45 0f 4e 3e 62 50 da be 20 57 24 bf c1 e3 f6 be
       0.20123012 -0.42639452 -0.6419544 -0.48220637
0002b0 89 f2 82 3e ad e1 da bc 09 bf 8f be 8c 99 16 bf
       0.25575665 -0.026718939 -0.28075436 -0.58828044
0002c0 26 a5 38 be 35 b3 81 be fa 6b af bc 3e d2 8a be
       -0.18031749 -0.25332037 -0.021413792 -0.27113527
0002d0 53 e6 0f be 00 1f 9b 3e 08 a9 a7 be 5c 7c 4a 3e
       -0.14052705 0.3029709 -0.32746148 0.19774002
0002e0 7a 7c 19 3f c4 f6 13 3f 16 8e 2d bf 07 7c 75 bf
       0.5995556 0.5779841 -0.6779493 -0.95892376
0002f0 e2 7b 02 be dc 8e 0b bf 92 60 21 3f 13 d3 71 3f
       -0.1274257 -0.5451486 0.6303798 0.944627
000300 68 20 d3 3e a4 cf f8 3a 85 c7 0d 3e 29 d4 8b 3f
       0.41235662 0.001898278 0.13845642 1.0924121
000310 58 0d ca 3e 9e d0 97 3e 65 01 c5 be 78 44 67 bf
       0.39463305 0.2965135 -0.38477626 -0.9033885
000320 b3 68 99 be 5f ea 81 be 1b 04 76 bf b9 23 37 bf
       -0.29962692 -0.25374123 -0.96100014 -0.71538883
000330 70 ba 84 3e fe 01 cd be 62 d3 af be ee 92 c8 bd
       0.2592349 -0.40040582 -0.3434096 -0.097936496
000340 ef 16 b1 bd bb e2 6f 3e 8c d2 8c 3e 51 e6 2b bd
       -0.08646952 0.23426335 0.27504385 -0.041967694
000350 76 00 d5 3d 1e 33 e5 3e 6d 7d 89 bd 16 9f f4 3e
       0.104004785 0.44765562 -0.06713376 0.47777623
000360 7d 67 f9 bd 4c 4e ed 3e 14 75 3d 3e 9b 9e 61 3d
       -0.12177942 0.46348798 0.18501693 0.0550829
000370 67 ac 91 bd f0 05 e1 be d8 0b 23 3e 95 08 bd 3d
       -0.07112961 -0.43949842 0.15922487 0.092301525
000380 50 54 d6 3e 63 2c df 3d 00 c9 4b 3d b7 5e 5f 3f
       0.418612 0.10897138 0.049752235 0.872539
000390 63 ea 06 3e 40 a3 13 3d 65 12 2e 3d c7 bb 27 bf
       0.13175349 0.03604436 0.04249801 -0.655209
0003a0 6b fb 0a be 24 83 1b 3d f1 de a5 bc 38 8a 13 bf
       -0.13572471 0.037966862 -0.020247908 -0.5763278
0003b0 db d8 8f 3d 9f 3c d0 be 23 1e a1 be b2 d6 7d bd
       0.07023784 -0.4067125 -0.31468305 -0.061972328
0003c0 0c ae c6 3e 95 e3 f3 3e 72 54 ac 3e 13 b8 d8 be
       0.38804662 0.4763457 0.33658177 -0.42327937
0003d0 21 25 82 3e 29 e3 03 bf 06 08 da be 42 ef cb bd
       0.25418952 -0.51518494 -0.42584246 -0.09957744
0003e0 0a 00 51 be 9b 9b 24 bf 24 18 fe 3e e3 2b 1c 3f
       -0.20410171 -0.64299935 0.49627793 0.61004466
0003f0 76 5d 87 be 49 b5 6c 3e 91 0d 10 bf 96 d9 75 bf
       -0.26438493 0.2311603 -0.562707 -0.96035135

actor.pi_net.fcs.0.bias f4 [64]
000000 17 bd 0d be ea b0 96 be 97 35 8d 3e 4b c0 cc bd
       -0.13841663 -0.2943185 0.27579948 -0.099976145
000010 8c e9 a2 be f8 56 c6 be 7c 9b d9 bc ee 30 d2 3c
       -0.31818807 -0.38738227 -0.026563399 0.025658097
000020 40 94 f9 3d 32 8d 45 be 7b d8 d8 bd c5 8e 86 be
       0.121864796 -0.19292143 -0.105881654 -0.262808
000030 ad 5b a1 3d 01 49 9b 3e b3 68 d1 bd c8 2c 10 3d
       0.07878814 0.30329135 -0.10225048 0.035198957
000040 f9 68 07 3e cc 83 df bd af a7 b0 bd bb 31 95 3e
       0.13223638 -0.1091381 -0.08625733 0.29139504
000050 40 d8 b1 3e 74 47 38 be 20 a7 30 3e 5a 77 82 be
       0.34735298 -0.17996007 0.17251253 -0.25481683
000060 ac 69 77 3d 29 d6 af 3e 37 c8 3d be 98 32 40 be
       0.06040351 0.3434308 -0.18533407 -0.187693
000070 30 19 1e be a5 3a 22 be b8 fc b8 3e f9 99 25 3e
       -0.15439296 -0.15842684 0.3613031 0.16172017
000080 83 52 b5 3b 9d 9e ca 3e 2f 05 5d bd ab fc 4c be
       0.005533518 0.39574137 -0.05396002 -0.2001826
000090 69 e5 b2 3d 63 a1 ea bd f9 8b 6f bd f0 ec 6e be
       0.08735163 -0.11456563 -0.058483098 -0.23332572
0000a0 4b 85 aa bd b3 8d bb 3e f7 81 c1 bc ba d4 a3 bd
       -0.08326205 0.36631545 -0.023621542 -0.07999559
0000b0 97 98 92 be a2 3a d5 bd ab 28 59 3e 8d 75 9e be
       -0.28632042 -0.10411574 0.2120692 -0.3094906
0000c0 33 68 20 3c b8 2d 7a 3e 77 5c 53 3c a1 a7 7e 3d
       0.009790468 0.24431503 0.012900463 0.062171582
0000d0 d0 de a3 3e 51 f2 f6 3c 23 98 73 be 3f cb b9 bc
       0.3200593 0.030144842 -0.23788504 -0.022679923
0000e0 a3 af d7 bd 2d 4b 72 be 6e 26 91 3e 70 f0 a7 3d
       -0.10531547 -0.2366149 0.28349632 0.08200157
0000f0 7a 33 f8 bc d3 41 b2 3d 2c e4 d2 bd 7a 0a b7 3e
       -0.030297983 0.08703961 -0.102974266 0.3575018

actor.pi_net.fcs.1.weight f4 [64, 64]
000000 ae 82 67 3d 73 ed 47 3c 65 66 c2 3d f3 fc 14 bd
       0.05652111 0.012202608 0.094921865 -0.036374044
000010 e3 d2 dc bc 5b 29 dc 3d 23 84 ed 3d d3 f5 ce bc
       -0.026956027 0.107500754 0.11597469 -0.025263702
000020 32 f8 08 3e 15 13 19 3d ae 52 9a bc 12 e3 bd 3d
       0.13375929 0.037371714 -0.018838253 0.09271826
000030 e8 5f ef 3c cd 82 0a bd d7 b1 f0 3d 19 cf e2 bd
       0.029220536 -0.033816148 0.1175267 -0.11074657
000040 3c ff 62 bd 44 4e c9 bc ce 64 40 3e b0 94 7a 3d
       -0.05541919 -0.024573453 0.18788454 0.061176956
000050 90 5b a0 bc 4a e4 4e 3e 33 ea b4 3d a1 25 ad 3d
       -0.01957491 0.20204273 0.088337325 0.08454443
000060 fa 0d a1 bd d1 8a f2 bc 83 81 3f 3e 94 53 c2 3d
       -0.07863994 -0.029607208 0.18701749 0.094885975
000070 81 01 15 3d 0a 79 a8 3d dc 9b dc 3d 48 78 52 3d
       0.036378387 0.08226211 0.10771915 0.05138424
000080 f7 6a 5f be 31 86 dd 3c 70 5a 19 bd ab 62 57 3d
       -0.21818148 0.027041527 -0.037439764 0.05258433
000090 93 61 c7 bd 92 5c bb bd 61 6c 1c 3d e2 b1 85 3d
       -0.09735408 -0.09148516 0.038189296 0.06528069
0000a0 c3 f4 b0 3d 49 cf b2 3d 08 71 41 bd f8 de d1 3d
       0.086404346 0.08730943 -0.047226936 0.10247606
0000b0 ca 38 12 3e f9 02 db bd 7b 40 52 be 38 36 ee 3d
       0.14279476 -0.10693926 -0.2053241 0.11631435
0000c0 43 19 bd 3d c7 73 80 3c a6 a2 1c 3d d9 9c 84 3d
       0.09233334 0.015680207 0.03824105 0.06475229
0000d0 82 60 84 3d 64 b5 53 be 56 38 b0 bc 03 d2 cf 3d
       0.0646372 -0.20674664 -0.021511238 0.101474784
0000e0 ab 6a 09 be 99 76 56 bd d0 05 01 3e a5 1e c2 bd
       -0.13419597 -0.052359197 0.12599874 -0.09478501
0000f0 15 f7 9f bc d0 de 0f 3e 6c 4b 02 3e 95 7c bb 3b
       -0.019526998 0.1404984 0.12724084 0.0057216384
000100 db 8b b7 3e 69 63 33 bd 16 55 c1 3b 11 0b 92 3d
       0.3584889 -0.043795977 0.0059000356 0.07131017
000110 e8 9a b1 3b 16 b5 73 3a 59 7c ae 3c 39 40 e4 3e
       0.0054200776 0.0009296698 0.021299528 0.44580248
000120 5c 14 aa 3e 3c 9a 31 3e de fa 8e 3d 72 44 32 3e
       0.33218658 0.17343992 0.06981443 0.17408922
000130 ae aa 9e 3e 5f 0a 6f bd 93 74 54 be 78 0c a9 3d
       0.30989593 -0.0583595 -0.20747595 0.08254331
000140 66 19 b7 be 10 1d 0b 3e 2e be 44 be 87 6e 66 3d
       -0.35761565 0.13585305 -0.19213173 0.05625775
000150 f4 bf 01 be 0a 4a bb 3e a4 22 30 3e 27 93 80 3e
       -0.1267088 0.36579925 0.17200714 0.25112268
000160 d9 59 80 3e e0 e5 24 bb 12 4e 0d 3c cf aa 81 3d
       0.25068548 -0.002516143 0.00862457 0.06331407
000170 27 ec b8 3e d2 d8 b1 bd 11 a2 2a be e9 b4 b2 bd
       0.3611767 -0.08683933 -0.16663386 -0.08725912
000180 2f e0 05 bd f0 46 4a bd 90 ce da 3d ee 61 21 be
       -0.0326845 -0.049384058 0.1068393 -0.15760013
000190 ba 32 00 3e db 79 e7 bd d6 86 d0 be 6f ab 9d 3d
       0.1251935 -0.11302539 -0.40727872 0.07698714
0001a0 94 2a df 3e f0 eb 53 3e 52 c6 9d be 4e 9a 1f be
       0.43587172 0.20695472 -0.3081537 -0.15586206
0001b0 da ea 3c be af e0 b4 3d 6d 7b 84 be 5c 22 39 3e
       -0.18448964 0.088319175 -0.25875416 0.18079513
0001c0 37 5e d2 3e 24 cb 64 be 7e cc d9 be f6 c0 fc bd
       0.41087505 -0.22343117 -0.42538828 -0.12341492
0001d0 b1 31 b2 bd 96 61 61 3e cc df fe bc f0 e1 ab 3d
       -0.08700884 0.22009882 -0.031112574 0.083927035
0001e0 2c b3 81 3e b1 cd 48 bd 70 ca cf bd 66 d0 f7 3d
       0.2533201 -0.049024288 -0.10146034 0.12100296
0001f0 2b bf 32 be 50 8c 85 bc 78 c8 ac 3e 3b 1b 4c be
       -0.17455737 -0.016302258 0.33746696 -0.19932263
000200 9e d8 19 3e 64 09 16 bd e0 7f f3 bc 2c 07 3f 3d
       0.15024039 -0.03663005 -0.029724061 0.0466377
000210 f9 a4 3f bd df ff a7 3d 89 ed 9b bc c1 77 82 3d
       -0.04678819 0.082031004 -0.019034164 0.063704975
000220 ca 5e 3a 3e 01 7b d7 bc 16 7d 97 bc b8 65 e6 3d
       0.18200222 -0.02630377 -0.018492263 0.1124987
000230 1b fe 37 3e aa 0c d2 bc a2 1a 2f be 47 6c 5a bd
       0.17968027 -0.025640804 -0.17100003 -0.053325918
000240 15 73 99 be f4 9b 0d 3e cd e5 b6 ba 69 94 d0 bc
       -0.29970613 0.13829023 -0.0013953984 -0.025461392
000250 d9 ad 73 3c 36 86 89 3e cc 3e af 3c ec b4 0f 3e
       0.0148729915 0.26860207 0.021392249 0.1403386
000260 ae 80 6c bd d6 0a 91 3d 38 9f 81 3c f3 6b 46 3d
       -0.057739906 0.07082145 0.015822992 0.048442792
000270 cf 1e 9b 3e d5 dc 16 3d 77 d8 b5 3c 94 9e 8a bd
       0.30296943 0.036831696 0.022197945 -0.067685276
000280 83 ad b2 bd 39 94 d5 3d 9e d0 d2 3d 0c ed 18 be
       -0.08724501 0.10428662 0.10293697 -0.14934176
000290 90 e2 dd 3d ec 82 4d be 25 06 c2 bd 5a f6 cf bd
       0.10834229 -0.20069474 -0.09473828 -0.1015441
0002a0 2a 2f 9f 3e 3f 26 0c 3e 51 fe 27 be e3 88 4f be
       0.3109067 0.13686465 -0.16405608 -0.20267062
0002b0 ca cf 12 3b 82 bf f5 3d ac c2 a1 be b1 1f 4f 3e
       0.0022401684 0.11999418 -0.31593835 0.20226933
0002c0 3d 6b 38 3e 24 36 ed bc 79 9d 46 bd 7c 87 9b 3d
       0.18009658 -0.02895648 -0.04849002 0.07594201
0002d0 95 64 c9 3d da bd f8 bd 43 32 94 bc a8 bc 1a 3e
       0.098336376 -0.12145586 -0.018090373 0.15111029
0002e0 83 af 38 3e a4 08 89 3d 5e a5 07 3d e9 33 47 3d
       0.18035702 0.06691101 0.03311669 0.04863349
0002f0 f6 76 c4 bc 99 9c 8b 3d 46 a8 9d 3e df f2 2f be
       -0.023982506 0.06816978 0.30792445 -0.17182492
000300 8e 29 ce be 50 61 2d 3d e1 6a e4 3d f1 2f 10 be
       -0.4026608 0.042329133 0.11153198 -0.14080788
000310 51 a1 46 3d c9 d8 07 3e 62 77 db 3c 30 72 ad be
       0.048493687 0.1326629 0.026790325 -0.3387618
000320 5a 39 69 be 3a 35 85 be 5d b9 8a bb f7 9b 33 bd
       -0.22775784 -0.2601717 -0.004233523 -0.04384991
000330 18 98 9c be 62 af 96 3d 91 df 09 3d 07 7e 79 3c
       -0.30584788 0.0735767 0.033660475 0.015227801
000340 f6 95 e7 3e 9f 81 5b be 03 09 2d 3d 0b 2e 9b bd
       0.452316 -0.21436165 0.042244922 -0.075771414
000350 18 3f 60 3e 02 84 a2 be f4 d4 1d be cd c8 88 bd
       0.21899068 -0.3174134 -0.15413266 -0.06678925
000360 c5 a6 54 be ed 9b 50 bd 97 43 a7 3c b8 61 74 be
       -0.20766743 -0.050929952 0.020417972 -0.23865402
000370 8b ac 80 be 91 73 c5 bd 01 fc 56 3a fa bd a5 3d
       -0.2513164 -0.09641183 0.00082010037 0.08092876
000380 4b ef 7f bd 7b 77 5a bd 80 b4 ce bd 4b cc 56 3d
       -0.062484067 -0.0533366 -0.100930214 0.052440923
000390 d9 b7 14 be 59 cb c4 3d 1d a9 8c 3e 01 eb d7 bd
       -0.14523257 0.09609098 0.27472773 -0.1054287
0003a0 d5 5d eb be 0a 96 5a 3d 4c 0f 96 3e 40 d3 10 3d
       -0.45970026 0.053365745 0.29308546 0.035357714
0003b0 ad 94 86 bd 55 65 22 3d 59 dc a3 3e c5 4d 4f bd
       -0.065713264 0.03964742 0.3200405 -0.050611276
0003c0 74 80 f5 be 1d 5b 47 3e 21 b7 d6 3e 75 2e 5c 3b
       -0.47949564 0.1946835 0.4193659 0.0033597026
0003d0 c4 04 e6 3d 38 a9 59 be 36 e6 9b bd d4 e7 57 bd
       0.11231378 -0.21255958 -0.076122686 -0.052711323
0003e0 dc 0f 38 be 15 7e 8a 3d eb f4 2f 3e a6 e7 0f 3d
       -0.179748 0.067623295 0.17183273 0.035133027
0003f0 db 86 51 3d 76 38 0b 3d 79 0a 9a be 95 e1 d5 3c
       0.051154 0.033989392 -0.30086115 0.026108542

actor.pi_net.fcs.1.bias f4 [64]
000000 f7 ad 98 bd 3a 66 ea bd d4 a1 1f bd 52 de b3 bd
       -0.07455056 -0.114452794 -0.03897269 -0.087826386
000010 57 c1 f4 bd 3b 6a 91 3d 5a 4a 8b 3d 50 54 62 3d
       -0.11950939 0.0710034 0.06801291 0.055256188
000020 21 36 e2 bd 92 be 7e 3d 19 15 c2 3d f7 a9 99 3d
       -0.110454805 0.06219346 0.0947668 0.07503121
000030 69 d0 b7 3d 99 d3 7e 3d ac fd 30 bc 1d 4d 44 bd
       0.08975298 0.062213514 -0.010802668 -0.047925103
000040 59 a1 fc bd a8 94 ec bd 29 dc f0 3d 60 f5 04 3b
       -0.12335462 -0.115517914 0.11760742 0.0020287856
000050 1e be 08 3e b2 5b 87 3d 9d b7 be 3d 7d 2e 6e 3d
       0.13353774 0.06609286 0.09312365 0.058149803
000060 a3 97 a5 3d 4c 94 06 3e 3d 7c bf bd 2b 6d 44 3d
       0.08085563 0.13142508 -0.093498684 0.047955673
000070 15 a1 c8 3d e9 12 33 3d 45 45 04 b8 59 d5 93 bd
       0.09796349 0.043719206 -3.1535765e-05 -0.07218427
000080 4a c4 00 bd b6 bc b2 3d 02 10 a6 3d 4b 11 1a bd
       -0.031437196 0.087274 0.08108522 -0.037614148
000090 9e 6a d1 bd 35 1c 64 3d fe bd 88 3d ff b5 c1 bd
       -0.10225414 0.055690963 0.06676863 -0.09458541
0000a0 bc b8 bb bd ed 5e c8 bd 8d 84 5b 3c ec 45 dd bd
       -0.09166095 -0.09783731 0.013398302 -0.10804352
0000b0 62 50 1d bd ee a9 cb 3d ab 2f 15 bd 25 3e 9d 3d
       -0.038406737 0.09944521 -0.036422413 0.07677869
0000c0 a0 44 ba bc dd d5 c2 3c 76 de 0d 3e b3 5e 8e 3c
       -0.022737801 0.023783619 0.13854393 0.01737914
0000d0 1e ed 61 bd 3a 9b 2b bd 17 b0 9e bd 5d 0f ca 3d
       -0.055157773 -0.041896082 -0.0774843 0.098662116
0000e0 95 82 9c 3d ba ea c0 bd 6b 5a 67 bd c8 e7 03 3d
       0.07642094 -0.094197705 -0.056482714 0.032203466
0000f0 70 d4 9a bd 5e f0 b5 3d 97 09 17 3c d2 85 ac 3d
       -0.075600505 0.08883737 0.009218595 0.08423962

actor.pi_net.fcs.2.weight f4 [1, 64]
000000 cd 7f 12 3e 67 17 9e 3e 70 a0 8b 3e da 3c c1 be
       0.14306565 0.3087723 0.27270842 -0.3774174
000010 c2 25 3a 3d 7a 12 38 bc 76 60 55 3e 92 b3 95 3c
       0.045446165 -0.011234874 0.20837578 0.018274102
000020 b1 c0 8f 3d 64 12 61 be 14 0f a2 3c bc 4a bb bd
       0.07019175 -0.21979672 0.01978258 -0.09145114
000030 be 69 ac bd 82 4e e0 bd 4d d8 e9 bd ca 16 fc bd
       -0.08418606 -0.10952474 -0.11418209 -0.12309034
000040 17 6e 88 3e 3f 83 5f be ca d4 55 bd 64 1b f2 bd
       0.26646492 -0.2182741 -0.052204885 -0.118216306
000050 e0 e7 d7 3d 66 49 81 be 17 51 b3 be e8 08 65 bd
       0.105422735 -0.2525131 -0.35022804 -0.055916697
000060 15 35 7f 3d ad 24 61 bd 4d 9a b1 3d 6d c4 bb be
       0.062306482 -0.054966617 0.08672009 -0.36673298
000070 67 10 8e be 1a 5d 8a be 98 28 32 be b7 bd c7 bd
       -0.2774689 -0.27024156 -0.17398298 -0.09752982
000080 31 0f 8d be a3 8a 5a 3d dd d5 8d bd 95 3c e1 3d
       -0.27550653 0.05335487 -0.06925557 0.10997883
000090 10 1f ba 3e 62 7e b5 3d 9a 60 ac 3e b7 68 07 be
       0.36351824 0.08861996 0.3366745 -0.1322354
0000a0 12 16 71 be 43 c5 8d 3d fe f2 4f bd f8 e3 ba 3d
       -0.23543575 0.0692239 -0.050768845 0.09125513
0000b0 96 60 13 be af a7 b6 3d d6 99 11 be 4c 36 5b 3d
       -0.14392313 0.08918702 -0.1421884 0.05351858
0000c0 37 10 f3 bd 26 8f 4c 3e c2 7c f9 bd 27 fb 36 3d
       -0.11868327 0.19976482 -0.12181999 0.04467311
0000d0 a3 ea 6b 3e 3c 8d 2e 3e 1b ab 86 be 5e 95 44 3d
       0.23038726 0.17046064 -0.26302418 0.04799401
0000e0 4e 63 ef bd ac b3 8c 3d 13 5c 83 3e a6 6c a8 be
       -0.11688863 0.06870207 0.25656185 -0.32895392
0000f0 73 51 ad 3e ee d1 d3 3d c0 70 0c 3e 09 59 47 3e
       0.33851203 0.10342775 0.13714886 0.19467558

critic.v_net.fcs.0.weight f4 [64, 4]
000000 80 1f 5d bf a7 4f b4 bd ab ba 2d c0 09 88 de bf
       -0.8637619 -0.08804255 -2.7145183 -1.7385265
000010 ed 3f 98 bf ba ac 68 bf 2a b9 52 c0 04 17 91 3e
       -1.1894509 -0.9088856 -3.2925515 0.28337872
000020 4e e3 cd bf 05 7b 40 3f 39 16 43 40 71 cd e2 be
       -1.6084993 0.7518771 3.0482314 -0.44297364
000030 a3 1f 6c 3e ec 76 6f be 84 bb a1 c0 73 91 cf bf
       0.23058943 -0.23385209 -5.05414 -1.6216263
000040 8b ad 77 3f 0b a7 68 3f eb 27 2b 40 7e af 6f 3f
       0.9674918 0.9087989 2.6743114 0.93627155
000050 25 46 9a bb a3 08 3b bf 25 e4 31 c0 4f 4f b9 bf
       -0.004708069 -0.73060054 -2.7795498 -1.4477328
000060 6a a5 5f bf de c4 1f 3f 38 9c 82 40 0d 01 ef 3f
       -0.87361777 0.6240977 4.0815697 1.8672196
000070 ef d0 88 3f c3 10 28 3f de d7 a0 3f cf a8 0b 3f
       1.0688761 0.65650576 1.2565877 0.54554456
000080 e2 2f 6e be 4f 5d c1 3e 00 29 97 40 7a 79 6c 3f
       -0.23260453 0.377665 4.723755 0.9237286
000090 50 2a d9 3e 2d 99 a3 3f 46 d6 d4 3f 83 41 55 3e
       0.42415094 1.278112 1.6627891 0.20825772
0000a0 20 f1 3e bf f5 15 af bf b7 57 54 c0 f8 94 0d 3f
       -0.7458668 -1.3678576 -3.3178537 0.55305433
0000b0 23 ad 3b 3f 9d c6 2f 3d 53 bb ad 3f 5e 2c 65 3f
       0.7331106 0.04291402 1.3572792 0.89520824
0000c0 3a b6 6a 3e c1 17 96 3f e0 06 4b 40 b7 b5 3b bf
       0.22921076 1.1725999 3.1722946 -0.7332415
0000d0 df a1 88 bf 43 97 74 bf 12 38 e6 bf cc 1d 29 be
       -1.0674399 -0.9554331 -1.7985861 -0.16515273
0000e0 76 53 7b 3d 04 2c d2 3f 42 5a 25 40 18 d9 53 bf
       0.06135889 1.6419683 2.583634 -0.82753134
0000f0 13 9d 15 be 6a 26 98 bf 8d e1 8e 3f 5b e0 3f 3f
       -0.146107 -1.1886723 1.1162583 0.74951714
000100 26 1e dd be 9a c9 1f bf 96 ea 69 c0 b2 cd 28 bf
       -0.43187064 -0.62416995 -3.654943 -0.65938866
000110 e4 ed 08 bf 22 b3 2e 3f c2 3f 2c 40 16 ee 93 3f
       -0.5348799 0.68242085 2.6913915 1.1557033
000120 52 c6 07 3f be 77 12 3f 26 34 84 40 c3 c0 93 3f
       0.5303699 0.5721396 4.131366 1.1543201
000130 a6 80 bc 3e 3b 2f 01 3f 60 f2 1c 40 ab 5c be bc
       0.368169 0.5046269 2.4522934 -0.023237547
000140 89 22 58 bf 39 83 e8 3c 8e 76 4b c0 81 77 b8 bf
       -0.84427696 0.028382884 -3.179111 -1.441147
000150 a0 51 75 be 9c ce c2 bf c2 a7 f0 bf 5c fb d8 3e
       -0.23956919 -1.5219302 -1.8801196 0.42379272
000160 34 be 47 3f 3c 34 1a 3b 2b c2 33 40 fd b5 c9 3f
       0.780246 0.002352967 2.808726 1.5758663
000170 bd 90 a5 3f 26 18 00 40 c7 18 27 40 0b 86 19 3f
       1.2934796 2.001474 2.6108873 0.5997016
000180 35 64 83 bf 8f bc 6a bf 86 a1 ad 3f c2 0a c4 3f
       -1.0264956 -0.9169397 1.3564918 1.5315783
000190 a5 eb ac 3f 32 66 aa 3f 87 12 f2 bf 94 18 7e be
       1.3509413 1.3312438 -1.8911904 -0.24814063
0001a0 15 b4 be 3e 18 59 87 bf 03 50 5b c0 d8 4d 57 3f
       0.37246767 -1.0574064 -3.4267585 0.84103155
0001b0 ec ad 8a be d5 81 eb be 19 30 9a c0 19 87 81 bf
       -0.27085817 -0.4599749 -4.8183713 -1.0119354
0001c0 a9 1e 49 3f 74 4f d2 3f 02 e3 2d 40 0e 4a 81 bf
       0.7856241 1.6430497 2.7169805 -1.0100725
0001d0 40 49 ba bf c3 8f bf be 35 e0 74 3f fa 9e af be
       -1.4553604 -0.3741437 0.9565461 -0.34300977
0001e0 26 b7 a2 3e 97 ff ba 3f 01 d5 ae 3f 8f c8 0f bf
       0.31780356 1.460925 1.3658754 -0.56165403
0001f0 60 a9 01 c0 80 29 dd be 02 47 f9 3d 6a 08 84 3e
       -2.0259628 -0.43195724 0.12171747 0.2578767
000200 f0 35 c7 be e3 b8 d5 3f 6a 1d 34 40 3f dd bc bd
       -0.3890834 1.6697048 2.8142953 -0.09221887
000210 8a 36 65 3e 76 19 e2 3e 30 11 d9 3f 8d 08 a1 3f
       0.22384086 0.4416005 1.695837 1.2580734
000220 cf e1 93 bf eb d5 d3 bf 87 dd ff bf a4 60 1f bf
       -1.1553286 -1.6549658 -1.998948 -0.62256837
000230 38 0f 35 bf fa b4 08 bf a0 59 08 c0 c8 9e 5e 3e
       -0.70726347 -0.5340115 -2.1304703 0.21740258
000240 94 2f e5 3e 31 4b 87 3f 80 37 54 40 38 e5 3b 3e
       0.44762862 1.0569822 3.3158875 0.18349159
000250 39 e0 df 3d 38 b2 11 bf 14 2c 27 c0 bc e7 8f bf
       0.10931439 -0.56912565 -2.6120653 -1.1242595
000260 70 09 87 3f ce 6f a4 bf 6e 3e 76 c0 c7 b2 95 be
       1.0549755 -1.284662 -3.8475604 -0.2923796
000270 79 bd 38 3f 8e 8c 59 3f 7a 1a 24 3f 6d e3 82 3e
       0.7216411 0.84980094 0.641029 0.25564137
000280 86 45 fc bf 0c ac c6 bf 8c 1f b9 3f 34 39 1d 3f
       -1.9708717 -1.5521255 1.4462752 0.6141541
000290 06 a7 02 3f cc c3 cb be eb 85 91 c0 e6 15 c6 bf
       0.5103611 -0.3979782 -4.5475974 -1.5475433
0002a0 01 5f 14 be 9f ba 72 3f c5 cc 8a 40 4c 83 63 3f
       -0.14489366 0.9481601 4.3374963 0.8887222
0002b0 21 9a bc 3f cc ca 6f 3f fb a7 26 40 65 f8 ee 3e
       1.4734536 0.9366882 2.6040027 0.46673885
0002c0 48 ad f3 3d f8 51 45 be 58 92 5d 40 a8 94 01 3f
       0.11898285 -0.1926955 3.462057 0.50617456
0002d0 a2 4f c0 3e 45 48 52 3f ec dd e9 3f 84 a9 95 3e
       0.37560755 0.82141525 1.827085 0.29230893
0002e0 fc 44 9b 3e 79 3e 1e bf 88 52 40 c0 05 9c b7 bf
       0.30326068 -0.61814076 -3.0050373 -1.4344488
0002f0 23 15 ae 3e 77 af cb 3f 70 74 21 40 64 fa 3e 3d
       0.340005 1.5912923 2.5227318 0.04662551
000300 b9 e3 52 3f 45 55 b7 3f 27 fb fa 3f 0c d0 a7 bd
       0.8237873 1.4322897 1.9607896 -0.08193979
000310 6d 19 06 3f 63 51 3a 3f 21 46 9c 3f 5b ad 45 bf
       0.52382547 0.72780436 1.2208902 -0.77217644
000320 72 29 bf bd 44 61 93 bf a5 e8 8b c0 e6 4b 28 bf
       -0.09334077 -1.1514058 -4.372149 -0.6574081
000330 d2 92 3e be 6f 3e a8 bf fb 29 45 c0 78 8e ff bd
       -0.18610695 -1.3144053 -3.0806873 -0.12478346
000340 5d dd 1d bd c8 23 99 3e f7 c5 85 c0 57 9e 0f c0
       -0.038541187 0.2991011 -4.1804156 -2.2440393
000350 e4 c0 42 3f f6 7b 27 bd 22 e3 45 40 29 dc da 3f
       0.7607558 -0.040889703 3.091988 1.7098438
000360 72 12 94 3f 51 13 1d 3f 58 77 4a 40 34 04 8e 3f
       1.1568129 0.613576 3.1635342 1.1095033
000370 fb 82 8b bf b9 35 ae 3f ca 98 fe 3e 0e a3 fa bf
       -1.0899347 1.3610145 0.49725944 -1.958101
000380 16 fd 2a 3c c7 17 a6 be 84 d7 8b c0 c6 34 c3 bf
       0.010436317 -0.32440016 -4.370058 -1.525048
000390 f5 c2 b8 bf 95 96 82 bf f8 5b 20 c0 9c c5 38 bf
       -1.4434496 -1.0202204 -2.5056133 -0.7217653
0003a0 14 ca 63 be 48 39 c0 3d a2 dc 87 c0 81 dd b9 bf
       -0.22245055 0.093859255 -4.2456827 -1.4520723
0003b0 a9 6d 2d bf ce 15 8d 3f d2 78 74 40 1f c7 1b be
       -0.67745453 1.1022279 3.8198743 -0.15212677
0003c0 f9 3b 53 3f ee 19 bd bf da c4 62 c0 e7 cd 48 bc
       0.82513386 -1.4773538 -3.5432649 -0.012256122
0003d0 84 9c 75 3f a6 bd 80 3e 9c 8b f8 3f d2 56 9f bd
       0.9594195 0.2514469 1.9417605 -0.077802315
0003e0 9d dc c9 bc 4e 62 ba be a0 25 9b c0 84 9f ab bf
       -0.02464133 -0.36403126 -4.848343 -1.3408055
0003f0 e0 95 01 c0 c5 6b d7 bf 33 d9 19 40 45 70 86 3f
       -2.0247726 -1.6829764 2.4038818 1.0503012

critic.v_net.fcs.0.bias f4 [64]
000000 e4 f8 03 be 4b 79 58 3e bd a8 b7 3d 98 ae cd bc
       -0.12887913 0.2114002 0.08967731 -0.025107667
000010 c4 69 17 3e 87 4b 54 be 43 a5 ba 3d e9 32 65 3e
       0.1478644 -0.20731936 0.091135524 0.22382702
000020 14 14 8c 3c db 3a 8f 3e f1 4b 27 3d b9 23 ea 3e
       0.017099418 0.2797459 0.040843908 0.4573038
000030 48 11 4a bd ba 3a 7a be 3c 7c 9c bd 5e b3 92 3d
       -0.049332887 -0.24436465 -0.07640883 0.07163118
000040 74 9e d5 bd 4c c8 53 bc 5e 5f 73 3d 1a 76 89 be
       -0.10430613 -0.012926172 0.05941712 -0.26847917
000050 d7 c0 f3 bd 41 66 89 be da 40 ad 3d 34 e8 2d 3d
       -0.11902016 -0.26835826 0.08459635 0.042457774
000060 95 6a 0e 3e 3d 32 8a be 4f 72 90 bc a8 7b 36 bd
       0.13907845 -0.26991454 -0.017632632 -0.04455152
000070 b9 d8 f8 3b 08 18 21 3e 19 5a 8b 3e 38 1f 52 be
       0.0075941947 0.15731823 0.27217177 -0.20519722
000080 d2 6f 7e bd c1 2f 93 bd 36 de e4 bd bd 9f 5c 3e
       -0.06211836 -0.07186843 -0.11175196 0.2154531
000090 80 53 39 3e 58 c0 f5 3c 23 7f 1d 3d d9 ed 92 be
       0.18098259 0.029998943 0.038451325 -0.28697088
0000a0 18 85 14 3e ac 0c a9 bd 27 e6 c0 3d de 35 5a 3d
       0.14503896 -0.0825437 0.09418898 0.053274028
0000b0 03 d2 d4 3d f7 3f c8 3e 09 59 cc 3c 86 a3 7c 3e
       0.10391619 0.391113 0.024944799 0.24671754
0000c0 8e 6b 63 3e 0b 44 88 3e 5b d0 46 bd cd 6e 84 3d
       0.22208998 0.26614413 -0.048538547 0.06466446
0000d0 8a c9 cb 3d e4 4b db 3d 03 f7 83 bc dd 59 31 be
       0.0995055 0.10707834 -0.016108995 -0.17319436
0000e0 16 b8 76 bd 9f 96 ac 3e c2 42 1a 3d 96 0a 23 3e
       -0.06023415 0.33708665 0.03766132 0.15922007
0000f0 29 0b d0 bd 76 6f 5d 3d b9 be e6 bc 5b 99 b6 3a
       -0.10158379 0.054061376 -0.028167116 0.0013931202

critic.v_net.fcs.1.weight f4 [64, 64]
000000 9b 6c 0c 3f 40 29 27 bd b1 e8 17 bd 24 76 e8 3e
       0.5485322 -0.040810823 -0.037087146 0.45402634
000010 77 ec 31 bf 13 db f1 3e 67 9f 87 be 38 7c 35 bf
       -0.6950144 0.47237453 -0.26488802 -0.7089267
000020 72 8c ae be 97 db 47 bf eb 05 33 3e 6e 43 56 bf
       -0.34091526 -0.7806944 0.17482726 -0.8369664
000030 3f 3f 12 3e 81 4b 6b 3f ff 5e 30 3e 8c 6a 45 bb
       0.14281939 0.91912085 0.17223738 -0.0030123321
000040 b5 9e a4 3e e9 4e 44 be 35 1e 1f bf d6 fa 8e 3e
       0.32152334 -0.19170727 -0.6215547 0.27925748
000050 84 b9 f5 3e da 32 32 3f d6 1c 01 bf 70 46 8d be
       0.479931 0.69608843 -0.50434625 -0.27592802
000060 29 43 c1 bc fc 9a 50 3e aa 1c e1 3d a3 d0 3c 3f
       -0.023591595 0.20371622 0.10991795 0.73755854
000070 9a 24 ad 3d 3d a0 9d be 2d 78 27 bf bc 1d 13 3f
       0.08454247 -0.30786315 -0.6541775 0.57467246
000080 6e d7 da 3d 69 6b 9d 3d a4 46 02 3f a5 bc f6 be
       0.10685621 0.076865025 0.5088904 -0.481908
000090 7c e7 58 bf 0c b5 0b be 21 e1 79 bd 35 23 fd 3e
       -0.8472822 -0.13643283 -0.061005715 0.49440923
0000a0 9e 06 19 3e 8e 13 ac 3e cf 84 34 bf da 5c 81 be
       0.1494393 0.3360867 -0.7051515 -0.25266153
0000b0 de 73 9f be a7 12 4b bf 16 14 78 3d 20 19 20 bf
       -0.31143087 -0.79325336 0.06056603 -0.6253834
0000c0 8f e1 5d bf 38 13 f7 be 33 5d d4 3e c6 77 c5 bd
       -0.866723 -0.4825685 0.41477355 -0.096419856
0000d0 e9 62 0f 3f aa 34 32 bf 63 ba d2 be a0 fe 57 3e
       0.560103 -0.6961161 -0.41157827 0.21093225
0000e0 75 8b 15 3f e0 5b 94 3e 7a 3c da 3e af cd 5a be
       0.5841592 0.28976345 0.42624265 -0.21367525
0000f0 10 b1 35 3e 2e f9 c5 bd 0b 1c 33 3f 38 7e 79 3d
       0.17743325 -0.09666668 0.69964665 0.060911387
000100 44 e3 c2 3e 65 b4 85 3f fe 3b 76 3d 6e 50 e3 3e
       0.38064015 1.0445677 0.060115807 0.443973
000110 32 aa 5b bf de f0 36 3e 95 59 8a bd 22 8f ff be
       -0.8580657 0.17865321 -0.06755368 -0.4991389
000120 e5 e8 58 bf 88 ee 0a bf ae b8 17 40 6d 42 3d be
       -0.8473037 -0.5427022 2.370647 -0.1848237
000130 af 3a ae bf da 05 34 3f f6 5a bc bf b8 0a 2b 3f
       -1.3611659 0.7032143 -1.4715259 0.6681323
000140 b5 f3 6b 3f dc 18 29 bf 61 b2 e3 bf 4f ca 0f bf
       0.9216874 -0.6605356 -1.7788812 -0.56168073
000150 1b 96 b8 3e 68 c0 40 3f bb 92 9b be 7d 09 53 c0
       0.3605202 0.7529359 -0.30385384 -3.297454
000160 8c 43 26 3f eb 73 01 bf ae 03 c3 3f d4 68 82 3f
       0.6494682 -0.505675 1.5235498 1.0188241
000170 aa ca 0b c0 f8 3c f6 3e 4b 1c 00 bf 20 16 2e 3f
       -2.1842446 0.4809339 -0.5004317 0.6800251
000180 3c ec bc bf 14 22 b1 be 7c d5 ad 3f ef 25 38 3f
       -1.4759593 -0.34596312 1.3580775 0.7193288
000190 95 8a 92 bf ea 09 0d 3f 25 34 a6 3f 50 a4 21 bf
       -1.1448542 0.5509325 1.2984663 -0.63141346
0001a0 68 5e 5f 3f 41 92 4f bd 1e 69 a0 bf fe 20 c2 bf
       0.8725343 -0.050676588 -1.2532079 -1.5166318
0001b0 4c a9 b0 bc 92 80 fb be 6b 7b ca 3e 2f 0a 49 bf
       -0.021565102 -0.4912153 0.39547285 -0.78531164
0001c0 cc 5e 8c bf 5e 59 a8 be 97 ea ee 3f bf 38 aa 3f
       -1.096643 -0.32880682 1.8665341 1.3298568
0001d0 74 ea 77 3f 1d 7e 89 be 1f 97 af bf cc 37 86 bf
       0.9684212 -0.2685403 -1.3717993 -1.0485778
0001e0 5b 86 65 3f 0d 58 09 3f ff dd 03 3f 46 44 1b bf
       0.89658135 0.5364998 0.51510614 -0.6065105
0001f0 d9 b1 8c 3f ff 15 21 bf 96 41 5c 3f 8d d9 87 3f
       1.0991775 -0.6292419 0.86037576 1.0613266
000200 ee c6 ee 3d 46 3e 46 be 27 e6 fa 3e 3e 24 e7 be
       0.116590366 -0.19359693 0.49003717 -0.45144838
000210 4b 92 46 be 16 e3 31 bf d3 61 c1 3e 8c 0f a4 be
       -0.19391744 -0.6948713 0.37769946 -0.3204311
000220 cb 90 fa 3d 7c 61 dc be 18 1c 44 bf e9 25 37 bf
       0.12234648 -0.43043125 -0.7660537 -0.7154222
000230 2d 37 31 3f 29 d6 cc 3e 97 e8 e9 3e c6 81 37 3e
       0.69224817 0.4000714 0.45685264 0.17920598
000240 a2 db 0a bf 82 c6 90 3f 01 9d 8b 3d c1 eb c2 bc
       -0.54241383 1.131058 0.068170555 -0.023794057
000250 be 2b bf 3d c4 6e 08 3f da 72 1b 3d a5 00 17 3d
       0.09334515 0.53294015 0.037951328 0.03686585
000260 27 bb 6c 3e 0a df 3d be 0d 29 ca 3d 21 61 8a 3d
       0.23118268 -0.18542114 0.09871111 0.06756807
000270 c5 de 70 3e 1a a6 81 be d8 26 ca be 3f 16 21 3f
       0.2352248 -0.25322038 -0.3948276 0.6292457
000280 f6 74 3c 3f c5 b9 cb 3f 9d a8 1a 3e 56 8d 75 bf
       0.7361597 1.5916067 0.15103383 -0.95918787
000290 da 11 ba be 3c 45 d4 bf 10 a8 1a bf 09 10 2b 3f
       -0.36341745 -1.6583629 -0.60412693 0.6682134
0002a0 3e ba ca 3e 2f bd eb be 50 18 11 3d b5 fc 89 3e
       0.39595217 -0.46042773 0.035423577 0.26950613
0002b0 b3 fd 0d 3f 36 5c 28 bf 7e 19 a0 bf 58 83 12 bf
       0.5546524 -0.657657 -1.250778 -0.57231665
0002c0 c0 fd d3 be 64 23 38 bf d6 db 28 bf 36 4f 33 bf
       -0.41404533 -0.71929 -0.65960443 -0.7004274
0002d0 6e f7 91 be 92 78 57 bd cb 4a 30 be 4a 4f 40 be
       -0.28509086 -0.05260522 -0.17216031 -0.18780246
0002e0 47 b7 29 3e 8b 53 df bd 4e 47 0a be 93 ff 24 be
       0.16573821 -0.109046064 -0.13503763 -0.16113119
0002f0 67 1f 02 be a5 b4 66 be a5 fe 7a bd ac 72 fc 3e
       -0.12707292 -0.22529848 -0.061278004 0.49306238
000300 64 5b cf be 2e 2b 01 bf 78 f7 24 3f 76 ee a6 bf
       -0.40499413 -0.5045651 0.6444011 -1.3041523
000310 d1 c3 e9 3e 80 39 6a be 23 58 c6 3e 2d bb 86 3d
       0.4565721 -0.22873497 0.38739118 0.0657867
000320 24 7c 01 40 40 c5 00 3f 18 a8 cf bf 04 09 10 3e
       2.023202 0.5030098 -1.6223173 0.14065939
000330 25 00 9a 3f ba 1c c3 be b2 a5 9c 3f e3 0e 90 bc
       1.2031294 -0.38107854 1.2238066 -0.017585224
000340 83 a3 69 bf ec a0 3b 3f 6f c7 06 40 0e d2 6f 3e
       -0.91265124 0.7329242 2.1059225 0.23419973
000350 85 3c 9d be 26 bf 1b bf 52 f2 9d 3e ea 53 bc 3f
       -0.30710235 -0.60838544 0.30848938 1.4713109
000360 68 17 0a 3e 16 02 a7 be aa a5 ec bf e0 93 e8 bf
       0.13485491 -0.3261878 -1.8488057 -1.8170128
000370 14 23 ba 3f 59 7c 9d 3c 64 d3 b4 3d f7 7f 97 3e
       1.4541955 0.019224333 0.08829382 0.29589817
000380 ca e3 86 3f 1a 6b 3b 3e 52 17 1e bf 5e ef 3d bf
       1.0538266 0.18302575 -0.61754334 -0.7419337
000390 76 52 ad 3f b6 f2 7a be e1 19 b6 bf 11 0b bb 3e
       1.354079 -0.2450665 -1.4226648 0.3653188
0003a0 34 d3 aa 3e d4 c1 07 bf 78 d2 0d 40 a0 97 d0 3e
       0.3336426 -0.53030133 2.215971 0.4074068
0003b0 aa 0c 89 3e 27 90 9f 3e b9 90 a0 be f0 22 1e 3f
       0.26767474 0.31164667 -0.31360415 0.6177206
0003c0 16 7a 05 3f e6 6c 85 3e 03 cf 00 c0 c6 14 5c bf
       0.52139413 0.26059645 -2.012635 -0.859692
0003d0 36 cc d4 bf e4 05 cf 3e 1e 9d 92 3f 45 87 6e 3f
       -1.662482 0.40434182 1.1454198 0.93175155
0003e0 a6 a0 ee bf fa b9 48 3e 53 db ad bf d5 1f 76 3f
       -1.8642776 0.19602194 -1.3582557 0.9614232
0003f0 56 66 b5 bf 4d ca 4c 3e 51 d0 f4 bf d1 72 dc 3e
       -1.4171855 0.19999047 -1.9126073 0.43056348

critic.v_net.fcs.1.bias f4 [64]
000000 99 4c a9 be 1b 1d 22 bd 46 0e 83 bf 27 e7 a9 bd
       -0.33066252 -0.03957854 -1.0238731 -0.08296042
000010 33 97 ea 3e 38 ae cd 3d 2b 68 35 3e 07 e2 2d bf
       0.4581848 0.10042995 0.17715518 -0.67923015
000020 ae ab 92 3f e9 81 0d bf 71 6b b1 bb 04 18 bc be
       1.1458642 -0.5527635 -0.0054144193 -0.36737072
000030 9a d3 01 bf 4a d2 f0 be 8f 60 be bd 44 70 82 be
       -0.50713503 -0.47035438 -0.09295761 -0.25476277
000040 c6 e2 91 bf 26 b8 d5 3d 1b 61 0e be 48 a0 ae be
       -1.1397331 0.10435514 -0.1390423 -0.3410666
000050 9b da 88 3e 48 b8 6c 3e b0 4d 02 3c 06 51 81 be
       0.26729283 0.23117173 0.007953092 -0.25257128
000060 f0 c4 4d be 07 0f 10 be f7 68 08 3e d8 85 d3 be
       -0.20094657 -0.14068232 0.13321291 -0.41313052
000070 a5 7b 08 3f 79 73 de 3e cb a5 5d bd 0f a0 78 bf
       0.53313667 0.43447474 -0.05411319 -0.9711923
000080 2c e2 b8 be 25 af 60 3f a7 56 3e 3e ba b4 e9 3c
       -0.36110055 0.8776725 0.18587743 0.02852856
000090 22 5e 44 bf 9b ab ad be 63 7b cb 3e c8 e1 bb 3f
       -0.76706135 -0.33919987 0.39742574 1.4678278
0000a0 c8 c7 13 3d c4 36 21 bb a1 3f ff 3d 4a 99 f4 3c
       0.036079198 -0.0024599293 0.12463308 0.02985825
0000b0 79 14 c4 be a9 90 a5 bf 01 b8 91 bd 27 28 79 be
       -0.3829687 -1.2934772 -0.07115174 -0.24331723
0000c0 58 a6 a6 3d 75 42 07 bf 02 81 29 be 39 cb 0b 3e
       0.08137196 -0.5283578 -0.16553119 0.13651742
0000d0 fd be c4 3e 05 2f 1d bf 97 84 d7 bd 70 03 19 bf
       0.38426962 -0.6139987 -0.105233364 -0.5977087
0000e0 37 a2 f1 bf c9 05 18 bd a6 aa a8 3e 3e 7d 8e 3e
       -1.8877629 -0.037114892 0.32942694 0.27829927
0000f0 f7 1d 9e 3f 63 a1 83 be dd 72 61 3f 06 b2 aa 3f
       1.2352895 -0.25709066 0.8806589 1.3335578

critic.v_net.fcs.2.weight f4 [1, 64]
000000 12 c7 ac bf d8 9b 5f 3f 36 86 6f c0 f3 8a 10 bf
       -1.3498251 0.87347174 -3.7425666 -0.5646202
000010 9a e6 ac bf d6 ad c7 3f f8 a9 97 3f b7 77 b8 3f
       -1.3507874 1.5599926 1.1848745 1.4411534
000020 9c 75 15 40 98 89 c4 bf a3 cf 30 3f ff 8d ad 3f
       2.3353033 -1.535449 0.6906683 1.3558959
000030 44 ff 3d c0 ca 8e 10 c0 e4 df 88 bf aa 6b c4 bf
       -2.9687052 -2.2587152 -1.0693326 -1.5345356
000040 d1 27 15 c0 93 57 20 c0 23 f7 a3 3f fa 96 b9 3f
       -2.3305552 -2.505345 1.2809795 1.4499199
000050 ec a7 f9 3f 2a a7 4d 3f ad a3 94 bf 62 f9 2f c0
       1.9504371 0.803332 -1.161245 -2.749596
000060 12 2b e5 3f 0f 3a 13 40 f3 6c 82 3f 55 23 1c 3f
       1.7903769 2.3004186 1.0189499 0.6099141
000070 e5 04 e5 bf 03 90 e1 3f d8 db fc 3e b2 5e 04 c0
       -1.7892119 1.7622074 0.49386477 -2.0682797
000080 6a a6 0b bf ac 96 21 40 5b 9c 6f 3f c4 2d 4f bf
       -0.545508 2.5248213 0.93597955 -0.8092921
000090 77 80 0b c0 9b b1 f4 bf 9c cb f8 3f 42 e6 18 40
       -2.1797159 -1.9116701 1.9437137 2.3890538
0000a0 4b 75 4e 3f 88 92 0e bf 61 da 8a bf 4a 3f 7d bf
       0.80647725 -0.5569234 -1.0847894 -0.98924696
0000b0 ff 2d eb bf dc 61 1e c0 ff 4b 84 bf ec 41 e5 bf
       -1.8373412 -2.4747229 -1.0335692 -1.7910743
0000c0 42 5b 86 bf 09 34 64 c0 34 b3 1b c0 5d 26 36 3f
       -1.04966 -3.565676 -2.4328127 0.7115229
0000d0 ba 82 bc bf 25 01 62 bf 0e cd 4c bf 36 a6 cc 3f
       -1.4727395 -0.88282996 -0.8000039 1.5988224
0000e0 96 7d 30 c0 c2 17 0a 3f 3d 73 93 bf 0d d4 a2 bf
       -2.7576652 0.539425 -1.1519543 -1.2720963
0000f0 7b 09 9e 40 a1 ba b0 bf a4 2e c1 bf a9 96 0e 40
       4.9386573 -1.3806955 -1.5092359 2.2279456

exp_avg f4 [64, 4]
000000 26 f8 da bb 6e 8e af 3a 10 c4 88 3b 73 3e a2 bb
       -0.0066824136 0.0013393888 0.004173763 -0.004951292
000010 73 8b 18 3a 86 f0 ad 39 8b ea 4b b9 6b cf b5 39
       0.00058191194 0.00033176335 -0.00019446963 0.0003467755
000020 2d 12 07 3a df d0 70 b9 dd cb bf b9 37 10 dd 39
       0.000515255 -0.00022965994 -0.0003658225 0.00042164486
000030 9d 14 8a 39 52 10 1b 3a cd 95 06 39 07 58 2e 39
       0.0002633677 0.00059152127 0.00012835041 0.00016626726
000040 2b c2 3b ba e7 46 62 38 a7 7e d3 39 b1 21 07 ba
       -0.0007162417 5.3948632e-05 0.0004033942 -0.0005154862
000050 d5 7e 37 ba 6d 24 49 ba 14 0d e1 38 03 f1 c0 b9
       -0.00069997954 -0.00076729694 0.00010731272 -0.00036800661
000060 cb fa 0e bb 23 d9 5a ba a3 02 84 3a a9 76 9f ba
       -0.0021816965 -0.0008348396 0.0010071587 -0.0012166101
000070 9f 31 80 bb 6e 22 2b 3b d2 97 52 3b 08 5c 45 bb
       -0.0039121653 0.002611305 0.003213395 -0.003011467
000080 d5 bf 9f bb 1f 5f de 3a b1 bb 63 3b e2 90 62 bb
       -0.004875163 0.0016965604 0.0034749324 -0.003457122
000090 b1 3d 19 bb d2 f0 c5 3a 26 ec f8 3a 30 08 dd ba
       -0.0023382718 0.0015101677 0.0018991276 -0.0016863402
0000a0 8b 4e 1b 3a 75 e9 2f 3a d0 e5 6e b8 7d 3a b2 39
       0.00059244846 0.0006710508 -5.695765e-05 0.00033994383
0000b0 2c fc 10 bb af ee 8d b8 bb ce 90 3a cd cb d9 ba
       -0.0022122962 -6.767862e-05 0.0011047939 -0.0016616523
0000c0 a1 ea 6c bb fd 99 c7 3a ea 4e 2d 3b b9 0d 2d bb
       -0.0036150592 0.0015228387 0.0026444742 -0.0026405884
0000d0 a2 36 a0 3a 6b c4 ca b9 ec c2 4f ba 09 79 7f 3a
       0.0012223313 -0.00038674785 -0.0007925469 0.00097455137
0000e0 42 f0 3c 3a 5f e2 19 ba 6e 08 27 ba 8a 40 1a 3a
       0.0007207432 -0.0005870219 -0.00063718006 0.0005884251
0000f0 4b 3d 60 3a 49 81 b3 3a e6 a0 51 37 75 ed c5 39
       0.0008554055 0.0013695146 1.2494833e-05 0.00037751687
000100 43 00 23 3c c5 42 d9 39 75 ac a4 bb 17 3c ed 3b
       0.009948793 0.00041439213 -0.0050254413 0.0072398293
000110 cd bd ac bb 0c 86 c5 b7 06 fb 35 3b f8 dc 78 bb
       -0.0052716495 -2.354665e-05 0.002776803 -0.0037973505
000120 7d 08 8c ba 4f 5d 73 ba a4 ca 89 39 9b f5 14 ba
       -0.0010683682 -0.00092836184 0.00026281655 -0.000568235
000130 84 b8 06 ba 42 0f 2c 3a 3f 37 13 3a 06 01 ea b9
       -0.00051391893 0.0006563553 0.0005615837 -0.0004463272
000140 d9 97 ba 3a 64 00 42 ba 84 9c 88 ba 48 07 97 3a
       0.0014235928 -0.0007400571 -0.0010422622 0.0011522556
000150 15 10 08 bc d6 b4 c2 ba d4 6d 6d 3b e1 61 c4 bb
       -0.0083046155 -0.0014854919 0.0036228793 -0.0059931134
000160 a5 3d 46 ba 29 9f 58 3a dd c5 45 3a 23 69 1f ba
       -0.00075622863 0.0008263463 0.00075444375 -0.0006081035
000170 c4 97 3f bb 54 d4 22 39 c2 6c cf 3a c6 7b 10 bb
       -0.0029234746 0.00015528622 0.0015825259 -0.002204643
000180 a2 82 e7 36 03 35 8f 3a 56 d6 c6 39 45 72 18 b9
       6.899544e-06 0.0010925833 0.00037925196 -0.00014538418
000190 3d c5 f7 39 24 01 a8 39 2a b4 13 b9 a2 48 92 39
       0.00047258465 0.00032044307 -0.00014086129 0.00027901406
0001a0 a6 22 a5 ba e5 f4 0c ba b9 10 0b 3a d6 5a 40 ba
       -0.0012598827 -0.00053770683 0.0005304921 -0.00073377544
0001b0 52 fd 33 bb 7f 5d c2 3a bd 09 0b 3b 92 cf ff ba
       -0.0027464223 0.0014828889 0.0021215521 -0.0019516817
0001c0 dc 1d f0 bb 24 dd c7 37 06 a4 7f 3b 5d e2 b1 bb
       -0.0073277783 2.3825625e-05 0.0039007678 -0.005428596
0001d0 92 2d 80 b9 2d ca e7 b9 51 e9 1c 37 5f b8 4d b8
       -0.00024448015 -0.00044210386 9.352648e-06 -4.9047518e-05
0001e0 b5 f0 cd 3a 6d 26 69 b8 ff d2 5b ba 65 17 9d 3a
       0.0015711995 -5.5587316e-05 -0.0008385628 0.0011985122
0001f0 0e 5a ef 39 66 76 ed b9 dd b6 e9 b9 f4 3c c4 39
       0.00045652728 -0.00045292376 -0.00044577467 0.00037429447
000200 16 83 3d 3b 54 05 c6 3a 2a ef 7f ba 4b ea f0 3a
       0.0028917245 0.0015107789 -0.0009763116 0.0018380372
000210 7a ad be 39 34 83 2f 37 7c 66 40 b9 57 10 8e 39
       0.00036368874 1.0461361e-05 -0.00018348725 0.00027096525
000220 a2 ec ae 39 b6 05 2e 3a d2 ab f6 37 ba 1b bf 38
       0.0003336417 0.0006638424 2.9405495e-05 9.112754e-05
000230 31 8b 2b 3a 33 6b 6f 39 e4 71 82 b9 dc 82 04 3a
       0.00065438735 0.00022832751 -0.00024880387 0.00050549
000240 06 d8 78 ba 9b 23 4f 3a 3e 5d 57 3a 34 f6 4b ba
       -0.0009492639 0.0007901729 0.0008215493 -0.00077805226
000250 bb 27 82 3b f0 10 57 b9 00 be 13 bb 34 8b 3d 3b
       0.0039720214 -0.00020510308 -0.0022543669 0.0028922083
000260 86 03 c2 3b b2 e7 15 bb e9 c1 8b bb 98 24 8e 3b
       0.00592083 -0.0022873697 -0.0042650593 0.0043378584
000270 ef 17 7b 39 5d 54 58 3a 20 38 52 39 59 d6 95 38
       0.00023946141 0.0008252317 0.00020048069 7.144799e-05
000280 0e 45 0e bc 1a 05 3b 3b 53 26 c2 3b bc e7 d3 bb
       -0.008683456 0.0028536976 0.0059249788 -0.006466834
000290 e7 78 a9 ba e1 24 bd 39 ac e1 69 3a 71 d3 70 ba
       -0.0012929708 0.00036076366 0.00089218724 -0.00091867807
0002a0 57 a7 32 3b 71 45 1f bb 52 48 21 bb 54 15 0a 3b
       0.0027260387 -0.0024302865 -0.0024609757 0.0021069841
0002b0 02 7b 1f 3b 0d 59 70 ba 42 77 de ba 46 94 f1 3a
       0.0024334793 -0.0009168543 -0.0016972797 0.001843103
0002c0 36 88 0e ba ee fa de b9 f1 94 2b 39 93 0b 96 b9
       -0.0005437167 -0.00042530097 0.00016363316 -0.00028618853
0002d0 2b fc c7 39 41 bd 90 39 40 b3 bb b8 d9 5c 71 39
       0.00038144118 0.00027606825 -8.950243e-05 0.0002301814
0002e0 15 be eb 3b cb 63 00 3a 60 9a 64 bb 54 28 a7 3b
       0.0071942904 0.0004897683 -0.0034882054 0.005101243
0002f0 dd 1d 80 bb e0 2c 03 b9 1d 41 fd 3a 06 d8 3e bb
       -0.00390981 -0.00012509851 0.0019321773 -0.002912046
000300 21 94 ba bb 46 c9 31 3b 7e 3a 8c 3b 1a 12 86 bb
       -0.005693928 0.0027128025 0.0042794337 -0.0040915133
000310 b1 7a 69 3b 55 aa 7c 38 c5 f3 eb ba 55 f5 2b 3b
       0.0035626108 6.0240116e-05 -0.0018001726 0.0026238759
000320 e1 82 94 3b c4 ef 35 bb 6e 52 6e bb e8 20 53 3b
       0.0045322035 -0.002776132 -0.003636505 0.0032215659
000330 1a 9f a0 38 9a 36 72 ba a3 8d e2 b9 b5 84 05 39
       7.6590295e-05 -0.00092397036 -0.00043211607 0.00012733306
000340 da c1 14 b7 77 eb 76 b9 91 c3 b2 b8 46 90 80 b5
       -8.866622e-06 -0.00023548106 -8.5241285e-05 -9.578732e-07
000350 f8 d0 bc b8 6f ef e9 3a 4d 3c 2f 3a b9 91 ad b9
       -9.003462e-05 0.0017847846 0.0006684706 -0.00033105703
000360 64 d2 d4 39 78 dd ba 39 de 9a 93 b8 95 09 7b 39
       0.00040592544 0.00035641692 -7.0383525e-05 0.00023940795
000370 b0 46 5b bb 8e 22 36 ba 5e fe c6 3a 4c 77 15 bb
       -0.003345888 -0.0006947898 0.0015182009 -0.0022806702
000380 03 32 03 bb 7f 5e c0 3a 4e 07 d8 3a af 34 cc ba
       -0.0020018823 0.00146766 0.0016481669 -0.0015579666
000390 03 1f 04 3a 28 fe 1b ba 32 49 06 ba 57 68 ee 39
       0.00050400215 -0.0005950653 -0.0005122601 0.00045472637
0003a0 20 3a 3c 39 fc 8e 65 ba da 53 f1 b9 82 d0 51 39
       0.0001795073 -0.0008756963 -0.00046029576 0.00020009468
0003b0 f1 73 e8 b8 1c 2e eb b9 77 1f 07 b9 4a 09 f0 b7
       -0.00011084218 -0.00044857047 -0.00012886325 -2.8614555e-05
0003c0 44 df 5e 3b ba 73 60 39 93 97 e7 ba 83 90 16 3b
       0.0034007588 0.00021405416 -0.0017669074 0.002297432
0003d0 68 54 8b b9 de 69 9a ba 6c 95 b0 b9 42 8a bc b8
       -0.00026575034 -0.0011780818 -0.00033680664 -8.990291e-05
0003e0 8d 34 c5 bb 0c a1 c7 b9 f8 4b 44 3b 13 4d 8b bb
       -0.0060182274 -0.00038076227 0.0029952507 -0.0042511313
0003f0 18 89 f6 3a 19 17 06 ba d6 2c 98 ba 11 99 c9 3a
       0.0018809168 -0.0005115136 -0.0011610042 0.00153807
