training_results/cartpole_null/ppo_test2/seed_42/1000000steps/model_latest.pt (torch, 151579 bytes, 30 tensors)

actor.pi_net.fcs.0.weight f4 [64, 4]
000000 20 69 c6 be 92 39 d8 3e b7 c8 83 3f a7 3b 87 3f
       -0.3875208 0.42231423 1.0295628 1.056508
000010 e0 37 e6 be 49 d4 f8 bc d2 a5 08 bf 97 cc 8a bf
       -0.44964504 -0.030374663 -0.5337802 -1.0843686
000020 cb 77 aa 3e da 37 d4 be 75 28 79 bf 3d c4 6c bf
       0.3329452 -0.4144886 -0.9732736 -0.92486936
000030 ac c9 04 be 2e 1d 90 be c4 7b a3 3f a0 c9 45 3f
       -0.12967557 -0.28147262 1.2772145 0.7726078
000040 2e e6 ea 3e 88 7f 3b 3e d9 2c fa bd 50 ce ab 3e
       0.45878738 0.18310368 -0.12215585 0.3355584
000050 46 b8 dc be 7e 36 e1 be bb cc 47 3f 61 48 8b 3f
       -0.4310934 -0.43986887 0.7804677 1.0881463
000060 25 f8 84 3e 3a bf a3 3e 2f a1 7a bf e0 35 68 bf
       0.2597057 0.31981832 -0.97902197 -0.90707207
000070 60 88 dc bd 5c bb b4 3e 9e 99 6f bd 45 73 d2 3e
       -0.10768199 0.35299194 -0.05849611 0.4110357
000080 f9 c3 e1 3e fe 82 9f 3e 28 cc 90 bf e5 c7 9a bf
       0.44094828 0.31154627 -1.1312304 -1.2092253
000090 73 0b af 3e b8 c4 01 be 4c 03 e6 be 34 5b 60 3e
       0.34188423 -0.12672698 -0.4492439 0.21909791
0000a0 83 47 e6 bc 61 0f b1 be ab f6 24 3d a7 e1 25 bf
       -0.028110271 -0.34582046 0.040274303 -0.64797443
0000b0 ec 78 f4 be 20 6f bd be 50 ba 2b 3f 7a fd 03 3f
       -0.47748506 -0.36998844 0.67081165 0.5155865
0000c0 b0 a2 52 be 96 07 71 3e 1a bb dd be 9d 71 03 bf
       -0.20569873 0.2353805 -0.4330681 -0.51345235
0000d0 98 20 3c 3d 68 c5 fe 3d f9 e1 b2 3e a1 11 80 3f
       0.04592952 0.12439996 0.34938028 1.000538
0000e0 00 24 57 be f6 1c 82 3d 3f 38 93 3f 92 6b a0 3f
       -0.21009827 0.0635318 1.150154 1.2532828
0000f0 6e b9 6f 3e 2c 9f 17 3e ab ad 2f bf 09 34 2e bf
       0.2341058 0.14806813 -0.6862437 -0.6804815
000100 58 49 c0 3e 71 c0 2b be 04 6f d3 be 43 1e f1 3e
       0.37555957 -0.1677263 -0.41295636 0.470934
000110 6f cf 59 bd 34 fd 0c 3e 33 f2 20 bf 1d c1 bb 3e
       -0.05317634 0.13768464 -0.62869567 0.3667077
000120 da 3b dc be db 1c 03 3e a4 30 92 3f a9 3d 98 3f
       -0.43014413 0.12803976 1.1421094 1.1893817
000130 4a a0 29 3d 1a da 92 3d 71 38 83 bf 57 35 3c bf
       0.04141263 0.07170506 -1.02516 -0.7351889
000140 10 1a 1a bf d9 45 89 3d 2b 05 7a 3f b2 2d a2 3f
       -0.6019602 0.067027755 0.97664136 1.2670195
000150 9f 82 0d be 77 2a 78 3e 80 8a 7d bf 84 7b a1 bf
       -0.13819359 0.24234949 -0.9903946 -1.2615819
000160 d6 6b a8 be a6 0f 52 be f6 8a 59 bf 79 a5 96 be
       -0.32894772 -0.20513782 -0.8497766 -0.2942312
000170 49 1e f5 3e 03 70 bc be 99 6b 75 bf 6d 17 05 bf
       0.47874668 -0.36804208 -0.95867306 -0.5198887
000180 72 35 b7 be ad 28 01 bd 5e 6f 5c 3e 0b 0c 6a 3f
       -0.35782963 -0.031532932 0.21526858 0.91424626
000190 63 be b0 be 4f ee e5 bd 98 70 a3 bf 4a bb 49 bf
       -0.34520254 -0.112270944 -1.2768736 -0.78801405
0001a0 f9 ce 05 bf 8c 89 13 bf d6 16 a0 3e 23 0d 9d bd
       -0.5226894 -0.57631755 0.31267422 -0.07668521
0001b0 85 42 1b be 8b 08 f5 bd 25 5e 9b bf 46 46 9e bf
       -0.15162094 -0.1196452 -1.2138106 -1.2365196
0001c0 ba c4 21 3f 89 af 02 be a7 7c a2 3e 5c 7b fd 3d
       0.63190806 -0.12762274 0.31735727 0.123770446
0001d0 db 2a 16 bf 64 dc 7b bc 56 25 86 3f 81 40 a6 3f
       -0.5865914 -0.015372369 1.0480144 1.2988435
0001e0 71 12 91 3e e2 c3 27 3e 3f 84 11 bf 3e d6 aa 3e
       0.28334382 0.16383317 -0.56842417 0.3336658
0001f0 c6 df 95 3e 7b d1 1f 3f d1 d9 17 bf 18 64 80 3e
       0.29272288 0.62429017 -0.59316736 0.25076365
000200 99 cc 6d be 8b 80 84 be c5 36 95 3f 73 0d 41 3f
       -0.23222579 -0.2587932 1.1657339 0.75411147
000210 ad fe 05 bf 03 9c 9d 3e c3 ab 31 3f 0c 4f 8f 3e
       -0.5234173 0.3078309 0.6940271 0.27989995
000220 af 8c e3 3e 4c f3 5e bd f4 09 89 bf 74 b5 31 bf
       0.4444327 -0.054431245 -1.0706162 -0.694175
000230 2f 59 b8 3e f5 ef 15 3d 89 ed 15 3f bf 27 c5 3e
       0.36005542 0.036605794 0.58565575 0.38506886
000240 d8 d2 ae be a9 11 be be 89 23 83 bf 11 e7 4d bf
       -0.34145236 -0.3712285 -1.024522 -0.80430704
000250 46 14 1f bf 97 2d 20 bf 0c d3 2e 3f 1a 47 1f be
       -0.6214031 -0.62569565 0.6829078 -0.15554467
000260 3a b7 1f 3e 5c 11 81 3e 9b 4d 3f bf e6 59 6c bf
       0.15597239 0.25208557 -0.7472779 -0.92324674
000270 b4 8a ed be 3d d6 3c 3e ae de ca 3f 2c 8c a1 3f
       -0.46394885 0.184411 1.5849206 1.2620902
000280 b5 55 d6 3d 91 31 b6 bb 53 47 ad 3e 66 74 cd 3e
       0.10465566 -0.005560108 0.3384348 0.40127867
000290 56 79 0c 3f 7e 24 ed 3c 53 3e e4 3e f6 26 d6 3d
       0.54872644 0.028948065 0.445788 0.1045665
0002a0 11 17 1e 3f ae 4b af be f8 53 8b be b3 52 9a 3e
       0.61753947 -0.34237427 -0.272125 0.3014122
0002b0 21 07 ad 3e a1 bb e6 3e 90 2e 3b bf 0a cf 7e 3e
       0.337945 0.45065024 -0.73117924 0.24883667
0002c0 41 c5 8d 3e 2d d0 d8 3e f4 4b dd bd 24 20 ea 3e
       0.27689555 0.42346326 -0.108055025 0.45727646
0002d0 73 2a 81 be e2 db ba be db 29 93 3f f5 7d ae 3e
       -0.252277 -0.36495882 1.1497148 0.34080473
0002e0 d8 47 87 3e 12 35 de 3e 36 6a 2c bf c0 31 96 bf
       0.26422 0.43399864 -0.67349565 -1.1733932
0002f0 6b fe ac 3e ca 8a 91 bd ee 7e c3 bf 32 34 a8 bf
       0.33787856 -0.0710655 -1.5273111 -1.3140929
000300 e0 da 6d be 5d 3f f2 bd 91 ab 64 3f 1c c2 75 3e
       -0.23228025 -0.11828492 0.8932429 0.23999828
000310 9d fe 0d bf 1e 0d a2 3e 47 21 cf 3e 24 34 6d 3f
       -0.55466634 0.31650633 0.40455076 0.92657685
000320 a7 e2 bb be 84 a0 15 be 7c c6 5c bf f6 6f db be
       -0.3669636 -0.14612013 -0.86240363 -0.42858857
000330 27 99 a8 be e8 75 b5 be 59 ff a7 3f e8 4b 96 3f
       -0.32929346 -0.35441518 1.3124801 1.1741915
000340 37 9d 7d 3d 9f c1 a7 3e 85 10 f7 be d5 9a 81 3e
       0.06191751 0.3276491 -0.4825479 0.2531344
000350 0c 62 a9 3c e4 58 53 bd b0 76 a3 bf ee 0e 3b bf
       0.020676635 -0.051598445 -1.2770596 -0.73069656
000360 99 bc 9a be b4 a8 f9 3e fa 22 89 bf a6 a8 2b bf
       -0.30222014 0.48761523 -1.0713799 -0.6705421
000370 7e a6 a8 3e 32 82 99 3e 09 0d 78 ba c0 31 c2 3e
       0.32939523 0.29982144 -0.00094623916 0.3792858
000380 20 fe da 3e dd fc bf 3e 51 bd be bf 80 a3 93 bf
       0.42772007 0.37497607 -1.4901525 -1.1534271
000390 23 ba 15 bf df da a0 3d e4 51 fa 3d 13 4a 6a be
       -0.5848715 0.07854246 0.12222651 -0.2287982
0003a0 81 5a be be 7c 4e a6 3e d3 c0 cb 3f 0f 3e 9e 3f
       -0.37178424 0.32481754 1.591822 1.2362689
0003b0 34 a1 61 3d a2 9a 92 be 22 5a 95 bf 4e 24 51 bf
       0.055085376 -0.286336 -1.1668131 -0.8169602
0003c0 92 86 b6 be 53 c9 82 be 93 3e 83 be 36 10 c0 be
       -0.35649544 -0.25544223 -0.25633678 -0.37512368
0003d0 bb e3 46 3e dc c6 84 3d 20 2f 4e 3f 50 5c 4c 3f
       0.1942281 0.06483242 0.8054066 0.7982836
0003e0 d3 e2 72 3e 08 9b a5 be 66 b1 be 3f 52 fb b7 3f
       0.23719339 -0.32344842 1.4897888 1.4373572
0003f0 c1 63 15 3f 74 2a e5 3e a5 a1 05 bf 09 fe 13 3e
       0.5835534 0.44758952 -0.52199775 0.14452375

actor.pi_net.fcs.0.bias f4 [64]
000000 d1 2e 87 3e 60 02 a0 3d 13 d5 97 3e 5a a6 d7 bc
       0.26402906 0.07812953 0.2965475 -0.02632444
000010 3c 12 69 3d eb 30 97 be cb e7 02 3e 3e be d2 bd
       0.056902155 -0.2952951 0.12783735 -0.10290192
000020 4d 85 08 be 29 2d 54 3c b9 c9 bc 3c 23 3e 19 be
       -0.133321 0.01295022 0.023045408 -0.1496511
000030 98 a5 09 3c 2d d0 ad be 81 71 c8 3d cd 34 dc bc
       0.008401297 -0.33947888 0.09787274 -0.026880646
000040 79 4a 17 3c db 16 06 3e 54 0d b7 be dc 7d 33 3d
       0.009234064 0.13094656 -0.35752356 0.0438212
000050 8a e1 97 be d7 e4 74 be 17 eb c3 bb 7f d1 9e 3c
       -0.2966426 -0.2391542 -0.0059789526 0.019387005
000060 b8 2c 7f bd 89 05 08 3e 70 03 93 be 49 0c 1b 3d
       -0.062298506 0.13283361 -0.2871356 0.037853513
000070 b0 73 80 3d 41 e9 95 bd 28 2e b4 3d 39 70 ad 3e
       0.06272066 -0.0731988 0.08797866 0.33874682
000080 dc cd 53 be 9c d1 17 bd 50 2e 1a bb e1 50 8c 3c
       -0.20683998 -0.037065133 -0.002352614 0.01712841
000090 a6 ac e3 bd 54 d0 9f be 7b 81 67 be 5f b2 1d 3e
       -0.111169145 -0.3121363 -0.22607987 0.15400074
0000a0 e4 c0 3b 3b bd ff fa 3c 80 08 e8 3d 58 b7 b7 bd
       0.0028648907 0.030639524 0.11329746 -0.08970517
0000b0 94 6b 41 3b 9a 02 39 3e 05 89 37 bd 72 ea f6 3d
       0.0029513584 0.18067399 -0.044808406 0.12056436
0000c0 b6 30 3e 3e 68 c4 9a be b8 02 c7 3e 8d e3 94 3e
       0.18573269 -0.3022797 0.38869262 0.29079857
0000d0 db a7 54 3e 00 47 70 3e 32 b8 8e 3d 19 92 29 3d
       0.20767157 0.23464584 0.06968726 0.041399095
0000e0 65 b5 86 3e e7 8f 2a bd 01 24 2c be 07 21 98 3b
       0.26310268 -0.041641142 -0.1681061 0.004642609
0000f0 39 da c7 bc ba 88 db bc 75 f1 d0 bd 38 5b 47 3e
       -0.024396049 -0.026798595 -0.10202304 0.19468391

actor.pi_net.fcs.1.weight f4 [64, 64]
000000 86 7e 71 3d 88 4e 30 3e 38 aa 25 bd a1 9e d6 3c
       0.058958553 0.17217457 -0.040445536 0.026198687
000010 06 09 02 be 3f b8 2d 3d 84 36 12 3e e1 a1 64 bd
       -0.12698755 0.04241204 0.14278609 -0.055818442
000020 de e5 d8 bd 40 1a c1 ba ed dc f9 3d 5d 31 1d 3d
       -0.10590719 -0.0014732555 0.122003414 0.038377155
000030 5a 2f 4a 3e df 2c 1e 3c 82 49 0e 3e 35 ef 1d 3d
       0.19744626 0.009654253 0.13895229 0.038558204
000040 3f 6f 4d be d4 1c c6 bd 7b 5d 3a 3d e6 8f a0 bc
       -0.20061968 -0.09673467 0.045499306 -0.019599866
000050 f1 42 0c bb 18 53 87 3d 1a f0 e8 bc bc 4b 57 bd
       -0.0021402205 0.06607646 -0.028434802 -0.05256246
000060 2f 1a 9a bd 1a 94 00 bd aa 6b 03 3e 93 de 19 be
       -0.075245254 -0.03139124 0.1283404 -0.15026312
000070 28 63 3d 3d a4 ec d8 3d 98 41 49 bc 2c e2 03 be
       0.04623714 0.105920106 -0.012283705 -0.12879246
000080 f4 0c 00 be 72 9b 63 bd af 8d 8d 3c 82 31 c5 bd
       -0.12504941 -0.055568166 0.017279474 -0.096285835
000090 9a dc 28 3d db c3 e2 bc a2 37 b2 3d 0f 39 8f 3d
       0.041226007 -0.027681282 0.08702017 0.06993305
0000a0 b3 af 0e be 77 c4 8e bd e8 15 fb 3c c3 fc 31 be
       -0.13934211 -0.069710664 0.030650094 -0.17381577
0000b0 9c 9c e4 bd fc b2 22 bd f5 b4 d2 bc 66 bd 57 be
       -0.11162683 -0.039721474 -0.025721053 -0.21068344
0000c0 a9 9a cf bd 4d b3 cb bd c4 ab 46 3d c4 1d f9 3c
       -0.10136921 -0.09946308 0.048503652 0.030409701
0000d0 88 06 0e bd 9d cc d7 bc 2e 42 02 bd 9a 5b 44 be
       -0.034674197 -0.026342684 -0.031801395 -0.19175568
0000e0 0e fd d7 3d d4 c3 93 3d 51 ea 51 3d eb 93 35 bd
       0.10546313 0.072150856 0.051248852 -0.04433052
0000f0 0c 90 94 3c 60 55 5a be 74 f9 5f 3e ae 43 0c be
       0.018135093 -0.2132163 0.21872503 -0.13697693
000100 2a ca 93 3d 1f 58 03 3c 63 61 54 3d a8 f7 84 bd
       0.07216294 0.008016615 0.051850688 -0.06492549
000110 2d 5b d0 bd d2 de d2 bd d4 2c ac 3d a3 f0 29 3d
       -0.101736404 -0.10296406 0.08406988 0.041489255
000120 e3 89 66 bd a6 62 bb 3c d0 df 25 3d 9c 56 b7 bd
       -0.056283843 0.022874188 0.040496647 -0.08952066
000130 cb 70 96 3c d1 82 7a 3d e7 1a e6 3c 25 8b 63 bd
       0.01836433 0.061159912 0.028089 -0.05555262
000140 2a 83 6b 3c 51 7f 51 3b 90 81 c7 3d 34 c5 ac 3d
       0.014374534 0.0031966756 0.09741509 0.08436051
000150 37 cc fb 3d 8f f0 4a bd ed 5f 96 b8 f4 a3 39 bd
       0.1229481 -0.04954582 -7.170425e-05 -0.045322374
000160 40 4d 39 be 7e 17 49 bd e1 96 0a bd df bb 9c bd
       -0.18095875 -0.04909467 -0.033835296 -0.07653021
000170 c2 4f ce 3d d2 e2 2a 3d 86 b4 29 bd c5 c8 2f bd
       0.10073806 0.04172022 -0.041431926 -0.042916078
000180 1e 70 83 bd 58 43 fb 3c f0 ee af 3d 0f f6 49 3d
       -0.06417869 0.03067176 0.085904956 0.049306925
000190 b9 88 e7 3c ef 50 6b bc 0a b9 45 3c 1a d3 dc 3d
       0.028263437 -0.014362558 0.0120680425 0.10782452
0001a0 40 01 5f 3d d7 ca f2 bd 8f b6 68 3c 01 0a 99 bc
       0.05444455 -0.11855095 0.014203682 -0.018681528
0001b0 2a 9b a6 3d a0 90 99 bd f3 0e f9 bb 0a 2a 0f be
       0.08135064 -0.07498288 -0.007600659 -0.1398088
0001c0 e1 c2 8c bd 6b ee f8 bd e2 78 13 bc 04 99 87 bc
       -0.06873108 -0.121548496 -0.009000989 -0.016552456
0001d0 74 f1 53 bd c5 b6 b1 3d 17 5d c9 bd af 4f 04 be
       -0.05174394 0.08677439 -0.098322086 -0.12921022
0001e0 78 ea 91 bd f1 75 c5 3c 7c bd 6e 3d ec 1c cd 3d
       -0.071247995 0.02410409 0.058286175 0.10015282
0001f0 f1 e4 23 3e 56 bb 7f bd 48 59 c5 3d 61 b2 45 bd
       0.16005303 -0.062434517 0.0963617 -0.04826582
000200 d2 50 c6 3d 50 7c 8a bc d4 7f 36 bd c5 1f cd b9
       0.09683384 -0.01690498 -0.0445555 -0.00039124317
000210 7d e7 12 3d 40 bf f4 3c f0 b9 23 3d dc be 21 bc
       0.035865296 0.029876351 0.039972246 -0.009872165
000220 78 71 1b 3e 38 bb 0a 3e fb d0 b3 bd bf c1 83 bd
       0.15180004 0.13547981 -0.08780094 -0.064334385
000230 33 33 cd bd fa 7b 96 3d 20 92 58 3d a4 64 8f 3d
       -0.10019531 0.073478654 0.05287373 0.070016176
000240 17 9a 4c 3d fa b8 10 3e ab 21 c6 3c 9b c7 4e bd
       0.04995164 0.14133063 0.024185976 -0.050483327
000250 82 fc 2e bd 44 c1 d7 bd ae a4 fa 3b 9a 49 bf 3c
       -0.04272128 -0.10534909 0.007649026 0.023350526
000260 c9 7b 62 3d 41 1b d9 bd 96 db a4 bd 9f 5d 96 3d
       0.055293832 -0.106009014 -0.08049695 0.073420756
000270 86 74 d2 3d 9d e4 62 bd 2e 3d 69 3e 7c 2c a6 3d
       0.10276131 -0.055393804 0.22777244 0.081139535
000280 0c d6 c1 bd 2a 0a 0f 3d bd 8e a0 bd 20 2f 03 3d
       -0.09464654 0.034921803 -0.07839725 0.032027364
000290 5d 47 b6 3d 97 2c fa bd ff 8d 5c 3d f5 fb 18 bc
       0.0890033 -0.12215536 0.053846356 -0.009337415
0002a0 11 17 11 3e b2 de 28 3e a8 56 be 3d 4b eb bf 3d
       0.14168955 0.16491202 0.09293872 0.093710504
0002b0 7a 09 0a 3e b7 8d ac 3d ca 1f 90 3d 89 6c 84 3e
       0.13480178 0.084254675 0.07037313 0.25864056
0002c0 8e cd ca 3c 80 40 7c 3d 23 cf 09 be 86 ce 83 bc
       0.02475622 0.06158495 -0.13457923 -0.016089689
0002d0 3c 90 d4 3d 82 9f 86 3c 27 4b 8c 3d 25 e7 f5 3d
       0.10379073 0.016433481 0.06850272 0.12006978
0002e0 8d 0b 2e bb 0f 08 17 bd 02 37 cb bd ba 7e d2 bd
       -0.0026557178 -0.03687292 -0.09922601 -0.102780774
0002f0 79 a5 74 be f6 b1 90 3d 20 d4 50 be 2b 79 ea bb
       -0.23891248 0.07065193 -0.2039342 -0.0071555576
000300 04 70 ac bd de 3b 45 3d 5a 4a a3 bd eb 4a 14 be
       -0.08419803 0.048152797 -0.07973166 -0.14481704
000310 1d 30 e6 3c 6e 88 cf bc 8b 20 d9 bd 03 5d da bd
       0.028099114 -0.02533361 -0.1060191 -0.10662272
000320 8b 7b 72 bd 21 25 b6 3d d0 69 fe bd f4 72 6b bd
       -0.05919985 0.088938005 -0.12422526 -0.057482675
000330 6b 44 c8 bd dd a4 01 3b d5 26 d2 bd 22 49 18 3d
       -0.09778675 0.0019782104 -0.10261313 0.03717912
000340 82 b6 53 3e d9 87 78 bd 1a b9 e3 bd 63 bc d8 bd
       0.2067509 -0.06067643 -0.1111929 -0.10582807
000350 d2 2d 7e 3d 63 57 05 3e 4a d5 54 3d ad 7f d3 bd
       0.062055416 0.13021617 0.05196122 -0.103270866
000360 c3 7b 77 3e e6 68 e4 bd 34 89 0d be e0 1a 64 3d
       0.24168305 -0.1115282 -0.1382187 0.055689692
000370 34 5e 1e 3d 4e 08 e4 bd b7 74 78 3c ac 56 a0 3c
       0.038664058 -0.111343965 0.015164546 0.019572578
000380 05 3a cc 3c ae 1e c6 3d 4a cc 9c bd af 9b 21 3e
       0.02493001 0.096738204 -0.076561525 0.15782045
000390 ee 14 0b be f0 22 3f be b6 c5 1d 3d b2 7e 0f be
       -0.13582203 -0.18665671 0.03851863 -0.14013174
0003a0 cc 57 9a 3d ee 37 ca 3d 49 d7 0f 3e 9c 63 f5 3d
       0.07536277 0.09873949 0.14046969 0.119818896
0003b0 33 f1 86 3d 73 80 97 bb 7a df e5 3b 08 e7 27 3e
       0.06588974 -0.0046234666 0.007015166 0.16396725
0003c0 a2 53 7c 3d b7 c4 9e 3c 84 6b 1a 3d f6 30 e3 bc
       0.061603196 0.01938091 0.03770019 -0.027733307
0003d0 77 d1 01 3e 8a 7b b3 bc 42 aa 6d 3d fd fc 6a 3e
       0.12677561 -0.021909494 0.0580237 0.2294807
0003e0 e4 63 07 3e 3d c0 35 be 93 5c 07 bd 98 be 9f bd
       0.13221699 -0.17749114 -0.03304727 -0.07800025
0003f0 65 2c 51 be 91 7e 4b 3e 0f 32 9d be 76 2f 46 3e
       -0.20427091 0.198725 -0.30702254 0.19354042

actor.pi_net.fcs.1.bias f4 [64]
000000 76 6f 06 be c8 33 ed 3a dd ec c4 3d b7 a0 ef 3d
       -0.13128456 0.0018097097 0.096154906 0.11700576
000010 6b 5a ed 3c c5 39 17 bd 0f 99 96 bd b9 68 7b bd
       0.028973779 -0.036920328 -0.07353412 -0.06137917
000020 26 ab 2e bd b4 29 a2 bd e6 54 9c 3d 30 85 77 3a
       -0.04264369 -0.079181105 0.076333806 0.0009442149
000030 4c 4f 53 3c a1 e6 bf bc 39 b3 51 bd 33 a7 8d bd
       0.012897324 -0.023425402 -0.05119631 -0.06916656
000040 8c 55 27 bd fb ff 87 bb 95 4c 91 bc db 07 08 3d
       -0.04085307 -0.0041503883 -0.017736712 0.033210617
000050 68 21 86 3d 29 91 a6 3d 43 9a bf bd 95 a5 17 3d
       0.065493405 0.08133156 -0.09355595 0.037023146
000060 09 d5 43 3d e1 95 90 3d 20 03 77 bd 88 4b 05 3d
       0.047810588 0.07059837 -0.060305715 0.032542735
000070 d7 ee ca 3d 20 0e 9b bd 5d a8 1a bd 6a 21 43 bd
       0.09908836 -0.075710535 -0.03775822 -0.047639288
000080 70 ca 68 bd 4e c2 16 be a2 d9 1b 3d 82 e6 d2 3c
       -0.056833684 -0.14722559 0.038049348 0.02574468
000090 4d f8 d0 3d eb 74 be 3a a5 bb 5f bd 85 0e e9 bd
       0.102036096 0.0014530694 -0.05462231 -0.113797225
0000a0 a2 68 75 bc ed b7 a9 3d 8b 6e 21 3d 5a 5a ba 3c
       -0.01497856 0.08287034 0.039412063 0.022748161
0000b0 35 2c dd 3d 82 bc bf bd 84 fa c9 bd 3b 8e 82 3d
       0.107994474 -0.09362127 -0.09862235 0.063747846
0000c0 f2 fe b5 bd ff cd 9b bd f4 c3 c0 bb 71 d3 7d bd
       -0.088865176 -0.0760765 -0.0058827344 -0.061969224
0000d0 3e 61 84 3d ed 11 73 3c bc e6 e9 3d 3f 4b 76 bd
       0.0646386 0.014835817 0.11420962 -0.060130354
0000e0 82 66 7f bd 26 ba 53 3d 93 7c 8e 3d 7c e1 7c 3c
       -0.06235362 0.051691197 0.069573544 0.015434619
0000f0 13 a3 a9 bc 20 f0 71 3d 25 d0 e1 3c 61 ed 95 bd
       -0.020707643 0.05906689 0.027565071 -0.07320667

actor.pi_net.fcs.2.weight f4 [1, 64]
000000 13 c7 b3 3d 74 6f 1a 39 95 df 8a bd 06 78 f1 bd
       0.08778205 0.00014728104 -0.06780926 -0.11790471
000010 6d 31 af 3d d8 86 d8 bd 7a cf 94 3d 88 18 5c 3d
       0.08554349 -0.105725944 0.072661355 0.053734332
000020 df b1 46 3d 0e 6b cb 3d 6e e5 c7 b6 99 e0 8c bc
       0.048509475 0.099325284 -5.9573713e-06 -0.01719694
000030 53 14 2e 3d f2 da 0e be 0d 96 c6 3d 19 2b c5 3d
       0.04249985 -0.13950709 0.09696589 0.09627361
000040 4b 1f 8b b7 a3 70 e0 3d 92 66 19 3d b1 5c d7 bd
       -1.6584663e-05 0.10958984 0.037451334 -0.10515726
000050 2b 55 1e b8 1a d9 04 be bc fe 11 3e f0 dd 5e 37
       -3.7749454e-05 -0.12973443 0.1425733 1.3283905e-05
000060 74 45 dd b7 6b a3 ad 3e ef 98 75 39 68 1c 4d bc
       -2.6377595e-05 0.3391374 0.00023421993 -0.01251898
000070 67 b1 bf bd 21 31 0c 37 ce 10 9b b8 81 ff 2b bd
       -0.09360009 8.356089e-06 -7.394106e-05 -0.041991714
000080 f2 d2 38 b8 b1 6f c8 3d fe 0d d4 bd 61 f7 f6 3e
       -4.4065477e-05 0.097869284 -0.10354231 0.4823561
000090 48 c2 bb bd 28 bb d5 3e 17 28 eb 3d ac af d1 3d
       -0.091679156 0.4174435 0.11482256 0.10238585
0000a0 8c 32 c4 b8 45 98 44 3d ca 1d 95 bd ff be 05 3e
       -9.3554234e-05 0.047996778 -0.072810724 0.1306114
0000b0 f5 be b2 bd 61 33 1b 3e 00 87 64 3a bd 75 c2 3e
       -0.087278284 0.15156318 0.00087176263 0.37980452
0000c0 dc ff b3 39 e3 6f 9b ba fd ea e6 3d 3a c2 1a 3a
       0.0003433217 -0.0011858906 0.11275289 0.0005903576
0000d0 d8 b6 eb 3d 2b 47 fd 3e 5e b1 88 b8 10 3e a4 bd
       0.11509484 0.4946836 -6.5180226e-05 -0.0801965
0000e0 f7 59 0b ba 75 68 16 3f 80 4e 66 37 a4 75 28 be
       -0.0005315835 0.5875314 1.37273455e-05 -0.16451126
0000f0 d2 17 62 b8 2d 07 9c 38 e9 74 0b 3e 9a 60 1e 3e
       -5.3904783e-05 7.439996e-05 0.13618816 0.15466538

critic.v_net.fcs.0.weight f4 [64, 4]
000000 f8 20 c9 3f f4 f0 9f bf 3d 88 8b c0 0b 49 fb 3d
       1.5713186 -1.2495408 -4.3603806 0.12269791
000010 92 8f ff c0 00 79 bb bf 26 28 81 c0 13 06 23 bf
       -7.9862757 -1.4646301 -4.036151 -0.63681144
000020 75 d2 d8 c0 b4 58 c7 bf 32 ac 8e bf 89 6f c4 be
       -6.7756906 -1.5573945 -1.11463 -0.38366345
000030 24 90 b3 3f 31 b6 80 be 81 3f 62 bf 48 bb d0 bf
       1.4028363 -0.25139 -0.8837815 -1.6307154
000040 07 eb 05 3f ca 85 a2 3e 8f 5d 64 40 7a 46 03 bd
       0.5231175 0.31742698 3.5682104 -0.032049634
000050 03 b0 d4 c0 3d f1 d2 be 51 9c dd c0 32 73 7b 3f
       -6.646486 -0.41199675 -6.9253316 0.9822265
000060 25 ff 9f 40 c8 14 a5 3f f3 dd ab 40 24 c8 8c 3e
       4.9998956 1.2896967 5.3708434 0.27496445
000070 36 5a 15 41 44 43 04 be 46 04 a2 40 21 80 07 be
       9.334524 -0.12916285 5.0630217 -0.13232471
000080 b1 a1 4d be a4 78 14 40 f5 23 17 40 d5 b7 01 40
       -0.20081212 2.3198633 2.3615696 2.0268452
000090 c8 b2 25 bf e0 df aa 3f cf 10 1b 40 fe 56 42 40
       -0.64725924 1.3349571 2.422901 3.0365596
0000a0 12 13 b4 3f b0 81 c8 bf 5a 39 eb bf 3e d2 b7 bf
       1.406832 -1.5664577 -1.8376877 -1.4361036
0000b0 3a 53 64 40 16 6f 25 40 6d 2a 51 40 fb 29 c5 bf
       3.5675797 2.5849051 3.2682145 -1.5403436
0000c0 b5 5b a9 bf bd 5b 95 bf 42 11 4e c0 2c cc 69 3f
       -1.3231112 -1.1668621 -3.2198033 0.91327167
0000d0 62 b6 80 c0 8a 02 bd bd e4 3e 70 40 32 7a f1 3f
       -4.0222635 -0.09229 3.7538385 1.8865416
0000e0 ab 6f 1b 41 9e b0 57 3f 1d 14 17 40 85 03 44 3f
       9.714763 0.8425387 2.3606026 0.7656787
0000f0 70 8f 7c 40 2e 16 be c0 98 f4 37 40 d5 2a 80 bf
       3.9462547 -5.9402075 2.8743038 -1.0013071
000100 0a 87 0c c1 fd b4 be bf 9d 51 5c c0 32 3d a3 bf
       -8.7829685 -1.4898983 -3.4424813 -1.275305
000110 c4 53 91 3f a5 46 e4 3e ce ed 04 c0 50 7b bb bf
       1.1353688 0.44585148 -2.0770144 -1.4647007
000120 17 e2 04 c1 7e 6e e9 be a6 07 cf c0 a5 b6 c4 3e
       -8.305198 -0.4559211 -6.4696836 0.38420597
000130 dc d0 e8 c0 3e bd 4d bf e5 e4 fe 3e 3e 2c 1c c0
       -7.2754955 -0.80366886 0.49784008 -2.4402003
000140 26 f2 11 c0 f9 c5 39 41 96 2b 18 40 8e 4f 2f 3f
       -2.2804046 11.610833 2.3776603 0.68480766
000150 69 07 29 40 3d 11 29 bf 9d e5 da c0 de 1d b8 bf
       2.6410773 -0.6604193 -6.840529 -1.4384115
000160 8a 74 ae bf 42 04 b5 be eb 7f cf c0 87 b2 de be
       -1.3629315 -0.3535481 -6.484365 -0.4349558
000170 97 24 c8 40 c6 2d b6 be a3 c9 85 40 8c 04 64 3e
       6.2544665 -0.35581797 4.180864 0.2226736
000180 e7 96 08 c0 15 96 d2 be fe 4e 6c c0 0d 64 ab bf
       -2.1342103 -0.41130129 -3.6923213 -1.3389908
000190 0d 2d 83 3d 7f 3b 4c bf 04 3e 07 c0 32 65 6d 3e
       0.06405077 -0.79778284 -2.1131601 0.23183134
0001a0 4f d6 a8 c0 e3 4b 5c bd ab 5d e3 c0 55 70 c6 bd
       -5.2761607 -0.05378331 -7.105184 -0.096893944
0001b0 4d 64 d5 bd b2 f7 06 c0 8d 71 1a 40 7f ba 75 c0
       -0.104195215 -2.1088681 2.4131806 -3.8395078
0001c0 65 30 a0 bf f1 15 6a be 6f a8 92 c0 fc 84 9c 3f
       -1.2514769 -0.22859932 -4.5830607 1.2228084
0001d0 10 93 70 c0 31 f1 68 3f 85 d2 2d 3f 90 1d 4a c0
       -3.758976 0.9099303 0.6789935 -3.1580544
0001e0 75 5f 07 c1 5c de 03 c0 d1 01 b3 3f 0e e7 a4 3f
       -8.460805 -2.0604467 1.3984929 1.2883012
0001f0 83 e7 db c0 e3 48 9d be 38 9b ae c0 e6 a0 6a 3f
       -6.8720107 -0.3071967 -5.4564476 0.9165176
000200 78 0c f9 c0 fd aa de bf bb 1e 93 c0 51 d3 50 3e
       -7.782772 -1.7395931 -4.5975013 0.20393111
000210 e5 58 d0 40 af b7 41 3f 20 0c 96 40 69 8e b5 be
       6.5108514 0.75670904 4.68898 -0.35460213
000220 cc 9b b8 bf 9e 59 00 3c 22 0e f5 40 d1 fc 46 bd
       -1.4422545 0.007833866 7.657975 -0.04858095
000230 1b c1 db c0 4d 1f 00 be fc 5e b3 c0 5c 0b 1a 3f
       -6.8673224 -0.1251194 -5.605345 0.60173583
000240 29 2c 3a bf 81 9c dd be 2c 1e 83 c0 86 39 95 3f
       -0.72723633 -0.43283466 -4.097433 1.165818
000250 cd 0e 8b c0 d9 6c f9 be 3f 5b c6 c0 d1 bd db bd
       -4.3455567 -0.48715857 -6.1986384 -0.10729564
000260 73 b0 9a bf 12 d0 4d 3f ae 34 ea 40 51 78 73 be
       -1.2085098 0.80395615 7.3189306 -0.23776366
000270 00 7c d5 c0 b8 6d b9 bf de 13 bf c0 56 5a a0 bf
       -6.6713867 -1.4486609 -5.971175 -1.2527568
000280 18 cc ec 40 88 35 ba bc 90 0c c7 be 53 86 f7 3f
       7.399914 -0.022730604 -0.38876772 1.9337867
000290 d6 23 ee 40 54 62 a1 3e 90 05 c2 40 8b 38 4f bf
       7.4418745 0.3152033 6.063179 -0.8094565
0002a0 93 e6 98 3f c1 f6 88 3e a7 cf 0c 3f f3 38 44 3f
       1.1945366 0.26750758 0.5500435 0.766494
0002b0 20 b7 eb 3f 55 58 7b c0 87 b3 8e be aa ee 76 c0
       1.841526 -3.9272664 -0.27871343 -3.858317
0002c0 2d 0c 4f c0 ee 20 30 bf e5 df 6d c0 a1 c6 6f 3e
       -3.2351182 -0.68800247 -3.7167904 0.23415615
0002d0 33 8d 2e bf 85 a6 f7 be 2b 52 7c c0 71 b1 36 bf
       -0.681842 -0.48369232 -3.9425151 -0.71364504
0002e0 a0 65 0c c1 5c d1 22 3c 2d a7 af c0 55 00 09 3f
       -8.774811 0.0099376105 -5.489157 0.5351613
0002f0 14 93 48 40 1f f2 0a 3f 09 6b 96 40 39 f2 e4 be
       3.133977 0.542757 4.700566 -0.4471605
000300 e0 ed d4 40 dc 6d 64 3f e8 d0 7a 3f 9c ff 6b 3f
       6.6540375 0.8923013 0.97975016 0.92186904
000310 e7 4b 85 3f a7 fe 13 3f db d1 28 c0 fd d4 19 c0
       1.0413789 0.57810444 -2.6378086 -2.4036248
000320 b5 ed d6 bf b4 9e 3c bf 10 3a 91 bf 75 1f 20 bf
       -1.6791292 -0.7367966 -1.1345844 -0.62548
000330 e6 b0 87 40 80 5c 6e 40 17 f9 8a 40 39 76 a0 3f
       4.240344 3.7243958 4.3429065 1.2536079
000340 a2 44 ab 3e 5c 45 ab 3f 71 b5 52 40 ee 44 c7 3f
       0.334508 1.3380542 3.2923243 1.5567911
000350 92 0d df c0 cb c4 4b c0 0a 14 3f c0 01 45 9c bf
       -6.9704065 -3.1838863 -2.985598 -1.2208558
000360 ee 0a 48 40 98 2b 21 3f 9b 59 61 c0 6d fc c2 3f
       3.125667 0.62957144 -3.521094 1.5233284
000370 dd e9 22 40 55 82 2c be 96 7a 3c 40 28 a6 b2 be
       2.545524 -0.16846593 2.944982 -0.34892392
000380 d7 a9 27 c0 38 15 70 bf 6f 84 31 40 ab 48 1d c0
       -2.6197412 -0.9378238 2.773708 -2.4575603
000390 c7 c0 de 3f 19 cd 6a 3f 85 91 a0 40 8a 25 41 bf
       1.7402581 0.91719204 5.0177636 -0.75447905
0003a0 aa 96 56 3f 5d 7d 1f 3f 10 26 85 3f 81 40 85 3f
       0.83823645 0.62300664 1.0402241 1.041031
0003b0 17 28 39 c0 d4 f7 d7 40 a4 d1 4e c0 6e ff 9a bf
       -2.893072 6.7490025 -3.2315454 -1.2109201
0003c0 c1 84 05 41 d0 bc e7 3e cd b7 0f 40 d6 b5 8f 3f
       8.344911 0.4526124 2.2455933 1.1227367
0003d0 d9 b7 40 be a5 af cb be fb 1f 73 bf 11 77 19 bd
       -0.18820132 -0.39782444 -0.94970673 -0.037467066
0003e0 5a 32 6e c0 48 61 84 bf 7c 45 d3 be e1 b4 b5 bf
       -3.7218232 -1.0342188 -0.4126395 -1.4195825
0003f0 ae e3 c1 c0 c8 2c 5f bf ed 12 9b c0 61 42 4a bf
       -6.059043 -0.87177706 -4.8460603 -0.79007536

critic.v_net.fcs.0.bias f4 [64]
000000 c3 76 60 3d eb 92 47 3e 87 5d a4 3e 3a 2c 23 be
       0.05480076 0.19489639 0.32102606 -0.1593484
000010 2a 2a f5 3e 83 d4 b2 3d c5 e8 ba be d3 46 02 be
       0.4788373 0.0873194 -0.36505714 -0.1272233
000020 1f 1e a2 3e e3 c1 02 3e 73 c6 e5 bd 06 26 bd 3e
       0.31663606 0.12769274 -0.11219492 0.36943072
000030 16 b1 80 3e 88 66 a3 be 2a 52 0b be 10 f3 00 bf
       0.25135106 -0.31914163 -0.13605562 -0.50370884
000040 6e 4c 12 3e d4 31 03 be f2 19 a6 3d 30 02 38 3e
       0.14286968 -0.12811977 0.081104174 0.17969584
000050 71 35 1f 3d 91 d0 4a 3d d3 b8 45 3d 38 0f 29 be
       0.038869325 0.04951531 0.048271965 -0.16509712
000060 f9 7a 61 3e 6a e2 fd bd 58 5c 4b 3e 35 95 23 bf
       0.22019567 -0.12396701 0.19859445 -0.63899547
000070 cd 6f 5d 3c 25 99 ed 3d 1c fe a5 be 77 4b e5 3d
       0.013515425 0.116014756 -0.32420433 0.111960344
000080 ea b0 ae 3d aa 2c 15 be f0 be d2 bd 59 c0 8a 3e
       0.085298374 -0.14567819 -0.10290325 0.27099875
000090 af 1c 76 3c 6a 10 d0 3e 43 6b 57 bd 0b 34 3c 3e
       0.015021487 0.40637523 -0.052592527 0.18379228
0000a0 fb 95 dc be ec b1 a7 bd b4 6b ae be 7a 0b 5c be
       -0.43083176 -0.08188233 -0.34066546 -0.21488753
0000b0 cf 68 26 3e db 47 e8 bd ea 77 8b 3d 58 49 de bd
       0.16250919 -0.1134183 0.06809981 -0.10853833
0000c0 9f 51 39 be 41 f4 bb be 38 c6 02 3f 97 4f aa 3e
       -0.18097542 -0.36709788 0.5108371 0.33263847
0000d0 53 05 1f 3e d3 44 06 be 7e d4 ae 3c b5 cf ad bd
       0.15529375 -0.13112192 0.021341559 -0.084868826
0000e0 fd cf 2d be 66 fd 96 bd e6 27 2d 3e 7e d7 05 3f
       -0.16973872 -0.07372551 0.16909751 0.5228194
0000f0 56 a5 74 be 73 27 9d be 38 27 fa 3d 14 2e c1 3e
       -0.23891196 -0.3069416 0.12214512 0.37730467

critic.v_net.fcs.1.weight f4 [64, 64]
000000 e2 21 73 3e 5a b7 aa be 90 8f a2 3e 1b b7 10 be
       0.23743394 -0.3334301 0.31750154 -0.14132349
000010 c2 56 b5 3e 7d 24 0b c0 47 fc d1 3e 67 db 0f 40
       0.35417753 -2.174102 0.41012785 2.2477663
000020 f2 28 1a be 65 e6 38 3e 62 cd 52 bd 08 ab 3f 3e
       -0.15054682 0.18056639 -0.0514654 0.18717587
000030 6e ce 91 bd d6 4f 16 3e 38 26 c3 3f 64 27 b3 3f
       -0.071194515 0.14678892 1.5246038 1.3996396
000040 dd 35 5d bf 43 7f 3f 3e ea 2e 15 c0 eb d3 e7 bf
       -0.86410314 0.1870089 -2.3309884 -1.8111547
000050 e0 d3 3f bf d9 41 88 3f f2 26 2d 3f 97 7c f6 3f
       -0.7493267 1.0645095 0.6763755 1.9256772
000060 ce ce 04 bf 31 79 ff 3c c4 88 c4 be 14 9a b4 3f
       -0.5187806 0.031185718 -0.38385594 1.4109521
000070 43 50 e3 3d 6b c0 d3 3e 4d 58 7d bf 34 9c 14 c0
       0.11099293 0.4135774 -0.9896286 -2.322034
000080 47 0e e0 bf eb b5 f3 3f 12 2f 2b bf 25 86 32 bf
       -1.7504357 1.9039892 -0.668687 -0.6973594
000090 37 e7 4b bc 5b a6 dd bd db b0 85 bf 5d 5f 99 3b
       -0.012445263 -0.108227454 -1.0444597 0.0046805576
0000a0 29 11 f4 3f c2 bf 38 40 f8 ad 22 3f d1 b5 54 3f
       1.9067737 2.886704 0.63546705 0.8308993
0000b0 99 38 98 bf 98 95 5d be aa d3 67 c0 d2 0e fe 3e
       -1.1892272 -0.21639097 -3.622294 0.49620682
0000c0 2b bb 20 3f a0 37 83 3e 19 2c fa be 09 19 17 3f
       0.62785596 0.25628376 -0.4886177 0.59022576
0000d0 55 c4 cd bd 8c a0 31 be d2 be 1a be 38 61 44 3e
       -0.10047213 -0.173464 -0.15111855 0.19177711
0000e0 2d 1a 0e 3f c8 68 92 3c 0f f0 9f 3e af 74 6a bf
       0.5550869 0.01787223 0.31237838 -0.91584295
0000f0 f2 7a 91 3f 8a 2d 7d 3d b2 29 5f bf a7 d1 a2 be
       1.1365645 0.061811008 -0.87172997 -0.31800577
000100 70 48 53 be 0a 2a b2 bf 19 c8 a9 be fb 05 9f 3e
       -0.20633101 -1.3919079 -0.33160475 0.3105925
000110 ec 10 57 3f 63 e7 ed bf fb d7 5b 3f f2 78 d7 3f
       0.84010196 -1.8586239 0.85876435 1.6833785
000120 86 ea 99 3e f0 d2 1c bd 42 5e 97 3b 61 a8 20 3f
       0.3006174 -0.038287103 0.0046193907 0.62756926
000130 b8 8f 72 3e 34 fc a2 3e 1e 8d aa 3e ee d0 f6 3f
       0.23687637 0.3183304 0.3331079 1.928251
000140 0a a7 5a bf 0b 5d 11 3f 83 3a fc bf 0d 6f 8c be
       -0.8541113 0.567826 -1.9705356 -0.27428475
000150 31 f3 1a bf 4e 2c a9 bf d5 0b 07 c0 02 40 8f 3f
       -0.6052733 -1.3216646 -2.1100972 1.1191409
000160 09 4f 3f bf 13 c1 84 be f6 94 fb bf cd 9c 88 3e
       -0.74729973 -0.25928554 -1.9654834 0.2668213
000170 f9 7f fa bd 68 ae 57 be 61 33 c6 be 96 f2 c4 be
       -0.1223144 -0.21062624 -0.38711074 -0.38466328
000180 e8 69 d4 3e 65 4a 15 bd c9 24 df 3f 94 2e 2c c0
       0.4148705 -0.0364479 1.7433101 -2.690343
000190 a0 e9 90 3d 34 9b ea bf fa 04 a8 3f 93 9a fb be
       0.070758104 -1.8328614 1.3126519 -0.49141368
0001a0 d2 ff 4b 3c bd 1c be 3f 5e 50 06 bf ca 58 ec be
       0.012451129 1.485252 -0.5246638 -0.4616149
0001b0 0d bb 1f bf 05 99 18 bf 52 d0 ca bf 58 11 41 3f
       -0.6239479 -0.5960849 -1.5844824 0.7541709
0001c0 5b 0a 1b 3f b0 97 2d 3d ae f9 c7 3d ce 73 85 3e
       0.60562676 0.04238099 0.097644195 0.26064914
0001d0 16 c7 55 bb aa 26 ed be a2 6d 6b bf 69 a1 1b 3f
       -0.0032619885 -0.4631856 -0.9196416 0.6079317
0001e0 08 02 65 3e 08 f6 a5 3f 85 e8 2a 3f 03 fd 78 bf
       0.22364056 1.2965708 0.66761047 -0.97261065
0001f0 eb 57 04 3f 52 c4 9c be a1 76 09 3e 2b 49 8f bf
       0.5169665 -0.3061853 0.1342416 -1.1194204
000200 bf 3f 86 bf d9 e3 13 3f ef 8f a2 bf 34 7e 1e bf
       -1.0488204 0.5776954 -1.2700175 -0.6191132
000210 f2 a6 1e 3f 7b 56 b5 3f e0 bc 66 bf bd f6 72 be
       0.6197349 1.4167017 -0.9013195 -0.23726936
000220 2f c7 ce 3e 8a 00 da 3e 56 25 ba bf e0 42 9a be
       0.4038634 0.42578536 -1.4542644 -0.30129147
000230 a8 01 0d be d3 c0 c2 3e 21 3a 02 bf fc 53 1e c0
       -0.13770163 0.38037738 -0.5086995 -2.473876
000240 01 51 02 3f 26 a7 1e 3e a1 64 96 3f 71 f7 2e bf
       0.5090485 0.1549345 1.174946 -0.68346316
000250 0f 42 5c 3f 5b 43 1b 3f fc 25 a3 3f c8 9a 24 c0
       0.860383 0.6064965 1.2745967 -2.571947
000260 8d 1c 70 bf 80 e4 0f bf f1 ae 01 40 d9 24 fe bf
       -0.93793565 -0.5620804 2.0263026 -1.9854995
000270 9c 09 41 3d 06 a8 50 bf 99 10 b0 be b7 1a d7 be
       0.047128305 -0.81506383 -0.34387663 -0.4201257
000280 8e 78 09 be 88 82 41 3e b5 30 c2 bf 46 57 e4 3f
       -0.13424894 0.1889745 -1.5171114 1.7839134
000290 04 4b 63 be a7 7e b1 3f 63 e4 27 bf e3 20 d2 3f
       -0.22196585 1.3866776 -0.65582865 1.6416286
0002a0 15 1e 6a 3f 8c 21 e4 bf 02 c6 06 3f 7c aa ab bf
       0.9145215 -1.7822738 0.52645886 -1.3411403
0002b0 84 24 79 bf 65 f1 36 3d f6 e4 38 3d f2 57 11 3e
       -0.97321343 0.044663806 0.04514023 0.14193705
0002c0 5d 93 d2 3f d1 56 9d 3c 7c be 35 bf 37 69 00 bf
       1.6451222 0.019206436 -0.7099378 -0.50160545
0002d0 ba 02 29 3f fa c2 cd 3e a8 48 13 40 0c 57 f4 bc
       0.66019785 0.40187818 2.3013096 -0.029826663
0002e0 e0 12 bf bf 91 c4 64 be 2b 86 27 3f e3 2f 8c 3f
       -1.4927635 -0.22340609 0.654391 1.0952114
0002f0 6e e2 00 3c 66 5d 01 bf 2d 87 a3 bf 66 8f 3a 3e
       0.007866485 -0.5053314 -1.2775627 0.18218765
000300 77 ab 5a bf 07 b0 28 3e 95 94 47 3e 36 c8 c5 bf
       -0.85417885 0.16473399 0.19490273 -1.5451725
000310 c6 8a 16 40 4a fa 5d 3e 1d 2e 02 be fe a5 15 be
       2.35222 0.21677509 -0.12712903 -0.14614102
000320 c1 e4 ac 3e 26 50 a7 be d1 58 75 bf c5 38 a8 be
       0.33768275 -0.32678336 -0.9583865 -0.32855812
000330 da 51 03 bf 81 83 ad 3f c9 cb 49 bf 49 d9 06 c0
       -0.5129677 1.3555757 -0.78826576 -2.107012
000340 b5 44 28 be 28 a7 fb be 67 38 8b 3e dd 5c 5d bd
       -0.1643246 -0.49150968 0.2719147 -0.05404364
000350 f0 98 41 3f c0 28 7a bf c4 45 96 bf e4 d8 a3 bf
       0.7562399 -0.9771843 -1.1740041 -1.2800565
000360 03 3f e1 bf af 99 e4 be 1e 17 ab 3e 88 ec 01 bd
       -1.7597355 -0.446485 0.33416075 -0.031719714
000370 a5 4f ec 3d 27 44 41 bf b4 50 0b 3f ca 7d 0e be
       0.115386285 -0.7549462 0.5442002 -0.13915172
000380 d8 ff 91 be 9f 63 06 3f b7 6b c1 3f 28 1b ba 3f
       -0.28515506 0.5249576 1.5110997 1.4539537
000390 1c c2 97 bd ce 6e ad bc 47 28 87 3f ba 24 21 be
       -0.0741007 -0.021171 1.0559167 -0.15736666
0003a0 36 e1 56 bf cd 4a 2f bf 5e 19 39 bf 22 00 17 c0
       -0.83937395 -0.6847351 -0.7230433 -2.359383
0003b0 38 e3 30 c0 85 de 23 bf bf 5c e7 3d 2a 1b 39 40
       -2.7638683 -0.6401141 0.11296987 2.892283
0003c0 40 12 08 40 70 62 79 bf 0e 42 06 3f f6 20 27 3f
       2.126114 -0.9741583 0.5244454 0.6528467
0003d0 b6 a0 f7 3f 0e 94 a9 3d 94 2c eb 3e f7 e4 b0 3e
       1.934592 0.08280192 0.45932448 0.34549686
0003e0 36 ba 46 3e 06 4f 84 3f c9 d5 b8 3f b9 01 11 3f
       0.19406971 1.0336616 1.4440242 0.56643254
0003f0 d6 90 e7 be 6a a0 25 bf 77 6b 93 3e 79 ae 6c bd
       -0.4522769 -0.646979 0.28792927 -0.057783578

critic.v_net.fcs.1.bias f4 [64]
000000 04 a9 97 be 8e ab 56 be 1f 04 5d 3e 7c 18 0f 3f
       -0.29621136 -0.2096388 0.21583603 0.55896735
000010 0c 67 ed 3e 48 0a b5 bd 16 69 86 bf 41 54 eb 3e
       0.4636768 -0.088398516 -1.050082 0.45962718
000020 c4 60 3a bd 0c 2f 1c bf a4 a8 a0 3f 9b 83 1c 3e
       -0.04550244 -0.6100929 1.2551465 0.15284579
000030 1f 26 b6 bc eb 52 3d be 76 14 df bf 5c 4e 21 bf
       -0.022234974 -0.18488662 -1.7428119 -0.6301019
000040 6e a0 89 3c d7 3f 89 be 75 a2 8b 3e 45 39 91 3f
       0.016800132 -0.26806518 0.27272382 1.1345602
000050 0a 4f 82 be 37 d8 e9 be 71 06 bf be 6c b3 39 bc
       -0.25450927 -0.4567277 -0.37309602 -0.011334281
000060 97 4e dc 3e 53 b4 4f 3d 4b fb 38 bf 52 e9 dd 3e
       0.4302871 0.05070908 -0.7225844 0.43342072
000070 c0 c9 e0 be d3 79 fc be 51 aa 63 be a3 ca 23 3e
       -0.43903923 -0.49311695 -0.2223294 0.15995269
000080 88 a7 8d 3f 18 0f 4a bf 90 fe 91 bd 5a a1 fc bd
       1.1066751 -0.7892928 -0.07128632 -0.12335463
000090 0b 9d 3c 3e cb bc 9c 3e 61 1e 25 3d 29 33 36 3f
       0.18419282 0.30612788 0.040312175 0.71171814
0000a0 9a 99 56 be a0 b2 82 bf b3 65 3b 3f 14 ff 5c bf
       -0.20957032 -1.0210762 0.73202056 -0.8632672
0000b0 8b b2 45 be 2d 30 08 be d0 75 98 bf b5 3a 39 3f
       -0.1930639 -0.13299628 -1.1910954 0.72355205
0000c0 00 1e 4a be 02 13 5f 3e c1 39 c3 3e db 89 29 40
       -0.19738007 0.21784595 0.3813 2.649039
0000d0 96 63 6a bf 75 a0 d7 3d 64 43 dc bd 9c c3 b7 3f
       -0.91558206 0.105286516 -0.10755041 1.435657
0000e0 f5 0b 09 40 10 d6 a3 3e 44 59 1a 3e 96 3b 42 3d
       2.1413548 0.31999254 0.15073115 0.047420107
0000f0 4f 72 32 bf cc 0b 3f 3e 79 12 f6 3f 27 fa 8d 3d
       -0.6970567 0.18656844 1.9224387 0.069324784

critic.v_net.fcs.2.weight f4 [1, 64]
000000 c5 60 57 40 ae 62 73 40 fc 00 1f c0 ca 68 a5 bf
       3.3652813 3.802898 -2.484435 -1.2922604
000010 02 89 0b 40 d3 ea dd 3f fd 87 04 c0 fe 37 4a c0
       2.1802373 1.7337288 -2.0708 -3.1596675
000020 d1 13 25 40 f5 09 44 40 4d 9b 0b 40 e3 a3 5c 40
       2.5793345 3.0631077 2.1813538 3.4475029
000030 56 70 1f 40 5f 6c b1 3f db 68 19 c0 33 c5 a6 bf
       2.4912314 1.3861197 -2.3970249 -1.302893
000040 2c f2 29 c0 9e 0f 56 40 20 bd 64 c0 c5 1d 12 40
       -2.655406 3.3447032 -3.5740433 2.283067
000050 76 ea fc bf 04 f0 07 c0 d5 e9 7c c0 ec c6 66 c0
       -1.9759052 -2.1240244 -3.951772 -3.6058912
000060 52 a9 c5 3f 9a 98 5c c0 cb 0d 21 c0 ac 44 37 40
       1.5442297 -3.446814 -2.5164669 2.8635664
000070 c1 9e 57 40 bf b2 69 c0 23 10 19 40 d8 27 66 3f
       3.3690646 -3.6515348 2.39161 0.89904547
000080 68 c3 08 40 77 b6 53 c0 78 1b fe bf 5a 83 dd bf
       2.1369267 -3.3080118 -1.9852133 -1.730571
000090 17 61 5e 40 47 f9 f2 bf 7a 58 07 40 59 07 5e 40
       3.474676 -1.8982323 2.1147752 3.4691985
0000a0 87 21 b3 3f cc 74 80 bf 55 37 38 40 d9 24 60 c0
       1.3994607 -1.0035644 2.8783772 -3.502249
0000b0 3a 9a 65 40 7c f4 f0 3f b0 91 15 c0 83 36 25 40
       3.5875382 1.8824611 -2.337017 2.5814521
0000c0 1d 42 35 c0 e2 17 3a bf 5d 07 c3 3f c7 dc 1f 40
       -2.8321602 -0.7269269 1.5236622 2.4978502
0000d0 9b bb 14 c0 cb 3a 09 3f ac 43 43 c0 99 9d 1a 40
       -2.3239505 0.53605336 -3.0510054 2.415869
0000e0 96 cf 08 40 71 48 ca bf 57 dc 1c c0 78 8c b0 3f
       2.13767 -1.5803357 -2.4509485 1.3792868
0000f0 fe e3 06 c0 82 39 35 40 cc c6 17 40 b6 ea 2f 40
       -2.1076655 2.831635 2.3715086 2.7487006

exp_avg f4 [64, 4]
000000 4b 37 19 bc 03 be 96 3a 28 3a 9c 3b 86 eb 8a 3a
       -0.009351562 0.001150072 0.004767675 0.0010598756
000010 0e 03 b4 3c d3 76 2f bb 57 59 27 bc d8 1f ea ba
       0.021974113 -0.0026773706 -0.010214171 -0.0017862273
000020 59 41 eb 3b bd 55 49 38 47 71 51 bb da 21 49 ba
       0.007179421 4.8001984e-05 -0.0031958388 -0.0007672586
000030 a8 f1 3f bd c7 30 8a 3b 1a b9 bc 3c 9e 37 cc 3b
       -0.04686132 0.0042172405 0.023037482 0.006232216
000040 3d fa 22 bb 0c 0e 96 ba b1 cb 0b 39 f9 d1 6a ba
       -0.0024868392 -0.0011448278 0.00013331954 -0.000895768
000050 85 51 6e bc db fd d6 3a ca 24 ef 3b 0d 75 f6 3a
       -0.014545803 0.0016402559 0.007298087 0.0018803194
000060 b7 74 43 3c ec 34 ef 39 f4 2a a6 bb c2 9e 3f ba
       0.011929682 0.00045625062 -0.0050710384 -0.00073097285
000070 77 0d 02 b9 c1 2b 13 ba 35 07 26 ba 1a c7 73 ba
       -0.00012402782 -0.0005614125 -0.00063334714 -0.0009299383
000080 09 ac 8c 3c 6d 0d 84 bb 35 bc 25 bc a8 ef 87 bb
       0.017171877 -0.004029921 -0.010115673 -0.0041484423
000090 95 f7 83 b9 a5 ab 28 ba 83 78 1f ba 6c b0 89 ba
       -0.0002517073 -0.00064342684 -0.00060833263 -0.0010504848
0000a0 ab c1 07 3b d0 f6 30 3a 86 5f 09 b9 48 ca 41 3a
       0.00207148 0.0006750645 -0.00013100923 0.0007392508
0000b0 2c 1b 10 bc a3 5c 31 3a 63 fa 8d 3b 41 79 92 3a
       -0.008795541 0.0006765818 0.004332827 0.0011175052
0000c0 52 b9 c9 3b 4c f2 29 3b 53 f2 87 ba 57 db ae 3a
       0.006156125 0.0025931774 -0.0010371901 0.0013340515
0000d0 03 16 a3 bb fd c7 cf b9 ac da f4 3a 2e 23 04 b8
       -0.0049769892 -0.0003963112 0.0018680892 -3.1504016e-05
0000e0 c2 29 9f bc 8e db 5e 3b 44 ca 2a 3c 69 49 55 3b
       -0.019429091 0.0034005377 0.0104242 0.0032544977
0000f0 32 41 ec 3b 1f 58 a5 3a a8 9b 21 bb 69 53 01 39
       0.0072099203 0.0012614763 -0.0024659429 0.00012333471
000100 3d a2 3a bb 25 94 4f bb 88 59 42 ba 93 39 05 bb
       -0.002847805 -0.0031673994 -0.0007413854 -0.0020328506
000110 11 87 a9 3a 62 1e 2c bb ed df 08 bb 3c 28 ef ba
       0.001293393 -0.0026263227 -0.0020885423 -0.0018246244
000120 84 66 1b bc c8 6f e4 3a db b6 a9 3b 8c c0 fd 3a
       -0.009484891 0.0017428333 0.005179269 0.0019359752
000130 fd 60 3b 3d 2a e0 5d bb 16 b1 af bc 34 04 98 bb
       0.045746792 -0.0033855536 -0.021446746 -0.004639173
000140 4a 44 3d bc 64 a6 a6 3a 94 4d bd 3b e2 1c e4 3a
       -0.011551926 0.0012714383 0.0057770703 0.0017403627
000150 96 9e 08 3c 24 4c 93 ba 25 2d 8c bb 9b ec ac ba
       0.008338591 -0.0011237902 -0.0042778426 -0.0013193073
000160 e0 4f d2 3b 0a d9 85 b9 0a c7 1c bb 2e 68 66 39
       0.0064182132 -0.00025529444 -0.0023922347 0.00021973319
000170 1f 8a c1 3c 86 97 a1 39 67 bb 2b bc 8d e3 05 bb
       0.023625432 0.00030821207 -0.010481692 -0.002042982
000180 61 a2 2f bc 88 c6 c1 bb 21 c5 d8 3a 8c 8e 0e bb
       -0.0107198665 -0.0059135593 0.0016538241 -0.0021752445
000190 8c 06 34 3c 17 bd 27 bb 3d 3d be bb 95 cc ce ba
       0.010987889 -0.0025594884 -0.00580564 -0.0015777523
0001a0 ea 82 9a bb 0c 04 e3 3a c5 e6 64 3b 6c c7 fc 3a
       -0.004715313 0.0017319932 0.0034927588 0.0019285507
0001b0 3c 97 6f 3d 30 d1 23 bc fa 9b f8 bc 34 03 0c bc
       0.058493838 -0.009998605 -0.030347813 -0.008545686
0001c0 d3 ff 36 bb 71 a6 98 ba 79 c1 07 39 91 b0 97 ba
       -0.002792348 -0.0011646283 0.00012946677 -0.0011573007
0001d0 03 ff 52 bd f9 07 22 3c 41 30 e8 3c 23 96 20 3c
       -0.05151273 0.009889596 0.028343322 0.00980142
0001e0 29 2c 61 3b ae b5 81 bb 44 16 91 bb a2 85 76 bb
       0.0034358597 -0.0039584255 -0.004427703 -0.0037616272
0001f0 48 73 3c 3b 0e 38 94 ba a1 31 10 bb 84 18 98 ba
       0.0028755236 -0.001130821 -0.0022002237 -0.0011603986
000200 98 c2 43 bc d7 14 68 3a 8d 66 b9 3b 87 52 a3 3a
       -0.01194825 0.0008853203 0.005657977 0.0012460508
000210 d4 34 d0 ba d1 d1 de ba d3 b2 05 b9 29 11 34 ba
       -0.0015884885 -0.0016999786 -0.00012750486 -0.0006869012
000220 5a 7c e1 3c 1f ce f1 ba 5f dd 56 bc 89 a3 47 bb
       0.027525116 -0.001844827 -0.013114302 -0.0030462465
000230 b7 f8 17 bc 7b 85 14 bb 27 75 12 3b c8 ab b4 ba
       -0.009275607 -0.0022662568 0.002234766 -0.0013784105
000240 33 9b 11 3c 87 8f 10 bb ff 7c 93 bb a3 7f 84 ba
       0.0088871 -0.0022058205 -0.0045009847 -0.001010884
000250 16 7b be bb 9d 45 6a 3a 29 ca 70 3b 05 9d e0 3a
       -0.005813013 0.0008936765 0.003674159 0.0017136639
000260 af eb 05 3c 4c 9c 00 3a bb e7 61 bb da 91 23 ba
       0.008173867 0.00049061025 -0.0034470398 -0.000623969
000270 ab 60 b4 bc 41 e9 94 3b 68 be 48 3c 91 ab 75 3b
       -0.022018751 0.0045444076 0.012252428 0.0037486295
000280 e6 de d9 bb 0f 31 85 bb ff c3 f0 39 94 71 09 bb
       -0.006648886 -0.004064686 0.00045922396 -0.002097224
000290 56 07 78 bb 2d 24 6d b9 22 5a 3a 3a 41 51 90 ba
       -0.003784617 -0.00022615558 0.0007108768 -0.0011010544
0002a0 46 47 87 ba 7d cf 3c bb 4d ae 94 ba 04 23 d5 ba
       -0.0010320924 -0.0028810196 -0.001134345 -0.0016261046
0002b0 da ba f5 3a 2b ae b5 ba d3 85 df ba b3 7f 9f ba
       0.0018747703 -0.001386111 -0.0017053433 -0.0012168795
0002c0 2d 4f 3a bb 55 63 2d b9 2f 5a e2 39 eb fa 69 ba
       -0.002842854 -0.0001653557 0.0004317327 -0.00089256343
0002d0 9d ee a4 bb 3c 90 08 bb ea a6 b6 3a bd 6e 98 b9
       -0.0050333277 -0.0020837924 0.0013935242 -0.00029074206
0002e0 5d 62 ac 3c e7 db 02 bb 04 63 32 bc 14 7b 75 bb
       0.021042997 -0.0019967498 -0.010887865 -0.0037457393
0002f0 bc 50 63 3d 99 be 40 bc fe 65 fe bc f2 c9 35 bc
       0.055496916 -0.011764192 -0.031054493 -0.011095511
000300 ab 71 4b bb a1 93 ae ba db 28 55 3a 7e 1d 6b b9
       -0.0031043093 -0.0013319143 0.0008131393 -0.00022422333
000310 87 e9 8c bb e1 33 21 3a 44 58 08 3b 48 db 06 3a
       -0.0043002996 0.0006149393 0.0020804564 0.000514437
000320 e3 35 8b 3b bc ef 5c ba 5a 86 10 bb 7b 0b 1f ba
       0.004248367 -0.0008428057 -0.0022052736 -0.00060670794
000330 f9 d5 3b bc 37 55 d9 3a 74 5e c7 3b 23 bd 06 3b
       -0.011464589 0.0016581182 0.0060842577 0.0020559512
000340 0a 9b d2 3a b2 02 07 bb bb 34 08 bb 51 30 e1 ba
       0.0016067934 -0.0020600972 -0.0020783383 -0.0017180537
000350 aa b8 47 3c e3 26 c5 ba e3 da c9 bb cf 9d ea ba
       0.012190023 -0.0015041496 -0.0061601265 -0.0017899814
000360 56 44 22 3c cc 9e 38 39 a8 4d 80 bb 4c 6c f0 b8
       0.009903988 0.00017606764 -0.0039155073 -0.00011464264
000370 8a 9c f6 bb 84 82 37 bb bb 0e 6f 3a 5d 9d 0c bb
       -0.007525985 -0.0028001377 0.00091193215 -0.00214561
000380 4e ca 75 3c 0a b5 42 bb 62 40 06 bc 9f 33 33 bb
       0.0150018465 -0.0029709958 -0.008194061 -0.0027344
000390 44 ae 7c 3a e7 f3 81 3b f9 8b 22 3b 13 d9 5f 3b
       0.0009639005 0.003965843 0.0024802668 0.0034156486
0003a0 05 08 fd bc 21 6b bb 3b c7 03 8d 3c 3b 74 d3 3b
       -0.030887613 0.005719558 0.017213715 0.0064530647
0003b0 eb ff 3b 3d 20 06 e2 bb 80 0a bb bc b7 40 b5 bb
       0.04589836 -0.006897703 -0.022832155 -0.0055313963
0003c0 ca 6e b1 3b 92 e3 c4 3a 3f b0 8d ba 22 35 87 3a
       0.0054148184 0.0015021435 -0.0010809972 0.0010315517
0003d0 5a d8 00 bd 56 d9 00 3b 52 e0 66 3c a2 b5 18 3b
       -0.03145633 0.0019660792 0.014091568 0.002330162
0003e0 ab b9 61 bd 19 3d 5c 3c be 5d 01 3d 1b 78 3c 3c
       -0.055108707 0.013442301 0.03158354 0.011503245
0003f0 77 d5 74 3b a1 97 8e b9 6a 1b 2d bb 77 0f dc ba
       0.003735868 -0.00027197323 -0.0026414045 -0.0016789277
