training_results/cartpole_null/rarl_backup1/seed_42/1000000steps/checkpoints/model_400000.pt (torch, 277001 bytes, 66 tensors)

actor.pi_net.fcs.0.weight f4 [64, 4]
0	0xbe9d6468	-0.30740666
1	0x3f072f60	0.52806664
2	0x3ef5d564	0.48014367
3	0x3f160479	0.58600575
4	0xbee9c0c2	-0.45654875
5	0xbc7f3d79	-0.015578621
6	0x3d11bb28	0.035578877
7	0xbf142d81	-0.57881933
8	0x3e8b09ad	0.2715582
9	0xbed93dfb	-0.424301
10	0xbf29443f	-0.6611976
11	0xbef89f5f	-0.4855909
12	0xbdc4f96b	-0.09617885
13	0xbe5ae6f0	-0.21377158
14	0x3f104ef2	0.5637046
15	0x3e4600c2	0.19336227
16	0x3e51f671	0.20504166
17	0x3e734a71	0.23758866
18	0x3e970ebd	0.29503432
19	0x3f0e1d36	0.5551332
20	0xbeaa55dd	-0.33268633
21	0xbeb2568f	-0.34831664
22	0x3e30b06a	0.17254797
23	0x3f22bb60	0.6356716
24	0x3e1a2bf4	0.1505583
25	0x3e848795	0.2588469
26	0xbe9f15e7	-0.31071398
27	0xbe9a5a3f	-0.30146977
28	0xbe517590	-0.20455003
29	0x3e633f13	0.2219203
30	0xbe7e4388	-0.24830449
31	0x3d93b8a5	0.072129525
32	0x3eba0ee1	0.36339477
33	0x3e68768b	0.2270147
34	0xbef489be	-0.4776134
35	0xbf263fd2	-0.6494113
36	0x3e9456ec	0.28972566
37	0xbe6325fb	-0.22182457
38	0xbf0398a7	-0.51404804
39	0xbab795ce	-0.0014006437
40	0xbb953329	-0.004553218
41	0xbee46485	-0.4460794
42	0x3c05a2b3	0.008156466
43	0xbefd0841	-0.4942036
44	0xbed49bc9	-0.41525105
45	0xbe983ff3	-0.2973629
46	0x3e3a61d4	0.18201381
47	0x3e3b5e90	0.18297791
48	0xbeb3e08a	-0.35132247
49	0x3e03134a	0.12800327
50	0xbeb8dfa7	-0.36108133
51	0xbe7ff388	-0.24995244
52	0x3df01458	0.1172263
53	0x3e43646e	0.1908128
54	0xbe5a7be8	-0.21336329
55	0x3f03b4e5	0.514479
56	0xbe2166f1	-0.15761925
57	0x3e046fad	0.12933226
58	0x3ee3cadd	0.4449071
59	0x3f18e4ec	0.5972431
60	0x3ea77b35	0.32711187
61	0x3e38b105	0.18036278
62	0xbec833ad	-0.39101925
63	0xbeb48f80	-0.35265732
64	0x3ea58ea4	0.3233539
65	0xbe14c2ac	-0.14527386
66	0xbe9206e1	-0.28520873
67	0x3ea2da84	0.3180734
68	0xbe921e34	-0.28538668
69	0x3d05607e	0.032562725
70	0xbea33f6d	-0.31884328
71	0x3eb1d0d7	0.34729645
72	0xbea8e905	-0.3299028
73	0x3e62ed54	0.22160846
74	0x3f053cb0	0.52045727
75	0x3f26ad4e	0.6510819
76	0xbbcb43bd	-0.0062031434
77	0x3d440513	0.0478564
78	0xbeef43d3	-0.46731433
79	0xbe44a206	-0.19202432
80	0xbef92f90	-0.486691
81	0x3e11d145	0.14239986
82	0x3e3dd15a	0.18536893
83	0x3f03c769	0.5147615
84	0xbdd182aa	-0.1023
85	0x3e810e32	0.25206143
86	0xbdc14a62	-0.094380155
87	0xbeee643f	-0.46560857
88	0xbec43bd1	-0.38326886
89	0xbed8d4a2	-0.42349726
90	0xbf213cf1	-0.62983614
91	0xbe0620d4	-0.1309846
92	0x3eca34e2	0.3949347
93	0xbeea2388	-0.45730233
94	0xbf12b48c	-0.5730674
95	0xbdfa5368	-0.1222294
96	0xbeccb97f	-0.39985272
97	0xbdf448f6	-0.11927979
98	0xbdaa6753	-0.08320489
99	0x3f074724	0.52842927
100	0xbec9b2d9	-0.39394262
101	0xbe6045e4	-0.21901661
102	0xbf3ce611	-0.73788553
103	0xbed027ed	-0.4065546
104	0xbee8db91	-0.45480016
105	0xbef99d35	-0.48752752
106	0x3d6827c2	0.05667854
107	0xbe151226	-0.14557704
108	0xbe56784e	-0.2094433
109	0xbe6092b6	-0.21930966
110	0xbf0ab955	-0.54189044
111	0xbf23791d	-0.6385668
112	0x3ee61725	0.44939533
113	0xbe759242	-0.23981574
114	0x3e82de6c	0.2556032
115	0xbd70f2b5	-0.058825213
116	0xbeff5d6b	-0.4987596
117	0x3d914756	0.070936844
118	0x3e88e8e4	0.2674018
119	0x3f1dfba9	0.6171213
120	0x3e380c4b	0.1797344
121	0x3da5fef0	0.08105266
122	0xbeee82bb	-0.46584114
123	0x3e5e17e1	0.21688797
124	0x3ddf552d	0.10904918
125	0x3f169d4a	0.58833754
126	0xbcaea70d	-0.02131989
127	0x3f0c896b	0.54897183
128	0xbe2a5bec	-0.16636628
129	0xbe3d68d2	-0.18497017
130	0x3f1f749e	0.6228732
131	0x3eafe3e5	0.34353557
132	0xbecea648	-0.40361238
133	0x3ee7139c	0.45132148
134	0x3e9e628e	0.30934566
135	0xbe22bd8d	-0.1589262
136	0x3ecd9f96	0.40160817
137	0xbde5265d	-0.11188958
138	0xbef1b7e7	-0.4721062
139	0xbe5f5e2b	-0.21813266
140	0x3ec2f3a3	0.38076505
141	0x3e485661	0.19564201
142	0x3ec27836	0.3798234
143	0x3e24725f	0.16059254
144	0xbe87801d	-0.2646493
145	0xbec4471a	-0.38335496
146	0xbefe5b15	-0.49678865
147	0xbec7cf6b	-0.39025435
148	0xbee025c2	-0.43778807
149	0xbf0df8ed	-0.55457956
150	0x3cd126ee	0.025531258
151	0xbf042850	-0.5162401
152	0x3e69f5e1	0.22847702
153	0x3ea6ba35	0.3256394
154	0xbd2c9ac1	-0.042139772
155	0xbe9f919a	-0.31165773
156	0xbecae901	-0.39630893
157	0x3e8f2ccd	0.27963868
158	0x3f516426	0.8179344
159	0x3f099e7a	0.5375744
160	0xbd104115	-0.035218317
161	0x3d976e43	0.07394078
162	0x3f10a4bb	0.5650136
163	0x3ecbcabc	0.39803112
164	0x3ef1eeb1	0.4725242
165	0x3e1bb20b	0.15204637
166	0x3eecd22c	0.46254098
167	0x3d9d0f8b	0.0766898
168	0x3ecfe040	0.40600777
169	0xbed79b3d	-0.42110625
170	0x3da25de4	0.079280645
171	0x3ebb3263	0.3656188
172	0x3eb1a8cb	0.3469909
173	0x3f0b2e1f	0.5436725
174	0xbe770f02	-0.24126819
175	0x3edcfae4	0.43160164
176	0x3e33c1f4	0.17554456
177	0x3eec6a61	0.4617491
178	0xbd106034	-0.035247996
179	0x3ea80090	0.3281293
180	0xbe392b78	-0.18082988
181	0xbec10ee1	-0.37706664
182	0x3ea2dc1b	0.31808552
183	0xbe8c293c	-0.2737521
184	0x3e4c08e6	0.1992527
185	0x3eb581e9	0.35450676
186	0xbcec4293	-0.028840339
187	0xbf259295	-0.6467679
188	0x3e6728f7	0.2257422
189	0xbe47602f	-0.19470285
190	0xbf33456c	-0.70027804
191	0xbf0ce7bc	-0.550411
192	0xbe893a25	-0.26802173
193	0xbd61e99a	-0.05515442
194	0x3f0cbb59	0.5497337
195	0xbcb2bbdb	-0.021818092
196	0xbef7a81e	-0.4837045
197	0x3ed82b92	0.42220742
198	0xbdd59dd6	-0.104304954
199	0x3ee60674	0.44926798
200	0xbecee2db	-0.40407452
201	0xbe4f1907	-0.20224391
202	0xbed4bc8d	-0.41550103
203	0xbdd75a86	-0.10515313
204	0xbea46dc1	-0.32114986
205	0xbea10f77	-0.3145711
206	0x3f33b3e9	0.70196396
207	0x3f252894	0.6451504
208	0xbdd9a734	-0.106275946
209	0x3e388957	0.18021141
210	0xbf1799a2	-0.592188
211	0x3d021304	0.031756416
212	0xbd49dfe2	-0.049285777
213	0xbe0e99b9	-0.13925828
214	0xbf39298c	-0.7232902
215	0xbe99eca1	-0.30063346
216	0xbea5e364	-0.32400048
217	0x3edc8896	0.43072957
218	0xbf0daf85	-0.55345947
219	0xbe990188	-0.2988398
220	0x3e142f6a	0.14471212
221	0x3e99a09b	0.30005345
222	0x3dbac623	0.09119823
223	0x3e89e305	0.26931015
224	0x3e9e901f	0.3096933
225	0x3e8e087e	0.27740854
226	0xbf134710	-0.5753031
227	0xbeb245f7	-0.34819004
228	0xbee388da	-0.44440347
229	0x3ddded23	0.10836246
230	0xbe598a63	-0.21244197
231	0xbe8504f8	-0.25980353
232	0xbe8440c1	-0.25830653
233	0x3ef28415	0.47366396
234	0x3f61976f	0.88121694
235	0x3f1add38	0.60493803
236	0xbacaecc2	-0.0015481936
237	0xbeadab22	-0.33919626
238	0xbf1ce9b7	-0.6129412
239	0xbe9c46ea	-0.30522853
240	0xbef0e0ac	-0.4704641
241	0xbedcc652	-0.43120056
242	0xbeaec659	-0.34135702
243	0xbeb38b42	-0.35067183
244	0x3e93e89a	0.28888398
245	0x3df14ea6	0.11782579
246	0x3e85c5fc	0.26127613
247	0x3e942e04	0.28941357
248	0x3e9b31b4	0.30311358
249	0xbe6cefcd	-0.23138352
250	0x3f2d5837	0.6771273
251	0x3f3b4e19	0.7316604
252	0x3ef7b361	0.48379043
253	0x3ea3e627	0.3201153
254	0xbee78724	-0.45220292
255	0x3d8f829b	0.07007333

actor.pi_net.fcs.0.bias f4 [64]
0	0x3eb16b23	0.3465205
1	0x3d03d8f5	0.03218933
2	0x3eb3aa1d	0.35090724
3	0x3bb7087b	0.0055857277
4	0x3eeeb0ca	0.46619254
5	0xbeaea813	-0.34112605
6	0x3e81ec31	0.25375512
7	0xbe96b1e6	-0.294326
8	0xbe405dbf	-0.18785761
9	0xbe056986	-0.13028535
10	0x3eb636e2	0.35588747
11	0xbe370ffe	-0.17877194
12	0x3e6bf157	0.23041283
13	0xbeee8ab1	-0.46590188
14	0x3e567cd4	0.20946056
15	0xbe48409c	-0.19555897
16	0xbe4f6024	-0.20251518
17	0x3e880f77	0.265743
18	0xbeda35fa	-0.42619306
19	0x3d08c489	0.033390556
20	0xbeb64bde	-0.35604757
21	0xbed96a78	-0.42464042
22	0x3e2fdb88	0.17173588
23	0x3b915044	0.0044346172
24	0xbb3fe4e6	-0.0029280721
25	0x3e3ce01b	0.18444864
26	0xbea230dd	-0.31677905
27	0x3ce3f901	0.027828695
28	0x3e820b22	0.2539912
29	0xbd633b07	-0.055476215
30	0x3dad364a	0.084576204
31	0x3ed14ce9	0.4087899
32	0xbe7a5d80	-0.2444973
33	0xbe6b0b9a	-0.22953644
34	0xbd3e58b7	-0.046471324
35	0xbd1af018	-0.037826627
36	0xbe8f7c7c	-0.28024662
37	0xbec4c4b1	-0.38431314
38	0xbeee29c7	-0.4651625
39	0x3e6e7ebd	0.23290534
40	0x3ea438e7	0.32074663
41	0xbcd415a7	-0.02588923
42	0x3ed3fa5a	0.4140194
43	0xbe6ea1d2	-0.23303917
44	0xbe2a3598	-0.16622007
45	0x3ea06ed4	0.31334555
46	0xbdb3e36f	-0.08783614
47	0x3e05cf1c	0.13067287
48	0x3eba8ee4	0.36437142
49	0xbedab833	-0.42718658
50	0x3ef1bf5a	0.47216302
51	0x3ebc707b	0.36804566
52	0x3e9828b2	0.29718548
53	0x3e893bc0	0.26803398
54	0x3e1f6259	0.1556486
55	0x3d8f600c	0.07000741
56	0x3ebf456d	0.37357655
57	0xbd27b044	-0.040939584
58	0xbe6a1932	-0.22861174
59	0xbc909640	-0.01764977
60	0x3d7f78cd	0.062371064
61	0xbca8b051	-0.020591887
62	0xbdd57746	-0.1042314
63	0x3e7750b9	0.24151887

actor.pi_net.fcs.1.weight f4 [64, 64]
0	0x3dd83f06	0.10558896
1	0x3c87d5c9	0.016581433
2	0xbdc7ffb6	-0.0976557
3	0x3df3fb3c	0.119131535
4	0xbcef7984	-0.029232748
5	0x3dc485d7	0.095958404
6	0x3db4ab70	0.088217616
7	0xbd42248a	-0.047398128
8	0xbdd450a9	-0.10366947
9	0xbc2f1a10	-0.010687366
10	0x3d1c05bb	0.038091403
11	0x3d5e2830	0.054237545
12	0x3daac718	0.08338755
13	0x3d5d8acc	0.054087445
14	0x3e297215	0.16547425
15	0xbd24969c	-0.040182695
16	0xbdb76259	-0.08954305
17	0xbd2e940f	-0.04262167
18	0x3da81a9e	0.08208202
19	0xbe391183	-0.18073086
20	0x3c93b97e	0.018032786
21	0x3d5bc599	0.05365524
22	0xbe131842	-0.14364722
23	0xbe56142c	-0.20906132
24	0x3dddbd89	0.108271666
25	0xbe0356dd	-0.12826104
26	0x3cb59b57	0.022168798
27	0xbe81cc8b	-0.25351366
28	0x3df70b71	0.12062729
29	0x3d93f19b	0.07223817
30	0x3decebeb	0.11568435
31	0xbd061fe2	-0.03274525
32	0xbd72a569	-0.05923978
33	0xbc9a4341	-0.018830897
34	0xbdc55ff1	-0.0963744
35	0x3dd52180	0.1040678
36	0xbd5c1f3b	-0.05374072
37	0xbe1cd56d	-0.1531579
38	0x3d871784	0.06596282
39	0x3d895cdc	0.06707165
40	0x3c159054	0.009128649
41	0x3d95d410	0.07315838
42	0x3de3c7bb	0.1112208
43	0xbdb5d101	-0.08877755
44	0x3c4e6d0c	0.012599241
45	0xbcee40a7	-0.029083563
46	0xbd67d30f	-0.056597766
47	0xbe16c548	-0.14723694
48	0xbd729ad1	-0.059229676
49	0xbd6d5c22	-0.057949193
50	0x3cce8c0f	0.02521327
51	0x3d273312	0.04082019
52	0xbb56c83c	-0.0032773158
53	0xbdbe4a6b	-0.09291538
54	0xbe0784f0	-0.13234305
55	0x3d8400cb	0.06445464
56	0x3dc81a30	0.0977062
57	0xbe07be42	-0.13256171
58	0x3d04c4bf	0.032414194
59	0xbe6ef201	-0.23334505
60	0xbe3ccb8f	-0.18437026
61	0xbb6f3158	-0.0036497917
62	0x3e2520b5	0.16125758
63	0xbd47c10f	-0.0487681
64	0x3dcf2b63	0.10115697
65	0xbd762cf2	-0.060101457
66	0x3d031758	0.032004684
67	0xbbbf52f3	-0.0058387457
68	0xbd66f8ac	-0.056389496
69	0xbd6987e9	-0.05701438
70	0x3d3ea644	0.046545282
71	0x3c6e27c0	0.014535844
72	0xbd5a592f	-0.05330771
73	0xbd47f81f	-0.04882061
74	0x3ccda8a4	0.025104828
75	0xbd901981	-0.070361145
76	0xbc2b18f2	-0.010442959
77	0x3da0858c	0.07837972
78	0x3cdc964e	0.02692714
79	0xbdfd014e	-0.123537645
80	0x3d32f1e3	0.043687712
81	0x3d45e5c2	0.048314817
82	0x3dd6f744	0.10496381
83	0xbb5b5859	-0.0033469407
84	0x3df81c3d	0.12114761
85	0xbd5a0e09	-0.05323604
86	0xbd2810df	-0.041031715
87	0xbe155f77	-0.14587198
88	0xbd81e139	-0.06341786
89	0xbda9e6c5	-0.08295969
90	0xbddeb847	-0.10874992
91	0xbda5b9d1	-0.08092082
92	0x3e073dda	0.13207188
93	0xbc995fc9	-0.018722432
94	0x3d267611	0.04063994
95	0x3cf00619	0.029299783
96	0xbc9f89f9	-0.01947497
97	0x3d0e9b97	0.03481635
98	0x3a9aa2be	0.0011797769
99	0x3e2479f3	0.16062145
100	0xbca2a4d7	-0.019853992
101	0xbdd76da1	-0.10518957
102	0xbc54eb12	-0.012995498
103	0x3dadf5dd	0.0849416
104	0x3dfaf516	0.12253778
105	0xbd7be035	-0.061493117
106	0x3d84ffca	0.064941004
107	0x3c2bad2d	0.0104783
108	0x3dfeaae1	0.12434936
109	0xbd4f5fea	-0.05062858
110	0xbd1c1e65	-0.038114924
111	0xbd04ad1a	-0.032391645
112	0xbcc24399	-0.023713874
113	0xbdd167af	-0.10224854
114	0xbbfd183d	-0.0077238367
115	0xbb8bbc32	-0.004264378
116	0xbce4a12d	-0.027908886
117	0x3d7436a4	0.05962242
118	0xbe15a286	-0.14612779
119	0x3d1145ca	0.035466947
120	0xbd8ebecf	-0.069699876
121	0xbdc01f58	-0.09380978
122	0xbbf3e255	-0.0074427524
123	0xbb66ee5a	-0.0035237283
124	0x3d5c33ba	0.053760268
125	0x3d7249ff	0.0591526
126	0xbcde66d2	-0.027148638
127	0x3bd04684	0.0063560624
128	0x3d5677fa	0.052360512
129	0x3df7f3d9	0.12107057
130	0x3b945a69	0.0045273793
131	0xbdb29072	-0.08718957
132	0xbd79e4a3	-0.06100906
133	0xbc4ba2d7	-0.012428961
134	0x3daea65f	0.085278265
135	0xbc3dd51e	-0.011586456
136	0x3e1a128b	0.15046136
137	0x3e19e8ec	0.15030259
138	0xbc0fbf87	-0.008773691
139	0xbd9eb715	-0.07749764
140	0x3be056ca	0.0068462836
141	0x3d11ffa7	0.0356442
142	0x3cfdb983	0.030972248
143	0x3e171145	0.14752682
144	0xbd4a8d3f	-0.04945111
145	0x3daea7a9	0.085280724
146	0xbb94f49d	-0.0045457617
147	0x3dcb0bf0	0.09914386
148	0xbd64e1cc	-0.0558794
149	0xbdb49436	-0.088173315
150	0x3df0b45f	0.11753153
151	0x3e27b3be	0.1637716
152	0xbe005a9d	-0.12534566
153	0xbcaab39c	-0.020837598
154	0x3cbaf4bc	0.022821777
155	0x3e0a7909	0.13522734
156	0x3ce5b818	0.028041884
157	0xbc3d3e80	-0.011550546
158	0x3dd0572d	0.101728775
159	0xbc528534	-0.012849141
160	0xbe17decb	-0.14831083
161	0x3b8340e0	0.0040055364
162	0x3cca1da3	0.024672335
163	0xbe233049	-0.15936388
164	0x3e36c4ed	0.17848559
165	0x396c3df0	0.00022529787
166	0x3da53a1b	0.08067723
167	0xbb297d14	-0.0025861906
168	0xbc2a06ea	-0.010377625
169	0x3d0771c6	0.033067487
170	0x3c54888f	0.012972011
171	0x3c95704e	0.018242028
172	0x3c921eab	0.01783689
173	0x3d8f58ae	0.06999336
174	0x3dcb609f	0.099305384
175	0x3e34576a	0.17611471
176	0xbc9cf4df	-0.019159732
177	0x3ce9523e	0.028481599
178	0xbdf43d66	-0.11925773
179	0xbcf1e3c8	-0.02952756
180	0x3d8eb99f	0.06968998
181	0x3d94a5f2	0.07258214
182	0x3e22b296	0.15888438
183	0xbdfb1168	-0.12259179
184	0xbb0bcd59	-0.0021332114
185	0x3e1c9479	0.15291013
186	0xbd918743	-0.07105877
187	0x3d524b50	0.051341355
188	0xbd3e6fe7	-0.046493437
189	0xbdec6121	-0.11541963
190	0xbe089764	-0.13339001
191	0xbdbe63b0	-0.09296358
192	0xbe02e074	-0.12780935
193	0x3e29b3fd	0.16572566
194	0xbd4164a0	-0.047215104
195	0xbe49c5ec	-0.19704407
196	0xbd8b354d	-0.06797276
197	0xbd602243	-0.054720175
198	0xbd9cfaa8	-0.076649964
199	0xbdcda6d3	-0.10041585
200	0xbd86a893	-0.06575122
201	0x3dc04e6b	0.09389957
202	0xbd61a963	-0.05509318
203	0xbd838537	-0.06421893
204	0xbbb4a7d4	-0.0055131707
205	0xbcb6bdda	-0.022307325
206	0xbde56c55	-0.11202303
207	0x3de58ea9	0.11208851
208	0x3ded33a7	0.115821175
209	0xbdfd9363	-0.123816274
210	0xbdfc044b	-0.12305506
211	0x3c14e212	0.0090871025
212	0x3d855026	0.06509428
213	0x3e14edc7	0.1454383
214	0x3e185e70	0.14879775
215	0x3a20383a	0.0006111894
216	0x3d835941	0.06413508
217	0xbd516206	-0.051118873
218	0xbd0ea57a	-0.03482578
219	0x3d9bb3ee	0.07602678
220	0xbd019228	-0.031633526
221	0xbd20fac8	-0.039301664
222	0xbddeb076	-0.10873501
223	0xbd9f167e	-0.07767962
224	0xbc3b3a08	-0.01142741
225	0x3d874087	0.066041045
226	0x3b8365c7	0.0040099355
227	0xbc2e2140	-0.010628045
228	0xbd67e1f8	-0.056611985
229	0xbd7f69d8	-0.0623568
230	0x3d8d03f2	0.06885518
231	0xbdf986bd	-0.121839024
232	0xbd88c46e	-0.06678091
233	0xbc9d7c7e	-0.019224402
234	0x3d77052f	0.060307678
235	0x3d5e2420	0.05423367
236	0xbd218487	-0.03943303
237	0xbcbe8e91	-0.02326134
238	0x3ce5159a	0.027964402
239	0x3d34c36a	0.044131674
240	0x3c5bec5a	0.01342305
241	0xbb37f760	-0.002807103
242	0x3d2cfc0e	0.042232566
243	0xbd2d1fe8	-0.042266756
244	0x3dadfe53	0.08495774
245	0x3c5f51d0	0.013630345
246	0x3dfc425b	0.12317344
247	0x3bd4c2e5	0.00649296
248	0x3dec8f4e	0.11550771
249	0xbbeb11b9	-0.0071737436
250	0x3cc05043	0.023475772
251	0x3d0e570a	0.034750976
252	0xbce22f1d	-0.027610356
253	0x3d2bf111	0.041977946
254	0xbe4420aa	-0.19153085
255	0x3dd85161	0.10562397

actor.pi_net.fcs.1.bias f4 [64]
0	0xbdcb1e77	-0.0991792
1	0x3d20ea1a	0.039285757
2	0x3d79813e	0.06091427
3	0x3d9cf81c	0.076645106
4	0x3d8e07f7	0.06935113
5	0xbda66a8b	-0.0812579
6	0xbd0a3da2	-0.033750184
7	0xbd644018	-0.055725187
8	0xbc64d61e	-0.013967065
9	0xbd31544d	-0.043293286
10	0x3db23f56	0.087034866
11	0xbd379638	-0.044820994
12	0x3d41fd97	0.047360983
13	0xbd243ac7	-0.040095117
14	0xbba0c5ff	-0.0049064155
15	0xbd01e8af	-0.031716045
16	0xbda13e88	-0.07873255
17	0x3d19578c	0.037437007
18	0x3c387bce	0.011259986
19	0xbc0a1da4	-0.008429918
20	0x3d603b6d	0.054744173
21	0x3d295325	0.04133906
22	0xbd2ba145	-0.041901845
23	0x3d656a13	0.056009363
24	0x3d2c4780	0.042060375
25	0x3d991c32	0.07476081
26	0xbd4572e0	-0.048205256
27	0x3ca77056	0.020439308
28	0x3d5e4c08	0.054271728
29	0xbd870c48	-0.06594139
30	0xbd65c2e9	-0.056094084
31	0xbd950ffe	-0.07278441
32	0xbdb6fdf8	-0.089351594
33	0xbdd2e890	-0.10298264
34	0xbc1e607c	-0.009666558
35	0x3d40a26c	0.047029898
36	0x3d864fab	0.06558164
37	0x3b95528c	0.0045569595
38	0xbbe07164	-0.0068494547
39	0xbda6efdf	-0.081512205
40	0x3cb9bfca	0.02267446
41	0x3e018630	0.12648845
42	0xbabaeb90	-0.0014260877
43	0x3d2dbaa4	0.042414322
44	0x3d85ffef	0.06542956
45	0xbd4b3141	-0.04960752
46	0xbdb46b4c	-0.08809528
47	0x3d6ebe7d	0.058287133
48	0xbde72237	-0.11285823
49	0xbd9df402	-0.077125564
50	0x3d1cf28e	0.038317256
51	0xbdaf6d94	-0.08565822
52	0x3de1ac42	0.11019184
53	0x3d27a584	0.040929332
54	0x3dc295b3	0.09501209
55	0xbdea81aa	-0.11450513
56	0xbd393488	-0.045216113
57	0x3da5c305	0.08093838
58	0x3df0fcd4	0.11766973
59	0xbcd6a818	-0.0262032
60	0xbb6c9f5e	-0.0036105732
61	0x3dc4e37e	0.09613703
62	0x3d49c086	0.04925587
63	0xbcb94599	-0.022616195

actor.pi_net.fcs.2.weight f4 [1, 64]
0	0x3e29a5d9	0.16567172
1	0x3dce0aef	0.10060679
2	0xbdbf7a7d	-0.09349535
3	0xbd8895bd	-0.06669185
4	0x3d9ecea9	0.07754261
5	0xbdf2c5fd	-0.118541695
6	0x3dac96d8	0.08427209
7	0xbe3c141b	-0.18367045
8	0x3e78da15	0.24301942
9	0x3de66547	0.11249786
10	0x3e039927	0.12851392
11	0xbd9fdbaf	-0.07805573
12	0x3dc0a56a	0.0940655
13	0xbe230ed3	-0.15923624
14	0x3dfcda4e	0.12346326
15	0x3e03b70b	0.12862794
16	0xbd2d7c48	-0.042354852
17	0x3e7248b9	0.23660554
18	0x3e516f7a	0.20452681
19	0xbe54c8b0	-0.20779681
20	0xbb12ba2c	-0.00223888
21	0xbe19fcac	-0.15037793
22	0x3e1c41e3	0.15259509
23	0x3e425ed8	0.18981493
24	0xbe21db29	-0.15806259
25	0x3e389746	0.18026456
26	0x3e00a084	0.12561232
27	0xbdfbc31e	-0.12293075
28	0xbe1ebc00	-0.15501404
29	0x3e2f8c2a	0.17143312
30	0xbe724827	-0.23660336
31	0xbe3922ef	-0.18079732
32	0xbe5534fc	-0.20820993
33	0x3dddf49c	0.10837671
34	0xbe0187d3	-0.12649469
35	0x3e3e20a5	0.1856714
36	0xbd58e1c2	-0.052949674
37	0x3e2b4c67	0.16728364
38	0x3d82e102	0.06390573
39	0x3d464936	0.048409663
40	0x3de90390	0.113776326
41	0x3d4aa557	0.049474087
42	0xbe292d87	-0.16521274
43	0x3e387040	0.1801157
44	0xbe06e46d	-0.13173075
45	0x3e669ac7	0.2251998
46	0x3d0f296d	0.034951616
47	0x3e1df995	0.15427239
48	0xbd0421f3	-0.03225894
49	0x3dcbfcb4	0.09960309
50	0x3e0f3ac3	0.1398726
51	0xbe516e62	-0.20452264
52	0x3e568577	0.2094935
53	0x3e34f601	0.17671968
54	0xbe1aa6c7	-0.15102683
55	0xbda37978	-0.07982153
56	0x3e265465	0.16243131
57	0x3e41f228	0.18940032
58	0x3dfeaabe	0.1243491
59	0xbe83cff6	-0.257446
60	0x3d963d70	0.07335937
61	0x3e440aaf	0.191447
62	0x3e78e42a	0.24305788
63	0x3e7dc73a	0.2478303

critic.v_net.fcs.0.weight f4 [64, 4]
0	0x3e979852	0.296084
1	0xbe99e2e0	-0.30055904
2	0xbfabcad0	-1.3421268
3	0xbec196c6	-0.37810344
4	0xbec932b4	-0.39296496
5	0xbe966aa2	-0.2937823
6	0xbf4434b3	-0.7664291
7	0xbf995d43	-1.1981586
8	0xbf34dfc4	-0.7065394
9	0xbe24fea4	-0.16112763
10	0xbf037b11	-0.5135966
11	0xbf874be2	-1.0570033
12	0x3eee1b5e	0.46505255
13	0x3ed98663	0.4248534
14	0xbf0e1646	-0.55502737
15	0xbf128479	-0.5723339
16	0xbdb5318a	-0.088473395
17	0xbf0c846e	-0.5488957
18	0x3f2b3513	0.6687786
19	0x3ea9f3c4	0.3319379
20	0xbec7ed8c	-0.3904842
21	0xbe789e18	-0.24279058
22	0xbfb7c37d	-1.4356533
23	0xbeafb3e1	-0.34316924
24	0x3f212fcb	0.6296355
25	0x3efcdc8b	0.4938701
26	0x3f1b0655	0.60556537
27	0x3f747aeb	0.9550006
28	0x3f04dad0	0.5189638
29	0x3e815173	0.25257453
30	0x3fe42a75	1.7825457
31	0x3f8442a7	1.0332841
32	0xbee1d430	-0.441072
33	0x3eb776e5	0.35832897
34	0x3fa53fde	1.2910116
35	0x3e7854be	0.24251077
36	0xbf5b912e	-0.857684
37	0x3ea52197	0.3225219
38	0x3f930046	1.1484458
39	0x3eaeea13	0.3416296
40	0x3e35dc8b	0.17759912
41	0xbf2fd571	-0.6868506
42	0xbf99a702	-1.2004092
43	0xbf0e091a	-0.5548264
44	0x3e0cf470	0.1376512
45	0x3f2d6f9a	0.67748415
46	0x3f3809e5	0.718901
47	0xbeb12c8a	-0.34604293
48	0xbf4e4d22	-0.80586445
49	0xbec3aedb	-0.38219342
50	0xbf52b5cf	-0.8230867
51	0xbf3606b0	-0.71103954
52	0xbf53eccb	-0.8278319
53	0xbe354e84	-0.17705733
54	0x3ecf77aa	0.40520984
55	0x3e2d5a01	0.16928865
56	0x3efb37e8	0.4906609
57	0xbea8bb79	-0.3295553
58	0x3ef18753	0.47173557
59	0x3f75de5e	0.9604243
60	0x3e8e5a48	0.27803254
61	0x3e7e36f6	0.24825653
62	0x3ed33e62	0.41258532
63	0x3f12387b	0.5711743
64	0xbe2374ed	-0.15962572
65	0xbeee99a3	-0.4660159
66	0xbf63caaf	-0.88981146
67	0xbf945946	-1.1589744
68	0x3ed34391	0.41262487
69	0x3f098240	0.5371437
70	0xbed3f805	-0.4140016
71	0xbf80ac44	-1.0052571
72	0xbf1b239e	-0.6060122
73	0xbee196d9	-0.440604
74	0xbfc283b7	-1.5196446
75	0xbf56281c	-0.8365495
76	0xbcaf20e8	-0.021377996
77	0x3ec28e81	0.37999347
78	0xbdcc0a73	-0.099629305
79	0xbf5a4185	-0.85256225
80	0x3cba72f0	0.022759885
81	0x3f27e478	0.6558299
82	0x3f54fb20	0.83195686
83	0xbd0c4117	-0.034241762
84	0x3f1c7199	0.61110836
85	0xbea5d2f5	-0.3238751
86	0xbf898ca6	-1.0746047
87	0xbe877ff0	-0.26464796
88	0x3e84d945	0.25947013
89	0x3df075bd	0.11741207
90	0xbf55495d	-0.8331507
91	0xbe99bb6d	-0.30025807
92	0x3e431e3f	0.19054507
93	0xbe514a3c	-0.20438474
94	0x3f732211	0.94973856
95	0x3eed4daa	0.46348315
96	0x3ec7b96f	0.39008662
97	0xbf168879	-0.5880199
98	0xbfe9eb89	-1.8275005
99	0xbf8233d1	-1.0172063
100	0xbe0cc2fa	-0.13746253
101	0x3d9eac79	0.0774774
102	0xbf39979d	-0.7249697
103	0xbf303ddc	-0.6884439
104	0xbe0ce4ee	-0.13759205
105	0xbf03a1a4	-0.5141852
106	0xbfb76497	-1.4327573
107	0xbf60a7a2	-0.8775579
108	0x3d67e572	0.0566153
109	0x3e803ccd	0.25046387
110	0xbf281b05	-0.6566623
111	0xbf99111b	-1.1958345
112	0xbf3ea6eb	-0.74473447
113	0xbf14c198	-0.581079
114	0xbf51e228	-0.8198571
115	0xbed9df78	-0.42553306
116	0x3e8116bc	0.25212657
117	0x3f00e4cf	0.50349134
118	0xbf89cfde	-1.0766561
119	0xbf86fe14	-1.0546288
120	0xbf853acc	-1.0408568
121	0xbe016b1e	-0.12638518
122	0x3f59eb15	0.8512433
123	0x3df7e308	0.1210385
124	0xbf0d3e59	-0.5517326
125	0xbe8929ff	-0.26789853
126	0xbf86ef55	-1.0541788
127	0xbe342a3e	-0.17594239
128	0xbf026afd	-0.509445
129	0xbf250328	-0.6445794
130	0xbf8b0625	-1.086125
131	0xbf1585f6	-0.58407533
132	0x3e36bbd3	0.17845087
133	0x3f14557b	0.5794293
134	0x3f8d4220	1.1035805
135	0x3f1cba07	0.61221355
136	0xbf1b8c10	-0.60760593
137	0x3ed94deb	0.4244226
138	0x3fd54921	1.6662942
139	0x3ee9614d	0.45582047
140	0xbf2f826e	-0.68558395
141	0xbdc85258	-0.09781331
142	0xbf6bbb21	-0.9208241
143	0xbf814993	-1.0100578
144	0xbf405aa3	-0.751383
145	0xbee773bd	-0.4520549
146	0xbf3920b2	-0.72315514
147	0xbdd84c33	-0.10561409
148	0xbebd672f	-0.36992785
149	0xbf07ff48	-0.53123903
150	0xbfc1b156	-1.5132244
151	0xbf997a6a	-1.1990483
152	0xbe8f4a01	-0.27986148
153	0xbe097c96	-0.13426432
154	0x3f80b266	1.0054443
155	0x3e812c34	0.25229037
156	0x3ec7238b	0.38894305
157	0xbe094046	-0.13403425
158	0xbf99e6f6	-1.2023609
159	0xbe0de289	-0.13855948
160	0x3d96361b	0.073345385
161	0xbf2d7c31	-0.67767626
162	0x3d434f82	0.047683246
163	0x3f723a73	0.94620436
164	0x3f33a60d	0.7017525
165	0x3d67dc8d	0.056606818
166	0x3f89601b	1.0732454
167	0x3f1b3948	0.6063428
168	0x3e49a1c2	0.19690612
169	0x3d9fcc86	0.078026816
170	0x3eefb9db	0.46821484
171	0x3f03dbac	0.5150707
172	0x3ed7aa84	0.4212228
173	0x3e321cad	0.17393751
174	0xbf5dd246	-0.86648977
175	0xbf74685c	-0.9547174
176	0x3e5e108e	0.21686003
177	0xbf4665d1	-0.7749911
178	0xbfcdba5b	-1.6072496
179	0xbfa97247	-1.3238
180	0xbe7a443e	-0.24440095
181	0xbd8fce0d	-0.07021723
182	0xbfceef99	-1.6166869
183	0xbfa6565e	-1.2995107
184	0xbeee56fe	-0.46550745
185	0xbf027509	-0.5095983
186	0xbfb78eb7	-1.4340428
187	0xbfa27690	-1.2692432
188	0xbc690a93	-0.0142237125
189	0x3f16b5dd	0.5887125
190	0x3fe67e7b	1.8007349
191	0x3fb12503	1.383942
192	0x3e7544e0	0.23952055
193	0x3ec1d4d5	0.3785769
194	0x3f53c201	0.827179
195	0x3f75449e	0.95807827
196	0x3ef4e29b	0.47829136
197	0x3ee48602	0.4463349
198	0xbf1435b9	-0.57894474
199	0xbf48528f	-0.78250974
200	0xbea26af5	-0.31722227
201	0xbeb8231a	-0.3596428
202	0xbfa15c66	-1.2606323
203	0xbef3768c	-0.47551382
204	0xbe3e71e6	-0.18598136
205	0x3f18409d	0.5947359
206	0x3fa62738	1.2980719
207	0x3e15b1a0	0.1461854
208	0xbedd4a0e	-0.43220562
209	0x3f51dbf1	0.8197623
210	0x3fc75228	1.5571947
211	0x3f5896f3	0.8460533
212	0xbf40c3be	-0.7529868
213	0xbf4370c9	-0.7634397
214	0xbf16074c	-0.58604884
215	0xbec60adf	-0.3868017
216	0x3ee69e1d	0.45042506
217	0xbebe2ee9	-0.37145165
218	0x3e84bd37	0.2592561
219	0x3fabb22b	1.3413748
220	0x3f12999a	0.5726563
221	0xbdbd2a21	-0.09236551
222	0x3fa63343	1.2984394
223	0x3f86e481	1.0538484
224	0x3d3d641c	0.04623805
225	0xbd768cfb	-0.060193043
226	0xbf6e631b	-0.9311997
227	0xbf70ab67	-0.9401154
228	0xbd8cbde1	-0.06872154
229	0xbe609dc5	-0.21935184
230	0x3f8ef900	1.1169739
231	0x3f03208c	0.5122154
232	0x3d0ac96e	0.033883505
233	0x3e5fa2ea	0.2183949
234	0x3f92e5f6	1.1476429
235	0x3fa2a807	1.2707528
236	0x3f175fae	0.5913037
237	0x3efa35f7	0.48869297
238	0xbf2a2ed8	-0.6647773
239	0xbee43bc2	-0.44576842
240	0x3e6c494d	0.23074837
241	0xbf0eb3ee	-0.557433
242	0x3f1a759b	0.603357
243	0x3f848d12	1.0355551
244	0xbf127e3c	-0.5722387
245	0x3caa4818	0.02078633
246	0xbef96c8b	-0.48715624
247	0xbf348fec	-0.7053211
248	0xbe840b11	-0.25789693
249	0xbf27410d	-0.65333635
250	0xbf3f19f8	-0.74649
251	0xbf239352	-0.6389667
252	0xbec288ab	-0.37994894
253	0xbef4ff21	-0.47850898
254	0xbf8f10da	-1.1177018
255	0xbf8bea27	-1.0930833

critic.v_net.fcs.0.bias f4 [64]
0	0xbedcf8a1	-0.4315844
1	0xbe900f73	-0.28136787
2	0xbed646dd	-0.4185094
3	0x3ea233d7	0.31680176
4	0xbea52f41	-0.32262614
5	0x3e4d7dee	0.2006757
6	0x3e95e110	0.29273272
7	0xbd87b33a	-0.06625982
8	0xbebd2bf4	-0.36947596
9	0xbefa4000	-0.48876953
10	0xbef34b25	-0.47518268
11	0xbedc3fdf	-0.4301748
12	0xbee036d1	-0.43791822
13	0xbe907b69	-0.28219154
14	0xbeec1c07	-0.46115133
15	0x3e9594de	0.2921514
16	0xbe2ec4ec	-0.17067307
17	0xbf160b19	-0.58610684
18	0x3e81c252	0.25343567
19	0x3ed18c03	0.40927133
20	0x3ec7339c	0.38906562
21	0x3e8b5247	0.2721121
22	0x3e66e559	0.22548427
23	0xbf035d4f	-0.5131425
24	0x3e7c630c	0.24647158
25	0xbe8db8ec	-0.27680147
26	0xbdee50a6	-0.11636476
27	0xbeca648c	-0.39529836
28	0xbee80756	-0.45318097
29	0x3f1a6238	0.6030612
30	0xbf19dc5e	-0.6010188
31	0x3e20cf43	0.15704064
32	0x3e614563	0.21999125
33	0xbe2aa3e9	-0.1666409
34	0xbe7913f5	-0.24324019
35	0xbeacc786	-0.33745974
36	0xbef06ad9	-0.46956518
37	0xbe89f224	-0.2694255
38	0xbe7d03cc	-0.2470848
39	0xbe215575	-0.15755256
40	0xbf1754dd	-0.59113866
41	0xbe8ccbe7	-0.27499315
42	0xbef0300b	-0.46911654
43	0x3e9d9727	0.30779383
44	0xbdaeb8fa	-0.08531375
45	0xbeac6a1d	-0.33674708
46	0xbe090b67	-0.13383256
47	0x3e151da0	0.14562082
48	0xbdb618d7	-0.088914566
49	0xbf0384eb	-0.5137469
50	0x3ef134ce	0.471106
51	0x3e797152	0.24359635
52	0x3ea7a021	0.32739356
53	0x3f022909	0.50843865
54	0x3f03258a	0.51229155
55	0x3ea3fa09	0.320267
56	0xbed17d5c	-0.40915954
57	0xbe967fa7	-0.29394266
58	0x3e4c0e15	0.19927247
59	0x3f21a26a	0.6313845
60	0xbf116317	-0.56791824
61	0xbeb54aba	-0.35408574
62	0x3ebc74b7	0.36807796
63	0xbe8644a5	-0.26224247

critic.v_net.fcs.1.weight f4 [64, 64]
0	0xbd93bdc6	-0.07213931
1	0xbee1c674	-0.4409672
2	0xbeec7d34	-0.46189272
3	0xbe3d37ed	-0.18478365
4	0x3e2a12c2	0.16608718
5	0xbe85ced4	-0.2613436
6	0x3ee09312	0.43862206
7	0x3f054219	0.5205398
8	0x3c27f079	0.010250204
9	0xbdbb481b	-0.091446124
10	0xbe942282	-0.28932577
11	0xbe0939f4	-0.13401014
12	0xbed62944	-0.41828358
13	0x3d1b0a82	0.037851818
14	0x3e24bf4a	0.16088596
15	0x3e1e68d6	0.15469679
16	0xbf2d950c	-0.6780555
17	0xbecb3efc	-0.3969649
18	0xbea64b6e	-0.32479423
19	0xbe1de17d	-0.15418048
20	0x3d351331	0.044207755
21	0x3c5fa69b	0.013650562
22	0xbe602ed4	-0.21892864
23	0xbc4a990c	-0.012365591
24	0xbeb5eb0e	-0.35530895
25	0xbe982aba	-0.29720098
26	0xbf2e2063	-0.6801817
27	0xbf051bf7	-0.51995796
28	0xbe7ee9e8	-0.24893916
29	0xbddb049c	-0.106942385
30	0xbdd9c450	-0.10633147
31	0xbe5bf155	-0.2147878
32	0xbe82a022	-0.25512797
33	0x3e90eb5f	0.28304574
34	0x3cc0fa2e	0.023556795
35	0xbf09c891	-0.53821665
36	0xbe7b6a9d	-0.24552388
37	0xbef56b9f	-0.4793367
38	0x3e423c8c	0.1896841
39	0xbdf65e58	-0.120297134
40	0x3e235f7f	0.15954398
41	0x3e91f6be	0.28508562
42	0x3e329f74	0.17443639
43	0xbedc6b1a	-0.43050462
44	0xbf1b1d54	-0.60591626
45	0xbf452dc6	-0.7702297
46	0xbf3f0c68	-0.74628305
47	0x3f2d4445	0.67682296
48	0x3efdaf62	0.4954787
49	0xbebbea8e	-0.3670239
50	0x3ce766e8	0.028247312
51	0x3e479dc2	0.19493774
52	0x3f22a2da	0.6352974
53	0x3e2bd72f	0.16781305
54	0x3f1743c2	0.59087765
55	0x3f351b4f	0.70744795
56	0xbebfe8bf	-0.3748226
57	0x3e076fc8	0.13226235
58	0x3f6d5bb1	0.92718035
59	0x3c9032e8	0.017602399
60	0x3c92cc04	0.017919548
61	0xbe9e8220	-0.30958652
62	0xbe0908c5	-0.13382252
63	0xbf062cc5	-0.5241206
64	0xbed72a51	-0.42024472
65	0x3c878f3e	0.016547795
66	0x3b496955	0.0030732949
67	0xbe4b4b82	-0.19853023
68	0xbd91a094	-0.07110706
69	0x3e45e4d6	0.19325575
70	0xbe1a4b9c	-0.15067905
71	0xbe4df543	-0.20113091
72	0x3d325613	0.043539118
73	0x3db730d4	0.0894486
74	0xbee48596	-0.44633168
75	0xbedb1f85	-0.42797485
76	0xbdab4dc2	-0.083644405
77	0x3e9af304	0.3026353
78	0xbe42bfee	-0.19018528
79	0xbd46486e	-0.048408918
80	0xbe33c9ef	-0.175575
81	0xbee5ec81	-0.44907
82	0x3ef93aa2	0.48677546
83	0x3d10ad31	0.03532142
84	0x3e88f481	0.26749042
85	0xbdcbb9b4	-0.099475294
86	0xbe28f91b	-0.16501276
87	0xbe21485e	-0.15750262
88	0xbe81ada5	-0.25327793
89	0xbdd09178	-0.10183996
90	0xbebd364e	-0.36955494
91	0xbef098dd	-0.46991625
92	0xbbe11bbe	-0.006869762
93	0xbd5d88cd	-0.05408554
94	0x3dc6e94b	0.09712466
95	0x3f01e15d	0.507345
96	0x3ec2cc51	0.38046506
97	0xbe2f5d91	-0.17125537
98	0x3e9aa365	0.30202785
99	0x3e1d0554	0.15334064
100	0x3dfb26ba	0.12263246
101	0xbdcf9d2e	-0.101374015
102	0x3dff0f24	0.1245406
103	0xbf4b9c2e	-0.79535186
104	0xbe9c4cac	-0.30527246
105	0xbf13d4dc	-0.5774667
106	0xbca00637	-0.019534213
107	0xbe3eceb3	-0.18633537
108	0xbf133d22	-0.57515156
109	0xbeada6cf	-0.33916327
110	0xbdf678f7	-0.12034791
111	0x3ed5ce59	0.41758993
112	0xbd951775	-0.07279865
113	0xbf235961	-0.63808256
114	0x3d9d14e4	0.0767
115	0x3eee72f3	0.46572074
116	0x3f1904eb	0.5977313
117	0x3f0fba3d	0.5614355
118	0x3e6ea572	0.233053
119	0x3e318722	0.17336705
120	0xbecd6713	-0.40117702
121	0x3e0af097	0.1356834
122	0x3f051698	0.519876
123	0xbd8ff94d	-0.07029972
124	0xbdd15367	-0.10220986
125	0x3d804a16	0.06264131
126	0x3e9b78fe	0.30365747
127	0xbe2c03f1	-0.16798379
128	0x3eb71668	0.35759282
129	0x3f16dc6e	0.589301
130	0x3eb800fc	0.3593825
131	0x3e17f558	0.14839685
132	0xbdcc703c	-0.099823445
133	0x3e31c6ab	0.17360942
134	0xbf1645b7	-0.58700126
135	0xbf14ab93	-0.580743
136	0xbc90ee1b	-0.017691663
137	0xbce47a64	-0.027890392
138	0x3ed23d29	0.41062286
139	0x3de45515	0.111490406
140	0x3ef43edd	0.4770421
141	0xbdb23ec3	-0.08703377
142	0xbe53f126	-0.2069746
143	0xbe3574e6	-0.17720374
144	0x3f4532a4	0.77030396
145	0x3eceb2ef	0.4037089
146	0x3ec13428	0.37735105
147	0x3e5e6b30	0.21720576
148	0xbe45588d	-0.1927206
149	0x3d9f5da5	0.07781533
150	0x3daff4c0	0.08591604
151	0xbe5d7ab9	-0.21628846
152	0x3ef8d74c	0.48601758
153	0x3e9e0560	0.30863476
154	0x3f7ffd70	0.9999609
155	0x3f1a6b6b	0.60320157
156	0x3eb7b272	0.3587833
157	0x3e025581	0.1272793
158	0xbce9f30f	-0.028558282
159	0x3e8ba919	0.2727745
160	0x3e4d0386	0.20020875
161	0xbeffe918	-0.49982524
162	0xbed1b676	-0.4095952
163	0x3ef224d7	0.47293732
164	0x3e5e7462	0.21724084
165	0x3f44343a	0.7664219
166	0xbea2fec8	-0.31835008
167	0x3e09b349	0.13447298
168	0xbe131369	-0.14362873
169	0xbe1afcf7	-0.15135561
170	0xbdff7f90	-0.124755025
171	0x3ea8d6d2	0.32976395
172	0x3f277039	0.65405613
173	0x3f31b0af	0.6941022
174	0x3f53a13b	0.82667893
175	0xbf7d968c	-0.9905784
176	0xbf0195e8	-0.50619364
177	0x3ed60d4e	0.41807026
178	0x3e548d09	0.20756926
179	0xbf1250a8	-0.5715432
180	0xbf87fa2a	-1.0623219
181	0x3d8bf963	0.06834676
182	0xbee7856a	-0.45218974
183	0xbf3a870d	-0.7286232
184	0x3eea1fd1	0.457274
185	0xbe8c3da2	-0.27390772
186	0xbf55a5e3	-0.8345625
187	0xbc10782c	-0.008817714
188	0xbce472b6	-0.02788673
189	0x3e5699e0	0.20957136
190	0x3e8685d0	0.26273966
191	0x3f1d7677	0.6150889
192	0xbe029885	-0.12753494
193	0xbe728159	-0.23682155
194	0xbe30bdc5	-0.17259891
195	0xbec1f75b	-0.3788403
196	0x3ec08c2a	0.37606937
197	0xbf126b68	-0.5719514
198	0x3e5c0ba2	0.21488813
199	0x3f7f7fe9	0.9980455
200	0x3ea915b7	0.3302438
201	0x3eba64bd	0.36404982
202	0xbcc3f1c6	-0.023918997
203	0x3bc784e1	0.0060888384
204	0xbdddfc5a	-0.10839148
205	0x3e7f70be	0.24945351
206	0x3f045d09	0.5170446
207	0x3cb17935	0.021664241
208	0xbe501c68	-0.20323336
209	0x3d99a03f	0.07501268
210	0xbf24a136	-0.6430849
211	0xbec0aa40	-0.3762989
212	0xbd6cb7a4	-0.05779232
213	0xbee19e48	-0.44066072
214	0xbe8e577b	-0.27801117
215	0x3e76f59b	0.24117129
216	0xbf145539	-0.5794254
217	0xbdda2fae	-0.106536254
218	0xbeba4fd9	-0.36389044
219	0xbe862d71	-0.26206544
220	0x3cc6336e	0.024194445
221	0xbf1b948e	-0.6077355
222	0x3e73ba9f	0.23801659
223	0xbefc0b83	-0.49227533
224	0xbf2a7302	-0.6658174
225	0x3f29fbf9	0.66400105
226	0x3f208052	0.626958
227	0xbe402af3	-0.18766384
228	0xbd8d456e	-0.06898008
229	0xbe5e016e	-0.21680233
230	0x3ea44df2	0.32090718
231	0xbe6a9f99	-0.22912444
232	0x3f07ccca	0.5304686
233	0x3f09cc6b	0.5382754
234	0x3e026112	0.12732342
235	0xbf2b5c73	-0.6693794
236	0xbeeccf6c	-0.46252
237	0xbe5cff1f	-0.21581696
238	0xbf0cb55e	-0.54964244
239	0x3f1406e7	0.5782303
240	0x3f1f0c9f	0.62128633
241	0xbdf286a5	-0.11842088
242	0xbe8f37b7	-0.27972195
243	0x3de3d8fa	0.11125369
244	0x3e33a0a1	0.17541744
245	0xbea67dd8	-0.32517886
246	0x3e453366	0.19257888
247	0x3ea0ca3a	0.31404287
248	0xbde423c3	-0.111396335
249	0x3f08d8f2	0.5345603
250	0x3eee60ca	0.4655822
251	0xbe946eba	-0.28990728
252	0x3f196c3a	0.59930766
253	0xbe0bce8c	-0.1365301
254	0xbed62657	-0.41826126
255	0xbe902739	-0.28154925

critic.v_net.fcs.1.bias f4 [64]
0	0x3e0807c3	0.13284211
1	0xbd0c8262	-0.03430403
2	0xbdcd51fc	-0.10025403
3	0xbde66edd	-0.11251614
4	0xbd2bba85	-0.041925926
5	0x3e1e1afd	0.15439983
6	0xbe796a41	-0.24356939
7	0x3c4411c7	0.011967129
8	0x3df5d0d8	0.120027244
9	0x3c60fa54	0.013731558
10	0x3e36a741	0.1783724
11	0xbd973a58	-0.07384175
12	0x3e0d3645	0.13790233
13	0x3d7ec346	0.062197946
14	0xbe479eef	-0.19494222
15	0x3d187d08	0.037228614
16	0xbd7fa3be	-0.062412016
17	0xbd0344e0	-0.032048106
18	0xbdf91bec	-0.12163529
19	0x3d82b96a	0.06383021
20	0x3d9afdc0	0.0756793
21	0xbc83faa7	-0.016110731
22	0xbe354c11	-0.17704798
23	0x3d1d7508	0.038441688
24	0xbd2cd9ef	-0.042200025
25	0xbc25fdc8	-0.010131307
26	0xbd9483d6	-0.07251708
27	0x3d788a52	0.060678788
28	0xbd58a5aa	-0.052892365
29	0xbdb280d9	-0.08715982
30	0x3d9ac68b	0.075574
31	0x3ddea440	0.10871172
32	0x3dfc434d	0.12317524
33	0xbc5a2fbb	-0.013317044
34	0x3de963d3	0.11395993
35	0xbd1e037a	-0.038577534
36	0x3e245df4	0.16051465
37	0xbd4e2510	-0.050328314
38	0x3e358f60	0.17730474
39	0x3de53ff1	0.111938365
40	0xbd9d4b5e	-0.07680391
41	0xbdc7ceb7	-0.097562246
42	0x3e2324aa	0.15931955
43	0xbd0a08ef	-0.033699926
44	0x3dbf7d30	0.093500495
45	0x3d923ae6	0.0714014
46	0xbd7b3054	-0.061325386
47	0xbce097a9	-0.027416067
48	0xbdde4e86	-0.10854821
49	0xbceb4795	-0.028720656
50	0x3cd1507b	0.025551071
51	0x3dac4c8c	0.08413038
52	0x3b4a93e7	0.003091091
53	0xbd718b0d	-0.0589705
54	0x3b7e08eb	0.003876264
55	0xbd05c3ec	-0.03265755
56	0x3d5cac84	0.05387546
57	0x3dc5329c	0.096287936
58	0xbe19d3ed	-0.1502225
59	0xbd4852dc	-0.048907146
60	0xbe0a63f9	-0.13514699
61	0x3d13aa1b	0.036050897
62	0x3e40c866	0.18826446
63	0x3e0fb3d1	0.14033438

critic.v_net.fcs.2.weight f4 [1, 64]
0	0x3f8f486d	1.1193978
1	0x3fa05997	1.2527341
2	0xbf8b63a2	-1.088978
3	0xbf9a8869	-1.2072879
4	0x3f964471	1.1739637
5	0x3fa64439	1.298957
6	0xbf964a94	-1.174151
7	0xbf9f4cb3	-1.2445282
8	0x3f9f5812	1.2448752
9	0x3fa68d8b	1.3011945
10	0x3f930bfe	1.1488035
11	0x3f937163	1.1518978
12	0x3f983ade	1.1892965
13	0x3f937e13	1.152285
14	0xbfadd11f	-1.3579444
15	0xbf8febe7	-1.1243867
16	0xbf9aa54d	-1.2081696
17	0x3f9dd029	1.232915
18	0xbf8cb6a8	-1.0993242
19	0x3faa2281	1.329178
20	0xbfa3ab61	-1.2786676
21	0xbf9d5e77	-1.2294453
22	0xbfa3b9b0	-1.2791042
23	0xbfa85948	-1.3152246
24	0x3f93b311	1.1539022
25	0xbf96fec2	-1.1796496
26	0xbf9a8933	-1.207312
27	0x3f98d560	1.1940117
28	0x3f903d82	1.1268771
29	0xbfa008d4	-1.2502694
30	0x3f9a6c51	1.2064306
31	0x3f9ed10f	1.240755
32	0x3f99c5db	1.2013506
33	0xbfa926ae	-1.3214929
34	0xbf950b62	-1.1644099
35	0xbfa1abb3	-1.2630523
36	0x3f91c212	1.138735
37	0xbfa00d1d	-1.2504002
38	0x3fa66bc0	1.3001633
39	0x3fa0a984	1.2551732
40	0x3fa05da2	1.2528574
41	0xbf964983	-1.1741184
42	0x3f9a30a1	1.204609
43	0xbfaf83a2	-1.3712046
44	0x3f9cc564	1.2247739
45	0x3f91f296	1.1402156
46	0xbf9ff47b	-1.2496485
47	0x3f9f85c3	1.2462696
48	0xbf9bdafc	-1.2176204
49	0xbf8feb40	-1.1243668
50	0x3f938f31	1.1528074
51	0x3f8d2920	1.1028175
52	0xbfa5a003	-1.2939457
53	0x3f9f5ef7	1.2450856
54	0xbfafc6f2	-1.3732588
55	0x3fa11f28	1.2587633
56	0x3f92e4a9	1.1476032
57	0xbf9baff3	-1.216307
58	0xbf98c9df	-1.1936606
59	0x3fa834a1	1.3141061
60	0xbfacb1f5	-1.3491808
61	0x3fb4afe9	1.4116184
62	0x3f9c1a6f	1.2195567
63	0x3f989989	1.1921855

exp_avg f4 [64, 4]
0	0xb83d87ba	-4.5187517e-05
1	0x3aba8f68	0.0014233412
2	0xbad9e382	-0.0016623589
3	0xba2543c2	-0.0006304347
4	0x35ea1693	1.7440929e-06
5	0xbb2eebcd	-0.0026690841
6	0x3af31b35	0.0018547537
7	0x3a856958	0.001017849
8	0xb85e6bdc	-5.3029376e-05
9	0xbaf5771b	-0.0018727513
10	0x3a67d5ab	0.00088437897
11	0x3a31c56a	0.0006781431
12	0xb9ae8717	-0.00033288516
13	0x3b800ca1	0.0039077555
14	0xbb16216e	-0.002290811
15	0xbac33bdd	-0.001489516
16	0xb8f6fc3a	-0.00011777175
17	0x3aaabb99	0.0013025879
18	0xba560021	-0.00081634714
19	0xba06fb83	-0.00051491725
20	0x398900e6	0.00026131346
21	0x3abc5981	0.0014369936
22	0xba9747c5	-0.0011541775
23	0xba0fc405	-0.0005484226
24	0xb8e9f22e	-0.00011155415
25	0xba0846a5	-0.0005198515
26	0x39b35170	0.00034202216
27	0x39442264	0.00018704828
28	0x390aa0ae	0.00013220563
29	0xba47141b	-0.00075942435
30	0x39e5e1de	0.00043846568
31	0x399e3151	0.00030172852
32	0x3a8791be	0.0010343117
33	0xbb5c6040	-0.0033626705
34	0x3ad512ef	0.0016256253
35	0x3aa98501	0.0012933315
36	0x38ef25ba	0.00011403435
37	0xbae4995c	-0.0017440724
38	0x3ab13105	0.0013518637
39	0x3a3749e3	0.0006991906
40	0x38c2b65f	9.28461e-05
41	0xba8ca4ae	-0.0010730231
42	0x3a04a879	0.0005060505
43	0x39c7f094	0.00038135482
44	0xb8397ea2	-4.4225373e-05
45	0x39f0dfae	0.00045943022
46	0xb98cd746	-0.00026863272
47	0xb92fafff	-0.00016754864
48	0xb8f553e2	-0.00011698135
49	0xba1e3bb8	-0.00060361205
50	0x39ec3704	0.00045054418
51	0x3966df70	0.00022017746
52	0xb8953667	-7.115007e-05
53	0x3a706690	0.00091705564
54	0xba0c3787	-0.00053488504
55	0xb9a9ba3b	-0.00032372944
56	0xba19c9c2	-0.0005866551
57	0x3b594bc4	0.0033156732
58	0xbb01f271	-0.0019828344
59	0xbaa86131	-0.0012846348
60	0x39d62224	0.00040842697
61	0xbac08f57	-0.0014691156
62	0x3a48b4d4	0.000765634
63	0x3a151b5d	0.00056879764
64	0x3731764f	1.0577568e-05
65	0x388c67ff	6.695091e-05
66	0xb7a48406	-1.9611802e-05
67	0xb7238458	-9.746371e-06
68	0xb9247342	-0.00015683196
69	0x3a18195b	0.0005802118
70	0xb9b78a51	-0.00035007534
71	0xb97d85b1	-0.00024177764
72	0x38e8dd96	0.00011103896
73	0x3afa8ae8	0.0019114884
74	0xba87a0c4	-0.0010347595
75	0xba346af2	-0.0006882391
76	0x3910f42d	0.00013823873
77	0xbb77f2c7	-0.0037833916
78	0x3b11b053	0.0022230342
79	0x3ab9ddd8	0.0014180494
80	0xb70b25c1	-8.293836e-06
81	0x3a45d47d	0.0007546617
82	0xb9e41632	-0.00043504086
83	0xb98b3195	-0.00026549087
84	0x395b7da9	0.0002093228
85	0xba903758	-0.0011002822
86	0x3a011e17	0.0004925443
87	0x39e1bc91	0.00043055837
88	0x39869c39	0.00025674867
89	0xbb37c85d	-0.002804301
90	0x3aa6fbed	0.0012739875
91	0x3a87f989	0.001037405
92	0xb9cce0a2	-0.00039077277
93	0xbb63868a	-0.0034717643
94	0x3b3401ab	0.0027466814
95	0x3ab73cb1	0.001397988
96	0xb9adaeff	-0.00033127514
97	0x3b0fc035	0.0021934633
98	0xbaa0e606	-0.0012275584
99	0xba5b130b	-0.00083570246
100	0x376a4d4c	1.3965484e-05
101	0xbb67a9e5	-0.0035349068
102	0x3afb9295	0.0019193465
103	0x3aab8ca1	0.0013088175
104	0x35331506	6.671329e-07
105	0xba1f9b36	-0.0006088497
106	0x39eae9eb	0.0004480624
107	0x397f46f9	0.00024345134
108	0x3906ec8c	0.00012867356
109	0xbbde43a8	-0.0067829676
110	0x3b80dbc5	0.0039324486
111	0x3b2625fe	0.0025352235
112	0xb6a1eb30	-4.8255533e-06
113	0x39df07a5	0.0004253957
114	0xb986c233	-0.0002570316
115	0xb932c86f	-0.0001705007
116	0xba37009b	-0.0006980986
117	0x3b7b99ec	0.0038391305
118	0xbb167142	-0.002295569
119	0xbabde351	-0.0014487301
120	0x36a74e5d	4.9861105e-06
121	0x389343d5	7.022141e-05
122	0xb85a57c0	-5.2056974e-05
123	0xb811bde6	-3.474755e-05
124	0x39410d09	0.0001841077
125	0x3a63975c	0.0008681917
126	0xba5352c1	-0.00080613425
127	0xb9c18c90	-0.00036916556
128	0x396b4a9d	0.00022439142
129	0x3b27e23e	0.0025617029
130	0xbadc4475	-0.001680507
131	0xba7dd9d6	-0.0009683644
132	0xb732ba67	-1.0653027e-05
133	0xb8f8a81d	-0.00011856875
134	0x389b8798	7.416232e-05
135	0x3871f07d	5.768285e-05
136	0x3a158fc0	0.00057053193
137	0xbb81fbea	-0.003966798
138	0x3b2d1b3d	0.002641394
139	0x3ac8c443	0.001531728
140	0xb983b7ed	-0.00025123302
141	0x3b5ee155	0.003400882
142	0xbafacac5	-0.0019133916
143	0xbaa697d4	-0.0012710043
144	0x38462b5c	4.724726e-05
145	0xbb2f3a5d	-0.0026737668
146	0x3af17053	0.0018420316
147	0x3a8864d8	0.001040603
148	0xb944fff8	-0.00018787372
149	0xbace415d	-0.0015736033
150	0x3a941ce4	0.0011300114
151	0x3a22d2c6	0.0006211217
152	0x39a0065a	0.0003052231
153	0xba55e853	-0.0008159924
154	0x39ae1256	0.00033201528
155	0x39a7664d	0.00031928942
156	0xba43851c	-0.00074584945
157	0x3b2bd4b3	0.0026219308
158	0xbb0b16a1	-0.0021223205
159	0xba8aabdd	-0.0010579784
160	0xb9dd030b	-0.00042154672
161	0x3b07ec8e	0.0020740363
162	0xbaa1f31a	-0.0012355775
163	0xba52b51a	-0.00080378505
164	0xb93b3058	-0.00017851719
165	0x3b366422	0.002783068
166	0xbacf97c2	-0.0015838074
167	0xba8850d1	-0.0010400062
168	0xb874176c	-5.8195947e-05
169	0x3a6bbb9c	0.00089924945
170	0xb9e1c770	-0.00043063937
171	0xb9baa555	-0.00035599867
172	0xb9a52ce6	-0.00031504704
173	0x3aba45ad	0.0014211439
174	0xba2d5db3	-0.00066133885
175	0xba06d40e	-0.0005143293
176	0xb8d6b035	-0.00010237136
177	0x3aa698ea	0.0012710367
178	0xba23b318	-0.00062446436
179	0xb9f1d46e	-0.00046125375
180	0xb855963c	-5.0923074e-05
181	0xb95ccedf	-0.000210579
182	0x389ea0dd	7.56399e-05
183	0x387d9593	6.0459202e-05
184	0x39ce8f62	0.0003939821
185	0xbb49f911	-0.003081862
186	0x3ad0078b	0.0015871389
187	0x3a9d2a2e	0.001199072
188	0x39829679	0.00024907643
189	0xbba50473	-0.005035931
190	0x3b3ecd2d	0.0029113994
191	0x3af64a79	0.0018790505
192	0xb9a6563e	-0.00031726243
193	0x3a686380	0.00088649243
194	0xba1f400d	-0.0006074913
195	0xb9b9ce63	-0.0003543972
196	0x3851cf46	5.002252e-05
197	0x3a82f527	0.0009991274
198	0xb9f680a4	-0.0004701662
199	0xb9b7ffe5	-0.00035095136
200	0x38b18b51	8.4659674e-05
201	0xba825099	-0.0009942233
202	0x39f389f5	0.00046451358
203	0x39bd18ec	0.00036067457
204	0xba618211	-0.000860245
205	0x3afe5083	0.0019402656
206	0xba52bd40	-0.00080390647
207	0xba43c400	-0.0007467866
208	0xb905f6b7	-0.00012775777
209	0xba391338	-0.0007060054
210	0x39ec4e79	0.00045071894
211	0x3988332e	0.00025978073
212	0xb8979963	-7.2288116e-05
213	0xbb2600af	-0.0025329997
214	0x3ab18991	0.0013545026
215	0x3a74d76b	0.0009339961
216	0xba19f0b8	-0.00058723567
217	0xba93a6be	-0.0011264903
218	0x3a874982	0.001032159
219	0x39ecc804	0.0004516245
220	0xb91f57ea	-0.00015196172
221	0x3b6c8d9a	0.0036095143
222	0xbb0e6231	-0.0021726007
223	0xbab44c02	-0.0013755562
224	0xb903283b	-0.0001250812
225	0xba34422b	-0.0006876315
226	0x39f8edeb	0.0004747951
227	0x3983be42	0.0002512802
228	0xb90f3482	-0.00013657103
229	0xbb248696	-0.0025104634
230	0x3ad7d657	0.0016467076
231	0x3a7bd1dc	0.00096061616
232	0x3985d561	0.00025526716
233	0x3b885c32	0.004161381
234	0xbb1161e3	-0.002218359
235	0xbaca82df	-0.001545038
236	0x380e0c45	3.3866865e-05
237	0xbbde400e	-0.0067825383
238	0x3b865951	0.004100003
239	0x3b292f97	0.002581572
240	0x3a22279f	0.00061857136
241	0xbb8d106d	-0.0043049366
242	0x3b124e0e	0.0022324356
243	0x3ad1f034	0.0016017021
244	0xb9412fcf	-0.00018423724
245	0x3b7c596b	0.0038505446
246	0xbb138ffc	-0.0022516241
247	0xbabd2d32	-0.0014433025
248	0x3a9fe5f9	0.0012199274
249	0x3b7ea0cc	0.0038853167
250	0xbb4a02b3	-0.0030824363
251	0xbac90024	-0.0015335125
252	0xb70c866e	-8.37595e-06
253	0x39921737	0.00027864586
254	0xb94cffad	-0.00019550203
255	0xb8f03e03	-0.000114556424
