training_results/cartpole_null/rarl/seed_42/1000000steps/checkpoints/model_800000.pt (torch, 277065 bytes, 66 tensors)

actor.pi_net.fcs.0.weight f4 [64, 4]
-0.27702555 0.5513336 0.58859855 0.56739265 -0.48806432 -0.040010102 -0.081248924 -0.55888724
0.24295443 -0.44471887 -0.77042174 -0.46903524 -0.06585086 -0.19042979 0.674861 0.17486428
0.2351679 0.26066616 0.40941498 0.5366731 -0.3044007 -0.32647687 0.27170992 0.61899716
0.1271665 0.23855804 -0.40529034 -0.28650445 -0.23643935 0.19863781 -0.35677722 0.09064771
0.33180317 0.20616937 -0.58409804 -0.6331275 0.25838315 -0.24441868 -0.6233194 0.017025275
-0.030328492 -0.46494737 -0.0919183 -0.478756 -0.40806484 -0.2978042 0.21269117 0.19083214
-0.38205963 0.10124678 -0.4873969 -0.2292185 0.14208229 0.2098971 -0.11896275 0.49839464
-0.12753935 0.1517749 0.5558377 0.5788878 0.29550704 0.15830028 -0.49929953 -0.3349738
0.31276268 -0.14577855 -0.28761485 0.3266183 -0.26101434 0.04771563 -0.24231318 0.33404848
-0.30196422 0.242022 0.6241627 0.6342419 -0.037765954 0.022716165 -0.5892685 -0.17211273
-0.4622573 0.15808837 0.27124062 0.5022576 -0.1310886 0.23254712 -0.19997954 -0.4496932
-0.41456476 -0.44655037 -0.7477327 -0.113303535 0.36371455 -0.47900367 -0.6835149 -0.10481077
-0.3738039 -0.10203158 0.0051627206 0.51511216 -0.42383933 -0.24272972 -0.8517017 -0.38749054
-0.48981994 -0.51378036 -0.06839988 -0.12565096 -0.23945284 -0.24304251 -0.65812725 -0.619439
0.48474532 -0.21041036 0.3918465 -0.08074398 -0.46772385 0.09198768 0.3699768 0.599906
0.15090185 0.060052298 -0.50367844 0.23405328 0.13870774 0.61197996 0.090788215 0.5307988
-0.13761236 -0.16258374 0.72918093 0.32598165 -0.41362348 0.4338023 0.26174536 -0.1469566
0.37036118 -0.13365307 -0.57774484 -0.1999951 0.4127391 0.22047707 0.49834448 0.14086093
-0.29483512 -0.40679127 -0.60985005 -0.37187487 -0.4681341 -0.57838464 -0.0883826 -0.49786285
0.19851592 0.30755323 -0.14061828 -0.29643887 -0.36354417 0.3029279 0.930288 0.5184593
-0.0046133082 0.09700053 0.67880446 0.3791654 0.50569856 0.17796208 0.5854004 0.056119617
0.43649617 -0.40129864 0.19610438 0.3499834 0.37689796 0.56474364 -0.13428348 0.41513884
0.20514748 0.48372003 0.077617586 0.311167 -0.1896345 -0.38692036 0.24890395 -0.2674659
0.1707339 0.33498016 -0.13026235 -0.6319653 0.1958099 -0.21683966 -0.8115392 -0.53232706
-0.23579872 -0.032241035 0.6579842 -0.040752713 -0.4624987 0.43561202 -0.024475425 0.43805966
-0.43144143 -0.22450134 -0.52029884 -0.08712569 -0.28829163 -0.29477197 0.814426 0.6299597
-0.13455263 0.1564469 -0.69990385 0.05030737 -0.07764956 -0.1612046 -0.8329933 -0.28280902
-0.353045 0.40495357 -0.6718741 -0.27926397 0.17473528 0.32303637 0.20326462 0.25095415
0.28185174 0.2554643 -0.6750659 -0.33140978 -0.47608894 0.08317812 -0.33310738 -0.23947404
-0.22869119 0.49489883 0.9934811 0.58785206 -0.031582765 -0.36234713 -0.72745657 -0.28681567
-0.50307333 -0.45494124 -0.45763505 -0.33202246 0.31985995 0.14223588 0.37825993 0.26972032
0.33211342 -0.2072881 0.7915681 0.7128807 0.51667136 0.34510154 -0.33009142 0.050623417
00000000: 4bd6 8dbe 3324 0d3f 65ae 163f a540 113f
00000010: 91e3 f9be a2e1 23bd d665 a6bd 3c13 0fbf
00000020: 0cc9 783e 31b2 e3be 5c3a 45bf 6325 f0be
00000030: d1dc 86bd 0700 43be b1c3 2c3f 9f0f 333e
00000040: dbcf 703e 0976 853e d79e d13e 6963 093f
00000050: 69da 9bbe fa27 a7be 901d 8b3e 9976 1e3f
00000060: ef37 023e 8f48 743e 3782 cfbe b6b0 92be
00000070: 281d 72be b667 4b3e 81ab b6be 82a5 b93d
00000080: 1be2 a93e 101e 533e 7387 15bf a514 22bf
00000090: cc4a 843e e448 7abe dc91 1fbf 9778 8b3c
000000a0: 7573 f8bc 950d eebe a93f bcbd 821f f5be
000000b0: e0ed d0be cb79 98be b7cb 593e 8069 433e
000000c0: 529d c3be 795a cf3d 168c f9be 41b8 6abe
000000d0: 057e 113e 44ef 563e bea2 f3bd 952d ff3e
000000e0: ad99 02be e16a 1b3e 614b 0e3f fe31 143f
000000f0: b34c 973e 7819 223e 30a4 ffbe b081 abbe
00000100: 6e22 a03e f946 15be 4142 93be 843a a73e
00000110: aca3 85be 7771 433d f220 78be 6708 ab3e
00000120: 0e9b 9abe 9dd4 773e 20c9 1f3f ad5d 223f
00000130: 79b0 1abd 4017 ba3c 4dda 16bf 523e 30be
00000140: fdac ecbe ebe1 213e 0de0 8a3e f493 003f
00000150: 173c 06be d520 6e3e 70c7 4cbe 303e e6be
00000160: d541 d4be 40a2 e4be 696b 3fbf af0b e8bd
00000170: cb38 ba3e f83f f5be d5fa 2ebf 07a7 d6bd
00000180: 3a63 bfbe eff5 d0bd 0a2c a93b 64de 033f
00000190: 7801 d9be 248e 78be 1f09 5abf 2965 c6be
000001a0: aec9 fabe 1c87 03bf 3c15 8cbd a5aa 00be
000001b0: 2033 75be 23e0 78be 077b 28bf 8e93 1ebf
000001c0: 8a30 f83e d075 57be 1ba0 c83e 1a5d a5bd
000001d0: 8079 efbe 0964 bc3d 996d bd3e 7193 193f
000001e0: 0486 1a3e 66f9 753d 12f1 00bf aaab 6f3e
000001f0: 6709 0e3e b8aa 1c3f 2cef b93d 6ee2 073f
00000200: 41ea 0cbe 5a7c 26be 9aab 3a3f 11e7 a63e
00000210: 75c6 d3be 561b de3e 7d03 863e ca7b 16be
00000220: fb9f bd3e 5adc 08be 16e7 13bf 84cb 4cbe
00000230: 8a52 d33e bec4 613e 0227 ff3e d93d 103e
00000240: a1f4 96be f246 d0be 221f 1cbf 6266 bebe
00000250: 46af efbe 0411 14bf f001 b5bd e1e7 febe
00000260: c247 4b3e 9e77 9d3e 3dfe 0fbe d6c6 97be
00000270: 7622 babe 5e19 9b3e 5b27 6e3f c0b9 043f
00000280: 3c2b 97bb 37a8 c63d 21c6 2d3f f821 c23e
00000290: 7675 013f b13b 363e cddc 153f afdd 653d
000002a0: 6d7c df3e 0477 cdbe 96cf 483e 0631 b33e
000002b0: c5f8 c03e 0a93 103f 9c81 09be 148d d43e
000002c0: 2e12 523e 27aa f73e f8f5 9e3d 4851 9f3e
000002d0: 8c2f 42be 6d1a c6be ade0 7e3e 4af1 88be
000002e0: ded4 2e3e 8582 ab3e 7e63 05be 7ac8 21bf
000002f0: 6482 483e 370b 5ebe 08c1 4fbf 9646 08bf
00000300: 3875 71be 2d0f 04bd a771 283f 51ec 26bd
00000310: a1cc ecbe 8a08 df3e b080 c8bc 5b49 e03e
00000320: e4e5 dcbe aee3 65be 4e32 05bf f46e b2bd
00000330: f69a 93be 5aec 96be 397e 503f 0a45 213f
00000340: 2ac8 09be 9e33 203e e62c 33bf 1a0f 4e3d
00000350: bc06 9fbd d212 25be 0d3f 55bf 58cc 90be
00000360: 50c2 b4be 1356 cf3e f1ff 2bbf b0fb 8ebe
00000370: ceed 323e 0665 a53e 9a24 503e 107d 803e
00000380: df4e 903e 37cc 823e 1ed1 2cbf 8bae a9be
00000390: eec1 f3be 4a59 aa3d 0d8d aabe af38 75be
000003a0: 062e 6abe 6163 fd3e c754 7e3f 797d 163f
000003b0: ee5c 01bd 9085 b9be 983a 3abf 81d9 92be
000003c0: 6ac9 00bf 0fee e8be 244f eabe d9fe a9be
000003d0: afc4 a33e 48a6 113e 49ab c13e c818 8a3e
000003e0: c50a aa3e 5543 54be 35a4 4a3f 597f 363f
000003f0: 9344 043f 26b1 b03e be01 a9be 805a 4f3d

actor.pi_net.fcs.0.bias f4 [64]
0.34968758 0.02523895 0.3411308 0.011161897 0.46642008 -0.33557165 0.24178134 -0.29451555
-0.192935 -0.13389546 0.3456995 -0.16847731 0.21747628 -0.45594072 0.21360123 -0.19900337
-0.15002482 0.26175454 -0.4181586 0.025981339 -0.34639934 -0.42605287 0.16139029 -0.001107556
0.001197957 0.17470932 -0.31595886 0.020880377 0.25252748 -0.05022398 0.056408875 0.40982202
-0.23732567 -0.21665375 -0.05133157 -0.030426918 -0.28211915 -0.38528308 -0.46730238 0.23682533
0.32325795 -0.018338518 0.414364 -0.22319579 -0.1559967 0.27998418 -0.092951424 0.12381363
0.36582485 -0.41771162 0.4580305 0.37207726 0.28490302 0.25819886 0.14646365 0.07502519
0.36401856 -0.047092758 -0.22009711 -0.02357178 0.054647207 -0.013618216 -0.09664875 0.23736289
00000000: 400a b33e eac1 ce3c b2a8 ae3e 64e0 363c
00000010: 9dce ee3e 0cd0 abbe 8795 773e beca 96be
00000020: c190 45be e41b 09be 86ff b03e 5185 2cbe
00000030: 1ab2 5e3e 1071 e9be 48ba 5a3e 8ac7 4bbe
00000040: 1ba0 19be b104 863e e218 d6be d1d6 d43c
00000050: 415b b1be 9a23 dabe 7f43 253e 6a2b 91ba
00000060: c404 9d3a 00e7 323e 5cc5 a1be 530d ab3c
00000070: 484b 813e a9b7 4dbd fe0c 673d 31d4 d13e
00000080: 8005 73be 7bda 5dbe 0d41 52bd df41 f9bc
00000090: ec71 90be d343 c5be 4242 efbe 5782 723e
000000a0: 1182 a53e a93a 96bc 8527 d43e 708d 64be
000000b0: 99bd 1fbe 165a 8f3e 515d bebd 0092 fd3d
000000c0: 654d bb3e 4cde d5be f982 ea3e e980 be3e
000000d0: cfde 913e a432 843e 91fa 153e cfa6 993d
000000e0: a460 ba3e 56e4 40bd 2361 61be 9b19 c1bc
000000f0: c0d5 5f3d f01e 5fbc c8ef c5bd 420f 733e

actor.pi_net.fcs.1.weight f4 [64, 64]
0.11622106 -0.001593333 -0.09740825 0.12595229 -0.017092355 0.08037934 0.097980976 -0.05935296
-0.100576654 -0.024244653 0.041189592 0.03250721 0.07716942 0.047740564 0.17530203 -0.039231483
-0.094767325 -0.047925245 0.076347016 -0.21227495 0.0058247033 0.048015367 -0.16909987 -0.22122796
0.07329859 -0.15076087 0.0022310552 -0.3070926 0.13875267 0.048526306 0.111565046 -0.020810006
-0.063582815 -0.021642687 -0.094780006 0.14585817 -0.07697087 -0.17012177 0.06467566 0.07837785
0.021854632 0.11824737 0.11971966 -0.08333568 0.020413354 -0.026296431 -0.0397691 -0.15293835
-0.051376794 -0.06908331 0.0223477 0.044605676 -0.00526096 -0.099675395 -0.13917813 0.09658324
0.10644281 -0.16331653 0.039793372 -0.29504412 -0.22077191 0.037028737 0.17593934 -0.03242822
0.10800792 -0.07765195 0.028977528 -0.00032396716 -0.04809287 -0.068977796 0.05288568 0.006502006
-0.047580387 -0.05873587 0.0246031 -0.08882278 -0.019252878 0.075778134 0.032783076 -0.11960073
0.041603096 0.040109012 0.10277496 -0.032851104 0.11258385 -0.05519264 -0.0671281 -0.15713778
-0.09586481 -0.1065001 -0.12508567 -0.12757026 0.14637217 -0.039993275 0.034570325 0.037543345
-0.020649271 0.035046265 0.0039760973 0.2001806 -0.039099585 -0.118490964 -0.010799766 0.09236992
0.13119045 -0.018867774 0.06974784 0.01862564 0.13462032 -0.051376037 -0.020764373 -0.0402083
-0.019697903 -0.10959432 -0.01374345 -0.0040675066 -0.0330111 0.049999863 -0.15471722 0.063693576
-0.06442382 -0.12200898 0.0024618658 -0.055943795 0.019008826 0.097399965 -0.012047426 0.019442476
0.041934125 0.13998868 0.0039290152 -0.09413819 -0.073264934 0.0035596266 0.07525107 0.00056871184
0.14713177 0.1633171 -0.011977181 -0.055162184 0.0133109465 0.041968167 0.021368312 0.1463498
-0.04458028 0.09069265 0.001455313 0.13198751 -0.043298565 -0.08235749 0.14307217 0.17522202
-0.08906296 0.0017469691 0.043177254 0.18657361 0.00954398 0.013116284 0.10528778 -0.024934266
-0.14372712 0.007292381 0.022291832 -0.20183986 0.20191534 0.017519994 0.0820165 -0.013441319
-0.023039509 -0.01293754 0.004160962 0.012650838 0.009982478 0.06725535 0.08215368 0.18132654
-0.026849626 0.03993989 -0.1163387 -0.033242006 0.07164587 0.07919586 0.16597138 -0.15505679
-0.0111924065 0.18432747 -0.07789806 0.11085562 -0.009439119 -0.15643454 -0.14852162 -0.10978803
-0.13614963 0.18516496 -0.04647154 -0.20414636 -0.07836238 -0.04059167 -0.08494315 -0.08997648
-0.07044402 0.10475668 -0.056659862 -0.04355665 0.0024966148 -0.017808873 -0.11965891 0.109362625
0.11883329 -0.116795614 -0.11860136 0.041619487 0.07610482 0.1496065 0.17531961 0.010855498
0.10053766 -0.027507294 -0.01633426 0.12536675 -0.048595022 -0.015187646 -0.104634725 -0.08784447
-0.008351878 0.068367474 0.0004034356 -0.053365722 -0.03528731 -0.046898477 0.06853512 -0.13061364
-0.077466056 -0.0653758 0.052985273 0.047232084 -0.048576906 -0.024341395 0.010125875 0.049988165
0.00764542 0.0070641763 0.04676407 -0.04435963 0.08848507 0.02160278 0.13163237 -0.023762506
0.10809178 0.023733793 0.015742272 0.09028363 0.009827147 0.0012243122 -0.2075484 0.09035114
00000000: 4f05 ee3d 62d7 d0ba fa7d c7bd a3f9 003e
00000010: 4405 8cbc ec9d a43d 40aa c83d 171c 73bd
00000020: 22fb cdbd b99c c6bc 6bb6 283d 4826 053d
00000030: 000b 9e3d 9c8b 433d 6082 333e 31b1 20bd
00000040: 5f15 c2bd 434d 44bd d35b 9c3d 9b5e 59be
00000050: 27dd be3b c3ab 443d 8428 2dbe 9589 62be
00000060: 921d 963d 0f61 1abe e536 123b 3e3b 9dbe
00000070: 2e15 0e3e 85c3 463d 377c e43d bf79 aabc
00000080: b537 82bd 014c b1bc 051c c2bd d85b 153e
00000090: e7a2 9dbd 6734 2ebe ac74 843d 9184 a03d
000000a0: 7c08 b33c ad2b f23d 952f f53d e6ab aabd
000000b0: e839 a73c 9d6b d7bc ece4 22bd df9b 1cbe
000000c0: 7970 52bd 8d7b 8dbd 8612 b73c 71b4 363d
000000d0: 2264 acbb 9d22 ccbd b684 0ebe 6fcd c53d
000000e0: b0fe d93d 733c 27be 60fe 223d 0610 97be
000000f0: 0812 62be 72ab 173d 7129 343e 74d3 04bd
00000100: 4233 dd3d fc07 9fbd 4862 ed3c 23da a9b9
00000110: 07fd 44bd 3b44 8dbd a89e 583d c80e d53b
00000120: a7e3 42bd 0695 70bd 718c c93c b8e8 b5bd
00000130: 36b8 9dbc 9131 9b3d 8c47 063d 3af1 f4bd
00000140: 0268 2a3d 5949 243d ae7b d23d e18e 06bd
00000150: 5d92 e63d ad11 62bd 757a 89bd bae8 20be
00000160: c554 c4bd b91c dabd 7516 00be c7a1 02be
00000170: 96e2 153e fdcf 23bd 9d99 0d3d 0dc7 193d
00000180: a928 a9bc ac8c 0f3d ec49 823b 25fc 4c3e
00000190: e326 20bd 64ab f2bd 80f1 30bc 712c bd3d
000001a0: ca56 063e 9790 9abc f5d7 8e3d cc94 983c
000001b0: e9d9 093e ae6f 52bd 0c1a aabc 75b1 24bd
000001c0: 7f5d a1bc fd72 e0bd 352c 61bc b848 85bb
000001d0: a636 07bd a8cc 4c3d 316e 1ebe c771 823d
000001e0: a3f0 83bd d8df f9bd 4157 213b 5225 65bd
000001f0: 66b8 9b3c a279 c73d 9162 45bc d445 9f3c
00000200: 1ec3 2b3d 3159 0f3e f8be 803b 86cb c0bd
00000210: ed0b 96bd a048 693b 3c1d 9a3d 9b15 153a
00000220: b6a9 163e 993c 273e f03b 44bc bef1 61bd
00000230: 2816 5a3c d0e6 2b3d 990c af3c b9dc 153e
00000240: d099 36bd 11bd b93d 33c0 be3a bc27 073e
00000250: d659 31bd 0bab a8bd 8381 123e 676d 333e
00000260: a466 b6bd 8efa e43a a2da 303d 270d 3f3e
00000270: 5a5e 1c3c afe5 563c 1fa1 d73d f242 ccbc
00000280: 342d 13be edf4 ee3b 5c9d b63c 1caf 4ebe
00000290: e5c2 4e3e 1786 8f3c 44f8 a73d fa38 5cbc
000002a0: 5abd bcbc faf7 53bc ae58 883b 7645 4f3c
000002b0: 8c8d 233c 2cbd 893d 3040 a83d aaad 393e
000002c0: bff3 dbbc 0398 233d fc42 eebd c528 08bd
000002d0: 12bb 923d 7031 a23d 67f4 293e 35c7 1ebe
000002e0: 5b60 37bc 57c0 3c3e 0589 9fbd 4508 e33d
000002f0: 89a6 1abc 6030 20be 0d16 18be 8cd8 e0bd
00000300: cf6a 0bbe e29b 3d3e f158 3ebd be0b 51be
00000310: 757c a0bd 7343 26bd adf6 adbd 9745 b8bd
00000320: f444 90bd ac8a d63d 2c14 68bd 7568 32bd
00000330: 3f9e 233b eae3 91bc bb0f f5bd 83f9 df3d
00000340: de5e f33d 8a32 efbd 45e5 f2bd 3279 2a3d
00000350: d8dc 9b3d 7232 193e fc86 333e 42db 313c
00000360: b0e6 cd3d fa56 e1bc 6dcf 85bc 2460 003e
00000370: 930b 47bd 9bd5 78bc bb4a d6bd cde7 b3bd
00000380: 51d6 08bc 3f04 8c3d 3684 d339 0496 5abd
00000390: 6d89 10bd 9e18 40bd 245c 8c3d 95bf 05be
000003a0: 86a6 9ebd bfe3 85bd 1607 593d 6e76 413d
000003b0: 94f8 46bd 9b67 c7bc ffe6 253c 64c0 4c3d
000003c0: 6e86 fa3b 9b7a e73b ae8b 3f3d 72b2 35bd
000003d0: a937 b53d 50f8 b03c a3ca 063e 96a9 c2bc
000003e0: 395f dd3d 5f6d c23c f0f5 803c a0e6 b83d
000003f0: 0b02 213c 1a79 a03a 9187 54be 050a b93d

actor.pi_net.fcs.1.bias f4 [64]
-0.092607655 0.042156573 0.054288365 0.07181522 0.07281355 -0.08661166 -0.027542548 -0.062208623
-0.008897677 -0.03670741 0.09165499 -0.04877164 0.052743826 -0.04618015 0.0016382888 -0.02556385
-0.08141737 0.041897733 0.016299522 -0.014524926 0.047650203 0.036131907 -0.034573756 0.062201206
0.035996538 0.07833245 -0.041731473 0.012915228 0.047839303 -0.060189154 -0.061446484 -0.07863651
-0.093520895 -0.09682161 -0.014111147 0.05241554 0.060737245 0.010657114 0.00011908078 -0.07423938
0.026090443 0.13153002 -0.007261177 0.048173428 0.05997482 -0.044266652 -0.08085317 0.061993137
-0.116237134 -0.073078975 0.044043723 -0.090261705 0.11549404 0.048118655 0.08819088 -0.11795928
-0.039753474 0.08594367 0.120530926 -0.031498026 -0.001212694 0.10069033 0.05411489 -0.01756201
00000000: 15a9 bdbd 5fac 2c3d 7a5d 5e3d dc13 933d
00000010: 451f 953d 7461 b1bd e9a0 e1bc 78ce 7ebd
00000020: 90c7 11bc 825a 16bd 9db5 bb3d c5c4 47bd
00000030: e909 583d 6627 3dbd dabb d63a 476b d1bc
00000040: 26be a6bd f59c 2b3d 9386 853c f5f9 6dbc
00000050: dc2c 433d 0dff 133d 369d 0dbd b1c6 7e3d
00000060: 1b71 133d c36c a03d 9fee 2abd 649a 533c
00000070: 25f3 433d e788 76bd 4faf 7bbd 2e0c a1bd
00000080: e287 bfbd 694a c6bd 7132 67bc adb1 563d
00000090: 9ec7 783d 2d9b 2e3c 02bb f938 d10a 98bd
000000a0: a0bb d53c ceaf 063e 2bef edbb 8051 453d
000000b0: 28a8 753d f350 35bd 5996 a5bd 84ec 7d3d
000000c0: bc0d eebd 6eaa 95bd 3167 343d 21db b8bd
000000d0: 2488 ec3d 1118 453d 6c9d b43d a394 f1bd
000000e0: 8ad4 22bd 3c03 b03d ebd8 f63d 1304 01bd
000000f0: 42f3 9eba bb36 ce3d 93a7 5d3d 34de 8fbc

actor.pi_net.fcs.2.weight f4 [1, 64]
0.23369251 0.1240728 -0.12079252 -0.07536593 0.105032735 -0.14436209 0.12518078 -0.25417417
0.31021246 0.16211113 0.19358419 -0.09947242 0.14325576 -0.20030405 0.14799593 0.19140418
-0.066223875 0.29582185 0.25327545 -0.27384746 -0.0049074823 -0.22463176 0.17330082 0.2577268
-0.22936243 0.20651603 0.17103142 -0.168118 -0.21338497 0.219541 -0.30951956 -0.24756598
-0.25312978 0.11356511 -0.1418142 0.23316711 -0.05850501 0.21168284 0.06665804 0.061129116
0.14868641 0.108633965 -0.22211549 0.2545775 -0.16301295 0.29038998 0.056444835 0.17973848
-0.06473787 0.14666374 0.16614445 -0.27820036 0.26235917 0.24404612 -0.21372937 -0.09144866
0.23075742 0.26240993 0.15424438 -0.31587476 0.0990672 0.2432042 0.26994437 0.27987793
00000000: 174d 6f3e e119 fe3d 1262 f7bd 7459 9abd
00000010: 671b d73d a8d3 13be 642f 003e 1e23 82be
00000020: 2bd4 9e3e 7600 263e ef3a 463e 32b8 cbbd
00000030: a3b1 123e 811c 4dbe 3f8c 173e 75ff 433e
00000040: 62a0 87bd f675 973e 52ad 813e bc35 8cbe
00000050: f2ce a0bb de05 66be c575 313e c4f4 833e
00000060: fcdd 6abe f078 533e dc22 2f3e 2027 2cbe
00000070: 9781 5abe 5bcf 603e 5979 9ebe f081 7dbe
00000080: 3a9a 81be d394 e83d be37 11be 5cc3 6e3e
00000090: f3a2 6fbd 63c3 583e 0384 883d 8662 7a3d
000000a0: 4041 183e 7c7b de3d 3e72 63be fb57 823e
000000b0: deec 26be ffad 943e b332 673d 5d0d 383e
000000c0: 4a95 84bd 052f 163e c521 2a3e 4770 8ebe
000000d0: f153 863e 3ae7 793e dfdb 5abe 6f49 bbbd
000000e0: ac4b 6c3e 985a 863e 3df2 1d3e 56ba a1be
000000f0: bfe3 ca3d 860a 793e 2636 8a3e 294c 8f3e

critic.v_net.fcs.0.weight f4 [64, 4]
0.31083474 -0.29075298 -1.42652 -0.35440978 -0.39669102 -0.27148673 -0.9086467 -1.115946
-0.72162956 -0.12726314 -0.6847563 -0.98708177 0.5017335 0.3855092 -0.49503228 -0.54848963
-0.11326205 -0.5259859 0.6262987 0.31343967 -0.39539188 -0.25504532 -1.5269244 -0.27657747
0.6479772 0.46865457 0.8009272 0.852652 0.51347667 0.25991952 1.8863652 0.9446417
-0.4706291 0.39934352 1.3372413 0.18420467 -0.8844757 0.36858535 1.1486667 0.30859855
0.17843463 -0.68255234 -1.3248503 -0.5114897 0.14223848 0.70716995 0.7725624 -0.39488125
-0.827345 -0.34969953 -1.0302615 -0.61399084 -0.85937953 -0.11824812 0.28263932 0.1906217
0.49403426 -0.31603724 0.47479612 0.93004596 0.28015718 0.23837519 0.5602025 0.47347447
-0.16001584 -0.45611858 -1.0341754 -1.0745143 0.43611085 0.5696311 -0.43538064 -1.0332707
-0.61588645 -0.45336998 -1.6027045 -0.7690422 -0.0034028306 0.365158 -0.07103014 -0.833861
0.035596844 0.6507461 1.0056994 -0.08068957 0.6281166 -0.36443293 -1.1115687 -0.20992398
0.29638147 0.093587294 -0.82974607 -0.2772372 0.18623531 -0.19374608 0.96891695 0.4353252
0.408957 -0.6136935 -1.9074718 -0.9312021 -0.12571532 0.103292726 -0.8182718 -0.65114504
-0.1355611 -0.5055448 -1.5977561 -0.7777892 0.06764064 0.28009918 -0.733979 -1.1821544
-0.7737811 -0.55521566 -1.0540408 -0.32518843 0.2849745 0.4810039 -1.056774 -1.0353291
-1.083207 -0.075897075 0.77822244 0.13002744 -0.56019974 -0.28247097 -1.1318625 -0.114993274
-0.51724416 -0.6597748 -1.1781603 -0.50853056 0.17956491 0.5964386 1.2080587 0.5280162
-0.6176164 0.45214874 1.7313519 0.37865835 -0.69376296 -0.067049794 -1.0863371 -0.9219204
-0.78367376 -0.4225374 -0.9723342 -0.0071074115 -0.3735428 -0.51752985 -1.6858119 -1.0980878
-0.31695902 -0.107193984 1.0084854 0.2228545 0.40487352 -0.12908152 -1.2642858 -0.13110979
0.054117434 -0.66647273 -0.018667655 0.9422214 0.714436 0.069332525 1.1375633 0.5534937
0.19770977 0.08855582 0.5181272 0.47438353 0.45340583 0.14028734 -0.88579017 -0.89393944
0.22069187 -0.7746141 -1.7540743 -1.224331 -0.23784322 -0.049692586 -1.7470597 -1.2358519
-0.4682132 -0.49949723 -1.5914373 -1.1498863 -0.021367118 0.58107585 1.945531 1.3021138
0.2414236 0.3881682 0.93900365 0.86838025 0.5061881 0.4724177 -0.59626836 -0.8077831
-0.32158306 -0.37618998 -1.3305925 -0.4169205 -0.18243518 0.58766055 1.4453912 0.092072845
-0.43410584 0.8139729 1.700633 0.7857655 -0.7773878 -0.7830924 -0.6459144 -0.33040246
0.4560605 -0.4149931 0.3408112 1.3279215 0.5700551 -0.12070222 1.4353809 0.9801843
0.062035352 -0.04237099 -1.029697 -0.9097554 -0.10045935 -0.2039079 1.1375675 0.47358403
0.021546504 0.20571384 1.2632829 1.2095652 0.6357687 0.47025186 -0.58782446 -0.4632096
0.22094771 -0.5415108 0.5818966 1.0119941 -0.5893407 0.06520092 -0.62777704 -0.65273046
-0.2668272 -0.67430335 -0.82353145 -0.57263434 -0.38599497 -0.46633407 -1.2903062 -0.98727745
00000000: bb25 9f3e 93dd 94be 3598 b6bf 3375 b5be
00000010: 161b cbbe 4f00 8bbe 129d 68bf 52d7 8ebf
00000020: b7bc 38bf 4551 02be 304c 2fbf 64b1 7cbf
00000030: 9b71 003f 7661 c53e df74 fdbe d169 0cbf
00000040: eff5 e7bd 03a7 06bf 1d55 203f 2a7b a03e
00000050: ce70 cabe 4d95 82be 4272 c3bf 909b 8dbe
00000060: d5e1 253f 7ef3 ef3e 9109 4d3f 6747 5a3f
00000070: 3573 033f 2c14 853e 6a74 f13f 0ad4 713f
00000080: 4cf6 f0be c176 cc3e b92a ab3f 26a0 3c3e
00000090: 006d 62bf 38b7 bc3e 8307 933f a100 9e3e
000000a0: 91b7 363e c0bb 2ebf b294 a9bf fdf0 02bf
000000b0: f7a6 113e 1709 353f a6c6 453f e02d cabe
000000c0: e2cc 53bf d10b b3be 9cdf 83bf 812e 1dbf
000000d0: 4c00 5cbf 122c f2bd 1ab6 903e 5632 433e
000000e0: 0ff2 fc3e a2cf a1be 7a18 f33e 7e17 6e3f
000000f0: c370 8f3e a018 743e 6e69 0f3f 3f6b f23e
00000100: 31db 23be 6088 e9be dc5f 84bf af89 89bf
00000110: ec49 df3e 58d3 113f 36ea debe 3742 84bf
00000120: bcaa 1dbf 1c20 e8be 6c25 cdbf f3df 44bf
00000130: 0602 5fbb fdf5 ba3e 4078 91bd ea77 55bf
00000140: ffcd 113d 4c97 263f c2ba 803f 9340 a5bd
00000150: 40cc 203f f496 babe e247 8ebf 50f6 56be
00000160: 50bf 973e b2aa bf3d 3d6a 54bf 09f2 8dbe
00000170: 78b4 3e3e 5f65 46be f10a 783f f2e2 de3e
00000180: d062 d13e 041b 1dbf 0928 f4bf 4363 6ebf
00000190: 84bb 00be 238b d33d 437a 51bf 71b1 26bf
000001a0: 87d0 0abe 626b 01bf 4683 ccbf 311d 47bf
000001b0: 2d87 8a3d 2969 8f3e 0ce6 3bbf d650 97bf
000001c0: 8516 46bf 9d22 0ebf cfea 86bf 197f a6be
000001d0: 2de8 913e 2546 f63e 5f44 87bf aa85 84bf
000001e0: 87a6 8abf ed6f 9bbd 9639 473f ea25 053e
000001f0: 4069 0fbf 09a0 90be dfe0 90bf 9881 ebbd
00000200: 1d6a 04bf 00e7 28bf f5cd 96bf 0f2f 02bf
00000210: dddf 373e 33b0 183f aba1 9a3f 122c 073f
00000220: 1c1c 1ebf 0a80 e73e f09c dd3f 82df c13e
00000230: 739a 31bf 6751 89bd 180d 8bbf fa02 6cbf
00000240: d89e 48bf d256 d8be e5ea 78bf 4ae5 e8bb
00000250: 0041 bfbe d67c 04bf afc8 d7bf 248e 8cbf
00000260: 7448 a2be 8588 dbbd 0d16 813f f833 643e
00000270: 954b cf3e f22d 04be 1ed4 a1bf a541 06be
00000280: 3eaa 5d3d f59d 2abf e9ec 98bc 6c35 713f
00000290: 47e5 363f 36fe 8d3d ad9b 913f c3b1 0d3f
000002a0: 6e74 4a3e c15c b53d fca3 043f 66e2 f23e
000002b0: cf24 e83e 7ca7 0f3e 25c3 62bf 37d9 64bf
000002c0: 0dfd 613e 1c4d 46bf 8285 e0bf e1b6 9cbf
000002d0: 2c8d 73be 748a 4bbd a79f dfbf 6530 9ebf
000002e0: a4b9 efbe 1abe ffbe 38b4 cbbf 792f 93bf
000002f0: 180a afbc 63c1 143f 2907 f93f aaab a63f
00000300: c037 773e fbbd c63e 8b62 703f 2b4e 5e3f
00000310: 8b95 013f bce0 f13e 0ba5 18bf e0ca 4ebf
00000320: 89a6 a4be f99b c0be db50 aabf 9b76 d5be
00000330: 4ad0 3abe ec70 163f 9402 b93f b090 bc3d
00000340: 1f43 debe 8760 503f 58ae d93f ee27 493f
00000350: e302 47bf be78 48bf a55a 25bf 832a a9be
00000360: c380 e93e fa79 d4be ce7e ae3e 55f9 a93f
00000370: 22ef 113f ba32 f7bd 90ba b73f 5ced 7a3f
00000380: c818 7e3d 348d 2dbd 1ccd 83bf bbe5 68bf
00000390: a2bd cdbd 3ccd 50be d09b 913f 9b79 f23e
000003a0: 4b82 b03c a6a6 523e 41b3 a13f 08d3 9a3f
000003b0: bdc1 223f dac4 f03e aa7b 16bf cf29 edbe
000003c0: 1e40 623e 74a0 0abf 2df7 143f 0689 813f
000003d0: 08df 16bf 0f88 853d ffb5 20bf 5819 27bf
000003e0: 939d 88be 259f 2cbf f5d2 52bf 2a98 12bf
000003f0: 22a1 c5be 57c3 eebe c128 a5bf 37be 7cbf

critic.v_net.fcs.0.bias f4 [64]
-0.4643603 -0.3096784 -0.45465353 0.3484354 -0.3642992 0.22214317 0.3164122 -0.070542015
-0.40689576 -0.5464621 -0.52097005 -0.4769641 -0.4648186 -0.31319124 -0.5028316 0.30514443
-0.205406 -0.6412403 0.27821052 0.44978318 0.4337602 0.32020858 0.23080096 -0.5417922
0.26625082 -0.32727847 -0.15382734 -0.4630014 -0.47975224 0.656529 -0.65214247 0.18903401
0.24623525 -0.18395932 -0.27589324 -0.36979607 -0.49665374 -0.2992718 -0.26855618 -0.19623445
-0.64564836 -0.30725145 -0.48834518 0.32864705 -0.11581589 -0.3894475 -0.15336363 0.18968812
-0.09533213 -0.56698036 0.49035618 0.2876349 0.37925428 0.54599833 0.58651114 0.3720166
-0.45771348 -0.31087622 0.25072363 0.68368125 -0.61664706 -0.38652977 0.3950974 -0.28821823
00000000: a2c0 edbe 2b8e 9ebe 59c8 e8be 2066 b23e
00000010: 6d85 babe 8079 633e c800 a23e 5578 90bd
00000020: a454 d0be f1e4 0bbf 4b5e 05bf a334 f4be
00000030: b4fc edbe 9a5a a0be 92b9 00bf e43b 9c3e
00000040: f355 52be 5328 24bf 9c71 8e3e fb49 e63e
00000050: d115 de3e 61f2 a33e 1657 6c3e e5b2 0abf
00000060: 0752 883e 0b91 a7be ea84 1dbe 850e edbe
00000070: 16a2 f5be 4912 283f cff2 26bf 2292 413e
00000080: 1825 7c3e d55f 3cbe e141 8dbe e955 bdbe
00000090: 6649 febe 273a 99be 3280 89be aff1 48be
000000a0: 3649 25bf 1050 9dbe 6108 fabe 6d44 a83e
000000b0: e230 edbd aa65 c7be 5b0b 1dbe 9a3d 423e
000000c0: 7e3d c3bd a025 11bf f70f fb3e e244 933e
000000d0: 9e2d c23e 8cc6 0b3f 9825 163f f678 be3e
000000e0: 6c59 eabe 2b2b 9fbe d95e 803e bc05 2f3f
000000f0: 95dc 1dbf 3be7 c5be 354a ca3e 5791 93be

critic.v_net.fcs.1.weight f4 [64, 64]
-0.15157436 -0.47938678 -0.49947387 -0.15245546 0.12311167 -0.20826924 0.44328493 0.48077428
-0.045559105 -0.13934158 -0.36122915 -0.21730965 -0.45230642 0.033670973 0.09267305 0.20817018
-0.7113262 -0.483409 -0.26305997 -0.08756627 0.11035626 0.03960269 -0.18818052 -0.0755848
-0.30908626 -0.3944186 -0.7149645 -0.6079431 -0.28589663 -0.045849957 -0.14776261 -0.16154179
-0.18699437 0.2129848 0.0072099953 -0.5676377 -0.29046836 -0.5273307 0.15975285 -0.19599423
0.08925993 0.22622679 0.103514425 -0.38960385 -0.6294634 -0.8911113 -0.7258687 0.7311474
0.4281353 -0.45185322 0.09787099 0.2617359 0.7009063 0.24764696 0.68006456 0.76807046
-0.46081963 0.08794338 1.0167733 0.073483065 -0.049963992 -0.35520196 -0.05175815 -0.5594988
-0.47078648 0.0021341906 -0.011045059 -0.19332334 -0.085772 0.24908446 -0.14593905 -0.22476164
0.03157568 0.07600504 -0.48107845 -0.47229964 -0.09420699 0.3022242 -0.23511536 -0.03446014
-0.19427285 -0.51987535 0.54559 0.05501655 0.28747767 -0.095322795 -0.16119276 -0.1883877
-0.25074524 -0.13222136 -0.3817907 -0.5209205 -0.016826604 -0.034029398 0.08074371 0.5657435
0.43133718 -0.1995304 0.2999745 0.1421352 0.11236482 -0.11334902 0.11985126 -0.86958283
-0.33074602 -0.6425956 -0.052868634 -0.1819913 -0.61405426 -0.3695095 -0.12054775 0.45707357
-0.092938855 -0.7210349 0.12034924 0.49629843 0.65290153 0.6468143 0.2618315 0.18896104
-0.44673276 0.122163355 0.5670125 -0.05250379 -0.13245413 0.04989094 0.34928426 -0.17835687
0.44757652 0.62099576 0.38827333 0.12008017 -0.05555009 0.12759371 -0.5885969 -0.54770356
0.019877942 0.0054823137 0.49449766 0.18548423 0.50759625 -0.08832663 -0.13340093 -0.22695927
0.8143112 0.49012795 0.31902567 0.1406744 -0.2740031 0.06339777 0.06521703 -0.1526512
0.4570149 0.39575508 1.0584109 0.68548924 0.39541253 0.06327791 0.000259438 0.22347832
0.13562632 -0.44050276 -0.40510687 0.49929014 0.26176488 0.8255677 -0.30022827 0.22390641
-0.06299614 -0.09340455 -0.053020302 0.29437602 0.68607116 0.8053907 0.8126793 -1.0718759
-0.44186836 0.50456417 0.14195395 -0.65676975 -1.1372691 -0.012212303 -0.52013475 -0.7836033
0.54486966 -0.2339315 -0.9290295 -0.061911087 0.046852592 0.24679871 0.18527694 0.6542032
-0.112089865 -0.17797415 -0.1020344 -0.4470116 0.42503577 -0.5571072 0.14111835 0.9382823
0.40424562 0.44787237 0.0024864846 0.03933781 -0.033291835 0.3316742 0.523874 -0.031960834
-0.15930505 0.10192856 -0.61825275 -0.41567117 -0.09350202 -0.52201074 -0.34921145 0.2733157
-0.6458439 -0.06643249 -0.330212 -0.22984073 0.097872406 -0.67388976 0.32617846 -0.46112165
-0.65210295 0.670728 0.69951576 -0.11870672 0.0053607365 -0.16524592 0.39908633 -0.24852793
0.5715028 0.5108149 0.15278737 -0.739097 -0.46668082 -0.17628314 -0.4878074 0.5600494
0.57657003 -0.09787034 -0.3011464 0.100673944 0.16955999 -0.33297065 0.13841249 0.25470772
-0.082554825 0.5906544 0.43640414 -0.36773112 0.631805 -0.06961829 -0.43662682 -0.22515568
00000000: 4f36 1bbe 2f72 f5be 0abb ffbe 491d 1cbe
00000010: f921 fc3d 8844 55be 3ef6 e23e 0c28 f63e
00000020: 2f9c 3abd 8faf 0ebe 07f3 b8be 6c86 5ebe
00000030: b594 e7be 93ea 093d 5ecb bd3d 902a 553e
00000040: 7919 36bf 6281 f7be ccaf 86be f255 b3bd
00000050: 7602 e23d 6e36 223d 65b2 40be 34cc 9abd
00000060: 8e40 9ebe 3cf1 c9be ea07 37bf 29a2 1bbf
00000070: 0b61 92be 2acd 3bbd 154f 17be 366b 25be
00000080: 747b 3fbe b018 5a3e d341 ec3b b450 11bf
00000090: 45b8 94be 25ff 06bf 4096 233e b6b2 48be
000000a0: e9cd b63d ffa7 673e 5fff d33d 287a c7be
000000b0: 8324 21bf df1f 64bf 88d2 39bf 7a2c 3b3f
000000c0: 8d34 db3e 4e59 e7be 9670 c83d 3f02 863e
000000d0: 986e 333f 2a97 7d3e b618 2e3f 44a0 443f
000000e0: 8df0 ebbe a91b b43d a125 823f 4a7e 963d
000000f0: 0ba7 4cbd 08dd b5be 5b00 54bd 503b 0fbf
00000100: ed0a f1be c7dd 0b3b 56f6 34bc 8ef6 45be
00000110: 3ba9 afbd ff0f 7f3e 0c71 15be ea27 66be
00000120: 8055 013d 88a8 9b3d ea4f f6be 42d1 f1be
00000130: 98ef c0bd 21bd 9a3e 15c2 70be 1326 0dbd
00000140: 76ef 46be 8d16 05bf c9ab 0b3f 0959 613d
00000150: 4630 933e 9938 c3bd b70f 25be b5e8 40be
00000160: ae61 80be 0965 07be 127a c3be 0c5b 05bf
00000170: f2d7 89bc 6962 0bbd f55c a53d 91d4 103f
00000180: 3ad8 dc3e b251 4cbe 4296 993e e48b 113e
00000190: 871f e63d 8823 e8bd 9474 f53d fb9c 5ebf
000001a0: 8b57 a9be 2581 24bf c88c 58bd ed5b 3abe
000001b0: a932 1dbf 5930 bdbe bde1 f6bd 8c05 ea3e
000001c0: ba56 bebd be95 38bf aa79 f63d d41a fe3e
000001d0: 8e24 273f 9f95 253f c70e 863e 017f 413e
000001e0: 28ba e4be c830 fa3d bb27 113f 370e 57bd
000001f0: 0ea2 07be 715a 4c3d 63d5 b23e 2fa3 36be
00000200: c028 e53e 94f9 1e3f c3cb c63e 98ec f53d
00000210: 7e88 63bd eda7 023e 49ae 16bf 4d36 0cbf
00000220: 11d7 a23c fba4 b33b cc2e fd3e 94ef 3d3e
00000230: d4f1 013f 98e4 b4bd 419a 08be 0368 68be
00000240: b376 503f 0df2 fa3e 5557 a33e f30c 103e
00000250: 224a 8cbe b1d6 813d 8290 853d 9950 1cbe
00000260: dbfd e93e 69a0 ca3e 027a 873f 397c 2f3f
00000270: 8373 ca3e d997 813d 2e05 8839 80d7 643e
00000280: a0e1 0a3e 9489 e1be 2b6a cfbe f5a2 ff3e
00000290: 0c06 863e 6858 533f 85b7 99be b947 653e
000002a0: 1f04 81bd e24a bfbd d12b 59bd 74b8 963e
000002b0: 5ca2 2f3f 162e 4e3f c00b 503f 3b33 89bf
000002c0: 923c e2be 1e2b 013f 605c 113e 1022 28bf
000002d0: 0992 91bf 1c16 48bc 8d27 05bf 3a9a 48bf
000002e0: 947c 0b3f bd8b 6fbe e1d4 6dbf 7b96 7dbd
000002f0: 81e8 3f3d cdb8 7c3e 3db9 3d3e dc79 273f
00000300: 5f8f e5bd db3e 36be 69f7 d0bd b4de e4be
00000310: 4a9e d93e 949e 0ebf 5481 103e 4533 703f
00000320: 48f9 ce3e 874f e53e 4af4 223b af20 213d
00000330: 055d 08bd 33d1 a93e 9b1c 063f 5de9 02bd
00000340: dd20 23be ecbf d03d d045 1ebf dad2 d4be
00000350: fd7d bfbd 7fa2 05bf d8cb b2be 09f0 8b3e
00000360: 0756 25bf c20d 88bd 8c11 a9be 5e5b 6bbe
00000370: 5471 c83d 0a84 2cbf dd00 a73e 2318 ecbe
00000380: 38f0 26bf d5b4 2b3f 7713 333f 821c f3bd
00000390: 1ea9 af3b 3a36 29be 0b55 cc3e 1b7e 7ebe
000003a0: 024e 123f c4c4 023f 4b74 1c3e 7635 3dbf
000003b0: caf0 eebe 9183 34be e4c1 f9be 665f 0f3f
000003c0: 189a 133f 3f70 c8bd dc2f 9abe 242e ce3d
000003d0: 22a1 2d3e 217b aabe 01bc 0d3e 0d69 823e
000003e0: 8112 a9bd 2035 173f 5d70 df3e 4147 bcbe
000003f0: f9bd 213f 0994 8ebd 8d8d dfbe 368f 66be

critic.v_net.fcs.1.bias f4 [64]
0.20895402 -0.0041329945 -0.17619932 -0.14929655 -0.04552141 0.17664914 -0.27927774 -0.023493415
0.14391333 0.04096679 0.2182445 -0.013142599 0.16725126 0.099334724 -0.21651748 -0.027187482
-0.093581945 0.010215726 -0.20437554 0.08396678 0.039388698 -0.056396898 -0.21051392 0.002233923
-0.03515564 -0.043891124 -0.11371285 0.10325986 -0.052060235 -0.116678745 0.11958517 0.1519959
0.1580453 -0.033782974 0.07025764 -0.057810508 0.19704041 -0.086564444 0.21111934 0.14305347
-0.039996836 -0.13338386 0.19669828 -0.050339323 0.17192078 0.12021523 -0.05708921 0.0060363836
-0.13290346 -0.066642225 0.043426413 0.11541887 -0.036916763 -0.025409717 -0.017074624 0.0015039922
0.11108991 0.062646896 -0.10349516 -0.016266294 -0.17002667 0.046148945 0.21835794 0.18097079
00000000: 0bf8 553e 126e 87bb 986d 34be 32e1 18be
00000010: a874 3abd 83e3 343e 7efd 8ebe 4375 c0bc
00000020: 045e 133e cbcc 273d 7c7b 5f3e 0e54 57bc
00000030: ea43 2b3e 0170 cb3d c2b6 5dbe 48b8 debc
00000040: e4a7 bfbd dc5f 273c d247 51be c6f6 ab3d
00000050: 0b56 213d 6f00 67bd f690 57be 0267 123b
00000060: 5cff 0fbd 2ec7 33bd 48e2 e8bd e879 d33d
00000070: 1d3d 55bd 44f5 eebd 12e9 f43d d0a4 1b3e
00000080: a1d6 213e 0460 0abd 3de3 8f3d b6ca 6cbd
00000090: f6c4 493e b348 b1bd ab2f 583e 9c7c 123e
000000a0: b9d3 23bd c795 08be 466b 493e 9b30 4ebd
000000b0: 000c 303e 6733 f63d 60d6 69bd dbcc c53b
000000c0: d817 08be b87b 88bd e5df 313d ba60 ec3d
000000d0: 0836 17bd 0a28 d0bc 15e0 8bbc 9b21 c53a
000000e0: 1b83 e33d 044d 803d 45f5 d3bd e440 85bc
000000f0: 791b 2ebe ad06 3d3d 3999 5f3e 6850 393e

critic.v_net.fcs.2.weight f4 [1, 64]
1.2571201 1.3871279 -1.2283424 -1.3427594 1.3081552 1.4321913 -1.3111712 -1.3841542
1.3767245 1.4363678 1.2847712 1.2896894 1.3279191 1.2878736 -1.4915367 -1.2633349
-1.3444533 1.3693261 -1.2392646 1.4712026 -1.4097527 -1.3599018 -1.4123034 -1.4475304
1.2868147 -1.3163338 -1.3436795 1.3271505 1.2591434 -1.3828021 1.3529513 1.3686851
1.3337299 -1.4544067 -1.2968746 -1.3953937 1.2758386 -1.378102 1.4359657 1.387935
1.3997784 -1.3074752 1.346239 -1.5049226 1.3665516 1.2771393 -1.3802062 1.3789738
-1.3491529 -1.2552996 1.2871759 1.2339153 -1.4253662 1.3790269 -1.5114212 1.3926611
1.2836859 -1.3527092 -1.3188124 1.4458385 -1.4938835 1.5566205 1.3537127 1.3309933
00000000: 50e9 a03f 688d b13f 533a 9dbf 8adf abbf
00000010: a171 a73f 0b52 b73f 75d4 a7bf f72b b1bf
00000020: 8238 b03f e6da b73f 6273 a43f 8b14 a53f
00000030: 41f9 a93f 0bd9 a43f adea bebf f5b4 a1bf
00000040: 0c17 acbf 1446 af3f 39a0 9ebf 5e50 bc3f
00000050: c772 b4bf 4311 aebf 5cc6 b4bf ad48 b9bf
00000060: 58b6 a43f a07d a8bf b1fd abbf 11e0 a93f
00000070: 9c2b a13f a9ff b0bf 822d ad3f 1331 af3f
00000080: a9b7 aa3f 002a babf fdff a5bf 439c b2bf
00000090: ae4e a33f a565 b0bf b9cd b73f dba7 b13f
000000a0: f02b b33f 595b a7bf 8f51 ac3f 4ea1 c0bf
000000b0: 2aeb ae3f 4d79 a33f 99aa b0bf 3782 b03f
000000c0: 0bb1 acbf a8ad a0bf 2ec2 a43f f0f0 9d3f
000000d0: 6672 b6bf f483 b03f 4076 c1bf b842 b23f
000000e0: d24f a43f 9325 adbf d8ce a8bf 3c11 b93f
000000f0: 9337 bfbf 573f c73f 7546 ad3f fd5d aa3f

exp_avg f4 [64, 4]
0.00066836766 -0.0077732033 -0.0010683951 0.0035859342 -0.0015767637 0.009999475 0.0014482558 -0.0046053175
-0.0009077824 0.003753373 0.0005819926 -0.0017185769 0.0018160247 -0.010303507 -0.001520189 0.004731114
0.0007838932 -0.004187945 -0.00063186034 0.0018989415 0.0005033951 -0.003200405 -0.00046623131 0.0014755683
-0.00010885657 0.0006763924 9.2650844e-05 -0.00032260548 -0.0005215957 0.0025321513 0.00038973882 -0.0011464435
-0.0011435719 0.006552429 0.00095453265 -0.0030172495 -0.000953547 0.0068929116 0.0009939332 -0.0031650404
-0.00040403494 0.0019775468 0.00029408102 -0.0009164261 -0.00021839289 0.0010070249 0.00016205283 -0.00044449672
-0.00039209405 0.0027694635 0.00039169652 -0.0012869245 0.00030540992 -0.0019454506 -0.00027780197 0.0009069293
0.001471301 -0.009173375 -0.001336436 0.004207811 -0.00051994645 0.003131573 0.00045789318 -0.001436273
-4.952074e-05 0.00032977134 5.356382e-05 -0.0001424348 0.000111250374 -0.00071357656 -0.00010839305 0.00031839244
0.0008862606 -0.0039087343 -0.00060395495 0.0017859666 -0.0022807547 0.012833495 0.0018938426 -0.00589623
0.00011194342 -0.0006571198 -9.181428e-05 0.0003114839 -0.0005363087 0.002208042 0.0003453167 -0.0009996032
-0.0016656356 0.008352601 0.0012407501 -0.0038508924 -0.0019189273 0.01236755 0.0018024772 -0.0056836046
0.00028488637 -0.001816148 -0.00026154736 0.0008392007 -0.00193953 0.011038675 0.0016176184 -0.005090056
-0.0006889767 0.0037552668 0.00057208375 -0.0016951815 -0.0039839763 0.022114877 0.0032745586 -0.010152204
0.0006188066 -0.0027993536 -0.0004362873 0.0012622799 0.0012176774 -0.0074118027 -0.0010808042 0.0034060488
-2.0282676e-05 0.00028288696 3.4099998e-05 -0.00014100228 0.0006146235 -0.0041679926 -0.000614141 0.001894086
0.0012038706 -0.006714071 -0.0009964616 0.003082241 -8.9953755e-05 0.00023792477 4.426287e-05 -9.899805e-05
-0.0016585233 0.010994325 0.0015924964 -0.0050496557 0.002255332 -0.012630853 -0.0018638752 0.0057990346
-0.0016039155 0.009406947 0.0013993087 -0.0042865793 -0.0011609349 0.0060849045 0.0009290388 -0.0027497374
-0.00025869353 0.0012799988 0.00019286587 -0.00058293977 0.0010525639 -0.009958593 -0.001382399 0.0045966976
0.0010090186 -0.0061999317 -0.00090782286 0.0028381993 0.002062807 -0.011679532 -0.0017195485 0.005361319
0.0006395439 -0.002223365 -0.000361453 0.0009993856 0.0006379216 -0.0035073108 -0.0005111598 0.0016271903
0.0006978141 -0.0035767364 -0.00053042633 0.0016516696 -6.1211016e-05 0.0003058739 4.0953422e-05 -0.00014996
-0.0009695464 0.0049328394 0.0007342827 -0.0022678194 -0.0024066104 0.012925606 0.0019261735 -0.0059250095
0.00037837675 -0.0030543208 -0.00043477304 0.0014037323 0.00021533524 -0.0008495175 -0.0001289509 0.0003970388
-0.0004351205 0.0026140132 0.00037223948 -0.0012196597 0.00066837127 -0.003701416 -0.0005374346 0.0017071997
-0.00039973247 0.0023263057 0.00033815316 -0.0010768324 -0.0012739662 0.006527639 0.0009751667 -0.0030010163
-0.0007908566 0.0054455376 0.0007813604 -0.0025202096 0.0021957476 -0.01214973 -0.0018128797 0.0055536362
-0.00021400221 0.0012262149 0.00017728872 -0.0005704982 -0.0018258437 0.010214637 0.0015125587 -0.0046801087
0.0022519964 -0.010201552 -0.0015648677 0.0046636737 -0.0041281483 0.02318222 0.0034398471 -0.010624254
-0.0024686132 0.013728498 0.0020207686 -0.006315495 0.0024694281 -0.013852025 -0.0020471099 0.0063569043
0.0023565248 -0.014874292 -0.0021625995 0.0068653473 0.00049699954 -0.0024727674 -0.0003831287 0.0011103551
00000000: 6535 2f3a 5bb6 febb 6409 8cba fe01 6b3b
00000010: 69ab ceba d7d4 233c 67d3 bd3a 34e8 96bb
00000020: 3ff8 6dba 26fb 753b dd90 183a df41 e1ba
00000030: ad07 ee3a 0ad0 28bc 1441 c7ba 7607 9b3b
00000040: 2f7e 4d3a 073b 89bb 6ea3 25ba e7e5 f83a
00000050: 46f6 033a e3bd 51bb 8270 f4b9 db67 c13a
00000060: ed49 e4b8 ed4f 313a 8b4d c238 6023 a9b9
00000070: b2bb 08ba 73f2 253b dc55 cc39 4344 96ba
00000080: e8e3 95ba c2b5 d63b 9a39 7a3a 0cbd 45bb
00000090: 75f7 79ba efdd e13b dd46 823a 916c 4fbb
000000a0: a7d4 d3b9 bb99 013b e32e 9a39 513c 70ba
000000b0: 6500 65b9 26fe 833a baec 2939 570b e9b9
000000c0: f991 cdb9 e37f 353b 9e5c cd39 05ae a8ba
000000d0: 6d1f a039 7dfe feba f3a5 91b9 ffbe 6d3a
000000e0: abd8 c03a ec4b 16bc 5a2b afba ade1 893b
000000f0: 044d 08ba 143b 4d3b 6211 f039 5341 bcba
00000100: 7db4 4fb8 29e5 ac39 b7a9 6038 8d5a 15b9
00000110: 174f e938 500f 3bba 1351 e3b8 e9ed a639
00000120: f153 683a d714 80bb bb52 1eba 1817 ea3a
00000130: b778 15bb 9443 523c d03a f83a 2a35 c1bb
00000140: 2ac3 ea38 9042 2cba 6b8c c0b8 a94e a339
00000150: 1197 0cba ccb4 103b 9f0b b539 1e05 83ba
00000160: 7551 daba 59d9 083c aaa0 a23a 415f 7cbb
00000170: 8484 fbba 44a1 4a3c 1941 ec3a 883d babb
00000180: cd5c 9539 d10b eeba 4b20 89b9 cefd 5b3a
00000190: d437 feba 8fdb 343c 4406 d43a 7cca a6bb
000001a0: 729c 34ba ec1a 763b e4f7 153a da30 deba
000001b0: 048c 82bb 422a b53c fa99 563b 6e55 26bc
000001c0: 6837 223a 5c75 37bb 7dbd e4b9 1673 a53a
000001d0: 799a 9f3a b5de f2bb c5a9 8dba 0438 5f3b
000001e0: b724 aab7 7250 9439 9806 0f38 03da 13b9
000001f0: af1e 213a a893 88bb 4efe 20ba fb42 f83a
00000200: 32cb 9d3a b601 dcbb b49b 82ba 6cff 493b
00000210: 8ea5 bcb8 727b 7939 e5a6 3938 2c9d cfb8
00000220: cf62 d9ba 8b21 343c 50bb d03a 9577 a5bb
00000230: 31ce 133b a3f1 4ebc 464d f4ba d405 be3b
00000240: 793a d2ba 981f 1a3c 0269 b73a 6f76 8cbb
00000250: 832a 98ba e163 c73b bd8a 733a f034 34bb
00000260: 42a1 87b9 a2c5 a73a 0a3c 4a39 6dd0 18ba
00000270: 2ff6 893a 5e29 23bc 9d31 b5ba e59f 963b
00000280: 0c41 843a cc28 cbbb f6fa 6dba 1501 3a3b
00000290: 2930 073b 825b 3fbc 7962 e1ba 01ae af3b
000002a0: 11a7 273a e0b5 11bb 6781 bdb9 d1fd 823a
000002b0: 323a 273a e9da 65bb 5aff 05ba 7247 d53a
000002c0: 83ed 363a ae67 6abb 4f0c 0bba d67c d83a
000002d0: 6a5e 80b8 b35d a039 67c5 2b38 953e 1db9
000002e0: 2829 7eba a8a3 a13b e17c 403a b29f 14bb
000002f0: 39b8 1dbb ecc5 533c a877 fc3a 9526 c2bb
00000300: de60 c639 002b 48bb 40f2 e3b9 71fd b73a
00000310: 9dcb 6139 28b2 5eba fe36 07b9 a529 d039
00000320: e320 e4b9 dd4f 2b3b 2329 c339 fddc 9fba
00000330: a335 2f3a 7593 72bb a0e2 0cba 1ec4 df3a
00000340: 2f93 d1b9 ef74 183b 264a b139 8024 8dba
00000350: 36fb a6ba cee5 d53b 54a2 7f3a b3ac 44bb
00000360: 7d51 4fba 7b70 b23b 35d4 4c3a 1a2a 25bb
00000370: 88e6 0f3b a90f 47bc 269e edba 47fb b53b
00000380: c865 60b9 f2b8 a03a 94e6 3939 7c8d 15ba
00000390: 2651 efba 4b5b 273c 0c41 c63a 995b 99bb
000003a0: 3b96 133b 6924 27bc 3f1c cdba bbd1 983b
000003b0: 6b45 87bb a4e8 bd3c 0f6f 613b 5a11 2ebc
000003c0: 75c8 21bb 7eed 603c df6e 043b 36f2 cebb
000003d0: 21d6 213b 9bf3 62bc ce28 06bb 944d d03b
000003e0: ed6f 1a3b 4db3 73bc 66ba 0dbb b5f6 e03b
000003f0: 1349 023a 270e 22bb aade c8b9 5689 913a

exp_avg_sq f4 [64, 4]
0.0011836638 0.0008009751 2.4292707e-05 0.00014233208 0.0017990515 0.001199956 3.6580448e-05 0.00021747411
0.00032419682 0.00020159369 6.1890682e-06 3.5955392e-05 0.0024767912 0.0015381011 4.804726e-05 0.00027706713
0.00036268978 0.00022420177 6.6532284e-06 4.0477596e-05 0.00030409143 0.00019505763 6.4017886e-06 3.35192e-05
2.5777783e-05 1.618471e-05 5.61339e-07 2.740943e-06 0.00013029457 7.9097845e-05 2.4060848e-06 1.4833088e-05
0.0010919772 0.00068906334 2.2520386e-05 0.00012698553 0.0009179094 0.0005978663 1.8053577e-05 0.00010710395
9.0254e-05 5.7270798e-05 1.8214828e-06 1.01136475e-05 1.0609692e-05 6.2592267e-06 2.2650704e-07 1.1597115e-06
0.00013078928 8.5442494e-05 2.672677e-06 1.5549105e-05 9.445712e-05 6.398355e-05 1.9597217e-06 1.0860302e-05
0.001853241 0.0011939366 3.6143e-05 0.00021386998 0.00025808744 0.00016313443 5.1491024e-06 2.9795225e-05
2.6062705e-06 1.283809e-06 4.0458758e-08 2.3224362e-07 2.834543e-05 2.0647723e-05 5.9740023e-07 3.3384354e-06
0.00036850004 0.00023885338 7.14454e-06 4.1206575e-05 0.003202494 0.0019935598 6.0839866e-05 0.00036332503
2.6775167e-05 2.0812866e-05 6.255597e-07 3.249606e-06 0.0001287669 7.67388e-05 2.3735713e-06 1.4252667e-05
0.001201353 0.0007334984 2.389776e-05 0.000140303 0.0030613344 0.0019552577 6.0696788e-05 0.00035114566
0.00027291258 0.0001852528 6.0340994e-06 3.0513795e-05 0.0022396222 0.0014376955 4.497791e-05 0.00026445926
0.0002036017 0.000120843215 3.573756e-06 2.2283866e-05 0.009291861 0.0058750594 0.00017895336 0.0010692613
0.00012450026 7.209923e-05 2.1388944e-06 1.3708505e-05 0.0015797778 0.0010807819 3.310068e-05 0.00018626581
1.6896423e-06 1.0350067e-06 3.9736378e-08 2.41433e-07 0.0003269361 0.00020353583 6.095252e-06 3.6279394e-05
0.0010499051 0.00066179456 2.065248e-05 0.00011614739 4.7925146e-06 2.891201e-06 1.2200522e-07 8.461698e-07
0.0027101238 0.0018359072 5.4994918e-05 0.0003219611 0.0026136164 0.001656387 5.1256375e-05 0.00030869874
0.001694033 0.0010549477 3.2040665e-05 0.00019019828 0.0006818199 0.0004130307 1.2371289e-05 7.401384e-05
5.0844952e-05 3.2778073e-05 1.015001e-06 6.0497578e-06 0.0020061946 0.0013735694 4.1301824e-05 0.00024512646
0.0008052723 0.0005132795 1.5441727e-05 9.250351e-05 0.0020871582 0.0013297594 4.0965886e-05 0.00024976287
0.00012217143 6.882888e-05 2.1316207e-06 1.3078776e-05 0.00021906111 0.0001374983 4.600762e-06 2.5844896e-05
0.00021678602 0.00013197387 4.3092473e-06 2.4696386e-05 2.5083386e-06 1.3689564e-06 5.055057e-08 2.163874e-07
0.000804411 0.00048285694 1.6384858e-05 8.7556116e-05 0.0037021511 0.0023824507 7.134452e-05 0.0004200067
0.00019139977 0.00012665206 3.853506e-06 2.2937842e-05 3.400874e-05 2.5915848e-05 7.743887e-07 4.017938e-06
0.0001349407 8.5699496e-05 2.7874237e-06 1.5812699e-05 0.00034340986 0.0002135773 6.996373e-06 4.1115774e-05
0.000106979285 6.8318026e-05 2.1581952e-06 1.2371341e-05 0.00090421736 0.0005737641 1.7469418e-05 0.00010219488
0.0005665945 0.00035582206 1.1473373e-05 6.462475e-05 0.0026445817 0.0016389946 5.0331888e-05 0.0002991299
5.2535066e-05 3.429747e-05 1.1172738e-06 5.835844e-06 0.0017633671 0.0011305204 3.436554e-05 0.00020815893
0.002260477 0.0013990243 4.273777e-05 0.00025240786 0.009883165 0.006073719 0.0001867722 0.0011121118
0.0031782272 0.0020113152 6.408395e-05 0.00037899936 0.0033276828 0.0021203426 6.466788e-05 0.0003893908
0.0044230586 0.0027700784 8.835022e-05 0.0004950874 7.318193e-05 4.2554566e-05 1.2376867e-06 8.018742e-06
00000000: 2b25 9b3a 87f8 513a 31c8 cb37 fa3e 1539
00000010: 27ce eb3a d847 9d3a f56d 1938 c309 6439
00000020: f6f8 a939 e562 5339 b1ab cf36 cfce 1638
00000030: a951 223b 1c9a c93a 5a86 4938 5243 9139
00000040: 6627 be39 b417 6b39 cc3e df36 7dc6 2938
00000050: 766e 9f39 6288 4c39 f2ce d636 f896 0c38
00000060: 5e3d d837 66c4 8737 ecae 1635 0bf1 3736
00000070: af9f 0839 55e1 a538 3978 2136 a1db 7837
00000080: ad20 8f3a 42a2 343a 29ea bc37 6b27 0539
00000090: db9f 703a 21ba 1c3a c371 9737 ff9c e038
000000a0: bf46 bd38 0d36 7038 ac79 f435 c9ad 2937
000000b0: 4800 3237 5906 d236 c835 7334 62a7 9b35
000000c0: 7b24 0939 972f b338 3e5c 3336 736f 8237
000000d0: 4817 c638 e82e 8638 c383 0336 a434 3637
000000e0: 73e8 f23a dd7d 9c3a 4098 1738 4942 6039
000000f0: e94f 8739 110f 2b39 74c6 ac36 c2f0 f937
00000100: 63e7 2e36 574f ac35 e0c4 2d33 a45e 7934
00000110: 59c7 ed37 a634 ad37 085d 2035 e209 6036
00000120: 3d33 c139 b774 7a39 22bb ef36 39d5 2c38
00000130: efe0 513b 62a6 023b 4f2e 7f38 a97c be39
00000140: 3c9b e037 4a97 ae37 23ec 2735 ce13 5a36
00000150: 9a05 0739 d4ee a038 a549 1f36 bd1e 6f37
00000160: b876 9d3a 3f48 403a 0c78 c837 4d1e 1339
00000170: aba0 483b c823 003b ae94 7e38 f919 b839
00000180: b515 8f39 6b40 4239 8578 ca36 e0f7 ff37
00000190: a0c6 123b 0e71 bc3a aaa6 3c38 1fa7 8a39
000001a0: ea7d 5539 356d fd38 a9d4 6f36 3dee ba37
000001b0: e43c 183c 9283 c03b 6da5 3b39 7526 8c3a
000001c0: 498c 0239 fb33 9738 ed89 0f36 95fd 6537
000001d0: 8c10 cf3a 06a9 8d3a 96d5 0a38 5950 4339
000001e0: abc7 e235 8fea 8a35 9caa 2a33 4d9e 8134
000001f0: 9f68 ab39 3c6c 5539 d185 cc36 b42a 1838
00000200: f89c 893a 487c 2d3a dd3e ad37 2894 f338
00000210: 63cf a036 7406 4236 8a00 0334 5924 6335
00000220: 559c 313b d3a2 f03a 58aa 6638 e3cc a839
00000230: 3549 2b3b 201b d93a 1dfc 5638 d8d8 a139
00000240: 510a de3a 2c46 8a3a 6763 0638 f66f 4739
00000250: 29bc 323a 0b8c d839 488e 4f37 e137 9b38
00000260: 5a42 5538 307b 0938 2b3b 8835 06ff ca36
00000270: 5c7a 033b 5709 b43a 7f3b 2d38 5184 8039
00000280: e918 533a 9b8d 063a db88 8137 72fe c138
00000290: b4c8 083b 524b ae3a c9d2 2b38 9bf2 8239
000002a0: 251b 0039 3958 9038 f70c 0f36 ea6c 5b37
000002b0: c5b3 6539 6b2d 1039 3f60 9a36 7ecd d837
000002c0: 0e51 6339 7762 0a39 2798 9036 162b cf37
000002d0: ee54 2836 fcbc b735 f11c 5933 1e58 6834
000002e0: 1cdf 523a f627 fd39 3772 8937 559e b738
000002f0: ca9f 723b e422 1c3b cc9e 9538 5834 dc39
00000300: 7cb2 4839 e7cd 0439 5d4d 8136 a46a c037
00000310: 9ba4 0e38 dc65 d937 96df 4f35 d3d1 8636
00000320: de7e 0d39 91b9 b338 930f 3b36 83a5 8437
00000330: b10b b439 b8f3 5f39 63c2 ea36 ba73 2c38
00000340: 115a e038 f645 8f38 83d5 1036 818e 4f37
00000350: 0009 6d3a a868 163a 4a8b 9237 7551 d638
00000360: 8387 143a a18d ba39 c37d 4037 2687 8738
00000370: b850 2d3b 88d3 d63a 741b 5338 89d4 9c39
00000380: 1959 5c38 a1da 0f38 3cf5 9535 85d1 c336
00000390: c820 e73a f82d 943a b823 1038 3d45 5a39
000003a0: 8324 143b 775f b73a 5541 3338 9c55 8439
000003b0: 00ed 213c 0c06 c73b 48d8 4339 48c4 913a
000003c0: ce49 503b 45d0 033b cf64 8638 6fb4 c639
000003d0: 4115 5a3b 72f5 0a3b 4e9e 8738 2627 cc39
000003e0: 4eef 903b 348a 353b aa48 b938 c1c8 013a
000003f0: 4079 9938 9e7c 3238 971e a635 3c88 0637

exp_avg f4 [64]
-0.015757501 0.023613986 0.010367663 -0.024883524 -0.009149863 -0.006918661 0.0020736062 0.0057431897
0.017341383 0.015181381 0.0056208274 0.0016957222 0.0068584383 -0.0050905608 -0.021805467 0.0076778326
0.00030306046 -0.0012860763 -0.009745565 0.031248594 -0.0020394225 0.0058488916 0.023144752 0.029000409
-0.0045315707 0.028220097 0.0071798544 0.053561877 -0.0061650528 -0.017846048 0.0011708268 -0.008012855
-0.015727594 0.00025999648 0.025572894 -0.031040026 0.020079855 0.012155696 0.003436261 -0.02214382
-0.014322263 -0.02858981 -0.00597978 -0.009822728 -0.009698606 0.0012460846 0.0129816495 0.031450603
-0.0066821203 -0.002745853 0.007654343 -0.010639786 0.005988255 0.01682031 0.012592779 -0.028284874
0.003099558 0.02416704 -0.026586123 0.055357207 0.03490715 -0.033505075 -0.034597073 -0.0048375702
00000000: e015 81bc 1e72 c13c 21dd 293c 88d8 cbbc
00000010: 4fe9 15bc efb5 e2bb 57e5 073b 5e31 bc3b
00000020: 840f 8e3c 54bb 783c eb2e b83b ff42 de3a
00000030: c0bc e03b b8ce a6bb 61a1 b2bc 5496 fb3b
00000040: 16e4 9e39 8f91 a8ba ddab 1fbc 0dfd ff3c
00000050: d5a7 05bb 0fa8 bf3b 109a bd3c 4492 ed3c
00000060: 927d 94bb d52d e73c fc44 eb3b b363 5b3d
00000070: 3604 cabb e031 92bc 6e76 993a 5a48 03bc
00000080: 28d7 80bc 2350 8839 3f7e d13c a747 febc
00000090: 827e a43c af28 473c e532 613b f566 b5bc
000000a0: eda7 6abc 2d35 eabc 08f2 c3bb 82ef 20bc
000000b0: e7e6 1ebc a953 a33a fcb0 543c 59d2 003d
000000c0: b0f5 dabb c5f3 33bb 48d1 fa3b 7f52 2ebc
000000d0: 2039 c43b bfca 893c f151 4e3c aeb5 e7bc
000000e0: f421 4b3b f5f9 c53c 24cb d9bc 3dbe 623d
000000f0: cdfa 0e3d 9e3c 09bd a9b5 0dbd 7b84 9ebb
