training_results/cartpole_null/rarl/seed_42/1000000steps/checkpoints/model_200000.pt (torch, 277065 bytes, 66 tensors)

actor.pi_net.fcs.0.weight f4 [64, 4]
0	0xbeac3781	-0.33636096
1	0x3f01dd1f	0.5072803
2	0x3ebcbc5d	0.3686246
3	0x3f0ad298	0.5422759
4	0xbed8b58b	-0.42326006
5	0x3c678936	0.014131835
6	0x3e182a25	0.14859827
7	0xbf0a8485	-0.5410846
8	0x3e9ebe1f	0.31004426
9	0xbec81b4c	-0.39083326
10	0xbf0d6c83	-0.552437
11	0xbee668c5	-0.45001808
12	0xbdfd8ade	-0.123800024
13	0xbe73490c	-0.23758334
14	0x3ef2a0f5	0.47388425
15	0x3e25b852	0.16183594
16	0x3e3430d5	0.17596753
17	0x3e5a2095	0.21301492
18	0x3e366fff	0.1781616
19	0x3f027f95	0.50975925
20	0xbeb8e4b6	-0.36111993
21	0xbeba9d93	-0.36448345
22	0x3db57519	0.08860225
23	0x3f19e91c	0.6012132
24	0x3e301f48	0.17199433
25	0x3e8c2664	0.2737304
26	0xbe750928	-0.23929274
27	0xbe8cc128	-0.27491117
28	0xbe36a4e5	-0.1783634
29	0x3e78fa9e	0.24314353
30	0xbe457d24	-0.19286019
31	0x3dad992e	0.08476482
32	0x3ec8cc8f	0.39218566
33	0x3e81285a	0.25226098
34	0xbec52d49	-0.38511112
35	0xbf1dbf67	-0.6162018
36	0x3ea39af8	0.3195417
37	0xbe4caaff	-0.19987105
38	0xbed7467d	-0.42045966
39	0x3cf7de1e	0.03025728
40	0x3ceb8960	0.028752029
41	0xbed2b8ab	-0.41156515
42	0x3de6bf76	0.11266987
43	0xbeeb81fd	-0.4599761
44	0xbee30bb7	-0.44344875
45	0xbea2150c	-0.31656682
46	0x3dfd37ab	0.123641334
47	0x3e27821e	0.1635823
48	0xbea5beee	-0.3237223
49	0x3e19d0ee	0.15021107
50	0xbe886d99	-0.26646116
51	0xbe6354ce	-0.22200319
52	0x3db62002	0.08892824
53	0x3e2ae3c4	0.16688448
54	0xbe97e649	-0.2966788
55	0x3ef93263	0.48671255
56	0xbe42e8f8	-0.19034183
57	0x3dcb08b1	0.09913767
58	0x3eac5f9b	0.3366669
59	0x3f0ffe0a	0.5624701
60	0x3eb75983	0.3581048
61	0x3e53dfef	0.20690893
62	0xbe97b220	-0.29628086
63	0xbea40b2c	-0.32039773
64	0x3ea38720	0.3193903
65	0xbe228fdd	-0.15875192
66	0xbe91443d	-0.28372374
67	0x3ea7cf06	0.32775134
68	0xbea08e04	-0.3135835
69	0x3c258e39	0.010104709
70	0xbecab221	-0.39589027
71	0x3ea50e2f	0.32237384
72	0xbeb92d04	-0.36167157
73	0x3e4f5337	0.20246588
74	0x3ed928f3	0.42414054
75	0x3f1c830a	0.6113745
76	0x3cd56520	0.026049197
77	0x3d94f59c	0.07273409
78	0xbeba63bb	-0.36404213
79	0xbe216cc7	-0.15764152
80	0xbf04dab7	-0.5189623
81	0x3dfd64e7	0.12372761
82	0x3dc320ab	0.09527715
83	0x3ef50145	0.4785253
84	0xbd9b2eea	-0.075773075
85	0x3e90f366	0.28310698
86	0xbc7de486	-0.015496379
87	0xbee4f10c	-0.44715154
88	0xbeb416cc	-0.35173643
89	0xbec82196	-0.39088124
90	0xbf02a642	-0.5103494
91	0xbda62beb	-0.081138454
92	0x3edc8d9d	0.43076792
93	0xbed94e07	-0.42442343
94	0xbeedb646	-0.46428126
95	0xbdb355a3	-0.08756568
96	0xbedc12d0	-0.42983103
97	0xbe10312e	-0.1408126
98	0xbe2ee84a	-0.17080799
99	0x3efd8e97	0.4952285
100	0xbeb94aca	-0.36189872
101	0xbe43adb0	-0.19109225
102	0xbf2020f9	-0.6255031
103	0xbeb93190	-0.36170626
104	0xbedd25f1	-0.4319301
105	0xbef5bb20	-0.47994328
106	0x3e04aca7	0.12956487
107	0xbdfa909d	-0.12234614
108	0xbe34c80f	-0.17654441
109	0xbe42f076	-0.19037041
110	0xbed9dac7	-0.42549726
111	0xbf181431	-0.5940581
112	0x3eebce60	0.4605589
113	0xbe6b4c3d	-0.22978301
114	0x3e6c72fd	0.2309074
115	0xbd810903	-0.06300547
116	0xbf0831ff	-0.5320129
117	0x3d4b0b0c	0.049571082
118	0x3e30bec7	0.17260276
119	0x3f14b31d	0.58085805
120	0x3e398b37	0.18119512
121	0x3d9fe596	0.07807462
122	0xbf010bdd	-0.50408727
123	0x3e507443	0.2035685
124	0x3da0dcc8	0.07854611
125	0x3f107db7	0.56441826
126	0xbe115f70	-0.14196563
127	0x3efcb544	0.49357045
128	0xbe46a769	-0.193998
129	0xbe4eab20	-0.20182467
130	0x3f095bae	0.5365552
131	0x3e9ea89b	0.3098801
132	0xbecb7a6b	-0.39741835
133	0x3ef029cc	0.46906888
134	0x3ea50215	0.3222815
135	0xbe22a4cb	-0.15883176
136	0x3ede20bf	0.43384358
137	0xbdb80836	-0.08985941
138	0xbec0a8df	-0.37628838
139	0xbe3c92fd	-0.18415447
140	0x3eb29b5d	0.34884158
141	0x3e2d0701	0.16897203
142	0x3e87b3f6	0.26504487
143	0x3de9f95e	0.11424516
144	0xbe7299eb	-0.23691528
145	0xbeb8e3a8	-0.36111188
146	0xbec41b0d	-0.38301888
147	0xbeae2f0f	-0.34020278
148	0xbed18e03	-0.4092866
149	0xbf07e9cf	-0.5309114
150	0x3e133b5c	0.14378113
151	0xbeebe524	-0.46073258
152	0x3e83dfed	0.2575678
153	0x3eb56bec	0.354339
154	0x3d1a7804	0.037712112
155	0xbe948ed4	-0.2901522
156	0xbedcd8c1	-0.4313412
157	0x3e80cbd8	0.2515552
158	0x3f33cca6	0.70234144
159	0x3effa1ed	0.49928227
160	0xbd8a757c	-0.067606896
161	0x3d30b8d4	0.043145016
162	0x3eeb036e	0.45901054
163	0x3ebb790d	0.36615792
164	0x3ee114ba	0.43961126
165	0x3dfeff23	0.12451007
166	0x3eaf513a	0.34241658
167	0x3ceb6ca1	0.028738322
168	0x3ec0a748	0.37627625
169	0xbee9dbe2	-0.4567557
170	0x3a0cfb14	0.000537799
171	0x3eb47f80	0.35253525
172	0x3ea2cdba	0.31797582
173	0x3f02db84	0.51116204
174	0xbeb2bc26	-0.3490917
175	0x3ec73416	0.38906926
176	0x3e122eb4	0.14275628
177	0x3eda9cb4	0.4269768
178	0xbe1c6574	-0.15273076
179	0x3e901661	0.28142074
180	0xbe27edab	-0.16399257
181	0xbeb97850	-0.36224604
182	0x3ed1e142	0.4099217
183	0xbe73127b	-0.23737518
184	0x3e66980b	0.22518937
185	0x3ec321d3	0.38111743
186	0x3d7863b2	0.06064195
187	0xbf1d6c2a	-0.6149317
188	0x3e856942	0.26056868
189	0xbe2c4346	-0.16822538
190	0xbf17395d	-0.59071904
191	0xbf02cde4	-0.51095414
192	0xbe98bfbf	-0.2983379
193	0xbda2a0d4	-0.07940832
194	0x3eec38f6	0.46137208
195	0xbd48c92e	-0.049019985
196	0xbf04157f	-0.515953
197	0x3ec91a2a	0.39277774
198	0xbe3f0d50	-0.18657422
199	0x3ed96124	0.42456925
200	0xbec04ed3	-0.37560138
201	0xbe326c9c	-0.17424244
202	0xbea7ebca	-0.3279708
203	0xbd9e85ed	-0.07740388
204	0xbeb32535	-0.34989324
205	0xbeb10994	-0.3457762
206	0x3f19de79	0.6010509
207	0x3f1cb435	0.61212474
208	0xbdaf11cc	-0.08548316
209	0x3e453f02	0.19262317
210	0xbf0742a0	-0.52836037
211	0x3d59a119	0.05313215
212	0xbc8e54ce	-0.017374422
213	0xbdeb283d	-0.11482284
214	0xbf1fc989	-0.62416893
215	0xbe87d82e	-0.2653212
216	0xbe9c4484	-0.30521023
217	0x3ee9301a	0.4554451
218	0xbeefb6b6	-0.46819085
219	0xbe8aed99	-0.27134398
220	0x3de88731	0.11353911
221	0x3e8bdd82	0.27317435
222	0xbca30f39	-0.01990472
223	0x3e65b438	0.22432029
224	0x3ead6034	0.3386246
225	0x3e9471a3	0.28992948
226	0xbf00e2da	-0.5034615
227	0xbea400cd	-0.3203186
228	0xbed41596	-0.4142272
229	0x3e0a6f7f	0.13519095
230	0xbdd9ce2c	-0.10635027
231	0xbe66db59	-0.22544612
232	0xbe97afcb	-0.29626307
233	0x3ee27551	0.4423013
234	0x3f44353e	0.7664374
235	0x3f103fd4	0.56347394
236	0x3cfe41f0	0.0310373
237	0xbe9ed18a	-0.3101924
238	0xbeff95fa	-0.4991911
239	0xbe8577b1	-0.2606788
240	0xbee024d6	-0.43778104
241	0xbecd21af	-0.4006476
242	0xbe610c00	-0.21977234
243	0xbe98ac28	-0.29818845
244	0x3e840fef	0.25793406
245	0x3dbe78e6	0.09300403
246	0x3e1a5ab1	0.15073659
247	0x3e7b9edf	0.24572323
248	0x3e8e2170	0.27759886
249	0xbe86544b	-0.26236185
250	0x3f141144	0.57838845
251	0x3f333c6a	0.7001406
252	0x3ef6e37b	0.4822043
253	0x3ea77c29	0.32711914
254	0xbf02fbdf	-0.51165575
255	0x3d41d104	0.047318473

actor.pi_net.fcs.0.bias f4 [64]
0	0x3eb1d03f	0.34729192
1	0x3d1be02c	0.038055584
2	0x3eba1f44	0.3635198
3	0x3b2f7ce2	0.0026777317
4	0x3ef1bb8f	0.47213408
5	0xbeb003e4	-0.34377968
6	0x3e84be50	0.25926447
7	0xbe9698cd	-0.29413453
8	0xbe3e9547	-0.18611632
9	0xbe011e0d	-0.1260912
10	0x3ebb6750	0.3660226
11	0xbe3a52b7	-0.18195616
12	0x3e7872a8	0.24262488
13	0xbef3a490	-0.4758649
14	0x3e540cdc	0.2070803
15	0xbe4670a0	-0.193789
16	0xbe65112c	-0.22369832
17	0x3e874792	0.2642179
18	0xbedff89e	-0.43744367
19	0x3d24ea53	0.04026253
20	0xbebaa416	-0.36453313
21	0xbed9cd33	-0.42539367
22	0x3e36b03e	0.17840669
23	0x3c18e300	0.009331465
24	0xbbcd70fa	-0.0062695714
25	0x3e461e30	0.19347453
26	0xbea4feda	-0.32225686
27	0x3d0acdfb	0.033887845
28	0x3e8a155a	0.26969415
29	0xbd79be14	-0.06097229
30	0x3dca313f	0.09872674
31	0x3ed4337f	0.41445538
32	0xbe7f8a04	-0.24954993
33	0xbe7069b3	-0.23477821
34	0xbd275993	-0.04085691
35	0xbd2f2c5c	-0.042766914
36	0xbe90f556	-0.28312176
37	0xbec7283e	-0.3889789
38	0xbeecdf3e	-0.4626407
39	0x3e6ba87c	0.2301349
40	0x3ea428ad	0.32062283
41	0xbcfc5535	-0.030802349
42	0x3ed46119	0.4148033
43	0xbe753715	-0.23946793
44	0xbe32e42d	-0.17469855
45	0x3eac55e0	0.33659267
46	0xbdb16a92	-0.08662905
47	0x3e0dd710	0.13851571
48	0x3eb949a4	0.36188996
49	0xbedf2aad	-0.43587247
50	0x3ef780e1	0.48340514
51	0x3ebc9af9	0.36836985
52	0x3e9cbb39	0.3061159
53	0x3e8ee85a	0.27911645
54	0x3e21e5ab	0.15810268
55	0x3d88bfee	0.06677233
56	0x3ec2228e	0.37916988
57	0xbd13fdd8	-0.036130756
58	0xbe753a23	-0.23947959
59	0xbc5d7df1	-0.013518796
60	0x3d8854d7	0.06656807
61	0xbcd850d2	-0.026405726
62	0xbddd14a4	-0.107949525
63	0x3e7ea14c	0.24866217

actor.pi_net.fcs.1.weight f4 [64, 64]
0	0x3daf7c95	0.08568684
1	0x3d4de42c	0.05026643
2	0xbdb3b174	-0.08774081
3	0x3de91176	0.113802835
4	0xbd3f7a5d	-0.046747554
5	0x3dd0ae97	0.1018955
6	0x3dac74f4	0.084207445
7	0xbd22dd44	-0.039761797
8	0xbdc705a8	-0.09717876
9	0x3b842525	0.0040327483
10	0x3d3703d4	0.044681385
11	0x3d92013c	0.07129142
12	0x3dc1d74a	0.09464891
13	0x3d6220be	0.055207007
14	0x3e11028a	0.14161125
15	0xbd17a749	-0.03702477
16	0xbdb5d556	-0.08878581
17	0xbd21f666	-0.039541624
18	0x3da0c1ca	0.07849462
19	0xbe149950	-0.14511609
20	0x3cbd62d1	0.023118408
21	0x3d738b55	0.05945905
22	0xbdeaceac	-0.11465201
23	0xbe3fbab1	-0.18723561
24	0x3e003fe3	0.12524371
25	0xbdbcf115	-0.0922567
26	0x3d21d85c	0.039512977
27	0xbe3b06fb	-0.18264382
28	0x3dd8bd41	0.10582972
29	0x3d987ee1	0.07446075
30	0x3de592c7	0.11209636
31	0xbd45fed5	-0.04833873
32	0xbd80ba37	-0.06285518
33	0xbcae9302	-0.021310333
34	0xbdb8aa3a	-0.09016843
35	0x3d8658af	0.06559884
36	0xbcd45381	-0.025918724
37	0xbe0923d9	-0.13392581
38	0x3d8535db	0.06504413
39	0x3d2efcf3	0.0427217
40	0xbc2ca2ec	-0.0105368905
41	0x3d0b0414	0.033939436
42	0x3dd882e3	0.1057184
43	0xbdd21fbb	-0.10259958
44	0xbb653f0b	-0.0034980203
45	0xbcdef452	-0.02721611
46	0xbd7e67ea	-0.06211082
47	0xbdf656c3	-0.12028267
48	0xbd879f03	-0.06622126
49	0xbd54d0b4	-0.051956847
50	0x3d014387	0.03155854
51	0x3d06f23c	0.032945856
52	0xba2ca9f4	-0.0006586604
53	0xbd9c0d8d	-0.07619772
54	0xbdff5058	-0.12466496
55	0x3d007026	0.031356953
56	0x3dc32116	0.09527795
57	0xbdc6c2af	-0.09705102
58	0x3c007267	0.007839776
59	0xbe38b620	-0.18038225
60	0xbe162214	-0.14661437
61	0xbd471d4a	-0.048611917
62	0x3e04e172	0.12976626
63	0xbd78f0e1	-0.060776595
64	0x3db400cb	0.08789214
65	0xbd12f6ff	-0.035880085
66	0x3d2ebf09	0.042662654
67	0xbc88aed8	-0.016684934
68	0xbd89400a	-0.067016676
69	0xbd6ee75f	-0.05832612
70	0x3d4ad7fd	0.04952239
71	0x3c92bea6	0.017913174
72	0xbd3d6029	-0.046234284
73	0xbd1e06df	-0.03858077
74	0x3d063240	0.032762766
75	0xbd806d61	-0.06270862
76	0x3b0c3bce	0.002139795
77	0x3d9bedc3	0.07613709
78	0x3c20fa9c	0.009825375
79	0xbdf5161d	-0.119671084
80	0x3d2993ea	0.041400827
81	0x3d562420	0.052280545
82	0x3dca23e1	0.098701246
83	0x3ce68116	0.028137725
84	0x3df90be8	0.12160474
85	0xbd4f062c	-0.050542995
86	0xbc8fc318	-0.017549083
87	0xbe0333b2	-0.12812689
88	0xbd62f1fa	-0.055406548
89	0xbd5b2eb1	-0.053511325
90	0xbdccc6b8	-0.0999884
91	0xbd05f53d	-0.03270458
92	0x3dfc11f5	0.123081125
93	0xbcb1fd56	-0.021727245
94	0x3d3123a1	0.04324687
95	0x3ca8c6f1	0.020602675
96	0xbcea47cb	-0.028598687
97	0x3cfb1e4a	0.030654091
98	0x3bfbc76e	0.007683686
99	0x3e072453	0.1319745
100	0xba8c127b	-0.001068666
101	0xbdc0e2cd	-0.09418259
102	0xbc758ef8	-0.0149877
103	0x3d895dbe	0.06707333
104	0x3ddf4c85	0.10903267
105	0xbdb9dd3b	-0.090753995
106	0x3d80bf75	0.062865175
107	0xba23c561	-0.00062473683
108	0x3de43f32	0.11144866
109	0xbd4417c0	-0.047874212
110	0xbd1fa698	-0.038977236
111	0xbc116666	-0.008874511
112	0xbce3cc18	-0.02780728
113	0xbdcd4408	-0.100227416
114	0xb9f2b51c	-0.00046292774
115	0xbc3033a9	-0.010754504
116	0xbcabe852	-0.020984802
117	0x3d9be8f5	0.076127924
118	0xbe0a1766	-0.13485488
119	0x3c5b94bc	0.01340216
120	0xbd86ed1d	-0.065881945
121	0xbd895d3d	-0.06707237
122	0xbcecdce3	-0.02891392
123	0x3d119e12	0.03555114
124	0x3da89a83	0.08232596
125	0x3cd34950	0.025791794
126	0xbd655969	-0.05599347
127	0x3b2c2224	0.0026265467
128	0x3d8b7ffa	0.06811519
129	0x3dc0b061	0.094086416
130	0xbb3faeb2	-0.0029248414
131	0xbda0b3d8	-0.078468025
132	0xbd3ee7f8	-0.04660794
133	0xbc8a29df	-0.016865669
134	0x3db3714c	0.08761844
135	0xbca1fc32	-0.019773576
136	0x3e131e65	0.14367063
137	0x3e0f4651	0.13991667
138	0xbc555b65	-0.013022278
139	0xbdba80a2	-0.09106566
140	0xbb7b815a	-0.003837666
141	0x3d0aca3e	0.03388428
142	0x3d4a6937	0.049416747
143	0x3e134e96	0.14385447
144	0xbd482e43	-0.048872244
145	0x3da816dc	0.08207485
146	0xbb4a741f	-0.0030891967
147	0x3d85db81	0.06536008
148	0xbd80268f	-0.062573545
149	0xbdc12151	-0.09430183
150	0x3dbf114e	0.093294725
151	0x3e17b435	0.14814837
152	0xbe0efa61	-0.139627
153	0xbd4e0adb	-0.05030332
154	0x3c06dc74	0.008231271
155	0x3dafaab3	0.0857748
156	0x3d2fb5ec	0.042898104
157	0xbc7e6a81	-0.015528322
158	0x3dd50193	0.10400691
159	0xb8f282b5	-0.00011563805
160	0xbe13ea43	-0.14444833
161	0x3b89b0f3	0.004202002
162	0x3cb180c4	0.021667846
163	0xbe03bdb1	-0.1286533
164	0x3e1ef060	0.15521383
165	0xbc85388f	-0.01626232
166	0x3da4b327	0.08041983
167	0x3c87081a	0.016483355
168	0x3bb999cd	0.0056640864
169	0x3d85b9c3	0.06529572
170	0x3c9ed5fb	0.019389143
171	0x3ceb409d	0.028717333
172	0x3cf319a0	0.029675305
173	0x3d8ef48f	0.069802396
174	0x3dd18d44	0.102320224
175	0x3e1f2abc	0.15543646
176	0xbc54a8b2	-0.012979673
177	0x3cb101af	0.021607248
178	0xbdfe3127	-0.12411719
179	0xbcb13701	-0.021632673
180	0x3d88031b	0.06641217
181	0x3d732e5d	0.059370387
182	0x3e185c5f	0.14878987
183	0xbdcb4281	-0.09924794
184	0xba017557	-0.00049384445
185	0x3df9d293	0.12198367
186	0xbd52088b	-0.05127768
187	0x3c645b41	0.013937772
188	0xbd9ecf02	-0.07754327
189	0xbda73445	-0.081642665
190	0xbdd3a282	-0.1033373
191	0xbdaa9122	-0.08328463
192	0xbdeac811	-0.11463941
193	0x3e123d88	0.14281285
194	0xbd65badd	-0.05608641
195	0xbe3fd9bd	-0.18735404
196	0xbd6a15cf	-0.057149705
197	0xbd697ff7	-0.057006802
198	0xbd9cc279	-0.0765428
199	0xbdd88f04	-0.10574153
200	0xbd923a7f	-0.071400635
201	0x3dae5f03	0.08514216
202	0xbd7928e0	-0.060829997
203	0xbd98ca56	-0.074604675
204	0xbc86ccd3	-0.01645509
205	0xbcb49e47	-0.022048129
206	0xbdc739ee	-0.09727846
207	0x3de0485f	0.10951304
208	0x3defa1d6	0.1170079
209	0xbe03e9a2	-0.12882093
210	0xbdf5d8e5	-0.1200426
211	0xbcb90c74	-0.022588946
212	0x3d786949	0.060647283
213	0x3e115606	0.14192972
214	0x3dff9817	0.12480181
215	0xbc69ce40	-0.014270365
216	0x3d4e031a	0.050295927
217	0xbda319ff	-0.07963943
218	0xbd3e0411	-0.046390597
219	0x3d08135d	0.03322159
220	0xbca69219	-0.020333337
221	0xbd2f8cf0	-0.042859018
222	0xbde049db	-0.10951587
223	0xbd8a7db6	-0.06762259
224	0xbbbff077	-0.005857523
225	0x3d8bcdb9	0.06826348
226	0x3adf5870	0.0017039906
227	0x3c8da138	0.01728879
228	0xbd9c05f7	-0.07618325
229	0xbd9b0343	-0.075689815
230	0x3d8ff7d1	0.07029689
231	0xbdd89884	-0.10575965
232	0xbd5e8b8d	-0.054332305
233	0x3c234557	0.009965262
234	0x3d835f6e	0.06414686
235	0x3d8542bd	0.0650687
236	0xbcdf4f72	-0.027259562
237	0xbccc4628	-0.024935797
238	0x3d015a31	0.031580154
239	0x3cca24f7	0.02467583
240	0x3c8f6276	0.017503005
241	0xbbe9655a	-0.0071226778
242	0x3d131e88	0.03591779
243	0xbd146a1a	-0.036234
244	0x3da37f2c	0.079832405
245	0xb96cd67a	-0.00022586613
246	0x3de70dad	0.11281905
247	0x3cd18095	0.025574008
248	0x3deb4d75	0.11489383
249	0xbd046178	-0.032319516
250	0x3d328ff2	0.04359431
251	0x3ae8b198	0.0017753122
252	0xbd68345e	-0.056690566
253	0x3d916b2b	0.07100519
254	0xbe26db40	-0.16294575
255	0x3de612e1	0.112340696

actor.pi_net.fcs.1.bias f4 [64]
0	0xbdd81184	-0.10550216
1	0x3d1a34d0	0.037648022
2	0x3d885c23	0.06658199
3	0x3da2d7e1	0.07951332
4	0x3d88668e	0.06660186
5	0xbd99291a	-0.074785426
6	0xbd276e4a	-0.040876664
7	0xbd4fde1d	-0.050748933
8	0xbc90f82e	-0.017696466
9	0xbd508dbb	-0.050916415
10	0x3db0312b	0.08603128
11	0xbd284471	-0.041080896
12	0x3d302962	0.043008216
13	0xbd0d7481	-0.034534935
14	0xbc3bfbe6	-0.0114736315
15	0xbd162eab	-0.0366656
16	0xbd9f1c67	-0.07769089
17	0x3d0c6eef	0.034285482
18	0x3bd2e936	0.0064364923
19	0xbb4fc632	-0.0031703827
20	0x3d820067	0.06347733
21	0x3d36e711	0.044653956
22	0xbd4972b3	-0.04918165
23	0x3d4ddfc1	0.050262216
24	0x3d3dbc09	0.046321902
25	0x3d938c25	0.07204465
26	0xbd5eddf6	-0.054410897
27	0x3cdfa3d3	0.027299797
28	0x3d79a650	0.060949624
29	0xbd9385eb	-0.07203277
30	0xbd547d61	-0.051877383
31	0xbd8a78a9	-0.06761295
32	0xbdb015d2	-0.08597912
33	0xbddec333	-0.10877075
34	0xbbd34a5d	-0.006448074
35	0x3d2e83e2	0.042606242
36	0x3d8ce525	0.06879643
37	0xbafba3e4	-0.0019198623
38	0xbc587d35	-0.013213445
39	0xbdb2aca3	-0.08724334
40	0x3ca57b63	0.020200437
41	0x3df72624	0.120678216
42	0x3b7ed478	0.0038883965
43	0x3d1c54b1	0.038166706
44	0x3d92f798	0.07176131
45	0xbd5f8591	-0.05457074
46	0xbdbe81e0	-0.093021154
47	0x3d6176b2	0.055044837
48	0xbde78113	-0.11303916
49	0xbda310f4	-0.07962218
50	0x3d0b3791	0.03398854
51	0xbdaa7ebc	-0.08324954
52	0x3dd74035	0.105102934
53	0x3d0c6769	0.034278307
54	0x3dd1b6bb	0.10239931
55	0xbde2c354	-0.11072412
56	0xbd4e2f7a	-0.050338246
57	0x3da11200	0.07864761
58	0x3df08e24	0.11745861
59	0xbcad0560	-0.021120727
60	0xbb98c510	-0.0046621636
61	0x3dbdedf2	0.092739
62	0x3d310ace	0.043223195
63	0xbce72b6e	-0.028218951

actor.pi_net.fcs.2.weight f4 [1, 64]
0	0x3de3442a	0.11096986
1	0x3daa15de	0.08304952
2	0xbd896e85	-0.06710533
3	0xbd6b5a9b	-0.057459455
4	0x3d575128	0.05256763
5	0xbdbef6ca	-0.09324415
6	0x3d4d944a	0.050190248
7	0xbdee3f66	-0.11633186
8	0x3e42ce13	0.19023924
9	0x3d8354e2	0.064126745
10	0x3d9f422a	0.07776292
11	0xbd6a0fb4	-0.057143882
12	0x3d870428	0.065925896
13	0xbde5cb9c	-0.11220476
14	0x3dcd8b20	0.100363016
15	0x3db103e8	0.08643323
16	0xbccb035d	-0.024781877
17	0x3e3b6909	0.18301786
18	0x3e229205	0.15876015
19	0xbe217487	-0.15767108
20	0xbb507ec2	-0.0031813835
21	0xbdaf856b	-0.08570369
22	0x3e03e4b3	0.1288021
23	0x3e07d806	0.13266
24	0xbdcee756	-0.101027176
25	0x3e197f3f	0.14989947
26	0x3db37103	0.0876179
27	0xbda1f0e0	-0.079072714
28	0xbdc6b2f1	-0.09702099
29	0x3df6d660	0.120526075
30	0xbe3637c8	-0.17794716
31	0xbe0a0afb	-0.13480751
32	0xbe29d0a0	-0.1658349
33	0x3dce5a87	0.100758605
34	0xbddd7ec0	-0.10815191
35	0x3e0b5d2b	0.1360976
36	0xbd6c8bbb	-0.057750445
37	0x3dfb4634	0.122692496
38	0x3d68f128	0.05687061
39	0x3d1ef69e	0.03880941
40	0x3da7d5ab	0.08195051
41	0x3c327a29	0.010893383
42	0xbdfa985e	-0.12236093
43	0x3def0fd1	0.116729386
44	0xbdcc900b	-0.099884115
45	0x3e2ff2a1	0.171824
46	0x3cd309bb	0.025761476
47	0x3dfd5b74	0.12370959
48	0xbc6111e3	-0.013737175
49	0x3d67553c	0.05647777
50	0x3df0b4bc	0.11753222
51	0xbe1455e9	-0.14485897
52	0x3e28e99f	0.1649537
53	0x3deab4d0	0.114602685
54	0xbdc88e7f	-0.09792804
55	0xbd81c78f	-0.06336891
56	0x3ddefcd3	0.10888066
57	0x3e039a5e	0.12851855
58	0x3dc89da3	0.09795692
59	0xbe560f7f	-0.20904349
60	0x3d4ab377	0.049487557
61	0x3e146d08	0.14494717
62	0x3e58d59b	0.21175234
63	0x3e58db95	0.21177514

critic.v_net.fcs.0.weight f4 [64, 4]
0	0xbdc1284b	-0.094315134
1	0xbe6ba835	-0.23013385
2	0xbf510725	-0.81651527
3	0xbeaa061b	-0.33207783
4	0xbee0027e	-0.437519
5	0xbeb15ec5	-0.34642616
6	0xbec81d93	-0.39085063
7	0xbf82323e	-1.0171583
8	0xbf2d6416	-0.67730844
9	0xbe7584f8	-0.23976505
10	0xbe6d44e3	-0.2317081
11	0xbf65b380	-0.8972702
12	0x3eeba439	0.4602373
13	0x3e1fd156	0.15607199
14	0xbf047936	-0.51747453
15	0xbeee3c9e	-0.46530622
16	0xbe369f59	-0.17834224
17	0xbe830018	-0.2558601
18	0x3f3c4d7a	0.7355572
19	0x3e2a2d13	0.16618757
20	0xbe4f46fe	-0.20241925
21	0xbe91a993	-0.28449687
22	0xbf9dad06	-1.2318428
23	0xbeac9173	-0.3370472
24	0x3f29d80c	0.66345286
25	0x3f0bbabc	0.5458181
26	0x3e6c80f8	0.23096073
27	0x3f4cba51	0.79971796
28	0x3efb6425	0.49099842
29	0x3ea6c4e4	0.3257209
30	0x3fbcd67b	1.4752954
31	0x3f7df5bf	0.99203104
32	0xbe8b4255	-0.27199045
33	0x3eaa68de	0.33283132
34	0x3f71b897	0.94422287
35	0x3e9ec343	0.31008348
36	0xbf04ea59	-0.51920086
37	0x3ea5f245	0.324114
38	0x3f4a7b21	0.7909413
39	0x3ec5e3b6	0.38650292
40	0xbd9655d0	-0.07340586
41	0xbf05b163	-0.52223796
42	0xbf392dc3	-0.7233545
43	0xbf1f2676	-0.6216806
44	0xbd27abc9	-0.04093531
45	0x3eef13b1	0.4669471
46	0x3f156654	0.58359265
47	0xbd539cfd	-0.051663388
48	0xbf474e3a	-0.7785374
49	0xbed56536	-0.4167878
50	0xbf067853	-0.5252735
51	0xbf1a15fa	-0.60189784
52	0xbf2ac010	-0.66699314
53	0xbd051683	-0.032492172
54	0x3ec731d8	0.38905215
55	0x3e04b970	0.12961364
56	0x3e7d0de9	0.24712338
57	0xbd943cc9	-0.07238156
58	0x3f0a04c5	0.5391353
59	0x3f3f0751	0.7462054
60	0x3e93fd63	0.28904256
61	0x3e6d0f71	0.23150422
62	0x3d6e87fb	0.05823515
63	0x3efee212	0.49781853
64	0xbe7b7893	-0.24557714
65	0xbf0029d0	-0.500638
66	0xbee79c44	-0.4523641
67	0xbf7fa917	-0.99867386
68	0x3dd0ff1f	0.102049105
69	0x3e542596	0.20717463
70	0xbe654a00	-0.2239151
71	0xbf15521a	-0.583284
72	0xbef4ad15	-0.477883
73	0xbf02f86c	-0.5116031
74	0xbfa5e6b7	-1.2961034
75	0xbf527939	-0.8221622
76	0x3df21065	0.11819533
77	0x3d95082b	0.072769485
78	0xbe0d440a	-0.13795486
79	0xbf217ae2	-0.6307813
80	0x3e63504f	0.22198604
81	0x3ed0fcd0	0.4081788
82	0x3ec66537	0.38749096
83	0x3e062379	0.13099469
84	0x3edea2fa	0.43483716
85	0xbeb5bb14	-0.35494292
86	0xbf434921	-0.7628346
87	0xbe9d96f3	-0.30779228
88	0x3e7337e9	0.23751797
89	0xbd2b1fc0	-0.041778326
90	0xbf347a67	-0.7049927
91	0xbe4787f5	-0.19485457
92	0x3cd140bc	0.025543563
93	0xbc16b6ae	-0.009198828
94	0x3f6e07fc	0.92980933
95	0x3e913e0d	0.28367653
96	0x3eb14af9	0.34627512
97	0xbf26e536	-0.651935
98	0xbfc577a7	-1.542714
99	0xbf870afa	-1.0550225
100	0xbe36d9e4	-0.17856556
101	0xbd877180	-0.06613445
102	0xbed5775f	-0.41692635
103	0xbee1cf41	-0.44103435
104	0xbe56d9fb	-0.2098159
105	0xbf18eeb0	-0.5973921
106	0xbf7f0fb5	-0.9963334
107	0xbf33dd25	-0.70259315
108	0xbdd254c6	-0.102700755
109	0x3c9071d7	0.017632408
110	0xbec2af09	-0.38024166
111	0xbf552824	-0.83264375
112	0xbf37687c	-0.71643806
113	0xbf10afc4	-0.565182
114	0xbf02e4c7	-0.51130337
115	0xbeb36687	-0.3503916
116	0x3e862ffe	0.2620849
117	0x3e407f73	0.18798618
118	0xbf861fe8	-1.0478487
119	0xbf5f087a	-0.8712231
120	0xbf290cd7	-0.6603522
121	0xbd4c988e	-0.049950175
122	0x3f1a8b7f	0.60369104
123	0x3dbc0aa6	0.091817185
124	0xbebadd5b	-0.36497006
125	0xbea3d3c6	-0.31997508
126	0xbf699db7	-0.9125628
127	0xbe3d70eb	-0.18500106
128	0xbedbc257	-0.42921707
129	0xbf3ab353	-0.7292988
130	0xbf59d9ac	-0.85097766
131	0xbf152512	-0.5825969
132	0x3dd42ff5	0.103607096
133	0x3f24c81e	0.64367855
134	0x3f5323f1	0.8247672
135	0x3f18b2e1	0.5964795
136	0xbf0040df	-0.50098985
137	0x3efc7304	0.493065
138	0x3fb06ba3	1.3782848
139	0x3efcc09d	0.49365702
140	0xbf32b6a1	-0.6980992
141	0xbe27d875	-0.16391166
142	0xbf1367bc	-0.5758016
143	0xbf542d14	-0.82881284
144	0xbf21ea56	-0.63248193
145	0xbec8d34c	-0.39223707
146	0xbefeaa82	-0.49739462
147	0xbdcbb59f	-0.09946751
148	0xbef4ec58	-0.47836566
149	0xbf176794	-0.5914242
150	0xbf8a89b0	-1.0823269
151	0xbf83649b	-1.0265077
152	0xbe7d4a04	-0.24735266
153	0x3d2d4516	0.042302214
154	0x3f5fc749	0.8741346
155	0x3e0cb8c5	0.13742359
156	0xbd20fbd4	-0.039302662
157	0xbe26fb90	-0.16306901
158	0xbf2ec6a8	-0.68271875
159	0xbd078142	-0.033082254
160	0xbdf58b5e	-0.11989473
161	0xbe8534a0	-0.26016712
162	0x3e7f5dca	0.24938121
163	0x3f2b8d6c	0.6701267
164	0x3ee26907	0.44220755
165	0x3e0c7f9e	0.13720557
166	0x3f7bfd8c	0.98433757
167	0x3f116546	0.56795156
168	0xbc91876a	-0.017764766
169	0x3e224892	0.15847996
170	0x3ecc368c	0.39885366
171	0x3ee8c502	0.45462805
172	0x3ed00374	0.40627635
173	0xbb67375b	-0.0035280797
174	0xbf31e34a	-0.6948744
175	0xbf63ab92	-0.8893367
176	0x3e480637	0.19533621
177	0xbf7053d2	-0.938779
178	0xbfa1f924	-1.2654157
179	0xbf970aca	-1.1800168
180	0xbe9dedff	-0.3084564
181	0xbe531b10	-0.20615792
182	0xbf9f0790	-1.2424183
183	0xbf810689	-1.0080119
184	0xbf167cb6	-0.58784044
185	0xbf15cff1	-0.5852042
186	0xbf7eadb3	-0.99483794
187	0xbf8d5a9d	-1.1043278
188	0x3d81cf1c	0.06338331
189	0x3f3b923a	0.7327
190	0x3fb00c89	1.3753825
191	0x3f95ffc3	1.1718677
192	0x3e278be9	0.16361965
193	0x3ee56bd6	0.44808835
194	0x3f04602b	0.5170924
195	0x3f66b11b	0.9011399
196	0x3df7ec76	0.12105648
197	0x3e357d9b	0.17723696
198	0xbeb13fc5	-0.34618965
199	0xbed05b67	-0.40694734
200	0xbdb31bf5	-0.08745567
201	0xbe9cec06	-0.30648822
202	0xbf8bfabf	-1.0935897
203	0xbf1046ec	-0.5635822
204	0x3cd920aa	0.026504833
205	0x3f10de5e	0.56589305
206	0x3f58f8da	0.8475472
207	0x3dca80cf	0.098878495
208	0xbe7ef1a0	-0.2489686
209	0x3f60f408	0.8787236
210	0x3f93ea5f	1.1555899
211	0x3f3da8ab	0.7408549
212	0xbf00dea8	-0.50339746
213	0xbf398f3c	-0.72484183
214	0xbf0719e2	-0.5277387
215	0xbf132ac9	-0.5748716
216	0x3ecea53d	0.40360442
217	0xbd003f78	-0.03131053
218	0x3e15ad73	0.14616947
219	0x3f6ae5ad	0.9175671
220	0x3f1aa155	0.60402423
221	0xbc0b8ca0	-0.008517414
222	0x3f76ee14	0.9645703
223	0x3f573ca8	0.8407693
224	0xbe2c066a	-0.16799322
225	0xbe40a2f2	-0.18812159
226	0xbf093345	-0.53593856
227	0xbf312e25	-0.69211036
228	0xbe1089c2	-0.1411505
229	0xbc982f17	-0.018577142
230	0x3f80f232	1.0073912
231	0x3ebaa97a	0.36457425
232	0x3e17fd6c	0.14842767
233	0x3ea3c69e	0.3198747
234	0x3f3b9500	0.7327423
235	0x3f8344fe	1.025543
236	0x3ee820a3	0.453374
237	0x3e452260	0.19251394
238	0xbf1e3992	-0.61806595
239	0xbe75f359	-0.24018611
240	0x3d3ff8ad	0.046868015
241	0xbe43d723	-0.19125037
242	0x3f305f2f	0.6889524
243	0x3f43f9f8	0.765533
244	0xbf002f80	-0.5007248
245	0xbdb12dfd	-0.0865135
246	0xbe76f244	-0.24115855
247	0xbf043382	-0.51641095
248	0xbdc85b71	-0.09783066
249	0xbf1e3222	-0.61795247
250	0xbf068809	-0.52551323
251	0xbf3d7674	-0.7400887
252	0xbeeacca2	-0.45859247
253	0xbf03a168	-0.5141816
254	0xbf35f1f4	-0.71072316
255	0xbf7414db	-0.9534432

critic.v_net.fcs.0.bias f4 [64]
0	0xbf1312f7	-0.57450813
1	0xbeaf3a6e	-0.34224266
2	0xbee0bb0e	-0.4389271
3	0x3e80d0ea	0.2515939
4	0xbe80d190	-0.25159883
5	0x3e59b747	0.21261321
6	0x3ea538c1	0.32269862
7	0xbd385f5f	-0.045012828
8	0xbed119de	-0.40840048
9	0xbef42594	-0.4768492
10	0xbf09b078	-0.53784895
11	0xbeabe3a9	-0.33572128
12	0xbeed70a1	-0.46374992
13	0xbe808ae5	-0.25105968
14	0xbeca10f4	-0.3946606
15	0x3ed31c56	0.41232556
16	0xbe79aa53	-0.2438138
17	0xbf139921	-0.5765553
18	0x3e58624f	0.21131252
19	0x3eb89cfa	0.36057264
20	0x3eee8cfe	0.46591944
21	0x3e87990a	0.26483947
22	0x3e8df5ee	0.27726692
23	0xbf146ecd	-0.5798157
24	0x3e4ca68e	0.1998541
25	0xbec0c869	-0.376529
26	0xbe2ee2ad	-0.17078657
27	0xbec9a5a5	-0.3938419
28	0xbeeab3f3	-0.45840415
29	0x3efe5146	0.49671382
30	0xbf1143bb	-0.56743973
31	0x3dcd3c28	0.100212395
32	0x3ded9cc9	0.1160217
33	0xbdf01983	-0.11723616
34	0xbe4051f8	-0.18781269
35	0xbeb85a34	-0.3600632
36	0xbf06c1bd	-0.5263937
37	0xbea9a7c7	-0.33135816
38	0xbe8ad846	-0.2711813
39	0xbe815692	-0.2526136
40	0xbef379dc	-0.4755391
41	0xbe74c25d	-0.23902269
42	0xbf0b0361	-0.5430203
43	0x3e8094ea	0.25113612
44	0xbdc816dd	-0.09769986
45	0xbec96776	-0.39336747
46	0xbe3834d6	-0.17988905
47	0x3e37237f	0.17884634
48	0xbdb6d7f2	-0.08927907
49	0xbf056208	-0.5210271
50	0x3f05cbe2	0.52264225
51	0x3e746f53	0.23870592
52	0x3e70b989	0.23508276
53	0x3ec1b29f	0.3783159
54	0x3efb5993	0.49091777
55	0x3ea4352d	0.3207182
56	0xbf01cce8	-0.5070329
57	0xbe982530	-0.29715872
58	0x3e8121f7	0.25221226
59	0x3f13c57a	0.577232
60	0xbef4e8b4	-0.47833788
61	0xbedb12f3	-0.42787895
62	0x3ead3118	0.33826518
63	0xbea7b6cb	-0.32756647

critic.v_net.fcs.1.weight f4 [64, 64]
0	0xbdb62de4	-0.08895472
1	0xbea84883	-0.32867822
2	0xbebd9dd9	-0.3703449
3	0xbb063a94	-0.0020481693
4	0xbd9265c1	-0.07148314
5	0xbe2f043f	-0.17091464
6	0x3f015b61	0.5053006
7	0x3ea65402	0.32485968
8	0x3cbe2638	0.023211583
9	0xbc4041a6	-0.011734402
10	0xbea8bd34	-0.3295685
11	0x3c907ce7	0.017637683
12	0xbed61908	-0.41815972
13	0xbd1ed7f5	-0.03878017
14	0x3d95bb7c	0.073111504
15	0x3e4d8a9a	0.20072404
16	0xbf1a1cb7	-0.60200065
17	0xbe51883f	-0.2046213
18	0xbe965482	-0.2936135
19	0x3a965594	0.0011469596
20	0x3e3a068f	0.18166564
21	0xbcc7e597	-0.02440147
22	0xbd8327c9	-0.06404073
23	0xbe0c334f	-0.13691448
24	0xbeb12e15	-0.3460547
25	0xbe2e6cf1	-0.17033745
26	0xbf1c43bd	-0.6104086
27	0xbe9eead5	-0.31038538
28	0xbea465db	-0.3210896
29	0xbb349183	-0.0027552552
30	0xbd7e3b24	-0.06206812
31	0xbe70cd2e	-0.2351577
32	0xbea73651	-0.32658628
33	0x3e9b59a7	0.30341837
34	0x3d8048ef	0.06263911
35	0xbecde994	-0.40217268
36	0xbe91fa96	-0.28511494
37	0xbedca5a8	-0.43095136
38	0x3d0eb92b	0.03484456
39	0xbdd3cec0	-0.10342169
40	0x3d8138d2	0.06309666
41	0x3e7059e9	0.23471798
42	0x3d968dbd	0.07351253
43	0xbe8324db	-0.25614056
44	0xbf1a26bb	-0.6021535
45	0xbee76ceb	-0.45200285
46	0xbf268269	-0.6504274
47	0x3f018269	0.50589615
48	0x3eb8154f	0.35953757
49	0xbe47b65d	-0.1950316
50	0x3dc9e969	0.098589726
51	0x3ea361a9	0.31910446
52	0x3f2026d6	0.6255926
53	0x3d1026ce	0.035193257
54	0x3eafbc13	0.34323177
55	0x3ed878c3	0.42279634
56	0xbe9c68b9	-0.30548647
57	0xbd9b3eb8	-0.07580322
58	0x3f1994c0	0.599926
59	0x3d868fc0	0.06570387
60	0xbda702ff	-0.08154868
61	0xbe560047	-0.20898543
62	0xbe2d754a	-0.16939273
63	0xbf062e58	-0.52414465
64	0xbe9eba33	-0.31001434
65	0xbe5b361d	-0.21407361
66	0xbe88813c	-0.26661098
67	0xbc770673	-0.015077221
68	0xbe0a178f	-0.1348555
69	0xbd42f669	-0.047598276
70	0x3dfae32c	0.12250361
71	0x3d90d01d	0.070709445
72	0xbe0b9963	-0.13632731
73	0xbe1005be	-0.1406469
74	0xbe96bd19	-0.29441145
75	0xbe6566ae	-0.2240245
76	0xbea8f77a	-0.3300131
77	0xbd5de88f	-0.054176863
78	0x3bb77a2f	0.005599282
79	0x3e2b8399	0.1674942
80	0xbe828cb4	-0.25497973
81	0xbe0d5e6f	-0.13805555
82	0x3e0887ba	0.13333026
83	0x3d39e83d	0.045387495
84	0x3e849c0a	0.25900298
85	0x3e4d8c6b	0.20073096
86	0x3dbbeb52	0.09175743
87	0xbe4b8bae	-0.19877502
88	0xbd32727b	-0.04356621
89	0xbdf610ea	-0.12014945
90	0xbecb26b0	-0.39677954
91	0xbe965fd6	-0.29369992
92	0xbe45be76	-0.19310936
93	0xbca1ebe0	-0.019765794
94	0xbe032430	-0.12806773
95	0x3daacc65	0.083397664
96	0x3d7208cc	0.05909042
97	0xbc9c586c	-0.019085132
98	0x3bd27770	0.0064229295
99	0xbe08f0d1	-0.13373114
100	0xbd6d4d91	-0.0579353
101	0xbe6c9144	-0.2310229
102	0xbe1b3ac8	-0.15159142
103	0xbe8fab71	-0.28060487
104	0xbe568ccf	-0.20952152
105	0xbe1fdec8	-0.15612328
106	0xbd0d5d8d	-0.034513045
107	0x3c557cbd	0.013030228
108	0xbea61897	-0.32440636
109	0xbe9100e5	-0.28320995
110	0xbeb9f86f	-0.36322352
111	0x3e6574de	0.22407863
112	0x3dd4d06d	0.103913166
113	0xbe9ab2d6	-0.30214566
114	0x3b97ef6f	0.004636697
115	0x3e975281	0.29555133
116	0x3e695a0b	0.22788255
117	0x3e2585e8	0.16164362
118	0x3e62bb48	0.22141755
119	0x3ead7815	0.33880678
120	0xbeb3fd3c	-0.3515414
121	0xbca7ad78	-0.020468459
122	0x3eb68eb7	0.35655758
123	0x3d70400d	0.058654834
124	0xbb836384	-0.004009666
125	0xbe4ae22d	-0.19812842
126	0x3ddd4356	0.10803859
127	0xbeb11d23	-0.34592542
128	0x3eaac6b2	0.33354717
129	0x3f10cc17	0.56561416
130	0x3eb3c85a	0.35113794
131	0x3c96d7f6	0.018413525
132	0x3d6d3db6	0.05792018
133	0x3d9e9f9f	0.07745289
134	0xbf2b2263	-0.66849345
135	0xbedebcd0	-0.43503428
136	0x3d2c933d	0.042132605
137	0xbd0220e2	-0.03176964
138	0x3ec22217	0.37916633
139	0x3d3264ec	0.043553278
140	0x3f02166b	0.5081546
141	0x3c4a00e2	0.012329312
142	0xbe53cdee	-0.20684025
143	0xbe7c591b	-0.24643366
144	0x3f2d0360	0.67583275
145	0x3e8ba241	0.27272227
146	0x3eb58e5a	0.35460168
147	0x3e0eed63	0.13957743
148	0xbe799f41	-0.24377157
149	0x3cea5d0e	0.028608825
150	0xbd714bd3	-0.058910202
151	0xbde56b69	-0.112021275
152	0x3ec6b3a7	0.3880894
153	0x3e886154	0.26636755
154	0x3f51a92a	0.8189875
155	0x3ef88ecb	0.48546442
156	0x3ed39dbf	0.41331288
157	0x3d93c1ff	0.07214736
158	0xbcf86083	-0.030319458
159	0x3e9d9b25	0.30782428
160	0x3e7ca921	0.24673893
161	0xbeea64b1	-0.45779946
162	0xbeb49f15	-0.3527762
163	0x3edcdabd	0.43135634
164	0x3e7dff50	0.24804425
165	0x3f35b7e5	0.70983726
166	0xbe294208	-0.16529095
167	0x3d0ba4db	0.034092765
168	0xbe05ad34	-0.13054353
169	0xbe275fe0	-0.16345167
170	0xbd00171e	-0.031272046
171	0x3e4419d0	0.19150472
172	0x3f08b23f	0.5339698
173	0x3efd0818	0.49420238
174	0x3f450a37	0.7696871
175	0xbf338717	-0.70128006
176	0xbec2df25	-0.3806087
177	0x3e9517cb	0.29119715
178	0x3def3586	0.11680131
179	0xbf14ee5e	-0.5817622
180	0xbf6f2908	-0.93421984
181	0x3e387751	0.18014266
182	0xbea8df9d	-0.32983103
183	0xbf132798	-0.5748229
184	0x3edad976	0.42744035
185	0xbdd2e957	-0.10298412
186	0xbf16a7af	-0.58849615
187	0xbd204668	-0.039129645
188	0xbbc6178a	-0.0060452865
189	0x3e4de6a8	0.2010752
190	0x3e81c888	0.25348306
191	0x3f1ef3eb	0.6209094
192	0xbe151632	-0.14559248
193	0xbe6408c3	-0.22268967
194	0xbe3e93f8	-0.18611133
195	0xbe5095c6	-0.20369634
196	0x3e4121fe	0.18860623
197	0xbeff7cf7	-0.49900028
198	0x3e9808a9	0.29694107
199	0x3f509f91	0.8149348
200	0x3e9d8b17	0.3077018
201	0x3e9e2ccb	0.3089355
202	0xbe01abac	-0.12663144
203	0xbce34df3	-0.02774713
204	0xbe3d4843	-0.18484597
205	0x3e335acf	0.1751511
206	0x3eb4d340	0.3531742
207	0x3d08856f	0.033330377
208	0xbe6a2792	-0.22866657
209	0x3bc988b2	0.0061503286
210	0xbf11569a	-0.5677277
211	0xbe6759ae	-0.22592804
212	0x3d8130bf	0.06308126
213	0xbee47427	-0.44619867
214	0xbe4f6bdc	-0.20255989
215	0x3e37d2bb	0.17951481
216	0xbf1da851	-0.61584955
217	0xbda47770	-0.080305934
218	0xbee36750	-0.4441476
219	0xbe8b23a1	-0.2717562
220	0xbde87df9	-0.113521524
221	0xbeca58c4	-0.39520848
222	0x3df3feeb	0.11913856
223	0xbee1aa9e	-0.44075483
224	0xbf3b3dda	-0.73141253
225	0x3f42d3b6	0.76104295
226	0x3f29cf9c	0.6633241
227	0xbe303c3a	-0.17210475
228	0xbe3ce45a	-0.18446484
229	0xbe83b484	-0.2572366
230	0x3e7a0518	0.24416006
231	0xbe7735ba	-0.24141589
232	0x3ea54272	0.32277256
233	0x3ec8d24b	0.3922294
234	0x3de3bec8	0.11120373
235	0xbefe36ce	-0.49651188
236	0xbf22c7e3	-0.6358625
237	0xbe2e54be	-0.17024514
238	0xbf12c0cc	-0.57325435
239	0x3f299b97	0.66253036
240	0x3f1a6328	0.6030755
241	0xbe2caa49	-0.16861834
242	0xbe77cce5	-0.24199255
243	0x3e867375	0.26259962
244	0x3ebee1f3	0.3728176
245	0xbe877761	-0.26458266
246	0x3e737a54	0.23777133
247	0x3e86a4cd	0.26297608
248	0xbdc9db67	-0.09856301
249	0x3ecd5883	0.40106592
250	0x3edac291	0.42726567
251	0xbe0ff9a4	-0.14060074
252	0x3eccaea8	0.39977002
253	0xbe068a77	-0.13138758
254	0xbed24046	-0.41064662
255	0xbea17848	-0.3153708

critic.v_net.fcs.1.bias f4 [64]
0	0x3e46709a	0.19378892
1	0x3d084370	0.03326744
2	0xbe33a4de	-0.1754336
3	0xbddcd428	-0.10782653
4	0xba65d387	-0.0008767177
5	0x3e1ee0ff	0.15515517
6	0xbe71952f	-0.23592065
7	0x3bf38ac2	0.0074323127
8	0x3e4d19ce	0.20029375
9	0x3d16da0f	0.03682905
10	0x3e75d965	0.2400871
11	0x3ca825ef	0.0205259
12	0x3e398d87	0.18120395
13	0x3d83aad5	0.06429068
14	0xbe626300	-0.22108078
15	0xbd795223	-0.060869347
16	0xbdb2c0f9	-0.08728213
17	0x3dc6d276	0.09708111
18	0xbe4769b3	-0.19473915
19	0x3dbcd036	0.092194006
20	0xbc8e89d8	-0.017399713
21	0xbc96eeae	-0.018424358
22	0xbe668137	-0.22510229
23	0xbd1038ed	-0.03521054
24	0x3ca338ad	0.019924486
25	0xba4db6a2	-0.0007847344
26	0xbe1a1d53	-0.15050249
27	0x3d8ac7e1	0.06776405
28	0xbc7548fe	-0.014971016
29	0xbe09fd9f	-0.13475655
30	0x3def3490	0.116799474
31	0x3e63db82	0.22251704
32	0x3e7abf70	0.2448709
33	0xbd507664	-0.050894156
34	0x3dd33cee	0.10314356
35	0xbdd5cdbb	-0.104396306
36	0x3e34e06b	0.17663734
37	0xbda8b12b	-0.08236917
38	0x3e714332	0.23560789
39	0x3e314d84	0.17314726
40	0xbd7a7c01	-0.061153416
41	0xbde18372	-0.11011399
42	0x3e18a949	0.14908327
43	0xbd481ca1	-0.048855428
44	0x3de3756a	0.11106379
45	0x3e38a546	0.18031797
46	0xbe44a03a	-0.19201747
47	0xbc925958	-0.017864868
48	0xbde74d75	-0.11294071
49	0xbd9c55c7	-0.07633548
50	0x3dc16c92	0.09444536
51	0x3de471f1	0.11154545
52	0xbde1c9b9	-0.11024804
53	0x3de096dc	0.10966274
54	0xbc8fed62	-0.017569248
55	0x3dbf867b	0.09351822
56	0x3df66163	0.12030294
57	0xbdb5846e	-0.088631496
58	0xbe5be000	-0.21472168
59	0x3d0899b6	0.033349715
60	0xbe3608ab	-0.17776744
61	0x3d9ad6b8	0.075604856
62	0x3e69a504	0.22816855
63	0x3e30a4d8	0.17250383

critic.v_net.fcs.2.weight f4 [1, 64]
0	0x3f330192	0.6992427
1	0x3f45be8d	0.7724388
2	0xbf2729f8	-0.65298414
3	0xbf400ccd	-0.7501953
4	0x3f3e3b29	0.7430902
5	0x3f4ddedc	0.8041818
6	0xbf3c4058	-0.7353568
7	0xbf380b92	-0.71892655
8	0x3f49e560	0.78865623
9	0x3f4efca1	0.8085423
10	0x3f3cc082	0.73731244
11	0x3f3fb5cd	0.7488678
12	0x3f2f5940	0.6849556
13	0x3f37d78e	0.71813285
14	0xbf5b8338	-0.857471
15	0xbf335a06	-0.7005924
16	0xbf430424	-0.76178193
17	0x3f44c31e	0.76860225
18	0xbf2dc227	-0.6787438
19	0x3f5301dc	0.8242471
20	0xbf4e0ad4	-0.8048527
21	0xbf451fec	-0.77001834
22	0xbf4881a2	-0.78322804
23	0xbf57d07d	-0.843025
24	0x3f3716b1	0.71519
25	0xbf3ebfe5	-0.7451156
26	0xbf446f14	-0.7673199
27	0x3f3cea9e	0.737955
28	0x3f34f1e2	0.70681584
29	0xbf47822c	-0.77933
30	0x3f330a70	0.699378
31	0x3f49ece1	0.78877074
32	0x3f3554b9	0.708324
33	0xbf582896	-0.8443693
34	0xbf34848d	-0.70514756
35	0xbf487dd0	-0.78316975
36	0x3f388cc8	0.72089815
37	0xbf46022f	-0.7734708
38	0x3f51774c	0.8182266
39	0x3f49527a	0.78641474
40	0x3f3cccb9	0.7374988
41	0xbf354515	-0.70808536
42	0x3f45636b	0.77104825
43	0xbf586e77	-0.84543556
44	0x3f426c20	0.75946236
45	0x3f31e465	0.6948913
46	0xbf37084b	-0.7149703
47	0x3f47ebb7	0.7809405
48	0xbf4180aa	-0.7558695
49	0xbf33f2e0	-0.7029247
50	0x3f352663	0.707617
51	0x3f2ec467	0.68268436
52	0xbf4fa180	-0.81105804
53	0x3f421852	0.7581836
54	0xbf541b7d	-0.82854444
55	0x3f49aebd	0.78782254
56	0x3f39a992	0.7252437
57	0xbf3d2093	-0.7387783
58	0xbf3b1646	-0.7308086
59	0x3f56fbc7	0.8397793
60	0xbf535e6f	-0.8256597
61	0x3f53eccf	0.82783216
62	0x3f3fde17	0.7494826
63	0x3f3bc5cc	0.7334869

exp_avg f4 [64, 4]
0	0xbb8d31c1	-0.0043089096
1	0xbb11a145	-0.0022221368
2	0xb7833bfd	-1.5644351e-05
3	0x3a01b7f5	0.0004948371
4	0x3b8e4430	0.0043416247
5	0x3b433f6d	0.0029792443
6	0x39892036	0.00026154675
7	0xb7d80aa2	-2.5754158e-05
8	0x3b41bad3	0.0029560819
9	0x3b093991	0.0020938853
10	0x395dc57e	0.00021149774
11	0x38b58b06	8.656648e-05
12	0xbc12aa0b	-0.008951674
13	0xbbc7bac8	-0.006095264
14	0xb9f52639	-0.0004675852
15	0x39226126	0.00015485715
16	0xbac97f47	-0.0015373015
17	0xba42e6ed	-0.00074349233
18	0xb71c7a5c	-9.326814e-06
19	0x3913b272	0.00014085489
20	0xbba205f5	-0.004944558
21	0xbb38a5f5	-0.002817509
22	0xb901fd39	-0.00012396731
23	0x39ba2faf	0.00035512212
24	0x3ad44370	0.0016194414
25	0x3a849a98	0.0010116873
26	0x387629a8	5.8689766e-05
27	0xb8ad8f54	-8.27598e-05
28	0x3abfaf83	0.001462445
29	0x3a91ea99	0.0011132538
30	0x38c0dd7e	9.1965296e-05
31	0x36c0d85d	5.747234e-06
32	0x3be6394d	0.0070258738
33	0x3ba84aa7	0.0051358524
34	0x39fe623a	0.0004851984
35	0x38b8ecc8	8.817908e-05
36	0x3b889d38	0.0041691326
37	0x3b42d5ea	0.0029729553
38	0x39603b02	0.00021384287
39	0xb8d03390	-9.927817e-05
40	0x3ad506a1	0.0016252586
41	0x3a8f825d	0.0010948885
42	0x38e4ec1a	0.000109158646
43	0x37c4e006	2.346934e-05
44	0xbb3cb5d4	-0.0028794901
45	0xbae2e006	-0.0017309196
46	0xb902f9a2	-0.00012490762
47	0x38cc0800	9.728968e-05
48	0x3a7a0e3d	0.0009538865
49	0x3a4abeb4	0.00077341055
50	0x38a327c9	7.779856e-05
51	0x380ba300	3.3291988e-05
52	0xbb2bd2aa	-0.0026218095
53	0xbb08f68b	-0.0020898904
54	0xb96f66e2	-0.00022831143
55	0xb9080f3d	-0.00012975647
56	0xbbbc145e	-0.0057397326
57	0xbb724ef8	-0.0036973339
58	0xb987b5c5	-0.00025884635
59	0x390fa34b	0.00013698374
60	0x3b4eb315	0.0031539847
61	0x3b13658d	0.002249095
62	0x395b1c95	0.00020896115
63	0x379a4227	1.8389035e-05
64	0xb96400f1	-0.00021744125
65	0xb988b134	-0.00026071968
66	0xb81a5e0a	-3.6804042e-05
67	0xb83f6032	-4.5627537e-05
68	0xbb04f9e2	-0.0020290543
69	0xbac996d0	-0.0015380029
70	0xb910bb36	-0.00013802652
71	0xb7877438	-1.6147373e-05
72	0xbb8e2443	-0.004337819
73	0xbb572af0	-0.003283199
74	0xb9abd6b0	-0.00032775616
75	0xb9301cf1	-0.0001679545
76	0x3bb73a5f	0.005591675
77	0x3b82cb4e	0.003991521
78	0x39ad8351	0.0003309497
79	0xb70bfc2f	-8.343762e-06
80	0xbb1af878	-0.0023646634
81	0xbac8e7b5	-0.0015327843
82	0xb8db3c2d	-0.000104539424
83	0x387d94eb	6.045859e-05
84	0x3af74b65	0.0018867074
85	0x3ab8cfb6	0.0014099989
86	0x390ec013	0.00013613729
87	0x3897cace	7.2380164e-05
88	0x3b3dd996	0.0028968803
89	0x3af81399	0.0018926739
90	0x39489176	0.00019127675
91	0x37063c6c	8.0010905e-06
92	0x3c10780d	0.008817685
93	0x3bc120f9	0.005893823
94	0x39dfb5b6	0.0004266926
95	0xb945c2c5	-0.00018859941
96	0xbbe155d5	-0.006876687
97	0xbb97e5c0	-0.0046355426
98	0xb9c83cb4	-0.000381922
99	0x38cad61d	9.671992e-05
100	0x3ba74da9	0.0051056934
101	0x3b63efad	0.003478031
102	0x39b4875f	0.00034433135
103	0x37859250	1.5922968e-05
104	0x35edb45c	1.7710368e-06
105	0xb6648218	-3.4050372e-06
106	0xb677dc28	-3.6934016e-06
107	0xb620a71d	-2.393913e-06
108	0x3c1e19ae	0.009649677
109	0x3bc85d7e	0.0061146608
110	0x3a018da7	0.00049420673
111	0xb944a41c	-0.00018753152
112	0x3a1e44e7	0.0006037489
113	0x39ecc472	0.0004515979
114	0x38279d98	3.9962673e-05
115	0x3681db18	3.8700055e-06
116	0xbc29d683	-0.010366085
117	0xbbf26ac7	-0.0073979828
118	0xba206773	-0.0006118931
119	0x385e8d0d	5.306029e-05
120	0x394f9000	0.00019794703
121	0x398bc807	0.00026661178
122	0x38002ce6	3.0559393e-05
123	0x3801efc5	3.09793e-05
124	0xbae9b25c	-0.0017829644
125	0xba6fbc63	-0.0009145198
126	0xb7a43ff5	-1.9580106e-05
127	0x3924b6f4	0.00015708414
128	0xbbcf8822	-0.006333367
129	0xbb862571	-0.004093819
130	0xb981a6d1	-0.00024729085
131	0x399c1b1a	0.0002977483
132	0x3a5d1786	0.0008433986
133	0x3a2246da	0.0006190367
134	0x3859682d	5.1833853e-05
135	0xb6cb6c0e	-6.0624507e-06
136	0x3c2e42be	0.01063603
137	0x3bfb1b45	0.007663163
138	0x3a21c3bb	0.0006170829
139	0xb8e0d8f0	-0.0001072156
140	0xbb8c4db5	-0.0042817243
141	0xbb35c219	-0.00277341
142	0xb978d100	-0.00023728982
143	0x38588f8b	5.1632098e-05
144	0x3b9bee81	0.0047586565
145	0x3b29aa6a	0.0025888928
146	0x38f8aa6b	0.00011857304
147	0xb99baa3e	-0.00029690744
148	0x3b3ca280	0.002878338
149	0x3ad40fec	0.0016179061
150	0x38c3b142	9.3313414e-05
151	0xb903521e	-0.00012523725
152	0x3b00f044	0.001967446
153	0x3ad0652b	0.0015899291
154	0x3944e196	0.00018776054
155	0x390788db	0.00012925586
156	0xbbc987a4	-0.006150203
157	0xbb7feb88	-0.00390503
158	0xb977f912	-0.00023648542
159	0x398b2e03	0.00026546427
160	0xbb461736	-0.0030226237
161	0xbafa0005	-0.0019073492
162	0xb8fe19f4	-0.00012116498
163	0x38c1d152	9.241946e-05
164	0xbb3acbae	-0.002850275
165	0xbaf01ee8	-0.0018319758
166	0xb9237a63	-0.00015590484
167	0x382cc33b	4.1189818e-05
168	0xbab2e4f3	-0.0013648554
169	0xba82a298	-0.000996667
170	0xb8c58850	-9.419082e-05
171	0xb858a378	-5.1650655e-05
172	0xbada2e3c	-0.0016645859
173	0xba8ff205	-0.0010982162
174	0xb8f1acab	-0.000115239374
175	0xb75f4b6f	-1.3309399e-05
176	0xba952ece	-0.0011381747
177	0xba46ac1c	-0.0007578747
178	0xb898c013	-7.2837014e-05
179	0xb702501b	-7.767255e-06
180	0x38a88a82	8.036663e-05
181	0x37508880	1.24295475e-05
182	0x358253f4	9.710188e-07
183	0xb71d1bc5	-9.364395e-06
184	0x3bf4e63a	0.007473734
185	0x3ba438b5	0.005011643
186	0x39e2e09a	0.0004327342
187	0xb85799ae	-5.140312e-05
188	0x3c1f9137	0.009739212
189	0x3bdf921a	0.0068228366
190	0x3a1b6329	0.0005927557
191	0x38889470	6.512634e-05
192	0xbb12bed3	-0.0022391572
193	0xbae72ce0	-0.0017637275
194	0xb931bf21	-0.00016951236
195	0xb84fe269	-4.9563507e-05
196	0xbb391409	-0.0028240702
197	0xbb02b7e4	-0.0019946033
198	0xb93ef3ea	-0.00018210677
199	0xb87b13b1	-5.9861402e-05
200	0x3ae307ab	0.0017321011
201	0x3ab46d39	0.0013765461
202	0x392bf2b4	0.00016398245
203	0x38c716ed	9.49333e-05
204	0xbb4e2ecb	-0.0031460996
205	0xbb1c9974	-0.0023895176
206	0xb987bfcb	-0.00025892103
207	0xb91560d3	-0.00014245817
208	0x3acf201f	0.001580242
209	0x3a96fad5	0.0011518846
210	0x38b79745	8.754296e-05
211	0xb7db79f5	-2.6163625e-05
212	0x3b9af86e	0.004729322
213	0x3b69a565	0.0035651561
214	0x39bce286	0.00036026927
215	0x392009f7	0.00015262501
216	0x3b4e29f8	0.003145812
217	0x3b0c818b	0.0021439518
218	0x391ae662	0.00014772409
219	0xb902e1cb	-0.0001248188
220	0xbbb6e7a2	-0.005581812
221	0xbb642312	-0.0034810943
222	0xb98171c0	-0.00024689548
223	0x3928329a	0.00016040579
224	0x3b02f092	0.0019979817
225	0x3a958ecc	0.0011410355
226	0x383ea1e7	4.5450313e-05
227	0xb91eb360	-0.00015134877
228	0x3b4fbf5f	0.003169976
229	0x3b0e5b09	0.0021721742
230	0x394280e4	0.00018549297
231	0xb7524904	-1.2533976e-05
232	0xbbe462f6	-0.006969805
233	0xbb952f28	-0.0045527406
234	0xb9d79d2c	-0.00041125098
235	0xb68469c7	-3.9462207e-06
236	0x3c3af816	0.011411687
237	0x3be72f27	0.0070551815
238	0x3a0588b1	0.0005093916
239	0xb9a52000	-0.00031495094
240	0x3bc236de	0.005926951
241	0x3b75d30f	0.0037509834
242	0x39b76d43	0.00034985886
243	0xb88b24c2	-6.634883e-05
244	0xbba36867	-0.004986811
245	0xbb5ba138	-0.0033512842
246	0xb994f5dd	-0.00028411942
247	0x380d673e	3.371317e-05
248	0xbc230142	-0.00994903
249	0xbbf1a311	-0.0073741754
250	0xba3197c5	-0.00067746296
251	0xb906d353	-0.0001285796
252	0x3a1c13e5	0.0005953892
253	0x39c4aef4	0.00037514383
254	0x37ff47fc	3.043189e-05
255	0xb7812394	-1.5394566e-05
