training_results/cartpole_boltz/ppo_backup2/seed_42/1000000steps/checkpoints/model_900000.pt (torch, 151451 bytes, 30 tensors)

actor.pi_net.fcs.0.weight f4 [64, 4]
0	0xbf49c441	-0.78815085
1	0x3e91bf86	0.28466433
2	0x3ec7c98d	0.3902096
3	0x3ec54274	0.38527262
4	0xbf7eda27	-0.99551624
5	0xbe838458	-0.25686908
6	0x3e835456	0.2565028
7	0xbea006a3	-0.31255063
8	0x3efbcfa9	0.4918187
9	0xbe5e12e6	-0.21686897
10	0xbf551569	-0.83235794
11	0xbeab9587	-0.33512518
12	0xbf3ce81e	-0.7379168
13	0xbf2a5687	-0.6653828
14	0x3eac8322	0.33693796
15	0x3db3387f	0.0875101
16	0x3f024566	0.50887144
17	0x3ee4d619	0.44694594
18	0x3ec57c3c	0.38571346
19	0x3f07cde9	0.5304857
20	0xbf6ce9bb	-0.92544144
21	0xbf43bb0d	-0.7645729
22	0xbe1896db	-0.14901297
23	0x3f11387c	0.56726813
24	0x3f2888c1	0.6583367
25	0x3f225f8a	0.6342703
26	0x3cc563ac	0.024095379
27	0xbe800239	-0.25001696
28	0xbca1f292	-0.019768987
29	0x3ef8878f	0.48540923
30	0xbd873ddb	-0.06603595
31	0x3d5a6d05	0.053326625
32	0x3f507862	0.8143369
33	0x3f32d59b	0.69857186
34	0xbdba6bff	-0.0910263
35	0xbee6c69d	-0.45073405
36	0x3e905f7b	0.28197846
37	0xbe971e5f	-0.2951536
38	0xbf0f96a3	-0.5608923
39	0xbcb05798	-0.021526143
40	0xbecc98e4	-0.39960396
41	0xbea8b672	-0.32951695
42	0x3edc5f7e	0.43041605
43	0xbe930f27	-0.28722498
44	0xbf82b41a	-1.0211213
45	0xbf4ecec7	-0.8078427
46	0xbdcf2b5f	-0.10115694
47	0x3dedc9a5	0.11610726
48	0xbf3ba038	-0.7329135
49	0xbdc0c972	-0.09413423
50	0xbdfae558	-0.12250775
51	0xbda69c4d	-0.08135281
52	0xbe7f2fe7	-0.24920617
53	0xbe50f444	-0.2040568
54	0xbee21253	-0.44154605
55	0x3f1315f9	0.574554
56	0xbf2952a9	-0.66141754
57	0xbe1d6e79	-0.15374173
58	0x3e8ae2d7	0.2712619
59	0x3ed79658	0.4210689
60	0x3ecb55d1	0.3971391
61	0x3e2f3b48	0.17112458
62	0xbe989bec	-0.2980646
63	0xbe995a05	-0.29951492
64	0x3d19ae82	0.03751994
65	0xbf14146f	-0.5784368
66	0xbec77b36	-0.3896119
67	0x3ec2dcc3	0.38059053
68	0xbec1c713	-0.37847194
69	0xbe2420c3	-0.16028123
70	0xbf3162bf	-0.692913
71	0x3e7a22cb	0.24427335
72	0xbf83842a	-1.0274708
73	0xbe015aaa	-0.12632242
74	0x3ec03f9f	0.3754854
75	0x3f21fb8b	0.6327445
76	0x3f1eaa33	0.61978453
77	0x3ead5e71	0.33861116
78	0xbf2afdcb	-0.6679351
79	0xbeaaa0fe	-0.33325952
80	0xbf968ec1	-1.1762315
81	0xbe8b84d5	-0.2724978
82	0xbd86d2c9	-0.06583173
83	0x3ecb6d26	0.3973171
84	0xbe6d7a6b	-0.2319123
85	0x3ed3a37a	0.4133566
86	0x3e95b37d	0.292385
87	0xbe7bb26f	-0.24579786
88	0xbf51b7f9	-0.81921345
89	0xbf2e13da	-0.6799904
90	0xbed8fc88	-0.42380166
91	0x3d916819	0.07099933
92	0x3ecec985	0.40388122
93	0xbef276e2	-0.47356325
94	0xbefe96ef	-0.49724528
95	0xbcfcef13	-0.030875718
96	0xbf69c4c4	-0.91315866
97	0xbf0a0fb9	-0.5393024
98	0xbece46df	-0.40288445
99	0x3ec82444	0.39090168
100	0xbf6b4e29	-0.9191614
101	0xbefc2188	-0.49244332
102	0xbea0e327	-0.31423303
103	0xbde75885	-0.11296181
104	0xbf84e9cc	-1.0383849
105	0xbf75adb2	-0.95968163
106	0xbd51fc1d	-0.051265825
107	0xbe21bc04	-0.15794379
108	0xbf3afd2a	-0.7304255
109	0xbf05d52c	-0.522784
110	0xbe454061	-0.1926284
111	0xbe85c836	-0.2612931
112	0x3f6597e9	0.8968492
113	0x3d5b4da3	0.053540837
114	0x3eb3648f	0.35037658
115	0xbe10d993	-0.14145498
116	0xbf8453e6	-1.0338104
117	0xbe92d4e2	-0.28678042
118	0xbd79c462	-0.0609783
119	0x3ed739a6	0.4203617
120	0x3f4bf0ce	0.79664314
121	0x3eac425c	0.33644378
122	0xbf4dd3e4	-0.80401444
123	0xbd85de57	-0.065365486
124	0x3f1c869e	0.6114291
125	0x3f607089	0.87671715
126	0xbd879a49	-0.066212244
127	0x3edcf52d	0.43155804
128	0xbf479b87	-0.7797169
129	0xbf0e8508	-0.5567174
130	0x3ebb33b7	0.36562893
131	0x3e9e57bd	0.30926314
132	0xbeb22a15	-0.3479773
133	0x3f19383a	0.5985142
134	0x3ef25031	0.47326806
135	0xbdc35ca2	-0.09539153
136	0x3f6c2591	0.9224482
137	0x3e35a856	0.17739996
138	0xbec9910d	-0.39368477
139	0xbe28c503	-0.16481404
140	0x3f514496	0.8174528
141	0x3ecde4c6	0.40213603
142	0x3e232050	0.15930295
143	0x3af92fcb	0.0019011436
144	0xbf813009	-1.0092784
145	0xbf4b8d2c	-0.79512286
146	0xbe7ec4c9	-0.24879755
147	0xbe2c7438	-0.16841209
148	0xbf9f4004	-1.2441411
149	0xbf88e199	-1.0693847
150	0x3e78916b	0.24274223
151	0xbea82946	-0.3284399
152	0x3f1a66a6	0.6031288
153	0x3f49447a	0.7862011
154	0x3e2b16c2	0.167079
155	0xbe7225a8	-0.23647177
156	0xbf0b466c	-0.5440433
157	0x3e8c3b30	0.27388906
158	0x3f2f2423	0.68414515
159	0x3e9bcd5c	0.30430114
160	0xbe084f55	-0.13311513
161	0x3dc7d560	0.09757495
162	0x3f1849d3	0.59487647
163	0x3e8f7f5b	0.28026852
164	0x3f7943cc	0.97369075
165	0x3ecaa659	0.39580038
166	0x3e5f5fdf	0.21813916
167	0xbd951efd	-0.07281301
168	0x3f0ff0d6	0.5622686
169	0xbf40a405	-0.75250274
170	0xbd5b2402	-0.053501137
171	0x3e96e610	0.294724
172	0x3f5ca5d6	0.86190546
173	0x3f4b85c0	0.7950096
174	0xbed9390a	-0.4242633
175	0x3e7862c9	0.24256434
176	0x3f3e2a30	0.74283123
177	0x3f5fb89d	0.8739107
178	0xbe4edb10	-0.20200753
179	0x3e2f524d	0.17121239
180	0xbf3ddea4	-0.7416785
181	0xbf50d7f4	-0.8157952
182	0x3ee85eae	0.45384735
183	0xbe22c1cd	-0.15894242
184	0x3f13028f	0.5742578
185	0x3f3f6661	0.7476559
186	0x3eb28062	0.34863573
187	0xbf052da3	-0.5202276
188	0x3f41d775	0.75719386
189	0x3d81dd7c	0.06341073
190	0xbf4fb526	-0.81135786
191	0xbed6e68a	-0.41972762
192	0xbf48e2bf	-0.7847099
193	0xbeec7890	-0.46185732
194	0x3f0081d7	0.5019812
195	0xbd3badc5	-0.045820016
196	0xbf40e850	-0.7535448
197	0x3dbef505	0.093240775
198	0xbf05596a	-0.5208956
199	0x3ed21e56	0.4103877
200	0xbdbf2cf7	-0.09334748
201	0x3decee4a	0.115688875
202	0xbdad1035	-0.08450357
203	0x3da3aa68	0.07991487
204	0xbf099c75	-0.5375436
205	0xbed4078e	-0.41412014
206	0x3f164f66	0.587149
207	0x3f0e83d1	0.55669886
208	0x3ebb32e4	0.36562264
209	0x3eaa8f62	0.33312517
210	0xbe648d4b	-0.22319524
211	0x3e2097e0	0.15682936
212	0x3f452dd4	0.77023053
213	0x3e9c775a	0.30559808
214	0xbf284cc5	-0.6574214
215	0xbe873bd7	-0.26412842
216	0xbe732fc3	-0.23748688
217	0x3f07a1ba	0.5298115
218	0xbdb364f1	-0.087594874
219	0x3cf2f212	0.029656444
220	0x3f384b91	0.71990305
221	0x3ee9dac1	0.45674708
222	0xbe22cdd0	-0.15898824
223	0x3d263e78	0.04058692
224	0x3f837a83	1.0271763
225	0x3f4c63db	0.7983987
226	0xbe88d46c	-0.26724565
227	0xbe89eb46	-0.26937312
228	0xbf7aa033	-0.97900695
229	0x3d0a6b67	0.033793833
230	0x3d71e5c1	0.059057
231	0x3c3e99e4	0.01163337
232	0xbf2bddc0	-0.6713524
233	0x3e914118	0.28369975
234	0x3f7c924d	0.9866074
235	0x3e9f5445	0.3111898
236	0xbe85425d	-0.26027194
237	0xbf08f8a3	-0.5350439
238	0xbecf5460	-0.4049406
239	0x3ca3abc8	0.019979373
240	0xbf892d1a	-1.0716889
241	0xbf47bf2a	-0.7802607
242	0xbdea5e70	-0.11443794
243	0xbdecb42d	-0.11557803
244	0x3f4f78f0	0.8104391
245	0x3e5ef05f	0.21771382
246	0xbcaa369c	-0.020777993
247	0x3ccc33d6	0.024927061
248	0x3f088a03	0.5333559
249	0xbe7b44c4	-0.24537951
250	0x3dc6b75a	0.0970294
251	0x3dc6c020	0.09704614
252	0x3f994f33	1.1977295
253	0x3f5e4436	0.8682283
254	0xbeb9acf6	-0.3626477
255	0x3d98fa94	0.07469669

actor.pi_net.fcs.0.bias f4 [64]
0	0x3d3bbaff	0.04583263
1	0xbbdf1e00	-0.006808996
2	0x3e154a13	0.14579038
3	0xbd777212	-0.06041152
4	0x3ec91c9b	0.39279637
5	0xbea8b66f	-0.32951686
6	0x3e320155	0.1738332
7	0xbe1950fc	-0.149723
8	0xbdc9555b	-0.098307334
9	0x3d94e483	0.07270148
10	0xbdd98f33	-0.10623016
11	0xbe29bd56	-0.16576132
12	0x3d465c47	0.048427846
13	0xbebb2ffe	-0.36560053
14	0xbd2043e8	-0.03912726
15	0x3cd8c989	0.026463287
16	0xbdc73a3b	-0.097279035
17	0x3da3090f	0.07960712
18	0xbea1b2c5	-0.31581703
19	0x3db75a2e	0.08952747
20	0xbe851f39	-0.26000383
21	0xbb96f712	-0.00460709
22	0x3dba6f31	0.09103239
23	0x3d1c9b4f	0.03823405
24	0xbd33908c	-0.043839023
25	0x3dad6c54	0.084679276
26	0xbe9076d0	-0.28215647
27	0xbc2f559c	-0.010701563
28	0x3e3b9944	0.18320185
29	0xbd956e63	-0.07296445
30	0x3dc3be98	0.09557837
31	0x3eb81bd8	0.35958743
32	0xbe53ef40	-0.20696735
33	0xbd6fda7e	-0.05855798
34	0x3d5a44c0	0.05328822
35	0x3c5f6ea8	0.013637222
36	0xbe4a3e29	-0.19750275
37	0xbe9bdac5	-0.30440345
38	0xbe8d7da4	-0.2763492
39	0xbc951a57	-0.018201036
40	0xbca0dd42	-0.019636754
41	0x3cafe598	0.021471784
42	0x3c64f48a	0.013974318
43	0xbe199d67	-0.1500145
44	0xbdc2d555	-0.09513346
45	0x3e566c49	0.20939745
46	0xbc740ffb	-0.014896388
47	0x3ddaa5a5	0.106761254
48	0x3dedb43a	0.11606641
49	0xbe5d5f9f	-0.21618508
50	0x3d1a46d4	0.037665203
51	0x3dee5d23	0.11638858
52	0x3dfd99fe	0.12382887
53	0x3e2fccc3	0.17167954
54	0x3d9a6723	0.07539203
55	0x3d8a8c6d	0.06765065
56	0x3e8a3ed8	0.2700107
57	0xbd3100e5	-0.043213744
58	0xbdd188eb	-0.10231193
59	0xbce20c4a	-0.02759375
60	0x3cf5c1de	0.02999967
61	0x3cd10241	0.02551377
62	0xbd5a6508	-0.053319007
63	0x3e66d8bd	0.22543617

actor.pi_net.fcs.1.weight f4 [64, 64]
0	0x3da824b9	0.08210129
1	0x3da3e544	0.08002713
2	0xbbb79f04	-0.005603673
3	0x3cdb84b2	0.026796672
4	0xbcb88489	-0.022524135
5	0x3d52a369	0.05142537
6	0x3e03e38b	0.1287977
7	0xbc095eb1	-0.008384393
8	0xbdebc1a2	-0.11511542
9	0x3dc0e882	0.09419347
10	0x3d5ebd07	0.05437949
11	0x3dcf4534	0.10120621
12	0x3e142de6	0.14470634
13	0x3d23eff5	0.040023763
14	0x3df45271	0.11929787
15	0xbcd39641	-0.025828483
16	0xbdb97af7	-0.09056657
17	0xbce6dbe0	-0.028181016
18	0xbb9aa708	-0.0047196187
19	0xbd46b4c4	-0.048512235
20	0xbc806f5d	-0.015678102
21	0x3dbf02d8	0.09326714
22	0xbd96d289	-0.07364375
23	0x3d12c257	0.03582987
24	0x3dde9b36	0.10869448
25	0xbc5f530f	-0.013630643
26	0x3d936e39	0.07198758
27	0xbde143ae	-0.10999237
28	0x3d8254ab	0.063638054
29	0x3bb97cb0	0.005660616
30	0x3e4b52dc	0.19855827
31	0xbd183d26	-0.03716769
32	0xbe1dfa46	-0.15427503
33	0xbd798675	-0.060919244
34	0x3d30f49a	0.04320202
35	0x3c8b5fb8	0.017013416
36	0x3ca868ae	0.020557728
37	0xbdcdf4a4	-0.10056427
38	0x3d9cfc01	0.076652534
39	0x3c321323	0.01086882
40	0xbbc6c754	-0.0060662422
41	0xbcf2519b	-0.029579928
42	0x3d8ec124	0.069704324
43	0xbe226766	-0.15859756
44	0xbd7443dd	-0.059635032
45	0xbb61a7de	-0.0034432332
46	0xbcc810db	-0.0244221
47	0xbbdd9e7d	-0.006763278
48	0xbd8eb8de	-0.06968854
49	0xbd50868f	-0.050909575
50	0x3dd4bde2	0.1038778
51	0x3db85275	0.090001024
52	0x3d4b19bf	0.0495851
53	0x3c6e3877	0.014539829
54	0xbce241d9	-0.02761929
55	0x3cfd8629	0.030947762
56	0x3e17b4b1	0.14815022
57	0xbdfb777c	-0.12278649
58	0xbdb801d5	-0.089847244
59	0xbd9a609b	-0.07537957
60	0xbcc36b16	-0.023854773
61	0xbd96bc22	-0.07360102
62	0x3cfb63a4	0.03068716
63	0xbd7eee7d	-0.06223916
64	0x3c6d44c7	0.01448173
65	0xbd573cd5	-0.05254825
66	0x3d5e045d	0.05420338
67	0xbd2256fd	-0.03963374
68	0xbdfb6915	-0.12275902
69	0x3c9e2cdb	0.019308498
70	0x3ca4b922	0.02010781
71	0x3cbd9f9e	0.0231474
72	0xbd2aefbb	-0.04173253
73	0x3da38d18	0.07985896
74	0x3cb5d54e	0.022196438
75	0x3d5f1fa1	0.054473523
76	0xbcff505a	-0.031166244
77	0x3e0ced82	0.13762477
78	0xbc72730a	-0.014797935
79	0xbdc23642	-0.09483005
80	0x3e0942ca	0.13404384
81	0x3dd36982	0.103228584
82	0x3e089db8	0.13341415
83	0x3dc038d2	0.093858376
84	0x3e2467eb	0.16055267
85	0xbd9c7f3c	-0.076414555
86	0x3da1c0c6	0.07898097
87	0x3d913633	0.07090416
88	0x3da58a08	0.08082968
89	0x3bbbc1b4	0.0057298783
90	0xbb4afc58	-0.0030973163
91	0x3be526b9	0.0069931415
92	0x3e085d2f	0.13316797
93	0x3bc156a8	0.005900223
94	0x3dafc46c	0.085823864
95	0xbcadafcb	-0.021201989
96	0xbd115901	-0.03548527
97	0xbcda53c0	-0.026651263
98	0x3db607e4	0.08888224
99	0x3d84bf1e	0.06481765
100	0x3dd567e5	0.10420207
101	0x3cd19898	0.025585458
102	0xbd1e918c	-0.038713023
103	0xbca51535	-0.020151714
104	0x3d78acfe	0.060711853
105	0xbe52cc59	-0.20585765
106	0x3dd3c4e5	0.10340289
107	0xbd2faebf	-0.04289126
108	0x3d3ac172	0.04559464
109	0xbce45719	-0.027873563
110	0xbdf920a4	-0.12164429
111	0x3d3d9481	0.046284202
112	0xbd1b5fa6	-0.037933014
113	0xbdc6f205	-0.0971413
114	0xbd6401bb	-0.055665713
115	0xbd877ac9	-0.06615216
116	0x3b882486	0.0041547446
117	0x3dc52540	0.096262455
118	0xbe414fdd	-0.18878122
119	0xbb9ce7fb	-0.0047883964
120	0xbde5b2db	-0.112157546
121	0xbdcd35a1	-0.100199945
122	0xbd956243	-0.072941326
123	0x3e598f44	0.21246058
124	0x3e76dd26	0.24107799
125	0x3d0f1516	0.03493222
126	0xbca915e3	-0.02064032
127	0xbdb0b46f	-0.08628165
128	0x3e1c56a5	0.15267427
129	0xbcf003c4	-0.02929867
130	0xbd922331	-0.071356185
131	0xbe13b543	-0.14424615
132	0x3c9b05ad	0.018923605
133	0xbdc46624	-0.09589794
134	0x3e0d9789	0.13827337
135	0xbbe67699	-0.007033181
136	0x3e3203cd	0.17384262
137	0x3d57ca6e	0.052683286
138	0xbd17b9ef	-0.037042554
139	0xbe9a99d2	-0.3019548
140	0xbd4b995b	-0.049706798
141	0x3c9dc0c9	0.019256966
142	0x3dc3966c	0.09550175
143	0x3dfbc5aa	0.12293561
144	0xbdd46c2c	-0.10372195
145	0x3cceddc3	0.025252229
146	0x3bdcd032	0.006738686
147	0x3beceef2	0.007230633
148	0xbdddd771	-0.10832108
149	0xbdadc550	-0.084849
150	0xbdd4f0b7	-0.10397475
151	0xbce0fbf2	-0.027463887
152	0xbeb9e2d0	-0.36305857
153	0xbe6de7d2	-0.23232964
154	0xbe2091b9	-0.15680589
155	0xbe0b5fd2	-0.13610771
156	0x3d632ee9	0.05546466
157	0xbd98abd6	-0.0745465
158	0x3da8e91e	0.082475886
159	0x3da252ac	0.07925925
160	0xbe041163	-0.12897258
161	0x3d8214be	0.063516125
162	0xbbefe491	-0.0073209484
163	0x3e5156dc	0.2044329
164	0xbd597a4c	-0.053095147
165	0xbe50d043	-0.20391946
166	0x3e0b63e5	0.13612325
167	0x3df1a6c7	0.117993884
168	0x3d75c790	0.06000477
169	0x3ee42b2c	0.44564188
170	0xbbddb4e4	-0.0067659486
171	0x3e20515f	0.1565604
172	0x3e4af0ba	0.19818392
173	0xbc7679cb	-0.015043686
174	0x3e59b3d7	0.2126001
175	0x3d597fad	0.053100277
176	0xbd63efa5	-0.055648465
177	0x3d1326c0	0.035925627
178	0xbe13acbb	-0.1442136
179	0x3c491806	0.012273794
180	0x3d4624f7	0.048375096
181	0xbb952e30	-0.004552625
182	0x3e0b777b	0.13619797
183	0x3d27bb7d	0.040950287
184	0x3d623e5f	0.055235263
185	0x3d5dffe8	0.05419913
186	0x3d948735	0.07252351
187	0xbea8b537	-0.32950756
188	0xbed07314	-0.40712798
189	0x3ddb0d4a	0.10695894
190	0xbcd390ef	-0.025825946
191	0x3d66501b	0.05622874
192	0x3cdcc2d3	0.026948368
193	0xbc8c69f0	-0.017140359
194	0xbe243768	-0.16036761
195	0xbe6e1df9	-0.23253621
196	0x3d967f8b	0.07348546
197	0xbe2fc9f6	-0.17166886
198	0xbc184a75	-0.009295096
199	0xbe2c13e1	-0.16804458
200	0xbdb87d09	-0.090082236
201	0xbd99e1fc	-0.07513806
202	0xbced6d78	-0.028982863
203	0xbeb7dd22	-0.35910898
204	0xbdbaee4b	-0.09127482
205	0xbdaa474f	-0.08314382
206	0x3c323ee6	0.010879254
207	0x3c155a35	0.009115745
208	0x3cf196fe	0.029490944
209	0xbe5fdd74	-0.21861821
210	0xbde63699	-0.112408824
211	0xbdf00598	-0.11719817
212	0xbd055905	-0.0325556
213	0x3dcde13a	0.10052724
214	0xbd9c821b	-0.07642003
215	0xbe5bcf1e	-0.21465728
216	0xbe6881b2	-0.22705725
217	0xbe9320e1	-0.28736022
218	0xbe9a0010	-0.30078173
219	0xbe8a2d82	-0.26987845
220	0x3dca90cc	0.09890899
221	0xbe05609a	-0.13025132
222	0xbe2ea5bf	-0.17055415
223	0x3d9b216b	0.07574733
224	0x3c83e7d3	0.016101753
225	0x3dc8cb83	0.09804442
226	0xbd3aeffb	-0.04563902
227	0x3ee6a0a8	0.45044446
228	0xbece120c	-0.40248144
229	0xbead7cca	-0.3388427
230	0x3d83ff6c	0.06445202
231	0x3d992604	0.07477954
232	0x3dbf6cd3	0.093469284
233	0x3eff4aa3	0.4986163
234	0x3e17019a	0.14746705
235	0x3e1c43f3	0.15260296
236	0x3ddfb369	0.10922892
237	0xbd566a44	-0.052347437
238	0x3ddc0bc6	0.10744433
239	0xbdef0a36	-0.116718695
240	0x3d496746	0.049170755
241	0xbdac329b	-0.0840809
242	0xbd7d5c2a	-0.061855473
243	0x3d606b48	0.05478981
244	0x3d6b8a9a	0.057505228
245	0xbdd36146	-0.10321288
246	0x3ccc4a90	0.024937898
247	0x3e350bde	0.17680308
248	0x3e430382	0.19044307
249	0xbe16260c	-0.14662951
250	0x3e6c40dc	0.23071617
251	0xbeead549	-0.4586585
252	0xbedd4b9b	-0.43221745
253	0x3e9af71a	0.3026665
254	0x3d02a20e	0.03189283
255	0x3e94c460	0.29056072

actor.pi_net.fcs.1.bias f4 [64]
0	0xbe0141d1	-0.12622763
1	0x3d1ad367	0.037799265
2	0x3d6e6b23	0.058207642
3	0x3e04b18c	0.12958354
4	0x3d9a8f0b	0.075468145
5	0xbd892983	-0.06697371
6	0xbda3335f	-0.07968783
7	0xbd4bfe6e	-0.04980319
8	0xbd1bd539	-0.03804514
9	0xbcccaf91	-0.02498606
10	0x3da8ef6d	0.08248792
11	0xbcdae2cb	-0.026719471
12	0x3d29e16f	0.041474756
13	0xbc92657c	-0.017870657
14	0xbbfcb4c6	-0.0077119796
15	0xbcf18354	-0.029481567
16	0xbd4f4b21	-0.050608758
17	0x3c49cd6e	0.012317045
18	0x3b80d4a5	0.003931599
19	0x3cc5e6fe	0.024157997
20	0x3d7f3176	0.06230303
21	0x3db79347	0.08963638
22	0xbd704889	-0.058662925
23	0x3d649463	0.055805575
24	0x3d3034c7	0.043019082
25	0x3b9b2620	0.0047347695
26	0xbcefe198	-0.029282376
27	0x3cce00e9	0.025146918
28	0x3d870d8f	0.06594383
29	0xbd973680	-0.07383442
30	0xbd037bb1	-0.032100383
31	0xbd86e018	-0.06585711
32	0xbda4c4d8	-0.080453575
33	0xbdc94015	-0.09826676
34	0xbc4d6d2a	-0.012538234
35	0x3d1d0471	0.038334314
36	0x3d6ce8da	0.057839252
37	0xbcf3be78	-0.029753909
38	0xbcf0d6d0	-0.029399306
39	0xbd945d35	-0.0724434
40	0xbc3ac020	-0.011398345
41	0x3dfad364	0.12247351
42	0xbd0e7bee	-0.034786157
43	0x3d1441f0	0.036195695
44	0x3d34eff3	0.044174146
45	0xbd7b96f5	-0.06142326
46	0xbd9ddc8e	-0.07708083
47	0xbc09d764	-0.0084131695
48	0xbdee9a91	-0.11650575
49	0xbdccbb0c	-0.09996614
50	0x3d62887e	0.05530595
51	0xbd8ab2b6	-0.06772368
52	0x3db81500	0.089883804
53	0x3d25f047	0.04051235
54	0x3e1c538f	0.1526625
55	0xbd79031a	-0.060793974
56	0xbd69cdee	-0.057081155
57	0x3d739e6d	0.05947726
58	0x3da1ce70	0.07900703
59	0xbd352b94	-0.044231012
60	0xbcbd07f0	-0.023075074
61	0x3da2396e	0.0792111
62	0x3c9803aa	0.018556435
63	0xbc1de3af	-0.0096368035

actor.pi_net.fcs.2.weight f4 [1, 64]
0	0x3aa3ef07	0.0012507149
1	0x3b639b9b	0.00347302
2	0xbe019fe4	-0.1265865
3	0xbe84d97b	-0.25947174
4	0xbb6c1ca0	-0.0036027804
5	0xbe738c2a	-0.23783937
6	0x3b8e2b34	0.0043386463
7	0x3bf60622	0.0075080553
8	0x3b3e2908	0.0029016156
9	0xbc3b1442	-0.011418404
10	0x3ae28b48	0.0017283941
11	0xbba3a395	-0.0049938657
12	0x3ba1c7b2	0.0049371356
13	0x3a4fe70e	0.0007930853
14	0x3d8543c6	0.065070674
15	0x3bd07a3d	0.006362228
16	0xbac9db92	-0.001540052
17	0x3c11db72	0.0089024175
18	0x3bbdf959	0.005797547
19	0xbb9acece	-0.00472436
20	0xba701f79	-0.0009159963
21	0xba8e60e9	-0.0010862622
22	0x3d9542a3	0.072881006
23	0x3a936a86	0.0011246956
24	0x3a707add	0.00091735815
25	0x3e9f8d8e	0.31162685
26	0x3cda1af7	0.026624186
27	0x39bf239f	0.000364569
28	0x3ae0717a	0.0017123662
29	0xbad012da	-0.0015874759
30	0xbb5a892e	-0.0033345926
31	0xbbdc0447	-0.006714377
32	0x390493b4	0.00012643525
33	0x3d11a53a	0.035557963
34	0xbe11cb3a	-0.14237681
35	0x3b8d1535	0.0043055066
36	0xbd5d1c54	-0.053982094
37	0x3e401650	0.18758512
38	0x3e4f6729	0.20254196
39	0x3ca16d66	0.019705486
40	0x3b067d55	0.002052148
41	0xbc0ceab0	-0.008600876
42	0xbd583a0a	-0.052789725
43	0xba93f4b4	-0.0011288137
44	0xbe437701	-0.19088365
45	0x3b0da9f8	0.0021616202
46	0x3c22b13a	0.009929949
47	0x3ea2dd5f	0.31809518
48	0x3a0e6a71	0.0005432731
49	0x3a953d28	0.0011386024
50	0x3c8b02f5	0.016969183
51	0xba05e7b8	-0.0005108076
52	0x3bac58b1	0.0052595963
53	0x3b06dbf8	0.002057789
54	0xbbb1ba78	-0.00542384
55	0xbe896f54	-0.2684275
56	0xb93d27fc	-0.0001803934
57	0x3ad121ea	0.0015955542
58	0x3bd36ecb	0.0064524165
59	0xbd16045b	-0.036625247
60	0x3ac26c81	0.0014833362
61	0xbb204d0d	-0.0024459988
62	0x3e864470	0.2622409
63	0x3e2c5e4c	0.16832846

critic.v_net.fcs.0.weight f4 [64, 4]
0	0xbf2cd37d	-0.67510206
1	0xbea892a5	-0.3292438
2	0xc09c2d41	-4.880524
3	0xbf1a3a70	-0.6024542
4	0x400fca3e	2.246719
5	0xc08b6c3b	-4.3569617
6	0x40d93642	6.7878733
7	0xc12fe5ff	-10.993651
8	0xc07485d5	-3.8206685
9	0xbfb2d3c7	-1.3970879
10	0x4039e8d1	2.904835
11	0xbfc07559	-1.5035812
12	0x4026f793	2.6088607
13	0x3ff43c0a	1.9080822
14	0xc09c36e2	-4.8816996
15	0xbf0efbc0	-0.5585289
16	0x3f42707f	0.75952905
17	0xbf47e169	-0.78078324
18	0x409c6ab5	4.8880258
19	0xbd60c30c	-0.05487351
20	0xc01b56c7	-2.4271715
21	0xbd6ac953	-0.057320904
22	0xc0ab2bc5	-5.349093
23	0x3b7d6ee3	0.003867083
24	0x3e421193	0.18952017
25	0x3f70399a	0.93837893
26	0xc0d8bdb7	-6.7731586
27	0x3f64f637	0.89438194
28	0x40881e39	4.2536893
29	0x3f9af674	1.2106462
30	0x40a15c15	5.0424905
31	0x3f0d6289	0.5522848
32	0xbfd2606f	-1.6435679
33	0xbcd4d7b5	-0.025981763
34	0x40c4a64c	6.1453
35	0xbe004f62	-0.12530282
36	0xc07d9294	-3.9620714
37	0xbf103428	-0.56329584
38	0x40c345ff	6.1022944
39	0x3ea75060	0.3267851
40	0x3eb45a75	0.35225263
41	0xbf740d56	-0.9533285
42	0xc09ffa30	-4.9992905
43	0xbf398477	-0.7246775
44	0x4037f46f	2.874294
45	0x3fc0ad1c	1.5052829
46	0x3ec52df6	0.38511628
47	0xbfe56883	-1.792252
48	0xc06d5357	-3.7082117
49	0x3cf1da10	0.029522926
50	0xbf625f0e	-0.8842629
51	0xbd769e0b	-0.060209315
52	0xbfddff93	-1.734362
53	0xbf02909f	-0.51001924
54	0x40c11dc7	6.034885
55	0xbe135ab7	-0.14390074
56	0x409c06df	4.8758388
57	0xbfdf96ff	-1.7467955
58	0x3fad2ed2	1.3529913
59	0x3f88bf09	1.0683299
60	0xbfb38163	-1.4023861
61	0x3fb012ac	1.3755698
62	0xc08cfddb	-4.405988
63	0x4075f541	3.843094
64	0x40054d32	2.0828366
65	0xbf5656fa	-0.83726466
66	0x4084801e	4.1406393
67	0xc003f0e0	-2.0615768
68	0x404ebebd	3.2303917
69	0x3fd1b570	1.6383495
70	0xc06999b2	-3.6500058
71	0xc00f0d8c	-2.2352018
72	0xc0a12103	-5.0352798
73	0xc020a4a3	-2.5100486
74	0xc09e8a78	-4.954403
75	0xbf5fa40c	-0.8735969
76	0xc0466b57	-3.1003015
77	0x4053e254	3.310689
78	0x3f3bd423	0.7337057
79	0xc025671d	-2.5844185
80	0x3eb5c56d	0.35502186
81	0x3fd8a241	1.6924516
82	0x405b75ad	3.4290574
83	0x3e534f5d	0.20635743
84	0x3fcdd406	1.608033
85	0x3d6a625c	0.05722271
86	0xc0c0fede	-6.0311117
87	0x3e1416fe	0.14461896
88	0x3ddd85c5	0.1081653
89	0x3f3db55f	0.74104875
90	0xc0a9c431	-5.305199
91	0x3eab65a4	0.33475983
92	0xbddcde32	-0.10784568
93	0xbf26bd2d	-0.6513241
94	0x408c3af7	4.382198
95	0x3e786b04	0.24259573
96	0x404c8909	3.195864
97	0xbf0d307f	-0.55152124
98	0xc0d40b41	-6.626374
99	0xbeacc6f8	-0.3374555
100	0xc01bcc66	-2.4343505
101	0xbe32cf16	-0.1746181
102	0xc07a6e79	-3.9129927
103	0xbecbe90d	-0.3982624
104	0xbebeb761	-0.37249282
105	0xbee3bf0b	-0.44481692
106	0xc09b785c	-4.8584423
107	0xbe5e1f91	-0.21691729
108	0x3f690aa7	0.9103188
109	0x3f37d706	0.71812475
110	0xc05b354e	-3.4251285
111	0xbfce78b0	-1.6130581
112	0xc0a0f738	-5.030178
113	0xc014170a	-2.3139062
114	0x3fab05cc	1.3361144
115	0x3db68383	0.089118026
116	0x405d0a65	3.4537594
117	0x4002f778	2.0463543
118	0xc0a66222	-5.199479
119	0xc00e97a3	-2.2280052
120	0xc0801d1a	-4.0035524
121	0xbffafea6	-1.9608963
122	0x4076ca0a	3.8560815
123	0x3d9b424f	0.07581007
124	0xc07a9d75	-3.9158604
125	0xc02a874d	-2.664508
126	0x40424592	3.0354962
127	0x3e806f95	0.2508513
128	0xbff05499	-1.8775817
129	0xbfdb7b08	-1.7146921
130	0x4081e5a3	4.059282
131	0x3f1751bb	0.59109086
132	0xc030698e	-2.7564425
133	0x3f8fe749	1.1242458
134	0xc08ad719	-4.338757
135	0xbeabfd51	-0.33591703
136	0xbf6d96ec	-0.92808414
137	0x3da893e6	0.082313344
138	0x40cb257c	6.3483257
139	0xbe82a2b7	-0.25514767
140	0xc0c986e1	-6.2977147
141	0xbfd8e0c8	-1.6943598
142	0x3ec7d1cc	0.3902725
143	0xc09fec59	-4.997601
144	0xc08d3fd1	-4.41404
145	0xbfff273e	-1.9933851
146	0x3e96ae21	0.29429725
147	0x3ea305e8	0.31840444
148	0xc05b15a5	-3.423196
149	0xbfdef075	-1.7417132
150	0xc0849b96	-4.1439924
151	0xbdd4b21b	-0.103855334
152	0x3f04e808	0.5191655
153	0xbec54bb7	-0.38534328
154	0x40a9185a	5.2842226
155	0xbe6baebb	-0.23015873
156	0xbf2d5941	-0.67714316
157	0xbd29d31e	-0.041461103
158	0xc0acfe13	-5.406015
159	0xbde02bc3	-0.10945847
160	0x404b1117	3.172918
161	0xc0176498	-2.3655148
162	0xc0150ba0	-2.3288345
163	0x40908e00	4.517334
164	0x408e1eb0	4.441246
165	0x3fc49b8a	1.5359967
166	0x40a0249f	5.0044703
167	0x3f162a1b	0.58658
168	0xbf0a2a39	-0.53970677
169	0x3f25ee44	0.6481669
170	0x3f195d26	0.5990776
171	0x3ffe7b06	1.9881294
172	0x40d287b2	6.5790644
173	0x3efca72d	0.49346295
174	0xc01b0b94	-2.4225817
175	0xc0e12c5d	-7.0366654
176	0x404a4f42	3.1610875
177	0xbfeb91b1	-1.8403836
178	0xc0bc5f64	-5.8866444
179	0xbf2be66f	-0.6714849
180	0xbf8b62ab	-1.0889486
181	0xbe24659d	-0.16054387
182	0xc0992b17	-4.78651
183	0xbf44935e	-0.76787364
184	0xc0d9304e	-6.7871466
185	0xc04d0443	-3.203385
186	0xbfc3f937	-1.5310429
187	0xbf25fa41	-0.6483498
188	0xc007c45d	-2.12136
189	0x3f4fcfa9	0.8117624
190	0x40c64060	6.1953583
191	0x3ebeb12c	0.37244546
192	0xc04dd572	-3.2161527
193	0x3ef506d5	0.47856775
194	0xc0d122fd	-6.535521
195	0x3f5aa306	0.85405004
196	0x4019c32a	2.4025369
197	0x3fbc1223	1.4693035
198	0xc0802e04	-4.005617
199	0xbfdb21f3	-1.7119735
200	0xc03b6948	-2.9283009
201	0xbfc6cc9e	-1.5531194
202	0xc09e8d1c	-4.9547253
203	0xbf4ff42d	-0.8123196
204	0x3f5482d9	0.8301216
205	0x3f112bf1	0.56707674
206	0x40b2d1f3	5.5881286
207	0xbdc93b6e	-0.098257884
208	0xbfb9d8e3	-1.4519314
209	0x3f5a0c75	0.8517526
210	0x40b2c403	5.586427
211	0x3edbf5e7	0.42961046
212	0xc075c586	-3.8401809
213	0xc06458fc	-3.5679312
214	0x4031bdb7	2.7772043
215	0x3fb311ac	1.3989768
216	0x40e9498b	7.2902274
217	0xbf602443	-0.8755533
218	0x3f342dd7	0.70382446
219	0x3fb0926d	1.3794686
220	0x40725ddb	3.7869785
221	0xbf280f0c	-0.6564796
222	0x409072fa	4.514035
223	0x3f35a89b	0.70960397
224	0xc031aae7	-2.776056
225	0xbf861847	-1.0476159
226	0xc07da976	-3.963468
227	0xbd315a1c	-0.043298826
228	0x3b8db74c	0.004324829
229	0xbf4a0a26	-0.78921735
230	0x40a36d7b	5.1071143
231	0xbe61787c	-0.22018617
232	0x3f497c09	0.7870489
233	0x3d7249db	0.059152465
234	0x407b6fbf	3.9286954
235	0x3f0ad80f	0.5423593
236	0x402733c8	2.6125355
237	0x3fa486f5	1.2853686
238	0xbfe69d6a	-1.8016789
239	0x3e997356	0.29970807
240	0x3fa27c21	1.2694131
241	0xbfabf080	-1.343277
242	0x40925232	4.5725336
243	0x3f7fc656	0.9991201
244	0xc0e054d2	-7.010354
245	0x3f5b3b0c	0.85636973
246	0xbf5a0fc5	-0.8518031
247	0x3ef783fa	0.48342878
248	0x3faca20c	1.3486953
249	0xc02cb03e	-2.698257
250	0x408f1cf3	4.472284
251	0xbee956a4	-0.45573914
252	0xc0511b80	-3.2673035
253	0xc034d968	-2.8257694
254	0xbf616514	-0.8804486
255	0xc023d231	-2.559704

critic.v_net.fcs.0.bias f4 [64]
0	0xbef7a132	-0.4836517
1	0xbf64d3f5	-0.8938592
2	0x3b9cae75	0.004781539
3	0x3d1ba3bc	0.037997946
4	0xbeffbe4c	-0.49949872
5	0x3e797146	0.24359617
6	0x3dd9f79b	0.1064293
7	0xbe86dab9	-0.26338747
8	0x3e786e49	0.2426082
9	0x3e88f967	0.2675278
10	0xbf2f91a3	-0.685816
11	0xbf161b9d	-0.58635885
12	0xbfad387e	-1.3532865
13	0x3ddd983b	0.10820051
14	0xbf425625	-0.75912696
15	0x3f46ae1b	0.77609414
16	0x3c048d0b	0.008090268
17	0xbf7d7a8f	-0.99015135
18	0x3e8633bd	0.26211348
19	0x3f9ce5c1	1.2257615
20	0x3f1e055d	0.61726934
21	0xbe47919f	-0.19489144
22	0x3e984c32	0.29745632
23	0xbf56deb0	-0.83933544
24	0xbe96f774	-0.29485667
25	0x3e8175bc	0.25285137
26	0xbe92b98c	-0.28657186
27	0xbf3eda8d	-0.7455223
28	0xbe38a2cf	-0.18030857
29	0x3ec3514f	0.3814797
30	0xbe03edb2	-0.12883642
31	0x3e9edf21	0.3102961
32	0x3eb2df87	0.34936163
33	0x3f118507	0.5684361
34	0x3d9056d8	0.07047814
35	0x3e0a2179	0.13489331
36	0xbdb2ffeb	-0.08740219
37	0xbe159f3a	-0.14611521
38	0xbe8387b5	-0.25689474
39	0xbe62b083	-0.22137646
40	0xbf520f89	-0.82054955
41	0xbe87fe2d	-0.26561108
42	0xbf81c80b	-1.0139173
43	0x3ea091e0	0.31361294
44	0xbea31ce9	-0.31857994
45	0xbec7c16f	-0.39014766
46	0x3d81b742	0.06333782
47	0x3ebaf213	0.36512813
48	0xbda3de43	-0.080013774
49	0xbf6f9d56	-0.9359945
50	0x3f12fae7	0.57414097
51	0x3e8ff386	0.2811548
52	0x3ee9ed6c	0.4568895
53	0x3f2ac218	0.66702414
54	0xbef85663	-0.48503408
55	0xbe92a088	-0.286381
56	0x3c875d16	0.016523879
57	0xbec37964	-0.3817855
58	0x3e6e494d	0.2327015
59	0x3f3f1f4f	0.7465715
60	0xbf78dba4	-0.97210145
61	0x3d8386f8	0.064222276
62	0xbe70e64e	-0.23525354
63	0xbf0aa811	-0.541627

critic.v_net.fcs.1.weight f4 [64, 64]
0	0x3d9dc327	0.07703238
1	0x3ef07e67	0.46971437
2	0xbf006ddb	-0.50167626
3	0x3f25203b	0.64502305
4	0x3f54ca73	0.83121413
5	0xbfe9a01e	-1.8251989
6	0xbe611f7b	-0.21984665
7	0x40012544	2.0178995
8	0xbf46d64f	-0.7767076
9	0xbfc74056	-1.5566509
10	0xbdc9a464	-0.09845808
11	0xbf0a8c99	-0.54120785
12	0xbfecc5d7	-1.8497876
13	0xbf40df61	-0.7534085
14	0xbf6c0ca5	-0.92206794
15	0xbf16132c	-0.58623004
16	0x3f079d56	0.5297445
17	0xbdc1f272	-0.09470071
18	0xbf91acf2	-1.1380904
19	0x3e502846	0.20327863
20	0xba84f71d	-0.0010144446
21	0x3f554a8c	0.83316875
22	0xbf02de3c	-0.5112035
23	0x3ee585fc	0.44828784
24	0x3f9ab21a	1.2085602
25	0xbeca5918	-0.39521098
26	0xbec2c513	-0.3804098
27	0x3c00962e	0.007848306
28	0xbe8d52bb	-0.2760218
29	0x3e69a7ac	0.22817868
30	0xbcd9b69b	-0.02657633
31	0xbf7b4bd4	-0.9816258
32	0xbf04b891	-0.51844126
33	0xbfac0eb4	-1.3441987
34	0xbf0d5b3c	-0.5521734
35	0xbfff7f19	-1.9960662
36	0xbea6880e	-0.32525676
37	0xbfb077f5	-1.3786608
38	0x3f148289	0.5801168
39	0xbc2ade85	-0.010429029
40	0x3f2893c7	0.6585049
41	0x4008573a	2.130324
42	0xbf889520	-1.0670509
43	0x3f586a33	0.8453705
44	0x3f435e93	0.76316184
45	0xbeaaf6c3	-0.3339139
46	0xbf4736e1	-0.77818114
47	0xbf481ec1	-0.78171927
48	0xbf2f7455	-0.68536884
49	0xbd80225d	-0.06256554
50	0xbf2d448c	-0.6768272
51	0x3eb68a57	0.3565242
52	0x3e0f5c48	0.14000046
53	0xbd2f0dd9	-0.042737816
54	0x3f4f0403	0.80865496
55	0x3fbf2de7	1.4935883
56	0xbde9ccf7	-0.11416047
57	0x3ec0d863	0.3766509
58	0x3dcb3bf3	0.09923544
59	0xbe00d34f	-0.12580608
60	0x3ec9b86d	0.39398518
61	0xc00135c9	-2.0189078
62	0xbe261e26	-0.16222438
63	0xbf88bb13	-1.068209
64	0xbf4389b9	-0.76382023
65	0x3ff9e16f	1.9521922
66	0x3f8da869	1.106702
67	0xbfb190f1	-1.3872358
68	0x3f44d28c	0.7688377
69	0xbf94569a	-1.1588929
70	0xbfcab45d	-1.5836293
71	0x3ecec0bf	0.4038143
72	0x3fcfbe29	1.6229907
73	0x3f9c3e65	1.2206541
74	0xbf1fa6b8	-0.6236377
75	0xbe7db0c7	-0.24774466
76	0xbb98a3b0	-0.004658185
77	0x401007fb	2.250487
78	0x3e5f1696	0.2178596
79	0xbfb39116	-1.4028652
80	0x3ecfaeaa	0.40562946
81	0xbe7116e9	-0.23543896
82	0xbd816dff	-0.06319808
83	0xbe84fa2f	-0.25972125
84	0x3f3b5b88	0.7318654
85	0xbff97587	-1.9488991
86	0xbf6fa8ea	-0.9361712
87	0x3d4289ca	0.047494687
88	0xc0398415	-2.8986866
89	0xbe0d0db7	-0.13774763
90	0xbff795bd	-1.9342571
91	0xbeb4f88f	-0.35345885
92	0x3f005993	0.5013668
93	0xbeeb348f	-0.45938537
94	0x3f1b4d2a	0.6066462
95	0x3fabe3b6	1.3428867
96	0x3fa13ffa	1.2597649
97	0xbec52572	-0.3850513
98	0x4005a263	2.0880363
99	0xbf0b8e71	-0.54514223
100	0x3ecba793	0.39776286
101	0xbeb02c51	-0.3440881
102	0x3f87b1c8	1.060113
103	0xc008c8d5	-2.1372578
104	0x3f5bdc60	0.8588314
105	0x3e004c63	0.12529139
106	0x3d897390	0.06711495
107	0xbff0c6ba	-1.8810647
108	0xc0487308	-3.132021
109	0xbf403b3f	-0.750904
110	0x3f110b8f	0.5665826
111	0x40607407	3.5070817
112	0xbf8339b4	-1.0251985
113	0xbf09609d	-0.53663045
114	0xbe3ebc29	-0.18626465
115	0x40227a3e	2.538711
116	0x3fd490a0	1.6606636
117	0x3f555bf1	0.83343416
118	0x3e3d2b0e	0.18473455
119	0x3efe25ab	0.49638113
120	0xbed1a04a	-0.40942603
121	0x3f501116	0.8127607
122	0x3f2af7de	0.66784465
123	0xbe475eb4	-0.1946972
124	0x3e1822a6	0.14856967
125	0x3f42f57b	0.76155823
126	0x3ee5e72b	0.4490293
127	0xbc27126b	-0.010197262
128	0x3f190f05	0.59788543
129	0xc00c9ac8	-2.196947
130	0xbf98c152	-1.1933997
131	0x3f90323a	1.1265328
132	0xbfae94a6	-1.3639114
133	0x3fdd3369	1.7281314
134	0x400f0ae2	2.2350392
135	0xbee7cc6a	-0.45273143
136	0xc02c3166	-2.690515
137	0xbfdc30b9	-1.7202369
138	0x3ec2c554	0.38041174
139	0x3f1a9fbc	0.60399985
140	0xbf04a9ad	-0.51821405
141	0xc05f723d	-3.4913476
142	0xbef88649	-0.4853995
143	0x3fb0249f	1.3761176
144	0xbf9fa27b	-1.247146
145	0x3e1001f8	0.14063251
146	0xbe3d5a9b	-0.18491594
147	0x3dfbabaa	0.12288602
148	0xbef0f8ab	-0.4706472
149	0x40524eed	3.2860672
150	0x3fd000fd	1.6250302
151	0xbf4fea31	-0.8121672
152	0x403f129e	2.9855113
153	0x3f1db5ae	0.61605346
154	0x3fc5ee52	1.5463355
155	0x3e396d8d	0.18108197
156	0xbe58f0f5	-0.21185668
157	0x3f290eb4	0.6603806
158	0xbf44d621	-0.76889235
159	0xbfbd3684	-1.4782262
160	0xbf9aeda6	-1.2103775
161	0x3fb7b14e	1.4350984
162	0xc0890ed1	-4.2830586
163	0xbf1f8612	-0.6231395
164	0x3e15606e	0.14587566
165	0x3f465db3	0.77486724
166	0xc00245e7	-2.0355165
167	0x3fd9bcc6	1.7010734
168	0xbec80042	-0.39062697
169	0xbdc4e9d4	-0.09614912
170	0xbe96b146	-0.29432124
171	0x3fcd0f0c	1.6020217
172	0x4023d77f	2.5600278
173	0x3f155c09	0.5834356
174	0xbf97af72	-1.1850417
175	0xc02928a1	-2.6431048
176	0x3fddbef2	1.7323897
177	0x3ea564da	0.32303506
178	0x3ea198ad	0.31561795
179	0xc01c4f30	-2.4423332
180	0xbfd3ca95	-1.6546198
181	0xbf31a616	-0.6939405
182	0xbd682c59	-0.05668292
183	0xbf620bc2	-0.8829919
184	0x3f193576	0.598472
185	0xbfbba71d	-1.4660374
186	0xbed45e34	-0.4147812
187	0x3f203b9a	0.62590945
188	0xbef4672b	-0.4773496
189	0xbf2d4242	-0.67679226
190	0xbe022f0a	-0.12713256
191	0xbeb051b4	-0.34437335
192	0xbe80f0ef	-0.25183818
193	0x3f0e4dbd	0.5558737
194	0xbe5ba00b	-0.2144777
195	0xbf709a80	-0.9398575
196	0x3fd1be3b	1.6386179
197	0xbfa34b43	-1.2757343
198	0xbfad49de	-1.3538167
199	0x3eaba994	0.33527815
200	0xbe060348	-0.13087189
201	0x3e146601	0.14492036
202	0x3dc7924d	0.097447015
203	0xbf334164	-0.70021653
204	0x3e2b0afc	0.16703409
205	0xbeb20811	-0.3477178
206	0x3f71e84a	0.9449507
207	0xbeaee5e4	-0.34159768
208	0x3f85e54c	1.0460601
209	0xbe9f8fc9	-0.31164387
210	0x3e33b397	0.17548977
211	0xbf1808c6	-0.5938839
212	0xbdcd7adb	-0.100331984
213	0x3efb84b4	0.49124682
214	0xbfa0960b	-1.254579
215	0xbd8ba776	-0.0681905
216	0x3fa1e9d0	1.2649479
217	0xbf2689a9	-0.650538
218	0xbe9cd228	-0.30629086
219	0xbf03d4dc	-0.5149667
220	0xbec65d82	-0.38743216
221	0x3d80480e	0.06263743
222	0xbdc5057f	-0.09620189
223	0x3f9a7d25	1.2069441
224	0x3f371029	0.71509033
225	0xc04f9475	-3.243436
226	0xbf3afb6b	-0.73039883
227	0x3f3ecf93	0.74535483
228	0xbee8c9a3	-0.45466337
229	0xbe800d52	-0.25010163
230	0x3f9d7687	1.2301797
231	0xbf62f199	-0.886499
232	0x3f0d84e4	0.552809
233	0xbe0e71ff	-0.13910674
234	0xbf668068	-0.9003968
235	0xbf0aefdf	-0.54272264
236	0x3fe510da	1.7895768
237	0xbe8402d8	-0.2578342
238	0x3f77019a	0.9648682
239	0xbfad45a4	-1.3536878
240	0xc03a0039	-2.9062636
241	0xbef0316a	-0.469127
242	0x3e6c5271	0.23078324
243	0x3f821dcc	1.0165343
244	0xbf016e75	-0.5055917
245	0x3f33ecf3	0.7028343
246	0x3fe8b47c	1.818008
247	0x3fc00476	1.5001361
248	0xbeda737f	-0.42666242
249	0x3f322ff6	0.6960443
250	0x3ef96cac	0.48715723
251	0xbef0d289	-0.47035626
252	0x3f564348	0.83696413
253	0xc02937c4	-2.6440287
254	0x3ff5f548	1.9215479
255	0x3f05686d	0.52112466

critic.v_net.fcs.1.bias f4 [64]
0	0x3f58c157	0.84670013
1	0xbd952e23	-0.072841905
2	0x3e8775ad	0.26456967
3	0xbcf8dc46	-0.030378472
4	0xbf387f61	-0.72069365
5	0x3eb00006	0.34375018
6	0xbeb6f889	-0.35736492
7	0xbe16d17e	-0.14728352
8	0xbf053db4	-0.52047276
9	0xbee0f925	-0.43940082
10	0xbf1f93d7	-0.6233496
11	0x3e13852f	0.14406274
12	0x3e8885a7	0.2666447
13	0x3eb39d58	0.3508098
14	0xbdfb565b	-0.122723304
15	0xbec16b95	-0.3777739
16	0xbe198c68	-0.14994967
17	0x3e3bad14	0.18327743
18	0xbe563a40	-0.20920658
19	0xbe44600b	-0.19177262
20	0xbd924247	-0.07141548
21	0xbe17c5a3	-0.14821486
22	0xbecfe2ea	-0.4060281
23	0x3e3b3da3	0.18285231
24	0x3ebf8df3	0.37412986
25	0xbe356735	-0.17715152
26	0xbea72e88	-0.32652688
27	0xbe95b256	-0.29237622
28	0x3d923d9d	0.07140658
29	0xbeaf256b	-0.34208235
30	0xbe3a7f9d	-0.18212743
31	0x3d96961c	0.0735285
32	0xbec59b14	-0.38594878
33	0xbe84187a	-0.25799924
34	0xbd31856a	-0.043340124
35	0x3f11bc0a	0.5692755
36	0x3df672ab	0.1203359
37	0xbef0ca74	-0.4702946
38	0xbe229311	-0.15876414
39	0xbd3eaf5d	-0.04655396
40	0xbf062b4d	-0.5240982
41	0xbeffa716	-0.49932164
42	0x3e829f2d	0.25512066
43	0xbd721e76	-0.05911108
44	0x3e598437	0.21241842
45	0x3e88f878	0.26752067
46	0xbefe071e	-0.49614805
47	0x3d50a441	0.050937895
48	0xbe8c748e	-0.27432674
49	0xbed74a04	-0.42048657
50	0x3e998c39	0.29989794
51	0x3eae5339	0.3404787
52	0xbe442e7d	-0.19158359
53	0xbe9e3bc8	-0.30904984
54	0xbb513962	-0.0031925072
55	0x3e1e8a13	0.15482359
56	0x3ee73b2b	0.4516233
57	0xbde3c956	-0.11122386
58	0x3f358e36	0.7092012
59	0xbdda168d	-0.106488325
60	0xbfc82412	-1.5636008
61	0x3e05a504	0.1305123
62	0x3ea7944a	0.32730323
63	0x3eb18724	0.34673417

critic.v_net.fcs.2.weight f4 [1, 64]
0	0x4098fcf6	4.780879
1	0x3ffc8af1	1.9729902
2	0xc06daf41	-3.7138216
3	0xc01755ae	-2.3646045
4	0x3f7acf20	0.979723
5	0x3f8850c6	1.064965
6	0xbf857abd	-1.0428082
7	0xbfbea3f2	-1.4893782
8	0x402b9bc5	2.6813824
9	0x406c15a8	3.6888218
10	0x40a9a3de	5.3012533
11	0x40f8566b	7.760549
12	0x3fd16863	1.6359981
13	0x407b2146	3.9239058
14	0xbffec808	-1.9904795
15	0xbfeffea1	-1.8749582
16	0xbfbafa45	-1.4607626
17	0x3ff95c2d	1.9481255
18	0xc0ecd6f2	-7.4012384
19	0x3ff348f9	1.9006644
20	0xc0103b31	-2.2536128
21	0xbfba8a4a	-1.4573452
22	0xbfae2543	-1.3605121
23	0xc02ee0cf	-2.7324712
24	0x400c3480	2.1907043
25	0xbf819ada	-1.0125382
26	0xc01c88d3	-2.445851
27	0x40120a91	2.281895
28	0x41007b01	8.03003
29	0xbff476e2	-1.909878
30	0x4032c6e9	2.7933905
31	0x40000986	2.0005813
32	0x407be277	3.9356973
33	0xbf88c258	-1.0684309
34	0xbfc8d520	-1.569004
35	0xc070c314	-3.7619066
36	0x3fb5df4a	1.4208767
37	0xc00ddc50	-2.2165718
38	0x3fff58db	1.9948992
39	0x40492f14	3.1434984
40	0x405c5ca7	3.443155
41	0xc00e63cb	-2.2248409
42	0x3ffec09c	1.990253
43	0xbfbfd150	-1.4985752
44	0x3f9b226d	1.2119881
45	0x3fda18d6	1.7038829
46	0xbff9ca8d	-1.9514939
47	0x3fb3493c	1.4006724
48	0xc00827c8	-2.127428
49	0xc008cd23	-2.1375206
50	0x3fc46410	1.5343037
51	0x4004bec8	2.0741444
52	0xbf8fe827	-1.1242722
53	0x405b65e5	3.4280941
54	0xbffe251d	-1.9855076
55	0x3fba09c1	1.4534227
56	0x407a4d3f	3.9109647
57	0xbf961e2f	-1.1727961
58	0xc00e1f99	-2.2206786
59	0x403b79cf	2.9293096
60	0xc09dd623	-4.9323897
61	0x3fd5ca3e	1.6702344
62	0x3fe0cb17	1.7561978
63	0x40221160	2.5323105

exp_avg f4 [64, 4]
0	0x38dddaa5	0.00010578827
1	0x38b95d59	8.838875e-05
2	0xb8ff7193	-0.000121805024
3	0x38df3145	0.00010642646
4	0xb8ae5d4e	-8.314346e-05
5	0x39e9c4e4	0.00044587918
6	0xb9a2c545	-0.00031046025
7	0xba100200	-0.0005493462
8	0xb8f0bdc5	-0.00011479439
9	0xb717d53e	-9.049951e-06
10	0x387e99bd	6.07015e-05
11	0xb92cd027	-0.00016480741
12	0x38ca2dfc	9.640676e-05
13	0x3aa06ded	0.0012239792
14	0xb85b10bc	-5.2229254e-05
15	0xba15d5a8	-0.0005715736
16	0x390f70a4	0.00013679505
17	0xb95f763e	-0.00021310986
18	0x38add89a	8.289628e-05
19	0x3a5e5897	0.0008481829
20	0xb984ad06	-0.00025305914
21	0x3a4158f5	0.00073756214
22	0x3a20423e	0.00061133865
23	0xb9cdb709	-0.0003923702
24	0x38bac217	8.905323e-05
25	0xb9dce9e2	-0.00042135926
26	0x3896a8ef	7.184024e-05
27	0x3a02f0ba	0.00049949775
28	0x38e16aaa	0.00010748704
29	0xb92b0f0a	-0.00016313433
30	0x3936b3fc	0.00017423922
31	0x39272097	0.00015938502
32	0x397225e5	0.00023093035
33	0xb9c887ee	-0.00038248248
34	0xb8389e52	-4.4016466e-05
35	0x3a78f198	0.00094964495
36	0xb97ea11d	-0.00024283347
37	0xb84ae837	-4.837682e-05
38	0x388e46ab	6.7842506e-05
39	0xb9c3e558	-0.00037364173
40	0x381254cc	3.4888086e-05
41	0x38f446bf	0.00011648004
42	0x38d469ab	0.0001012863
43	0xb90faba7	-0.00013701488
44	0xba20cee9	-0.00061343476
45	0x3aa3aafd	0.0012486872
46	0x39bdcab1	0.00036199906
47	0xbac45468	-0.0014978768
48	0xb9375541	-0.00017484
49	0x3943f18d	0.00018686634
50	0xb74ab4c9	-1.2082231e-05
51	0xba1bcac8	-0.00059429975
52	0xb91c742a	-0.00014920594
53	0x387ff2ae	6.102275e-05
54	0x39efcce2	0.00045738282
55	0xb92824d2	-0.00016035445
56	0x38e66781	0.00010986534
57	0x3982a5be	0.0002491902
58	0xb85a3ebf	-5.2033687e-05
59	0xb798b500	-1.8204097e-05
60	0xb890673f	-6.885686e-05
61	0xb880853f	-6.128335e-05
62	0xb9039adf	-0.00012550828
63	0xb913adca	-0.00014083754
64	0xb98eea03	-0.00027258703
65	0x38f6f1b8	0.00011775218
66	0x39cea751	0.00039416042
67	0xba12d9e5	-0.0005601927
68	0xb91dcdc4	-0.0001504934
69	0x392ad0ca	0.00016290243
70	0x38a6ff62	7.9630656e-05
71	0xb9a653e4	-0.0003172449
72	0x37a2b68a	1.9396906e-05
73	0x3995b8af	0.00028557095
74	0x39011327	0.00012309533
75	0xb9154657	-0.00014235951
76	0xb98aff70	-0.00026511727
77	0xba08437f	-0.0005198046
78	0x393fcc3f	0.00018291267
79	0xb8038bd6	-3.1363066e-05
80	0xb8dba183	-0.00010472818
81	0x39f78893	0.00047213267
82	0x393cd4aa	0.000180083
83	0xb988356a	-0.00025979738
84	0x39107d58	0.00013779604
85	0x38aed441	8.336502e-05
86	0xb99cb8fb	-0.0002989246
87	0x39911562	0.00027672487
88	0xb9f9ea30	-0.00047667464
89	0x3a097f2c	0.00052450853
90	0x3a2ff460	0.0006712135
91	0xba39e144	-0.0007090757
92	0xb9ffe410	-0.0004880731
93	0xb928eeeb	-0.00016110732
94	0x39e19541	0.00043026547
95	0xba7b388e	-0.00095833174
96	0xba41c340	-0.000739146
97	0x3a979b33	0.0011566639
98	0x390cb61d	0.00013419283
99	0xbb3a5768	-0.0028433446
100	0xb99f898e	-0.0003042933
101	0x3a013837	0.0004929336
102	0x39d587b1	0.00040727624
103	0xba7de12e	-0.00096847385
104	0xb9a34a0a	-0.00031144946
105	0x3a66a629	0.00087985635
106	0xba6169a1	-0.0008598809
107	0xbb2a71ab	-0.0026007693
108	0xb9b18cf9	-0.00033865104
109	0x3a29bf14	0.0006475311
110	0x37a97c5c	2.020428e-05
111	0xbae01fa9	-0.0017099279
112	0x38bfd731	9.147672e-05
113	0xb979857b	-0.00023796216
114	0xb8f3ad09	-0.00011619373
115	0x39d630e0	0.00040853675
116	0xb9b3126f	-0.00034155275
117	0x3a79ae4b	0.0009524568
118	0x39ae4e0e	0.00033246021
119	0xbac0d634	-0.0014712275
120	0xb9236eba	-0.0001558614
121	0xb9d69e89	-0.0004093538
122	0x389af859	7.3895506e-05
123	0x38cd6f74	9.7959215e-05
124	0x387af127	5.9829235e-05
125	0xb9d7a854	-0.0004113341
126	0x3a312c89	0.00067586504
127	0x3a9e814f	0.001209298
128	0x385a8c02	5.2105643e-05
129	0x39dac962	0.00041730242
130	0xb7b968db	-2.2102546e-05
131	0xb948fa6e	-0.00019166779
132	0x395fc188	0.00021339033
133	0x386e8b12	5.687314e-05
134	0xb9a51992	-0.00031490304
135	0x39baf6b7	0.000356605
136	0xb96619a6	-0.00021944064
137	0xba5e757e	-0.00084861356
138	0x38ac73e6	8.223187e-05
139	0x392e821d	0.00016642404
140	0x3a2ff975	0.0006712892
141	0xba969150	-0.0011487398
142	0xb9934e68	-0.00028096442
143	0x3b10e610	0.0022109784
144	0xb9b31411	-0.0003415649
145	0x3a578d94	0.0008222696
146	0xb9eaa7e1	-0.00044757038
147	0xbb32d4b3	-0.0027287423
148	0xb914b107	-0.00014180328
149	0x3a92639f	0.0011168605
150	0xbac8df23	-0.0015325289
151	0xbb2d2558	-0.0026419964
152	0x398543ce	0.00025418255
153	0xb96d7ae5	-0.00022647863
154	0xb96228b2	-0.000215682
155	0x3a849fce	0.0010118426
156	0x391fecc2	0.00015251621
157	0x38ac0bf1	8.2038234e-05
158	0xb9499806	-0.00019225487
159	0x3968e981	0.00022212231
160	0x39142387	0.00014127615
161	0x3803648b	3.132647e-05
162	0xb9701ca8	-0.00022898859
163	0x395642ee	0.00020433564
164	0x3a5c0447	0.00083929714
165	0xbad35206	-0.0016122467
166	0xb99921a5	-0.000292075
167	0x3b36c77f	0.0027889905
168	0xb9003b4f	-0.00012229125
169	0x3607d18f	2.0238547e-06
170	0x38c546d7	9.406887e-05
171	0xb923273b	-0.00015559506
172	0x392afa18	0.0001630563
173	0xb9c16d3d	-0.00036893217
174	0x392b82a8	0.00016356504
175	0x3a177f1e	0.0005779135
176	0x397815b1	0.00023659204
177	0xba0038ce	-0.0004891277
178	0x395347a8	0.00020149222
179	0x3a86e6b7	0.0010292147
180	0xb9509162	-0.00019890585
181	0x39ac5a75	0.00032873792
182	0xb96e29c9	-0.00022713015
183	0xba5a3151	-0.0008323389
184	0x39d129b1	0.0003989465
185	0xba199a29	-0.00058594585
186	0xb95e8716	-0.00021221893
187	0x3ade286d	0.0016949304
188	0xb93f5450	-0.00018246588
189	0xb9a4ea8f	-0.00031455277
190	0x38a48f13	7.846779e-05
191	0x38581453	5.151734e-05
192	0xb8ac8595	-8.226481e-05
193	0x39ab2a0f	0.00032646998
194	0xb8ad6e4f	-8.2698294e-05
195	0xb9c5289a	-0.0003760502
196	0xb915dccd	-0.00014292002
197	0x388c619d	6.693902e-05
198	0x398dd2fd	0.00027050814
199	0xb9a79da8	-0.00031970185
200	0xb7213bd5	-9.6102785e-06
201	0xb8927cca	-6.985066e-05
202	0xb8f75423	-0.000117935495
203	0xb76af9a4	-1.4005611e-05
204	0x38a17ea0	7.700664e-05
205	0x38d5c8ab	0.00010194009
206	0xb8ee2699	-0.00011355914
207	0x3875fbf8	5.8647216e-05
208	0xb811a090	-3.472023e-05
209	0xb909075b	-0.00013068078
210	0xb7c24541	-2.3158851e-05
211	0x3887126a	6.4407315e-05
212	0xb8db7c26	-0.00010465858
213	0xb98925d7	-0.0002615887
214	0x37f755a0	2.9484567e-05
215	0xb7806852	-1.5307367e-05
216	0x38de3acf	0.00010596739
217	0xb8240c48	-3.9112085e-05
218	0xb983072a	-0.00024991605
219	0x39a3505b	0.00031149652
220	0xb8230803	-3.886969e-05
221	0xba5d78ba	-0.00084484706
222	0xb823eac6	-3.908088e-05
223	0x396f272a	0.00022807406
224	0x380b0147	3.3141372e-05
225	0xba242c77	-0.00062627293
226	0xb9581f73	-0.00020611081
227	0x392148cb	0.00015381274
228	0x392a836e	0.00016261425
229	0x3a6c5478	0.00090152724
230	0xb9c7a3e1	-0.00038078337
231	0xb987b9a1	-0.0002588751
232	0x3900a2fb	0.00012267746
233	0x38b692f2	8.705807e-05
234	0xb8614728	-5.371045e-05
235	0x394acb65	0.00019339992
236	0xba286f97	-0.00064253196
237	0x3a31792b	0.00067700696
238	0x3a060740	0.00051127747
239	0xbb07e1a1	-0.002073385
240	0xba3923cd	-0.00070625247
241	0x3a7b7a88	0.0009593149
242	0x39890952	0.0002613762
243	0xbb1eb856	-0.002421876
244	0x389db096	7.519235e-05
245	0xba931c6d	-0.0011223682
246	0x3969fd88	0.0002231506
247	0x3a340bf9	0.0006868239
248	0xb8871030	-6.440317e-05
249	0xb8907f7c	-6.890201e-05
250	0x39bd302f	0.0003608479
251	0x384c010b	4.863836e-05
252	0x38f9ac76	0.000119053686
253	0xba8bc53d	-0.001066364
254	0x39675d97	0.00022064742
255	0x3a18bf59	0.0005826853
