training_results/quadrotor_rarl/rap/seed_42/10000000steps/checkpoints/model_5000000.pt (torch, 469445 bytes, 108 tensors)

actor.logstd f4 [4]
0	0xbed3b642	-0.4134999
1	0xbd999abd	-0.07500217
2	0xbe0e368f	-0.13888
3	0xbc91a550	-0.017779022

actor.pi_net.fcs.0.weight f4 [64, 17]
0	0x3db618d8	0.08891457
1	0x3ea32b79	0.31869105
2	0xbefa2564	-0.48856652
3	0x3efc8e8c	0.49327505
4	0x3f24c79d	0.64367086
5	0xbebc15c5	-0.3673536
6	0x3e4ca6f9	0.1998557
7	0xbbc102eb	-0.0058902404
8	0x3ed5b651	0.4174066
9	0xbe13e84c	-0.14444083
10	0xbe17395d	-0.14767976
11	0xbe7c23b1	-0.2462299
12	0xbf0ee54f	-0.5581865
13	0xbe908485	-0.28226104
14	0x3a8902ee	0.0010453144
15	0x3e4bfdb7	0.19921003
16	0xbe3ec726	-0.18630657
17	0x3e361218	0.1778034
18	0xbd865f71	-0.06561173
19	0x3e39c3ab	0.18141048
20	0x3f1a6bb8	0.60320616
21	0x3f5ebcd6	0.8700689
22	0x3f1c5d30	0.6107969
23	0x3f86e181	1.0537568
24	0xbf01cd25	-0.5070365
25	0xbeece6d8	-0.4626987
26	0xbd9e870f	-0.07740604
27	0x3e7af6b5	0.24508174
28	0xbe263197	-0.16229855
29	0xbd154c4d	-0.03644972
30	0xbd9d37db	-0.07676669
31	0x3da2f4b1	0.079568274
32	0xbdf7cb96	-0.12099378
33	0x3e87aa39	0.26497057
34	0xbea33472	-0.3187595
35	0xbc6c2710	-0.01441361
36	0x3c87fab0	0.01659903
37	0xbfbc3a0b	-1.4705213
38	0x3f0a3f94	0.5400326
39	0xbd9f0e22	-0.077663675
40	0xbdd0a7fe	-0.10188292
41	0x3e8d5422	0.2760325
42	0x3c63d323	0.013905319
43	0xbdc486f9	-0.095960565
44	0xbd96d5a1	-0.07364965
45	0xbd379124	-0.04481615
46	0x3d630552	0.055424996
47	0x3e24faf1	0.16111352
48	0x3f0a9aad	0.54142267
49	0xbbdd0074	-0.006744439
50	0x3e251842	0.16122535
51	0x3e00ced8	0.12578905
52	0xbeff56df	-0.49870965
53	0x3c9229b9	0.01784216
54	0x3f261bc6	0.6488613
55	0xbf744c50	-0.95428944
56	0x3e9c2a65	0.30501094
57	0x3f6c799b	0.92373055
58	0x3db5d077	0.08877652
59	0xbf16ebaa	-0.58953345
60	0x3e846e1a	0.2586525
61	0xbcad7895	-0.021175662
62	0xbe053860	-0.13009787
63	0xbec84718	-0.3911674
64	0x3ea47e95	0.32127824
65	0x3cb72735	0.022357563
66	0xbe6e745a	-0.23286572
67	0xbcecde7a	-0.028914679
68	0x3eab3a4e	0.3344292
69	0x3f3ae1bd	0.730007
70	0x3e157e09	0.1459886
71	0xbe1adf8b	-0.15124337
72	0x3f8a3304	1.0796819
73	0xbf9146a4	-1.1349683
74	0x3f068939	0.52553135
75	0x3ef4da57	0.4782283
76	0x3efacb0b	0.48983034
77	0xbe57149f	-0.2100396
78	0xbdb7cfcc	-0.08975181
79	0x3e78b2b7	0.24286924
80	0x3da113b6	0.07865088
81	0x3e4272c9	0.189891
82	0x3e42cbb0	0.19023013
83	0x3c450c8b	0.012026916
84	0x3e0c530a	0.13703552
85	0x3da8dc5d	0.08245156
86	0x3e963f4a	0.2934516
87	0xbdf4db31	-0.1195587
88	0xbe9778b2	-0.2958427
89	0x3ca22fae	0.019798126
90	0xbdc1c7ac	-0.094619125
91	0xbf292fad	-0.6608837
92	0x3db45c41	0.088066585
93	0xbe09ea84	-0.13468367
94	0x3e3bbb8d	0.18333264
95	0xbee6d954	-0.45087683
96	0x3e24cd7f	0.16094016
97	0xbda93368	-0.08261758
98	0x3ee2e357	0.44314072
99	0xbd5ffe10	-0.054685652
100	0xbcccd320	-0.025003016
101	0x3ed73ee8	0.4204018
102	0x3de9c8ea	0.114152744
103	0xbeacd4dc	-0.3375615
104	0x3ecc3a22	0.39888102
105	0x3f0dfc08	0.55462694
106	0xbf28f665	-0.6600097
107	0x3eaa3687	0.33244726
108	0x3efe47ff	0.49664304
109	0xbdb13d68	-0.086542904
110	0xbe51c355	-0.2048467
111	0x3c2c7efe	0.010528324
112	0x3ecff149	0.40613773
113	0xbea434ae	-0.3207144
114	0xbd3651be	-0.04451155
115	0x3e939daf	0.2883124
116	0x3e4aca1d	0.19803663
117	0xbd8cfafa	-0.068838075
118	0xbd449c3c	-0.04800056
119	0xbd6d32e5	-0.057909865
120	0xbe4df451	-0.2011273
121	0x3eb89e0d	0.36058083
122	0xbf1f7447	-0.622868
123	0x3f1552f6	0.58329713
124	0xbe7c85cd	-0.24660416
125	0x3fb82a0b	1.438783
126	0xbe4fe055	-0.2030042
127	0x3eb3cf27	0.35118982
128	0x3dda39e1	0.10655571
129	0x3e0bc5b0	0.1364963
130	0xbe1e5a8a	-0.15464225
131	0xbe16a6d6	-0.1471208
132	0x3e5152fd	0.20441814
133	0xbe22ce99	-0.15899123
134	0x3e546f78	0.20745647
135	0xbd011bd6	-0.031520687
136	0x3e8820be	0.2658748
137	0xbd466bd8	-0.04844269
138	0x3f2aa5de	0.66659343
139	0xbea19ac8	-0.315634
140	0x3d986d01	0.07442666
141	0x3f38cd29	0.7218805
142	0xbf0def58	-0.55443335
143	0xbe0af4da	-0.13569966
144	0x3e47e1c6	0.1951972
145	0x3daa4e43	0.083157085
146	0x3e21b07f	0.15789984
147	0xbbd73103	-0.006567122
148	0x3e2478bf	0.16061686
149	0x3ee00880	0.43756485
150	0xbda41029	-0.08010895
151	0x3d691af1	0.05691046
152	0xbe9b9c7a	-0.3039282
153	0x3ef1c97b	0.4722403
154	0xbeab016d	-0.33399525
155	0x3d4fc7af	0.050727542
156	0xbf194012	-0.5986339
157	0x3e9db398	0.30801082
158	0xbef6f834	-0.4823624
159	0xbcc94330	-0.02456817
160	0x3ee15e93	0.44017467
161	0xbce5bf32	-0.02804527
162	0x3f213b3c	0.6298101
163	0x3da84a10	0.08217251
164	0x3eac4435	0.33645788
165	0xbe39c782	-0.18142512
166	0x3dd79ce2	0.1052797
167	0xbcff7efd	-0.031188482
168	0xbce61f50	-0.028091103
169	0x3e642840	0.22280979
170	0x3e371400	0.17878723
171	0x3f3dbf15	0.74119693
172	0xbec89d43	-0.3918248
173	0xbe78555b	-0.2425131
174	0x3f7b23c6	0.9810146
175	0x3e9a4bec	0.3013605
176	0xbf987215	-1.1909815
177	0x3e9d0e61	0.30675033
178	0x3ea2dee8	0.3181069
179	0xbe585bc2	-0.21128753
180	0xbe3e6f6c	-0.18597192
181	0xbe6e7165	-0.23285444
182	0xbd879d76	-0.0662183
183	0xbe900e7c	-0.2813605
184	0xbe67c012	-0.22631863
185	0xbd2ff86b	-0.04296152
186	0xbdd65790	-0.1046592
187	0x3f35adf8	0.7096858
188	0xbe73b46a	-0.23799291
189	0x3ed56716	0.4168021
190	0x3f03339f	0.5125064
191	0x3f5b324a	0.8562361
192	0x3bc1c7e1	0.00591372
193	0x3f9a02b2	1.2032073
194	0xbcf6512b	-0.030068
195	0xbe4cfbb0	-0.20017886
196	0xbeba66b2	-0.36406475
197	0xbdfdc19a	-0.12390442
198	0xbe2580f2	-0.1616247
199	0x3e5e5cc1	0.2171507
200	0xbe052f8c	-0.13006419
201	0xbe26d666	-0.16292724
202	0x3dea9585	0.114543
203	0x3dd75a2e	0.10515247
204	0x3f109c61	0.56488615
205	0xbe8fc167	-0.28077242
206	0xbe9d495b	-0.30720028
207	0x3f2d01ec	0.6758106
208	0xbf83fd42	-1.0311663
209	0xbe9cc5fa	-0.30619794
210	0x3ee4a5a6	0.4465763
211	0x3eed5ad4	0.4635836
212	0xbf058782	-0.52159894
213	0xbe1a84b9	-0.15089692
214	0x3dd03b8a	0.10167606
215	0x3c20c34d	0.009812188
216	0x3e9101c4	0.2832166
217	0xbe61f1fa	-0.22064963
218	0x3c0cfbac	0.008604925
219	0x3dca4791	0.098769315
220	0xbe1445c3	-0.14479737
221	0xbe765180	-0.24054527
222	0x3e0d7adb	0.13816397
223	0xbc54782c	-0.012968104
224	0x3fb13cf4	1.3846726
225	0xbf3d816d	-0.74025613
226	0xbf873f81	-1.0566255
227	0x3ec52414	0.38504088
228	0xbc2ebb1a	-0.010664726
229	0x3d890369	0.066901036
230	0x3e04ff11	0.12987925
231	0x3dd8d815	0.105880894
232	0xbba55c06	-0.0050463704
233	0x3cf0d056	0.029396217
234	0xbde461bc	-0.11151454
235	0xbc17b3c4	-0.009259168
236	0xbd5c6c34	-0.053814128
237	0x3ddda2eb	0.1082209
238	0x3d9dfa79	0.077137895
239	0xbea9ac4d	-0.33139268
240	0xbebdddb4	-0.3708321
241	0xbcee3e47	-0.02908243
242	0x3f351a13	0.7074291
243	0xbf8c76b5	-1.0973727
244	0x3e88b490	0.26700258
245	0xbea89f50	-0.32934046
246	0xbf2ccf95	-0.67504245
247	0xbeb6b30a	-0.3568347
248	0xbd96b9b9	-0.073596425
249	0x3d824eb7	0.0636267
250	0xbca84d7f	-0.020544766
251	0x3e5eb499	0.2174858
252	0xbdb3bd50	-0.08776343
253	0x3e0e29cd	0.13883133
254	0xbeb8fe94	-0.36131728
255	0x3e30b9e6	0.17258415

actor.pi_net.fcs.0.bias f4 [64]
0	0xbd758a56	-0.05994638
1	0x3de66706	0.11250119
2	0x3eb9660d	0.3621067
3	0x3de26e1c	0.11056158
4	0x3e95859e	0.29203504
5	0xbe71cb61	-0.23612739
6	0x3edce74d	0.43145218
7	0x3db01195	0.085971035
8	0x3dad0b0c	0.08449373
9	0xbeb2f663	-0.34953603
10	0xbf03fab7	-0.51554435
11	0x3f0b1386	0.54326665
12	0x3e9a3c00	0.301239
13	0x3e80d6a4	0.25163758
14	0xbe5f5732	-0.21810606
15	0x3d0e6dd7	0.03477272
16	0x3db46177	0.088076524
17	0x3da54b3b	0.0807099
18	0x3e212779	0.15737714
19	0x3e83438f	0.2563748
20	0xbe6e2295	-0.2325538
21	0x3eafa023	0.34301862
22	0xbd8044a0	-0.06263089
23	0x3e3b381b	0.18283121
24	0xbe7fcf1f	-0.24981354
25	0xbf061dc6	-0.5238918
26	0x3d5070b8	0.050888747
27	0xbeb47a27	-0.35249445
28	0xbe5b1f73	-0.21398716
29	0x3c4ec316	0.012619754
30	0xbf0eb870	-0.5575018
31	0x3e64403b	0.22290127
32	0x3e23bee3	0.15990786
33	0xbe720c35	-0.23637469
34	0xbdc0aee9	-0.094083615
35	0xbe2b6b71	-0.16740204
36	0x3ef8cc82	0.48593527
37	0x3e5bebc2	0.21476653
38	0x3e1b684d	0.15176506
39	0x3dd9090e	0.1059743
40	0x3f47753b	0.77913254
41	0xbf2e47c6	-0.6807827
42	0x3e95a0ec	0.29224336
43	0xbf0213c9	-0.5081144
44	0xbefd6d94	-0.49497664
45	0x3dcdd372	0.100500956
46	0x3ecebfe5	0.4038078
47	0x3e4b52eb	0.1985585
48	0xbe528410	-0.2055819
49	0x3defe031	0.11712683
50	0xbe5c6c32	-0.21525648
51	0x3e295b21	0.16538669
52	0xbe44c45a	-0.19215527
53	0xbe3a68de	-0.18204066
54	0xbd929d3e	-0.07158898
55	0xbddc5333	-0.107580565
56	0xbec1e95c	-0.37873352
57	0xbec9dea6	-0.3942768
58	0x3ec5f94b	0.38666758
59	0x3d2fc5be	0.04291319
60	0xbf080372	-0.5313026
61	0xbf30c764	-0.69054246
62	0x3e5174db	0.20454733
63	0xbee3f233	-0.4452072

actor.pi_net.fcs.1.weight f4 [64, 64]
0	0x3eb4eef0	0.35338545
1	0x3e0e9e27	0.13927518
2	0x3dfe22db	0.12408992
3	0xbe598f57	-0.21246086
4	0x3ec2236c	0.3791765
5	0xbe0628be	-0.1310148
6	0xbe9151de	-0.28382772
7	0x3df9aca2	0.1219113
8	0xbe42acf6	-0.19011292
9	0xbd2f404c	-0.042785928
10	0x3eee2760	0.46514416
11	0x3e4c9813	0.19979887
12	0xbe8e35ac	-0.27775323
13	0x3e8b2461	0.27176192
14	0x3e8ee00f	0.27905318
15	0x3e011708	0.12606442
16	0x3b209b0b	0.0024506475
17	0xbeb4ecd5	-0.35336939
18	0xbed92da5	-0.42417637
19	0x3d567fd5	0.052368004
20	0xbda5d7ce	-0.08097802
21	0xbdf15690	-0.117840886
22	0x3e7bcf0e	0.24590704
23	0x3edbbd89	0.4291804
24	0x3d6fcc0e	0.05854421
25	0x3e2f3c6d	0.17112894
26	0xbe8c26fc	-0.27373493
27	0x3e86c146	0.2631933
28	0x3e2fe961	0.1717887
29	0x3e95d756	0.2926585
30	0xbe147a75	-0.14499839
31	0x3dead103	0.11465647
32	0x3ea176d3	0.31535968
33	0x3ebbee25	0.36705127
34	0x3e3cbcad	0.18431349
35	0x3d35c1d4	0.044374302
36	0x3e3cb026	0.1842657
37	0x3cc515d5	0.024058262
38	0x3e345b7a	0.1761302
39	0xbe2fded7	-0.1717485
40	0x3dcadd6d	0.09905515
41	0xbd5917ec	-0.05300133
42	0xbb5306d1	-0.0032200108
43	0x3dc91a3e	0.098194584
44	0x3e4c06f7	0.19924532
45	0xbe9533dd	-0.2914113
46	0x3e27012b	0.1630904
47	0xbdb11ff1	-0.086486705
48	0xbe720dc0	-0.23638058
49	0x3e4c2237	0.19934927
50	0xbd1cca5d	-0.038278926
51	0xbc10688c	-0.008813988
52	0xbeb99dc8	-0.3625319
53	0xbebf5bdd	-0.37374774
54	0x3cd71b0f	0.02625802
55	0xbe257113	-0.16156416
56	0x3d08c3f0	0.033389986
57	0xbebeaec6	-0.37242717
58	0x3d818c24	0.06325558
59	0x3ddfcd6c	0.10927853
60	0x3d6b4ec3	0.05744816
61	0xbdea3616	-0.11436097
62	0xbc8245dd	-0.015902454
63	0xbdb0427a	-0.086064294
64	0xbe2cc99c	-0.16873783
65	0xbe8917c3	-0.2677594
66	0xbdb46098	-0.08807486
67	0x3cdbb701	0.026820662
68	0xbf15e2e7	-0.5854935
69	0xbd55e396	-0.052218996
70	0x3e0a15f3	0.13484935
71	0xbec1e4ec	-0.37869966
72	0xbd043787	-0.032279518
73	0xbe4d587c	-0.20053285
74	0xbf1374dc	-0.5760019
75	0xbe82d195	-0.25550523
76	0x3cb90d08	0.022589222
77	0x3d0457f9	0.03231046
78	0xbc77955d	-0.015111295
79	0xbe603076	-0.21893486
80	0x3d262fe8	0.04057303
81	0x3ebbe966	0.36701506
82	0x3d43ed4c	0.047833726
83	0xbc0ebd33	-0.008712101
84	0xbc013958	-0.007887207
85	0xbdc9f3f5	-0.09860984
86	0x3dd8fe29	0.10595352
87	0xbf2147f6	-0.6300043
88	0xbe09dce7	-0.13463174
89	0xbd1479cb	-0.036248963
90	0xbe2ca2cd	-0.16858979
91	0x3d0dacc4	0.03458859
92	0xbd83d185	-0.06436447
93	0xbe9259c9	-0.28584126
94	0x3e36613c	0.1781053
95	0xbebde322	-0.3708735
96	0xbe69f728	-0.22848189
97	0xbeb48534	-0.35257876
98	0x3e11a4d0	0.14223027
99	0xbe1eac12	-0.15495327
100	0xbed3c6a4	-0.41362488
101	0xbdb52500	-0.08844948
102	0xbde8da07	-0.113697104
103	0xbc012821	-0.007883103
104	0xbeabcaca	-0.33553153
105	0xbdb39bac	-0.087699264
106	0xbe612bb6	-0.2198933
107	0x3e6250ca	0.22101131
108	0x3cc5e037	0.024154766
109	0xbdf8bdba	-0.121455625
110	0xbe00a43d	-0.12562652
111	0xbdb5bc88	-0.0887385
112	0x3ea5e245	0.32399192
113	0xbc1d82c0	-0.009613693
114	0xbeb1c9cc	-0.3472427
115	0x3d2c04b7	0.041996684
116	0x3e4fe2fc	0.20301431
117	0x3d831d0e	0.06402026
118	0x3dab9ca0	0.08379483
119	0x3ec585f4	0.3857876
120	0xbe808eb2	-0.25108868
121	0x3ea176f2	0.3153606
122	0x3ca5bb2f	0.020230858
123	0x3e899799	0.26873472
124	0xbe309918	-0.172459
125	0x3e0d2fb9	0.13787736
126	0xbd4cde5a	-0.05001674
127	0x3e60566f	0.21907972
128	0x3e229a00	0.15879059
129	0x3ed6c804	0.41949475
130	0x3c257269	0.010098078
131	0x3cfd1812	0.030895267
132	0x3de88f98	0.11355513
133	0xbe977c09	-0.2958682
134	0xbcca498d	-0.024693275
135	0x3eb6697e	0.3562736
136	0xbe8ffe5f	-0.28123757
137	0xbe395713	-0.18099622
138	0x3da19418	0.07889575
139	0x3f23a170	0.6391821
140	0x3ddaf806	0.10691838
141	0x3ea19af3	0.3156353
142	0x3e8276f2	0.25481373
143	0xbb39bbb7	-0.0028340647
144	0x3d865455	0.06559054
145	0xbe7742ad	-0.24146529
146	0xbe582576	-0.2110804
147	0xbe36900d	-0.17828389
148	0xbd297950	-0.04137546
149	0xbd76ecfc	-0.0602846
150	0xbcb3b9d0	-0.021939188
151	0x3ea41e2f	0.32054278
152	0x3e3435e6	0.17598686
153	0x3dd25c16	0.1027147
154	0xbdc0ef5c	-0.09420654
155	0x3e4ef58e	0.20210859
156	0x3e68419e	0.22681281
157	0x3dbe6c43	0.09297993
158	0xbf2dac60	-0.6784115
159	0xbd731076	-0.05934187
160	0xbd8c9cc0	-0.06865835
161	0x3e4450ba	0.1917142
162	0x3e979d98	0.29612422
163	0xbe15f423	-0.14643912
164	0x3e44d42c	0.19221562
165	0xbe256d6d	-0.16155024
166	0x3dcdd0f9	0.10049624
167	0xbebb4136	-0.3657319
168	0x3e002dcc	0.1251747
169	0x3dd22b26	0.10262136
170	0x3de2baf0	0.11070812
171	0x3e2ba81e	0.1676335
172	0xbcff0c24	-0.031133719
173	0xbd750c55	-0.059826214
174	0x3e812138	0.25220656
175	0x3db1a96c	0.08674893
176	0xbe862846	-0.262026
177	0x3ec39357	0.3819835
178	0xbdf7c49d	-0.12098048
179	0x3cbd3ab9	0.02309929
180	0xbd30628e	-0.04306274
181	0x3d6b0331	0.05737609
182	0xbe21c512	-0.15797833
183	0xbda54b15	-0.080709614
184	0x3dd01e2e	0.10162006
185	0xbecbacda	-0.39780313
186	0x3d82a895	0.06379811
187	0x3d880687	0.0664187
188	0xbdbc1b15	-0.09184853
189	0xbd3f2f7a	-0.046676137
190	0x3e414368	0.1887337
191	0x3c91fb69	0.017820077
192	0xbbcab163	-0.006185697
193	0xbe263a38	-0.16233146
194	0x3e029c1f	0.12754868
195	0xbddab63a	-0.10679288
196	0xbb05b709	-0.0020403287
197	0x3d0939cc	0.033502385
198	0xbe24058e	-0.16017744
199	0x3e43d7d2	0.19125298
200	0x3db21614	0.08695617
201	0x3de06020	0.109558344
202	0xbdd2c56a	-0.1029156
203	0xbdf54341	-0.11975718
204	0x3c61eef8	0.013789885
205	0xbe1a8c53	-0.15092592
206	0x3e81265c	0.25224578
207	0x3dece779	0.115675874
208	0x3bcf0cbb	0.0063186563
209	0x3d475920	0.04866898
210	0x3d324c73	0.04352994
211	0x3e5f86e8	0.21828806
212	0xbeb2df97	-0.3493621
213	0x3e7b8206	0.24561319
214	0x3def1b7b	0.11675163
215	0xbd10ff43	-0.035399687
216	0x3d4d232f	0.05008238
217	0x3d4f6028	0.05062881
218	0xbe8eef75	-0.27917066
219	0x3e0ab978	0.13547313
220	0x3e233903	0.15939717
221	0x3ed4bdd5	0.4155108
222	0x3ea742c7	0.32668135
223	0xbe68d304	-0.22736746
224	0xbdf0387d	-0.11729524
225	0xbe725294	-0.23664314
226	0xbe65dec0	-0.22448254
227	0x3eb8b1d7	0.3607318
228	0xbdc385d7	-0.09547012
229	0xbd41c496	-0.04730662
230	0xbc7dd2bc	-0.0154921375
231	0x3cb8cdd3	0.022559082
232	0xbe4b771e	-0.19869658
233	0xbd8e34cd	-0.06943665
234	0x3b75f8b7	0.0037532279
235	0x3c2c7c6b	0.01052771
236	0xbdebaa8a	-0.11507137
237	0xbdf69e2c	-0.12041888
238	0x3e82836c	0.25490892
239	0xbe945c32	-0.2897659
240	0x3e4e8e7e	0.20171544
241	0x3e8cba76	0.27486008
242	0xbcb88ac3	-0.022527104
243	0xbe4b98af	-0.19882463
244	0xbc5b5428	-0.013386764
245	0xbe860a83	-0.26179895
246	0x3e81f388	0.25381112
247	0x3d477bd6	0.048702084
248	0xbf31d8cf	-0.6947145
249	0x3e41dbec	0.1893155
250	0x3e501037	0.20318685
251	0xbc94e79c	-0.018176846
252	0x3e9b507a	0.30334836
253	0xbed2ee28	-0.41197324
254	0xbdb1e6a8	-0.08686572
255	0x3e29ad17	0.16569935

actor.pi_net.fcs.1.bias f4 [64]
0	0x3e4439c4	0.19162661
1	0xbbac3223	-0.005255
2	0xbe77d636	-0.24202809
3	0x3ed19ea0	0.40941334
4	0x3cf8fc6b	0.0303938
5	0x3ea2e38b	0.31814227
6	0xbde44bd3	-0.11147275
7	0x3e9d40fd	0.30713645
8	0x3e379e70	0.17931533
9	0xbe4b764e	-0.19869348
10	0xbedb6049	-0.42846897
11	0xbe355ea4	-0.17711884
12	0xbdc567d6	-0.09638946
13	0xbe96c752	-0.29448944
14	0x3ed375ad	0.41300717
15	0xbd1ffd9a	-0.039060213
16	0x3ee05757	0.43816635
17	0xbea5bc5d	-0.32370272
18	0xbd3b1e24	-0.04568304
19	0xbf09d031	-0.538333
20	0x3e99355a	0.29923517
21	0x3ea93100	0.33045197
22	0xbe23dfd7	-0.16003357
23	0x3e8b23c0	0.27175713
24	0xbdd23687	-0.102643065
25	0x3eb7ff7d	0.3593711
26	0x3ecaa3ba	0.39578038
27	0xbcc551c8	-0.024086848
28	0xbe9f04aa	-0.31058246
29	0xbe721b46	-0.23643216
30	0x3e394d90	0.18095994
31	0xbed9a405	-0.4250795
32	0x3e98d7aa	0.2985204
33	0xbe12a211	-0.14319636
34	0xbc3b53cc	-0.011433553
35	0x3db52dad	0.088466026
36	0x3e2cf7e8	0.16891444
37	0x3d599a50	0.05312568
38	0x3e60133c	0.21882337
39	0x3ec84ae9	0.39119652
40	0x3e791bba	0.24326983
41	0xbea72e53	-0.3265253
42	0xbe88bb46	-0.26705378
43	0x3c60ce79	0.013721102
44	0xbe3c243d	-0.18373199
45	0x3e533364	0.20625073
46	0x3ed28563	0.4111739
47	0xbebed593	-0.3727232
48	0xbdaf0303	-0.08545496
49	0xbe04d850	-0.12973142
50	0xbf07160f	-0.52768034
51	0x3f14c8bc	0.58118796
52	0xbe4f105a	-0.20221081
53	0x3cc334dd	0.023828918
54	0xbed2be17	-0.41160652
55	0xbe881325	-0.26577106
56	0x3ec150b1	0.37756875
57	0xbea52735	-0.32256475
58	0xbe1d052e	-0.15334007
59	0x3d3ccf41	0.04609609
60	0xbd661779	-0.05617473
61	0x3e2b916d	0.16754694
62	0x3dd3f605	0.10349659
63	0x3dff5d5c	0.12468979

actor.pi_net.fcs.2.weight f4 [4, 64]
0	0x3e2facce	0.17155764
1	0x3d058d91	0.03260571
2	0xbe7c4555	-0.24635823
3	0x3eb0835c	0.3447522
4	0x3ef041cc	0.469252
5	0x3c02931a	0.007969642
6	0x3dd12ba7	0.10213404
7	0x3d8f0762	0.0698383
8	0x3e0c6204	0.13709265
9	0x3e190cbd	0.14946266
10	0xbe6f7d22	-0.23387578
11	0x3da33a38	0.07970089
12	0xbd09ad73	-0.03361268
13	0x3d3d4b33	0.046214294
14	0x3e915d9a	0.28391725
15	0x3e7b63b8	0.24549758
16	0x3ebb33d4	0.3656298
17	0xbebd1185	-0.3692743
18	0xbe6f8920	-0.23392153
19	0xbe8d290f	-0.27570388
20	0x3ecf2e6b	0.40465102
21	0xbe2dbdc3	-0.1696692
22	0x3d4b7b43	0.0496781
23	0x3cb5789f	0.022152243
24	0x3db29705	0.08720211
25	0x3cbbc11c	0.02291923
26	0xbd9bb297	-0.07602423
27	0xbe9ee7ec	-0.31036317
28	0xbdd0ec42	-0.102013126
29	0x3e22325b	0.15839522
30	0x3cbefe90	0.023314744
31	0xbddd968d	-0.10819731
32	0x3eab9894	0.33514845
33	0xbe8305ed	-0.2559046
34	0xbe849e3b	-0.2590197
35	0xbe817616	-0.25285405
36	0xbe36af03	-0.17840199
37	0x3dba8c3a	0.09108777
38	0x3e898e85	0.26866546
39	0x3ec30b9a	0.3809479
40	0x3ea7eba4	0.32796967
41	0xbf031a54	-0.5121205
42	0xbeef0027	-0.46679804
43	0xbda7f11e	-0.08200286
44	0xbdb61c75	-0.088921465
45	0x3e329d5a	0.17442837
46	0xbdc42d59	-0.09578962
47	0xbef012ec	-0.46889436
48	0xbd2ff58d	-0.042958785
49	0xbe61c1f6	-0.22046646
50	0xbdc2ebb9	-0.09517617
51	0x3e21431e	0.1574826
52	0xbe927c31	-0.28610376
53	0xbda37919	-0.07982082
54	0xbce92b73	-0.028463101
55	0x3e558753	0.20852403
56	0x3e3e1dbf	0.18566035
57	0xbe4fae33	-0.20281295
58	0xbeb81d95	-0.3596007
59	0xbda3c2ee	-0.07996164
60	0x3c753d98	0.014968298
61	0xbe237de2	-0.15965989
62	0x3bbe5a18	0.00580908
63	0x3d024431	0.031803314
64	0xbd9d5e03	-0.07683947
65	0x3eb3ef3e	0.35143465
66	0xbc3663df	-0.01113221
67	0x3dcdc8a0	0.10048032
68	0x3ea0c893	0.31403026
69	0x3ed6b64e	0.41935962
70	0xbebe317c	-0.3714713
71	0xbd186230	-0.037203014
72	0x3e2067fb	0.15664665
73	0xbea9467e	-0.33061594
74	0xbe91b464	-0.2845794
75	0xbdedd811	-0.11613477
76	0x3dd129d9	0.1021306
77	0x3e931238	0.28724837
78	0xbdbb06bd	-0.091321446
79	0x3e3b1fb5	0.18273814
80	0x3dd618de	0.10453962
81	0x3defa79d	0.117018916
82	0xbdd016af	-0.101605766
83	0xbf1b753b	-0.60725754
84	0xbe75f850	-0.24020505
85	0x3ede8ebf	0.43468282
86	0xbe1f5686	-0.1556035
87	0xbd9d1a20	-0.076709986
88	0xbd71e16d	-0.059052873
89	0x3ee7ae35	0.45250097
90	0x3ef73802	0.48284918
91	0xbe5cff02	-0.21581653
92	0x3bcd2827	0.00626089
93	0x3e3665a7	0.17812215
94	0x3eb913fb	0.36148056
95	0x3e91563b	0.283861
96	0xbe67b195	-0.22626336
97	0x3defab1a	0.11702557
98	0x3eaaca2a	0.33357364
99	0x3d4216c2	0.047384985
100	0x3f14fbf6	0.5819696
101	0x3d882da1	0.06649328
102	0x3dd741a0	0.10510564
103	0xbdffe14d	-0.124941446
104	0x3e42e7a1	0.19033672
105	0x3e3783ff	0.17921446
106	0x3e8ba54a	0.27274543
107	0xbecc18cd	-0.39862671
108	0xbe99bbac	-0.30025995
109	0xbe7e55bf	-0.24837397
110	0x3e797ede	0.24364802
111	0x3e72d577	0.23714243
112	0x3eb822ee	0.3596415
113	0x3edca6de	0.4309606
114	0x3d9bcde6	0.076076314
115	0x3dda0aea	0.10646613
116	0xbeabe655	-0.33574167
117	0x3b87447c	0.004128037
118	0xbd9e2e3c	-0.07723662
119	0xbe8264bd	-0.25467482
120	0x3e9fec86	0.3123514
121	0x3de8079e	0.11329578
122	0x3e57163d	0.21004577
123	0xbeb4c7c1	-0.3530865
124	0xbed925c7	-0.42411634
125	0x3b3215b4	0.002717358
126	0xbeef298f	-0.46711394
127	0x3c4ed28d	0.012623441
128	0x3dbeb0af	0.093110435
129	0xbeb64259	-0.35597494
130	0xbe6304c8	-0.22169793
131	0xbde4ce27	-0.11172133
132	0x3c469b7e	0.012122033
133	0xbcb14733	-0.021640396
134	0xbc51a2d0	-0.012795165
135	0x3e2e8a9f	0.17045067
136	0xbe5682d2	-0.20948341
137	0xbeb678b3	-0.3563896
138	0x3ed40e2c	0.41417062
139	0x3e909cc5	0.28244606
140	0x3e868f47	0.26281187
141	0xbee8fa9a	-0.45503694
142	0x3e82ffbc	0.25585735
143	0xbe8113d1	-0.2521043
144	0xbd821d94	-0.06353298
145	0xbe2c0d36	-0.16801915
146	0x3f0ba3a0	0.54546547
147	0x3e93311b	0.28748402
148	0x3ecbdffe	0.3981933
149	0x3edf41da	0.43604928
150	0xbe6da3a7	-0.2320696
151	0xbf044cbb	-0.5167958
152	0xbe2f3a4c	-0.17112082
153	0x3cb15611	0.021647485
154	0x3e7ee143	0.24890618
155	0x3e48150a	0.19539276
156	0xbea511ce	-0.32240146
157	0xbe89b2c4	-0.268942
158	0x3e371108	0.1787759
159	0xbedf06d6	-0.43559903
160	0x3cffbdd0	0.03121844
161	0x3e4a2fde	0.19744822
162	0x3e16db1f	0.14732026
163	0xbdd8d85b	-0.105881415
164	0x3e5c3e73	0.21508197
165	0x3ecad6b8	0.39616942
166	0x3e0e585d	0.13900895
167	0xbecb2e01	-0.39683536
168	0xbef21096	-0.4727828
169	0x3e3d1067	0.18463288
170	0x3e7fc81b	0.24978678
171	0x3eba436b	0.3637956
172	0xbe51009a	-0.20410386
173	0x3ef6cbd2	0.48202378
174	0x3eed68fc	0.4636916
175	0xbcf33653	-0.02968899
176	0xbeec188c	-0.46112478
177	0xbd7b5e80	-0.06136942
178	0xbd806a26	-0.06270246
179	0x3f1450f0	0.57936
180	0x3ebfd481	0.37466815
181	0x3ecd157e	0.4005546
182	0xbf14db35	-0.58146983
183	0xbe975c16	-0.29562443
184	0xbd0822ab	-0.033236187
185	0xbebcd4f6	-0.36881226
186	0x3e5fef7e	0.21868703
187	0x3e8d085c	0.2754544
188	0xbeac8a16	-0.336991
189	0x3f4bfb7a	0.796806
190	0xbea0bd82	-0.31394583
191	0xbee8f32d	-0.45498028
192	0x3f2586f6	0.6465906
193	0xbee8e626	-0.4548809
194	0x3f0ee186	0.5581287
195	0xbdd1f73d	-0.10252235
196	0x3ca5bd7f	0.02023196
197	0xbe939a78	-0.28828788
198	0x3f01a89f	0.5064792
199	0xbeb3d9a9	-0.35127
200	0xbe115ae4	-0.14194828
201	0x3f01c957	0.50697845
202	0x3f130c6f	0.5744085
203	0x3e2da700	0.16958237
204	0xbe99dc10	-0.30050707
205	0xbea5096c	-0.3223375
206	0xbe14f1bf	-0.14545344
207	0xbed999ac	-0.42500055
208	0xbef4b936	-0.47797555
209	0x3d1bb3c7	0.038013246
210	0x3e9bd6b3	0.3043724
211	0x3ee53c72	0.4477268
212	0xbb9b1ce5	-0.004733669
213	0xbe18aa9d	-0.14908834
214	0x3ebcde0b	0.36888155
215	0xbe82f376	-0.2557637
216	0xbec21f8e	-0.379147
217	0xbe9a29b9	-0.30109957
218	0xbf0bd84e	-0.5462693
219	0x3e5a0b34	0.21293336
220	0x3ebc4216	0.3676917
221	0xbe01101b	-0.126038
222	0xbda7e76c	-0.08198437
223	0x3e5b5cbe	0.21422097
224	0x3ea0b41c	0.31387413
225	0x3de99acc	0.11406478
226	0x3e23e7e8	0.16006434
227	0xbeaadc36	-0.33371133
228	0xbe92f934	-0.28705752
229	0x3ed3b017	0.41345283
230	0x3d35b27d	0.044359673
231	0x3e0724d7	0.13197647
232	0xbe8196cf	-0.2531037
233	0xbdc33503	-0.095315956
234	0xbdde88e5	-0.10865954
235	0x3f400c75	0.7501901
236	0xbec9daf6	-0.39424866
237	0x3ecafb95	0.39645067
238	0x3dd6edfd	0.104946114
239	0x3dce6603	0.10078051
240	0xbe99db23	-0.3005
241	0xbed49876	-0.41522568
242	0xbda59858	-0.08085698
243	0xbe08e7cd	-0.13369675
244	0xbd9dff96	-0.07714765
245	0xbe22f6b9	-0.1591443
246	0x3e6b3f98	0.22973478
247	0x3e82f286	0.25575656
248	0xbdde318a	-0.108492926
249	0xbe955b3e	-0.29171175
250	0xbe87283c	-0.26397884
251	0xbe9c3ec4	-0.30516636
252	0xbeb4547d	-0.3522071
253	0xbe9c361f	-0.3051004
254	0x3e8c1e4a	0.2736686
255	0xbeb80f62	-0.35949236

actor.pi_net.fcs.2.bias f4 [4]
0	0x3ee3ffeb	0.44531187
1	0x3d592bf8	0.053020447
2	0x3e9cf4fc	0.30655658
3	0xbdc13f3b	-0.094358884

critic.v_net.fcs.0.weight f4 [64, 17]
0	0x4000172a	2.0014138
1	0xbec39e23	-0.38206586
2	0x402f9a71	2.7438014
3	0x40fba61a	7.864026
4	0xbfea1a7d	-1.8289334
5	0xbde217c4	-0.11039689
6	0x3e63c279	0.22242154
7	0xbeb4e4ae	-0.3533072
8	0x3dcb2b62	0.09920384
9	0x3fcc18c0	1.5945053
10	0xbd1ee9d5	-0.03879722
11	0x3d2d5919	0.0423213
12	0x3d0cc86d	0.03437083
13	0x3baf2c68	0.00534587
14	0x3c11c524	0.0088971
15	0x3d6cdfb8	0.057830542
16	0xbcf5563e	-0.02994835
17	0x409a5e17	4.8239856
18	0x410e3c80	8.8897705
19	0x400886ae	2.1332202
20	0xbf9ccf8f	-1.2250842
21	0x3d161a9d	0.036646474
22	0x3f11ba54	0.5692494
23	0x400c47ed	2.19189
24	0xbde3d611	-0.11124814
25	0x3e0c10c5	0.13678272
26	0xbf6631de	-0.8991984
27	0xbacbc3ae	-0.0015545988
28	0xbc86734b	-0.016412398
29	0xbd9852d0	-0.0743767
30	0xbd7f6930	-0.062356174
31	0x3c18f3cf	0.009335472
32	0x3cba6af2	0.022756074
33	0x3a9461a5	0.0011320604
34	0xc0d53475	-6.6626534
35	0xc085df91	-4.183541
36	0xbf3f71fd	-0.7478331
37	0xbec6296c	-0.38703477
38	0xbfd00950	-1.6252842
39	0xc00feecb	-2.2489498
40	0x40836e83	4.10724
41	0xbeb44d3b	-0.35215172
42	0x3f77e339	0.9683109
43	0x3ecf2996	0.40461415
44	0x3c583605	0.013196473
45	0x3d366932	0.044533916
46	0xbddcbf0a	-0.10778625
47	0xbc3ce9c3	-0.0115303425
48	0x3bbc5d34	0.0057484154
49	0x3cc71d43	0.024305945
50	0x3ad28a38	0.0016062921
51	0x400b673a	2.1781754
52	0x4087c7b3	4.2431273
53	0x3e88a2a5	0.26686588
54	0x4024e3ac	2.576396
55	0x3fbe7daf	1.4882106
56	0x3fda850b	1.7071851
57	0xc023f55f	-2.5618513
58	0x40075068	2.1142826
59	0xc04885f2	-3.1331754
60	0x3f3b9242	0.73270047
61	0x3d44a46a	0.04800836
62	0xbcd2e3d2	-0.025743399
63	0x3d6764b7	0.056492534
64	0x3c67d7e3	0.0141505925
65	0x3d6740fd	0.056458462
66	0x3d72e050	0.059295952
67	0x3c8b5cc3	0.017012006
68	0x3c70b1bc	0.014690813
69	0xc09b4685	-4.8523583
70	0xbe053b0a	-0.13010803
71	0x3fcc2ce0	1.5951195
72	0xc011728d	-2.2726166
73	0xbf1b3fab	-0.60644025
74	0x40759492	3.837193
75	0xbf1159ba	-0.56777537
76	0xbf25fe4b	-0.64841145
77	0xbf31de7b	-0.69480103
78	0xbd2a8f84	-0.041640773
79	0xbd34c02f	-0.044128593
80	0xbe2946c3	-0.165309
81	0x3cd9ca01	0.02658558
82	0x3d2efcee	0.04272168
83	0x3cec0269	0.028809743
84	0x3b384a65	0.0028120514
85	0xc09ec969	-4.962086
86	0x40c0c79c	6.0243664
87	0xbfcd023b	-1.6016306
88	0xc01ca249	-2.447405
89	0x401207dd	2.28173
90	0x3f5e22ed	0.8677204
91	0xc026dc97	-2.6072137
92	0xbe8dbe1c	-0.27684104
93	0xbe5aea44	-0.21378428
94	0xbf6c86cc	-0.92393184
95	0x3cff83dd	0.031190807
96	0xbb0a5752	-0.0021109176
97	0x3e1c10c6	0.15240774
98	0x3c5e4d24	0.013568196
99	0xbb6af5ce	-0.0035852077
100	0xbb8ad668	-0.004236985
101	0xbd9d48cf	-0.07679903
102	0x405c55c2	3.4427342
103	0x3fe30643	1.7736286
104	0x3f848746	1.0353782
105	0x3f50345c	0.81329894
106	0x3f1dfd63	0.6171476
107	0xbf2e8480	-0.6817093
108	0xbff286d7	-1.89474
109	0x3fa80ea2	1.3129466
110	0x3fb42d8e	1.4076402
111	0x3f6c8deb	0.9240405
112	0xbbb1ec33	-0.0054297685
113	0x3cedade8	0.029013589
114	0x3ddfbc23	0.10924556
115	0xbd155d7d	-0.03646611
116	0x3b054be1	0.0020339417
117	0xbd1a4612	-0.03766448
118	0x3bf8459d	0.007576658
119	0xc00d9709	-2.2123435
120	0x409e095b	4.938642
121	0x3f3e349c	0.74299026
122	0xc00a527e	-2.161285
123	0x3f747fdb	0.9550759
124	0xbee07463	-0.43838796
125	0x405edd1b	3.4822452
126	0xbf010dab	-0.5041148
127	0x3f597519	0.849443
128	0xbf181877	-0.5941233
129	0x3c80334c	0.01564946
130	0xba9aa1cd	-0.0011797488
131	0x3cce5ec8	0.02519168
132	0x3d60ed16	0.054913603
133	0xbaa0bbd8	-0.0012263013
134	0xbc4d3602	-0.0125250835
135	0xbc3f62bf	-0.011681258
136	0xbf80980e	-1.0046403
137	0x3e4c17b4	0.19930917
138	0x3f2f5146	0.6848339
139	0x3fc237cc	1.5173278
140	0x3f02f398	0.51152945
141	0xbf997c0e	-1.1990983
142	0xbe1c2821	-0.15249683
143	0x3f27903e	0.6545447
144	0xbbee7e53	-0.0072782426
145	0xbecac5d9	-0.3960407
146	0x3db79cba	0.0896544
147	0xbd98fe29	-0.07470352
148	0xbd86f45b	-0.06589576
149	0xbd9a3f8e	-0.07531653
150	0xbd0e17c1	-0.034690622
151	0x3da524a1	0.08063627
152	0x3dbea814	0.09309402
153	0xbf01c68a	-0.5069357
154	0x4092ec73	4.5913634
155	0x3fbcd0fc	1.4751277
156	0x3e7cac1a	0.24675027
157	0x40409e35	3.0096562
158	0x3fd901fd	1.6953732
159	0xc08d0c0b	-4.40772
160	0xbed96707	-0.42461416
161	0x3fd90895	1.6955744
162	0x3e3e2343	0.18568139
163	0x3c5fccf6	0.013659706
164	0xbd18f9e5	-0.037347693
165	0x3d7d32a5	0.061815877
166	0x3c4f39d0	0.012648061
167	0xbd04588b	-0.032311004
168	0xbd2d7aec	-0.042353556
169	0x3a972aa1	0.001153309
170	0xc0ae6172	-5.449395
171	0x40245bb4	2.568097
172	0x3e9429a2	0.28938013
173	0xc0294a0f	-2.6451452
174	0xbd8dc35c	-0.069220275
175	0x3eb78b4c	0.35848463
176	0x3e130cf8	0.14360416
177	0x3fc88954	1.5666909
178	0x40a11496	5.033763
179	0x3dc97b62	0.098379865
180	0xbc05da90	-0.008169785
181	0x3d110a17	0.035410013
182	0xbd98ea4d	-0.07466564
183	0x3cbcbfae	0.023040619
184	0x3c3dd9c1	0.011587561
185	0x3e09ab63	0.13444285
186	0xbc7e9ff4	-0.0155410655
187	0xbef0d431	-0.4703689
188	0x3f446412	0.76715195
189	0x3da879f3	0.08226385
190	0x3f81c019	1.0136749
191	0x3ee3ca36	0.44490212
192	0x40a91d9c	5.2848644
193	0x40273347	2.6125047
194	0x3f154594	0.5830929
195	0x3e662c44	0.22477823
196	0x3f433945	0.7625926
197	0x3c03dabb	0.008047755
198	0xbcda8b95	-0.026677886
199	0x3bce35f7	0.006293054
200	0xbd010f70	-0.031508863
201	0xbccdb4c4	-0.02511061
202	0xbc9357d2	-0.017986212
203	0x3c16dbc4	0.00920767
204	0x3f6c5ae3	0.9232618
205	0xbf69a14e	-0.91261756
206	0x3fe3e266	1.7803466
207	0xbfaf573c	-1.3698497
208	0x3f9f15cf	1.242853
209	0xbfa177a8	-1.2614641
210	0x40923fdc	4.5702953
211	0xbf063b6d	-0.52434427
212	0x3f9430a6	1.1577346
213	0xbf9a0eea	-1.2035801
214	0xbd918328	-0.07105094
215	0x3dc3c28c	0.09558591
216	0xbcc250c6	-0.023720156
217	0x3dc9a0d5	0.098451294
218	0xbdb07c4d	-0.086174585
219	0x3d0a6825	0.033790726
220	0x3d9521ef	0.07281863
221	0x3f1247f9	0.5714107
222	0x40a6115e	5.18962
223	0x3e637e53	0.22216158
224	0xbf519591	-0.81868845
225	0xbf9e740a	-1.2379162
226	0xbffd1d12	-1.9774497
227	0x4032c6d9	2.7933867
228	0xc00a43a1	-2.1603777
229	0xc04ae9ab	-3.170512
230	0xbae7c5e2	-0.0017682875
231	0x3d10b332	0.035327144
232	0xbda10b93	-0.07863536
233	0x3d2dcebd	0.04243349
234	0x3d9ec586	0.07752518
235	0xbcc882ac	-0.024476372
236	0xbd7cf38a	-0.061755694
237	0x3d1fde76	0.039030515
238	0x3d6c0f05	0.05763151
239	0xbf12aa4f	-0.5729112
240	0x3f488dcd	0.7834137
241	0x3fe8c15e	1.8184011
242	0x4002fb85	2.0466015
243	0xc0b1cf0f	-5.5565257
244	0x4001a0ee	2.0254474
245	0x3ef4deb0	0.47826147
246	0x4001d891	2.0288432
247	0x3fc1aed6	1.5131481
248	0xbdf070ed	-0.11740289
249	0x3d8c4d69	0.06850702
250	0xbdf21d44	-0.11821988
251	0xbc9c37c4	-0.01906956
252	0x3d05b71d	0.032645334
253	0xbd85d6ef	-0.06535136
254	0xbd741ec1	-0.05959964
255	0xbfe6da74	-1.8035417

critic.v_net.fcs.0.bias f4 [64]
0	0xbd2891ab	-0.041154545
1	0xbedfe273	-0.43727455
2	0x3f8e0a92	1.1096976
3	0x3f29bab4	0.6630051
4	0x4025b7f2	2.5893521
5	0xbf906ce9	-1.1283237
6	0x400bda7c	2.1852102
7	0xbf678f02	-0.9045259
8	0x40584328	3.379099
9	0xbd926bfe	-0.07149504
10	0x3f843066	1.032727
11	0x4008188e	2.1264987
12	0x40396096	2.8965201
13	0x3f97520c	1.1821914
14	0xbe2e9d5e	-0.17052218
15	0xc07fa0ec	-3.994197
16	0xbfabdeaa	-1.3427327
17	0xbf747105	-0.95484954
18	0x408a2a2e	4.317649
19	0xc0018590	-2.023777
20	0xbefe16e3	-0.49626836
21	0xc01baeb7	-2.4325387
22	0x3f676163	0.90382975
23	0x3f3737b0	0.7156935
24	0xbab39473	-0.0013700858
25	0x3f846594	1.0343499
26	0xc0098e94	-2.1493273
27	0xbe0dc9be	-0.1384649
28	0xbf7883ae	-0.9707593
29	0xbf88d036	-1.0688541
30	0x3fe1d5da	1.7643387
31	0x3fd15f4a	1.6357205
32	0x3fa96474	1.3233781
33	0xbf439066	-0.7639221
34	0x3f5a759d	0.85335714
35	0xbfddf995	-1.7341791
36	0xbf21d821	-0.6322041
37	0x3f142850	0.5787401
38	0x3f9d2fa3	1.2280163
39	0x40884443	4.2583327
40	0x400a0596	2.156591
41	0x3f8be5ce	1.0929506
42	0xc0129387	-2.2902544
43	0x3eab2e14	0.33433592
44	0x3eb3a3e7	0.35085985
45	0x402c11b4	2.6885805
46	0xbe9ef2c3	-0.31044587
47	0x3fb74161	1.4316827
48	0xbea88c08	-0.32919335
49	0xbf8614ef	-1.0475138
50	0xbec4f3b7	-0.3846719
51	0x408469ef	4.1379313
52	0xc0500fcc	-3.2509642
53	0x3ebf5cab	0.37375388
54	0x400e5415	2.223882
55	0x3ea938c7	0.3305113
56	0xc019e80b	-2.4047878
57	0x3f3f423b	0.74710435
58	0xbf32a1d5	-0.69778186
59	0x3f30912c	0.68971515
60	0x404050de	3.0049357
61	0x3e757faf	0.23974489
62	0x3e93de02	0.28880316
63	0x4053f792	3.3119855

critic.v_net.fcs.1.weight f4 [64, 64]
0	0xbf95e8a1	-1.1711618
1	0x3f9e74ad	1.2379357
2	0xc0254c76	-2.5827918
3	0x3f57d99c	0.8431642
4	0x3f8028f0	1.0012493
5	0xbf19a576	-0.600181
6	0xbfb07ad8	-1.3787489
7	0xbf9801c3	-1.1875538
8	0x3f8910cf	1.0708255
9	0xbe15f7fd	-0.14645381
10	0x3ebebb09	0.37252071
11	0x3f5f2666	0.87167966
12	0x3e273704	0.1632958
13	0xbee7018d	-0.4511837
14	0x3f6a1e53	0.9145252
15	0xbf4a022d	-0.7890957
16	0x3f255888	0.6458821
17	0xbff83d36	-1.939368
18	0x3f7bd0e8	0.9836564
19	0xbf941053	-1.1567482
20	0xbf9c02e8	-1.2188387
21	0x3f1d92fa	0.61552393
22	0x3e357779	0.17721356
23	0x3ef9dc3d	0.4880084
24	0x3e406eed	0.18792315
25	0x3edf1416	0.43570012
26	0xbf97fe12	-1.1874411
27	0x3f95a873	1.1692032
28	0xbeeff2d9	-0.46864966
29	0xc0059ff1	-2.087887
30	0x3fa84da8	1.3148699
31	0x3f85cd56	1.0453289
32	0x3d81ef25	0.06344441
33	0xbe4d643f	-0.20057772
34	0xbf7fae69	-0.99875504
35	0xbf6b236c	-0.91850924
36	0xbe98d35a	-0.29848748
37	0xbe4f284a	-0.20230213
38	0xbf7418e5	-0.95350486
39	0x3f893ee8	1.0722322
40	0x3fdb4213	1.7129539
41	0xbfe2a130	-1.770544
42	0xbf29a658	-0.66269445
43	0x40170e4a	2.3602471
44	0x3f26353c	0.6492498
45	0x3f0fffc7	0.5624966
46	0xbf128564	-0.5723479
47	0x3f94fcfd	1.1639706
48	0xbfba6d73	-1.4564651
49	0x3ea9c57a	0.33158475
50	0xbd94c802	-0.07264711
51	0x3f3ec315	0.7451642
52	0xbf9a8f56	-1.2074993
53	0x3f752e6c	0.9577396
54	0xbe79ae23	-0.24382834
55	0x3e16e801	0.1473694
56	0x3ea10821	0.31451514
57	0x3f80ae2f	1.0053157
58	0xbfcef1ce	-1.6167543
59	0xbe44a55f	-0.19203709
60	0xbed8b8a7	-0.4232838
61	0xbe906790	-0.28204012
62	0x3f7ac04f	0.9794969
63	0x3f8a815b	1.0820726
64	0xbed81603	-0.42204294
65	0x3d93d78a	0.07218845
66	0x3f586ab0	0.8453779
67	0xbec81bc9	-0.39083698
68	0xbfa5169b	-1.2897524
69	0x3ec62736	0.3870179
70	0xbf828312	-1.019625
71	0xbe5a042a	-0.21290651
72	0x3fa90f01	1.3207704
73	0xbf58eff7	-0.8474116
74	0xbf0e1c35	-0.5551179
75	0x3ff24258	1.8926497
76	0x3e7837fa	0.24240103
77	0xbec292d7	-0.38002655
78	0x3ee99c99	0.45627287
79	0xc0030c7d	-2.0476372
80	0x3f1d4816	0.6143812
81	0xbfe16d2e	-1.7611444
82	0x3fc127f4	1.5090318
83	0xbfe8eb3f	-1.8196791
84	0x3edaab7d	0.4270896
85	0x3e50c23e	0.20386598
86	0x3dba5186	0.090975806
87	0x3ed0e864	0.408023
88	0x3f0ad83a	0.54236186
89	0xbf94a4ac	-1.1612754
90	0xbeb6a5ba	-0.35673314
91	0xbed09cf2	-0.4074474
92	0x3ef006e9	0.46880272
93	0xc0205927	-2.5054414
94	0x3f0174e9	0.50569016
95	0x3f156e49	0.58371407
96	0xbdd9748f	-0.10617935
97	0x3fbaf4f3	1.4606003
98	0x3f4e42e8	0.8057084
99	0xbeb7e676	-0.35918015
100	0xbfd03a5c	-1.626781
101	0xbfb9e8c0	-1.4524155
102	0xbe8b93dd	-0.27261248
103	0xbeb89f26	-0.3605892
104	0x3dfcdb69	0.12346537
105	0xbf180a29	-0.59390503
106	0x3fa1f6ba	1.265342
107	0x3d8ce5c5	0.068797626
108	0xbefe7e89	-0.49705914
109	0x3f8a8fee	1.0825174
110	0x3e881040	0.26574898
111	0x3fd77f1a	1.6835663
112	0xbf1add8d	-0.6049431
113	0x3f57f1b7	0.843532
114	0xbe3e08ab	-0.18557994
115	0x3fd180ea	1.6367466
116	0xbfd85fa7	-1.6904191
117	0xbf015a08	-0.50528
118	0xbfba16f6	-1.4538257
119	0x3f873456	1.0562847
120	0x3e35c001	0.17749025
121	0x3e10644d	0.14100762
122	0xbf7f0afa	-0.99626124
123	0x3fa3cb69	1.2796451
124	0x3f4cb82e	0.79968536
125	0x3f16c575	0.58895046
126	0x3f1ffd2c	0.62495685
127	0x3fdb2488	1.7120523
128	0xbfa7c2e5	-1.3106352
129	0x3f72e804	0.9488528
130	0xbf89ce42	-1.076607
131	0x3f1a5d5f	0.60298723
132	0xbfafc6ab	-1.3732504
133	0x3d7cf1b9	0.061753962
134	0x3d92b07d	0.07162569
135	0x3fa4189f	1.2820014
136	0x3f8c4ca7	1.0960892
137	0xbfb31778	-1.3991537
138	0xbeb0453d	-0.34427825
139	0x3fbbbe99	1.4667541
140	0x3f6a3d25	0.9149955
141	0x3fcaa6a8	1.583211
142	0x3de2a07d	0.11065767
143	0xbfd9a117	-1.7002286
144	0xbf483b92	-0.782159
145	0xbfe7c9fa	-1.8108513
146	0x3f84deea	1.0380528
147	0xbece00f4	-0.40235102
148	0xbf8a7dee	-1.0819681
149	0x3f69f146	0.9138378
150	0x3da824c8	0.082101405
151	0xbf0a08b5	-0.53919536
152	0xbec64fae	-0.38732666
153	0x3fa245ed	1.267759
154	0xbef92c3b	-0.48666558
155	0xbe9d1a87	-0.306843
156	0xbf000c55	-0.5001882
157	0xc040868c	-3.008212
158	0x3eb2bed9	0.3491123
159	0x3fd5ec41	1.6712724
160	0x3f11ac97	0.56903976
161	0x3fb56774	1.4172196
162	0x3f759696	0.959329
163	0x3f54c47a	0.831123
164	0xbf4e507a	-0.8059155
165	0x3ec58f54	0.38585913
166	0x3e594514	0.21217757
167	0x3fc35026	1.5258834
168	0x3ee4d855	0.44696298
169	0xbd30058e	-0.042974047
170	0x3e79e183	0.24402432
171	0xbfeb9538	-1.8404913
172	0x3e641016	0.22271761
173	0x3f1f00e9	0.62110764
174	0xbf662849	-0.8990522
175	0x3f5299c2	0.82265866
176	0xbedb44c1	-0.42825893
177	0x3fb9518b	1.447801
178	0xbf70d353	-0.94072455
179	0x3f2903a2	0.6602117
180	0xbfea8231	-1.8320981
181	0x3e8afb3f	0.2714481
182	0xbdda20a0	-0.10650754
183	0x3fdc1b83	1.7195896
184	0x3fb1c8f5	1.3889452
185	0x3e131884	0.1436482
186	0xbf8d892d	-1.1057488
187	0xbf09e038	-0.53857756
188	0xbc33297b	-0.010935183
189	0x3f4b891b	0.7950608
190	0xbff89e16	-1.9423244
191	0x3fa71dea	1.3056004
192	0xbe83e151	-0.2575784
193	0x3eaff612	0.34367424
194	0xbe9c1f7e	-0.30492777
195	0x3f48a412	0.7837535
196	0xbd74e1f1	-0.059785787
197	0xbead857a	-0.33890897
198	0xbf82f028	-1.022954
199	0x3f2bd8c5	0.6712764
200	0xbf389584	-0.7210314
201	0x3f62a74d	0.8853653
202	0xbee54374	-0.44778025
203	0xbf331588	-0.6995473
204	0xbf0b1288	-0.5432515
205	0x3f5a5fd4	0.8530247
206	0x3ead9796	0.33904713
207	0x3f89ef20	1.07761
208	0x3efccc0d	0.49374428
209	0x3f936fc3	1.1518482
210	0xbfc1c673	-1.5138687
211	0x3ff689e8	1.9260836
212	0xbfb145c9	-1.3849422
213	0xbf2e03d8	-0.67974615
214	0x3fe20daa	1.766042
215	0xbd45105f	-0.048111316
216	0x3f99f6ae	1.2028406
217	0xbee48640	-0.44633675
218	0xbe2ec7ba	-0.17068377
219	0x3f3a6338	0.72807646
220	0xbf2b41da	-0.66897357
221	0x3f4d3141	0.8015328
222	0x3f16d01a	0.5891129
223	0xbf5fade2	-0.873747
224	0xbf8ab877	-1.0837544
225	0xbfd386b7	-1.6525487
226	0x3f7079a7	0.93935627
227	0xbf07a936	-0.5299257
228	0xbf59e884	-0.85120416
229	0x3e89a362	0.26882464
230	0x3f090948	0.5352979
231	0xbdf8bc0b	-0.12145241
232	0x3f9d77e7	1.2302216
233	0xbf1a2c7b	-0.6022412
234	0x3ed768db	0.42072186
235	0xbfeb62e7	-1.8389558
236	0xbf8d199d	-1.1023442
237	0x3e1c94b4	0.152911
238	0x3f6a80f2	0.91603005
239	0xbdd570dd	-0.104219176
240	0x3f50b9fe	0.815338
241	0x3c868aa2	0.016423527
242	0xbf6c462e	-0.92294586
243	0xbf0e6f27	-0.55638355
244	0x3f430c6f	0.7619085
245	0x3f69d37d	0.9133833
246	0xbca4df50	-0.020126015
247	0xbda3a134	-0.079897314
248	0x3e95730a	0.2918933
249	0x3fb01a59	1.3758041
250	0x3f906f9c	1.128406
251	0xbf30c396	-0.6904844
252	0xbfcfd815	-1.6237818
253	0xbf523b2c	-0.8212154
254	0x3f04aae1	0.5182324
255	0xbfaa2c9b	-1.3294863

critic.v_net.fcs.1.bias f4 [64]
0	0x3fad61f1	1.3545514
1	0x3ff47360	1.909771
2	0x3fc9f9ed	1.5779396
3	0xbfbcd25a	-1.4751694
4	0x401ae433	2.4201782
5	0xbfb813e7	-1.4381074
6	0x3fdf7526	1.7457626
7	0xbfd7ce12	-1.6859763
8	0xbfd0cc5f	-1.6312369
9	0x3fcd3010	1.6030293
10	0xbfd31040	-1.6489334
11	0xbfde0c09	-1.7347423
12	0xbfed45af	-1.8536891
13	0xbfe55865	-1.7917601
14	0xbf49027a	-0.78519404
15	0xc00106bf	-2.0160367
16	0xbfcbc419	-1.5919219
17	0x3fd80559	1.6876632
18	0xbf730945	-0.9493602
19	0xbfdcacf7	-1.7240285
20	0xbfe58863	-1.7932247
21	0xbdbf656c	-0.093455166
22	0x3f13ed2f	0.5778379
23	0x3ee2a4db	0.442664
24	0x3fb3a9db	1.4036211
25	0xbf152803	-0.5826418
26	0x3fd11f3a	1.6337655
27	0xc007fe8b	-2.124911
28	0x3fb429e5	1.4075285
29	0x3fd308a0	1.6487007
30	0xbfd3e13b	-1.655311
31	0xbfe221ad	-1.7666527
32	0xbfac29ba	-1.3450234
33	0xbf40f57b	-0.75374573
34	0x3fa2f986	1.2732399
35	0x3fe421ef	1.7822856
36	0x3f36ac5f	0.7135677
37	0x400ac58b	2.168307
38	0x3fcdb5b1	1.6071073
39	0x3f9944cc	1.197412
40	0xbff0afd3	-1.8803657
41	0x3f0309cf	0.5118684
42	0x3fbe7cba	1.4881814
43	0xbfc2659a	-1.5187256
44	0x3f7e4d49	0.9933668
45	0xbfdb2059	-1.7119247
46	0x3f852ca1	1.0404245
47	0x3f8a5daf	1.080984
48	0xbfd5025c	-1.6641345
49	0x3f5bd124	0.85866
50	0x3fbde240	1.4834671
51	0xbf935b78	-1.1512289
52	0xbfd045a7	-1.6271256
53	0x4007a7c2	2.1196141
54	0x3f449232	0.76785576
55	0x3efe7ef5	0.49706236
56	0x3fc3c40e	1.5294206
57	0x3fb6748b	1.4254316
58	0x3fc6b854	1.5525002
59	0x3f887553	1.0660805
60	0xbfb3354e	-1.4000642
61	0xbfacabb1	-1.3489896
62	0xbfa48178	-1.2852011
63	0x3ff02fb5	1.8764559

critic.v_net.fcs.2.weight f4 [1, 64]
0	0xc07cb4e2	-3.9485402
1	0xc0b9189b	-5.7842536
2	0xc01bd1c5	-2.4346783
3	0x4034f176	2.8272376
4	0xc06733b0	-3.6125298
5	0x405519ef	3.3297079
6	0xbfe1c57c	-1.7638392
7	0x406a8da8	3.664896
8	0x4027eb01	2.6237185
9	0xc07aaf33	-3.9169433
10	0x40e1ef7f	7.0604854
11	0xc15b77da	-13.716761
12	0x4098d80c	4.776373
13	0x402ccaa8	2.6998692
14	0xc09fe19a	-4.9962893
15	0x407aa6a6	3.9164214
16	0x413d87fc	11.845699
17	0xbff9fa9a	-1.9529603
18	0x405b192d	3.4234116
19	0x4057f51e	3.3743358
20	0x407436ae	3.8158374
21	0x40a5b64f	5.1785045
22	0x411f7ffa	9.968744
23	0xc01cc414	-2.4494677
24	0xc11b27aa	-9.697184
25	0x4027897b	2.6177661
26	0xbfe03fa9	-1.7519428
27	0x407a6f35	3.9130375
28	0xc03dd5be	-2.9661708
29	0xbfdcdd38	-1.7255011
30	0x403ff854	2.9995317
31	0x3fd332e7	1.6499909
32	0x402c28b2	2.6899838
33	0xc116173c	-9.380672
34	0xc04c261d	-3.1898263
35	0xc07bdcc8	-3.9353504
36	0xc006d953	-2.1070144
37	0xc08f105a	-4.470746
38	0xbfd3caa9	-1.6546222
39	0x413dc49b	11.860499
40	0x40a3d41e	5.119643
41	0x40dcb5f7	6.8972125
42	0xc07b4ee4	-3.92669
43	0x41712fd7	15.07418
44	0x40eb75ee	7.3581457
45	0x3fdfb9a9	1.7478534
46	0xc0791c7a	-3.892363
47	0xc01640ee	-2.347713
48	0x3fd7958b	1.6842512
49	0xc05cda35	-3.4508183
50	0xbfe45298	-1.7837706
51	0xc0fc1ef0	-7.8787766
52	0x407bff00	3.937439
53	0xc056dae7	-3.3571107
54	0xc043343a	-3.0500627
55	0x40a2f9de	5.0930014
56	0xc0538cb8	-3.3054638
57	0xbfb6b5e9	-1.4274265
58	0xc10e2056	-8.8828945
59	0xc040d8b2	-3.013226
60	0x404a9038	3.1650524
61	0x40541220	3.3136063
62	0x3fbd64f4	1.4796433
63	0xc09478a1	-4.639725

exp_avg f4 [4]
0	0x3c8979d9	0.016781734
1	0xbc167d62	-0.009185167
2	0xbcc6fe62	-0.024291221
3	0xbd37d00d	-0.044876147

exp_avg_sq f4 [4]
0	0x3cb90f03	0.022590166
1	0x3cb44b76	0.022008639
2	0x3cb0f023	0.021598881
3	0x3cb3febf	0.021972058

exp_avg f4 [64, 17]
0	0x3ae2d597	0.0017306086
1	0x3b62a725	0.003458449
2	0xbbb9dab3	-0.005671823
3	0xba29d17c	-0.0006478054
4	0x3a7f5cc7	0.0009741303
5	0xbc083130	-0.008312508
6	0x3b58a473	0.0033057004
7	0x3b21f11d	0.0024710365
8	0x3b0e7a9b	0.002174056
9	0x393ba7e0	0.00017896248
10	0xbda00c89	-0.07814891
11	0x3c18b2aa	0.009319941
12	0x3d1b4b29	0.037913475
13	0x3c8181bd	0.015808934
14	0x3bf269b3	0.0073978542
15	0x3c5c49a6	0.0134452935
16	0x3c6991ce	0.014255954
17	0x3b6efdf3	0.0036467283
18	0xbb1c65a1	-0.0023864286
19	0x3c808b52	0.015691433
20	0xb91bb53a	-0.00014849464
21	0x3b0bed58	0.0021351185
22	0x3acd68fe	0.0015671549
23	0x3c4aaa7d	0.012369749
24	0xbbffb3ab	-0.0078034005
25	0x3b04f856	0.0020289621
26	0xbb0719e9	-0.002061481
27	0xbdd56383	-0.10419371
28	0xbc038447	-0.008027143
29	0xbc5544a7	-0.013016856
30	0xbc5c4210	-0.013443485
31	0xbd96b5f5	-0.07358924
32	0x3dd41e42	0.10357334
33	0x3d927f0e	0.0715314
34	0xba3c7621	-0.00071892334
35	0xbb9a78e1	-0.004714117
36	0x3ccca576	0.024981242
37	0xbad754a4	-0.0016428423
38	0xba789b68	-0.00094836066
39	0x3c9eada0	0.0193699
40	0x3bed625f	0.0072443928
41	0xb92ac35d	-0.00016285242
42	0xb9b8a39e	-0.0003521712
43	0xbb746f56	-0.0037297807
44	0xbd54b91f	-0.051934358
45	0xbc289c9a	-0.010291243
46	0xbd7a609a	-0.061127283
47	0xbc0cfad0	-0.00860472
48	0xbc8aa669	-0.016925054
49	0xbaae693c	-0.0013306509
50	0xbc1214c4	-0.008916084
51	0xbb16a658	-0.0022987332
52	0x3b8e79e9	0.004348029
53	0xbcc33167	-0.023827268
54	0x3ad109ed	0.0015948393
55	0xba2f9a3b	-0.00066987023
56	0xbc9646b2	-0.018344257
57	0x3a8111df	0.0009847245
58	0xba9a5102	-0.001177341
59	0x3b72e3b1	0.0037061984
60	0xb9c13f3c	-0.00036858942
61	0x3da5e006	0.0809937
62	0xbcb64ebc	-0.02225434
63	0x3cd3fbc4	0.025876887
64	0x3c8a2d39	0.016867267
65	0x3d1e2201	0.038606647
66	0xbcc67c23	-0.024229115
67	0x3d09ecc7	0.033673074
68	0x395567d1	0.00020351938
69	0x3a05f215	0.00051096204
70	0x3c4fee26	0.012691056
71	0xbb01dc49	-0.0019815138
72	0xba2fc72c	-0.0006705399
73	0x3c5bc302	0.013413193
74	0x3bce8402	0.0063023577
75	0xbb7d8238	-0.0038682353
76	0xbafc2b0b	-0.0019238902
77	0xbba5c089	-0.0050583524
78	0xbd692843	-0.056923162
79	0x3d01a765	0.03165378
80	0x3cb58a1d	0.022160584
81	0x3bb4c60d	0.0055167736
82	0xbd4a34ad	-0.04936664
83	0x3d8559d7	0.06511276
84	0x3ce68a5a	0.028142143
85	0xbab3ace7	-0.0013708145
86	0xba2ea36b	-0.00066619244
87	0x3b385196	0.00281248
88	0xba81e112	-0.0009908995
89	0xb9b3d708	-0.0003430175
90	0x3be31473	0.006929928
91	0xba5b02d4	-0.00083546084
92	0xb9e4987b	-0.00043601156
93	0x3a844021	0.0010089913
94	0x3aaa9dac	0.0013016961
95	0xbbe03413	-0.006842145
96	0xbb608ddf	-0.003426425
97	0x3b086c87	0.002081664
98	0x3a63c837	0.0008689197
99	0xbc8bf871	-0.01708624
100	0xbb8a4e9e	-0.0042207977
101	0xbbbf21fd	-0.005832909
102	0x39985ed6	0.00029062357
103	0x3ba05726	0.0048932014
104	0xbc1ae64a	-0.009454319
105	0x3ac57c61	0.0015066975
106	0xbb5172d9	-0.0031959324
107	0xbbcfd834	-0.006342912
108	0xbb951092	-0.0045490945
109	0x39c929d2	0.00038368866
110	0xbaf35dfe	-0.001856744
111	0xbb897dfc	-0.0041959267
112	0xbcea1ef6	-0.028579216
113	0xbd75ab86	-0.05997803
114	0x3cbeb0e9	0.023277717
115	0x3aec09d5	0.0018008301
116	0x3d1ff876	0.03905531
117	0x3d4dc587	0.050237205
118	0xbd0524c2	-0.032505758
119	0x3b6d18b8	0.0036178064
120	0xbbe2bbc8	-0.006919358
121	0x3c3ab8dc	0.011396613
122	0xba589ca2	-0.0008263086
123	0xb886e50b	-6.4322805e-05
124	0x3c2db85d	0.010603038
125	0x3c084500	0.008317232
126	0xbb8667c8	-0.004101727
127	0xbb138a05	-0.0022512686
128	0x3bab5cc2	0.0052295635
129	0xbcc4c7ea	-0.024021108
130	0xbc11f55c	-0.008908596
131	0x3cf201a6	0.029541802
132	0x3b9b5a0b	0.0047409586
133	0xbce20061	-0.027588071
134	0xbd0c3e48	-0.034239084
135	0x3d738a1e	0.05945789
136	0xba7b9001	-0.00095963484
137	0xbab71a9c	-0.0013969722
138	0x3c09ee98	0.008418702
139	0xb93cee85	-0.00018017933
140	0xba2ca6fd	-0.00065861625
141	0x3c013e73	0.007888424
142	0x3a7e9d2e	0.00097127527
143	0xbaf755b5	-0.0018870147
144	0xbae12c83	-0.0017179403
145	0x3ac70e3e	0.001518674
146	0xbd2c9283	-0.042131912
147	0x3d637c24	0.05553831
148	0xbc27ad6b	-0.010234217
149	0xbc2f94f6	-0.010716667
150	0xbbd426a9	-0.006474335
151	0x3a809954	0.000981132
152	0xbbccdd11	-0.006251939
153	0x3aeaba09	0.0017908226
154	0xbac6cf4d	-0.0015167982
155	0xba9d7528	-0.0012013065
156	0xb9c95c44	-0.0003840645
157	0xb9f39509	-0.00046459612
158	0x3a49c17e	0.0007696374
159	0x3aa259b5	0.0012386354
160	0x3b3d34f2	0.002887067
161	0x3ad92baf	0.0016568805
162	0x3b950601	0.004547835
163	0xbcf91db8	-0.030409679
164	0xbb3ce5e6	-0.0028823554
165	0x3c0df70c	0.008664858
166	0xbc43bac7	-0.011946387
167	0xbc1236c2	-0.008924188
168	0x3d0672ba	0.032824256
169	0x3bdc9900	0.006732106
170	0x3a90b3c1	0.0011039899
171	0x3bf41418	0.0074486844
172	0x3a58ee51	0.0008275258
173	0xbaf49d0c	-0.0018662526
174	0x395262ea	0.00020064009
175	0xbb461504	-0.0030224929
176	0x3bda2b82	0.0066580186
177	0x3b883613	0.004156837
178	0xbb289b7d	-0.0025727444
179	0xba760a58	-0.00093856966
180	0xbdd77ec4	-0.105222255
181	0x3e38ae1b	0.18035166
182	0xbd156bea	-0.036479868
183	0x3d158db2	0.036512084
184	0xbde69cc7	-0.11260372
185	0x3dc92e64	0.098233014
186	0x3d6f8f50	0.058486283
187	0x3b194195	0.0023385037
188	0x3ad7a1c8	0.0016451413
189	0xbc03c036	-0.008041432
190	0xb9694dec	-0.0002224964
191	0x3ac5204c	0.0015039532
192	0xbc0d0dde	-0.008609263
193	0x3accbfb8	0.0015621101
194	0xbb6de923	-0.003630229
195	0xbb33814d	-0.0027390302
196	0x3a4a51b4	0.0007717863
197	0xbd376bbc	-0.044780478
198	0x3d4e5140	0.050370455
199	0xba554992	-0.0008136268
200	0x3b5d9f1b	0.0033816758
201	0xbc4b5d4b	-0.0124123795
202	0x3d88a016	0.06671159
203	0x3c921b1b	0.01783519
204	0xba85fbe1	-0.001022216
205	0x3b6be5b8	0.0035995077
206	0xbc745c39	-0.014914566
207	0xb9ae1849	-0.0003320596
208	0x39c18713	0.00036912467
209	0xbc4c1358	-0.012455784
210	0xbb696f65	-0.0035619375
211	0xba73c565	-0.00092991284
212	0x3a8cf4a0	0.0010754056
213	0xbae8353f	-0.0017716064
214	0x3d0e7afc	0.034785256
215	0x3ce6ee62	0.028189842
216	0x3b299dd1	0.002588142
217	0xbc6dd4cc	-0.014516067
218	0x3b8780c8	0.004135225
219	0x3c81393c	0.015774362
220	0xbcf1793b	-0.029476753
221	0xbb2b58f7	-0.0026145556
222	0x3ad8892a	0.001652037
223	0xbb0a513e	-0.0021105553
224	0xbb11bd1d	-0.0022237964
225	0xba2ffbff	-0.00067132706
226	0x3a9b398a	0.001184271
227	0x3b477fb2	0.0030441103
228	0xbc4df2a1	-0.012570054
229	0xbbe87cb5	-0.0070949444
230	0xbafd919f	-0.0019345767
231	0x3d516cc9	0.051129136
232	0xbcea7581	-0.028620483
233	0x3d112198	0.035432428
234	0xbce42f18	-0.027854487
235	0x3d239091	0.03993279
236	0xbc911872	-0.017711852
237	0xbd9f6ed5	-0.077848114
238	0x3b6fd2da	0.0036594183
239	0xbb24b0ad	-0.002512972
240	0x3c219964	0.009863231
241	0xbb5eb2df	-0.0033981127
242	0x3a7ccc2f	0.0009643463
243	0x3a60e194	0.00085785356
244	0x3c211f85	0.009834175
245	0x3bae4830	0.005318664
246	0xbb51b4c1	-0.0031998607
247	0x3b933cdf	0.0044933404
248	0xbd6042ba	-0.054751135
249	0xbcc3fb27	-0.02392347
250	0xbda92bf4	-0.082603365
251	0xb9564bd0	-0.00020436873
252	0xbd208be3	-0.039195906
253	0x3d99a347	0.07501846
254	0x3d5007b3	0.050788593
255	0xb95b02bb	-0.00020886485
