training_results/cartpole_random/rarl_setJointMotorControl2/seed_42/1000000steps/checkpoints/model_1000000.pt (torch, 277173 bytes, 66 tensors)

actor.pi_net.fcs.0.weight f4 [64, 4]
000000 97 64 8b be f6 57 0d 3f 8f 93 19 3f 16 86 1d 3f
       -0.2722518 0.5521234 0.5999078 0.61532724
000010 6c f5 04 bf 49 37 a4 bd 2d b4 87 bd 03 b1 16 bf
       -0.51936984 -0.08018357 -0.06626163 -0.5886385
000020 b0 b8 67 3e 00 e7 e5 be 43 d2 30 bf ca 1e ed be
       0.22629046 -0.44902802 -0.69070834 -0.46312553
000030 ca d1 58 bd 0b e7 34 be 9b 22 2d 3f a8 cd 5f 3e
       -0.052934445 -0.17666261 0.6763093 0.21855795
000040 61 b0 73 3e 66 91 89 3e af a2 be 3e d6 14 0f 3f
       0.23797752 0.26868743 0.37233493 0.5589117
000050 26 9e 93 be a6 ff 95 be 6c 07 9a 3e 8f f2 2b 3f
       -0.28831595 -0.29296607 0.30083787 0.6716699
000060 d1 87 27 3e 6e 34 a2 3e 89 23 90 bc 39 66 35 be
       0.16360404 0.31680626 -0.01759507 -0.17714776
000070 bc 82 75 be f4 57 3f 3e d0 df bd be ba 0f 11 3d
       -0.23975652 0.18685895 -0.37084818 0.03541539
000080 9a ee 9d 3e 10 8a 40 3e d5 63 1a bf c5 3e 30 bf
       0.308461 0.18802667 -0.6030858 -0.6884578
000090 4e bf 81 3e 57 6e 7f be 6d dc 20 bf c0 2d 09 bd
       0.25341266 -0.24944435 -0.62836343 -0.033490896
0000a0 8a 02 62 bd 99 79 f1 be ae 11 2b bd c5 98 f2 be
       -0.055178203 -0.47163084 -0.041764908 -0.4738218
0000b0 9b 7e c9 be e8 af 96 be b2 89 0d 3e 3d 10 42 3e
       -0.39354405 -0.2943108 0.13822058 0.18951507
0000c0 f6 6e c6 be 1f d8 1c 3e e0 54 35 be 4f dd 04 be
       -0.3875653 0.15316819 -0.17708158 -0.12975048
0000d0 b2 81 24 3e ae 43 6e 3e 86 18 cc bd b1 68 0b 3f
       0.160651 0.23268005 -0.09965615 0.5445662
0000e0 bd cf 0a be 02 b3 22 3e e4 00 0e 3f 55 98 1a 3f
       -0.13555808 0.15888599 0.5547011 0.6038869
0000f0 e0 b8 85 3e f5 de e5 3d 15 df fd be b4 9b bf be
       0.2611761 0.11224166 -0.4958426 -0.3742348
000100 e1 24 a6 3e b9 25 7b be 18 48 2f bf 2f b0 08 3e
       0.3245001 -0.24526109 -0.6846938 0.13348459
000110 a0 99 81 be a1 2c 99 3d 6a ea 60 be 58 de bb 3e
       -0.2531252 0.074792154 -0.21964422 0.36693072
000120 a9 1f 92 be 0b 0e 8d 3e d3 0d 29 3f ae 80 2f 3f
       -0.2853978 0.27549776 0.6603672 0.68555725
000130 e3 f8 8d bd 77 f9 74 bc a7 1b 13 bf 35 79 5f be
       -0.06932237 -0.014952055 -0.5746407 -0.2182358
000140 3c b0 d5 be ec e1 33 3e 0e 01 2d 3e 30 f6 e0 3e
       -0.4173602 0.17566651 0.16894934 0.43937826
000150 80 4e 01 be 4c c8 7b 3e 34 37 5d be 25 52 04 bf
       -0.12627602 0.24588126 -0.2160309 -0.5168784
000160 39 5d e0 be 10 ed f0 be 57 61 35 bf 21 4e 05 be
       -0.43821123 -0.47055864 -0.70851654 -0.13018085
000170 0a 57 a1 3e d4 53 fd be 70 ce 13 bf 11 1e 87 bd
       0.31511718 -0.49478018 -0.57736874 -0.065975316
000180 0e 79 b7 be 18 6d 92 bd c1 10 dd 3b 5a 9d 07 3f
       -0.35834545 -0.07149714 0.006746382 0.52974474
000190 9b 1a e1 be 7f 5d 89 be 81 34 60 bf b3 ff e1 be
       -0.4396561 -0.26829144 -0.87580115 -0.44140396
0001a0 af a8 f6 be 12 84 01 bf 47 8e 22 bd 85 1f 27 be
       -0.4817557 -0.5059215 -0.039686467 -0.16320617
0001b0 b8 79 85 be 34 d7 8d be 22 6f 21 bf b1 02 1d bf
       -0.26069427 -0.2770325 -0.630602 -0.6133223
0001c0 ed 9c e9 3e 6d 86 57 be 66 f4 a3 3e af bd 60 bd
       0.45627537 -0.21047373 0.320224 -0.054868396
0001d0 2b b4 e9 be 9d 4e ed 3d 16 7b dc 3e 9b 5a 2c 3f
       -0.4564527 0.1158726 0.43062657 0.6732575
0001e0 53 68 e2 3d 40 54 59 3d 43 d8 23 bf dc 3d 1c 3e
       0.110550545 0.053058863 -0.64001864 0.15257972
0001f0 9c 59 0f 3e ea 54 1d 3f b6 1b c4 3c 60 99 05 3f
       0.13999027 0.61457694 0.023938995 0.52187157
000200 e8 80 ff bd 92 ae 0d be 6e e1 3e 3f 36 62 c0 3e
       -0.12475759 -0.13836125 0.7456273 0.3757493
000210 a4 d7 cf be 45 19 d6 3e 9d ec 9d 3e f6 4e 07 be
       -0.40594208 0.41816154 0.30844584 -0.13213715
000220 0f c2 b6 3e 56 1f 1b be 9a c9 15 bf 10 9b 79 be
       0.3569493 -0.15148672 -0.58510745 -0.24375558
000230 7b 7b db 3e b1 5a 75 3e 3d 5c ef 3e 68 3d 23 3e
       0.42867646 0.23960377 0.4675006 0.15941393
000240 85 3d 96 be 44 39 d5 be b7 69 1a bf e9 10 ce be
       -0.2934381 -0.41645253 -0.6031756 -0.40247276
000250 1e bb ec be f5 ec 18 bf a9 f7 be bd 6d dd 08 bf
       -0.4623651 -0.5973657 -0.09324581 -0.5346287
000260 b5 1b 3e 3e ee 5a 99 3e 25 3a 2a be be e5 b8 be
       0.18565257 0.29952186 -0.16623743 -0.3611278
000270 aa 70 b9 be 3a 97 a1 3e 02 d0 73 3f c8 66 11 3f
       -0.36218768 0.3156069 0.9523927 0.56797457
000280 fc ac 89 3b aa fd e9 3d 2f 32 25 3f 98 58 ca 3e
       0.0042015295 0.11425336 0.645297 0.39520717
000290 f0 c3 05 3f 91 b6 48 3e bc ac 0b 3f 27 6e 98 3d
       0.522521 0.19600894 0.54560447 0.07442885
0002a0 69 28 d9 3e d1 7e d5 be 29 09 51 3e cd de d8 3e
       0.42413643 -0.41698316 0.2041365 0.42357484
0002b0 20 0c cb 3e 54 13 15 3f 8d 6f 21 be d7 6f e1 3e
       0.39657688 0.5823262 -0.1576521 0.4403064
0002c0 12 61 50 3e a7 7b e3 3e 55 0f 11 bd 48 86 96 3e
       0.2034953 0.44430277 -0.035415012 0.29399323
0002d0 ea d8 36 be f2 78 9e be 5e 30 08 3f ea c9 43 be
       -0.17856184 -0.3095165 0.531988 -0.19119993
0002e0 1f de 16 3e fd 37 a0 3e b3 40 1e be fd e3 30 bf
       0.1473317 0.31292716 -0.15454368 -0.6909788
0002f0 e7 e5 4a 3e 7c 70 70 be 8c 1c 5e bf 83 5a 1b bf
       0.19814263 -0.2348041 -0.8676231 -0.60684985
000300 72 4e 68 be d9 e4 c8 bc b2 e0 29 3f c7 3e 3d 3c
       -0.22686175 -0.024523186 0.6635848 0.011550612
000310 99 23 e6 be 9f 6f e8 3e 58 b8 a7 bc b4 8d ee 3e
       -0.44949034 0.4539766 -0.020473644 0.46592486
000320 fd ac e6 be dc 78 70 be c6 55 02 bf 60 10 02 be
       -0.45053855 -0.23483604 -0.5091213 -0.12701559
000330 e1 2c 7a be 6c 4e 83 be ae 41 4f 3f d2 40 2b 3f
       -0.24431182 -0.2564577 0.80959594 0.6689578
000340 4e b6 19 be 12 ae 19 3e fd 9e 2e bf 55 a4 5e 3c
       -0.1501095 0.15007809 -0.68211347 0.0135889845
000350 61 c5 bc bd ec bb 3b be e6 18 59 bf f5 d0 aa be
       -0.092173345 -0.18333405 -0.84803617 -0.33362547
000360 83 64 c1 be b3 9f cb 3e 2d ab 2a bf bf 88 a7 be
       -0.37771997 0.39770278 -0.66667444 -0.32721516
000370 27 d5 3a 3e c6 ad ad 3e 2a ba 49 3e 72 77 90 3e
       0.18245374 0.3392164 0.19699922 0.2821613
000380 1a 43 7d 3e 9b 39 5f 3e 95 26 1d bf 39 a3 a2 be
       0.24732628 0.21799318 -0.61386997 -0.31765154
000390 ef 06 f6 be 28 d7 8f 3d 61 12 9a be 23 19 85 be
       -0.48052165 0.0702346 -0.30092147 -0.2599574
0003a0 4b 08 49 be e6 fa 06 3f 74 a2 6f 3f 19 da 0f 3f
       -0.1963207 0.5272659 0.9360726 0.56192166
0003b0 fb b9 30 bd b5 96 c7 be fd e9 3a bf 2b f4 a1 be
       -0.043146115 -0.38982168 -0.7301329 -0.31631598
0003c0 23 54 06 bf eb 74 f8 be c8 ee e7 be 74 5f ba be
       -0.5247213 -0.485267 -0.45299363 -0.3640095
0003d0 da 75 b2 3e 71 9d 22 3e 66 9f 9c 3e c8 f2 72 3e
       0.3485554 0.15880372 0.3059036 0.23725426
0003e0 39 03 b0 3e 7c 44 49 be 89 6c 55 3f 5a ec 48 3f
       0.3437746 -0.19655031 0.83368737 0.78485644
0003f0 a6 f4 ff 3e 35 2e c4 3e cf 04 85 be 09 8a 0d 3e
       0.4999134 0.38316503 -0.2598023 0.13822187

actor.pi_net.fcs.0.bias f4 [64]
000000 c0 bf b0 3e 64 30 ea 3c 7b 5f b3 3e 56 4a 6b 3c
       0.34521294 0.028587528 0.35033783 0.014360985
000010 56 09 eb 3e d0 7a a8 be 6d 21 4c 3e 85 1a 96 be
       0.4590556 -0.32906199 0.19934626 -0.29317108
000020 39 92 48 be 46 9a 04 be 0a 2e b1 3e a9 68 24 be
       -0.1958703 -0.12949476 0.34605438 -0.1605555
000030 aa f0 49 3e 16 1e e8 be f6 00 59 3e 9f c3 49 be
       0.19720712 -0.45335454 0.21191773 -0.1970353
000040 60 f3 6a be 1c b5 83 3e 70 dc d4 be 1f 56 fa 3c
       -0.22944403 0.25724113 -0.4157443 0.030558644
000050 07 c5 ad be ee 58 da be 0d e3 25 3e 80 53 89 3c
       -0.33939382 -0.42645973 0.16199894 0.016763449
000060 05 ca cb 3a a3 09 32 3e 0b 3c a0 be 54 80 f9 3c
       0.0015547877 0.17386489 -0.3129581 0.0304567
000070 b3 04 7c 3e 51 7f 44 bd 5a 1a 8a 3d d1 9f ce 3e
       0.24611168 -0.04797298 0.067433074 0.40356305
000080 70 59 6f be 0e 7b 61 be 88 10 4b bd 75 e2 01 bd
       -0.23373961 -0.22019598 -0.049576312 -0.031710107
000090 38 cd 8f be f5 85 c3 be 38 f8 ef be 9c 8e 6b 3e
       -0.28086257 -0.3818814 -0.46869063 0.2300362
0000a0 f0 20 a3 3e 66 3c a1 bc 75 83 d1 3e 6f 64 63 be
       0.31861067 -0.01968212 0.40920606 -0.22206281
0000b0 30 51 28 be 75 4d 90 3e c0 a8 c9 bd e8 29 f8 3d
       -0.1643722 0.28184095 -0.0984664 0.12117368
0000c0 6f e4 b9 3e 9f 95 d4 be ff 9b ea 3e b9 a8 be 3e
       0.36307094 -0.41520402 0.4582214 0.372381
0000d0 de 60 90 3e f6 cd 84 3e 85 34 09 3e 6f e1 91 3d
       0.28198904 0.25938386 0.13398941 0.07123076
0000e0 5e 2c b8 3e 6f a4 4e bd 3f c8 6d be a7 16 9d bb
       0.3597135 -0.050449785 -0.23220919 -0.00479396
0000f0 02 82 6c 3d a0 c4 79 bc fe 94 b9 bd 3c ce 6c 3e
       0.057741173 -0.015244633 -0.09061621 0.23125547

actor.pi_net.fcs.1.weight f4 [64, 64]
000000 af f0 f4 3d 17 2a c9 bb 40 c3 be bd 92 2a 0f 3e
       0.11959969 -0.0061390507 -0.09314585 0.13981083
000010 68 35 a3 bc 1e 24 a9 3d 78 da f0 3d 29 9a 6b bd
       -0.019922927 0.08258842 0.117604196 -0.057520065
000020 82 88 ec bd 39 2d ca bc 51 65 3b 3d bf e7 00 3d
       -0.11549474 -0.024679767 0.04575092 0.03147101
000030 71 c8 ce 3d f6 1b 48 3d 2e c5 39 3e 3b 3c 47 bd
       0.10096825 0.04885479 0.18141624 -0.048641425
000040 3d 42 f7 bd 1c 73 23 bd 55 0f a4 3d da c7 6d be
       -0.12073181 -0.0399047 0.08010737 -0.23220769
000050 68 66 ee 3a 19 2a 36 3d 3b 20 22 be 7c ef 43 be
       0.0018188478 0.04447374 -0.15832607 -0.19134325
000060 3b 7e ba 3d 2e cb 14 be cf be bb 3b fe 3e 9f be
       0.09106108 -0.14530632 0.0057295333 -0.31102747
000070 f5 34 04 3e ed f8 b2 3d fa 66 d2 3d 5b 68 b6 bc
       0.12910827 0.08738885 0.102735475 -0.022266557
000080 4e 21 83 bd 37 e2 b0 bc 5d 5e e9 bd 84 41 09 3e
       -0.06402837 -0.021592243 -0.113949515 0.13403898
000090 62 31 97 bd de 04 2f be a2 46 71 3d 6b d2 b3 3d
       -0.07382466 -0.170917 0.05890525 0.087803684
0000a0 af 06 9f 3c ce ed e4 3d d7 67 f9 3d 4b b3 b0 bd
       0.019412367 0.1117817 0.12178009 -0.086279474
0000b0 ff 91 50 3b e6 e1 94 bc 2a 52 7a bd ba 66 36 be
       0.0031825302 -0.018174123 -0.061113514 -0.17812625
0000c0 0e 4f 53 bd b4 54 83 bd 4e fd dc 3c 08 8e 58 3d
       -0.051589064 -0.0641264 0.026976254 0.052869827
0000d0 98 66 11 39 7f e8 c2 bd 58 c1 07 be c8 63 c9 3d
       0.00013866497 -0.09517001 -0.13257349 0.09833485
0000e0 e1 e9 e9 3d de 04 16 be 94 42 0f 3d 11 b8 9b be
       0.11421562 -0.14650294 0.034975603 -0.3041387
0000f0 84 ab 61 be 85 7e 09 b8 11 e2 43 3e 2c 0c d8 bc
       -0.22038084 -3.2781176e-05 0.19129206 -0.026372992
000100 99 8e ec 3d 33 8b b6 bd 7c 4b f1 3c c5 38 92 3c
       0.11550636 -0.08913269 0.029454939 0.017849335
000110 f6 a0 3f bd 97 be 88 bd f3 09 92 3d 1b 73 f9 3b
       -0.046784364 -0.06676977 0.07130804 0.0076125986
000120 ae d3 84 bd a3 4f 84 bd ca 42 e0 3c 59 65 bb bd
       -0.06485687 -0.06460502 0.027375598 -0.0915019
000130 10 9a f4 3a 10 53 9d 3d eb 24 35 3d ee 59 05 be
       0.0018661637 0.076818585 0.04422466 -0.13022587
000140 74 5b 8e 3c f9 5d 46 3d 08 ef dd 3d 19 62 73 bd
       0.017377593 0.048429463 0.10836607 -0.059419725
000150 76 82 e4 3d b1 9e 78 bd 42 5f 72 bd 0c c9 11 be
       0.11157696 -0.060698215 -0.059172876 -0.1423685
000160 58 09 9b bd 39 b0 d9 bd cf 3d 00 be 8c 4e 17 be
       -0.075701416 -0.10629315 -0.12523578 -0.14776057
000170 3c 84 0d 3e fd cc e7 3a 4a 08 df 3c 0d c6 22 3d
       0.13819975 0.0017684993 0.027225632 0.039739657
000180 7d 1d 9e bc 64 95 13 3d 50 f8 a7 bc a0 70 43 3e
       -0.01930117 0.036031142 -0.020504147 0.19085932
000190 2f 7e 2a bd 6e 31 fc bd 39 1d 89 bc 55 26 da 3d
       -0.041624244 -0.123141155 -0.016737567 0.106518425
0001a0 9e 86 08 3e 21 88 d0 bc 10 43 96 3d 8e 15 8a 3c
       0.13332602 -0.025455536 0.0733701 0.016855981
0001b0 35 93 f8 3d 46 40 34 bd b7 5c 2d bd 7a 77 8f bd
       0.121374525 -0.04400661 -0.042324748 -0.0700521
0001c0 d7 0f 96 bc b1 d6 d5 bd cd fd 1f bc 8c 4d c8 3b
       -0.0183181 -0.1044134 -0.009765101 0.00611276
0001d0 18 22 df bc e6 20 52 3d 30 e8 19 be ad e6 93 3d
       -0.027237937 0.051300906 -0.15029979 0.07221732
0001e0 4b e5 6b bd 1d 44 e3 bd a4 ca 9b 3b 2c 1b 98 bd
       -0.057591718 -0.11096976 0.0047543813 -0.074270576
0001f0 02 17 97 3c 41 be 94 3d 07 12 32 3c a6 ea de 3c
       0.018443588 0.072628506 0.010868556 0.027211498
000200 c9 53 17 3d c3 65 1a 3e 77 f8 8d b9 f2 ab d0 bd
       0.036945138 0.15077882 -0.00027078736 -0.10189046
000210 9f bc 95 bd f1 45 9f 3b 7e 29 5a 3d c7 3c 80 ba
       -0.07311367 0.0048606326 0.053262226 -0.0009783738
000220 c6 12 23 3e b4 7e 2a 3e da 3c 77 bc cb 8b 44 bd
       0.1592513 0.16649896 -0.015090192 -0.04798488
000230 28 5e 11 bc 10 b6 26 3d 6a da 5d 3c 14 d4 1c 3e
       -0.008872546 0.040700972 0.0135408435 0.15315276
000240 90 b8 9f bc 19 da aa 3d 89 e0 1e bb 2a 17 18 3e
       -0.019497186 0.0834238 -0.002424272 0.14852586
000250 26 bd 24 bd 42 33 a2 bd 85 18 0c 3e b4 65 1d 3e
       -0.04021945 -0.07919933 0.13681228 0.15370828
000260 d8 82 cd bd e8 d3 2f 3a f1 e1 31 3d 45 cb 51 3e
       -0.10034722 0.00067072967 0.043428365 0.20487697
000270 1f 03 92 3c 0e 95 af bc c4 6d e3 3d 5b 39 d6 bc
       0.017823754 -0.02143338 0.111049205 -0.026150396
000280 72 f0 10 be 01 a2 cc 3b 31 ad 1f 3d c8 00 4b be
       -0.14154223 0.0062448983 0.038983528 -0.19824517
000290 83 f4 4f 3e 5e 52 af 3c e9 12 b0 3d 71 d5 be bc
       0.20308118 0.02140158 0.08597357 -0.023295136
0002a0 c5 49 bc bc 17 88 6d bc 1f 14 1d 3b 9d 00 4f 3c
       -0.022984395 -0.014497778 0.0023968292 0.012634424
0002b0 c6 25 be 3c e7 4d 7b 3d 73 a0 c9 3d 3d 5c 52 3e
       0.023211371 0.06135359 0.098450564 0.20542999
0002c0 ee 58 da bc 41 7a 12 3d 9f 62 f4 bd 0d 30 23 bd
       -0.026653733 0.03576112 -0.11932873 -0.039840747
0002d0 a7 99 85 3d e4 16 9c 3d 1c 14 21 3e fa 22 2b be
       0.065234475 0.076215535 0.15730327 -0.16712561
0002e0 9e 95 aa bc 36 2b 33 3e 7c 17 97 bd a5 41 02 3e
       -0.020823296 0.17496952 -0.07377526 0.12720354
0002f0 1c 9a a7 bb 27 0e 0a be e1 f4 26 be 01 fe f5 bd
       -0.005114807 -0.13481961 -0.16304351 -0.12011338
000300 a6 b0 16 be ce 05 5f 3e 58 cd 36 bd 71 a6 5a be
       -0.14715824 0.21779558 -0.044629425 -0.21352555
000310 d1 18 ac bd e4 96 22 bd cf 46 de bd a0 13 bd bd
       -0.08403171 -0.03969468 -0.108533494 -0.09232259
000320 f9 0e 57 bd 9d c0 e4 3d 14 5a 60 bd 59 8d eb bc
       -0.052504513 0.111695506 -0.054773405 -0.028753923
000330 e4 2c 62 bc 13 af b7 bc e3 9e 0b be c0 e6 f0 3d
       -0.013804648 -0.02242235 -0.13634829 0.11762762
000340 46 17 0f 3e a0 ae fe bd 91 b5 01 be 5a 69 96 3d
       0.13973722 -0.12435651 -0.12666918 0.07344313
000350 d5 92 9e 3d 65 3a 1f 3e 2e e1 36 3e 56 5a da 3b
       0.0774285 0.1554962 0.17859337 0.006663601
000360 eb 28 b2 3d b1 c9 82 bc 54 f4 18 bc 00 09 30 3e
       0.08699211 -0.015965315 -0.009335596 0.17190933
000370 b3 92 34 bd 3d d7 76 bd fa 84 da bd e1 37 c1 bd
       -0.044085216 -0.06026386 -0.106698945 -0.09434486
000380 79 23 12 bc b0 c0 86 3d f8 df d1 3c 69 24 89 bd
       -0.00891959 0.06579721 0.025619492 -0.06696398
000390 8c ae d6 bc 11 43 18 bd f9 ab 91 3d ab 37 18 be
       -0.026206277 -0.037173335 0.07112879 -0.14864986
0003a0 43 16 ab bd 1a 09 a7 bd fa c7 48 3d f8 dc 1d 3d
       -0.083538555 -0.08156033 0.049018838 0.03854081
0003b0 ab fe 38 bd bd 4d d9 bc 2f 4d fc 3c e0 95 b1 3d
       -0.045164745 -0.026526326 0.030798523 0.086711645
0003c0 8a 95 0b 3c 84 72 8a 3a e2 32 40 3d 46 0f 5f bd
       0.00851954 0.0010562693 0.046923526 -0.054457925
0003d0 93 c5 a6 3d 49 fd d0 3c 48 c5 02 3e 77 f8 56 bd
       0.08143153 0.0255114 0.1277057 -0.05248305
0003e0 91 ce c8 3d 6c 79 02 3d 6f 2e 36 3c 91 51 08 3e
       0.098050244 0.03185408 0.011119469 0.13312365
0003f0 74 f2 01 3d fe 1a f8 39 08 91 73 be 5d 7a 95 3d
       0.031725362 0.00047322357 -0.23785794 0.072987296

actor.pi_net.fcs.1.bias f4 [64]
000000 ea 3f c1 bd 4b ce 2b 3d 8b 59 61 3d 8b 84 91 3d
       -0.09436019 0.041944783 0.055017035 0.07105359
000010 4e 92 90 3d d4 28 ac bd 00 81 f9 bc 82 f6 7f bd
       0.070591554 -0.08406225 -0.03045702 -0.062490948
000020 29 79 31 bc a0 60 10 bd d2 5c b9 3d 62 ac 3e bd
       -0.0108321095 -0.0352484 0.09050907 -0.046551116
000030 6f ad 54 3d b4 56 41 bd 92 be a2 b8 09 02 d9 bc
       0.05192321 -0.047201827 -7.7602584e-05 -0.026490228
000040 5c 1a a5 bd 33 9a 25 3d 78 f2 70 3c 88 65 4f bc
       -0.08061668 0.04043026 0.014706247 -0.012658484
000050 5f cf 87 3d 8c ef 18 3d ee 51 12 bd d1 5d 7a 3d
       0.0663135 0.037337825 -0.035722665 0.061124627
000060 2c 31 1b 3d d3 83 9c 3d 69 34 33 bd 81 86 60 3c
       0.03788869 0.07642331 -0.043751154 0.013703943
000070 7c 3f 4d 3d d9 36 78 bd 8e fd 74 bd 9e 0a 9d bd
       0.05010937 -0.06059918 -0.05981212 -0.07668041
000080 f6 f7 ba bd 49 e5 c8 bd 83 a7 5c bc 5d b7 58 3d
       -0.09129326 -0.09809358 -0.013467672 0.052909244
000090 b2 7f 73 3d 86 af 34 3c 56 49 60 39 48 37 98 bd
       0.05944795 0.011028176 0.00021389624 -0.07432419
0000a0 a3 16 c5 3c ce f9 05 3e dd 3e c7 bb 2f b4 40 3d
       0.024058646 0.13083574 -0.006080492 0.047046836
0000b0 61 2f 7e 3d eb 78 3d bd 2d 22 a6 bd 7c 6b 78 3d
       0.062056903 -0.046257894 -0.08111987 0.06064938
0000c0 03 7c ee bd 57 32 99 bd b1 68 33 3d 8e cf b6 bd
       -0.11644747 -0.07480305 0.043801013 -0.08926307
0000d0 be 4b e9 3d 63 fb 47 3d 25 0b b7 3d c0 05 ec bd
       0.113914 0.048823725 0.089376725 -0.11524534
0000e0 05 86 31 bd 4b 98 b0 3d 41 8a f6 3d b0 90 f3 bc
       -0.0433407 0.086227976 0.120380886 -0.029732078
0000f0 db ff 76 bb 37 94 c9 3d 21 af 52 3d 83 4a a0 bc
       -0.0037689123 0.09842723 0.051436547 -0.01956678

actor.pi_net.fcs.2.weight f4 [1, 64]
000000 8b 36 8c 3e 77 a4 02 3e 36 1a 14 be ef 70 ff bd
       0.27385363 0.12758051 -0.14463124 -0.12472712
000010 ef 52 04 3e 2f a3 36 be 57 78 1e 3e 53 79 8a be
       0.12922262 -0.17835687 0.15475594 -0.27045688
000020 b5 c9 a9 3e 0a 4b 83 3e fe c4 57 3e 37 58 01 be
       0.33161703 0.25643188 0.2107124 -0.12631308
000030 90 3e 42 3e 62 5a 80 be 0d b0 26 3e f6 21 68 3e
       0.18969178 -0.25068957 0.16278096 0.22669205
000040 81 60 99 bd 90 b3 96 3e 23 65 93 3e e6 9e 9e be
       -0.0748911 0.2943387 0.287881 -0.30980605
000050 4f 0c c8 3d 8f 43 75 be 2f 70 3d 3e 75 dc 98 3e
       0.09767973 -0.23951553 0.18499826 0.29855695
000060 ac 75 81 be 73 ae 6c 3e 23 74 3f 3e 68 a3 42 be
       -0.2528509 0.23113422 0.18696646 -0.19007647
000070 d1 41 2f be a3 9b 72 3e c5 54 a6 be c0 c6 96 be
       -0.1711495 0.23692183 -0.3248655 -0.2944851
000080 80 2e 85 be 5a d3 f8 3d 36 47 20 be 33 ff 92 3e
       -0.2601204 0.12149687 -0.15652165 0.28710327
000090 d4 a3 ff bd 41 3c 84 3e ee ca aa 3d dc 68 9b 3d
       -0.124824196 0.2582722 0.08339487 0.0758836
0000a0 06 76 20 3e 67 f3 76 3e 7b 10 87 be 03 08 95 3e
       0.15670022 0.24116288 -0.2637976 0.29107675
0000b0 d3 86 4f be e0 37 aa 3e 50 ae 8e 3d 95 6e 55 3e
       -0.20266275 0.33245754 0.06966841 0.20842965
0000c0 5b f1 ab bd 43 b9 2f 3e c9 a0 47 3e fe 0a 8e be
       -0.08395644 0.17160515 0.19494928 -0.2774276
0000d0 3c e8 97 3e a6 65 92 3e ee 0e 80 be ab e7 db bd
       0.29669368 0.28593177 -0.2501139 -0.107375465
0000e0 2f 8d 63 3e 83 75 98 3e 69 2e 1a 3e 8f 4e b7 be
       0.22221826 0.29777154 0.15056767 -0.35802123
0000f0 7b 4a e5 3d 42 5e 80 3e 46 68 a1 3e b3 dc a6 3e
       0.11195847 0.25071913 0.31524867 0.32590255

critic.v_net.fcs.0.weight f4 [64, 4]
000000 a5 90 eb 3e 93 27 70 be a4 42 ce bf 20 57 86 be
       0.46008793 -0.23452596 -1.6114087 -0.26238346
000010 26 91 94 be 75 bf 1c be 07 bb 8e bf 43 f9 62 bf
       -0.2901699 -0.1530741 -1.1150826 -0.88661593
000020 37 a4 28 bf 1d 24 39 bd a4 ef 53 bf 1c c4 59 bf
       -0.6587557 -0.045200456 -0.8278754 -0.85064864
000030 f2 ac 07 3f 1f b9 77 3e d0 27 6f bf 5a 2e 13 bf
       0.5299827 0.24191712 -0.93420124 -0.574926
000040 98 94 b3 be e4 66 08 bf ed ed 8d 3f a2 27 91 3e
       -0.35074306 -0.53282 1.1088234 0.2835055
000050 de 87 c6 be 81 52 76 be f9 0d f8 bf 89 3f c4 bd
       -0.38775533 -0.2405491 -1.9379264 -0.09582431
000060 f1 5f 13 3f 01 0c e7 3e 52 74 6f 3f a7 0b 09 3f
       0.5756827 0.45126346 0.93536866 0.53533405
000070 66 6e 00 3f b8 c0 4a 3e 1a f4 ff 3f c8 5d f0 3e
       0.50168455 0.19800079 1.9996369 0.4694655
000080 f0 22 b0 be 2d fd 0b 3f 1f 1d d0 3f 5e ab cc 3b
       -0.34401655 0.5468319 1.6258887 0.0062460145
000090 d7 5a 4b bf c4 b2 8a 3e de 94 93 3f 3d 01 c7 3e
       -0.79435486 0.27089512 1.1529806 0.38868132
0000a0 6d b9 91 3e 20 10 28 bf be 34 cc bf ed 4c 97 be
       0.2846178 -0.65649605 -1.5953596 -0.29550877
0000b0 9c a2 1c 3e 70 68 32 3f f9 72 a6 3f 8c 53 21 be
       0.15296406 0.6969061 1.3003837 -0.15754527
0000c0 6b d0 49 bf ef a5 ac be b9 93 8b bf 41 f7 d3 be
       -0.78833646 -0.33720347 -1.0904456 -0.41399577
0000d0 f9 dc 48 bf 9c f3 2f bc 3c e6 67 3f 9f 3d bc 3e
       -0.7846218 -0.010739233 0.90585685 0.36765763
0000e0 d4 7f 22 3f c5 6a de be fd e8 18 3f b2 f4 55 3f
       0.634763 -0.43440834 0.5973051 0.835765
0000f0 f8 1c 12 3c 93 76 24 3d 2c df 37 3f 2c 90 e4 3e
       0.0089180395 0.040152144 0.7182491 0.44641244
000100 c4 6f ab bd 51 28 da be 23 cc a6 bf fb 18 40 bf
       -0.08370927 -0.42608884 -1.3031048 -0.7503812
000110 f6 63 3b 3f a3 d6 dd 3e 67 2b 12 bf a4 76 55 bf
       0.73199403 0.43327817 -0.57097477 -0.83384156
000120 7f 33 12 bf a2 17 bd be f6 83 e7 bf 2d 54 f8 be
       -0.57109827 -0.36932093 -1.8087146 -0.4850172
000130 23 bf e4 3d 5a 7b 05 3f dc 11 d0 bd c2 8d 58 bf
       0.11169269 0.52141345 -0.101596564 -0.84591305
000140 21 e2 9c bd a1 3f 12 3f bf 1d 89 3f e3 da b7 be
       -0.07660318 0.5712834 1.0712203 -0.35909185
000150 d9 15 ff 3e 2e 0a dd be 75 a4 b6 bf 7e 03 64 be
       0.49821356 -0.4317183 -1.4268938 -0.22266957
000160 e6 cf a6 3e 64 1f 1c 3d e8 3b c9 bf 7e 09 4f be
       0.3258049 0.038115874 -1.5721407 -0.20218465
000170 d3 3a 9f 3e 64 98 7e be c4 65 99 3f f3 d3 c2 3e
       0.31099567 -0.2486282 1.1984181 0.3805233
000180 9d 82 a5 3e f1 9f 1e bf d4 cc fc bf ae d9 3c bf
       0.32326213 -0.619628 -1.9750009 -0.7376965
000190 b3 a3 9b 3e 8b 90 69 3e da 27 3f bf 1c d3 10 bf
       0.3039833 0.22809045 -0.74670184 -0.5657213
0001a0 f9 1f b4 bd 87 80 ed be df e8 e7 bf 9b 87 ad be
       -0.08795161 -0.4638712 -1.8117942 -0.3389252
0001b0 93 09 92 3e 2a 94 93 3e 84 69 59 bf 44 37 7b bf
       0.2852293 0.28823978 -0.8492663 -0.98131204
0001c0 0d 3b 2d bf fb 81 16 bf 11 c1 92 bf e0 5d 7c bc
       -0.6766823 -0.58792084 -1.1465169 -0.015403241
0001d0 75 1c 9e 3e b3 92 2b 3f 54 4a 5b bf dd 45 83 bf
       0.30881086 0.6702072 -0.8566029 -1.0255696
0001e0 d9 e8 79 bf 01 95 65 be b5 d4 46 3f 54 ae a2 3e
       -0.9762092 -0.22420122 0.77668315 0.31773627
0001f0 ca 9e f3 be 12 a8 4b be 15 eb e9 bf 6e d8 8f bd
       -0.47582084 -0.19888332 -1.8274866 -0.070237026
000200 57 05 fd be cc 35 02 bf bf 84 c2 bf 4e cb c9 be
       -0.49418136 -0.5086334 -1.5196761 -0.39412922
000210 85 86 27 3e ec bf 01 3f b7 ac c1 3f 6e 89 b4 3e
       0.16359909 0.50683475 1.5130833 0.352611
000220 28 0c 08 bf 0d 57 d8 3e 06 07 f5 3f 78 10 a2 3e
       -0.5314355 0.42253914 1.9142768 0.3165319
000230 77 9c 0c bf 9e 3f ce 3d 1a 27 a2 bf b7 91 35 bf
       -0.54926246 0.10070728 -1.2668183 -0.7092547
000240 6b 7f 3a bf 51 96 a6 be 25 40 1b bf 96 53 ac 3e
       -0.72850674 -0.32536557 -0.6064475 0.3365752
000250 2f 64 86 be d3 cc ed be a3 dc fc bf 90 e7 41 bf
       -0.2624831 -0.4644533 -1.9754833 -0.7574396
000260 df b0 d3 be 3b db 18 be 44 b9 bd 3f e1 5a 77 3e
       -0.4134588 -0.1492738 1.4822164 0.24155761
000270 94 a3 01 3f 88 9f 41 be 51 31 b2 bf 04 e6 bf bd
       0.50640225 -0.18908513 -1.39213 -0.09370044
000280 d4 82 8a bd 5b 1c 4d bf 33 b9 eb bd 9a 60 7a 3f
       -0.06763235 -0.8012139 -0.11509933 0.9780365
000290 22 4a 2f 3f 88 2a 13 3b 93 34 b8 3f 47 04 ba 3e
       0.6847249 0.002245577 1.4391044 0.36331388
0002a0 8c e9 87 3e f9 bf ed 3d 09 ab 37 3f f0 c2 a6 3e
       0.2654537 0.116088815 0.71745354 0.325706
0002b0 9b 9c 0b 3f 3f 1c 65 3e 4c 38 78 bf f5 94 51 bf
       0.54535836 0.22374056 -0.969609 -0.81867915
0002c0 e3 ce 57 3e 92 7d 27 bf da 91 ef bf 2e af 68 bf
       0.21075015 -0.6542598 -1.8716385 -0.90892303
0002d0 60 85 94 3c 2a 90 8f 3d 4c c2 fb bf 89 2c 7c bf
       0.018130004 0.07009919 -1.966867 -0.98505455
0002e0 66 5a b9 be a3 56 bf be ee e7 f4 bf 91 78 55 bf
       -0.3620178 -0.37370786 -1.9133279 -0.83387095
0002f0 7a 4c 7a bc 41 f4 0a 3f 14 90 0d 40 3b 61 6a 3f
       -0.0152770225 0.5427895 2.2119188 0.9155461
000300 f0 0b 81 3e 4e 30 b8 3e 94 81 91 3f 0a 2c 0e 3f
       0.2520442 0.35974354 1.1367669 0.5553595
000310 af 7e 47 3f 19 7a a6 3e ea 7b 49 bf f3 1d 1f bf
       0.7792768 0.32515028 -0.787047 -0.62155074
000320 84 d5 a7 be db a1 bd be 27 7a b6 bf 27 c5 73 be
       -0.32780087 -0.37037548 -1.4256028 -0.23805676
000330 5e 28 89 be 88 91 14 3f 24 df c6 3f 9d 24 9c be
       -0.2678861 0.58034563 1.5536847 -0.30496684
000340 4d 74 de be 57 d1 54 3f fc cc f2 3f 5e 1f cb 3e
       -0.43448105 0.8313193 1.8968806 0.3967237
000350 15 2b 58 bf c3 8b 30 bf 01 f7 1d bf 6e de 84 be
       -0.8444074 -0.6896326 -0.61705023 -0.2595095
000360 ba 4c 9d 3e 91 bd e1 be c9 15 18 3f 66 17 8e 3f
       0.307226 -0.4408994 0.5940824 1.1100891
000370 a4 38 01 3f de 0d 6d be 98 f5 d2 3f 4f 9c 35 3f
       0.5047705 -0.23149821 1.6481199 0.70941633
000380 43 29 5f 3e 5b 40 56 3d fa f6 95 bf a4 ea 58 bf
       0.21793084 0.052307468 -1.1715996 -0.84733033
000390 d6 3e a5 bd 10 25 87 be ec 4a cd 3f 66 0b bf 3e
       -0.08068626 -0.26395464 1.6038489 0.37313384
0003a0 af db 48 bd ed 6c 59 3e ae 45 bd 3f ac 90 54 3f
       -0.04903763 0.21232958 1.478689 0.8303325
0003b0 2f ec 1f 3f 48 42 0b 3f f8 41 0b bf 6e 8b 13 bf
       0.6246976 0.5439801 -0.54397535 -0.5763463
0003c0 11 37 c3 3e ba ee 2e bf 60 f0 31 3f b3 e6 72 3f
       0.3812795 -0.6833302 0.6950741 0.9488327
0003d0 f1 50 e7 be d5 f7 65 3e 00 53 47 bf 8a 07 04 bf
       -0.4517894 0.22457822 -0.7786102 -0.51574004
0003e0 5f 80 73 be 86 23 28 bf 65 1f 69 bf 64 2a e3 be
       -0.23779438 -0.65679204 -0.9106353 -0.4436828
0003f0 f3 28 a4 be 70 16 e0 be e6 64 cc bf b5 e0 39 bf
       -0.32062492 -0.43767118 -1.5968292 -0.726085

critic.v_net.fcs.0.bias f4 [64]
000000 d8 f6 ff be f6 b9 9c be 5c 1d 00 bf 2d e2 81 3e
       -0.49993014 -0.30610627 -0.500448 0.2536787
000010 c1 35 8b be 28 5d 44 3e ae ea a7 3e 09 32 10 be
       -0.27189448 0.19176161 0.32796234 -0.14081587
000020 f4 22 d2 be 9d 51 10 bf 77 d3 0b bf 4e 63 dc be
       -0.41042292 -0.5637453 -0.54619545 -0.43044513
000030 0c 81 01 bf ab 1d aa be 06 1e ea be 79 c1 9f 3e
       -0.50587535 -0.3322576 -0.4572603 0.31202295
000040 fc 0c 33 be 40 e2 2c bf f8 2c 86 3e b6 db de 3e
       -0.17485422 -0.6753273 0.26206183 0.43527
000050 b8 91 c6 3e 71 2f a2 3e ab d8 31 3e fb 33 fe be
       0.3878305 0.3167682 0.17367809 -0.49649033
000060 6b 72 81 3e ac 89 c2 be 75 ae 1d be 4c e5 fd be
       0.25282606 -0.3799566 -0.15398581 -0.49589002
000070 42 a5 03 bf 3f d3 26 3f 1f 7a 28 bf 37 0e d8 3d
       -0.5142404 0.65166086 -0.6581134 0.10549586
000080 ef 45 49 3e 91 82 10 be 97 28 86 be 4e ac d2 be
       0.19655584 -0.14112307 -0.26202843 -0.41147083
000090 a4 d3 06 bf d9 e4 96 be 35 dc 76 be 23 79 5f be
       -0.5266669 -0.29471472 -0.2410744 -0.21823554
0000a0 39 75 21 bf 10 82 95 be 90 e4 e7 be b5 6a 9d 3e
       -0.6306949 -0.29200792 -0.45291567 0.30745474
0000b0 31 f6 8d bb 29 03 d0 be a6 81 cd bd fe 53 0e 3e
       -0.004332327 -0.4062741 -0.10034494 0.13899228
0000c0 6a 82 cf bd 7a d9 1c bf 0b e2 f7 3e 97 55 8a 3e
       -0.101322964 -0.6126934 0.48414645 0.27018425
0000d0 93 de bc 3e ae 24 11 3f cd e6 0d 3f 5d ce b7 3e
       0.3688856 0.56696594 0.554303 0.3589963
0000e0 12 91 03 bf 1b 0a 67 be 53 9b 6d 3e 9e e8 29 3f
       -0.51393235 -0.22562449 0.23203783 0.6637057
0000f0 17 7e 0a bf 8a df cb be 6d e5 c5 3e 09 3d 95 be
       -0.5409865 -0.39818984 0.386516 -0.2914813

critic.v_net.fcs.1.weight f4 [64, 64]
000000 ca a9 77 be 1e 51 98 be 4d 0c ce be 42 b5 f1 bd
       -0.24185863 -0.29749388 -0.4024376 -0.1180215
000010 8f c1 fd 3d 1d 89 94 be 7e 42 c2 3e cc b9 9a 3e
       0.12390434 -0.2901086 0.37941355 0.30219877
000020 4c b0 37 3d 6d 85 6e bd ac 63 f4 be 8a 40 4e 3c
       0.044845864 -0.058232713 -0.47732294 0.0125886295
000030 dc ad f0 be 2a b3 fe 3d 8c 60 20 bd 89 f2 34 3e
       -0.47007644 0.124365166 -0.039154574 0.17670645
000040 4a 2a 09 bf fe d5 bd be 8b 3b 8b be 47 dc a8 3d
       -0.53580153 -0.37077326 -0.27193865 0.082451396
000050 5b fc 5c 3e d2 be a4 bd 32 d5 81 be 37 3f f3 bd
       0.21580641 -0.080442086 -0.25357968 -0.11877292
000060 c6 49 a9 be b8 76 7e be 32 24 3b bf ca 7a de be
       -0.33064097 -0.24849975 -0.73102105 -0.43453056
000070 8c 89 b7 be b5 22 c8 3d 49 3a df bd c1 d6 e2 be
       -0.35847127 0.09772245 -0.10899789 -0.4430447
000080 12 9e 89 be fe 55 95 3e 8a 04 da 3d ce c4 f8 be
       -0.2687841 0.2916717 0.10645397 -0.4858765
000090 a1 49 a5 be d9 c6 27 bf 41 f0 61 3e e7 27 9f be
       -0.32282737 -0.6553779 0.22064306 -0.3108513
0000a0 c7 18 8f bd 27 14 5b 3e 67 78 68 3d 1c fa 6e be
       -0.06987148 0.21394406 0.05675545 -0.23337597
0000b0 d4 b1 07 bf 7e f0 2b bf 28 e6 34 bf ad 3e 2b 3f
       -0.5300572 -0.67163837 -0.7066369 0.6689251
0000c0 e6 da 8a 3e f7 1a bd be 21 b6 db 3d f1 48 8a 3e
       0.2712013 -0.36934635 0.10728098 0.27008775
0000d0 da d7 4b 3f 1d 5d 3e 3e 84 53 e2 3e cc 7f 1f 3f
       0.7962624 0.18590207 0.44204342 0.6230438
0000e0 83 52 d0 be c3 7b 98 3d f3 64 47 3f e0 b4 ff 3d
       -0.4068795 0.07445481 0.7788841 0.12485671
0000f0 d2 c2 37 be 44 7c 7d be f5 7e 9e bd a8 f5 18 bf
       -0.17945412 -0.24754435 -0.07739059 -0.5974984
000100 b3 bb dc be 21 b9 c1 be 52 85 ea be d9 98 55 be
       -0.43111953 -0.37836555 -0.4580484 -0.20859088
000110 68 9a 3d 3e c8 6b 9a 3d f3 22 1f 3d e7 ff 62 bd
       0.18515933 0.07540089 0.03885169 -0.05541983
000120 6b 07 c3 be 67 dc 87 be bc 13 77 be e3 56 1a bf
       -0.38091597 -0.2653534 -0.24128622 -0.6028883
000130 c4 e7 b5 be 1b 91 1b bd 2e 71 77 3d 5c 5e 66 3e
       -0.35528386 -0.03798018 0.06041067 0.22496933
000140 a6 dd 5e bd 92 97 00 bf 9f 71 93 3e 4f 93 47 be
       -0.0544106 -0.5023128 0.28797624 -0.19489788
000150 52 bc 4f 3d 83 fd c1 3e e6 30 3e 3c 69 f4 31 be
       0.050716706 0.37888727 0.011608338 -0.17378391
000160 d0 dd 87 3e 8f 13 e9 be ad 93 55 be e1 0b 3d bf
       0.26536417 -0.45522735 -0.20857115 -0.7384625
000170 db b7 c7 bd 7b 2d 28 be 06 78 2b be 44 52 50 3c
       -0.097518645 -0.164236 -0.16745004 0.012714926
000180 b3 aa 83 3e a7 e1 92 be bb d0 5b be 5f 30 dd be
       0.2571617 -0.28687784 -0.21466343 -0.43200967
000190 44 46 10 3c 15 f6 10 be 84 cd 9c 3c ce 7a a3 be
       0.008805815 -0.14156373 0.019140966 -0.3192963
0001a0 8e e7 5c bc 81 2e 47 be af 47 c5 bd c6 de 06 be
       -0.013482941 -0.19451334 -0.09632813 -0.13170919
0001b0 3f 82 53 3d 6d a0 41 bf 49 75 95 be 21 d1 9b 3c
       0.051637884 -0.75635415 -0.29191044 0.019020619
0001c0 3c 12 d0 bd fc df 1d bf ae 1e 3f 3e 86 db af 3c
       -0.10159728 -0.616699 0.18664047 0.021466982
0001d0 de ce be 3d 82 cf dd 3e 77 12 2f 3f 0f f0 3e 3f
       0.093168005 0.43322378 0.6838755 0.7458505
0001e0 5d 36 28 bf 6c 87 2f 3e 09 52 06 3f 6d 10 bc bc
       -0.6570795 0.17141503 0.52468926 -0.022957051
0001f0 63 f2 0b 3e 20 61 d6 be 52 f4 e1 3e 78 39 7d be
       0.13666682 -0.41870975 0.44131714 -0.24728954
000200 9d 68 8a 3d 9b 99 74 be 5e c7 85 be c7 bb d7 be
       0.06758235 -0.23886721 -0.26128668 -0.4213545
000210 f0 3b e5 3e 5d d2 8f bf 25 90 21 3e 98 45 82 3f
       0.4477229 -1.1236073 0.15777643 1.0177488
000220 aa ec a7 3e 19 5f 3e 3e f5 ea 2f bd 34 ed d9 3e
       0.32797748 0.18590964 -0.04294868 0.42563784
000230 0e 72 6d bd 37 47 6e 3e 35 cc e9 3e a8 67 ae 3d
       -0.0579701 0.23269354 0.4566361 0.085158646
000240 35 31 b3 be 35 65 2d 3e 42 81 45 bf be 75 6a be
       -0.3499848 0.16933139 -0.77150357 -0.22896478
000250 cc d5 d0 bd 4d 3d a7 be 23 eb c5 be 57 32 57 3e
       -0.101970285 -0.32663956 -0.38655958 0.21015297
000260 0d 2e c3 be fa 4d be 3c 27 7e fe be f9 44 9d 3d
       -0.3812107 0.023230541 -0.49705622 0.07679171
000270 5c 34 82 bc e0 61 d2 be ed f6 81 3d 04 8a 86 bf
       -0.015894108 -0.41090298 0.063459255 -1.0510869
000280 69 cd 53 bf 2c 94 20 3f 2c b1 d9 3e 1f 7e 90 be
       -0.82735306 0.6272609 0.42517984 -0.28221223
000290 a4 c6 98 3d a6 e8 af be 98 fc 61 3e 84 44 f7 bd
       0.07459763 -0.34357184 0.22069013 -0.12073615
0002a0 8c f2 7d 3e 0d ba 5f 3f 25 f0 61 3e c0 8b e9 be
       0.24799556 0.87393266 0.22064264 -0.45614433
0002b0 3c 74 0e bf b2 72 74 be 07 0a 00 bf ab 58 10 3f
       -0.5564611 -0.23871878 -0.500153 0.56385297
0002c0 61 a2 23 3f 37 4c 4c 3e 70 4a b8 be f0 5f 85 bd
       0.63919646 0.19950949 -0.3599429 -0.06512439
0002d0 2c 93 54 3d fe ea d9 be 57 8c af 3d 58 34 8a 3e
       0.051898167 -0.42562097 0.085716896 0.2699306
0002e0 a3 66 39 3c 0f cf ef 3e 71 67 a8 3e 96 a2 56 be
       0.011315974 0.4683766 0.3289142 -0.20960459
0002f0 38 29 05 3f f1 ba 5e be 95 d1 a6 be 3e 56 ae be
       0.5201602 -0.21751 -0.32581773 -0.34050173
000300 e4 74 db 39 64 57 0c be e2 1e c2 bd 5a a9 c3 be
       0.00041858025 -0.13705212 -0.09478547 -0.38215142
000310 9d e0 d3 3e d9 28 27 bf 6e 8c f1 3d 59 d9 4a 3f
       0.41382304 -0.65296704 0.11794363 0.79237896
000320 2c 73 88 3e 03 be 90 3e 8f e9 b9 3d 62 39 07 3e
       0.2665037 0.28269967 0.09077751 0.13205484
000330 5d 94 26 bd c9 59 b4 3e 3b 59 1e 3f ad 9b 7b bd
       -0.040668834 0.3522475 0.61854905 -0.06142776
000340 33 5b 7a bd 80 01 3c 3e ac d4 1b bf 53 d5 c8 be
       -0.06112213 0.18359947 -0.60871387 -0.39225253
000350 29 ac 30 be 80 49 b3 be 61 a4 99 be d9 49 a1 3e
       -0.17253174 -0.35017014 -0.30008224 0.31501654
000360 ac 88 b5 be ab 89 44 3d 9b fb 50 be 9a 14 12 be
       -0.35455835 0.047982853 -0.2040848 -0.14265671
000370 25 83 d7 3d 5a c1 10 bf 92 c0 84 3e ea 81 32 bf
       0.10523061 -0.5654503 0.2592817 -0.69729483
000380 f7 0d 1f bf 3f 3e 16 3f 8c 53 03 3f b5 28 db bd
       -0.62130684 0.5868873 0.5129936 -0.107011236
000390 d6 5b b8 bc da 1f c3 bd 3b 85 b2 3e e7 8b 99 bd
       -0.022504728 -0.095275596 0.34867272 -0.074973874
0003a0 63 6f 0e 3f dd 89 1b 3f 52 07 2c 3e 6f 0a 1f bf
       0.5563871 0.6075724 0.16799667 -0.62125295
0003b0 0c 4f a8 be 2d 47 8e bd 5d a7 eb be d2 bb f4 3e
       -0.32872808 -0.069471695 -0.46026126 0.47799546
0003c0 1a e8 dc 3e 73 c5 9b 3b de a5 9d be de 5d 01 be
       0.4314583 0.0047537624 -0.3079061 -0.12633464
0003d0 e3 17 b9 bc 13 00 ac be 33 9c 0e 3e 6c cf 70 3e
       -0.022594398 -0.33593807 0.13926773 0.23516625
0003e0 4b 38 9b 3c c0 a6 12 3f b2 50 a1 3e 7e 7b 93 be
       0.018947741 0.5728569 0.31506878 -0.28805155
0003f0 0d 9d 25 3f 20 7a c2 bd f0 c2 c3 be d7 ba 2d be
       0.64692765 -0.0949595 -0.38234663 -0.16965805

critic.v_net.fcs.1.bias f4 [64]
000000 b0 e2 72 3e f1 86 75 3d ac f9 db bd 9d 32 39 be
       0.23719287 0.059943143 -0.107409805 -0.18085714
000010 54 f4 98 bb 1a 4f 3d 3e d7 76 8d be f4 41 29 bd
       -0.004667798 0.18487206 -0.2762973 -0.041322663
000020 1b 83 21 3e 2e b6 76 3d 4e 1e 34 3e 54 96 2d 3d
       0.15772669 0.060232334 0.17589685 0.042379692
000030 f2 c9 26 3e ce ab b1 3d 36 1e 02 be 1c 29 9f bd
       0.16287974 0.08675347 -0.12706837 -0.07771513
000040 88 2a d1 bd d0 d7 2f 3d aa 56 8b be b2 f6 f7 3c
       -0.1021319 0.042930424 -0.27214557 0.030269
000050 3c eb 39 3d c1 ca 3b bd 07 49 79 be ca 26 3c ba
       0.045390353 -0.045847658 -0.24344264 -0.0007177411
000060 64 2c e8 3c 4d 5a e3 bc b0 60 77 bd 0b b8 d0 3d
       0.02834148 -0.02775302 -0.060394943 0.101913534
000070 4e 8d 25 bd d5 e5 bd bd bb f9 1d 3e 80 81 96 3e
       -0.04041796 -0.092723526 0.15427296 0.29395676
000080 33 1e 39 3e 03 36 32 bd d9 aa ab 3c 92 5b 4c bd
       0.18077926 -0.04350854 0.02095549 -0.049892016
000090 b3 d1 2f 3e cd 17 37 be 69 56 59 3e 72 c6 0d 3e
       0.17169838 -0.17880173 0.21224369 0.13845232
0000a0 a9 5a 0e bd 39 55 31 be 15 4c 47 3e 30 ea b4 bd
       -0.03475443 -0.17317666 0.19462617 -0.0883373
0000b0 88 a7 40 3e 95 7c 7a 3e 10 8e 41 be 81 5e 5c 3c
       0.18813908 0.24461587 -0.18901849 0.013450266
0000c0 8e b8 05 be dc d5 37 bd b0 1c 16 3e d9 b1 af bd
       -0.13058683 -0.044881687 0.14659381 -0.085788436
0000d0 94 b2 97 bd 19 63 55 bd 13 df b6 bc e1 c9 97 3c
       -0.07407108 -0.05209646 -0.022323167 0.01852888
0000e0 43 21 0c 3e 2a b0 9f 3d 3d 8c 31 be 94 a4 fd bc
       0.13684563 0.077972725 -0.17338653 -0.030962266
0000f0 f9 23 1c be 6f 7a de 3c 95 5d 84 3e 85 02 5f 3e
       -0.15248097 0.02715799 0.25852647 0.21778305

critic.v_net.fcs.2.weight f4 [1, 64]
000000 b4 94 ab 3f 67 59 b9 3f cd 47 91 bf 4e 8f 99 bf
       1.3404756 1.4480408 -1.1350037 -1.1996858
000010 38 40 ad 3f 6c 96 ac 3f c5 7b b4 bf 1e 75 96 bf
       1.3535223 1.3483405 -1.4100271 -1.1754491
000020 51 67 9f 3f 02 54 ac 3f ac 64 b2 3f 1d 03 b1 3f
       1.2453405 1.3463137 1.3936973 1.3829075
000030 a1 c1 94 3f 53 50 ab 3f 1f e9 b4 bf 34 04 ae bf
       1.1621591 1.3383888 -1.4133643 -1.3595033
000040 d4 d2 b8 bf 02 c2 b4 3f 54 e7 aa bf ea 29 b6 3f
       -1.443934 1.4121706 -1.3351846 1.4231541
000050 16 e1 a1 bf 93 4b 99 bf 21 4b c1 bf 9f fe aa bf
       -1.2646816 -1.1976188 -1.5101053 -1.3358954
000060 f9 dd a0 3f b0 3b b2 bf 98 54 b9 bf e8 67 97 3f
       1.2567741 -1.3924465 -1.4478941 1.1828585
000070 73 31 ac 3f 81 76 a4 bf cc 83 97 3f db 0f a0 3f
       1.3452591 -1.2848665 1.1837096 1.2504839
000080 0a cf a0 3f 10 df b5 bf ea bc 94 bf 20 ad 9e bf
       1.2563183 -1.4208698 -1.1620152 -1.2396584
000090 43 1b b0 3f a4 17 9c bf 7d 25 a6 3f 80 d3 a6 3f
       1.375832 -1.2194715 1.298019 1.3033295
0000a0 01 a4 9e 3f ee 58 95 bf 78 3b b6 3f 83 6c c0 bf
       1.23938 -1.1667764 1.4236898 -1.5033115
0000b0 1c a4 b3 3f 0f f7 a8 3f e3 6f a4 bf 86 da 9b 3f
       1.4034457 1.3200396 -1.2846645 1.2176063
0000c0 74 f5 98 bf 57 a4 97 bf 3c d1 a7 3f 7c 8c 7a 3f
       -1.1949906 -1.1847028 1.3110728 0.9787061
0000d0 a7 59 bd bf 59 48 b7 3f 85 4d a8 bf 4d 54 bb 3f
       -1.4792985 1.4318954 -1.3148657 1.4635102
0000e0 22 3f af 3f 5c bd b5 bf e5 2f b4 bf ba 7f a7 3f
       1.3691142 -1.4198413 -1.4077116 1.3085854
0000f0 ae f0 a8 bf e5 68 a9 3f 20 ee bb 3f 22 97 98 3f
       -1.319845 1.3235136 1.4682045 1.1921122

exp_avg f4 [64, 4]
000000 96 c3 97 ba 8b 9f 24 39 27 75 d1 b8 9e de 10 3b
       -0.0011578675 0.00015699693 -9.987718e-05 0.0022105346
000010 fb ae db 3a 44 c1 19 ba 06 60 c7 38 9c d3 2a bb
       0.0016760522 -0.00058652856 9.506945e-05 -0.002606607
000020 92 53 3a 3a e7 d9 bc b9 1e 52 a2 36 53 c0 34 ba
       0.000710779 -0.00036020504 4.837536e-06 -0.00068951136
000030 64 93 0a bb 05 53 47 3a ae 1a 92 b8 6e 27 31 3b
       -0.002114498 0.00076036184 -6.966792e-05 0.0027031559
000040 1a 6b 56 ba 4c 3a 8b 39 f8 08 db b7 40 cf 81 3a
       -0.00081794115 0.0002655558 -2.611101e-05 0.0009903684
000050 56 06 0d ba bc 63 57 39 7a 2a 6c b7 ce 22 25 3a
       -0.0005379667 0.00020541152 -1.4076586e-05 0.0006299437
000060 19 8a 7c b9 cf 7e c0 38 bb f2 fa b6 95 ca 9d 39
       -0.00024084038 9.1788934e-05 -7.478838e-06 0.0003009631
000070 52 6f 01 3a e2 f6 59 b9 38 0d 4f 37 0a 22 12 ba
       0.00049375475 -0.00020786704 1.2341239e-05 -0.000557453
000080 74 68 d3 3a 89 44 07 ba 90 06 68 38 4b ed 08 bb
       0.0016129152 -0.0005160054 5.5319222e-05 -0.002089339
000090 de cf 96 3a ad 57 bf b9 d3 60 8e 38 52 f9 e6 ba
       0.0011506041 -0.00036495682 6.7891226e-05 -0.0017621911
0000a0 62 2f ae 39 56 02 20 b9 8f cb 2a 37 4d c9 c7 b9
       0.0003322317 -0.00015259659 1.0180184e-05 -0.0003810622
0000b0 1f 88 49 39 79 04 98 b8 5d 6c cc 36 90 e4 78 b9
       0.00019219563 -7.248758e-05 6.092289e-06 -0.00023736269
0000c0 91 21 82 38 30 bd 97 b7 60 05 89 36 a1 4e df b8
       6.205135e-05 -1.80887e-05 4.083544e-06 -0.000106481144
0000d0 e2 29 b6 b9 c8 38 21 39 a0 b1 95 b7 49 f3 fc 39
       -0.0003474495 0.00015375309 -1.7844897e-05 0.00048246447
0000e0 38 c0 f1 ba 0c 55 16 3a cc 50 a3 b8 8c 9d 25 3b
       -0.0018444126 0.0005734719 -7.787495e-05 0.0025270907
0000f0 92 e1 4b 3a 95 ef 84 b9 98 f8 fa 37 26 6a 89 ba
       0.0007777448 -0.00025355504 2.9918083e-05 -0.0010483905
000100 96 c5 c4 39 6b 49 d2 b8 c2 e6 0c 38 35 48 35 ba
       0.00037531246 -0.000100272555 3.359351e-05 -0.0006915362
000110 16 e0 8f b9 b8 35 9e 38 e7 bd 30 b7 66 40 ca 39
       -0.00027442042 7.544033e-05 -1.0534633e-05 0.00038576423
000120 8d 6c 63 ba 8d 9c eb 39 d2 84 92 b6 26 cf 54 3a
       -0.0008675538 0.00044939332 -4.3666014e-06 0.0008118026
000130 42 0d 2f 3b c0 ef 81 ba c0 f4 be 38 bb 55 62 bb
       0.0026710783 -0.000991337 9.105494e-05 -0.0034535963
000140 4d 21 bb b8 27 d9 33 38 a4 5d 44 b5 7b fa a5 38
       -8.9230576e-05 4.2879165e-05 -7.3151955e-07 7.914469e-05
000150 ff aa 1f 3a a7 10 80 b9 05 9d 2e 37 0b 25 2d ba
       0.0006090849 -0.0002442647 1.0407767e-05 -0.0006604946
000160 d6 cd b9 3a f7 a6 09 ba 81 7e 34 38 85 f1 f5 ba
       0.0014175724 -0.0005251015 4.303316e-05 -0.0018763995
000170 bd a6 cf 3a 79 1a 24 ba e4 80 9b 38 e3 21 13 bb
       0.0015842539 -0.0006260048 7.414984e-05 -0.0022450618
000180 60 a2 28 ba 9a 7e 63 39 ac bd 98 b7 d4 61 53 3a
       -0.0006432887 0.0002169557 -1.8208135e-05 0.0008063589
000190 69 86 e2 3a ae 54 25 ba 69 05 92 38 af 71 25 bb
       0.0017282489 -0.0006306869 6.96283e-05 -0.0025244763
0001a0 9b c6 25 3a 7b ac 60 b9 62 c4 7f 37 5f 49 41 ba
       0.0006323845 -0.00021426559 1.5244908e-05 -0.0007373299
0001b0 73 23 82 3b 15 6c c6 ba 38 ef 17 39 cb de ab bb
       0.003971511 -0.0015138412 0.00014489598 -0.005245065
0001c0 0e bd cc b9 3c 21 34 39 b0 6f 0c b7 01 76 e2 39
       -0.0003905077 0.00017178518 -8.3706545e-06 0.00043194
0001d0 7d a8 09 bb fa cc 41 3a 5d 7f 78 b8 a2 67 28 3b
       -0.0021004968 0.00073929096 -5.9246424e-05 0.0025696536
0001e0 8d 9f 5b 39 02 80 96 b8 d5 38 10 37 56 6c 8d b9
       0.00020944905 -7.176401e-05 8.596301e-06 -0.00026974332
0001f0 fa af 2b ba 1e c1 27 39 94 47 f0 b7 38 94 78 3a
       -0.0006549355 0.00015998303 -2.864356e-05 0.00094825355
000200 83 05 90 ba 5c b3 d7 39 00 d9 f1 b7 42 c0 b2 3a
       -0.0010987971 0.0004114163 -2.8830487e-05 0.001363762
000210 6b 6b 31 37 b5 35 80 b6 b7 59 c5 b5 da dc ae b7
       1.0575032e-05 -3.8209496e-06 -1.4703754e-06 -2.0845258e-05
000220 6e 46 12 3b 19 20 42 ba 71 28 d2 38 83 3c 4e bb
       0.0022319811 -0.00074052956 0.00010021113 -0.0031469173
000230 86 42 08 bb 4d f4 3e 3a de fa a4 b8 b0 87 37 3b
       -0.0020791604 0.00072843285 -7.866857e-05 0.002800446
000240 bd c3 d4 3a 72 b9 0c ba fc 5c 85 38 e6 59 07 bb
       0.0016232651 -0.00053682097 6.359254e-05 -0.002065295
000250 75 46 98 3a 43 09 c2 b9 17 60 f6 37 1d 54 b5 ba
       0.0011617678 -0.00037009464 2.937023e-05 -0.0013834272
000260 52 bc d6 39 09 e1 21 b9 d0 c3 33 37 c4 fb 04 ba
       0.0004095757 -0.00015437989 1.0714823e-05 -0.00050729164
000270 43 f2 e5 ba c1 b7 cd 39 02 bc ff b8 60 c4 40 3b
       -0.0017543513 0.00039237554 -0.00012194367 0.0029413924
000280 3a 1f 93 ba 63 e7 bf 39 c6 7c 4d b8 1f 70 c3 3a
       -0.0011224516 0.00036602755 -4.8992013e-05 0.0014910734
000290 06 42 ff ba 40 45 2d 3a ec 71 a0 b8 72 e8 2e 3b
       -0.0019474633 0.00066097453 -7.650614e-05 0.0026688841
0002a0 63 9e 2f ba cf d5 a6 39 27 89 b2 b6 74 3b 27 3a
       -0.00066993217 0.00031821287 -5.32078e-06 0.00063794036
0002b0 00 2c 1f ba 01 93 77 39 7a 32 e2 b7 58 84 57 3a
       -0.0006071925 0.00023610519 -2.6964804e-05 0.000822132
0002c0 be f5 c7 b9 12 5b 24 39 a6 e3 65 b7 ac de fa 39
       -0.0003813933 0.00015674185 -1.3702467e-05 0.0004784962
0002d0 27 42 b9 b8 ea 6e ef 37 e3 40 64 b6 f9 49 f3 38
       -8.833809e-05 2.8542669e-05 -3.4012417e-06 0.000116009214
0002e0 7e 10 bb 3a db 3f 09 ba 8c 27 17 38 0a 18 e2 ba
       0.0014271883 -0.00052356505 3.6038036e-05 -0.0017249596
0002f0 be a6 3d 3b ac f2 98 ba 1e 35 93 38 15 43 61 bb
       0.0028938497 -0.0011669002 7.0194e-05 -0.003437226
000300 fc ed 01 ba af ba 18 39 a0 a3 08 b8 5c af 4a 3a
       -0.0004956422 0.00014565395 -3.2577314e-05 0.0007731819
000310 9b 68 7e b9 f0 5b 16 39 0a be 62 b5 55 d1 48 39
       -0.00024262296 0.00014339364 -8.4468104e-07 0.00019151469
000320 35 ee c2 39 71 ad fc b8 25 55 9a 37 70 06 20 ba
       0.00037180042 -0.000120486024 1.839788e-05 -0.0006104475
000330 52 6a 84 ba e1 7e ae 39 30 ca 22 b8 76 6f ab 3a
       -0.0010102487 0.00033282398 -3.881211e-05 0.0013079483
000340 53 b8 9b 39 7f 67 c3 b8 43 4a 47 37 be 1a df b9
       0.00029701236 -9.317602e-05 1.1878615e-05 -0.000425538
000350 cd 01 97 3a d1 02 f9 b9 da a6 e2 37 11 cd bc ba
       0.0011520922 -0.0004749508 2.7018996e-05 -0.0014404376
000360 a3 a3 26 3a 14 46 53 b9 03 14 2f 38 ac c0 91 ba
       0.0006356781 -0.00020148634 4.174189e-05 -0.0011120043
000370 ad 24 13 bb ed e1 56 3a 13 9f a4 b8 cb 7c 3d 3b
       -0.002245228 0.0008197118 -7.849759e-05 0.0028913494
000380 d1 a5 f3 38 f4 52 38 b8 65 15 11 36 f9 b9 04 b9
       0.00011618029 -4.3946275e-05 2.1619137e-06 -0.00012657781
000390 ac 5d c0 3a 8e 6d 0e ba 2e c8 80 38 69 ff 05 bb
       0.0014676354 -0.0005433195 6.140802e-05 -0.0020446426
0003a0 69 02 00 bb d1 01 79 3a 90 57 ca b7 09 70 09 3b
       -0.0019532687 0.0009498867 -2.4121051e-05 0.002097132
0003b0 1a da 90 3b 6d ec dc ba 62 10 22 39 4a da ba bb
       0.004420531 -0.0016855128 0.00015455627 -0.0057022916
0003c0 dd cd 26 3b ef fb 6a ba c0 8e c3 38 47 af 62 bb
       0.0025452294 -0.00089639326 9.324914e-05 -0.0034589337
0003d0 03 80 ef ba 9a fa 2b 3a b9 8f 94 b8 5a a6 20 3b
       -0.0018272403 0.0006560475 -7.0839604e-05 0.0024513216
0003e0 c9 ac 1c bb 28 5b 6f 3a 91 94 07 b9 1e c8 75 3b
       -0.00239067 0.000913071 -0.00012929949 0.0037503312
0003f0 d4 b8 23 ba 14 08 69 39 d5 7a 6b b7 d5 e3 40 3a
       -0.0006245498 0.00022223621 -1.4035691e-05 0.00073581684
