training_results/cartpole_null/ppo/seed_2024/1000000steps/model_best.pt (torch, 151403 bytes, 30 tensors)

actor.pi_net.fcs.0.weight f4 [64, 4]
00000000: 5d2e d7be 3a79 e73d 7eea fb3e 8c5a 893f
00000010: f92f 043f 63c0 e33e ae66 123f eca9 11be
00000020: d429 373e 799a c8bd 923a 2abf 2be9 9dbe
00000030: 000f 03bc 4915 c83e 7a34 f8bd 94a5 9a3e
00000040: a27a 44be a075 f5be 773d ae3d a393 8f3d
00000050: bae8 0dbf 872d 9d3d be91 87be 2893 e3be
00000060: 3273 06bf 0f54 08bf 6978 e0be 1ab3 ba3d
00000070: e254 2b3d f50a 5d3d a2da dd3e 9ac2 3f3f
00000080: 4b67 953e 4bc0 4dbe ec18 4b3f ad34 9b3f
00000090: c0e2 92be 6065 993e d0bc 5c3f 1d0d 853f
000000a0: 5e8d 0b3e b316 893e 52bb 883e 0192 913d
000000b0: f3f9 ffbe af52 843d a178 1f3f 335f 1f3f
000000c0: 814c 82be 1ac6 583e ff9c 683f d0fa 2e3f
000000d0: 7d15 863d b517 b3bc f703 3ebf c6a3 23bf
000000e0: e374 9e3e 9a80 65bd 57b1 30bf f48c 09bf
000000f0: ffab b83e 30c7 953e 14a7 303f 452a be3e
00000100: 8068 e53e ba7e 533e 1945 eabe 53c5 8ebf
00000110: 1664 ffbc 05ce dfbe d0fa f03e 3aee f93e
00000120: a9cd 0abf a25a d5bd c3c3 a4be e4a2 fcbd
00000130: 44b0 a63c fea6 95bd 8f9d 213d 949a 473f
00000140: 6431 553d a7ee 273e bd33 29be 72ba 83bf
00000150: a2c0 1fbf ab0b 44be 57b7 103f 00d1 6f3f
00000160: 735e f03d 8bbe 833d cf99 d03e ac11 7d3f
00000170: 6a1b 993c 2310 e7be db2c 443f d11f 3b3f
00000180: f338 a1bc 8aeb 2c3f 43c2 5e3f 41de 333f
00000190: 850a c03e 4e87 8cbe 2dff bebe 81a9 d03e
000001a0: 99d7 b2be 15d0 8abe af6d 00bf 0202 023d
000001b0: cca7 0fbe 5939 643e 835f 623f 7d8c 803f
000001c0: c59e 743e 8105 d9be 5f80 673f f5cf 6c3f
000001d0: b455 8ebe 1ebf 89be 69e6 9c3e 7a86 0fbf
000001e0: 346d b83e ca5e bfbe f310 14be 9158 60bf
000001f0: f785 54be 5d2e 803e 1f8e 34bf 0135 53be
00000200: 489a 2fbd 1187 123f f986 23be 4b74 da3d
00000210: 744f 983e a5dd f23d 1527 1d3e fdf8 283c
00000220: acf0 1d3e 1601 e03e c0a1 3c3e 550b a93e
00000230: 3173 db3d 85cf 5e3e c21a 12bf c4c5 f4be
00000240: d02b 91be c54e 2a3f b339 433f b57d 083f
00000250: 647c 163e a8f9 b53e 8940 d0be d284 46bf
00000260: d11b 553e 3ec5 b83c 3f7b fdbe 85a2 8fbf
00000270: 9d52 b93e a5ca aa3d 4b2b 223f 5b06 253e
00000280: 8d7d 8c3d 1cd5 54bd 27e6 493f 83fa 813f
00000290: 5bcb 27be f3aa b7bd fdc2 693f cc37 803f
000002a0: 255a bf3e ba0a d3be dfb3 55bf d522 4fbf
000002b0: 2ac2 b23e f8ac 88bd 4805 79be 7d14 11bf
000002c0: bed8 3ebe 94a8 8abe 8657 89bb e1b0 c6be
000002d0: 4fd2 35bd 3730 cb3e 399f 6cbe c723 683e
000002e0: 19f7 0e3f e5a2 c43e 2075 2bbf a19a 5dbf
000002f0: df03 e2bd eeac bebe 1d09 213f 6a68 653f
00000300: cef7 c53e 04f2 1d3e 5f2c 833e 5900 933f
00000310: 3482 fa3e d428 5c3e 9f67 a0be 8ac3 45bf
00000320: 7c77 88bd 176a 14be 2d5a 88bf 7f8f 6dbf
00000330: f2e2 ad3e f9d2 e1be 7f24 b5be 9319 4cbe
00000340: 665b c13c ae5e 9f3e c409 d73e c07c df3d
00000350: ecb6 c33d e6fb 0b3f 3abc 77be 91c0 f13e
00000360: 33a7 e4bd 77b1 003f fadf 9c3e ad9e b63d
00000370: cd0b 6cbe ffe0 f9be 3f33 4b3d e75b fc3c
00000380: 48f7 9a3e 4b0a 5a3e b67c d7bd d3bc 433f
00000390: 1f42 6d3e 6383 a2bc 5aeb 153d 498a 45bf
000003a0: d137 9abd f2a5 41bc 05de c33d 6b46 f9be
000003b0: f1d6 d93d 7f32 f1be 0da5 dabe 777d dabd
000003c0: e4f5 0b3f 90cf ec3e 94a3 fa3e d141 9ebe
000003d0: d669 ae3e 14df 0fbf ae76 e9be 7bf7 6abe
000003e0: 4682 88be d017 10bf c9c0 803e b253 a03e
000003f0: 56d7 cdbd da63 223e a33b 28bf 19b5 7fbf
-0.4202756 0.11302419 0.4920234 1.0730758 0.516357 0.44482717 0.57187927 -0.14224976
0.1788705 -0.09795088 -0.6649562 -0.30841956 -0.007999182 0.3907874 -0.12119384 0.3020445
-0.19187406 -0.47941303 0.08507817 0.07010581 -0.5543324 0.07674699 -0.2647838 -0.4444821
-0.52519524 -0.53253263 -0.43841866 0.09116192 0.041828997 0.053965528 0.43330866 0.74906313
0.2918037 -0.20092885 0.793349 1.212545 -0.28688622 0.29960155 0.86225605 1.0394627
0.13628146 0.2677513 0.26705414 0.07107926 -0.49995384 0.06461083 0.6229344 0.6225464
-0.25448993 0.2116932 0.9086456 0.6835146 0.06547067 -0.02186189 -0.742248 -0.63921773
0.30948552 -0.056030847 -0.690206 -0.537307 0.36068723 0.2925353 0.6900494 0.37141624
0.4480629 0.20653811 -0.45755842 -1.1153969 -0.031175654 -0.43711868 0.47066355 0.48814565
-0.5422006 -0.104176775 -0.32180604 -0.123357564 0.020347722 -0.07307242 0.0394569 0.7797024
0.052049056 0.16399632 -0.16523643 -1.0291274 -0.6240331 -0.19145076 0.56529754 0.93678284
0.11736765 0.064328276 0.40742347 0.9885509 0.01868983 -0.451295 0.76630944 0.73095423
-0.019680476 0.67546904 0.8701517 0.7026101 0.37508026 -0.2744698 -0.3730406 0.4075432
-0.34930113 -0.2711188 -0.50167364 0.031740196 -0.14028853 0.22287501 0.8842699 1.0042874
0.23888691 -0.42387012 0.90430254 0.9250482 -0.2779976 -0.26903623 0.3064454 -0.5606457
0.36020815 -0.37377006 -0.1445959 -0.8763514 -0.20754229 0.25035372 -0.7052936 -0.20625688
-0.042871743 0.57237345 -0.15969457 0.106667124 0.29748118 0.118586816 0.1534694 0.01031327
0.1542384 0.43750829 0.18421078 0.33016458 0.107153304 0.2175885 -0.5707208 -0.47807133
-0.2835374 0.6652644 0.7625992 0.53316814 0.14695889 0.35542035 -0.40674236 -0.7754642
0.20811392 0.02255499 -0.49508092 -1.1221472 0.3619584 0.083394326 0.6334731 0.16115706
0.068598844 -0.05196105 0.7886681 1.0154575 -0.16386168 -0.08968153 0.91313154 1.0017028
0.37373462 -0.4121912 -0.83477587 -0.80912524 0.3491376 -0.06673616 -0.24318421 -0.5667189
-0.18637368 -0.2708174 -0.004191342 -0.38806823 -0.04439002 0.39685223 -0.23107614 0.22669898
0.5584579 0.3840553 -0.66975594 -0.8656407 -0.110358946 -0.3724131 0.6290453 0.8961245
0.38665622 0.15424353 0.2561979 1.1484481 0.48927462 0.2149995 -0.31329057 -0.77251494
-0.06663415 -0.14493595 -1.065252 -0.9279708 0.33962208 -0.44106272 -0.35379407 -0.19931631
0.023603152 0.31126922 0.41999638 0.10912466 0.09556374 0.5468124 -0.24192896 0.4721723
-0.11164703 0.5027079 0.3063963 0.08916984 -0.23051377 -0.4880447 0.04960942 0.030805541
0.30266786 0.21292989 -0.105218336 0.7646 0.23169754 -0.01983804 0.036601402 -0.7716413
-0.075301774 -0.01181935 0.09563831 -0.48686537 0.106367 -0.47108838 -0.4270405 -0.10668462
0.54672074 0.46252108 0.48952925 -0.3090959 0.3406512 -0.56199765 -0.45598358 -0.22945969
-0.2666189 -0.56286335 0.25147083 0.31313854 -0.10050838 0.15858403 -0.65716 -0.9988571

actor.pi_net.fcs.0.bias f4 [64]
00000000: 47cc f5bd a92e c9be cd46 163e 45c9 653c
00000010: 7254 90be db60 81be 0e54 2ebd c3ad 2f3d
00000020: bb4f f83d 12d4 55be 0a09 24be 83c1 65be
00000030: 3cb0 c13d 74e5 833e 929f 17be aa0a dc3d
00000040: 9328 e83d c56e a6bd 222b d8bd 18cc 883e
00000050: d5de a23e 986b 26be 5ece 4c3e 546f 6dbe
00000060: 335c bd3d 1fb0 a93e 6b2e 32be 7c91 40be
00000070: 8b33 0bbe 93e8 eabd 4db6 a33e 6d09 1e3c
00000080: ef99 3f3b fe40 283e b492 d63b 5a2a 5ebe
00000090: 180f cd3d 2dce fdbd 64a3 82bd fc93 33bc
000000a0: 0400 61bd 5dac bc3e 2bc5 bfbc a5e2 c6bd
000000b0: 01d1 0cbe e9a3 41be 95d8 443e 1387 94be
000000c0: 6258 ef3c 72db 5c3e 5d9d 053d d12d 4d3d
000000d0: 3190 de3d d671 223d 93e5 95be 5dad debc
000000e0: 6af4 4bbd e5b0 79be 18dd 313d fe9a 203c
000000f0: 6a29 d8bc c3fe 363d faef a8bd 444c a73e
-0.120018534 -0.3929341 0.14675446 0.014025037 -0.28189427 -0.25269207 -0.04256063 0.04289032
0.121245824 -0.2088168 -0.16019073 -0.224371 0.09457442 0.25760996 -0.14806965 0.107442215
0.11335864 -0.08126596 -0.10555102 0.2671821 0.31810632 -0.16251981 0.20000598 -0.23187
0.09246101 0.33142182 -0.1740052 -0.18805498 -0.13593881 -0.11470141 0.31975022 0.009645802
0.0029236039 0.16431043 0.00654825 -0.21695843 0.100126445 -0.123928405 -0.063788205 -0.010960575
-0.054931656 0.36850253 -0.023409447 -0.09711198 -0.13751604 -0.18910183 0.19223244 -0.29009303
0.029216949 0.21568087 0.032620776 0.050092522 0.10867346 0.039659344 -0.29276714 -0.027182275
-0.04979364 -0.24383886 0.043423742 0.009802578 -0.026386935 0.044676553 -0.08248897 0.32675374

actor.pi_net.fcs.1.weight f4 [64, 64]
00000000: d347 363d f489 aa3b bc93 c23d 819e 73bd
00000010: 8663 b5bc 6967 e73d 5740 ee3d d2f6 2fbd
00000020: 2b85 e13d 568e 813d ebbd 8fbc 7a8d b53d
00000030: 2d0d 323d 5396 b6bc a662 d53d dd5b cabd
00000040: a7ab c339 dd32 dcbd a724 523e 2cf9 4a3d
00000050: 3c67 97bb eb3b 283e a2a4 d03d b32a 593d
00000060: 2303 82bc 2564 0ebd 2031 4c3e 9c2a d93d
00000070: ed07 30bd 9bcb a23d f13b e33d 3893 ea3d
00000080: cf13 5ebe f683 b43c 2061 36bd 1b73 553d
00000090: 3e13 a4bd 630d 51bd 294a 7e3d 12cb 183d
000000a0: 5238 a93c 207c b43d ca20 f2bd e335 c33d
000000b0: 0ca4 0f3e 39bd e1bd cadb 1abe 7576 a23d
000000c0: 16d1 9d3d 751d 333d e445 a0bb 501b 553d
000000d0: 51fe 653d 40c5 54be 638c a1bc b928 423e
000000e0: 2695 35be 31bb 5cbd c9a7 0d3e f553 bdbd
000000f0: 5436 79bd 33c3 ed3d ea2b da3d 715d b93c
00000100: be2c e43e 61d7 4fbd 2811 0c3d f287 fd3d
00000110: b6f5 02bd 8ee8 24bc 8a78 c1bc 08d6 d73e
00000120: e96e b23e af10 583e ea49 6a3d 22a0 363e
00000130: 859a b93e 4d1d 24bd 5da4 74be 6e36 1b3e
00000140: b261 dcbe 470c 0d3d 423a 5cbe 6ad5 943d
00000150: c32d c8bd 3283 c83e 5701 4f3e 79e1 533e
00000160: b160 ea3e bca0 1c39 6061 0ebd 680b b23d
00000170: 4548 9c3e e6aa e6bd b76f 29be 887c cabb
00000180: 7dd8 233d e0c1 0ebd a3fd 0f3e f6e4 2abe
00000190: b33a 893e 1127 52bd 8451 c5be bc8b 603d
000001a0: 602c fe3e f9a0 6a3e db22 01bf 6d63 14be
000001b0: 75b1 58be 9550 b13d 3cb3 70be 3498 1c3e
000001c0: 12c5 ce3e ed21 48be 2412 1cbf 7a31 20be
000001d0: 422d 5cbd 373f 8c3e 5221 fabc aff8 5dbc
000001e0: cc17 3b3e 6496 64bd 92cb a1bd 8db1 d03d
000001f0: a0c2 bebd 17b4 97bd ec76 5e3e 73ff 30be
00000200: 9ce4 413e 4000 cdbc 65e7 c5bc 062c 063e
00000210: 29a7 9dbd 4e23 873d cd90 e5bd 8473 bb3d
00000220: e1b9 3d3e aa29 213d e650 8d3b e8ff e23d
00000230: 1c63 6e3e a777 cabc 7a94 3bbe 4884 bc3c
00000240: 723c 7bbe 585e 443c 9e55 43bd a139 eebc
00000250: cb6b e83c afce 563e ff48 753d 9040 cc3d
00000260: da98 b93d 7303 893d 329b eabc 92d2 d03d
00000270: c184 6d3e c236 d0bb 6b5b 2a3c 0be8 85bc
00000280: 8a89 a93c c645 e83d 324a 3c3e d4df 10be
00000290: 41a5 463e ce4a 00be 4cd7 b5bd b7a2 9dbd
000002a0: 94b7 a93e f413 153e 319a acbe 93c8 3fbe
000002b0: 16b5 12bd 8c2f 103e ed20 6cbe 542b 233e
000002c0: 063d 5c3e 256c a23c f815 5abe 885f 023c
000002d0: fa2f fd3d 2fc2 1bbd 35de 8aba 4e46 863d
000002e0: e93c 453e 38a2 903d 4708 a93c 840e 1dbc
000002f0: c98b 9d3d dcdb 0bbd bc2a 283e 0519 26be
00000300: ad0e f6be 61c9 4c3d 76ce b63d fb8b 3bbe
00000310: ca9c 9c3d 734f 0e3e 709e 853d 34bf 9fbe
00000320: e0c7 6abe 8046 97be d3d7 bb3b 4a12 4abd
00000330: 8267 b1be d02f 713d a5cd 833d 8845 23bd
00000340: 725e 033f 2420 00be e7a5 6d3d 3933 b4bd
00000350: 8b33 483e 0e56 abbe ea1a 34be c0e9 dcbc
00000360: c5f0 c4be caa9 54bd e07d 523d 1e27 85be
00000370: 1789 49be f084 9abd 7d36 af3a 01b4 303c
00000380: e5f5 06be 9033 84bd 1fde fabd 41cd 753d
00000390: 19e9 87be 40d5 0a3d b873 803e 0a50 a9bd
000003a0: 843e 04bf 88d9 1e3d c0d0 f23e 4ef9 cf3c
000003b0: f609 36bd d7a4 1e3d 5f80 963e e09b b3bc
000003c0: 8c42 efbe 6e86 2c3e 348b 143f f226 0a3d
000003d0: 6bf1 b43d c59b 83be 2568 9bbd ce0a 983c
000003e0: a9c8 f3bd 4a58 923d 99ec 1e3e 0b60 403d
000003f0: 25fd ecbb 8ebc b93d 5320 48be 2419 693b
0.04450209 0.0052044336 0.09500834 -0.059477333 -0.022142183 0.11299021 0.116333656 -0.042959996
0.11011728 0.063259766 -0.017546615 0.08864875 0.043469597 -0.022288477 0.10419206 -0.09880803
0.0003732119 -0.10751889 0.20521794 0.049554035 -0.004620461 0.16429107 0.10187651 0.053019237
-0.015870636 -0.034763474 0.19940615 0.1060383 -0.04297631 0.07948991 0.11095417 0.11453861
-0.21687244 0.02203558 -0.04452622 0.052111726 -0.08011483 -0.051038157 0.062082443 0.037303038
0.020656738 0.088127375 -0.1182266 0.095317625 0.14027423 -0.110224195 -0.15122905 0.0793275
0.077058956 0.043729264 -0.004891144 0.052028 0.05615074 -0.2077837 -0.019720262 0.18960847
-0.17732677 -0.053889457 0.13833536 -0.09244529 -0.060842827 0.11609497 0.10652907 0.022627564
0.44565386 -0.05074251 0.03419605 0.12379445 -0.03197261 -0.010065211 -0.023617048 0.4215548
0.34850243 0.21100114 0.057199396 0.17834523 0.36250702 -0.040067006 -0.23890825 0.15157482
-0.43043286 0.034435537 -0.21506599 0.07267268 -0.09774353 0.39162594 0.20215355 0.2069148
0.45776895 0.00014937198 -0.034760833 0.08693582 0.30523887 -0.11263065 -0.16546522 -0.006179396
0.04000138 -0.034852862 0.14061598 -0.16688904 0.26802596 -0.051306788 -0.38538754 0.05482076
0.4964323 0.22912969 -0.5044381 -0.14491053 -0.21161444 0.08657948 -0.23505872 0.15292436
0.40384728 -0.19544192 -0.6096518 -0.15643874 -0.0537541 0.2739198 -0.030533466 -0.01354806
0.18270797 -0.055807486 -0.07900156 0.10190115 -0.093144655 -0.07407396 0.21725053 -0.17284946
0.18934864 -0.025024533 -0.02415819 0.13102731 -0.07697899 0.06598531 -0.11209259 0.09152892
0.18527938 0.039346375 0.0043126224 0.110839665 0.23279995 -0.024715258 -0.18318358 0.023012295
-0.24534777 0.011985384 -0.047689073 -0.029080214 0.028371712 0.20977281 0.059884068 0.09973252
0.09062357 0.06690111 -0.028638456 0.10196413 0.23195173 -0.006354184 0.010397772 -0.016345998
0.020695467 0.11341433 0.18387678 -0.14147884 0.19398977 -0.12528536 -0.08878955 -0.07697051
0.33147871 0.14558393 -0.3371139 -0.18728857 -0.03581723 0.14080638 -0.23059435 0.15934497
0.21507654 0.019826958 -0.21297443 0.007957347 0.123626664 -0.038026985 -0.0010594787 0.06556378
0.19261517 0.07062191 0.02063383 -0.00958598 0.076926775 -0.03414522 0.16422552 -0.16220482
-0.48058072 0.049996737 0.08926098 -0.18315117 0.07647093 0.13897495 0.0652436 -0.31200564
-0.22927809 -0.29545975 0.0057325154 -0.049333848 -0.34649283 0.05888349 0.06435708 -0.039861232
0.5131599 -0.1251226 0.058019545 -0.087988324 0.19550912 -0.33464092 -0.17588392 -0.02696693
-0.38464943 -0.051919736 0.051389575 -0.26006407 -0.19681202 -0.07544887 0.0013367679 0.010785104
-0.13179739 -0.06455147 -0.122493975 0.0600102 -0.26545027 0.033894777 0.25088286 -0.08267219
-0.5165789 0.038781673 0.4742489 0.025387432 -0.044443093 0.038731422 0.29394814 -0.021924913
-0.4673046 0.16848156 0.5802491 0.033728547 0.08835109 -0.2570478 -0.07588223 0.01855984
-0.11903507 0.07145746 0.15519942 0.046966594 -0.0072323256 0.09069167 -0.1954358 0.0035567963

actor.pi_net.fcs.1.bias f4 [64]
00000000: 4470 8fbd 1401 c1bd 5832 0dbd a62f d2bd
00000010: dda5 cbbd 4328 903d 01e5 733d a911 833d
00000020: 871d dcbd c537 3c3d a263 bc3d af10 903d
00000030: ceec aa3d 13cc 643d 3cb3 a2bc 0adf 58bd
00000040: 6725 debd fe3d e1bd a46f e03d 7d76 6abb
00000050: c67e 113e 06f0 333d 41a4 943d c867 3c3d
00000060: af46 a73d 2450 013e 518a b4bd 911f d73c
00000070: 8733 9b3d e03d 033d b2fb bfba 3135 a5bd
00000080: af74 3cbd 093d b43d f34c 983d 2c17 02bd
00000090: 5941 a8bd edb2 7f3d 98fb a83d 367a bcbd
000000a0: c841 bebd 2d4a bdbd 047e 33bb 7d96 d7bd
000000b0: 1751 4abd 935e e03d 5776 2fbd 8fe9 af3d
000000c0: 7839 ffbc a9c4 413c 588a 083e 3d47 5d3c
000000d0: 6537 19bd cf1f 21bd 15e3 b9bd 962e ca3d
000000e0: c64e 823d d9ac bfbd cda6 0fbd a069 5b3c
000000f0: 8cad 5ebd 684e bd3d 903c 6c3c 12b6 b93d
-0.07003835 -0.09424034 -0.03447184 -0.102629945 -0.09943745 0.07038929 0.059544567 0.06399853
-0.107478194 0.045951623 0.09198691 0.07034432 0.08345948 0.055858683 -0.019860856 -0.05294708
-0.10846978 -0.10998152 0.10958794 -0.003577619 0.14208516 0.043930076 0.072578914 0.04599741
0.08167779 0.12628227 -0.08815444 0.02626017 0.075781874 0.03204143 -0.0014647155 -0.08066786
-0.046009716 0.08800704 0.07436552 -0.03176038 -0.08215589 0.062426496 0.08251113 -0.092029974
-0.092898905 -0.092426635 -0.0027388344 -0.1052675 -0.04939374 0.109555386 -0.042837467 0.0858947
-0.031155333 0.011826673 0.13334024 0.013505754 -0.037406344 -0.039336976 -0.090765156 0.09872167
0.06362681 -0.0935914 -0.035071183 0.013391882 -0.054364726 0.092434704 0.014418736 0.0906793

actor.pi_net.fcs.2.weight f4 [1, 64]
00000000: dd90 4e3e 0b3b a03e 087f 2b3e 73ae c1be
00000010: cee5 663c 3e94 17bc f9aa 743d e90b 98bd
00000020: c07c 053e 941b 6abe e95a 9cba 5009 afbd
00000030: 0b4e e6bd 1d0a edbd cb4c adbd 7af7 f2bd
00000040: 6977 9b3e 1cc1 1cbe 0e54 3cbc 4639 c0bd
00000050: 0d8d e23d be55 30be 11a4 a2be 1b4b 5dbc
00000060: f26b 853d 1e4f 55bd dbfd a23d d6a7 b0be
00000070: 3f79 67be 9249 96be 4b6d 5fbe 5f0d aabd
00000080: 30c6 85be 684e 643d 7f11 51bd fcf4 d33d
00000090: 6302 b93e f6c9 ba3d 4d41 bc3e 2a6a ddbd
000000a0: 3cd6 7cbe f847 a33d 8f98 d93a ab6a e03d
000000b0: b4ac 5dbd e720 8f3d 1508 e9bd a612 b33b
000000c0: e879 cabd 255f 22bc 4fed d3bd 0f2d 6c3d
000000d0: 03e6 703e fe94 41bb 2971 5abe e8a4 0a3d
000000e0: a04c 6bbd a9b7 a83d d66d 513e 7578 9dbe
000000f0: d570 c13e 3e13 903d 36a2 e63d 008e 5c3e
0.20172448 0.31295046 0.16747677 -0.37828407 0.014092876 -0.009251652 0.059733365 -0.07424147
0.1303587 -0.22862083 -0.0011928949 -0.08546698 -0.11245354 -0.115741946 -0.08461913 -0.11863609
0.3036454 -0.1530804 -0.01149465 -0.09385924 0.110620596 -0.17220208 -0.31765798 -0.013506676
0.065147296 -0.052077405 0.07958575 -0.3450305 -0.22604845 -0.29353005 -0.21819036 -0.083033316
-0.26127768 0.055738837 -0.051042076 0.103494614 0.36134633 0.09120552 0.3676857 -0.10811265
-0.24691099 0.07972711 0.0016601252 0.10957845 -0.05411978 0.069886975 -0.11378495 0.0054648696
-0.09886533 -0.00991038 -0.103479974 0.05766016 0.23525243 -0.002953827 -0.2133223 0.033848673
-0.057446122 0.082381554 0.20452055 -0.30755964 0.37781397 0.0703492 0.11261408 0.21538544

critic.v_net.fcs.0.weight f4 [64, 4]
00000000: a3e0 bcbf 3f42 f6bf 2981 a2c0 c69c a6bf
00000010: af6a 8740 4d7f b23f 2ef9 a6bf 2503 f63e
00000020: dddd 58bf 5d83 bebe a005 f03f 9240 1ebf
00000030: 4f20 84c0 60f8 663e c7aa d7bf e7a0 5cbf
00000040: 0665 3e3e 6463 8d3f bb8d a040 7123 1e3f
00000050: 07bd 03c0 1b67 fc3e 5e71 8bbf a6f4 3cbf
00000060: d1bd 15bf 2472 40bc 354c 9b40 8736 393f
00000070: 0296 283f de12 193f 3654 a83f 7708 823f
00000080: be0c d53e d1ed 573f 2153 d740 00ed 003f
00000090: 032b 83bd 752f cc3f effe a540 d7e9 823f
000000a0: c25a 94c0 59be 14bf 596f dabf e6ce 96be
000000b0: 3867 8d3e 5258 813d acf0 ec3f f2ed 6c3f
000000c0: 5ae2 7040 4f47 6bbe 01aa 0640 00cd a93d
000000d0: 7cc9 2bbf 0236 70bf 7e1c 6ac0 3f70 52bf
000000e0: e850 0a40 d029 5dbe de1d 883f 03c5 4b3c
000000f0: 3b86 32bc 5e90 453e 146b 293f 5c3b 153f
00000100: f494 80c0 f528 cfbd 7f78 cdbf 81a9 3fbf
00000110: dec1 a340 e7b4 323f aaa3 2abf daa4 803f
00000120: e0ca 7d40 fd5c e13f 1cf6 3f40 a7f7 593f
00000130: 59d4 fd3f 64d0 ce3f 7ab3 5640 8912 183f
00000140: 9ce5 e9bf bfe7 54bf 51a9 7bc0 7a62 46bf
00000150: 8c8e 9d3d 023a babf e86b aec0 a19c 3dbf
00000160: 0c29 eb3f b4e3 af3f 49fd 6c40 250a 693f
00000170: fe72 8d3f 28b5 7b40 d42f 9740 11c4 683f
00000180: d7da 6ebf 6e74 923f de20 1b40 f4f8 ec3f
00000190: a7ad 5e3f 17ce 0040 8f8f 13be c0c4 3f3f
000001a0: 6857 003e d3d6 7dbf 2fba eec0 1e7c 873e
000001b0: 2903 31c0 9ee1 0b3f 379c 04c0 b6e2 07bf
000001c0: 95e5 dc3f 3e36 8cbe 810f 4840 72cc a83e
000001d0: 5235 bfbf 359f 56c0 225a 8fbf 5b9f aebe
000001e0: 04bf 92be 91fa c63f a354 0440 91c2 6a3f
000001f0: 7309 8fbf fecf c13f 7fd4 7340 6b80 543f
00000200: ba05 7840 3534 b13f 3570 f03f 5723 763f
00000210: de11 a03f 102f d93e 1615 833f 7385 4d3f
00000220: a3e5 d8be 4f6f 74bf ac0a 65c0 a3a7 04bf
00000230: a37a 04bf c069 023e 03e0 14c0 9580 afbe
00000240: 4d2b 64be 5fcc fc3f ddae f540 acb7 093f
00000250: e591 95c0 dd64 f8be 3ff5 b5be 68ca 24bf
00000260: 6b72 df3c d12f 4cc0 c08f b6c0 f656 46bf
00000270: 0579 cb40 a22b e53f 70d0 1a3f 9772 573f
00000280: e862 a9bf cf89 1dbf 9976 3f40 e366 49be
00000290: 032f 7dbf 16ce 1e3f 7871 80c0 7699 2abf
000002a0: 263c ae3e cb9e 893f a170 b040 13c5 523f
000002b0: 6c30 b240 232a 5d3e b6ad e6bc a1ae 743f
000002c0: ce99 58bf 674c d73d 4926 7a3f 2afa 31bd
000002d0: 8337 e0bc c909 bf3f a9c0 ab40 ddab 893f
000002e0: 1e52 47c0 7fe5 65bf 0f12 00c0 c74a 95bf
000002f0: 4f6e f33d 9f63 f13f df22 c840 b0d5 363f
00000300: 8afe b83e 0e36 f83f f938 c640 5782 4b3f
00000310: e53f bfbc c660 383d f3e6 2540 f717 043e
00000320: c474 30c0 1664 0cc0 a829 82c0 071f 85bf
00000330: 994d bec0 240d efbe 0e17 093f 7770 4abf
00000340: a0e5 15c0 f99e e5bf 158e 98c0 f490 94bf
00000350: bcf1 773f f7b7 833f ffe5 a740 d468 573f
00000360: 7b5c 7940 73bf 0040 f33f 4540 b35a 513f
00000370: 3114 a63f 3f6d 1e40 6626 c13b ae5a 023d
00000380: a9b1 b7be b520 88bf d757 d2c0 9ab4 43bf
00000390: 1dce 3a3f 3247 0740 915a 9340 dfc9 633e
000003a0: f86e ddbe 9939 16bf 1b54 d2c0 e742 edbe
000003b0: 6939 f53e bcd8 0bbe 8f0c a940 8b5b 143f
000003c0: 074f cbbf b5cb 96be 7fb9 2fc0 3676 ebbe
000003d0: 5a6c 9a3e 9196 e0bf 02de 343f 36db c2bf
000003e0: a62f ffbf 470b 0cbe 3801 4fc0 1136 47bf
000003f0: 158d bfbf 35e6 2dbe 959b 5b40 d181 01bf
-1.4756054 -1.9238967 -5.0782666 -1.3016593 4.231773 1.3945099 -1.3044794 0.48049274
-0.84713537 -0.37209597 1.8751717 -0.61817276 -4.128944 0.22555685 -1.6848992 -0.8618302
0.18593225 1.1045957 5.017301 0.6177283 -2.0584123 0.49297413 -1.0893972 -0.73810804
-0.5849276 -0.011745963 4.8530526 0.7234883 0.65853894 0.59794414 1.3150699 1.0158833
0.41611284 0.84347254 6.7288976 0.50361633 -0.06404688 1.5951983 5.18737 1.0227612
-4.636079 -0.5810295 -1.7065231 -0.29454726 0.27617812 0.06315674 1.8510947 0.92550576
3.7638154 -0.22976421 2.1041262 0.08291054 -0.67104316 -0.9383241 -3.657989 -0.82202524
2.1611881 -0.21597981 1.0634115 0.012437108 -0.010896261 0.19293353 0.66179013 0.582937
-4.0181828 -0.10115234 -1.6052397 -0.7486802 5.1174154 0.69807285 -0.6665598 1.0050309
3.9655075 1.7606503 2.9993963 0.8514351 1.9830428 1.6157346 3.3547044 0.5940328
-1.8273196 -0.83166116 -3.9322093 -0.77494013 0.07693204 -1.4548953 -5.450672 -0.7406712
1.8371902 1.3741364 3.7029593 0.91031104 1.1050718 3.932932 4.7245884 0.90924174
-0.93302673 1.1441782 2.423881 1.8513474 0.8698372 2.0125787 -0.14410232 0.7490959
0.12533343 -0.9915592 -7.4602275 0.2646188 -2.7658179 0.5464114 -2.0720346 -0.5308031
1.7257563 -0.27385134 3.1259463 0.3296848 -1.4938147 -3.3534672 -1.1199381 -0.34105954
-0.28661358 1.5545217 2.0676658 0.91703135 -1.1174759 1.5141599 3.8098447 0.8300845
3.8753495 1.3844057 1.8784243 0.96147674 1.2505453 0.42418718 1.024081 0.8028175
-0.423627 -0.95482343 -3.5787764 -0.51818293 -0.5174963 0.12735653 -2.3261726 -0.34277788
-0.22282143 1.9749869 7.6775956 0.53795886 -4.6740594 -0.48514453 -0.3553867 -0.6437135
0.027276238 -3.1904185 -5.7050476 -0.7747644 6.358523 1.7903941 0.604743 0.84159225
-1.3233309 -0.61538404 2.9916136 -0.19668154 -0.9889986 0.6203321 -4.013851 -0.6664041
0.34030265 1.0751585 5.5137486 0.8233196 5.568411 0.21598105 -0.028159004 0.9557896
-0.8460969 0.105126195 0.9771467 -0.043451466 -0.02737022 1.4924861 5.367268 1.0755574
-3.114387 -0.8980331 -2.0011022 -1.1663445 0.11886274 1.8858527 6.2542567 0.7141981
0.36131698 1.9391496 6.1944547 0.7949576 -0.023345897 0.045014165 2.592221 0.12899767
-2.7571268 -2.1936088 -4.067585 -1.0400094 -5.9469724 -0.46689713 0.53550804 -0.7907786
-2.3421402 -1.793914 -4.767344 -1.1606736 0.9685323 1.0290517 5.2468257 0.8414433
3.8962696 2.0116851 3.0820282 0.8177902 1.2974912 2.4754179 0.00589447 0.03182476
-0.3587773 -1.0634981 -6.5732226 -0.7644745 0.72970754 2.1137204 4.6048055 0.22244976
-0.43248725 -0.5868164 -6.572767 -0.46340105 0.47895363 -0.13656896 5.282783 0.57952183
-1.5883492 -0.2945229 -2.7456968 -0.45988625 0.3016079 -1.7545949 0.7065126 -1.5223148
-1.9936416 -0.13676177 -3.2344494 -0.77816874 -1.496493 -0.16982348 3.431371 -0.5058871

critic.v_net.fcs.0.bias f4 [64]
00000000: 4ad0 ba3c 97c8 d7bd 38cd c83e 8b8e 8e3d
00000010: 431f 683e 1019 343e a54f ae3e 08b7 ae3e
00000020: 31dd 1e3e ce15 c43e 6fc6 bfbd 009c ef3e
00000030: d39d 043d 9812 a2be dcb0 abbd ce2a f4bd
00000040: a795 7f3c a934 e2bc 0058 cd3c 6794 9cbc
00000050: d084 e0bd ab84 00bf 8fbb 1f3d af16 ccbd
00000060: 0134 963d 689e e4bd 8b9a 3dbe 4c91 d83c
00000070: 5c6a 04bd 6d84 9a3e 1f8a 403d 08ae 9a3a
00000080: 3dfc 14bd 29e0 a6bd edfa f2bd c478 493d
00000090: f144 073e 296d d73c 91c2 133e 0170 a03d
000000a0: f946 f93d df43 b0be da4f c43d c6cf 42bd
000000b0: cfd1 3e3d a550 b43e 3e42 543d 19ef 253e
000000c0: 9ace 9d3d 8e90 953e c13e 6dbd ebe0 01bd
000000d0: 06f2 ecbc 97f2 0f3e b2ca aebc 5fdd 21bf
000000e0: 8c98 31be 833d 06bc c347 22be fc08 af3e
000000f0: 9e2a f5bd e5c8 8bbd 2f02 27be 8644 35bd
0.022804398 -0.10536306 0.3921907 0.06960782 0.22668175 0.17587686 0.3404514 0.34124017
0.15514065 0.38297886 -0.0936402 0.46798706 0.032377075 -0.3165481 -0.083833426 -0.11922227
0.015599645 -0.027613001 0.025066376 -0.019113733 -0.10962832 -0.50202435 0.03899723 -0.09965264
0.07334138 -0.11163026 -0.18515985 0.02643647 -0.032327995 0.30179158 0.047006723 0.0011801133
-0.036373366 -0.08148224 -0.118642665 0.049187437 0.13209893 0.026297169 0.1442969 0.07833863
0.1217174 -0.34426782 0.09585543 -0.04756143 0.046586808 0.35217777 0.051820986 0.1620449
0.07705422 0.2921185 -0.057921175 -0.03170864 -0.028924 0.14057384 -0.021336887 -0.6322841
-0.17343348 -0.0081933765 -0.15847687 0.34186542 -0.11971019 -0.06825427 -0.16309427 -0.044254802

critic.v_net.fcs.1.weight f4 [64, 64]
00000000: d9cc d03d 4c1c 133f eb5a b83e 2844 c6be
00000010: f12f 6bbf 2fbd 683c 5fc5 d63d 11d3 45bf
00000020: 510e bdbe 3723 c5bf d265 24be 7906 dbbf
00000030: dd70 443e a34c 053f 4f9c d1be ab29 4b3f
00000040: 987b dabe d3b0 073f 6c1a 62bc 0296 89bd
00000050: fb0b 6d3e 7abc 4240 bec8 c3be 11fa abbb
00000060: 8f79 1a3f 34d8 0bbe 06dc f53e b47c bb3b
00000070: 81af 89be e83b 9bbc a406 8dbd 4815 2e3f
00000080: d501 8b3e 92f5 af3e ec8d 013f 5a31 79be
00000090: 8947 4cbf 24ff 00bf 3116 debe d6f5 323d
000000a0: ff57 4d3f 1701 863e ae8b 05bf fde1 893e
000000b0: a10b 503f 1135 a6bf 7585 f1be 7918 c7be
000000c0: 88e8 cbbe 51d9 3fbf 6c34 5bbe 4833 a7be
000000d0: 37cd 2b3e 2e28 febe eb5a 95bd ef09 0f3f
000000e0: 964a 2d3e ecbf 1d3f e274 b73e eaf8 18bf
000000f0: b614 a13d 149b 15bc d16e c73d 68b0 8f3f
00000100: bcdd 493f 8b82 7abf 9da0 c93e c7fe 0440
00000110: cf2c f0be f653 cb3e 837a bb39 2abe 16bf
00000120: 9e66 1fbf d2ec 90be f5af 8340 d515 93be
00000130: a00b 07c0 de85 3b3f e4ef 04bf 07d9 7a3e
00000140: a1f1 0340 d9f1 e2bf 6f32 a8c0 2345 8bbf
00000150: 9984 a53f 05a2 873e d980 82bf fa4f a1bf
00000160: 59bb a23f 7b80 f4be 063b 073e f040 833f
00000170: 9d07 81be 83e5 623f a721 0d3f b570 c33f
00000180: 640d 25c0 a492 8bbe aca2 cd3e 57e8 7f3e
00000190: 5fb2 31bf 69ff d13f 0551 83be 6638 8dc0
000001a0: 7ab7 6e3f 69ca c1bc ac2f e4be e2cc e7bf
000001b0: aa0e 193f a402 f9be 6d2f 883f 1013 a6be
000001c0: 0c7a 0fbf 608b 46bc c17d 0b40 220d 2e40
000001d0: e6d9 3f40 7dcc 65bf a3bb 63c0 f1fb cebe
000001e0: f7a9 723f 54d5 853e 5a72 8a3f ad51 4dbd
000001f0: f203 a03e 6886 233e dc87 573f b160 ae3f
00000200: 6787 58bf 1640 f4be f88d 963e 4d8f 393e
00000210: d6be 653f 338e 36be cf58 9d3f 4a60 373e
00000220: feb6 0e40 8915 e33e 9e04 043f cbff 693d
00000230: f882 b03b 47e3 10bf 37e0 2abd d3bc 58bc
00000240: 1458 c43d cb5a 06bf 9862 e9bd 0e7d 0f3e
00000250: b9f2 a3be 2ff6 bebe 9007 fa3e 3ef1 153f
00000260: 4bad be3d e674 523c b5a3 b8bf ebbb 95be
00000270: cbf0 053f 8511 953d b741 433e 8e49 033f
00000280: 9c6b 803e fb75 b4bd 943c 42bf 6abe c2be
00000290: e2f4 0c40 f1f9 c13e 3fc0 9cbf acff 4dbf
000002a0: d93d 0a3f 6abf 92bf 2e09 ce3f 6b21 11bf
000002b0: f049 8c3d 88d1 a63e e7d8 c2bd a6c6 8b3f
000002c0: 9d57 b83f 6f71 003e 312c 28bf 1101 313f
000002d0: 30a1 2abf f25d e83f dd22 ebbd 21d8 98bd
000002e0: 0420 f7bf 0eb8 343f d5d7 3ec0 4dfd 953f
000002f0: d671 f2be 706a c73f 3f9c 07bf 57c3 fb3e
00000300: 3f62 4f3f 3cc2 133f 2995 b1be c082 8fbd
00000310: 0e27 bcbf ff52 393e 2b0b 52bf f80d bdbf
00000320: 8048 cabf 1103 a8bf fad8 9d3e fedf 8dbf
00000330: 1c2a 893d 7e57 f93f f998 0dbf 2a6a 603f
00000340: 1db3 edbd 3873 883e 7805 31bf ed50 dcbe
00000350: d940 443f 8e41 953f 183c 00bf c1e9 1bbf
00000360: 1f52 70be d50a 413e 30d7 533f aa0a 813f
00000370: 950e 5dbf 4c30 7abe 71be ebbe 2934 3d3d
00000380: 4ee7 153e e2c0 203f f0ad b53f 649b c13d
00000390: 3d0a b3bf b314 46be 3247 653e 8d3e 0cbf
000003a0: 14d2 a93e 627b 3e3f 26c2 dcbf c8f2 7fbc
000003b0: 17bd 5d3e 38fd c3bf 4048 7cbe 9f66 c4bf
000003c0: ef20 8fbf 989e 72bf af18 a2bd aecf bc3c
000003d0: 04a9 963f 832a 91bf 429f 13bf e542 533f
000003e0: bd57 ee3f 7bb7 df3e a665 c83f b4e6 95bf
000003f0: 527c 613f b56f 54be 4d3a 713f 7e41 503e
0.101953216 0.5746505 0.36006865 -0.38723874 -0.9187003 0.014205261 0.10486864 -0.77275187
-0.36924985 -1.5401372 -0.16054466 -1.711135 0.19183679 0.52070063 -0.40939566 0.79360455
-0.4267242 0.5300419 -0.013800245 -0.06718065 0.23149101 3.0427537 -0.38239092 -0.005248316
0.60341734 -0.13656694 0.48019427 0.005721653 -0.2689171 -0.018949464 -0.06886032 0.6800122
0.27149835 0.34367043 0.5060718 -0.24335232 -0.79796654 -0.50389314 -0.43376306 0.04369148
0.80212396 0.26172706 -0.5216626 0.26930228 0.81267744 -1.2984945 -0.47172132 -0.3888586
-0.39825845 -0.74940974 -0.21406716 -0.32656312 0.16777502 -0.4964003 -0.07292732 0.5587453
0.16922984 0.61620975 0.35831362 -0.5975481 0.078652784 -0.009131212 0.097379334 1.122571
0.78853965 -0.9785544 0.3938035 2.0780504 -0.46909186 0.39712495 0.00035758698 -0.5888392
-0.62265956 -0.2830568 4.115229 -0.28727594 -2.1100845 0.7325114 -0.51928544 0.24496852
2.0616229 -1.7730056 -5.2561564 -1.0880474 1.293109 0.264908 -1.0195571 -1.2602532
1.2713424 -0.47754273 0.1320611 1.0254192 -0.2520112 0.8863146 0.55129474 1.526877
-2.5789423 -0.27260315 0.4016317 0.24990974 -0.694128 1.640607 -0.2564775 -4.4131346
0.93248713 -0.023656087 -0.4456762 -1.81094 0.59788 -0.48634827 1.0639473 -0.3243642
-0.56045604 -0.0121181905 2.1795504 2.7195516 2.9976745 -0.8976515 -3.5583274 -0.4042659
0.94790596 0.2613932 1.0816147 -0.05012672 0.3125301 0.1596924 0.8419168 1.3623258
-0.8458161 -0.47705144 0.2940519 0.18121071 0.8974432 -0.17827682 1.2292727 0.17907825
2.229919 0.44352368 0.51569545 0.05712871 0.0053867064 -0.565968 -0.041717734 -0.013228613
0.09587112 -0.5248229 -0.113957584 0.14012548 -0.3202112 -0.37297198 0.48833895 0.5857123
0.09310397 0.012845254 -1.442496 -0.29244933 0.52320546 0.07278732 0.19068037 0.5128411
0.250821 -0.088115655 -0.75873685 -0.380359 2.2024465 0.37886003 -1.2246169 -0.8046825
0.5400062 -1.1464665 1.6096551 -0.56691617 0.0685004 0.32581735 -0.09514027 1.0919998
1.4401737 0.12543271 -0.6569243 0.6914225 -0.666522 1.815367 -0.11481259 -0.07463098
-1.9306645 0.70593345 -2.9819233 1.1717926 -0.47352475 1.5579357 -0.5297279 0.4917247
0.81009287 0.57718253 -0.34684113 -0.070073605 -1.4699419 0.18098067 -0.8204829 -1.4769888
-1.5803375 -1.3125936 0.30829602 -1.1083982 0.06697485 1.9479825 -0.5531154 0.87661994
-0.11606429 0.26650405 -0.6914897 -0.4303049 0.7666145 1.1660631 -0.50091696 -0.60903555
-0.23468827 0.18851788 0.82750225 1.008138 -0.86350375 -0.24432486 -0.46043733 0.046192322
0.14639017 0.62794316 1.4193707 0.094534665 -1.39875 -0.19343834 0.2239044 -0.54782945
0.3316809 0.7440702 -1.7246749 -0.015621848 0.21654163 -1.5311651 -0.24636936 -1.5343817
-1.1181926 -0.94773245 -0.07914864 0.023048248 1.177033 -1.1341099 -0.57664883 0.8252395
1.8620526 0.43694672 1.5656021 -1.171103 0.8808032 -0.20745738 0.94229585 0.20337483

critic.v_net.fcs.1.bias f4 [64]
00000000: 7c02 50bf f4c9 e2bd 5a12 2bbf e615 6bbf
00000010: 03f8 87bf 3891 343e 9d0d 8bbe 1e42 34bf
00000020: c2b1 2a3f c111 0dbf 92a8 833c 3cb6 893f
00000030: 3f41 21bf c68b d4be 3dd3 79bf a762 78bf
00000040: 0e5f 87bf f188 83bf ca31 1fbf 3647 01bf
00000050: f137 093e 687a 103f d2af 51bf 4e24 b63e
00000060: 4368 5b3e 4f14 2cbe a5d7 213f 42aa 1f3f
00000070: 0429 85bf 4bff 103f 5d5f 6c3d b938 80bf
00000080: 1b0b aebe def4 213f a1b3 603e fd2f 89bf
00000090: effa 71bf 479d b7bf 6b34 593f 5f4e 893f
000000a0: b360 af3e eb25 fa3d 560d 093f 1af2 3dbf
000000b0: 2a72 84bf a137 19bf fef0 c9bd 47d3 2c3f
000000c0: fe53 863c a4ec bcbc eb98 27be b2e6 393e
000000d0: 62df 5abf b128 cf3e 46a8 fbbe 4b03 563c
000000e0: ed19 5abf d0cb c63e 4345 193f fb34 58bf
000000f0: e806 ef3d 4c13 a73e b5c5 1ebf 0dc5 8a3f
-0.8125379 -0.11073676 -0.6682488 -0.9183029 -1.0622562 0.17633522 -0.27158824 -0.70413387
0.66677487 -0.55105215 0.016071592 1.0758739 -0.6299018 -0.4151289 -0.9758795 -0.9702553
-1.0575883 -1.0276166 -0.6218535 -0.50499284 0.13400246 0.5643678 -0.81908906 0.35574573
0.21426491 -0.16804622 0.6321967 0.6236917 -1.0403142 0.56639546 0.057708133 -1.001731
-0.33992848 0.6326426 0.21943523 -1.071777 -0.9452352 -1.4344872 0.8484561 1.0727042
0.34253463 0.122142635 0.53535974 -0.7419754 -1.034734 -0.5985051 -0.09860419 0.67509884
0.016397472 -0.023062058 -0.16366927 0.1815441 -0.85497105 0.40460733 -0.4915182 0.013062309
-0.8519581 0.38827372 0.5987131 -0.8445584 0.11671239 0.3263191 -0.62020427 1.0841385

critic.v_net.fcs.2.weight f4 [1, 64]
00000000: 40d6 3fc0 1a56 343f 753b 1cc0 3132 d2bf
00000010: e480 22c0 396b db3f 9182 293f 2046 9740
00000020: 9eb1 4f40 0b42 e9bf 9656 9f3f 2fb9 2840
00000030: 551f 0040 4424 ffbf 8f04 0fc0 b46e 30c0
00000040: 41c6 3ac0 938a 41c0 7a8d 8440 43be 5b3f
00000050: 0aac fb3f d765 0c40 8c53 02c0 95f3 4dc0
00000060: 12c9 363f 4baf b33f 1479 1e40 a29c 763f
00000070: aefe 08c0 9fd2 4340 c286 8d3f d87f 36c0
00000080: f734 0a40 ff4e 8b40 c479 aa3f 68a6 75c0
00000090: e0ff 3ac0 6942 a1c0 7fd1 3a40 7b1c 2840
000000a0: c1ae 8e3f 020f 8abf df34 bcc0 0f61 8dbf
000000b0: ca06 31c0 1ba5 60c0 8190 f0bf 59a1 e2bf
000000c0: ea1f a2bf 476e f2bf b539 12c0 53b4 883f
000000d0: 0446 f5bf 1a38 43bf 7804 54bf 8dc6 6e40
000000e0: 457b 42c0 cc6a 813f de62 fdbf 9a30 d2bf
000000f0: be22 1640 5652 6cc0 ef2d 44bf 7f2b 2d40
-2.9974518 0.7044388 -2.441129 -1.6421567 -2.5391169 1.7142097 0.66214854 4.72731
3.245216 -1.822328 1.2448299 2.6363027 2.0019124 -1.9932942 -2.2346532 -2.7567568
-2.9183505 -3.024083 4.14227 0.8583719 1.9661877 2.1937158 -2.0363493 -3.217992
0.7140056 1.403787 2.47614 0.9633275 -2.1405444 3.0597303 1.105675 -2.851553
2.1594827 4.353393 1.331841 -3.8382816 -2.9218674 -5.0393567 2.9190366 2.6267383
1.1147081 -1.078583 -5.881454 -1.1045245 -2.7660394 -3.5100772 -1.8794099 -1.7705489
-1.2665989 -1.8939904 -2.2847722 1.068003 -1.9161992 -0.7625748 -0.8281932 3.7308686
-3.0387738 1.0110717 -1.9795797 -1.6421082 2.3458705 -3.6925254 -0.7663259 2.7057798

exp_avg f4 [64, 4]
00000000: 5e26 d83a 9af2 ddbb fc6f 413c 9113 4a3c
00000010: bcf1 9c39 633d dd39 b3d2 3cba 42b7 3fba
00000020: 0f20 83b8 a0b1 0439 f62b 8db9 723e 8cb9
00000030: d29f 4239 1647 34ba 0a30 7a3a 3427 833a
00000040: 8274 4b39 26cc 99b5 5812 d239 e99d dd39
00000050: a469 9ab8 b9d4 8339 2068 2db9 bb92 39b9
00000060: 5614 36b9 846c 8fb9 3fc4 313a 9590 3f3a
00000070: b423 803a d97f 79bb 76af d33b f635 dd3b
00000080: 455e c13a dbef 85bb bbcd ff3b 2f3a 053c
00000090: 4983 5c3a 2a2a 5abb 9972 c83b 7921 d03b
000000a0: 3696 f038 88f3 9339 12e1 bab9 1a88 c9b9
000000b0: 6a9e 133a c08d cdba aa0b 413b 9784 493b
000000c0: d155 883a 1bbd 8dbb dd9b f03b f942 fc3b
000000d0: 4756 5eb9 6c68 593a 0172 a9ba 1f9e b1ba
000000e0: 4a17 4cb9 4cc2 cc3a 8106 27bb 8f72 2ebb
000000f0: 71c6 023a 5a95 7fba 2836 0d3b 1ae9 113b
00000100: 4408 f9ba bbf8 e23b 7e68 5abc 698e 63bc
00000110: 2064 f839 3158 b7ba 8185 1f3b 2800 273b
00000120: eb99 31b9 639a 19b9 cd23 d539 9d7f de39
00000130: 55a7 7f39 a154 6eba f994 b23a 2267 bb3a
00000140: 6744 bfb9 f3c8 903a 062e ecba 44d6 f8ba
00000150: 75e7 ac3a 8ad0 93bb f0b1 143c 9625 1b3c
00000160: 4a42 183a d735 dfba 48a3 3d3b e25d 473b
00000170: c604 083a a6a8 9aba 2e1d 1c3b f94f 243b
00000180: a7a9 0a3b 7468 17bb d0ae e73b ae16 f13b
00000190: e296 6637 6278 a639 30e0 01ba 7c2f 05ba
000001a0: 0413 a836 170f 62b9 c8cc 163a 112f 213a
000001b0: 4290 313a 65d0 54bb 19dc bc3b 3e82 c43b
000001c0: 58e7 343a 903c 7dbb 73da d43b 1b2b df3b
000001d0: 8580 19b9 d1ab dd39 2fb6 2bba 62f8 31ba
000001e0: f155 98b9 a9b4 923a 9509 fdba de87 02bb
000001f0: 1110 5339 57e3 84ba 4138 0c3b f893 113b
00000200: 4b70 3939 0899 9039 c293 ecb9 672a 02ba
00000210: 6740 acb5 f7a7 6238 2808 18b9 a15d 1ab9
00000220: b08e 9839 df81 feb9 6a9e 543a 7fe9 5a3a
00000230: cc35 04b9 6718 eb39 5a4c 60ba 53a4 69ba
00000240: 14eb a23a 88f0 1cbb 5112 ab3b 6103 b33b
00000250: 76c6 7db9 548f e93a ee44 54bb 5e7e 5bbb
00000260: 84e6 86ba 91db a43b 4020 0dbc e24a 13bc
00000270: d388 a6b7 62f8 a438 5b35 2cba e9c9 33ba
00000280: 68fc de3a d850 05bc d08b 643c de92 6e3c
00000290: 8214 9639 8add aeba 7b59 1f3b e7f0 243b
000002a0: d166 f4ba 4b4d d63b c7dd 43bc 23c4 4cbc
000002b0: 37b2 98b9 64d9 123b 0635 7ebb 4594 84bb
000002c0: ccf4 d6b8 51b4 9f39 e6fe cfb9 1222 dbb9
000002d0: b940 b8b8 6d78 8337 110b d2b9 efb6 dcb9
000002e0: 177d ccba ff48 4b3b 78a7 efbb d5da fabb
000002f0: 04f1 613a 21e9 eeba 6ede 773b 409b 823b
00000300: 4ac2 873a 5ec1 9ebb 3682 1b3c f2b4 213c
00000310: 97f0 5dba b123 be3a cf03 66bb a46b 70bb
00000320: e8ee f0ba 3bcb f53b 5b0d 63bc 616e 6cbc
00000330: 9579 9cb9 9b47 ac3a 6f18 0ebb 40a9 13bb
00000340: da59 a237 db75 8db9 0488 6e39 4808 8239
00000350: 399e 543a aa65 a1ba a1f2 463b 9f9f 4c3b
00000360: 151f c137 509c 0237 eeee 29b9 1f0f 31b9
00000370: 47d6 8639 dced c3ba 0fa2 673b c2c0 713b
00000380: ec9f a339 b350 45ba 8e2f dd3a 0af7 e13a
00000390: 6010 db36 811e 893a 82d3 a1ba e357 abba
000003a0: 4a0f 86b9 3b54 5438 4ac2 afb9 3b9b b3b9
000003b0: 495e 11b9 a79e da39 737b 16ba 0fb7 1bba
000003c0: 911e 0d39 e1cb ac3a cee7 4ebb e52f 55bb
000003d0: 4a84 e6b9 9da9 ca3a e1ab 36bb 3775 3dbb
000003e0: dffe 363a 2bcb d5ba 8cb1 823b 20e5 873b
000003f0: e8a4 f7b8 f7bc c43a f01c 0fbb 301a 16bb
0.0016490927 -0.006773305 0.011806484 0.012333767 0.00029934745 0.0004219814 -0.00072030275 -0.00073133793
-6.252538e-05 0.00012654671 -0.0002692637 -0.00026749406 0.0001856082 -0.00068770477 0.00095439015 0.001000619
0.00019402991 -1.1458803e-06 0.00040067988 0.00042270057 -7.362969e-05 0.00025144758 -0.00016537355 -0.00017697636
-0.00017364448 -0.00027355936 0.0006781257 0.0007307616 0.0009776265 -0.0038070588 0.0064601256 0.0067508174
0.0014752826 -0.004087431 0.0078065074 0.008131548 0.0008411897 -0.0033289292 0.0061171767 0.0063516465
0.00011472071 0.0002821947 -0.00035644375 -0.0003843911 0.00056312105 -0.0015682504 0.0029456415 0.0030749196
0.0010401552 -0.0043255216 0.007342799 0.0076984135 -0.0002120371 0.0008293453 -0.0012927653 -0.0013551152
-0.00019463632 0.001562187 -0.0025486054 -0.0026618575 0.00049886765 -0.0009749733 0.0021547172 0.0022264183
-0.0018999656 0.0069266236 -0.013330577 -0.013888934 0.00047376845 -0.0013988075 0.002434105 0.002548227
-0.00016937374 -0.0001464873 0.000406532 0.0004243822 0.00024381031 -0.000909159 0.001362472 0.0014297704
-0.00036481323 0.0011046216 -0.0018019087 -0.0018984755 0.0013191538 -0.004510944 0.009075627 0.00946941
0.00058082177 -0.0017029595 0.0028936435 0.0030420949 0.00051886996 -0.0011799529 0.0023821103 0.0025072081
0.002115825 -0.002310303 0.0070704 0.00735744 1.3744198e-05 0.0003175168 -0.0004954366 -0.0005080623
5.009004e-06 -0.00021558661 0.00057525607 0.0006148676 0.000677351 -0.0032472846 0.0057635424 0.0059969714
0.0006900928 -0.0038640834 0.0064957677 0.0068105585 -0.00014639094 0.00042280418 -0.000655028 -0.0006789026
-0.0002905573 0.0011192757 -0.0019305224 -0.001991741 0.00020128513 -0.0010138553 0.0021395835 0.002221344
0.00017684807 0.00027579837 -0.00045123516 -0.0004965425 -1.2833742e-06 5.403903e-05 -0.00014498888 -0.00014721464
0.0002909801 -0.00048543417 0.0008110764 0.00083508337 -0.00012608542 0.00044840874 -0.0008556299 -0.0008912731
0.0012429678 -0.0023947079 0.0052206893 0.0054630493 -0.00024201893 0.0017819204 -0.0032389718 -0.0033492069
-0.0010292088 0.005031057 -0.008613646 -0.008990021 -1.9852456e-05 7.866394e-05 -0.000656923 -0.0006858395
0.0017012479 -0.00813695 0.0139493495 0.014561383 0.0002862551 -0.001334117 0.002431481 0.0025168003
-0.0018646364 0.0065399758 -0.011954731 -0.0124979345 -0.0002912448 0.0022407407 -0.0038788929 -0.0040459954
-0.00010249912 0.0003046119 -0.0003967203 -0.0004179632 -8.785859e-05 1.5672495e-05 -0.00040062566 -0.00042097966
-0.0015601245 0.003101885 -0.007313665 -0.0076554813 0.0008618983 -0.0018227437 0.0037821787 0.0039857924
0.0010357585 -0.0048448285 0.009491494 0.009869801 -0.00084663316 0.0014506486 -0.0035097485 -0.0036685253
-0.0018381746 0.0075010336 -0.013858165 -0.014430613 -0.00029845224 0.0013143899 -0.0021682044 -0.00225313
1.9353745e-05 -0.00026981425 0.00022748118 0.00024801702 0.0008110735 -0.0012313623 0.003035702 0.0031223071
2.3021867e-05 7.784998e-06 -0.00016206104 -0.00016885668 0.0002571812 -0.0014948207 0.0035344397 0.0036888574
0.00031208934 -0.0007526979 0.0016875134 0.0017239761 6.528615e-06 0.0010461361 -0.001234636 -0.0013072457
-0.00025569863 5.0623185e-05 -0.00033523358 -0.00034257196 -0.00013863402 0.00041698405 -0.0005740441 -0.00059400586
0.00013458195 0.0013183319 -0.0031571272 -0.0032529768 -0.00043967582 0.0015461926 -0.0027873444 -0.0028908977
0.0006980728 -0.0016311159 0.0039884504 0.004147187 -0.00011808594 0.0015009929 -0.0021837316 -0.0022903793

exp_avg_sq f4 [64, 4]
00000000: 2046 453d 74c4 5d3d 6a95 253b d10a 0a3c
00000010: fe08 ed38 6d9d 5239 4b6a 2c37 ae3b 0638
00000020: ddc7 bc37 79e7 e037 91a8 c135 8a19 db36
00000030: 6c37 5639 77f5 9039 ee9c 5137 b97d 3238
00000040: b28f 9338 2b0a 6a38 58b1 6236 1689 7037
00000050: 0ea3 fa37 31e3 b637 4f1f 2a35 f9db 1136
00000060: 72db 4039 84f6 8239 c0e3 5f37 5ca4 2e38
00000070: 37e8 703c 6c98 803c a79a 403a 180d 233b
00000080: 8429 b53c 8f26 bc3c 3952 8d3a ee75 6d3b
00000090: 8a65 4b3c 2097 683c f4a1 303a b245 123b
000000a0: e719 9038 ceea de38 99f3 9b36 52ea 8c37
000000b0: 093e 483b daa1 5b3b f13c 2539 dd16 0a3a
000000c0: 9383 993c 1772 a53c b205 783a 91ac 533b
000000d0: 9bd6 2a3a 5087 3a3a 0ded 0738 6ab4 e038
000000e0: 9bfc 033b ad94 163b 0481 e538 13f7 c439
000000f0: e078 b13a 6f46 ac3a 0a98 8c38 8b3a 8239
00000100: f893 723d 840f 843d 9e70 4d3b 285f 303c
00000110: c441 373b b55b 2e3b 359b ff38 497c db39
00000120: ea89 7638 100b 0439 af18 bf36 f683 9337
00000130: d997 3e3a 6177 403a a319 0838 4100 e038
00000140: d7a8 a73a 3f2b aa3a c20f 7d38 958d 5c39
00000150: 5cbc db3c 1be1 ee3c edc2 bd3a b22d a53b
00000160: 57f4 533b 0426 553b ab23 1b39 281d 013a
00000170: 98ff 0e3b 1983 0b3b 02b8 d738 ecbc bd39
00000180: 28bf 703c 3792 603c 349c 3e3a fc72 323b
00000190: 5f28 f038 bc5e 4239 88bd 0237 cdd6 d137
000001a0: d8be 1939 2b0b 4939 7bf7 1f37 1ce8 0738
000001b0: 43f3 333c 61fb 4e3c cbc0 1d3a cf4a 033b
000001c0: e6aa 7f3c f444 8c3c db73 523a c132 323b
000001d0: 00e6 0d39 e2f0 0a39 4fe3 c936 1771 b437
000001e0: 2889 aa3a 4ede d03a fbf7 9538 9958 6f39
000001f0: 0cc6 6d3a 3a40 bf3a b857 9e38 5363 8c39
00000200: 73d9 da39 b61e 033a a427 d037 fc25 e438
00000210: ca96 1037 c142 4237 431a 4f35 20ef 6f36
00000220: 6e5d 3439 f25a 3a39 565d 0937 c1c8 ff37
00000230: 8007 8039 eae9 8139 96f8 4537 8f9f 2e38
00000240: cd95 0a3c c7e3 063c 8a35 d939 d51c c63a
00000250: bd4d 603b f22d 813b a1fb 4439 52d8 223a
00000260: 94e1 d03c 1473 e83c 9d20 ae3a e69c 913b
00000270: 8faf af38 7bfa f538 a42c f036 9cd2 de37
00000280: ded2 8a3d e7c8 983d cc3f 673b 6a2e 433c
00000290: 69c4 ff3a b2b8 0c3b 5bd5 d538 abc3 b539
000002a0: 7939 3f3d e0ff 4b3d 0672 1d3b 293d 083c
000002b0: 8560 943b ba10 ad3b aaec 8539 5c95 643a
000002c0: cb88 5838 732c 4738 d2e7 0836 f058 0037
000002d0: 53e1 9938 9b65 8c38 44b5 8836 1b71 9f37
000002e0: 2f0d 8f3c 603a 903c a3fd 6b3a b224 533b
000002f0: 0111 aa3b b39b a83b 41c1 8339 1c52 693a
00000300: 65d3 dd3c 165f f13c 0807 c43a ba92 ab3b
00000310: b863 843b 93a1 843b 1c4c 5939 a6d2 443a
00000320: 65c1 7f3d e0f6 8a3d 5f02 593b 0e8b 3a3c
00000330: 1895 963a 4afb c33a f136 9638 d9f8 7a39
00000340: 40a2 a737 6ff7 d637 b51e 6635 7f4d 3636
00000350: 2962 153b 858a 163b 0f29 fe38 380a ef39
00000360: 0962 6137 1dd3 6f37 e496 6435 1404 8236
00000370: 6f25 913b bf22 a43b 4555 8739 d0b4 6d3a
00000380: 8993 463a 2d9b 4b3a 23a5 2e38 0e95 2539
00000390: ad5a 113a 74de 2d3a b0cf ef37 3298 bc38
000003a0: a72e 9d38 6278 7a38 848c 3636 ee7d 5737
000003b0: 68c5 6f38 f80f c738 05be 9236 3d53 7c37
000003c0: 408a 273b 416b 513b 763f 3739 51ed 1e3a
000003d0: 8170 003b 9042 1d3b 0fd8 f438 4e73 cf39
000003e0: becc b33b 1b7a b63b 2267 9939 e4b5 8c3a
000003f0: d6f4 d83a 181e 013b 398c bf38 9e87 a039
0.04816258 0.05414243 0.002526606 0.00842543 0.000113027156 0.00020085806 1.0276747e-05 3.200367e-05
2.2504415e-05 2.6810669e-05 1.442868e-06 6.5296817e-06 0.00020429277 0.00027648706 1.2493909e-05 4.2555595e-05
7.0362716e-05 5.5799417e-05 3.3779852e-06 1.4337033e-05 2.987825e-05 2.1801885e-05 6.3375495e-07 2.1734725e-06
0.00018392297 0.000249792 1.3344863e-05 4.1637904e-05 0.014703802 0.01569768 0.0007347264 0.002487963
0.022114523 0.022967605 0.001078195 0.0036233622 0.0124143455 0.014196187 0.0006738 0.0022319374
6.87128e-05 0.00010629521 4.6477185e-06 1.6798414e-05 0.0030554554 0.003351322 0.00015758329 0.0005267689
0.018739497 0.020196004 0.0009461298 0.0032298903 0.0006516964 0.00071155 3.240728e-05 0.00010714757
0.0020139578 0.0022976801 0.00010943602 0.00037568118 0.0013540052 0.001314355 6.70404e-05 0.0002483915
0.059223145 0.06448272 0.0031347643 0.0107648745 0.0027962783 0.0026604955 0.00012188257 0.00041863535
5.8779413e-05 0.00012592622 5.695117e-06 1.7585215e-05 0.0007270552 0.00073420076 3.2448803e-05 0.000106812
0.0012791407 0.0012982859 6.0334576e-05 0.00021033578 0.026823215 0.029160073 0.0014477648 0.0050408477
0.0032341683 0.003252388 0.00014795239 0.0004925304 0.0021819826 0.0021287857 0.00010286273 0.00036189647
0.014694013 0.013706735 0.0007271201 0.002722918 0.000114516115 0.00018536573 7.7927325e-06 2.5014766e-05
0.00014662312 0.00019173014 9.53476e-06 3.2402677e-05 0.010983291 0.012633176 0.0006017803 0.0020033603
0.01560471 0.017122723 0.0008028128 0.0027190896 0.0001353249 0.00013250441 6.016729e-06 2.1510334e-05
0.0013010846 0.0015935393 7.1510636e-05 0.00022825821 0.0009070344 0.0014591285 7.550366e-05 0.00026776883
0.00041742212 0.00050018297 2.4813991e-05 0.00010878962 8.618177e-06 1.1578843e-05 7.7151725e-07 3.5752964e-06
0.00017200943 0.00017772222 8.187568e-06 3.0491852e-05 0.0002441965 0.00024779077 1.1799993e-05 4.1633433e-05
0.008458567 0.008233017 0.00041429355 0.0015114794 0.0034226023 0.0039422447 0.00018785756 0.0006212044
0.025498189 0.028375186 0.0013284866 0.0044437526 8.3773506e-05 0.00011729166 7.157754e-06 2.6562535e-05
0.06778501 0.07460194 0.0035285829 0.011912921 0.0019513491 0.0021472392 0.00010196372 0.00034668794
0.04668567 0.04980457 0.0024024262 0.008315363 0.0045281076 0.005281535 0.00025544065 0.0008719766
5.162581e-05 4.7486694e-05 2.0400516e-06 7.650102e-06 7.3375784e-05 6.694646e-05 4.074218e-06 1.9006946e-05
0.017462341 0.01760596 0.00090023334 0.0032217917 0.0051900153 0.005145514 0.00025130252 0.000890048
0.02707834 0.029464286 0.0014955709 0.005235997 0.0040402077 0.0040475815 0.00020723086 0.00075081957
0.062440295 0.06785369 0.0033112986 0.011385692 0.0011488525 0.0014952209 7.162791e-05 0.00023934561
1.9983505e-05 2.5626008e-05 8.572636e-07 2.7165222e-06 0.0022794104 0.0022970748 0.000121193116 0.00045593246
1.3433871e-05 1.4294664e-05 8.5156194e-07 3.8747767e-06 0.0044295113 0.005009025 0.00025812737 0.00090677757
0.0007575085 0.00077669584 4.163863e-05 0.00015791153 0.0005544823 0.00066325744 2.8587732e-05 8.992887e-05
7.495033e-05 5.971676e-05 2.7201904e-06 1.2844319e-05 5.716589e-05 9.492034e-05 4.3732603e-06 1.5039751e-05
0.002556458 0.0031954797 0.00017475881 0.00060625846 0.0019598308 0.0023995973 0.00011675071 0.00039568025
0.0054870537 0.0055687553 0.00029259274 0.001073536 0.0016552459 0.0019701775 9.133708e-05 0.0003061862

exp_avg f4 [64]
00000000: e853 b43e 0b81 b6bc c1e6 fabb f3a0 e83c
00000010: cc13 3c3c 26f1 a3bb b217 ac3c 7743 453e
00000020: 1dda 6c3e c82c 3a3e 3e30 38bc eff8 b23d
00000030: 1f9f 603e a190 1dbd 6fa1 9cbd 921c 823d
00000040: f266 cbbe 95e4 933d bbb6 4e3c 857b 263d
00000050: 14ab 5bbd 288d 8a3e e56a b03d cfb3 903d
00000060: b0e5 533e 01e1 73bc cc25 8e3c 7cef 2f3e
00000070: 7578 473e f27f 9fbc 9ebc 69bd 43f6 823d
00000080: a0bc 6abc c7cb 8bbb 4660 c13c fa19 d0bc
00000090: e00f 1e3e 1ec3 c5bd 18bb 83be 034b a1bc
000000a0: d854 d53e 3701 943d 2057 b6be a551 eebd
000000b0: 794d 42bc b9cb 41bc bdc1 5dbe 842d e63d
000000c0: 2e38 913e 2220 d4bd 406b d3be 94fd 83bd
000000d0: e973 e53b f10c b63d 7e89 a2bb 8034 d83d
000000e0: 282b 4b3d 0163 1abd 1bf6 16bc 0659 8abc
000000f0: 3b5c c2bd 1c1f a9bd f592 f13d 37c8 86bd
0.35220265 -0.02227833 -0.0076569025 0.028397059 0.011479329 -0.0050031124 0.021007393 0.19264017
0.23130079 0.18181145 -0.011241971 0.087388866 0.219357 -0.038468007 -0.076479785 0.063531056
-0.3972698 0.07221333 0.0126168085 0.04064514 -0.05362995 0.2706082 0.086141385 0.07065546
0.20693088 -0.014885188 0.017352007 0.171812 0.19479544 -0.019470189 -0.057064645 0.06394627
-0.014327198 -0.0042662355 0.023605477 -0.025403012 0.15435743 -0.09656356 -0.2572868 -0.019689089
0.41666293 0.07226794 -0.35613346 -0.11636666 -0.011859291 -0.011828356 -0.21655937 0.1123915
0.28363174 -0.10357691 -0.41292763 -0.064448506 0.007002343 0.08889187 -0.004960238 0.105568886
0.049601704 -0.037692074 -0.00921395 -0.016888153 -0.09490248 -0.08257887 0.11795608 -0.06581157

exp_avg_sq f4 [64]
00000000: 5403 8940 4be0 793c cf5b 143b 8717 ac3c
00000010: 7543 cc3b 3525 713a a980 a23c dab7 a33f
00000020: c11c f03f 93f6 913f f5cf 913b 8a4f 883e
00000030: 16a6 d23f da7f 603d 7b05 453e 9445 043e
00000040: 1dde ae40 7a6a 5c3e e0d8 c83b b770 633d
00000050: 75a0 db3d 94c4 2040 fc6d 823e a709 3e3e
00000060: 961e b43f 98f5 093c 6211 543c 39dd 823f
00000070: e8c5 b03f 17c4 353c 4b55 ec3d 99e0 ef3d
00000080: 9a49 b53c b217 833a c96d 7c3c a33d ae3c
00000090: db7c 463f 829c a33e 2b74 1140 f450 433c
000000a0: af16 c340 5c35 363e a60c 8840 a4f2 e33e
000000b0: 37b5 723b d04a b43b f98a ce3f 4bc5 e63e
000000c0: 193d 2d40 f5e8 be3e 1812 bb40 04e4 f93d
000000d0: 46b2 813a 9aa1 713e 889c 823a 087e d53e
000000e0: 5381 a63d 95b9 3c3d 4464 923b 717d e93b
000000f0: 921e 9a3e e28c 4f3e dcf6 013f e978 1e3e
4.2816563 0.0152512295 0.002263773 0.021007312 0.0062336274 0.00091989647 0.01983674 1.2790482
1.8758775 1.1403373 0.0044498392 0.26623183 1.6456935 0.05480943 0.19240372 0.12917167
5.4646134 0.21524993 0.006129369 0.055527415 0.10723964 2.5119982 0.25474536 0.1855837
1.4071834 0.0084203705 0.0129435975 1.0223762 1.3810396 0.011094115 0.11539706 0.117127605
0.022129823 0.0010001569 0.015407034 0.021269625 0.77534264 0.31955343 2.2727153 0.011921156
6.096519 0.17793792 4.251544 0.44521058 0.0037034282 0.0055020824 1.6136161 0.45072398
2.706854 0.37287107 5.8459587 0.12201694 0.0009895049 0.23596802 0.0009964863 0.41697717
0.081301354 0.046075422 0.004467519 0.0071255495 0.30101448 0.20268586 0.507673 0.15475811
