training_results/cartpole_null/ppo/seed_2024/72000steps/checkpoints/model_72000.pt (torch, 72355 bytes, 30 tensors)

actor.pi_net.fcs.0.weight f4 [32, 4]
00000000: ef24 83be 20c1 a73d 3f0e d43c e913 093f
00000010: 6214 db3e 9bc5 e43e 9b0b e53e e7ee 6dbe
00000020: c5ec 573d 0fde 593c 6a49 d1be 58fb 86bc
00000030: ad82 f83d 8a3b c63e e1f3 c4be 0958 68bc
00000040: fff4 12bd 7697 e1be af68 d53e e39e b33e
00000050: 68c4 eabe 4c3e 7f3e 63df b4be c8e7 e9be
00000060: b09c 2bbe 5c38 a0be 81ff 21bf ad66 c6bd
00000070: 88dd 51bd 143e 73be ec19 a53e 7075 0f3f
00000080: adfa 963e 0a0a 8cbe f602 d63e b5bb 2a3f
00000090: 30a2 38be e4b9 9e3e e50a ae3e 6e2d da3e
000000a0: dd99 8fbd 3e41 413e d561 403e 28ac b4bc
000000b0: 2b6a d3be 485c c53d 2357 f73e d20c c03e
000000c0: f04d 47be 9fca 2c3e cd50 173f 3656 8f3e
000000d0: b46a 8dbc cfa7 6c3d 0b74 e0be 17d1 83be
000000e0: b998 9b3e bd84 353e 173a 5dbe 6b0f 2dbd
000000f0: 4a6e ba3e dfe3 453d c127 0c3f fe7d 383e
00000100: 8a62 1e3e 54aa bf3d b536 003d 94a2 0dbf
00000110: e7d9 d53d 78f0 e0be 2a75 143e e8a7 033e
00000120: 66a0 1fbe 1930 163e 3adb d2be 31c8 3bbe
00000130: 6f2e 49bd e3a6 9dbe c581 ccbe 3287 993e
00000140: 2cda cbbb 76d8 f43d c040 b83d 86d4 22bf
00000150: 5351 d4be c1e2 8ebd 5916 2b3e f65c ec3e
00000160: 38ba 85bc 90d9 3bbe b9d4 a63e 237f 523f
00000170: 1238 3f3e 8860 d8be e9e5 ff3e 9b71 cb3e
00000180: eef9 84be 2a52 8c3e 036a 3a3f 8937 ef3e
00000190: 1078 943c 2eca e0be 6077 143d c5bf 443f
000001a0: 4416 683d a537 28bd 43ed 32bf 5368 17be
000001b0: 38e2 553d 5c59 773e aea5 e33e 17a4 013f
000001c0: 6625 7f3e 39c1 e5be 3d8b 203f 47a7 073f
000001d0: 45b5 19be c3ca 233c 16a1 963e 9256 febe
000001e0: da4b bf3e 82bc 86be 2eb3 79be 8879 60bf
000001f0: 5526 d1be 2e10 383e f2db e7be 1551 15bd
-0.25614116 0.081911325 0.0258857 0.53546005 0.42788988 0.4468201 0.44735417 -0.23235665
0.052716035 0.013297572 -0.40876323 -0.016477272 0.121342994 0.387173 -0.38467315 -0.0141811455
-0.035878178 -0.44060868 0.4168143 0.35082158 -0.4585297 0.24926108 -0.3532668 -0.45684648
-0.1675899 -0.31293 -0.63280493 -0.096875526 -0.05123666 -0.2375415 0.3224634 0.5603857
0.29488125 -0.2735141 0.41799134 0.6669267 -0.1803062 0.31001198 0.33992687 0.42612785
-0.07011769 0.18872544 0.1878732 -0.022054747 -0.41291937 0.09636742 0.48308668 0.3750978
-0.19463325 0.16874169 0.5910767 0.2799546 -0.017262794 0.057777222 -0.43838534 -0.2574546
0.30389956 0.17726417 -0.21604191 -0.04225103 0.3641227 0.048313018 0.5474816 0.18016812
0.15467277 0.093586594 0.031302173 -0.553262 0.10441952 -0.43933463 0.1449782 0.1285702
-0.15588531 0.14666785 -0.41182882 -0.18338086 -0.04911655 -0.30791387 -0.39942756 0.29985958
-0.0062210765 0.11955349 0.08996725 -0.63605535 -0.41468295 -0.069768436 0.16707744 0.46164674
-0.016324148 -0.18344712 0.3258417 0.82225245 0.18673733 -0.42261147 0.49980095 0.39735112
-0.2597193 0.27406436 0.7281801 0.46722057 0.018123657 -0.4390425 0.036246657 0.7685512
0.05666186 -0.04106869 -0.6989328 -0.1478589 0.052217692 0.24155182 0.4446234 0.50641006
0.2491661 -0.4487398 0.6271246 0.5298962 -0.15010555 0.009997073 0.29419774 -0.49675423
0.37362558 -0.26315695 -0.24384758 -0.8768544 -0.40849558 0.17974922 -0.45284992 -0.03645428

actor.pi_net.fcs.0.bias f4 [32]
00000000: 7623 a4be 1da1 e73e 98ad d6bd de63 0d3e
00000010: 527c 0e3a 17df ebbd 2f51 6a3e 4588 aa3a
00000020: b411 df3d b71a bb3e 3196 a63d d7a0 323d
00000030: b775 973d a1dd d33e 91f4 9dbe c1d2 53be
00000040: 44b3 a0be abf6 023f 7a87 f43e 8ff4 313e
00000050: 026b 3c3e a5a1 aa3e 17c0 bf3c 5ecb a1be
00000060: 6894 a13d 52e6 4a3d 79e7 0c3e 9648 e1be
00000070: 689f 7e3e 6bd3 3abd 02f3 bf3e 788d 2abd
-0.32058305 0.45240107 -0.10482329 0.13807628 0.0005435395 -0.115171604 0.22882532 0.0013010582
0.108920485 0.3654382 0.081341155 0.04361042 0.07395499 0.41380027 -0.30850652 -0.20685865
-0.3138677 0.51157635 0.4775961 0.17378448 0.18400195 0.3332645 0.023407025 -0.3160047
0.07889634 0.049536057 0.13760175 -0.4400069 0.24865496 -0.04561178 0.37490088 -0.04163882

actor.pi_net.fcs.1.weight f4 [32, 32]
00000000: 988b 0c3e 62d2 6a3b f4d8 71bc 1def 403e
00000010: 3e35 19be fb9a 02be 70ff 303e 3ca1 3a3d
00000020: 5955 1b3d 00e0 ebbd 407f fdbd add0 32be
00000030: b464 4d3c 1f01 333d 688e 423b 71a8 06bc
00000040: 6638 9fbd a32b 07bd bb10 93bb 31fa 22be
00000050: 0dbb 453c 372f 8b3d b142 56be d21b 0a3e
00000060: 82a0 8c3d 0755 593d a6ab bf3c db40 21bd
00000070: 8d18 3ebd e9e4 35be db25 203e 48eb 693d
00000080: f3c4 9c3e 26e8 23be 770a 19be ae6b 03bd
00000090: be63 563e 99aa 1cbd 206b f3bd a954 22bd
000000a0: b966 8c3b fdc9 d23b 9dbc 0bbe 3778 7abc
000000b0: d4dc 653e 94bd 91be ac6c 86bd b741 223e
000000c0: fb91 c1bd 0cac c13d 8079 a0bd d4ae 3f3d
000000d0: 4c6e ccbb 7966 063e 7d50 b4bc 7d6f 783e
000000e0: 1402 913b 1870 753e eff8 a73c ba6c f43d
000000f0: b838 933d 0e4b 47be 0b9f c5bc 94fb b9bd
00000100: 2570 893d 0952 ec3d 037a 3abe eac6 893e
00000110: ebd3 82be ed62 1e3d 7bcf 4b3e 41bc 0fbf
00000120: d0ec d4bd 57fd 2a3d bae7 393e 87f2 11be
00000130: 190f b1bb abe2 22bd 8791 e3bd 026b a4bc
00000140: a884 8f3d 7261 6a3e 160d 8d3e bf56 36bd
00000150: fe8e 653e ad8e bebd 9d06 02bf 497e d4bd
00000160: fad6 1dbe 3742 86be dcca 2b3e b467 9e3a
00000170: 1119 b0bd 0256 e93c aa2f b13d 66a6 40be
00000180: bdc3 15be ba91 3fbe da4b 2d3e fa53 4dbd
00000190: 4fa7 36be 0862 d9bd 7ed5 eb3c 8007 cf3c
000001a0: 2320 683d 70e1 34be 3acf d4bd e8f7 ffbd
000001b0: a346 6d3d 2845 163e f8b9 7dbd 01c7 76bd
000001c0: f9a7 bc3d 117c ecbd 9707 92bc 5c50 303d
000001d0: 0cac 483e ae3b 22be 3699 e73d 83a1 55be
000001e0: 7a4e 823d 80b1 b03d 5d79 babc 44d5 36be
000001f0: ea5d 0fbe 495a 5bbd 6f36 363e ac91 013e
00000200: 7f52 eebd 6bd3 043e e92d 43bd 44b9 35be
00000210: bd05 663e 4acb 2abd ea51 c1bd 1dde 95bc
00000220: f8ac 2b3d 7b3a 383e 3fc7 6c3a f649 223d
00000230: 5c1c 3bbd b0be 1fbe 6630 a53d 06db 7dbe
00000240: 1a97 e23c 0719 b53d 7be6 16bd 0a9c 9b3d
00000250: f751 1d3d 4502 ec3c 2fc9 dabc a447 17be
00000260: e51d 1a3d fde6 edbc fcd6 adbc 17bc 47bd
00000270: 9f0b 023d 9a78 5f3d 067e 10be 3036 223e
00000280: 025e 043d 35f1 933d f44c eb3d ee01 653d
00000290: 953e 40be 3c11 7f3d 4a33 f9bb 8485 86bd
000002a0: 854f 423d 0a72 6bbc 07d0 f6ba f77d d63c
000002b0: a96f c4ba 1ef0 623c c1c7 133e 64c1 a43d
000002c0: 31a0 ec3d 25a8 fbbd 8def 3c3e 2a67 bc3d
000002d0: a11a a43d 1f5b 893d 4344 ad3d c134 273e
000002e0: a757 77bd ef6f 93bd 5c05 883e b709 3d3e
000002f0: 7e3b 08be b154 673c 3d24 7e3e 471f 623c
00000300: d793 debd 60a1 103e fe51 643c 273d 263e
00000310: e2b3 a1be 8518 f9bd 5c7d 5f3e f65f c8bd
00000320: 8466 cabd 4d57 d63d cc55 d6bd dcbd d23b
00000330: 7b96 7e3d 2e6b 68bd 38a4 eabd a6ee 853d
00000340: 45ee 673d 0f15 193e 4007 df3d 80c2 c23d
00000350: 2f99 643e f8de 0dbe 9b68 62be 16a6 73bc
00000360: f9d8 92be fc70 56be 084b 873e 86e2 2abe
00000370: 3d53 443d 0844 d43d 60ab 0a3e 2da6 adbc
00000380: 293c 273e 3c2e 6dbe c520 713d faf7 65bd
00000390: 447e 603d bef5 e33c f3c4 dfbb 5fba 1f3e
000003a0: c978 013e 4302 c93c 90e7 543d c705 1a3e
000003b0: 1baa f03d 1268 2ebe 9102 e5bd 6992 143d
000003c0: df92 adbc 1f12 2ebe 5e62 bdbe 6461 70bc
000003d0: 49ed 46bd 6822 1f3e 9c83 e73d 59e6 933e
000003e0: 7c85 513e 8c97 14bd aba6 0d3d b9e7 6bbd
000003f0: 8923 cf3d 8146 94bd 000b 3fbe e111 eebd
0.13725126 0.0035830964 -0.014761198 0.18841214 -0.14961717 -0.12754433 0.17284942 0.04556392
0.03792319 -0.11517334 -0.12377787 -0.17462416 0.0125362165 0.04370224 0.0029686932 -0.0082188705
-0.07774429 -0.0330006 -0.0044880784 -0.15915753 0.012068522 0.06796115 -0.20923878 0.13487175
0.06866552 0.053059604 0.023397278 -0.03936849 -0.046410132 -0.17763104 0.1563944 0.057109147
0.3061901 -0.16006526 -0.14945398 -0.032085113 0.20936486 -0.038248632 -0.11885667 -0.03963152
0.0042847064 0.0064327703 -0.13646169 -0.0152874505 0.2244752 -0.2846495 -0.06563696 0.1584538
-0.09451672 0.094566435 -0.07835674 0.04679759 -0.0062387343 0.13125028 -0.022011036 0.2426128
0.0044252966 0.23968542 0.020504443 0.119348004 0.071885526 -0.19462225 -0.02412369 -0.09081188
0.06710843 0.115390845 -0.18210606 0.26909572 -0.25552306 0.03866856 0.19903366 -0.5614663
-0.10396731 0.04174551 0.18154803 -0.14252673 -0.005403411 -0.03976695 -0.111117415 -0.020070557
0.07007724 0.22888735 0.27549046 -0.04451632 0.22417828 -0.09304557 -0.5079134 -0.103756495
-0.15414038 -0.26222393 0.16776603 0.0012085349 -0.08598531 0.028483395 0.08651669 -0.18813476
-0.1462545 -0.18707934 0.16923466 -0.050128914 -0.1783726 -0.10614401 0.028788324 0.025272131
0.056671273 -0.17664123 -0.10391088 -0.12498456 0.057928693 0.14674819 -0.06194493 -0.06024838
0.09211726 -0.11547101 -0.017825885 0.043045387 0.1959688 -0.15843078 0.113085195 -0.20862393
0.063626245 0.086276054 -0.022762949 -0.17854792 -0.14000669 -0.0535529 0.17794202 0.12653226
-0.11636829 0.12971275 -0.047651205 -0.17746454 0.22463126 -0.041697778 -0.09439452 -0.018294388
0.041913003 0.17991059 0.00090323755 0.039621316 -0.045681342 -0.15600085 0.08065872 -0.24790582
0.027659941 0.08842664 -0.036840897 0.075981215 0.038408246 0.028809676 -0.02670726 -0.14773422
0.037626166 -0.029040808 -0.021220677 -0.04876336 0.031749364 0.054558374 -0.14110574 0.15840983
0.032316215 0.07223741 0.11489287 0.055910043 -0.18773873 0.062272295 -0.007604991 -0.06568435
0.047439117 -0.014370451 -0.0018830308 0.026183112 -0.0014986891 0.013851194 0.14431669 0.08044699
0.115539916 -0.122879304 0.18450756 0.091993645 0.080128916 0.06706833 0.084602855 0.16328718
-0.060386326 -0.07199084 0.2656659 0.18460737 -0.13303944 0.014119313 0.24818511 0.013801402
-0.10868042 0.1412406 0.013935564 0.16234265 -0.31582552 -0.1216288 0.21825165 -0.09783928
-0.098828346 0.1046587 -0.10465583 0.0064313244 0.062155228 -0.05674284 -0.114571035 0.06539659
0.056623716 0.1494944 0.10890055 0.09509754 0.2232406 -0.13854587 -0.22110216 -0.014871141
-0.28681162 -0.20941538 0.26424432 -0.16687974 0.047930945 0.103645384 0.13541937 -0.021197403
0.16331543 -0.23162168 0.058869142 -0.056144692 0.054807916 0.02782714 -0.006828898 0.15598439
0.12643732 0.024537211 0.051978648 0.15041266 0.11751195 -0.17031887 -0.1118213 0.03627244
-0.021188198 -0.169991 -0.3698911 -0.014671657 -0.048566137 0.15540469 0.11304399 0.2888668
0.20461076 -0.03627734 0.034582775 -0.057594035 0.101142 -0.0724001 -0.1865654 -0.11624504

actor.pi_net.fcs.1.bias f4 [32]
00000000: d1e8 193e 52f7 5fbe 23c5 453e 3bba cdbc
00000010: 6538 85bc 5d49 443e 3931 433d daf6 15be
00000020: 4364 363d 21f9 8cbd 15e6 81bd 4291 9b3b
00000030: 4ef5 533e 6749 253e 60f6 15bc 68e1 513e
00000040: 5c52 253d 58a7 3a3b cab5 eb3d 2e98 63bd
00000050: 85c3 9f3d f27f dbbd 9ae3 16bd 5a1d 033e
00000060: 000f 2b3e 0e3f acbd 3b6f c0bd a926 123e
00000070: eab4 2abe a787 203e 21ee dd3d 1c5e 70bd
0.15030219 -0.21871689 0.19313483 -0.025113216 -0.016262243 0.19168611 0.047654364 -0.14644948
0.04452921 -0.06883455 -0.06342713 0.0047475407 0.20699045 0.16141282 -0.009152979 0.20496142
0.040361747 0.0028481092 0.11509283 -0.05556505 0.07800964 -0.10717763 -0.03683815 0.12804165
0.16704941 -0.08410464 -0.093962155 0.1427256 -0.16670576 0.15676747 0.10836435 -0.0586835

actor.pi_net.fcs.2.weight f4 [1, 32]
00000000: 2786 20be c1a9 42be cfa4 82be 1d2e f43d
00000010: c78a bf3d 76f3 35be a099 0bbe b682 4dbe
00000020: a44d 533e f682 453e e48c 143e 4237 dc3d
00000030: c617 b0be 1750 023f 96af 483d 69f4 0ebe
00000040: 0003 0d3e 50d2 993e 2037 47be 8c9c b7bd
00000050: b950 3abe 623f 4c3d ae32 903d c264 593e
00000060: 476d 3dbd 9017 5b3e a2d0 15be 3213 8b3e
00000070: 1486 033e 1a52 8cbe bc06 7b3e b3f9 32be
-0.15676175 -0.19010068 -0.25516364 0.11922858 0.093526416 -0.17768654 -0.13632822 -0.20069394
0.20635086 0.19288239 0.1450687 0.10752727 -0.34393138 0.5090346 0.048995577 -0.13960423
0.13770676 0.30043268 -0.19454622 -0.08965406 -0.18194856 0.049865134 0.070409164 0.21229842
-0.046246793 0.21395707 -0.14630368 0.27163082 0.12844115 -0.2740639 0.24514288 -0.17478065

critic.v_net.fcs.0.weight f4 [32, 4]
00000000: 8f6a 683d 31df 273f 400e 63bd afda cb3e
00000010: a504 dd3e fab7 4b3d 0046 c1be 6a94 133f
00000020: fb1f 473e b26c b43e ce79 91be b024 183f
00000030: 8563 333e f7c9 0f40 3acd 6640 9704 a93f
00000040: 7fbb ddbd 38b3 7ebf d610 723f b875 c83f
00000050: 8203 713e 75bf 1a3f a904 ae3e cafe 3f3f
00000060: 7927 c63d 1805 f93e 79ad 1c3e 3afb 713c
00000070: 23b7 933c c56d 3e3f ee52 e83d 6152 c9bd
00000080: c838 16be b6a6 b83e 8546 39be adf6 ea3e
00000090: d55f a53b 5b78 6a3f 56df 1940 5343 9d3f
000000a0: ecf8 4e3e aa78 b93e 024b c9bf 231d 23c0
000000b0: 237e aa3e f9ed 033d 1e60 543c a5de 963e
000000c0: 43d8 253d 044c 113e 8756 babf 2c2c 1ac0
000000d0: 94fe 903d 0a62 f83e a5cd f03e 0dda 0e3f
000000e0: 5f04 873e 9750 62be ce7c 083f 596b 47be
000000f0: bfcf 383e 8a65 4a3f 360d 7f3e 6411 2f3f
00000100: 76ac c23e 00e7 3f40 7b83 1440 2b5f 523f
00000110: 1b5e 93be ae11 31bf 0d36 d13f c466 bf3f
00000120: bca9 c03e 9b15 b2be 7b82 5c3f 3124 d23d
00000130: 44de 723e 074a 013b a8d2 9ebf b12c 1ec0
00000140: 57cb 453e faaf 4e3f cb79 a7bd a3ee 073f
00000150: 14aa 5cbe d4d6 813f 9a64 e43f 2b7b b23f
00000160: 5bb0 963e d30a 183f 9151 8a3c 69dc ad3e
00000170: 65b1 d73c 31a9 223f f62d 45be ce08 293f
00000180: c459 f13c d5ca 293e e2f2 10bf 4a17 63be
00000190: f451 6bbd c333 eb3e f93c 253e ccc0 d73e
000001a0: 1246 60be da00 9a3f 644c 0740 b5af ac3f
000001b0: 75ed a03e deab 923e 0fe1 1e3f f630 a63d
000001c0: 60b4 b93e bfef 6240 2b90 3840 ba9d a53f
000001d0: a7f6 94be 9975 86bf dd70 be3f 5402 a83f
000001e0: c5e9 4fbe 90e0 a53f b482 3f40 93c5 c23f
000001f0: 8c59 6fbe 4205 d23e a313 fc3e 0662 cb3e
0.056742247 0.6557494 -0.05543351 0.3981528 0.43167606 0.049736 -0.37748718 0.57648337
0.19445793 0.35239178 -0.28413242 0.5943098 0.17518432 2.246702 3.606276 1.3204526
-0.10826778 -0.99492216 0.9455694 1.5660925 0.23536494 0.6044839 0.3398793 0.7499815
0.096754976 0.486367 0.1530055 0.01476937 0.018031662 0.74386245 0.113439426 -0.09830166
-0.14670098 0.3606469 -0.18093307 0.45891324 0.0050468245 0.915899 2.4042563 1.2286171
0.20212144 0.36224872 -1.5726016 -2.5486534 0.3329936 0.03220937 0.012962369 0.2946674
0.040489446 0.14189154 -1.4557656 -2.408946 0.07079807 0.48512298 0.47031894 0.5580147
0.26370522 -0.22101055 0.53315437 -0.19474544 0.18047999 0.79061186 0.24907383 0.6838591
0.38022202 2.9984741 2.320525 0.82176465 -0.28782734 -0.691676 1.634462 1.4953237
0.37629497 -0.3478211 0.861366 0.10260809 0.237176 0.0019727962 -1.2408037 -2.4714777
0.19315849 0.8073727 -0.08177527 0.53098506 -0.21549255 1.0143685 1.7843201 1.3943838
0.29431424 0.59391516 0.016884597 0.33957222 0.026329705 0.63539416 -0.19255814 0.6602906
0.029461749 0.1658128 -0.5662061 -0.22176853 -0.057451203 0.4593793 0.1613654 0.4213928
-0.2190173 1.203151 2.1140375 1.3491122 0.31431165 0.2864675 0.6206216 0.08114807
0.36270428 3.545883 2.8837993 1.2938759 -0.2909443 -1.0504638 1.4878193 1.312571
-0.2030402 1.2959156 2.9923525 1.5216545 -0.23374003 0.41019636 0.49233732 0.39723223

critic.v_net.fcs.0.bias f4 [32]
00000000: f09f fe3e 3ff6 1d3f 6e6d a43e bd24 953e
00000010: 5c3f 07be 52c2 c03e 1862 d73e 20a6 ef3e
00000020: 1696 153f 584f 523e bf05 543e f427 ff3e
00000030: 7004 493e 0af3 0b3f 9fc6 843e 213b 9d3e
00000040: 6fd4 673e e726 66be 0bd8 0abf e299 4b3e
00000050: af4e e03e 879a 463e 1d1d 3c3f 165f 513f
00000060: 1170 5b3f edd0 193f a096 5c3e 991c d93e
00000070: f7b3 953e ca96 883d c7d8 833e 45b2 353f
0.49731398 0.61703867 0.32114738 0.29129592 -0.13207763 0.37648255 0.42067027 0.4680643
0.5843214 0.2053808 0.20705317 0.4983517 0.19630599 0.54667723 0.25932786 0.30709174
0.2263963 -0.22475778 -0.54235905 0.1988292 0.4381003 0.19394885 0.73481923 0.81785715
0.85717875 0.6008442 0.21541834 0.4240463 0.29238865 0.06669386 0.25751325 0.7097514

critic.v_net.fcs.1.weight f4 [32, 32]
00000000: a67c a13e 76a7 c93e 5d3b 013f 0aa3 d6bf
00000010: a587 72bf d3a3 d83e 4219 da3d b6ea a03e
00000020: 1bb4 b13e 6f85 05bf ab99 e3bf 618f 943e
00000030: edb8 ddbf 6564 ab3e dc52 703d c3a8 133f
00000040: f0f9 75bf 317d 62bf af1a 3ebd 10bb f6bf
00000050: 8e4d 693e 1e90 a9be 1169 a63e f886 ea3e
00000060: 628a 0f3e e1dc 2b3e d2f1 40bf 3071 ad3d
00000070: 9510 06bf f404 2ebf bc43 89bf 1077 193e
00000080: bbec 24bc 232e 60bc 1c19 a0bd e3d8 24c0
00000090: f84d 10bf f5a6 bdbd ffbf 983d 0bad 823d
000000a0: e56b dabd 2153 86bf 2a86 61bf ef8b ce3c
000000b0: 22b9 5cbf 7110 943d 8c53 53be 57e2 b3bd
000000c0: 8665 b1bf 8181 54bf 47aa 963e 33c9 81bf
000000d0: 356e 8bbd 70ee 78bf db25 4a3e 559c 463c
000000e0: 4409 193d ace0 eb3d c2f1 84bf 4f6a fd3d
000000f0: 9756 56bf 6a3f 88bf 1d1a cbbf f0b2 cf3d
00000100: 9c03 d93d 0911 b33c 387c 933d e552 66c0
00000110: f471 5abf bd72 513e 387d 143e dc3c bc3e
00000120: b518 453e 5245 abbf bdff 03be b538 8b3d
00000130: 31b1 08be 27af d03d e65c 6bbc f4a8 883e
00000140: 9d97 15c0 d91d 47bf 3e47 483d 25ba aabe
00000150: 77ca 703e 3c8a bbbf 462a 533e 7184 d23e
00000160: 176a 3f3e 1b00 8f3e 7080 9abf 8b22 013d
00000170: db69 a8bf 4233 eebf 9585 17c0 25dd 9d3d
00000180: 1cf1 05bf a27f f8be 7fcb 6f3e 14e9 4b3d
00000190: 0f1d b2bf 8750 50bf 0514 7f3e 2c7e cc3e
000001a0: 9433 42bd cc3d 72bf 2f5e c73e 1cea 0cbe
000001b0: b77a ac3e 1d0b 0fbf bb98 293f 3e14 54bf
000001c0: b196 66bf 9505 d3bf 1d1d 91be 7ea2 c23e
000001d0: edd8 dcbe 93b7 aabf 3f3a 273e 52f4 07bf
000001e0: f71d 033f 4120 1e3d b83b b4bf 273d af3e
000001f0: 6c74 8fbf 9a29 e0bf 49a5 3cbf 946d 83be
00000200: 7c90 6d3c 0f14 dcbd 3e16 70be 7504 903d
00000210: f0ec cebd 75b4 d0bd 50fe 1c3d 8969 7bbe
00000220: 7a57 ac3d f69d f53d 29de 67be 9425 c83d
00000230: fc6d fcbe 2927 84bd 1731 6bbe 1880 6cbc
00000240: 045e 8fbd f146 9fbd 4638 803d 894a 7dbe
00000250: 3a40 12bd 1cb6 39bb 9688 9a3d dbd6 d3bd
00000260: e4fe 503d ce29 87bc 10f3 c93d 51ec 343d
00000270: 7712 d0bc 6908 aa3d b101 66bd 2e00 dc3c
00000280: 4f5f 0bbf df97 a9be 258b 9f3d d2ac 59be
00000290: ccd7 bcbf 04cb 61bf 1f3e 473e dac5 a23e
000002a0: 2e34 2e3e ae7c 84bf 6cb1 013f 1f0b b8be
000002b0: 8cad e73e 0380 12bf fd1a 363f ccd8 86bf
000002c0: a2d6 3abf 64ee c3bf 63c8 bbbe 7f38 df3e
000002d0: 70e9 e2be 4a7c 9cbf 81d9 873d 09d6 eebe
000002e0: 26a5 e33e 065f 93bc 0530 a3bf 846c 883e
000002f0: dd07 62bf ff35 b9bf e1d2 32bf 13cc f8be
00000300: 45ee debe b0a7 c0be 33ff a2be f0c2 94be
00000310: ebb6 85bf f58e 34bf 5203 37bf 64ee 08bf
00000320: 6c20 b3bd 8d33 a2bf 92e6 9b3e 3de0 a5bd
00000330: d903 0c3e 6442 ccbe 2789 b53d 2afe 03bf
00000340: 1b9d 943e cf61 b3bf 03e4 52bf 8f9b 863e
00000350: 36fd 9dbe af6a 6abf 053e aebe e839 04bf
00000360: 28fe bf3e e9d1 f5be bafd 80bf 9d0e 25bf
00000370: 4142 fe3c 8122 d6bf 4024 96bf 5629 5abe
00000380: 33c0 6f3e 3fae 483e 73a7 2e3e 0c59 58c0
00000390: 84e1 3abf e25f 723e 4083 853e 2128 b83d
000003a0: 9268 cd3d 4aa3 c4bf 24b0 33bf b4b5 6a3d
000003b0: c72f 2cbf 01f1 4e3e 0cf9 ea3d 8870 a63e
000003c0: c982 13c0 77a7 25bf 9a5b 85be eaa9 81bf
000003d0: fa20 733e a151 9abf 8859 183e e2be ec3e
000003e0: 5670 193e ae08 a03e ceb0 99bf 93ce c13e
000003f0: d23a cebf 75fc ddbf 51e7 08c0 d855 573e
0.31540412 0.39385575 0.50481206 -1.6768506 -0.9473823 0.42312488 0.10649349 0.3142907
0.34707722 -0.5215673 -1.7781271 0.2901564 -1.732206 0.33475032 0.05867277 0.57679385
-0.960845 -0.88472277 -0.046412166 -1.9275837 0.22783491 -0.33117765 0.32502034 0.45806098
0.14017633 0.16783477 -0.7536899 0.084688544 -0.5236905 -0.6797631 -1.0723796 0.14986825
-0.010066207 -0.013682875 -0.07817289 -2.5757377 -0.5636897 -0.0926036 0.07458495 0.063806616
-0.106651105 -1.0494119 -0.88095343 0.02521321 -0.8621999 0.072296984 -0.2063734 -0.08783405
-1.3859107 -0.8301011 0.29426786 -1.0139526 -0.0680813 -0.97238827 0.19741003 0.012122233
0.037362352 0.11517462 -1.0386279 0.123737924 -0.83725876 -1.0644352 -1.5867344 0.101415515
0.105963916 0.021858709 0.07201427 -3.5988095 -0.8533013 0.20453925 0.14500892 0.36765182
0.19247706 -1.338053 -0.12890525 0.067979254 -0.13348843 0.10189658 -0.01436541 0.266914
-2.3373787 -0.7777992 0.048896067 -0.33345142 0.23514734 -1.4651561 0.20621595 0.4111667
0.18692814 0.27929768 -1.2070446 0.031527083 -1.3157305 -1.8609393 -2.3675282 0.077081956
-0.5232103 -0.48534876 0.23417471 0.049782827 -1.3915118 -0.81372875 0.2490998 0.39940012
-0.04741247 -0.94625545 0.38939044 -0.1376118 0.33687374 -0.5587633 0.66248673 -0.8284339
-0.90073687 -1.6486079 -0.28342524 0.38014597 -0.4313425 -1.3337272 0.16330813 -0.5310718
0.512176 0.03860498 -1.4080725 0.34226343 -1.1207404 -1.7512696 -0.73689705 -0.2566954
0.01449978 -0.107460134 -0.23445985 0.070321 -0.10103786 -0.101906694 0.03832847 -0.24551977
0.08415122 0.11993019 -0.22643341 0.097727925 -0.4930266 -0.06452782 -0.22967945 -0.014434837
-0.07000354 -0.07777203 0.06260733 -0.24735464 -0.035705782 -0.0028337305 0.07545583 -0.10343715
0.051024333 -0.016499426 0.098608136 0.04417068 -0.02539943 0.08302385 -0.056153957 0.026855554
-0.54442304 -0.3312368 0.077902116 -0.21257332 -1.4753356 -0.882004 0.19457291 0.31791574
0.17012092 -1.0350549 0.5066135 -0.35945985 0.45249593 -0.5722658 0.7113493 -1.0534911
-0.72983754 -1.5307126 -0.3667632 0.4359779 -0.44318724 -1.222543 0.066332825 -0.4664767
0.44461936 -0.017989647 -1.2749029 0.2664529 -0.8829325 -1.4469603 -0.69853026 -0.48593196
-0.4354116 -0.37627935 -0.31835327 -0.29054976 -1.0446447 -0.70530635 -0.7148944 -0.53488755
-0.08746418 -1.2671982 0.3044935 -0.08099411 0.13673343 -0.39894402 0.0886405 -0.515597
0.29026112 -1.4014224 -0.8237917 0.26290557 -0.30857247 -0.91569036 -0.34031692 -0.5165086
0.37498593 -0.4801171 -1.0077431 -0.64475423 0.031037452 -1.672928 -1.1729813 -0.21304831
0.23413162 0.1959772 0.17056064 -3.380435 -0.7300036 0.23669389 0.26076698 0.08992029
0.10029711 -1.5362332 -0.70190644 0.05730219 -0.672604 0.20209123 0.11473283 0.3250773
-2.3048575 -0.64708656 -0.2604645 -1.0129979 0.23743048 -1.2056161 0.14877903 0.46239382
0.14984259 0.31256622 -1.2007082 0.37852916 -1.61117 -1.7342669 -2.1391184 0.2102884

critic.v_net.fcs.1.bias f4 [32]
00000000: eac3 c63e 3c5f 12be 49bd 643e d62a d33d
00000010: 03cc 953c df56 8e3e ad37 b23f bee0 773e
00000020: 0ae6 febe 853e 303e 0e3a 0e3e 16f1 463f
00000030: 0f30 2f3f 5b4d 45bd a1ba 193d 091d 11be
00000040: da26 29bd 611d b63e 9b47 9c3e b8ba 20bf
00000050: c8c9 c03e 2d76 893f 5da2 e43d 76a8 d43e
00000060: 03c0 ef3e 62f5 de3d 2c08 cf3d 3bb1 af3d
00000070: 8f33 c03e 4f63 0c3d 721d 473f 2d1a 6e3f
0.38821346 -0.14294142 0.22337832 0.10310905 0.018285757 0.27800652 1.3923241 0.24206826
-0.4978488 0.1721135 0.13889334 0.7771162 0.68432707 -0.048169475 0.0375315 -0.14171232
-0.041296817 0.3556929 0.3052338 -0.6278491 0.37653947 1.0739189 0.11163781 0.41534775
0.4682618 0.10886647 0.101089805 0.08578726 0.37539336 0.034274396 0.77779305 0.9300869

critic.v_net.fcs.2.weight f4 [1, 32]
00000000: d141 2a3f 4ce5 f03e c4ab 2b3f b278 d8be
00000010: a5c2 853c a48e 07bf 859c cabe 2b56 423f
00000020: 442b 07bf d73b 8f3e a0ba 8b3e fffe 693f
00000030: c0dc 033f b214 92bd 30c9 733d aab4 ea3a
00000040: 3fb2 183f d544 323f bfac 303f d140 09bf
00000050: 1ae0 323f 821e 3c3f df29 473f c38c 873f
00000060: 2312 383f b8ff 243f e808 e83e c297 ed3d
00000070: 02b2 6b3f 72af 343c 72ad 373f 741c 253f
0.6650668 0.4704994 0.6705897 -0.42279583 0.016328165 -0.5295203 -0.3957254 0.7591273
-0.52800393 0.27975342 0.2729082 0.9140472 0.5150871 -0.071328536 0.05951804 0.0017906625
0.5964698 0.6963628 0.6901359 -0.53614527 0.698732 0.7348405 0.77798265 1.0589832
0.71902674 0.64452696 0.45319295 0.11601211 0.92068493 0.011028158 0.7174903 0.6449654

exp_avg f4 [32, 4]
00000000: fab5 f538 b26d 9ab9 0362 12ba 0e5c 0dbb
00000010: f265 1bb9 bb91 d2b9 df85 323a 7b65 0e3b
00000020: b8a4 a4b8 1d39 0eb9 b5e8 a736 41fc dcb4
00000030: 2186 8bba 67da 1abb d0fa 7d3a 378d 493b
00000040: cc48 4d3a aa6d db3a 88e6 37bb 5f85 22bc
00000050: 2250 a9b9 027f 1eba 57d8 97b8 54fa 13b9
00000060: 9d85 4fb9 4bc3 1bba 40ab 603a 80cc 2b3b
00000070: 0a39 e93a c501 663b 2cfb 27bb 20a6 0dbc
00000080: 5baf 3e3a e630 d93a 85c3 baba a087 8ebb
00000090: 4f85 8f39 4a2f 0b3a e83c cdb9 44a7 9eba
000000a0: ccac 0339 d71c 3c39 880c a2b8 9daa 20b9
000000b0: 84a8 333a 2b91 c83a c46b c1ba 7860 92bb
000000c0: 5dc6 d539 8fcd 853a 4fba 76ba 329f 3ebb
000000d0: 6e7d 1eba 16fa 96ba 5c4f 833a 85ee 543b
000000e0: 786e 92b4 4ecf 8fb5 30ab 7e36 483c 3437
000000f0: 46ae 2039 b8a0 37b9 6dcf 1eba d6d0 14bb
00000100: 73a0 6fb8 d04b feb8 db1d ba37 eebb 5738
00000110: 85a1 5e3a 2d81 8e3a cf20 013a da2d d73a
00000120: 741c 0cb7 bd9a 42ba f466 743a a066 323b
00000130: 1d88 a939 1d35 f239 ab3e 7c39 7c8f 573a
00000140: 1b06 68ba f49d 18bb eb55 213b d09a f63b
00000150: 5742 6238 6a11 7339 7a6f 51b9 8a52 21ba
00000160: a8ff ab3a 3d91 313b a40f 12bb 53fc ddbb
00000170: 0e1f be38 d107 0dba b876 68ba ce10 46bb
00000180: b7ac a33a f659 353b 8a29 eeba 556a babb
00000190: 7772 f639 731f a43a f125 bbba dd5e 8dbb
000001a0: 19a6 4eba 3020 0abb 723b 233b a388 003c
000001b0: bc25 5939 fff9 8eb9 ac35 94ba a2fa 85bb
000001c0: fdbb 423a 577f e13a 3586 e8ba d286 acbb
000001d0: 4cdb 65b9 5627 dcb9 8fb0 1cb8 9d22 88b8
000001e0: 06f4 80ba 43ff 12bb 640b 0d3b bae5 e13b
000001f0: 4fe3 9cb9 152b 38ba be8b 0bb9 ce1c 87b9
0.00011716406 -0.00029454898 -0.0005584063 -0.0021569761 -0.0001481993 -0.000401629 0.00068101095 0.0021727968
-7.850811e-05 -0.00013563452 5.0040785e-06 -4.1161732e-07 -0.0010644832 -0.0023628713 0.0009688558 0.0030754337
0.0007830977 0.0016741056 -0.0028060991 -0.009919493 -0.00032293895 -0.00060461473 -7.2405375e-05 -0.00014112267
-0.00019790833 -0.00059418817 0.000857044 0.002621442 0.0017793488 0.003509627 -0.0025631888 -0.008645564
0.0007274055 0.0016570359 -0.0014248943 -0.004349664 0.00027374408 0.0005309476 -0.00039146026 -0.0012104292
0.00012557505 0.00017939821 -7.727096e-05 -0.00015322347 0.0006853419 0.0015302052 -0.0014756848 -0.0044670664
0.00040774318 0.0010208356 -0.00094119174 -0.0029086587 -0.0006045912 -0.0011518623 0.0010018158 0.0032490802
-2.7274996e-07 -1.0714664e-06 3.7948594e-06 1.0742871e-05 0.00015323711 -0.00017512112 -0.00060581305 -0.0022707484
-5.713147e-05 -0.00012125785 2.218683e-05 5.1435018e-05 0.0008492696 0.0010872238 0.00049258483 0.0016416863
-8.351275e-06 -0.00074235705 0.00093232025 0.0027221814 0.00032335604 0.0004619741 0.00024055938 0.000822298
-0.00088510074 -0.0023287507 0.0024617861 0.0075257793 5.3944383e-05 0.00023180773 -0.00019973321 -0.0006153962
0.0013122456 0.0027094625 -0.0022287155 -0.006774464 9.0656904e-05 -0.0005379888 -0.0008867788 -0.0030222419
0.0012487386 0.002767203 -0.0018170339 -0.0056889453 0.0004700606 0.001252158 -0.0014278275 -0.004314287
-0.0007883027 -0.0021076314 0.0024907258 0.007845077 0.0002070879 -0.00027270612 -0.0011307499 -0.0040887157
0.0007428525 0.0017204088 -0.0017740192 -0.0052650953 -0.00021920836 -0.00041990977 -3.735773e-05 -6.4914326e-05
-0.000983835 -0.002242998 0.0021521682 0.0068938406 -0.00029923997 -0.00070254627 -0.00013308131 -0.00025770668

exp_avg_sq f4 [32, 4]
00000000: 7b78 3735 4516 7435 6051 5137 0e69 1a39
00000010: 4d66 2535 e647 8f35 6a0d e735 61d9 a437
00000020: 638a 9e34 93b4 c934 bb96 8535 3e48 3d37
00000030: d60c 1036 54d8 a036 eb4f 0537 db3d ba38
00000040: 6bb3 1437 1a4f a237 1b27 9536 8653 4038
00000050: f3c0 4a35 176b 8c35 4c73 2736 ba0a ee37
00000060: 6f7a 2535 ec1b b835 f88c 5b35 35c4 1637
00000070: 6635 0237 d0ac 8837 7043 1a36 ee0d b837
00000080: b0ad f335 b7f8 8236 65b6 9435 1000 3137
00000090: b5bb 2634 5210 a434 cd38 1235 aa58 d636
000000a0: 81de af33 6d11 0134 c907 8135 5f8f 4037
000000b0: 8c0a e035 78ed 6736 707e 3a35 c67a d236
000000c0: d6db 4535 8995 ce35 0a4c 2935 8b3c e636
000000d0: b67a 2535 9e55 9b35 d990 8135 db95 3937
000000e0: 8213 4232 e946 df32 c35c 1c35 cdb5 e236
000000f0: d32f 0f34 b1f2 2235 3cff fa36 9061 b738
00000100: 5f16 0b35 e027 3a35 7f5c c935 dde3 8d37
00000110: 873a 3935 67d3 8935 427f 6c36 264c 2e38
00000120: d06a 2336 60cf b036 e598 6536 2aa1 1938
00000130: 39ed 2934 2df3 9434 a77f 4935 09b2 1437
00000140: 5e74 ea36 686f 7537 d6df 2b36 0603 b937
00000150: c6b8 df33 0dbe 7834 8ebb db34 e8b1 a436
00000160: ed7b b236 2928 3937 28c3 c535 4062 2737
00000170: 6e3b 3134 6e07 2735 50bf 1a37 cbc0 e438
00000180: d250 3f36 4943 af36 3474 a035 8732 3037
00000190: 4129 d935 7d6e 6936 089f 5a35 0ed4 f636
000001a0: 8bf0 b936 f54e 4637 fe4b 8b36 198c 3438
000001b0: 11a0 9234 bef8 9035 56bc 7737 18a1 3539
000001c0: fb2a 7336 e48b ef36 d417 b636 ba31 7938
000001d0: c62f 0535 719a 3835 6012 c335 32e7 8937
000001e0: 6ebd 6c36 3a5b ef36 0b2b 8135 fb3d 0537
000001f0: fde0 c635 1218 1236 d228 0a36 0ae0 c037
6.8348135e-07 9.092949e-07 1.2476317e-05 0.0001472572 6.1616157e-07 1.0675255e-06 1.7214745e-06 1.9651548e-05
2.9530483e-07 3.7570553e-07 9.95314e-07 1.1282098e-05 2.1465144e-06 4.7935555e-06 7.946025e-06 8.8806926e-05
8.863261e-06 1.934874e-05 4.4450985e-06 4.5854154e-05 7.553164e-07 1.046198e-06 2.495205e-06 2.8376806e-05
6.1645454e-07 1.3717195e-06 8.1788994e-07 8.98638e-06 7.761037e-06 1.6292935e-05 2.2987042e-06 2.1940996e-05
1.815546e-06 3.903256e-06 1.1079943e-06 1.0550037e-05 1.5528242e-07 3.0559255e-07 5.4471894e-07 6.388019e-06
8.189546e-08 1.20204e-07 9.613515e-07 1.1477473e-05 1.669237e-06 3.4559907e-06 6.947439e-07 6.2727804e-06
7.370812e-07 1.5391716e-06 6.306806e-07 6.8615823e-06 6.164586e-07 1.1573318e-06 9.653405e-07 1.106175e-05
1.1296722e-08 2.5992863e-08 5.8249515e-07 6.7564893e-06 1.3335311e-07 6.0702865e-07 7.480294e-06 8.7442924e-05
5.181409e-07 6.9348425e-07 1.5002587e-06 1.6914617e-05 6.900304e-07 1.0268822e-06 3.5240814e-06 4.155575e-05
2.4351066e-06 5.2693504e-06 3.4212655e-06 3.662814e-05 1.5825653e-07 2.7744082e-07 7.5064094e-07 8.8629395e-06
6.9872904e-06 1.4629077e-05 2.5611275e-06 2.2055126e-05 1.0417857e-07 2.316594e-07 4.0928393e-07 4.908292e-06
5.3192402e-06 1.103621e-05 1.4734442e-06 9.976851e-06 1.650603e-07 6.222316e-07 9.223659e-06 0.00010907798
2.8508261e-06 5.2232394e-06 1.1954749e-06 1.0502182e-05 1.6179766e-06 3.4784018e-06 8.144275e-07 7.3560577e-06
5.5414325e-06 1.1820103e-05 4.1513695e-06 4.304582e-05 2.7311083e-07 1.080123e-06 1.4766198e-05 0.00017321517
3.623484e-06 7.1390405e-06 5.4267966e-06 5.9412538e-05 4.961588e-07 6.8770083e-07 1.453398e-06 1.6439331e-05
3.5277003e-06 7.133375e-06 9.623776e-07 7.941849e-06 1.481763e-06 2.1769706e-06 2.0587363e-06 2.299251e-05

exp_avg f4 [32]
00000000: a068 113b cff9 30bb c285 3939 4975 bbbb
00000010: 33d0 8bbc 6644 6c3a 3d34 5bbb a2c2 8abc
00000020: ba53 cb3a c9a8 d7b9 4ed9 19bb d46c 403b
00000030: 932b 4e3b 1e64 c83a 68f4 2cb7 a6b6 ad3a
00000040: 6168 3139 a03b dabb 15e3 27bc 7d3a 23ba
00000050: b7d7 1fbc 0bbc 0f3b 438b 603b 576c 19b9
00000060: 5423 783b c1d6 df3a b617 64bb 2dd5 b338
00000070: 4072 b7ba 1555 2c3a 36f9 2c3a fb57 643a
0.0022187606 -0.0027004366 0.00017692804 -0.0057207686 -0.01706705 0.00090128777 -0.0033447884 -0.016938511
0.0015512623 -0.0004113375 -0.002347547 0.0029361742 0.0031459078 0.0015288626 -1.0308904e-05 0.0013253286
0.0001691892 -0.00665994 -0.010247012 -0.0006226672 -0.00975602 0.002193215 0.0034262694 -0.00014631577
0.0037862854 0.0017077551 -0.0034804172 8.575092e-05 -0.0013995841 0.00065739575 0.00065984146 0.000871062

exp_avg_sq f4 [32]
00000000: d0fd cb37 9959 4c38 aaf1 6d35 8db5 0c3a
00000010: 2709 b43a 1bd7 4936 46f5 0239 7d02 a73a
00000020: 491f cb39 8590 2538 52a9 8c37 e880 b539
00000030: 97a0 2639 400c d138 151b b734 18aa 6337
00000040: df81 d735 dbc1 9137 79b6 003a 73f9 8e37
00000050: 9990 bd3a 482e e237 9ba3 a23a 2d31 8c37
00000060: 6293 383a e3b2 af39 31b0 863a 5339 d637
00000070: 53c3 3f3a 0a13 3a36 7720 2b3a 82a0 7b37
2.4317676e-05 4.8720834e-05 8.864105e-07 0.00053676293 0.0013735638 3.0076542e-06 0.00012489138 0.001274183
0.00038742487 3.947366e-05 1.6768146e-05 0.00034619053 0.00015890818 9.968178e-05 3.410611e-07 1.3569857e-05
1.6056546e-06 1.7375618e-05 0.0004910003 1.7043878e-05 0.0014462649 2.696285e-05 0.0012408377 1.67122e-05
0.0007041005 0.00033511882 0.0010275898 2.5537482e-05 0.00073151774 2.7727242e-06 0.000652797 1.4998137e-05

exp_avg f4 [32, 32]
00000000: 03cc 7b37 2acb bdba 286b c637 00fc 67ba
00000010: 7c86 bb3a f69c fb36 924c 91ba 2036 ec3a
00000020: 97d6 003b fe41 183a 5eb4 25b9 feb6 ab3a
00000030: 105d 803a f334 fdba 85b4 2136 12f4 1f37
00000040: 3406 b038 dc95 e3b9 47ea f5ba 431a 8839
00000050: b6f8 feba b92d 583a 3085 1f3b 09ae 9437
00000060: 669c c03a c7b1 103b 4620 a3ba 8dc1 9737
00000070: a422 da3a fa4e 3cb8 884f 52bb e812 73b6
00000080: ca09 43ba e43c 003a 9a9d d7b2 1cb2 cb38
00000090: 4038 82b9 d9fd 2f36 4cb5 9738 a924 d1b9
000000a0: 9b91 c8b9 b3c1 84b6 8202 2b38 14ce 96b9
000000b0: 5716 6db9 6618 9739 30c7 42b6 a9fb dcb9
000000c0: bab6 c435 a93d f839 e049 093a 315b a938
000000d0: 516c 92b7 23ad da37 1934 13ba 0d42 26ba
000000e0: 983a cbb9 7a9c dcb9 abbc 3eb7 44cb 68ba
000000f0: 5ad2 23b9 d762 0c36 099a ebb7 b8d7 1936
00000100: 3cad fa37 c9cf 7dbb b3ca 3a38 4296 dfba
00000110: af52 ca3a 62dc b437 f97a 25bb ccd3 fe3a
00000120: c347 d83a 2df1 abba 2601 20ba 0226 933a
00000130: 5603 253a 5e04 8fbb 1c64 a837 3a90 af37
00000140: 83b7 2339 3591 50bb da94 98bb 4c66 30ba
00000150: e99d 4fbb fa42 7cba 4ac3 253b 9158 0f38
00000160: 39d7 903a cab9 0e3b 9cf0 0abb fdda 2838
00000170: c076 1c3a 66d2 8db8 3bd7 b3bb 4e78 c7b7
00000180: 3fdd 5736 c0ca a137 2300 a1b7 dff3 a4b7
00000190: dc8c f737 3b91 97b7 921e 7239 b31b 38b7
000001a0: d3dd 5cb7 9742 e036 c19c 1835 fb9c aab6
000001b0: 006e e5b6 b0cf 4639 adee 0bb6 afe6 6b35
000001c0: 3f0c 91b8 6b32 9839 7802 5139 7492 fd38
000001d0: cd7b b038 4de3 e038 ebbc 83b7 cd41 5636
000001e0: d06e 29b7 ddb4 f435 7409 c538 8412 3036
000001f0: ec23 2238 3be7 8937 ef1c 7e39 7b2e 1837
00000200: 55df b039 783b 7c38 5423 3536 8577 9e39
00000210: 8da3 4aba b707 0f37 c7ed ef38 0214 6aba
00000220: 65c6 91ba eca7 5cba cf8c f5b7 1ab3 3bba
00000230: 9ed9 16ba 3955 a039 e99c c036 54f9 4939
00000240: 00ad 2437 4e1c 60ba a722 8538 fbc6 0dba
00000250: 1f84 613a 71af 8aba 68db 9fba de53 9539
00000260: 8f7c 54ba d365 9dba 285c f339 3e3c d439
00000270: 0957 a4ba caed bf36 5db8 a43a 07ab 80b6
00000280: a05d 33ba b8c3 82ba 1b87 e237 699b 64ba
00000290: 5491 bd3a 74c4 7737 6cc4 98ba 049a e63a
000002a0: 2020 053b 5ae4 653a 5f09 d1b8 7ecb aa3a
000002b0: efdd 823a 58f7 eeba 7181 9cb5 653a cbb9
000002c0: bcb5 cd38 cc27 2539 a24f c5ba 1735 ea39
000002d0: 9ddf 10bb 611b 963a aa91 1b3b a85e 17ba
000002e0: 69ef bc3a 0f01 123b 2387 b9ba 3ba5 55ba
000002f0: 78d5 fd3a b292 3fb8 b906 6fbb 3988 1bb7
00000300: 8053 7937 7027 edba 1e32 b737 2354 5fba
00000310: 7407 6f3a 0493 a136 2330 a1ba 48bf 963a
00000320: 4be3 8d3a 158d c8b9 d680 8fb9 17ce 3a3a
00000330: 3ca9 ed39 14f9 0abb 7616 0d37 a74a 2d37
00000340: b0a4 9f38 bdc4 adba 39bb 11bb 634c 53b9
00000350: a6c7 dbba da09 52b9 5d0b c73a af69 9037
00000360: c611 433a 76fd ae3a c3b7 8fba 79d2 a437
00000370: cab6 1e3a 74af 29b8 ff12 3abb 8894 72b7
00000380: 97e3 4eba 7263 0c3a a0de e4b3 f045 dc38
00000390: 1255 85b9 e3b4 3036 3ce3 9f38 7dee d6b9
000003a0: 031e cab9 4db5 bd37 47ed 4938 e568 98b9
000003b0: 5319 6cb9 8001 a439 6b5f 58b6 7915 ebb9
000003c0: 0ef8 b135 7e19 093a a95b 143a ce2f c538
000003d0: dbfe 9ab7 1b85 5b38 d1ef 16ba c428 30ba
000003e0: 47f5 ccb9 1158 e1b9 3922 4ab7 279a 76ba
000003f0: 480e 14b9 2e79 0f36 574c f9b7 343d b534
1.5008266e-05 -0.0014480103 2.3653338e-05 -0.00088495016 0.0014307047 7.4986556e-06 -0.0011085442 0.0018021502
0.0019659156 0.00058081734 -0.00015802818 0.00131008 0.000979336 -0.0019318148 2.4095946e-06 9.533966e-06
8.3934894e-05 -0.00043408468 -0.0018761837 0.00025959508 -0.0019452784 0.00082465593 0.002434086 1.7724016e-05
0.0014695048 0.002207862 -0.0012445531 1.8090732e-05 0.0016642404 -4.4896246e-05 -0.0032090861 -3.6220827e-06
-0.00074401184 0.0004891886 -2.5100963e-08 9.71297e-05 -0.00024837442 2.622479e-06 7.23401e-05 -0.000398909
-0.00038255457 -3.956456e-06 4.0771913e-05 -0.0002876377 -0.00022610404 0.00028819143 -2.9024195e-06 -0.0004214917
1.4656318e-06 0.00047348186 0.00052371435 8.075534e-05 -1.7454995e-05 2.6068248e-05 -0.0005615368 -0.000634224
-0.00038762833 -0.00042078254 -1.136881e-05 -0.00088803866 -0.00015623253 2.0919158e-06 -2.8085911e-05 2.2924341e-06
2.9882991e-05 -0.0038728586 4.4534634e-05 -0.001705833 0.0015436019 2.1560296e-05 -0.00252503 0.0019441782
0.0016500879 -0.0013118141 -0.0006103687 0.0011226537 0.00062947476 -0.0043645343 2.0073778e-05 2.0928786e-05
0.00015613255 -0.0031824831 -0.0046564164 -0.00067291106 -0.0031679815 -0.00096230174 0.0025293403 3.417634e-05
0.001105047 0.002177822 -0.0021200543 4.025827e-05 0.0005968623 -6.762594e-05 -0.005488304 -2.377867e-05
3.2166279e-06 1.9287108e-05 -1.919276e-05 -1.9663885e-05 2.9510287e-05 -1.8068231e-05 0.00023090307 -1.0973704e-05
-1.3164669e-05 6.6834723e-06 5.685252e-07 -5.0846697e-06 -6.8375375e-06 0.00018960121 -2.0851542e-06 8.788001e-07
-6.91642e-05 0.00029029264 0.00019932713 0.00012091259 8.415394e-05 0.000107234904 -1.5704389e-05 3.1926786e-06
-1.00989855e-05 1.8232055e-06 9.395453e-05 2.6236821e-06 3.8657265e-05 1.6439348e-05 0.00024234106 9.070728e-06
0.0003373573 6.0136867e-05 2.6991665e-06 0.00030225157 -0.00077300594 8.5252605e-06 0.000114406976 -0.0008929373
-0.0011121748 -0.00084173563 -2.9271845e-05 -0.0007160172 -0.00057544734 0.00030581074 5.7403126e-06 0.00019261736
9.815441e-06 -0.00085491396 6.348389e-05 -0.00054083735 0.00086027564 -0.001058085 -0.0012196125 0.0002848198
-0.0008105719 -0.0012008495 0.00046417234 0.00040480675 -0.0012538146 5.719926e-06 0.0012567152 -3.8346075e-06
-0.00068422593 -0.0009976542 2.7004213e-05 -0.00087206677 0.0014462867 1.4768088e-05 -0.0011655218 0.0017593508
0.0020313337 0.0008769684 -9.967642e-05 0.0013030616 0.0009984354 -0.0018231673 -1.1660578e-06 -0.00038762685
9.8090124e-05 0.00015750452 -0.001505364 0.00044671513 -0.002210594 0.0011452251 0.0023737946 -0.0005774298
0.0014414612 0.0022278463 -0.0014154654 -0.00081499264 0.0019365987 -4.567457e-05 -0.0036472513 -9.270437e-06
1.4860998e-05 -0.0018093418 2.1838638e-05 -0.0008519312 0.0009118237 4.815289e-06 -0.0012297671 0.0011501098
0.0010825185 -0.00038252087 -0.00027371076 0.00071260467 0.00045330252 -0.002120559 8.4094845e-06 1.0328985e-05
7.612386e-05 -0.0013257485 -0.0022236838 -0.00020150984 -0.0016767874 -0.0002003083 0.0015185882 1.721535e-05
0.0007441308 0.0013350684 -0.00109648 1.9648332e-05 0.00060544594 -4.0456143e-05 -0.002839267 -1.4458907e-05
-0.000789219 0.00053553947 -1.06575726e-07 0.00010503444 -0.0002543112 2.6331334e-06 7.6240365e-05 -0.00040994948
-0.00038550803 2.261498e-05 4.8143116e-05 -0.00029069852 -0.00022516148 0.00031281635 -3.2242049e-06 -0.0004483869
1.3259721e-06 0.0005229934 0.00056594104 9.402596e-05 -1.8476907e-05 5.2337633e-05 -0.00057577813 -0.0006719942
-0.00039092658 -0.0004298096 -1.2048106e-05 -0.0009407126 -0.000141197 2.1379196e-06 -2.9718662e-05 3.3758408e-07

exp_avg_sq f4 [32, 32]
00000000: 8826 8236 79e2 2a38 c45a df33 6d24 6936
00000010: 937d 5636 aea4 f036 94ba 9a37 d0a8 a136
00000020: e228 8c37 ac96 2c38 776b 8835 3f45 c836
00000030: 1f05 ef36 f097 4c38 adc5 a231 f02b 8d35
00000040: 5039 8336 adc4 5c38 4eb7 6d38 bb39 3c37
00000050: c49c 4137 d612 6238 d0f0 5837 d7c4 6236
00000060: e65c 0637 672c 4d37 3b80 df36 c375 9036
00000070: 2992 0c38 5c29 8336 719f 5a38 6006 0935
00000080: b5bb d036 e0f4 2035 ff99 e22e fee2 0832
00000090: 759c a936 e9df 0031 0700 2133 146a 2137
000000a0: 6203 a037 207a 7f37 f7be 3f34 b81e f436
000000b0: b03f e736 d729 c433 6ed0 4d2f 8ec3 0436
000000c0: 9c3d 0031 e43d 8b36 20e8 3934 4109 0c36
000000d0: 5ee8 0a31 f4fa 7337 79d6 bd37 2ad8 b036
000000e0: 8224 6437 80a4 8837 7934 3931 fb01 f836
000000f0: 8aaf aa37 db13 8630 ccd8 9232 12b5 1e31
00000100: bc5d f531 2e70 a138 7fbe 7d34 b68e e136
00000110: b40e 9c35 3191 7937 b85d 1438 3541 6a35
00000120: e840 3e37 07aa 8038 4eff fd35 3914 6036
00000130: 6e7e af36 d485 c138 b935 4532 807c 7531
00000140: bbff 0837 b6d1 d038 1c65 e338 e28b 9837
00000150: 6a28 cd37 ef75 a438 d7eb 4c36 724d 0032
00000160: a8fd 6836 1a95 d236 8988 6037 459c 8732
00000170: c763 2238 a8a9 0737 468c d638 7010 9d35
00000180: 505c 2530 c9d4 2334 98dc 5933 ab17 8533
00000190: b394 3531 f976 5336 f6eb df35 579c 6830
000001a0: 0f92 0431 942b cf31 e033 9a2e 0b85 8730
000001b0: cfe9 0f30 7668 1c36 1c8f e630 e7dd 8f2f
000001c0: 4dfa e735 8188 1434 386b 0436 2b9e fe32
000001d0: 1cce 5536 bedc 2e33 78d4 d530 fc28 1530
000001e0: fe89 7430 1309 7f31 0455 9c35 112a 8330
000001f0: cb39 3732 fbdf e535 fcd0 fb36 ac99 8634
00000200: 6c4e 5535 afe4 9a36 c8b3 d130 16c5 c234
00000210: bd58 4e35 b765 9134 ffef e635 b7cd c035
00000220: 5175 5a36 eb2b c336 2821 1f34 bb2d a435
00000230: 2faa a335 fc3e a636 6caa ac30 a179 9334
00000240: fc56 3134 4354 ed36 4b40 c836 5509 bb35
00000250: 101c 5135 8399 d636 03bb 5a36 283f 3335
00000260: dc42 1136 1b7e 3136 3b9b 0735 4d8e 8435
00000270: 3831 aa36 093a 2834 ad88 8a36 b9d7 7932
00000280: c5c1 1137 5daa 7a38 8191 2434 6952 a936
00000290: 2e61 ef36 cf4e 4237 a693 e137 1169 4f37
000002a0: fea3 0e38 850f 8d38 2154 d335 d2f3 5337
000002b0: 8b96 6937 beb7 9638 1037 7432 ad33 3436
000002c0: 881f d936 c01a a338 4015 ad38 626e 8f37
000002d0: 20c4 9137 0516 b238 486e fe37 00cd f936
000002e0: 8796 a137 b705 da37 4c02 2337 30d8 2b37
000002f0: 135e 7338 3e3e d536 8799 a138 4049 5335
00000300: 2fa6 1534 4f47 9637 1935 6e33 a0ec cf35
00000310: 11f8 cc34 20c7 5f36 5bae 0a37 4767 cf34
00000320: 1ac1 5a36 2dbe 7c37 880b f234 e584 8935
00000330: 74cd c435 64c6 b237 79d3 3a31 c14f 6033
00000340: 26dc f235 cf2b ca37 d843 d337 d5ad 9636
00000350: a2c3 ba36 3387 a137 eff1 9235 4d40 ff33
00000360: 0540 8c35 3565 0336 d2ce 4d36 0d31 4d34
00000370: 06b3 2737 f5d9 f335 2ee9 c437 79a2 9634
00000380: d070 0937 c9cf 8135 5a5f 202f 7861 9e32
00000390: 89ce d636 d2f4 3b31 4189 af33 de96 4a37
000003a0: 9f2c d337 73dd b037 792f 8134 fbd1 2037
000003b0: 360b 1c37 cb4c 6534 6ae0 9f2f cb61 2d36
000003c0: 3fec 3931 c4f8 d836 9fd6 d434 c948 5236
000003d0: 0c31 3931 7c18 b237 5cf2 f037 6bc0 e936
000003e0: 1dfe 8f37 eda1 b137 40d0 9b31 cd03 2337
000003f0: c5e0 e937 99e9 bd30 3164 2e33 ce34 4631
3.8787875e-06 4.0742078e-05 1.0400757e-07 3.4740908e-06 3.1961579e-06 7.1717286e-06 1.8445113e-05 4.8178263e-06
1.6708338e-05 4.114832e-05 1.0164066e-06 5.968526e-06 7.123351e-06 4.8778893e-05 4.7372937e-09 1.0518106e-06
3.9107763e-06 5.2635256e-05 5.667592e-05 1.1219115e-05 1.1540196e-05 5.390014e-05 1.2930672e-05 3.37912e-06
8.008652e-06 1.222929e-05 6.660846e-06 4.3052437e-06 3.3514723e-05 3.908919e-06 5.212374e-05 5.1045754e-07
6.220735e-06 5.9960985e-07 1.0304645e-10 7.967854e-09 5.0548065e-06 1.875373e-09 3.748576e-08 9.621046e-06
1.9075062e-05 1.5227619e-05 1.7857734e-07 7.275343e-06 6.8917507e-06 9.134572e-08 1.871869e-10 1.978336e-06
1.8661472e-09 4.149728e-06 1.7313914e-07 2.0867012e-06 2.0213728e-09 1.4542358e-05 2.2630427e-05 5.2703735e-06
1.3598359e-05 1.6289065e-05 2.695087e-09 7.3912065e-06 2.0347321e-05 9.755426e-10 1.7095225e-08 2.3094953e-09
7.141095e-09 7.697973e-05 2.3631763e-07 6.7221363e-06 1.1627185e-06 1.4875362e-05 3.5373232e-05 8.726668e-07
1.1339995e-05 6.135186e-05 1.8924272e-06 3.3390372e-06 5.2301248e-06 9.2278846e-05 1.1479124e-08 3.5722962e-09
8.165774e-06 9.9572746e-05 0.000108430366 1.818495e-05 2.4456724e-05 7.842096e-05 3.0535646e-06 7.46819e-09
3.4718341e-06 6.2758454e-06 1.338323e-05 1.5787132e-08 3.8716735e-05 8.086128e-06 0.00010230443 1.1702195e-06
6.0157834e-10 1.5257969e-07 5.072488e-08 6.1976e-08 2.6423492e-09 3.1510701e-06 1.6683468e-06 8.462328e-10
1.9291553e-09 6.029447e-09 7.012324e-11 9.860356e-10 5.235536e-10 2.3306616e-06 1.6775377e-09 2.616922e-10
1.7283688e-06 1.3833234e-07 1.9731942e-06 2.9641418e-08 3.1859445e-06 4.0713296e-08 1.5558177e-09 5.4264127e-10
8.896278e-10 3.7112542e-09 1.1647649e-06 9.54346e-10 1.06651425e-08 1.7127016e-06 7.504712e-06 2.5071256e-07
7.94628e-07 4.61618e-06 1.5257848e-09 3.6278715e-07 7.687011e-07 2.7082362e-07 1.7206183e-06 1.4364986e-06
3.2552819e-06 5.8165656e-06 1.4820091e-07 1.2232261e-06 1.2193976e-06 4.954518e-06 1.2563084e-09 2.746938e-07
1.6516054e-07 7.0729598e-06 5.967949e-06 1.3935302e-06 7.7899404e-07 6.395568e-06 3.2593387e-06 6.67746e-07
2.16456e-06 2.6448458e-06 5.051731e-07 9.876181e-07 5.0721246e-06 1.5667332e-07 4.1286316e-06 1.4542757e-08
8.687789e-06 5.9763308e-05 1.5326624e-07 5.0461863e-06 7.1340683e-06 1.158165e-05 2.6890844e-05 1.2362624e-05
3.4008168e-05 6.726295e-05 1.574521e-06 1.2633349e-05 1.3922933e-05 7.186782e-05 1.4215189e-08 2.685217e-06
6.4707747e-06 7.777428e-05 8.253241e-05 1.709833e-05 1.7376675e-05 8.491803e-05 3.0330513e-05 7.4446434e-06
1.926279e-05 2.5990286e-05 9.716092e-06 1.0242729e-05 5.8023328e-05 6.3551406e-06 7.705675e-05 7.871022e-07
1.3937164e-07 1.7914599e-05 5.5461985e-08 1.5491569e-06 3.8178453e-07 3.3345495e-06 8.266036e-06 3.86319e-07
3.2596931e-06 1.5064649e-05 4.5084403e-07 1.0245973e-06 1.4662933e-06 2.1311636e-05 2.718677e-09 5.22266e-08
1.8094477e-06 2.4100676e-05 2.5184752e-05 4.490585e-06 5.5660066e-06 1.9255653e-05 1.094826e-06 1.1886059e-07
1.0449445e-06 1.9579431e-06 3.0667766e-06 1.9109957e-07 9.995658e-06 1.8168345e-06 2.3473604e-05 2.8057892e-07
8.1921025e-06 9.671722e-07 1.4585791e-10 1.8437945e-08 6.401741e-06 2.7351246e-09 8.174039e-08 1.2075265e-05
2.5173938e-05 2.1083955e-05 2.4062663e-07 9.585633e-06 9.300935e-06 2.1355224e-07 2.9081387e-10 2.5835932e-06
2.7055334e-09 6.4662618e-06 3.9644235e-07 3.1334805e-06 2.6948923e-09 2.1230655e-05 2.8723087e-05 6.9663415e-06
1.716526e-05 2.1175447e-05 4.534769e-09 9.716442e-06 2.7880431e-05 1.3817952e-09 4.0603656e-08 2.8842808e-09

exp_avg f4 [32]
00000000: 90ca 0bbb 1abb 8b3a 5432 fdbb 9e0c d439
00000010: 012b 65ba e6fa 88ba d40c 63bb ba10 993a
00000020: f032 603a 4a27 513a 6c92 6a3a 9506 023a
00000030: 6e5d 2bbc d0b9 96bc 18f2 4139 9638 56bb
00000040: e01d 6339 e69b 773a effc 90bb 0b52 bdb6
00000050: cb83 97bb 9b4e c339 ca21 df39 b167 b0bb
00000060: 80c7 49b9 aac7 4e3a c6ef 3c3a c902 f6ba
00000070: 1074 ff39 c8a1 fdbb d4ba 643a 5559 763a
-0.0021330453 0.0010660619 -0.007726947 0.00040445192 -0.0008742065 -0.001045075 -0.0034645097 0.0011677959
0.0008552512 0.0007978572 0.000894821 0.0004960087 -0.010459287 -0.01839915 0.00018496101 -0.0032687536
0.00021659536 0.0009445533 -0.0044246833 -5.64219e-06 -0.0046238652 0.00037251864 0.0004255905 -0.0053834547
-0.00019243173 0.00078880286 0.000720736 -0.0018769141 0.00048723863 -0.007740233 0.00087253493 0.0009397467

exp_avg_sq f4 [32]
00000000: 89b0 8e39 f311 dc36 5dc2 033a 01d3 ba35
00000010: 92a4 fc37 f510 d139 6b8c f638 f723 3337
00000020: 12eb b537 b4b5 b436 f58f 9e39 b621 c535
00000030: e56f 833a 06ef 333a 4a2e 6834 4412 2639
00000040: 5014 8837 6af4 2e3a 899b b939 5658 e134
00000050: bbf3 6b39 fa7c 9035 5621 1338 f231 7839
00000060: 0a47 9837 dfac 0638 b6d6 ad36 bddc f239
00000070: 9f5b f536 a358 c639 26f9 d639 2647 c236
0.0002721588 6.5586005e-06 0.0005026216 1.391949e-06 3.0117375e-05 0.0003987622 0.00011756349 1.0677605e-05
2.1686345e-05 5.385571e-06 0.00030243365 1.4687455e-06 0.0010027854 0.00068639254 2.1623524e-07 0.00015837798
1.6221922e-05 0.0006673994 0.00035401832 4.197379e-07 0.00022502143 1.0765209e-06 3.5078578e-05 0.00023669729
1.8152892e-05 3.210909e-05 5.1807974e-06 0.000463223 7.312235e-06 0.00037831542 0.0004100289 5.7899333e-06

exp_avg f4 [1, 32]
00000000: 6e7a 463c 0bd5 c03b 8eca 233d 1f81 9f38
00000010: 23bf 1abc 453e 803c 8b21 d03c 1c54 cb3b
00000020: bd78 8db8 70c0 75b9 0f2e bfbb 84d4 0bb9
00000030: fd7e 133d 03ba c9bc e834 b838 7c8b 513c
00000040: a686 5438 dfff 9dbc f7d7 a63c da90 e3b7
00000050: 2800 9c3c 27f2 ce39 4e0b 3dbc 7df6 8dbc
00000060: d85a 903c 6ed9 dfb6 fe3d b13b 317f 9abc
00000070: 7af7 8cb9 7dcf dc3c b546 d1bc 8236 d53b
0.01211415 0.0058847717 0.039988093 7.6057615e-05 -0.009444985 0.015654692 0.02540662 0.006205095
-6.745893e-05 -0.0002343671 -0.005834348 -0.00013335241 0.036009777 -0.02462483 8.783658e-05 0.012789603
5.067014e-05 -0.019287048 0.020366652 -2.712796e-05 0.019043043 0.000394718 -0.01153834 -0.017329449
0.017621443 -6.67123e-06 0.0054090014 -0.018859478 -0.00026887265 0.026954407 -0.025546411 0.006506742

exp_avg_sq f4 [1, 32]
00000000: c3f5 333a dab8 de39 fc9b f03a 8228 4938
00000010: 51e0 a538 6102 2c3b cfc9 783a c327 173a
00000020: 2c62 ec37 4faa e638 96c3 d83a fcea 9838
00000030: 4a4c b03a b264 c238 8d6c f437 a4f2 9739
00000040: 1deb 8437 8e84 de39 a288 533a d4c0 6233
00000050: 19f8 bb39 8aec 8137 6173 573a 2eeb 6d39
00000060: 853f 313b 713a 0b39 a2c2 d939 5a41 8339
00000070: 2347 0339 fce5 f939 1fd4 6f3a 2e4a 0d3a
0.00068649295 0.00042480865 0.0018357034 4.795986e-05 7.909595e-05 0.0026246535 0.0009490521 0.0005766118
2.8179107e-05 0.00010998977 0.0016537781 7.291694e-05 0.001345047 9.269397e-05 2.9137615e-05 0.00028981746
1.584511e-05 0.000424419 0.0008069371 5.27951e-08 0.00035852267 1.5488145e-05 0.0008218792 0.00022689693
0.0027045917 0.00013277844 0.00041534478 0.00025034958 0.00012519634 0.00047664333 0.0009148735 0.0005389777
