training_results/cartpole_boltz/ppo/seed_42/10000000steps/model_latest.pt (torch, 151451 bytes, 30 tensors)

actor.pi_net.fcs.0.weight f4 [64, 4]
-0.16899979 0.53737223 1.6412766 0.4274027 -0.91666156 -0.14007412 -1.2377957 -0.32395038
0.28800046 -0.29083213 -1.6609058 -0.44783917 0.02392751 -0.29014444 1.7910795 0.11095225
0.10400021 0.30950978 1.5726022 0.37945527 0.22888619 -0.3976688 0.19913441 0.44054747
-0.08868794 0.3281979 0.17254847 -0.23861389 -0.5696487 0.19896746 -0.93390733 0.15723339
0.09757619 0.105210416 -1.44347 -0.4148236 0.7650057 0.13696454 -1.3671578 -0.037671406
-0.619253 -0.6935103 -0.9702139 -0.23809244 -0.7582709 -0.63410276 -1.5738338 0.15604731
-0.7406814 0.07628399 -1.7669661 -0.12809278 0.7350164 0.41426727 -1.386188 0.32918623
-0.8374397 -0.0055279788 -0.8669159 0.20305978 1.1794949 0.43162715 1.1659431 -0.09919957
0.8768895 0.21330635 -1.5551811 0.11027014 -0.51776224 -0.040387582 -2.1476798 0.22314116
0.12477922 0.23066652 1.7974399 0.54765254 -0.12798667 0.038170706 -1.9834472 -0.10218271
0.5425598 0.3877238 0.26290944 0.16673118 -0.22932193 -0.03609341 0.17982666 -0.08702031
-0.7548582 -0.4988688 -2.0279155 0.030636592 0.67416 -0.28196177 -1.5157263 0.05613283
-0.8523204 -0.32314858 -1.9776247 0.31585068 -0.7429921 -0.24133737 -2.0608082 -0.21824934
-0.58646333 -0.7341134 -1.3864721 -0.040139854 -0.43935737 -0.28343955 -1.6958021 -0.31520855
0.49927592 -0.015680676 1.6978201 -0.21027423 -1.0721716 -0.22301771 -1.6789708 0.33589706
0.2885006 0.5045003 -1.4949605 0.03595651 -0.087797396 0.69085896 0.6943605 0.34717113
0.07461311 -0.25504526 1.8295574 0.33984134 -0.91148525 0.29525036 1.3532548 -0.1735624
1.3706096 0.4822935 0.6301735 -0.22847791 1.0540067 0.40747568 1.5210507 -0.077059045
-0.33758527 -0.38248205 -1.6321205 -0.12212067 -0.7695135 -0.8436803 -0.40289024 -0.30929077
0.4852148 0.82522184 1.5000135 -0.49270737 -0.7443724 0.16236661 1.3783102 0.17117321
-0.041056417 0.13425307 1.9507943 0.13127667 1.1017841 0.3756828 1.6582922 -0.12747423
0.5012755 -0.47617343 -0.80143744 0.4695739 1.403305 0.7634941 0.37521416 0.39156583
0.6641857 0.7497335 1.5390632 0.13200986 -1.2748151 -0.7649573 -0.26819968 -0.1949425
0.14932875 0.024399843 0.7092373 -0.42384458 0.15642782 -0.23862572 -1.9393885 -0.18350616
-1.1425709 -0.4820752 0.0116447825 -0.0626803 -0.29973593 0.32145733 -1.0112921 0.5338198
-0.88557965 -0.2143817 -1.8810563 -0.048303973 -0.728492 -0.28679186 -0.091927044 0.22388232
-0.61528575 0.049395498 -1.933051 0.21228501 -0.30283242 -0.054094985 -2.113862 -0.2608593
-0.71197253 0.3290754 -1.9092538 -0.06434741 0.6030048 0.4210133 1.1976227 -0.025143499
-0.19100207 0.22533542 -1.9514846 -0.25884086 -1.6117432 -0.15442266 -0.588257 0.022604363
-0.25797522 0.46278664 2.0948412 0.28321025 -0.025696324 -0.38435328 -2.0201845 0.0019848484
-1.0744485 -0.5899964 -1.5130446 -0.08153493 1.1364242 0.314841 1.1658317 -0.027765458
0.61329406 -0.2479771 1.9210178 0.5741901 0.8789382 0.7451375 0.36168033 0.09385977
00000000: 480e 2dbe 3a91 093f 5a15 d23f 87d4 da3e
00000010: 55aa 6abf 976f 0fbe 1770 9ebf d3dc a5be
00000020: cc74 933e f3e7 94be 9098 d4bf 2d4b e5be
00000030: a003 c43c d08d 94be 1842 e53f ef3a e33d
00000040: 10fe d43d 1178 9e3e 074b c93f f647 c23e
00000050: 2461 6a3e 3f9b cbbe e4e9 4b3e 708f e13e
00000060: 06a2 b5bd 8e09 a83e 8cb0 303e 3357 74be
00000070: 7fd4 11bf 20be 4b3e 8d14 6fbf ca01 213e
00000080: 07d6 c73d 8f78 d73d a0c3 b8bf c263 d4be
00000090: 6ad7 433f 6f40 0c3e 07ff aebf 554d 1abd
000000a0: 5d87 1ebf e489 31bf f05f 78bf 81ce 73be
000000b0: 0b1e 42bf 8f54 22bf 6373 c9bf deca 1f3e
000000c0: 4c9d 3dbf c83a 9c3d f22b e2bf c12a 03be
000000d0: 092a 3c3f d71a d43e 9c6e b1bf 198b a83e
000000e0: 7362 56bf 0c24 b5bb 33ee 5dbf e7ee 4f3e
000000f0: b0f9 963f 3cfe dc3e a03d 953f 2529 cbbd
00000100: d57b 603f fb6c 5a3e 2d10 c7bf 50d5 e13d
00000110: 118c 04bf 736d 25bd 9673 09c0 1e7f 643e
00000120: 3f8c ff3d d833 6c3e 8312 e63f f532 0c3f
00000130: f00e 03be e358 1c3d 99e1 fdbf 2b45 d1bd
00000140: 33e5 0a3f bc83 c63e 119c 863e 94bb 2a3e
00000150: 5ed3 6abe afd6 13bd 7b24 383e b437 b2bd
00000160: 633e 41bf bb6b ffbe 5ec9 01c0 97f9 fa3c
00000170: c095 2c3f 4b5d 90be 5203 c2bf 8aeb 653d
00000180: ab31 5abf bb73 a5be ce22 fdbf 2eb7 a13e
00000190: bb34 3ebf 2521 77be 48e4 03c0 c17c 5fbe
000001a0: 7622 16bf dbee 3bbf eb77 b1bf b069 24bd
000001b0: 73f3 e0be fd1e 91be 0b10 d9bf 0463 a1be
000001c0: 18a1 ff3e c374 80bc 2b52 d93f 2152 57be
000001d0: eb3c 89bf c15e 64be 84e8 d6bf b3fa ab3e
000001e0: 5ab6 933e ef26 013f de5a bfbf 2247 133d
000001f0: 1fcf b3bd 22dc 303f 9cc1 313f 6ac0 b13e
00000200: c2ce 983d 4b95 82be f02e ea3f afff ad3e
00000210: 1957 69bf 0e2b 973e 7437 ad3f 57ba 31be
00000220: 2370 af3f 2cef f63e 0d53 213f 1df6 69be
00000230: b1e9 863f a7a0 d03e cab1 c23f 22d1 9dbd
00000240: fad7 acbe b0d4 c3be 53e9 d0bf 671a fabd
00000250: d6fe 44bf 6ffb 57bf a147 cebe 5c5b 9ebe
00000260: 136e f83e bd41 533f 7100 c03f 2444 fcbe
00000270: 318f 3ebf 6f43 263e 786c b03f 0848 2f3e
00000280: c62a 28bd a379 093e a1b3 f93f 646d 063e
00000290: 4307 8d3f 7f59 c03e eb42 d43f 9b88 02be
000002a0: 9753 003f 01cd f3be 012b 4dbf fd6b f03e
000002b0: 809f b33f 5974 433f 121c c03e 517b c83e
000002c0: 1308 2a3f 89ee 3f3f 0600 c53f 982d 073e
000002d0: 242d a3bf 3ed4 43bf 7851 89be 029f 47be
000002e0: a3e9 183e 2ee2 c73c 9390 353f 2802 d9be
000002f0: 9d2e 203e 4d5a 74be e23d f8bf 0ae9 3bbe
00000300: c33f 92bf 90d2 f6be c2c9 3e3c 875e 80bd
00000310: fd76 99be 0e96 a43e 0572 81bf 6aa8 083f
00000320: 59b5 62bf e086 5bbe 74c6 f0bf 63da 45bd
00000330: 747e 3abf 62d6 92be 3f44 bcbd 6841 653e
00000340: 5e83 1dbf ef52 4a3d 376e f7bf 3e61 593e
00000350: da0c 9bbe b492 5dbd 8449 07c0 5a8f 85be
00000360: d543 36bf 927c a83e 6e62 f4bf 93c8 83bd
00000370: 865e 1a3f 0e8f d73e b34b 993f bdf9 cdbc
00000380: 0c96 43be 54be 663e 3fca f9bf ca86 84be
00000390: 9a4d cebf f920 1ebe 0398 16bf c92c b93c
000003a0: 5415 84be 5ff2 ec3e e111 0640 ef00 913e
000003b0: 1981 d2bc f4c9 c4be b44a 01c0 3b14 023b
000003c0: 8787 89bf 010a 17bf 72ab c1bf c9fb a6bd
000003d0: 5976 913f d732 a13e f939 953f 6374 e3bc
000003e0: d700 1d3f b5ed 7dbe e9e3 f53f 1ffe 123f
000003f0: 1802 613f 55c1 3e3f 2a2e b93e 8d39 c03d

actor.pi_net.fcs.0.bias f4 [64]
0.066072404 0.1662441 0.07577772 -0.023084601 -0.0044337595 -0.14455932 0.050496858 0.030125119
0.059600037 -0.050760277 0.054993983 -0.058146924 0.13451426 -0.0970328 6.037215e-05 0.015218975
-0.05029332 0.012830079 -0.16263692 0.04285949 -0.07815072 -0.001645566 0.06374098 -0.05299643
-0.047914743 0.14851327 -0.03832168 0.10148038 0.025614163 -0.05760975 -0.0064891838 -0.02188168
-0.13514249 0.038466323 0.043888748 -0.00078516436 0.02343402 0.027285624 -0.004341427 0.05417582
0.032747753 0.033330027 -0.0070468667 -0.11087802 -0.061196025 0.07251463 0.003312666 0.040730756
0.014949762 0.02720162 0.20786205 0.028194124 0.07220694 0.13795337 0.11722736 -0.08922359
0.07852526 0.06617901 -0.09597526 0.008114327 0.031724356 -0.044664454 -0.13783808 0.005421577
00000000: f850 873d e53b 2a3e 5931 9b3d eb1b bdbc
00000010: 1249 91bb 5c07 14be cbd5 4e3d f4c8 f63c
00000020: 2b1f 743d 02ea 4fbd 5f41 613d 782b 6ebd
00000030: 1bbe 093e 22b9 c6bd 1a38 7d38 0259 793c
00000040: 5e00 4ebd 4035 523c 4b8a 26be 6f8d 2f3d
00000050: 7c0d a0bd 08b0 d7ba a28a 823d c912 59bd
00000060: 4042 44bd dd13 183e 32f7 1cbd f2d4 cf3d
00000070: cbd4 d13c 34f8 6bbd 38a3 d4bb 3541 b3bc
00000080: cb62 0abe dd8e 1d3d b0c4 333d 7dd3 4dba
00000090: b4f8 bf3c 1a86 df3c 8742 8ebb 77e7 5d3d
000000a0: 8222 063d 1185 083d 67e9 e6bb 0414 e3bd
000000b0: afa8 7abd 8d82 943d 5019 593b 4bd5 263d
000000c0: d9ef 743c efd5 de3c cad9 543e 5df7 e63c
000000d0: 3be1 933d a643 0d3e e614 f03d dcba b6bd
000000e0: dad1 a03d dc88 873d ad8e c4bd f4f1 043c
000000f0: 66f1 013d 13f2 36bd 6d25 0dbe 7ca7 b13b

actor.pi_net.fcs.1.weight f4 [64, 64]
0.0873198 0.09480251 -0.0032569214 0.08021069 -0.03248868 0.05657727 0.15530773 -0.17270389
-0.12348118 -0.01740924 0.071251474 0.027561227 0.11700486 -0.018614437 0.14168988 -0.011365215
-0.13388501 0.056558672 -0.06352144 -0.09435047 -0.096884154 -0.15389393 -0.046629246 -0.11041299
0.1450917 0.032966483 -0.0041800602 -0.036791537 0.089536026 0.039450858 0.18793721 -0.010835091
-0.120154545 -0.11294367 -0.010737978 0.016296452 -0.022945933 -0.17671922 -0.01662376 0.06327493
0.037913315 -0.004670475 0.13106805 -0.10026489 0.010313218 -0.055566832 -0.03600283 -0.059144612
-0.11741408 -0.18680944 0.07118981 0.017532377 -0.010526122 0.04440792 -0.12502116 0.07532647
0.10961535 -0.04216692 -0.14474325 -0.060045324 -0.12057723 -0.08351027 0.032289963 0.0457416
0.29500052 -0.11021861 0.10889784 -0.03759114 0.14879353 -0.41212922 0.43784484 -0.24864084
0.18131253 0.2626469 -0.16797581 -1.161639 -0.19661826 0.061460078 -0.89584583 1.2176456
0.31672484 -1.5574938 0.027489021 -0.4044014 0.025590498 0.062840655 -1.0904906 -0.153615
-1.9578264 -0.4778739 -0.7049888 -0.3801628 0.84322 -1.7161356 0.32100502 0.14587858
-0.15881822 0.06346354 1.276985 2.1595986 -0.4603755 -0.57087356 0.4077638 -0.017548619
0.44284675 2.2566803 0.062066738 0.38471982 0.8679422 -0.5773734 0.41091877 -0.28620148
-0.8146126 -0.4477017 -0.15249802 -0.62256694 -0.46757275 -0.06406165 -0.274804 0.39688182
-0.09642071 -0.95311105 0.11140042 -0.7519912 -1.2660286 1.172561 -0.0022848002 0.77493095
-0.012298501 0.06780354 -0.0649333 0.045608632 -0.15656488 0.06084085 0.047038104 -0.31864476
0.031752314 0.08768055 0.017893145 -0.044379156 -0.03907311 0.050947823 0.09625957 0.10691066
-0.01705021 0.100000985 0.07505071 -0.009901526 -0.081254095 0.1096239 0.04831082 0.00923464
-0.06309372 -0.09424157 0.031237595 0.024472987 0.058576357 0.09201106 0.060902398 -0.029072784
-0.03644057 0.0029832483 -0.06952011 -0.10779698 0.19351113 0.02309101 0.09687954 0.08330671
-0.058553077 0.052131943 0.02224147 0.089546 0.06558884 0.021067012 0.049859896 0.05375532
-0.046351258 0.19010317 -0.14781089 -0.00593061 -0.011644353 -0.0038988108 0.08596464 -0.09542487
-0.09182333 0.06481579 0.008566409 -0.08452531 -0.14335456 -0.05666132 -0.049979147 -0.13625877
-0.12928286 0.14537524 -0.041712712 -0.102085404 -0.19657971 -0.042312477 -0.10251243 0.04282761
-0.074193485 0.05475726 0.004260709 -0.033468053 -0.016779833 0.047570292 0.02868605 0.03517954
0.1260934 -0.1984882 -0.09772232 -0.2490754 0.108324 -0.04787317 0.09744085 -0.031924363
0.09262787 -0.14526337 -0.022677058 -0.06446816 -0.09670259 0.07749739 -0.16522771 -0.16674623
0.05706867 0.00023999551 -0.1206265 -0.0026787003 0.00699412 -0.07057962 0.06437836 -0.12853305
-0.077973284 -0.014221906 0.07561842 0.036233526 -0.032417547 0.019240297 0.018473692 -0.14754915
0.05184229 -0.0035841796 0.060604684 0.0044229114 0.0893243 -0.068097696 0.07616678 -0.04340511
0.05288229 -0.047900163 0.15555134 -0.21785699 -0.033958614 0.039694607 -0.07993022 0.061889756
00000000: b9d4 b23d d227 c23d 1372 55bb 8145 a43d
00000010: da12 05bd 91bd 673d fd08 1f3e 4ad9 30be
00000020: b3e3 fcbd d39d 8ebc 4bec 913d 15c8 e13c
00000030: 3ea0 ef3d 4e7d 98bc 2717 113e 2b35 3abc
00000040: 2719 09be 11aa 673d 8717 82bd d23a c1bd
00000050: 336b c6bd 5f96 1dbe 4ffe 3ebd 3520 e2bd
00000060: eb92 143e dd07 073d e3f8 88bb b9b2 16bd
00000070: aa5e b73d 3997 213d 9d72 403e aa85 31bc
00000080: 9613 f6bd 034f e7bd 58ee 2fbc 2380 853c
00000090: 1cf9 bbbc e2f5 34be 8d2e 88bc 4996 813d
000000a0: fe4a 1b3d c90a 99bb b436 063e ae57 cdbd
000000b0: c6f8 283c 0c9a 63bd b477 13bd 9f41 72bd
000000c0: cb76 f0bd f94a 3fbe f7cb 913d 0fa0 8f3c
000000d0: c175 2cbc 14e5 353d 8c05 00be c444 9a3d
000000e0: 037e e03d 38b7 2cbd 9337 14be 16f2 75bd
000000f0: 32f1 f6bd 6f07 abbd 7b42 043d 8b5b 3b3d
00000100: 4f0a 973e 4bba e1bd d505 df3d 2bf9 19bd
00000110: 555d 183e 9a02 d3be 332d e03e b49b 7ebe
00000120: fea9 393e a879 863e da01 2cbe 96b0 94bf
00000130: 4c56 49be 90bd 7b3d 2756 65bf d0db 9b3f
00000140: c229 a23e f55b c7bf a830 e13c b30d cfbe
00000150: 2aa3 d13c 9ab2 803d 3295 8bbf 404d 1dbe
00000160: 0e9a fabf e3ab f4be 257a 34bf b3a4 c2be
00000170: 44dd 573f 55aa dbbf c55a a43e 3261 153e
00000180: 3ea1 22be 2cf9 813d 3f74 a33f dd36 0a40
00000190: 56b6 ebbe c524 12bf 6bc6 d03e 1fc2 8fbc
000001a0: cfbc e23e 736d 1040 b139 7e3d fff9 c43e
000001b0: 7631 5e3f bece 13bf f263 d23e 0089 92be
000001c0: 748a 50bf 2839 e5be 7128 1cbe 8c60 1fbf
000001d0: b265 efbe c132 83bd 1cb3 8cbe 1834 cb3e
000001e0: 3978 c5bd 16ff 73bf e725 e43d 7f82 40bf
000001f0: 3a0d a2bf 7b16 963f 96bc 15bb e061 463f
00000200: a77f 49bc 95dc 8a3d c0fb 84bd 1ed0 3a3d
00000210: 8b52 20be 4134 793d 07ab 403d 6825 a3be
00000220: b70e 023d dc91 b33d a594 923c ebc6 35bd
00000230: 200b 20bd aaae 503d bd23 c53d faf3 da3d
00000240: e2ac 8bbc 51cd cc3d 30b4 993d 033a 22bc
00000250: 8c68 a6bd 7f82 e03d 91e1 453d e34c 173c
00000260: 4837 81bd b901 c1bd fce5 ff3c 937b c83c
00000270: c3ed 6f3d 4b70 bc3d cb74 793d 0c2a eebc
00000280: b542 15bd 9a82 433b 8f60 8ebd aac4 dcbd
00000290: c827 463e 5c29 bd3c c868 c63d b59c aa3d
000002a0: 5ad5 6fbd 4e88 553d be33 b63c e563 b73d
000002b0: 7153 863d ba94 ac3c e439 4c3d 8a2e 5c3d
000002c0: d1da 3dbd 68aa 423e bd5b 17be 9055 c2bb
000002d0: f5c7 3ebc 3183 7fbb 3b0e b03d 1d6e c3bd
000002e0: df0d bcbd 24be 843d 205a 0c3c 9b1b adbd
000002f0: 8acb 12be b315 68bd efb6 4cbd 6b87 0bbe
00000300: ba62 04be 3fdd 143e f3da 2abd 2712 d1bd
00000310: 314c 49be d94f 2dbd 09f2 d1bd 016c 2f3d
00000320: c1f2 97bd 2649 603d 6b9d 8b3b cc15 09bd
00000330: dc75 89bc 11d9 423d 02ff ea3c 6c18 103d
00000340: a11e 013e 7e40 4bbe a422 c8bd 9f0d 7fbe
00000350: f9d8 dd3d a816 44bd 128f c73d 1fc3 02bd
00000360: aeb3 bd3d ecbf 14be 3dc5 b9bc e207 84bd
00000370: 020c c6bd f4b6 9e3d 7431 29be 86bf 2abe
00000380: d6c0 693d 4ea7 7b39 070b f7bd 228d 2fbb
00000390: ee2e e53b 0c8c 90bd cdd8 833d 2b9e 03be
000003a0: 75b0 9fbd ff02 69bc d5dd 9a3d 9b69 143d
000003b0: 43c8 04bd d49d 9d3c 2456 973c 2017 17be
000003c0: 9558 543d 8ee4 6abb 9e3c 783d 12ee 903b
000003d0: a9ef b63d ce76 8bbd 54fd 9b3d 8ec9 31bd
000003e0: 1a9b 583d f632 44bd da48 1f3e e715 5fbe
000003f0: 3018 0bbd d096 223d 75b2 a3bd 1d80 7d3d

actor.pi_net.fcs.1.bias f4 [64]
-0.06492867 0.15727319 0.041820824 0.04722788 0.08915579 -0.04569252 -0.027344465 -0.04303574
-0.037732568 0.1356709 0.21304373 -0.029337846 -0.001529563 0.018473597 -0.23226257 -0.018379755
-0.004976121 -0.090505004 -0.18762119 0.018490318 0.021173134 0.006575559 -0.32054105 0.00994272
-0.08200674 0.08409681 -0.08386704 0.049619213 0.20867331 -0.05191656 -0.0073034917 -0.02082222
-0.03801561 -0.08643707 -0.049045816 -0.016159626 0.056581855 0.01491254 0.00859566 -0.04690351
0.002006965 0.258552 -0.0068661 0.018943304 0.027550386 -0.069425516 -0.20067884 0.053464253
-0.08858132 -0.023634052 0.048135065 -0.08839686 0.09074749 -0.2483534 0.052284367 -0.22243871
-0.03557684 0.04366905 0.22493169 -0.002208252 -0.028729673 -0.11434429 0.0009701197 0.0030636159
00000000: 53f9 84bd 390c 213e 504c 2b3d 0672 413d
00000010: 5097 b63d 1428 3bbd 8001 e0bc 3e46 30bd
00000020: 778d 1abd 50ed 0a3e 2328 5a3e ec55 f0bc
00000030: 9e7b c8ba f155 973c 3dd6 6dbe 2491 96bc
00000040: ba0e a3bb b05a b9bd c51f 40be 0279 973c
00000050: 4873 ad3c c977 d73b f51d a4be cae6 223c
00000060: 26f3 a7bd f33a ac3d 7cc2 abbd 843d 4b3d
00000070: 75ae 553e 75a6 54bd 2152 efbb 5c93 aabc
00000080: 42b6 1bbd eb05 b1bd 44e4 48bd 3161 84bc
00000090: 60c2 673d ba53 743c d0d4 0c3c e51d 40bd
000000a0: 4987 033b ee60 843e 05fd e0bb fd2e 9b3c
000000b0: 59b1 e13c f72e 8ebd c17e 4dbe 55fd 5a3d
000000c0: 206a b5bd 339c c1bc 4629 453d 6a09 b5bd
000000d0: d2d9 b93d 5b50 7ebe 2228 563d f9c6 63be
000000e0: 05b9 11bd 51de 323d 7e54 663e 52b8 10bb
000000f0: 7e5a ebbc 572d eabd a24f 7e3a f2c6 483b

actor.pi_net.fcs.2.weight f4 [1, 64]
-0.0005342381 0.32957393 -2.764363e-05 -6.621544e-05 0.0020449709 -7.769694e-05 0.00021203987 -2.0651267e-05
0.0006075742 0.05815633 0.08874651 0.00040475026 0.0001924534 -0.0067225257 0.13452695 4.7449317e-05
0.00023946218 0.13023907 -0.07929762 9.794731e-05 -2.4892115e-05 -0.10114604 0.41645905 -0.00033153183
-0.08867756 0.033201125 -0.19990198 -0.019756883 0.09556282 -1.0860078e-05 -0.00025525506 0.00010256023
-0.0003178429 -0.0006508584 0.09439339 0.059122976 0.00034663285 -0.00027198865 -0.0006624877 -0.0003010436
-0.00016406961 0.052124236 0.0005395609 8.085319e-05 -0.00018027223 -0.0002357566 -0.13583183 0.00015828208
0.00012019733 -0.0010742707 0.0001744764 -0.099185795 -4.1890864e-05 0.17310251 0.00040395927 -0.011228156
-0.00021992643 0.00022319175 0.3153703 -0.0004455003 -0.0005209269 -0.09777459 -0.00014064963 -0.00013249542
00000000: 1d0c 0cba eabd a83e 3ee4 e7b7 25dd 8ab8
00000010: eb04 063b 3af1 a2b8 0557 5e39 423c adb7
00000020: 9d45 1f3a 5535 6e3d bbc0 b53d a934 d439
00000030: 51cd 4939 a248 dcbb 6fc1 093e 5104 4738
00000040: 2418 7b39 645d 053e ca66 a2bd 1069 cd38
00000050: 69cf d0b7 a825 cfbd 1f3a d53e 73d1 adb9
00000060: 959c b5bd e7fd 073d 1bb3 4cbe 30d9 a1bc
00000070: 71b6 c33d ae33 36b7 c1d3 85b9 9b15 d738
00000080: 27a4 a6b9 5e9e 2aba 5251 c13d ef2a 723d
00000090: 46bc b539 b399 8eb9 ccaa 2dba 63d5 9db9
000000a0: 1a0a 2cb9 3980 553d 5271 0d3a ba8f a938
000000b0: 7507 3db9 6e35 77b9 8017 0bbe 86f8 2539
000000c0: 7312 fc38 8bce 8cba a7f3 3639 ec21 cbbd
000000d0: f9b3 2fb8 c941 313e 7fca d339 4df6 37bc
000000e0: 0d9c 66b9 9408 6a39 3778 a13e 0a92 e9b9
000000f0: d08e 08ba 0b3e c8bd 597b 13b9 78ee 0ab9

critic.v_net.fcs.0.weight f4 [64, 4]
17.487452 0.12225595 8.029618 -0.039063286 9.702659 -5.774861 7.135672 -4.3366566
-12.464739 -5.386233 -10.965369 -4.098673 16.817453 1.7306753 9.553066 1.2165434
-9.998938 -7.2264576 8.288299 -5.365348 -1.8625358 0.35867834 -10.735815 1.7857985
0.119577385 4.4929776 13.332376 5.0855827 -1.2124792 4.868697 9.485236 3.486824
3.0065012 2.1982007 -9.541781 3.8068173 -3.1581776 -1.2134006 18.94655 2.3968177
-0.35731864 -5.9659653 -4.1971607 -4.7610207 6.6335826 5.8210363 10.672718 3.5484068
-1.4810592 -9.1817875 -17.766016 -7.5975857 -21.815699 -2.4870002 -2.5714066 -1.9406433
2.5972345 -2.882673 17.555426 1.7705042 -9.450114 4.0437737 -10.767254 4.8952646
1.6113046 -2.7398145 2.05422 -2.5049896 2.4523158 1.8638895 -1.752782 0.291744
-9.16148 -3.852785 0.20565122 -1.9035336 19.310629 1.9599416 16.52136 -1.3842491
-13.666534 2.9160933 4.5248184 -0.78222847 -1.0737101 -2.2692695 -1.883947 -1.7182096
-2.87874 -3.6492887 -10.400551 -3.2050161 3.7467372 8.914482 7.716639 5.255541
6.596529 -6.1833067 8.145023 -3.1637335 19.388288 -1.1100072 14.30198 -1.3096557
1.2871346 -3.1453102 -3.09306 -3.3208086 6.171161 2.131713 16.437025 -4.8203273
4.1404805 -5.3519926 1.2740182 -3.0022297 0.7046827 4.696486 -9.844835 -0.66347957
-6.911151 -4.222989 -11.616001 0.5828032 -14.543652 -1.5584128 5.65048 -0.060287587
-4.250801 -5.299434 -7.897984 -2.7605512 3.817671 2.0452623 -1.7148801 1.0454952
-12.92899 3.419162 3.003286 -2.080109 -5.6831226 2.143939 -6.0269866 -2.2208796
-13.712784 0.6846566 -25.778942 0.68894273 -13.857882 0.8365959 -7.4857655 -7.837457
-1.83075 1.410336 10.179886 0.27236325 4.989916 0.83034587 -10.95578 3.5248375
-14.851032 3.3097947 13.929453 2.6857855 2.3101537 2.7561462 6.529881 0.30467498
7.9352555 0.45479095 6.8993587 4.398664 10.030397 -0.2234797 -0.63499236 0.7576113
-1.5574647 -3.931579 -0.9291283 -2.4688175 5.038361 0.52534455 -16.185614 2.6256638
-3.675788 -5.106191 -7.7972984 -2.5218084 2.2671561 4.0912085 7.7359757 2.2229326
2.7504766 4.407515 5.919481 3.1848629 10.134115 0.96813864 -6.640964 2.2737641
-4.008671 -2.7787008 -5.945328 -2.547588 6.1769886 5.4809074 1.2486268 2.0973096
3.4786673 4.1480045 5.2952228 2.3960326 -3.4852474 -3.608175 -11.404753 -2.935196
4.404629 -1.0548108 39.10899 -1.3037705 4.1843753 4.616401 9.16073 2.1599743
9.61286 1.101194 9.085209 1.3518853 1.9376622 4.22187 10.04896 3.307072
11.086561 0.8496203 -2.8758411 1.4983283 10.601549 2.127181 0.15108533 2.1634958
5.268336 4.6104126 0.14498845 5.2744007 -12.359039 -2.105747 -15.929692 -1.5413393
-4.175603 -3.5813527 11.541899 -6.8140774 8.21959 1.2585485 -11.217375 -1.3591254
00000000: 4de6 8b41 5461 fa3d 5179 0041 d300 20bd
00000010: 173e 1b41 a9cb b8c0 6d57 e440 e4c5 8ac0
00000020: 926f 47c1 055c acc0 2772 2fc1 5428 83c0
00000030: 258a 8641 c586 dd3f 5cd9 1841 b2b7 9b3f
00000040: a6fb 1fc1 243f e7c0 df9c 0441 eeb0 abc0
00000050: 9367 eebf b0a4 b73e e6c5 2bc1 0c95 e43f
00000060: fde4 f43d 79c6 8f40 6951 5541 18bd a240
00000070: 8532 9bbf 5ecc 9b40 87c3 1741 2028 5f40
00000080: 846a 4040 52af 0c40 23ab 18c1 e5a2 7340
00000090: 951f 4ac0 b650 9bbf 8992 9741 7665 1940
000000a0: 78f2 b6be 30e9 bec0 244f 86c0 485a 98c0
000000b0: 4f46 d440 ee45 ba40 74c3 2a41 1919 6340
000000c0: 5993 bdbf 9ae8 12c1 cd20 8ec1 6c1f f3c0
000000d0: 8d86 aec1 032b 1fc0 ed91 24c0 0067 f8bf
000000e0: 1739 2640 b77d 38c0 8371 8c41 e29f e23f
000000f0: ab33 17c1 9866 8140 ac46 2cc1 02a6 9c40
00000100: 3b3f ce3f 1f59 2fc0 5778 0340 c051 20c0
00000110: bef2 1c40 ee93 ee3f 295b e0bf 785f 953e
00000120: 6c95 12c1 0894 76c0 3c96 523e fda6 f3bf
00000130: 2b7c 9a41 5edf fa3f bf2b 8441 132f b1bf
00000140: 20aa 5ac1 46a1 3a40 50cb 9040 2040 48bf
00000150: 556f 89bf b63b 11c0 2d25 f1bf 4bee dbbf
00000160: 473d 38c0 f28d 69c0 a868 26c1 fc1e 4dc0
00000170: 8bca 6f40 b8a1 0e41 b5ee f640 642d a840
00000180: c416 d340 a6dd c5c0 0452 0241 9c7a 4ac0
00000190: 371b 9b41 b714 8ebf e9d4 6441 cca2 a7bf
000001a0: d4c0 a43f c34c 49c0 b2f4 45c0 2188 54c0
000001b0: 277a c540 fc6d 0840 077f 8341 1f40 9ac0
000001c0: d17e 8440 8643 abc0 0713 a33f 8824 40c0
000001d0: 1666 343f 9d49 9640 7284 1dc1 ccd9 29bf
000001e0: 2628 ddc0 ba22 87c0 24db 39c1 9732 153f
000001f0: ccb2 68c1 127a c7bf bbd0 b440 1ef0 76bd
00000200: 9006 88c0 f794 a9c0 49bc fcc0 dfac 30c0
00000210: b954 7440 94e5 0240 3181 dbbf c9d2 853f
00000220: 25dd 4ec1 8dd3 5a40 d635 4040 8120 05c0
00000230: 24dc b5c0 4c36 0940 13dd c0c0 e422 0ec0
00000240: 9067 5bc1 a845 2f3f 463b cec1 8d5e 303f
00000250: e2b9 5dc1 262b 563f 648b efc0 73cc fac0
00000260: 0456 eabf e485 b43f d0e0 2241 3273 8b3e
00000270: 64ad 9f40 8c91 543f e04a 2fc1 f096 6140
00000280: d49d 6dc1 add3 5340 0adf 5e41 e9e3 2b40
00000290: 8fd9 1340 b364 3040 c9f4 d040 5cfe 9b3e
000002a0: 9ded fd40 5cda e83e 8cc7 dc40 dbc1 8c40
000002b0: 827c 2041 ddd7 64be dc8e 22bf d0f2 413f
000002c0: 015b c7bf fe9e 7bc0 5adb 6dbf 1b01 1ec0
000002d0: 413a a140 fb7c 063f 237c 81c1 e00a 2840
000002e0: 1c40 6bc0 eb65 a3c0 7883 f9c0 4f65 21c0
000002f0: 1619 1140 2eeb 8240 1d8d f740 8744 0e40
00000300: cf07 3040 5d0a 8d40 636c bd40 cbd4 4b40
00000310: 5625 2241 efd7 773f c782 d4c0 5a85 1140
00000320: 0847 80c0 3cd6 31c0 2140 bec0 af0b 23c0
00000330: e4a9 c540 9863 af40 01d3 9f3f 523a 0640
00000340: 7ca2 5e40 74bc 8440 7772 a940 9958 1940
00000350: 4b0e 5fc0 57ec 66c0 de79 36c1 40da 3bc0
00000360: b9f2 8c40 0a04 87bf 9b6f 1c42 f4e1 a6bf
00000370: 67e6 8540 8fb9 9340 5a92 1241 053d 0a40
00000380: 46ce 1941 edf3 8c3f 045d 1141 940a ad3f
00000390: 5105 f83f 8f19 8740 8ac8 2041 11a7 5340
000003a0: 8e62 3141 b780 593f c80d 38c0 39c9 bf3f
000003b0: f29f 2941 bc23 0840 1db6 1a3e b776 0a40
000003c0: 3596 a840 8088 9340 da77 143e e4c7 a840
000003d0: a0be 45c1 8fc4 06c0 05e0 7ec1 9b4a c5bf
000003e0: 8a9e 85c0 e234 65c0 9eab 3841 ec0c dac0
000003f0: 7183 0341 1e18 a13f 5e7a 33c1 d2f7 adbf

critic.v_net.fcs.0.bias f4 [64]
0.5387977 -0.94720244 -0.8477265 0.3755161 -0.7994085 -0.56315404 0.065551214 1.4381174
0.10241633 -3.0517776 -0.6732579 3.1019223 -0.82600105 0.6335983 0.7933205 0.29976344
-1.9785472 -1.6341286 -0.72041255 0.4804656 0.6166089 -1.0677304 -2.5221732 -0.7648091
-0.39992264 0.7156277 -2.0255308 -0.0915539 0.40138024 1.5751842 -0.14344715 -1.5651773
-2.3293667 0.95056814 -0.25079462 -0.48507145 -0.5266492 -0.7662507 -0.20675087 -0.6885429
-0.687657 1.8538527 -0.6104378 1.2848737 -2.09044 -1.3246169 -3.0394225 2.8732111
2.8188882 0.88677657 -2.6769314 1.1949251 1.6651273 -1.6442147 0.7270008 1.872211
1.7891238 -2.0733526 1.4542156 0.98122406 0.84862405 -0.13578904 -0.19047792 -0.7314634
00000000: a5ee 093f dc7b 72bf 9b04 59bf a543 c03e
00000010: 09a6 4cbf dd2a 10bf b73f 863d 3b14 b83f
00000020: a7bf d13d 5350 43c0 a15a 2cbf e585 4640
00000030: ce74 53bf 8033 223f 0d17 4b3f 987a 993e
00000040: 0941 fdbf 202b d1bf f56c 38bf 96ff f53e
00000050: 15da 1d3f 64ab 88bf 496b 21c0 87ca 43bf
00000060: a9c2 ccbe 6033 373f 4ca2 01c0 9c80 bbbd
00000070: b681 cd3e a39f c93f cfe3 12be bb57 c8bf
00000080: 5814 15c0 6f58 733f 2768 80be 495b f8be
00000090: 7bd2 06bf 0229 44bf 80b6 53be 5944 30bf
000000a0: 4a0a 30bf 0c4b ed3f a745 1cbf be76 a43f
000000b0: c5c9 05c0 0c8d a9bf e685 42c0 b1e2 3740
000000c0: aa68 3440 ca03 633f d852 2bc0 4ef3 983f
000000d0: e422 d53f a175 d2bf b91c 3a3f 9ca4 ef3f
000000e0: 0202 e53f cfb1 04c0 bd23 ba3f 8031 7b3f
000000f0: 6d3f 593f 480c 0bbe a50c 43be 2f41 3bbf

critic.v_net.fcs.1.weight f4 [64, 64]
-2.0607727 1.963344 0.43001822 0.07579606 -1.6875671 -0.66952354 -0.30993423 -0.0057845027
-0.42035937 -0.6060594 -1.2896625 -0.7224138 0.4864653 1.1669017 2.376736 -0.9364214
0.81691635 0.47752637 -0.21043791 2.3214405 1.7936437 1.1874804 -0.9509621 -1.6838844
-1.827982 0.86136484 -1.6395909 0.091533385 -1.8012197 1.8008494 -1.9100049 0.022805743
-0.16778731 -1.336784 0.07318379 -1.279746 -1.9423187 0.6064489 2.3749282 0.5408685
-0.4330958 1.1741636 0.38959703 -0.14848194 -0.99258864 0.19195542 0.015252253 -0.320994
0.48133156 -0.6400644 -0.47117087 0.17620328 -0.67506945 0.2142221 1.1788242 0.6737169
-1.8039347 -0.8836947 0.05775863 -0.19916174 -0.3836023 0.31557357 1.5680916 -2.8645124
-1.387447 1.5293726 3.653267 -0.057977486 -0.8130221 0.3166757 -1.077481 -0.8854494
1.3207139 -0.3409115 0.5161756 -1.1631596 3.004005 2.5089579 0.564711 0.97036356
-1.3241911 0.25837266 1.435981 -0.38378653 -0.3062187 1.2586979 2.9679284 0.5535867
2.5701473 -2.0946593 -0.9578103 -1.8577878 -2.6861782 -0.75021017 1.1747804 1.5864134
0.6140526 0.436413 -0.45820644 0.045172952 2.48727 1.1228797 -0.021042088 -0.9343419
-0.13976602 -0.9073269 0.2679827 -0.15036082 -0.20894632 0.117881946 -0.84451634 0.9305393
0.24727616 1.500214 1.6385318 -0.7186867 -0.61460775 -0.29939488 -1.2701008 -0.54298866
-1.1769931 -0.60459155 1.7571175 -0.7198974 -2.0043795 3.566066 0.6104524 -1.7124505
-2.3225307 -1.5735483 -0.8177553 -2.1993525 0.25864568 0.35102367 -0.9190728 -1.096542
0.36912334 2.1109533 -0.85522795 -0.76935893 -0.94230705 3.8142767 0.5736915 -0.3049108
-2.8116572 3.404215 -0.21431038 -0.48312086 0.42813787 -3.088493 0.27223945 -2.2840545
-1.0054532 -0.8926312 0.39974993 0.72082245 -1.7319304 0.16576484 1.351428 0.24082889
-1.6639779 2.8416169 -1.2862904 0.517275 1.9588599 -0.046229903 0.54434973 -0.6448516
1.7490155 -0.91309685 -0.28478652 -0.65615904 -3.4292176 1.5202925 -1.5372301 1.0684035
0.33551648 0.8155942 -0.9236977 0.4358913 0.959589 -1.0155163 0.5035048 -1.9840914
-1.2644887 3.8879626 -0.050247423 -0.14700067 -1.9527061 4.755328 -0.27475902 -0.8587069
2.9798057 -2.5733068 -1.4388125 1.6920713 1.1416421 -1.4421458 -1.0019902 0.10986367
-1.6490583 1.4288719 1.9244521 0.22087438 -0.027874403 -0.9530928 0.3047214 -0.6986606
-0.7637877 1.5446215 -1.4619502 1.4949855 -1.0037634 -0.37327743 0.52836895 2.1825483
0.29903203 0.77239555 -3.034465 0.9643445 1.6791193 -1.3410691 -0.021007983 0.36201605
1.231367 -2.725532 0.6175172 0.87069577 -1.4735271 0.11967171 1.6340835 0.48759148
-0.8089855 2.377689 2.1083312 1.1432514 -2.2354515 1.8788166 0.8201319 -1.8883147
0.9546853 1.0853772 0.37004447 0.73533684 0.7700462 -0.49303025 -0.93559563 0.44001177
0.7691308 2.9722426 -0.844062 -0.39984146 1.1793776 -2.7097738 0.08233689 0.5287366
00000000: b3e3 03c0 db4e fb3f 592b dc3e f73a 9b3d
00000010: 3302 d8bf e565 2bbf b3af 9ebe ed8b bdbb
00000020: 5839 d7be b526 1bbf a913 a5bf 1cf0 38bf
00000030: fb11 f93e 095d 953f 711c 1840 50b9 6fbf
00000040: 6e21 513f 567e f43e 097d 57be 7b92 1440
00000050: 1e96 e53f 5cff 973f 4172 73bf 8689 d7bf
00000060: 50fb e9bf 6882 5c3f 1dde d1bf db75 bb3d
00000070: 5e8e e6bf 3c82 e63f 0a7b f4bf 1cd3 ba3c
00000080: 70d0 2bbe bd1b abbf 62e1 953d b8ce a3bf
00000090: e69d f8bf 3c40 1b3f d3fe 1740 5c76 0a3f
000000a0: bcbe ddbe fe4a 963f 4379 c73e a60b 18be
000000b0: 4a1a 7ebf f68f 443e 96e4 793c 5359 a4be
000000c0: 1771 f63e 43db 23bf 4f3d f1be a26e 343e
000000d0: 5ad1 2cbf 0a5d 5b3e b6e3 963f b678 2c3f
000000e0: 55e7 e6bf d139 62bf 5094 6c3d 0ef1 4bbe
000000f0: 8567 c4be dc92 a13e 3ab7 c83f 2c54 37c0
00000100: dd97 b1bf 7bc2 c33f 20cf 6940 cd79 6dbd
00000110: 3722 50bf 5123 a23e e6ea 89bf d0ac 62bf
00000120: 270d a93f f48b aebe 1624 043f 6ae2 94bf
00000130: 9e41 4040 c492 2040 e690 103f bf69 783f
00000140: 187f a9bf 6c49 843e 3ace b73f ab7f c4be
00000150: b3c8 9cbe 031d a13f 8af2 3d40 dcb7 0d3f
00000160: 4b7d 2440 e60e 06c0 0e33 75bf fecb edbf
00000170: 58ea 2bc0 c60d 40bf 345f 963f 980f cb3f
00000180: 8d32 1d3f 8671 df3e 099a eabe 4607 393d
00000190: 6f2f 1f40 86ba 8f3f 7560 acbc 0831 6fbf
000001a0: d31e 0fbe 9346 68bf 0735 893e 30f8 19be
000001b0: 06f6 55be 176c f13d 3932 58bf d337 6e3f
000001c0: f635 7d3e 0307 c03f 69bb d13f dafb 37bf
000001d0: ef56 1dbf 494a 99be aa92 a2bf 4e01 0bbf
000001e0: b6a7 96bf 83c6 1abf 3ae9 e03f 324b 38bf
000001f0: c147 00c0 6d3a 6440 9c46 1c3f 9431 dbbf
00000200: 58a4 14c0 086a c9bf 6958 51bf 31c2 0cc0
00000210: 356d 843e 60b9 b33e 5b48 6bbf 7d5b 8cbf
00000220: bcfd bc3e dc19 0740 38f0 5abf b5f4 44bf
00000230: 093b 71bf 1c1d 7440 72dd 123f 451d 9cbe
00000240: 31f2 33c0 a9de 5940 2e74 5bbe 9e5b f7be
00000250: e334 db3e dfa9 45c0 f862 8b3e f32d 12c0
00000260: b1b2 80bf 7a83 64bf 06ac cc3e d287 383f
00000270: e5af ddbf 42be 293e 98fb ac3f d99b 763e
00000280: 3afd d4bf 0ddd 3540 2aa5 a4bf 226c 043f
00000290: ecbb fa3f 915b 3dbd 815a 0b3f ff14 25bf
000002a0: bddf df3f b7c0 69bf 8acf 91be 0afa 27bf
000002b0: 4d78 5bc0 f298 c23f f5c3 c4bf 72c1 883f
000002c0: d1c8 ab3e c8ca 503f 7477 6cbf 252d df3e
000002d0: a0a7 753f 70fc 81bf b1e5 003f b5f6 fdbf
000002e0: c4da a1bf 61d4 7840 3ed0 4dbd 5887 16be
000002f0: 46f2 f9bf a62b 9840 37ad 8cbe 37d4 5bbf
00000300: 23b5 3e40 0fb1 24c0 022b b8bf cb95 d83f
00000310: 5421 923f 3c98 b8bf 3741 80bf 3400 e13d
00000320: 5814 d3bf 46e5 b63f 7254 f63f e52c 623e
00000330: dc58 e4bc e4fd 73bf 7104 9c3e 6cdb 32bf
00000340: 9787 43bf 28b6 c53f 2f21 bbbf af5b bf3f
00000350: 527b 80bf 381e bfbe 3043 073f dfae 0b40
00000360: ba1a 993e b7bb 453f ad34 42c0 48df 763f
00000370: 62ed d63f 27a8 abbf ef18 acbc 2b5a b93e
00000380: 6f9d 9d3f 1e6f 2ec0 9b15 1e3f ebe5 5e3f
00000390: 899c bcbf 7116 f53d a629 d13f 97a5 f93e
000003a0: ac19 4fbf 0e2c 1840 e6ee 0640 1056 923f
000003b0: a311 0fc0 107d f03f 2af4 513f 4cb4 f1bf
000003c0: 4166 743f a4ed 8a3f 7876 bd3e 093f 3c3f
000003d0: bf21 453f 766e fcbe 3283 6fbf 3949 e13e
000003e0: c2e5 443f 3939 3e40 7214 58bf 05b8 ccbe
000003f0: d8f5 963f ef6c 2dc0 3ea0 a83d 485b 073f

critic.v_net.fcs.1.bias f4 [64]
-1.2874036 0.14822794 0.21328294 -1.498244 -1.0000243 0.96478665 1.409033 -0.46325678
1.6910578 -0.64757895 -0.94639325 -2.2308664 2.7618387 -0.08867182 0.755249 3.3371546
1.3977545 1.1337997 -0.21316585 -1.3117602 1.7308512 0.65648717 3.2703407 -1.467369
-0.64647985 1.5295284 1.5995089 -0.47154883 -0.6261063 -0.38378584 1.0848068 -1.4429989
-0.23040156 -0.3556895 -1.0432373 0.27482307 0.7061996 -0.8213728 0.29399016 -3.1313143
1.3951101 -1.3629522 -0.41567698 0.5707286 -1.3461488 0.1027718 1.4214193 2.073393
1.0042428 -0.7257012 1.4329687 0.93717843 -0.81602764 -0.25640792 -0.84894985 -0.8042982
-0.6151031 0.75308144 -0.24395324 -0.37762207 0.5819564 -0.8470134 -0.7590734 0.34808993
00000000: a4c9 a4bf 11c9 173e d866 5a3e 76c6 bfbf
00000010: cc00 80bf 42fc 763f 315b b43f fe2f edbe
00000020: 9574 d83f bcc7 25bf d446 72bf 84c6 0ec0
00000030: f7c1 3040 9299 b5bd 0058 413f f193 5540
00000040: 9fe9 b23f 5920 913f 2648 5abe c2e7 a7bf
00000050: 888c dd3f 8b0f 283f 434d 5140 bfd2 bbbf
00000060: b47f 25bf 96c7 c33f b5bc cc3f d96e f1be
00000070: 8148 20bf 947f c4be f3da 8a3f 30b4 b8bf
00000080: 63ee 6bbe ef1c b6be cd88 85bf 9cb5 8c3e
00000090: 7fc9 343f 7d45 52bf e185 963e 7467 48c0
000000a0: f892 b23f 3875 aebf 9dd3 d4be 451b 123f
000000b0: 9b4e acbf 057a d23d 11f1 b53f 79b2 0440
000000c0: 078b 803f 8ec7 39bf 856b b73f edea 6f3f
000000d0: 30e7 50bf e647 83be c754 59bf 7de6 4dbf
000000e0: 6677 1dbf f2c9 403f e1ce 79be ae57 c1be
000000f0: 18fb 143f dfd5 58bf a252 42bf d838 b23e

critic.v_net.fcs.2.weight f4 [1, 64]
4.1661186 5.0971394 -3.353787 -5.0352025 6.6977367 14.037479 -4.9824796 -5.455806
1.5904387 5.3957305 4.2703304 4.5452304 3.370527 4.4746923 -1.9612916 -7.0234275
-9.825201 2.1268005 -4.0191402 5.307188 -3.5269463 -6.9047866 -3.7976882 -7.387618
5.9089217 -4.445435 -4.641619 4.4954476 3.8069644 -5.6260595 6.407225 2.5391905
2.0448563 -10.502538 -3.7448242 -19.630783 6.241871 -4.31133 6.694382 5.7399645
4.677766 -4.478661 3.6686282 -1.345252 4.163804 5.064972 -3.9856646 3.4474463
-5.176698 -3.8232012 0.93664694 1.5945717 -4.4126773 11.176165 -5.739237 2.4352133
5.5995526 -5.521264 -4.2190833 5.7042155 -2.4228623 6.6238527 4.1365447 5.7739387
00000000: d850 8540 c41b a340 72a4 56c0 6120 a1c0
00000010: dc53 d640 8499 6041 7970 9fc0 f695 aec0
00000020: 7f93 cb3f d3a9 ac40 8ca6 8840 8772 9140
00000030: b7b6 5740 ae30 8f40 9a0b fbbf ebbf e0c0
00000040: 0634 1dc1 801d 0840 cc9c 80c0 7cd4 a940
00000050: 7db9 61c0 03f4 dcc0 530d 73c0 5e67 ecc0
00000060: e315 bd40 0141 8ec0 2588 94c0 b5da 8f40
00000070: 4ea5 7340 ae08 b4c0 fd07 cd40 1982 2240
00000080: edde 0240 650a 28c1 33ab 6fc0 d80b 9dc1
00000090: 68bd c740 6af6 89c0 6138 d640 caad b740
000000a0: 42b0 9540 3151 8fc0 ceca 6a40 3831 acbf
000000b0: e23d 8540 4014 a240 2115 7fc0 f6a2 5c40
000000c0: 83a7 a5c0 54af 74c0 18c8 6f3f ed1a cc3f
000000d0: a734 8dc0 92d1 3241 d4a7 b7c0 89da 1b40
000000e0: 892f b340 32ae b0c0 bb02 87c0 ef88 b640
000000f0: 2d10 1bc0 9af6 d340 935e 8440 1bc4 b840

exp_avg f4 [64, 4]
-0.07254959 -0.07443382 0.020263284 0.048452042 -0.45359358 -0.9465756 0.09218751 0.98219603
-0.1299019 -0.31593832 0.01989675 0.32921776 0.3491966 0.8697927 -0.047365576 -0.92155945
-0.040846456 -0.007143795 0.014122328 -0.008092799 0.11945967 0.23639354 -0.022347711 -0.21509479
-0.070172936 -0.1355519 0.01235519 0.11563789 -0.12621824 -0.27947575 0.026179146 0.289601
-0.12372056 -0.30027586 0.017366555 0.3028778 0.0020984537 -0.06550413 -0.018087285 0.0766009
-0.10465403 -0.21853194 0.024805604 0.23471026 -0.07678462 -0.2400292 0.015079539 0.30989808
-0.59626436 -1.2754602 0.11360123 1.3324894 0.07293985 0.100622036 -0.02616887 -0.09003445
-0.07693576 -0.19175778 0.01744985 0.22885144 0.046966173 0.15864666 -0.01369156 -0.21732494
-0.08531506 -0.2636597 -0.0052986485 0.2901569 -0.62098277 -1.5227842 0.103776194 1.6994691
0.2582043 0.57485574 -0.04559952 -0.5945813 -0.74097544 -1.7522098 0.11935277 1.8836645
0.17548113 0.34927925 -0.040453438 -0.36969957 0.002711129 -0.007631502 -0.00081794854 0.003942672
-0.42082164 -0.9636289 0.08114885 1.0663186 0.076614775 0.10681463 -0.023208007 -0.074726306
-0.19614351 -0.5796604 0.030561699 0.69707525 -0.7516972 -1.6437911 0.14293508 1.7457066
-0.0090400195 -0.059028238 0.0020573572 0.09436 -0.55971545 -1.2380642 0.10679721 1.3160418
0.08703467 0.27479902 -0.010500042 -0.33161497 -0.09722925 -0.328174 0.017023342 0.4215036
-0.1733604 -0.45195162 0.0140701635 0.4685085 -0.045498956 -0.07144362 0.009840732 0.058751956
0.27769747 0.6271473 -0.04625037 -0.63751394 -0.06832866 -0.12642561 0.017717097 0.10406274
-0.00033433028 0.042102113 -0.0061377953 -0.09443919 0.17607899 0.50280285 -0.036935143 -0.6267094
-0.010038032 -0.0605798 0.00018370866 0.08530101 0.02335918 0.024975048 -0.0013693487 -0.00085615297
0.05005353 0.11187534 -0.013616415 -0.14614698 -0.11483569 -0.18590294 0.029900182 0.17559934
0.117957145 0.37290668 -0.009185203 -0.43030792 0.119026884 0.40633163 -0.021930877 -0.529073
-0.037789352 -0.04926449 0.011533895 0.05936136 0.18980443 0.39084876 -0.045553144 -0.4111744
0.2746733 0.60313016 -0.059502978 -0.66861767 -0.1254431 -0.25279662 0.033747625 0.27978504
0.033134002 0.046649303 -0.010577156 -0.06526463 -0.41919816 -1.0109481 0.06720552 1.11539
-0.052694272 -0.12113818 0.015933022 0.14665098 -0.16154881 -0.29276356 0.03814144 0.31846723
-0.3837248 -0.7966817 0.077401675 0.8440998 -0.061708912 -0.11465893 0.018196657 0.13850395
-0.5717128 -1.2290779 0.11077985 1.3081832 -0.5471577 -1.2233703 0.096803546 1.2862145
-0.5002478 -1.1116471 0.09075066 1.1680149 0.29190785 0.59782386 -0.06524488 -0.6457132
-0.3686298 -0.8796571 0.0573573 0.92335737 -0.17786177 -0.4073105 0.04362277 0.45321995
0.38775522 0.88118976 -0.06720839 -0.9520015 -0.48387638 -1.1781553 0.07944251 1.3284297
-0.22490151 -0.55632687 0.047208436 0.63544434 0.2275786 0.53073245 -0.052512355 -0.60195607
0.3628131 0.85033303 -0.059770755 -0.87906784 -0.0049626087 0.017416235 -0.005349963 -0.057195913
00000000: e194 94bd c270 98bd 30ff a53c a675 463d
00000010: 6b3d e8be c752 72bf cecc bc3d 3371 7b3f
00000020: 0105 05be abc2 a1be 82fe a23c 3b8f a83e
00000030: e6c9 b23e bcaa 5e3f 6802 42bd 52eb 6bbf
00000040: 9d4e 27bd 7f16 eabb 5661 673c a997 04bc
00000050: 45a7 f43d 2611 723e 8c12 b7bc cf41 5cbe
00000060: d4b6 8fbd 1ece 0abe 6c6d 4a3c 8fd3 ec3d
00000070: 5b3f 01be 7217 8fbe a675 d63c 9546 943e
00000080: 3461 fdbd c2bd 99be 4e44 8e3c cd12 9b3e
00000090: 3686 093b 0827 86bd c92b 94bc efe0 9c3d
000000a0: da54 d6bd d6c6 5fbe 1f35 cb3c e357 703e
000000b0: 4141 9dbd 37ca 75be 2c10 773c f6aa 9e3e
000000c0: c8a4 18bf 4842 a3bf c3a7 e83d 038f aa3f
000000d0: 7d61 953d ed12 ce3d 1960 d6bc fb63 b8bd
000000e0: 7f90 9dbd 275c 44be fdf2 8e3c 0858 6a3e
000000f0: 9a5f 403d 4574 223e 9152 60bc 6e8a 5ebe
00000100: aab9 aebd 67fe 86be 49a0 adbb 728f 943e
00000110: baf8 1ebf 98ea c2bf 9d88 d43d 3488 d93f
00000120: 5b33 843e bf29 133f 90c6 3abd 7b36 18bf
00000130: 91b0 3dbf 6948 e0bf 3a6f f43d eb1b f13f
00000140: 53b1 333e bbd4 b23e 81b2 25bd 4349 bdbe
00000150: 32ad 313b ae11 fabb 996b 56ba 8831 813b
00000160: ef75 d7be 62b0 76bf 5e31 a63d 217d 883f
00000170: 35e8 9c3d a1c1 da3d b81e bebc 1b0a 99bd
00000180: d8d9 48be a064 14bf 875c fa3c 8673 323f
00000190: 3a6f 40bf bf67 d2bf 935d 123e 5073 df3f
000001a0: 971c 14bc 98c7 71bd bad4 063b d13f c13d
000001b0: 8349 0fbf e378 9ebf 7fb8 da3d 0f74 a83f
000001c0: 3c3f b23d 75b2 8c3e 5e08 2cbc 70c9 a9be
000001d0: 2120 c7bd 6c06 a8be 8974 8b3c 52cf d73e
000001e0: 6485 31be 3466 e7be 8b86 663c 59e0 ef3e
000001f0: 1d5d 3abd 0851 92bd 063b 213c e4a5 703d
00000200: 5d2e 8e3e ba8c 203f 0771 3dbd 1d34 23bf
00000210: e6ef 8bbd b775 01be 7223 913c d91e d53d
00000220: 0d49 afb9 4473 2c3d 8f1f c9bb 5669 c1bd
00000230: 0d4e 343e b0b7 003f 4e49 17bd 0770 20bf
00000240: 8f76 24bc 8622 78bd eba1 4039 4cb2 ae3d
00000250: c05b bf3c 7998 cc3c b87b b3ba 746f 60ba
00000260: ee04 4d3d e61e e53d 6217 5fbc 8ea7 15be
00000270: f92e ebbd 575d 3ebe 3af1 f43c 50d0 333e
00000280: 8493 f13d a0ed be3e 897d 16bc 5251 dcbe
00000290: 5ec4 f33d b30a d03e 62a8 b3bc 5471 07bf
000002a0: 02c9 1abd 90c9 49bd a9f8 3c3c e624 733d
000002b0: 185c 423e 541d c83e ef95 3abd 7385 d2be
000002c0: fba1 8c3e bd66 1a3f 65b9 73bd 872a 2bbf
000002d0: 2874 00be 8f6e 81be f33a 0a3d fc3f 8f3e
000002e0: 85b7 073d 5713 3f3d cf4b 2dbc 76a9 85bd
000002f0: 24a1 d6be bf66 81bf 0ca3 893d 19c5 8e3f
00000300: f3d5 57bd 4b17 f8bd f885 823c ad2b 163e
00000310: 0d6d 25be 1be5 95be 333a 1c3d 230e a33e
00000320: 9477 c4be 55f3 4bbf c584 9e3d ed16 583f
00000330: 7cc2 7cbd 4dd2 eabd 2811 953c fbd3 0d3e
00000340: c55b 12bf 6d52 9dbf 8ce0 e23d 8c72 a73f
00000350: 8712 0cbf 6697 9cbf f040 c63d ada2 a43f
00000360: 3d10 00bf 744a 8ebf 7bdb b93d 8381 953f
00000370: f274 953e fc0a 193f 1c9f 85bd 764d 25bf
00000380: 0cbd bcbe 3531 61bf 7def 6a3d 2661 6c3f
00000390: 6521 36be 008b d0be caad 323d 720c e83e
000003a0: da87 c63e a795 613f 8da4 89bd 5fb6 73bf
000003b0: a5be f7be cbcd 96bf c1b2 a23d fc09 aa3f
000003c0: 954c 66be 706b 0ebf a25d 413d 7bac 223f
000003d0: 5d0a 693e 15de 073f 3217 57bd cb19 1abf
000003e0: a3c2 b93e 6daf 593f 2ed2 74bd 970a 61bf
000003f0: 619d a2bb 7eac 8e3c be4e afbb 4346 6abd

exp_avg_sq f4 [64, 4]
0.014817314 0.03354857 0.0022326256 0.04201647 0.19676176 0.72293836 0.031061377 0.8179168
0.033429615 0.10697003 0.0049272515 0.09389734 0.25033718 0.9098894 0.039962146 0.8654572
0.009039231 0.019954795 0.0014547721 0.020035636 0.01976616 0.068652116 0.0038031943 0.064640366
0.011937022 0.03531607 0.003444901 0.04834576 0.024984756 0.07295588 0.0058199055 0.10435029
0.026934326 0.10424025 0.0050754263 0.079377435 0.03767822 0.12947671 0.007596627 0.13873622
0.015291581 0.049564026 0.003830023 0.0852978 0.09279901 0.2273217 0.028956804 0.5380401
0.35246316 1.3911275 0.056078155 1.520788 0.015893895 0.053947747 0.0050901496 0.08118142
0.038670924 0.10170826 0.012472161 0.22661932 0.07133813 0.1694118 0.025093624 0.42693907
0.08065559 0.30804646 0.014771589 0.33656302 0.93893373 2.8879814 0.17263308 4.187116
0.08387507 0.33798778 0.013241053 0.32340592 0.9025771 3.3269374 0.13526285 3.5814466
0.023204409 0.0886908 0.0044428213 0.113587596 0.0011300701 0.0033999076 0.00033132834 0.0051706852
0.31831813 1.0670875 0.0642397 1.6233938 0.028065013 0.055773437 0.0036338412 0.071660735
0.3236747 0.8599506 0.08404514 1.6888115 0.6417979 2.4378154 0.103282005 2.8097494
0.025735969 0.057723727 0.008709336 0.14723659 0.33966354 1.3249089 0.052953586 1.480973
0.072532654 0.17829682 0.01699448 0.3334008 0.17672656 0.43383875 0.05248713 0.977934
0.097257175 0.40073335 0.019442067 0.35179064 0.007494792 0.016151315 0.000751246 0.015948962
0.10957862 0.4403817 0.018207699 0.40803662 0.014266403 0.032661643 0.002069631 0.040757272
0.055785928 0.13856976 0.019600881 0.33145124 0.29158694 0.7461841 0.08880986 1.6704247
0.00995057 0.022281853 0.0026037076 0.048290968 0.009171467 0.024239888 0.003509398 0.053445343
0.02021403 0.05167186 0.0070990194 0.12590736 0.014612432 0.044936225 0.0020572662 0.04445736
0.09952753 0.25607353 0.0143363485 0.31178692 0.29499447 0.7119827 0.090592176 1.6539913
0.005884695 0.015186105 0.0014716653 0.023305856 0.036412068 0.14313686 0.009763484 0.21185045
0.13044345 0.4195176 0.031635225 0.74151164 0.029172024 0.099830836 0.010280885 0.19307345
0.010243793 0.027742831 0.0034984406 0.055687323 0.35299006 1.1858455 0.047279023 1.3756902
0.023685535 0.06418291 0.00990191 0.1577931 0.025194785 0.09567521 0.0051134815 0.13599743
0.13703772 0.53300875 0.020339483 0.6255652 0.012964662 0.04170599 0.004853267 0.08182
0.39056683 1.3890305 0.06482088 1.7480947 0.37097558 1.4799738 0.0577772 1.5423485
0.28320003 1.1227914 0.045722224 1.1835866 0.08961044 0.32416037 0.01735554 0.4744873
0.23034362 0.8861444 0.03924808 0.8588707 0.06322874 0.21265587 0.026229184 0.45718697
0.22365773 0.79265803 0.031086909 0.90403205 0.5664423 1.725856 0.08465831 2.4006462
0.18056259 0.5140188 0.050562464 1.018421 0.12932736 0.3995766 0.03849875 0.7707816
0.20028979 0.7692686 0.034215093 0.7101327 0.026331017 0.06661225 0.011467252 0.16981252
00000000: 52c4 723c 3a6a 093d 3e51 123b 7619 2c3d
00000010: ea7b 493e 7d12 393f 6e74 fe3c ff62 513f
00000020: 7eed 083d 1a13 db3d c874 a13b 404d c03d
00000030: 322c 803e 83ee 683f 59af 233d 9a8e 5d3f
00000040: 4819 143c 3d78 a33c 0dae be3a c621 a43c
00000050: a4ec a13c 7b99 8c3d 033f 793b 2b62 843d
00000060: 8093 433c 95a7 103d d9c3 613b 3406 463d
00000070: d5ac cc3c e469 953d e8b4 be3b 9bb5 d53d
00000080: 60a5 dc3c ea7b d53d c34f a63b a390 a23d
00000090: 7a54 1a3d 8b95 043e 20ed f83b de10 0e3e
000000a0: 8a89 7a3c a603 4b3d 2001 7b3b 9db0 ae3d
000000b0: 680d be3d 05c7 683e d236 ed3c ffbc 093f
000000c0: 0d76 b43e 7710 b23f 35b2 653d 2ea9 c23f
000000d0: ea33 823c 50f8 5c3d 45cb a63b 7242 a63d
000000e0: 6765 1e3d 6c4c d03d 0958 4c3c e50e 683e
000000f0: ba19 923d 497a 2d3e 2591 cd3c c297 da3e
00000100: c22e a53d 44b8 9d3e 8904 723c fd51 ac3e
00000110: f65d 703f b0d4 3840 bac6 303e dbfc 8540
00000120: b1c6 ab3d bc0c ad3e 00f1 583c 7695 a53e
00000130: 4b0f 673f 8bec 5440 5882 0a3e 6c36 6540
00000140: 2c17 be3c 86a3 b53d 1695 913b 9da0 e83d
00000150: dc1e 943a fcd0 5e3b 23b6 ad39 da6e a93b
00000160: 98fa a23e 5396 883f 1b90 833d 5ecb cf3f
00000170: 99e8 e53c b072 643d bd25 6e3b ddc2 923d
00000180: b1b8 a53e b925 5c3f dc1f ac3d fa2a d83f
00000190: de4c 243f 2b05 1c40 8485 d33d efd2 3340
000001a0: 3dd4 d23c b76f 6c3d 9ab1 0e3c 30c5 163e
000001b0: 61e8 ad3e 9d96 a93f dce5 583d 8690 bd3f
000001c0: 008c 943d 7193 363e 0238 8b3c 82b3 aa3e
000001d0: cff7 343e 1d20 de3e bffc 563d e259 7a3f
000001e0: c52e c73d ec2c cd3e f844 9f3c e71d b43e
000001f0: df96 f53b c34f 843c 44ef 443a 66a7 823c
00000200: c16a e03d b679 e13e 5028 953c 2dea d03e
00000210: a2bd 693c 37c8 053d a5a2 073b 19f1 263d
00000220: c97f 643d 3be5 0d3e 0792 a03c fab3 a93e
00000230: e24a 953e ec05 3f3f f2e1 b53d 7ad0 d53f
00000240: b707 233c 6f88 b63c f7a2 2a3b c0cc 453d
00000250: ec43 163c bb92 c63c eefd 653b 81e9 5a3d
00000260: e597 a53c dfa5 533d e49e e83b dced 003e
00000270: fb68 6f3c 0c0f 383d 33d3 063b ec18 363d
00000280: 17d5 cb3d 121c 833e 01e3 6a3c 89a2 9f3e
00000290: 8409 973e 8044 363f 6488 b93d fdb5 d33f
000002a0: 66d4 c03b 24cf 783c e5e4 c03a eceb be3c
000002b0: d224 153d 7892 123e 05f7 1f3c 53ef 583e
000002c0: f892 053e 03cb d63e f093 013d b5d3 3d3f
000002d0: 2bfa ee3c 1c74 cc3d 2871 283c 0cb5 453e
000002e0: 95d5 273c ef44 e33c 1846 653b 6418 643d
000002f0: 1dbb b43e c9c9 973f a6a7 413d 9e16 b03f
00000300: 2b08 c23c 5472 833d 9f3b 223c 8494 213e
00000310: 4b65 ce3c 5df1 c33d fe8e a73b e942 0b3e
00000320: 9e53 0c3e 4373 083f fd9e a63c 0a25 203f
00000330: bc69 543c e6d3 2a3d 2808 9f3b 3f91 a73d
00000340: 60f8 c73e c0cb b13f cfc0 843d 91c1 df3f
00000350: 83f0 bd3e c86f bd3f c9a7 6c3d ad6b c53f
00000360: 98ff 903e a1b7 8f3f 3a47 3b3d c47f 973f
00000370: ae85 b73d 59f8 a53e 352d 8e3c 00f0 f23e
00000380: 33df 6b3e 5cda 623f 98c2 203d f3de 5b3f
00000390: 127e 813d 76c2 593e 96de d63c 6914 ea3e
000003a0: 8806 653e a3eb 4a3f f9a9 fe3c a56e 673f
000003b0: 5d02 113f d9e8 dc3f 5661 ad3d 30a4 1940
000003c0: 66e5 383e bc96 033f 961a 4f3d 9f5b 823f
000003d0: 646e 043e 4e95 cc3e deb0 1d3d f151 453f
000003e0: c418 4d3e c9ee 443f 2025 0c3d 42cb 353f
000003f0: 25b4 d73c 016c 883d 24e1 3b3c 55e3 2d3e

exp_avg f4 [64]
-0.8443951 -1.8228093 -0.3792185 0.65669936 -0.5581202 0.84510493 -0.6237184 -0.43444213
-0.4535123 0.4441499 -0.27383053 0.7946824 -2.0962079 0.70201105 0.24600531 -0.708852
0.2619182 -0.13846347 0.8988375 -1.4883384 0.73472625 0.028093195 -0.48137042 0.9018485
1.1500789 -2.2475035 0.55831975 -1.6540432 -0.5850158 1.1500797 -0.34835073 -0.4108116
0.9984254 -0.65815765 -0.8208708 -1.1081485 0.36060414 0.45822418 -0.25417355 -0.8225667
-0.4555874 -1.4893762 -0.114661224 0.67373616 0.37633342 -0.30259553 -0.06275103 -0.54240036
0.15130313 -0.5720884 -1.3809519 -0.011933467 -1.688107 -1.6456119 -1.5595987 0.89983356
-0.9084566 -0.22891471 0.88396496 -0.084289484 0.2504897 0.07409195 1.0813318 -0.5732314
00000000: 472a 58bf d151 e9bf ed28 c2be 731d 283f
00000010: f7e0 0ebf cc58 583f 02ac 1fbf 336f debe
00000020: c432 e8be 9e67 e33e 8433 8cbe 4e70 4b3f
00000030: 4528 06c0 ffb6 333f d1e8 7b3e 5377 35bf
00000040: 241a 863e 5ec9 0dbe 371a 663f df81 bebf
00000050: 0517 3c3f b323 e63c 2f76 f6be 8bdf 663f
00000060: c935 933f 19d7 0fc0 0bee 0e3f b0b7 d3bf
00000070: 98c3 15bf d035 933f 075b b2be e655 d2be
00000080: cf98 7f3f 057d 28bf 9724 52bf cfd7 8dbf
00000090: 1ba1 b83e 5c9c ea3e 0923 82be bb93 52bf
000000a0: c042 e9be e1a3 bebf 81d3 eabd f979 2c3f
000000b0: c6ae c03e cded 9abe 9d83 80bd c0da 0abf
000000c0: 35ef 1a3e 6374 12bf 08c3 b0bf 9784 43bc
000000d0: e413 d8bf 69a3 d2bf eea0 c7bf 7e5b 663f
000000e0: 9d90 68bf 9e68 6abe 874b 623f f79f acbd
000000f0: 3040 803e 85bd 973d 1569 8a3f 4bbf 12bf

exp_avg_sq f4 [64]
1.882725 9.296394 2.560929 24.099882 1.1179817 1.5678889 1.149317 1.1431801
2.37736 5.941932 0.9174101 10.170155 21.73463 2.4780393 3.6102512 7.4095626
12.007822 81.39061 6.07173 76.82395 1.0894145 0.04201617 25.467949 2.899804
34.83592 41.976982 2.842295 22.418758 7.797605 19.62591 11.793912 0.41320956
8.9408 1.317997 6.3359857 29.775537 1.1350799 1.0738654 2.1077483 1.4052942
10.734838 32.134205 0.26544943 2.4951801 9.5598545 2.3225307 0.85784113 29.735775
2.2425427 1.2739927 6.9866586 1.249473 22.850805 27.999584 20.025997 4.8077984
20.508871 5.281276 17.363956 49.759033 16.169722 10.714931 16.560944 2.9883642
00000000: 22fd f03f 08be 1441 43e6 2340 8fcc c041
00000010: 061a 8f3f 95b0 c83f d21c 933f ba53 923f
00000020: ab26 1840 4f24 be40 63db 6a3f f4b8 2241
00000030: 86e0 ad41 3298 1e40 5b0e 6740 231b ed40
00000040: 0a20 4041 fec7 a242 9d4b c240 dda5 9942
00000050: ef71 8b3f 2619 2c3d 5cbe cb41 6496 3940
00000060: fb57 0b42 6ee8 2742 29e8 3540 9e59 b341
00000070: fb85 f940 dd01 9d41 ddb3 3c41 3490 d33e
00000080: 840d 0f41 20b4 a83f 65c0 ca40 4d34 ee41
00000090: 4c4a 913f 6c74 893f 59e5 0640 aee0 b33f
000000a0: e5c1 2b41 6d89 0042 fde8 873e 08b1 1f40
000000b0: 2af5 1841 58a4 1440 7a9b 5b3f dee2 ed41
000000c0: d285 0f40 3112 a33f b592 df40 bbee 9f3f
000000d0: 73ce b641 26ff df41 3e35 a041 7cd9 9940
000000e0: 2b12 a441 3700 a940 62e9 8a41 4009 4742
000000f0: 975b 8141 5b70 2b41 d07c 8441 5c41 3f40
