training_results/cartpole_null/ppo/seed_2024/10000000steps/checkpoints/model_5000000.pt (torch, 151443 bytes, 30 tensors)

actor.pi_net.fcs.0.weight f4 [64, 4]
-0.25759253 0.21164843 1.0633204 0.6992531 0.5502895 0.16065714 1.0513104 -0.25397214
-0.016943831 0.19018519 -0.920047 0.1436872 0.057819918 0.1760539 0.027854998 0.2905247
-0.11972408 -0.40960675 -0.6999209 0.06621208 -0.7667813 0.2333315 -1.0048938 -0.36913493
-0.5914216 -0.59321964 -1.5121229 -0.115536004 0.24645951 0.11554827 1.0104547 0.37448752
0.52422297 -0.0033755787 1.4097198 0.8731588 0.015118764 0.40895066 1.2971246 0.52014303
0.08344777 -0.029019497 0.556937 -0.09111736 -0.38094938 0.058419127 1.0446155 0.2002902
-0.06098176 0.2528922 1.4966673 0.34595087 -0.10219953 -0.03551171 -1.221236 -0.18677315
0.11616089 0.0752042 -1.150352 -0.115843825 0.5334265 0.15939254 1.5020365 0.22574906
0.28481594 0.09602198 -0.98149097 -0.68958324 -0.22584014 -0.22280388 -0.5015769 -0.03525512
-0.6637269 0.071550205 -0.9274609 0.010054358 0.2279687 -0.17039292 0.69026434 0.5163395
0.16920486 0.20441213 1.123862 -0.3728436 -0.3481284 -0.06810996 0.8318906 0.37624896
0.3274791 0.2201059 1.0892552 0.71913433 0.1338008 -0.35919058 0.39612663 -0.16078389
0.10470773 0.6449 1.5763174 0.47224808 0.25388977 -0.10532446 -0.85681295 0.43231738
-0.585692 -0.2531793 -1.2728392 0.004495198 0.16091144 0.32850343 1.3369409 0.508701
0.41500396 -0.34396344 1.4212476 0.49375042 -0.41949412 -0.20740764 -0.7569963 -0.64480346
0.106359325 -0.22741145 0.15140787 -0.42261723 -0.27023593 0.3772424 -0.6354747 0.17979118
-0.118516065 0.45877516 0.70836425 0.14501925 0.24650417 -0.03486971 1.0029814 0.021541454
0.41799805 0.5253852 0.9686195 0.19419128 -0.17311406 0.34538183 -1.1859384 -0.18207936
-0.23496914 0.46169183 1.4242817 0.3088955 -0.15779927 0.27106035 -1.0474164 -0.47631192
-0.05317039 -0.048865978 -1.0189183 -0.68195397 0.34909892 -0.18456094 0.801726 -0.19397745
0.25218886 0.086626686 1.3947904 0.6620327 0.069819316 0.023844453 1.5273925 0.7090661
0.19095011 -0.34151864 -1.3553586 -0.4030679 0.10834476 -0.11170672 -0.842075 -0.2727245
-0.4468183 -0.2265489 -0.9621014 -0.43323886 -0.36813667 0.21728548 -1.1446576 0.16947047
0.41349202 0.27322426 -1.2009586 -0.45673376 -0.014383434 -0.3110688 1.069924 0.39526203
0.62202775 0.3166284 0.9037261 0.8373389 0.5815673 0.002433295 0.4060587 -0.4212475
-0.3623989 -0.30240786 -1.5927263 -0.47638282 0.1526779 -0.17388551 -0.8642339 0.031400453
0.075872764 0.27539957 1.1254542 -0.040701102 0.1956612 0.4182451 0.7093831 0.45303175
-0.058198746 0.0024732621 -0.21052699 0.032481954 -0.1274086 -0.40424946 -0.76140887 -0.003935795
0.0019630485 0.1295454 -0.51991785 0.14442599 0.350373 0.0020388397 0.71522206 -0.5682748
0.14918838 0.048482206 1.0668143 -0.16785057 -0.020630319 -0.4971609 -1.1423157 0.021577785
0.597223 0.5536641 1.3117036 -0.24215627 0.17633325 -0.3626757 -1.1361657 -0.035436656
-0.13974555 -0.05200543 -0.44768855 -0.0036731625 -0.5615934 0.15237732 -0.6874211 -0.23595376
00000000: 2be3 83be 5eba 583e e21a 883f 4002 333f
00000010: c6df 0c3f 4e83 243e 5791 863f a308 82be
00000020: cacd 8abc e8bf 423e 3388 6bbf bd22 133e
00000030: 94d4 6c3d 7947 343e 2a30 e43c a7bf 943e
00000040: e631 f5bd fab7 d1be 042e 33bf 339a 873d
00000050: c74b 44bf 74ee 6e3e 5ca0 80bf 41ff bcbe
00000060: 6867 17bf 3edd 17bf 3e8d c1bf 249e ecbd
00000070: e25f 7c3e 92a4 ec3d 9456 813f d4bc bf3e
00000080: 7a33 063f d038 5dbb b371 b43f 5687 5f3f
00000090: b1b4 773c fb61 d13e 2e08 a63f 1828 053f
000000a0: aae6 aa3d 4cba edbc 6c93 0e3f bd9b babd
000000b0: cc0b c3be e548 6f3d f6b5 853f e018 4d3e
000000c0: 03c8 79bd 167b 813e cb92 bf3f 7920 b13e
000000d0: fd4d d1bd ba74 11bd 7651 9cbf 7641 3fbe
000000e0: c3e5 ed3d a904 9a3d bc3e 93bf 873f edbd
000000f0: a48e 083f cc37 233e bb42 c03f c32a 673e
00000100: 65d3 913e 2ca7 c43d fe42 7bbf 8788 30bf
00000110: a342 67be b326 64be 5867 00bf ac67 10bd
00000120: 02ea 29bf ea88 923d 146e 6dbf 09bb 243c
00000130: a070 693e 7b7b 2ebe 2ab5 303f d32e 043f
00000140: 0a44 2d3e 6a51 513e b6da 8f3f 5be5 bebe
00000150: e33d b2be 3c7d 8bbd c8f6 543f b4a3 c03e
00000160: 57ab a73e 7163 613e b76c 8b3f 3019 383f
00000170: 1403 093e d4e7 b7be 1cd1 ca3e 88a4 24be
00000180: 0271 d63d 2b18 253f c5c4 c93f 80ca f13e
00000190: d7fd 813e 5ab4 d7bd 1858 5bbf b458 dd3e
000001a0: e9ef 15bf b8a0 81be 65ec a2bf 744c 933b
000001b0: f8c5 243e 9a31 a83e e120 ab3f 3b3a 023f
000001c0: 667b d43e fa1b b0be 71eb b53f dbcc fc3e
000001d0: efc7 d6be ab62 54be 82ca 41bf d711 25bf
000001e0: ebd2 d93d 8cde 68be aa0a 1b3e 4961 d8be
000001f0: 5d5c 8abe ea25 c13e 78ae 22bf 2e1b 383e
00000200: 8db8 f2bd 94e4 ea3e 5c57 353f ed7f 143e
00000210: 976b 7c3e 8bd3 0ebd b261 803f b477 b03c
00000220: d703 d63e a57f 063f 73f7 773f 14da 463e
00000230: d044 31be e3d5 b03e d4cc 97bf 0373 3abe
00000240: c09b 70be df62 ec3e dd4e b63f 8d27 9e3e
00000250: 2296 21be 6cc8 8a3e be11 86bf 28df f3be
00000260: 32c9 59bd b127 48bd ea6b 82bf 8994 2ebf
00000270: 18bd b23e 8bfd 3cbe ea3d 4d3f 06a2 46be
00000280: e61e 813e 5569 b13d 7e88 b23f fa7a 293f
00000290: 6efd 8e3d 7155 c33c 9981 c33f 5b85 353f
000002a0: 6d88 433e 88db aebe 647c adbf ea5e cebe
000002b0: dce3 dd3d 7ec6 e4bd 3a92 57bf 8ca2 8bbe
000002c0: 5ec5 e4be 6ffc 67be 474c 76bf 7cd1 ddbe
000002d0: 697c bcbe 1680 5e3e 2484 92bf ab89 2d3e
000002e0: 3ab5 d33e 0de4 8b3e 03b9 99bf 02d9 e9be
000002f0: 7fa8 6bbc 6944 9fbe 45f3 883f c95f ca3e
00000300: 363d 1f3f 1e1d a23e 985a 673f d85b 563f
00000310: 98e1 143f ea77 1f3b ede6 cf3e c1ad d7be
00000320: 598c b9be 34d5 9abe 75de cbbf 73e8 f3be
00000330: 9857 1c3e 0b0f 32be 6f3e 5dbf c39d 003d
00000340: 2e63 9b3d 2c01 8d3e e20e 903f 33b6 26bd
00000350: 695b 483e 3924 d63e 219a 353f c7f3 e73e
00000360: cf61 6ebd 7416 223b 6394 57be cc0b 053d
00000370: 6677 02be c9f9 cebe b1eb 42bf d7f7 80bb
00000380: 7da6 003b 8da7 043e 5619 05bf 68e4 133e
00000390: 1764 b33e 0e9e 053b cb18 373f 757a 11bf
000003a0: d7c4 183e 4795 463d 5f8d 883f 05e1 2bbe
000003b0: ea00 a9bc e08b febe 6737 92bf e5c3 b03c
000003c0: 9be3 183f eebc 0d3f e7e5 a73f d0f7 77be
000003d0: b490 343e a1b0 b9be e16d 91bf 0726 11bd
000003e0: 7519 0fbe a503 55bd 6f37 e5be 71b9 70bb
000003f0: 96c4 0fbf cd08 1c3e d4fa 2fbf dd9d 71be

actor.pi_net.fcs.0.bias f4 [64]
-0.06349711 -0.29637244 0.112832926 0.015591157 -0.20107365 -0.36761832 -0.054948367 0.055186972
0.16641776 -0.17777625 0.004981321 -0.06704138 0.102928065 0.16671902 -0.11575537 0.095193826
0.049790084 -0.028735055 -0.10817844 0.24499992 0.15359582 -0.008634109 0.20095016 -0.009970125
0.12716007 0.08603617 -0.14940584 -0.15199915 -0.086243756 -0.2082871 -0.0033317776 0.005595401
0.033647623 0.2351155 -0.05033567 -0.14700833 0.15417495 -0.11353687 -0.076265514 -0.121218294
-0.008321443 0.37914082 -0.03734399 -0.078247234 -0.205427 -0.1899248 0.10582197 -0.16598552
0.057032544 0.08250563 0.010609212 0.018074237 0.31425878 0.049421202 -0.009170716 -0.047398437
-0.010582595 -0.079786114 0.10037256 0.12948717 0.015809674 0.048535194 -0.020361014 0.2201446
00000000: c60a 82bd 21be 97be f314 e73d 0d72 7f3c
00000010: 40e6 4dbe 7838 bcbe 8a11 61bd bc0b 623d
00000020: 6b69 2a3e fa0a 36be 593a a33b fe4c 89bd
00000030: f3cb d23d 64b8 2a3e 2711 edbd fbf4 c23d
00000040: b0f0 4b3d c765 ebbc a88c ddbd 42e1 7a3e
00000050: 3948 1d3e 1476 0dbc e1c5 4d3e bc59 23bc
00000060: 4036 023e bb33 b03d d8fd 18be aaa5 1bbe
00000070: 91a0 b0bd 3749 55be f459 5abb a059 b73b
00000080: 17d2 093d 1ec2 703e c72c 4ebd 5a89 16be
00000090: 0ae0 1d3e 0586 e8bd 1831 9cbd 4c41 f8bd
000000a0: a956 08bc bf1e c23e 03f6 18bd 1640 a0bd
000000b0: 755b 52be a67b 42be 30b9 d83d 1cf8 29be
000000c0: f59a 693d b6f8 a83d 43d2 2d3c 6c10 943c
000000d0: 87e6 a03e e36d 4a3d c540 16bc dd24 42bd
000000e0: 9f62 2dbc e766 a3bd 2190 cd3d 4998 043e
000000f0: 4a83 813c d7cc 463d 24cc a6bc 966d 613e

actor.pi_net.fcs.1.weight f4 [64, 64]
-0.066271335 0.022559335 0.117210574 -0.052663565 -0.058614887 0.0516919 -0.1910025 0.009203285
0.17094138 0.023563197 -0.19362341 0.04905272 0.10779782 -0.02184667 0.07881435 0.15413998
0.13154134 -0.0020112998 0.025549302 0.07367574 0.0121161025 0.049487453 0.13432275 0.022613835
0.0795102 0.011029542 0.051554233 0.086321205 -0.013713406 0.04451691 0.14369483 0.06635373
-0.17243902 0.059722543 0.034631684 0.010646598 -0.01957117 -0.071535714 0.12171717 0.06520023
0.08835982 0.12381033 -0.10928251 0.10736704 0.09404888 -0.1364126 -0.071846984 0.04675892
0.18248953 0.07284364 -0.122315146 0.100099824 0.11267486 -0.25592262 0.27238145 0.034794983
-0.07348373 -0.08034968 0.11628316 -0.1034882 0.15141864 0.114194945 0.18026337 0.045254223
0.10746972 -0.034578472 0.060387105 0.06860011 -0.0508905 -0.05486902 -0.3766068 0.4746997
0.3800509 0.080831595 0.039028846 0.075916626 0.38371438 -0.008876109 -0.20035097 0.50682086
-0.005915203 -0.094041124 -0.3655637 0.044605765 0.012118051 0.09988439 0.22009946 0.10965456
0.46453142 -0.011735321 -0.20172882 -0.023948418 0.18787332 -0.11417223 -0.08514315 -0.06710111
0.042765 -0.011371588 0.16875662 -0.18641354 0.17775565 -0.025957583 -0.24786101 0.04439888
0.28175476 0.24392769 -0.3503036 -0.06502067 -0.24675582 -0.015723467 -0.025915276 0.045853898
0.34598947 -0.034347214 -0.4793306 -0.06731189 -0.03089363 0.16958031 -0.08263508 -0.12286572
0.015101182 0.014480779 -0.013617499 0.098517396 0.21572597 0.0010258778 0.06755958 -0.100512624
-0.049164943 -0.009088102 -0.0046002027 0.042632017 -0.067146376 0.056470666 -0.37541786 0.09540507
0.19771071 -0.058157675 -0.0876895 0.041739132 0.22938117 -0.0074298233 -0.15110923 0.3003639
-0.0008787963 0.014378487 -0.14675602 -0.060644466 0.09015886 0.030828927 0.034277853 0.03926536
0.10437128 0.06306741 -0.13267668 0.021944625 0.18951425 0.037336968 0.06621955 -0.056449227
-0.085703135 0.11303215 0.16811337 -0.16186686 0.13583747 -0.11675264 0.053687654 -0.10308499
0.23293856 0.14071177 -0.2115507 -0.104883716 -0.022359611 0.06496488 -0.12151085 0.10520229
0.22329503 0.09804723 -0.20470333 0.12106367 0.11780974 -0.19011384 -0.0035551374 0.03484379
0.100370094 0.11407932 0.062993586 0.026823139 0.26600125 0.056874365 0.16320868 -0.11905973
-0.2017546 0.029661333 0.06461862 -0.1407899 0.09813204 0.19597764 0.45195627 -0.44198954
-0.31643632 -0.19857804 0.020132912 0.03925403 -0.4179143 0.0409495 0.033232108 -0.45028055
0.1514729 -0.020148532 0.23228626 -0.06761487 0.093707934 -0.08170708 -0.22383839 0.056354642
-0.45795798 -0.046052914 0.23725916 -0.18597806 -0.13307852 -0.057095222 -0.063249744 0.074666575
-0.12847741 -0.09127422 -0.18062036 0.08731722 -0.21714707 0.0289519 0.17008781 -0.081615075
-0.40731466 0.006518385 0.40208697 -0.037476756 0.006608288 0.13905384 0.11173792 0.06476669
-0.51636624 0.02396857 0.57410175 -0.0481894 0.058735736 -0.2317674 -0.023051726 0.13236046
0.019530308 0.011079324 0.091566406 0.059366394 -0.3266822 0.036122445 -0.063255735 -0.055852495
00000000: 44b9 87bd 5bce b83c 190c f03d c0b5 57bd
00000010: 2a16 70bd e3ba 533d 2996 43be 60c9 163c
00000020: 420b 2f3e 9b07 c13c 3745 46be 81eb 483d
00000030: 1ac5 dc3d caf7 b2bc 6b69 a13d dfd6 1d3e
00000040: c6b2 063e 03d0 03bb c54c d13c 4ee3 963d
00000050: 9e82 463c 5bb3 4a3d e78b 093e a640 b93c
00000060: 3ed6 a23d 41b5 343c 882a 533d 2cc9 b03d
00000070: 32ae 60bc 5d57 363d bd24 133e 77e4 873d
00000080: db93 30be a09f 743d f4d9 0d3d 126f 2e3c
00000090: b853 a0bc 5181 92bd da46 f93d b387 853d
000000a0: fef5 b43d 4590 fd3d 82cf dfbd 40e3 db3d
000000b0: b39c c03d bfaf 0bbe 8324 93bd 4886 3f3d
000000c0: 89de 3a3e 0c2f 953d 5d80 fabd 2301 cd3d
000000d0: 14c2 e63d 4a08 83be 9575 8b3e 2f85 0e3d
000000e0: a37e 96bd 5f8e a4bd de25 ee3d 9ff1 d3bd
000000f0: 7d0d 1b3e 0adf e93d f696 383e 7e5c 393d
00000100: 1619 dc3d 28a2 0dbd 7858 773d 377e 8c3d
00000110: 8f72 50bd 56be 60bd 9bd2 c0be d70b f33e
00000120: 0896 c23e 098b a53d b6dc 1f3d 2d7a 9b3d
00000130: 3676 c43e 196d 11bc ce28 4dbe 03bf 013f
00000140: 52d4 c1bb a298 c0bd 2a2b bbbe 89b4 363d
00000150: ca8a 463c 3090 cc3d c161 613e 9292 e03d
00000160: 10d7 ed3e 8145 40bc 0092 4ebe 792f c4bc
00000170: dd61 403e 21d3 e9bd 885f aebd 4f6c 89bd
00000180: 5a2a 2f3d e64f 3abc 89ce 2c3e 31e3 3ebe
00000190: 9405 363e ffa4 d4bc 47cf 7dbe 9adb 353d
000001a0: 2942 903e 2ec8 793e fe5a b3be 8f29 85bd
000001b0: 8fad 7cbe 80ce 80bc 464c d4bc 4cd1 3b3d
000001c0: 8825 b13e aaaf 0cbd d26a f5be d1da 89bd
000001d0: a314 fdbc 76a6 2d3e 953c a9bd 06a1 fbbd
000001e0: f36a 773c ca40 6d3c ee1b 5fbc 7dc3 c93d
000001f0: 45e7 5c3e bf76 863a ad5c 8a3d 90d9 cdbd
00000200: 2e61 49bd 43e6 14bc 4cbd 96bb e99e 2e3d
00000210: 0a84 89bd c94d 673d c536 c0be bc63 c33d
00000220: ad74 4a3e be36 6ebd 8d96 b3bd a7f6 2a3d
00000230: e6e2 6a3e e075 f3bb 61bc 1abe 4cc9 993e
00000240: 055f 66ba bf93 6b3c 3647 16be 5566 78bd
00000250: 35a5 b83d f28c fc3c ef66 0c3d b7d4 203d
00000260: 9cc0 d53d 7c29 813d 65dc 07be 37c5 b33c
00000270: 0610 423e a6ee 183d 1e9e 873d 4e37 67bd
00000280: 2085 afbd 667d e73d e925 2c3e 6dc0 25be
00000290: fa18 0b3e 021c efbd 96e7 5b3d 391e d3bd
000002a0: 7287 6e3e bf16 103e bfa0 58be 46cd d6bd
000002b0: 812b b7bc 4f0c 853d aeda f8bd 4c74 d73d
000002c0: 74a7 643e fccc c83d c09d 51be 3bf0 f73d
000002d0: 3c46 f13d 34ad 42be 4ffd 68bb 5db8 0e3d
000002e0: d68e cd3d 6ba2 e93d c802 813d 33bc db3c
000002f0: 5131 883e 18f5 683d 2d20 273e 96d5 f3bd
00000300: c298 4ebe 53fc f23c c456 843d 3a2b 10be
00000310: 73f9 c83d 5dae 483e d066 e73e 744c e2be
00000320: f103 a2be 0b58 4bbe c7ed a43c d5c8 203d
00000330: ddf8 d5be aaba 273d 641e 083d 2c8b e6be
00000340: b61b 1b3e 890e a5bc 73dc 6d3e aa79 8abd
00000350: f2e9 bf3d 0b56 a7bd e435 65be 20d4 663d
00000360: 7879 eabe fba1 3cbd 11f4 723e 0871 3ebe
00000370: bc45 08be aedc 69bd 1589 81bd caea 983d
00000380: 958f 03be faed babd 8bf4 38be 5fd3 b23d
00000390: cd5b 5ebe 892c ed3c 802b 2e3e ce25 a7bd
000003a0: 8c8b d0be 2d98 d53b 58de cd3e 3a81 19bd
000003b0: 568a d83b 2164 0e3e dad6 e43d 66a4 843d
000003c0: 9430 04bf bc59 c43c 55f8 123f 4062 45bd
000003d0: e294 703d 6f54 6dbe f9d6 bcbc 8089 073e
000003e0: 06fe 9f3c 0e86 353c 2b87 bb3d 2d2a 733d
000003f0: e442 a7be 21f5 133d 398c 81bd 96c5 64bd

actor.pi_net.fcs.1.bias f4 [64]
-0.032691866 -0.07344166 -0.027069243 -0.12540732 -0.10257315 0.05157855 0.07767137 0.03441284
-0.09467229 0.022853032 0.09440706 0.022077084 0.058135297 0.031284917 -0.054564983 -0.08177219
-0.09374973 -0.12025798 0.07920328 -0.02049092 0.13852479 0.025012461 0.05394852 0.03475848
0.09232161 0.12766534 -0.054767743 0.00480558 0.053600468 0.013713843 -0.032569252 -0.09688096
-0.069528505 0.11240253 0.04396747 -0.019896394 -0.06545081 0.06890149 0.09812871 -0.11139873
-0.117733106 -0.054201912 0.02896966 -0.07577514 -0.06582908 0.13363416 -0.0664506 0.10027863
-0.06927539 0.03438338 0.09192908 0.03950008 -0.021391287 -0.07101526 -0.10295535 0.10558467
0.040468704 -0.08474995 -0.016095828 -0.0041409265 -0.03509142 0.099355824 0.0498647 0.098978855
00000000: e8e7 05bd 9568 96bd 51c0 ddbc c76a 00be
00000010: df11 d2bd 0844 533d 2b12 9f3d 7af4 0c3d
00000020: 8ce3 c1bd 4836 bb3c 7d58 c13d 00db b43c
00000030: 471f 6e3d 9d24 003d 887f 5fbd 2e78 a7bd
00000040: dcff bfbd d149 f6bd 5435 a23d 93dc a7bc
00000050: 71d9 0d3e efe6 cc3c 20f9 5c3d e85e 0e3d
00000060: 1d13 bd3d b4ba 023e 2454 60bd 2078 9d3b
00000070: 2a8c 5b3d 07b0 603c 5667 05bd 8669 c6bd
00000080: f664 8ebd 4c33 e63d 3c17 343d c3fd a2bc
00000090: 130b 86bd 391c 8d3d b5f7 c83d 0425 e4bd
000000a0: 0e1e f1bd d302 5ebd c851 ed3c ff2f 9bbd
000000b0: 66d1 86bd 65d7 083e 4117 88bd e25e cd3d
000000c0: 41e0 8dbd 96d5 0c3d 5045 bc3d d6ca 213d
000000d0: c83c afbc 7370 91bd 41da d2bd c73c d83d
000000e0: 83c2 253d 6291 adbd 66db 83bc 9cb0 87bb
000000f0: 05bc 0fbd 117b cb3d ed3e 4c3d 6db5 ca3d

actor.pi_net.fcs.2.weight f4 [1, 64]
0.018331543 0.14052688 0.02885247 -0.3564178 -0.033768546 -0.020507911 0.018715754 -0.2674635
0.00020469679 -0.22804686 0.012203062 -0.022062594 -0.020722102 -0.02050479 -0.018405119 -0.014197615
0.43359083 -0.012817657 -0.024916645 -0.008392257 0.023653785 -0.025038209 -0.1942438 -0.020051893
0.015771322 0.019208102 0.0003346515 -0.30880192 -0.117474206 -0.33718202 -0.009460095 -0.013021416
-0.1897197 0.023535095 0.00020577709 0.004748152 0.43063936 0.020918043 0.41376916 -0.022854727
-0.009464323 0.02071947 0.14825845 0.026257027 -0.02263908 0.018040802 -0.014418529 0.024051324
-0.019826436 0.020610986 -0.01672607 0.02917266 0.03351862 -0.02445372 -0.0802922 0.011954962
-0.018968498 -0.025873696 0.026775582 -0.30147684 0.39963835 0.010713096 0.016511707 0.028023355
00000000: 082c 963c 47e6 0f3e 045c ec3c 657c b6be
00000010: e350 0abd 3500 a8bc c851 993c faf0 88be
00000020: e0a3 5639 1e85 69be 5aef 473c 9dbc b4bc
00000030: 66c1 a9bc a9f9 a7bc 55c6 96bc 1d9d 68bc
00000040: 9eff dd3e 2601 52bc fe1d ccbc ad7f 09bc
00000050: 95c5 c13c ee1c cdbc d9e7 46be de43 a4bc
00000060: dc32 813c 4f5a 9d3c 2a74 af39 491b 9ebe
00000070: 5196 f0bd 1fa3 acbe 84fe 1abc c757 55bc
00000080: e245 42be accc c03c dec5 5739 6396 9b3b
00000090: c37c dc3e 515c ab3c 8dd9 d33e d639 bbbc
000000a0: 3f10 1bbc e1bb a93c 10d1 173e fa18 d73c
000000b0: 9875 b9bc 4eca 933c b23b 6cbc 4807 c53c
000000c0: 0d6b a2bc 5fd8 a83c 1c05 89bc 81fb ee3c
000000d0: d24a 093d 2b53 c8bc 3d70 a4bd bfde 433c
000000e0: d363 9bbc 13f5 d3bc 7758 db3c 2c5b 9abe
000000f0: 669d cc3e fb85 2f3c 8f43 873c 3c91 e53c

critic.v_net.fcs.0.weight f4 [64, 4]
-8.891637 -5.7280817 -6.3716564 -0.34018767 13.123432 4.575838 3.914544 -1.7898194
-7.723576 -3.607008 -6.0181293 2.2214792 0.92118204 1.0202891 2.7844236 0.58341247
-0.8638885 3.0580359 -0.5861983 0.5484694 0.25282827 -2.2087739 1.9649335 -3.4514983
11.527071 -23.053402 -9.708545 0.68432957 5.4280143 4.0437474 4.2070827 -0.78117615
-4.188227 -3.208568 -3.2590604 1.3232763 2.6648068 0.73345166 1.9568286 1.8925254
-0.65665185 -1.1477014 1.7646861 -1.8743037 -11.596342 -0.3953126 -3.1849859 6.6690598
0.34900966 -0.32364422 -6.3296437 1.0640159 -6.4213986 -3.1804464 -4.8972173 1.3407837
4.3663774 1.4327005 -2.0970397 1.8245883 9.959484 -5.7962956 -16.383728 -1.1166465
-0.23836523 -1.0150932 2.273144 -2.053404 3.9162364 2.7741902 -2.1336305 1.7780402
2.682043 3.6396224 0.047743335 1.2256011 10.986214 -2.0381715 3.6876664 -2.1496727
-3.3918712 -2.6836867 -3.8881493 0.26618797 7.987133 6.030884 -2.4592626 -8.769633
6.32065 3.598189 5.621263 -0.48009482 7.5728364 3.3043714 4.9164314 -1.7324574
-2.7731411 -2.473641 -3.738368 1.9771029 7.736607 3.9473717 6.1152053 -0.5613221
22.267117 3.4221509 4.9370313 -7.1209755 0.64995366 -0.880053 -1.8885312 0.8021149
-2.8237655 -1.3855324 -3.6538143 0.08742376 -7.6240187 -3.4952853 -5.9902463 0.9604498
0.3233884 -0.35473612 3.5819063 0.2765716 0.384171 1.3812997 -2.0953603 -1.3587971
1.3107281 0.6922465 2.8224788 -0.015905295 3.8899884 1.2054608 3.6207294 -1.3053619
-0.9831448 -1.3062401 -3.3392737 -1.6502935 -4.0881433 0.32698902 -0.09737191 5.6210494
-1.3116828 -0.93953824 -2.7771242 3.122056 -5.0627065 -2.287706 -1.5914198 -2.3278966
-3.1256707 -2.2420118 -0.45605573 0.37454522 8.899191 3.9825578 5.9944587 -1.7643456
-6.815698 -3.907251 -5.1626244 0.5638951 4.3591766 1.478979 7.3661447 -1.0572628
-5.0654955 1.0052063 -5.456553 0.82667506 -1.1879416 0.57339823 -2.1639812 1.8926197
13.028887 -2.646737 -15.608547 -2.306174 4.8407817 3.9010653 2.5412838 -0.25718266
1.2428377 -0.28481546 -0.60917944 0.036146145 2.5463574 2.5689662 5.6475253 -0.51245874
6.577832 3.7391472 5.129452 -0.5102816 -12.002605 -11.923936 -3.2181444 6.8858814
-3.036592 -2.0742006 -0.08753189 -1.7343179 -1.3182323 -3.061677 0.3993547 0.93448156
-1.0387509 -0.35290176 0.100245886 -2.7785008 7.443855 4.723718 5.0322104 1.0388513
9.137382 3.5995502 5.539471 -2.6543436 4.5849476 3.0372484 5.4597783 -1.2174761
4.829613 -0.07282894 4.334089 -0.578401 11.052226 5.9615526 6.409525 -1.2656515
5.1436753 0.47886473 3.320321 -2.5609982 -6.2389917 -2.6502826 -4.959505 0.36716992
-0.5265776 -0.22625512 -3.2813447 3.624641 -2.6948776 -2.1569676 -3.2501278 -0.698322
-1.4094551 1.8217772 -2.7669384 1.918611 -6.033049 -3.2273567 -6.031832 -0.9329566
00000000: 2544 0ec1 724c b7c0 9ce4 cbc0 142d aebe
00000010: 94f9 5141 446d 9240 e487 7a40 cd18 e5bf
00000020: 8927 f7c0 38d9 66c0 8494 c0c0 b72c 0e40
00000030: 96d2 6b3f d598 823f ff33 3240 855a 153f
00000040: cc27 5dbf dcb6 4340 1711 16bf 7e68 0c3f
00000050: b572 813e 8d5c 0dc0 f182 fb3f 59e5 5cc0
00000060: e26e 3841 5e6d b8c1 3356 1bc1 3930 2f3f
00000070: 4bb2 ad40 6166 8140 6ca0 8640 29fb 47bf
00000080: f505 86c0 2e59 4dc0 7294 50c0 1e61 a93f
00000090: 328c 2a40 7dc3 3b3f 5c79 fa3f 463e f23f
000000a0: 561a 28bf e1e7 92bf 3ce1 e13f 2fe9 efbf
000000b0: 9e8a 39c1 6a66 cabe cfd6 4bc0 f068 d540
000000c0: 65b1 b23e b2b4 a5be 718c cac0 ac31 883f
000000d0: 197c cdc0 6f8c 4bc0 01b6 9cc0 cd9e ab3f
000000e0: 5db9 8b40 bb62 b73f e635 06c0 1c8c e93f
000000f0: 0c5a 1f41 417b b9c0 e011 83c1 46ee 8ebf
00000100: 0416 74be 93ee 81bf 317b 1140 f96a 03c0
00000110: 9ea3 7a40 558c 3140 678d 08c0 d296 e33f
00000120: 98a6 2b40 93ef 6840 848e 433d 7fe0 9c3f
00000130: 88c7 2f41 6771 02c0 ba02 6c40 3d94 09c0
00000140: 6b14 59c0 86c1 2bc0 70d7 78c0 ca49 883e
00000150: 9896 ff40 00fd c040 8f64 1dc0 6b50 0cc1
00000160: c442 ca40 bb48 6640 63e1 b340 fdce f5be
00000170: ad54 f240 d27a 5340 6853 9d40 2ac1 ddbf
00000180: 257b 31c0 2250 1ec0 6c41 6fc0 b511 fd3f
00000190: 4992 f740 bda1 7c40 c3af c340 ceb2 0fbf
000001a0: 0e23 b241 8504 5b40 29fc 9d40 08df e3c0
000001b0: 5d63 263f 274b 61bf 64bb f1bf 6757 4d3f
000001c0: 93b8 34c0 2059 b1bf 18d8 69c0 3a0b b33d
000001d0: f6f7 f3c0 c1b2 5fc0 19b0 bfc0 0ae0 753f
000001e0: 2a93 a53e f99f b5be f43d 6540 cb9a 8d3e
000001f0: 10b2 c43e 6ece b03f 621a 06c0 10ed adbf
00000200: f0c5 a73f 1137 313f 7ea3 3440 d24b 82bc
00000210: 92f5 7840 8a4c 9a3f 08ba 6740 1916 a7bf
00000220: 61af 7bbf e032 a7bf a9b6 55c0 d13c d3bf
00000230: 12d2 82c0 1b6b a73e ed6a c7bd a3df b340
00000240: 39e5 a7bf 9485 70bf 67bc 31c0 c4cf 4740
00000250: b101 a2c0 c669 12c0 a5b3 cbbf 42fc 14c0
00000260: fd0a 48c0 1f7d 0fc0 2380 e9be 64c4 bf3e
00000270: 1663 0e41 3ae2 7e40 9bd2 bf40 14d6 e1bf
00000280: 331a dac0 6610 7ac0 3834 a5c0 6e5b 103f
00000290: 607e 8b40 2f4f bd3f 75b7 eb40 6354 87bf
000002a0: 8a18 a2c0 9aaa 803f 159c aec0 faa0 533f
000002b0: 780e 98bf 3aca 123f ab7e 0ac0 5d41 f23f
000002c0: 5276 5041 2464 29c0 9cbc 79c1 5b98 13c0
000002d0: afe7 9a40 0eab 7940 65a4 2240 72ad 83be
000002e0: 4e15 9f3f 55d3 91be 2ff3 1bbf fb0d 143d
000002f0: 85f7 2240 f169 2440 87b8 b440 7f30 03bf
00000300: 9a7d d240 304e 6f40 7924 a440 d1a1 02bf
00000310: ac0a 40c1 71c8 3ec1 14f6 4dc0 2459 dc40
00000320: 8657 42c0 b4bf 04c0 eb43 b3bd 21fe ddbf
00000330: d6bb a8bf 84f2 43c0 3878 cc3e 2f3a 6f3f
00000340: caf5 84bf 8aaf b4be b74d cd3d f5d2 31c0
00000350: 0f34 ee40 b328 9740 de07 a140 14f9 843f
00000360: b732 1241 085f 6640 5943 b140 c4e0 29c0
00000370: e4b7 9240 4762 4240 81b6 ae40 42d6 9bbf
00000380: 318c 9a40 5727 95bd dbb0 8a40 1712 14bf
00000390: ebd5 3041 0ac5 be40 d41a cd40 de00 a2bf
000003a0: fd98 a440 c22d f53e 2480 5440 65e7 23c0
000003b0: d2a5 c7c0 3b9e 29c0 44b4 9ec0 b2fd bb3e
000003c0: cacd 06bf 6caf 67be 8d01 52c0 1efa 6740
000003d0: e078 2cc0 c20b 0ac0 1802 50c0 3bc5 32bf
000003e0: 0669 b4bf ff2f e93f 8515 31c0 0c95 f53f
000003f0: bd0e c1c0 038d 4ec0 c504 c1c0 3ed6 6ebf

critic.v_net.fcs.0.bias f4 [64]
-0.84203315 0.6138681 -0.44879273 -0.21788299 -0.14848869 1.1004729 -0.04184673 0.2654127
-0.17159882 0.42145625 0.574981 -0.44782057 -0.12304023 -0.3166563 0.033039916 0.44396305
1.2882855 -0.2579602 0.08800861 1.3533381 -0.18463658 0.36157647 0.32380778 0.45704177
0.3659614 0.4040706 -0.19393574 0.07046937 -0.086298086 -0.33508563 -0.52975285 0.04018242
-0.22135466 0.058876727 0.8695402 -0.41207692 -0.08460434 0.12237252 -0.008968399 0.47887522
-0.30427882 0.30186367 -1.2418585 0.6162549 0.5645681 0.27339977 1.0547022 0.14323963
0.35851133 -0.27226418 0.1993039 -0.035981003 2.027028 0.66395855 0.533223 0.117564976
0.9961885 0.9356799 0.7016039 -0.29539028 0.028635936 -0.2647784 -0.032001775 -0.39396098
00000000: 7c8f 57bf 7626 1d3f 29c8 e5be b81c 5fbe
00000010: 6b0d 18be 4cdc 8c3f 7a67 2bbd 2ce4 873e
00000020: 9ab7 2fbe 1dc9 d73e f431 133f bd48 e5be
00000030: 84fc fbbd c620 a2be dd54 073d 204f e33e
00000040: 8ae6 a43f 5c13 84be dc3d b43d 2f3a ad3f
00000050: 5f11 3dbe 8d20 b93e 22ca a53e 6101 ea3e
00000060: 4b5f bb3e 57e2 ce3e 1797 46be 3f52 903d
00000070: 0dbd b0bd 5890 abbe e29d 07bf 5296 243d
00000080: ccaa 62be b928 713d 309a 5e3f bffb d2be
00000090: 0a45 adbd 729e fa3d 31f0 12bc 222f f53e
000000a0: 6fca 9bbe e08d 9a3e 38f5 9ebf e2c2 1d3f
000000b0: 8987 103f 0efb 8b3e 7b00 873f 69ad 123e
000000c0: cc8e b73e 3666 8bbe 5216 4c3e d160 13bd
000000d0: d4ba 0140 30f9 293f 4d81 083f e8c5 f03d
000000e0: 3606 7f3f b888 6f3f 509c 333f 653d 97be
000000f0: e995 ea3c 0991 87be 4b14 03bd 41b5 c9be

critic.v_net.fcs.1.weight f4 [64, 64]
0.29415032 2.0476751 -0.8935043 -0.8220453 -3.4945107 0.66805667 2.1879215 -0.24451667
0.3268048 -2.5437083 -0.50734013 -4.1167955 0.92921096 0.7766337 -1.83974 0.37516728
-1.3048531 0.68836266 -1.3225329 -0.39807898 -0.97512674 4.469669 -0.4975279 1.4451278
-0.36110446 0.31542617 2.2858975 0.3838281 1.2075474 0.6205692 -0.6139171 1.6973773
-0.74180955 -0.28968543 0.830832 -2.4766443 -2.8580132 -0.59045434 -0.47856176 1.5619391
-0.96571946 -0.39085442 -0.5012815 0.13669209 0.9577916 -1.1865904 -1.1331688 -1.3604138
-0.53538877 -1.6152048 -0.18481831 -0.4423191 -0.8460853 -1.086903 1.6303223 1.1049947
0.5996633 3.2108843 2.7110164 -0.36465788 -1.2875032 0.832466 0.1381222 -0.55190814
-2.8381803 -0.11178404 -3.242577 1.3105375 -1.6187892 -1.6508806 -1.8634245 2.4446855
-0.9842172 1.4211307 0.6336867 0.9123205 -0.5225186 -2.3498678 1.700648 -0.85602766
0.32508734 -0.50934756 0.0017873368 -2.6035793 -0.94917464 2.130373 3.323989 2.027703
-0.38380054 3.2325568 0.3919035 0.92467415 -1.1878508 -3.0859497 -0.1365084 -0.5421578
0.72863454 -0.0073653623 -1.209076 -0.20725413 -0.056231763 0.6010499 -0.5545866 2.063327
-2.0788813 -0.59710056 -0.32511744 0.036140107 -0.9828326 0.47385666 0.25030088 1.2904241
2.6722553 -3.1266954 -0.04102827 -0.3515346 1.5498718 0.7907955 1.7990049 2.1748812
0.5804701 0.03782414 0.4626478 -1.6163995 1.0979216 0.6460296 1.0319059 -2.5347004
-1.7936547 1.79232 0.8490123 0.8337213 0.82004136 0.07772307 3.5048466 -0.07454754
-1.1161938 -2.4024723 -0.9135129 1.1932948 -0.67418116 -0.41964346 -0.05804092 2.3749862
-1.507588 0.99773425 1.1774737 0.0061019077 0.09345932 -1.0097523 0.14644314 -0.059540205
-0.40811092 0.08678564 -5.611435 -0.33305758 -0.009068515 -0.27010083 0.87642443 0.03454538
0.59773827 0.55625117 -1.0843982 0.120674446 -0.519739 -1.6232885 -0.42285588 0.37317947
0.19910318 1.337742 0.47357646 -0.82238424 2.032374 0.34672815 -0.42353278 1.3205869
-0.24397951 2.8102636 -0.48334536 -0.3194365 -2.5538616 1.7394739 -0.27537158 0.96999955
-0.65704536 1.7545352 -1.1196977 0.038322326 -0.3771145 -0.6625875 0.46389142 -1.731498
-2.7223916 1.058457 -0.3502962 0.57219595 0.61990637 -1.2536544 4.5744686 1.0731432
0.4413652 -1.4534074 -1.3721588 2.7632072 -0.4689662 -0.06405964 0.7937057 2.4738736
-1.8864467 -0.4904237 -0.4626937 -1.4695299 0.0395578 -0.5601867 1.6060495 0.07034087
-0.40684462 1.6802883 -7.259798 -0.44539502 -0.0011070584 -1.6885328 -0.18146397 0.5997443
-0.28698206 0.13121593 -2.252756 -0.22789253 0.5296038 -0.10897395 0.62727666 0.11833034
-1.2287405 1.0682142 0.64514285 -1.2379515 2.673379 -0.54463327 -1.659104 -0.087952174
1.7282492 2.5876493 0.095381565 -0.75581884 -1.9585068 2.740289 0.098307125 0.008247067
-0.7463559 2.0739717 -1.3146188 -0.7019403 -0.6796284 0.71950144 -0.46800917 -1.184868
00000000: df9a 963e 1c0d 0340 b3bc 64bf 9071 52bf
00000010: 10a6 5fc0 c305 2b3f e806 0c40 9462 7abe
00000020: f552 a73e 1ecc 22c0 0be1 01bf cabc 83c0
00000030: c5e0 6d3f 77d1 463f 9a7c ebbf ed15 c03e
00000040: 6d05 a7bf 8938 303f c248 a9bf 02d1 cbbe
00000050: e8a1 79bf 8707 8f40 fabb febe f3f9 b83f
00000060: afe2 b8be 8a7f a13e 254c 1240 1e85 c43e
00000070: ea90 9a3f a0dd 1e3f ac29 1dbf a943 d93f
00000080: 3be7 3dbf a651 94be 68b1 543f 5781 1ec0
00000090: b0e9 36c0 0428 17bf 0c06 f5be 9fed c73f
000000a0: 6439 77bf 121e c8be fc53 00bf 03f9 0b3e
000000b0: d531 753f 32e2 97bf ad0b 91bf 0a22 aebf
000000c0: 3d0f 09bf 08bf cebf 0341 3dbe a677 e2be
000000d0: 0c99 58bf a31f 8bbf 67ae d03f 7770 8d3f
000000e0: 8983 193f 217f 4d40 4b81 2d40 70b4 babe
000000f0: e8cc a4bf 7e1c 553f e86f 0d3e da49 0dbf
00000100: bfa4 35c0 08ef e4bd 6286 4fc0 b1bf a73f
00000110: 7c34 cfbf 0e50 d3bf b284 eebf ba75 1c40
00000120: a9f5 7bbf 9ce7 b53f 4b39 223f d68d 693f
00000130: c7c3 05bf 3c64 16c0 d5ae d93f a124 5bbf
00000140: d971 a63e 9a64 02bf 1245 ea3a 0ba1 26c0
00000150: 1cfd 72bf 0858 0840 3cbc 5440 e3c5 0140
00000160: 8181 c4be 36e2 4e40 93a7 c83e 72b7 6c3f
00000170: 7f0b 98bf 3380 45c0 dcc8 0bbe dbca 0abf
00000180: cb87 3a3f 2359 f1bb 01c3 9abf 6d3a 54be
00000190: 4753 66bd 68de 193f 63f9 0dbf 8d0d 0440
000001a0: 640c 05c0 95db 18bf cb75 a6be a607 143d
000001b0: eb9a 7bbf 579d f23e 7027 803e 9e2c a53f
000001c0: 3b06 2b40 c71b 48c0 420d 28bd 58fc b3be
000001d0: 3362 c63f 9371 4a3f cb45 e63f 4131 0b40
000001e0: b099 143f 7ced 1a3d 2ce0 ec3e 2ee6 cebf
000001f0: b288 8c3f 3262 253f 7e15 843f 8838 22c0
00000200: 7a96 e5bf be6a e53f df58 593f c26e 553f
00000210: 3bee 513f 462d 9f3d 684f 6040 61ac 98bd
00000220: 70df 8ebf 1bc2 19c0 fbdb 69bf e2bd 983f
00000230: 2397 2cbf 82db d6be 51bc 6dbd c6ff 1740
00000240: a5f8 c0bf 836b 7f3f 75b7 963f 83f2 c73b
00000250: 9a67 bf3d 903f 81bf 31f5 153e 6ee0 73bd
00000260: eaf3 d0be abbc b13d e090 b3c0 8686 aabe
00000270: 1c94 14bc a84a 8abe 5a5d 603f 757f 0d3d
00000280: 6005 193f 7a66 0e3f 8fcd 8abf 2a24 f73d
00000290: 9d0d 05bf ebc7 cfbf 9180 d8be 6111 bf3e
000002a0: b4e1 4b3e 213b ab3f 9d78 f23e c687 52bf
000002b0: 6a12 0240 5a86 b13e 4ad9 d8be fe08 a93f
000002c0: c4d5 79be 5cdb 3340 0b79 f7be 2e8d a3be
000002d0: 7872 23c0 15a7 de3f 81fd 8cbe e451 783f
000002e0: 2034 28bf 9c94 e03f 4152 8fbf dff7 1c3d
000002f0: 2715 c1be 569f 29bf 2d83 ed3e baa1 ddbf
00000300: aa3b 2ec0 857b 873f 065a b3be 6f7b 123f
00000310: 2fb2 1e3f bf77 a0bf 0c62 9240 c25c 893f
00000320: 9ffa e13e 4109 babf e6a2 afbf 63d8 3040
00000330: 561c f0be b331 83bd 4c30 4b3f f253 1e40
00000340: 1677 f1bf d118 fbbe 30e6 ecbe 8e19 bcbf
00000350: 5c07 223d 6568 0fbf 0893 cd3f e00e 903d
00000360: f04d d0be b013 d73f 4450 e8c0 d10a e4be
00000370: b71a 91ba d821 d8bf b1d1 39be d888 193f
00000380: 50ef 92be 785d 063e 282d 10c0 a95c 69be
00000390: 1d94 073f bc2d dfbd 3495 203f 2d57 f23d
000003a0: 5e47 9dbf 3ebb 883f 1528 253f 3275 9ebf
000003b0: a418 2b40 166d 0bbf 855d d4bf 4520 b4bd
000003c0: 4537 dd3f 0c9c 2540 6957 c33d 587d 41bf
000003d0: 5ab0 fabf e560 2f40 3f55 c93d b51e 073c
000003e0: 2e11 3fbf f4bb 0440 6e45 a8bf 5cb2 33bf
000003f0: 20fc 2dbf 3f31 383f e69e efbe c1a9 97bf

critic.v_net.fcs.1.bias f4 [64]
-1.7049655 0.7391191 -1.8328453 -2.4020853 -0.62022483 0.44099793 0.8463114 1.4423381
0.001160065 -0.28891733 -0.029706128 1.6104177 -1.5972767 -0.38615143 0.8705259 -1.84647
-1.2120988 -2.1767163 1.2076752 0.6288299 0.09275226 2.522651 0.47703266 -2.0452123
1.4628235 0.3255169 -0.008062906 1.3626745 1.7367345 0.19189802 1.3004376 -0.7666484
0.00927816 1.3820218 0.9014112 -1.6514752 -1.3172175 -1.2731625 2.1486063 0.0054748044
-0.11954434 -1.6695644 -2.2252162 -1.9303272 -0.72579503 0.0967448 -2.0886643 -0.7559203
-0.71049875 -1.7720977 -0.19810744 1.545138 -1.9502727 -0.7167485 -1.5247742 0.86406106
-2.0816138 -0.09027876 -1.471141 -0.12048796 0.6147334 -3.4453235 -1.232432 -0.4327545
00000000: 4f3c dabf e936 3d3f ad9a eabf c4bb 19c0
00000010: 0ec7 1ebf 7bca e13e dda7 583f 899e b83f
00000020: 520d 983a f9ec 93be 445a f3bc 2b22 ce3f
00000030: 9073 ccbf a4b5 c5be c9da 5e3f 2159 ecbf
00000040: 0e26 9bbf 524f 0bc0 1a95 9a3f fffa 203f
00000050: e6f4 bd3d 1d73 2140 a03d f43e c2e4 02c0
00000060: cd3d bb3f 27aa a63e 471a 04bc 1e6c ae3f
00000070: 514d de3f ea80 443e bd74 a63f 1243 44bf
00000080: 6c03 183c 17e6 b03f e2c2 663f 8a63 d3bf
00000090: 959a a8bf fdf6 a2bf c482 0940 fd65 b33b
000000a0: aad3 f4bd 49b4 d5bf f169 0ec0 f614 f7bf
000000b0: b4cd 39bf 2322 c63d adac 05c0 fe83 41bf
000000c0: 3fe3 35bf 19d4 e2bf addc 4abe 15c7 c53f
000000d0: 89a2 f9bf d47c 37bf cd2b c3bf 1b33 5d3f
000000e0: 2939 05c0 12e4 b8bd 594e bcbf 64c2 f6bd
000000f0: 2b5f 1d3f 2e80 5cc0 55c0 9dbf ff91 ddbe

critic.v_net.fcs.2.weight f4 [1, 64]
-1.5175071 6.835778 -9.278782 -12.192678 -2.9969378 1.9041835 3.9087188 5.5128684
4.06763 -3.8416457 3.717042 2.312486 -5.436171 -4.092214 3.2992992 -1.1068091
-5.4205813 -2.4580798 5.6678777 1.7366006 2.7170858 3.087528 3.1067653 -2.3116326
2.7654915 4.649683 -3.082417 6.720653 6.049857 2.459934 2.2310085 -5.5660005
2.7466297 4.559166 4.571364 -2.4671128 -1.7105002 -3.8781986 2.3117847 5.10717
5.2868524 -2.1436408 -5.665869 -3.5859048 -2.9785156 -4.0334573 4.743522 -1.7547072
-2.5268223 -0.650068 -3.948857 6.359586 -1.2978765 -7.3886714 -1.5803099 4.409069
-5.1459193 4.9978266 -12.105058 -3.1234002 3.091566 -4.6744504 -6.0179443 6.7130556
00000000: ac3d c2bf b2be da40 e475 14c1 3615 43c1
00000010: d4cd 3fc0 49bc f33f 7328 7a40 6b69 b040
00000020: 062a 8240 86dd 75c0 04e4 6d40 c5ff 1340
00000030: 1df5 adc0 6bf3 82c0 b827 5340 ecab 8dbf
00000040: 6775 adc0 2e51 1dc0 415f b540 ee48 de3f
00000050: bce4 2d40 0f9a 4540 3ed5 4640 caf1 13c0
00000060: d0fd 3040 34ca 9440 5246 45c0 970f d740
00000070: 6e98 c140 8f6f 1d40 d8c8 0e40 ad1c b2c0
00000080: c8c8 2f40 b0e4 9140 9d48 9240 2de5 1dc0
00000090: acf1 dabf 6834 78c0 48f4 1340 f06d a340
000000a0: e52d a940 6931 09c0 cd4e b5c0 777f 65c0
000000b0: 00a0 3ec0 1512 81c0 efca 9740 3f9a e0bf
000000c0: 75b7 21c0 db6a 26bf 13ba 7cc0 ba81 cb40
000000d0: d120 a6bf ff6f ecc0 9847 cabf 1817 8d40
000000e0: 5fab a4c0 32ee 9f40 51ae 41c1 cae5 47c0
000000f0: 38dc 4540 1995 95c0 0093 c0c0 5ad1 d640

exp_avg f4 [64, 4]
-0.06124006 -0.046964463 -0.025424285 -0.050703064 -0.014282667 -0.011392671 -0.006824305 -0.012808315
0.008957341 0.007594409 0.0036853016 0.006779266 -1.7717968e-05 -9.7234704e-05 -0.00023364161 -5.315919e-05
0.016337909 0.012675621 0.007374858 0.014469573 0.04448489 0.03267808 0.019177573 0.037085276
0.23609006 0.1761405 0.105737776 0.2109529 -0.18721513 -0.14654559 -0.0817036 -0.15840182
-0.16997516 -0.12662257 -0.0762109 -0.15087152 -0.059691694 -0.045969833 -0.024305515 -0.04785333
0.0018988012 0.0011337337 0.0019783364 0.0039630793 -0.006281437 -0.0051206276 -0.0024756368 -0.0046799583
-0.15457949 -0.12299552 -0.06922745 -0.13237022 0.019399727 0.015603929 0.008561447 0.016327951
0.040314235 0.03156437 0.017939238 0.034570385 -0.26902202 -0.21102616 -0.118294165 -0.22888424
0.039204676 0.028824328 0.01635478 0.033763174 0.003288681 0.0025225098 0.0007593387 0.0014795515
0.101404846 0.079229854 0.04508881 0.08727427 -0.027176525 -0.020387381 -0.012540322 -0.02413675
-0.010186943 -0.007674244 -0.0044086925 -0.008917899 -0.0012751756 -0.00096244074 -0.0007824601 -0.001487689
-0.07435664 -0.057894535 -0.03377665 -0.06479085 -0.0019946264 -0.0020567607 -0.00095735077 -0.001526559
-0.16665865 -0.13106388 -0.07449053 -0.1437754 0.0013332786 0.0013542571 0.0010801814 0.0017026289
0.11769977 0.09046729 0.050999284 0.100841075 -0.061019268 -0.04759851 -0.025344344 -0.049620256
-0.07614857 -0.056925077 -0.032521836 -0.067068115 0.040574107 0.03172943 0.017307203 0.033187766
0.0008087902 0.0002732571 -0.00012292167 8.678158e-05 0.009970058 0.00810913 0.004885617 0.009232526
-0.052282453 -0.040989142 -0.022258954 -0.043029886 -0.016596537 -0.012988773 -0.007366524 -0.014120323
-0.067584924 -0.051532738 -0.030161027 -0.05886899 0.03403793 0.0253589 0.015216495 0.030007532
-0.081890196 -0.06605771 -0.037753135 -0.07193043 0.058307253 0.042988893 0.02594411 0.051764555
0.11051548 0.0843884 0.04837552 0.09529692 -0.010088232 -0.008021736 -0.004260647 -0.008340459
-0.20752347 -0.15959948 -0.08850952 -0.17591883 -0.057016224 -0.043849055 -0.027824981 -0.052323565
0.18585962 0.14720985 0.08061614 0.15504245 0.046356395 0.03683205 0.019659098 0.03770582
0.04035848 0.031597946 0.017687762 0.033997048 0.041937362 0.03222061 0.018741133 0.036462788
0.019873463 0.014570493 0.008611969 0.017745683 -0.012094766 -0.009160917 -0.004911985 -0.010187636
-0.20249231 -0.15869144 -0.089031845 -0.1734549 -0.0090854345 -0.0069656135 -0.004551992 -0.008814753
0.25451356 0.20029402 0.11012837 0.21322851 0.006950921 0.005545749 0.0028953 0.0055286624
-0.01983982 -0.015750274 -0.009457335 -0.018329127 -0.08748877 -0.06872454 -0.03698346 -0.07141482
0.001874474 0.0015633911 -4.8121492e-05 -0.000132184 0.055710126 0.04256223 0.024332052 0.04798684
0.00036160633 0.00015080956 0.00078716147 0.0016158884 -0.0068889274 -0.005529353 -0.0027347659 -0.005222167
-0.008567313 -0.0065548955 -0.0036988799 -0.007270022 0.034985688 0.026602129 0.015490838 0.02993931
-0.13724001 -0.09756097 -0.06259243 -0.12836833 0.030314822 0.023392014 0.012687766 0.024849879
0.002604683 0.0018293419 -2.9531457e-05 0.00027088603 0.023275174 0.018812094 0.010082585 0.019809766
00000000: dbd6 7abd cf5d 40bd 9746 d0bc 04ae 4fbd
00000010: d901 6abc 53a8 3abc 6b9e dfbb f8d9 51bc
00000020: d0c1 123c 85da f83b 1a85 713b 9b24 de3b
00000030: 0ca1 94b7 7cea cbb8 b1fd 74b9 3ff7 5eb8
00000040: 14d7 853c 68ad 4f3c cba8 f13b ca11 6d3c
00000050: ca35 363d 73d9 053d 491a 9d3c bbe6 173d
00000060: 98c1 713e 2d5e 343e 0c8d d83d 0904 583e
00000070: 53b5 3fbe 0c10 16be 3854 a7bd 1634 22be
00000080: f80d 2ebe 59a9 01be 7614 9cbd 107e 1abe
00000090: 477f 74bd dd4a 3cbd 5c1c c7bc da01 44bd
000000a0: 32e1 f83a ca99 943a faa6 013b b8dc 813b
000000b0: 83d4 cdbb f0ca a7bb 4b3e 22bb 565a 99bb
000000c0: 164a 1ebe 13e5 fbbd 1fc7 8dbd 0f8c 07be
000000d0: 2dec 9e3c 9fa7 7f3c 5045 0c3c 32c2 853c
000000e0: 8a20 253d a449 013d 4ff5 923c ad99 0d3d
000000f0: 41bd 89be 3e17 58be 3644 f2bd a160 6abe
00000100: 1595 203d ff20 ec3c 76fa 853c 414b 0a3d
00000110: e986 573b b150 253b 5c0e 473a 83ed c13a
00000120: 58ad cf3d 4343 a23d 0baf 383d dabc b23d
00000130: 4ea1 debc 7003 a7bc ec75 4dbc 6fba c5bc
00000140: 23e7 26bc 3a78 fbbb cb76 90bb 611c 12bc
00000150: cb23 a7ba 4e4c 7cba 021e 4dba 8ffe c2ba
00000160: 4b48 98bd d222 6dbd 6259 0abd 11b1 84bd
00000170: 47b8 02bb b8ca 06bb b9f6 7aba d216 c8ba
00000180: 91a8 2abe 9c35 06be 7e8e 98bd dc39 13be
00000190: 68c1 ae3a 5481 b13a e094 8d3a bf2a df3a
000001a0: 940c f13d ea46 b93d a0e4 503d c485 ce3d
000001b0: 57ef 79bd a8f6 42bd f19e cfbc 9c3e 4bbd
000001c0: c8f3 9bbd 452a 69bd 9e35 05bd 025b 89bd
000001d0: 0931 263d b8f6 013d d6c7 8d3c e5ef 073d
000001e0: fe04 543a f243 8f39 89e4 00b9 82fe b538
000001f0: 7459 233c 28dc 043c 8717 a03b 0544 173c
00000200: 2026 56bd 3be4 27bd 6958 b6bc 1b40 30bd
00000210: 76f5 87bc ddce 54bc e262 f1bb ed58 67bc
00000220: f769 8abd fe13 53bd 4214 f7bc 9c20 71bd
00000230: 5b6b 0b3d 78bd cf3c 9b4e 793c 5bd2 f53c
00000240: 0cb6 a7bd 4449 87bd 08a3 1abd 4350 93bd
00000250: 96d3 6e3d 1f15 303d be88 d43c 1207 543d
00000260: f155 e23d d3d3 ac3d 6925 463d 082b c33d
00000270: 1d49 25bc 996d 03bc e69c 8bbb 6ca6 08bc
00000280: 0881 54be 0c6e 23be 7b44 b5bd 1124 34be
00000290: d889 69bd 119b 33bd 37f1 e3bc 3c51 56bd
000002a0: fc51 3e3e 2ebe 163e 131a a53d 73c3 1e3e
000002b0: 34e0 3d3d 34dd 163d 1e0c a13c 6b71 1a3d
000002c0: ef4e 253d d96c 013d ede5 903c 7d40 0b3d
000002d0: 83c6 2b3d c2f9 033d 0187 993c 015a 153d
000002e0: accd a23c 14b9 6e3c 3719 0d3c 655f 913c
000002f0: 2029 46bc ac17 16bc b7f4 a0bb 0bea 26bc
00000300: 255a 4fbe 0280 22be 5456 b6bd 299e 31be
00000310: 13db 14bc cd3f e4bb e028 95bb c16b 10bc
00000320: 9a4f 823e e019 4d3e fc8a e13d 9358 5a3e
00000330: 8dc4 e33b 1db9 b53b 13bf 3d3b c829 b53b
00000340: 1e87 a2bc b806 81bc f0f2 1abc f726 96bc
00000350: 502d b3bd 74bf 8cbd f87b 17bd ef41 92bd
00000360: e9b0 f53a b3ea cc3a 0fd6 49b8 df9a 0ab9
00000370: 4d30 643d bc55 2e3d 0354 c73c d98d 443d
00000380: fb95 bd39 a222 1e39 8359 4e3a 38cc d33a
00000390: 83bc e1bb 932f b5bb c239 33bb b61e abbb
000003a0: ea5d 0cbc 73ca d6bb e868 72bb 5d39 eebb
000003b0: 274d 0f3d b5ec d93c 49cd 7d3c 4943 f53c
000003c0: a588 0cbe 0cce c7bd 7630 80bd fd72 03be
000003d0: ca56 f83c 9ca0 bf3c 59e0 4f3c f991 cb3c
000003e0: 54b3 2a3b 87c6 ef3a 52ba f7b7 b505 8e39
000003f0: 94ab be3c d21b 9a3c 6d31 253c 1748 a23c

exp_avg_sq f4 [64, 4]
0.06432853 0.1445413 0.010126617 0.045745224 0.0033653951 0.007643613 0.0006331745 0.002938315
0.0016622049 0.003519617 0.00025301694 0.0012040167 7.7157034e-05 0.00012282791 1.8064144e-05 4.6169753e-05
0.0040557263 0.009718756 0.000690879 0.0031662274 0.03121571 0.05902706 0.004692127 0.022341356
0.89027125 1.95287 0.15068929 0.6717387 0.55076766 1.2893414 0.09264131 0.42879906
0.46403384 1.0065953 0.07834214 0.350634 0.05909587 0.12595312 0.008887511 0.041921638
0.00014864704 0.0004247256 5.6273166e-05 0.00017032282 0.0010477862 0.0020021677 0.00015963663 0.0006779335
0.38767785 0.92044103 0.06681742 0.308821 0.0065410095 0.015330094 0.0011082218 0.005049609
0.027115926 0.062385634 0.004599062 0.021122009 1.1126485 2.6277657 0.18799505 0.8760564
0.027986981 0.06111196 0.0044822833 0.019061798 9.914443e-05 0.00016529977 7.568158e-06 5.1284573e-05
0.15496078 0.3698309 0.02642575 0.123304866 0.012133334 0.025309576 0.0020638881 0.00942378
0.001223506 0.0028567659 0.00019192835 0.0009656951 0.0002271856 0.00046481076 5.1341365e-05 0.00014315028
0.08861062 0.20517655 0.015401318 0.07048795 6.0137765e-05 0.00015857728 9.35416e-06 6.1414336e-05
0.4457612 1.0425402 0.07632645 0.34955034 0.000120250916 0.00021299823 2.647729e-05 0.000102596794
0.21432984 0.5013797 0.035261083 0.16193521 0.060729627 0.13395241 0.009492044 0.04468752
0.0920965 0.2204655 0.015611487 0.06807241 0.026035383 0.0576481 0.0041210484 0.01965289
0.0003040588 0.00039221416 4.591498e-05 0.0001423751 0.0012383739 0.003597236 0.00024745174 0.0012073822
0.04945098 0.10615258 0.007824185 0.035800792 0.0041465783 0.009827834 0.00068555726 0.0032633927
0.07438459 0.16023453 0.012503455 0.05726724 0.018207869 0.039642055 0.0030617164 0.013959323
0.11001479 0.27341697 0.019841535 0.09042713 0.055520248 0.118806355 0.009309954 0.04142663
0.20466146 0.45895877 0.034191716 0.15324312 0.0016772689 0.003931819 0.000277887 0.0012995877
0.69815177 1.6174784 0.11443671 0.5207463 0.05308529 0.115821674 0.0098904725 0.045102004
0.5714478 1.3168985 0.094328746 0.4390842 0.036395248 0.082001425 0.005834206 0.027301786
0.02476693 0.057969145 0.0041132667 0.019364053 0.02728081 0.06267131 0.004578421 0.021182954
0.0076407893 0.017370565 0.0012966626 0.005264545 0.0026581455 0.0059745945 0.00042724944 0.0018187483
0.64585364 1.5310209 0.109671675 0.5053924 0.0007097239 0.0021297606 0.00014306973 0.0007513589
1.0391695 2.4010708 0.17181782 0.80289596 0.0013707395 0.0026043619 0.00021369933 0.0009017117
0.006061316 0.016076064 0.0011300746 0.005054632 0.12598042 0.2818261 0.020200955 0.094011344
3.8588754e-05 7.9073696e-05 8.02848e-06 2.661393e-05 0.050115373 0.112907775 0.008284227 0.037530363
4.880863e-05 9.4997224e-05 9.2411365e-06 3.7730002e-05 0.0006406759 0.0013258082 8.936991e-05 0.0004789342
0.00081914983 0.001897843 0.00012910353 0.00067256996 0.020819495 0.0413115 0.003349321 0.0155553715
0.30007076 0.6300025 0.05142629 0.22110033 0.016015165 0.03359958 0.002494747 0.011524178
3.965489e-05 5.713127e-05 5.841621e-06 1.9573301e-05 0.008883868 0.022646653 0.0015611381 0.007140186
00000000: adbe 833d a202 143e 1cea 253c 585f 3b3d
00000010: f68d 5c3b 4677 fa3b 9ffb 253a bf90 403b
00000020: 57de d93a 60a9 663b 5ca7 8439 19d0 9d3a
00000030: 5ecf a138 5ecb 0039 7488 9737 65a6 4138
00000040: e6e5 843b 6b3b 1f3c 1b1c 353a 7b80 4f3b
00000050: 17b8 ff3c 5cc6 713d 6ac0 993b 3805 b73c
00000060: d1e8 633f a5f7 f93f 4b4e 1a3e 11f7 2b3f
00000070: 1cff 0c3f 2409 a53f baba bd3d 8d8b db3e
00000080: d895 ed3e 1dd8 803f d871 a03d 4d86 b33e
00000090: 830e 723d dbf9 003e ec9c 113c 06b6 2b3d
000000a0: 23de 1b39 b4ad de39 da06 6c38 af98 3239
000000b0: df55 893a cd36 033b 2264 2739 59b7 313a
000000c0: b67d c63e 06a2 6b3f 92d7 883d c91d 9e3e
000000d0: f755 d63b 132b 7b3c c141 913a 3177 a53b
000000e0: 3822 de3c 1488 7f3d bab3 963b 1008 ad3c
000000f0: 446b 8e3f 502d 2840 c681 403e 3b45 603f
00000100: f444 e53c 8950 7a3d 1ee0 923b 7d27 9c3c
00000110: c3eb cf38 5254 2d39 fbf1 fd36 641a 5738
00000120: 0aae 1e3e 7a5a bd3e d17a d83c 4387 fc3d
00000130: e4ca 463c 0756 cf3c 4c42 073b 3366 1a3c
00000140: 0d5e a03a 9438 3b3b 6040 4939 b326 7d3a
00000150: ac38 6e39 d8b1 f339 5f57 5738 9c1a 1639
00000160: 7c79 b53d cd19 523e cf55 7c3c fd5b 903d
00000170: 6f3c 7c38 c447 2639 d0ef 1c37 92cb 8038
00000180: d03a e43e f571 853f 0b51 9c3d 43f8 b23e
00000190: 382f fc38 4758 5f39 8c1b de37 3c29 d738
000001a0: 4879 5b3e 6c5a 003f ed6d 103d 58d2 253e
000001b0: a1bf 783d d22a 093e 8584 1b3c 430a 373d
000001c0: 179d bc3d b5c1 613e 53c7 7f3c 8c69 8b3d
000001d0: 2848 d53c 6a20 6c3d dc09 873b 19ff a03c
000001e0: 156a 9f39 18a2 cd39 d694 4038 864a 1539
000001f0: ef50 a23a 9bbf 6b3b 69bc 8139 0641 9e3a
00000200: 1c8d 4a3d 8666 d93d 0331 003c daa3 123d
00000210: 05e0 873b ec04 213c f8b6 333a a5de 553b
00000220: f356 983d 8514 243e 4bdb 4c3c 0e91 6a3d
00000230: ab28 953c b55f 223d 14a7 483b a5b5 643c
00000240: 6f4f e13d 4ffd 8b3e b78a a23c dc31 b93d
00000250: 3369 633d bf50 f33d c788 183c f8ae 293d
00000260: c692 513e a5fc ea3e 9d0c 0c3d c4eb 1c3e
00000270: ced7 db3a 7dd6 803b 5db1 9139 ed56 aa3a
00000280: 13ba 323f 8809 cf3f cb5d ea3d a14f 053f
00000290: f66f 593d ea33 ed3d a60b 223c e1bc 383d
000002a0: 674a 123f 2190 a83f 6e2f c13d a5cf e03e
000002b0: 2f13 153d 5df0 a73d de2c bf3b ffa7 df3c
000002c0: 04e4 ca3c 0e71 6d3d 95c8 863b 5da1 9e3c
000002d0: 017c df3c d159 803d 9406 963b e087 ad3c
000002e0: 965f fa3b b74c 8e3c c7f4 a93a 3482 ac3b
000002f0: 4834 2e3b 88c6 c33b 7300 e039 1163 ee3a
00000300: aa56 253f 7ef8 c33f 8b9b e03d 6561 013f
00000310: c40c 3a3a 7493 0b3b fd04 1639 d8f6 443a
00000320: 8203 853f 25ab 1940 03f1 2f3e 978a 4d3f
00000330: 63aa b33a f1ad 2a3b 7a14 6039 d960 6c3a
00000340: 019e c63b f3b1 833c 031f 943a 54a1 a53b
00000350: 0301 013e 834b 903e 797c a53c 0589 c03d
00000360: 5cda 2138 5ed4 a538 0fb2 0637 fb40 df37
00000370: c745 4d3d 313c e73d 91ba 073c 70b9 193d
00000380: deb7 4c38 3f39 c738 610a 1b37 4840 1e38
00000390: 08f3 273a bec6 ad3a 1b6c bb38 7619 fb39
000003a0: 37bc 563a 0bc1 f83a f75f 0739 684f 303a
000003b0: a58d aa3c 3f36 293d 4880 5b3b f5db 7e3c
000003c0: e0a2 993e d847 213f 60a4 523d 2068 623e
000003d0: 3c32 833c b79f 093d e97e 233b e8cf 3c3c
000003e0: 1d53 2638 3ca0 6f38 2403 c436 5831 a437
000003f0: a58d 113c 7985 b93c 1a9f cc3a 39f8 e93b

exp_avg f4 [64]
0.8583865 0.21480209 -0.12342943 0.007918677 -0.24089044 -0.634373 -3.4473155 2.6969118
2.4927633 0.8220804 -0.04892325 0.084671505 2.257619 -0.281283 -0.58598703 3.8903093
-0.552633 -0.035974912 -1.4770896 0.40434223 0.14485681 0.024739685 1.0997801 0.02868677
2.435644 -0.028245669 -1.6926908 0.84872633 1.0875547 -0.5773246 -0.003529078 -0.15365957
0.74260896 0.24205664 0.98005915 -0.49541372 1.2195942 -0.84865975 -1.5977381 0.14206213
2.9524863 0.8742081 -2.66253 -0.65553904 -0.58408725 -0.61188924 -0.28749317 0.16749564
2.9306571 0.14236015 -3.6366475 -0.097353585 0.30346859 1.2382709 -0.011901391 -0.8053172
-0.018181546 0.09265973 0.12098631 -0.50333935 2.0277536 -0.42418164 -0.015680414 -0.33322763
00000000: 38bf 5b3f 14f5 5b3e 92c8 fcbd 57bd 013c
00000010: fcab 76be 4566 22bf d1a0 5cc0 349a 2c40
00000020: 6f89 1f40 dc73 523f bf63 48bd 4168 ad3d
00000030: d47c 1040 5304 90be 3f03 16bf d4fa 7840
00000040: 5b79 0dbf 6e5a 13bd 4611 bdbf f205 cf3e
00000050: 5855 143e e1aa ca3c 98c5 8c3f 8400 eb3c
00000060: 97e1 1b40 7663 e7bc 18aa d8bf 2146 593f
00000070: fe34 8b3f 8ccb 13bf 1b48 67bb ef58 1dbe
00000080: 9f1b 3e3f b2dd 773e 28e5 7a3f dea6 fdbe
00000090: aa1b 9c3f c441 59bf af82 ccbf bc78 113e
000000a0: 89f5 3c40 1acc 5f3f e466 2ac0 68d1 27bf
000000b0: be86 15bf c6a4 1cbf 4e32 93be fa83 2b3e
000000c0: e38f 3b40 dcc6 113e d5be 68c0 5161 c7bd
000000d0: 3c60 9b3e a97f 9e3f 0dfe 42bc 4529 4ebf
000000e0: 77f1 94bc 62c4 bd3d acc7 f73d d9da 00bf
000000f0: b7c6 0140 562e d9be 3674 80bc d09c aabe

exp_avg_sq f4 [64]
6.893652 0.40688196 0.17388472 0.010173102 0.45329544 3.1912093 99.51244 61.51234
51.525505 6.1746016 0.027312992 0.11057949 44.00949 0.73121303 3.0408332 124.648285
3.012792 0.007869792 17.42921 1.3411165 0.13347167 0.029029276 9.994399 0.0060560363
50.296753 0.014912457 23.54306 6.513897 10.372249 2.7849536 0.03052113 0.1541455
5.2892823 0.45534706 8.300616 2.0258167 12.8802595 6.1456604 22.63344 0.1874043
76.78194 6.2739835 63.25415 3.950972 2.73131 3.0204263 0.8491951 0.28678957
72.72734 0.09050421 115.027534 0.14320876 0.71711797 13.644528 0.004974119 5.5186453
0.0056001307 0.06668121 0.09047856 2.250638 33.765823 1.7112536 0.0036185689 1.0356016
00000000: cc98 dc40 d552 d03e d60e 323e 15ad 263c
00000010: 5716 e83e c63c 4c40 5f06 c742 a30c 7642
00000020: 1e1a 4e42 5696 c540 7fbf df3c 8077 e23d
00000030: b809 3042 c730 3b3f 039d 4240 ec4b f942
00000040: 96d1 4040 4df0 003c 066f 8b41 b5a9 ab3f
00000050: ccac 083e cece ed3c 0fe9 1f41 b771 c63b
00000060: e02f 4942 6153 743c 3058 bc41 d871 d040
00000070: bbf4 2541 ae3c 3240 7307 fa3c 51d8 1d3e
00000080: cd41 a940 4023 e93e 53cf 0441 fba6 0140
00000090: 8b15 4e41 40a9 c440 4911 b541 eae6 3f3e
000000a0: 5a90 9942 79c4 c840 4004 7d42 badc 7c40
000000b0: c8cd 2e40 aa4e 4140 da64 593f 15d6 923e
000000c0: 6674 9142 455a b93d 190e e642 51a5 123e
000000d0: 0b95 373f fd4f 5a41 effd a23b be98 b040
000000e0: 4d81 b73b 2990 883d d34c b93d 740a 1040
000000f0: 3410 0742 5c0a db3f 8325 6d3b 988e 843f
