training_results/quadrotor_rarl/rap/seed_2024/10000000steps/checkpoints/model_5000000.pt (torch, 469317 bytes, 108 tensors)

actor.logstd f4 [4]
000000 ab 3b 1f 3f 76 d4 0b 3f bb bd 21 3f 8d db 8f 3f
       0.6220042 0.54621065 0.6318013 1.1238877

actor.pi_net.fcs.0.weight f4 [64, 17]
000000 cd 5c 30 3d 02 3f 68 3f a1 1e b4 be 44 c6 c1 3e
       0.04305725 0.9072114 -0.35179618 0.37846577
000010 50 0e b1 3f d6 4b 50 bd 85 7f 61 3f 2c 5b e0 be
       1.3832493 -0.050853573 0.88085204 -0.4381956
000020 ab d1 e5 3e 5f 4c 4a be c8 39 52 be e1 49 fc 3d
       0.44886526 -0.19755696 -0.20529854 0.12318779
000030 0c 89 1b bd 3c 79 73 3d 51 6f 43 be 48 1e 73 3e
       -0.037972495 0.05944179 -0.19085433 0.2374202
000040 ba 98 0d 3e 4d 18 23 bf 00 30 1f 3f a5 84 07 3f
       0.13827792 -0.63708955 0.6218262 0.52936774
000050 5d b0 c1 bf 10 bf 45 3f af 33 0e be 12 7e a4 be
       -1.5131947 0.77244663 -0.13886903 -0.32127434
000060 0a 16 1f bf b9 8b 0f 3f 43 f5 66 3f 47 ba 67 3e
       -0.62143004 0.56072575 0.9021799 0.22629653
000070 2c 21 a9 bc 90 5e 10 bc 80 7c 03 3e 3c 0c 41 be
       -0.0206457 -0.008811608 0.12840462 -0.18852323
000080 59 27 58 be e4 ac d3 3d 12 11 d5 bf 8d 0e f0 be
       -0.2110876 0.10335711 -1.6645834 -0.468861
000090 75 dd a0 be 00 94 84 bf 3c 12 36 bf d8 47 02 3f
       -0.31418958 -1.0357666 -0.71121573 0.50890875
0000a0 ae 93 36 bf e7 ab 40 bf d6 46 e3 3e a4 39 99 be
       -0.7131909 -0.752623 0.4438998 -0.2992679
0000b0 4f 4f 13 be 09 42 dd bd 6b ae 8f 3e 7c ea c6 3d
       -0.14385723 -0.10803611 0.28062758 0.09712693
0000c0 04 8e 49 bd b9 02 9e bd e4 89 d9 bd 4f 11 15 bf
       -0.049207702 -0.07715363 -0.10622004 -0.58229536
0000d0 4c ff a0 bf 19 75 59 3e ba 0a 00 be 3c f3 81 bf
       -1.257791 0.21236075 -0.12504092 -1.0152354
0000e0 8f ae 95 be 2c e5 f6 3e 8a 55 87 3d ad 40 47 bf
       -0.2923474 0.4822172 0.06608112 -0.7783306
0000f0 73 b6 f8 3e 55 fb 57 3e 8a db 9d bb 40 60 07 be
       0.48576698 0.2109197 -0.004817431 -0.1322031
000100 26 75 f9 3e 84 a3 cc 3c 4b ef d0 be 49 4d a5 be
       0.4872219 0.024980314 -0.40807566 -0.32285526
000110 2f eb 65 3f be c6 4a 3f 3d 28 1a be 57 b9 3a 3e
       0.89811987 0.79209507 -0.15054412 0.18234764
000120 34 61 75 3f 6e d4 2d 3d c6 03 15 bf b7 c1 2f 3f
       0.95851445 0.042438917 -0.5820888 0.6865496
000130 bf 66 c8 bd a5 75 80 3d f6 cf 19 bd 4d ff 15 3e
       -0.09785222 0.06272439 -0.037551843 0.14648171
000140 2a 5a 3b 3e 4e 85 09 3f 2b d4 45 bd 5f 77 1b bf
       0.18296114 0.5371903 -0.048298042 -0.6072902
000150 bd 06 54 3e a2 ea 5d 3f 95 ba a8 3c e3 e9 18 3f
       0.20705695 0.86686146 0.020596782 0.5973188
000160 e2 9d 87 3f da 13 f8 3d 78 75 44 bf cc 3b 83 3e
       1.0595057 0.121131614 -0.76741743 0.2563156
000170 2e 98 95 3e 9b 39 cb be 63 38 31 3f 53 ad c2 3d
       0.29217666 -0.39692387 0.69226664 0.09505715
000180 b8 79 cc 3c db bb 1b 3e c1 5e 96 bd 2b d6 c5 3c
       0.024960384 0.1520838 -0.073422916 0.024149975
000190 2a f4 8e bc 3b 3f f6 bd 3d 9b 12 bf 12 d8 fe bd
       -0.01745041 -0.12023779 -0.57268125 -0.12443556
0001a0 4a 8f fa be ae 3c e1 be a4 9e eb be 50 d7 0a 3f
       -0.48937446 -0.43991607 -0.4601947 0.5423479
0001b0 50 d0 93 3d d1 10 b2 be 12 92 de bd b7 c1 2a bf
       0.07217467 -0.34778455 -0.108677045 -0.66701835
0001c0 ef 9b c7 3e 86 8a f6 bb d7 0a a1 be a8 2f 47 3d
       0.38986155 -0.0075238375 -0.31453583 0.048629433
0001d0 bf 1e 26 3e 72 5b 88 bd dc 1b bc 3e e2 de a7 be
       0.16222666 -0.06658067 0.36740005 -0.32787234
0001e0 f8 bf 6d 3f 79 77 f3 bd 49 fa 38 bd 86 1f 98 3f
       0.92871046 -0.11888022 -0.045160566 1.188462
0001f0 9e f8 82 3d 55 51 e8 3e 89 b3 f2 be bb 79 28 3f
       0.06395076 0.4537455 -0.474026 0.65810746
000200 d1 47 6b be cc fb 3f be 4d a6 c5 3d b6 73 3b 3d
       -0.22976615 -0.18748397 0.0965086 0.045764647
000210 40 75 cd 3e dd 86 01 3f 02 33 bd 3d 8b b2 0b 3e
       0.40128517 0.5059641 0.092382446 0.13642327
000220 fb 15 85 3f d0 0a aa 3f db 30 4b 3e 86 03 7a 3f
       1.0397333 1.328455 0.19842856 0.97661626
000230 dc 2d 51 3f a6 d4 ab 3e bb 63 32 bf b6 fb bc 3e
       0.817106 0.33560675 -0.69683427 0.3691079
000240 19 91 05 3f 71 1e 22 3f c5 09 2e ba 84 60 e0 3d
       0.52174526 0.633277 -0.0006639029 0.10955909
000250 11 94 c8 3d 6e 33 81 bd fd eb 18 3e 04 e4 0f be
       0.097938664 -0.063086376 0.14933772 -0.14051825
000260 35 0c 5d 3d 5c 0d 68 3f 11 bc 32 bf c8 2d 0f bf
       0.05396672 0.90645385 -0.69818217 -0.5592923
000270 ff 59 66 3f 09 ee 42 3d c6 29 4b 3e e9 e5 90 3f
       0.89981073 0.04759029 0.19840154 1.1320163
000280 67 47 ce 3e 4d 4a b8 be 84 28 f5 be 24 24 37 3d
       0.4028885 -0.35994187 -0.47882473 0.0447122
000290 9a d0 68 3d 8b 7f 02 be ae 2d 80 3d 38 cb da 3b
       0.056839563 -0.12743966 0.06258713 0.0066770576
0002a0 ca ff e3 3d d6 d5 5c bd d0 ec 34 3e b6 c3 62 bd
       0.11132772 -0.053914867 0.17668462 -0.055362426
0002b0 32 9f 04 3e f8 2e d2 3e 63 3b e7 be 73 da 02 3d
       0.12951353 0.4105146 -0.45162496 0.03194661
0002c0 75 17 ee bd 95 a9 db 3e 70 eb 47 bf db f7 c8 bd
       -0.11625568 0.42902818 -0.78093624 -0.098129
0002d0 8e 13 4a 3e 25 7b b5 bb 98 26 70 3d 2a 0d 4c be
       0.19734022 -0.0055383616 0.058630556 -0.19926897
0002e0 60 09 03 bf 75 8d 27 3e 60 62 e4 3e 51 0f 25 bf
       -0.5118618 0.16362555 0.44606304 -0.64476496
0002f0 9e f5 80 be c9 c3 01 bf 58 13 95 bf 02 15 0f bf
       -0.2518739 -0.5068937 -1.1646528 -0.5589143
000300 40 89 9a 3e 54 46 e1 bd ba e1 50 bf bf d3 37 be
       0.30182838 -0.10999742 -0.8159443 -0.17951868
000310 7d 04 d8 be 0c 77 11 be 23 05 3b be ee fb 6e bd
       -0.42190924 -0.14205569 -0.18263678 -0.058345728
000320 c2 1c 97 be 72 a8 a3 3d 12 65 d4 bc 1c 02 48 be
       -0.29514128 0.07991113 -0.0259271 -0.19532055
000330 de a6 5d be 36 13 52 bf 4b aa 13 bf de c8 13 3f
       -0.21645686 -0.82060564 -0.5768172 0.57728374
000340 58 94 64 bf df a1 c3 3d d8 7e 50 3e 94 aa 7e 3e
       -0.89288855 0.09552359 0.20360887 0.24869758
000350 79 98 d6 be 8e b2 91 bf 83 23 80 3d af 19 64 3d
       -0.41913202 -1.1382616 0.06256773 0.055688556
000360 a8 4f 60 bd 94 22 77 bd cc 48 d6 bc 1c 61 4e bd
       -0.054763466 -0.06033571 -0.02615776 -0.05038558
000370 c8 d9 ca bc 8b 39 e2 bf 49 8c 87 bf 25 69 95 be
       -0.02476205 -1.7673811 -1.0589687 -0.2918178
000380 41 85 3e bf e6 2d 8b bf d1 40 99 be 98 6c 6e bf
       -0.7442208 -1.0873382 -0.29932263 -0.9313445
000390 62 a8 64 be 83 34 a0 be e3 48 a1 3e ee a0 a4 3e
       -0.22329858 -0.31290063 0.3150092 0.3215403
0003a0 20 57 a3 3e 5d b5 25 3e 83 06 02 3e 9d 70 e5 bc
       0.3190241 0.16182466 0.12697797 -0.0280078
0003b0 e2 29 8f 3c 35 95 1f bc 56 41 40 bc bf e1 c2 3e
       0.017476026 -0.009740164 -0.011734327 0.38062856
0003c0 e5 84 db 3e 60 ed 50 3c 62 e8 0e be 4f cb 94 be
       0.42874828 0.012751907 -0.13955835 -0.29061362
0003d0 53 4b 1d 3f a3 f0 4a be 39 c9 b7 3e da b9 f4 3d
       0.6144306 -0.19818358 0.35895708 0.11949511
0003e0 62 ee 07 3e 97 62 9c bd 78 fc 20 bf 2d 4c 97 3e
       0.1327453 -0.07635992 -0.62885237 0.29550305
0003f0 8b a9 a4 bd c0 62 d5 be 72 a5 a2 3e fe 13 4c bf
       -0.0804015 -0.41676903 0.3176685 -0.79718006

actor.pi_net.fcs.0.bias f4 [64]
000000 c8 4b c3 be 33 9a 86 be c7 04 d4 3d 22 30 13 3e
       -0.38143754 -0.2628952 0.10352474 0.1437383
000010 13 79 c5 bc 9c ff b7 bd a2 c9 03 3e ff cb 6b 3e
       -0.024105584 -0.089843005 0.12869886 0.23027037
000020 9a f6 bb be a1 9f c6 3e 40 98 04 bf aa 60 09 be
       -0.3671158 0.38793662 -0.51794815 -0.1341578
000030 c2 62 d3 3e 96 e1 2a be 6f c3 72 3e 47 b1 e7 3e
       0.41286284 -0.16687617 0.23707364 0.4525244
000040 14 a0 b4 3d ff d4 bf bc fd 11 7f be 6b fa c9 3e
       0.08819595 -0.023416994 -0.24909206 0.39448866
000050 14 58 b8 bd ea 10 0d bd db 45 3d 3d 7e db 65 3e
       -0.090011746 -0.03443996 0.046209197 0.22447011
000060 3a eb 62 bd 95 65 45 3e a6 3f 05 be 84 29 43 3d
       -0.05540011 0.19277032 -0.13012561 0.047647014
000070 5f 9a fb 3c 69 6f b8 be 5f d9 6f 3e a8 f7 e2 3c
       0.030713258 -0.360225 0.23422764 0.027705982
000080 2b a9 58 3e 8d 6c 18 be b8 9a f1 be 35 dc a7 3d
       0.21158282 -0.14885159 -0.47188354 0.08196298
000090 d9 54 6b 3e fd 1a d5 be ec 05 f0 bc fd 44 c4 bc
       0.22981586 -0.41622153 -0.029299699 -0.023958677
0000a0 81 bd 17 3c 2a c6 4c 3e 53 3c 99 be bb d3 b3 3e
       0.00926149 0.19997469 -0.29928836 0.35122475
0000b0 ee f3 c9 be 7a a9 fb 3d e8 67 20 3c 38 59 9e be
       -0.39443916 0.122881845 0.009790398 -0.30927444
0000c0 32 33 cf 3c 6a 9e 95 be 17 e3 19 bd c3 60 ba 3e
       0.025292967 -0.29222423 -0.037570085 0.36401948
0000d0 99 0d 58 3e 7a 53 56 be e1 f5 18 3e a4 a3 d0 3d
       0.21098937 -0.20930281 0.14937545 0.10187462
0000e0 55 5c 9a 3d 9c 03 05 bd c8 d7 6a be a2 79 d9 be
       0.07537142 -0.032474145 -0.22933877 -0.4247561
0000f0 1f 33 f0 3c f7 5f 2b bd c8 97 ad 3c 06 b8 17 3e
       0.029321251 -0.041839566 0.021190539 0.14816293

actor.pi_net.fcs.1.weight f4 [64, 64]
000000 0a 52 73 be 01 39 e3 bd 39 26 a2 3e 20 54 9f 3e
       -0.23761764 -0.11094857 0.31669787 0.3111887
000010 00 a3 5a be 4e 89 16 3c 30 41 b6 bd 35 e4 13 be
       -0.21351242 0.009188009 -0.08899152 -0.14442523
000020 a6 5f d7 be 36 15 53 be 4c 77 ab bd 95 ec 36 3e
       -0.4206516 -0.2061356 -0.083723634 0.17863686
000030 6c 53 94 be e2 c5 ae 3e 33 be 2f be 29 28 60 3e
       -0.28969896 0.34135348 -0.17162399 0.2189032
000040 6e 02 4c be de f2 08 3e 62 b5 5b be 4f 85 79 bd
       -0.19922802 0.13373896 -0.21455911 -0.06091815
000050 2b 35 2f 3d e0 a8 a6 be 85 6c 56 be 72 05 3b 3d
       0.042775314 -0.32550716 -0.20939834 0.04565949
000060 91 ef 46 3d 62 e4 04 bf 95 67 3b bd 59 25 ac be
       0.048568312 -0.51910985 -0.04575308 -0.33622244
000070 ae 45 d2 be 5d 27 f4 3b 0b 2c 38 3e e8 b5 5a 3e
       -0.41068786 0.0074509815 0.17985551 0.21358454
000080 e8 ad 00 bd 4a 18 76 be dc a3 a0 be 21 30 3c be
       -0.03141585 -0.24032703 -0.31375015 -0.18377735
000090 ed 47 f4 be db 7e 35 3e aa fc a4 bc 57 60 1e 3f
       -0.47711125 0.17724173 -0.02014001 0.6186575
0000a0 35 c3 a5 be 28 81 7e bd d1 d9 24 be f6 09 87 bd
       -0.32375494 -0.06213489 -0.16098715 -0.06593697
0000b0 a5 6c f3 bd 0e 06 9d 3b b2 fe 82 bd ee 89 da be
       -0.11885957 0.0047919815 -0.063962355 -0.42683357
0000c0 a9 b4 ab 3e 25 7d c7 3d 5a 29 8a 3e 27 6f 0b 3e
       0.3353627 0.09740666 0.26984674 0.1361662
0000d0 4f b6 05 3e d6 76 83 3e 97 f2 04 3e 29 dd 47 be
       0.13057826 0.25676602 0.12983166 -0.1951796
0000e0 d3 2c 75 be b7 1a 32 be fb 07 85 bd ba e7 8d 3e
       -0.2394288 -0.17393003 -0.06495663 0.27715856
0000f0 28 e0 8c 3d d7 e1 a6 be 60 40 16 bd 8c 2c 3c bf
       0.06878692 -0.32594177 -0.036682487 -0.73505473
000100 fe e0 28 3c c4 c8 63 be 06 38 28 be 4d 8c 64 be
       0.010307549 -0.22244555 -0.16427621 -0.22319146
000110 a0 db 6f be 05 26 13 3e 41 b7 26 be 02 5d bd 3d
       -0.23423624 0.14369972 -0.16280843 0.092462555
000120 fe 33 13 3e 09 fd d1 be 88 03 71 be de d7 40 3e
       0.14375302 -0.41013363 -0.23536503 0.18832347
000130 f4 78 99 bb 00 4a 8b be 90 59 4d be 57 70 5e be
       -0.004683608 -0.27204895 -0.20053697 -0.21722542
000140 1a 9b f1 3c 91 19 f0 3d 4f c6 cd 3e 9e 93 22 be
       0.029492904 0.117236264 0.4019036 -0.15876624
000150 8b 6e 7e bd ac f8 73 3e 3a 3e b4 be 6e 00 c8 bb
       -0.06211714 0.2382533 -0.35203725 -0.006103567
000160 d3 07 87 be 5a 34 1e be 49 a6 3b 3d 19 de 35 be
       -0.26373157 -0.15449658 0.04581288 -0.17760505
000170 b1 a0 fc 3e fb b8 ac 3e d8 53 34 3e 6c 5e c7 bd
       0.49341348 0.3373488 0.17610109 -0.097348064
000180 86 fc 89 3d 72 40 83 be 85 d5 88 be 41 80 99 3e
       0.06737618 -0.25635105 -0.26725402 0.29980662
000190 27 a6 63 bd 2b 09 ec 3d 3c 87 6b 3e 49 27 4c be
       -0.055578377 0.11525186 0.23000807 -0.19936861
0001a0 3e 4e 16 3e 5c 9c 6b 3c e1 99 39 3e 4d 0b 8a 3e
       0.14678285 0.014380541 0.18125106 0.26961747
0001b0 de 8c 9b 3c a4 45 73 be bc e9 1b be 88 59 c1 3d
       0.01898807 -0.23757035 -0.15225881 0.09440905
0001c0 c0 d4 d5 3d c8 0c 03 be 35 80 d4 bd a1 e2 58 3c
       0.104409695 -0.12797844 -0.10376016 0.013237626
0001d0 e7 3c c8 be 2c 7a 6f be 6b 06 00 3d c2 1a 87 be
       -0.39108965 -0.23386449 0.03125612 -0.26387602
0001e0 ba 08 0c be b4 7b a2 3e 92 60 c2 3d 73 48 4c 3d
       -0.13675204 0.31735003 0.094910756 0.04987378
0001f0 cb ed 18 be bb 12 2a 3f 94 c1 e1 bd 6b 72 74 be
       -0.14934461 0.6643483 -0.1102325 -0.23871772
000200 04 0d e6 3c 41 c4 7c bd c9 8a 52 3d 69 e2 1f 3c
       0.028082378 -0.0617106 0.051401887 0.00975857
000210 3e 4c 05 be f5 3d b6 bc f2 4a 06 be 98 c0 64 3e
       -0.13017365 -0.02224634 -0.13114527 0.22339094
000220 de ed 85 be 37 ba 14 3e 0c 63 ed bd ba 0b 8f 3e
       -0.2615804 0.1452416 -0.11591157 0.27938634
000230 87 19 dd 3d 0d e9 2b be fa c8 49 3e 37 31 ab bd
       0.107958846 -0.1678812 0.19705573 -0.08358996
000240 18 c0 71 bd f5 98 cf bd cb 2a bd bd b0 9c 03 bd
       -0.059021086 -0.10136596 -0.09236678 -0.03213185
000250 f8 ca 1d 3e e2 f0 0f be 1b 3c 08 bd 25 7a 78 bd
       0.15409458 -0.14056733 -0.033260446 -0.06066336
000260 89 14 a8 bc c4 b1 0a 3f 00 b4 cc 3d 4c 74 1b 3d
       -0.020517604 0.541775 0.0999527 0.037952706
000270 a0 14 a7 3c 0d 56 60 be 21 ca 95 bd ff 90 0d bc
       0.020395577 -0.21907826 -0.07313944 -0.008640527
000280 be 0d 1f 3e 3d ab d4 3d 07 50 63 3d 56 46 0e be
       0.15532586 0.103842236 0.055496242 -0.13894019
000290 d7 7f 9e be 2a 57 1c 3d d2 26 ce bb f9 ff 4e 3e
       -0.3095691 0.038169064 -0.006291249 0.20214833
0002a0 c5 41 ff 3d 2f 43 7c be cd 3d d4 3c 13 0c be 3d
       0.124637164 -0.24635004 0.025908375 0.09279647
0002b0 f4 9c 3a 3e 73 21 29 bd 50 23 8b 3d 02 f0 43 3d
       0.18223935 -0.041291665 0.06793845 0.04783631
0002c0 3f a3 bd bd 5d 3d b8 bd 1f f0 3d 3e fd bd dd 3d
       -0.09259652 -0.08996079 0.1854863 0.10827253
0002d0 3e ee 06 be fa 65 b2 3d be 24 8d 3d 61 81 11 bc
       -0.1317682 0.08710857 0.06891774 -0.008880944
0002e0 27 87 70 3c 23 ce 74 bc 6b f7 d9 3d 2c 8e 01 3e
       0.01468066 -0.014941725 0.10642894 0.1265189
0002f0 f0 f9 27 be 1d 48 e9 be e3 26 73 3e e6 1c 4e 3e
       -0.16403937 -0.4556283 0.23745303 0.20128211
000300 a3 57 3b 3e 3d e8 b7 bd e9 05 24 3d c0 d3 b5 3c
       0.1829515 -0.08979843 0.0400447 0.022195697
000310 56 40 c3 be 3c 97 a3 be 12 4e 29 3e 18 12 b6 3c
       -0.38135022 -0.3195132 0.16533688 0.022225425
000320 19 b3 03 bf 79 6f 34 3f 14 c0 7d 3d f8 5a a3 3d
       -0.51445156 0.70482594 0.061950758 0.07976335
000330 67 c3 80 3e d0 db 7d bd c0 5f b8 3e 7b 3a b1 3d
       0.2514908 -0.061977208 0.3601055 0.086537324
000340 8b 1e 36 be 7e 4c 41 3d 8e 44 b2 be 00 08 be 3e
       -0.17785089 0.04719209 -0.34817928 0.3711548
000350 b2 53 95 be 2b e5 93 3e 44 61 bd 3e d9 90 d9 bd
       -0.29165417 0.2888578 0.3698827 -0.106233306
000360 92 6d 1f 3e e2 c9 be 3e 53 54 68 3e 26 ce e1 3e
       0.15569142 0.372634 0.22688417 0.4410259
000370 2e 00 c3 be 6b 9b 94 be ca c8 0b bd 38 e9 1e 3e
       -0.38086075 -0.29024825 -0.034127034 0.15518653
000380 2c 4c 17 be e0 c2 9b 3e 66 c1 26 3d bf 85 de bd
       -0.14775151 0.30422115 0.040711783 -0.10865354
000390 79 02 92 3e bd 53 af be e6 c3 07 be 41 c5 9c 3e
       0.2851751 -0.34243575 -0.13258323 0.30619243
0003a0 e9 e7 62 bd ca 8a 8f bc 94 75 33 be 24 c1 09 3d
       -0.055396948 -0.017522234 -0.17525321 0.03363146
0003b0 f9 d2 fb 3c 2f ca 8a bc a8 89 c1 3d fb 4c f5 3d
       0.030740248 -0.016942112 0.09450084 0.119775735
0003c0 13 1c 25 3c 74 5e cf be 6b 7b 71 bc 65 17 9b 3e
       0.010077494 -0.4050175 -0.014738898 0.30291286
0003d0 14 ea 36 3e 45 67 a1 3c dd 5a 1c bd 7c 03 06 be
       0.17862731 0.019702563 -0.03817259 -0.13087267
0003e0 a9 44 d7 bc b2 03 13 be 55 06 b5 bd 58 69 5b be
       -0.026277857 -0.14356878 -0.08839098 -0.21426904
0003f0 70 24 d9 bd c9 85 ae be 61 d4 a3 3e 1c 2c b5 3d
       -0.10602653 -0.34086445 0.3199797 0.08846304

actor.pi_net.fcs.1.bias f4 [64]
000000 7c 64 d3 bd a1 ec 22 be e8 34 16 3c d9 64 4b 3e
       -0.103219 -0.1591058 0.009167887 0.19862689
000010 d5 97 55 3d c8 29 8a be c2 1a 19 bd 53 14 c7 be
       0.05214675 -0.26985002 -0.037379034 -0.38882694
000020 aa b0 76 3e cd d2 33 3e 50 f0 56 3e 75 61 74 3e
       0.2409083 0.17560883 0.2099011 0.23865302
000030 aa 47 4c 3e 86 90 ed 3c 85 53 26 3e 28 63 c2 bd
       0.19949213 0.028999578 0.16242798 -0.09491569
000040 78 22 b7 be 0b f0 f6 3d e0 68 2b 3e db c8 5a bd
       -0.35768485 0.12057503 0.16739225 -0.053414207
000050 bd cd 6e 3c d4 0a ae 3d 6e d6 51 3e 90 47 f1 3d
       0.014575419 0.08498159 0.20491955 0.117812276
000060 d6 f1 9c be 4c 4c 99 3e b2 4c 9c 3d a6 1e b8 3e
       -0.30653256 0.29941022 0.07631816 0.35960883
000070 84 16 a0 3d bb 1a 17 3e d3 38 aa 3d 6a bc 6f be
       0.078167945 0.1475629 0.083116196 -0.23411718
000080 0b 25 a6 3c 41 c3 8e 3e 55 bf 3b bd 7d 64 12 be
       0.020281335 0.27883342 -0.045836765 -0.14296146
000090 b5 eb bd 3d 68 59 d2 bd 5b 81 22 bd b7 da a5 be
       0.09273473 -0.10270959 -0.039674144 -0.3239343
0000a0 b4 bf 4c be 97 b4 05 3d 01 72 50 bd 64 8f 96 be
       -0.19995004 0.032642927 -0.050889973 -0.29406273
0000b0 03 a8 38 be 99 3a de 3d 02 f4 96 3e 82 c7 61 be
       -0.18032841 0.1085102 0.29483038 -0.22048762
0000c0 f8 de 2d be 15 e9 00 3e 13 06 9c be df 53 78 3d
       -0.16979587 0.12588914 -0.30473384 0.06062686
0000d0 44 d2 8c bd d3 b0 96 3d a2 6f 11 3e 77 37 09 be
       -0.068760425 0.07357945 0.14202741 -0.13400064
0000e0 51 1e d4 bc 5e fe b9 bc 46 90 b3 3e c6 29 04 3e
       -0.025893362 -0.0227043 0.3507101 0.1290656
0000f0 38 72 09 3e 32 86 6e 3e 9a a1 12 3e fa 34 c8 bd
       0.13422477 0.23293379 0.14319459 -0.097757295

actor.pi_net.fcs.2.weight f4 [4, 64]
000000 2a 94 58 3e db d1 90 3d 61 a9 3f 3d 86 90 3e 3d
       0.2115027 0.07071277 0.04679239 0.046524547
000010 e7 83 2e be d5 58 87 be 9b 2d 09 be 25 46 c3 bd
       -0.17042504 -0.2643496 -0.13396303 -0.095348634
000020 d0 b0 bf 3e e3 d2 57 3d fc f5 57 3e 6f 7c 6b 3d
       0.37439585 0.05269135 0.2108993 0.057491716
000030 2a 11 38 3e 39 aa 34 3d 83 62 31 3e 40 01 1d be
       0.17975298 0.04410765 0.17322735 -0.15332508
000040 bc e3 ae be ad ee 23 3e c7 ce 84 3e e4 3c 55 3e
       -0.34158123 0.16009016 0.2593901 0.20824009
000050 62 e3 8b be 99 ae 10 3e 86 7c 0c 3c d3 bd a0 3e
       -0.27321917 0.14129104 0.008574611 0.31394824
000060 82 aa 6d be 2e 52 e5 3d 22 71 8a 3d d9 1a da 3d
       -0.23209575 0.11197315 0.067598596 0.10649652
000070 1a e2 43 3e a2 12 68 3d 20 72 a8 be 7d 11 ca bb
       0.1912922 0.056658395 -0.3289957 -0.0061666355
000080 02 6c e0 bb dd 44 2a 3e 71 17 01 3f 05 a5 32 be
       -0.006848813 0.16627832 0.50426394 -0.17445762
000090 52 23 40 bd c9 d5 d2 bc 57 81 bb be 48 d8 a9 be
       -0.046908684 -0.025736706 -0.36622116 -0.33172822
0000a0 6b fe 69 be b9 0c 0f 3e 27 f8 00 be 2f d7 03 3e
       -0.22850959 0.13969697 -0.12594663 0.12875055
0000b0 34 a5 bd bb fb 63 dd be 5c 9b 7a 3d cb d3 7b be
       -0.005787516 -0.43240342 0.06118332 -0.24592511
0000c0 e9 3f 1b 3e 22 5d 9d be 3a 89 e8 bd 9b 40 45 3d
       0.15161099 -0.30735117 -0.11354299 0.048157316
0000d0 77 d6 a5 bc f3 f2 3b 3e 0b f9 63 3e 23 c5 2f 3d
       -0.020243866 0.18354397 0.22262971 0.042912614
0000e0 f4 e2 c3 3d 5d 8a d9 be ed 54 60 3d 5a 57 58 3e
       0.09564772 -0.42488375 0.05476849 0.21127072
0000f0 89 a9 d4 bd c9 cc 8b bd 11 03 a5 bd c7 2f 4a be
       -0.10383899 -0.06826169 -0.080572255 -0.19744788
000100 d6 19 5c 3e 9f ee 0b be 3b 39 ad 3c 57 25 88 3e
       0.2149423 -0.13665245 0.021145454 0.26590988
000110 67 e1 a1 3d 68 92 4a bd d8 6b 2e 3e 63 b0 bb 3d
       0.0790432 -0.04945603 0.17033327 0.091645025
000120 cc f2 e0 3e 64 14 83 bd ff bc b2 3e 76 c3 4d be
       0.4393524 -0.064003736 0.34909818 -0.20094094
000130 52 28 5a 3e c4 7c 29 3e 11 02 03 3f 44 34 20 be
       0.21304443 0.165515 0.5117503 -0.15644938
000140 21 0f 25 be b7 81 3a bd aa f2 cf bd 7a fc de 3d
       -0.16119052 -0.045533862 -0.10153706 0.10888
000150 56 a9 69 3e 9c 44 ee 3d c7 47 ed 3d 01 46 6d be
       0.22818503 0.1163418 0.11585956 -0.23171236
000160 38 5d 18 be c8 21 db be 73 a7 8a 3b 53 17 40 be
       -0.1487931 -0.4279921 0.0042313873 -0.18758897
000170 5e ab 54 bc 96 fc 0c be 4e 23 88 3d 41 3d 03 3e
       -0.01298031 -0.13768229 0.06647359 0.12816335
000180 48 33 a7 bd ba 06 4e 3e 76 5b ef bd a9 8d 9e bd
       -0.08164078 0.20119753 -0.11687367 -0.07741863
000190 85 e2 8b 3d 04 6c 9d bd c2 13 84 3e fa d5 4c 3e
       0.068303145 -0.07686618 0.25796324 0.200035
0001a0 44 49 ae 3e 29 6f b9 3d d5 42 89 3d 83 57 57 3e
       0.34040272 0.09054405 0.067022 0.21029477
0001b0 18 01 8c be 11 52 71 bc d0 0a 89 bd 35 68 77 bd
       -0.27344584 -0.014729039 -0.066915154 -0.060402114
0001c0 d5 c0 d0 3e 3b 41 8e bd bc 64 c6 bc 5b 84 a1 3e
       0.4077212 -0.069460355 -0.024217956 0.31546292
0001d0 76 82 ca bd fe b7 11 3f d8 17 e0 bc bf ae 3f 3e
       -0.09888165 0.56921375 -0.02735512 0.18719004
0001e0 b4 80 dc 3d 70 50 40 ba f4 96 4d be 6b 47 62 3e
       0.10766736 -0.0007336205 -0.20077115 0.22097556
0001f0 cd dd c9 bb 76 e1 01 3f 3f f7 97 3d 1b ad 86 be
       -0.006160474 0.5073465 0.07420205 -0.26303944
000200 f8 28 ce be 5d 0c 28 3e 59 d3 88 bd b9 5c 49 be
       -0.40265632 0.16410966 -0.06680936 -0.19664277
000210 b7 85 a2 be 76 01 5b bd a5 c4 22 be f3 4f 5d 3d
       -0.3174264 -0.05346819 -0.15895326 0.054031324
000220 be ca 2a be 3d 82 c1 3e 98 3a bf be 81 de 0e 3e
       -0.16678903 0.37794676 -0.3734939 0.13952066
000230 e9 a0 fb bd b1 ce c7 be 27 19 2f bb 15 81 7c bd
       -0.122865506 -0.3902488 -0.0026717873 -0.06164654
000240 29 3f cc 3e 8d b0 de be e6 e5 e9 bb 7c 6b bb be
       0.39891937 -0.43494073 -0.0071380017 -0.36605442
000250 21 c7 44 3e 63 da cd be 51 d1 9c 3e a4 65 63 bd
       0.19216587 -0.40205678 0.30628446 -0.055516854
000260 28 65 3e bc 2d 85 35 be 64 e7 13 bd 44 b0 25 3d
       -0.011620797 -0.17726584 -0.036109343 0.040451303
000270 9c 4d be 3e 92 7a e7 bd df 97 80 be f5 ba f3 bd
       0.37168586 -0.11302675 -0.25115868 -0.119008936
000280 4d cf 0b ba ed ea 87 3d 00 7d 27 be 4a 32 ba be
       -0.00053333194 0.066366054 -0.16356277 -0.36366493
000290 c7 46 9c bd fc bb 9d 3c f4 5a b2 3d b0 d6 69 3d
       -0.07630687 0.019254677 0.08708754 0.057089508
0002a0 b1 28 18 be 01 5f a6 3e 84 f3 41 ba 81 b6 5e be
       -0.14859273 0.32494357 -0.00073986524 -0.21749307
0002b0 60 88 02 bf 8e ec 06 3e 01 71 02 3e f2 a4 c4 bd
       -0.5098934 0.13176176 0.1273842 -0.09601773
0002c0 2c 19 a1 3d ff c9 1c 3e 57 e2 38 be 50 1b 08 3d
       0.07866129 0.1531143 -0.18055092 0.033229172
0002d0 9d f2 fc bd c8 ec 8a 3c 73 52 b5 3d ed 0d a4 3e
       -0.12350962 0.01695861 0.088536166 0.32041875
0002e0 d5 71 dd bd df c8 02 3f 40 4d 06 bd 7e 29 a9 3e
       -0.10812727 0.51087755 -0.032788515 0.3303947
0002f0 d5 98 9e 3e 54 f9 4f 3e 57 06 36 bc fa f5 5b 3e
       0.30975977 0.20309955 -0.01110991 0.21480551
000300 87 22 9c be 4d 0d 8a 3d f1 0b 60 3e 5f 32 02 3f
       -0.30495092 0.06740818 0.21879555 0.5085811
000310 b1 7f 4a 3e 6b 28 9e be 51 0c 1a bd 07 92 e7 be
       0.19775273 -0.3089021 -0.037609402 -0.45228598
000320 e1 f3 05 be 97 be 47 3d 73 8d a9 3e 13 ee 82 3e
       -0.13081314 0.048765745 0.3311573 0.2557226
000330 7d 6a 9f 3e 81 bf 83 3d b1 c6 26 3c 38 c9 82 3e
       0.31135932 0.06433011 0.010179208 0.25544143
000340 4b 36 9e 3c 8e aa 41 be 7d e9 92 bd 67 60 d4 3d
       0.019312998 -0.18912718 -0.071734406 0.1036995
000350 6e 37 dd 3e d9 17 13 bd 24 69 95 3d cb 67 e4 3e
       0.43206352 -0.035911415 0.072954446 0.44610438
000360 1e b1 d9 be ed b0 50 3e 69 fb ab 3d 6e 7c 54 bd
       -0.42517942 0.20379992 0.08397562 -0.051876478
000370 4d 7b 3c be 3e 6c 08 3f f7 1b 5b 3e 75 41 fe be
       -0.1840641 0.53290164 0.21397386 -0.49659315
000380 f0 62 23 bc 19 b9 08 bf dd 30 5e 3c d1 9b 24 3e
       -0.009972319 -0.53407437 0.013561455 0.16075064
000390 1e d8 47 3d c9 a9 c2 be d2 5c b2 be 63 24 41 bd
       0.04879009 -0.3802016 -0.3483644 -0.04715384
0003a0 18 50 ae be cb 3d 84 be b1 dc 00 bf 01 3e b5 be
       -0.34045482 -0.25828394 -0.5033675 -0.35398868
0003b0 69 4c 38 be 08 c7 11 3b 68 94 7d 3d fa b0 b2 bc
       -0.17997898 0.0022243876 0.06190911 -0.021812905
0003c0 f4 1f 5e 3d aa 83 d9 be 5d a8 84 3d 37 48 42 3d
       0.05422969 -0.42483264 0.06477425 0.04743215
0003d0 58 18 5d be 4c 43 88 bd 44 dd c3 3e 30 cd 04 bd
       -0.21591318 -0.06653461 0.3825475 -0.032422245
0003e0 a8 48 24 bd 62 57 d0 bd 30 e5 f3 3e d1 67 ab bd
       -0.040108353 -0.10172917 0.47635794 -0.08369411
0003f0 02 57 25 be b7 e8 cb be 97 7f 53 3e 99 98 b5 3e
       -0.16146472 -0.39825985 0.2065414 0.35467985

actor.pi_net.fcs.2.bias f4 [4]
000000 97 a2 af 3d db 4e c4 bd b0 6e 9d 3d a3 b5 8f 3d
       0.085759334 -0.09585353 0.076871276 0.07017066

critic.v_net.fcs.0.weight f4 [64, 17]
000000 94 11 0a 40 b9 4d 39 3f 1d 0f 5d 3f 93 a2 70 3f
       2.157323 0.7238422 0.86351186 0.9399807
000010 5c 34 90 bf 52 18 8b 40 0e ae a2 be 2d 2f a6 3f
       -1.1265979 4.346719 -0.31773418 1.2983147
000020 6d 5a 48 bf bb bf 3c 40 e1 10 f9 3d 2b 0f 65 3d
       -0.7826298 2.9492023 0.121614225 0.05592267
000030 73 ac 56 bd 4d dd f1 ba b8 d7 f1 3d 2a 56 4a 3d
       -0.052410554 -0.0018452794 0.11808723 0.04939858
000040 5a bf a2 3d 77 69 d5 c0 4d a8 21 c1 6c 7b cc bf
       0.07946654 -6.669124 -10.103589 -1.5975165
000050 ce 51 f2 bf 1a 7c bd bf 55 ec 32 c0 e9 f0 6a bf
       -1.8931215 -1.4803498 -2.7956746 -0.9177385
000060 a2 74 ab bf 9a 86 84 bf 86 cd 87 be cb 48 a8 bc
       -1.3394969 -1.0353577 -0.2652399 -0.020542523
000070 da 61 08 be 5b 2a 4c bd d4 13 f7 3b 23 90 9e bd
       -0.13318577 -0.04984508 0.0075402055 -0.07742336
000080 4a c3 9a bd 1b 80 71 bd e5 6a 07 40 bf 70 78 40
       -0.0755678 -0.05896006 2.1158993 3.8818815
000090 1e f2 fc bf 63 83 83 3e a7 d9 06 40 d4 40 8c c0
       -1.9761388 0.25686178 2.1070344 -4.3829136
0000a0 e1 75 01 40 99 17 e8 be fa b7 54 3f 37 f6 86 be
       2.0228198 -0.45330504 0.83093226 -0.26359722
0000b0 df 8d 29 be 48 79 60 bd a8 c3 98 be bb 57 ce bc
       -0.16558026 -0.054803163 -0.29836774 -0.025188318
0000c0 fa 39 b8 3d 91 70 0a bd b0 d2 94 3d 38 cb 10 40
       0.08995433 -0.033798758 0.07266748 2.2624035
0000d0 a1 d5 5a 40 7a 6d 42 c0 71 37 7d bf 2b b1 be 40
       3.4192889 -3.037932 -0.9891272 5.959127
0000e0 d1 88 cb bf b5 1d 7d 3f 46 20 be 3e 18 bb ee 3e
       -1.5901128 0.98873454 0.37133998 0.46627116
0000f0 3e f4 3c bf f3 89 c8 bc ec c9 0b 3d 7f 29 f3 bd
       -0.73810184 -0.024479842 0.034128115 -0.11873149
000100 85 56 9f 3b 33 cf 9b 3c 83 76 32 3d fb dd 9a bc
       0.004862609 0.019019699 0.043570053 -0.018904677
000110 a1 d0 b5 c0 e5 db cf 40 ed 1f 6a bf c0 c3 42 3f
       -5.6817174 6.4955926 -0.91454965 0.7607994
000120 76 cd e3 3d a2 29 3b c0 d7 f7 b4 bf 72 a8 71 3f
       0.11123173 -2.924416 -1.4138135 0.9439765
000130 7c 9d e3 3f 92 11 42 3e 5e 1d 51 3e 7d aa 11 3d
       1.7782435 0.18952015 0.20421359 0.03556298
000140 35 5a 72 3e 89 4d d7 bd 4e 2b 19 3e 17 e2 73 bd
       0.23667224 -0.105128355 0.14957926 -0.059541788
000150 40 d2 d7 bc 3a 65 2b 40 dc 0b 09 c0 b0 f7 a2 bf
       -0.026345372 2.6780534 -2.1413488 -1.2731838
000160 21 1f 0f bd da 36 8a bf 47 77 c0 bf e7 b1 87 c0
       -0.034941796 -1.0797989 -1.50364 -4.2404666
000170 96 32 16 3f 52 5d 50 bf 9b e3 32 3e a1 5d 1d 3e
       0.5867094 -0.81392395 0.17469637 0.15367748
000180 51 eb a6 bc 16 1a 10 3d 36 7d a7 bc 31 7b a6 3d
       -0.02037588 0.035181127 -0.020445447 0.08128966
000190 be 68 ec be d5 94 03 be 5f db 3d 40 1b 15 85 40
       -0.46173662 -0.12849744 2.9665143 4.1588264
0001a0 10 ee 59 c0 4b 16 ae 3e 94 c6 90 3f d8 dc 38 3f
       -3.4051552 0.34001383 1.1310601 0.7221198
0001b0 42 41 07 40 93 9d 2d 3f 16 4e 14 3f 95 3a 97 3d
       2.113358 0.67818564 0.5793165 0.073842205
0001c0 9a 9b 8f 3c 62 2d a0 3c 4f f3 b8 bd 88 7c 7a bc
       0.017530251 0.01955289 -0.090307824 -0.01528848
0001d0 d5 a2 19 3c 40 39 5c bc f3 23 84 bb 12 75 17 bf
       0.009377201 -0.013441384 -0.004032606 -0.5916301
0001e0 5a c9 cf 3f 6d 25 84 3f c0 33 85 3f cd cb b6 40
       1.6233323 1.0323921 1.0406418 5.712378
0001f0 e6 56 17 40 37 eb 9d 40 af 79 59 3d c4 0e 86 3e
       2.3646789 4.9349627 0.053094562 0.2618314
000200 15 19 a7 bd cd ef 08 be fd 11 09 bd 7b e4 f8 3d
       -0.08159081 -0.13372727 -0.03346442 0.12152954
000210 69 c5 fd 3c 98 0b 13 bb 14 81 b1 bc db dd ca 3c
       0.030977922 -0.002243733 -0.021667995 0.024763992
000220 a0 fb 4b 3f 7a f1 08 40 26 0e 1c 3f a2 b5 90 bf
       0.79680824 2.1397386 0.6095909 -1.130543
000230 c1 29 27 40 eb b3 a2 c0 65 c7 18 40 a8 f8 89 3e
       2.6119235 -5.0844626 2.38717 0.26947522
000240 0d c7 c7 3f b1 79 bf be 27 78 a4 bd 72 22 2b be
       1.560762 -0.3739753 -0.0803073 -0.16712359
000250 89 45 47 3e 56 50 ce 3d 05 da 1f bd 93 86 00 bd
       0.1946012 0.100739166 -0.03902628 -0.03137834
000260 2f 46 58 3d f5 b1 5a 3f 45 8c 6b 40 ef 02 79 be
       0.052801307 0.8542779 3.6804364 -0.24317525
000270 42 5f fd 3f 5c 30 88 3f ef 42 95 c0 fd 37 45 40
       1.9794695 1.0639758 -4.6644206 3.0815423
000280 ab 15 ba 3d 37 6f 07 40 73 e5 f7 bf e0 1d 52 3d
       0.09086164 2.116163 -1.9366897 0.051298022
000290 4c 29 41 be 71 af b2 3e 09 28 e1 bd 5d f3 3d be
       -0.1886341 0.34899476 -0.10993964 -0.18549867
0002a0 95 1f ae bd 33 e2 d2 bd 70 49 89 40 2b f6 ae c0
       -0.085021175 -0.1029705 4.2902145 -5.46755
0002b0 3a ee 10 40 dc cb 60 bf b9 68 e7 3f ce ae 9f 3e
       2.2645402 -0.87811065 1.8078834 0.31188053
0002c0 03 a3 dc be 13 fe 43 3f 41 b2 96 be 77 e0 0d be
       -0.43093118 0.7655956 -0.29432872 -0.13855158
0002d0 a8 d2 22 3d 0c 3e e6 3d ad 8a bc bd cf e5 38 bd
       0.03975168 0.11242303 -0.09206138 -0.045141038
0002e0 98 c8 06 3e ea cc b7 bc b7 61 f9 bb 41 bb bb c0
       0.13162458 -0.022436578 -0.0076105255 -5.866608
0002f0 fb f2 8b c0 6e 63 99 3f db 59 e8 3f 57 b4 8c be
       -4.3734107 1.1983469 1.8152422 -0.27481338
000300 dc fc 76 bf a2 dd 60 40 a9 73 11 be 1c 96 98 3f
       -0.9647958 3.5135274 -0.14204277 1.192081
000310 7c 1d 38 bf 17 2e 93 bd fa 8a 1a bd 76 ed ea bd
       -0.7191999 -0.07186525 -0.037730195 -0.11471073
000320 aa 87 53 3d 57 74 fc bd 6b c0 63 3d b5 40 51 3d
       0.05164305 -0.123268776 0.055603426 0.0510871
000330 46 2d a2 3e 51 ef df 3d cf 51 70 bf 91 ff 64 3d
       0.31675166 0.10934318 -0.9387483 0.05590779
000340 da 23 9e 3f 61 57 85 c0 af 33 bb bf c5 e2 b2 bf
       1.2354691 -4.1669164 -1.4625148 -1.3975455
000350 e8 91 18 be e2 18 15 40 60 ea 28 3e 4c 27 8c 3e
       -0.14899409 2.3296437 0.16495657 0.2737373
000360 e1 f0 cb bd 44 9a 64 3e e8 d8 49 3e 32 4d de be
       -0.099580534 0.22324473 0.1971165 -0.4341827
000370 75 3a c3 3d a5 8d e3 bf e5 03 5f 3e 11 ec 5a 3d
       0.09532634 -1.7777601 0.2177883 0.053447787
000380 da 43 8f bf ca 92 f3 3f 5d 95 cf 3f 93 91 a7 40
       -1.1192582 1.9029171 1.6217457 5.2365203
000390 e9 3f b4 bf e2 e5 c6 bf a0 7c 79 bf a5 7e 40 3d
       -1.4082004 -1.5538905 -0.9745579 0.046995778
0003a0 6e f9 2b bc bd b0 ec bd 27 11 73 bd a8 c0 81 bd
       -0.01049648 -0.11557148 -0.05934253 -0.063355744
0003b0 9a 35 6e bd 91 84 e2 3d d7 94 bb bf bc 2e d7 be
       -0.058156587 0.11060441 -1.4654797 -0.42027843
0003c0 3b 33 e5 3f c3 84 c9 3b 9a 3f 05 c0 07 55 a1 40
       1.7906259 0.0061498596 -2.082007 5.0416293
0003d0 03 0a fd c0 40 fa 85 be 55 b2 54 be 51 cd 96 bf
       -7.907472 -0.26167488 -0.20771153 -1.1781408
0003e0 3a fb 5b 3d 30 54 17 bc e7 6c af 3e 24 5e 77 bd
       0.053706385 -0.00923638 0.34262773 -0.060392514
0003f0 95 99 67 3d 31 01 ce 3d 7d 72 1d be 79 5d c2 bf
       0.05654295 0.10058821 -0.15375705 -1.5184776

critic.v_net.fcs.0.bias f4 [64]
000000 9c b0 19 3e 86 67 5f bf 51 6d ca 3e 5f ea cd 3f
       0.15008777 -0.8726734 0.39536527 1.6087149
000010 a9 dd 55 3d 5e 31 37 c0 3e 00 be 3f ef 54 0d 3f
       0.052213345 -2.8623881 1.4843824 0.55207723
000020 e4 ae 2f bf d6 8d 2a bf 3c ae 09 40 00 d7 28 40
       -0.68626237 -0.66622674 2.1512594 2.6381226
000030 51 e2 f8 bf e1 53 b8 3f d2 0a 45 40 bb f0 35 bf
       -1.9444066 1.4400598 3.0787854 -0.7107045
000040 e6 71 64 3f ed d7 90 3f 53 cb 5d 3f ce 05 90 3e
       0.89236295 1.1315895 0.86638373 0.2812943
000050 b7 ce 20 3e e9 0d 2f 40 78 66 ca 3f 98 40 5e 40
       0.15703855 2.735224 1.5812521 3.4726925
000060 c5 75 1b 3d ed 7a a1 bf e8 75 ad bf f8 8a d2 be
       0.03795411 -1.2615639 -1.3551607 -0.4112165
000070 f0 b2 84 be 53 0f 1b 40 05 8a 2b bf 1c 7d 1e c0
       -0.25917768 2.4228103 -0.67007476 -2.476386
000080 a9 90 79 bf 40 6b bc 3d bb b5 d6 bd d7 92 a2 3f
       -0.9748636 0.09200144 -0.10483881 1.2701062
000090 35 6e 4a 3f f2 e6 2e bf 1e a6 e3 3f ce fc 60 3f
       0.7907441 -0.68321145 1.778507 0.8788575
0000a0 12 27 01 bf b1 f9 ab bf bf 4f ce 3f 41 01 12 c0
       -0.5045024 -1.3435575 1.6118087 -2.2813265
0000b0 86 10 58 40 b5 fc ee bf 5b ac ea bf d7 7d 8d bf
       3.3760085 -1.867087 -1.8333849 -1.1054028
0000c0 8b 2b cc 3f a7 15 22 bf b6 40 77 3f 43 fe 1b 40
       1.5950788 -0.6331429 0.96583116 2.437394
0000d0 11 48 ad 3f e9 88 53 3f ed 60 9a 3f 28 4d ce 3d
       1.3537618 0.82630783 1.2060829 0.1007331
0000e0 88 7c 34 c0 5d 3a 0a c0 aa 6a 4e bf 30 26 38 40
       -2.8201008 -2.1598122 -0.80631506 2.8773308
0000f0 14 eb d9 be 7c 21 04 bf 1f 2a 26 c0 06 c6 01 c0
       -0.42562163 -0.51613593 -2.5963209 -2.0277114

critic.v_net.fcs.1.weight f4 [64, 64]
000000 54 13 7c be 09 61 5c bf cd 5e b7 be f7 64 81 bf
       -0.24616748 -0.86085564 -0.35814515 -1.0108937
000010 ff a8 9e 3e f6 3e d8 be ac 22 76 bf 12 67 5a 3e
       0.3098831 -0.42235535 -0.96146655 0.2132838
000020 2a 10 77 3f 70 39 a6 be 94 32 84 be d5 f3 6f 3f
       0.9650904 -0.32465696 -0.25819838 0.93731433
000030 54 c3 50 be 70 42 0b 3e b8 b9 12 3f 78 f1 61 3e
       -0.20387012 0.13599563 0.57314634 0.2206477
000040 5d 72 a8 bf f9 d6 40 3e 5b d7 b2 be 4e b7 c6 3f
       -1.3159901 0.18832006 -0.34929928 1.552469
000050 6e eb 05 3f 8a e0 ab be 8f ea 39 be e7 38 f5 3e
       0.5231236 -0.33569747 -0.18155883 0.47894976
000060 7c 51 1d bc 70 ea c8 be 86 a8 1e be cb ef 9c bf
       -0.009601947 -0.39241362 -0.15493974 -1.2260679
000070 ca 91 14 be ec 56 36 3e 3d 31 38 3f fe f0 4b bf
       -0.14508739 0.17806596 0.7195013 -0.796646
000080 e8 e5 3b be ec f5 96 3e 3c 4d 9c 3e b7 86 8f 3f
       -0.18349421 0.29484499 0.30527675 1.1212987
000090 56 35 da be ee 89 7a bf 2f ce 0d 3f 88 32 37 bf
       -0.42618817 -0.97866714 0.55392736 -0.7156148
0000a0 9e 7b cf be b8 a4 ae 3e 3b 46 f8 be f6 7d 9d be
       -0.40524 0.34110045 -0.48491082 -0.30760163
0000b0 1f 33 60 be ec ff 97 3f 1a 29 2a 3f 48 cf a1 3f
       -0.21894501 1.1874976 0.66468966 1.2641382
0000c0 f9 f0 fb bc ce e2 da bc 74 41 50 3e 48 58 61 3d
       -0.030754553 -0.026719477 0.20337468 0.055015832
0000d0 57 3b 90 3e cf 6f 2d bf d2 8a 4f bf df 5d 89 3f
       0.28170273 -0.6774873 -0.810712 1.0731772
0000e0 fe e7 11 bd 4b 42 28 be 46 a0 25 3f bc 9b 02 3e
       -0.035621636 -0.16431539 0.6469768 0.1275472
0000f0 fd c0 bf be f0 68 4c be 5a 7f 22 bf 40 86 2b bf
       -0.37451926 -0.19961905 -0.63475573 -0.67001724
000100 25 e8 19 be 91 e7 21 3f 3a 7a 88 bf 4f 3d c3 bf
       -0.15029962 0.6324397 -1.06623 -1.5253085
000110 40 20 cd 3e b9 45 cf bf c5 95 1b bf 24 3c b8 3e
       0.40063667 -1.6193153 -0.60775405 0.35983384
000120 3c f1 bf 3e c8 1c 01 3f 37 52 9c 3e e0 d3 25 3f
       0.37488735 0.5043454 0.30531475 0.6477642
000130 85 7e 1f bf 9e 47 91 3f 96 bd 1e bf 49 d9 af 3e
       -0.6230243 1.1349981 -0.62008035 0.34345463
000140 9d 4e 92 bf a5 7f 03 3f 5a c6 c6 3d 5f 9b 7d 3e
       -1.1430241 0.51366645 0.09705801 0.247663
000150 dd d5 73 bf 46 d6 ad be bc f4 85 3e a2 1b 3d 3f
       -0.95248204 -0.3395254 0.2616328 0.7387029
000160 a3 aa a8 bd e1 53 a0 bf 69 fe e1 3e 52 c9 15 c0
       -0.08235671 -1.2525598 0.44139412 -2.3404126
000170 15 ab 56 be 33 72 22 3e de 1b bc be 08 32 88 be
       -0.209637 0.15863876 -0.3674001 -0.2660067
000180 cf 93 ac 3e d5 b3 6f 3f 42 7e 93 3c 76 ce 39 3f
       0.3370652 0.93633777 0.01800454 0.7258066
000190 f9 4d 15 3f a3 c1 2a be a3 17 43 3f ef 84 f5 be
       0.583221 -0.16675429 0.7620794 -0.47952983
0001a0 93 6a 9f 3f c0 f4 9f bf 57 11 03 bf a0 74 cc bf
       1.2454399 -1.2496567 -0.51198334 -1.5973091
0001b0 6d 21 36 3f e1 d5 19 3f d7 10 08 3e 8f bc ff be
       0.71144754 0.6009198 0.13287674 -0.49948546
0001c0 e7 1e 4a bf 2e e3 d6 be 75 d5 a4 be b7 d4 f1 3d
       -0.78953403 -0.419702 -0.32194105 0.1180815
0001d0 7d 98 ef 3e 96 c9 55 bf 54 15 9d bd 2a c8 8c be
       0.46796027 -0.8351072 -0.07670084 -0.27496463
0001e0 e7 42 7b bf c2 c2 74 be 69 b9 47 3e 08 dc 8f 3e
       -0.9814896 -0.23902419 0.19504322 0.28097558
0001f0 ae e7 57 bd ee 5b d6 3d 40 ca 57 bf 6a 82 04 bf
       -0.05271118 0.10466753 -0.84292984 -0.51761496
000200 e9 04 96 3f b6 a3 5f 3f 6f 2d 69 bf 7f a0 c5 3e
       1.1720248 0.8735918 -0.9108495 0.3859901
000210 11 ba ef be 59 93 ac 3e 77 d4 3e 3f bc 23 67 3d
       -0.46821645 0.33706167 0.74542946 0.056430563
000220 d9 db 1b c0 72 de 27 c0 74 98 09 bf f6 5f 80 bf
       -2.4352934 -2.622952 -0.5374825 -1.0029285
000230 39 40 e5 bd 56 0f fc be 3e b9 2e 3e 1c ba 6d bf
       -0.1119389 -0.4923045 0.17062852 -0.92862105
000240 fd 62 35 3d 00 f5 40 3f cc fc a0 3c 6b 0f e7 bf
       0.044283856 0.7537384 0.019651793 -1.805158
000250 73 24 dd 3d 9c 91 17 bf be 3d 81 3f 40 ea d3 be
       0.10797968 -0.5920656 1.0096967 -0.41389656
000260 a2 00 0f 3e 2a 7e 45 be 6f bf 00 3f da 3f 1d 3e
       0.13965085 -0.19286409 0.50292104 0.15356389
000270 a5 ee d4 bf 43 18 89 40 c1 68 37 bf 5e 80 2d 3f
       -1.6635329 4.2842116 -0.71644217 0.67774
000280 7e 6a 8e be fe bf 21 bf 13 25 48 3d 78 29 e1 3d
       -0.27815622 -0.6318358 0.04886348 0.10994238
000290 ae 88 63 bf b8 88 54 3f 66 79 b5 3e fe 99 ec 3f
       -0.8888043 0.83021116 0.35444182 1.8484495
0002a0 68 a9 45 3d 1f fd d0 bf 78 33 b6 3f db 33 47 3f
       0.04825726 -1.6327246 1.4234457 0.778135
0002b0 21 68 93 bf c5 de f8 bf 91 4b 13 bf 8e 1d 41 3d
       -1.1516153 -1.9442984 -0.5753718 0.047147326
0002c0 ba 8c 86 be 89 52 ce bf da ff e8 3d 68 2f 94 3e
       -0.2627924 -1.6118938 0.11376925 0.28942418
0002d0 03 ca 2a 40 b0 41 1b 3f d5 15 1c 40 fd b9 8d bd
       2.6685798 0.60647106 2.4388325 -0.0692024
0002e0 4f f2 57 3f 88 83 17 3f a5 65 7c bf 95 74 4a be
       0.8435411 0.59185076 -0.985926 -0.19771035
0002f0 09 bf a6 bd 4e db 7c 3f ab e1 2f be 2b 36 14 bf
       -0.08141906 0.9877213 -0.17175929 -0.57895154
000300 0b 48 46 3f a8 99 f6 bf e1 48 6f 3f 00 0b da bf
       0.7745368 -1.9265642 0.9347058 -1.7034607
000310 2c c9 dc be 63 b6 58 bf 44 b0 0a 3d 1b 31 8b 3f
       -0.43122232 -0.846533 0.033859506 1.0874361
000320 54 59 51 3f 87 ca de bd c8 56 94 3d 65 9d 31 be
       0.8177693 -0.10878473 0.07243115 -0.17345197
000330 2e 8b 39 3e 80 d5 97 3e 79 9d 7f be 7b bd 3a bf
       0.18119499 0.29655075 -0.24962415 -0.72945374
000340 31 da a2 be aa 4d ed be c5 c1 c9 3e 47 1a e1 3e
       -0.31807092 -0.46348315 0.39405647 0.4396536
000350 d4 4e a7 be 49 d8 9c be 2f 55 04 3f 63 58 17 bf
       -0.3267733 -0.30633762 0.5169248 -0.5911924
000360 c5 a1 33 bf ff cf 27 bf 77 5c d6 3f b5 11 8f bf
       -0.70168716 -0.6555175 1.6746968 -1.1177279
000370 14 ae fa be a5 45 a6 bf 32 1a e8 3e 3a 16 13 3f
       -0.48960936 -1.2990004 0.45332485 0.5745579
000380 43 cf 6c be d7 6b 0e 40 c7 e8 2d 3f f8 8e d9 bc
       -0.23125939 2.225332 0.67933315 -0.02655743
000390 e5 f3 ec bf 48 96 71 bf 41 aa bc 3e 5c 9d 89 bf
       -1.8511931 -0.94369936 0.36848643 -1.0751147
0003a0 e0 9d 35 3f 28 dd df be 6f df 8c 3e c8 76 4b bf
       0.70944023 -0.43723416 0.27514216 -0.7947812
0003b0 c6 5d 6d bd 1f 89 52 40 45 f4 83 3f 86 3e 9d be
       -0.057950757 3.2896192 1.030892 -0.30711764
0003c0 1e da e8 be 4a df 98 3e eb 6a 8b 3f d7 a4 88 3c
       -0.4547891 0.29857856 1.0892004 0.016680164
0003d0 96 09 8a bf 2d 19 8b bf 9f 8f 1c bf 22 30 c3 3e
       -1.0784175 -1.0867058 -0.6115665 0.3812266
0003e0 29 46 13 bf ae d3 84 bc b3 ca 8a 3f d9 a1 18 be
       -0.5752893 -0.016214218 1.0843109 -0.1490549
0003f0 78 de 33 be 4a b6 43 bf 6b 1b 9c 3f 15 1a aa 3e
       -0.17565334 -0.76450026 1.2195867 0.33223024

critic.v_net.fcs.1.bias f4 [64]
000000 36 2d f9 be bf 0a 99 3f d5 48 4f bf 91 43 95 3e
       -0.48667306 1.1956404 -0.8097051 0.29153112
000010 9b 60 9b 3e 85 a2 68 3f bc db b3 bf 68 fc 49 be
       0.30347142 0.90872985 -1.4051433 -0.19725192
000020 c7 f9 97 bd 37 3d a6 bf 4d 83 99 3e 8b 77 66 bf
       -0.07420688 -1.2987431 0.29982987 -0.9002616
000030 0d ac 0c bf 5c c1 cf 3e 75 0c bd 3e a3 cf 79 be
       -0.5495003 0.4057721 0.36923566 -0.24395613
000040 ba 49 13 c0 ab d8 b7 3f 0f 05 ee bf 44 d5 c9 3f
       -2.301375 1.4362997 -1.8595294 1.5768209
000050 74 71 ce bf 1f 98 ab 3f 35 ce 5f 3f 23 65 f0 bf
       -1.6128373 1.3405799 0.8742402 -1.8780864
000060 87 25 be be 97 78 ec bf 87 01 07 3f b8 2c d7 3f
       -0.37138006 -1.8474301 0.52736706 1.6810522
000070 36 6a 21 3f eb d7 93 3f 28 a5 98 3f e9 68 bb be
       0.6305269 1.1550268 1.1925402 -0.36603478
000080 53 34 b1 3f 4f cd bd 3f 78 a8 98 be 75 48 72 3f
       1.3844093 1.482828 -0.2981603 0.9464181
000090 9b 02 df be 38 e3 9c 3f 56 c3 8e 3e c5 15 c9 bf
       -0.43556675 1.2256842 0.27883404 -1.5709769
0000a0 1b 72 ba 3f e5 a1 b5 bf e1 a3 3f bf 79 d9 64 3f
       1.4566072 -1.4190031 -0.74859434 0.89394337
0000b0 bb b3 47 3f fb 87 9b 3f 34 56 c4 3f 07 59 40 be
       0.7800862 1.2150873 1.5338807 -0.18783961
0000c0 53 7b 2c 3e 72 b8 ca bd 5d 69 3f 3f 2c ca 46 bf
       0.1684392 -0.098984614 0.74770147 -0.7765224
0000d0 e8 21 e8 3f 89 c3 d0 bd 52 30 d3 bf b3 af 9d bf
       1.8135347 -0.10193545 -1.6499121 -1.2319244
0000e0 a4 7f b7 3f 11 fb 93 3e 9b 84 50 3f cb ff 08 40
       1.4335828 0.28902486 0.8145234 2.1406124
0000f0 2e 1d b2 3f 8b 76 de 3f 44 6b 9c 3e 73 65 c5 3f
       1.3915155 1.7379926 0.30550587 1.5421585

critic.v_net.fcs.2.weight f4 [1, 64]
000000 cd b6 06 41 34 59 4f c0 04 56 2c 40 01 30 88 c0
       8.419629 -3.2398195 2.69275 -4.25586
000010 98 57 bc 40 8b cf 24 c0 73 e3 61 40 f3 7d 52 40
       5.8856926 -2.5751674 3.5295074 3.2889373
000020 7e ab c0 40 ef d9 97 40 93 93 14 c1 aa 52 42 41
       6.020934 4.745353 -9.286029 12.145182
000030 cc bc 82 3f 74 a6 25 c1 be b0 ab 40 57 f6 a3 40
       1.0213866 -10.353138 5.365325 5.123821
000040 e6 99 11 41 32 22 5f c0 a9 72 59 40 4e 59 80 c0
       9.100073 -3.486462 3.3976233 -4.0109015
000050 25 cb a9 40 e0 5e 6f c0 9b de b9 c0 fc 77 b9 40
       5.306048 -3.7401657 -5.8084235 5.7958965
000060 f3 8f e3 c0 2a 6f 12 41 d1 35 46 c0 2f 7c a0 c0
       -7.111322 9.15214 -3.0970347 -5.015159
000070 71 6b 90 c0 06 99 95 c0 d2 82 bf c0 df 85 e9 c0
       -4.5131154 -4.6749296 -5.9847193 -7.2975917
000080 10 fd 5d c0 cd db 99 c0 39 d5 cc 40 a8 79 ab c0
       -3.4685707 -4.808081 6.401028 -5.3586006
000090 53 3a 88 40 b4 e5 84 c0 b8 e2 96 40 08 cb 42 40
       4.2571197 -4.15304 4.7151756 3.043642
0000a0 76 f4 49 c0 bf ad 68 40 76 38 60 40 37 6a 54 c0
       -3.1555457 3.6356046 3.503446 -3.3189828
0000b0 fd a7 bb c0 50 62 8e c0 b6 06 47 c0 23 45 cc c0
       -5.8642564 -4.449501 -3.1097846 -6.3834395
0000c0 76 73 8f c0 68 35 14 41 c5 1a 4b c0 0b 8d 75 40
       -4.4828444 9.263039 -3.173509 3.8367336
0000d0 25 43 a4 c0 67 c6 b1 40 62 6d 6e 40 ac af 7a 40
       -5.1331964 5.555469 3.7254262 3.9169722
0000e0 9f 1a b3 c0 7c 9e c1 40 72 af f5 c0 16 12 dc c0
       -5.5969996 6.050596 -7.6776667 -6.8772078
0000f0 7e 9d c4 c0 be 9d b0 c0 c1 ac 3d c1 6c 25 58 c0
       -6.144225 -5.5192556 -11.854676 -3.377284

exp_avg f4 [4]
000000 f6 8e 59 3d ec da e9 3c db 05 3a bc 2a 69 dd bb
       0.053114854 0.028546773 -0.011353935 -0.0067569213

exp_avg_sq f4 [4]
000000 d4 ba 58 3c 96 2b 4c 3c 48 dd 40 3c 1b df 3a 3c
       0.013228137 0.012461564 0.011771508 0.011405732
