training_results/cartpole_boltz/ppo/seed_2024/1000000steps/checkpoints/model_100000.pt (torch, 151515 bytes, 30 tensors)

actor.pi_net.fcs.0.weight f4 [64, 4]
00000000: 2f9a 89be 99ca 8c3c 7a8f 893e e84f 683f
00000010: 8616 933e 1b65 cb3e 93d8 0e3f c721 31be
00000020: 64a3 373e 7529 813d 5eaa ebbe 31d6 f9bc
00000030: 66cd 14bb bc28 a33e b504 8dbe f00d 803d
00000040: 6010 033e 5b52 8dbe 36a5 a33e b94a 643e
00000050: d225 bdbe 9209 5a3e 23b9 aebe 1ed7 cabe
00000060: 42c6 abbe 54fd dbbe d7ca 22bf 2136 bbbd
00000070: 2d5d 423e 8cdc 9dbc 7237 873e 65ac 1d3f
00000080: 62e5 dc3e 703f acbe 9d5b fc3e a32e 7f3f
00000090: d6da a2bd cbff b43e 6141 e23e b796 043f
000000a0: 1a3d f9bb ed78 553e 52c3 833e 5e4a 193d
000000b0: 78b3 b2be 81bf 1f3e 9631 a63e e302 603e
000000c0: 9c32 eebd 6936 013e 80f1 3c3f 354a 0a3f
000000d0: 9a16 87bd bc31 223c 07c7 15bf f563 d3be
000000e0: 310f 8b3e 0e2d 013e 8890 d1be 0a3f 59be
000000f0: 8778 b03e 5444 513d 7f24 1c3f bd83 513e
00000100: 1527 9c3e 814f a63e 90f7 6dbe 3563 70bf
00000110: 1bd8 cc3d 7068 06bf ec80 ed3e 2140 013f
00000120: 5ac7 b4be 9888 853d a389 c4be 1552 2bbe
00000130: 13fe 77bc bfe7 e3be 6577 8ebd fe71 4b3f
00000140: 0ee7 22be 1d9d ef3d e62a bf3d 481c 2bbf
00000150: 1aa2 01bf 9c72 91be bc70 c33e 92ff 443f
00000160: 38d1 733e 7d19 aabd 2c0f 423e 61e0 5d3f
00000170: df62 473e 7d7f d0be ba5b 243f 2834 073f
00000180: 0672 77bd da58 ea3e ba50 ff3e c104 883e
00000190: 3daa 3a3e ee11 a5be c34b acbe d670 d83e
000001a0: 63d3 e5bd 0252 09be 6ff8 0fbf 2b55 25bd
000001b0: 71cc 483d 4a6a 823e 3e15 0d3f 6102 173f
000001c0: 1263 bd3e 34db 01bf ae9e 363f 3588 443f
000001d0: 67b7 01be 145c 92bd be7e 0c3e 36f3 16bf
000001e0: 0076 603e a549 adbe e92e cabb 8b41 28bf
000001f0: 5d62 b7be ba34 7a3e a88c 0fbf 72cf 14be
00000200: e146 a0be f5de e63e 79e4 14be 770b d63d
00000210: 8858 77bd 6b38 e9bd 0d01 873d 60ff fdbc
00000220: 497a 1d3e 3f6c bb3e ed71 4a3e ea8d 443e
00000230: e2f1 debc 6fc2 843e b2c6 eabe 05fe 9abe
00000240: 6125 d4be 1b13 a53e ee48 013f 013c 703e
00000250: a6c4 b73c 9a1f 053f 7174 a5be 4233 49bf
00000260: c165 a33d 9d77 b63d 078f 80be 241d 62bf
00000270: 2001 ac3e d045 a33d c9e5 113f b658 d33d
00000280: 8cb8 5c3e 75ef 09be a5cf 0b3f 9998 543f
00000290: c85b 3abd c14d 6bbe 817b 2f3f 0249 613f
000002a0: 275e 973e 7650 94be d623 ebbe f4d8 acbe
000002b0: bbb3 373e 6866 0cbd ddd5 35be 5c6e f5be
000002c0: 7421 4fbc ba6a 24be f2ae debd cd18 bbbe
000002d0: 9206 83be 5087 933e bf37 a9be 07a2 053e
000002e0: cf88 e33e 7f31 083f 12e6 04bf e3d4 40bf
000002f0: e650 7e3c c62f e5be 39b5 f73e 2caa 393f
00000300: 9b59 023f c608 5e3c d2be 0d3c eb54 703f
00000310: 2b20 9f3e 3a1f 193e a648 6ebe ea30 16bf
00000320: b1bc 5abe 61ca 23be 0c1f 43bf 91cd 09bf
00000330: 8a55 e13e 5023 7bbe eda5 98be 1c81 31bc
00000340: b738 7e3c 5b1a 823e 2ec6 b33e a0d9 5c3a
00000350: 9cd3 46bb 184c 9d3e ed16 3abe 3f23 c83e
00000360: 5c88 8ebe 1389 f43e cf3c 7f3e 6343 aabb
00000370: f6fb 6c3d 10b9 84be 057e cd3e 4688 b13e
00000380: 34d7 c13e 2ee8 8d3d 5386 42be 50e1 123f
00000390: 7fe8 673e c8db 243e 974d 00bb 59df 4cbf
000003a0: 255d 1bbe 28d2 01bc 2e4d ee3d 4786 b8be
000003b0: 105a 093e f548 d5be 09ac efbe 2686 94bd
000003c0: 4e6d a53e cd3b a53e 52b8 233e 0fd8 17bf
000003d0: cf38 c63e f908 d8be 6259 e2be 093c b1bd
000003e0: c43f babd f3aa 1abf d521 d63e c912 0c3f
000003f0: 7710 92be a4c5 fe3d 5641 a2be e8ea 10bf
-0.26875445 0.01718645 0.26867276 0.9074693 0.28728122 0.39725575 0.55799216 -0.17298041
0.17933422 0.063067354 -0.46028417 -0.030497642 -0.0022705435 0.31867015 -0.27542654 0.06252658
0.12799215 -0.27601895 0.31961983 0.2229413 -0.36942917 0.21292713 -0.34125623 -0.39617246
-0.33549696 -0.42966712 -0.6359076 -0.09141184 0.18980856 -0.019270204 0.2640949 0.6159118
0.43143755 -0.3364215 0.49288645 0.99680537 -0.07951896 0.35351405 0.44190505 0.5179247
-0.007606161 0.20846911 0.25734955 0.037424438 -0.3490255 0.15600397 0.32459706 0.21876101
-0.11630747 0.12618412 0.73806 0.5401948 -0.06596108 0.009899553 -0.58506817 -0.412872
0.27160028 0.12614843 -0.4093058 -0.21215454 0.34466955 0.051090553 0.6099319 0.2046041
0.30498567 0.32482532 -0.23238969 -0.9390138 0.10002156 -0.5250311 0.46387422 0.5048848
-0.35308343 0.06520194 -0.38386258 -0.1673053 -0.01513626 -0.44512746 -0.069563664 0.79470813
-0.15908453 0.11699889 0.09334354 -0.6684003 -0.5063797 -0.28407753 0.38171947 0.7695247
0.2381028 -0.08305643 0.189511 0.866705 0.1947131 -0.40722266 0.64202464 0.5281396
-0.060411476 0.45770913 0.49866277 0.26566127 0.18229003 -0.32240242 -0.33651552 0.42273587
-0.112219594 -0.1341019 -0.56238455 -0.040364426 0.049023096 0.25471717 0.5511054 0.58988005
0.36989647 -0.507251 0.71335876 0.76770335 -0.12667619 -0.07146469 0.13720223 -0.5896486
0.21920013 -0.3384525 -0.006170143 -0.6572501 -0.35817233 0.24434176 -0.56074 -0.14532259
-0.31304076 0.45091978 -0.1454028 0.104514055 -0.060387164 -0.11387714 0.06591997 -0.031005561
0.1537868 0.36606023 0.19770022 0.19194761 -0.027214948 0.2592959 -0.45854717 -0.30271927
-0.41434768 0.3224114 0.50501907 0.2346039 0.022432636 0.52001345 -0.323154 -0.7859384
0.079783924 0.08909533 -0.2510912 -0.88325715 0.33594608 0.079723 0.5699125 0.10319655
0.21554774 -0.13470252 0.54613715 0.83045346 -0.045497686 -0.2297888 0.68547827 0.88002026
0.2956402 -0.28967637 -0.45925778 -0.33759272 0.17939655 -0.03427735 -0.17757364 -0.4793576
-0.012642253 -0.16056338 -0.10873212 -0.3654236 -0.2559095 0.28814173 -0.33050343 0.1305009
0.44440314 0.53200525 -0.5191356 -0.7532484 0.015522217 -0.4476301 0.4838045 0.72525287
0.5091798 0.013551896 0.008651452 0.93879575 0.3107923 0.14953318 -0.232699 -0.58668387
-0.21361043 -0.1599517 -0.7621925 -0.53829294 0.44010574 -0.2452519 -0.2981409 -0.010834005
0.015516452 0.25410733 0.35112137 0.00084247626 -0.0030338531 0.30722117 -0.18172808 0.3908939
-0.2783841 0.4776083 0.2492554 -0.0051960214 0.057857476 -0.2592244 0.40135208 0.3467428
0.378595 0.069290504 -0.18996553 0.5737505 0.22647284 0.16099465 -0.0019577497 -0.800283
-0.1517225 -0.00792364 0.116358146 -0.36039945 0.13413262 -0.41657224 -0.4681094 -0.07252149
0.32309955 0.32272187 0.15988281 -0.59314054 0.38715217 -0.42194346 -0.4420882 -0.08654029
-0.090941936 -0.604171 0.41822687 0.54716164 -0.28528187 0.12440041 -0.31690472 -0.5660844

actor.pi_net.fcs.0.bias f4 [64]
00000000: 3169 f8bd d7f3 d6be 7995 9b3e 24ba 37be
00000010: 038f a1be 15e7 06bf fd4f ffbd 05be 3f3d
00000020: 85c9 0a3e ea92 4fbe 0c02 39be dd25 21be
00000030: 785b d33d efb1 953e f86e 6cbe 7bd7 613e
00000040: 9b4d ed3d 9d48 d6bd 8bc7 58be 4fc6 b43e
00000050: b53e b23e 6d8f 37be b91a 683e 7115 8bbe
00000060: dfbd 543e 8cd5 db3e b38d 6bbe 0cf1 52be
00000070: 42db 14be 3b7f bdbe bb2f be3e 87f0 273e
00000080: 774b e53c 89e9 cb3e 8ef2 f3bc b32b 99be
00000090: 2a63 5f3e a8a0 e9bd 9e20 83bd 5255 8abe
000000a0: b16d 58bd 2fe1 c43e 5fb8 f5bd 4640 15be
000000b0: 4248 c1be 051a 6dbe 4aaf 483e a8fd 9ebe
000000c0: 8329 bf3c 558d 833e 07be fd3c abcd 083e
000000d0: 1a4f d53e f626 193e 4e45 b4be a0d9 153c
000000e0: a23a b2bd 7c2e 9dbe 4fe4 883e 7de0 f63d
000000f0: 169e 54bd d0b4 be3d 6802 b8bd 26e1 b43e
-0.12129439 -0.4198291 0.30387476 -0.17942101 -0.31554422 -0.52696353 -0.124664284 0.046812076
0.13553436 -0.20270887 -0.18067187 -0.157371 0.10320181 0.29237315 -0.23089206 0.22054856
0.11587068 -0.10463069 -0.2116987 0.35307547 0.34813467 -0.17925806 0.22666444 -0.27164796
0.20775555 0.4293636 -0.23003273 -0.20599765 -0.14536765 -0.37011132 0.3714579 0.16400348
0.027990086 0.3982661 -0.029778745 -0.29916152 0.21815172 -0.11407596 -0.064027056 -0.2701822
-0.052838985 0.3845305 -0.119980566 -0.145753 -0.3775044 -0.23154457 0.19598117 -0.310529
0.023335224 0.25693765 0.030974401 0.13359706 0.41661912 0.14956269 -0.35209125 0.009146124
-0.087025896 -0.30699527 0.26736686 0.120545365 -0.051908575 0.09311831 -0.08984834 0.35328025

actor.pi_net.fcs.1.weight f4 [64, 64]
00000000: 1178 163b b685 4f3d b426 9a3d cd42 043b
00000010: 15d6 29bd 0660 f93d 95b4 053d 2947 30bd
00000020: b26e fb3d 02f0 a73c 0cfd 973c 72c2 8d3d
00000030: 0c09 70bc 4ddc 21bd 7bfb 1c3e 6082 abbd
00000040: b8a9 3c3d 4189 73bd 3f49 273e 2e1e 3e3d
00000050: abb4 a1bc 986a f53d 732a b93d 1689 953d
00000060: e1fe a0bd 452d 3fbd a95c 363e d4a3 a13d
00000070: 6965 a13a 2eee aa3d b989 c93d c01c 4a3d
00000080: f372 febd 64c5 753c e309 d13a 7603 ae3d
00000090: 199e 05be 0221 8ebd f01d b63d 2783 c73d
000000a0: b901 343d 4115 853d 008d 80bc 1418 1e3e
000000b0: e170 243e 23af a7bd a00b 0bbe b64e c73d
000000c0: becd d73d 3a8d 613d 547d 3c3d 58ef 423d
000000d0: d7b9 613d 631f 3ebe 520b 9b3b c4e6 1ebd
000000e0: 22a2 00be 9e9d 0cbd b68f d63d 43fe ebbd
000000f0: adc0 9e3d 90ff ff3d 9552 8e3d f1ea 373c
00000100: 9f47 643e 2805 86bd 9a89 513d 57e5 3e3d
00000110: a8fa 48bb fb5e 6bbc dc9b 113c 8116 b33e
00000120: 3522 a03e 721f 843d cce7 1a3d 0531 c73d
00000130: dd4a 7e3e d42a 52bc ccba 46be 02d0 a13d
00000140: c930 34be 671d 303d 2fe0 58be b093 b23d
00000150: 4db3 88bd b70f 6d3e e641 3b3e e6b4 373e
00000160: cb77 5b3e 236d 433c a113 82ba 51d3 3abd
00000170: 7cab 6b3e 9838 e1bd 414f f1bd e152 9ebd
00000180: 5c59 babd 21c7 2fbd ad46 903d 307c 30be
00000190: 2931 a23d 30d6 d5bd bd26 afbe 2ff3 3c3d
000001a0: 243a 6e3e a059 603e 9bb8 28be df5f eabd
000001b0: 91f4 42be 26c1 613d a51b 19be 1990 e83d
000001c0: ac2b 8e3e 52d4 03be 7ae2 85be 88f6 7fbd
000001d0: 07f0 a1bd f0d2 223e 62d3 73bd 7117 213e
000001e0: b542 103e f969 85bd a80f 8ebd 9525 123e
000001f0: 7361 20be 7539 4c3d ef17 7b3e 8914 04be
00000200: ff10 623d 82bf b1bc 3e7e 8ebc df7d 883d
00000210: d9cb 39bd 5fa6 b63d d5dd bfbd 8381 5a3c
00000220: 5d16 2e3e da61 89bd 3cc7 edbb 77ce 773d
00000230: 593a 053e 2e9b 77bc 5a78 e8bd c6f1 0abd
00000240: da75 07be d409 403d 1fe0 d3bc 38f7 10bd
00000250: 9aed 0a3d 2f01 113e dd7c 053d 6018 d63d
00000260: bf17 7bbd 0dca 5e3d 07c2 d53b 415a 233c
00000270: 9eed 633e a26b ec3c 9358 ff3c 9a94 99bd
00000280: e36f 1ebd fbf9 ad3d f116 f83d f2f2 f2bd
00000290: 764e 753d c19d 23be 818c e9bc 533f c4bd
000002a0: e453 563e 7a2d 003e 77cd f8bd cf9f fcbd
000002b0: e543 733c cf09 fe3d 5a5c 57be 66d0 263e
000002c0: 655a 283e 1715 2b3d 1bdd d8bc 22ad c53d
000002d0: d6c0 ae3d 19dc d5bd 2001 62bc 90e0 b83d
000002e0: e63d 263e 4f07 aa3d 6056 083d 5a62 2b3d
000002f0: bbc8 4b3d f7d0 ab3d 7c2a 4e3e b11c 15be
00000300: 9f68 9abe 8c75 743d 921e 8a3d 5aca f7bd
00000310: 792c 673d 4cb6 1f3e ba9c 533d fa17 98be
00000320: 1277 7abe 598d 36be 0148 a93c d71a b03c
00000330: 7754 8ebe b139 253d 9418 d03c 93c9 99bb
00000340: eaa2 9a3e 3190 0cbe 7b6f 9d3d 196e e6bd
00000350: 185b 2d3e 4341 51be 7788 3fbe bed5 0cbc
00000360: edad 46be f640 90bd e552 2e3d ba26 23be
00000370: ac5a 1abe 2473 72bd ccdb 09bd 2909 9d3d
00000380: dbca b9bc 4144 7fbd b80d a2bd c395 943d
00000390: 7c6f f0bd ecbc da3d 46d0 7f3e 45eb a5bd
000003a0: 24f2 a4be b2a4 dd3c b00e 403e 26dd 6f3c
000003b0: 1a26 49bd 708d 8a3d 5337 663e 9411 9e3b
000003c0: 9c44 d1be 7397 eb3d 787c 9b3e 8bc6 5ebd
000003d0: cc8c ca3d 0bd4 3dbe 810d 50bd 4910 efbd
000003e0: 95a4 d3bd 9c1a c63d 8339 133e 7834 953c
000003f0: e8b3 543d de36 31bc f375 63be 1ff3 01bd
0.0022959749 0.050664626 0.07526913 0.0020181418 -0.04146393 0.12176518 0.03264292 -0.043036614
0.12276973 0.020500187 0.01855328 0.06921853 -0.014650594 -0.039516736 0.15330307 -0.083744764
0.046060294 -0.059457067 0.16336535 0.0464155 -0.01973947 0.11983222 0.090413 0.07301538
-0.07861114 -0.04667403 0.17808785 0.07892576 0.0012313548 0.083462104 0.09840722 0.049343824
-0.124242686 0.015000675 0.0015948381 0.08496754 -0.1304859 -0.069398895 0.08892429 0.09741812
0.043946955 0.064981945 -0.015692234 0.15438873 0.16058685 -0.081877016 -0.13578653 0.0973181
0.10537289 0.055066325 0.04601796 0.047591537 0.05510887 -0.1856666 0.004731574 -0.038794294
-0.12561849 -0.034330003 0.104766294 -0.11523106 0.07751594 0.124999166 0.06949345 0.011225448
0.22292946 -0.06543952 0.051156618 0.046605434 -0.003066698 -0.014365907 0.008887257 0.34978107
0.31276098 0.0645131 0.037818715 0.097261466 0.24833246 -0.012827594 -0.19407195 0.079010025
-0.17596735 0.04299679 -0.21179269 0.087195754 -0.06674824 0.23150526 0.18286857 0.17940101
0.21432416 0.011927876 -0.0009924063 -0.045611683 0.23014635 -0.109971225 -0.117826946 -0.07730652
-0.09099075 -0.042914513 0.0704473 -0.17234874 0.07919533 -0.10441244 -0.34209242 0.046130355
0.23264366 0.21909189 -0.16476671 -0.11444067 -0.19038607 0.05511584 -0.14951952 0.113556094
0.27767694 -0.12873963 -0.2614935 -0.06249097 -0.0790711 0.15900779 -0.059527762 0.15731598
0.14087947 -0.06514353 -0.0693658 0.14272149 -0.15662174 0.049859483 0.24520849 -0.12898459
0.05519199 -0.021697763 -0.017394181 0.06664633 -0.04536042 0.089184515 -0.09368483 0.013336542
0.17000718 -0.06708117 -0.0072564166 0.060499635 0.13010539 -0.015112681 -0.1135108 -0.03392198
-0.1322855 0.046884373 -0.025863705 -0.035392016 0.033918 0.14160608 0.032589782 0.10453868
-0.061301943 0.05439191 0.006523374 0.009970249 0.22258613 0.028859917 0.031170165 -0.074990466
-0.038680922 0.084949456 0.12113751 -0.118627444 0.05988928 -0.15978147 -0.02850938 -0.09582391
0.20930439 0.12517348 -0.12148564 -0.123351686 0.01484773 0.124042146 -0.21031323 0.16290435
0.16440733 0.04176816 -0.026472619 0.09652163 0.08532874 -0.10442371 -0.0137942135 0.09027207
0.1623455 0.08302175 0.0332855 0.041841842 0.04975198 0.08389466 0.20133394 -0.14561726
-0.30157945 0.059682414 0.06744112 -0.120991424 0.056438897 0.15596884 0.051663138 -0.29705793
-0.24459484 -0.17827357 0.020664217 0.021497173 -0.27798817 0.040338222 0.025402345 -0.004693219
0.3020242 -0.1372688 0.07687279 -0.11251468 0.16929281 -0.20435052 -0.18704401 -0.008595882
-0.19402285 -0.0704364 0.042559523 -0.15932742 -0.15073651 -0.059191838 -0.03365688 0.07667763
-0.022679737 -0.06232095 -0.07912773 0.07255127 -0.11740014 0.10680565 0.24981794 -0.08101515
-0.3221599 0.027056072 0.18755603 0.014640128 -0.049108602 0.06765258 0.22482042 0.004823873
-0.40872657 0.11503496 0.303684 -0.054388564 0.09890136 -0.18537919 -0.05079413 -0.11673028
-0.10334126 0.09673044 0.14377408 0.018213496 0.051929384 -0.010816304 -0.22212963 -0.031726

actor.pi_net.fcs.1.bias f4 [64]
00000000: e4a3 adbd 666d c6bd 0cbc 48bd 8528 dabd
00000010: 9b09 06be fd7c a13d 8418 823d dfc1 123d
00000020: 03e4 c0bd d475 4a3d c043 ef3d 3c2b b73d
00000030: 3c9f d23d a96b 923d 86a1 2fbb 6b48 1abd
00000040: de06 e2bd 1c57 c4bd 962f 053e 87fc 403c
00000050: c90c cf3d d9d7 663d 2f5a a23d a574 993d
00000060: ea2c 8d3d bdc6 103e 221b dfbd f356 df3c
00000070: 3cb6 a73d b98e 183d 29b0 2f3c 995e 8abd
00000080: b07b 25bd 6aaf a13d e469 c63d e047 27bd
00000090: 9d53 aabd fd98 5f3d 08bc a73d d986 a5bd
000000a0: 8937 c3bd eadf d5bd 527a 233c 5d2f fabd
000000b0: e445 00bd 479f bd3d f1b5 f0bc 9ac9 983d
000000c0: 3df8 5fbc d3c0 4f3b 0bb2 1a3e 82a2 f63c
000000d0: 5280 37bd 1050 00bd dc1b a6bd cc72 b33d
000000e0: 062c ab3d fb82 cebd 285b 2dbd 04d3 6c3c
000000f0: 5ff7 4dbd 0286 a83d 8f62 093b 7701 aa3d
-0.08478525 -0.09688835 -0.04900746 -0.1065226 -0.13089602 0.07885168 0.06352332 0.03582942
-0.0941849 0.049428776 0.11682844 0.08943793 0.10284278 0.07149441 -0.0026799156 -0.03766672
-0.11036466 -0.09586927 0.13006434 0.011778957 0.101098605 0.056358192 0.079273574 0.07492951
0.06893332 0.14138313 -0.10893847 0.02726314 0.08189055 0.037245486 0.010723152 -0.06756324
-0.04040116 0.07894786 0.09688166 -0.04084003 -0.08316729 0.05458926 0.08190161 -0.08082361
-0.09532077 -0.10443099 0.009977894 -0.12216065 -0.031316653 0.09258895 -0.029383631 0.074603274
-0.013670024 0.0031700626 0.1510698 0.030106787 -0.04480011 -0.031326354 -0.081107825 0.0876213
0.08358006 -0.10083576 -0.04232326 0.014454607 -0.05028474 0.08228685 0.0020963287 0.08301061

actor.pi_net.fcs.2.weight f4 [1, 64]
00000000: 59ed 483e 6929 4b3e 6e5c 2e3e e8aa 8cbe
00000010: 60d7 3e3d 36fd c03d 8a7f 343e 97c2 813d
00000020: fa35 173e 2a76 0cbe d4d4 d5bc c857 d1bd
00000030: 68d1 a0bd 7e97 10be 56c1 fcbd 6495 f8bd
00000040: 90ba 1c3e 1863 3abe da86 b0bd a879 e1bd
00000050: c193 923d 5ac9 fabd 58d0 82be df0a 60bd
00000060: 686a af3d b184 73bd eca0 ab3d 55ac 89be
00000070: 7ed8 2cbe ba25 25be a353 32be 50e1 8bbd
00000080: 1ca4 57be 0bf2 153d 3676 8abd 822e b13d
00000090: 01c2 8c3e 5c4a bf3d 6462 733e fdbf 00be
000000a0: 75c4 51be 1968 573d d192 33bb 3e54 0d3d
000000b0: d45c fcbd 31e8 db3d 29dd 16be 5d6d 073d
000000c0: 7567 01be 9413 de3d eb47 00be c2ae 34bc
000000d0: cda3 db3d d549 08bd 32ac 3bbe cbe0 ee3d
000000e0: 0025 dfbd a4ba 983d 73a3 0c3e a4e9 75be
000000f0: 904d 743e 4e65 d83d fcc5 173e d604 363e
0.19621791 0.19840015 0.17027447 -0.2747414 0.046592116 0.09423296 0.17626777 0.06335943
0.14766684 -0.13716951 -0.02610246 -0.10221821 -0.07852441 -0.1412029 -0.123415634 -0.12137869
0.15305543 -0.18201864 -0.08619471 -0.11009532 0.07157088 -0.12245436 -0.2554958 -0.054697867
0.08565217 -0.059452716 0.08380303 -0.2688929 -0.1687946 -0.16127673 -0.17414717 -0.06830084
-0.21058697 0.036607783 -0.06760828 0.08651449 0.27491763 0.09340355 0.23768002 -0.12573238
-0.20485099 0.05258951 -0.0027400742 0.034504168 -0.12322393 0.10737646 -0.14732803 0.03306328
-0.12637122 0.10843578 -0.12527435 -0.011027994 0.10724602 -0.033273537 -0.18327406 0.116639696
-0.10895729 0.07457474 0.13734226 -0.24014908 0.23857713 0.10566197 0.14821619 0.17775282

critic.v_net.fcs.0.weight f4 [64, 4]
00000000: da89 00be 5adb b6be 6889 2bc0 35a0 bfbf
00000010: a9de fdbe 5d93 7d3f 5473 6ebe 0439 8dbf
00000020: b902 bcbe 7070 fabe 4e68 e3bc ef71 a9bf
00000030: 1df2 ad3d a375 5dbd 3152 f4bf 934d b3bf
00000040: 0bb6 8fbe da80 6abe dfaa a9bd e5f4 c13f
00000050: 4076 a13c fa3b e73c 1e3d 48be 7eed 81bf
00000060: 34bc 69bf 6d45 54bf e06f 95be 4df3 5e3f
00000070: 6924 67bd 8705 6b3e 1e25 043f e4e8 cf3f
00000080: 67a8 8dbd 8665 e6be d05d 8d3f f87a a83f
00000090: 68a4 0fbf d1e9 2a3f 952f 9e3f f277 d23f
000000a0: 9695 983e 2e22 74bf ec93 53c0 db39 a8bf
000000b0: 2840 bdbd c57f c2be 38e3 353e cae3 d83f
000000c0: 6fff a73d 8b54 2e3d 12d2 2640 3974 5f3f
000000d0: b0d8 0e3e f748 23be a233 6fbf d60a c4bf
000000e0: cf9d 713c 0de5 1e3d 0409 d23e c585 763f
000000f0: 8e6b a03f b9ed adbf 575f aebf 0c28 70bf
00000100: a604 8dbe 95d1 b5be 0448 e2bf bd0e 97bf
00000110: e967 383e 6674 513f 3331 133f b904 9c3f
00000120: f72b 50be e00d 3a3f c64c 4040 4642 b53f
00000130: 8f4c a13c 1c4b e03e 864d 4040 f96b 8c3f
00000140: 16e9 80be f3ba d63d 052b 09c0 2411 aebf
00000150: f1ad 263f 5568 1fbf 144a c1bf cf90 bdbf
00000160: 80cc 583e 6a47 e23c a678 393f e540 b53f
00000170: e0f5 86bf 07b3 503f 835b a6bf 21c4 e1be
00000180: a13b 0fbe 3b1d cfbe 2084 93bf f6bc afbf
00000190: aeb3 313f dc09 0840 8c0c 343f 9e98 d2be
000001a0: 8e64 48be 505a 593e ba12 a3bf 1348 7ebf
000001b0: e98a 5b3e 8790 9a3e 561a a6bf ea0d c4bf
000001c0: b1a9 c8be 05d9 2ebf 656e 543e 1058 a73f
000001d0: f59d 6a3f 82c5 38be 48c0 b4bf fdfc ba3e
000001e0: d8a9 f4bd f747 edbb 100a 6dbf 3cf1 89bf
000001f0: 8517 02bf 39a0 683e 9837 613d b02f c7bf
00000200: 1ebf 61be bf7a 3d3f 96e3 893f a71a 923f
00000210: 46f1 583f db5a c23f 2f86 153f 86fc 14bf
00000220: d3aa 033f 0ba4 70be 6211 853c 9956 aebf
00000230: a720 52bf 4202 a7be 1eda 11c0 3bb8 26bf
00000240: d5a5 b1be e332 1ebf 9c54 193f 1bcf b43f
00000250: b0d6 c1be 02db 46bf d809 b8bf 0837 8bbf
00000260: 7217 6b3f fdf8 49bf 859c fbbf 25be 9fbf
00000270: ccd7 8abf b8c6 dc3f 923f 1540 17f8 92be
00000280: d7d4 bdbe 02e9 07bf 1bbc dbbd c2e5 cbbf
00000290: 138b 163f 7341 593f 35c0 babe 4de1 79bf
000002a0: 5ef0 2abf af19 a0be c48e 4f3f f166 c03f
000002b0: c217 e53e 1d21 da3e 665b ac3f 7060 a13f
000002c0: c378 a93f a29c 43bf 586e e3bf 703c f8bd
000002d0: eaae 9abe 4275 b43e cdd2 963f fc88 d63f
000002e0: bb99 57be 8821 52bf a150 86bf 849a aebf
000002f0: 0090 60bf 8335 c33f 776c 7740 c536 b63f
00000300: f1d5 87be e912 c93f e0f7 5040 2944 a23f
00000310: 0dfe a1be 3298 11bf 4f9b 913e 2b42 a53f
00000320: d1e3 af3e 3f53 40bf 0564 36c0 fec3 c8bf
00000330: ee41 65be 40a5 2fbf 1517 d5bf fbd9 9fbf
00000340: ec14 16be 11bb c0be d3b5 41c0 55c4 c0bf
00000350: 2016 c43d dabd 81be a91a 4e3f b7ca b73f
00000360: 42d6 833e 8b4a c63f 1507 4e40 05c3 933f
00000370: 74d5 e93d feee 723f 56b0 073f 05f6 7ebf
00000380: 2677 873e 8fc2 9f3e 51d0 15c0 d6bf d1bf
00000390: e55e 53bf a88b 143f b914 3b3f dda8 adbf
000003a0: 30e0 06bf c2b0 403f dedf 853d b50f adbf
000003b0: b225 b8bf 8106 4dbf 42f3 c73f 302d 923f
000003c0: 6144 843f 8118 ba3e b7a0 2cbf 3974 79bf
000003d0: cf01 793f 8f9a a9bd 19b2 26bf 0d95 483f
000003e0: e029 773e bd05 603e 8a9f c5bf ce62 c2bf
000003f0: e4f0 423e 7408 dcbf 06f7 75bf 9afd 0fbf
-0.12552586 -0.35714227 -2.6802616 -1.4970766 -0.4958394 0.99052984 -0.23286182 -1.1033025
-0.36720827 -0.48913908 -0.027759697 -1.3237895 0.08493445 -0.054067265 -1.9087583 -1.4008049
-0.28068575 -0.22900715 -0.08284544 1.5152861 0.019709706 0.028226841 -0.19554564 -1.0150602
-0.913028 -0.82918435 -0.29186916 0.8709 -0.056431208 0.22951327 0.51619136 1.6242948
-0.06916886 -0.4499933 1.1044254 1.3162527 -0.5611024 0.66763026 1.2358271 1.6442854
0.29801625 -0.95364654 -3.3059034 -1.3142656 -0.092407525 -0.37988105 0.17762458 1.6944516
0.08203017 0.042561095 2.6065717 0.87286717 0.13949847 -0.15945803 -0.9343816 -1.5315807
0.014747097 0.03879266 0.41022503 0.96297866 1.2532823 -1.3588172 -1.3622845 -0.93811107
-0.2754261 -0.3551146 -1.7678227 -1.1801373 0.18008389 0.81818235 0.5749695 1.2188941
-0.20329271 0.7267742 3.0046859 1.416085 0.019689826 0.43807304 3.0047317 1.0970451
-0.2517783 0.104848765 -2.1432507 -1.3598981 0.65109164 -0.62268573 -1.5100732 -1.4809817
0.2117176 0.027621944 0.7244972 1.4160429 -1.0543785 0.81523174 -1.2996677 -0.44094947
-0.1398759 -0.4045199 -1.1524696 -1.3729541 0.69414794 2.1256018 0.70331645 -0.41132063
-0.19569609 0.21225858 -1.274009 -0.99328727 0.21439709 0.3018839 -1.2976787 -1.5316746
-0.39191964 -0.68299896 0.20745237 1.307375 0.91647273 -0.18044093 -1.412118 0.3652114
-0.119464576 -0.007241245 -0.9259348 -1.0776744 -0.5081714 0.2271737 0.05498466 -1.5561428
-0.22045562 0.7401542 1.0772579 1.1414384 0.84743154 1.5183977 0.5840787 -0.5819782
0.5143253 -0.23500077 0.01624364 -1.3620178 -0.82081074 -0.3261891 -2.2789378 -0.65124863
-0.34696832 -0.61796397 0.5989473 1.4125704 -0.37859106 -0.7767793 -1.4378004 -1.0876169
0.9183265 -0.7889555 -1.9657141 -1.2479903 -1.0847106 1.7248144 2.332005 -0.28704903
-0.37076446 -0.53089917 -0.10729238 -1.5929492 0.5880596 0.8486549 -0.36474767 -0.97609407
-0.6677302 -0.31269595 0.8107722 1.5031415 0.44744688 0.42603388 1.3465393 1.2607555
1.3239979 -0.7641088 -1.7768049 -0.121209025 -0.30211574 0.3524571 1.1783081 1.6760554
-0.21054737 -0.82082415 -1.0493356 -1.3640904 -0.87719727 1.5250705 3.8659952 1.4235464
-0.26530412 1.5708896 3.265129 1.2677051 -0.31639138 -0.56872857 0.28438804 1.2910818
0.34353498 -0.75127023 -2.8498547 -1.5684812 -0.22388431 -0.68611526 -1.6647669 -1.2488397
-0.14656419 -0.3764272 -3.0267227 -1.5059916 0.095745325 -0.25340158 0.8050943 1.4358739
0.25749403 1.5491499 3.2191823 1.154389 0.11417666 0.94895923 0.5300344 -0.99594146
0.2645809 0.31203124 -2.3408396 -1.6386669 -0.8256667 0.580256 0.73078495 -1.3567158
-0.5268583 0.7526971 0.0653684 -1.3520418 -1.4386504 -0.8008805 1.5621111 1.142004
1.0333368 0.3634682 -0.6743273 -0.97442967 0.97268385 -0.08281433 -0.65115505 0.78352433
0.24137068 0.21877189 -1.5439312 -1.5186403 0.19037205 -1.719008 -0.9608005 -0.5624634

critic.v_net.fcs.0.bias f4 [64]
00000000: abcf 60bd 6acc 9d3c 1f3d e2bd a7ae 8d3e
00000010: 48bb 813d 0fb1 b53e 37d6 b8be 4bf7 2a3e
00000020: b4dc 18be a924 273e 8e35 403e 63ea a63e
00000030: 5c29 65bd ab88 a5bd 97ba 2cbe 5652 02be
00000040: 42f9 853e d04a f4be 5f46 f4bd 282b bf3d
00000050: d22a 6a3b 41e3 59be caa2 263d a588 ee3d
00000060: 8f9a 5ebe 956a c63e be8e 893d e64f 5b3e
00000070: 0755 82be d969 2cbe 4dad 15bd 994b 8abe
00000080: 9c03 66be f6bc 87be 6321 623c 7399 1e3e
00000090: 7ea6 73bb e368 ec3e e6d5 9b3e 0d03 243e
000000a0: 23af 54be 154d 863e 9868 85bd d648 60be
000000b0: a288 4bbe 4840 743e 34e7 fa3e e826 043e
000000c0: 9abb 563e bd82 2c3e 2f6f 513e 6c5e 183e
000000d0: 88e7 343d 62e4 2d3c 74d4 21bb bd30 b9bc
000000e0: e112 053d e7f1 01be 4588 90bc 7605 4cbe
000000f0: 05c9 073e de70 81be 3168 f23d 8be2 85be
-0.054885548 0.019262511 -0.11046814 0.27672312 0.06334549 0.35486647 -0.36100933 0.16695897
-0.14927942 0.16322578 0.1877043 0.32600698 -0.055947646 -0.08082708 -0.16868053 -0.12726721
0.2616673 -0.47713327 -0.11927485 0.09334403 0.003573109 -0.21278097 0.04068259 0.116471566
-0.21738647 0.3875319 0.06716679 0.21417198 -0.25455496 -0.16837253 -0.036542226 -0.270108
-0.22462314 -0.26511353 0.013801905 0.15488224 -0.0037178094 0.46173772 0.3043663 0.16016789
-0.20769934 0.26230684 -0.0651409 -0.21902785 -0.1987634 0.23852646 0.4900452 0.12905467
0.20970002 0.16846748 0.2045257 0.14879769 0.044166118 0.010613533 -0.0024693282 -0.022606248
0.032488707 -0.12689935 -0.017643103 -0.19923958 0.13260277 -0.25281423 0.11836279 -0.261494

critic.v_net.fcs.1.weight f4 [64, 64]
00000000: fba2 4f3e fc90 dabd 7fe1 5d3f aaed 00be
00000010: 2a1c e6be 28a4 68be 4ab3 973e ce2b 4bbf
00000020: 4675 39bb 2c8c 36bf 64df 32be abe5 8dbf
00000030: aebd 1cbd e322 a53e 0aaa 0ebe ab4a ba3e
00000040: 4a11 04be 6703 813e 4212 67bd 567f 49bd
00000050: 8897 053e 07f3 3d3f cac0 0bbf 083d fcbd
00000060: b018 253f deb3 d0be a7e0 d93c 11e8 da3d
00000070: 0222 0b3e c153 58bd 6aea a23e fdbb a73f
00000080: 27db 26bd 3507 d23e 0d93 ed3e 91b9 01be
00000090: 3350 f8bd af23 b2be 5fb1 b4be 4bde 3ebd
000000a0: 5b79 6b3f 1e61 b6be a700 3ebe 3554 e7bd
000000b0: e4e7 cd3d 8cba 4fbf 7530 6dbe d05d 87bd
000000c0: 5b50 97be 865d b6be 1c93 c3bd 313a a53b
000000d0: 9d4b 913e 1fde dfbe c2de ff3d 052d ed3c
000000e0: 9214 583c 4d17 3d3f 0922 713e 81e5 ae3e
000000f0: 5517 90be 853f c3bd 5a15 643e f35a f73e
00000100: 5871 833e 87de 64be 2e5e a3bd c888 f13e
00000110: 5160 b3bc 35ad 7e3e fda4 a2be 792b e8bb
00000120: 6d18 e2be 0a8a 9c3b 0cd5 493f b3f7 413d
00000130: 0570 d5be 954a 593d 833c bc3c 1133 873e
00000140: ccf1 ae3e 8074 cfbe 7b44 65bf 3883 75be
00000150: bdaa a33d 9a63 883d 860e 0c3e b9aa 293e
00000160: 1bbc 00bd a70d 873d b077 413e 190f 133f
00000170: 913f c7be ed93 f23e ea2c 17be 23fa a3bd
00000180: 65f0 d3be 58e0 ae3d 7a85 85bd deab 863e
00000190: 1569 23be 5d49 c13e 1c1a 193f aeb7 67be
000001a0: 6949 cabd 98ee 623e 9985 0bbf 302e 52be
000001b0: fb15 5e3e 6bb4 ebbd a86b 9b3e 034d 63be
000001c0: 7ba8 babe bf1d 2a3e 2f5c 3e3f 3ff1 873e
000001d0: 92bd 2c3f 72d6 2e3d 71ee f0be cfa7 7bbd
000001e0: ab78 1d3f 396c a7be bb72 1dbe 1280 01bf
000001f0: c51b ee3e 38f8 803c b83d f13e 0b05 b63d
00000200: 282e 993e 515d 01be d43b 8e3e 483a a3bd
00000210: 0edf 423e a5d3 22bf a7cf 523f 1621 3dbe
00000220: 0081 be3e c872 cebe 3ae6 723e 4b03 6abe
00000230: 662b 62be bb84 7f3e 4e68 663e b4ef 443f
00000240: 36fc 78be 8363 093f f98f aabe 0233 ffbe
00000250: a3a9 603e 0fb3 113f aebb 4cbd edda 07bb
00000260: f91a 043f f0b3 1dbe 1912 09be 2a90 91be
00000270: e51f 283f e487 383f eef8 6d3e 3097 9e3e
00000280: 62e2 873e 29c0 c33e 2399 99bd abd6 7abc
00000290: fff0 3a3e 85a4 abbe 77e7 613e 8313 1fbf
000002a0: 3237 923e 09e3 26bf 1e2f 013f 18fb 863e
000002b0: a1a5 b33f 70c6 01bf 6783 c9be fc17 81bf
000002c0: 91a1 75bf 98a2 f8bd 3667 ff3d 6292 b8bd
000002d0: 40ed 503e 9127 653b 794e 51bf 9cb7 3dbe
000002e0: 1e68 053b f2a2 dbbd 72e7 91be 7571 b53e
000002f0: fe72 d8be eca6 923f 6385 88be 3bd7 d53e
00000300: 4203 26be e00e c33e 8932 ebbd ec03 2fbf
00000310: 5ae5 8abe 5e2d f6be 9ce3 ca3e 04c6 06be
00000320: 0f5d f93e 47fc 4c3d df1e 0ebe dae8 82be
00000330: eb61 c63e 208e 7a39 4d4e 183e fa1a 0cbe
00000340: 21d2 62bf 0dff 753f 8210 ae3e e1c9 9c3d
00000350: b8dc 113d f27d 5d3d b40c 773c 0553 cb3d
00000360: 4b49 ddbc 687b 813e 5dca 93be b512 13bf
00000370: 91a5 6f3e eaa1 943e ce50 313e 1055 1a3e
00000380: 71c8 543f d5d7 1e3f 4f95 883c 10ab 3abf
00000390: 6bda 94bd b858 22bf 7560 41bf 29b5 5f3e
000003a0: 1772 e93d 6d7a 18be a983 213f cf3f 643f
000003b0: a8f8 e03e 1eb6 2abe ac4e 6fbf f6b4 61be
000003c0: ec73 12be bda7 c9be feec 23bf 36c4 33bf
000003d0: 2c08 29be 807a a9bd 6ee8 603e 72b3 c53e
000003e0: 0665 dcbe 458f 833e 729f 0e3d 6039 92bd
000003f0: f037 a4bc 7683 213f c8db 23bf f830 5ebe
0.20277016 -0.10672185 0.86672205 -0.12590662 -0.44943362 -0.2271887 0.29628974 -0.79363716
-0.002829866 -0.71307635 -0.1746803 -1.1085714 -0.03826683 0.3225318 -0.13932052 0.36385092
-0.1289722 0.25197908 -0.056413896 -0.049193703 0.13046086 0.74198955 -0.5459105 -0.12316328
0.64490795 -0.40762228 0.02659638 0.106887944 0.13587192 -0.05281425 0.3181947 1.3104244
-0.040736344 0.41021124 0.46401253 -0.12668444 -0.12124672 -0.3479285 -0.35291573 -0.046598714
0.9198205 -0.3562097 -0.18554936 -0.11295358 0.10053995 -0.8114402 -0.23163016 -0.0660969
-0.29553494 -0.35618228 -0.09549543 0.0050423373 0.28378 -0.43724152 0.124936596 0.028952131
0.013188498 0.7386368 0.2354814 0.34159473 -0.281428 -0.095336 0.2227377 0.48311576
0.25672412 -0.22350512 -0.07976948 0.47174668 -0.021896513 0.2487076 -0.317665 -0.0070852605
-0.4415926 0.0047771977 0.7884071 0.047355365 -0.41687027 0.053049643 0.022978073 0.26406148
0.3416885 -0.4051857 -0.8955762 -0.23975837 0.0799155 0.066596225 0.13677415 0.16569032
-0.03142939 0.06594401 0.18893313 0.5744491 -0.38915685 0.47378483 -0.14763227 -0.08006694
-0.41394344 0.08538884 -0.06519599 0.26303 -0.15958054 0.37751284 0.59805465 -0.22628662
-0.09877283 0.22161329 -0.5450073 -0.20525432 0.21688072 -0.11509021 0.30355573 -0.22197346
-0.36456665 0.1661291 0.7435941 0.26551244 0.6747676 0.04268498 -0.47056916 -0.06143933
0.6151225 -0.32699755 -0.15375797 -0.50586045 0.4650556 0.01574336 0.471174 0.088876806
0.29918027 -0.12633254 0.2778002 -0.07970101 0.19030401 -0.63604194 0.823481 -0.18469653
0.37207794 -0.40321946 0.23720637 -0.22852819 -0.22086868 0.24952976 0.22500727 0.7692826
-0.24314961 0.5366747 -0.33312967 -0.49843603 0.21939711 0.56913847 -0.049983673 -0.0020729855
0.51603657 -0.15400672 -0.1338581 -0.284303 0.6567367 0.7208235 0.2323949 0.30974722
0.26539904 0.38232544 -0.07499912 -0.01530997 0.18255995 -0.33523956 0.22060953 -0.6213915
0.28557736 -0.6519018 0.5046252 0.26363444 1.4034921 -0.50693417 -0.39358065 -1.0085444
-0.95949656 -0.12140387 0.12470858 -0.09012295 0.20403004 0.003496621 -0.81760365 -0.18527073
0.0020356248 -0.10724439 -0.2849689 0.35438123 -0.42275232 1.145719 -0.26664266 0.4176577
-0.1621218 0.38097286 -0.11484248 -0.6836536 -0.27128106 -0.48081487 0.39626777 -0.13161474
0.4870381 0.050045278 -0.13878964 -0.25568277 0.3874658 0.00023894804 0.1487362 -0.13682166
-0.8860188 0.960923 0.3399697 0.07655693 0.035610884 0.05407519 0.015078712 0.09927944
-0.027012488 0.25289464 -0.28865328 -0.5745042 0.23403002 0.2902978 0.17315981 0.15071511
0.8311835 0.62048084 0.016672758 -0.7291727 -0.072682224 -0.63416624 -0.75537807 0.21846451
0.11398714 -0.14890452 0.6309152 0.89159864 0.4393971 -0.16671035 -0.9347942 -0.22041687
-0.14302033 -0.39385787 -0.64033496 -0.7022127 -0.16507024 -0.08275318 0.21963665 0.38613468
-0.43045825 0.25695243 0.034820028 -0.0713985 -0.020046204 0.6309122 -0.64007235 -0.21698368

critic.v_net.fcs.1.bias f4 [64]
00000000: db4f 98be d832 d53c 1293 8dbe a75f e1be
00000010: 5cfd b23d 9ca2 0c3e e42c 8fbe 6559 0dbc
00000020: 4320 033f 6b3a 40be 07c5 15be 4325 ff3b
00000030: b299 703d 04a7 1f3f 4b6a 1e3e f10f debd
00000040: fcd7 aabc 30d3 a1be 469b 01be 33af 8fbe
00000050: d8f0 923e c5ec 71bd 493f 5e3e c54e 7d3e
00000060: 6154 cbbe c38e 443e 3d63 90bd 4449 8e3e
00000070: 4da7 dd3c c8ac 89bd 6c47 e2bc 81d5 7e3e
00000080: 0a89 7ebd d7ef bd3c afe5 32bd 5f12 a33e
00000090: d891 01bf d579 4abe 3a9d bb3d 463e 8fbd
000000a0: b17e cbbc 9202 1f3d 0453 e3bd 799c cf3d
000000b0: 4ec8 a0be 6e17 5abd 0343 333d 194e b23d
000000c0: d287 1abc ea43 643e f0b9 76be 1738 9c3c
000000d0: 2aa1 453d 25b2 bb3e 8914 05be 8aa0 9d3c
000000e0: a8de af3d 337f dcbe 2c23 363e 63bb 563e
000000f0: cff8 e6be e4cf cf3d fc0e a03d cccd bdbb
-0.29748425 0.02602522 -0.27651268 -0.4401829 0.08739731 0.13733906 -0.27963936 -0.00862727
0.512211 -0.18772285 -0.14625941 0.0077864244 0.058740325 0.6236422 0.15470235 -0.10842884
-0.020854943 -0.31606436 -0.12656888 -0.28063354 0.28699374 -0.05906369 0.21703829 0.2473708
-0.39712813 0.19195084 -0.07050178 0.27790272 0.027057314 -0.067224085 -0.027621947 0.24886133
-0.06214241 0.023185654 -0.043676075 0.31849954 -0.50613165 -0.19773038 0.09160848 -0.069942996
-0.024840685 0.03882081 -0.11099818 0.10137267 -0.3140282 -0.053245 0.04376508 0.08706302
-0.009431796 0.22291532 -0.24094367 0.019069714 0.0482494 0.3665935 -0.12996115 0.01924159
0.0858739 -0.43065795 0.17786855 0.2096992 -0.451117 0.10147074 0.07815358 -0.005792355

critic.v_net.fcs.2.weight f4 [1, 64]
00000000: d901 1cc0 e33c 6e3f 87a3 c6bf df3b a8bf
00000010: 58a6 edbe dbf7 a03f 1910 253f 422b a73f
00000020: 87c7 2540 552f c4bf 8373 283f 1e66 a13e
00000030: 0960 7ebf f99a febf 2d49 1cbf 12d6 c4bf
00000040: 8be5 afbe 2bcf dabf b75c 913e e8a8 6a3f
00000050: 9646 bb3f 0406 543f 238a 82be d822 45bf
00000060: e16b 2e3f 5689 dc3f 3098 e43d cb5a a53f
00000070: 2713 49bf d482 a33e c269 733f 87c6 27bf
00000080: e929 1ac0 2a0e e03f e6c8 503f a7d3 3fbf
00000090: 7fe8 dfbf c427 afbf 9f81 ed3f 2c5e 8e3f
000000a0: 7622 6a3f 6fd4 6ebf b320 c2bf 0836 29bf
000000b0: 9252 c1bf 0d6b b8bf 6ae9 80be 685e edbf
000000c0: 58e8 8dbf 03d4 3fbf 4679 d2bf 391f 353f
000000d0: 724c 3bbd d4ad 32bf eb0f 7fbf 6415 4a3e
000000e0: 509e debf 64dd 303f 505a 93be 8d2f c8bf
000000f0: e33c 1940 8c79 c5bf 5332 37bf 8bc4 573f
-2.4376128 0.93061656 -1.5518655 -1.3143271 -0.46415973 1.257564 0.6447769 1.3060076
2.5903032 -1.5326945 0.65801257 0.31523222 -0.9936529 -1.9891044 -0.6104916 -1.5377829
-0.34354815 -1.7094473 0.28391048 0.9166398 1.4630916 0.8282168 -0.25496015 -0.7700629
0.6813336 1.7229412 0.1116184 1.2918333 -0.7854485 0.3193575 0.9508325 -0.65537304
-2.408808 1.7504323 0.81556547 -0.7493233 -1.7492827 -1.368401 1.8555182 1.1122489
0.91458833 -0.932929 -1.5166229 -0.6609807 -1.5103323 -1.4407669 -0.2517808 -1.8544436
-1.1086531 -0.7493288 -1.644326 0.70750767 -0.0457272 -0.6979649 -0.99633664 0.19734722
-1.7392063 0.69087815 -0.2877984 -1.5639511 2.3943412 -1.5427718 -0.71561164 0.84284276

exp_avg f4 [64, 4]
00000000: e7f5 213c 6e39 593c fab4 7d3b 0bd6 243b
00000010: 3342 793a 54c1 21b9 d9c4 eeb8 36c7 c0b9
00000020: 5a92 b637 6529 7739 f66a 45b8 2342 d238
00000030: 134c 663b ce1b 9f3a d4a2 6737 cd9b 1dba
00000040: 2407 7c3b 9288 f53a 8282 6539 b9a4 6fb9
00000050: 9b7a 003c 054e e93b c10a 0e3a a32e 87b9
00000060: 259e a03b 362a bdb9 36e3 80ba 8d83 27bb
00000070: 4a13 d43b 94f1 953b 9a07 143b d0f4 a43a
00000080: 2ce9 873c 9651 333c b83a 4b3b 4124 293a
00000090: 0c02 a5b8 fc18 5eba e9e8 1b3a 17c3 a839
000000a0: a152 5fba b27c 1d39 ee86 2039 3ab6 cd39
000000b0: 824b 163a c614 723a 0c42 b039 76b8 4339
000000c0: 22d9 3e3b e2dc 4f3b 7852 f23a 9e88 b23a
000000d0: a569 64bb d5c1 efba e9a2 f0b9 1b2b 1339
000000e0: 8cbf f13b 5f0a 483b 873f d7b9 460f e3ba
000000f0: 71e8 b8bb ebc7 10bb bd59 313a 35d6 023b
00000100: da88 0cbc 086e 1abc a4e9 5cbb 63ea c0ba
00000110: 15ed 423c 7ca6 923b ddd4 8b3a 2910 4eba
00000120: fe3b aa3b bc1d 4c3b 16a3 65b9 3ce5 a1ba
00000130: 335b f1ba 47f5 63ba a34d 4c3a dbfd 9e3a
00000140: ddde 2fbb 1ca5 0abb 6b62 28ba cc62 b7b9
00000150: 76f1 853b eee7 d33b 468c 203b cf02 ee39
00000160: 197d 433b fff0 243b 4a45 933a 8357 5d3a
00000170: 34b7 113c 60c1 ab3b acb7 7a3a 4a5d cdb8
00000180: 341e ecbb d732 fab9 a404 893a db24 383b
00000190: 6945 9bbb 752d 28bb 7467 cdb8 8f2a 4a3a
000001a0: 13a3 303c 0ff7 9d3b 0b20 0ab9 4ef5 feba
000001b0: a64a ba3a c570 5dba 60c1 0a3a 0fd2 55b9
000001c0: 17bd c03c 12bb 6d3c 305f 343b ef3e 0539
000001d0: d6db c53b a5a4 123b da19 04ba a50a b6ba
000001e0: 19eb deba 3ced 7eba e43a 0fba a038 e138
000001f0: 633a 53bb 9e9e 29bb 53b1 14ba 3383 64b9
00000200: a70b f1bb 7193 85bb ab4d c0b9 7d44 693a
00000210: 9f58 52bb 64f6 bcba 7ff7 c9b8 24a1 df39
00000220: 69a6 deba 46ac e838 80ab 0b3a b05a 7f3a
00000230: 8292 913b 8455 e03a 1573 bfb9 2000 94ba
00000240: 8558 f7bb 5de8 b0bb 3519 c0b8 e592 893a
00000250: e89b 02bc 9b76 30b8 6f52 7eba 9929 393a
00000260: e832 36bc c0cb 2cbc 8185 70bb a69a 14bb
00000270: bc92 743a a926 7739 e3fa 4339 7e7e 61b7
00000280: bbb0 933c 1a86 053c 73da 403b 9cd1 a5b9
00000290: d9e3 313b bc45 023b b8ed 743a 8328 263a
000002a0: 0784 9b3b 8ef8 b93a 3eed a8ba 63c1 11bb
000002b0: 7428 893b 6cde 183b bf6c 3bba ac62 93ba
000002c0: d857 3a3c ee1c ca3b daf1 fc38 4cd8 a9ba
000002d0: 60af d8b9 d7b5 b539 8a0c 81b8 836e 8139
000002e0: 2a45 e2b9 0dec cfb8 c05e d4ba 9cbc b139
000002f0: a22c 5e3c d689 2b3c d61b f83a 0545 f439
00000300: 11f3 f53b 3b03 fdb9 0c70 013b acad 89ba
00000310: 8a58 8dbb c9da a8bb 9d7a 9eba fe42 07ba
00000320: 478c 00bb 0eed cb3a 1f5f c0ba 6c9c 02ba
00000330: 70c2 c63a 34e0 9b3a 9c24 8a38 b883 5ab8
00000340: f75f 28bb a1ae 9aba cf67 2938 33b8 cd39
00000350: bc05 1cbc b0a6 14bb a54a aa3a e610 4b3b
00000360: 3a02 bc38 eece ae39 1c87 0e38 c393 4438
00000370: 74be 10b6 f828 f539 8e83 893a a70b 873a
00000380: c878 aeba a098 6aba 0a9b 3d3a 1ef8 543a
00000390: cb28 0b3b 6471 643a 51ba 1fba 2823 83ba
000003a0: 1f7a 34ba aed6 08b9 58cf 82b9 641d a7b8
000003b0: f898 ea37 f0f9 adb9 9ab7 7fb9 8d69 93b9
000003c0: ade6 3e3a cc24 163a b35a 31ba 173a 2aba
000003d0: 94d7 2f3b f628 f63a 2f47 b838 ad96 05ba
000003e0: 24b7 d43b f965 15ba 8581 3d3a f031 97ba
000003f0: 9d3c a0ba 0dfe 83ba d835 25ba 972c eab9
0.009885288 0.013258321 0.0038712607 0.0025151994 0.00095084606 -0.00015426177 -0.0001138539 -0.00036769517
2.1764241e-05 0.00023571176 -4.7068075e-05 0.00010025899 0.0035140559 0.0012139024 1.3806584e-05 -0.0006012291
0.0038456405 0.0018732718 0.0002188776 -0.0002285418 0.007841731 0.0071198964 0.00054184726 -0.00025783954
0.004901665 -0.0003608034 -0.0009833339 -0.0025560588 0.006472026 0.0045759175 0.0022587539 0.0012585167
0.016590677 0.010944745 0.003101034 0.00064522406 -7.8681944e-05 -0.0008472351 0.0005947487 0.0003218881
-0.00085190876 0.0001501914 0.00015309054 0.00039236416 0.00057332974 0.0009234663 0.00033618545 0.00018665366
0.002912112 0.003171735 0.0018487712 0.0013621037 -0.0034853008 -0.0018292019 -0.00045897745 0.0001403507
0.0073775705 0.003052376 -0.00041055327 -0.0017323277 -0.0056429435 -0.0022091817 0.0006765386 0.0019964103
-0.00857755 -0.009425648 -0.0033708597 -0.001471829 0.011897345 0.004475413 0.0010668297 -0.00078606844
0.00519514 0.0031145653 -0.00021899896 -0.0012351642 -0.001841402 -0.0008695912 0.0007793551 0.0012130098
-0.0026835718 -0.0021155542 -0.0006423357 -0.0003497809 0.0040876223 0.006466857 0.0024497672 0.0004539699
0.0029829203 0.002516806 0.001123586 0.0008443521 0.008893777 0.005241558 0.00095641124 -9.792538e-05
-0.007205749 -0.00047721594 0.0010453654 0.002809814 -0.004738499 -0.002566186 -9.7944314e-05 0.000771203
0.010781067 0.0048207114 -0.00013172643 -0.0019451769 0.0014212921 -0.0008447285 0.00052930973 -0.00020391516
0.023527665 0.014509933 0.0027522556 0.00012707313 0.0060381694 0.0022375968 -0.00050392526 -0.001388867
-0.001700732 -0.0009724682 -0.00054637925 0.00010739383 -0.0032230846 -0.0025881897 -0.00056721753 -0.0002179265
-0.0073561254 -0.0040764143 -0.0003667896 0.000889845 -0.003209628 -0.0014416692 -9.6305266e-05 0.00042653934
-0.001698685 0.000110947105 0.00053279847 0.00097409915 0.004442514 0.0017115329 -0.00036516102 -0.0011291541
-0.007548394 -0.0053987936 -9.1599686e-05 0.0010496048 -0.007971741 -4.207213e-05 -0.00097016146 0.00070633885
-0.011120535 -0.010546625 -0.0036700668 -0.0022675185 0.00093297265 0.00023570158 0.00018690112 -1.3440496e-05
0.018028608 0.008149648 0.002942708 -0.00031627424 0.0027143864 0.001987799 0.0009343284 0.0006338434
0.0047459635 0.0014188455 -0.0012888086 -0.0022240512 0.0041857306 0.0023325933 -0.00071496883 -0.0011244616
0.011373483 0.0061679995 0.00012061345 -0.0012958138 -0.00041329395 0.00034658491 -6.153535e-05 0.00024687135
-0.0004315761 -9.914497e-05 -0.0016202554 0.00033900596 0.013560446 0.010469874 0.0018929194 0.0004659073
0.0075057824 -0.00048258327 0.0019750623 -0.0010504029 -0.004313533 -0.0051530343 -0.0012090985 -0.0005159824
-0.0019614862 0.0015558319 -0.0014676786 -0.0004982415 0.0015164148 0.0011892379 6.587172e-05 -5.2097923e-05
-0.0025691965 -0.0011801311 4.038942e-05 0.00039237886 -0.009522852 -0.0022682361 0.0012992217 0.0030985414
8.964953e-05 0.0003334204 3.398127e-05 4.6867655e-05 -2.156853e-06 0.00046760566 0.0010491477 0.0010303155
-0.0013311142 -0.00089491345 0.00072328805 0.00081241305 0.0021234031 0.0008714406 -0.0006093132 -0.0010004984
-0.00068846525 -0.00013049945 -0.00024950015 -7.968655e-05 2.7966205e-05 -0.0003318335 -0.00024387092 -0.00028116666
0.0007282298 0.0005727529 -0.00067655294 -0.00064936414 0.0026831375 0.0018780518 8.787063e-05 -0.0005096
0.0064915586 -0.0005699094 0.0007229078 -0.0011535268 -0.0012225095 -0.001007022 -0.0006302274 -0.0004466518

exp_avg_sq f4 [64, 4]
00000000: a498 6b3a 35ed 4c3b 8319 b138 e3d2 8639
00000010: 569d 0136 fcde 6536 5d66 2e35 4ba4 ed36
00000020: 1a63 ae35 ce29 9b36 b39e e434 5ec0 9436
00000030: 8bd8 7237 f3d2 0e38 234d 5036 e0e6 1538
00000040: a648 bb37 a06a 8538 98a0 1a36 98f9 8537
00000050: 769b 1c38 5ab2 c338 beb4 ee36 20f8 af38
00000060: b2dd c937 1cdf b138 15ab 6837 189d a939
00000070: 2223 013a 7750 d63a a987 3638 e030 d438
00000080: 2c2b a83a 7b3d 843b 32af e438 afd6 9c39
00000090: eadc 3a38 925f f738 ff96 8236 8949 6d37
000000a0: 3a50 ae35 202f 6d36 ca87 5835 a0ae 4037
000000b0: 2b27 e236 d831 c237 3474 4d35 771f 7e36
000000c0: 1d67 7c39 641d 493a cb90 ab37 0b64 6038
000000d0: ef85 4938 665e 1a39 fddc 9336 4406 b537
000000e0: 87a6 0038 1466 8a38 aaca 1737 b40d 0c39
000000f0: f3fc b137 9e04 8238 d4df dd36 ce09 1e39
00000100: 215d 1f3a 3b9f 0a3b d927 9e38 a8ae 9c39
00000110: c356 9a39 6db8 433a 8a5c f137 213b 1039
00000120: 72e6 8437 f5cc 5138 95de dc36 1e5c fe38
00000130: 9135 f337 8245 a238 6512 3e36 b46d 6737
00000140: 935e 6338 5baa 3c39 7189 9a36 31f2 3b37
00000150: 45bc aa39 7037 a83a 384a 5538 7060 9339
00000160: d6df d938 766c b739 7bae 1537 c4af a037
00000170: b04f 2239 2efa ed39 bac3 7137 5bd0 8538
00000180: 65bc 1038 4a34 9238 77f9 f236 f354 4a39
00000190: 0df0 d637 80a4 7238 4ff8 a836 3743 6038
000001a0: b2aa a738 7874 5239 8491 a737 089d af39
000001b0: 528e 9438 4198 4039 1011 d836 15aa ed37
000001c0: 9279 963a bc5a 563b f0d9 cd38 65dc bb39
000001d0: 67b0 9e37 921a e037 0e35 1a36 c842 1638
000001e0: aa4f 6538 3112 3c39 277a d736 e886 6a38
000001f0: f302 2b38 c7a2 0a39 1d77 8036 6f94 8537
00000200: bef0 a338 291f 6c39 7857 b037 6c75 9139
00000210: c017 6937 b2bf 1e38 fe71 4d36 f98d 1138
00000220: 6c67 b536 d6a1 a437 b475 2236 a07a 4e38
00000230: 10da 4d37 d9d6 af37 239a 2e36 d04e 2038
00000240: 6176 f937 091d d438 be1e 0037 9e82 2d39
00000250: b52d 9e39 92f7 333a 6fcb e237 e020 e838
00000260: 2522 943a 6ba1 713b 0d1f c538 1823 6339
00000270: f017 1337 f665 d937 98f8 5535 861c 4536
00000280: 3b34 d83a 9890 a63b 3c24 1539 3a54 d439
00000290: fa3f ae38 ffb5 8239 3033 d336 2ee4 7a37
000002a0: 4f2d 9b38 1a74 8239 0073 2037 da24 1f39
000002b0: 4224 3c38 f074 1339 e4c0 9436 e386 2938
000002c0: cec0 9638 dbc6 1939 2878 1037 85b8 ec38
000002d0: 7bbd de36 508c a137 7868 8e35 4860 1d37
000002e0: 2481 6239 ca4a 4c3a 4323 1738 bf3e 4b39
000002f0: 800e 9839 8aec 753a 3398 0638 391c 2e39
00000300: dbd7 4b3a 6888 273b 3277 b738 50c7 9c39
00000310: fc37 ad38 ac81 a439 ab39 3037 9850 8538
00000320: 3eb2 8d39 0778 423a 9644 d437 4a87 c338
00000330: 9d69 8436 2c46 6537 1c97 ed35 9790 c037
00000340: 20cc 8d36 b9c0 4e37 68cc 0936 dc06 1a38
00000350: 1ae6 6a38 172c 0139 74ce 5337 0507 8f39
00000360: baac a234 1d1e 5535 5e57 2534 435f ec35
00000370: 5295 bc38 fd86 9839 60ad 0e37 717a 2138
00000380: cbe1 0c38 6157 ea38 db4c 8036 422a b437
00000390: f19a b837 6f51 8f38 f00b 0836 fa22 3737
000003a0: 250c 7537 77ca 4538 671d b335 4d62 9536
000003b0: 3bc0 2736 b057 1737 53d5 7235 b321 6437
000003c0: 7899 c237 9e0a 9438 70ae 4436 0426 6737
000003d0: 6653 6537 d807 5a38 26b9 c336 c9de d338
000003e0: 80bf 6339 4ef2 0a3a 6675 cc37 b297 0439
000003f0: 29c5 4e38 6bf2 2539 9340 8d36 8081 5c37
0.0008987284 0.0031269316 8.4447696e-05 0.00025715595 1.931408e-06 3.4253453e-06 6.496901e-07 7.0822766e-06
1.2992853e-06 4.6242267e-06 4.2583778e-07 4.433138e-06 1.4474742e-05 3.40519e-05 3.1039315e-06 3.5739387e-05
2.2325967e-05 6.361795e-05 2.3041266e-06 1.5971062e-05 3.7338083e-05 9.331545e-05 7.113994e-06 8.390867e-05
2.4064302e-05 8.481575e-05 1.3868111e-05 0.00032351236 0.00049261947 0.0016350885 4.3518525e-05 0.000101180514
0.0012830249 0.0040356494 0.0001090452 0.0002991459 4.4551598e-05 0.00011795679 3.89188e-06 1.4143422e-05
1.2987359e-06 3.5343182e-06 8.066387e-07 1.148475e-05 6.7398846e-06 2.3149812e-05 7.653755e-07 3.7867264e-06
0.00024071005 0.0007671921 2.0452213e-05 5.3498934e-05 4.804687e-05 0.0001472175 4.406668e-06 2.1579799e-05
3.067267e-05 6.599366e-05 9.047488e-06 0.00013356545 2.1217833e-05 6.199743e-05 6.6123703e-06 0.00015071707
0.0006079246 0.0021152038 7.541449e-05 0.00029884768 0.00029437811 0.0007466141 2.877253e-05 0.00013754937
1.5842936e-05 5.0020364e-05 6.582423e-06 0.00012128822 2.8992801e-05 7.737709e-05 2.8322913e-06 1.3794215e-05
5.4209097e-05 0.0001799254 4.605558e-06 1.1202458e-05 0.00032565198 0.0012833904 5.085228e-05 0.00028109876
0.00010389059 0.0003498529 8.9217165e-06 1.9155334e-05 0.0001547921 0.0004539056 1.44102905e-05 6.3807434e-05
3.450773e-05 6.971562e-05 7.2412035e-06 0.00019295867 2.562257e-05 5.78505e-05 5.035697e-06 5.346836e-05
7.994975e-05 0.00020070549 1.9975712e-05 0.00033495598 7.083699e-05 0.00018367266 6.439288e-06 2.8331802e-05
0.0011480323 0.003270789 9.815756e-05 0.00035831626 1.8917211e-05 2.6715254e-05 2.297867e-06 3.582498e-05
5.4672048e-05 0.00017935854 6.4217197e-06 5.591559e-05 4.0772324e-05 0.00013221345 3.828564e-06 1.5923955e-05
7.8172874e-05 0.00022518322 2.1021566e-05 0.0002774404 1.3893412e-05 3.7848666e-05 3.0613733e-06 3.4702916e-05
5.4062602e-06 1.9625684e-05 2.4208393e-06 4.922843e-05 1.2269724e-05 2.0961672e-05 2.601774e-06 3.8220373e-05
2.9738238e-05 0.00010114356 7.636552e-06 0.00016547224 0.00030170163 0.0006865199 2.703603e-05 0.000110687455
0.001130168 0.0036869894 9.399476e-05 0.0002166148 8.767456e-06 2.5915895e-05 7.9710435e-07 2.937189e-06
0.0016495058 0.005083155 0.00014223246 0.00040498545 8.308883e-05 0.0002493113 6.294249e-06 1.4954288e-05
7.399415e-05 0.00024882035 9.563519e-06 0.0001517715 4.485646e-05 0.00014062575 4.433199e-06 4.0418363e-05
7.18847e-05 0.00014665296 8.611045e-06 0.000112877264 6.638174e-06 1.9258034e-05 1.0610229e-06 9.3803465e-06
0.00021601148 0.0007793127 3.6034045e-05 0.00019382963 0.00029002503 0.00093812554 3.2089836e-05 0.00016604447
0.00077760004 0.0025563482 8.748322e-05 0.00029903138 8.259711e-05 0.0003137713 1.0503844e-05 6.356946e-05
0.00027026417 0.0007418398 2.5304307e-05 9.323524e-05 3.9462016e-06 1.3665802e-05 1.7701855e-06 2.2955513e-05
4.2258907e-06 1.2323429e-05 2.053357e-06 3.672285e-05 5.6004246e-05 0.00012318823 1.2624649e-05 0.00027280315
3.0300527e-07 7.9392504e-07 1.5398606e-07 1.7611095e-06 8.992352e-05 0.00029092273 8.504227e-06 3.8499424e-05
3.3588887e-05 0.00011174265 3.8236444e-06 2.147735e-05 2.200666e-05 6.8339396e-05 2.0272528e-06 1.0915794e-05
1.4605966e-05 4.715702e-05 1.3345096e-06 4.4519898e-06 2.4996832e-06 9.020718e-06 9.046245e-07 1.3597705e-05
2.3198067e-05 7.0591675e-05 2.9307812e-06 1.3777524e-05 1.3668881e-05 5.1982555e-05 5.833007e-06 0.00010102761
0.00021719746 0.00053003884 2.4373363e-05 0.00012645012 4.9297847e-05 0.00015825934 4.209645e-06 1.3143173e-05

exp_avg f4 [64]
00000000: 3d7a 43bd 7b3a 1cb9 fc43 e43a de35 19bb
00000010: 89aa 8abb bf14 b139 7630 e73b 0458 21bd
00000020: 92a3 5abd d972 67bc 8224 54ba 76be 91bb
00000030: 3e15 f5bc 9fe9 0d3c 2f80 993b f9d8 14bc
00000040: b2ae 423d 4fad c8bc 6078 a03b e6e4 66bc
00000050: 5776 223c cf0d 09bd fa74 96bc 7094 74bc
00000060: f4a7 f1bb d742 f03a e769 ddb9 73c2 7fbc
00000070: 4fea 2dbd 92dc e33b b312 373c 3252 f93b
00000080: 9f65 d83b 2b8e 2f3b 4fe1 cebb b5b6 a23b
00000090: 89ed 39bb ed31 023d f72f 613d 1904 90bb
000000a0: 0444 79bd a988 84bc ee18 a83c ec88 723c
000000b0: 7283 19ba 650f 6b3b d351 ff3c 37e9 b5bc
000000c0: fda3 57bd 59cd 5f3c 4dce 123d e238 e439
000000d0: f79b 88b9 ee7a 74bc 92ad a739 d100 99bc
000000e0: 03a0 67bc 0c53 303c cf04 bc3b db0b 5c3b
000000f0: c509 563c 6bcd 31ba ee2d d5bc 8c94 2f3c
-0.047723997 -0.00014899105 0.001741528 -0.0023378055 -0.004231755 0.00033775528 0.0070553375 -0.03939058
-0.05337865 -0.014126503 -0.00080925983 -0.0044477535 -0.029917356 0.008661657 0.00468447 -0.009084933
0.047529884 -0.024496702 0.0048971623 -0.01409266 0.00991591 -0.033460435 -0.018366326 -0.014927968
-0.007374758 0.0018330467 -0.00042231308 -0.015610325 -0.042459782 0.0069537843 0.011173892 0.0076086754
0.006603911 0.002678762 -0.00631348 0.004965628 -0.0028370342 0.031785894 0.054977383 -0.0043950197
-0.06085588 -0.016178446 0.0205197 0.0148031525 -0.00058560737 0.003586733 0.031166947 -0.022205932
-0.052646626 0.013659799 0.035841275 0.0004352993 -0.00026056144 -0.014921887 0.00031982042 -0.018677147
-0.014137271 0.010761987 0.005737878 0.0033576402 0.013063853 -0.0006782624 -0.026022878 0.010716569
