training_results/cartpole_boltz/ppo/seed_2024/1000000steps/checkpoints/model_900000.pt (torch, 151451 bytes, 30 tensors)

actor.pi_net.fcs.0.weight f4 [64, 4]
00000000: 84f4 9ebe e340 8b3d d502 fa3e fe85 863f
00000010: fbaf 233e 0e5f b23e 0446 1d3f 8f12 0ebe
00000020: ea14 2b3e 23b1 2abd c277 0bbf 848e 0b3d
00000030: 55ef b1bd 39e1 863e aea0 59be 94dc 293e
00000040: 51a1 873d 8256 93be 0a68 d33e 483e 7d3e
00000050: b039 acbe d3c7 383e da1c d4be cdbf b8be
00000060: 8569 a2be 6517 11bf 5b11 58bf e388 a0bd
00000070: 80a9 143e bc01 e83c 1eab 003f f4ee 483f
00000080: 91fe c03e 756c 99be 6f53 383f 7b29 933f
00000090: 8c00 a1bd a86c ee3e 3516 3a3f d73a 313f
000000a0: 614e c4bd 8229 853e a879 083f 0fa7 ae3d
000000b0: a5b0 babe b72b 7c3e 646c 0a3f fac2 863e
000000c0: 22a9 2cbe fc84 233e 7f53 773f f286 323f
000000d0: f2d0 61bc 7e53 7bbc eaf6 4abf 38e2 0ebf
000000e0: d435 763e 173c 08bd f042 32bf 537b 5dbe
000000f0: df52 903e fb86 343e e581 4e3f f1c6 1a3e
00000100: 0570 953e ba32 483e 4184 00bf bc07 8abf
00000110: fd06 b23d b653 e5be add9 303f e6dd 193f
00000120: 2254 8cbe bc9e c7bb 7dc4 03bf 1d0d f6bd
00000130: 3507 edbc 2cf7 c0be 17a3 433e 5c8e 7f3f
00000140: 07f6 d0bd d44d b43d 3502 00be da99 50bf
00000150: 8ede f7be 8ef7 0dbe 1219 223f 3734 5e3f
00000160: 5589 353e 975e 73bd ce29 d13e 4a03 843f
00000170: 6207 163e 622b c1be 1c79 573f 609f 213f
00000180: 690e cdbd a808 133f 2c9d 333f 6cf6 4a3e
00000190: f2a5 573e afcc 9ebe ba32 bdbe 23a8 d13e
000001a0: 3e68 bdbd 2666 36be 425e 25bf fb19 01bc
000001b0: fa40 6a3d 85d2 bd3e 1840 543f e60d 453f
000001c0: a55b a03e c5b9 f6be 4cac 6c3f 4022 643f
000001d0: 6ab6 bcbc 48b7 fcbd c843 b3bd 56cf 14bf
000001e0: e8ea 873e b154 b9be b76e 57be ed09 4dbf
000001f0: 5cf2 82be 2fd7 793e 8113 47bf 350c 8abe
00000200: efe9 a5be e4ad 023f 9b46 a83d 49a8 fb3d
00000210: f57a a63c 7f90 5fbd a25f ae3d f569 91bb
00000220: e0d0 203e 903c 013f df54 e03e 9a85 5a3e
00000230: e203 a63c d2a8 353e 6095 38bf fb88 acbe
00000240: d02d d7be 4792 de3e 231b 373f fbf3 223e
00000250: 8f4f 6c3c 02a9 cf3e 9d9e 18bf d395 72bf
00000260: 52a7 023e 518c 593d d86d f0be 4998 85bf
00000270: f0bb 9e3e 4289 373e 85d3 573f 4292 603e
00000280: ffaa 2f3e 2e2a bfbd 39f8 453f 9a75 7d3f
00000290: 938a b5bd 8301 46be 5f39 673f 839b 853f
000002a0: 69c2 b43e 0724 b2be e041 34bf bc76 acbe
000002b0: d4b3 5d3e dd25 d1bd 83b3 e2be ee9a 12bf
000002c0: 34aa 193c 724a 3ebe 8153 01be 2f3d 93be
000002d0: 3dd2 8fbe 321c 983e cb31 efbd c8ca 213e
000002e0: dcc1 d03e dae7 b53e 58b8 4bbf 21f8 5abf
000002f0: 23b7 96ba 0c56 c5be a32d 303f bfaa 4f3f
00000300: 1c01 083f 476c 3b3e 1d98 9d3e 244c 8e3f
00000310: 72ce 9f3e 32d0 7e3d d091 dcbe cd7d 27bf
00000320: 2d7e 6dbe fef0 9cbe 544c 88bf d1dc 36bf
00000330: 7a3b f33e 8676 9fbe c448 18bf 5de6 72bd
00000340: c08b aa3b 4f5b 8c3e 1677 d63e 010b a5bb
00000350: d23d 20bd 7745 dd3e c270 643d 80c6 b53e
00000360: 2abb bdbe e03e fe3e 6d28 0a3f 974a e33d
00000370: 8559 463c a2c1 5abe ae4c 2a3f 3712 053f
00000380: 66e6 c93e db0a 6c3e 4dc8 f43d b0a3 383f
00000390: 533d 843e 16e4 ed3d e6a2 6ebe a83c 73bf
000003a0: b42e e9bd b9f7 76bd b71b fcbd 2060 01bf
000003b0: e320 513e 722b efbe 4df1 42bf b4dc 0bbe
000003c0: cc4c 953e 891e 293e 01be 18be 82a1 41bf
000003d0: af91 e13e 04eb f6be 29d5 35bf bcb0 ddbd
000003e0: 08cf 88bd ee34 ebbe dde2 2e3f a937 263f
000003f0: 87df 6cbe 5932 a83d 58ff 0ebf 20a9 3bbf
-0.31045926 0.067994855 0.48830286 1.0509641 0.159851 0.34838146 0.6143496 -0.13874267
0.16707197 -0.041672837 -0.5447961 0.03407146 -0.08688227 0.26343706 -0.212527 0.1658805
0.066225655 -0.28776938 0.41290313 0.2473079 -0.33637762 0.18044977 -0.41428262 -0.36083832
-0.3172113 -0.5667632 -0.8440148 -0.07838609 0.14517784 0.02832114 0.50261104 0.78489614
0.3769422 -0.2996556 0.7200231 1.1497034 -0.078614324 0.46567273 0.72690135 0.6923041
-0.09585262 0.2600823 0.5331063 0.08527958 -0.36462894 0.24626051 0.5407164 0.2632063
-0.16861394 0.15968698 0.9661178 0.6973716 -0.013782727 -0.01533973 -0.7928301 -0.5581393
0.24043971 -0.03326043 -0.6963339 -0.21629076 0.28188226 0.17629616 0.80666953 0.15114953
0.29187027 0.195506 -0.50201803 -1.078361 0.08692739 -0.4479043 0.69082147 0.60104215
-0.27407938 -0.0060919207 -0.5147169 -0.1201422 -0.0289341 -0.37688577 0.19105183 0.998266
-0.10203176 0.08803907 -0.12500842 -0.8148476 -0.48411983 -0.13863966 0.63319504 0.86798424
0.1772817 -0.05941638 0.40852207 1.0313504 0.14651254 -0.3772841 0.84169173 0.6313381
-0.10012514 0.57435083 0.701617 0.19820565 0.21059397 -0.31015536 -0.36952764 0.4094859
-0.09248398 -0.17812404 -0.6459695 -0.007879729 0.057190873 0.37074676 0.829103 0.7697433
0.3131992 -0.48188606 0.92450404 0.8911476 -0.0230362 -0.123396456 -0.087531626 -0.5812887
0.26546407 -0.36197427 -0.21038328 -0.8009327 -0.2557553 0.24398492 -0.77764136 -0.26962438
-0.3240504 0.51046586 0.08216592 0.12287957 0.020322302 -0.05458116 0.08514334 -0.00443768
0.1570468 0.50483036 0.43814752 0.21340027 0.020265523 0.17740181 -0.7210293 -0.33698258
-0.4202714 0.43470976 0.7152578 0.15913384 0.014423265 0.4055863 -0.59617025 -0.94759864
0.1275914 0.05311233 -0.46958804 -1.0437099 0.3100276 0.17923453 0.8430713 0.21930793
0.17155074 -0.09334217 0.7733188 0.9900757 -0.088643216 -0.19336514 0.90321916 1.0438083
0.35304573 -0.34793112 -0.7041302 -0.33684337 0.2165063 -0.102123 -0.44277582 -0.57267654
0.0093789585 -0.18583086 -0.1262951 -0.28757617 -0.28090087 0.2970901 -0.11679419 0.15800011
0.40772903 0.3552845 -0.7957816 -0.85534865 -0.0011498671 -0.3854221 0.68819636 0.8111991
0.5312669 0.18303023 0.30780116 1.1116986 0.31212193 0.06221027 -0.43079996 -0.6542633
-0.23192663 -0.30652612 -1.0648293 -0.7143069 0.47506315 -0.31145114 -0.5948603 -0.059301723
0.005204648 0.27413413 0.4188773 -0.005036712 -0.039121456 0.4321706 0.055771597 0.35503006
-0.37056857 0.49657345 0.53967935 0.11098211 0.012106304 -0.21362928 0.66523254 0.5198092
0.39433593 0.23051016 0.11952267 0.7212477 0.25828037 0.116157696 -0.23304328 -0.9501443
-0.11385861 -0.06029484 -0.12309974 -0.505373 0.20422702 -0.46712834 -0.76149446 -0.1365841
0.29160154 0.16515554 -0.1491623 -0.75637066 0.4405646 -0.48226178 -0.7102838 -0.10824725
-0.06680113 -0.4593882 0.68314916 0.6492868 -0.23132144 0.08212728 -0.55858374 -0.7330494

actor.pi_net.fcs.0.bias f4 [64]
00000000: edd0 02be 7dbc 1dbe ee7b 663e b6ae 1fbd
00000010: b145 96be f0a0 ffbe 3990 03be 33c8 063d
00000020: 5067 ed3d 39c3 43be 6175 20bd 9428 f3bd
00000030: 122e a83d e9b1 8c3e a0ff 50be dbc1 583e
00000040: d27d 013e 5395 e8bd 3bdc 44be f81c a93e
00000050: 08fe a93e 80e6 41be eab8 4c3e bcc6 89be
00000060: 14c7 493e ddd2 c13e e431 5dbe 6179 4dbe
00000070: d96b 1cbe ba4b a5be 8924 b53e 73c5 e13d
00000080: 6b6a 093d 47d4 ae3e e97a 8a3a 4689 85be
00000090: 1837 4a3e 3a10 c3bd c6e0 40bd 848f 48be
000000a0: bbf0 80bd 12bf b13e 9003 d5bd a7fb ecbd
000000b0: 056b b0be 9463 70bd 01cb 553e 57f1 a1be
000000c0: 0eb3 0b3c dd08 843e b5ee 1c3d 033a 993d
000000d0: 1702 a13e 37f5 0c3e 6dfd 52be 70c3 8e3a
000000e0: a6d0 b1bd a15d 8abe f3dd 763e 91f8 4d3d
000000f0: 56de 15bd 37d7 2d3d b834 cfbd 5ba8 aa3e
-0.12775011 -0.15403934 0.22508213 -0.038984977 -0.29350045 -0.49927473 -0.12847985 0.03290577
0.11591971 -0.1911744 -0.03917444 -0.11872974 0.08211912 0.27479485 -0.20410013 0.211677
0.12645653 -0.11356606 -0.19224636 0.33029914 0.33201623 -0.18935585 0.19992414 -0.26909435
0.19704849 0.37856188 -0.21601063 -0.20065834 -0.15275516 -0.32284337 0.35379437 0.110239886
0.033548754 0.3414633 0.0010565195 -0.26081294 0.19747579 -0.09524579 -0.04708936 -0.19585997
-0.06295916 0.34716088 -0.1040107 -0.115714364 -0.3445665 -0.058688715 0.20878221 -0.3162944
0.008526577 0.25788012 0.038313586 0.07481768 0.31446907 0.13765417 -0.20604487 0.0010891985
-0.08682375 -0.27024558 0.24108104 0.05028588 -0.03658899 0.042441573 -0.10117477 0.3333157

actor.pi_net.fcs.1.weight f4 [64, 64]
00000000: b1e6 5a3d 063c 843d 2617 1d3d 58ad 81bc
00000010: 26c4 50bb 15a7 233e a845 f43c a653 37bd
00000020: 0bc6 e13d e99a 953d 2094 bc3c 5c23 b83d
00000030: f487 66bc 15c4 96bd 0c69 353e 4b08 f2bd
00000040: 2099 933c d5c9 38bd 16db 523e c1ce 273c
00000050: 4d13 62bd 1365 1c3e a770 8a3d 0e60 da3d
00000060: 3b89 dcbd 0fc4 a3bd 5ee1 633e f83f 0c3e
00000070: faae b33c 5f5b fa3d 4441 6b3d d7c3 283d
00000080: c4ca 14be 68a8 68bc fb86 0a3c 2095 f43d
00000090: dfaf 24be 358c 42bd 9e05 a53d 2ebb ef3d
000000a0: 331c 983d 8104 273d 6829 fb3b 32aa 2f3e
000000b0: 29b7 493e daa9 57bd 3f38 20be 1949 0a3e
000000c0: 1ed3 0f3e b541 6a3c 3884 3cbb a22e c63c
000000d0: 4d31 103c 53cf 64be ff36 e23c 3c0d 35bd
000000e0: e78b c3bd 6282 2cbc 5ec3 a63d 7a41 f6bd
000000f0: cd96 aa3d 8558 fb3d 4d3b 9c3d 45be cebc
00000100: 8669 b53e 560f 6fbd 6c16 b73c 67d0 243d
00000110: 200a 073c 83aa 1a3b 0eb1 debc e05e c03e
00000120: 26e9 a33e f8bf f03d d699 8a3d 8d4a 3b3e
00000130: 871f ad3e 1f61 27bd 79b2 6abe 1601 8e3d
00000140: c177 87be e136 a23d cc8f 3cbe b757 bf3d
00000150: e3fb a0bd e0aa 9b3e 3fee 3e3e f6dd 523e
00000160: d4a2 793e 1a61 1dba 55c1 4bbb ed54 23ba
00000170: c5d0 843e 114a cebd 4337 1fbe eb80 67bd
00000180: b064 c2bc 0f3d 34bd 9ed6 c23d 38a0 37be
00000190: 7091 043e a06c 0ebe 3e80 e8be 6431 303d
000001a0: 29b3 973e 8476 793e d886 74be e583 2fbe
000001b0: 7e73 42be 091b ce3d e4bf 4abe f6c1 1a3e
000001c0: 4b52 993e 35ac 3cbe 2ebe a1be 974f 2ebe
000001d0: 4f4c a7bd 54de 253e 595c 4fbc e7a7 6f3e
000001e0: 6570 063e 10a0 c1bd c52a 88bd 9473 953d
000001f0: 5295 53be d869 82bd 1683 8f3e cbd2 09be
00000200: dbd2 523e f2dc d2bb 3f7a ffbc 2dea 7c3d
00000210: a8cd 5abd 5d43 ad3d 4567 1fbe d35a aa3d
00000220: e7e3 5a3e 5530 df3b 481c 383d 0a64 163e
00000230: c1c7 7f3e e3ce 22bd 7547 2fbe df86 98bc
00000240: 8cce 73be 5563 a03d fbd8 c0bc d65a 2ebc
00000250: 9375 ec3c 18f9 603e 03b9 8c3d 77ff f43d
00000260: f7ba d1bb 5311 793d 335b 92bc 5dfc 9e3d
00000270: 64dc 823e d095 6c3c 9b6a dcbb e873 42bd
00000280: ba88 6d3d aa18 d03d 3517 393e 6b1e 15be
00000290: 9439 0b3e 735f 59be 3477 2cbe 2642 b8bd
000002a0: 293e 9f3e 0bbf 323e 20f2 65be beea 55be
000002b0: d0b6 f2bb 1e1a 223e e477 83be e236 443e
000002c0: d19c 673e 6559 fabb 8059 ffbd 7776 e6bb
000002d0: 2fbb d03d 7bb8 8cbd e75a 003d 00f6 3f3e
000002e0: 2930 3d3e 9745 fb3c 9af3 1f3d 3c0b 61bd
000002f0: e11a 2abc deb6 37bd 07f5 6c3e 6b3c 1abe
00000300: 5d1f d4be 7944 da3b 6424 c23d c38c 33be
00000310: cfda 603d 0b09 0d3e 7e61 123e 51b7 c3be
00000320: 62bc 83be f536 92be e102 b3bd 4fea 87bd
00000330: a152 cabe 5660 ae3d 074f 1c3d da2e dbbc
00000340: b5d9 b13e 61f7 f3bd b009 993d ea21 b7bd
00000350: 2d4f 443e 0f1c 76be cfd2 4cbe 2ce8 babc
00000360: b868 89be d59b 29bd 3e5e 8a3d d2db 82be
00000370: 6047 25be d32d 7dbd 967d e43c ecb2 913d
00000380: 3845 2bbe eb6e 47bd 3aba 3abe 74aa 743d
00000390: 9002 38be 0b05 b73d 3bed ac3e a7ac f7bd
000003a0: a3f2 dbbe 6426 aa3c 3f14 923e 73d0 743d
000003b0: f929 28bd 607d afbb 2e94 6f3e a251 5cbc
000003c0: 3f81 00bf 5f44 1b3e 52e0 e03e 349f 463d
000003d0: e7b8 b23d 218c 76be fe29 08be 27cd 0dbe
000003e0: b128 24be e35c cb3d 506e 293e a9ed 353e
000003f0: 0431 3e3d 0e2e 193e dc80 4abe 63bd bdbb
0.05344266 0.06456761 0.038352154 -0.015829727 -0.0031855195 0.15981705 0.029818371 -0.044757508
0.11024102 0.073049374 0.02301985 0.08991119 -0.0140705 -0.073616184 0.17715853 -0.11817988
0.018017352 -0.045114357 0.20591387 0.010242165 -0.055194188 0.15272932 0.06759768 0.10662852
-0.10768362 -0.079963796 0.2225394 0.13696277 0.021934021 0.12224459 0.05743529 0.041202392
-0.14530474 -0.014200307 0.008455033 0.11942506 -0.16082714 -0.047496993 0.08057712 0.117056236
0.074272536 0.04077578 0.007664848 0.17154768 0.19698776 -0.052652217 -0.15646456 0.13504447
0.14045379 0.014297892 -0.0028765332 0.024192158 0.008800817 -0.22344713 0.027614115 -0.044202074
-0.09548169 -0.010529133 0.08142732 -0.120242074 0.08329544 0.12272743 0.07628498 -0.025237212
0.3543207 -0.058364235 0.022349559 0.04023781 0.00824216 0.0023600168 -0.027184036 0.37572384
0.32013816 0.11755365 0.06767623 0.18290158 0.33813116 -0.040864106 -0.22919644 0.06933801
-0.26458552 0.079206236 -0.18414229 0.09342902 -0.078605436 0.30403805 0.18645571 0.20592484
0.2437852 -0.0006003544 -0.0031090577 -0.00062306115 0.2594053 -0.10072721 -0.15548424 -0.05651943
-0.023729652 -0.044003543 0.09513591 -0.17932212 0.12946105 -0.13908625 -0.4541034 0.043015853
0.29628876 0.24361616 -0.23879564 -0.17140158 -0.1898937 0.1006375 -0.19799763 0.15113053
0.29945597 -0.18425067 -0.31590408 -0.17022549 -0.081688516 0.16198093 -0.012656295 0.23403893
0.13128813 -0.094543576 -0.06648783 0.072974354 -0.2066243 -0.06367844 0.28029698 -0.13459317
0.20588247 -0.00643503 -0.031186221 0.061746765 -0.053418785 0.08460114 -0.15566738 0.083181046
0.21376 0.0068111815 0.044948846 0.146866 0.24978544 -0.039748084 -0.17117102 -0.018618999
-0.2380926 0.07831446 -0.023540964 -0.010641774 0.028864658 0.21970022 0.06871226 0.119627886
-0.006400462 0.060807537 -0.017865753 0.07762978 0.2555877 0.014440015 -0.0067265755 -0.047473818
0.05799172 0.10160954 0.18075259 -0.14562385 0.13596183 -0.21227817 -0.16842347 -0.08996992
0.31102112 0.1745569 -0.22455645 -0.20890328 -0.007407047 0.15830275 -0.25677407 0.19161561
0.22618414 -0.007640051 -0.12468243 -0.007033165 0.101919524 -0.06871124 0.03133669 0.18746185
0.18475403 0.030672831 0.039050676 -0.054942355 -0.010382385 -0.04485213 0.23140346 -0.1506211
-0.41430178 0.0066609946 0.09479597 -0.17534165 0.054896172 0.13772981 0.14295003 -0.38225797
-0.25729662 -0.28557554 -0.087407835 -0.06636488 -0.39516166 0.08514468 0.038161304 -0.026755739
0.3473641 -0.11912418 0.07472551 -0.089420155 0.19170828 -0.24034141 -0.20002292 -0.022815786
-0.26837707 -0.04140838 0.067562565 -0.25558335 -0.16140509 -0.06181128 0.027891915 0.07114205
-0.16725624 -0.048689764 -0.18235102 0.05973287 -0.17969728 0.08936509 0.33774742 -0.12093478
-0.42958555 0.02077026 0.28531072 0.059769105 -0.041055653 -0.005355522 0.2339637 -0.013447197
-0.50197214 0.151628 0.43921143 0.04849167 0.087266736 -0.24076892 -0.13297269 -0.1384779
-0.16031148 0.09929826 0.16545987 0.17766441 0.046433464 0.14958975 -0.19775718 -0.005790399

actor.pi_net.fcs.1.bias f4 [64]
00000000: 4e5e 04be 5684 dabd 4465 29bd 5bb5 b4bd
00000010: a74a 0fbe 475f 963d 70a0 713d f037 103a
00000020: 31e2 d1bd 9205 833d eec9 c03d 0ac0 0a3e
00000030: 9342 003e ca6a ee3d 8cf8 3e3d 530f 093b
00000040: c1bd 05be f1dc 48bd b8fc 233e 6421 163d
00000050: 511e 833d e2fa 6a3d 443d b43d f488 c73d
00000060: 39b8 323d 5b89 203e 445d 26be f38b 263d
00000070: 4fdb b83d 5caf 4a3d 853f 853d 89e9 27bd
00000080: 88ce 09bd 6b12 b83d 3def 173e 5c76 90bd
00000090: c24a c8bd 898e 463d 54e4 823d 70f5 b1bd
000000a0: 49c1 a0bc f049 f4bd 9313 833b 5831 c0bd
000000b0: 6fce b439 8603 743d 4fd8 093c 8364 bb3d
000000c0: fdf7 1c3d 2e12 14bd 16ce 533e 8e15 f13c
000000d0: f4e7 55bd 6657 57bd 3fdf a7bd 746d 853d
000000e0: e199 e53d 1573 24be a893 49bd 6fe8 ce3c
000000f0: c862 90bd 61e5 443d 1f5d 77bd f01b 1b3d
-0.129266 -0.10669772 -0.04135634 -0.08823653 -0.13993321 0.073423915 0.058990896 0.00055014994
-0.10248221 0.06397547 0.09413515 0.1354982 0.12525396 0.11641462 0.04662375 0.0020913675
-0.13060667 -0.04903883 0.16014373 0.036652938 0.06402267 0.057368167 0.08800748 0.097429186
0.04363272 0.15677397 -0.16246516 0.04066081 0.09026205 0.049483642 0.06506256 -0.0409942
-0.03364423 0.08987888 0.14837356 -0.07053825 -0.09779884 0.048475776 0.063912064 -0.086893916
-0.019623416 -0.11928165 0.004000136 -0.093844116 0.0003448608 0.059573673 0.008413388 0.091500305
0.038322438 -0.03615015 0.20684084 0.029429223 -0.05222316 -0.052573584 -0.08196878 0.06515017
0.11210991 -0.16059525 -0.04921308 0.025257317 -0.07050091 0.048070315 -0.06039154 0.03786844

actor.pi_net.fcs.2.weight f4 [1, 64]
00000000: f2d8 333e 1acd 813e d7bb 3c3e 60d0 afbe
00000010: e27d 983c 205b 093e 2771 523e 4afe 2e3d
00000020: d510 4b3e f45f 5bbe a047 f3ba 81e0 bfbd
00000030: a9a1 35bd 1a9d f4bd 16ee e2bd 6177 c9bd
00000040: 835a 7d3e 37fa 24be 53c6 38bd 3223 7cbd
00000050: 16b5 583d e3f9 23be 7826 9ebe 8b19 d4bc
00000060: ead6 1a3d 7136 5dbc 3cb1 a63d ab52 a6be
00000070: 66af 67be edb8 7dbe e535 2ebe 2d29 15bd
00000080: 8b33 82be 63be a2bb a8be 89bd aaf5 343d
00000090: 0e07 b03e addb a6bb 287a 9f3e b069 75bd
000000a0: 0d57 4dbe fd6d fd3c 6e3b b1ba b063 0b3b
000000b0: 490a b5bd 47a2 a23d a34a f4bd b4c2 113b
000000c0: b78b edbd 45ba 813d 3d8f efbd 4bc6 bb3b
000000d0: 5a3a 203e 25bb b83b ab96 5fbe e372 423d
000000e0: 084e 91bd 39e6 923d ae28 3c3e 04b4 93be
000000f0: ee69 9c3e 0c47 7e3d a4c4 103e 356e 1c3e
0.17563227 0.25351793 0.1843103 -0.34338665 0.018614713 0.13413668 0.20550977 0.042722978
0.1983064 -0.21423322 -0.0018560775 -0.093689926 -0.044343624 -0.11944027 -0.110805675 -0.09837223
0.24741559 -0.16111074 -0.04511101 -0.061557002 0.052907072 -0.16013293 -0.30888724 -0.025891086
0.037802614 -0.013501749 0.081392735 -0.32484946 -0.22625503 -0.24777575 -0.17012747 -0.03641622
-0.2542995 -0.0049665435 -0.06725818 0.044179596 0.34380382 -0.0050921054 0.31147885 -0.059915245
-0.20052738 0.030936236 -0.001352174 0.0021269135 -0.08839852 0.07941108 -0.11928298 0.0022241296
-0.11598914 0.06334356 -0.116972424 0.0057304255 0.1564726 0.0056375437 -0.21834819 0.047472846
-0.070949614 0.07172818 0.18374893 -0.2884828 0.30549568 0.062079474 0.14137512 0.15276416

critic.v_net.fcs.0.weight f4 [64, 4]
00000000: d814 73bf 5332 9dbf b103 92c0 5df6 b7bf
00000010: 9418 0b3e 5247 8940 7122 bc40 1293 0bbf
00000020: 5aa0 63bf 7ded 2dc0 6fc8 073e 5d4d 40c0
00000030: e4fd 1bbe f488 6abd c7dc cbc0 6600 cabf
00000040: a49a 54bf d70b d4be 9b2a 80c0 26ad 9fbe
00000050: 70d9 053f 34c8 ddbf fbc4 a6be 7804 e2bf
00000060: d72e aabf deb0 45bf 7033 a1bf 697d 453f
00000070: 64af 0040 6d05 b13f 3266 3b40 08f5 8440
00000080: f964 5fbf 9dcf 8fbf 8d49 ffbf 21c9 e1bf
00000090: a282 8c3e 2fcb 0840 4f3d 3040 90f6 7b40
000000a0: 9c89 aabe 25b3 e4bf 5d93 f3c0 8a6a bdbf
000000b0: a74a 8dbf 0123 1ebf 849c 3bc0 8b42 743f
000000c0: f463 e23f 383d 043f b559 be40 3659 1ebe
000000d0: 8d6a fe3c f686 a4bf 5431 50c0 d99c d6bf
000000e0: 313b 23bf 8c16 dc3f b357 5340 f5fa 093f
000000f0: 2371 c2bb 2d81 11c0 e587 aac0 3de8 2fc0
00000100: dea3 07bf a0c3 81bf 2a3c b9c0 469b 4ebf
00000110: 2a93 0a3f 8d2a d33f b2e3 8b40 563e ea3f
00000120: 0af0 873e 7cbd c73f 724a d540 b287 5c3f
00000130: b7f1 683f 5344 513f 6196 e240 3d98 c33e
00000140: 644e 0ac0 2392 37bf 4875 47c0 f3fe 00bf
00000150: 7ff7 87be 106f 93bf d62b 65c0 2f84 44c0
00000160: 4b09 f13f 3bea 3240 c671 153f fed2 0940
00000170: 411d d3be 303b 0140 49df 0c40 3bd1 d83e
00000180: 2273 7abf 38f2 7fbf f8e4 54c0 ff3f 76c0
00000190: cae3 0b40 0002 ce40 fb6a 6940 a102 01c0
000001a0: cb77 5abf 9ad9 6dbf 3885 5ac0 ab5e 683f
000001b0: 4e31 423f d896 6fbf bde3 75c0 94ec 91be
000001c0: eb5a febf 9936 82bf d899 6dc0 be60 98bf
000001d0: a4db d5bc 76bd a63e 476f 01c1 4735 f23e
000001e0: a60b 7b3e d371 d0bf a86b 6dc0 f42b 6a3f
000001f0: 362e 53bf b2de a4bf 5824 183f 532b 1fc0
00000200: cbd3 adbd 5231 c43f 02ac a640 2fa3 e63f
00000210: c922 f63f e464 a140 edf8 3e40 dd35 a4be
00000220: 39a5 e03f ad50 c0bf 8108 eebf 52b3 48c0
00000230: a610 81c0 1d35 14c0 7a6b 42c0 4f56 8bbf
00000240: e8e7 a0c0 3bf6 87c0 0d42 ebbf b7cc 69bf
00000250: aed4 75bf 8de9 d1bf fafc a1c0 41c6 0ec0
00000260: f5da bc3e cd6c 01c0 5b51 02c1 7260 debf
00000270: 2cef 89be 890c b73f 07af 4441 0657 02be
00000280: 323b 7fbe 18d3 c6bf 606c 2c3f ce36 4bc0
00000290: b5ef e53e 9e4f 9740 d5f9 1c40 47fc 23c0
000002a0: 618a c0bf 7d2d c5bf 3fad 183f 746d 1240
000002b0: 9140 883f a72b df3f 4639 9040 51ae 0e40
000002c0: 9636 f93f 258f 82bf 2ae8 0ec1 9878 de3e
000002d0: 3b73 8c3e 22fd ae3f a4de 2840 3e20 5e40
000002e0: 0b36 30bf 879d d9bf a362 95c0 20e1 02c0
000002f0: 755f c0bc 8057 e33f 0131 0041 7f81 ed3f
00000300: 971d d6bd db2f b63f 32fe c040 dcf0 c63f
00000310: 1165 31c0 08b0 52c0 87c4 6bbe 9bd4 82bf
00000320: a62c b8be 5eeb 99bf 5751 f1c0 ef6c 82bf
00000330: 6e7e d9bf 2080 44c0 f999 85c0 0b32 2ac0
00000340: b383 42bf ea32 b0bf c7fa a8c0 ba8f d7bf
00000350: 7925 f33f 0f05 2040 dee0 e33e c511 b4be
00000360: 75bd 0040 e9f9 5a40 4ba4 a140 674f 2c40
00000370: 1e1e ee3f 5717 8640 6e8c ab40 f2c6 9dbf
00000380: 2781 45bf c82c 96bf d068 66c0 e78c 0bbf
00000390: 829d 853e adc2 bf3e 38a8 ff40 3445 583e
000003a0: eed7 d43e dd8e 983f fc2f 9e40 2ace da3f
000003b0: 991b 37c0 247b b5c0 7e19 ca3f c9bc 7240
000003c0: 690a f73f 011b 7340 8b4b 13c0 c033 aec0
000003d0: bae8 3a40 e940 423f 6dd6 8e3d ca8e 2940
000003e0: 6a41 393f c4da f0bf 4c44 82c0 cd6c 693f
000003f0: a479 833e 93bd b2bf 3e9f b6c0 1a8d d3bf
-0.9495368 -1.2280983 -4.5629506 -1.4372059 0.13583595 4.289956 5.8792043 -0.54521286
-0.8891655 -2.7176201 0.13260053 -3.0047219 -0.1523357 -0.057259515 -6.3707004 -1.5781372
-0.8304846 -0.41415283 -4.005201 -0.3118679 0.5228491 -1.7326722 -0.3257216 -1.7657614
-1.3295544 -0.77223 -1.2593822 0.77144486 2.010705 1.3829781 2.9281125 4.154911
-0.8726345 -1.1235234 -1.9944321 -1.7639505 0.27443415 2.1374013 2.753742 3.936924
-0.33308113 -1.786717 -7.6117387 -1.4798138 -1.1038407 -0.6177216 -2.931428 0.95414037
1.7686753 0.5165591 5.9484506 -0.15463719 0.031056667 -1.2853687 -3.2530107 -1.6766616
-0.63762194 1.7194381 3.3022277 0.53898555 -0.005933897 -2.2735093 -5.3290887 -2.7485497
-0.52984416 -1.0137825 -5.7885942 -0.8070568 0.54130805 1.649736 4.371545 1.8300273
0.26550323 1.5604701 6.6653376 0.86144555 0.9099383 0.8174488 7.080857 0.38202086
-2.1610346 -0.7170736 -3.1165333 -0.5038902 -0.26556012 -1.1518269 -3.5808005 -3.0705678
1.8830961 2.7955463 0.5837673 2.153503 -0.41233256 2.0192375 2.2011282 0.4234713
-0.9783193 -0.9997897 -3.3264751 -3.847656 2.1857781 6.437744 3.6471546 -2.0157855
-0.8533904 -0.9291016 -3.414381 0.9076945 0.75856483 -0.93589544 -3.842025 -0.28500807
-1.9871496 -1.0172912 -3.7125149 -1.1904523 -0.02610571 0.32566422 -8.089667 0.47306272
0.24516162 -1.6284736 -3.7096958 0.9147332 -0.8249239 -1.2880461 0.59430456 -2.4870193
-0.08487662 1.5327551 5.208497 1.801855 1.9229366 5.0435658 2.9839432 -0.32072344
1.7550422 -1.502462 -1.8596345 -3.1359448 -4.0332823 -2.3157418 -3.0378098 -1.0885714
-5.028309 -4.2488074 -1.8379532 -0.91327995 -0.9602765 -1.6399399 -5.062131 -2.2308505
0.368858 -2.0222657 -8.144862 -1.7373183 -0.26940286 1.43007 12.292731 -0.1272851
-0.24924925 -1.5533171 0.6735287 -3.17522 0.44909444 4.728469 2.4527485 -2.5622728
-1.504223 -1.5404507 0.5963935 2.2879305 1.0644704 1.7435197 4.5069914 2.2293894
1.9469783 -1.0199934 -8.931681 0.4345138 0.27431664 1.3671 2.638589 3.470718
-0.68832463 -1.7001199 -4.6682906 -2.0449905 -0.023483017 1.7761078 8.011964 1.8555144
-0.104548626 1.4233354 6.0310297 1.5542254 -2.7717936 -3.291994 -0.23024188 -1.0221132
-0.35971564 -1.2024953 -7.541179 -1.0189494 -1.6991708 -3.0703201 -4.1750455 -2.6593044
-0.7598221 -1.3765538 -5.2806125 -1.6840737 1.8995811 2.5003088 0.44507498 -0.35169807
2.0115635 3.4215033 5.0513053 2.6923463 1.8602941 4.190349 5.3608923 -1.2326338
-0.77150196 -1.1732416 -3.6001472 -0.54511875 0.2609673 0.37453213 7.9892845 0.21120149
0.4157099 1.1918598 4.9433575 1.7094166 -2.8610594 -5.671282 1.578903 3.7927725
1.9300052 3.7985232 -2.3014858 -5.443817 2.9204545 0.75880295 0.06974492 2.6493402
0.7236544 -1.8816762 -4.070837 0.9118164 0.25678742 -1.3964103 -5.7069387 -1.6527436

critic.v_net.fcs.0.bias f4 [64]
00000000: 4690 3bbf d892 f1be 7fdf 843c 4e20 44bd
00000010: bb1f 163e 2312 0bbe 2ebf babe 2d23 8f3c
00000020: e41a 893e f873 0c3d 83fa cfbd c18b 063f
00000030: 2809 fc3e d0be 4bbe 09f9 3e3e 652f 9e3d
00000040: 489c bbbc ba2e 6fbe 501e bb3d 4c69 a63e
00000050: f7e5 f5be 6b05 77be c349 07bd ff6c c3be
00000060: 6c24 e3bd a9fe 063f 6d6e afbd a50a 82bd
00000070: 638e 07be c71f 9fbe 5813 f9bd 216c 4dbe
00000080: a0d7 773d 963c e4be c1a3 c4bd 9989 1bbe
00000090: ecb2 053e f1df 6c3e 8b50 433a 5b2f ed3d
000000a0: aff1 d6bd 49ec 223d faee ca3d 6c08 f0bc
000000b0: 3dc0 5fbe 047e 2d3e e880 833e 23cd aa3c
000000c0: 40d5 053e 46fa fa3d 1bb2 0ebe 10bf 0ebd
000000d0: 4f7d c2be f397 f3bd fb96 be3d 30e5 94be
000000e0: 2292 83be e3b9 633d 985c b5be 73ac 183e
000000f0: 8c6d 19bd 01b5 76be 2816 35be 604d 1fbe
-0.7326702 -0.47182345 0.016219852 -0.04788237 0.14660542 -0.13581137 -0.36473984 0.017472828
0.26778328 0.034290284 -0.10155203 0.52557 0.49225736 -0.19897008 0.18649687 0.077238835
-0.02290167 -0.23357669 0.09136641 0.3250221 -0.48027012 -0.2412316 -0.03302933 -0.38169095
-0.11090931 0.5273233 -0.08565984 -0.063496865 -0.1323791 -0.31078932 -0.12161893 -0.20060779
0.06050837 -0.44577473 -0.09601546 -0.15189208 0.13056535 0.23132302 0.00074506615 0.11581298
-0.10495316 0.03977612 0.099088624 -0.02930089 -0.21850677 0.16942602 0.25684285 0.02084977
0.1306963 0.12254767 -0.1393513 -0.03485018 -0.37986228 -0.118942164 0.09306141 -0.29081106
-0.25697428 0.055597197 -0.35422206 0.14909534 -0.037457988 -0.24092485 -0.17684233 -0.1555686

critic.v_net.fcs.1.weight f4 [64, 64]
00000000: 2128 15bf c344 fdbb 0635 b6bf 2ba9 a8be
00000010: 8a4b d63d 1a88 dabf a01f 96bc 16e2 ea3e
00000020: 3f76 9ebc 3420 413f 9738 a8bf f44d 47bf
00000030: 5fa1 df3e ddfe 12bf c693 b03f f4bf 55bf
00000040: 0f10 14bf 2671 f73e 45fe 7c3f cecd f73e
00000050: 0020 4abf 53e5 f3be d714 763f 5510 16bf
00000060: a40e 9ebe bc31 573f 69ea 85be 58d1 53be
00000070: f3ad 463e 40b8 dd3e 1c2a 2ebe f2f7 0c3e
00000080: 1171 9d3f 296b 953f 52e4 8abf 22f0 83bf
00000090: 130e 15bf 1add 45bf bae8 8abf f33e 283e
000000a0: 51ac 18bb 99fa 073f 1bb3 acbe 5f4c 4a3f
000000b0: 1c07 aebe e223 923e 83df 09bf 4c34 ba3f
000000c0: e7a7 733f ba61 72bf 33ec 48bf 0e59 11c0
000000d0: a132 18bf 4d61 ba3b f066 2a40 f49b 4e3f
000000e0: a867 45bf 9cee 293e 40e0 8e3b 9fbf 6cbf
000000f0: 4487 db3e 72b5 0f3f 812a fa3d 70a2 e2be
00000100: 74ad ff3e a929 6a3f 04cc 313f 8b82 c23e
00000110: 8f1e adbf c8f5 c0be b23a 683c cb9e ccbf
00000120: 20f3 523e ffcf 24c0 c20b cf3e 3321 17bf
00000130: 0435 5b3e 4ef0 97bf 290c 403f 6d72 6d3f
00000140: aa49 56bf bc83 df3d a534 48bd 0344 973e
00000150: 16cd 1ebb d460 0040 2246 183f 5299 993e
00000160: ac91 0f40 0858 c63c 18e0 d8bf 9aa2 1ebf
00000170: d761 4dbf 972b c5be 184a dcbf 8088 383f
00000180: 67e8 c2be 202e bf3f 4094 953f e094 c9be
00000190: 2c6f 7fbf 060f 25bd aa62 9ebe 1f56 4e3f
000001a0: 3bb8 c83f fdfb c23f b871 0ec0 9977 123e
000001b0: ce97 93be 358d 3ec0 7ccb 2bbe 5faf 21bf
000001c0: 2557 6dbf 76c0 2cbf 0b9f cfbe 56aa 63be
000001d0: 1ecd 4d3f b283 953f 6508 b2bf d0d4 b73f
000001e0: d426 f73d ac08 da3f 3fc1 2fbe 80a5 f3bf
000001f0: a793 0e40 d589 893e a890 83bf 9cdd c73e
00000200: d7cb 5a3e dfdb 303e 45b2 433c c142 86bf
00000210: f2be 17bc 6bce 6bbf 27c1 103f f283 453e
00000220: cbc3 6fbe ea9f 7c3f 6094 16bf 115c 01be
00000230: d444 463d 48c6 27bf eadf 083f e3bf 90bf
00000240: 3650 38bf 85b8 8d3f a2d7 1b3f 990a 073f
00000250: 88cc 4e3f ba1a 9ebf 7b11 3dbf a7a4 ca3e
00000260: bfdd 26bf 1ac2 443e ea59 66bd 53ff 14bf
00000270: 0f76 9e3e 8724 92be 1817 093c 2505 593e
00000280: 3d44 993f 11a2 a43e 7590 5bbf 09f2 143f
00000290: 55b8 793e 96d8 58bf dc2a 31bf 1a62 533e
000002a0: 32f6 e2be 8f26 1cbf ddd4 753f aa83 333f
000002b0: 19db c23c 114e ad3f 34e4 73bf df10 d33e
000002c0: de16 dc3e 8d1d 623d 80a5 0cbf bcd2 2dbe
000002d0: 1629 1cbe 802f 51bf 343d 6ebe e969 a8bd
000002e0: 8e97 fbbe 560a 893f 1fc9 713f cf08 363f
000002f0: c7b2 90bf 2c67 eb3e c774 06bf 9f51 19bf
00000300: 5724 3ebe d515 86bf 3e09 92bf 55a5 3e3e
00000310: aa2d 713f 6db9 1fbf 0f49 223f 0024 3a3f
00000320: 5104 d03e 0e95 1340 02f8 123e 6b77 cb3e
00000330: 8d1c 0fbf 1cef 603e ee20 1b3e d3fe babf
00000340: 0baa ea3d d2ca 02bd df50 2a3d a6c9 36bf
00000350: 8997 4a3e 7f5a e1bf a6e3 143e 6317 b93d
00000360: d959 8dbf f50f 90bf c643 953f e923 953e
00000370: abc7 613f 553f 433f 0d7a 513f e29b c2bf
00000380: a504 203f bfc3 83bf e756 dcbf 1505 a6be
00000390: f08f d93f 274e 153f a8e9 e53e 6a47 e6be
000003a0: 37fc 01c0 8339 d6bf b13c 0a40 679a 1b3f
000003b0: ec5f 06bf 58b0 b63f 5e46 103e 5ea5 043f
000003c0: 7033 b23e 93c0 2f3f a584 453e 1215 29be
000003d0: ea27 a53d 39fe 25bf d415 01bf 8c74 d3bf
000003e0: 0590 153e 0700 b4bf 34ca a0be 507c ea3f
000003f0: f712 eebf 97b9 163d af82 403d 3ada 8b3b
-0.58264357 -0.0077291443 -1.4234931 -0.32941565 0.10463627 -1.7072785 -0.018325627 0.45875615
-0.019343494 0.75439763 -1.314227 -0.7785332 0.43677804 -0.5742014 1.3795097 -0.8349602
-0.57837003 0.48328513 0.98825485 0.48399204 -0.7895508 -0.47635898 0.9612555 -0.5861867
-0.30870545 0.84060264 -0.26155403 -0.20685327 0.19402294 0.43304634 -0.17008251 0.13766459
1.230013 1.1673328 -1.0850928 -1.0307658 -0.582246 -0.772905 -1.0852273 0.16430263
-0.0023296068 0.53116757 -0.33730397 0.79022783 -0.339898 0.28543 -0.53856677 1.454721
0.95178074 -0.9468037 -0.7848541 -2.2710605 -0.59452254 0.0056878687 2.6625328 0.80706716
-0.7711129 0.16594929 0.004360229 -0.9247989 0.42876637 0.5613624 0.12215138 -0.44264555
0.49937022 0.9146982 0.6945193 0.3799022 -1.3524951 -0.37687516 0.01417415 -1.598596
0.20600557 -2.575195 0.40438658 -0.59035033 0.21406943 -1.187021 0.75018555 0.92752725
-0.8370615 0.10913798 -0.04887833 0.29544076 -0.0024231127 2.00591 0.59482014 0.29999787
2.243266 0.024211898 -1.6943388 -0.6196686 -0.80227417 -0.3850982 -1.7210112 0.7208328
-0.38067934 1.4935951 1.1685867 -0.39371395 -0.9977901 -0.04029753 -0.3093465 0.8060016
1.5681223 1.5233151 -2.2256908 0.14303435 -0.28826755 -2.9773686 -0.16776842 -0.6315822
-0.92711097 -0.6748117 -0.40551028 -0.22232947 0.8039111 1.1680815 -1.3908812 1.436182
0.12067953 1.7033896 -0.17163561 -1.9034882 2.227762 0.2686297 -1.027852 0.39036262
0.21366821 0.17271374 0.011944358 -1.0489122 -0.0092618335 -0.92111844 0.5654473 0.19288614
-0.23414533 0.9868151 -0.5882015 -0.12632777 0.048405483 -0.6553693 0.53466666 -1.1308559
-0.7199739 1.1071936 0.60875905 0.52750546 0.8078084 -1.2351906 -0.738548 0.39578745
-0.6518211 0.19214669 -0.056238092 -0.58202094 0.30949447 -0.28543493 0.008367322 0.21193369
1.197395 0.32154897 -0.857673 0.58181816 0.24386723 -0.84705484 -0.69206023 0.20642892
-0.44328457 -0.60996336 0.9602793 0.7012278 0.023786115 1.3539449 -0.95270085 0.4122381
0.42986196 0.055203963 -0.5494003 -0.1697492 -0.15250048 -0.81713104 -0.23265535 -0.08223326
-0.49139065 1.0706279 0.9444751 0.7110719 -1.1304559 0.4597715 -0.5252194 -0.5989017
-0.1856855 -1.0475413 -1.140907 0.18617757 0.942103 -0.6239231 0.6339273 0.7271118
0.40628293 2.3059726 0.1435242 0.39739546 -0.5590294 0.21966213 0.1514928 -1.4609016
0.11458214 -0.031931706 0.04158103 -0.7140144 0.19784369 -1.7605742 0.14539966 0.09037664
-1.1043044 -1.125487 1.1661308 0.2912896 0.88195294 0.7626851 0.8182686 -1.5203822
0.62507087 -1.0294112 -1.721402 -0.32425752 1.6997051 0.58322376 0.44904828 -0.4497636
-2.031019 -1.6736301 2.1599543 0.60782474 -0.52490115 1.4272566 0.14089343 0.5181483
0.3480487 0.6865322 0.19288881 -0.16511944 0.08064254 -0.6484104 -0.5042393 -1.6519942
0.1460572 -1.4062508 -0.3140427 1.8319187 -1.8599538 0.036798086 0.04699963 0.004267958

critic.v_net.fcs.1.bias f4 [64]
00000000: 711b d7bd 22f0 5cbe eff7 113e 0cfe 053f
00000010: a719 f13e 914e aebe 52e2 39bf c435 5ebf
00000020: 17f4 5b3f 8eda ffbd b0db b3be 6fc3 5cbf
00000030: 352f 02be 8c31 9e3f 700e 003e aba4 2dbe
00000040: 6f9f dc3e bacd 2e3f d49f 2ebe a7b0 2fbf
00000050: 76f7 4e3e a75a c6be 131b 223f e359 8bbf
00000060: d5db d9bd d811 d6bd 4a2b 20bf 1d0d 7f3e
00000070: 2329 dd3e cae7 b23c 1bcc d0be 8fba 7b3d
00000080: e194 8b3f 8f3a 11be 123c 453f ac49 323f
00000090: 5b74 4a3f f235 2dbe e16c ccbd 829e 12bf
000000a0: 55f9 403f bef1 41bf f15c a9bc b887 07bd
000000b0: 332f 7fbf 6eb5 e23e 188a 4dbe a4d3 943e
000000c0: c638 083f fc41 0dbd f05e af3f 49fc 0040
000000d0: 1fec 17bf 5fe7 2c3f bc9b e63e 75d0 9c3e
000000e0: 3810 113f d6e8 52bf 4dcf 053e 7043 e83e
000000f0: ffc5 41bd 0993 6ebd e65c 2c3f 0569 80be
-0.10503281 -0.21575978 0.14254735 0.5234077 0.47089884 -0.34044316 -0.7261096 -0.8680079
0.85919327 -0.12492858 -0.35128546 -0.8623571 -0.1271332 1.235887 0.12505507 -0.16957347
0.43090388 0.68282664 -0.17053157 -0.68628925 0.20211586 -0.38741037 0.6332256 -1.0886806
-0.10637633 -0.10452622 -0.62566054 0.24907346 0.43195447 0.021839041 -0.4078072 0.061457213
1.0904809 -0.14182495 0.77044785 0.69643664 0.79083794 -0.1691511 -0.099817045 -0.57273114
0.7538045 -0.75759494 -0.0206742 -0.033088416 -0.99681395 0.44279045 -0.2007221 0.2906772
0.5321163 -0.034486756 1.3700848 2.0153983 -0.5934467 0.67540544 0.4504069 0.3062779
0.5666537 -0.8238653 0.1306736 0.4536395 -0.047307964 -0.058245692 0.6732925 -0.25080124

critic.v_net.fcs.2.weight f4 [1, 64]
00000000: 5d1c 73c0 f43b bc3f 6491 6ac0 ae93 f7bf
00000010: 90f9 18c0 ae1b 1d40 2916 81c0 ae3f 5740
00000020: a336 fa40 22d9 23c0 348f 1740 9baa e33f
00000030: baa1 15c0 e612 cdbf 52ac b53f 7a67 77bf
00000040: 3e64 90bf 473b bec0 8230 d13f 50b3 2b40
00000050: d753 1040 19c4 1840 e4df bac0 00a8 323f
00000060: e438 9c3f a214 6540 8f7f f23f f06a 973f
00000070: bb48 44c0 649f 0b40 573a 0e40 3e3b c4bf
00000080: 20fa 88c0 5fbc 4840 1497 8f3e 9360 50c0
00000090: 7434 66c0 ae4a 8fc0 7c36 9a40 3bbe 6240
000000a0: 3774 4840 9d37 0ac0 647d 0ac1 fa8f 4ebf
000000b0: b26b 97c0 e7c1 f9c0 5698 8ac0 2e26 78c0
000000c0: 7848 35c0 d131 b1bf 0d15 0ec0 1c0f 5bc0
000000d0: f318 88c0 3537 1c40 a636 13c0 fa90 c03f
000000e0: ff8d 8fc0 e598 1740 d0aa 49c0 4005 6cc0
000000f0: 57c5 aa40 efd3 7ac0 b622 8ec0 5400 3940
-3.7986062 1.4705796 -3.665124 -1.9341943 -2.390232 2.4548144 -4.033955 3.3632617
7.8191695 -2.5601277 2.3681154 1.778644 -2.337996 -1.6021392 1.4193213 -0.9664227
-1.1280591 -5.944736 1.6342928 2.6828194 2.2551172 2.3869689 -5.8398304 0.697876
1.2204862 3.5793843 1.8945178 1.182951 -3.066939 2.1816034 2.2223108 -1.5330579
-4.280533 3.1364973 0.2804495 -3.2558944 -3.5969515 -4.477866 4.819151 3.5428607
3.1320932 -2.1596444 -8.655613 -0.8068844 -4.7318964 -7.8049197 -4.3310957 -3.8773303
-2.8325481 -1.3843328 -2.2200348 -3.4227972 -4.2530456 2.4408696 -2.3002105 1.5044243
-4.4860835 2.368707 -3.1510506 -3.6878204 5.3365893 -3.9191854 -4.441737 2.890645

exp_avg f4 [64, 4]
00000000: dc06 89bc 65c5 aabd 9904 59bc 4e9c ee3b
00000010: 61e7 6b3c fe88 a3bb b260 2abb aa7f c4ba
00000020: ac56 18bc a1c7 fd3b f1bb 423b 9900 153b
00000030: 9a37 903b b74f 29bb 3287 21ba f5f9 df3a
00000040: d46f 843c 6b4f dabb 5849 aebb 893d 31bc
00000050: b5b6 6d3d cefa 483b b9f0 28bc dadc d7bc
00000060: 424b 073d 7c6d 953c bdfa 2739 716e c1bb
00000070: d0a8 babc febc 69bd 98a9 b9bb 1265 853c
00000080: 4847 9ebb 4274 77bd 12af 31bc 003d 7b3b
00000090: e6d3 d23a 4249 fcbc 7422 d2bb e4c6 143b
000000a0: d8f1 cabb 3526 46bc b5a1 87ba 7247 993b
000000b0: 50c2 3cbb 389d c5bc 9d22 8ebb 4c22 a83a
000000c0: 5ec1 67bc 389b 61bd 0568 f3bb 0192 2d3c
000000d0: 8147 94bb 482d 993c 3080 a83b 171c 6b3b
000000e0: 626c 203d 380a 5c3c 4a43 f3bb 73f1 debc
000000f0: 975d 7abd 04a6 70bc dcc5 0c3c 0ed5 e13c
00000100: e11c 7e3c 4c70 903d 683f 303c e086 e2bb
00000110: b2e6 783a 0d84 0cbd 18b8 f0bb 3679 0bbb
00000120: 2d66 383d 004c ad3b fd75 42bb dc8f 5abb
00000130: bdb9 d8bc 9425 9cbc c553 293b e673 7a3c
00000140: 2648 9dba 123a 7f3c 90d1 643b 49f9 8a3a
00000150: 3c5a 36bc 7886 4cbd acbb febb 607a 863b
00000160: ea8f afbc 624c d0bc 7b4b 7e38 de21 4b3c
00000170: 7c5a 9d3b 68b3 c1bc 7fa1 ccbb 9c52 92bb
00000180: d634 68bd bfa8 8dbc 19f9 283c b51d 183d
00000190: 87d5 03bd ed22 b43b ded6 973b 2b28 9a3b
000001a0: 29e2 623d fca3 283b 4e74 61bb 1d26 60ba
000001b0: b848 113c 9c3a 02bd 05e0 09bc 84b5 10bb
000001c0: 90b0 b63b a440 5fbd 1d6b 4dbc 4584 a4bb
000001d0: a57f 473d 7333 243c 2f14 36bc 2227 13bd
000001e0: 0cc2 063b 564a db3c 1d86 af3b 403e 963a
000001f0: f4aa 99bb 0a5f b53b 6638 173b 310f 643b
00000200: 79d0 fabc 46ea 50bc e5e4 1b3b 9d5c 423c
00000210: 9356 78bc 8631 b73b f618 673a b3f2 98bb
00000220: b9d7 5dbc 638f 97bc 57d1 54ba cd63 103c
00000230: 01e4 2a3d 9caa 103c b67a 1abc 5485 f8bc
00000240: c358 0dbd 588d 93bc a403 a53b 19d4 bd3c
00000250: e309 623c 4770 393d f3cf c03b f857 ddbb
00000260: 81c8 a83c e10e b33d abf7 503c da95 3cbc
00000270: 696b 033c 90f9 e2bb 53a6 61bb b5b3 91bb
00000280: 6bba f7bb deec b8bd 677c 84bc 2482 de3b
00000290: c6e1 2dbc 4ec7 bdbc 4f6b 0ebb d7ed bd3b
000002a0: 1faf 053d 1e9d 303d c1db 36b8 c84e c5bc
000002b0: dad5 bc3c 9e24 e93c e84f bdb9 1101 8bbc
000002c0: 5007 6e3d 1e45 953b 7a29 28bc 8bee d5bc
000002d0: 03d2 683b b45e 1abc 7343 2ebb bc35 eeba
000002e0: ab69 283c 3c50 343d cfdd d63b df79 a3bb
000002f0: 6c5d 993a c5db f7bc 9567 d7bb e101 f6ba
00000300: 9f6f 253c fb4f 8cbd 2fe6 86bc f0d3 91bb
00000310: 3b9e 653a 8e12 c03c 5f83 9b3b 5550 ff39
00000320: cf2e a33b 4c60 743d e855 2b3c bd4d 05bc
00000330: 090b cc3b f9f1 df3c bd0b 8b3b 5879 10bb
00000340: 4b9c cfbc b4f7 d2ba 819d d639 6441 84bb
00000350: 8edb 96bd 0c76 c0bc fd8a 4d3c 4824 3d3d
00000360: bdd7 ea3a b01a 59bc 4c37 4bbb 0c06 74ba
00000370: 22eb e0bc 4c58 22bd fbbe 8eba 8472 893c
00000380: 32d0 00bc 953b aabc 2e1f fbba fb98 073c
00000390: 013b 7a3c f0b0 a93c 713f fc39 a80b 06bc
000003a0: 7a78 1abc 2ba5 d23b f45e 6f3b 39d6 b53b
000003b0: 804f 8b3b ed92 be3c 8ce8 663b a50c 9cbb
000003c0: f6be 503c bd4c ce3c 1ae9 033b 8394 debb
000003d0: d439 563c 131e f03c 8155 2d3b ea65 13bc
000003e0: 79a1 fabb f57b 14bd e31f b5bb e035 5d3b
000003f0: b9bf fb3a 1194 a33c 0d94 713b 15d4 2dba
-0.016726904 -0.08338431 -0.013245725 0.0072818166 0.014398427 -0.004990696 -0.0025997576 -0.001499166
-0.009298008 0.007744745 0.0029714073 0.0022735952 0.0044011595 -0.0025834867 -0.0006161808 0.0017088043
0.016166605 -0.0066622994 -0.005318802 -0.010817894 0.05803557 0.003066707 -0.010311299 -0.026350427
0.033030756 0.018240683 0.00016019768 -0.005903058 -0.022785574 -0.057065003 -0.005665969 0.016283546
-0.0048302747 -0.060413606 -0.010844963 0.003833592 0.0016084879 -0.03079665 -0.0064127985 0.0022701556
-0.006193381 -0.01209407 -0.0010347875 0.0046777064 -0.0028802343 -0.02412282 -0.0043376223 0.0012827604
-0.014145223 -0.05507967 -0.0074281716 0.010593892 -0.0045251255 0.01869835 0.0051422343 0.0035874897
0.039165862 0.013430171 -0.007423793 -0.027214741 -0.06112441 -0.014688019 0.008592095 0.027567413
0.015509815 0.07052669 0.010757305 -0.006913051 0.00094948255 -0.03430562 -0.0073461644 -0.0021281964
0.045019317 0.005288601 -0.0029672377 -0.0033349907 -0.026455754 -0.019060887 0.0025837284 0.015286421
-0.0011999651 0.01557781 0.0034914948 0.0010602857 -0.011129912 -0.049932927 -0.007773837 0.0041039437
-0.021430928 -0.025427047 6.0628616e-05 0.012398211 0.0048020463 -0.023645118 -0.006244838 -0.004465414
-0.056691013 -0.017292378 0.010313296 0.037137706 -0.032186057 0.0054973275 0.0046337685 0.0047044954
0.055391464 0.0025732508 -0.0034401598 -0.0008550601 0.008867435 -0.031794176 -0.008415227 -0.0022080848
0.005575247 -0.054505005 -0.012537745 -0.0050206506 0.048705716 0.010022032 -0.011113211 -0.03592599
0.0020562438 0.026768845 0.0053565637 0.0011462644 -0.0046895687 0.005535011 0.0023074388 0.0034799094
-0.030616986 -0.012751168 0.0023787555 0.011862901 -0.01515736 0.0055906205 0.000881567 -0.004667604
-0.013540202 -0.01850099 -0.0008118352 0.008812857 0.041721348 0.008829739 -0.009428671 -0.030337013
-0.034508478 -0.018011734 0.0050358344 0.023172425 0.0137963025 0.04527309 0.0058841645 -0.0067548715
0.02060342 0.08743072 0.012754361 -0.011510337 0.008021214 -0.006926723 -0.0034431412 -0.0044464716
-0.0075600646 -0.09029554 -0.0161726 0.0067904163 -0.010612911 -0.023166325 -0.0021731441 0.005796175
0.03263771 0.04311859 -4.3596843e-05 -0.024085417 0.023051191 0.028459843 -0.00036108424 -0.016968282
0.058112442 0.0045553586 -0.010263795 -0.026114723 0.0035525567 -0.009421993 -0.0026590496 -0.0018173973
0.010279099 0.04402183 0.0065572034 -0.0049888934 0.0011700816 -0.030256161 -0.0065736272 -0.001876887
0.010097413 -0.068511926 -0.016467182 -0.0044503137 0.0008759235 0.023446348 0.0047458853 0.00048697242
0.0049799453 0.05966215 0.010457493 -0.00813621 0.0062269014 0.027337061 0.0042433427 -0.0022044983
-0.025343081 -0.001609555 0.0004093461 -0.0040361155 -0.073660955 -0.02349379 0.012545344 0.04617718
0.0017917078 -0.013250992 -0.0031008301 -0.00093087624 -0.02745587 -0.039634988 -0.0010890657 0.016778238
-0.007862138 -0.020780364 -0.0019159073 0.0082762195 0.015272857 0.020714253 0.00048112453 -0.00818149
-0.009428138 0.006428381 0.0036525102 0.005549219 0.0042514205 0.023263419 0.0035233824 -0.0047622495
0.012740841 0.025183076 0.0020127953 -0.0067926063 0.013075311 0.029311216 0.002644867 -0.008996466
-0.0076486436 -0.036251027 -0.005527483 0.0033754036 0.0019206918 0.019968065 0.0036861927 -0.0006631029

exp_avg_sq f4 [64, 4]
00000000: 90bf cd3e 89b3 2f3e 2b9e ff3a c46e e43b
00000010: 1501 343b a1fa 8f3a 85e0 2f38 a0e8 f439
00000020: 1873 ed3b 94ef 323b bf69 1a38 10da b739
00000030: f058 183b 7da2 713a 00c7 4d37 db34 fe38
00000040: 0202 ed3b cba4 2f3b 5e10 0838 43d2 d039
00000050: 25d6 4d3b 3694 593a a9b8 9439 33e4 6a3b
00000060: 7e63 7e3c 04ba c53b aa5f ae39 38c5 4f3b
00000070: 424b 703e 860b ca3d 759d 8f3a bfe2 613b
00000080: 4ecb 6e3e fd7e da3d 6913 9f3a e734 753b
00000090: 35a8 c73d d7c4 183d c8f7 cf39 4b6a d63a
000000a0: 66c7 5d3c 5097 ad3b 5b22 7338 3450 7e39
000000b0: 0f9e 043d 5155 733c 4968 2f39 e37a 143a
000000c0: 0553 803e f402 d33d ee7c 8c3a 42d9 5b3b
000000d0: a6b0 053d 4266 583c 1c66 0539 467c 2d3a
000000e0: bb06 ec3b 97c1 7c3b 67f3 9938 59f5 563a
000000f0: 705e f83b 4c36 4e3b 7127 a039 4d3c 713b
00000100: 856d 793e 69db c83d ee12 ad3a cb5e 9f3b
00000110: f36c bd3d 06d5 0a3d 8413 c039 4f8c a93a
00000120: f2e9 363b 216c 873a 5272 d339 e0dc ad3b
00000130: 48b7 853c 9f0e fb3b 54ab c138 007a 8239
00000140: 4808 ad3c d574 0f3c 8556 b238 be58 b139
00000150: 680b bc3d e554 2e3d ee43 273a 0097 453b
00000160: 9e99 193d 4837 803c 5dfa 3b39 69fe 033a
00000170: 885f 3c3d 7cb2 933c 03ee 4239 79a6 6a3a
00000180: 3940 883c 31b9 be3b 8728 2f39 8460 033b
00000190: 9260 be3b 7a97 f23a 14a7 5239 91cc 233b
000001a0: ae81 913b 8820 d13a 3f48 383a 50e4 1c3c
000001b0: 3aa7 bc3d 291e 1e3d fdbe e839 82c6 093b
000001c0: 892a 563e 56a4 b83d a61f 7b3a de69 573b
000001d0: eabe 673b 6bbd c43a 2b7d 5438 eda4 103a
000001e0: 595a 483d 6f0a a13c 9182 5039 7e35 833a
000001f0: 6290 2b3b 134a 953a f0a3 4537 2662 3738
00000200: 7993 4a3c 3bc9 b13b 2d46 2d39 417f f63a
00000210: 85a7 583b 566a 9d3a 0253 e938 8e4c bf3a
00000220: 62e9 ae3c e2e2 073c 61e7 1239 596c 263a
00000230: 0744 463b 7fb0 bd3a 6ba4 2838 b546 ec39
00000240: 15fa 813c e6f9 033c 61b7 0539 9249 bf3a
00000250: 646f fb3d 1679 473d aaa1 173a 0b2d cf3a
00000260: f94b 083f 04dd 613e 80b5 1d3b 6fd6 e63b
00000270: e4a8 7c3b 7a2b 073b c8d5 e337 258b f638
00000280: 8898 1f3f d959 883e fad7 383b 49e8 183c
00000290: 6c9e 0b3d e130 7f3c 0c2e 3339 fc22 e439
000002a0: f0f7 e73d 6cd2 563d a4cd 1d3a c8c9 1c3b
000002b0: 6ad8 5c3d 8f4a c73c a4f2 9339 799f 803a
000002c0: cb4e 4c3b aa5c 9d3a b29a 5e39 6b89 433b
000002d0: 9bcf c13b edf7 243b 8d37 e637 5874 0039
000002e0: 0ed8 a33d 7a01 023d 4e6b 073a 3572 113b
000002f0: 7ec9 a53d 0bfd e83c adf8 9b39 c01c df3a
00000300: 6e29 183e 31ab c83d f530 d93a b4bf cc3b
00000310: b0a4 203d b855 743c ece0 3239 ed32 813a
00000320: 2fa2 5e3e abcb c73d 570c b13a f01e a93b
00000330: e124 ef3c 117b 7b3c 355d 3d39 c7d1 023a
00000340: f61c aa3a 915e eb39 f619 4d39 5b15 2f3b
00000350: 9424 f83c ee1e 3e3c ecb9 a939 56ab 643b
00000360: 2bdb 513c 5784 a93b 8672 5e38 42a0 7a39
00000370: 2ecf c33d 5a98 233d 8b90 e639 592d 9d3a
00000380: d652 a73c 144a 483c 5f51 3f39 471b 3c3a
00000390: b745 973c 6fb3 1c3c a72a e738 f772 8a39
000003a0: 4d83 ee3b 8f24 413b 2565 f437 2975 2c39
000003b0: 6fe2 503d de3b 9c3c 42dd 5439 7941 473a
000003c0: 4ddf bd3c 8635 373c cfd3 2239 7ad5 e139
000003d0: b92e 483d 21d3 b93c 1066 8639 e816 6a3a
000003e0: f148 a13d 349d e73c 3862 bb39 e16a 993a
000003f0: 0e09 b93c 687c 393c df07 0239 a680 cc39
0.40185213 0.17158331 0.0019502094 0.006971212 0.0027466465 0.0010984727 4.193235e-05 0.00046712626
0.0072463863 0.0027303444 3.6814945e-05 0.0003506695 0.002324637 0.0009217633 1.22652855e-05 0.00012121509
0.0072329054 0.0026801105 3.244017e-05 0.0003982951 0.0031408158 0.0008299978 0.00028366342 0.0035841584
0.0155266505 0.0060341377 0.00033259141 0.0031703245 0.23466209 0.09865479 0.001095696 0.0034467427
0.23319742 0.10668752 0.0012136522 0.0037415565 0.0974888 0.037297096 0.00039666728 0.0016358582
0.01353631 0.005297579 5.796771e-05 0.00024253206 0.0323773 0.014851884 0.0001672815 0.00056640635
0.2506334 0.10303298 0.0010718384 0.0033546244 0.03263917 0.013207974 0.00012721907 0.00066179445
0.007202951 0.0038567537 7.340946e-05 0.0008200012 0.007579617 0.003146547 0.00030546964 0.0036809624
0.24358185 0.09807474 0.0013204494 0.004863595 0.09249296 0.03389456 0.00036635634 0.0012935492
0.0027910438 0.0010331908 0.0004033023 0.0053058714 0.016322747 0.007661655 9.2348695e-05 0.0002488643
0.021122113 0.008755882 8.503817e-05 0.0003382619 0.09181863 0.04256143 0.0006380667 0.0030149817
0.037500016 0.01565136 0.00017926977 0.00050351635 0.045989543 0.018029444 0.00018589948 0.0008951198
0.016632186 0.0058204164 0.00016704398 0.0020046541 0.005809852 0.0018508278 0.00020089402 0.0024993757
0.004440508 0.001595513 0.00070298085 0.009575918 0.092115834 0.03860298 0.00044392786 0.002102286
0.20914663 0.090157196 0.0009579606 0.0032869498 0.0035361596 0.0015010064 5.066131e-05 0.000551774
0.048914287 0.019658295 0.00019885066 0.0010010449 0.0026178588 0.0011389874 1.1780285e-05 4.3722008e-05
0.012364262 0.0054256 0.00016524708 0.0018806235 0.0033058834 0.001200984 0.00011125767 0.0014594959
0.02135152 0.008293839 0.0001400984 0.00063485425 0.003025295 0.0014472156 4.0207447e-05 0.0004506611
0.015866319 0.008055186 0.00012752182 0.0014594069 0.122771055 0.04869946 0.00057842827 0.001580627
0.53240925 0.22056967 0.0024064481 0.0070446054 0.0038552815 0.002062528 2.7160058e-05 0.00011756112
0.6234212 0.26631048 0.0028204904 0.009332725 0.03408663 0.0155756185 0.00017087924 0.00043513614
0.11326587 0.052446768 0.00060197175 0.0023923982 0.053917326 0.024327544 0.00028218806 0.0009813152
0.0031174894 0.0012005765 0.00021229198 0.0029836546 0.005914641 0.002517219 2.7444004e-05 0.00012250373
0.080001935 0.03173969 0.0005165831 0.0022193317 0.08095072 0.028440973 0.00029749182 0.0017022118
0.14859554 0.09798277 0.0016570376 0.0062484387 0.03921956 0.014913015 0.00017059193 0.0009857096
0.21741556 0.097556435 0.0013507706 0.0051611587 0.02919239 0.015349166 0.00018059167 0.00049903657
0.0012978602 0.0004489315 0.00019559995 0.002671561 0.03029088 0.011604054 0.00032372714 0.0034892163
0.012808601 0.005173247 5.3035583e-05 0.00023901559 0.09561001 0.039940216 0.00043976711 0.0011991664
0.020425241 0.012224693 0.00018245493 0.00071756955 0.01846586 0.009564265 0.00011022883 0.00026407067
0.007278836 0.0029471254 2.9134166e-05 0.00016446844 0.050997194 0.019071516 0.0002030032 0.0007601004
0.023177767 0.011182195 0.00015528429 0.00043074397 0.048872683 0.022683682 0.00025634514 0.0008929805
0.078752406 0.028273202 0.00035740598 0.0011704826 0.022587325 0.011321165 0.00012400698 0.00039005763

exp_avg f4 [64]
00000000: b53c adbe a127 a5bc 9b88 033d 9f11 93bc
00000010: 541b aebc f9fe 293d 219d ec3d af10 88be
00000020: ad97 89be fc5d 1bbe 98a1 84bd ab32 cfbd
00000030: 4218 82be 4711 9a3d 40b6 9b3d ff54 c2bd
00000040: da22 943e 341e 0cbe 76f8 413d 1f4d afbd
00000050: fcd6 833d f23b 4ebe 5ae1 e9bd 6a06 bbbd
00000060: c2db e0bd 13da 023b 7279 403d 1432 1cbe
00000070: bf8b 5abe 04dd 803d 4de9 ca3d b8c7 a03c
00000080: 8b96 adbd 2c9a 313c 6fde d1bd 8bfc 5b3d
00000090: bcb4 c4bd 0ca5 413e f1af c03e a0f1 10bd
000000a0: 7600 cbbe 5a16 d5bd 3f56 543e 80b2 103e
000000b0: 3b1f 2d3d 49e2 14bd 853b 3d3e b35b f7bd
000000c0: f236 a5be 1565 c93d 93e0 973e 2f3d df3d
000000d0: 46ad 96bc c574 15be 366b 60bd 32c8 2abe
000000e0: d3cb e4bd 13f7 b13d d93e 073d 0309 ee3d
000000f0: 0cf9 d23d 57a1 093e acd4 17be 5d8c a33d
-0.33835378 -0.020160498 0.0321127 -0.017952738 -0.021253265 0.041502926 0.115534075 -0.2657523
-0.26873532 -0.15172571 -0.06476134 -0.10117086 -0.25409132 0.07522827 0.07603121 -0.09488868
0.2893284 -0.13683397 0.04735609 -0.085596316 0.064374894 -0.20140055 -0.114199355 -0.09132083
-0.109794155 0.0019966408 0.04699082 -0.15253478 -0.21342371 0.062921554 0.0990778 0.019626483
-0.084759794 0.01083998 -0.10247504 0.05370764 -0.09604785 0.18910617 0.37634233 -0.03538668
-0.3964879 -0.10404654 0.20736025 0.14130592 0.04226611 -0.036348615 0.18479736 -0.12078037
-0.32268482 0.09833733 0.29663524 0.10900342 -0.01839317 -0.14595325 -0.054789744 -0.16677931
-0.11171689 0.08689704 0.03301892 0.116228126 0.10301408 0.13440453 -0.14827222 0.079857565

exp_avg_sq f4 [64]
00000000: d3a5 0c40 9496 833c 2b65 fa3c 3f84 323c
00000010: 54b4 ca3c a588 4f3b d611 3b3e ada5 a33f
00000020: 4a6e b33f b9c2 f33e 296a 8e3d 5d3f 3e3e
00000030: b65a 9d3f cbc5 083e c99f 383d 38a5 753d
00000040: 123b cd3f 460e d73e 3d36 083c 3c5e 9e3d
00000050: 83c5 be3d 0dbe 483f 0f88 493e 7155 533e
00000060: 433a e33d 78b2 5c3c 7631 f43b ea0a 053f
00000070: 9acb 843f b7aa a13c 7788 453e 3f1e 373c
00000080: 002e a73d e28d 263c 08bd 343e 7025 603c
00000090: 05e7 cf3d e640 223f 6552 2840 fbba 013d
000000a0: cc48 4c40 2b3e 313e 82e6 2a3f 1cc9 9f3e
000000b0: 757a 843b 17c2 e13c 03a1 2c3f 951e ba3e
000000c0: cfa7 0540 bd63 553e 8fdc de3f 6e78 433e
000000d0: 3721 c43a aa90 473e 3997 683d 993e e83e
000000e0: 4e22 713e 904e cc3d 7c2e 093d 22df 803e
000000f0: b7bf 2b3e 955a 943e 6da3 db3e f12b 013e
2.197621 0.016063012 0.030565819 0.010895788 0.02474419 0.003166714 0.18268523 1.2784935
1.4018033 0.476095 0.06953842 0.18578859 1.2293308 0.13356702 0.045074258 0.059972018
1.6033652 0.42003077 0.008313713 0.077328175 0.09315016 0.78414994 0.19680808 0.20638062
0.11095097 0.013470285 0.0074521853 0.5196978 1.0374634 0.019734723 0.19290338 0.011176645
0.08163071 0.010165663 0.17650235 0.013680801 0.10151485 0.6338028 2.630029 0.03167246
3.1919432 0.17308871 0.66757977 0.31208122 0.0040429183 0.02755837 0.67433184 0.36351457
2.0883672 0.20838828 1.7411059 0.19088909 0.0014963512 0.19488779 0.056784842 0.45360258
0.23548242 0.09975922 0.033491597 0.25170237 0.16772352 0.2897536 0.4289812 0.12614419
