training_results/cartpole_boltz/ppo_dMax5.0_applyExternalonPole/seed_2024/1000000steps/model_best.pt (torch, 151403 bytes, 30 tensors)

actor.pi_net.fcs.0.weight f4 [64, 4]
0	0xbea41964	-0.32050622
1	0x3e7915ee	0.24324772
2	0xbdff7f9f	-0.12475514
3	0x3ecc0c6f	0.39853236
4	0x3efbcbb6	0.49178857
5	0x3f089849	0.5335737
6	0x3f01afb2	0.50658715
7	0xbddac05e	-0.106812224
8	0x3eb12231	0.34596398
9	0x3e5e6aee	0.21720478
10	0xbee49441	-0.4464436
11	0xbcf624ac	-0.030046783
12	0x3e7cca70	0.24686599
13	0x3f163acc	0.58683467
14	0xbe92492b	-0.28571448
15	0x3dd21788	0.102583945
16	0x3df60ff3	0.12014761
17	0xbe79e26f	-0.24402784
18	0x3e4fd1c7	0.20294867
19	0x3e2e8980	0.1704464
20	0xbf16ca22	-0.5890218
21	0x3cbc9a2c	0.023022734
22	0xbe4e4464	-0.20143276
23	0xbec0bd1a	-0.37644273
24	0xbf0d8281	-0.5527726
25	0xbf287d2f	-0.65816015
26	0xbeb68f82	-0.35656363
27	0x3cf10752	0.029422436
28	0x3df44865	0.11927871
29	0x3d98d291	0.07462037
30	0xbdb5dabe	-0.088796124
31	0x3e3f9638	0.18709648
32	0x3e56ae8a	0.20965019
33	0xbe09e32f	-0.1346557
34	0x3d85e154	0.065371186
35	0x3e912f36	0.28356332
36	0xbe1d5c6c	-0.15367287
37	0x3ebfee6c	0.3748659
38	0x3e2245da	0.15846959
39	0x3ebe0beb	0.37118468
40	0x3df9bcfa	0.121942475
41	0x3eb1861e	0.34672636
42	0x3e2d099c	0.16898197
43	0x3d4c7748	0.049918443
44	0xbf171550	-0.59016895
45	0xbd1039dd	-0.035211433
46	0x3eab3c5b	0.33444485
47	0x3e6c40c3	0.2307158
48	0xbed7b4c1	-0.42130092
49	0xbd7dfc84	-0.062008396
50	0x3f0a8e64	0.5412352
51	0x3e2054d9	0.15657367
52	0xbd685073	-0.056717347
53	0xbde277e3	-0.11058023
54	0xbebc7c4e	-0.36813587
55	0xbe44dc8a	-0.19224754
56	0x3f22786d	0.63465005
57	0x3eef3628	0.46721005
58	0xbe866593	-0.2624937
59	0x3ca5836c	0.020204268
60	0x3e9a38f3	0.30121574
61	0x3e182b5c	0.1486029
62	0x3ead2925	0.33820453
63	0x3d579eee	0.0526418
64	0x3f0ca62c	0.5494106
65	0x3eb7f60d	0.3592991
66	0x3d3c9476	0.04604002
67	0xbeffc5a4	-0.49955475
68	0xbdecb093	-0.11557116
69	0xbf2b3fd3	-0.66894263
70	0x3e9f0cd2	0.3106447
71	0x3e2216e9	0.15829052
72	0xbf07dad5	-0.53068286
73	0xbe00a96e	-0.12564632
74	0xbdbac7fb	-0.091201745
75	0xbce33a7a	-0.027737845
76	0xbe40e23f	-0.18836306
77	0xbefbf9cd	-0.4921402
78	0xbed1808b	-0.40918383
79	0x3e63853a	0.2221879
80	0xbeab5224	-0.33461106
81	0xbb53154f	-0.0032208746
82	0x3eee04f5	0.46488157
83	0xbee44373	-0.4458271
84	0xbf50e926	-0.81605756
85	0xbed429b4	-0.41438067
86	0x3e7864af	0.24257158
87	0x3eef6c52	0.4676233
88	0x3e228c45	0.15873821
89	0x3d8c1cf4	0.0684146
90	0xbe52d763	-0.20589976
91	0x3ecc48b0	0.39899206
92	0x3afc3dfd	0.0019244548
93	0xbec8375b	-0.39104733
94	0x3ec8064a	0.39067298
95	0x3e9a484d	0.30133286
96	0xbea174c5	-0.315344
97	0x3efe28fc	0.49640644
98	0x3e5a02cb	0.21290128
99	0x3df7c284	0.12097648
100	0x3eada468	0.33914495
101	0xbe8278bf	-0.25482747
102	0xbef56c8a	-0.4793437
103	0x3ebe94a4	0.3722278
104	0xbdd68ef9	-0.104764886
105	0xbe80b6e6	-0.2513954
106	0xbeca7ba2	-0.3954745
107	0xbca945b7	-0.020663125
108	0x3d652731	0.05594558
109	0x3e9c894d	0.30573502
110	0x3e8b62ac	0.27223718
111	0x3eb92fb4	0.36169207
112	0x3de23b54	0.11046472
113	0xbf306626	-0.68905866
114	0x3efecd52	0.49766022
115	0x3ea7e393	0.32790813
116	0xbe07e714	-0.13271743
117	0xbe0bd192	-0.13654163
118	0x3ef64f82	0.48107535
119	0xbebe0e23	-0.3712016
120	0x3dcf1489	0.10111339
121	0xbedd6d0d	-0.43247262
122	0x3eb6965c	0.3566159
123	0xbed559f0	-0.4167018
124	0xbe1c2122	-0.15247014
125	0x3eb82808	0.3596804
126	0xbefd5281	-0.49477008
127	0xbbdd85ad	-0.00676032
128	0xbd352ebf	-0.044234034
129	0x3f23edb0	0.6403456
130	0xbe838064	-0.25683892
131	0x3dc7dadc	0.09758541
132	0xbeb7b625	-0.35881153
133	0xbec2b490	-0.38028383
134	0x3e2a7e7c	0.16649812
135	0xbd8d81e7	-0.069095425
136	0x3ed677e0	0.41888332
137	0x3f155a6b	0.5834109
138	0xbce95b84	-0.02848602
139	0x3dd3492d	0.103166915
140	0x3eafc086	0.3432657
141	0x3f268b36	0.6505617
142	0xbe922956	-0.28547162
143	0xbe03eba4	-0.12882859
144	0xbf42f11e	-0.76149166
145	0x3d88d60a	0.0668145
146	0x3ecbafee	0.3978266
147	0x3d8bf2c6	0.06833415
148	0x3e816b4d	0.25277176
149	0x3f25cf12	0.6476909
150	0xbc9d54eb	-0.019205531
151	0xbe609b81	-0.2193432
152	0x3d8011f1	0.06253422
153	0xbd8a2282	-0.06744863
154	0x3e59acad	0.21257277
155	0xbeccc45d	-0.39993563
156	0x3eaeb45c	0.34121978
157	0x3e13c14c	0.14429206
158	0x3edd46af	0.4321799
159	0x3c93ff58	0.018066093
160	0x3c84521f	0.01615244
161	0xbbd29f49	-0.0064276797
162	0x3e2af542	0.16695121
163	0x3e69f4d7	0.22847305
164	0xbeb7c97c	-0.35895908
165	0xbe6a6edc	-0.22893852
166	0x3e84c7c8	0.2593367
167	0x3ea45bee	0.32101387
168	0x3f07010f	0.5273599
169	0xbe90b82e	-0.28265518
170	0xbe463c0b	-0.19358842
171	0xbdfe3c0a	-0.12413795
172	0x3f03d055	0.51489764
173	0x3e42e1ca	0.19031444
174	0xbc36a1d5	-0.011146982
175	0xbe322f4f	-0.1740086
176	0xbd11aa68	-0.035562903
177	0xbe892ddc	-0.267928
178	0x3d34f501	0.044178966
179	0xbe889439	-0.26675585
180	0x3ca10cee	0.019659486
181	0x3effd120	0.49964237
182	0xbec9af0a	-0.39391357
183	0x3e34f6b9	0.17672242
184	0x3f34badc	0.70597625
185	0x3f134003	0.5751955
186	0xbea00383	-0.3125268
187	0xbebbd2c5	-0.36684242
188	0xbe83bc62	-0.25729662
189	0xbf13b733	-0.57701415
190	0x3eaf3382	0.34218985
191	0x3ee1c117	0.44092628
192	0x3f3980db	0.7246224
193	0x3e883d26	0.26609153
194	0xbecd4021	-0.4008799
195	0x3ed26aaf	0.41097018
196	0x3ef07282	0.46962363
197	0x3e779f44	0.24181849
198	0xbc1f2aaa	-0.009714762
199	0xbeb0519c	-0.34437263
200	0xbe5e49d1	-0.21707846
201	0xbe856799	-0.260556
202	0xbea1618d	-0.31519738
203	0xbe2af110	-0.1669352
204	0x3f23bbf0	0.63958645
205	0xbdc0c166	-0.09411888
206	0xbe8da2a0	-0.27663136
207	0x3ad4f8ab	0.0016248425
208	0xbea690ac	-0.3253225
209	0xbb9a1bc3	-0.0047030165
210	0x3ee5cff8	0.4488523
211	0xbd733651	-0.059377972
212	0x3e6329a8	0.2218386
213	0x3ef0257d	0.469036
214	0xbedbfc07	-0.4296572
215	0x3e84124a	0.25795203
216	0xbdbab853	-0.09117188
217	0x3f1e990b	0.61952275
218	0x3e433e57	0.1906675
219	0x3d3f8f54	0.046767548
220	0xbe64546e	-0.22297832
221	0xbf15af3b	-0.58470505
222	0x3dd68e54	0.10476366
223	0xbbaf8c40	-0.0053572953
224	0x3f213bf4	0.62982106
225	0x3e66ce45	0.22539623
226	0xbf02d186	-0.5110096
227	0x3ebcc48f	0.36868712
228	0x3eba2b49	0.3636115
229	0x3e52c843	0.20584206
230	0x3ebb1273	0.36537513
231	0xbeb8a502	-0.3606339
232	0xbecb3bf9	-0.39694193
233	0xbe641483	-0.2227345
234	0x3ed40be7	0.4141533
235	0xbe5a6e2e	-0.21331093
236	0x3d91f132	0.071260825
237	0xbf088d6d	-0.533408
238	0xbeaa0f74	-0.33214915
239	0x3c9b8245	0.018983016
240	0x3e929675	0.28630415
241	0x3eb20194	0.3476683
242	0x3f13daf4	0.5775597
243	0xbe50765a	-0.20357648
244	0x3ef896c4	0.48552525
245	0xbef5f7b1	-0.48040536
246	0xbec380aa	-0.381841
247	0xbd8f5358	-0.069983184
248	0xbeacd368	-0.3375504
249	0xbf3d79fa	-0.74014246
250	0x3e7d70fb	0.2475013
251	0x3e2312e7	0.1592518
252	0xbef4561e	-0.47721952
253	0x3c62fb1c	0.013853814
254	0x3d121963	0.035668742
255	0xbea99c59	-0.33127096

actor.pi_net.fcs.0.bias f4 [64]
0	0xbe1bd8b8	-0.1521939
1	0xbeccc559	-0.39994314
2	0x3e9fb599	0.31193236
3	0xbe1245cc	-0.14284438
4	0xbe87cd3c	-0.2652377
5	0xbec5e703	-0.3865281
6	0x3c64ea10	0.0139718205
7	0xbd04698e	-0.032327227
8	0xbc6b16d2	-0.0143487025
9	0xbe98b97d	-0.29829016
10	0xbe39d9d0	-0.18149495
11	0xbe99d8ea	-0.30048305
12	0x3d4cc63b	0.049993735
13	0x3e9a2a9c	0.30110633
14	0xbe09295b	-0.13394682
15	0xbcf805ae	-0.030276146
16	0x3e4f13d0	0.20222402
17	0xbdee91ae	-0.1164888
18	0xbd14d15d	-0.036332477
19	0x3e7f4fc6	0.24932775
20	0x3eccf820	0.40033054
21	0xbe448b5f	-0.19193791
22	0x3e21eb41	0.15812398
23	0xbe8e00b5	-0.27734914
24	0xbd3ed475	-0.046589334
25	0x3eaf2e9d	0.3421525
26	0xbcee169f	-0.029063521
27	0xbe88e272	-0.26735264
28	0xbe47af28	-0.1950041
29	0xbe371d8b	-0.17882363
30	0x3ebd8568	0.37015843
31	0x3e16e42d	0.1473548
32	0x3bea10d5	0.00714312
33	0x3eb3d81f	0.35125825
34	0xbe0e216d	-0.13879938
35	0xbe22b425	-0.15889032
36	0x3dac5620	0.084148645
37	0xbd5246f9	-0.051337216
38	0x3ca19f2c	0.01972922
39	0xbe9116a8	-0.28337598
40	0xbe1e8995	-0.15482171
41	0x3e6c1b14	0.23057204
42	0x3dd2c0d1	0.10290683
43	0xbd8ea7bf	-0.06965589
44	0xbe379a2c	-0.17929906
45	0xbe6f643d	-0.23378082
46	0x3e77c106	0.24194726
47	0xbeae8fc3	-0.34094056
48	0x3cfca994	0.03084258
49	0x3e89f749	0.26946476
50	0x3e06d2ad	0.13166304
51	0x3e23e85c	0.16006607
52	0x3eb9cf1d	0.36290827
53	0x3bc52a36	0.006016995
54	0xbea46014	-0.32104552
55	0xbd2b1bbf	-0.041774508
56	0xbe288b4b	-0.16459386
57	0xbe40f2a0	-0.18842554
58	0x3e97fc2b	0.29684576
59	0x3e1b4960	0.15164709
60	0xbd51eb0c	-0.05124955
61	0x3e2bddad	0.16783781
62	0xbdcf062e	-0.101086006
63	0x3ecd0587	0.4004328

actor.pi_net.fcs.1.weight f4 [64, 64]
0	0xbdc50474	-0.0961999
1	0x3c86d4e0	0.016458929
2	0x3d3c6177	0.045991387
3	0xbe13d985	-0.14438446
4	0xbda971fd	-0.08273695
5	0x3dd845fa	0.10560222
6	0x3d11c7f1	0.03559107
7	0xbd7aa08e	-0.061188273
8	0x3cab977d	0.020946259
9	0xbcad9291	-0.021188052
10	0xbca96921	-0.020680012
11	0x3dad0a28	0.08449203
12	0x3d5e3fa5	0.054259915
13	0xbb07ce69	-0.0020722395
14	0xbd2fe049	-0.042938504
15	0xbd38b891	-0.04509789
16	0x3e00c16b	0.12573783
17	0xbd716ac6	-0.058939718
18	0x3e268565	0.16261823
19	0x3d58edce	0.052961163
20	0x3dd8ad01	0.10579873
21	0x3de912f4	0.11380568
22	0x3d776663	0.060400378
23	0x3d32550b	0.043538135
24	0xbcaa9d87	-0.020827068
25	0xbd37040f	-0.044681605
26	0x3df3a59b	0.11896821
27	0x3d1aac23	0.03776182
28	0xbd5ec60c	-0.05438809
29	0x3dc924d2	0.09821476
30	0x3e5c5fbb	0.21520893
31	0xbc7c1180	-0.015385032
32	0xbe60afd0	-0.21942067
33	0x3db518fb	0.08842655
34	0xbe17d458	-0.14827096
35	0x3b9a15fa	0.004702327
36	0xbc26e9d7	-0.010187588
37	0xbd19cf79	-0.037551377
38	0x3e1f434b	0.15553014
39	0x3daaf950	0.08348334
40	0xbd6b2975	-0.057412583
41	0x3d9fce1c	0.07802984
42	0xbdb596c6	-0.088666484
43	0x3dc45571	0.09586609
44	0x3e0e8dc6	0.1392127
45	0xbe42dbe0	-0.19029188
46	0xbe094596	-0.13405451
47	0x3d7dc0d1	0.061951462
48	0xbd7c023a	-0.06152556
49	0x3dd791b8	0.105258405
50	0x3d7394b1	0.059467975
51	0xbc51352a	-0.012769023
52	0x3dec4e39	0.11538357
53	0xbe73e1b2	-0.23816565
54	0xbcee18e7	-0.029064609
55	0x3e3fadee	0.18718693
56	0xbe8f2fbb	-0.27966103
57	0xbd4d6e61	-0.050154094
58	0x3e6367ee	0.22207615
59	0xbdf32abc	-0.11873385
60	0x3dcc284d	0.09968624
61	0x3d8ff513	0.07029166
62	0x3dbc237a	0.09186454
63	0x3dd324eb	0.10309776
64	0x3dc03ad5	0.09386221
65	0xbd1e859e	-0.038701646
66	0xbd8c8a06	-0.068622634
67	0x3c328551	0.010896043
68	0x3d248824	0.040168896
69	0x3d72dee7	0.059294607
70	0x3dfb5907	0.1227284
71	0x3d89ba15	0.067249455
72	0x3d7d3ef9	0.061827634
73	0x3db7aa0f	0.08967983
74	0x3daafe9f	0.08349346
75	0x3e6f71ed	0.23383303
76	0x3e0d9ec9	0.13830103
77	0xbd3f3976	-0.04668566
78	0xbe73992f	-0.23788904
79	0xbd04c461	-0.032413844
80	0xbdb3efff	-0.0878601
81	0x3d605afa	0.054774262
82	0xbdc59d0e	-0.096490964
83	0xbc4bc142	-0.012436213
84	0xbcf72763	-0.030170148
85	0x3e926004	0.2858888
86	0x3cbfa2d2	0.023393068
87	0x3e6dd915	0.23227341
88	0x3e2486f2	0.16067103
89	0xbda5aed6	-0.08089988
90	0x3cc992fe	0.024606224
91	0xbd3d9bfe	-0.046291344
92	0x3e1c2ecd	0.15252228
93	0x3c90ebc9	0.017690556
94	0xbdca3100	-0.09872627
95	0xbe036938	-0.12833107
96	0xbe16b9c9	-0.14719309
97	0xbd5016ec	-0.05080311
98	0xbbc7a622	-0.0060928026
99	0xbe1a12a0	-0.15046167
100	0x3db2e4d9	0.087350555
101	0x3d588f84	0.052871242
102	0xbd6975df	-0.056997176
103	0x3d755f8f	0.059905585
104	0xbd14f0b2	-0.036362357
105	0x3e06df02	0.13171008
106	0xbd76d2fa	-0.060259797
107	0xbce8b1b7	-0.028405054
108	0xbdebe468	-0.115181744
109	0x3d1f3ede	0.038878314
110	0xbe81270c	-0.25225103
111	0x3e3f2091	0.18664767
112	0xbddd5135	-0.10806505
113	0xbe282679	-0.16420926
114	0xbd48e2be	-0.049044363
115	0xbe5d524c	-0.21613425
116	0xbdb15e21	-0.08660532
117	0xbd930e63	-0.071804784
118	0xbb15f3a9	-0.0022880828
119	0x3e3e8bea	0.1860806
120	0xbbc22eb0	-0.0059259757
121	0x3ca10ccf	0.019659428
122	0xbc8c5350	-0.01712957
123	0x3dd73384	0.10507873
124	0xbd6ca54b	-0.057774823
125	0xbd86c80a	-0.06581123
126	0x3e9a4e1c	0.30137718
127	0xbe09b0b3	-0.13446312
128	0xbda78e35	-0.08181421
129	0xbce73e4c	-0.028227948
130	0xbd98e1df	-0.074649565
131	0xbd3f52b2	-0.046709724
132	0xbd43c7a0	-0.0477978
133	0x3dcefbd5	0.10106627
134	0xbd6963ae	-0.056979828
135	0xbda2f535	-0.07956926
136	0x3c4db785	0.0125559615
137	0xbddba2f9	-0.10724444
138	0xbc32eab0	-0.010920212
139	0x3dae2017	0.085022144
140	0x3df72d8d	0.12069235
141	0x3c4c61c0	0.012474477
142	0xbe7f818f	-0.24951766
143	0xbd257cc9	-0.040402208
144	0xbc8b59e0	-0.01701063
145	0x3cab14f3	0.020884013
146	0x3bca3210	0.0061705187
147	0xbd93560e	-0.07194148
148	0x3e067bbb	0.13133137
149	0x3dde25c8	0.1084705
150	0xbd3834a3	-0.044972073
151	0x3d9c40cc	0.076295465
152	0xbd407fc2	-0.04699684
153	0x3d0b0865	0.033943553
154	0xbcfec99a	-0.03110199
155	0xbd22965b	-0.03969417
156	0x3e03cd00	0.1287117
157	0x3d9fafac	0.077971786
158	0x3df3823e	0.11890076
159	0xbe0e6363	-0.139051
160	0xbdfbf8af	-0.12303292
161	0x3df99028	0.12185699
162	0xbbe72fa0	-0.007055238
163	0xbe263178	-0.16229808
164	0x3e032903	0.12808613
165	0xbd9c09e7	-0.07619076
166	0x3dec1255	0.11526934
167	0xbd9fe840	-0.0780797
168	0x3d2f86b5	0.042853076
169	0x3dcd0dcd	0.10012398
170	0xbdf5c843	-0.120010875
171	0xbdf0e750	-0.11762869
172	0x3cbe6c49	0.023244994
173	0x3d4e4616	0.050359808
174	0xbe44220e	-0.19153616
175	0x3e043853	0.12912111
176	0xbd79941d	-0.060932267
177	0x3dacbe5d	0.084347464
178	0x3d595c66	0.053066634
179	0x3cb5b5c1	0.022181394
180	0x3dddcc95	0.108300366
181	0xbe524876	-0.20535454
182	0xbc8ffa63	-0.017575448
183	0x3e51902a	0.2046515
184	0x3bb2ef38	0.005460646
185	0x3ddae040	0.106873035
186	0x3e02728f	0.12739013
187	0x3cb88a24	0.022526808
188	0x3e0062a1	0.12537624
189	0x3d26c29d	0.04071294
190	0x3e4c9f22	0.1998258
191	0xbda5a8f3	-0.08088865
192	0xbe0e8c73	-0.13920765
193	0x3d466b25	0.048442025
194	0x3e3b855c	0.18312591
195	0xbd0e92a3	-0.034807812
196	0x3c6c27d1	0.01441379
197	0x3de3fc63	0.11132123
198	0xbd40a99b	-0.04703675
199	0xbd05bbc5	-0.032649774
200	0xbb8cdb8a	-0.004298632
201	0xbe1ea241	-0.15491582
202	0xbb4cb7e1	-0.003123753
203	0xbd71c4c4	-0.05902554
204	0xbe4a1b67	-0.19737016
205	0x3d51ebf7	0.051250424
206	0x3df2ffa5	0.118651666
207	0x3d778a2b	0.0604345
208	0x3e4208a1	0.18948604
209	0xbe1b3c5b	-0.15159743
210	0xbc08bbd4	-0.008345563
211	0xbcba7ae4	-0.022763677
212	0x3ddbcc13	0.107322834
213	0xbe53f662	-0.20699456
214	0xbd199e76	-0.037504636
215	0xbd010bf4	-0.03150554
216	0xbe313ed0	-0.17309117
217	0x3bb870ad	0.0056286664
218	0x3d5a9905	0.053368587
219	0xbdf20b51	-0.11818565
220	0xbd8ec252	-0.069706574
221	0xbe396db2	-0.18108252
222	0xbdbcc082	-0.092164055
223	0x3e1f069f	0.1552987
224	0x3da7d5e1	0.08195091
225	0xbda30720	-0.07960343
226	0x3d37934b	0.044818204
227	0x3dc1ebf8	0.094688356
228	0xbe1f8b45	-0.15580471
229	0xbcc73972	-0.024319384
230	0xbcdd8209	-0.027039545
231	0xbdeac5a0	-0.11463475
232	0xbd707d91	-0.0587135
233	0x3dae8ac3	0.085225604
234	0x3ddf9aad	0.10918174
235	0xbd582468	-0.052769095
236	0xbdd0fabc	-0.10204074
237	0x3df348ab	0.11879095
238	0x3e898b27	0.26863977
239	0xbc57e40c	-0.013176929
240	0xbc78fea5	-0.015197431
241	0x3ddabd0c	0.10680589
242	0x3df767ea	0.12080367
243	0x3da35f65	0.079771794
244	0x3db70ce7	0.08938008
245	0x3d0fb1d7	0.03508171
246	0xbd98efdc	-0.074676245
247	0xbe49f70e	-0.1972315
248	0x3da85be5	0.082206525
249	0x3cb91b26	0.022595953
250	0x3d8ca610	0.068676114
251	0x3d4265a6	0.04746022
252	0xbd363041	-0.044479612
253	0x3d80df1d	0.062925555
254	0xbe8afadd	-0.27144518
255	0xbd698620	-0.057012677

actor.pi_net.fcs.1.bias f4 [64]
0	0xbd41d876	-0.047325574
1	0xbe0ccff3	-0.13751201
2	0xbd3026fa	-0.04300592
3	0xbdaaeec0	-0.08346319
4	0xbd597a15	-0.053094942
5	0x3d1f04d6	0.03882297
6	0x3d8391fe	0.0642433
7	0x3d2e9626	0.04262366
8	0xbdceb7f7	-0.10093682
9	0x3d836dd9	0.06417436
10	0x3dbdc6eb	0.09266456
11	0x3d279c2c	0.04092042
12	0x3d944591	0.07239831
13	0x3d427112	0.047471114
14	0xbd434d2f	-0.04768103
15	0xbd93d227	-0.07217818
16	0xbdaf1c71	-0.08550347
17	0xbe03f5f2	-0.1288679
18	0x3dcdb7b2	0.10044803
19	0xbcd52ccb	-0.026022336
20	0x3df98152	0.12182869
21	0x3d7682a1	0.06018317
22	0x3db6b65b	0.089215
23	0x3d1e666b	0.038671892
24	0x3dd585ef	0.104259364
25	0x3dc8eb1f	0.09810471
26	0xbd38283a	-0.044960238
27	0x3d2c55a0	0.042073846
28	0x3dbe9ba7	0.09307032
29	0x3d5b3bfb	0.053524
30	0xbcd8b8d2	-0.026455317
31	0xbdcb56d0	-0.099286675
32	0xbccd88d7	-0.025089664
33	0x3e15bb4b	0.14622228
34	0x3d17d24a	0.03706578
35	0xbca6ddbf	-0.020369409
36	0xbdba550b	-0.09098252
37	0x3d928b4d	0.07155476
38	0x3d787d0a	0.06066612
39	0xbdf876d5	-0.121320404
40	0xbdf0846d	-0.11744008
41	0xbd7ccbe8	-0.061717898
42	0x3cda9f90	0.026687413
43	0xbdce2cd5	-0.10067145
44	0xbd3974ce	-0.04527741
45	0x3e02951c	0.12752193
46	0xbd5b57fb	-0.0535507
47	0x3dd1e1fd	0.10248182
48	0xbd6a55df	-0.0572108
49	0x3c19bd5c	0.009383526
50	0x3dd8ffa5	0.10595635
51	0xba654dab	-0.000874723
52	0xbb7b11a9	-0.0038310087
53	0xbd93f0e0	-0.07223678
54	0xbd913a42	-0.0709119
55	0x3de492a7	0.11160784
56	0x3d47a760	0.048743606
57	0xbd87de19	-0.06634159
58	0xbd368cec	-0.044567987
59	0x3d154ac5	0.03644826
60	0xbdeace2d	-0.11465106
61	0x3dde9bef	0.10869586
62	0x3cbeed1d	0.023306424
63	0x3dd8fbed	0.10594926

actor.pi_net.fcs.2.weight f4 [1, 64]
0	0x3d937600	0.07200241
1	0x3d963f0d	0.07336245
2	0x3db862f5	0.090032496
3	0xbde3606c	-0.111023754
4	0xbd138003	-0.036010753
5	0x3d0393ec	0.03212349
6	0x3d97e487	0.07416635
7	0xba818c2e	-0.0009883696
8	0x3a00d40c	0.000491441
9	0xbc9f5984	-0.019451864
10	0xbc9136ca	-0.01772632
11	0x3ae4f5e0	0.0017468296
12	0xbc871d05	-0.01649333
13	0xbc38eec7	-0.011287398
14	0xbd1529b9	-0.036416743
15	0xbbf1b13f	-0.0073758657
16	0xbd137ca1	-0.036007527
17	0xbbf9b9d6	-0.0076210303
18	0xbbeace3b	-0.007165698
19	0xbccf643a	-0.025316346
20	0x3d53d0d1	0.051712815
21	0xbd9badda	-0.07601519
22	0xbe2e844d	-0.17042656
23	0x3a8cbf65	0.0010738192
24	0x3b17a16b	0.0023136984
25	0x3ab77236	0.001399583
26	0xbc00af0d	-0.007854235
27	0xbde00905	-0.1093922
28	0xbd9b632d	-0.07587276
29	0xbd5d605b	-0.05404697
30	0xbd4f7073	-0.05064435
31	0xbc48f957	-0.0122664785
32	0xbdab2c95	-0.08358113
33	0xbcf47c33	-0.029844379
34	0x3b6cc268	0.0036126617
35	0x3dbe2377	0.09284108
36	0x3e19a266	0.15003356
37	0x3daefe34	0.08544579
38	0x3dc2210e	0.09478961
39	0x3b7adc06	0.0038278117
40	0xbd9c2278	-0.07623762
41	0xbbd5ec2f	-0.0065283994
42	0xbcd0ebef	-0.025503127
43	0xba881e92	-0.0010385087
44	0xbd122ff2	-0.035690255
45	0x3bfa5744	0.0076397974
46	0xbcfc5547	-0.030802382
47	0xbbb707fb	-0.005585668
48	0xbbfb12bf	-0.007662147
49	0x3ca23568	0.019800857
50	0xbd04702c	-0.032333538
51	0xbb091232	-0.0020915386
52	0xbc6a5016	-0.014301321
53	0x3d10eaff	0.03538036
54	0xbdb06072	-0.086121455
55	0x3cd0d5b8	0.025492534
56	0xbc834d04	-0.016027935
57	0x3c24b935	0.010053922
58	0xbc119554	-0.0088857
59	0xbd4b023b	-0.049562674
60	0x3ca8706d	0.020561421
61	0x3cfc479c	0.030795865
62	0x3c9b8bc5	0.018987546
63	0x3d8d79e6	0.06908016

critic.v_net.fcs.0.weight f4 [64, 4]
0	0xc0b24c78	-5.5718346
1	0xc0062455	-2.0959675
2	0xbf29b468	-0.66290903
3	0xbcee4387	-0.029084934
4	0x3e588431	0.21144177
5	0x3f08385e	0.5321101
6	0xc01c1f70	-2.4394188
7	0x3e7fb098	0.24969709
8	0xbfa37a4a	-1.2771695
9	0x3da2e7e3	0.07954385
10	0x3fa09a98	1.2547178
11	0x3eade917	0.33966896
12	0xbf8f7fab	-1.1210836
13	0xbf51a956	-0.8189901
14	0xbf78f5b1	-0.97249895
15	0xbf2fc982	-0.6866685
16	0xc06ec310	-3.7306557
17	0xc0317cc0	-2.7732391
18	0x3e419fa2	0.18908551
19	0x3dbbc05e	0.091675505
20	0xbe7a45f3	-0.24440746
21	0xbf573884	-0.8407061
22	0x3f68fc2a	0.9100977
23	0xbf70813e	-0.9394721
24	0xbfdacb27	-1.7093247
25	0xbfddb8f2	-1.7322066
26	0x3e832a41	0.25618175
27	0x3f2f2cc3	0.68427676
28	0x3f97eb1c	1.1868625
29	0xbe668ae5	-0.22513922
30	0xbfe40af1	-1.7815839
31	0x40148ce4	2.3210993
32	0xbee896c2	-0.4542752
33	0xbf0a7010	-0.54077244
34	0x3f61647b	0.88043946
35	0x3efc74ae	0.4930777
36	0x3ec12d01	0.37729648
37	0x3f268697	0.6504912
38	0xbff8bcda	-1.9432633
39	0x401e945d	2.4778054
40	0xc080f8c8	-4.030369
41	0xc020f1a0	-2.5147476
42	0xbfbfe870	-1.4992809
43	0x3f1bb190	0.60817814
44	0xbf42d6e0	-0.76109123
45	0xbf50fa9c	-0.816324
46	0x3fbff505	1.4996649
47	0x3ef14a16	0.47126836
48	0x3e33b65d	0.17550035
49	0x3ecd58fd	0.40106955
50	0x3f9ab18f	1.2085437
51	0x3e9cce5a	0.30626184
52	0xbf445124	-0.7668631
53	0xbf6faff3	-0.9362785
54	0xc026bf27	-2.605417
55	0x3ed6484b	0.4185203
56	0xbdab2b41	-0.083578594
57	0x3f4e87a0	0.806757
58	0x3ed6f3de	0.4198293
59	0x3e66d005	0.2254029
60	0xbd0bc884	-0.034126773
61	0xbf3bdad1	-0.7338076
62	0x3fa11250	1.2583714
63	0x3e6ae0fa	0.22937384
64	0xbfc99948	-1.5749903
65	0xbf726dc3	-0.94698733
66	0xbf805920	-1.0027199
67	0xbe9d5cf1	-0.3073497
68	0x3f1aa2f6	0.6040491
69	0x3fc2bf23	1.521458
70	0xc057a6e3	-3.369561
71	0x3f08718e	0.5329827
72	0x3f8fba74	1.1228776
73	0x3f73cf8a	0.95238554
74	0xbf9913e3	-1.1959194
75	0xbe0b6d7d	-0.13615985
76	0x3fe5ae88	1.7943888
77	0xbf335f1e	-0.7006701
78	0x3fe8a1e0	1.81744
79	0x3d926b15	0.071493305
80	0xc024897d	-2.5708916
81	0xbeb098ce	-0.3449158
82	0xc011806f	-2.273464
83	0x3e6cdf89	0.23132147
84	0x4009d47a	2.1535935
85	0xbf4ad27e	-0.79227436
86	0xbfad0406	-1.3516853
87	0xbe27473c	-0.16335768
88	0xbf48b637	-0.7840304
89	0xbe94c399	-0.2905548
90	0xc000b243	-2.0108802
91	0x3e58e621	0.21181537
92	0x3f1e6cd8	0.6188483
93	0x3f2c5793	0.6732113
94	0xc007a76a	-2.1195931
95	0x40187d43	2.3826454
96	0xbfec11a3	-1.8442882
97	0x3e9b08bb	0.30280098
98	0xbf86b582	-1.0524142
99	0xbf0b6f93	-0.54467124
100	0x3fa2c28d	1.2715622
101	0x3f5d44fc	0.86433387
102	0xbf64e5b1	-0.8941298
103	0xbf1226d4	-0.57090497
104	0x3f5e0680	0.8672867
105	0x3f74dc3b	0.95648545
106	0xbf54da0a	-0.831452
107	0xbe93afa7	-0.2884495
108	0xbfe1c43c	-1.7638011
109	0xbf0b67f7	-0.5445551
110	0xbefb041c	-0.49026573
111	0xbf496739	-0.7867313
112	0xbe746d89	-0.2386991
113	0xbf1af557	-0.6053061
114	0x3f0acec5	0.54221755
115	0x3f23c3bc	0.6397054
116	0xc04b9422	-3.1809163
117	0xbfe754da	-1.807277
118	0xc0053485	-2.0813305
119	0xbe37c937	-0.17947851
120	0xc0577607	-3.3665788
121	0x3f3ff75f	0.74986833
122	0xbfe347f9	-1.7756339
123	0xbeae42b5	-0.34035268
124	0xbfd8737f	-1.6910247
125	0x3f941e67	1.1571778
126	0x3f9a1774	1.2038407
127	0x3d835928	0.064134896
128	0x3f250630	0.64462566
129	0x40099ede	2.1503215
130	0xc00ed05d	-2.2314675
131	0x3e327564	0.17427593
132	0x3fe47d38	1.7850714
133	0x3db7ba90	0.08971131
134	0xbfc7682e	-1.5578668
135	0xbe8d8ebb	-0.27647957
136	0x3ca19baf	0.019727556
137	0x3f5794e4	0.84211564
138	0x3fc10797	1.5080441
139	0xbfa3dcd3	-1.2801765
140	0x3c86d95b	0.016461065
141	0x3e61f616	0.2206653
142	0xbf9679f1	-1.1755964
143	0xbe8693a4	-0.26284516
144	0xbff9a4d7	-1.950343
145	0xbfb102db	-1.3828996
146	0x3f5e8624	0.8692343
147	0x3e28e918	0.16495168
148	0xbfedeaed	-1.8587319
149	0xbfc5e24f	-1.5459689
150	0x3e69e2fe	0.22840497
151	0x3f1f33e4	0.62188554
152	0xbecb2820	-0.3967905
153	0xc0531b33	-3.298535
154	0xbed9c596	-0.4253356
155	0xbe71c2b2	-0.23609427
156	0x3f377550	0.7166338
157	0x3ff323d2	1.8995306
158	0xbf14f771	-0.58190066
159	0xbee00c01	-0.43759158
160	0xbf9ae840	-1.2102127
161	0xbf095a93	-0.5365383
162	0x3fa22ec5	1.2670523
163	0x3ea4e370	0.3220477
164	0x3f8e70d1	1.1128179
165	0x3f416db9	0.7555805
166	0xbf6fa5e7	-0.9361252
167	0xbf2396f0	-0.6390219
168	0xbf212a1b	-0.6295487
169	0xbe9972ea	-0.29970485
170	0xc0188a05	-2.383424
171	0x3fad6e2f	1.354925
172	0x3f0dcb2e	0.5538815
173	0x3d96ebfe	0.07369231
174	0xc02eb8d1	-2.7300303
175	0xbf3f71be	-0.7478293
176	0x3d721460	0.059101462
177	0xbf6471fc	-0.89236426
178	0x3f86d3fa	1.053344
179	0x3eb148f5	0.34625974
180	0xbf2d9fad	-0.6782177
181	0xbf857a45	-1.0427939
182	0x4006c485	2.1057446
183	0xbe95e510	-0.29276323
184	0xbfd3e538	-1.6554327
185	0xc006ec1b	-2.1081607
186	0x40486af0	3.131527
187	0xbefc031f	-0.4922113
188	0xc0019142	-2.0244908
189	0x3fadcefe	1.3578794
190	0x3f74d517	0.9563765
191	0x3e542574	0.20717412
192	0xbf472748	-0.77794313
193	0x40216df3	2.5223358
194	0x3ea63d45	0.3246862
195	0x3ed99c18	0.42501903
196	0xbfd5988a	-1.6687176
197	0xbed25f47	-0.41088316
198	0x3fe0c5b4	1.7560334
199	0x3e790e87	0.24321948
200	0xbe389d40	-0.18028736
201	0xc0075e9c	-2.1151495
202	0xbf66ef56	-0.9020895
203	0xbd3f31a9	-0.04667822
204	0xbf22103a	-0.6330601
205	0xbf52a902	-0.82289135
206	0x401e516c	2.4737196
207	0xbea17bba	-0.31539708
208	0xc043b6e8	-3.0580387
209	0xbebebe64	-0.37254632
210	0xbeb985b8	-0.36234832
211	0x3eaa53b2	0.3326698
212	0x406174e5	3.5227597
213	0xbfd27a6d	-1.6443611
214	0x3e672482	0.2257252
215	0xbe8bae66	-0.27281493
216	0x403965a7	2.8968294
217	0x402b4364	2.6759882
218	0xbd9112fe	-0.070837006
219	0xbecd30e7	-0.40076372
220	0x3e835d4c	0.25657117
221	0x3ec69102	0.38782507
222	0xbfdb376d	-1.712629
223	0x3de57554	0.11204019
224	0x3f7c2467	0.98493046
225	0x3e9da56d	0.30790272
226	0xbf59b097	-0.8503508
227	0xbe6e73e9	-0.23286404
228	0xbf610835	-0.8790315
229	0x4010366e	2.2533221
230	0x3f86c083	1.05275
231	0xb8690cb0	-5.5563345e-05
232	0x3f9430c3	1.1577381
233	0x3fef84a7	1.8712357
234	0xbf2ddd70	-0.6791601
235	0xbef3a333	-0.4758545
236	0xbfa818a9	-1.3132526
237	0xbe920314	-0.28517973
238	0x3f900987	1.1252908
239	0x3f1d665c	0.61484313
240	0x3fc7de2f	1.561468
241	0x3efd8156	0.49512738
242	0xbf39c233	-0.7256195
243	0xbf082a1d	-0.5318926
244	0xbd17f9dd	-0.037103523
245	0xbf9dd2cd	-1.2329956
246	0x3f203991	0.6258784
247	0x3f09e505	0.5386508
248	0xbf4f5b0f	-0.8099832
249	0xbf0b09f6	-0.54312074
250	0xbefcdc42	-0.49386793
251	0xbf31e300	-0.69487
252	0xbf7e29b9	-0.99282414
253	0xbf4aa90c	-0.79164195
254	0x3f8a42da	1.0801651
255	0x3f0e27e5	0.55529624

critic.v_net.fcs.0.bias f4 [64]
0	0x3ca8a3e6	0.020585965
1	0x3dda3541	0.106546886
2	0xbf6a5917	-0.9154219
3	0x3f7a4d99	0.97774655
4	0xbeb62e18	-0.35582042
5	0x3fbf0a58	1.4925032
6	0xbf7ebd41	-0.9950753
7	0xbe0099fd	-0.12558742
8	0xbf4267d4	-0.7593968
9	0xbe6ef364	-0.23335034
10	0xbe672660	-0.22573233
11	0xbe70b02b	-0.23504703
12	0xbf823f61	-1.0175592
13	0x3df75bf0	0.120780826
14	0xbf335a68	-0.70059824
15	0xbf9657b4	-1.1745515
16	0x3f5a67d7	0.853147
17	0xbe64a09d	-0.22326894
18	0x3ed388fd	0.4131545
19	0x3c81a930	0.015827745
20	0x3db935a9	0.09043438
21	0xbf0f74e1	-0.5603772
22	0x3e94e1d8	0.29078555
23	0x3ca7ab83	0.020467525
24	0xbf83dc13	-1.0301536
25	0x3f7821fc	0.96926856
26	0x3f2cbf53	0.6747944
27	0x3f6d7f94	0.92772794
28	0xbf86d65c	-1.0534167
29	0xbe957742	-0.2919255
30	0x3e0f4aa4	0.13993317
31	0xbf529d80	-0.82271576
32	0x3e1a228f	0.15052246
33	0xbd010556	-0.03149923
34	0xbf2b664b	-0.6695296
35	0x3f80c48d	1.0059983
36	0xbf274bd9	-0.6535011
37	0x3f9dbc52	1.2323096
38	0x3f4063a5	0.75152045
39	0x3f2eb2fa	0.68241847
40	0xbf8aabf9	-1.0833732
41	0x3f8062e5	1.003018
42	0xbf67fdd3	-0.9062168
43	0x3e41b5b9	0.18916978
44	0xbf6cfe9f	-0.9257602
45	0xbc5043b4	-0.012711454
46	0x3ee6468a	0.44975692
47	0x3ee61b0d	0.44942513
48	0x3fb0ff10	1.3827839
49	0x3e56bd53	0.20970659
50	0x3f79b814	0.97546506
51	0xbc9611d0	-0.01831904
52	0xbd980dc0	-0.074244976
53	0x3e7cc4b1	0.24684407
54	0x3f2de282	0.6792375
55	0x3eadd3ab	0.33950552
56	0x3f4bab09	0.79557854
57	0xbf498e72	-0.7873298
58	0x3f393771	0.7235022
59	0xbf8454cc	-1.0338378
60	0x3f666682	0.90000165
61	0xbf44f007	-0.7692875
62	0x3f826d75	1.0189654
63	0xbf829848	-1.0202723

critic.v_net.fcs.1.weight f4 [64, 64]
0	0xbebd5146	-0.3697607
1	0xbb3264f5	-0.002722082
2	0x3f9b80c6	1.2148674
3	0xbf955eb8	-1.1669531
4	0x3f526708	0.82188463
5	0xbf81dac9	-1.0144893
6	0x3f543f0c	0.829087
7	0xbf997d70	-1.1991405
8	0x3fa8525f	1.3150138
9	0xbfd6d174	-1.678267
10	0x3ebde04a	0.3708518
11	0x3cb411d1	0.021981152
12	0x3fd132f5	1.6343676
13	0x3e5027a8	0.20327628
14	0x3f738641	0.9512673
15	0x3f95770d	1.1676956
16	0xbf5cc540	-0.8623848
17	0x3f2a7584	0.66585565
18	0xbec0daec	-0.37667024
19	0x3f2fb7ad	0.6863964
20	0xbf34431d	-0.70414907
21	0xbc175508	-0.009236582
22	0xbe94cf7f	-0.29064557
23	0xc001730c	-2.022647
24	0xbe90e788	-0.28301644
25	0xbf99781e	-1.1989782
26	0xbf19b817	-0.60046524
27	0xbf22c1d8	-0.6357703
28	0x3f8dad7e	1.1068571
29	0xbe65f51e	-0.22456786
30	0xbebbb9b5	-0.3666512
31	0x3eb512ed	0.35366002
32	0xbe226d5e	-0.15862033
33	0xbe5ef321	-0.21772434
34	0x3faaf02e	1.3354547
35	0xbfa6c4a8	-1.3028765
36	0x3e0eb439	0.13935937
37	0xbf140d32	-0.57832634
38	0xbf70ce2a	-0.9406458
39	0xbf129637	-0.5726046
40	0x3fad6703	1.3547062
41	0xbfc2127d	-1.5161892
42	0x3fb99fd6	1.4501903
43	0xbeadf198	-0.33973384
44	0x3f78c200	0.9717102
45	0x3e317dfa	0.17333212
46	0xbf0db862	-0.5535947
47	0x3e3e5193	0.18585806
48	0x3df3a05b	0.1189582
49	0x3e064a9b	0.13114397
50	0xbf0279a4	-0.5096686
51	0xbd872f21	-0.06600786
52	0xbe250cf8	-0.16118228
53	0x3eac0eb9	0.33604982
54	0xbebab58a	-0.36466628
55	0xbeb840c3	-0.3598691
56	0xbf6dc55a	-0.9287926
57	0x3e9e806a	0.30957347
58	0xbf756fc9	-0.95873696
59	0x3fd053b9	1.627555
60	0xbf4250e9	-0.7590471
61	0x3f85ef4e	1.0463655
62	0xbf55a79d	-0.8345888
63	0x3fa2050f	1.2657794
64	0xbeae7721	-0.34075263
65	0x3fbfbd51	1.497965
66	0xbfddfffa	-1.7343743
67	0x3f5e67e8	0.868773
68	0xbf2f2dbf	-0.6842918
69	0xbef8b31f	-0.4857416
70	0xbeaf6343	-0.34255418
71	0x3fa59c7e	1.2938383
72	0xbe360960	-0.17777014
73	0x3fcbfb48	1.593606
74	0x3e41f0a3	0.18939452
75	0xbf54c514	-0.8311322
76	0xbfbf194d	-1.4929596
77	0x3f85f040	1.0463943
78	0x3ea39518	0.31949687
79	0xbfb189ba	-1.3870156
80	0xbe1f1ca6	-0.15538272
81	0x3f49cf0f	0.7883157
82	0x3fb74c0b	1.4320081
83	0xbf1bd9e7	-0.6087937
84	0x3f6adbc1	0.9174157
85	0x3f051059	0.5197807
86	0x3f97b044	1.1850667
87	0x40081ba7	2.1266878
88	0x3e806689	0.25078228
89	0x3f3e7d8d	0.74410325
90	0x3f1253b1	0.5715895
91	0x3d80abd2	0.06282772
92	0xbc196bd8	-0.009364091
93	0x3ea9b361	0.33144668
94	0x3e740009	0.23828138
95	0xbf887916	-1.0661952
96	0x3f9d33a8	1.2281389
97	0x3f43365e	0.7625483
98	0xbf92cf82	-1.1469576
99	0x3fe6ded3	1.803675
100	0xbfb2e990	-1.3977528
101	0x3eee0022	0.46484476
102	0xbe61b1d1	-0.22040488
103	0x3e7cd379	0.24690045
104	0xbfcc93a6	-1.5982559
105	0x3f1eda56	0.62051904
106	0x3eb2c7c3	0.3491803
107	0x3f8b5c28	1.0887499
108	0xbf86cd59	-1.0531417
109	0xbf759225	-0.95926124
110	0xbf74af2c	-0.9557979
111	0xbed43e9b	-0.41454014
112	0xbec3e2cd	-0.38258973
113	0xbf095238	-0.5364108
114	0x3ea4481f	0.32086274
115	0xbfaa216d	-1.3291451
116	0x3e38cf67	0.18047868
117	0x3efca60f	0.49345443
118	0x3edf731f	0.43642518
119	0x3fe817db	1.813228
120	0x3f12c798	0.57335806
121	0xbf167b82	-0.5878221
122	0x3f1891b4	0.59597325
123	0xbfa43d83	-1.2831272
124	0x3ee4ed52	0.4471231
125	0xbe286726	-0.16445598
126	0xbe345013	-0.17608671
127	0xbf4490e4	-0.76783586
128	0xbd0110fb	-0.031510334
129	0xbf4bbe2c	-0.79587054
130	0x4013ca94	2.3092394
131	0xbfc8b11c	-1.567905
132	0x3e675b16	0.2259334
133	0xbf0130ba	-0.50464976
134	0x3f3c6b86	0.7360157
135	0xbfe2ccc4	-1.771874
136	0x3f47367a	0.778175
137	0xbfe55914	-1.791781
138	0xbd1c8d7b	-0.038220864
139	0xbd6deaff	-0.058085438
140	0x40311e96	2.7674918
141	0xbe9129d7	-0.28352234
142	0x3f2afc3f	0.66791147
143	0x407a0aaa	3.906901
144	0xbfaa553d	-1.3307263
145	0xbf0eddaf	-0.5580701
146	0xbf045327	-0.5168938
147	0xbe271846	-0.16317853
148	0xbef89c2e	-0.48556656
149	0x3ea3b9e3	0.31977758
150	0xbe92613a	-0.28589803
151	0xc01bf7c1	-2.4369967
152	0x3f05a5d7	0.52206177
153	0xbfb27ac3	-1.3943714
154	0xbe6ead3a	-0.23308268
155	0xbf2cc00a	-0.6748053
156	0x3ed5c1e9	0.41749504
157	0x3ed567de	0.41680807
158	0x3e39ec7a	0.18156615
159	0x3fc65452	1.5494483
160	0xbe9c267e	-0.30498117
161	0x3c3f9ae1	0.011694641
162	0x3fc214ce	1.5162599
163	0xc080da3e	-4.026641
164	0x3f06d1b8	0.52663755
165	0xbeff806c	-0.49902666
166	0xbf7bb969	-0.9832979
167	0xbda047c0	-0.07826185
168	0x40619e9e	3.5253062
169	0xbfe5dbae	-1.7957666
170	0x3f229bd1	0.63519007
171	0xbe99b8ef	-0.30023906
172	0x40279986	2.6187453
173	0xbd7c2328	-0.061556965
174	0x3eec9bb2	0.46212536
175	0xbec89cd6	-0.39182156
176	0xbf08a876	-0.5338205
177	0xbe30102a	-0.17193666
178	0xbfbde42c	-1.4835258
179	0x3f0c62b9	0.5483814
180	0x3ce60c60	0.028082073
181	0xbebcaeda	-0.3685215
182	0xbeeab532	-0.45841366
183	0xbf087995	-0.5331052
184	0xbf82c9a6	-1.0217788
185	0x3f92815e	1.144573
186	0xbf0f8161	-0.5605679
187	0x4028ea2e	2.6392932
188	0xbf962b3a	-1.1731942
189	0x3e80d10d	0.25159493
190	0xbf17b64e	-0.5926255
191	0x4012d7aa	2.294413
192	0xbf28692b	-0.65785474
193	0xbf5fbbf3	-0.8739616
194	0xbfc67034	-1.5502992
195	0x3f94ce65	1.1625487
196	0xbf28daa0	-0.65958595
197	0x3fb1331c	1.3843722
198	0xbf2650da	-0.6496712
199	0x3e7200e4	0.23633152
200	0xbf8e3da2	-1.1112559
201	0x3f0c33d6	0.54766595
202	0xbe5c7b53	-0.2153142
203	0x3f06eeb3	0.52707976
204	0xbf9af871	-1.2107068
205	0xbf604a0f	-0.87613004
206	0xbf4d4e7a	-0.8019787
207	0xbf4d61ef	-0.8022756
208	0x3f95b03c	1.1694407
209	0xbfd28e42	-1.6449664
210	0x3eb23dc0	0.34812737
211	0x3e3478bf	0.17624186
212	0xbf313d80	-0.69234467
213	0xbec2e7e5	-0.38067546
214	0x3e10356f	0.14082883
215	0x3e94ade9	0.29038933
216	0xbebb341a	-0.36563188
217	0x3f83d525	1.0299422
218	0x3f6276a3	0.88462275
219	0x3f87b890	1.0603199
220	0xbf81885e	-1.0119741
221	0xbe7a8f70	-0.2446878
222	0xbe951d0f	-0.29123732
223	0xbf918d14	-1.1371179
224	0xbf308823	-0.6895773
225	0xbebbce28	-0.36680722
226	0xbf1d0d94	-0.61348844
227	0x3f7b965f	0.98276323
228	0xbf9a6848	-1.2063074
229	0x3f5e0752	0.8672992
230	0x3f9b7ca6	1.2147415
231	0x3f1e43df	0.61822313
232	0xbf94e495	-1.1632258
233	0x3f6b81a5	0.91994697
234	0xbf6791b2	-0.9045669
235	0xbf070ce7	-0.5275406
236	0xbf3c0d7c	-0.73458076
237	0x3f203f47	0.62596554
238	0x3fdb968b	1.7155317
239	0x3e79b584	0.24385649
240	0x3e90edd8	0.2830646
241	0x3ec60fbe	0.38683885
242	0x3f80aa54	1.005198
243	0x3f84e8de	1.0383565
244	0x3f22cf1a	0.6359726
245	0xbf17910e	-0.5920571
246	0x3fa46f0b	1.2846388
247	0xbefd7606	-0.49504107
248	0x3fe05414	1.7525659
249	0xbf6ae813	-0.9176037
250	0x3f504fcb	0.81371754
251	0xbf88fdc1	-1.070244
252	0x3f85a378	1.0440512
253	0xbf5b0ecc	-0.85569453
254	0x3f30121e	0.68777645
255	0xbf3023a3	-0.6880438

critic.v_net.fcs.1.bias f4 [64]
0	0x3e02d5c7	0.12776862
1	0xbdf58055	-0.11987368
2	0xbf064378	-0.524467
3	0x3f01a292	0.5063869
4	0xbea7ea56	-0.32795972
5	0x3f08430b	0.532273
6	0xbf287d45	-0.65816146
7	0x3ea121f2	0.3147121
8	0x3f5dada3	0.86593074
9	0xbf14cf0e	-0.5812844
10	0x3eff2dd9	0.49839666
11	0x3da61fea	0.08111556
12	0x3e19422d	0.1496665
13	0x3eb86cce	0.3602051
14	0xbe408bc8	-0.18803322
15	0x3e2c757a	0.16841689
16	0x3e479f5d	0.19494386
17	0xbf578499	-0.841867
18	0x3f40e2a7	0.75345844
19	0x3e4e40f2	0.20141962
20	0x3ea09ac2	0.3136807
21	0xbcfe0c49	-0.031011717
22	0x3dadf541	0.08494044
23	0xbd9ccee2	-0.07656647
24	0x3f0bea0d	0.5465401
25	0xbf8c3ab2	-1.0955412
26	0xbe135798	-0.14388883
27	0x3eaabba7	0.33346292
28	0xbec32400	-0.38113403
29	0x3f22c50c	0.6358192
30	0x3ca7fe2f	0.020506946
31	0xbedfa808	-0.43682885
32	0xbebf06a0	-0.37309742
33	0x3f1c311b	0.6101243
34	0x3f4a33e2	0.78985417
35	0xbf01d4cb	-0.5071532
36	0xbe083f7d	-0.13305469
37	0xbe652485	-0.22377212
38	0x3df9c55c	0.121958464
39	0x3ef5533e	0.4791507
40	0x3eb4612f	0.35230395
41	0xbeb50768	-0.35357213
42	0xbf84ec01	-1.0384523
43	0xbe990311	-0.29885152
44	0xbed621a1	-0.41822532
45	0xbe5c168c	-0.21492976
46	0xbe42d027	-0.19024716
47	0x3d5bdd4f	0.053677853
48	0xbed03bfc	-0.40670764
49	0xbef26273	-0.47340736
50	0xbeb26bb3	-0.34847793
51	0x3e19011e	0.14941832
52	0x3d6dd26e	0.05806201
53	0xbe8ccb7f	-0.27499005
54	0xbcb91b4f	-0.02259603
55	0x3f65d76a	0.8978182
56	0x3e97c2ef	0.2964091
57	0xbd0f8406	-0.035038017
58	0x3e971562	0.295085
59	0xbdf91f40	-0.121641636
60	0x3ea396ca	0.3195098
61	0xbeb91c48	-0.3615439
62	0x3ea0a4f2	0.31375843
63	0x3e55a0f9	0.20862187

critic.v_net.fcs.2.weight f4 [1, 64]
0	0xbfae1130	-1.3598995
1	0x3e4ee024	0.2020269
2	0xc00c5cec	-2.1931715
3	0xc04f4487	-3.2385576
4	0xc06af6b0	-3.6713066
5	0x4023d821	2.5600665
6	0x401587d0	2.3364143
7	0xbf6b8973	-0.92006606
8	0x3f49a7d1	0.7877169
9	0xbfe06a92	-1.7532523
10	0x3fcdd064	1.6079221
11	0x3f8dc94a	1.1077054
12	0xbf357d7e	-0.7089461
13	0xc0a83f70	-5.257744
14	0xbf4a657a	-0.7906109
15	0xbd5b9c51	-0.05361587
16	0xbfc43944	-1.5329976
17	0xc0366cb8	-2.8503857
18	0x3ec77e6b	0.38963637
19	0x3fdcdd3d	1.7255017
20	0x3fc48b43	1.5354999
21	0x3fff3ab2	1.9939787
22	0xbfc93159	-1.5718185
23	0xbf4fc25c	-0.81155944
24	0x400d2bd4	2.2058
25	0x403b80b6	2.929731
26	0x40036a50	2.0533638
27	0x3f66df0b	0.90184087
28	0xbe40354e	-0.18770334
29	0x3fe4410d	1.7832352
30	0x3f37e156	0.7182821
31	0xbfdc9f1e	-1.7236059
32	0xbf92c076	-1.1464984
33	0x401312d2	2.2980237
34	0x3ff2eae9	1.8977939
35	0xbfb1cccd	-1.3890625
36	0xc025216a	-2.5801644
37	0xbf1f67ab	-0.6226756
38	0x3f1da5c8	0.6158109
39	0x3fce982c	1.6140189
40	0x3f5272f3	0.8220665
41	0xbfd046ce	-1.6271608
42	0xbfd810c6	-1.6880119
43	0xbf00cc3d	-0.5031164
44	0xbfc5f30a	-1.5464795
45	0xbfba317e	-1.4546354
46	0xbfd2f15e	-1.647991
47	0xbf7e841c	-0.9942033
48	0xbf122ae6	-0.5709671
49	0xbf136ba2	-0.5758611
50	0xbfed0e12	-1.8519919
51	0x3f3af8ed	0.7303608
52	0x3e562d76	0.2091578
53	0xbfc7c6bc	-1.5607524
54	0xbf38966c	-0.72104526
55	0x402efbde	2.7341228
56	0xbf31e8a5	-0.6949561
57	0x3f241d79	0.6410747
58	0xbfd7e981	-1.6868135
59	0xbeab182d	-0.33416882
60	0x3f08abab	0.53386945
61	0xbf6e193d	-0.9300726
62	0xc0773501	-3.86261
63	0x401323d5	2.299062

exp_avg f4 [64, 4]
0	0xb884a0ce	-6.324203e-05
1	0x37933d60	1.7552346e-05
2	0x39e16a40	0.00042994507
3	0x3a128200	0.00055888295
4	0x37eed0b9	2.8469005e-05
5	0xb787e150	-1.6198173e-05
6	0x39f1b994	0.00046105369
7	0x397ed2f2	0.00024301911
8	0xb9ed46be	-0.0004525687
9	0x38bc3294	8.9739595e-05
10	0xbb5ae75b	-0.0033402059
11	0x3ae74354	0.0017643967
12	0xba0e168f	-0.00054202316
13	0xb871454e	-5.7523423e-05
14	0xbb18223a	-0.002321376
15	0x3b309ba9	0.002694825
16	0x390dfa88	0.00013540138
17	0xb83710bf	-4.3646196e-05
18	0x3aaea5e9	0.0013324592
19	0x3835bab4	4.3327644e-05
20	0x3934e573	0.00017251614
21	0x3901debe	0.00012385377
22	0x3a08b1bd	0.00052144733
23	0x382f8838	4.1850115e-05
24	0x3906722e	0.00012821771
25	0x387fea2e	6.1014835e-05
26	0x3a1bd2cd	0.00059441925
27	0xbabecf00	-0.001455754
28	0xb8ef5635	-0.000114124654
29	0xb769271c	-1.3896988e-05
30	0xb988b856	-0.00026077282
31	0x3a507a73	0.00079528167
32	0x37f1eafc	2.8838862e-05
33	0x3788fd16	1.6330316e-05
34	0x3a73c62f	0.0009299246
35	0x381392fd	3.5184425e-05
36	0x382d7a87	4.1360527e-05
37	0x383aaefd	4.4508826e-05
38	0x3aa2957b	0.0012404168
39	0xb8925378	-6.97737e-05
40	0xb7e1e733	-2.692975e-05
41	0xb8277825	-3.9927796e-05
42	0x3980b16d	0.00024546255
43	0x39fb0c22	0.0004788349
44	0x39d2b2fd	0.00040187678
45	0x37d804bf	2.5751417e-05
46	0x3b6589db	0.0035024795
47	0xbaa94e67	-0.0012917042
48	0x39bc928e	0.00035967346
49	0x38ff56c0	0.00012175506
50	0x3b409562	0.0029385914
51	0xb939fe31	-0.00017737669
52	0xb92eb2e5	-0.00016660577
53	0x3871c2b3	5.7640205e-05
54	0xbaf8e53d	-0.0018989217
55	0xb90620e2	-0.00012791486
56	0xba45fadf	-0.00075523363
57	0xb8f0af9c	-0.000114768016
58	0xbb8e6fa4	-0.0043468047
59	0x3b575220	0.0032855347
60	0x3867e223	5.5285298e-05
61	0xb830bb7f	-4.213629e-05
62	0x3a350c9f	0.0006906483
63	0x39434f3d	0.00018626168
64	0xb96b631b	-0.00022448266
65	0xb927f0fa	-0.00016016132
66	0xbb23f54b	-0.0025018032
67	0x3a57d65a	0.000823354
68	0x3a18d8db	0.0005830654
69	0x37a182d0	1.925361e-05
70	0x3b92168e	0.004458255
71	0xba9b88a0	-0.0011866279
72	0x392377f8	0.00015589583
73	0x3894b016	7.0899885e-05
74	0x39bd5bba	0.0003611723
75	0xbab536d2	-0.0013825542
76	0xb7dd28eb	-2.6364307e-05
77	0x383949dc	4.4176224e-05
78	0x39a6a9e8	0.00031788577
79	0x3a8b4b89	0.001062737
80	0x39b3c9fe	0.00034292036
81	0x3710373c	8.595929e-06
82	0x3a06bcf2	0.00051398494
83	0xbb70792a	-0.0036693313
84	0x3a3940a1	0.00070668204
85	0x39d3f973	0.0004043091
86	0x3bc635a7	0.0060488763
87	0xbb20e85d	-0.0024552562
88	0xb91d9dab	-0.00015031423
89	0xb865804c	-5.471734e-05
90	0xba1bfb97	-0.00059502706
91	0x39f0bef7	0.00045918647
92	0x3993ee84	0.00028215733
93	0xb756d53d	-1.2805042e-05
94	0x3b402b04	0.0029322514
95	0xba852276	-0.0010157365
96	0x385df8b1	5.2922118e-05
97	0x382af71f	4.0761308e-05
98	0x3ab23c44	0.0013598283
99	0x39a80745	0.00032048873
100	0xb9ca2b3f	-0.00038560663
101	0xb8fbde71	-0.000120100456
102	0xbb3ade7c	-0.0028513959
103	0x3b004139	0.0019570126
104	0xb87da686	-6.0474988e-05
105	0x38379419	4.3768527e-05
106	0xba7172f2	-0.00092105486
107	0xba486dbe	-0.00076457474
108	0x38679511	5.521352e-05
109	0xb6b63125	-5.429744e-06
110	0x3a95a1d7	0.001141603
111	0xb69e385d	-4.7153285e-06
112	0x39af7b6e	0.00033470563
113	0x37e59c47	2.73717e-05
114	0x3b65edff	0.0035084484
115	0xba98d278	-0.0011659404
116	0x39f9dbfd	0.00047656885
117	0x38bca9d6	8.996173e-05
118	0x3b271a72	0.002549794
119	0xbb3399df	-0.0027404947
120	0x39678f6f	0.0002208331
121	0xb6874b51	-4.0320815e-06
122	0x39e970cd	0.00044525266
123	0xbaf90bae	-0.0019000673
124	0xba2c8ef2	-0.000658258
125	0x3967c3ca	0.00022102814
126	0xbb8d936d	-0.004320553
127	0x3b3014d8	0.0026867893
128	0xba677f4d	-0.000883092
129	0x379741b0	1.803119e-05
130	0xbb90f2aa	-0.004423459
131	0x3b8438a2	0.0040350715
132	0x3909bc04	0.0001313538
133	0x375aa7d5	1.3032889e-05
134	0x39b78153	0.00035000834
135	0xba875260	-0.0010324232
136	0xba0acdf2	-0.00052949705
137	0xb8a9aca3	-8.090704e-05
138	0xbb2a44c3	-0.0025980927
139	0x3b6f8000	0.00365448
140	0xb999e321	-0.00029351658
141	0xb8ccdb94	-9.768378e-05
142	0xbb017617	-0.0019754225
143	0x39aa69ee	0.0003250385
144	0x39b2ed78	0.00034127734
145	0x38a99c2b	8.0876365e-05
146	0x3b388f62	0.0028161635
147	0x38d55069	0.00010171609
148	0xb969dcaa	-0.00022302815
149	0xb8859940	-6.370479e-05
150	0xbad87620	-0.0016514696
151	0x3a25bf32	0.0006322741
152	0x39545ca0	0.00020252401
153	0x384d76db	4.89865e-05
154	0x394dcd5a	0.00019626823
155	0xba77ae63	-0.0009448288
156	0x393ab3ec	0.00017805368
157	0xb88e8e69	-6.7976136e-05
158	0x3aeb9332	0.0017972945
159	0xba0b6ce4	-0.0005318655
160	0x38b5a821	8.662069e-05
161	0xb699e080	-4.5858906e-06
162	0x3ab468c8	0.0013764137
163	0x392a81e6	0.00016260854
164	0x38bdc322	9.0485686e-05
165	0x3812e324	3.5020654e-05
166	0x3a76de26	0.0009417258
167	0xb90aaf17	-0.00013225932
168	0xb9650da8	-0.00021844229
169	0xb872f4ad	-5.792517e-05
170	0xbb02a3e7	-0.001993412
171	0x395c19b7	0.00020990414
172	0xb966daaa	-0.00022015968
173	0xb843744b	-4.659993e-05
174	0xbac17804	-0.0014760499
175	0x3a2b620b	0.0006537742
176	0x38f5e565	0.000117252384
177	0x38a0b45d	7.66299e-05
178	0x3a062d04	0.0005118402
179	0xb9887ade	-0.00026031485
180	0xba07c2f5	-0.0005178892
181	0xb6db72f3	-6.5400905e-06
182	0xbb11b8e4	-0.0022235448
183	0x3b31539f	0.0027057899
184	0xba3eb9f8	-0.00072756363
185	0xb99cc6ea	-0.0002990284
186	0xbbd3a250	-0.006458558
187	0x3b279573	0.0025571256
188	0x39bc6d44	0.00035939564
189	0x388c306b	6.684739e-05
190	0x3b737ab9	0.0037152006
191	0xbb0b8ee1	-0.002129488
192	0xba2698bb	-0.0006355156
193	0xb983643c	-0.00025060948
194	0xbb77dad8	-0.003781965
195	0x3b3f49da	0.0029188306
196	0xb824ecb4	-3.9321094e-05
197	0xb889470e	-6.545904e-05
198	0xba2dea0a	-0.0006634301
199	0x39890821	0.00026136733
200	0xb85517b5	-5.0805236e-05
201	0x3770c649	1.4351282e-05
202	0xba9f6ec4	-0.0012163748
203	0xba05daaf	-0.0005106134
204	0xb9fdf543	-0.00048438655
205	0xb829b6ec	-4.04631e-05
206	0xbb810f95	-0.003938625
207	0x3adbf30e	0.001678081
208	0x395c675a	0.00021019336
209	0x37421e60	1.1570373e-05
210	0x3a49a243	0.00076917204
211	0xb71fbf8f	-9.521739e-06
212	0xba6d8eb2	-0.0009062096
213	0xb8863601	-6.399677e-05
214	0xbb854e03	-0.0040681376
215	0x3baface0	0.0053611845
216	0xb6539671	-3.1529019e-06
217	0x3724cdc8	9.823074e-06
218	0x3a1b5f14	0.00059269485
219	0x3a2067e3	0.0006118996
220	0x3a943c83	0.0011309538
221	0x38ee3a51	0.00011359587
222	0x3bd5cd95	0.0065247514
223	0xbb8276cd	-0.0039814473
224	0xba37f897	-0.0007017939
225	0xb92271ba	-0.0001549189
226	0xbb55433d	-0.0032541298
227	0x3bacb410	0.0052704886
228	0x378c4ba2	1.672452e-05
229	0xb7713b31	-1.4378501e-05
230	0xb98ab843	-0.00026458697
231	0xb9e3c52f	-0.00043443727
232	0x39e45f42	0.0004355852
233	0x3645bf26	2.946655e-06
234	0x3ab632c8	0.0013900632
235	0xbb4792e5	-0.0030452546
236	0xb9031546	-0.00012501059
237	0x38078a2c	3.231519e-05
238	0xbabf3bfa	-0.0014590018
239	0xb896ff4d	-7.200111e-05
240	0x39485183	0.00019103852
241	0xb8e794c1	-0.00011042646
242	0x3a5f2787	0.0008512665
243	0xbb21fc43	-0.002471701
244	0xb99d7eab	-0.00030039749
245	0x3566d672	8.5993736e-07
246	0xbb3c0f81	-0.0028695764
247	0x3a1f4e96	0.0006077079
248	0x3a64b811	0.0008724938
249	0x3906ca16	0.00012854519
250	0x3bc712a3	0.0060752197
251	0xbb33cad1	-0.002743412
252	0x38876f79	6.458065e-05
253	0x35b3b35a	1.3388737e-06
254	0xb9910f43	-0.00027667926
255	0xbaa6f819	-0.0012738734
