training_results/cartpole_null/ppo/seed_42/1000000steps/checkpoints/model_600000.pt (torch, 151515 bytes, 30 tensors)

actor.pi_net.fcs.0.weight f4 [64, 4]
-0.27063596 0.6807363 0.95297825 0.87426066 -0.5570164 -0.21012093 -0.49700278 -0.9560107
0.23057735 -0.5873221 -1.141024 -0.7849422 -0.16048077 -0.23007575 0.72547704 0.18663406
0.5035151 0.44056842 0.3628775 0.53344035 -0.36449122 -0.31015205 0.4398748 0.7432397
0.056456495 0.14830163 -0.29617494 -0.13333803 0.14100188 0.37579072 0.10643427 0.22354394
0.38336188 0.14914012 -0.85795057 -0.8489673 0.35444182 -0.14251356 -0.22806384 0.13240913
-0.1572893 -0.68194157 -0.38261512 -0.71595496 -0.43778825 -0.29974997 0.3093731 0.15397565
-0.6026149 -0.095188856 -0.7788689 -0.5485687 0.19918565 0.38419983 0.24141918 0.7556052
-0.04101226 0.32579327 0.9565342 0.9481807 0.2954801 0.11826789 -0.63154715 -0.39903495
0.25723442 -0.25156668 -0.49528733 0.31672996 -0.5226325 -0.13007632 -0.8413356 0.04809594
-0.32173166 0.35192317 0.9479941 0.90119845 -0.08982541 -0.14206827 -1.0045477 -0.5205751
-0.4378191 0.33810422 0.7374799 0.88751274 -0.114282414 0.14856613 -0.47366324 -0.6643216
-0.6652782 -0.50523806 -0.72569937 -0.14635353 0.19411561 -0.7414035 -0.8467148 -0.2330467
-0.41558537 -0.07708227 0.1717175 0.59804577 -0.45458186 -0.3929976 -1.1792511 -0.6450335
-0.53420734 -0.38861886 0.16428223 -0.017122002 -0.31102282 -0.40633819 -1.0236455 -0.9471995
0.52634746 -0.27543357 0.2876503 -0.018030398 -0.517938 0.1655088 0.6956411 0.8672073
0.32969487 0.07842898 -0.3387758 0.25848922 0.3951613 0.45912498 -0.405151 0.34110633
-0.20980613 -0.14583476 0.8572852 0.39591473 -0.1403529 0.74290353 0.6578827 -0.058531083
0.44565168 -0.14991565 -0.69007367 -0.2463299 0.72931933 0.24168777 0.32476667 0.19161956
-0.33989325 -0.5626186 -0.92756915 -0.6381527 -0.6023626 -0.42506206 0.50402087 -0.08058926
0.15675111 0.16818644 -0.53916276 -0.5972438 -0.26656038 0.49352586 1.3525195 0.9142417
0.07535295 0.26171258 0.9399737 0.5795995 0.7990031 0.1588394 0.33366236 0.10710988
0.63028955 -0.23850432 0.31539142 0.6054803 0.5375303 0.41579205 -0.35508987 0.36973476
0.5487779 0.50045246 -0.09237728 0.34472248 -0.26678163 -0.3135395 0.73239154 -0.17154615
0.21839948 0.28317645 -0.38315085 -0.81889904 0.20718654 -0.3277143 -1.2315032 -0.92445415
-0.32411447 -0.022991661 0.7686231 -0.013229967 -0.4378564 0.5983041 0.34262988 0.7078392
-0.41413975 -0.28787208 -0.68184316 -0.15240516 -0.28350532 -0.21655957 1.0953904 0.8540572
-0.112077735 0.21469381 -0.6483798 0.10275861 -0.06943226 -0.2803805 -1.1544074 -0.5300493
-0.18742315 0.41114342 -0.4622518 -0.10969245 0.49929377 0.49171358 0.16218553 0.27411285
0.34666073 0.29369026 -0.7330138 -0.37260872 -0.5562181 0.18317622 0.096001446 -0.1015642
-0.2082904 0.631573 1.4333725 0.99652183 -0.25591475 -0.6494129 -0.8873075 -0.43051645
-0.80053604 -0.59025455 -0.4144155 -0.34226415 0.601994 0.13591035 0.045497317 0.113017574
0.33915058 -0.08651894 1.2317872 1.1285836 0.48878458 0.24333468 -0.5573993 0.0917344
00000000: cc90 8abe bc44 2e3f 62f6 733f 8ccf 5f3f
00000010: a098 0ebf f129 57be 2677 febe 1ebd 74bf
00000020: 781c 6c3e be5a 16bf 130d 92bf f9f1 48bf
00000030: 1255 24be fa98 6bbe ddb8 393f 001d 3f3e
00000040: 5ee6 003f 2f92 e13e 14cb b93e 8c8f 083f
00000050: 989e babe 40cc 9ebe 4537 e13e f544 3e3f
00000060: ed3e 673d 62dc 173e 3ea4 97be c489 08be
00000070: cc62 103e a467 c03e 36fa d93d b4e8 643e
00000080: 0248 c43e 30b8 183e a6a2 5bbf ec55 59bf
00000090: 6679 b53e 13ef 11be 9189 69be 4296 073e
000000a0: 7210 21be b993 2ebf 21e6 c3be d348 37bf
000000b0: c825 e0be d478 99be 2766 9e3e cbab 1d3e
000000c0: f844 1abf 60f2 c2bd f463 47bf 006f 0cbf
000000d0: 53f7 4b3e d7b5 c43e 9736 773e 586f 413f
000000e0: 79fc 27bd 60ce a63e 6ddf 743f f8bb 723f
000000f0: 2b49 973e 6f36 f23d 13ad 21bf 4f4e ccbe
00000100: 3bb4 833e 59cd 80be 4d96 fdbe 6e2a a23e
00000110: 3ecb 05bf ba32 05be c561 57bf 4000 453d
00000120: 03ba a4be 462f b43e beaf 723f f1b4 663f
00000130: 62f6 b7bd 587a 11be 0595 80bf 6944 05bf
00000140: d329 e0be ff1b ad3e 7ccb 3c3f 0934 633f
00000150: e60c eabd b821 183e fd83 f2be fb10 2abf
00000160: ac4f 2abf 4857 01bf 6fc7 39bf b3dd 15be
00000170: 3ec6 463e 9fcc 3dbf 4dc2 58bf cba3 6ebe
00000180: 9bc7 d4be 4fdd 9dbd b6d6 2f3e 8719 193f
00000190: f4be e8be fb36 c9be b3f1 96bf ea20 25bf
000001a0: d0c1 08bf 0df9 c6be 9a39 283e 7143 8cbc
000001b0: 623e 9fbe 8f0b d0be d106 83bf ab7b 72bf
000001c0: b5be 063f a105 8dbe e646 933e 7cb4 93bc
000001d0: 9697 04bf 247b 293e 8915 323f 4c01 5e3f
000001e0: c4cd a83e 609f a03d 0674 adbe b358 843e
000001f0: 9552 ca3e 6e12 eb3e f46f cfbe 7da5 ae3e
00000200: 6bd7 56be b555 15be 0b77 5b3f 56b5 ca3e
00000210: acb8 0fbe ed2e 3e3f 006b 283f 4abe 6fbd
00000220: 752c e43e 7d83 19be aba8 30bf e83d 7cbe
00000230: acb4 3a3f 007d 773e d147 a63e eb37 443e
00000240: 7d06 aebe c607 10bf 2c75 6dbf fa5d 23bf
00000250: 6f34 1abf bca1 d9be 8307 013f fb0b a5bd
00000260: 5d83 203e 1139 2c3e 9206 0abf f8e4 18bf
00000270: 9a7a 88be 6caf fc3e 5c1f ad3f be0b 6a3f
00000280: a652 9a3d 31ff 853e 1ea2 703f a260 143f
00000290: 788b 4c3f cca6 223e cbd5 aa3e 6d5c db3d
000002a0: a85a 213f 7a3a 74be fc7a a13e c200 1b3f
000002b0: 969b 093f b2e2 d43e 57ce b5be e04d bd3e
000002c0: b57c 0c3f a71d 003f 4d30 bdbd 777f b03e
000002d0: 9a97 88be 4088 a0be 037e 3b3f cba9 2fbe
000002e0: 1da4 5f3e 81fc 903e 592c c4be 5ea3 51bf
000002f0: b528 543e 2bca a7be e6a1 9dbf 07a9 6cbf
00000300: 55f2 a5be 0259 bcbc 7cc4 443f 81c2 58bc
00000310: b72e e0be 752a 193f 2f6d af3e f334 353f
00000320: 200a d4be f863 93be 468d 2ebf 1910 1cbe
00000330: 9c27 91be cbc1 5dbe c135 8c3f 7ea3 5a3f
00000340: 0389 e5bd b2d8 5b3e 38fc 25bf 1b73 d23d
00000350: 8032 8ebd 088e 8fbe 9fc3 93bf 50b1 07bf
00000360: dbeb 3fbe 6481 d23e 45ac ecbe 6fa6 e0bd
00000370: 6fa3 ff3e e2c1 fb3e f713 263e 8558 8c3e
00000380: 847d b13e 925e 963e cba6 3bbf 92c6 bebe
00000390: 4f64 0ebf 8c92 3b3e 689c c43d e400 d0bd
000003a0: 144a 55be c5ae 213f c078 b73f 0e1c 7f3f
000003b0: 4207 83be ec3f 26bf 9626 63bf a76c dcbe
000003c0: eeef 4cbf ec1a 17bf 452e d4be 3f3d afbe
000003d0: 471c 1a3f 152c 0b3e 655b 3a3d c275 e73d
000003e0: 25a5 ad3e d830 b1bd 34ab 9d3f 6d75 903f
000003f0: f941 fa3e ba2c 793e b8b1 0ebf 3fdf bb3d

actor.pi_net.fcs.0.bias f4 [64]
0.3013491 0.03337435 0.3189936 -0.0010192269 0.3636247 -0.32914603 0.057790305 -0.081756964
-0.1640438 -0.046889596 0.28143275 -0.1696471 0.13531992 -0.42320094 0.17738096 -0.16439094
-0.06588796 0.08378369 -0.39842463 0.027409706 -0.32300696 -0.34832117 0.10780135 0.019422028
0.0021718205 0.16903852 -0.2651934 0.029968439 0.17943747 -0.057665497 0.059567865 0.27878493
-0.23577426 -0.15274976 -0.03137777 -0.04948599 -0.2340947 -0.30123973 -0.40286803 0.19482455
0.28232723 -0.037055854 0.19777967 -0.1887837 -0.15288684 0.15641862 -0.07326924 0.11973288
0.30975595 -0.39435217 0.43516767 0.34049532 0.20154014 0.25029168 0.025728263 0.034584038
0.342355 -0.0069399443 -0.19184725 0.011124199 0.06073093 -0.024993252 -0.099537395 0.18263982
00000000: 6e4a 9a3e 8bb3 083d 2153 a33e 9497 85ba
00000010: 042d ba3e d485 a8be 87b5 6c3d 3270 a7bd
00000020: 19fb 27be 4e0f 40bd f417 903e f8b7 2dbe
00000030: 4e91 0a3e cbad d8be 5ba3 353e 1956 28be
00000040: 44f0 86bd c996 ab3d 50fe cbbe 528a e03c
00000050: 2b61 a5be 2757 b2be f4c6 dc3d f21a 9f3c
00000060: 1a55 0e3b 6f18 2d3e 6ec7 87be 5f80 f53c
00000070: 75be 373e a832 6cbd 6ffd 733d e6bc 8e3e
00000080: cf6e 71be 6f6a 1cbe fa85 00bd d2b1 4abd
00000090: 85b6 6fbe 183c 9abe b844 cebe 1680 473e
000000a0: 328d 903e e1c7 17bd c186 4a3e 8450 41be
000000b0: 5e8e 1cbe 342c 203e 2f0e 96bd 8336 f53d
000000c0: 5598 9e3e 87e8 c9be 4cce de3e 6755 ae3e
000000d0: 8a60 4e3e 3b26 803e 14c4 d23c fea7 0d3d
000000e0: 2849 af3e 7968 e3bb 9b73 44be 4642 363c
000000f0: ffc0 783d a6be ccbc 43da cbbd ef05 3b3e

actor.pi_net.fcs.1.weight f4 [64, 64]
0.09627397 0.023257906 -0.0667917 0.14515914 -0.04998794 0.0980262 0.07983546 -0.058065947
-0.09664549 0.008396941 0.07772676 0.10014567 0.06347675 0.01944065 0.15677555 -0.029595526
-0.11707019 -0.12469121 0.058010317 -0.22188468 0.0002709959 0.06718278 -0.1379352 -0.10420799
0.09597782 -0.12874268 0.06869126 -0.26511252 0.103198156 0.056137014 0.060582314 -0.06980051
-0.06903102 -0.029623417 -0.07718664 0.026981257 -0.032751642 -0.09853795 0.06365799 0.07426053
-0.01532491 -0.0005726958 0.10668089 -0.14863136 -0.036444794 0.009561625 -0.037804145 -0.12365582
-0.051711176 -0.08075351 0.048288483 0.03724461 -0.013911988 -0.05230876 -0.13810058 -0.050468955
0.09093903 0.018338311 0.035946783 -0.11915606 -0.1316142 -0.14532037 0.19622819 -0.09393696
0.06000668 0.05202854 0.07274564 -0.02545043 -0.10081312 -0.064153634 0.030996257 0.0066303066
0.008468377 -0.023234535 0.0672513 -0.01175931 0.036702964 0.04721563 -0.031446688 -0.0717572
0.022836173 0.019209575 0.07472634 0.20830654 0.09534924 -0.009804823 0.008682294 -0.017257357
-0.11951141 -0.017342241 -0.04763431 0.059265707 0.092920616 -0.09418843 -0.029033784 -0.02442869
-0.03990816 0.029999599 0.05942854 0.048327714 0.03562313 -0.037968054 0.016388133 0.040874228
0.06671797 -0.1614167 0.027887262 -0.03691702 0.0700792 -0.04068584 0.03890613 0.05585243
-0.0408692 -0.120768905 0.005891928 -0.04862406 -0.051167298 0.11612493 -0.12980188 -0.098215595
-0.079987645 0.053442933 -0.050313015 0.15009871 0.15100195 -0.085832074 -0.10922153 -0.050371137
0.074544765 0.13491583 -0.00956838 -0.06442882 -0.028255941 -0.009622783 0.10133048 -0.01657706
0.118140355 0.10155709 -0.02519062 -0.12967089 0.05404779 0.052658435 0.050808836 0.10837503
-0.044185672 0.19649877 0.009270741 0.13992561 -0.04429727 -0.11789239 0.1351555 0.06645136
-0.055573646 0.0077491216 -0.039183203 0.17579025 0.055039316 0.04606489 0.16063662 0.03819069
-0.13615142 -0.007954899 -0.05357109 -0.11280071 0.14485264 -0.07031357 0.06166797 0.002434035
0.02438553 0.07426838 0.026826957 0.05692204 0.04583633 0.055447977 0.050253384 0.16514005
-0.0041416637 0.040943842 -0.11996313 -0.006089563 0.093898244 0.051316697 0.16439438 -0.023580521
0.009617284 0.040788278 -0.09866349 -0.034144394 -0.077579096 -0.018104605 -0.19351214 -0.03563566
-0.1156005 0.20770067 -0.045089766 -0.17719595 -0.040022254 -0.058605928 -0.061571132 -0.11019448
-0.084390156 0.043571975 -0.058716625 -0.11442986 0.056601394 -0.0141235925 -0.11052898 0.07226102
0.11814596 -0.0064161145 -0.12402487 0.07177074 0.06398072 0.1186725 0.18092899 -0.060217086
0.12803203 0.0003422646 -0.09504626 0.16355604 -0.0065618684 -0.021990469 -0.051229183 -0.028559076
-0.0074335895 0.04590004 -0.05898588 0.018813567 -0.07997775 -0.1318755 0.04701293 -0.13605319
-0.038272645 0.006875737 0.07221242 0.08285785 -0.023495091 -0.031849038 -0.01083631 0.07980541
0.032451645 0.0015930105 0.04905052 -0.02482744 0.11113425 0.008619124 0.13229808 0.09396421
0.12706439 -0.12229923 -0.03920032 -0.018126393 -0.04131598 0.12402405 -0.29423514 0.16125822
00000000: 4a2b c53d 5d87 be3c 16ca 88bd 99a4 143e
00000010: 27c0 4cbd f6c1 c83d c680 a33d 8fd6 6dbd
00000020: 12ee c5bd 5393 093c 352f 9f3d 2c19 cd3d
00000030: 1900 823d ff41 9f3c c589 203e 5172 f2bc
00000040: 7fc2 efbd 1b5e ffbd 3a9c 6d3d bd35 63be
00000050: 7414 8e39 2097 893d e33e 0dbe 006b d5bd
00000060: 0590 c43d 1fd5 03be 01ae 8c3d d4bc 87be
00000070: 8e59 d33d edef 653d 2925 783d 92f3 8ebd
00000080: 2360 8dbd cfac f2bc 0714 9ebd cc07 dd3c
00000090: 9626 06bd 44ce c9bd 1f5f 823d e815 983d
000000a0: 5515 7bbc f720 16ba 837b da3d d232 18be
000000b0: 2347 15bd 5da8 1c3c 85d8 1abd 433f fdbd
000000c0: 19cf 53bd 1962 a5bd 25ca 453d ce8d 183d
000000d0: 1bef 63bc b641 56bd 3d6a 0dbe 89b8 4ebd
000000e0: 3e3e ba3d 3a3a 963c ef3c 133d 1808 f4bd
000000f0: dfc5 06be ddce 14be 0bf0 483e 0562 c0bd
00000100: 91c9 753d e11b 553d abfb 943d 6c7d d0bc
00000110: 1c77 cebd fb62 83bd ddeb fd3c 0b43 d93b
00000120: f3be 0a3c 5a56 bebc 0dbb 893d 1faa 40bc
00000130: d955 163d 2d65 413d 3ece 00bd 70f5 92bd
00000140: ed12 bb3c 665d 9d3c 200a 993d 4f4e 553e
00000150: 7646 c33d 69a4 20bc 2e40 0e3c 4d5f 8dbc
00000160: 66c2 f4bd 5111 8ebc 321c 43bd 99c0 723d
00000170: 2a4d be3d dde5 c0bd 42d8 edbc ad1e c8bc
00000180: bd76 23bd b8c1 f53c 576b 733d 48f3 453d
00000190: 8fe9 113d 6484 1bbd 6840 863c bc6b 273d
000001a0: 6ea3 883d 6b4a 25be d473 e43c 4d36 17bd
000001b0: af85 8f3d 32a6 26bd 095c 1f3d 85c5 643d
000001c0: 7666 27bd b055 f7bd 1311 c13b 062a 47bd
000001d0: cd94 51bd e8d2 ed3d c9ea 04be 4225 c9bd
000001e0: 90d0 a3bd fae6 5a3d 0515 4ebd 7ab3 193e
000001f0: 41a0 1a3e bac8 afbd 8aaf dfbd f751 4ebd
00000200: edaa 983d 6027 0a3e b2c4 1cbc 42f3 83bd
00000210: 0179 e7bc e1a8 1dbc 5b86 cf3d 9dcc 87bc
00000220: 92f3 f13d 2afd cf3d 8f5c cebc 72c8 04be
00000230: 3761 5d3d 5fb0 573d ed1c 503d baf3 dd3d
00000240: 09fc 34bd f936 493e 4ee4 173c a948 0f3e
00000250: 0e71 35bd 9171 f1bd 3466 0a3e a717 883d
00000260: 31a1 63bd 58ec fd3b 917e 20bd 5c02 343e
00000270: e870 613d 8aae 3c3d ed7d 243e d76d 1c3d
00000280: 476b 0bbe 4455 02bc 5c6d 5bbd 0f04 e7bd
00000290: 4054 143e 9000 90bd 8e97 7c3d 5584 1f3b
000002a0: 2ac4 c73c 051a 983d 35c4 db3c 1627 693d
000002b0: e0be 3b3d 6b1d 633d 7ed6 4d3d 791a 293e
000002c0: cbb6 87bb bbb4 273d 3baf f5bd f58a c7bb
000002d0: b94d c03d 7531 523d 0057 283e f02b c1bc
000002e0: d091 1d3c 9c11 273d 1510 cabd feda 0bbd
000002f0: cae1 9ebd 1c50 94bc 0c28 46be b3f6 11bd
00000300: f4bf ecbd 7caf 543e 0cb0 38bd db72 35be
00000310: 60ee 23bd c50c 70bd 0332 7cbd a5ad e1bd
00000320: bfd4 acbd 8778 323d d880 70bd 345a eabd
00000330: ddd6 673d a466 67bc 055d e2bd 96fd 933d
00000340: 82f6 f13d 453e d2bb c000 febd 8afc 923d
00000350: 5308 833d 910a f33d 7345 393e 31a6 76bd
00000360: d41a 033e fa71 b339 9da7 c2bd 3c7b 273e
00000370: f104 d7bb 5b25 b4bc b1d5 51bd b9f4 e9bc
00000380: 7895 f3bb ae01 3c3d 2e9b 71bd e91e 9a3c
00000390: 60cb a3bd 5f0a 07be a190 403d 8751 0bbe
000003a0: c7c3 1cbd dd4d e13b 1be4 933d 60b1 a93d
000003b0: c778 c0bc 2374 02bd c78a 31bc 0571 a33d
000003c0: 04ec 043d 90cc d03a 33e9 483d ea62 cbbc
000003d0: 5b9a e33d 3a37 0d3c 2679 073e 4f70 c03d
000003e0: 2b1d 023e 0578 fabd 8490 20bd cd7d 94bc
000003f0: f23a 29bd 5200 fe3d fda5 96be e020 253e

actor.pi_net.fcs.1.bias f4 [64]
-0.107553445 0.012215465 0.085796125 0.1034779 0.04612993 -0.051344324 -0.059628997 -0.033131063
-0.025708107 -0.03392738 0.07525339 -0.024446346 0.035102125 -0.04268668 -0.036813654 -0.0540675
-0.054887395 0.011357042 0.0040048356 -0.0052951826 0.059299164 0.06376814 -0.07043285 0.054167327
0.05856243 0.072789915 -0.0688819 0.018639889 0.061304186 -0.1027567 -0.030942017 -0.05035552
-0.06472711 -0.13695487 0.012686751 0.04224737 0.08709127 0.0045680804 -0.036605075 -0.10351437
-0.0006726258 0.09720829 0.027061965 0.030755395 0.09910496 -0.046468258 -0.09248009 0.054560922
-0.0998209 -0.08499812 0.013928367 -0.073215045 0.07961208 0.03285233 0.10302392 -0.08699207
-0.06454232 0.065837614 0.0872762 0.0015270328 -0.03038438 0.08118202 0.048499547 -0.02280208
00000000: fb44 dcbd 6023 483c e1b5 af3d 39ec d33d
00000010: bdf2 3c3d 6d4e 52bd 893d 74bd 70b4 07bd
00000020: cf99 d2bc 70f7 0abd 731e 9a3d b443 c8bc
00000030: 3fc7 0f3d 3ad8 2ebd eac9 16bd e275 5dbd
00000040: 9bd1 60bd e312 3a3c ff3a 833b 3683 adbb
00000050: aee3 723d df98 823d 193f 90bd 8fde 5d3d
00000060: 29df 6f3d e112 953d f411 8dbd aeb2 983c
00000070: 191a 7b3d 1b72 d2bd 1d7a fdbc 9741 4ebd
00000080: a68f 84bd e63d 0cbe 17dc 4f3c 940b 2d3d
00000090: e85c b23d d6af 953b 34ef 15bd 58ff d3bd
000000a0: 2753 30ba 2415 c73d 0eb1 dd3c bdf2 fb3c
000000b0: 8bf7 ca3d 8055 3ebd 3466 bdbd 467b 5f3d
000000c0: e66e ccbd 7f13 aebd ce33 643c c5f1 95bd
000000d0: a80b a33d 2a90 063d 34fe d23d e628 b2bd
000000e0: c42e 84bd dfd5 863d ddbd b23d b826 c83a
000000f0: aae8 f8bc c242 a63d 76a7 463d 6dcb babc

actor.pi_net.fcs.2.weight f4 [1, 64]
0.03688204 -0.003643322 -0.082674034 -0.1265215 0.0023108101 -0.12790368 0.07474928 -0.016511006
0.048148908 0.25374955 0.2335667 -0.0034542396 0.010333048 -0.4153165 0.0833417 0.08152881
0.002034564 0.13938126 0.07832863 -0.25473788 -0.0077114897 -0.07066773 0.124486364 0.3364829
-0.0041379374 0.32678807 0.025807537 -0.2818182 0.018054735 0.11113799 -0.09384896 -0.094889775
-0.069146015 0.09038272 -0.13956842 0.43959564 -0.062062465 0.40967757 0.07162186 0.052842088
0.0041868645 0.09604863 -0.11689336 0.41788557 -0.11216936 0.21955822 -0.0021625536 0.338203
0.005098169 0.21488146 0.123059414 -0.05362125 0.16037244 0.45945597 -0.3685417 -0.04801944
0.0035395373 0.5044669 -0.0047741826 -0.23662415 0.0067562195 0.026031291 0.37592673 0.15006505
00000000: 9f11 173d cdc4 6ebb 0151 a9bd da8e 01be
00000010: f670 173b 2ff9 02be 2716 993d 1742 87bc
00000020: ca37 453d 76eb 813e 1c2c 6f3e 8660 62bb
00000030: f24b 293c 5da4 d4be 0eaf aa3d 94f8 a63d
00000040: 5256 053b f6b9 0e3e c36a a03d 016d 82be
00000050: aab0 fcbb 3eba 90bd b5f2 fe3d 7d47 ac3e
00000060: 8997 87bb c450 a73e 546a d33c 7a4a 90be
00000070: 86e7 933c 519c e33d e233 c0bd 9255 c2bd
00000080: 6d9c 8dbd 931a b93d 06eb 0ebe ae12 e13e
00000090: 3635 7ebd 42c1 d13e 7bae 923d f270 583d
000000a0: f731 893b 25b5 c43d c965 efbd 19f5 d53e
000000b0: 0db9 e5bd dfd3 603e a1b9 0dbb f228 ad3e
000000c0: 8b0e a73b e309 5c3e 9306 fc3d f5a1 5bbd
000000d0: ac38 243e d03d eb3e 7fb1 bcbe 08b0 44bd
000000e0: 95f7 673b be24 013f bf70 9cbb 9a4d 72be
000000f0: 4763 dd3b 933f d53c 7879 c03e a7aa 193e

critic.v_net.fcs.0.weight f4 [64, 4]
-2.3707204 0.5247696 0.687268 -0.8416255 0.15641333 -3.045867 -3.5119078 -0.43784767
-6.0568013 0.35925218 1.1894597 0.07572641 5.040032 -0.63760906 -5.157887 -0.13919948
0.6499082 -1.5789223 0.19146724 -0.486334 -5.335624 0.9169998 -3.1787167 -0.6290922
4.0144653 1.3602651 2.7073178 0.5530872 5.816659 -0.52761257 3.1485157 0.95861137
2.720506 -1.454894 1.8883177 0.66066766 -0.08868702 -1.0892291 0.8944067 0.7225089
-1.1145337 0.108488426 -1.384166 -1.06551 2.4248276 1.0363215 0.50664955 0.06492911
-4.2381263 -1.0294094 -2.836149 -0.47497645 1.6942388 -0.13473576 2.4032788 0.42754477
1.8072433 -0.9419197 1.6230563 0.89365965 -0.82906103 1.031092 1.7130375 0.24266037
-3.368713 -1.1034552 -3.3673933 -0.6156942 -0.12922622 0.68399143 1.4425868 0.2336383
-5.38999 0.4272746 -3.3197153 -0.76757675 -0.5564145 -0.10516558 -2.1425955 -0.9402557
3.885112 1.0658128 2.1009536 0.3650128 -2.098578 -0.65202 -3.242366 -0.16788116
-1.078804 1.1748073 -0.43398607 0.19622925 1.4572828 -0.20265298 3.8634176 0.6199782
-3.3727307 0.37503734 -3.1204636 -1.2558702 -2.4748552 1.54495 1.7189908 -0.8239414
-3.3748145 -2.136276 -3.960914 -0.12418087 -0.13851199 -0.05892911 0.14933121 -0.017202048
-5.046252 -1.6596266 -2.0825913 0.05517748 1.0398445 -0.8626745 -5.468803 -0.6840467
-6.280824 -0.9161034 -0.7925654 0.008926265 -5.6797028 -0.18837811 -3.589167 -0.23821817
-5.2357535 -1.0852385 -4.088685 -0.6215801 4.8106523 0.66211087 3.919695 0.7914835
3.20925 0.0569632 3.7646103 0.71044445 -4.258077 -0.9868719 -1.1849091 -0.13654128
-5.3810015 -1.2131505 -2.208569 0.31994453 -3.3183305 -1.2199637 -3.915742 -0.58622503
2.777805 -1.0733052 2.1812677 0.040293563 -2.8752012 0.06850124 -2.1377592 -1.0507882
0.43616596 0.21644214 3.5503812 1.077884 5.536556 -1.3268774 2.0477335 0.7203535
1.2377362 0.3518302 2.9339485 0.5407788 0.2748373 1.0529433 -4.4970646 -1.2141672
-3.3017626 -1.2383658 -4.317263 -1.0478728 -2.3089166 -0.6820204 -4.2251163 -0.56733584
-3.7823033 -1.6635953 -4.1952963 -0.5824446 3.0035799 1.6278335 5.268285 0.6930308
2.8550005 0.44505608 3.8925564 0.9523142 0.017261792 1.1209624 2.0795703 -0.44592306
-2.4384127 0.08335185 -4.296708 -0.7997719 3.691684 0.8319403 2.5316906 0.4165082
3.168936 1.403025 3.7896883 0.65171915 -5.1512156 -1.1655469 -3.738847 -0.48908675
1.0192701 -0.13553171 -1.4494888 0.011777573 4.336387 0.6872232 2.1939945 -0.112267345
-1.022006 -0.20205088 -0.45596743 -0.5384798 2.1827462 -1.5752996 0.54043305 0.12628226
2.8868499 -0.5045958 2.383793 0.66697484 6.173851 1.4334539 -1.0307243 -0.26939067
2.4953752 -1.8511254 0.34474567 1.1193955 1.3328117 -2.9170518 -3.668343 0.396429
-4.1843395 -0.44260755 -3.6703553 -0.7643794 -4.0726523 -0.972212 -2.7653635 -0.49257645
00000000: e2b9 17c0 4d57 063f ccf0 2f3f c574 57bf
00000010: d12a 203e 7cef 42c0 19c3 60c0 922d e0be
00000020: 51d1 c1c0 e7ef b73e 3740 983f 7316 9b3d
00000030: f147 a140 593a 23bf 690d a5c0 4f8a 0ebe
00000040: 6260 263f 201a cabf fd0f 443e c500 f9be
00000050: 6fbd aac0 80c0 6a3f 1870 4bc0 300c 21bf
00000060: 8076 8040 2b1d ae3f b244 2d40 1f97 0d3f
00000070: 1222 ba40 9e11 07bf 4881 4940 8e67 753f
00000080: c51c 2e40 f739 babf 65b4 f13f 8421 293f
00000090: 8aa1 b5bd dc6b 8bbf d6f7 643f 58f6 383f
000000a0: 0aa9 8ebf 2e2f de3d 5a2c b1bf a262 88bf
000000b0: 6030 1b40 2fa6 843f c9b3 013f 8ef9 843d
000000c0: bb9e 87c0 b0c3 83bf 7783 35c0 1d30 f3be
000000d0: d1dc d83f 2cf8 09be 52cf 1940 26e7 da3e
000000e0: c053 e73f a621 71bf 4fc0 cf3f e1c6 643f
000000f0: 583d 54bf d3fa 833f d044 db3f f67b 783e
00000100: fe98 57c0 053e 8dbf 5f83 57c0 239e 1dbf
00000110: e153 04be 101a 2f3f afa6 b83f e13e 6f3e
00000120: cc7a acc0 bdc3 da3e 3776 54c0 e97f 44bf
00000130: 2e71 0ebf 0d61 d7bd 4920 09c0 99b4 70bf
00000140: ada5 7840 8e6c 883f 0676 0640 f5e2 ba3e
00000150: 1a4f 06c0 c8ea 26bf ed82 4fc0 0ae9 2bbe
00000160: 4016 8abf 1660 963f 6c33 debe 52f0 483e
00000170: 3e88 ba3f 4384 4fbe 3c42 7740 e4b6 1e3f
00000180: d2da 57c0 e504 c03e adb5 47c0 5bc0 a0bf
00000190: 0764 1ec0 ecc0 c53f e407 dc3f d3ed 52bf
000001a0: f6fc 57c0 bfb8 08c0 9d7f 7dc0 8a52 febd
000001b0: 16d6 0dbe a75f 71bd 48ea 183e 4feb 8cbc
000001c0: e57a a1c0 a56e d4bf 2d49 05c0 c801 623d
000001d0: a019 853f 3cd8 5cbf 6f00 afc0 af1d 2fbf
000001e0: 83fc c8c0 c185 6abf 91e5 4abf 783f 123c
000001f0: 20c0 b5c0 31e6 40be eab4 65c0 77ef 73be
00000200: 4b8b a7c0 18e9 8abf 82d6 82c0 e01f 1fbf
00000210: ddf0 9940 1980 293f 48dc 7a40 aa9e 4a3f
00000220: 5a64 4d40 3f52 693d 60ef 7040 b0df 353f
00000230: 2b42 88c0 a3a3 7cbf 1aab 97bf 7ad1 0bbe
00000240: 2a31 acc0 8448 9bbf 3259 0dc0 c5cf a33e
00000250: 875f 54c0 c527 9cbf 849b 7ac0 d812 16bf
00000260: 8fc7 3140 1162 89bf e499 0b40 dd0a 253d
00000270: 4c03 38c0 614a 8c3d 0cd1 08c0 3a80 86bf
00000280: 2551 df3e 02a3 5d3e 7239 6340 1af8 893f
00000290: 772b b140 1ed7 a9bf 110e 0340 1669 383f
000002a0: 246e 9e3f 1723 b43e d0c5 3b40 7b70 0a3f
000002b0: 79b7 8c3e d9c6 863f f4e7 8fc0 d569 9bbf
000002c0: 1450 53c0 c582 9ebf 0527 8ac0 b220 86bf
000002d0: 4ac5 13c0 e498 2ebf 2734 87c0 ec3c 11bf
000002e0: 4211 72c0 b1f0 d4bf de3f 86c0 171b 15bf
000002f0: a73a 4040 d95c d03f ca95 a840 776a 313f
00000300: 54b8 3640 64de e33e a51f 7940 ddca 733f
00000310: 9a68 8d3c b27b 8f3f ae17 0540 0750 e4be
00000320: f40e 1cc0 60b4 aa3d a27e 89c0 dabd 4cbf
00000330: 8d44 6c40 0afa 543f 3807 2240 9040 d53e
00000340: d9cf 4a40 5396 b33f 418a 7240 11d7 263f
00000350: c2d6 a4c0 a430 95bf 4549 6fc0 9469 fabe
00000360: 7177 823f d3c8 0abe d988 b9bf b9f6 403c
00000370: afc3 8a40 dced 2f3f 686a 0c40 6cec e5bd
00000380: 18d1 82bf 6de6 4ebe 9074 e9be d0d9 09bf
00000390: 1db2 0b40 6ba3 c9bf d259 0a3f 2350 013e
000003a0: 26c2 3840 312d 01bf 1190 1840 ddbe 2a3f
000003b0: 3090 c540 6b7b b73f c6ee 83bf 93ed 89be
000003c0: 3ab4 1f40 adf1 ecbf 8182 b03e 5a48 8f3f
000003d0: 9399 aa3f fab0 3ac0 22c6 6ac0 bef8 ca3e
000003e0: 1ce6 85c0 759d e2be 1ae7 6ac0 5eae 43bf
000003f0: 2b53 82c0 e3e2 78bf b7fb 30c0 fb32 fcbe

critic.v_net.fcs.0.bias f4 [64]
0.19320975 -0.5488059 0.19334365 -0.044068936 -0.4773655 0.0790295 0.2713248 -0.10716886
-0.069366015 -0.13686016 -0.30139524 -0.13992225 -0.4934661 -0.25236592 -0.17995757 0.17050625
-0.100438245 -0.3209293 0.1321973 0.23337021 -0.20116791 0.28584495 0.3419749 -0.106075875
0.091430195 0.36391 0.1258158 0.4742067 0.17660706 -0.21355332 -0.15836889 -0.10058442
-0.3005451 0.1990001 -0.0642581 0.18663214 0.2036205 -0.20466135 -0.033036217 -0.4991931
0.31342393 -0.11517434 -0.27759263 -0.34735978 -0.035144452 -0.5440221 0.14896336 0.00532341
0.07970582 0.37004814 0.010286614 0.063049115 -0.006056605 -0.25058615 -0.5518736 -0.10482643
0.20523585 -0.14123426 0.012985613 0.4023388 -0.21016186 -0.5124533 -0.09576275 0.0422753
00000000: c7d8 453e 8b7e 0cbf e1fb 453e a181 34bd
00000010: 4069 f4be 38da a13d 16eb 8a3e 597b dbbd
00000020: c50f 8ebd 1225 0cbe 7a50 9abe c747 0fbe
00000030: 97a7 fcbe 1b36 81be cc46 38be 3199 2e3e
00000040: 91b2 cdbd d850 a4be bb5e 073e 9af8 6e3e
00000050: f6fe 4dbe 455a 923e 5617 af3e 4f3e d9bd
00000060: c13f bb3d 6952 ba3e dbd5 003e 38cb f23e
00000070: 7bd8 343e b9ad 5abe 742b 22be 34ff cdbd
00000080: 0ce1 99be afc6 4b3e c099 83bd 7f1c 3f3e
00000090: e481 503e bf92 51be fc50 07bd 3d96 ffbe
000000a0: 1a79 a03e 86e0 ebbd 9f20 8ebe 24d9 b1be
000000b0: a1f3 0fbd 0845 0bbf da89 183e 0070 ae3b
000000c0: ce3c a33d f376 bd3e 3089 283c e51f 813d
000000d0: 7c76 c6bb d44c 80be 9747 0dbf 3daf d6bd
000000e0: 5929 523e b79f 10be 9cc1 543c 5aff cd3e
000000f0: ac34 57be 2430 03bf 431f c4bd dd28 2d3d

critic.v_net.fcs.1.weight f4 [64, 64]
-1.3290974 -0.12811244 -1.131648 -0.40066934 0.38130164 -0.7797606 0.114881 1.1191832
0.22972292 -0.0070668967 -0.4486131 1.4127603 0.11021355 0.92774415 0.4484134 -0.32948646
-0.55147034 -0.6167552 -0.91173565 0.16004898 1.6777451 -0.57565784 -0.161768 -0.17226751
-0.9428501 -1.0766468 -1.3561907 -0.8658377 -0.66407 1.0452814 -0.018420594 -0.91004866
-0.24964589 0.5211829 1.0688821 -0.71663475 -1.3172747 -0.5699045 0.43847054 -0.37496307
-0.2526164 0.70434827 0.014738749 -0.06404321 -0.9377526 -0.6119258 -1.1231767 1.1128144
0.5230997 -0.672923 0.0018982998 0.39647302 0.9646323 0.1807728 0.75288457 1.2704808
-0.68461514 0.3602932 1.186237 -0.2319598 -0.17941022 -0.18512392 -0.4094518 -1.1737484
-1.3424662 0.019726368 -0.20209152 -0.27919728 -0.8851993 0.39026368 -0.19438101 -0.56653434
0.11037152 -0.15182188 -1.747684 0.087141715 -0.2504523 0.098444864 -0.2795899 0.07111492
-0.24869707 -1.0699843 0.65160185 0.7456471 0.7777113 0.31585985 0.69553906 -0.55116034
-0.7470282 -0.59919304 -0.43390143 0.11179538 -0.057065617 0.092574 0.3225447 0.5661927
0.6231015 -0.35687017 0.8448522 0.20922214 -0.1723094 -0.5325439 -0.29732722 -1.172272
0.32768428 -0.73302335 -0.62295365 -0.94215816 -0.88568866 -0.96071017 -0.11015283 0.47033662
-0.26746267 -0.27135605 0.2012151 0.77936465 0.61655855 0.8260297 -0.025120385 -0.065974854
-0.22855344 -0.20640598 0.4653275 -0.41950402 0.16235213 -0.15507567 0.52126807 -0.3387847
1.6909077 -0.6638189 -0.019421468 0.59728503 0.46578807 -0.72839725 0.113771796 0.22020096
1.1990714 1.0754548 0.69677824 -1.0845917 -0.2026184 -1.2680651 0.8129748 1.148515
-0.056739062 1.375544 -0.44592667 -0.8627533 -1.2037604 0.79582286 -0.58327943 0.8696991
1.7537621 0.14076298 1.8161776 -0.252962 0.6488272 -0.8276227 -0.6695198 -0.13861957
-0.6405112 0.338581 -1.592977 0.3344911 0.81764525 0.80955625 0.61662203 1.7641635
0.28597057 0.70491594 0.98213065 -0.06719328 1.1548128 0.49090984 1.2963247 -1.1429209
0.313059 1.0986421 -0.89489824 -2.1224785 -1.5515131 -0.6125188 0.2833805 -0.3047467
-0.06682626 0.5205586 0.19575453 0.66314024 0.3705332 -0.8217344 -0.4610215 0.677659
0.3954292 0.34603634 -1.2225829 -1.1863179 0.050376207 -0.82931304 -1.0913293 1.3311025
-0.18361104 1.6486386 0.65857214 -0.7940302 1.2514307 0.6729937 -0.22931117 1.3050756
1.1230366 0.50381696 -0.0852382 0.47426814 -0.5250931 -1.0430123 0.13690972 -0.49815702
-0.44346935 -0.7072407 -0.78910047 -1.7550951 0.08579538 -1.0451999 0.47019204 -0.14551118
0.15425208 -0.008099642 0.72502655 0.18700515 0.23722343 0.73995155 1.5101821 0.109358706
-1.1528552 0.26207432 0.19375007 1.1137944 -0.7497362 1.0284768 -0.474787 0.4411082
0.5000429 -0.43773484 0.4869596 0.06882818 0.19462278 0.8049207 1.9095273 0.97001255
0.066207044 0.4123357 1.1243389 -0.4438802 -0.6852064 0.28710347 0.6282109 0.5383843
00000000: dd1f aabf e82f 03be d7d9 90bf 8824 cdbe
00000010: f839 c33e 649e 47bf bb46 eb3d 6541 8f3f
00000020: 7c3c 6b3e 6d91 e7bb 9eb0 e5be 54d5 b43f
00000030: a4b7 e13d a480 6d3f 7196 e53e 73b2 a8be
00000040: 292d 0dbf abe3 1dbf 8267 69bf e1e3 233e
00000050: 5ac0 d63f 505e 13bf 83a6 25be e566 30be
00000060: a05e 71bf 90cf 89bf a897 adbf 8aa7 5dbf
00000070: 7e00 2abf c8cb 853f c9e6 96bc f3f8 68bf
00000080: 2ca3 7fbe 3e6c 053f 21d1 883f 6075 37bf
00000090: 759c a8bf 43e5 11bf 367f e03e 29fb bfbe
000000a0: f056 81be 2b50 343f cb7a 713c 1629 83bd
000000b0: 8e10 70bf 2ba7 1cbf 41c4 8fbf b470 8e3f
000000c0: dde9 053f af44 2cbf 5fd0 f83a 83fe ca3e
000000d0: 24f2 763f 811c 393e 0bbd 403f 1d9f a23f
000000e0: f042 2fbf 5a78 b83e 9dd6 973f df86 6dbe
000000f0: 50b7 37be 2091 3dbe aba3 d1be 633d 96bf
00000100: efd5 abbf 3199 a13c 14f1 4ebe f2f2 8ebe
00000110: 6c9c 62bf a4d0 c73e d10b 47be 6508 11bf
00000120: 770a e23d 3277 1bbe 1cb4 dfbf 5b77 b23d
00000130: 493b 80be 769d c93d 6826 8fbe b3a4 913d
00000140: 72aa 7ebe 3ff5 88bf 61cf 263f bae2 3e3f
00000150: 1618 473f 62b8 a13e d90e 323f d818 0dbf
00000160: 3d3d 3fbf b764 19bf 5428 debe faf4 e43d
00000170: a3bd 69bd 7097 bd3d 9424 a53e 01f2 103f
00000180: 9483 1f3f b0b7 b6be 3c48 583f 543e 563e
00000190: e071 30be cc54 08bf 463b 98be 020d 96bf
000001a0: 3cc6 a73e 6ba7 3bbf e479 1fbf 4731 71bf
000001b0: 7ebc 62bf 1af1 75bf cf97 e1bd f6cf f03e
000001c0: def0 88be 2eef 8abe 550b 4e3e 7184 473f
000001d0: c8d6 1d3f af76 533f 44c9 cdbc d31d 87bd
000001e0: ea09 6abe 175c 53be 683f ee3e 3bc9 d6be
000001f0: a33f 263e 28cc 1ebe d371 053f 3075 adbe
00000200: aa6f d83f 09f0 29bf c519 9fbc ace7 183f
00000210: c67b ee3e 3e78 3abf 3001 e93d 5c7c 613e
00000220: 2c7b 993f 81a8 893f 0f60 323f e7d3 8abf
00000230: 337b 4fbe f54f a2bf 1e1f 503f 8a02 933f
00000240: 3867 68bd d311 b03f 8050 e4be 66dd 5cbf
00000250: d214 9abf 0cbb 4b3f cd51 15bf 9aa4 5e3f
00000260: 477b e03f 2c24 103e 8278 e83f 3c84 81be
00000270: 8a19 263f 15df 53bf a665 2bbf 4af2 0dbe
00000280: 8bf8 23bf 7d5a ad3e ace6 cbbf 6b42 ab3e
00000290: 3351 513f 143f 4f3f f1da 1d3f 1cd0 e13f
000002a0: bc6a 923e 5f75 343f ea6c 7b3f a19c 89bd
000002b0: e8d0 933f 8958 fb3e f8ed a53f 3b4b 92bf
000002c0: 4549 a03e 4ea0 8c3f 0d18 65bf b0d6 07c0
000002d0: fb97 c6bf 08ce 1cbf 4017 913e c207 9cbe
000002e0: 35dc 88bd 5443 053f e073 483e 8fc3 293f
000002f0: 87b6 bd3e 305d 52bf 030b ecbe 0f7b 2d3f
00000300: b275 ca3e ad2b b13e 997d 9cbf 44d9 97bf
00000310: 4857 4e3d dc4d 54bf aeb0 8bbf 9161 aa3f
00000320: 8804 3cbe 9706 d33f 2f98 283f 9045 4bbf
00000330: e22e a03f 5149 2c3f 8cd0 6abe b80c a73f
00000340: aabf 8f3f 26fa 003f 5e91 aebd 46d3 f23e
00000350: 806c 06bf 6d81 85bf 1032 0c3e 700e ffbe
00000360: 6a0e e3be ba0d 35bf 7d02 4abf f5a6 e0bf
00000370: 7db5 af3d 1cc9 85bf 03bd f03e e200 15be
00000380: 42f4 1d3e 5cb4 04bc 579b 393f 477e 3f3e
00000390: b3ea 723e 776d 3d3f a64d c13f 75f7 df3d
000003a0: c290 93bf 9b2e 863e 6b66 463e d190 8e3f
000003b0: b6ee 3fbf 21a5 833f 4817 f3be efd8 e13e
000003c0: d002 003f c81e e0be c552 f93e caf5 8c3d
000003d0: 324b 473e 480f 4e3f 646b f43f be52 783f
000003e0: 8f97 873d aa1d d33e 56ea 8f3f 4444 e3be
000003f0: b069 2fbf 3aff 923e 6ed2 203f 8ed3 093f

critic.v_net.fcs.1.bias f4 [64]
0.64557236 1.0496852 -1.6331309 -0.677805 0.6119341 0.27907246 -1.5557806 -0.06770527
1.404029 1.2254599 0.6162762 0.13146096 0.46753275 -0.20057513 -0.72075313 -0.6588604
-1.4576085 0.4381517 -1.0380237 1.5168911 -0.3383172 -0.44514215 -1.4637008 -0.8242272
0.43372294 -1.4956177 -1.8843113 0.2977958 0.099324115 -1.0020427 0.5014627 0.049538173
1.7734843 0.06340372 0.40168893 -1.1241856 1.2997025 -0.70116496 -0.2514016 0.1720225
0.17683023 -0.61909354 0.9462947 -0.31559438 1.6300669 0.34200954 -0.45631924 0.3546449
-0.55490685 -1.5230318 0.078426346 -0.32425216 -1.2280912 1.863975 -0.43910202 1.2805134
0.35921535 0.3944191 -0.3929109 1.2822837 -2.000952 1.0376997 1.1236517 1.047316
00000000: 3b44 253f 165c 863f 6f0a d1bf a184 2dbf
00000010: b7a7 1c3f 96e2 8e3e d223 c7bf 10a9 8abd
00000020: 39b7 b33f dfdb 9c3f 47c4 1d3f b49d 063e
00000030: 7460 ef3e 9163 4dbe 4783 38bf 13ab 28bf
00000040: ea92 babf 6b55 e03e f6dd 84bf 7d29 c23f
00000050: e937 adbe ace9 e3be 8c5a bbbf 8e00 53bf
00000060: ef10 de3e 6770 bfbf 1d31 f1bf b178 983e
00000070: 716a cb3d ef42 80bf dc5f 003f 8ae8 4a3d
00000080: 8901 e33f cfd9 813d 2caa cd3e 50e5 8fbf
00000090: a75c a63f 8c7f 33bf b6b7 80be ab26 303e
000000a0: fc12 353e ea7c 1ebf 5f40 723f 9695 a1be
000000b0: 08a6 d03f e01b af3e ada2 e9be 0494 b53e
000000c0: 600e 0ebf b5f2 c2bf fe9d a03d 6104 a6be
000000d0: 1832 9dbf bc96 ee3f fbd1 e0be dde7 a33f
000000e0: 13eb b73e 4df1 c93e 9e2b c9be df21 a43f
000000f0: 990f 00c0 58d3 843f d2d3 8f3f 730e 863f

critic.v_net.fcs.2.weight f4 [1, 64]
2.9354231 3.5458703 -3.13359 -0.7162642 3.2176597 1.0838981 -3.3540087 -3.6678467
4.491564 4.129231 3.4425292 5.021953 3.1671247 5.0826044 -3.0430186 -3.513164
-3.1516504 3.5659177 -2.056077 3.5051363 -3.587188 -2.993467 -3.5901067 -3.2267683
2.762292 -2.9854283 -3.4364815 2.3803751 4.8489056 -3.0478697 3.1276636 2.0813134
3.0265474 -1.7713698 -0.35089546 -1.7582375 3.0511584 -2.9701474 1.2377691 3.8084233
1.7258517 -2.234301 3.2425666 -3.0377283 3.489608 3.268884 -3.847203 1.1826978
-2.8927786 -2.5298522 2.2956204 4.8238034 -3.6399617 3.5981123 -4.0857744 3.6099548
3.260576 -2.5644379 -3.6205995 3.9447176 -4.4217973 3.7849646 3.2210512 1.9785125
00000000: f9dd 3b40 8aef 6240 bd8c 48c0 175d 37bf
00000010: 23ee 4d40 2cbd 8a3f 14a8 56c0 00be 6ac0
00000020: e4ba 8f40 a922 8440 6652 5c40 d7b3 a040
00000030: 2cb2 4a40 b2a4 a240 d1c0 42c0 aed7 60c0
00000040: a4b4 49c0 ff37 6440 c496 03c0 2754 6040
00000050: 7d94 65c0 f794 3fc0 4fc4 65c0 5f83 4ec0
00000060: 64c9 3040 4211 3fc0 50ef 5bc0 1158 1840
00000070: 3c2a 9b40 4c10 43c0 a42b 4840 3d34 0540
00000080: f4b2 4140 3fbc e2bf 92a8 b3be ed0d e1bf
00000090: 2e46 4340 e516 3ec0 386f 9e3f 35bd 7340
000000a0: b5e8 dc3f cafe 0ec0 3686 4f40 246a 42c0
000000b0: bd55 5f40 6535 5140 9338 76c0 a462 973f
000000c0: 4923 39c0 19e9 21c0 72eb 1240 995c 9a40
000000d0: 22f5 68c0 7947 6640 aabe 82c0 8009 6740
000000e0: 47ad 5040 c01f 24c0 e7b7 67c0 4176 7c40
000000f0: 5d7f 8dc0 dc3c 7240 b425 4e40 e63f fd3f

exp_avg f4 [64, 4]
0.0042801597 0.0022406776 -5.2277395e-05 -0.00041807978 -0.0148396725 -0.0062598516 0.00020179537 0.00042829616
-0.0033005641 -0.0012053405 3.38991e-05 -1.5916885e-05 0.0034004438 0.0015258542 3.741136e-07 -0.0001679743
0.0016275119 0.00075935066 7.577752e-05 -0.00016921622 0.0024081774 0.0015965173 0.00028474315 -0.0005415789
5.840931e-05 -5.0957133e-06 -3.7389873e-05 3.8383172e-05 -7.643856e-05 -3.1123698e-05 -3.2865428e-05 4.2145333e-05
-0.0041447696 -0.0015476609 0.00015648823 -7.654654e-05 0.00025954848 4.5923633e-05 -4.3692784e-05 4.11018e-05
-0.0024273675 -0.001001129 0.00010220212 -3.0968487e-05 0.00045508097 0.0002683565 8.645441e-05 -0.00010256385
-0.0058328435 -0.002630724 7.568762e-05 0.00023978212 0.0019107658 0.0009365227 -6.541066e-05 -6.7948466e-05
0.0062343474 0.0027178556 -0.00015635333 -0.00021419552 -0.00131831 -0.0005277373 6.361149e-05 -1.493276e-05
-9.3327275e-05 -6.961041e-05 -1.0655993e-05 9.829013e-06 -0.004962949 -0.0022270738 7.5155212e-06 0.00021515739
0.0029285194 0.0013116044 0.00012218875 -0.00018525154 -0.020621056 -0.009353765 0.00023723592 0.0008833585
0.002182114 0.0009800283 3.570523e-05 -0.0001398327 -0.0010978037 -0.00034700733 5.859291e-05 -4.288894e-05
-0.0057651508 -0.0024775043 9.116396e-06 0.0001526723 -0.010225203 -0.0045833327 0.00015036548 0.0004273648
0.0019848074 0.0008597499 -4.5354296e-05 -3.8326776e-05 -0.008730799 -0.0038551346 9.6447344e-05 0.00022622483
-0.00076297444 -0.00034759464 6.115038e-06 4.1028485e-05 -0.019992527 -0.009035166 0.00020831687 0.0008740609
0.0009428466 0.00031983218 -3.4246623e-05 3.2324286e-05 0.011947853 0.0051536025 6.143463e-05 -0.0005243216
0.0010527382 0.00037426694 -9.074657e-05 6.069377e-05 0.00080092455 0.0003307305 2.0442796e-05 -3.504667e-05
0.0029183594 0.0014087732 0.00013616633 -0.00023288885 0.0017158948 0.00065943896 -3.4543653e-05 1.1700287e-05
-0.0053566834 -0.0023498256 7.531357e-05 0.00021778829 0.006158302 0.0025707597 -4.9798757e-05 -0.0001727437
-0.004059518 -0.0021458135 -0.000102101534 0.00048256735 -0.0006329666 -0.00023797882 -3.4739721e-06 -1.1192392e-05
-0.0017450154 -0.00056977133 0.0001377367 -0.00010310492 0.007421664 0.0035401164 -0.00020644558 -0.00047227042
0.0026886244 0.0012633018 -7.008759e-05 -0.00016734497 0.0055683632 0.0022854698 -3.6262925e-05 -0.0001427627
0.0016667702 0.00049744686 -3.424417e-05 2.7840539e-05 0.001540591 0.0006916675 -6.1935796e-05 -4.582832e-05
0.00302623 0.0012650883 -9.14799e-05 1.5090493e-06 0.0004053585 0.00016589405 -1.8281364e-05 -1.4729806e-05
-0.0037723074 -0.0015272652 7.5338365e-05 3.602619e-05 -0.011925759 -0.0052317865 -8.465619e-06 0.00052756147
0.0009305859 0.0004631979 -2.7686658e-05 -6.24594e-05 0.0019551306 0.0007328775 -1.887355e-05 7.028981e-06
-0.0017562752 -0.00065225625 8.359544e-05 -9.03353e-05 0.0030877132 0.0009725704 -0.00025505686 0.00022178871
-0.00016874408 -0.00012171871 -5.32494e-05 6.887687e-05 -0.0042917808 -0.0018205137 2.8453935e-05 8.936039e-05
-0.0010134635 -0.00043103084 -3.7452068e-05 3.2072545e-05 0.006421978 0.0028838012 3.0277166e-05 -0.0003069841
-0.0010774952 -0.00061460683 -0.00013461764 0.00019580442 -0.0011702484 -0.00040316084 9.001915e-05 -7.2697476e-05
0.009610061 0.003864546 -7.785521e-06 -0.00021793476 -0.0128698405 -0.006068921 3.220039e-05 0.0006646115
-0.007633418 -0.0032004 -7.1651586e-05 0.00025819844 0.0039051138 0.0016182567 -9.0465226e-05 -9.738363e-05
0.015973775 0.0074745486 2.6124004e-05 -0.00083641073 0.0004558 0.00012195178 -8.0788624e-05 6.683658e-05
00000000: 9540 8c3b 55d8 123b 6d44 5bb8 b831 dbb9
00000010: 1922 73bc 711f cdbb 0899 5339 f08c e039
00000020: 474e 58bb 84fc 9dba e22e 0e38 4085 85b7
00000030: fbd9 5e3b 2cff c73a c8d9 c834 4222 30b9
00000040: 3d52 d53a 290f 473a bfea 9e38 a26f 31b9
00000050: 83d2 1d3b 3b42 d13a 9449 9539 bff8 0dba
00000060: 85fc 7438 d8fb aab6 12d3 1cb8 9efd 2038
00000070: a44d a0b8 d18a 02b8 fcd8 09b8 35c5 3038
00000080: d9d0 87bb e2da caba fd16 2439 9c87 a0b8
00000090: 0214 8839 209e 4038 c542 37b8 b964 2c38
000000a0: 7814 1fbb 5138 83ba 5855 d638 29e4 01b8
000000b0: ef97 ee39 33b2 8c39 dc4e b538 8c17 d7b8
000000c0: 7021 bfbb 3a68 2cbb 7bba 9e38 066e 7b39
000000d0: a972 fa3a f980 753a 152d 89b8 8e7f 8eb8
000000e0: 7f49 cc3b 0d1e 323b c7f2 23b9 ac99 60b9
000000f0: 25cb acba da57 0aba 2967 8538 b787 7ab7
00000100: b3b8 c3b8 cefb 91b8 24c7 32b7 4ae7 2437
00000110: 3ca0 a2bb 19f4 11bb d62d fc36 df9b 6139
00000120: 67ec 3f3b 24ea ab3a cb1f 0039 1540 42b9
00000130: 7ded a8bc 8940 19bc 88c2 7839 2f91 673a
00000140: cc01 0f3b 4b74 803a 33c2 1538 0ea0 12b9
00000150: 2ee4 8fba 89ee b5b9 a8c1 7538 a6e3 33b8
00000160: 97e9 bcbb a05d 22bb 9ff2 1837 a916 2039
00000170: 9c87 27bc c82f 96bb 6dab 1d39 ef0f e039
00000180: 8b13 023b d760 613a ce3a 3eb8 10c1 20b8
00000190: a00b 0fbc 6da6 7cbb c643 ca38 c436 6d39
000001a0: 5902 48ba 5d3d b6b9 c72f cd36 0016 2c38
000001b0: 5ec7 a3bc 3c08 14bc a26f 5a39 3c21 653a
000001c0: 5d29 773a 26af a739 08a4 0fb8 f093 0738
000001d0: edc0 433c 8ddf a83b 77d6 8038 a072 09ba
000001e0: 08fc 893a 4239 c439 324f beb8 7091 7e38
000001f0: 23f5 513a e565 ad39 927c ab37 13ff 12b8
00000200: f241 3f3b 96a6 b83a dfc7 0e39 a033 74b9
00000210: e0e7 e03a 33de 2c3a f7e2 10b8 5a4c 4437
00000220: 1e87 afbb 88ff 19bb aaf1 9d38 195e 6439
00000230: 95cb c93b 317a 283b 02df 50b8 8922 35b9
00000240: b505 85bb c7a0 0cbb 581f d6b8 1801 fd39
00000250: abed 25ba f489 79b9 6322 69b6 f5c6 3bb7
00000260: 00b9 e4ba b55c 15ba 6a6d 1039 083a d8b8
00000270: 6e31 f33b 4c01 683b 5079 58b9 109b f7b9
00000280: a233 303b 6095 a53a fdfb 92b8 5379 2fb9
00000290: d176 b63b d2c7 153b 0519 18b8 92b2 15b9
000002a0: 8777 da3a 1867 023a 66a1 0fb8 1a8b e937
000002b0: a8ed c93a 0551 353a 87e3 81b8 c937 40b8
000002c0: b753 463b 52d1 a53a e6d8 bfb8 8a8a ca35
000002d0: 4c86 d439 d8f3 2d39 ee5a 99b7 0920 77b7
000002e0: d138 77bb 842e c8ba fafe 9d38 d41a 1738
000002f0: 4264 43bc 686f abbb 8f07 0eb7 0d4c 0a3a
00000300: 90f2 733a 5fd9 f239 a540 e8b7 a3fc 82b8
00000310: a621 003b 941e 403a a452 9eb7 7dda eb36
00000320: d132 e6ba 2dfc 2aba f64f af38 6572 bdb8
00000330: 3b5b 4a3b 18f4 7e3a 27b9 85b9 f48f 6839
00000340: e5f0 30b9 3c43 ffb8 1c58 5fb8 fd71 9038
00000350: 11a2 8cbb 4e9e eeba 5cb0 ee37 fe66 bb38
00000360: 31d6 84ba fbfb e1b9 da15 1db8 a285 0638
00000370: 756f d23b 28fe 3c3b b8fb fd37 b5f2 a0b9
00000380: bd3a 8dba 911d 21ba 2628 0db9 d950 4d39
00000390: 0563 99ba 555f d3b9 aac8 bc38 2975 98b8
000003a0: 8473 1d3c 5344 7d3b 8f9e 02b7 6b85 64b9
000003b0: 06dc 52bc cddd c6bb e80e 0738 5339 2e3a
000003c0: c021 fabb cdbd 51bb a743 96b8 cf5e 8739
000003d0: f0ec 7f3b af1b d43a 26b8 bdb8 703a ccb8
000003e0: 6fdb 823c 0fed f43b df24 db37 9342 5bba
000003f0: 71f8 ee39 5dc0 ff38 106d a9b8 9e2a 8c38

exp_avg_sq f4 [64, 4]
0.011350028 0.010568782 0.00030844205 0.0032006563 0.12834942 0.14581384 0.004174661 0.041088436
0.0068024513 0.008624798 0.00024372152 0.0023309044 0.007449028 0.008354188 0.00024593042 0.0024123336
0.0017035923 0.0020284776 6.249561e-05 0.0006294526 0.00457845 0.0051365755 0.00017370246 0.0018201813
4.451138e-06 8.48129e-06 3.4856066e-07 3.086297e-06 2.1446293e-05 2.5322424e-05 8.8409695e-07 8.524277e-06
0.0103231305 0.011239709 0.00031034724 0.0029214658 1.9230676e-05 2.3133483e-05 5.043083e-07 5.07864e-06
0.003487901 0.003935208 0.000106953004 0.0010332719 0.00032781012 0.00040405264 1.3300516e-05 0.00012818674
0.021018919 0.022779431 0.00065508706 0.0064912853 0.002128698 0.0023163327 6.4292995e-05 0.00064485037
0.023686009 0.025517885 0.00071516953 0.0070190798 0.00079006347 0.00085073395 2.374198e-05 0.00023187124
1.4160667e-05 1.2071931e-05 3.4884928e-07 3.4361942e-06 0.016896397 0.018790996 0.00054027775 0.005235923
0.0058033615 0.0074839983 0.00022683894 0.002227092 0.25962356 0.28841648 0.008287545 0.08175187
0.0028783698 0.0036945383 0.000108242064 0.0010835032 0.0005689365 0.00068924436 1.865331e-05 0.00017324323
0.022929117 0.025259217 0.0007240451 0.006946664 0.058876935 0.0622003 0.0018118519 0.01792449
0.0020374984 0.0023045463 6.571142e-05 0.000650473 0.049942754 0.055124845 0.0015752414 0.015314539
0.00024065281 0.00026410737 7.826701e-06 8.3032995e-05 0.24787332 0.2764817 0.007925525 0.07813832
0.00033696878 0.00042807398 1.2139907e-05 0.00011705318 0.08963655 0.10432184 0.0030255616 0.02981838
0.00033922106 0.00036211297 9.219636e-06 9.4352006e-05 0.00035663892 0.00040661785 1.238266e-05 0.00012467902
0.006375499 0.007301301 0.00022501576 0.0022311558 0.002050877 0.002269969 6.348425e-05 0.00059498585
0.017171394 0.019055098 0.00054312736 0.005415788 0.022978343 0.02614851 0.00074548763 0.007343227
0.01052268 0.011469063 0.0003472123 0.0035498138 0.00016186204 0.00019975471 6.0421107e-06 6.0965944e-05
0.0015143572 0.0016671426 4.3091695e-05 0.00040119592 0.033139676 0.033531647 0.00094001245 0.009529848
0.0040728 0.0044084815 0.00012372794 0.0012442768 0.018057846 0.020835506 0.0005968552 0.005878926
0.0014312499 0.001889055 5.3489744e-05 0.00049802725 0.0017303755 0.001818866 4.8497077e-05 0.00048251665
0.006106421 0.006595831 0.00018074033 0.0017684976 6.0358943e-05 6.804454e-05 2.0301559e-06 1.990049e-05
0.008153769 0.008908217 0.0002565167 0.0024272047 0.09170829 0.10561199 0.003054967 0.030146146
0.00041864646 0.00042041202 1.2064456e-05 0.00012377057 0.002188267 0.0030582142 8.607679e-05 0.00081944105
0.002077874 0.0022373036 6.024124e-05 0.0005644544 0.0050947955 0.0056047803 0.00014334587 0.0013138442
0.00011369406 0.00013609577 4.4221806e-06 4.1027848e-05 0.012312825 0.014022111 0.0004021978 0.0039089434
0.0006086357 0.00072821544 2.3645223e-05 0.00022511216 0.025883153 0.028860174 0.00084450823 0.008391292
0.0011446263 0.0013487065 4.4348028e-05 0.0004473147 0.000398604 0.00044579036 1.191138e-05 0.00011925196
0.05879575 0.0704799 0.0020316874 0.019751297 0.10134159 0.109175265 0.003198447 0.031605158
0.039557476 0.044590592 0.0012954534 0.012615779 0.008791982 0.009880636 0.00027605525 0.002743336
0.15825789 0.16946308 0.005065981 0.049678672 2.2321312e-05 1.9878144e-05 3.4497324e-07 3.964311e-06
00000000: 78f5 393c af28 2d3c 64b6 a139 1ac2 513b
00000010: 086e 033e 3950 153e 98cb 883b 594c 283d
00000020: 19e7 de3b 064f 0d3c 7f8f 7f39 16c2 183b
00000030: fa16 f43b 01e0 083c 39f0 8039 3e18 1e3b
00000040: 124b df3a 35f0 043b 1310 8338 d901 253a
00000050: d306 963b b850 a83b e623 3639 2693 ee3a
00000060: fc5a 9536 dd4a 0e37 d021 bb34 2e1e 4f36
00000070: 90e7 b337 7e6b d437 ae52 6d35 7e03 0f37
00000080: 5922 293c c226 383c 1ab6 a239 1076 3f3b
00000090: 9051 a137 c70e c237 cd5f 0735 2f69 aa36
000000a0: 4595 643b ebf2 803b f54b e038 da6e 873a
000000b0: eedd ab39 07d7 d339 4825 5f37 de69 0639
000000c0: de2f ac3c ee9b ba3c 26ba 2b3a d9b4 d43b
000000d0: a081 0b3b 9dcd 173b 0ad5 8638 2d0b 293a
000000e0: 2909 c23c e20a d13c 377a 3b3a 4f00 e63b
000000f0: 431c 4f3a ca03 5f3a 8429 c737 7622 7339
00000100: 9a93 6d37 8d88 4a37 7b49 bb34 5e99 6636
00000110: 506a 8a3c 93ef 993c 6da1 0d3a 1b92 ab3b
00000120: 202a be3b 543c f53b 9ddb 6d39 67f4 113b
00000130: 61ed 843e 53ab 933e 7cc8 073c 866d a73d
00000140: 08a3 3c3b 1120 723b 0400 e338 5604 8e3a
00000150: af24 153a 68ae 343a ae79 9c37 a0a8 3539
00000160: d8d5 bb3c 6bec ce3c d8cd 3d3a d7a0 e33b
00000170: f128 713d bec5 7e3d a97b ed3a 61d6 923c
00000180: 8d87 053b df07 173b 8dce 8938 8184 2a3a
00000190: c690 4c3d 97ca 613d 5578 ce3a d5e9 7a3c
000001a0: bf57 7c39 e477 8a39 6d4f 0337 0022 ae38
000001b0: 81d2 7d3e 028f 8d3e 10da 013c fc06 a03d
000001c0: 2fab b039 1e6f e039 81ac 4b37 737a f538
000001d0: 5e93 b73d b0a6 d53d 8048 463b ad45 f43c
000001e0: 7bd9 b139 fbd9 bd39 09ae 1a37 d9de c538
000001f0: 44fb ba39 532f d539 1fbf 4f37 45bc 0239
00000200: 90e9 d03b c13f ef3b 35f2 6b39 9538 123b
00000210: 0268 063b c3c3 143b d922 8538 d3f8 1b3a
00000220: 06ab 8c3c 7019 9c3c a960 0e3a ec76 b13b
00000230: 143d bc3c 6635 d63c d46c 433a 749f f03b
00000240: 5267 2c3c bde8 3b3c 0c0a b639 fea3 683b
00000250: 83b9 2939 3f75 5139 56bd ca36 afb5 7f38
00000260: 657d c63a 0684 da3a 5bbd 3438 9b57 d239
00000270: 78bd 073d 7b58 093d 2b6b 763a 1423 1c3c
00000280: 1f75 853b 0675 903b f7bc 0139 0017 a33a
00000290: 0cee 933c 39af aa3c 4676 1c3a 01a4 c03b
000002a0: c798 bb3a 2b9a f73a 2d5a 6038 0b8e 023a
000002b0: c4cd e23a 0467 ee3a 5769 4b38 4afa fc39
000002c0: 5f18 c83b d721 d83b 1d85 3d39 efcc e73a
000002d0: ec29 7d38 22b3 8e38 d03d 0836 faef a637
000002e0: 6397 053c c5f3 113c 177d 8639 bd11 1f3b
000002f0: 8ed1 bb3d 194b d83d d735 483b 0df5 f63c
00000300: c77d db39 bf6a dc39 7268 4a37 69c8 0139
00000310: 0769 0f3b 526c 483b 2084 b438 c2cf 563a
00000320: f12c 083b ba9f 123b 8aab 7c38 e5f7 133a
00000330: 3ef2 a63b 4ea8 b73b 1d4f 1639 4c35 ac3a
00000340: 096f ee38 eeb4 0e39 3e62 9436 5115 2c38
00000350: bbbb 493c ffbc 653c 13de d239 9816 803b
00000360: da8c 1f3a b6e5 3e3a bb59 c637 160c 6c39
00000370: e808 d43c 2c6c ec3c fd61 5d3a a17b 093c
00000380: 4907 963a 15c7 b03a 5502 3a38 9085 ea39
00000390: b9fb d039 f8b8 e939 fdd6 4737 e916 fa38
000003a0: d0d3 703d c457 903d 0f26 053b 79cd a13c
000003b0: 2e8c cf3d 4897 df3d 099d 513b 6974 013d
000003c0: 0507 223d a0a4 363d 34cc a93a 6ab2 4e3c
000003d0: 3f0c 103c 64e2 213c 82bb 9039 8ac9 333b
000003e0: 5b0e 223e bb87 2d3e 8700 a63b dd7b 4b3d
000003f0: a73e bb37 fdbf a637 c334 b934 2c05 8536

exp_avg f4 [64]
0.06435731 -0.21560128 -0.05009024 0.055767164 0.026590439 0.04436823 -0.0028389643 -0.0047706263
-0.06317964 0.00031352797 -0.03270126 0.013321133 -0.086081274 0.025437504 0.09374016 -0.017448395
-0.0019994772 -0.07853885 0.047855902 -0.31001788 0.032916557 -0.015672654 -0.09030514 -0.14575003
0.028218595 -0.13250014 -0.007930742 -0.30103847 0.010731076 0.18481454 0.007365021 0.010943321
0.04931769 0.026294332 -0.08071693 0.08901337 -0.06473595 -0.006175333 -0.023323167 0.11018649
0.03926146 0.07926039 0.02582616 0.021879094 0.041240793 0.006497891 -0.058240905 -0.18494315
0.013170891 0.028464448 -0.024738414 0.04272964 -0.008061964 -0.0656549 -0.016815277 0.09431462
-0.022189025 -0.008129477 0.14933681 -0.18955664 -0.11958356 0.053036727 0.24436721 -0.00027286788
00000000: c4cd 833d 95c6 5cbe 6c2b 4dbd 1c6c 643d
00000010: 31d4 d93c 76bb 353d eb0d 3abb ea52 9cbb
00000020: 5464 81bd 0361 a439 c2f1 05bd e240 5a3c
00000030: 614b b0bd 5062 d03c d7fa bf3d f0ef 8ebc
00000040: a909 03bb fad8 a0bd 8d04 443d aaba 9ebe
00000050: 83d3 063d f063 80bc e7f1 b8bd 7f3f 15be
00000060: af2a e73c 1eae 07be f1ef 01bc b721 9abe
00000070: 65d1 2f3c 0640 3d3e 4656 f13b 9d4b 333c
00000080: 5901 4a3d 3667 d73c eb4e a5bd a44c b63d
00000090: 4894 84bd 735a cabb 3a10 bfbc 74a9 e13d
000000a0: a0d0 203d 4553 a23d 6291 d33c c93b b33c
000000b0: 1bec 283d 43ec d43b 048e 6ebd bd61 3dbe
000000c0: b9ca 573c 462e e93c 37a8 cabc 4605 2f3d
000000d0: 5416 04bc 1476 86bd 31c0 89bc 0628 c13d
000000e0: c2c5 b5bc 7f31 05bc c0eb 183e 231b 42be
000000f0: 3ae8 f4bd 0a3d 593d 663b 7a3e b50f 8fb9

exp_avg_sq f4 [64]
0.64127856 8.127792 0.4581443 0.48040053 0.1184982 0.3278963 0.0005473783 0.0016482782
0.61607456 0.0010059738 0.2091354 0.024254804 1.2894607 0.12756525 1.4238138 0.048117764
0.0006921991 1.0468938 0.4185113 16.24082 0.20350309 0.036267743 1.4042004 3.5777383
0.13027345 3.0710907 0.015473374 15.493779 0.0231216 5.845415 0.019053385 0.023746507
0.4274067 0.12213936 1.0741701 1.448449 0.6789926 0.011314097 0.08691687 1.9235928
0.24790964 1.1540376 0.10000836 0.09731593 0.3566085 0.004151725 0.5039473 5.9141383
0.024903258 0.15729861 0.11882514 0.28851366 0.007969814 0.77695006 0.04394447 1.6404496
0.08240666 0.023747109 3.8756242 6.260942 2.504185 0.5419193 9.879881 0.00089249405
00000000: d52a 243f 700b 0241 e491 ea3e 0ff7 f53e
00000010: 2faf f23d 06e2 a73e f07d 0f3a 0a0b d83a
00000020: 10b7 1d3f e1da 833a 9727 563e 03b2 c63c
00000030: 0c0d a53f 77a0 023e 883f b63f 2217 453d
00000040: b274 353a 9e00 863f 1d47 d63e 33ed 8141
00000050: 1d63 503e 7c8d 143d d7bc b33f aaf9 6440
00000060: 6766 053e c08c 4440 0984 7d3c 85e6 7741
00000070: 8269 bd3c a40d bb40 d815 9c3c 0988 c23c
00000080: 0dd5 da3e 3324 fa3d 687e 893f c766 b93f
00000090: 76d2 2d3f c35e 393c 7901 b23d 4a38 f63f
000000a0: 06dc 7d3e 81b7 933f 2fd1 cc3d 934d c73d
000000b0: 6495 b63e 320b 883b b102 013f 9f40 bd40
000000c0: eb01 cc3c e312 213e 985a f33d 10b8 933e
000000d0: d393 023c 33e6 463f 1eff 333d 41fa d13f
000000e0: d3c4 a83d 4c89 c23c 3a0a 7840 a359 c840
000000f0: 9144 2040 39bb 0a3f fe13 1e41 43f6 693a
