training_results/cartpole_boltz/ppo/seed_42/1000000steps/checkpoints/model_900000.pt (torch, 151579 bytes, 30 tensors)

actor.pi_net.fcs.0.weight f4 [64, 4]
00000000: 44e0 76be 9017 303e 7967 cc3e ceb3 583f
00000010: 477d 30bf 49d8 0b3e 94a6 883e 42d8 0cbf
00000020: 3de8 223e 2b35 dfbe f084 fbbe c4c0 b7be
00000030: 22a7 3f3d c999 d3be 2ede ce3e 5708 9b3e
00000040: 29a8 ca3e 2c6d bdbc 842c 3d3e 8287 353f
00000050: 8278 d4be 158e 12bf ae22 0fbe 0155 1a3f
00000060: f10e fbbd 9acb 3d3e f4ab 02be e7d0 6cbe
00000070: 3153 72be 20b3 d73e dda1 773e cbc1 173e
00000080: 2bf3 c73e da89 0c3f 92c7 a5be 48c0 51bf
00000090: d62f 0e3f 3330 b3bd d7ad 06be 6e16 3c3e
000000a0: b463 d5bd 729c f3be 2e35 023d a8ca ccbe
000000b0: 4b4f 13bf 69ba 12bf 9bb6 b8bc f90c 723e
000000c0: b800 fcbe 2325 ed3c 4a96 c5be 736b 2dbe
000000d0: bd98 633e ca8e 3e3e a066 9dbe 41ac 063f
000000e0: 2f1b 3fbe b8f2 6cbe 5e0a a23e 8417 423f
000000f0: 512e c53e 8ff1 f73e 0970 b8be d359 16bf
00000100: 3d09 0e3f 501b 08be 069c 91be 7ef0 ae3e
00000110: c179 57be aa6e 43be a2d2 c1be 0382 173f
00000120: 0865 9ebe 1ad3 3c3e 8fea 513e 5b53 013f
00000130: 8c7c 4dbe 1aec 523e fc50 a9be 8453 8bbe
00000140: 4d0a 00bf be8c 0a3d d9ff 37bd 0791 f73e
00000150: dcea b1bd 6655 1e3f 0222 36bd 35b1 45bf
00000160: e4da e9be db1b 0abf da77 54bf f529 043c
00000170: f00d 433f 3a2a 9ebe da05 94be a76e 7ebb
00000180: e652 cbbe b944 dcbe 8ce1 00bf 552f 053f
00000190: 2f7f 2dbf c96b c5be c7f9 30bf 7e5e fcbd
000001a0: df27 28bf 3d53 17bf 9734 dcbd 0475 54be
000001b0: 1a6a 24bf 6ff7 e8bd bb36 1ebe 5430 d8be
000001c0: a8e6 183f 146d 8abe 7a91 d03e 32f7 bd3c
000001d0: a8e4 14bf e609 7dbe db23 9dbd 16b8 263f
000001e0: 7340 bc3e c162 483c 94f6 d6be d683 ce3e
000001f0: 6474 9a3e 8115 a63e a9d8 15bc 358e 313f
00000200: 1327 a73b 878a 7abe 88eb d43e 1186 b73e
00000210: 76b1 0cbf 77b9 183f 3446 2e3e f936 d5be
00000220: 1dc0 a13e ce4e 823d 4013 81be e526 a9be
00000230: c5ec 303f 8994 663e 2e44 e83e 192a e43d
00000240: 9e14 dabe 8c7e 9ebd 7b5e b5be 8286 efbe
00000250: 703d 3dbf 2206 1abf 1d2a 333e eef1 a9be
00000260: af86 963e a7db 4a3f ecd3 ce3c a91a 20bf
00000270: 426c dcbe 091b c6bd 9463 3f3f 3940 3d3f
00000280: 4aeb b2bb 573c 65be 058d bb3e 5b71 013f
00000290: 14c9 383f 695e 493e 0b95 193f c925 4d3d
000002a0: c32c e53e a6f4 3fbf 88ca 9d3d a444 2d3f
000002b0: ed71 db3e c291 3b3f 7eb5 8fbe fe75 263e
000002c0: 8143 dd3e dfde 183f 4685 503e 701f 9b3e
000002d0: df55 8cbe 0258 30bf dafa cd3e 320e 99bd
000002e0: a17b 673e 8f67 2e3f 229f 1f3e 7056 4fbf
000002f0: 16b3 733e 2ae9 dc3d b274 99be 3ddb 08bf
00000300: 33a9 b8be 96ca c0be 91fc 073e 44d9 88bc
00000310: 8421 00bf 8423 c63e 73cc 31be 9ae3 f73e
00000320: 8e50 c9be 7ce9 91be 9e4f 30bf d9b8 1bbe
00000330: 8721 e6be d7e8 33bf cf0b 213f 0c1b 5a3f
00000340: 8ac1 15be 8461 afbc 9e57 5dbf de08 5c3d
00000350: 2f62 0bbd 65f3 adbd 33b6 0cbf 3942 82be
00000360: 77f1 33bf f77e 663e 7df1 e8be ba6b cabd
00000370: 1496 933e f383 5e3d a4eb dbbc ea05 b93e
00000380: 49ea 4c3e cf5c 573e dac3 a1be f4f6 29be
00000390: 5503 52bf 4016 0d3e 6ca2 bbbd 7626 11be
000003a0: 2bb1 b7bd 93a3 e33e 5dd4 e93e fdf5 9a3e
000003b0: e282 20be f1be f0bd 3969 d3be 55f0 84be
000003c0: 154f 43bf dfc3 dbbe c3b6 98be 5e69 61be
000003d0: f054 1d3f 44cb 533d c357 023e cd98 343e
000003e0: 80c2 053f 90e7 acbe b389 393e 8a91 063f
000003f0: c03a 153f 1a48 dd3e 1cc9 efbe 7cd8 bd3c
-0.24108988 0.17196488 0.39922693 0.8464936 -0.6894116 0.13656725 0.2668959 -0.55017483
0.15908904 -0.4359525 -0.4912486 -0.35889256 0.04679025 -0.41328266 0.40403885 0.302798
0.3958142 -0.023123346 0.18474013 0.70909894 -0.4149819 -0.5724805 -0.13978073 0.60285956
-0.12258709 0.18534699 -0.12760907 -0.23126565 -0.23664548 0.4212885 0.2418284 0.1482002
0.3905271 0.54897845 -0.32378823 -0.8193402 0.5554174 -0.08749428 -0.13152252 0.18367931
-0.104194075 -0.47580296 0.031788997 -0.39998364 -0.57542866 -0.5731569 -0.02254801 0.23637761
-0.49219298 0.028948372 -0.38591224 -0.1693552 0.22226234 0.18609157 -0.3074236 0.5260659
-0.18662713 -0.23139465 0.31648535 0.7581713 0.385119 0.48426482 -0.36022976 -0.5873081
0.55482846 -0.13291669 -0.2843935 0.34167856 -0.21042539 -0.19085184 -0.37856013 0.5918276
-0.30936456 0.18439904 0.20499633 0.50517815 -0.20067042 0.20597878 -0.330696 -0.27212155
-0.5001572 0.03382563 -0.04492173 0.48352835 -0.08687374 0.6184906 -0.044466026 -0.7722352
-0.45674813 -0.53948754 -0.8299538 0.008066644 0.7619314 -0.3089159 -0.28910714 -0.0038823278
-0.39711684 -0.4302118 -0.5034416 0.5202535 -0.6777219 -0.38558796 -0.6913113 -0.123227105
-0.6568584 -0.59111387 -0.10752218 -0.20747763 -0.642244 -0.11375319 -0.15450566 -0.4222437
0.59726954 -0.27036345 0.4073599 0.023189161 -0.581614 -0.24710807 -0.076728545 0.6512464
0.3676792 0.012230576 -0.41985 0.40334958 0.30166924 0.3243828 -0.009145894 0.69357616
0.0051010936 -0.24466906 0.41585946 0.35844472 -0.54958284 0.59657997 0.17018968 -0.41643503
0.31591883 0.06362687 -0.2521 -0.33037487 0.6911128 0.22517599 0.45364517 0.11140842
-0.42593855 -0.07738981 -0.35423645 -0.4678231 -0.7392187 -0.6016561 0.17496534 -0.3319239
0.2939963 0.7924141 0.025247537 -0.6254068 -0.43051344 -0.09673125 0.7476132 0.7392612
-0.0054601775 -0.22386299 0.36631027 0.5056359 0.7218182 0.19664921 0.59993047 0.050084863
0.44760713 -0.7498268 0.077046454 0.6768286 0.42860356 0.73269284 -0.28068155 0.16255948
0.43215564 0.59715074 0.2036334 0.30297422 -0.27409264 -0.6888429 0.40230447 -0.07473411
0.22605754 0.6812677 0.15588048 -0.8099127 0.23798785 0.1078666 -0.29971844 -0.5345953
-0.3606659 -0.3765456 0.1327994 -0.016705163 -0.5005114 0.3869897 -0.17363147 0.48415834
-0.3931927 -0.28498447 -0.68871486 -0.15207233 -0.44947454 -0.7027716 0.62908643 0.8519752
-0.1462461 -0.021408804 -0.8646182 0.053719394 -0.034029182 -0.084936894 -0.54965514 -0.2544115
-0.7029032 0.2250937 -0.4549674 -0.098838285 0.28825438 0.054325055 -0.02684576 0.36137325
0.20011248 0.21031497 -0.31594735 -0.16598111 -0.82036334 0.13778019 -0.09161839 -0.14174828
-0.08969339 0.44460735 0.45669833 0.302658 -0.15674928 -0.11755169 -0.41291216 -0.2596461
-0.76292545 -0.42922875 -0.29826936 -0.2201285 0.6145773 0.05170752 0.12728791 0.17636414
0.5224991 -0.33770418 0.18118934 0.52565825 0.5829277 0.43219072 -0.46833122 0.023174517

actor.pi_net.fcs.0.bias f4 [64]
00000000: 0abb bd3e e22b a6bd 7fe3 0d3e 5eb3 073e
00000010: 90a0 023f c038 8cbe 9c3b 9e3c ae59 4abe
00000020: 155e 56be 212e 06bd 45d4 6a3d bfa7 0dbe
00000030: f149 253e 35b2 9ebe 4b0d 5e3e 5d7f 4dbe
00000040: 9dd9 dfbc fa87 8f3e beab aabe 68ac 21be
00000050: 6378 9bbe 1583 c3be 10c6 273e 687d 9b3c
00000060: 5a06 613c 46a1 1b3e 3972 b0be eeb5 edbd
00000070: db76 8f3e fff6 c3bb c552 a93d f545 fa3e
00000080: 368a b8bc 5bff 95be b032 47be f9a5 b43c
00000090: 48f9 a6be 0951 cebe 57a7 cfbe 0319 7c3e
000000a0: e576 d23e d05b 93bb 2cef bc3e 75e9 92be
000000b0: 94fe 33bd 0bb1 dd3e 4152 1abe e007 a63d
000000c0: 7cee ca3e 9bc6 a2be 7d29 8b3e 83d4 b53e
000000d0: 5277 ca3d bd7a 373d 9ad0 e53d 1750 533e
000000e0: 2a53 923e 8a38 adbc 9d96 f3b9 b55c 38be
000000f0: d6dd f2bc 9859 ae3c 9719 17bd a474 e03d
0.37056762 -0.08113839 0.13856314 0.13252017 0.5102625 -0.27387047 0.019315533 -0.19760773
-0.20934327 -0.032758836 0.057331342 -0.13833521 0.16141488 -0.30995336 0.21684758 -0.20068116
-0.027325446 0.2803343 -0.33334154 -0.15788424 -0.30365285 -0.38185945 0.16384149 0.018980697
0.0137344245 0.1519824 -0.34462145 -0.11606966 0.28020367 -0.005980372 0.0826774 0.48881498
-0.022526842 -0.29296383 -0.1945293 0.022051798 -0.32612062 -0.402962 -0.40557358 0.24618916
0.41106334 -0.004497029 0.36901224 -0.2869374 -0.043943956 0.43299136 -0.1507044 0.08106971
0.39635074 -0.3179215 0.2718009 0.35513696 0.0988604 0.044794787 0.11221428 0.2063602
0.28579074 -0.021145124 -0.00046460787 -0.18004115 -0.029646795 0.021282956 -0.03688964 0.109597474

actor.pi_net.fcs.1.weight f4 [64, 64]
00000000: 9843 143d ad4c 693d d244 47be 1912 4bbd
00000010: d856 d4bd 0813 be3d 8ddb 8c3d 35ab d63d
00000020: 7777 88bd 45b4 cf3d bdf1 d6bd 263b 213d
00000030: 2816 febb 5025 183e ed6f ba3d ec1e bd3c
00000040: bd69 d8bc dba2 e7bd 53af 0b3e bdb3 02bd
00000050: d33a 8e3d bd3d ad3d d8ea 77be 2016 3abe
00000060: aa22 023d 55a3 51be 118f a03d c5e6 10be
00000070: d439 953c 8e7d 52bc b123 263e f6f5 eebd
00000080: 2c4f 98bd 7fb4 4a3d 8ffc ca3d 992c 353e
00000090: b489 543d e347 89bd d501 ed3d 49bc c0bc
000000a0: 020f abbd 6ea4 283e f290 a43d 1449 e33c
000000b0: 96a3 3e3e 01f7 30be 9803 2fbd 0697 9ebd
000000c0: c8fa 58be 353c 353d 6347 edbd 82b0 d93c
000000d0: b306 d2bd adb2 0ebe f0f1 32be 8c22 b1bc
000000e0: 2a22 893d b7b2 f0bd 08c4 ac3d 4963 b1bd
000000f0: 3b81 66be 996d 253d 3b3e b63d 0960 26bd
00000100: 9713 cb3d c706 a8bb 91ca 023c 402b 0bbe
00000110: d889 a9bd 1f04 6fbd 8e9b 9a3d 6fdd a13d
00000120: b651 bdbd 05aa 90bd f654 e6bb f756 99bd
00000130: 0ed9 003d 837e bf3d 24d2 e73c 4ca3 00be
00000140: 02c4 6e3c ee8f 143d 28da ea3d a112 ef3d
00000150: 3140 113e c30d 8fbd 91fb 05bd a15e 39be
00000160: 550f c7bd ad0a cfbc eb2c 8fbd b442 953c
00000170: d294 a43d 9d2d d7bc 0cda 923d 0644 ceba
00000180: f8ce 23bd 3fd9 af3d 1547 d13d 5ee0 e23d
00000190: 7edd 343d f39f 4ebd b2cc cdbb 795d b43d
000001a0: d18e ab3d 9a39 d2bd 44da 803d 5871 f43c
000001b0: 0ad5 223e 029f d6bd c5d3 a0bd da3b 06bb
000001c0: ca2b a9bd aad2 51bd 77db e7bc 47bf 513d
000001d0: 9a33 f33b 34a1 5f3d 4d6e 50bd 9230 56bc
000001e0: c9ba 1fbd 6e4c e13c 4170 c53c 115a ba3d
000001f0: 3767 ff3d 7f0c 07bc 17df cfbd a8be c13c
00000200: e18d 803e 20e6 33bd a4fb 37bc bd85 a43d
00000210: 8709 093e 4d51 afbd 6ec3 893d 0642 babd
00000220: 8e1e e73d 1d1f 0b3e 192e 2bbd 4e93 3dbe
00000230: cc0f d4ba df29 9ebc 683a 203e 0abe 9f3d
00000240: 4d81 b2bc e989 433e 1904 35bd 3696 19be
00000250: dab9 02be aef6 22be bdbe 843d e7f0 293d
00000260: c814 03be 874a e0bd 3908 4abe ef47 34be
00000270: 3497 3e3e d095 c73c 9b40 533e 19f0 583e
00000280: f35d c9bd 0add b5bd 21b3 64be 209f b33d
00000290: 4317 bbbd c56f 73be d2a1 833c 2718 1e3e
000002a0: 7a90 323e db56 863e 0d4f af3d 48a6 b9bc
000002b0: bd4a c73d 08fb 423e e459 de3d 512c bc3d
000002c0: 48cd e83d 82ba 59bd 542c 87bd 872f b93b
000002d0: f3fa 713d 7631 0abd 6447 083e 213b 393e
000002e0: f235 7b3d 9367 fcbc d3ec a83d 2111 aebe
000002f0: 992c 9abe f170 de3d 033e 47bc 6885 823b
00000300: c179 823d 611e f53b fe34 6cbd cbc2 27bd
00000310: 37c6 ff3d a518 01be cc72 b6bd f148 32be
00000320: 0907 05be c265 8c3d 9511 a5bd e814 2cbe
00000330: dd3d 33bb e44f b2bd 9bbe b53c acb1 e23c
00000340: 360b 053e 7de4 83bc cda7 2fbe 766e 69be
00000350: 2019 53bc fd3b 6f3d 77f0 e13d fcc4 edbd
00000360: 1b8a 9d3d 6d72 02be 9b68 81be cc34 60be
00000370: 70bd fc3d 262d a93b 50b4 d3ba 510b 0c3e
00000380: 6077 ef3c ad81 b7bc 8ce9 68be 6486 5c3e
00000390: 4775 9dbe 9434 99be b92e e5bb 2c5b 1a3d
000003a0: 321b eb3d fd1c 393e 4ca5 153e e3a1 463c
000003b0: ecec 043d 37c6 b83d 6b1f be3b 43ac 10bd
000003c0: a2a8 123e 2b85 b7bd c27e d53d b358 af3c
000003d0: 3da6 a93d 8de4 97bd bbe3 d83d 1183 943e
000003e0: 5a2b 383e d219 29be 8dc7 253e 0062 a9be
000003f0: 7fad 83be 5f3b 7d3e 794b 94bd 36a6 523e
0.036197275 0.05695789 -0.19459847 -0.049577806 -0.10368127 0.09280974 0.068778135 0.10481874
-0.06663411 0.101418056 -0.10495327 0.03936305 -0.007754106 0.14857984 0.091033794 0.023086034
-0.026417607 -0.11310359 0.136411 -0.031909693 0.069448136 0.08459041 -0.2421068 -0.18172503
0.03177134 -0.20472462 0.07839788 -0.14150532 0.018216051 -0.012847317 0.16224553 -0.11668007
-0.07436976 0.04948854 0.09911453 0.17692794 0.051889136 -0.067031644 0.11572615 -0.023527281
-0.08352472 0.16468975 0.080354586 0.027744807 0.1861709 -0.17281725 -0.042728037 -0.07743649
-0.21189415 0.04424687 -0.115858816 0.026573423 -0.10255184 -0.13935347 -0.17475104 -0.021622919
0.066959694 -0.11752837 0.084358275 -0.08661515 -0.22510235 0.040387724 0.08898588 -0.04061893
0.09915846 -0.005127761 0.007982866 -0.13590717 -0.08278245 -0.05835354 0.07549201 0.07903563
-0.09244101 -0.07063679 -0.007029171 -0.0748729 0.031457 0.09350302 0.028298445 -0.12562293
0.014573099 0.036270075 0.11467391 0.11673475 0.14184643 -0.06985047 -0.032710616 -0.18102504
-0.09719721 -0.025273645 -0.06990989 0.018220283 0.08036198 -0.026266867 0.071704954 -0.0015736825
-0.039992303 0.08586358 0.10218636 0.11077951 0.044156544 -0.05044551 -0.006280505 0.08806891
0.083768494 -0.10264893 0.06291631 0.029839203 0.1590158 -0.10479547 -0.07852892 -0.0020482452
-0.08260305 -0.051226296 -0.028302891 0.051207807 0.007421923 0.054597095 -0.05088644 -0.0130731035
-0.03899649 0.027502265 0.024101378 0.0909921 0.124708585 -0.008242725 -0.10149973 0.023650482
0.25108245 -0.043920636 -0.011229429 0.08033321 0.1338254 -0.08560429 0.067267284 -0.09094624
0.11285125 0.13586088 -0.04179201 -0.18513224 -0.0016179024 -0.019307075 0.1564728 0.07799919
-0.021790171 0.19095577 -0.04419336 -0.14998707 -0.12766209 -0.15914413 0.06481693 0.041489508
-0.12800896 -0.10951715 -0.19729699 -0.17605565 0.18612367 0.024363428 0.20630114 0.2118534
-0.098323725 -0.088800505 -0.22333957 0.08770585 -0.09135296 -0.23773105 0.016068373 0.15438901
0.17437926 0.2623814 0.085599996 -0.022662297 0.09731052 0.19041073 0.10856989 0.0918814
0.11367279 -0.053156383 -0.06600252 0.0056514177 0.059077214 -0.033738576 0.13308483 0.18088962
0.061330743 -0.030811107 0.08248296 -0.33997443 -0.3011215 0.108613856 -0.012160781 0.0039831884
0.06370879 0.007480428 -0.057667725 -0.040957253 0.12488978 -0.12607057 -0.089086145 -0.17410637
-0.12990965 0.06855346 -0.08059994 -0.1680485 -0.0027350106 -0.08706644 0.022185614 0.027672611
0.12992558 -0.016100163 -0.17153855 -0.22796044 -0.012884408 0.05840682 0.11032193 -0.116098374
0.07692357 -0.12738962 -0.2527512 -0.2189514 0.1234082 0.005162853 -0.001615176 0.13676192
0.029231727 -0.022400701 -0.22745341 0.21535641 -0.30753538 -0.29922926 -0.006994095 0.037684605
0.114797965 0.18077464 0.14613837 0.012123558 0.03245251 0.090221815 0.005802085 -0.03532053
0.14322141 -0.08960947 0.10424568 0.0214046 0.082836606 -0.074166395 0.10590311 0.29006246
0.17985287 -0.16513756 0.16189404 -0.3308258 -0.25718305 0.2472968 -0.07240958 0.20571217

actor.pi_net.fcs.1.bias f4 [64]
00000000: 4784 4bbe 9f7f a53c 18b2 4a3e 5aee 5b3e
00000010: 11f0 b93d ffcf e1bd b6f6 23be acfa d4ba
00000020: d663 cf3c cdaf 39be f80c 203e 6d93 dfbc
00000030: 1398 ba3d a5cf 9cbd c3c2 f0bd e4c9 4dbd
00000040: 22e0 fcbb b123 a5bb 27b4 aa3c 1160 a63d
00000050: aea2 9b3d a110 fb3d 1bb1 1fbe 258f a73d
00000060: 9673 9abd 7db1 f83d 9424 593d 7a84 f63d
00000070: 463a c73d 4b2d dabd 9d53 9bbd 5591 4fbc
00000080: 53ce 55bd ebec 2fbe b334 0abd fafa de3d
00000090: 3449 493e 3be2 643d 84fc 12be 893c 4dbe
000000a0: b01b ae3c b4d3 2b3e 93e9 ca3b a58d a1bc
000000b0: b4f0 513e aaa4 20be 209b 34be 735e ef3d
000000c0: 8f19 f0bd 20ce 98bd 10a0 b1bd f71a 55be
000000d0: 3967 993d 592b 42bd 223b a33d d104 e2bd
000000e0: 9b72 3bbc 9519 da3d e8b6 d43d 7faa fabb
000000f0: b04c 663c 7f56 f63c 8bf2 753d 050e a93c
-0.19874679 0.020202456 0.197945 0.21477643 0.09078992 -0.11026 -0.16012082 -0.0016249022
0.02531616 -0.18133469 0.15629947 -0.027291978 0.09111037 -0.076567926 -0.11755898 -0.050241366
-0.0077171484 -0.005039655 0.020837856 0.08123792 0.07599388 0.12259031 -0.15594904 0.081815995
-0.075415775 0.12143228 0.0530134 0.12036987 0.09727912 -0.1065317 -0.07584307 -0.012668927
-0.05219872 -0.17180221 -0.033741664 0.10887714 0.19656831 0.055879813 -0.1435414 -0.20042624
0.021253437 0.16779977 0.006192395 -0.019720862 0.20501977 -0.15687814 -0.176373 0.11687937
-0.11723625 -0.0746119 -0.086731076 -0.20811068 0.07490391 -0.04740462 0.07970263 -0.11036075
-0.011440898 0.10649411 0.10386449 -0.0076497192 0.01405637 0.030070541 0.06004576 0.020636568

actor.pi_net.fcs.2.weight f4 [1, 64]
00000000: 9fba 863d 084b b0bc 65e1 96bd ffda 7dbd
00000010: e12f 97bd 9dc6 ae3d 9dab 553d 9902 a9bd
00000020: d885 22bd aaa5 903d 4589 dabc 3f88 d5bb
00000030: 02b9 cfbd c50c a93d 80a0 883d ecb7 e33b
00000040: 7ccc 313e 8cc9 8f3d 72a6 a53d da01 b6bd
00000050: 7808 803d a4b3 2e3e b6d2 8f3d 8d54 79bd
00000060: 15c7 7f3d b381 703e 83db bbbd f89e a4bd
00000070: a57d 8dbd 6a1a 9c3b 0d49 263d 7498 73bd
00000080: 88bf b6bc 54ed 963c 2788 9f3d 18b5 513e
00000090: cddf c7bd a263 1c3e 1de3 b33d f22e 883d
000000a0: fc9c c2bc 4cd6 c4bd bdf3 823c ebdc b23d
000000b0: 48e1 a3bd ba00 733d ce61 2f3d bfa8 5c3e
000000c0: 09e1 a03d 036d b43d 0520 8d3d eb78 003e
000000d0: ef81 843d 6dfe 7a3d d668 333d f391 d03c
000000e0: aaab 8abd ad2a 2f3e ea95 dbbc e4e7 94bd
000000f0: c6d6 a6bd a31b 023d 2a83 173e 7eb5 4c3e
0.06578564 -0.021520153 -0.07367209 -0.06197643 -0.07382179 0.08533976 0.052165616 -0.082524486
-0.039678425 0.07062848 -0.026676783 -0.006516486 -0.10142709 0.08254389 0.06671238 0.0069494154
0.17363161 0.07020864 0.080883875 -0.08887072 0.06251615 0.17060715 0.07022612 -0.06087165
0.06244572 0.23486976 -0.09172728 -0.080381334 -0.069087304 0.004763891 0.04059701 -0.059471563
-0.022308126 0.018423714 0.07789641 0.20479238 -0.097594835 0.15272382 0.08783553 0.06649579
-0.023756497 -0.096111864 0.015985364 0.08733543 -0.08001953 0.059326865 0.042817883 0.21548747
0.07855422 0.08809855 0.06890873 0.12546127 0.06470095 0.061277796 0.04380115 0.025460219
-0.067710236 0.17106123 -0.026804883 -0.07270792 -0.081464335 0.031764638 0.14796129 0.19991109

critic.v_net.fcs.0.weight f4 [64, 4]
00000000: 8c9d ae3e e2e4 2cbf a2c8 adc0 355e 21bf
00000010: 4c93 b53e e7fa 0ec0 13d5 1040 97c8 d6bf
00000020: 071e 8bbd dedb 0dc0 fbde 2a40 7d93 e3bf
00000030: 6954 5440 c1f0 e23f 9dde 88c0 8b40 a13f
00000040: 6136 7a3e 5fdc d2bf 23a6 da40 d80a 94bf
00000050: a10d 3d3e dfc9 7fbf 3586 61c0 9313 57bf
00000060: 0830 e33e 4945 1a40 3e56 e7bf e2a3 e33f
00000070: 2df9 923f d90a e93f 25c1 7640 1928 8d3f
00000080: cc44 8240 feb1 d23f 7abd 6640 21cf 983f
00000090: 0b8e 12bf 7392 a93f 1b21 4f40 e42e 9f3f
000000a0: f0e2 b23d d5f8 c5bf 16ba 4fc0 a2e0 81bf
000000b0: 1aea 0a40 47d4 de3f 24fe 1d3e 9c6e aa3f
000000c0: d68d 11bf 22b0 cbbf 864e 59c0 140c 8fbf
000000d0: def2 5d3f 6a11 be3f ab2b 01c0 f4ff 2c3f
000000e0: 90e6 d03f 30f1 0340 63c5 4ac0 869b be3f
000000f0: 36d2 86c0 fe8e b2be 4518 6ac0 773c b6bd
00000100: 5c6d 9dbe 98a3 19c0 b115 fb3f 8565 d8bf
00000110: ec94 4d40 896a b43d 1525 1b3f 2cc7 25be
00000120: f186 12bf fd67 f7bf 6412 56c0 5165 a0bf
00000130: eca1 73bf 1205 b3bf 5494 a340 5c3f 52bf
00000140: e454 c2bf cbe4 ff3f 177b 2dc0 4865 c03f
00000150: d072 403d b10f cbbf b373 9bbf 45ed 8cbf
00000160: 476e 0640 2dcf 1240 3336 b63e 8729 d73f
00000170: 9a0c 5ebe e070 483f 301d 9440 79be 5b3f
00000180: 9acd 3e3f 69f1 07c0 fcec 30c0 de69 bebf
00000190: c49a 7cc0 1ccc e6bf f790 73c0 d980 a3bf
000001a0: ca4a e13f 35bd f5bf 1fd9 ecbf 1089 73bf
000001b0: 6a75 9540 21dd 45bd 8630 9fc0 ea23 07bf
000001c0: 690b 3a3f d139 c6bf ea16 10c0 fdd0 9fbf
000001d0: c4ef f3be e155 08c0 f03c 2040 5f5d 60bf
000001e0: e0f1 793f fffd ad3f 0fc1 ac3f 5ddc 633f
000001f0: c721 04c0 0d7c f6bf 19d7 9ac0 291a 84bf
00000200: a2f8 0ec0 cc11 e7bf 3850 8dc0 522d 9bbf
00000210: 179a 86be e012 ff3f a0c7 843f 4e20 aa3f
00000220: 0b43 1ec0 acfd ff3f 9de7 3840 f44f 523f
00000230: 5bd7 ec3f 4db2 aebf af44 52c0 d057 5ebf
00000240: dfeb 9d3f e7f1 91bf 1dd4 9cc0 4d11 eabe
00000250: c54e 31bf 9203 10c0 4777 febf 7dcb b1bf
00000260: a529 fabe 531e 813f 8d0e 5640 98e0 d83e
00000270: a7ae 543f a330 f3bf 50cc 22bf aa28 93bf
00000280: 7174 1e3f 360d 1ac0 0b6b 0cc1 215d d03f
00000290: 7d2a 0641 9b0f 963f 5d2c 8040 c28d 1e40
000002a0: e382 5f40 c76f fa3f fac8 2f40 448f b53f
000002b0: 459f 9d40 3be5 cd3f 4cf4 96c0 c3de 4f3f
000002c0: 93e5 d83f bb98 1dc0 c9c3 06c0 2544 b5bf
000002d0: d232 ecbe 898b aabf e4a6 92c0 3a8e 41bf
000002e0: ca45 efbf 3e44 03c0 9a49 81c0 0cb6 aebf
000002f0: 197f 5a3f 4d75 2540 a9aa 0640 b427 cc3f
00000300: d639 6d3f e1b7 0c40 8416 56bf 798b cb3f
00000310: 45ce 8f40 40b6 5f3f 7660 d8bf 9eef 033f
00000320: cfd6 e93d cc09 d4bf 4bfc 39c0 fe3c 89bf
00000330: b8f4 adbf d179 1540 9658 0540 12aa 923f
00000340: 7f3d 9ebe 20fb 2e40 147b 913f b97f c93f
00000350: f1d5 72c0 0ddf ecbf f53d 8cc0 d9a5 a5bf
00000360: a082 0e40 e5eb 58bf c749 1f40 d50e bc40
00000370: 55bd d13f 0726 a13f d897 c340 0200 2d3f
00000380: 57f6 6cbe 8dac 8abf b280 24c0 1f23 3abf
00000390: 6bf7 e6be bce0 653f 1667 ea40 9ceb d9bf
000003a0: 822e 33bf f375 0d40 1808 04c0 d38d cd3f
000003b0: e2cf b6c0 be49 b2bf 3777 c9c0 ace7 79bf
000003c0: 5ab3 5540 79ea ae3d 27ff 73c0 52d5 943f
000003d0: d9bb 6b40 6732 d33f 70b7 8fc0 390b 953f
000003e0: 7ca6 07c0 f142 04c0 27a4 28c0 1fca bdbf
000003f0: da0e 06bf ce8e 12c0 1bdd 3bbf b7cd bdbf
0.34104574 -0.6753675 -5.4307413 -0.63034374 0.3546394 -2.2340639 2.263005 -1.6779965
-0.06792837 -2.2165446 2.6698596 -1.7779385 3.317652 1.7729722 -4.2771745 1.2597822
0.24434806 -1.6473502 6.8327804 -1.1565809 0.1846223 -0.99917406 -3.5238163 -0.8401424
0.44372582 2.4104788 -1.8073194 1.7784388 1.1482292 1.8206435 3.8555386 1.1027862
4.070898 1.6460569 3.6053147 1.1938211 -0.5724799 1.3247818 3.2363956 1.2436185
0.08734691 -1.5466563 -3.2457328 -1.0146677 2.1705384 1.7408532 0.15428978 1.3315005
-0.5685705 -1.5913126 -3.3954177 -1.1175561 0.8669871 1.4849064 -2.0182903 0.67578053
1.6320362 2.061596 -3.1682975 1.4891212 -4.2131605 -0.3487472 -3.6577313 -0.088982515
-0.30747497 -2.40061 1.9615995 -1.6905981 3.2122145 0.088093825 0.6060346 -0.1618926
-0.57237154 -1.932861 -3.3448725 -1.2530919 -0.9516895 -1.3985922 5.1118565 -0.8212793
-1.5182157 1.9991697 -2.7106378 1.5030909 0.046984494 -1.5864164 -1.2144684 -1.1009909
2.1004808 2.293895 0.35588226 1.6809548 -0.21684495 0.78297234 4.628563 0.85837513
0.74532473 -2.1241095 -2.7644644 -1.4876058 -3.9469461 -1.8031039 -3.805723 -1.2773696
1.7600949 -1.9198366 -1.850376 -0.95131016 4.670583 -0.048306588 -4.9746733 -0.52789176
0.7267366 -1.5486394 -2.2513986 -1.2485653 -0.47643864 -2.1302416 2.5037193 -0.87642473
0.97634697 1.3593138 1.3496417 0.8900812 -2.0645616 -1.9256607 -4.838757 -1.0320483
-2.2339253 -1.8052306 -4.4160423 -1.2123206 -0.26289436 1.9927635 1.0373421 1.3291109
-2.472842 1.999929 2.8891366 0.8215325 1.8503221 -1.3648163 -3.285442 -0.8685274
1.2337607 -1.1401948 -4.9008927 -0.45716324 -0.6926082 -2.250218 -1.988015 -1.3890225
-0.48859897 1.0087379 3.344638 0.4235885 0.83079 -1.8999218 -0.63593006 -1.1496785
0.61896425 -2.4070563 -8.776134 1.6278421 8.385373 1.1723512 4.0054154 2.4774022
3.4923637 1.9565362 2.7466416 1.4184346 4.925692 1.608558 -4.7173214 0.8119928
1.694506 -2.462447 -2.1056998 -1.4161421 -0.46132523 -1.3323833 -4.5828724 -0.75607646
-1.8693173 -2.0510402 -4.0402346 -1.3649306 0.85350186 2.5852845 2.1041663 1.5949616
0.92666376 2.198723 -0.83628106 1.5901939 4.4939294 0.87387466 -1.6904438 0.515375
0.114179246 -1.656549 -2.9060237 -1.0721738 -1.3590307 2.33556 2.0835319 1.1458151
-0.30906293 2.7340775 1.1365685 1.5742103 -3.794308 -1.850557 -4.382563 -1.2941238
2.2267227 -0.84734946 2.488878 5.8768106 1.6385905 1.258973 6.1122856 0.67578137
-0.23140846 -1.0833908 -2.570355 -0.7270984 -0.4511064 0.8979604 7.3250837 -1.7025027
-0.6999284 2.210324 -2.062994 1.6058906 -5.7128763 -1.3928754 -6.2958026 -0.9761913
3.3390718 0.08540816 -3.8124483 1.16276 3.6833403 1.6499757 -4.4911423 1.164405
-2.1195364 -2.0665858 -2.635019 -1.4827307 -0.5236641 -2.289966 -0.73384255 -1.4828404

critic.v_net.fcs.0.bias f4 [64]
00000000: 88b7 c4be 6c22 07be 732e b3bc 87be 2c3d
00000010: 964a a2bc 6c85 083d 92ce 9f3d ca54 fa3c
00000020: f8b2 d23c 0d49 28bf 2f12 adbd bbe0 81bd
00000030: 78fc eebd 450a 863d 1976 d4bb b35c adbd
00000040: 2a4a 87be 383a 753d 8365 a8bd b7ef 4d3e
00000050: 9040 c6bc 6eee 273f bb11 6bbc 059d d2be
00000060: a996 9a3e 0bd5 90bc 0d50 1a3e f2dc 62be
00000070: ac36 21bc c7d7 a13f dfff 25bb cab4 d4bd
00000080: 01a3 21bd 87fe 993d dabd d3bd fbb1 92bd
00000090: bcf6 1dbb 20bc 21be ef36 7d3d 570f 8fbd
000000a0: d239 04bf fd5a f83d ce0c 353d 4a25 9a3c
000000b0: aeb8 953e b516 e3bd f142 4cbd 0622 393e
000000c0: 9934 363d 8886 c4bc 50c2 d63c 7d54 753d
000000d0: 837b c23c 0aa0 e3bc db91 4ebe 0bb8 253e
000000e0: bf49 b8bc 54b1 8ebd 0b59 253e c7c5 b1bd
000000f0: 5d30 07bf b6f7 5d3c 5ffd 14bd f33c 0fbe
-0.38421273 -0.13196725 -0.021872735 0.04217389 -0.019810956 0.033330366 0.07803072 0.030558009
0.025720105 -0.65736467 -0.08450734 -0.06341692 -0.11669248 0.065449275 -0.006483805 -0.084649466
-0.2642377 0.059869975 -0.08222487 0.20110975 -0.024200708 0.6559819 -0.014347489 -0.4113542
0.3019307 -0.017679712 0.150696 -0.22154596 -0.009839695 1.2643975 -0.0025329513 -0.10386045
-0.039462093 0.0751925 -0.10338946 -0.07162853 -0.0024103364 -0.1579442 0.061819967 -0.06985348
-0.51650727 0.1212673 0.044201665 0.018816609 0.29242462 -0.110883154 -0.049868528 0.18079385
0.044483755 -0.02398993 0.026215702 0.059895027 0.023740536 -0.027786274 -0.20172827 0.16183488
-0.022496102 -0.069674164 0.16147248 -0.08680301 -0.5280817 0.013547828 -0.036374446 -0.13988094

critic.v_net.fcs.1.weight f4 [64, 64]
00000000: 54d2 0a3f aad7 6bbf 8822 ebbf 02ea a63f
00000010: d13e c4bf 2941 de3c 9e39 9e3f 6028 173f
00000020: 9e67 853e 1708 eb3e 8710 8b3e b081 e43f
00000030: d277 0d3e aa16 c23f add1 bb3f 0a81 203d
00000040: 0dac 8abf d0c6 ce3e 7ab8 b4bd f508 afbf
00000050: 486c 593f 16cd dabe b3ec b43f b9fe ccbc
00000060: 44af 57bf b777 e8be 3698 2fbf 2b91 bc3f
00000070: 0cc2 03bd ed4c f4be 9b06 93bd eb3f 83bf
00000080: cd1a 14bf 0cea 363f c0f5 db3e d2a7 533f
00000090: 31f3 063f 21cf f7be 0ec9 043e 6421 36bf
000000a0: 37c7 3f3f 7c1d cfbe bd6a 363f 0788 dc3f
000000b0: 24c2 96bf a3d5 d23e b0ae 58bf e320 c23f
000000c0: f56b 1040 fbff a43e 782a c4be cf35 663f
000000d0: 75f9 dd3f 2ad3 453d 210e cbbf 8867 46bf
000000e0: 9b59 f03e a37d 3bbf d278 913f 2f7c 0d3e
000000f0: 36bd 2b3f b796 c03f 417e 9cbf dd0d 39bf
00000100: b823 99bf cc93 d6bf 8466 a2bf 836f 7c3e
00000110: c2ec 01c0 e4e2 d23e 40a3 b93f 8c03 053e
00000120: 0c88 5c3d 1f6c 2dbf fb98 31bf 8f3a 30bf
00000130: 4627 8fbf 2e4a 393f 916c 683f 92f0 97bd
00000140: 4e71 32c0 6fb4 0a3e 530f 3cbe d94d cf3e
00000150: 98db d73f ccdb 3b3f ec7a 333e 35c7 62bf
00000160: fbfa 8cbd 586d aebe 2362 43bf dc5f 40bf
00000170: b403 7dbf 5b17 3e3f 18ba 87be cf3b 6bbf
00000180: 8eb2 343d 3227 3c3f 76f4 5d3f 40ce 32be
00000190: a050 9c3d 43e9 9ebf b57c 53be 71f8 95bf
000001a0: b086 2b3e 393a 6c3f a79e 663e fbd3 063c
000001b0: 3d05 6cbf 756e 5fbf d532 dcbd c39b dc3f
000001c0: bbd8 a83e bb90 0a3d c502 23bd 26ca d43f
000001d0: 94d5 e13f c9f6 663d 89aa 14bf 86fa f93e
000001e0: 9618 8bbf a485 a5be 93c3 2140 eb4f f9be
000001f0: 8f0c 093e 05b5 3dbd 6505 ce3d a80f abbf
00000200: 406b 0abd 3270 2c3f 5f24 993e b4cb e8be
00000210: 1ac0 05bf 4589 073f 9943 89bf 1b03 8abe
00000220: 35e1 b0bf eabb 98bf 909c fb3e 53da 9dbf
00000230: 6afd 033f db08 583f 706e 3b3e 9774 903e
00000240: 320b 643f bc10 283f 25a4 b33f c889 943e
00000250: 9d42 75be a50e 8f3f 5365 06c0 ef7b 9bbf
00000260: 50f0 d83f 31a2 983f 4bfe a03f 554e 0d3f
00000270: 90e1 033f d872 873f 9686 7ebe a640 0640
00000280: 8dd2 f83f 6b27 5fbf 0e1e 9bbf 7476 2f3f
00000290: 7341 4a3f ba87 663f 1da7 81bf 3a7f d13e
000002a0: cdd8 f6be b478 c0bf a815 a1bf dd2c e9bc
000002b0: 6183 e33f cad4 363e f12b cc3f 423a f1bf
000002c0: 8354 06bf c775 afbd 8589 5f3f 0f74 41bf
000002d0: 17b5 e1bf 3ab5 1c40 a908 9fbf 42fc 7fbf
000002e0: 75f5 713e 652a acbf b75d 46bf 15c0 9b3f
000002f0: 397b 18bf 4e7c 14bf ce1c 773f ffc9 5d3f
00000300: 1d3d 373e 1b2c 1ac0 7398 56c0 570d 2540
00000310: ad40 09c0 26aa 7c3e f290 4740 0762 3abf
00000320: 43c8 1f3f 75ec f43d 6b2e c83c e77e 8e3f
00000330: 8709 c83e e223 8cbf 660b c63f 271c a1be
00000340: 84a2 3bc0 9481 553e 9a3f 1d3f 6ebc 40bf
00000350: 6c34 163f 196b 4cbe c7cf 0040 baed 06bf
00000360: a778 37be c9d1 e0be 44b9 a63e c333 7a3f
00000370: f4ea 113f ec80 a63e 4b3c ffba 05ff 5fbe
00000380: 6173 b8be 979b 88be 92a9 6cbf 3ae7 dc3f
00000390: dc3b d93f a60b 253e 5fe3 c9bf eab1 fc3d
000003a0: f972 523e 7e5c 1c3f bf27 4b3f 214a ee3f
000003b0: fd3f 00be 9131 0a3e 2615 30be c454 a13f
000003c0: bb5c 0540 41f7 0b3f f4a5 463f b102 b1be
000003d0: fa8f 3f3f a5a6 38bf d4bb 2abf 4a99 d6bf
000003e0: 86e5 9dbe 1cae 1bc0 aaae 0440 165f 41bd
000003f0: f1cd 963d 1094 1e40 101d 0dbf 1d2d 08bf
0.54227185 -0.9212595 -1.8369913 1.3040164 -1.533167 0.02713068 1.2361333 0.5904598
0.26055616 0.4590461 0.27161047 1.7852077 0.13815239 1.5163167 1.4673363 0.03918556
-1.0833756 0.40386057 -0.088242486 -1.3674608 0.8493085 -0.42734593 1.4134735 -0.025023805
-0.8425181 -0.45403835 -0.6859163 1.4731802 -0.03216748 -0.4771494 -0.07178994 -1.0253881
-0.57853395 0.7145088 0.4296093 0.8267795 0.5271483 -0.48400214 0.12967321 -0.711447
0.7491335 -0.40452182 0.7125662 1.7229012 -1.1777997 0.41178617 -0.8464155 1.5166286
2.2565892 0.32226548 -0.3831365 0.89925855 1.7341753 0.048297085 -1.5863687 -0.77501726
0.46943364 -0.7323858 1.1364996 0.13816904 0.6708559 1.5045995 -1.222603 -0.7228678
-1.1964025 -1.6763854 -1.2687535 0.24651913 -2.0300756 0.4118873 1.4502945 0.12989634
0.053840682 -0.67743105 -0.69374055 -0.68839353 -1.118386 0.72378814 0.9079066 -0.07418932
-2.7881656 0.13545392 -0.1836522 0.4048908 1.686389 0.7338226 0.1752736 -0.88585216
-0.06883808 -0.34067798 -0.7632162 -0.7514627 -0.98833776 0.7425439 -0.26509166 -0.91888136
0.044115596 0.7349731 0.8670114 -0.1746149 0.076325655 -1.2414936 -0.2065304 -1.1716443
0.16750598 0.9227634 0.22521459 0.008229251 -0.92195493 -0.8727792 -0.10751883 1.7235035
0.32977852 0.033829432 -0.039797563 1.6624191 1.7643304 0.056387696 -0.58072716 0.48823947
-1.0866878 -0.32328522 2.527562 -0.48693785 0.13383697 -0.04631521 0.10059623 -1.3364153
-0.033793688 0.67358696 0.2991056 -0.45467913 -0.5224625 0.5294383 -1.0723754 -0.26955494
-1.3818728 -1.1932347 0.49142885 -1.2332252 0.51558554 0.8438851 0.18303847 0.2821395
0.8907958 0.65650535 1.4034468 0.2901137 -0.23951192 1.1176344 -2.0999343 -1.2147197
1.6948338 1.1924497 1.2577604 0.5519765 0.51516056 1.0581923 -0.24856028 2.0976958
1.9439255 -0.8716952 -1.2118547 0.6854012 0.7900612 0.9005085 -1.0129124 0.4091738
-0.4821228 -1.5036836 -1.2584734 -0.028463775 1.7774469 0.1785461 1.595091 -1.8845904
-0.52472705 -0.08567386 0.87319213 -0.75567716 -1.7633389 2.4485612 -1.2424518 -0.9999429
0.2362879 -1.3450438 -0.7748675 1.2167994 -0.5956302 -0.58002174 0.9652833 0.86636347
0.17894407 -2.408942 -3.3530548 2.5789392 -2.1445725 0.24674281 3.1182218 -0.7280583
0.6241495 0.11959163 0.024436196 1.1132478 0.3906977 -1.094845 1.5472229 -0.3146679
-2.9317942 0.20850211 0.61425173 -0.7528752 0.5867374 -0.1996273 2.0126817 -0.5270649
-0.17917119 -0.43910053 0.3256322 0.9773523 0.56999135 0.32520235 -0.0019472925 -0.21874626
-0.36025527 -0.26681206 -0.92446244 1.7258065 1.6971393 0.16117725 -1.5772513 0.12338622
0.20551671 0.6107863 0.7935752 1.8616372 -0.1252441 0.1349547 -0.17195567 1.2603993
2.0837848 0.54674155 0.77596974 -0.34572366 0.74829066 -0.7212928 -0.6669285 -1.676553
-0.30839175 -2.4325018 2.0731606 -0.04720982 0.07363499 2.477787 -0.5512247 -0.5319384

critic.v_net.fcs.1.bias f4 [64]
00000000: 1e50 72be 79e5 833f 3d9a 7f3f 8f2e d63e
00000010: 895e 9e3e 1034 70bf d6a1 943e 40b7 813f
00000020: ac72 a03f f97e d6be 5366 39bf fa9b 95bf
00000030: 30fc 34bf 7901 813f 93db a8bf 7ae4 783f
00000040: df51 813f 94da 8cbe c875 d13e b574 68bf
00000050: ee9e 3c3f e492 133f 7456 bb3e 295b d2be
00000060: 1766 54bf 09e1 623f fb0a edbe afdf 8c3d
00000070: cb20 82bf 5109 a8bf adc5 35bf 5843 a3be
00000080: 0e30 6e3f 4915 593f b251 ca3e ab27 51bf
00000090: 86b8 2e3e f1f3 bc3e edd6 bc3f b2f8 45bf
000000a0: 4453 13bf fd4b 103f 92eb b33f 7c18 4bbe
000000b0: 8d11 8c3e 8986 94bf 36d2 943f 4143 59bf
000000c0: cbce ac3e 4d92 2a3f 6e88 0fbf 3bfc 8dbf
000000d0: 3048 6ebd 0985 81bf 5bbb 333f a2f0 413f
000000e0: a355 81bf b07f 0a3e 3bb3 723f 52af 183f
000000f0: ddda 033f b681 77bf 505a 0e3e f1a0 65bf
-0.23663375 1.0304404 0.99844724 0.41832396 0.309315 -0.9382944 0.2902972 1.0134048
1.2534995 -0.41893747 -0.7242176 -1.1688225 -0.7069731 1.0078574 -1.3192009 0.9722363
1.010311 -0.27510512 0.40910172 -0.9080308 0.7368001 0.5764601 0.36589396 -0.41085175
-0.82968277 0.88624626 -0.4629744 0.06878602 -1.0166258 -1.3127843 -0.71004754 -0.31887317
0.93042076 0.84798104 0.39515454 -0.81701154 0.17062578 0.36904863 1.475309 -0.77332604
-0.5754893 0.5636595 1.4056265 -0.19833559 0.2735714 -1.1603557 1.1626651 -0.84868246
0.3375152 0.6662949 -0.5606755 -1.10926 -0.058174312 -1.0118724 0.70207757 0.757578
-1.0104259 0.13525271 0.94804734 0.5964252 0.51505834 -0.966823 0.13901639 -0.896987

critic.v_net.fcs.2.weight f4 [1, 64]
00000000: 67a3 563f f7b5 8f40 52d7 15c0 37c8 88bf
00000010: ed81 6b40 8e48 2440 79e6 35c0 8a81 cfbf
00000020: 0279 c640 dd15 cd3f c79e 773f adc3 3640
00000030: a6c2 3a40 3b61 d140 de52 a7c0 8379 ffbf
00000040: 7a32 e1bf 1f76 9240 2b4d febf 0589 0940
00000050: 1513 ecbf 0352 10c0 acc4 2ec0 5813 bac0
00000060: 6fb0 b63f 4b43 4dc0 2502 a1bf 1d00 873f
00000070: 40f1 4040 a627 ccc0 a98d af3f 4093 9740
00000080: 2a9a ed40 1a82 0fc0 af3d 21bf ea1e 82c0
00000090: 970b 9640 3c8d 85bf b297 cd40 c44e e13f
000000a0: 4c90 cb3f 0fd1 f4bf 52bf d740 ec8c 92c0
000000b0: ba90 5c40 98e5 1b40 f155 41c0 1832 253f
000000c0: a9c6 4ebd 95bc 81be 40ed 153f 2bf5 2d40
000000d0: 36a7 66c0 ab51 6640 2794 bbbf 13e2 8f40
000000e0: 5edd 4840 791d e9bf 151c 49c0 1dd2 a840
000000f0: d6b1 55c0 af25 3d40 8a4a 2640 460e ff3f
0.8384308 4.4909625 -2.341267 -1.0686101 3.679805 2.5669284 -2.842192 -1.6211407
6.2022715 1.6022297 0.9672665 2.855693 2.9181304 6.543119 -5.2288656 -1.9958957
-1.7593529 4.576919 -1.98673 2.148988 -1.8443323 -2.2550056 -2.730754 -5.8148613
1.4272593 -3.2072322 -1.257878 1.054691 3.0147247 -6.37984 1.3715106 4.736725
7.425069 -2.2423158 -0.62984747 -4.0662737 4.688915 -1.0433726 6.4247675 1.7602162
1.5903411 -1.91263 6.7421045 -4.5797024 3.4463334 2.4358883 -3.0208704 0.6452956
-0.050482426 -0.2533919 0.5856514 2.7180889 -3.6039557 3.5987346 -1.4654588 4.496347
3.1385112 -1.8212119 -3.142339 5.2756486 -3.3389792 2.955425 2.5982995 1.9926231

exp_avg f4 [64, 4]
00000000: 8ed8 3fba 40fb cbb8 5189 8cb8 9cc7 c139
00000010: c34a 1d3b 922e 67b5 402c 95ba cc69 c539
00000020: 7b8c ce38 28dc a0ba fba4 d338 9563 3c3b
00000030: ae30 0ebb e7d3 db3a e6bd 963a e2d3 093a
00000040: eb00 01ba 62d9 ceb9 c674 2237 52f8 433a
00000050: dc36 2bba 266b 2b3b 0799 a13a a1e6 5639
00000060: 63e4 9a3a 47c1 3839 2f57 a9b9 6ddf 5b3a
00000070: 16f3 e639 78ee ba3a 24c3 0bba 254e 71bb
00000080: 7424 043b e4e9 49bb d82e daba 2a0d 9039
00000090: 0f69 2eba 2f75 a93b a370 493a 59be b4bb
000000a0: df44 0439 5b36 0fbb 6dbf ac39 88cc ae3b
000000b0: 4f1e 23ba 2c0d a53a fc43 633a 6a97 4e3a
000000c0: 6994 573a b8dc 20bb df80 9839 6b58 e93b
000000d0: 8376 13ba a8d3 c33a c4ec 2238 3448 58bb
000000e0: 3271 9cba dab7 353b 050c b03a 2ca1 a03a
000000f0: 2835 e83a 745f 94ba 9a14 25ba ccb5 a3b8
00000100: 9fc2 c6ba 4888 133b 4d09 853a 6674 19bb
00000110: 91a4 a2ba a6a7 cf39 aacf bb39 6922 a53a
00000120: b2d0 58ba 1797 1b3a 0d98 aa39 4412 e8ba
00000130: 7a36 e23a 7637 e4ba c9e1 9fba ba88 c9b9
00000140: 4593 38ba 8a37 9c3a ef9f f239 4fad a2ba
00000150: 4147 063b f013 26bb 2eb9 a1ba f9ea 5ab9
00000160: 41e7 50ba 4a92 71bb dc82 6d3a d631 0c3c
00000170: 0fff 30bb b324 2a3b e70d b23a f5e9 5bbb
00000180: ceb0 95ba 3afe ad3a 3ac4 643a 4089 163a
00000190: 309c 39b9 402d b3bb bbfe 793a 2f25 453c
000001a0: 702b 08b8 56db 833a 1ab9 423a 9f5c 943a
000001b0: 54b4 143b 912d cfb8 484a 4cba 0f47 fb3a
000001c0: c611 a339 394d 8339 0334 bbb8 f424 8c39
000001d0: ba83 a0ba ca45 bf3a 21bc 573a 08ce aa38
000001e0: e20a 10bb ce2b fb39 bd52 803a 22ea 64ba
000001f0: 804d 25ba d5a9 d6ba 8b79 5db9 7567 8e3a
00000200: 18b7 2aba d997 3f3a 58e6 f839 e380 0fb7
00000210: 51e3 033b 03f4 15bb 8f2d b0ba 3782 0039
00000220: 06bd 073a 356e d339 5349 b1b6 55f4 f5ba
00000230: 513a 02ba 2c46 633b a28b 88ba 75cf 25bc
00000240: 79a0 873a 964b 8f3a 6130 46b9 4d59 c6b9
00000250: 13ff fa38 db20 933a 25fd 4a3a b023 b33a
00000260: 2076 033b 156b 08ba c5d9 08ba 0c7e 67b9
00000270: ac45 b4ba 2881 563a a649 163a c8db c239
00000280: 20d7 82b9 0b49 d0b9 ad6b 8ab9 f4dd c23a
00000290: 7a85 0cb9 dbd3 853b 13ea b1ba d604 44bc
000002a0: f805 3bbb 028b 0f3b ba8a be3a 1214 20ba
000002b0: 0d0a c639 cf60 343b a013 6a39 25b1 85bb
000002c0: baf5 12b8 af9a a23b db6d 3eba 6ea4 30bc
000002d0: 0a40 a8b9 8521 eaba 26bf 93b9 c0b2 3e3b
000002e0: dcd6 1c3b 21a4 32bb 03d8 e0ba 9d54 7539
000002f0: e1b5 5b3a 29b9 7eba 8659 37ba 404b 24b9
00000300: a237 35b9 e12c f6ba b7f4 adb8 7764 6d3b
00000310: 7ca3 1bba dfa9 893a 3b18 d638 b137 33bb
00000320: dcc3 23b8 cb4a 3ebb 718b 063a 42e5 dd3b
00000330: f705 1fbb 65c0 1b39 5e57 9439 7b98 f3b9
00000340: 680c 1839 4f9f 3dba abe3 fe39 1696 7c3b
00000350: 99c3 043a 3191 50ba cb03 69b8 ec02 203b
00000360: c41e 8d3a 6096 e6ba 27a2 d438 9a10 bc3b
00000370: 836e 6fba bfe0 33ba 7190 8e39 69db 593a
00000380: db73 ca39 a327 a9ba 344d 87b9 4a7c e03a
00000390: 8c51 e93a 4dc6 7cbb cf78 1fba e299 dc3b
000003a0: c8f8 51b8 8324 473a cbfc 8ab9 688e 29bb
000003b0: dded 3739 1f26 513a 21be 7a39 d5c3 bcb9
000003c0: 4ea1 d739 7f9a 72bb 29f5 683a b788 1e3c
000003d0: 4c64 98ba 03a7 123b d13d fbb8 cb67 c9bb
000003e0: 273a 08bb d9ee 5f3a 3d83 ba3a cd6a 04ba
000003f0: 3836 4e38 dc60 efb9 83ae d7b9 a209 88ba
-0.0007318341 -9.726593e-05 -6.7012974e-05 0.0003696055 0.002400086 -8.6121975e-07 -0.0011380985 0.00037653593
9.849012e-05 -0.0012272643 0.00010091994 0.002874588 -0.0021696496 0.0016771526 0.0011500686 0.0005257708
-0.0004921096 -0.00039453345 9.683141e-06 0.0007475662 -0.0006531307 0.0026156395 0.0012328931 0.00020494546
0.0011817332 0.00017619609 -0.0003229915 0.000838748 0.00044050132 0.0014261743 -0.00053315074 -0.003682026
0.002016333 -0.0030809576 -0.0016646041 0.00027475628 -0.0006653228 0.00517144 0.00076843257 -0.0055158553
0.00012614157 -0.0021852467 0.0003294902 0.0053344406 -0.0006222473 0.0012592427 0.0008669493 0.0007880839
0.0008223714 -0.002454562 0.00029087716 0.007121136 -0.00056252646 0.0014940398 3.8844315e-05 -0.003300202
-0.001193559 0.0027727992 0.0013431316 0.0012255064 0.0017716037 -0.0011319951 -0.00062973204 -7.806308e-05
-0.0015164203 0.002251165 0.0010149867 -0.0023415326 -0.0012408664 0.00039607025 0.0003582214 0.0012598756
-0.0008270844 0.0005935295 0.00032538213 -0.0017705639 0.0017258667 -0.0017411548 -0.0012198027 -0.00038439577
-0.0007040988 0.0011918407 0.00046276997 -0.0012411269 0.0020489248 -0.0025341474 -0.0012338513 -0.00020877634
-0.000796903 -0.0036860877 0.0009060332 0.008556804 -0.0027007496 0.0025961816 0.0013584465 -0.0033556197
-0.001142049 0.0013274618 0.000872675 0.0005742498 -0.00017701159 -0.0054680407 0.0009536554 0.012032791
-3.246538e-05 0.0010059874 0.0007428095 0.0011319107 0.0022690492 -9.8790166e-05 -0.0007793051 0.0019170957
0.00031103025 0.00025043802 -8.926543e-05 0.00026730413 -0.0012246289 0.0014592942 0.00082296325 8.144608e-05
-0.0021979143 0.00047907088 0.0009790283 -0.0008732398 -0.0006305799 -0.0016377518 -0.0002112148 0.0010864573
-0.00065122684 0.0007308699 0.00047473866 -8.553473e-06 0.0020124505 -0.0022881038 -0.0013441312 0.0001225554
0.0005178008 0.00040327167 -5.283547e-06 -0.0018764833 -0.0004967796 0.0034679277 -0.001041759 -0.010120262
0.0010347507 0.001093256 -0.00018900774 -0.00037832037 0.0001196844 0.0011225002 0.000774341 0.0013667252
0.0020059422 -0.0005203945 -0.00052204385 -0.00022076833 -0.0013753674 0.0008182698 0.00057330204 0.00037166313
-0.00024955813 -0.00039727273 -0.00026401636 0.0014867173 -0.00013401164 0.004084093 -0.0013573788 -0.011964044
-0.0028537493 0.0021902923 0.0014537193 -0.00061065063 0.0003777299 0.0027523523 0.0002232329 -0.004079955
-3.5037963e-05 0.0049622874 -0.00072642945 -0.010781391 -0.0003209117 -0.0017862773 -0.00028180442 0.0029098243
0.0023931777 -0.0027258473 -0.001715422 0.00023396542 0.0008381289 -0.0009716922 -0.0006994236 -0.00015668292
-0.0001728223 -0.0018781686 -8.2948645e-05 0.0036223212 -0.0005937142 0.0010502896 0.000102088285 -0.0027346427
-3.9044637e-05 -0.002903628 0.0005132473 0.0067717144 -0.002426503 0.00014853624 0.00028293853 -0.0004646218
0.00014500471 -0.00072335167 0.0004861628 0.0038541607 0.0005064547 -0.00079562055 -5.555506e-05 0.0024415804
0.0010766615 -0.0017592423 0.00010139151 0.0057392837 -0.0009133594 -0.0006861798 0.00027191968 0.0008310588
0.0003861476 -0.001290549 -0.00025806727 0.0017126885 0.0017800792 -0.0038570345 -0.00060833705 0.0067322114
-5.006118e-05 0.0007596688 -0.00026509757 -0.0025872234 0.00017540851 0.0007978398 0.00023912686 -0.0003600406
0.00041128177 -0.0037018356 0.00088866294 0.00967615 -0.001162657 0.0022377379 -0.00011980127 -0.0061464063
-0.0020786615 0.0008542366 0.0014229786 -0.0005051315 4.9164722e-05 -0.00045657798 -0.00041138017 -0.0010378847

exp_avg_sq f4 [64, 4]
00000000: 9162 9338 9cc5 4239 8978 9a36 054d 9139
00000010: 2d1b 7b39 80b3 423a b891 4438 3cc0 6a3a
00000020: 2b33 be37 93e7 1039 467e 9236 6259 af39
00000030: 80bf b939 1996 ae3a ee11 ee38 f209 ae3a
00000040: e755 c837 54c6 b938 f8a3 7936 211a 1839
00000050: 4872 c637 a32d cf38 afc1 2f37 20d6 1439
00000060: 5474 1b38 16c2 f638 555a 0437 8a95 0c39
00000070: 590b 5e37 1bc6 c338 ee38 c936 4eab 8239
00000080: a271 9139 0ddb 8a3a 29b1 b538 ccf5 9b3a
00000090: 84a5 5239 e980 663a eb37 5238 5bdd eb3a
000000a0: 9dce 8638 099f b139 b942 6b37 2690 603a
000000b0: b8e2 7737 de24 7438 2412 e636 fe69 fa38
000000c0: 3293 e538 190f 1d3a 1fdb e737 9cfa c13a
000000d0: 34bc 6638 c8d6 7639 983a 2937 88a8 ff39
000000e0: baab b039 0a9b 743a 5115 5b38 92a6 7f3a
000000f0: 2bbe 5c39 d41e 603a c7a3 a238 c710 733a
00000100: 95f9 0a39 01ce f739 6d7e d537 56ff 463a
00000110: 65e8 0b39 6c8e 123a 35ff 4538 d17d 183a
00000120: 1978 0738 87fa 2239 f703 9c36 9d7a 9839
00000130: cee7 9339 94a6 673a a05d 8238 20db 6b3a
00000140: 9b51 b737 fcf1 f938 0bbc c736 0d0a 4a39
00000150: 3f46 db39 34b0 c53a 1c1c 0739 a85d c33a
00000160: 2063 6338 8dcf c139 fae6 de37 32b5 943a
00000170: 41ee 6e39 dbe8 733a 826f 6438 f12c d13a
00000180: 9b95 8138 2c1c 5c39 331a a537 3aa5 a139
00000190: 1323 2839 534f 823a 0064 8138 d1f6 3b3b
000001a0: fec8 8736 56f9 c737 a162 5c36 fbd5 8d38
000001b0: e0fe 4a39 0303 193a 5935 d637 cfd2 753a
000001c0: 1323 3637 e6e0 6538 d28e 5e36 8bd4 7a38
000001d0: 8cfd bc38 9c74 da39 2f3c 2438 9ce3 eb39
000001e0: a4f2 7d39 edb9 373a 64ed 3038 b481 553a
000001f0: e2a3 8137 142b b238 4827 3836 ddcc 1c39
00000200: 64ba 3938 76d8 1539 cd52 2437 4ae5 0c39
00000210: 8ca7 8239 8d04 5a3a 3adf 7238 69e8 733a
00000220: 7793 9a38 32b2 af39 0bb5 9c37 7758 ea39
00000230: 0523 3b39 1c62 833a 5926 7f38 6653 363b
00000240: 0d05 4638 4c22 0d39 afae ba36 5b1b 4839
00000250: 11ac c736 01ae 0b38 5960 9136 030d b938
00000260: af2f 5b39 1bed 263a 78ae 5038 530a 5b3a
00000270: 0711 3e39 c3a1 ed39 031b 8937 4df0 0b3a
00000280: 6c64 4338 7098 6739 e70a 3e37 f48c af39
00000290: 51f2 4139 45c5 973a 04a8 9a38 7210 5c3b
000002a0: 037b dc39 b4fa bc3a 9b3d f538 2fae c83a
000002b0: d282 0a38 4c95 8039 d261 3037 84d3 223a
000002c0: 07eb 3d39 4861 8c3a a2a3 5838 c41d 3c3b
000002d0: bf4e d437 4045 3639 38b5 ec36 a545 cd39
000002e0: cb2a 8539 537e 5b3a 15bf 9b38 7d2d 8e3a
000002f0: 272d 7238 15a6 3c39 5ed5 3d37 2318 3539
00000300: c4b3 d237 f783 4839 480b 0737 34f1 ee39
00000310: c834 ba37 5f3c fa38 a07f 8d36 dd3a 8239
00000320: 94d6 5938 9731 ad39 06ad 8f37 075c 6a3a
00000330: 93e3 9339 4e31 9a3a c443 e538 1645 a13a
00000340: f682 7637 db3d bb38 3907 ba36 1a64 7d39
00000350: 458f 2038 d8dc 1739 6948 9936 ce19 9939
00000360: db1d dc38 bfe9 f639 0480 c037 7b08 8a3a
00000370: 7baa b138 4e66 8839 7622 7437 e480 a739
00000380: c789 1737 865c 8538 ff48 5936 5517 1639
00000390: ed4c 9839 8656 a23a 4bae 9138 447c 1b3b
000003a0: c368 c037 b16e aa38 513b 7e36 1b02 5239
000003b0: fe38 7438 bdcd 4139 a9bd 0e37 2090 7539
000003c0: fcef 2239 c6f0 703a bf5c 5938 08d7 253b
000003d0: 48e5 2739 01c9 323a b026 1f38 c645 c33a
000003e0: d1cc 2039 8c0c f539 aae8 ca37 24f0 1b3a
000003f0: 8dc9 0236 8e75 5d37 66e7 c735 1f32 1038
7.027866e-05 0.00018574897 4.60359e-06 0.0002771394 0.00023947349 0.000742726 4.6865753e-05 0.0008955037
2.2673592e-05 0.00013819178 4.3658392e-06 0.00033445196 0.00035428628 0.0013319879 0.00011352064 0.001327811
2.388186e-05 8.858429e-05 3.7199334e-06 0.00014505583 2.3656656e-05 9.87903e-05 1.0475908e-05 0.00014194148
3.706322e-05 0.000117663454 7.888845e-06 0.00013407148 1.3234873e-05 9.3352246e-05 5.9968943e-06 0.00024923164
0.00027741218 0.0010593847 8.663751e-05 0.0011898815 0.0002008882 0.0008793013 5.011998e-05 0.0017995046
6.428103e-05 0.0003387856 1.4022627e-05 0.00085664017 1.4775134e-05 5.820847e-05 6.856646e-06 0.000119406715
0.00010946988 0.00059913244 2.7639382e-05 0.0014799419 5.501155e-05 0.000235404 1.0086827e-05 0.00048762956
0.00033697282 0.0009330964 5.223352e-05 0.0009752299 0.00021051678 0.00085495156 7.755268e-05 0.00092722144
0.00013253682 0.00047264996 2.545045e-05 0.00075911486 0.00013342647 0.00055906805 4.720614e-05 0.0005817088
3.2298358e-05 0.00015542853 4.649624e-06 0.00029083053 0.00028210733 0.0008836773 6.216322e-05 0.0008997191
2.18533e-05 0.00011918318 5.9525532e-06 0.00019267965 0.00041823272 0.001508242 0.00012885075 0.0014905231
5.4213335e-05 0.00036966466 2.657202e-05 0.0011345504 0.00022786205 0.00093044125 5.4463286e-05 0.0015958828
6.1790655e-05 0.0002099133 1.9681733e-05 0.00030831416 0.00016034795 0.0009941853 6.169826e-05 0.002868105
4.046712e-06 2.3838755e-05 3.2839964e-06 6.763261e-05 0.0001935917 0.00058369356 2.553563e-05 0.0009377421
1.0856212e-05 5.4807308e-05 3.316371e-06 5.980259e-05 9.011765e-05 0.0004166708 3.9156697e-05 0.00044992275
0.00024218351 0.0007008601 4.2182757e-05 0.00081446324 1.5454312e-05 8.495725e-05 2.7441001e-06 0.00014953637
4.4281027e-05 0.00014290385 9.79444e-06 0.00013436857 0.00024920364 0.0008316718 5.7905192e-05 0.0009304346
7.37076e-05 0.00033511367 1.8680954e-05 0.0004469787 0.00017846756 0.0010023746 6.083245e-05 0.0027820705
4.7211583e-05 0.00013459584 5.563568e-06 0.00019083677 5.9506933e-06 3.3302236e-05 4.332553e-06 8.823911e-05
0.00020903231 0.0006367729 4.975355e-05 0.00083557254 0.00018126155 0.00045324684 1.6344251e-05 0.0005338237
4.6585148e-05 0.00022086664 1.1327421e-05 0.0003348362 0.00018496184 0.0011579177 7.3745876e-05 0.0033579138
0.0004205332 0.0014417977 0.00011693985 0.00153107 3.30236e-05 0.00024525297 1.0513193e-05 0.0006211328
0.00018111999 0.0010710144 5.1650808e-05 0.0028704265 2.5309038e-05 0.0001738267 7.0544447e-06 0.00039152536
0.0002539962 0.0008373011 7.426568e-05 0.0010847297 5.7739348e-05 0.00017990948 1.1314956e-05 0.00017270497
2.511766e-05 0.00019122647 8.049254e-06 0.00045574608 2.2197506e-05 0.00011932174 4.216985e-06 0.0002483939
5.1936673e-05 0.0003303408 1.7127499e-05 0.0008940105 0.0002820758 0.0011763962 0.00010932193 0.0012303914
1.4693234e-05 8.928376e-05 5.544073e-06 0.00024165251 3.8280403e-05 0.00014482753 4.568185e-06 0.0002920166
0.000104959785 0.0004709493 2.2947796e-05 0.0010531092 8.471772e-05 0.00026016164 1.4551557e-05 0.00031948753
9.03238e-06 6.359168e-05 3.237801e-06 0.00014313807 0.00029049013 0.0012385405 6.9466034e-05 0.002372519
2.2936967e-05 8.1268496e-05 3.7883476e-06 0.00020027945 5.822721e-05 0.00018482558 8.508018e-06 0.00023418711
0.00015538925 0.00091911515 5.182321e-05 0.002530517 0.00016011775 0.0006820113 3.7944585e-05 0.0014898113
0.00015335089 0.0004673939 2.418862e-05 0.00059485645 1.9488828e-06 1.3199997e-05 1.4894001e-06 3.4378954e-05

exp_avg f4 [64]
00000000: 1583 033c 44ba 8bbb 8564 893b a1de 2a3c
00000010: 477c 923b 49a9 8238 e9ac 70b8 7c14 acbb
00000020: 8408 f6bb d0dd b1bb 6a5c d33b 6937 443b
00000030: b058 093c 0af4 90bb 738c 253c 4124 21bc
00000040: 9b19 0ebb 19a2 0e3c cdd3 2ebb 1f73 e1bb
00000050: c034 a9ba cfd6 28bc 035b 443c 6539 d6ba
00000060: 92ff c43b 5f3e 5a3c c71e 8e39 3ebb 0dbb
00000070: e597 193b 3552 be3b 0ec3 933b 4308 9a3b
00000080: 4315 443b f65c 00bc 0433 0bbc 7ed1 19bc
00000090: c568 86bb b69b 40b7 6137 28bc cfc7 143c
000000a0: 7c06 e93b 10f5 4cbc f022 1e3c 2410 02bc
000000b0: cc8d 43bc e189 d03b 84c3 0bbc f215 70bb
000000c0: c9a2 d13b 6479 4bbb 210a e53b 4a59 313c
000000d0: cef9 9c3b 8243 e63a 370f cd3b 2490 b93b
000000e0: fae3 303b ad18 933b 76ae 39bb c341 a9bb
000000f0: c138 173c 0ead 92bb 3116 1aba 66e3 90ba
0.008026858 -0.004264148 0.004192891 0.010429055 0.0044703814 6.230415e-05 -5.7381494e-05 -0.0052514654
-0.0075083394 -0.0054280534 0.0064502256 0.0029940254 0.008382961 -0.004423623 0.0101042865 -0.009835304
-0.0021682743 0.008705639 -0.0026676536 -0.0068801786 -0.0012909397 -0.010305121 0.0119845895 -0.0016344009
0.0060119117 0.0133205345 0.00027107281 -0.0021626498 0.0023436483 0.0058081397 0.0045093363 0.004700692
0.00299199 -0.007834664 -0.00849605 -0.009388326 -0.004101845 -1.1480346e-05 -0.01026711 0.009080841
0.0071113687 -0.012509599 0.009651884 -0.007938419 -0.0119356625 0.0063640927 -0.008530501 -0.0036634174
0.0063975793 -0.0031047696 0.006989733 0.010824511 0.004790521 0.0017567726 0.0062579173 0.005662935
0.0026991353 0.0044890256 -0.0028332747 -0.00516531 0.00922984 -0.004476196 -0.00058779406 -0.0011054098

exp_avg_sq f4 [64]
00000000: e9f4 223b 2e60 4a3c 5cb8 293b fc14 583c
00000010: e3ef 933a 7851 d13a 131d da3a 3017 903a
00000020: 27c8 603c 11d0 823c f355 d93b 50a2 743a
00000030: 7adf 343c ff48 903b 7190 423c c4aa 113c
00000040: 1ced 143c e96f 953b d0b3 3c3b 4863 303c
00000050: 44ac ed3a c686 743c 4dde c23b 929e 863c
00000060: a18a 4e3b 7cc0 913c e07b 3a39 2cd8 563c
00000070: da60 d239 0053 8d3b b381 383c 03d9 453a
00000080: 6fd6 d73a c7de 2f3c 4052 383b 132e 9b3c
00000090: a6db 1d3b 1e61 9e39 f0cd 153c 515b d13b
000000a0: 402a 053b 312c b03c e75a 863c 25e9 7f3b
000000b0: ba40 a63c 3c7d 1f3b b230 4d3c caf3 143b
000000c0: f3ac 323b 3dd9 073b 1cf4 b13b ee9a 3e3c
000000d0: 80db b83a 46da 3c3b 5b57 183c be2d 673b
000000e0: 16a7 783a 8977 c53c 5dad e63a 47d1 013b
000000f0: e5f7 933c 6e96 5a3c 95cb 0a3c 72af 4c39
0.0024865216 0.012352033 0.002589724 0.013188597 0.0011286702 0.0015969714 0.0016640745 0.0010993239
0.013719595 0.015968354 0.0066325604 0.0009332048 0.011039609 0.004403233 0.011875258 0.008890811
0.009089734 0.00456046 0.00287937 0.010765858 0.0018133004 0.014924711 0.0059469105 0.016433034
0.0031515735 0.017791979 0.0001778449 0.013113063 0.0004012648 0.004312873 0.011261391 0.0007547291
0.0016467104 0.010734267 0.0028125197 0.018942868 0.002408722 0.00030208466 0.009143338 0.0063890596
0.0020319372 0.021505447 0.016400767 0.0039048877 0.020294536 0.002433612 0.012523817 0.0022728317
0.002726373 0.002072885 0.0054307114 0.011633618 0.0014103502 0.0028816625 0.009298171 0.0035275067
0.0009485347 0.02410485 0.0017599274 0.0019808577 0.018062541 0.013341529 0.008471389 0.00019520315
